Baseline-models/DAGMM/DAGMM-CHD/no--dagmm/models/10_194_dagmm.pth (torch, 82200 bytes, 22 tensors)

phi f4 [4]
00000000: e96d 683e 3350 283e 41a8 ef3e 63f1 0f3e
0.22698177 0.16436844 0.46808055 0.14056925

mu f4 [4, 3]
00000000: 255d 0f3e 3788 a13f 8d15 18be aba3 333e
00000010: be46 9e3f acf3 dabd caba 443d a5ee a93f
00000020: 9056 83be 233f 4e3e cce1 9b3f cd3f 9cbd
0.14000376 1.2619694 -0.14851971 0.17542903 1.2365339 -0.10691008 0.0480297 1.3275954
-0.2565198 0.20141272 1.2178283 -0.076293565

cov f4 [4, 3, 3]
00000000: e62a 883e 39a4 42be dff3 9f3e 39a4 42be
00000010: 383c 0b3e 31b2 64be dff3 9f3e 31b2 64be
00000020: 15e8 bb3e 2b84 8f3e 0a13 4dbe 8f8d a83e
00000030: 0a13 4dbe dd9b 123e 56e4 70be 8f8d a83e
00000040: 56e4 70be e9f7 c53e bf3a 5f3e 7975 1fbe
00000050: 2c17 833e 7975 1fbe 9e0c e43d 0856 3bbe
00000060: 2c17 833e 0856 3bbe 48fa 993e 6f10 943e
00000070: d284 53be b0e2 ad3e d284 53be 6f2a 173e
00000080: 8071 78be afe2 ad3e 8071 78be 5638 cc3e
0.2659523 -0.19007958 0.31240746 -0.19007958 0.1359719 -0.223336 0.31240746 -0.223336
0.36700502 0.28030524 -0.20026794 0.329205 -0.20026794 0.1431727 -0.23524603 0.329205
-0.23524603 0.38665703 0.21799754 -0.15572156 0.25603616 -0.15572156 0.11135219 -0.18294537
0.25603616 -0.18294537 0.30073762 0.28918788 -0.20656136 0.3396201 -0.20656136 0.14762281
-0.24262047 0.33962008 -0.24262047 0.3988673

encoder.0.weight f4 [60, 118]
00000000: a4aa ccbc 77c4 ac3d 2e4e a73c 8dd8 9dbb
00000010: a36a a63d 22f1 09bd ee57 f53c eab3 573d
00000020: 1cba 8abd c1f8 7f3d e4a0 053d 0ab1 323c
00000030: 3db2 283d 4b80 353d 7ec8 81bd f8d9 38bd
00000040: f88b 963d 2be8 43bd a25b e4bc fe03 9bbd
00000050: 3166 c6bc 97aa f9bc 1ba4 023d e005 6bbd
00000060: e1c0 b13d 7629 753d f09f af3d 956f 06bd
00000070: 960f 34bd e01c bfbd 3e79 b6bd e9af a4bc
00000080: d9c0 633d d4a7 053d 358e 35bd 8ef2 543d
00000090: 2e2d c0bc f3d2 66bd 3f0b 86bc b56b 76bd
000000a0: da5b 363d 7ab9 0d3d 38b1 d53c f2fb adbb
000000b0: aef2 0ebd a2a4 063c 8556 a0bd e629 15bd
000000c0: 908e 1dbd 26d3 9bbd 0e5c 23bd 1117 bebc
000000d0: df09 c5bc e531 58bc 34ad 0a3b 7536 b4bd
000000e0: 360f 2abd 1824 55bc bef5 aebb dfbe 9abc
000000f0: c0da cbbb 2043 1ebd 70a4 a53d 9272 193d
00000100: 7956 9c3d 7fde 9b3d fbba 863d 0ee8 91bd
00000110: 720b 283d c39e 903d 030a c03d a886 0a3d
00000120: 910d 7e3d 668e 69bd c454 183d e2e0 a5bd
00000130: 6fb0 1cbd f920 89bc c1e8 a1bd 945e f3bb
00000140: 91c6 f8bc 4628 f83c c3ef 45bd 2670 763b
00000150: 712d 843d 702f e4bb 5410 9dbd 3048 203d
00000160: e988 bebd 303b 9d3d ca9e 093c 1abd 4a3c
00000170: b1ed 91bd 3ebd bd3c fb2f 0b3d c747 a03d
00000180: a83e 033d 0048 1739 f692 833d 4876 3ebd
00000190: a2b6 7e3d cc4f 783d 06ce 4cbd 3ca9 f9bc
000001a0: 81c8 ccb9 f70f 3b3d 7efa 20bb e854 8fbd
000001b0: 00f3 583d 960d e73c f317 33bd 350e 773c
000001c0: c878 bebc 3b60 96bd 8620 8f3d a5e5 87bc
000001d0: f852 5c3d cc04 13bc 0349 f7bc 4de9 7a3d
000001e0: 4e0e b33d 45fc 2fbc 4eb1 37bc 044f 86bd
000001f0: c534 84bd 3c23 0e3d 3b52 8fbb ef03 533d
00000200: d2b8 343d 0699 0d3d feb6 80bc ecc2 0a3d
00000210: c89e c7bc 0b8c 0dbd e333 203d c655 c6bc
00000220: 3bd7 323d 5baf f5bc def0 253d b9f6 943d
00000230: 41e5 8d3c 1e8e 31bd 2eec b73c 0b9e 6abd
00000240: 8854 5abd e3dc dabd d10f 953d 1ac1 a5bd
00000250: cca9 563c 6ed9 b53b f2cc 9f3d cd81 5e3c
00000260: 271d 903c cb6d 80bd c904 143d 0737 a63d
00000270: d6b2 8ebd 0d03 acbc fe44 b4bd f7b4 eb3b
00000280: a402 e03c 9e8a 0abd 4e8a 96bc c999 0bbd
00000290: cf93 a1bc 1dc5 183d b6ae be3d 3fb8 b63d
000002a0: 35d8 16bd 714b 003c af0f 91bd 14a5 833d
000002b0: cfa6 91bd e774 fd3c 112a 9bbc 7878 5e3d
000002c0: b4d4 993d 6d30 68bc e3cf b53d 36a5 debc
000002d0: 2739 703d 80ec aa3c 4487 9b3d 8ff9 463d
000002e0: 841b 1cbc ae70 5d3c a21d 7c3b 4d71 53bd
000002f0: 7f18 cabc c03a edbc b9b2 6a3d 23c1 4d3d
00000300: 586f 8d3d 71c1 14bd 3fbe 86bc c319 953d
00000310: f1ad f33c 017e 9839 17d7 64bb 9c58 cb3c
00000320: f34f 8ebd 4182 79bd 8d28 9cbd d626 383d
00000330: 5766 bbbb 1145 00be a4fa 89bb 58b7 eabc
00000340: f494 763d c2bb 393b e696 a9bd 2cb2 8d3d
00000350: 41e4 0abd e225 2bbd 73d4 52bd 7c96 7dbd
00000360: c831 cfbc d20d a7bd d785 68bc 07a7 5abd
00000370: 3e68 e73d 07df abbc a129 bb3d 5ace 33bd
00000380: 20e6 a73b 44e3 de3c 14a8 87bc 65a0 cdbd
00000390: 3568 9fbc 957e 063d d921 07bd 84a5 5b3b
000003a0: ab40 483c 6766 c43d e21c 24bd d128 8ebc
000003b0: da6e 16bc 775c 65bd e56c 843c 1a7b 32bd
000003c0: 27f8 2d3d f8be bfbd 25df b8bd 0a54 273d
000003d0: a01c 8f3d 282a 24bc 32ca 983b 7d92 543b
000003e0: 3ddb 993d 70bb 2b3d 10f3 063c 143f 683d
000003f0: 6edd fc3c b9c8 003c a17b e33b 50e7 9e3d
-0.024983712 0.0843591 0.020423021 -0.0048170746 0.08125808 -0.033677228 0.029949155 0.052661814
-0.06773779 0.06249309 0.03262414 0.010906467 0.041185606 0.044311803 -0.06337069 -0.045129746
0.07350916 -0.047828835 -0.027875725 -0.07569121 -0.02421865 -0.030476851 0.031894784 -0.05737865
0.08679367 0.059853993 0.085754275 -0.032821257 -0.043960176 -0.09331679 -0.08909844 -0.020103412
0.055603836 0.032630756 -0.044325072 0.05198913 -0.023459043 -0.05635352 -0.016362784 -0.06016131
0.04452119 0.034600712 0.026085481 -0.0053095752 -0.034899406 0.008217962 -0.07829002 -0.03641691
-0.038466036 -0.07608633 -0.039882712 -0.023204358 -0.024052558 -0.0131954895 0.0021160366 -0.08799449
-0.041518413 -0.013009094 -0.0053393533 -0.018889843 -0.0062211454 -0.038638234 0.080880046 0.03746278
0.07633681 0.07610797 0.065786324 -0.07124339 0.04102654 0.070615314 0.093769096 0.033819824
0.062024657 -0.057020567 0.037190214 -0.080995336 -0.038254198 -0.016739355 -0.079057224 -0.007427046
-0.030368121 0.030292641 -0.048324358 0.0037603467 0.0645398 -0.006963663 -0.0766913 0.039131343
-0.09303457 0.07677305 0.008399675 0.012374187 -0.07125414 0.023161527 0.033981305 0.078261904
0.032042176 0.00014427304 0.06424515 -0.04649952 0.06218589 0.060622975 -0.050001167 -0.030476205
-0.000390593 0.045669522 -0.0024563367 -0.069986165 0.052966118 0.02820472 -0.04372401 0.015079071
-0.023250952 -0.07342573 0.06988625 -0.016588995 0.053790063 -0.008973312 -0.030186182 0.06125765
0.08742963 -0.010741298 -0.011211706 -0.0655804 -0.064553775 0.03470157 -0.0043738163 0.051517423
0.04412157 0.034569763 -0.015712257 0.0338773 -0.024367705 -0.034557384 0.039111983 -0.024210822
0.04366229 -0.029990843 0.040512912 0.07273621 0.01732123 -0.043348424 0.022451486 -0.057279628
-0.05330327 -0.10686662 0.07278407 -0.08093472 0.013102006 0.0055496013 0.07802762 0.013580752
0.017592026 -0.06270941 0.036137376 0.081159644 -0.06967704 -0.020997548 -0.08802222 0.0071932035
0.02734501 -0.033823602 -0.018376496 -0.034082208 -0.019723801 0.037297357 0.09310667 0.08921861
-0.036827285 0.007830487 -0.070830695 0.064279705 -0.07111894 0.030939532 -0.018940957 0.054314107
0.07511273 -0.014171702 0.08877542 -0.027178388 0.058648255 0.020864725 0.07594159 0.04857784
-0.009528045 0.013515634 0.003846981 -0.051621724 -0.024669884 -0.028958678 0.05729935 0.050233018
0.06906003 -0.036317293 -0.016448138 0.07280304 0.029746028 0.0002908558 -0.0034918243 0.024822526
-0.06948843 -0.060915235 -0.07624922 0.04495891 -0.005718987 -0.12526347 -0.004210787 -0.028651878
0.060200647 0.0028340672 -0.08280735 0.06918749 -0.033909086 -0.041784175 -0.05147214 -0.06191109
-0.025292292 -0.08156933 -0.014192066 -0.053381946 0.112991795 -0.020980371 0.091387995 -0.043897964
0.0051238686 0.027207978 -0.016559638 -0.100403585 -0.01945887 0.03283556 -0.032991264 0.0033515403
0.012222449 0.09589844 -0.040066607 -0.017353447 -0.0091817025 -0.055996384 0.016165206 -0.04357443
0.042472985 -0.09362596 -0.090269364 0.04085163 0.06987882 -0.010019816 0.0046627754 0.0032435947
0.075125195 0.0419268 0.008236662 0.05670078 0.030867305 0.007860356 0.006942228 0.07758963

encoder.0.bias f4 [60]
00000000: 0efb d83c e591 a73d 91e3 b43a 127d 283d
00000010: 1091 82bd 3034 093d 04c1 c4bd 3ad2 e0bc
00000020: 5270 723d 2368 963d 839d c7bb 9279 15bd
00000030: ad53 3dbd f10e 7c3d c0c8 03bd b2a0 94bd
00000040: 2ffa 61bc 1275 8c3d 444c 54bd 6468 f23d
00000050: 7ca2 0ebb c9a7 583d c228 edbd 2d34 36bc
00000060: 905f 063d 964e 713c 66cc 2e3d cb21 0bbd
00000070: 7dc8 b0bc d72f ac3d 8e46 383d 33ac 8fbc
00000080: 0ddb 8c3d 79b9 93bd fe26 ab3c c78d a6bd
00000090: 893c 9a3d 6414 f33d 07ca 6cbd fe16 1f3b
000000a0: f6cb 5fbd d312 c2bc a035 c33c 5137 9dbc
000000b0: f937 2abd 8f49 f2bc ac57 1a3d e000 0dbd
000000c0: 9f42 2cbd 60f7 9bbc 936a 1bbd bde7 33bd
000000d0: e5c3 9bbd d607 27bd af83 51bc 264b adbb
000000e0: fb95 0a3d d980 8e3b 248e e1bc f514 813d
0.0264869 0.08182124 0.001380073 0.0411349 -0.06375325 0.033497036 -0.09607127 -0.027443994
0.05918915 0.07344081 -0.006091775 -0.03649289 -0.046222378 0.061537687 -0.032173872 -0.07257213
-0.013792559 0.06858267 -0.051830545 0.11836317 -0.0021764329 0.052894387 -0.115800396 -0.011120838
0.03280598 0.014728209 0.0426754 -0.033967774 -0.021579975 0.08407562 0.04498916 -0.017538166
0.06877718 -0.072131105 0.020892616 -0.08132511 0.075310774 0.118691236 -0.057809856 0.002427518
-0.05463787 -0.023690617 0.023829281 -0.019191416 -0.041557286 -0.029576091 0.037681267 -0.034424663
-0.042055722 -0.019038856 -0.037943434 -0.043922175 -0.07605723 -0.040778957 -0.0127877435 -0.0052884994
0.03383444 0.004348856 -0.027533598 0.06302825

encoder.2.weight f4 [30, 60]
00000000: d107 ffbd 6e57 d93d 5b88 6cbd 0b98 a5bc
00000010: 8ccf ccbd 428f 6e3d 7be1 9abd 68ff b63d
00000020: 5228 b73d ce4e 51bd 0b60 843d bba6 3fbc
00000030: 60d9 ebbd 4a85 aabd 8a6a ea3d d12f 383d
00000040: fe26 8cbb 41a7 19bd 6eef e13d 2cca 00bd
00000050: 28dc df3d 711f eabd b797 e2bd 0068 dc3c
00000060: ae2f c93d 923b 3a3d baf3 06bc b46e a83c
00000070: 392e ec3d c7f7 05be e5b8 353c 98ef 97bd
00000080: 125a 8d3c 8c02 53ba 0dc7 08bd 66d0 913c
00000090: 39e8 993d f4c7 e93a de4c 4b3c 5b83 863d
000000a0: 290c 0c3e 0390 96bd 3511 bebd 8273 ebbd
000000b0: 9103 f4bd eb2f 82bc 7947 57bd 24dd f1bd
000000c0: d582 83bd 8b91 de3c b0b0 d23d 746b fe3d
000000d0: b8d1 963d fc9e 2cbd 941c 703c d4b5 5f3c
000000e0: 1ff1 cabd d7ca 0c3e ca85 fbbd a7ef e03d
000000f0: 5b62 bcbd aa00 143c f05f d53d 7dd6 83bd
00000100: 9efc ce3d ad1a a3bd 2a19 973d 4f29 f63d
00000110: 2f42 dc3d 83db 6a3d f1fa 143d 5078 ef3d
00000120: 25f4 203d e7b9 58bd a815 443d 0be0 d4bd
00000130: 1706 92bd c1e7 743c 5b43 1a3d b62a 38bd
00000140: 29b0 d9bd 1bd4 063d 7963 e83b 0602 3fbc
00000150: 2bb8 f2bb 9483 0a3d 7ef8 b53d 940e fd3d
00000160: 0e3c 843d 24a8 28bd d6bd c83c f860 debd
00000170: 49c7 973d 243d c3bd 180a debc be85 d23d
00000180: f511 673d e5fc e7bd 68b0 bb3d 6a53 bf3d
00000190: b3c3 953d 158d 8f3d bfe1 a2bd f4d5 fabd
000001a0: 86f2 b43d 86e9 cdbc 1757 743d 8077 933d
000001b0: 49a8 923d 42e1 9ebd 1bb7 e3bd 1ba9 e2bc
000001c0: 4c89 6dbd 310c d2bd 14ec b93d 957f 0a3e
000001d0: 7194 16bd 77bf 9d3d 3991 703d 7e97 4a3d
000001e0: adcc edbc 49f9 a4bd ff55 ffbc 4e03 e13c
000001f0: 2915 a43d 35ef 4b3d 0829 d53d 92ea 81bd
00000200: 9a01 6dbd 9519 85bd ad64 bdbd 26ec d0bc
00000210: a1fd 91bd 8368 863d 172a fb3c 1fe9 02bd
00000220: 38aa bb3d e3c5 963d a3a1 d1bd 0d41 14bb
00000230: 380f cd3c 61af 893d b9c6 09be 1cba 0ebe
00000240: 81c4 0dbe 5b53 4cbb cf23 0d3e 1c15 7c3d
00000250: 8f4a 01be 3c20 de3d f843 94bd f817 b6bd
00000260: 8393 053e 4883 243d 29ba 5d3d 2768 a5bb
00000270: f3ec cf3c 19d4 453c d7ab e53c f386 60bb
00000280: 8249 07be 3d74 073e 46ec d53d 260c ccbb
00000290: 92d3 babc 6608 da3d a2f9 e63d f112 6e3d
000002a0: bb45 973d c444 dbbd b0ec 7a3d 3e96 de3d
000002b0: 7c6f a3bd 2e91 0d3e d6ec c8bd a294 09be
000002c0: 6900 9ebd feef afbc 0011 dabd 3d80 54bd
000002d0: 8af0 d93d adf6 873d 1855 71bc 1de3 c7bc
000002e0: 0f6e 01be 717c 0d3e 5a47 4bbd 907d 8fbb
000002f0: 36c4 82bd a037 bbbd 5e7e 07be ecf0 edbd
00000300: b269 33bc 5516 663d f251 9a3d 1bbb fcbc
00000310: be78 4c3c c2e0 993d 7b0d 893d b894 093e
00000320: 4495 f9bc 72f8 0fbd 0cb5 86bc 4af9 983d
00000330: d97c c93c 364e 0dbe edd5 c73d 9eab 95bb
00000340: 3c57 e9bd cecd 0f3e db68 a5bd aa13 60bb
00000350: 1944 8dbd d1be a9bd 1e6b d9bd 8262 9b3d
00000360: 536b 823d 7af5 38bd ec48 8f3d f34d dfbd
00000370: 45e5 41bd 387e cf3b ff65 d93d c34d d43d
00000380: 3478 a9bd c3b9 333d b758 cbbc 2fde c23d
00000390: ba66 99bd 798d f3bd c806 11bd 0e9b 283d
000003a0: b299 4cbd 35dd 6b3d cf94 06be 322a eabd
000003b0: 9218 213d 712b 08be 3132 5e3d 5f62 8e3c
000003c0: 93ef e43d 5a66 f3bc ffc3 a0bc 389d 0dbe
000003d0: dfa5 99bd 1c43 93bd 5b76 06be 64be a9bd
000003e0: 0805 c43d 7066 adbd be01 19be 9291 06be
000003f0: cf4c bfbd cf59 933d 42ff dabd 8fde 75bd
-0.12452663 0.10612379 -0.057747226 -0.020214101 -0.10000524 0.05824209 -0.07562538 0.089354336
0.08943237 -0.051100545 0.06463631 -0.0116974665 -0.1151607 -0.08326204 0.11446102 0.044967476
-0.004277109 -0.03751302 0.11031996 -0.031442806 0.10930663 -0.11431778 -0.110640936 0.02690506
0.09823547 0.045466967 -0.00823682 0.0205606 0.11532254 -0.13082801 0.011091446 -0.07418746
0.017254863 -0.0008049391 -0.033392955 0.017799567 0.07514996 0.001783608 0.012408463 0.06568023
0.13676514 -0.07351687 -0.09280626 -0.11496641 -0.11914743 -0.01589199 -0.052558396 -0.11809757
-0.064214386 0.02716901 0.10287607 0.12422839 0.073642194 -0.042143807 0.014655251 0.013654191
-0.099092714 0.13749252 -0.122813776 0.1098321 -0.09198447 0.009033361 0.10418689 -0.06437395
0.10106777 -0.079640724 0.073778465 0.12019598 0.10754811 0.05733825 0.03637213 0.1169287
0.039295334 -0.052911665 0.047872216 -0.10394295 -0.07130068 0.014947833 0.03766189 -0.044962607
-0.10629303 0.032917123 0.007091936 -0.011658197 -0.0074072084 0.03381689 0.08885287 0.12356296
0.06456767 -0.041175976 0.024504583 -0.10858339 0.074110575 -0.09533146 -0.027104422 0.102794155
0.05641361 -0.11327533 0.09164506 0.09342082 0.07312717 0.07009331 -0.07953214 -0.122478396
0.0883532 -0.025135767 0.059653368 0.07200527 0.07161004 -0.07757808 -0.11118909 -0.027668526
-0.057992265 -0.102562316 0.090782315 0.13525231 -0.03676266 0.07702535 0.058732245 0.04946088
-0.029028261 -0.0805536 -0.031168936 0.027467396 0.080118485 0.049788672 0.10408217 -0.06343569
-0.057862855 -0.0649902 -0.09247718 -0.02550323 -0.07128454 0.06562903 0.030659718 -0.031960603
0.09163326 0.07361963 -0.10235908 -0.002262178 0.02503167 0.06722904 -0.13454713 -0.13938183
-0.13844492 -0.0031177613 0.13783191 0.06154357 -0.12626098 0.10845992 -0.072395265 -0.088912904
0.13044553 0.040164262 0.054132614 -0.0050478163 0.02538154 0.012074494 0.028036041 -0.0034260124
-0.13211635 0.13227935 0.10445456 -0.006227034 -0.022805963 0.10646133 0.112780824 0.058123533
0.07386347 -0.107064754 0.06126088 0.108685 -0.07980248 0.13824913 -0.09810798 -0.13435605
-0.07714922 -0.021476742 -0.10647774 -0.05188011 0.10641582 0.066388465 -0.014729761 -0.024400288
-0.1263964 0.13817002 -0.049628593 -0.004378982 -0.063850805 -0.09141469 -0.13231799 -0.11618218
-0.010950493 0.05617364 0.07535161 -0.030850938 0.012479959 0.07513572 0.06692024 0.13435638
-0.030466683 -0.035149045 -0.016443752 0.07469423 0.024595665 -0.13799366 0.097576 -0.0045675775
-0.11393592 0.14043352 -0.0807664 -0.0034191408 -0.06897754 -0.082883485 -0.10616134 0.07587148
0.06368127 -0.04515598 0.069963306 -0.109035395 -0.04733779 0.006332185 0.10615157 0.10366394
-0.0827488 0.043878328 -0.024822576 0.095150344 -0.07490297 -0.11892218 -0.035406858 0.041163497
-0.049951263 0.057584006 -0.13142703 -0.11433829 0.039330073 -0.13297822 0.054247085 0.017380891
0.11178508 -0.029711891 -0.019624708 -0.13829505 -0.075023405 -0.071905345 -0.13131087 -0.08288267
0.09571272 -0.08466804 -0.14942071 -0.13141468 -0.09340822 0.07194864 -0.10693218 -0.0600267

encoder.2.bias f4 [30]
00000000: 4099 e1bd 2132 c2bc 48d4 cb3d 455f 9cbc
00000010: 506f a23d 45c0 993b 44dd 9e3d c6ed fa3c
00000020: ff93 833c c434 eabc 3832 85bd 1c2e d73d
00000030: a0cc 543d 73f3 173c 52b4 073e 38a7 023d
00000040: 589e 193b 4237 8b3d dd64 883d 5fa9 c53c
00000050: f9b9 4e3d 0669 7d3d 2166 ffbc 7a77 993d
00000060: 3245 b53d 7d1a dd3d 2b54 343d 255e 283d
00000070: 8fd1 c63d a1f2 843d
-0.11015558 -0.023705544 0.09952599 -0.019088397 0.079313874 0.00469211 0.07757047 0.030630957
0.016061781 -0.028589614 -0.06503719 0.105068415 0.051952958 0.009274351 0.1325238 0.031897753
0.0023440327 0.06797649 0.06659863 0.024128614 0.050470326 0.061867736 -0.031176629 0.074934915
0.088510886 0.10796068 0.04402558 0.04110541 0.09707939 0.0649159

encoder.4.weight f4 [10, 30]
00000000: 1236 20be 69be 2a3e 0ffe 8ebd c0a6 46bd
00000010: d583 d23d b0c6 953c 5d9c 6cbd 550e 0ebe
00000020: 22b8 26be 8ba8 49bd 8eeb 923d b9f5 2ebe
00000030: 8dc5 7d3d bbd5 4e3e 8477 ec3c f3a6 2b3e
00000040: 24ce 463d 3b49 46be f62d c6bc f68f 113e
00000050: faf3 8fbd c9ca 1fbc 0f10 e6bd 094f ef3d
00000060: 0afd b3bc a5fd 8ebd 216d d23d 830d 163e
00000070: 681e 003e e8a1 aa3c f876 2e3e c925 9fbd
00000080: a914 6dbd 765f ebbd 0521 3a3d a453 0cbe
00000090: 6b72 b43d ba3e b63d 244b f5bd 82bd 943d
000000a0: 7cda d5bc 3bb8 28be e2b6 1d3e 9cc4 12bd
000000b0: 02aa 57bd 52be 97bd e886 1d3d d3a4 33be
000000c0: 3cdd 03be 3a9d 263e 4bbc 333e 87ac dbbd
000000d0: f640 c33d 5fd9 4a3d 81df 15be 64d2 31be
000000e0: 9d76 9a3d 6a10 bb3d 407d 3fbe a140 8ebb
000000f0: 2175 0bbe d428 a0bd ddbb 7cbc 68ef 2b3e
00000100: 2114 a43d c4bd 11be 34b7 41bd d5fc 3c3e
00000110: 019b 2cbd 9207 14bd 7c34 13bd e5b7 1abe
00000120: b64c fcbd c08a 0b3e a8fb eebd 0339 acbc
00000130: d97b 2d3e c2f7 153e a95c 24be 1c14 5a3b
00000140: 344e 3ebe 5416 50bd e8d6 acbc 8888 0a3d
00000150: ab96 85bd 3dfc 343e da74 f5bd 14a2 1a3e
00000160: 448c 393e 09c3 a43c 6fa7 e1bd 657f ea3a
00000170: c5f8 a13d 1433 cd3c 30a7 3a3e 77ce 14bd
00000180: 9f46 4b3e a0d3 4cbd 9064 3cbe 9f3e 5cbd
00000190: 4ee2 31bb cc0a 103e 7ea6 0bbd 7ab8 043e
000001a0: 6320 273e dbf1 293d 1326 043d af5b 1dbc
000001b0: 9662 2abd 89c2 9b3d 4162 25bd ca76 febd
000001c0: 3f8f 523d 0a24 003e b9fb b0bc 1bc8 22bd
000001d0: e13d 403d 35bf 203e 5297 0ebe da59 ddbd
000001e0: 6463 463e 5520 e73b 258b f3bd 05d5 2abe
000001f0: 00d8 a8bc 3fe9 93bd 60a6 38be 4a3e efbc
00000200: 7576 ad3d e893 763d b77e efbd aae1 863d
00000210: a026 80ba b508 18be a1ab 43bb 51de 49bd
00000220: ce56 2fbe add1 0bbe 5c91 bc3c d729 b8bd
00000230: 9c53 07be 5652 093a f453 ffbd 4f80 d9bd
00000240: 44f5 77bd fc34 993d b87e 9e3c 4580 1dbc
00000250: e4f5 30be 6ca3 c139 f329 71bd b044 b53d
00000260: c3b1 61bd 27e4 1a3e aa82 773d d896 253d
00000270: c2dc d83d 75c3 9fbd a1e0 09be 51a3 253d
00000280: 9291 f9bd 7049 2abc 0f14 1fbe 90d0 ff3d
00000290: 046e 1a3e 95b0 0c3e 1269 ca3d 6faa 37be
000002a0: 40d2 d5bd 67b6 a6bd f822 18ba 2ed3 06bd
000002b0: 1eb4 d93d 9826 753d 2020 e93d acac ac3d
000002c0: e93e 16be 6314 37bd c39f 023d a726 2fbe
000002d0: c79c 8d3d c18d a5bd 0833 233d e70d 083e
000002e0: 641e dd3d ac00 2cbe b592 1a3d 48c4 c8bd
000002f0: e8fe 1e3e a772 f23d dace 3a3e 04b8 863d
00000300: a90d 883d 97f0 04bd 16e3 b53c 566f 17be
00000310: 1b1a f8bd 75a2 a8bd d659 823d 0af5 05be
00000320: fc0a 26be 81b0 efbd 9035 4c3e 02b8 b1bd
00000330: feae 15be 8be1 9c3d 771b 4abe 31b7 0d3e
00000340: b1ca 033e d181 5fbc ff76 4a3a 6abb 803d
00000350: cc2e 16bd e90b e03c 01bd d6bd 881e 653d
00000360: 8705 9d3d dad4 0c3e be09 93bd 2e57 cd3d
00000370: 78be dcbd f2f5 093e 87cd 8d3d 5dd4 753d
00000380: 9b21 b6bd 84a7 36be 06fc 24be 2749 0dbe
00000390: e076 09bd dd86 063d 120d a1bd 0168 91bd
000003a0: 52e3 173e 2f20 a33d 2df1 19be 57a3 a83d
000003b0: 531d ef3d a64d 9cbd a7eb 393e 2ad0 d23c
000003c0: b6ed 91bb 8792 0d3e 5ae9 a3bd b0ed 9d3d
000003d0: 19f8 073b d9d8 dcbd 0ddb c43d 472d 1fbe
000003e0: 2c6f 183e 2c37 6d3d 4a2d 04be e7e7 83bd
000003f0: 35fd 4d3e f3a1 513e c99a 1d3d 5dd2 203e
-0.15645626 0.16674198 -0.069820516 -0.04849887 0.10279051 0.018283218 -0.057766307 -0.13872655
-0.16281179 -0.049233 0.07173835 -0.17085923 0.061955977 0.20198719 0.028865583 0.16762905
0.048536435 -0.19363873 -0.024191838 0.14215073 -0.07028957 -0.009752938 -0.11233532 0.11684997
-0.021971244 -0.069819726 0.10274721 0.14653592 0.12511599 0.020829156 0.1703757 -0.07770879
-0.05788103 -0.11492817 0.045441646 -0.13703781 0.08810886 0.08898683 -0.119772226 0.07262708
-0.026105158 -0.16476528 0.15401796 -0.035832033 -0.052652366 -0.074093476 0.038458735 -0.17543344
-0.12877363 0.16270915 0.17552297 -0.10726266 0.09533875 0.049523707 -0.14636041 -0.17365414
0.07542155 0.0913399 -0.18700123 -0.0043412005 -0.136189 -0.07820287 -0.0154256495 0.16790545
0.08011652 -0.14232546 -0.047293857 0.18455823 -0.04214001 -0.036140032 -0.035938725 -0.15109213
-0.12319319 0.13627148 -0.11669093 -0.021023279 0.16941775 0.14645293 -0.16050972 0.0033276146
-0.1858452 -0.050802544 -0.021098569 0.033821613 -0.06522878 0.17674346 -0.11985178 0.1510089
0.18119913 0.020112531 -0.110182635 0.001789075 0.07908777 0.02504877 0.1822784 -0.036329713
0.19851159 -0.05000651 -0.18397737 -0.053770658 -0.0027142945 0.14066619 -0.034094326 0.12960997
0.16320948 0.041490417 0.032262873 -0.009604379 -0.041597925 0.07605464 -0.040376905 -0.12425001
0.05140614 0.12513748 -0.021604406 -0.039741617 0.046934012 0.1569794 -0.13924912 -0.108081535
0.19373852 0.007053415 -0.11891774 -0.16682823 -0.02061081 -0.072222225 -0.18032217 -0.029204506
0.084698595 0.06019965 -0.11694091 0.06586011 -0.0009777136 -0.14847071 -0.0029856937 -0.049284283
-0.17122957 -0.13654204 0.023018532 -0.08992355 -0.13215488 0.0005238404 -0.12467185 -0.10620176
-0.060536638 0.07480809 0.019347534 -0.009613101 -0.172813 0.00036933587 -0.058877897 0.08850992
-0.055101167 0.15126096 0.060427345 0.04042706 0.10588981 -0.07800952 -0.13464595 0.040438954
-0.121859685 -0.010393485 -0.15534995 0.12490952 0.1508103 0.13739236 0.09883322 -0.17936109
-0.10440493 -0.08140259 -0.00058035506 -0.03291624 0.10630058 0.05985126 0.113830805 0.08431372
-0.14672436 -0.044697177 0.031890642 -0.17104588 0.069146685 -0.08083678 0.03984359 0.13286553
0.10796812 -0.16797131 0.037737567 -0.09803063 0.15526927 0.118382744 0.1824297 0.06578067
0.066432305 -0.032456007 0.02220301 -0.14788565 -0.12114354 -0.08234111 0.06364791 -0.13081756
-0.16215128 -0.11703587 0.19942307 -0.08677675 -0.14617535 0.076602064 -0.1973704 0.13839413
0.1287029 -0.0136417905 0.000772342 0.062857464 -0.036665723 0.02734943 -0.104852684 0.05593732
0.0766707 0.13753071 -0.071795925 0.10026394 -0.107785165 0.13472727 0.06923967 0.06001698
-0.088931285 -0.1783734 -0.16111764 -0.13797437 -0.033560634 0.03284346 -0.07863821 -0.07099915
0.1483281 0.07965123 -0.15033408 0.082342796 0.11675515 -0.07631998 0.181563 0.025734026
-0.004453386 0.13825427 -0.08003493 0.07711351 0.0020747243 -0.10783548 0.09612093 -0.15544616
0.14886159 0.057913944 -0.12907901 -0.06440716 0.20116122 0.20471935 0.038477693 0.15705247

encoder.4.bias f4 [10]
00000000: 790b 81bd 8b6d 90bd 0170 0a3d 8b77 46bd
00000010: ab69 9a3d 0127 1b3e 1240 fbbd 8fe4 bcbd
00000020: 92af 72bd fee1 c2bc
-0.06301016 -0.07052144 0.03379822 -0.04845385 0.07539686 0.15151598 -0.1226808 -0.092232816
-0.05924947 -0.023789402

encoder.6.weight f4 [1, 10]
00000000: 652e a3be da3e 05bd eb04 a73e ed23 6e3e
00000010: f926 01be 540f c1ba e5c5 443e b2a9 123d
00000020: dfd3 acbe 69f0 54be
-0.31871334 -0.032530643 0.3262094 0.23255892 -0.12612523 -0.00147293 0.19216116 0.035806365
-0.33755395 -0.20794834

decoder.0.weight f4 [10, 1]
00000000: 89c7 bc3e ca29 38bf d86e c93e 3e3d 5f3f
00000010: fff1 30bf d39f d7be faf1 e83e c233 653f
00000020: b520 723e f350 25bf
0.36870983 -0.71938765 0.3934238 0.87202823 -0.69119257 -0.42114124 0.45497113 0.895321
0.23645289 -0.64576644

decoder.0.bias f4 [10]
00000000: 8ea1 7f3f f2ec 4ebe d969 e93d 646f a43b
00000010: e7f6 933e 3882 01bf 1f0a 193c 424f 43bf
00000020: 6083 34bf 9434 3fbf
0.9985589 -0.20207575 0.11397142 0.0050181616 0.2889931 -0.50589323 0.009340792 -0.7629281
-0.7051296 -0.746896

decoder.2.weight f4 [30, 10]
00000000: 5a90 963d c3bb 30be ccb2 28be a715 803e
00000010: 08ce 16be add1 97bd 9056 de3b 145d 65be
00000020: f62c e5b9 1b40 113d d606 5f3d 36b5 f03d
00000030: 69d8 35bd 9e9c a8be ea0b ee3d 6f67 a63e
00000040: 8502 05be 6655 5f3e fef3 933e 6c62 3bbe
00000050: 8e0c 75be 2f28 9ebe d7f0 c13c 1243 193e
00000060: e712 a1be 7d4a a33e ed51 65be 2eb2 efbd
00000070: 757e 743d 515c a9bc c15f 963e c186 87be
00000080: 0a6b 183e 9f18 993d 567e 8b3d 5e95 0dbd
00000090: 97a6 173e 34b0 56bd 6586 213c d178 313e
000000a0: 4b36 ccbc 6acc 603e 8a73 b73d 32f6 8abe
000000b0: 4945 b23d 1389 ca3d e417 a13e dab3 fdbd
000000c0: e7f6 fdbd 1440 703e a678 243e 4ede 9e3e
000000d0: 8c58 923c 301e 0c3e ffca 88be 4151 8d3e
000000e0: 033b bbbd a4b4 acbe bf75 fcbd 3864 1cbe
000000f0: c676 9b3e 8f35 083e b01e a23e 2f2c 32be
00000100: cdbb 293e a70b 65bd 5c2f 55bc b27c 943b
00000110: 8e64 8e3c 5293 9b3e eb79 dfbc 6844 86bc
00000120: 85ad 3c3e 53f9 423e f34a 0f3e a269 233e
00000130: 3b09 a43e 2df6 843e 50f9 adbd 2f47 273e
00000140: 7748 1dbd a984 70be c774 8ebe 8eb2 813e
00000150: 90fe 0ebe c2d1 acbd d342 8bbe a435 bfbd
00000160: c1a7 ab3e 8730 94be 3948 dabd 3937 b0bc
00000170: 4924 1ebe b5e0 473e 6c40 d33d b0bc 1fbe
00000180: 466a 0dbe 89f8 a63d b18e bfbd ff4f 02be
00000190: 43bb 3e3e ac71 33be 7311 98be d10c 8cbe
000001a0: 4340 943d 3ec2 993c 6dc4 653e b3ad 9a3e
000001b0: 03fb 843d ffa1 703d 6831 333b 55de 1dbd
000001c0: 24c0 453e d869 4c3c 688d 4ebe d814 8b3d
000001d0: 030d 583d 73da 96be 7c58 06be f61b f0bd
000001e0: 8578 b0bd 8458 7c3e 4925 e3bd c23d aa3e
000001f0: 57be b93d b232 dbbd d969 08bc 1114 9cbd
00000200: c642 47be c576 c43d 47c2 543e 11a2 a7bd
00000210: 2d18 3abe 6acc 93be f1a6 483e bd47 77bd
00000220: 9c2b 2f3e 78aa 8f3e f1fa eb3c 8b2d f9bd
00000230: 2b66 663e 277e 523e 44f2 46be d723 8bbe
00000240: ecca f7bb 0e92 253e 6984 90bc f3de da3c
00000250: 6dcf 15be d9fe 67be 4af5 8b3e 95a0 993e
00000260: af4b 3abe 3435 653e 3327 93bd 19a0 84be
00000270: e698 303e a6c9 283d 729c 543d f4a2 9ebe
00000280: 506a 81be 714e 403e 40c7 acbd af52 8dbe
00000290: a278 30bd 5ec2 933c 9cbb 8ebe 496f 77be
000002a0: 8920 953e 5933 863d 09a7 aabd 7775 243e
000002b0: f4b3 a0be 7840 56be 257f b53d 349c 38be
000002c0: d7d7 26bd ab4e 99be 783f 0dbe 15c1 0abe
000002d0: 9d65 28bd 654f 6a3c c141 75be e23c 973d
000002e0: 7d7c 343d 4f00 e13d b6f3 e33d 91d7 2dbe
000002f0: 86de c23d 3be6 0b3d 3be1 e73d 6ca4 893e
00000300: a64a 9f3c 358d 743d 2644 e6bc 2fb5 2fbe
00000310: 5172 a23e d6ba 7ebd fa00 c7bd 458e c13d
00000320: 1d27 8abe e74c 733e 9488 973e c9a3 2e3e
00000330: c0ad 623d b24c b8bd 7fc2 cb3d 1c04 0a3e
00000340: 9632 9dbe 478f 8bbe ba11 6abe b0cc 643e
00000350: 88f1 cebd e4d8 663e e5fb 9dbd 9204 e0bd
00000360: 1e09 b6bd 8afb 3cbe 6300 69be 35c2 36bd
00000370: d758 91be 8dfd 643d 274a 5ebd 3826 383e
00000380: 68db ae3c d8ef ccbd 5524 883e e05e 173e
00000390: 024a 053e 4fcd 273d fe8b 4a3e b906 a53b
000003a0: 5cd5 2bbe 1c60 d43d 1aa4 123d 1b99 823d
000003b0: 2b9d 3bbd 26c0 56be c584 683d cb77 98be
000003c0: 7502 b4bd 2646 8bbe 524f 163e c349 0e3e
000003d0: ef5d 9dbc dd91 2ebd 5aea 373e 9c7b 9b3e
000003e0: 02af 5e3e ad74 be3d 38f7 a6bd 1688 9a3d
000003f0: a822 60be 0720 a1bd 5c10 963e 9f0a 6fbe
0.073517516 -0.17259125 -0.16474456 0.2501652 -0.14727032 -0.07413039 0.0067852214 -0.22398788
-0.00043711782 0.035461526 0.05444988 0.11753313 -0.044395838 -0.3293199 0.11623366 0.3250079
-0.12989242 0.2180992 0.2889709 -0.18299264 -0.2393057 -0.30890033 0.023674412 0.14966992
-0.31459734 0.31892768 -0.22394533 -0.11703907 0.05969091 -0.020673903 0.2936993 -0.26469997
0.14884582 0.07475399 0.06811206 -0.034566276 0.14809643 -0.052414134 0.009858702 0.17331244
-0.024928233 0.21952978 0.08957584 -0.27140957 0.08704621 0.09889426 0.3146354 -0.123878196
-0.124006085 0.23461944 0.16061649 0.3102898 0.017864488 0.1368339 -0.26717374 0.27601054
-0.09142115 -0.33731568 -0.12327146 -0.15272605 0.30364054 0.13301681 0.31664038 -0.17399667
0.16575547 -0.055919316 -0.01301178 0.0045314664 0.017381933 0.30385834 -0.027279815 -0.01639004
0.18425567 0.19040422 0.13993435 0.15958264 0.32038292 0.25969067 -0.08494818 0.16335748
-0.038399186 -0.23488106 -0.2782347 0.2533154 -0.13964295 -0.08438446 -0.2719942 -0.09336403
0.33526424 -0.28943273 -0.10658307 -0.021510707 -0.15443529 0.19519313 0.10315022 -0.15599322
-0.13810071 0.08152873 -0.09353388 -0.12725829 0.18626122 -0.17523831 -0.29700813 -0.27353528
0.072388195 0.01876938 0.22438212 0.30210647 0.06493189 0.05874824 0.002734268 -0.03854211
0.19311577 0.012476407 -0.2017113 0.06791085 0.052746784 -0.2946354 -0.13119692 -0.11724083
-0.08616737 0.24643141 -0.11091096 0.33250242 0.090695076 -0.10703029 -0.008326017 -0.07621015
-0.19459066 0.09592966 0.20777236 -0.081852086 -0.18173285 -0.28866893 0.19594933 -0.06037115
0.1710648 0.28059745 0.028806182 -0.1216689 0.22499911 0.20555936 -0.19428355 -0.2717578
-0.007562032 0.16168997 -0.017641263 0.026717639 -0.14629908 -0.2265581 0.27335578 0.30005327
-0.18192933 0.22383577 -0.07185211 -0.25903395 0.17245826 0.041207932 0.05190701 -0.30983698
-0.25276423 0.18779923 -0.084364414 -0.27602145 -0.043083794 0.018037017 -0.2787751 -0.24163546
0.29126385 0.065527625 -0.08332641 0.16060434 -0.31387293 -0.2092303 0.088621415 -0.18028337
-0.040733185 -0.2994283 -0.13793743 -0.13550217 -0.04111253 0.014301156 -0.23950864 0.07384659
0.044064034 0.10986387 0.111304685 -0.16976763 0.09515099 0.03415511 0.11322256 0.26883256
0.019444775 0.059704978 -0.028108668 -0.1715896 0.31727841 -0.0621899 -0.09716983 0.09450964
-0.26982966 0.23759805 0.29596388 0.17054667 0.055341482 -0.089990035 0.099492066 0.1347813
-0.30702657 -0.2725775 -0.22858325 0.22343707 -0.10104662 0.22543675 -0.07714061 -0.10938372
-0.08888458 -0.1845533 -0.22754054 -0.044618804 -0.28388092 0.055905867 -0.054269936 0.1798333
0.021344855 -0.10006684 0.2659022 0.14782286 0.13016513 0.040967282 0.19779965 0.005036202
-0.16780609 0.10369894 0.03580103 0.06376859 -0.045804184 -0.20971736 0.056767244 -0.29778895
-0.08789531 -0.27201957 0.14678696 0.13895325 -0.01920983 -0.042619575 0.17960492 0.30367744
0.21746448 0.09299598 -0.08152622 0.075454876 -0.2188822 -0.07867437 0.29309356 -0.23343895

decoder.2.bias f4 [30]
00000000: 9bfb 4d3e 2ad2 f3bc 9fd7 f6bc 05d7 0abe
00000010: d948 a33e c8e3 39be e2db 5c3e af82 293d
00000020: 354a 4dbe 7bad c83d c8ef 8ebe f9a2 08bd
00000030: bbd8 e23c 5999 993e a874 9abe 4407 703e
00000040: 3f27 0c3d f9ce 84bd 040c 8abe e773 3a3e
00000050: 3792 b1bd d64f 96be e60a 26be e7d5 5f3e
00000060: 165f a1bd d525 17be a661 533d 7c16 3bbe
00000070: 95b3 68be 38a8 25be
0.20115511 -0.0297633 -0.030132113 -0.13558586 0.31891516 -0.18153298 0.21568254 0.041384395
-0.20047839 0.09798714 -0.27917314 -0.033358548 0.027691236 0.29999807 -0.30167127 0.23440272
0.034217115 -0.064847894 -0.26962292 0.18208276 -0.086704664 -0.29357785 -0.16215095 0.21858941
-0.07879464 -0.14760526 0.051606797 -0.18270296 -0.22724755 -0.16177452

decoder.4.weight f4 [60, 30]
00000000: bd64 f53c c5de 07be 5726 1a3e 37ab 7bbc
00000010: 287a 233e 0a14 923c 6c6e db3c 0f35 0f3e
00000020: 6f78 d4bd 047c 99bc 4699 3ebe 3102 5c3d
00000030: 85c6 9bbd 0e91 32bd 7ca5 e23d 6068 8a3c
00000040: 06b3 49bd 4812 93bd c7bf 16be 8276 f3bc
00000050: 0300 293e 5f21 04be 9559 d33d cc23 333e
00000060: 4fde 16be e2b2 aebc fd4f ebbd aec6 913d
00000070: c341 0fbe 462d 323d 71d3 35bd 75e4 b1bd
00000080: c75d a6bd e687 28be 218d 20be f191 bbbb
00000090: da96 35be 9e16 913d 5ca3 d8bd 51df 01be
000000a0: d04b 0bbe fa3f 2c3d 4761 493c 34ec 613c
000000b0: bebb cd3d cbcd 49bd a73f c2bd fa57 5e3c
000000c0: 48e8 0a3e 90fd 76bd bed1 f3bb 94d4 32bd
000000d0: 3372 60bb 8f15 34be 3f65 023e 2416 233e
000000e0: eea4 0b3e 1912 223d 8729 983d d82d abbd
000000f0: a28c 173e 5b27 8a3d 5f84 55bd 1185 27be
00000100: 302a b73d 8af0 1a3d 2f79 0a3e e029 33bd
00000110: 9a44 883d 2347 083e 2769 043c 1028 1abe
00000120: 58e5 e53d bfa1 4e3d f3f1 f33c 9c57 af3b
00000130: 0fe2 013e c53a 6bbd 26bc 093e 55d8 133e
00000140: 192d 8a3d 9660 213d 7028 1d3d b973 9abd
00000150: a389 be3d 6883 203e 0b11 9d3d 5209 09be
00000160: a358 a53d d782 91bd 039f 743d 5504 9f3d
00000170: 8707 d23d 04ad cd3b 00fa 39bd 94cc 2bbd
00000180: b1e2 5f3d 1523 913d 0872 e23d 338f 4fbd
00000190: cf24 80bd f058 03be 89ad 453e a914 d43d
000001a0: c16f a1bc 577a aabc 8564 0abd eaa7 433e
000001b0: ed6c 40be b2fe 09be 9eab dbbb 921f 173e
000001c0: bcd5 203d 0f6b 1cbe 5fe4 44be ae51 c33c
000001d0: da89 90bd cb38 ecbd 8bbe b23d ac63 223e
000001e0: ea63 ba3d 5dbd ad3d 4c2b edbd d4cd dd3d
000001f0: 6547 b2bd d6a5 433e c873 1c3e 93fb 23bd
00000200: 7a09 20bd 3f0a 98bd 3028 9fbd 2da4 e03d
00000210: 855d f0bd def0 c8bd b53b 023e aa0b fc3b
00000220: e23c 1e3e 6bb9 573e 7986 d0bd b7eb 213e
00000230: 84a1 133d 7618 31bc e0dd 0a3e aaf4 1cbe
00000240: dfb5 083e 0440 1cbe 236b cdbd f14f 3a3d
00000250: c34c 40be 5109 cfbd 1dd2 a93d 4716 bcbd
00000260: d1cb 31be 9ec8 083e 6276 05be 91f7 8d3d
00000270: 05b7 1ebe 7cd1 3bbe cbd4 fcbd 9f64 9fbd
00000280: 72a9 06be 2e13 233e 9aa5 eabd 2861 2d3e
00000290: 5ea9 5b3d e2c3 ec3d 6322 cebd 47f7 88bd
000002a0: 8c4c e13d 1aa7 06be 98cc 133e a056 eb3d
000002b0: 1891 f5bd 0365 393e 01be 273d 8fe9 b2bd
000002c0: 981b 073d 7fc5 3dbe 4da9 1a3e 0b92 103e
000002d0: a98d b83d 64b6 c13d a4b4 5cbd f244 85bd
000002e0: 7e04 363d 1c30 b73d 3904 4f3e 1962 18be
000002f0: ac8d 7fbd 4dce b1bd 58e6 35bc 2f7d 393e
00000300: 98fe 113d 72ad 373e 931c afbd c26e 2d3d
00000310: 3ba3 183d 0689 bfbd b718 1d3d dd46 aa3d
00000320: ea7f 993d 0580 413d 561c 8fbd 54f3 263e
00000330: 0ce4 2abe 4c7c 1a3e 59f1 8b3d 310d 013e
00000340: abb0 eb3d 22e4 7ebc c2af c63d 0c7c 583d
00000350: e436 e4bd ff0e 0c3d c37d b23d 7ac0 23be
00000360: 0c98 033e 2f8c 0a3e f794 93bd a53c 3ebe
00000370: 8d9c 393e 914d 4ebd fe80 0c3e 2f42 96bd
00000380: f13b 37be 9548 28be d129 8eba 0690 edbd
00000390: 8c82 3cbd 3866 19be 70af 06be 8e78 ffbd
000003a0: e365 2a3d 1d55 f8bd 3171 c23d 8e89 9c3c
000003b0: ab34 3a3e 9fa2 ae3d e7f1 1c3d f36d f33d
000003c0: 667c 4e3d a837 0dbe 4972 2ebd 9175 12be
000003d0: b687 073e 170c 663b 853c 223e 5e09 14bd
000003e0: 8858 44be dc73 29be b260 28be c15b b03c
000003f0: 5696 963b e177 e93d ff4f a2bd be84 063e
0.029955262 -0.13268574 0.15053688 -0.015360645 0.15964568 0.017831821 0.026786052 0.13985084
-0.103745334 -0.018735893 -0.18613157 0.053713027 -0.07606224 -0.043595366 0.1106672 0.016895473
-0.049242996 -0.07181221 -0.14721595 -0.029719595 0.1650391 -0.12903355 0.10319821 0.17494124
-0.14733241 -0.021325532 -0.11489866 0.07117973 -0.1398993 0.043500207 -0.0443911 -0.08686153
-0.08123355 -0.16458091 -0.15678836 -0.0057241847 -0.17733327 0.07084392 -0.10578033 -0.12682845
-0.13603139 0.0420532 0.012291259 0.013789225 0.100455746 -0.049268525 -0.09484797 0.01357078
0.13565171 -0.06030041 -0.0074407747 -0.04365976 -0.0034247756 -0.17586349 0.12733935 0.15926415
0.13637134 0.03956804 0.07429796 -0.083583534 0.14799741 0.06745788 -0.052128192 -0.16359355
0.089435935 0.037827052 0.1352279 -0.043741107 0.0665371 0.13308387 0.008081711 -0.15054345
0.112253845 0.05044722 0.029778456 0.00535102 0.12683891 -0.057429094 0.13450679 0.14437993
0.06746883 0.039398752 0.038368642 -0.075416036 0.09303596 0.15675128 0.07669266 -0.13382462
0.08073547 -0.07105034 0.059721958 0.07764498 0.10255342 0.0062767286 -0.045404434 -0.041943148
0.05465955 0.070867695 0.11056906 -0.050673675 -0.06257021 -0.12826896 0.1930448 0.10355503
-0.019706609 -0.02081029 -0.03378727 0.19107023 -0.18791552 -0.13476065 -0.006703808 0.14758137
0.039266333 -0.15275215 -0.19227742 0.023842659 -0.07057543 -0.1153427 0.087277494 0.15858334
0.09101088 0.08483384 -0.11580524 0.10830274 -0.08705024 0.1910623 0.15278542 -0.04003484
-0.039071538 -0.07423829 -0.07771337 0.10968814 -0.117365874 -0.09811567 0.12718089 0.00769182
0.15452912 0.21066825 -0.101818986 0.15812574 0.036042705 -0.010809055 0.13561201 -0.15327707
0.13350628 -0.15258795 -0.100302 0.045486394 -0.18779282 -0.10109199 0.08292029 -0.091839366
-0.17362906 0.1335778 -0.1303344 0.06931985 -0.15499504 -0.1834163 -0.123452745 -0.07782864
-0.13150576 0.15925285 -0.11457367 0.16931593 0.053628318 0.11560799 -0.100651525 -0.066877894
0.11000928 -0.13149682 0.14433515 0.11491132 -0.11990565 0.18104939 0.040952686 -0.08735954
0.0329853 -0.1853237 0.15103646 0.14118211 0.090113945 0.094586164 -0.05388321 -0.06507291
0.044437878 0.08944723 0.20216455 -0.14881171 -0.06239097 -0.08681927 -0.0111022815 0.1811416
0.03564319 0.17937258 -0.08550372 0.042341955 0.037265044 -0.09352307 0.038353648 0.08314297
0.07495101 0.04724123 -0.069878265 0.1630376 -0.16688555 0.15086478 0.06833143 0.12602688
0.11508306 -0.015557321 0.09701492 0.052852675 -0.11143282 0.03419399 0.087153934 -0.15991393
0.1285097 0.13530038 -0.07206147 -0.18577822 0.18126126 -0.05036694 0.13721082 -0.07336842
-0.1789396 -0.16433938 -0.0010846202 -0.11599736 -0.046022937 -0.149804 -0.13152862 -0.12474166
0.041601073 -0.12125609 0.09494246 0.01910856 0.18184154 0.08527111 0.038316634 0.118862055
0.050411604 -0.13790762 -0.04258946 -0.1430266 0.13235363 0.003510242 0.15843399 -0.036141746
-0.19174397 -0.16548103 -0.16443136 0.021528127 0.004595558 0.11399818 -0.07925414 0.13136575

decoder.4.bias f4 [60]
00000000: e1cf b4bd 6340 d63d 7a7b 213e 5475 aa3d
00000010: 93dc 233e 649b 0ebe 3d2a 8c3d 1170 993d
00000020: cb61 1ebe 2bd4 883c f060 eb3d c2ec 463d
00000030: 4ce8 433e b9ce e0bd 355d b0bd 508a 143e
00000040: 4381 04be e70a 0bbe 29c6 2ebe ca1d 193e
00000050: c4b5 433e 7f76 073e 4929 91bd 4103 c5bc
00000060: 818d 3d3e f081 183d 699a 253d 98ee 163e
00000070: 2fae 023e d04b 653d 16f5 e6bd 280d 11be
00000080: 1398 e9bc 5b80 a4bc fae8 1d3e a680 b8bd
00000090: ca86 aabd 1c1d 50bd 87eb a8bd 1126 523d
000000a0: 48ff 36bd fd0d a33d 13f9 043e ed4c 233e
000000b0: 103e 1d3a 231e c4bd 738e 643d 3a2d 103e
000000c0: 18f1 e8bc 7edf 123d 345a a33d 4530 eabd
000000d0: be0a cbbd 5b9c 01be d1cd f43c c0d4 ba3d
000000e0: cf58 303e d848 173d b9c8 2bbe f162 ba3d
-0.08828712 0.104614995 0.15769759 0.0832316 0.16002111 -0.13926464 0.06843994 0.07492078
-0.15466993 0.016702732 0.11493099 0.048565634 0.19131583 -0.10976929 -0.08611528 0.14505887
-0.12939934 -0.13578378 -0.1706778 0.1495277 0.19112307 0.13228796 -0.07087953 -0.024049403
0.1851101 0.037233293 0.04043046 0.14739454 0.12761758 0.055980504 -0.11277215 -0.14165175
-0.028514897 -0.020080736 0.15420905 -0.09008913 -0.0832649 -0.05080901 -0.08248048 0.051305834
-0.04467705 0.079616524 0.1298564 0.15947314 0.0005998323 -0.095760606 0.055799913 0.14079753
-0.028435275 0.03585767 0.07976189 -0.11434988 -0.09914158 -0.12657301 0.029883297 0.0912261
0.17221378 0.036934704 -0.16775788 0.09100903

decoder.6.weight f4 [118, 60]
00000000: 6ece 373d 54fb b23d 09ba 9d3d 1e9b db3c
00000010: ec65 8ebd 2460 cbbb 4adf 8bbb 5b5b 623d
00000020: cd1a 043d a9c3 1cbd 7faa 13be 3ddd 92bd
00000030: 8dc0 a8bc ab52 e93c 0a64 163e be56 c7bd
00000040: c998 dd3c 701d e6bc 61aa 183e 2b90 ebbb
00000050: 017e 1abe 5cb0 8a3d 8093 c13a 54d3 af3d
00000060: 4b33 1abe b27d 1dbe bdf9 993c 3e28 efbd
00000070: 3321 88bc 2c86 00bd d8f7 8c3d 990d 963c
00000080: 5278 63bd 3a48 8abc 5753 8ebd 4d48 8fbd
00000090: 5f32 cbbd 35d7 3bbc ffab e9ba 4c14 19bb
000000a0: 50a8 73bd 0bb2 bd3a 4af1 a8bd f6b5 c1bd
000000b0: a61f 7c3d 5e46 003e 8608 debd 781c 07bc
000000c0: b501 943d e2e5 f63d 2b60 e23c 5f1e b9bd
000000d0: 34ab 03be 1fba 12bc dc8a 213c 0eb5 7fbc
000000e0: 354a 3e3d 0049 40bd 3389 96bd fec7 e0bd
000000f0: 92cb 123e d085 e4bd c7d9 6f3c ca31 b2bd
00000100: 7261 e13d 5499 993c 5968 0f3e 8634 12be
00000110: 807a bb3d a112 fa3d 8b4c febd c0b1 693c
00000120: 1cde 933c 0cb3 c9bd e1a9 07bd e41c 8cbc
00000130: e594 4a3d 6210 bf3c bd0c 1bbd 7127 ba3d
00000140: e28e 9a3d a293 cf3d db27 dc3c 6a92 10be
00000150: 015e da3d 73a0 67bd 491b 3fbd f141 913d
00000160: 4044 4b3d 93f9 e6bd 689c a8bd c742 613c
00000170: 858d 803d be83 8dbd 9359 e43d c051 a63d
00000180: 0774 14be f7f6 c1bc a29d 803d d96d b2bc
00000190: 6f12 a5bd efd7 01bd 6ba1 2e3d cb39 cebc
000001a0: defc a4bd 1131 603c 31ff 913d bea9 003e
000001b0: fd76 823d 79c5 053d 6d4f 333d 5b4c 033e
000001c0: b19e dcbd e009 2cbd 7299 95bd 8f22 86bd
000001d0: 9dfe 853d 00c9 bb3d a7ce 87bd d44f 3ebd
000001e0: ff52 823d f575 5b3d ea64 423d 4cb6 1b3d
000001f0: 83e4 c6bd 0ae6 a43d 31a7 dfbd 96ae 5abd
00000200: df00 813b 18f4 4fb6 da06 acbb 5b75 cebd
00000210: 6943 093e 00ca b6bd e121 25bb 1ab7 0bbc
00000220: 3517 46bc cf15 13bd 2253 4a3c f9a2 033d
00000230: bad6 a4bd 35bd c13d 565e b7bc 21f0 d53d
00000240: 82f7 c5bd 1a43 cb3d 1710 af3d ea26 30bd
00000250: 1ede 8b3c c2d9 b23d 570b eabd 2a0f b93d
00000260: cece 873d d752 89bd 5af9 813d f5e5 6b3d
00000270: 946f 593c d528 aa3d cc5c cebd dff7 82bc
00000280: cd31 f43b 2330 c53d fded 963d 164b 16bc
00000290: 0ae7 6dbd 066c 0abe df0d d4bb ce14 18bd
000002a0: a471 06bd 6d48 b33c 330c 963d bb72 783d
000002b0: 3d7a 473c 81b1 1dbd 1b88 3d3d 162f ae3d
000002c0: c0c0 c9bc 47eb eebd 2a44 703b 31ee 51bd
000002d0: 661e e73d 63cd e2bd f073 74bd 415f 6e3d
000002e0: 3b85 a1bd 2da6 90bb 98ea 9d3d f84a bbbd
000002f0: b5e4 6d3d d4ac ef3d cc2f adbd aced 923c
00000300: e527 94bd 79d9 a6bd 0df8 fdbd add4 873d
00000310: 4193 b33d 700d afbd 98ff ae3d f1ab 3abd
00000320: e2a4 883d 6520 b7bd be4d f43d b3d9 f7bd
00000330: 7ac9 8c3d 0482 853d d6f5 d13c 75e3 0b3e
00000340: 1937 8b3d 781c a13d 09c1 f5bd efa3 c0bd
00000350: 5cfc 45bc 8ba3 fe3d 6bc3 983d dc61 f9bd
00000360: c04b af3d 1f3d cf3c d2be a6bc 0123 bebc
00000370: d1c5 4b3d 4706 67bd ebb2 853d 52a8 9cbd
00000380: 8902 e2bc df30 fa3c b59b 9fbc 29c6 033e
00000390: 69ea adbd cd8b 2c3d bb87 a63d d2c6 d2bc
000003a0: 322d 8f3d 38fd 02be 49af 6dbd d8e5 d3bd
000003b0: 3e4d c53c 505d 7bbd c507 cfbd c984 e9bd
000003c0: ab9f c03a fed4 c53d ffd7 eb3d 157b 51bc
000003d0: 4ee7 d6bc 033a b0bd ba71 df3d a188 e0bd
000003e0: 174f 19bc cd59 5dbd d406 01be a8c8 d33c
000003f0: 2e89 a4bd 6471 18bd 5b2f 193d c590 743d
0.0448746 0.08739343 0.07701499 0.026807364 -0.06953034 -0.006206529 -0.0042685615 0.055262905
0.03225212 -0.038272534 -0.14420508 -0.07171104 -0.020599628 0.028481802 0.146866 -0.09733342
0.027050393 -0.028090209 0.14908744 -0.007188817 -0.15087129 0.06771919 0.001476869 0.085852295
-0.15058629 -0.1537998 0.018795842 -0.116775975 -0.016617393 -0.031377956 0.0688321 0.01831703
-0.05553467 -0.016880143 -0.069494896 -0.06996212 -0.09921717 -0.011464884 -0.0017827748 -0.0023358045
-0.059486687 0.0014472617 -0.08249147 -0.094585344 0.06155362 0.12526843 -0.108414695 -0.008246534
0.07226888 0.120555654 0.027633747 -0.09038996 -0.12858278 -0.008955508 0.009859767 -0.015607132
0.046457488 -0.04694462 -0.073503874 -0.109756455 0.14335468 -0.11158335 0.0146393245 -0.08700903
0.11004914 0.01874987 0.14004649 -0.14277849 0.091542244 0.122105844 -0.12416943 0.01426357
0.018050246 -0.098486036 -0.033120994 -0.01710362 0.049458403 0.023323242 -0.037853945 0.09089554
0.07546784 0.101355806 0.026874473 -0.14118353 0.10662461 -0.0565495 -0.04665688 0.070926555
0.049625635 -0.11278071 -0.08232957 0.013748831 0.06276993 -0.069098935 0.111498974 0.08121061
-0.14497386 -0.023677332 0.06280066 -0.021780895 -0.080601566 -0.03170007 0.04263441 -0.025174042
-0.08056043 0.013683573 0.07128752 0.12564752 0.063703515 0.032659028 0.04377692 0.12822096
-0.107724555 -0.042001605 -0.07304658 -0.0654956 0.06542704 0.09169197 -0.06631213 -0.04646285
0.063634865 0.05357929 0.04745952 0.03801565 -0.09711554 0.08051689 -0.10920561 -0.053389154
0.0039368714 -3.0987485e-06 -0.00524984 -0.100809775 0.13404621 -0.08925247 -0.0025197195 -0.0085275415
-0.012090494 -0.03590947 0.012348922 0.032137845 -0.08048768 0.094599165 -0.02238385 0.104461916
-0.09666349 0.09924908 0.08547991 -0.04300586 0.017073687 0.0873294 -0.11427944 0.090360954
0.06631242 -0.067052536 0.06346388 0.05759235 0.013271231 0.08308569 -0.10076293 -0.015987335
0.007452226 0.09628322 0.073696114 -0.009173175 -0.058081664 -0.1351777 -0.00647138 -0.037129216
-0.03282322 0.021885121 0.073265456 0.06065629 0.01217514 -0.03849936 0.04627238 0.08505075
-0.024628043 -0.11665969 0.0036661723 -0.051252548 0.11285095 -0.11074331 -0.05968088 0.05819631
-0.0788674 -0.004414341 0.07710761 -0.091451585 0.05807944 0.11702886 -0.08456382 0.017935596
-0.07234172 -0.08146948 -0.124008276 0.066323616 0.08768321 -0.08547485 0.085448444 -0.045574132
0.06672074 -0.08941726 0.11928891 -0.1210207 0.06874366 0.06518939 0.025629919 0.13660987
0.067976184 0.07866758 -0.11999709 -0.09406268 -0.012084093 0.12433537 0.07459148 -0.12176868
0.0855937 0.0252977 -0.020354662 -0.02321005 0.0497492 -0.05640247 0.065282665 -0.07649292
-0.0275891 0.030540882 -0.019483427 0.12868561 -0.08491976 0.042125512 0.08131357 -0.02572957
0.06991042 -0.12791908 -0.058028493 -0.103465736 0.024084684 -0.061368287 -0.10108904 -0.1140228
0.0014696022 0.09659766 0.11515807 -0.012785693 -0.026233342 -0.08604815 0.109103635 -0.1096356
-0.009357235 -0.05404072 -0.12600261 0.025852516 -0.080339774 -0.037217513 0.037398677 0.059708375

decoder.6.bias f4 [118]
00000000: 4bb5 edbb dbaa 8abc 68d7 d5bc 483c b9bd
00000010: df8d a1bd 9c75 bebd 4449 9f3a 8168 c83c
00000020: e91d ef3d 4ec8 a03c 424e b6bd 1418 0e3e
00000030: d13c dcbc ca5b 013e f1f0 0e3e 9958 d13c
00000040: b941 b73d 3aaa f93b ba00 993d efdd c43c
00000050: 44d3 7dbd f51e c7bd f95f c6bc 1afd cdbd
00000060: f005 693d b4ea 37bd cf82 e0bd 1625 fabb
00000070: a7cf 513d cf07 48bd fcb8 e53c d542 cf3d
00000080: a8da 90bd 8163 9ebd 28d3 a83d 0293 513b
00000090: 32f2 2e3d 1e5e 0ebd 3112 873d 34be 133e
000000a0: 058c 923d 8996 afbd 89a3 bcbd 284d abbd
000000b0: 25b9 a6ba de6c 5ebd 1487 56bc 798b 02bd
000000c0: b6e8 cc3d 4267 153d d100 cabd ff68 ddbc
000000d0: 56e9 8dbd c356 023d f8da 813d 67c2 5a3d
000000e0: 3cab 373d 979e 823d 18b6 87bd 7932 b3bd
000000f0: 16f9 07bd 5fe2 d4bd 46a7 6b3c e8d9 903d
00000100: 1336 45bd 7e03 dcbd aacf fabc 4b57 3f3d
00000110: 1b8f b9bb f1ce 2bbd 34a0 83bc baa9 a53d
00000120: 885d b03d 490c a9bd c51b 303d 29f3 59bd
00000130: 7747 9fbd 98f5 7fbd 2a92 febc 5358 143d
00000140: 18f4 553c 3872 efbc d6d0 43bc f7e0 e03c
00000150: c5f9 87bd 1729 19bd efbb fe3c 55f5 233d
00000160: 4bd3 07bc 96b2 91bc 1f6e cebd 45e4 9abd
00000170: a4e8 af3d f26c a13d eac3 643d b424 eb3d
00000180: 2ae5 8fbd 643e 90bd 4339 9abd 019d e8bc
00000190: a9cc ab3d a4a8 bd3d 13c7 f63d 6e52 8a3d
000001a0: 1e30 b7bb a83b 88bd 5e36 b8bd c689 83bd
000001b0: ffdf b8bd 42fb 49bd 0f1a 0cbe f6f0 343d
000001c0: e932 d23d 30e7 05bd 6ad9 003e e621 8ebc
000001d0: b1d6 d2bd acdd 2a3d
-0.007254278 -0.016927173 -0.02610369 -0.09044701 -0.07888388 -0.09299776 0.0012152572 0.024463894
0.11675627 0.019626763 -0.08901645 0.13876373 -0.026884468 0.12632671 0.139591 0.025554942
0.089480825 0.0076191695 0.07470842 0.024031607 -0.061969057 -0.097227015 -0.024215685 -0.10058041
0.056890428 -0.044901565 -0.1096245 -0.0076338155 0.051223423 -0.04883557 0.028042309 0.10120169
-0.07072955 -0.077338226 0.082434 0.0031978493 0.042711444 -0.034757726 0.065952666 0.14428025
0.07155613 -0.08573634 -0.09210879 -0.08364326 -0.0012719972 -0.054303043 -0.013093729 -0.031871293
0.100053236 0.036475427 -0.09863437 -0.027027605 -0.06929271 0.031821024 0.06340593 0.053408053
0.044841036 0.06377905 -0.066265285 -0.08749861 -0.03319653 -0.10394739 0.014383143 0.07072812
-0.048147272 -0.107428536 -0.0306166 0.04671411 -0.0056628115 -0.0419454 -0.016067602 0.080890134
0.0861159 -0.08254296 0.042995233 -0.05321041 -0.07777303 -0.062490076 -0.031075556 0.036217045
0.013058685 -0.029229268 -0.011951646 0.027451022 -0.06639437 -0.037392702 0.031095473 0.04002889
-0.008290122 -0.017785352 -0.10079598 -0.0756307 0.085892946 0.07882108 0.0558509 0.1148161
-0.070261315 -0.0704315 -0.07530453 -0.028395178 0.08388645 0.09260681 0.12049689 0.067540035
-0.005590453 -0.066520035 -0.08994745 -0.064227626 -0.09027099 -0.049311884 -0.13681816 0.04417511
0.102636166 -0.03269118 0.12582937 -0.017350148 -0.102948554 0.04171531

estimation.0.weight f4 [10, 3]
00000000: 0c81 8fbe c1ab bebe 90f2 4fbe ad49 133f
00000010: 7c85 8e3e 1c59 b53e 3c8a 97bd 687f 053d
00000020: 0652 843e 2acd 433e f00c 2abe f5fe 84be
00000030: 3a61 98be cdd1 7fbc 2bbf c7be 6678 0cbe
00000040: f763 8d3e 206e ad3e 4d3a 91bd ba62 2d3d
00000050: 4fa8 f2be 2dd2 1f3e 8981 0abe faad 193e
00000060: af19 e5be a94d ef3e 2f30 e0bd 0aa0 c9be
00000070: cd6f ec3e db5c 493e
-0.28028142 -0.37240413 -0.20307374 0.57534295 0.27836215 0.35419548 -0.07399413 0.032592207
0.2584383 0.19121233 -0.16606498 -0.25975767 -0.29761678 -0.015613985 -0.39013037 -0.13717803
0.2761533 0.3387308 -0.07091198 0.04233048 -0.47394034 0.1560752 -0.13525976 0.15007773
-0.44746158 0.46738937 -0.1094669 -0.39379913 0.46179047 0.19664328

estimation.0.bias f4 [10]
00000000: dc98 283f 499b cebe e563 8cbe a5a2 8f3e
00000010: d24a abbd 899b ec3e 6d1c 09bf 1480 cf3e
00000020: dccf 1b3f 612e b53e
0.65858245 -0.40352848 -0.27419963 0.28053775 -0.0836388 0.46212414 -0.53559 0.40527403
0.60864043 0.35386947

estimation.3.weight f4 [4, 10]
00000000: 6365 e5bd 4443 bd3e 503c 2ebe a7ee 02be
00000010: b1fa 993d cb32 05be 1190 243e f0df 45be
00000020: a1af e83d 4ad0 8a3e 05f9 9ebe 74b8 73be
00000030: a63f ed3d c0fe 633e 1102 7dbe 9448 e6bd
00000040: ee61 113d ec22 863c 147a f53c 7952 86be
00000050: e49b bc3e be76 f9bb 508a a0be 2055 213e
00000060: 5391 1c3e 4db9 473e f6dd c7bd e763 4bbe
00000070: 09c4 083e ab84 ab3e 2f5b 503e ff44 cc3c
00000080: ae88 103e ce79 563a 234c 35be e4ea acbe
00000090: ed72 7c3e bb22 1d3e 9a40 9bbe d37d b8be
-0.112009786 0.36965382 -0.17015195 -0.12786351 0.07518519 -0.13007657 0.16070582 -0.19323707
0.113616236 0.27112037 -0.31049362 -0.23800832 0.115844056 0.22265148 -0.2470782 -0.11244312
0.035493784 0.016374074 0.029965438 -0.26234797 0.36837685 -0.007613032 -0.31355524 0.15755129
0.15289812 0.1950428 -0.097591326 -0.19862328 0.13356031 0.33499655 0.20347284 0.024935244
0.14114639 0.00081816025 -0.17704825 -0.33772957 0.24653216 0.1534528 -0.30322725 -0.36033496

estimation.3.bias f4 [4]
00000000: ea58 f7bd 77aa 2abe 9f63 903d bd4f 563d
-0.12077506 -0.1666659 0.07050251 0.052322138
