Baseline-models/DAGMM/DAGMM-CHD/no--dagmm/models/12_194_dagmm.pth (torch, 82200 bytes, 22 tensors)

phi f4 [4]
0.19826752 0.13984379 0.5437083 0.11818036
00000000: a406 4b3e 3633 0f3e 7830 0b3f 8b08 f23d

mu f4 [4, 3]
0.21035095 1.2336218 -0.13793017 0.24518633 1.2052946 -0.08824923 0.107386865 1.3172492
-0.28460664 0.26938853 1.1856494 -0.05379117
00000000: 3d66 573e 52e7 9d3f 913d 0dbe 2012 7b3e
00000010: 1847 9a3f 03bc b4bd a5ed db3d 9f9b a83f
00000020: f6b7 91be 4bed 893e 5cc3 973f 2154 5cbd

cov f4 [4, 3, 3]
0.21226208 -0.17240001 0.3023968 -0.17240001 0.14006166 -0.24563423 0.3023968 -0.24563423
0.43082684 0.22217153 -0.18045096 0.31652778 -0.18045096 0.14659539 -0.2571095 0.31652778
-0.2571095 0.45097336 0.16949737 -0.1376385 0.24145928 -0.1376385 0.11180854 -0.19610268
0.24145928 -0.19610268 0.34399518 0.22678657 -0.18414374 0.32306173 -0.18414374 0.14954576
-0.26233464 0.3230617 -0.26233464 0.46022198
00000000: 3b5b 593e a189 30be c1d3 9a3e a189 30be
00000010: 536c 0f3e 8a87 7bbe c1d3 9a3e 8a87 7bbe
00000020: 5695 dc3e ef80 633e 23c8 38be ee0f a23e
00000030: 23c8 38be 1a1d 163e dba3 83be ee0f a23e
00000040: dba3 83be fbe5 e63e b890 2d3e 1bf1 0cbe
00000050: 1a41 773e 1bf1 0cbe e0fb e43d 24cf 48be
00000060: 1a41 773e 24cf 48be 2320 b03e bd3a 683e
00000070: 2d90 3cbe 5968 a53e 2d90 3cbe 8622 193e
00000080: ba50 86be 5868 a53e ba50 86be 37a2 eb3e

encoder.0.weight f4 [60, 118]
-0.023843173 0.08329065 0.02140328 -0.001848344 0.08262784 -0.0331263 0.031913407 0.053167883
-0.067953095 0.06361049 0.033850633 0.010884945 0.042413794 0.045347128 -0.06337069 -0.042533215
0.075676955 -0.0468111 -0.026814543 -0.07519136 -0.02318774 -0.03015139 0.031595055 -0.05639474
0.086968325 0.060501907 0.08750326 -0.03186419 -0.042063195 -0.09231021 -0.08738498 -0.019901672
0.055805966 0.032642312 -0.041961063 0.05173153 -0.022649996 -0.05611523 -0.01656803 -0.059477843
0.045276254 0.036312517 0.026085481 -0.0036024617 -0.034304146 0.0101027 -0.07780413 -0.034806564
-0.040397014 -0.07608633 -0.03868293 -0.0220147 -0.023642356 -0.012404181 0.002911588 -0.087738484
-0.040799696 -0.01300261 -0.0041482714 -0.018583747 -0.0062211454 -0.034109473 0.08162465 0.03746278
0.07854087 0.07627457 0.066918336 -0.07084907 0.041833155 0.069784634 0.09151643 0.0347579
0.06391701 -0.056427263 0.03637189 -0.08261409 -0.03840875 -0.01823331 -0.07737106 -0.0056772656
-0.028808951 0.03085606 -0.04463443 0.0028904686 0.064026445 -0.006963663 -0.076337725 0.035825018
-0.09295048 0.07920651 0.008981872 0.012436386 -0.06937713 0.025204748 0.03559268 0.07832413
0.032042176 0.00014427304 0.064009726 -0.04533917 0.06331556 0.059420537 -0.050782688 -0.03189837
-0.0022246556 0.046909224 -0.0036587194 -0.06910405 0.05290956 0.029364452 -0.042300135 0.014888196
-0.021936966 -0.07226047 0.06880411 -0.017347643 0.052758873 -0.0099793 -0.028978279 0.060040753
0.08831462 -0.007761153 -0.00978109 -0.064393006 -0.062879816 0.03571387 -0.0041427733 0.05270756
0.0460297 0.035145298 -0.014321175 0.035391048 -0.024367705 -0.031279046 0.041319776 -0.023132205
0.04560435 -0.029040176 0.04162484 0.07311679 0.01699572 -0.042225745 0.022544503 -0.05662744
-0.05112592 -0.10542595 0.075465515 -0.07979412 0.014579082 0.0061066914 0.078269504 0.013812333
0.020201826 -0.06251205 0.037373573 0.08135196 -0.06967432 -0.019804688 -0.08694323 0.009144339
0.02734501 -0.032752983 -0.01773054 -0.0321266 -0.019324247 0.039508518 0.09081927 0.08921861
-0.035535924 0.0091944365 -0.07030242 0.064677194 -0.070123814 0.03140251 -0.0185201 0.054384235
0.076955356 -0.013980956 0.08877542 -0.02238762 0.05962342 0.020864725 0.07828054 0.049160164
-0.007847221 0.013755577 0.004611454 -0.052575313 -0.027019579 -0.027481213 0.059312824 0.051315766
0.068216585 -0.03803006 -0.01662453 0.07124956 0.03152331 0.0021425965 -0.0016644537 0.025418064
-0.06557832 -0.062080473 -0.076767676 0.04495891 -0.0053606937 -0.1290627 -0.0041944752 -0.026081566
0.06082495 0.0029067688 -0.08079841 0.07131586 -0.032218613 -0.041711476 -0.05147214 -0.06191109
-0.025564216 -0.08053622 -0.013026363 -0.054646377 0.11219176 -0.02249428 0.0895411 -0.04264563
0.0032949501 0.028243553 -0.016802493 -0.09920517 -0.017987033 0.03177278 -0.031599894 0.0042643184
0.011106504 0.0951216 -0.04128678 -0.018460725 -0.010378068 -0.05480281 0.01516286 -0.04655558
0.041004308 -0.09439716 -0.09224963 0.04026967 0.070053294 -0.011213315 0.0032513374 0.0031648537
0.073800005 0.04086195 0.008236662 0.053802308 0.028673261 0.0067831194 0.005679435 0.077040225
00000000: c252 c3bc 4a94 aa3d ee55 af3c 2244 f2ba
00000010: c938 a93d 71af 07bd a2b7 023d 91c6 593d
00000020: fe2a 8bbd 3746 823d f6a6 0a3d c556 323c
00000030: 16ba 2d3d e9bd 393d 7ec8 81bd 4f37 2ebd
00000040: 85fc 9a3d ffbc 3fbd 2caa dbbc eefd 99bd
00000050: 37f4 bdbc 0c00 f7bc d169 013d 2cfe 66bd
00000060: 731c b23d d9d0 773d e934 b33d 0684 02bd
00000070: 754a 2cbd 230d bdbd e5f6 b2bd d508 a3bc
00000080: cc94 643d f2b3 053d 5ddf 2bbd 71e4 533d
00000090: 7c8c b9bc 15d9 65bd adb9 87bc 0a9f 73bd
000000a0: 9873 393d 6fbc 143d 38b1 d53c 4717 6cbb
000000b0: 8182 0cbd cc85 253c c657 9fbd 5491 0ebd
000000c0: 5777 25bd 26d3 9bbd fe71 1ebd 2c58 b4bc
000000d0: 9dad c1bc e83a 4bbc 57d0 3e3b 3cb0 b3bd
000000e0: 951d 27bd e608 55bc 39ee 87bb f13c 98bc
000000f0: c0da cbbb 60b6 0bbd d32a a73d 9272 193d
00000100: 09da a03d d735 9c3d 7b0c 893d 5119 91bd
00000110: 3e59 2b3d 3feb 8e3d f76c bb3d 4d5e 0e3d
00000120: ece6 823d 4620 67bd b1fa 143d 9331 a9bd
00000130: 7e52 1dbd 065e 95bc b874 9ebd 5b08 babb
00000140: c000 ecbc d9c5 fc3c 98d2 36bd 046e 3d3b
00000150: 4c20 833d 702f e4bb f456 9cbd 41bd 123d
00000160: d25c bebd 0637 a23d b428 133c fcc1 4b3c
00000170: 9915 8ebd 307a ce3c a1c9 113d 6768 a03d
00000180: a83e 033d 0048 1739 8817 833d 91b5 39bd
00000190: 97ab 813d f362 733d 8201 50bd dda7 02bd
000001a0: 87cb 11bb e323 403d 20c7 6fbb 6d86 8dbd
000001b0: b2b7 583d b88d f03c e842 2dbd 9fed 733c
000001c0: 27b5 b3bc 4cfd 93bd 2be9 8c3d a51c 8ebc
000001d0: b019 583d 3880 23bc db63 edbc 4bed 753d
000001e0: 4cde b43d 4551 febb dd40 20bc 7be0 83bd
000001f0: 22c7 80bd b548 123d 1ac0 87bb e2e3 573d
00000200: a489 3c3d 84f4 0f3d 5da3 6abc 34f6 103d
00000210: c89e c7bc 751e 00bd ed3e 293d c07f bdbc
00000220: a0cb 3a3d aae5 edbc cf7e 2a3d 41be 953d
00000230: 9c3a 8b3c e7f4 2cbd 40af b83c 2df2 67bd
00000240: 6a69 51bd 8fe9 d7bd aa8d 9a3d 196b a3bd
00000250: 1add 6e3c a41a c83b c34b a03d 204d 623c
00000260: 4d7e a53c 5106 80bd 0815 193d db9b a63d
00000270: 69b1 8ebd 713d a2bc 4b0f b2bd 23d2 153c
00000280: a402 e03c fe27 06bd a33f 91bc 2f97 03bd
00000290: e24d 9ebc afd3 213d 74ff b93d 3fb8 b63d
000002a0: 1e8e 11bd 43a4 163c b7fa 8fbd 7a75 843d
000002b0: 139d 8fbd eb9f 003d 77b7 97bc 01c2 5e3d
000002c0: c59a 9d3d 6110 65bc e3cf b53d 3e66 b7bc
000002d0: b037 743d 80ec aa3c 8c51 a03d 2b5c 493d
000002e0: a191 00bc 125f 613c ae1b 973b 3659 57bd
000002f0: 2a58 ddbc 4820 e1bc 01f2 723d 7b30 523d
00000300: 23b5 8b3d 68c5 1bbd 2b30 88bc 4aeb 913d
00000310: 961e 013d ce6a 0c3b cc29 daba 8b39 d03c
00000320: ed4d 86bd 1848 7ebd 5f38 9dbd d626 383d
00000330: c2a8 afbb 0329 04be cf71 89bb 02a9 d5bc
00000340: 9523 793d 7d7f 3e3b a379 a5bd 0d0e 923d
00000350: aaf7 03bd a7d9 2abd 73d4 52bd 7c96 7dbd
00000360: 0c6c d1bc 2cf0 a4bd 876c 55bc e1d4 5fbd
00000370: cbc4 e53d ed45 b8bc 5361 b73d 2fad 2ebd
00000380: 17f0 573b 065f e73c 62a5 89bc 152c cbbd
00000390: 8b59 93bc 2d24 023d e46e 01bd b2bb 8b3b
000003a0: 0ef8 353c 1dcf c23d 541c 29bd f23a 97bc
000003b0: c608 2abc e978 60bd a56d 783c 10b1 3ebd
000003c0: 22f4 273d 4c53 c1bd 60ed bcbd cff1 243d
000003d0: 1a78 8f3d 0db8 37bc 6414 553b 6f69 4f3b
000003e0: 7524 973d dc5e 273d 10f3 063c cf5f 5c3d
000003f0: 30e4 ea3c ee44 de3b 8e1a ba3b 44c7 9d3d

encoder.0.bias f4 [60]
0.02789927 0.08303044 4.7462345e-05 0.03986974 -0.06511381 0.03492908 -0.097397394 -0.02896706
0.057991046 0.07184943 -0.0075651174 -0.037932698 -0.045401473 0.062685445 -0.03353194 -0.07353373
-0.012332699 0.0699736 -0.050524384 0.120100126 -0.0016216664 0.054447703 -0.1172899 -0.012460882
0.031663336 0.013057213 0.044270676 -0.035193186 -0.02298589 0.08532398 0.043639228 -0.01875417
0.070664726 -0.07356034 0.019599535 -0.07989461 0.076664224 0.11936882 -0.05810897 0.0010969782
-0.056107968 -0.022642666 0.025418555 -0.01773751 -0.042745966 -0.028226906 0.038911786 -0.03295921
-0.04047643 -0.020563768 -0.03937577 -0.042794254 -0.0773837 -0.03969978 -0.013990517 -0.0067369775
0.035001125 0.002665133 -0.026198436 0.061779924
00000000: 038d e43c dd0b aa3d 4e12 4738 744e 233d
00000010: 645a 85bd cc11 0f3d 4978 c7bd 544c edbc
00000020: 0588 6d3d cb25 933d cee4 f7bb 515f 1bbd
00000030: e5f6 39bd 3a61 803d ca58 09bd da98 96bd
00000040: 170f 4abc 524e 8f3d a8f2 4ebd 0ef7 f53d
00000050: 188e d4ba 8e04 5f3d b035 f0bd ba28 4cbc
00000060: 6ab1 013d eced 553c 2b55 353d bb26 10bd
00000070: e84c bcbc 57be ae3d 0cbf 323d 58a2 99bc
00000080: abb8 903d cea6 96bd 348f a03c c99f a3bd
00000090: 2202 9d3d a477 f43d ac03 6ebd 7bc8 8f3a
000000a0: 78d1 65bd 1d7d b9bc 933a d03c 414e 91bc
000000b0: 6516 2fbd 1d3c e7bc f761 1f3d 3d00 07bd
000000c0: 9dca 25bd 5975 a8bc 7d48 21bd 0749 2fbd
000000d0: 587b 9ebd 3d9c 22bd 7b38 65bc ddc1 dcbb
000000e0: 575d 0f3d 83a9 2e3b 1a9e d6bc f20c 7d3d

encoder.2.weight f4 [30, 60]
-0.12269347 0.10733164 -0.0591459 -0.021680271 -0.1013189 0.060002875 -0.07498298 0.08784905
0.08785088 -0.052911956 0.063347206 -0.013388401 -0.1138263 -0.082382485 0.11210652 0.04568125
-0.0025374726 -0.03621005 0.11183732 -0.030107839 0.1080614 -0.113523684 -0.11213996 0.02519637
0.09686214 0.04388354 -0.006456617 0.019200731 0.11399619 -0.12967502 0.01023704 -0.075645275
0.018543903 0.00011620668 -0.034566943 0.018112179 0.076809846 0.0032290898 0.010951299 0.0639634
0.13488752 -0.075206205 -0.09133383 -0.11351215 -0.12016205 -0.014290345 -0.052125864 -0.11680885
-0.062815264 0.025907062 0.10191686 0.12488139 0.07228086 -0.040871963 0.012673399 0.011922122
-0.10029291 0.13592063 -0.12134428 0.10854135 -0.090116516 0.010256787 0.10268302 -0.06588603
0.099725194 -0.07783072 0.07453839 0.11862395 0.105906256 0.055455107 0.035107713 0.11517046
0.040599223 -0.051919226 0.045576397 -0.10340978 -0.069516644 0.016365064 0.039134145 -0.0435931
-0.10753662 0.033739127 0.005497253 -0.013472165 -0.008832656 0.032180306 0.09070353 0.12218357
0.06322299 -0.04001656 0.023778012 -0.110073626 0.07544621 -0.09450755 -0.028248621 0.10301115
0.058115013 -0.111789726 0.090146445 0.09164675 0.07116785 0.06821288 -0.07798842 -0.12094734
0.087389424 -0.023460794 0.06062554 0.073313236 0.07308462 -0.078824565 -0.11225111 -0.026953958
-0.059389215 -0.10131621 0.0887542 0.13348243 -0.037768215 0.075380825 0.06030936 0.04815321
-0.030872328 -0.08174889 -0.029699713 0.028951306 0.08143908 0.04801448 0.1032587 -0.061913215
-0.056237802 -0.06314736 -0.09120912 -0.023790361 -0.072589144 0.06489489 0.03298535 -0.032548852
0.08988135 0.07224493 -0.10384667 -0.003592031 0.026267976 0.06650044 -0.13301656 -0.13761838
-0.1370473 -0.0015273455 0.13601421 0.06290648 -0.12492512 0.10730856 -0.071606725 -0.08743181
0.12915778 0.03930705 0.055266764 -0.0053915456 0.023721784 0.010617473 0.029525504 -0.0016752284
-0.13017987 0.13408749 0.10294801 -0.007717691 -0.021748552 0.104800664 0.11199097 0.056835074
0.072445095 -0.10582307 0.062205862 0.10800263 -0.07843743 0.13698839 -0.09610108 -0.13262284
-0.07604358 -0.019868629 -0.107999936 -0.050596267 0.104548626 0.065222554 -0.01326207 -0.022904212
-0.12508275 0.13636102 -0.050554708 -0.0028096763 -0.062139723 -0.089494035 -0.13106234 -0.114446476
-0.012249817 0.05517668 0.07760962 -0.03124681 0.0107359905 0.07375278 0.0654629 0.1330039
-0.029241951 -0.03589981 -0.014844347 0.07651781 0.026035326 -0.1363785 0.095697865 -0.003187071
-0.11262141 0.13931724 -0.08007 -0.0018914856 -0.07030634 -0.08365737 -0.10503536 0.07538638
0.061994936 -0.046664264 0.07144703 -0.10723397 -0.045408536 0.008245416 0.104624435 0.10212084
-0.0818231 0.042193267 -0.025819343 0.093856156 -0.07636261 -0.117731124 -0.034475617 0.040527813
-0.04858241 0.056373797 -0.12935154 -0.11256194 0.04031419 -0.13129827 0.052667517 0.018677128
0.1100055 -0.030918377 -0.01819664 -0.13680752 -0.07370943 -0.07365032 -0.13202041 -0.08134529
0.09731655 -0.082841195 -0.14817171 -0.12973845 -0.094686285 0.07092457 -0.10478122 -0.06068558
00000000: b746 fbbd b1d0 db3d f942 72bd d39a b1bc
00000010: 4980 cfbd 93c5 753d ad90 99bd 34ea b33d
00000020: 2aeb b33d 35ba 58bd 2ebc 813d 065b 5bbc
00000030: c31d e9bd 26b8 a8bd 1a98 e53d 431c 3b3d
00000040: ba4b 26bb fd50 14bd f70a e53d b7a4 f6bc
00000050: 4c4f dd3d 1b7f e8bd a3a9 e5bd 9e68 ce3c
00000060: a85f c63d 3abf 333d 0792 d3bb da4a 9d3c
00000070: d676 e93d 87c9 04be 42b9 273c e9eb 9abd
00000080: 62e9 973c fcb3 f338 1196 0dbd fe5f 943c
00000090: 7b4e 9d3d 239f 533b 146d 333c 3eff 823d
000000a0: f41f 0a3e b605 9abd 3b0d bbbd 0f79 e8bd
000000b0: 8517 f6bd 0d22 6abc ee81 55bd 7a39 efbd
000000c0: 4aa5 80bd 0c3b d43c c9b9 d03d d0c1 ff3d
000000d0: fd07 943d 5c69 27bd 17a4 4f3c 0155 433c
000000e0: 5f66 cdbd c72e 0b3e 5a83 f8bd ed4a de3d
000000f0: 028f b8bd 150c 283c 7a4b d23d 41ef 86bd
00000100: b93c cc3d b665 9fbd 95a7 983d 1df1 f23d
00000110: 61e5 d83d e524 633d 1bcd 0f3d 7dde eb3d
00000120: 5f4b 263d 41a9 54bd 51ae 3a3d 82c8 d3bd
00000130: be5e 8ebd 0710 863c 204b 203d ae8e 32bd
00000140: 293c dcbd 0a32 0a3d 4d22 b43b 5bba 5cbc
00000150: d8b6 10bc 7fcf 033d c6c2 b93d 613b fa3d
00000160: 0e7b 813d 68e8 23bd 1bca c23c 486e e1bd
00000170: 8b83 9a3d 2d8d c1bd a769 e7bc 83f7 d23d
00000180: 020a 6e3d 03f2 e4bd b39e b83d 4bb1 bb3d
00000190: 73c0 913d 32b3 8b3d 65b8 9fbd 3db3 f7bd
000001a0: 3af9 b23d da30 c0bc 7c52 783d 4025 963d
000001b0: 64ad 953d c66e a1bd e9e3 e5bd 8cce dcbc
000001c0: 1b42 73bd e07e cfbd c3c4 b53d 9eaf 083e
000001d0: d8b2 1abd 4361 9a3d f306 773d 4d3c 453d
000001e0: f7e7 fcbc f66b a7bd d04c f3bc 4a2b ed3c
000001f0: 88c9 a63d d5aa 443d 4c79 d33d b698 7dbd
00000200: 9c59 66bd 6753 81bd d9cb babd 01e4 c2bc
00000210: 9ea9 94bd 9de7 843d a51b 073d f251 05bd
00000220: b713 b83d 26f5 933d 90ad d4bd 4868 6bbb
00000230: f02f d73c 6231 883d 7e35 08be d5eb 0cbe
00000240: 2156 0cbe 3631 c8ba 4f47 0b3e 1dd5 803d
00000250: bed8 ffbd 97c4 db3d 8ca6 92bd 730f b3bd
00000260: f041 043e 6e00 213d 675f 623d 90ab b0bb
00000270: 3054 c23c e9f4 2d3c 78df f13c 5693 dbba
00000280: df4d 05be 3b4e 093e 68d6 d23d afe4 fcbb
00000290: 052a b2bc bba1 d63d 865b e53d e5cb 683d
000002a0: 185e 943d c4b9 d8bd 93cb 7e3d 7c30 dd3d
000002b0: cea3 a0bd af46 0c3e a5d0 c4bd 48ce 07be
000002c0: bdbc 9bbd 89c3 a2bc 122f ddbd 083e 4fbd
000002d0: 971d d63d 6793 853d 2749 59bc 9da1 bbbc
000002e0: b115 00be 39a2 0b3e 7412 4fbd 8c22 38bb
000002f0: 3986 7ebd a648 b7bd 3535 06be ea62 eabd
00000300: 75b3 48bc f100 623d cbf1 9e3d 4ff9 ffbc
00000310: 02e6 2f3c b30b 973d 6a11 863d 2d32 083e
00000320: d18c efbc ae0b 13bd b435 73bc 5fb5 9c3d
00000330: 0948 d53c cea6 0bbe 3efd c33d 2ede 50bb
00000340: 0ea6 e6bd 2ea9 0e3e bdfb a3bd baeb f7ba
00000350: c5fc 8fbd 8e54 abbd c71c d7bd 2d64 9a3d
00000360: 67ee 7d3d 0723 3fbd d252 923d 7c9d dbbd
00000370: 4dfe 39bd c817 073c 5645 d63d bb24 d13d
00000380: df92 a7bd d9d2 2c3d 1683 d3bc a837 c03d
00000390: 0064 9cbd 041d f1bd 4e36 0dbd 7e00 263d
000003a0: 59fe 46bd 36e8 663d bb74 04be e086 e6bd
000003b0: 7e20 253d 0e73 06be e5b9 573d c700 993c
000003c0: 904a e13d 8948 fdbc 1f11 95bc 4517 0cbe
000003d0: f8f4 96bd fbd5 96bd 5c30 07be 5c98 a6bd
000003e0: e64d c73d a5a8 a9bd 53ba 17be 28da 04be
000003f0: e2ea c1bd e740 913d 8997 d6bd 7191 78bd

encoder.2.bias f4 [30]
-0.11151808 -0.024938315 0.10092103 -0.017638447 0.08065061 0.0037320177 0.0787048 0.03194443
0.014916895 -0.029944208 -0.06574519 0.105968796 0.050788075 0.008055246 0.13036615 0.030797938
0.0036342815 0.069379084 0.06781095 0.022930216 0.049459007 0.060856126 -0.030708058 0.07383483
0.08766922 0.10929085 0.042968016 0.042083886 0.09867018 0.06644117
00000000: 9763 e4bd 704b ccbc afaf ce3d 817e 90bc
00000010: 262c a53d de94 743b fb2f a13d 2ad8 023d
00000020: fe65 743c 8e4d f5bc 6aa5 86bd 2b06 d93d
00000030: 2807 503d 27fa 033c b47e 053e f54b fc3c
00000040: 202d 6e3b 9f16 8e3d 78e0 8a3d 26d8 bb3c
00000050: 8795 4a3d 4644 793d 778f fbbc b736 973d
00000060: ec8b b33d e2d3 df3d 3bff 2f3d 2760 2c3d
00000070: 9713 ca3d 4f12 883d

encoder.4.weight f4 [10, 30]
-0.15803011 0.16513875 -0.06822586 -0.046969365 0.104432546 0.017049791 -0.05622693 -0.13710174
-0.16386083 -0.05046227 0.07316389 -0.16927144 0.060424726 0.20047672 0.029503448 0.1662154
0.05005371 -0.1919851 -0.022745766 0.14055444 -0.0717604 -0.011250124 -0.110768065 0.11541173
-0.023439823 -0.0682189 0.10117251 0.14810531 0.12669343 0.022302331 0.16887096 -0.079234615
-0.056360856 -0.11346001 0.04699738 -0.13822564 0.0895746 0.090511054 -0.12078419 0.07145541
-0.02476214 -0.16325656 0.15255807 -0.03727333 -0.05265617 -0.07545412 0.039904468 -0.17386672
-0.1273824 0.16120254 0.17411609 -0.10869156 0.09682528 0.04814287 -0.14776057 -0.17213327
0.07391305 0.092827044 -0.1855116 -0.0029423744 -0.13463224 -0.07660993 -0.017005688 0.16638355
0.07849499 -0.14110075 -0.048816912 0.1829368 -0.041090686 -0.03494073 -0.037413117 -0.15265961
-0.1216543 0.13777252 -0.116787784 -0.019607864 0.16790919 0.14480752 -0.16194934 0.004915846
-0.18436494 -0.04930794 -0.022671243 0.035254914 -0.06376356 0.1751603 -0.11828548 0.14943177
0.17964469 0.018654224 -0.10858542 0.003406157 0.077474475 0.023503596 0.18060896 -0.03507058
0.19695382 -0.051642433 -0.18292886 -0.052503996 -0.0041242545 0.13906015 -0.03255456 0.13113508
0.16229743 0.042920753 0.030725278 -0.011273536 -0.043070246 0.07766213 -0.038901288 -0.1227407
0.04983552 0.12658514 -0.02013015 -0.04137079 0.04851991 0.15540473 -0.1408523 -0.10957423
0.1921586 0.00544368 -0.11731708 -0.16528936 -0.018960018 -0.07346991 -0.17877455 -0.02757879
0.08365758 0.058949847 -0.115526505 0.06745309 -0.0025112664 -0.1499882 -0.0021295268 -0.050707188
-0.16970325 -0.1348817 0.024478016 -0.09152655 -0.13362907 -0.00097642763 -0.123103395 -0.10764357
-0.062011834 0.07641491 0.017764647 -0.008043165 -0.17122559 0.0018529517 -0.059534997 0.087821014
-0.0544526 0.15190446 0.06113728 0.03989524 0.10649964 -0.07737185 -0.13505898 0.039930586
-0.12128309 -0.009719928 -0.15599988 0.12424269 0.15086603 0.1368108 0.0995154 -0.17863697
-0.10376071 -0.082110904 -0.001218098 -0.033548176 0.10695391 0.059266713 0.11319763 0.08501794
-0.14737144 -0.04404088 0.032575097 -0.17039143 0.07076281 -0.07916754 0.03819361 0.13128462
0.10626994 -0.16672151 0.036137804 -0.0997333 0.15632369 0.11964633 0.18096036 0.0641336
0.06800509 -0.030895596 0.021013167 -0.14644974 -0.12270953 -0.08406455 0.06217195 -0.12914973
-0.16063993 -0.11549734 0.1977905 -0.08530006 -0.1446439 0.0749575 -0.19573723 0.13676088
0.12706324 -0.015183926 0.0023249544 0.06442902 -0.038232043 0.02584443 -0.10646977 0.057162803
0.075158454 0.1359555 -0.07078046 0.10149203 -0.10912452 0.13316828 0.07072703 0.06150049
-0.08983516 -0.17698956 -0.16261376 -0.13959399 -0.034992512 0.034401618 -0.07720752 -0.06953683
0.14680876 0.08105791 -0.14890124 0.08076326 0.11830034 -0.07783949 0.18000679 0.024282003
-0.0060448395 0.13661945 -0.07841204 0.07866546 0.0037416855 -0.109059766 0.09768734 -0.15376516
0.14776474 0.056696624 -0.127543 -0.06279271 0.19958144 0.2031873 0.038811702 0.15561628
00000000: a5d2 21be 221a 293e 00ba 8bbd f362 40bd
00000010: bbe0 d53d 01ac 8b3c 364e 66bd 6664 0cbe
00000020: 22cb 27be 86b1 4ebd f3d6 953d 7e55 2dbe
00000030: eb7f 773d c549 4d3e 37b1 f13c 5f34 2a3e
00000040: 1e05 4d3d be97 44be 5455 babc 81ed 0f3e
00000050: 1ef7 92bd 7152 38bc 5eda e2bd fc5c ec3d
00000060: df04 c0bc 5ab6 8bbd 8833 cf3d eba8 173e
00000070: ecbb 013e 61b3 b63c 82ec 2c3e c245 a2bd
00000080: a4da 66bd b95d e8bd 5380 403d 068b 0dbe
00000090: e372 b73d dc5d b93d b45d f7bd 3757 923d
000000a0: f9d9 cabc ba2c 27be 2f38 1c3e ebab 18bd
000000b0: ffad 57bd b187 9abd de72 233d 1e0a 32be
000000c0: 8870 02be 4712 253e 7d4b 323e ae99 debd
000000d0: 554c c63d 7531 453d 8c4e 17be b443 30be
000000e0: ba5f 973d 1b1c be3d c1f6 3dbe dad4 40bb
000000f0: 09dd 09be abe5 9cbd 834f 8bbc 7360 2a3e
00000100: fbc1 a03d b77c 10be 3ef4 47bd c953 3b3e
00000110: b54e 28bd 031e 0fbd 7f3e 19bd cd52 1cbe
00000120: e425 f9bd 3d14 0d3e 6f2e efbd aca0 a0bc
00000130: 63f0 2b3e 6c48 143e 0cd6 25be 1b15 a13b
00000140: 2aca 3cbe 1ff7 49bd 0bb9 b9bc 7567 103d
00000150: 7896 82bd 395d 333e a83f f2bd a404 193e
00000160: c7f4 373e bed0 983c 0862 debd d539 5f3b
00000170: f0aa 9e3d 9d8a c03c 8ef1 383e 2ba6 0fbd
00000180: 43ae 493e 0487 53bd b451 3bbe 6e0e 57bd
00000190: c124 87bb c965 0e3e ee57 05bd 4648 063e
000001a0: 4c31 263e accd 2f3d 94b3 fb3c a3b4 38bc
000001b0: 6d6a 30bd 530d 9f3d f556 1fbd 7a5f fbbd
000001c0: 5520 4c3d 899f 013e fce7 a4bc 6b74 29bd
000001d0: d0bc 463d 6b22 1f3e 963b 10be 7468 e0bd
000001e0: 39c5 443e e660 b23b f043 f0bd 9d41 29be
000001f0: 0a52 9bbc 6477 96bd ad10 37be eaec e1bc
00000200: aa54 ab3d 6575 713d 2999 ecbd d824 8a3d
00000210: 0f94 24bb 8296 19be 888f 0bbb 57b2 4fbd
00000220: b0c6 2dbe 6e1e 0abe 1f86 c83c 4672 bbbd
00000230: 0fd6 08be f3f6 7fba a21d fcbd 3b74 dcbd
00000240: 1f00 7ebd 6c7f 9c3d 2a87 913c 7bc7 03bc
00000250: c355 2fbe bede f23a f8da 73bd 81db b33d
00000260: b109 5fbd d88c 1b3e 166b 7a3d 3169 233d
00000270: 7c1c da3d 2275 9ebd e74c 0abe 418e 233d
00000280: 4563 f8bd 5540 1fbc 6fbe 1fbe f472 fe3d
00000290: a07c 1a3e 2118 0c3e bbce cb3d 9cec 36be
000002a0: 7f80 d4bd c329 a8bd 96a8 9fba d069 09bd
000002b0: a70a db3d a7c1 723d 29d4 e73d e31d ae3d
000002c0: 8ae8 16be 3664 34bd 776d 053d 177b 2ebe
000002d0: 18ec 903d 9722 a2bd e770 1c3d 7a6f 063e
000002e0: 0ea4 d93d 0bb9 2abe 3c05 143d f940 ccbd
000002f0: 5113 203e 2309 f53d ac4d 393e 7a58 833d
00000300: 4146 8b3d c318 fdbc ce23 ac3c ecf6 15be
00000310: 224f fbbd 092a acbd 04a8 7e3d d43f 04be
00000320: cb7e 24be df89 ecbd 9889 4a3e ccb1 aebd
00000330: 881d 14be 5183 993d 576f 48be 0b0b 0c3e
00000340: de1c 023e 00c6 78bc 435e 183b 5df3 833d
00000350: 3499 1cbd b3b7 d33c d30c dabd 8b23 6a3d
00000360: adec 993d eb37 0b3e 59f5 90bd 0edb cf3d
00000370: ad7c dfbd 445d 083e 55d9 903d f0e7 7b3d
00000380: 7ffb b7bd c03c 35be 3984 26be baf1 0ebe
00000390: 4f54 0fbd b6e8 0c3d fa1e 9ebd 5369 8ebd
000003a0: 0955 163e b101 a63d 9179 18be 3567 a53d
000003b0: 7347 f23d 4f6a 9fbd b353 383e 0deb c63c
000003c0: ca13 c6bb f8e5 0b3e 7e96 a0bd 5b1b a13d
000003d0: 1137 753b ba5a dfbd 4d10 c83d 9d74 1dbe
000003e0: a44f 173e b83a 683d a29a 02be 7799 80bd
000003f0: 145f 4c3e 5510 503e 05f9 1e3d e059 1f3e

encoder.4.bias f4 [10]
-0.06393474 -0.07160957 0.03497292 -0.04782105 0.07468519 0.15111183 -0.12387376 -0.09172598
-0.06034098 -0.024983423
00000000: 38f0 82bd 0aa8 92bd c43f 0f3d 01e0 43bd
00000010: 8df4 983d 0fbd 1a3e 87b1 fdbd d5da bbbd
00000020: 1a28 77bd 09aa ccbc

encoder.6.weight f4 [1, 10]
-0.31713107 -0.030917529 0.32466224 0.23112997 -0.124585025 -0.0015974053 0.190648 0.034855917
-0.3360465 -0.20643893
00000000: 015f a2be c246 fdbc 213a a63e 56ad 6c3e
00000010: 6f26 ffbd 0760 d1ba 3b39 433e 14c5 0e3d
00000020: 490e acbe ba64 53be

decoder.0.weight f4 [10, 1]
0.36585185 -0.7252233 0.39487273 0.8757443 -0.6907036 -0.42232504 0.4566777 0.8992856
0.23957911 -0.6449034
00000000: ef50 bb3e 3ca8 39bf c22c ca3e c730 603f
00000010: f3d1 30bf fd3a d8be a9d1 e93e 9537 663f
00000020: 3a54 753e 6418 25bf

decoder.0.bias f4 [10]
0.99830675 -0.20174594 0.11244583 0.0054005594 0.28828958 -0.5042135 0.007932999 -0.7603642
-0.7034248 -0.7480462
00000000: 0891 7f3f 7d96 4ebe 004a e63d 2df7 b03b
00000010: b19a 933e 2314 01bf 69f9 013c 3aa7 42bf
00000020: a613 34bf f57f 3fbf

decoder.2.weight f4 [30, 10]
0.07186575 -0.1704515 -0.16691598 0.2485811 -0.14714901 -0.072251566 0.0050051115 -0.22325295
0.00092192617 0.037308678 0.055934317 0.11688878 -0.043686133 -0.32900533 0.11641715 0.32380432
-0.12945084 0.21719445 0.2872087 -0.18424371 -0.23897073 -0.31039304 0.024965236 0.15091576
-0.3151744 0.31820914 -0.22284795 -0.11690186 0.059632897 -0.021357263 0.2932656 -0.26425147
0.14836313 0.0743876 0.06825035 -0.03410629 0.14766814 -0.05231531 0.010225575 0.1737624
-0.026212888 0.22213109 0.087052174 -0.27419907 0.087735355 0.10049103 0.31177744 -0.123525634
-0.123047255 0.23616728 0.1599707 0.31302148 0.015174633 0.13379356 -0.26388296 0.27772006
-0.09438554 -0.34072667 -0.12484253 -0.15122381 0.30255342 0.13432999 0.31535032 -0.17419942
0.16522391 -0.05465917 -0.013273282 0.0053490684 0.018326793 0.30510792 -0.026426913 -0.019647375
0.18741757 0.19434655 0.13494426 0.15772393 0.32413596 0.26618803 -0.083512306 0.16169195
-0.037463527 -0.2377475 -0.27553147 0.25768226 -0.14192416 -0.08574523 -0.26797763 -0.09289706
0.33477885 -0.29071972 -0.10774665 -0.023184652 -0.15278259 0.1972056 0.10082862 -0.15643407
-0.13616021 0.08414673 -0.09063671 -0.12738818 0.1871073 -0.17800775 -0.29426232 -0.26956367
0.066750675 0.017351773 0.22814435 0.30445787 0.064867355 0.057462994 0.0019440217 -0.03668771
0.19128256 0.010410162 -0.19953977 0.0691657 0.050723854 -0.29651976 -0.13127269 -0.11608368
-0.085899934 0.24563202 -0.110115424 0.33351362 0.08918355 -0.10749674 -0.007345299 -0.073809296
-0.19446191 0.09551089 0.20714213 -0.07909648 -0.18433878 -0.2927819 0.20066841 -0.05916989
0.16731846 0.27872208 0.02874364 -0.12057396 0.2266732 0.2079993 -0.19670145 -0.27459854
-0.0044315555 0.1621692 -0.020410925 0.0233923 -0.14947857 -0.22660379 0.2718115 0.30134794
-0.18330093 0.22276925 -0.07174596 -0.25754333 0.17122574 0.04251523 0.053483397 -0.3083484
-0.25299126 0.18688306 -0.08331283 -0.2751994 -0.04386217 0.017915085 -0.27785406 -0.24088976
0.2917062 0.06556833 -0.084519446 0.16452368 -0.3176367 -0.21430363 0.096196346 -0.17813925
-0.04547408 -0.30828583 -0.13838317 -0.13352965 -0.039668627 0.013409603 -0.23857343 0.07415819
0.045008577 0.108524375 0.111789145 -0.17127204 0.09363261 0.032784343 0.11311623 0.26823536
0.020087907 0.060368847 -0.028834622 -0.17181954 0.3179721 -0.061441544 -0.09673576 0.09440008
-0.27033022 0.23752254 0.29588485 0.17077371 0.055143274 -0.08959643 0.09955854 0.13493672
-0.30657595 -0.27221328 -0.22788906 0.22093755 -0.09883375 0.22704633 -0.07731448 -0.11034769
-0.087216236 -0.18486753 -0.22803384 -0.045570936 -0.2824791 0.052953184 -0.05145094 0.18452492
0.018418109 -0.101815455 0.2700991 0.14782973 0.12916115 0.039274376 0.19732982 0.0067384914
-0.16939606 0.101535745 0.038070228 0.06464193 -0.047775347 -0.21101087 0.056691717 -0.29698005
-0.08767838 -0.27243152 0.14704709 0.1393617 -0.01931611 -0.042906042 0.17984672 0.30340913
0.21729797 0.09266283 -0.08053128 0.07588326 -0.21928664 -0.07993668 0.2957739 -0.23401932
00000000: 5a2e 933d d78a 2ebe 06ec 2abe 0b8c 7e3e
00000010: 3bae 16be a1f8 93bd eb01 a43b 6c9c 64be
00000020: 6bad 713a fcd0 183d 621b 653d 6263 ef3d
00000030: 3bf0 32bd 6373 a8be 1d6c ee3d aec9 a53e
00000040: c38e 04be 3968 5e3e 050d 933e 62aa 3cbe
00000050: beb4 74be d6eb 9ebe e583 cc3c a989 1a3e
00000060: 8a5e a1be 4fec a23e 4132 64be 3e6a efbd
00000070: a041 743d 6df5 aebc e926 963e f84b 87be
00000080: 81ec 173e 8758 983d d7c6 8b3d 0ab3 0bbd
00000090: 5136 173e 9448 56bd 2c89 273c c5ee 313e
000000a0: 69bc d6bc 5576 633e 6948 b23d d263 8cbe
000000b0: 98ae b33d 3ece cd3d 4ba1 9f3e 02fb fcbd
000000c0: 3300 fcbd d6d5 713e 5ccf 233e 5a44 a03e
000000d0: 069f 783c 2e01 093e ab1b 87be 5331 8e3e
000000e0: 354d c1bd ba73 aebe 71ad ffbd 6ada 1abe
000000f0: 48e8 9a3e cd8d 093e 9975 a13e 5561 32be
00000100: 7530 293e 4be2 5fbd 2e78 59bc 3d47 af3b
00000110: 1222 963c 1b37 9c3e 417d d8bc 88f3 a0bc
00000120: 64ea 3f3e c802 473e d42e 0a3e 6282 213e
00000130: 26f5 a53e cc49 883e 8008 abbd 9392 253e
00000140: 5b73 19bd 1574 73be 7612 8dbe eeee 833e
00000150: 9154 11be 329b afbd 5d34 89be d040 bebd
00000160: 2268 ab3e 37d9 94be 47aa dcbd bded bdbc
00000170: 0a73 1cbe 44f0 493e 3c7f ce3d 4130 20be
00000180: 956d 0bbe 1f55 ac3d bd9f b9bd 0c72 02be
00000190: 0e99 3f3e aa47 36be 8da9 96be 4004 8abe
000001a0: 94b4 883d 4e25 8e3c ac9e 693e e7e1 9b3e
000001b0: 2dd9 843d 515e 6b3d 8bce fe3a da45 16bd
000001c0: 93df 433e 628f 2a3c 2754 4cbe bfa6 8d3d
000001d0: d1c3 4f3d 70d1 97be 596c 06be 48bd edbd
000001e0: 4eec afbd f686 7b3e 3284 e1bd 4cc2 aa3e
000001f0: dda5 b63d 4027 dcbd d5b0 f0bb 5429 97bd
00000200: 0621 47be 379b c33d 111d 543e 56fd a1bd
00000210: 4ec3 3cbe 82e7 95be 057c 4d3e 205c 72bd
00000220: 8855 2b3e a9b4 8e3e c877 eb3c 7bef f6bd
00000230: 051d 683e c5fd 543e 1b6c 49be 2e98 8cbe
00000240: 9536 91bb af0f 263e d034 a7bc 35a1 bf3c
00000250: e910 19be d30a 68be e02a 8b3e 474a 9a3e
00000260: 3db3 3bbe 9f1d 643e 8cef 92bd b8dc 83be
00000270: cd55 2f3e 7324 2e3d 6811 5b3d d7df 9dbe
00000280: 1288 81be 465e 3f3e eb9f aabd f0e6 8cbe
00000290: d2a8 33bd a8c2 923c e342 8ebe ceab 76be
000002a0: 845a 953e b048 863d 8818 adbd e578 283e
000002b0: 47a1 a2be 6972 5bbe 9702 c53d 236a 36be
000002c0: 0743 3abd a4d7 9dbe 51b4 0dbe ffbb 08be
000002d0: 927b 22bd f4b3 5b3c 984c 74be 40e0 973d
000002e0: ea5a 383d 0742 de3d b5f1 e43d f061 2fbe
000002f0: 74c2 bf3d e048 063d 7ba9 e73d 2556 893e
00000300: 658f a43c 5345 773d 9636 ecbc 76f1 2fbe
00000310: 3dcd a23e 21aa 7bbd 661d c6bd d454 c13d
00000320: b968 8abe 1c39 733e 387e 973e 4edf 2e3e
00000330: eadd 613d 557e b7bd 59e5 cb3d da2c 0a3e
00000340: 86f7 9cbe 8a5f 8bbe c05b 69be 743d 623e
00000350: 5969 cabd d57e 683e 0e57 9ebd f8fd e1bd
00000360: 6d9e b2bd ea4d 3dbe b481 69be 97a8 3abd
00000370: 1aa1 90be 70e5 583d 39be 52bd 1af4 3c3e
00000380: 93e1 963c 9f84 d0bd 6e4a 8a3e ad60 173e
00000390: d242 043e 2bde 203d d410 4a3e 90ce dc3b
000003a0: 2976 2dbe f9f1 cf3d 87ef 1b3d fd62 843d
000003b0: 15b0 43bd 3c13 58be 9335 683d c50d 98be
000003c0: b990 b3bd 257c 8bbe 8393 163e d5b4 0e3e
000003d0: d23c 9ebc 3fbe 2fbd bd29 383e 7158 9b3e
000003e0: 5c83 5e3e 03c6 bd3d 95ed a4bd af68 9b3d
000003f0: ad8c 60be d8b5 a3bd ad6f 973e c3a2 6fbe

decoder.2.bias f4 [30]
0.19961753 -0.028141167 -0.029945394 -0.13600309 0.31776747 -0.18144625 0.21466751 0.04157153
-0.19972931 0.095908456 -0.27861026 -0.033867065 0.02784072 0.29963925 -0.29918116 0.23283273
0.033909116 -0.065495394 -0.26814437 0.18184836 -0.08722662 -0.29298812 -0.16090804 0.21833073
-0.07863047 -0.14641643 0.052811872 -0.18167911 -0.2264011 -0.16133809
00000000: 8a68 4c3e 4e88 e6bc 0b50 f5bc 6544 0bbe
00000010: 6bb2 a23e 0ccd 39be cdd1 5b3e e946 2a3d
00000020: d785 4cbe a76b c43d 01a6 8ebe 31b8 0abd
00000030: 3912 e43c 516a 993e 462e 99be b46b 6e3e
00000040: 49e4 0a3d 7322 86bd 384a 89be 7536 3a3e
00000050: dfa3 b2bd 8a02 96be 14c5 24be 1792 5f3e
00000060: 0309 a1bd 30ee 15be 4351 583d 170a 3abe
00000070: b1d5 67be d035 25be

decoder.4.weight f4 [60, 30]
0.029658107 -0.13278346 0.1518978 -0.014636515 0.15812954 0.01604041 0.02541037 0.14158244
-0.102320425 -0.018963782 -0.18497282 0.05297752 -0.07757067 -0.044382107 0.10954657 0.016542956
-0.049890567 -0.07346518 -0.14706685 -0.030427484 0.16615443 -0.1291197 0.10461081 0.17389993
-0.14569902 -0.022508476 -0.11408126 0.072128564 -0.13853456 0.04511534 -0.044532884 -0.08592404
-0.0824813 -0.16606292 -0.15529184 -0.003842893 -0.17606911 0.06918117 -0.10723002 -0.1270543
-0.13708156 0.042600464 0.013591624 0.014566884 0.10223785 -0.049199164 -0.09333159 0.015233927
0.1358412 -0.05968904 -0.009030416 -0.043077357 -0.0046846266 -0.1749381 0.12581526 0.16096379
0.13566478 0.038712993 0.073000364 -0.08519676 0.14821722 0.06616292 -0.05126525 -0.1607105
0.08822135 0.036039267 0.13435072 -0.04237535 0.06769915 0.1333404 0.00867786 -0.15078604
0.11129769 0.04999685 0.027220316 0.0053867367 0.12343274 -0.058862593 0.13433784 0.14405546
0.06959681 0.038971655 0.03918235 -0.075934485 0.09424546 0.15455137 0.07706074 -0.13336016
0.08168974 -0.06963839 0.059291877 0.07830441 0.10066812 0.005231853 -0.04124122 -0.039673015
0.056729745 0.06706789 0.105578154 -0.05111938 -0.062774435 -0.12848556 0.19621624 0.10373167
-0.018323783 -0.021118239 -0.0328002 0.19404837 -0.1875927 -0.13478476 -0.00794164 0.14796963
0.038193688 -0.1525906 -0.19616549 0.025224054 -0.07054879 -0.11540698 0.08360894 0.15595981
0.09014238 0.085875966 -0.116528675 0.106987506 -0.08262955 0.1933879 0.15370153 -0.043987505
-0.04476736 -0.07507961 -0.07735959 0.10897185 -0.114053525 -0.098562256 0.12877655 0.0069012293
0.15581697 0.21366724 -0.10100289 0.15753873 0.034544956 -0.0099227 0.13532361 -0.15368842
0.12939203 -0.15094638 -0.09972251 0.045957025 -0.19005309 -0.1037663 0.08235684 -0.08902169
-0.17508349 0.1314396 -0.12860656 0.07154313 -0.15353382 -0.18534945 -0.12512894 -0.0783683
-0.13283806 0.16009745 -0.11308089 0.17032711 0.05594115 0.11561611 -0.09835074 -0.06494659
0.11048065 -0.13071153 0.14230555 0.116388954 -0.121389605 0.18221027 0.039190754 -0.08520485
0.032063488 -0.18641272 0.14953908 0.13930553 0.08810213 0.097312994 -0.057851642 -0.06842273
0.048687886 0.09360566 0.20616633 -0.15315823 -0.06693404 -0.0887213 -0.01230293 0.17999403
0.038733747 0.1802869 -0.08161056 0.040840257 0.040566605 -0.089327976 0.039985247 0.08305577
0.07146785 0.049132288 -0.07334154 0.1639754 -0.17088434 0.15464228 0.06844336 0.1255889
0.110859156 -0.019490069 0.097897545 0.05154648 -0.10951134 0.036310967 0.08065282 -0.1646944
0.12638438 0.14170608 -0.065118074 -0.18496704 0.18144052 -0.049834277 0.1341728 -0.07343083
-0.18181822 -0.16365789 -0.0030484651 -0.12187616 -0.046775606 -0.14958721 -0.1288397 -0.12563694
0.04285242 -0.12137053 0.10009008 0.016092317 0.181631 0.08523257 0.041672047 0.12423959
0.049503125 -0.1369833 -0.04181805 -0.14376336 0.13160135 0.0023994606 0.15767092 -0.035210747
-0.19109422 -0.16627072 -0.16350867 0.020534897 0.003750261 0.11324317 -0.07913738 0.13053302
00000000: 8ff5 f23c 63f8 07be 198b 1b3e fecd 6fbc
00000010: b6ec 213e 2e67 833c 6929 d03c fdfa 103e
00000020: 5f8d d1bd ef59 9bbc 8469 3dbe f5fe 583d
00000030: 5fdd 9ebd 03ca 35bd f459 e03d 1885 873c
00000040: 0d5a 4cbd ea74 96bd b198 16be 0f43 f9bc
00000050: 6324 2a3e f437 04be 313e d63d d312 323e
00000060: 2032 15be b263 b8bc 70a3 e9bd 24b8 933d
00000070: 01dc 0dbe ddca 383d 1d68 36bd f1f8 afbd
00000080: f5eb a8bd 660c 2abe d304 1fbe 0cd9 7bbb
00000090: 764b 34be dbae 8d3d 6a9b dbbd 861a 02be
000000a0: 1c5f 0cbe d37d 2e3d 67af 5e3c f1a9 6e3c
000000b0: 1462 d13d 1085 49bd a224 bfbd b997 793c
000000c0: f519 0b3e 7f7c 74bd 4ff4 13bc e271 30bd
000000d0: 7f81 99bb f922 33be b7d5 003e b1d3 243e
000000e0: b5eb 0a3e 8491 1e3d 3781 953d a47b aebd
000000f0: 41c6 173e 6d80 873d 83fb 51bd 4b91 24be
00000100: 65ad b43d e99d 133d 3c93 093e c691 2dbd
00000110: daa5 8a3d 638a 083e 952d 0e3c a867 1abe
00000120: 0bf0 e33d 7fc9 4c3d 24fd de3c 3983 b03b
00000130: 4eca fc3d e719 71bd dc8f 093e 4683 133e
00000140: c688 8e3d bea0 1f3d ac7d 203d 8a83 9bbd
00000150: c403 c13d b742 1e3e 05d2 9d3d 918f 08be
00000160: f34c a73d 929e 8ebd 0adc 723d 105e a03d
00000170: 162b ce3d f76f ab3b 8eec 28bd 2c80 22bd
00000180: 735d 683d e45a 893d 5c39 d83d 8e62 51bd
00000190: e28f 80bd b891 03be e9ec 483e 4571 d43d
000001a0: c21b 96bc 2800 adbc 8159 06bd 9eb4 463e
000001b0: 4d18 40be 0405 0abe a71d 02bc 5a85 173e
000001c0: fc70 1c3d b640 1cbe 9bdf 48be ada2 ce3c
000001d0: e27b 90bd 7f5a ecbd 2a3b ab3d eeb3 1f3e
000001e0: 919c b83d bddf af3d 96a6 eebd 441c db3d
000001f0: ae39 a9bd 7a07 463e ef63 1d3e 3e2c 34bd
00000200: fb5d 37bd 57c3 99bd b46e 9ebd a22c df3d
00000210: e594 e9bd 02db c9bd 00de 033e b523 e23b
00000220: 7c8e 1f3e 96cb 5a3e 9ada cebd d551 213e
00000230: 037f 0d3d d292 22bc 4692 0a3e 7f60 1dbe
00000240: 587f 043e b091 1abe 513b ccbd 6f3d 3c3d
00000250: 479d 42be 6d83 d4bd b4aa a83d 0151 b6bd
00000260: 1649 33be 1a98 063e 70b1 03be 3485 923d
00000270: f837 1dbe 3fcc 3dbe cd21 00be 8f7f a0bd
00000280: b306 08be 96f0 233e f496 e7bd 3b6a 2e3e
00000290: 8c22 653d 24c8 ec3d 1d6c c9bd b802 85bd
000002a0: ae43 e23d 3ed9 05be 8cb8 113e 555d ee3d
000002b0: 1d9b f8bd 5495 3a3e 7c86 203d e17f aebd
000002c0: 0155 033d fae2 3ebe c620 193e 1ca6 0e3e
000002d0: e46e b43d 094c c73d d8f5 6cbd 3721 8cbd
000002e0: f36c 473d 53b4 bf3d 441d 533e 83d5 1cbe
000002f0: b714 89bd 83b3 b5bd 3a92 49bc 5b50 383e
00000300: 47a7 1e3d 219d 383e 7023 a7bd 1d48 273d
00000310: 2b29 263d 96f1 b6bd 92c7 233d 2519 aa3d
00000320: bc5d 923d f03e 493d 1734 96bd 2be9 273e
00000330: 4efc 2ebe 8c5a 1e3e 082c 8c3d 609a 003e
00000340: 200a e33d a3a9 9fbc 827e c83d 6722 533d
00000350: 7b47 e0bd cfba 143d 4e2d a53d a6a5 28be
00000360: e86a 013e 661b 113e a05c 85bd 0068 3dbe
00000370: 8bcb 393e 071f 4cbd 9864 093e e762 96bd
00000380: 8e2e 3abe ef95 27be c2c8 47bb 359a f9bd
00000390: c797 3fbd 642d 19be 8eee 03be f8a6 00be
000003a0: 0586 2f3d 1d91 f8bd 07fc cc3d 09d4 833c
000003b0: 7afd 393e 6a8e ae3d 4fb0 2a3d 5371 fe3d
000003c0: cac3 4a3d 5a45 0cbe 6749 2bbd b436 13be
000003d0: 81c2 063e 4540 1d3b 7c74 213e 2539 10bd
000003e0: 34ae 43be df42 2abe d16e 27be cd38 a83c
000003f0: f0c6 753b 09ec e73d c712 a2bd 73aa 053e

decoder.4.bias f4 [60]
-0.08910256 0.10534835 0.15729746 0.083307296 0.15952122 -0.13831419 0.06889052 0.07495698
-0.15546423 0.01670199 0.1142217 0.0487044 0.19056633 -0.10874451 -0.08514302 0.14437
-0.12985775 -0.13523853 -0.16977893 0.1495321 0.19262719 0.13182324 -0.07122577 -0.023098826
0.1844066 0.036795598 0.04168399 0.14931513 0.12648356 0.054834884 -0.111430325 -0.14287402
-0.029785346 -0.019013647 0.15237048 -0.09085516 -0.081926726 -0.04932082 -0.08171449 0.050759517
-0.044247653 0.07954488 0.12945537 0.15958396 -0.00055572006 -0.09581973 0.0593143 0.13886802
-0.029693073 0.03688406 0.08062077 -0.11536087 -0.09744973 -0.12697043 0.030002631 0.0903435
0.17286083 0.037476894 -0.16663349 0.09027397
00000000: 677b b6bd e0c0 d73d 9612 213e 049d aa3d
00000010: 8859 233e 3ca2 0dbe 7916 8d3d 0c83 993d
00000020: 0432 1fbe 9dd2 883c 11ed e93d 447e 473d
00000030: d223 433e 71b5 debd 775f aebd bbd5 133e
00000040: 6ef9 04be f87b 0abe 87da 2dbe f11e 193e
00000050: 1040 453e acfc 063e d1de 91bd c039 bdbc
00000060: 15d5 3c3e fbb6 163d d5bc 2a3d 11e6 183e
00000070: e884 013e 8b9a 603d 9535 e4bd 914d 12be
00000080: 6600 f4bc 82c2 9bbc 0207 1c3e 4512 babd
00000090: 33c9 a7bd a104 4abd ed59 a7bd 36e9 4f3d
000000a0: 073d 35bd 6de8 a23d f38f 043e fa69 233e
000000b0: bead 11ba 223d c4bd 8df3 723d 6b33 0e3e
000000c0: e33e f3bc bd13 173d 811c a53d 5242 ecbd
000000d0: b993 c7bd 8904 02be 14c8 f53c 0306 b93d
000000e0: 6e02 313e 5f81 193d f8a1 2abe 8fe1 b83d

decoder.6.weight f4 [118, 60]
0.044746462 0.088878244 0.074191846 0.02320518 -0.07319239 -0.0035689853 -0.00774904 0.058834337
0.029318957 -0.04116362 -0.14856835 -0.0684059 -0.022735702 0.029147245 0.14785501 -0.10051885
0.023939304 -0.02521691 0.15047756 -0.010812429 -0.15349968 0.0639978 0.00082318846 0.088685155
-0.15317509 -0.15744373 0.021947872 -0.121361196 -0.019689607 -0.031732373 0.07004083 0.022178767
-0.05551039 -0.016994435 -0.064164475 -0.07197301 -0.10306831 -0.016714066 0.0019073281 -0.003953349
-0.05742572 0.0042443955 -0.08633325 -0.09706295 0.06526562 0.12818833 -0.11203089 -0.010149869
0.068940096 0.12348406 0.029713616 -0.08730923 -0.13289742 -0.0067898976 0.010054087 -0.012317719
0.04995464 -0.045326382 -0.07725073 -0.11316958 0.14269085 -0.1105621 0.013281513 -0.08846911
0.10849861 0.01901011 0.13858446 -0.1413454 0.09014976 0.120755926 -0.12607135 0.015351512
0.01697102 -0.09771037 -0.03229969 -0.018108964 0.047980886 0.02457923 -0.036952928 0.08924843
0.074381456 0.10017967 0.026711054 -0.13981628 0.10548496 -0.0582745 -0.045179173 0.06911726
0.04817152 -0.113502406 -0.08146698 0.015299669 0.06208816 -0.06848916 0.11306004 0.08011464
-0.14572015 -0.025691282 0.06441082 -0.022711238 -0.07949823 -0.030761352 0.04094186 -0.026226558
-0.079135746 0.0150187 0.070678115 0.12462772 0.062246904 0.03390826 0.044797845 0.12839004
-0.10955943 -0.04092627 -0.07233606 -0.064366676 0.06709245 0.092417106 -0.06767386 -0.048027307
0.06234599 0.05476819 0.047247473 0.037116457 -0.09802864 0.07900436 -0.1102834 -0.052295163
0.003000104 -0.0010515018 -0.0047687497 -0.1025521 0.13284394 -0.08792613 -0.0012287839 -0.00689959
-0.009488022 -0.034868274 0.01366594 0.03173623 -0.0817717 0.09346837 -0.020827193 0.10552538
-0.09783763 0.10244584 0.08629529 -0.042378563 0.01620325 0.086059034 -0.113053516 0.0911658
0.06523898 -0.0658077 0.06454215 0.05642602 0.014737347 0.084452435 -0.10025382 -0.017182348
0.008686096 0.0949934 0.07315935 -0.010392764 -0.059813105 -0.13404427 -0.0049924697 -0.038254205
-0.033715308 0.022947853 0.07444151 0.059278183 0.013951677 -0.03724448 0.047581468 0.08370069
-0.027217146 -0.1155798 0.0052495613 -0.052033417 0.11184404 -0.1096361 -0.06093481 0.056624204
-0.08028998 -0.004659933 0.075632766 -0.089894995 0.05675347 0.11571681 -0.08623175 0.019216666
-0.07355851 -0.08044239 -0.122906 0.06514463 0.08624724 -0.084272414 0.08651141 -0.047131076
0.065393254 -0.09077974 0.119502425 -0.119650014 0.06741849 0.063592434 0.027029095 0.13467346
0.06661968 0.07763765 -0.11891298 -0.09247224 -0.012991765 0.12545721 0.07623774 -0.12295129
0.085021734 0.022951497 -0.018791033 -0.024455858 0.05097746 -0.055130213 0.06376378 -0.07769709
-0.025835814 0.03189811 -0.01987008 0.12747534 -0.08626397 0.043470673 0.082570925 -0.026183253
0.06784416 -0.12665743 -0.05686013 -0.10142022 0.02558495 -0.05995307 -0.10314312 -0.115456864
0.0015163092 0.09696437 0.11401516 -0.014024987 -0.02725329 -0.0837894 0.108029366 -0.108601354
-0.010176216 -0.054910555 -0.12763171 0.028458923 -0.08083275 -0.037151907 0.03759195 0.05735242
00000000: 1148 373d cc05 b63d e5f1 973d ca18 be3c
00000010: e4e5 95bd a3e5 69bb a9eb fdbb 46fc 703d
00000020: 4f2e f03c 2f9b 28bd 4d22 18be 6418 8cbd
00000030: 3940 babc 34c6 ee3c 4e67 173e d4dc cdbd
00000040: 5c1c c43c b193 cebc ca16 1a3e 9d26 31bc
00000050: 052f 1dbe 4711 833d 3ecb 573a 90a0 b53d
00000060: eed9 1cbe ee38 21be 06cc b33c 388c f8bd
00000070: 194c a1bc cef9 01bd 9171 8f3d 3fb0 b53c
00000080: dd5e 63bd ea37 8bbc aa68 83bd 9666 93bd
00000090: 7a15 d3bd f0eb 88bc 50ff f93a 188b 81bb
000000a0: 3b37 6bbd 9214 8b3b 7dcf b0bd f1c8 c6bd
000000b0: fba9 853d cd43 033e 7470 e5bd a34b 26bc
000000c0: 7730 8d3d 36e5 fc3d f869 f33c 2ecf b2bd
000000d0: 4316 08be ca7d debb e6b9 243c 42d0 49bc
000000e0: 3d9d 4c3d 28a8 39bd a135 9ebd 74c5 e7bd
000000f0: 8d1d 123e 626e e2bd b49a 593c 4b2f b5bd
00000100: 8534 de3d 17bb 9b3c 16e9 0d3e d9bc 10be
00000110: 70a0 b83d e24e f73d d918 01be e884 7b3c
00000120: cf06 8b3c 601c c8bd ae4c 04bd 4059 94bc
00000130: 9b87 443d 625a c93c f45b 17bd e2c7 b63d
00000140: 4e55 983d 002b cd3d 24d1 da3c 002c 0fbe
00000150: 8008 d83d 3eb1 6ebd cc0d 39bd 5a8d 8d3d
00000160: 804f 453d f373 e8bd 29d8 a6bd 76ab 7a3c
00000170: 2850 7e3d 0b44 8cbd 068c e73d 2513 a43d
00000180: aa37 15be 8676 d2bc d2e9 833d eb0c babc
00000190: f8cf a2bd 3bff fbbc a7b2 273d 14d9 d6bc
000001a0: ec11 a2bd fe10 763c b0bf 903d d13c ff3d
000001b0: 9cf6 7e3d 63e3 0a3d f27d 373d ae78 033e
000001c0: b260 e0bd 4ea2 27bd ee24 94bd add2 83bd
000001d0: c467 893d 2e45 bd3d 9898 8abd 48b8 44bd
000001e0: 825e 7f3d 9c54 603d 9186 413d 6d07 183d
000001f0: 3dc3 c8bd 0acd a13d 43dc e1bd 7433 56bd
00000200: 659d 443b 8cd2 89ba 2c43 9cbb d606 d2bd
00000210: 3e08 083e 9d12 b4bd 250f a1ba f515 e2bb
00000220: a673 1bbc 09d2 0ebd 1be7 5f3c d9fd 013d
00000230: ec77 a7bd 586c bf3d ca9d aabc b11d d83d
00000240: 185f c8bd 20cf d13d 96bb b03d 2595 2dbd
00000250: aebc 843c b83f b03d 9a88 e7bd 23b5 ba3d
00000260: 049c 853d 30c6 86bd ad2e 843d f81e 673d
00000270: ea74 713c 66f5 ac3d e051 cdbd ffc1 8cbc
00000280: 2150 0e3c e68b c23d 92d4 953d 6946 2abc
00000290: 96fe 74bd e742 09be df97 a3bb 71b0 1cbd
000002a0: 1019 0abd 23fd bb3c ca74 983d aecd 723d
000002b0: 9395 643c ab8d 18bd c9e4 423d 446b ab3d
000002c0: 7ef6 debc 1ab5 ecbd 8304 ac3b fe20 55bd
000002d0: 7d0e e53d e488 e0bd c896 79bd c8ee 673d
000002e0: 136f a4bd 5ab2 98bb 5ae5 9a3d de1a b8bd
000002f0: 5476 683d effc ec3d 469a b0bd 456c 9d3c
00000300: d8a5 96bd fbbe a4bd 24b6 fbbd 8c6a 853d
00000310: 65a2 b03d 0497 acbd e52c b13d 840c 41bd
00000320: e6ec 853d baea b9bd b0bd f43d 110b f5bd
00000330: b512 8a3d c03c 823d 1f6c dd3c d7e7 093e
00000340: e66f 883d 7d00 9f3d a688 f3bd 1662 bdbd
00000350: 69db 54bc db77 003e 8822 9c3d e3cd fbbd
00000360: e01f ae3d c704 bc3c a7ef 99bc a757 c8bc
00000370: becd 503d 38d0 61bd 9696 823d a71f 9fbd
00000380: a1a5 d3bc 98a7 023d 94c6 a2bc e588 023e
00000390: 2aab b0bd 4e0e 323d f21a a93d 437e d6bc
000003a0: e1f1 8a3d 7cb2 01be 2be6 68bd 68b5 cfbd
000003b0: 8797 d13c 5a91 75bd b33c d3bd a674 ecbd
000003c0: e5be c63a 4195 c63d c880 e93d 0fc9 65bc
000003d0: 4b42 dfbc c799 abbd 803e dd3d 636a debd
000003e0: 25ba 26bc e4e9 60bd e3b1 02be b022 e93c
000003f0: a48b a5bd 992c 18bd 04fa 193d 5fea 6a3d

decoder.6.bias f4 [118]
-0.0082103815 -0.01765347 -0.027459787 -0.0915072 -0.07900352 -0.09210682 0.00156272 0.02374622
0.11577294 0.019953668 -0.08855752 0.13831337 -0.025856033 0.1255497 0.13860898 0.024547465
0.08802038 0.0063382164 0.074252136 0.0233924 -0.062437627 -0.097278595 -0.025347738 -0.09969653
0.057338253 -0.044750642 -0.109067805 -0.0077500064 0.050395817 -0.048043616 0.028531184 0.10061687
-0.07036385 -0.076646365 0.0811223 0.0032023862 0.04223901 -0.033790797 0.06631802 0.14366615
0.07111919 -0.08502668 -0.09153182 -0.08305518 -0.0022809864 -0.05365167 -0.012475348 -0.0325277
0.100424595 0.03577672 -0.097722314 -0.025976887 -0.06838618 0.032154135 0.06382348 0.05323702
0.044811994 0.064227656 -0.06688482 -0.08749157 -0.033088878 -0.10381707 0.014375262 0.0701596
-0.048217814 -0.10605912 -0.03196831 0.04630379 -0.00552591 -0.040881403 -0.01684323 0.079632364
0.08538986 -0.08235215 0.042150665 -0.052866947 -0.07684731 -0.06301956 -0.030585362 0.03541257
0.013063676 -0.02833998 -0.011150603 0.027024774 -0.0674393 -0.03629843 0.030604238 0.039632197
-0.009076072 -0.01824088 -0.100835115 -0.07466838 0.08484037 0.07862843 0.055548526 0.11389685
-0.07027821 -0.07092255 -0.07479489 -0.029668145 0.084601775 0.0927014 0.119567655 0.066389576
-0.006842411 -0.06745977 -0.09038544 -0.064221576 -0.091014214 -0.049783587 -0.13609487 0.042094946
0.101185545 -0.033453744 0.124802664 -0.017359775 -0.10390995 0.04024682
00000000: d684 06bc 039e 90bc 59f3 e0bc 2068 bbbd
00000010: 99cc a1bd 80a2 bcbd 2fd4 cc3a 6f87 c23c
00000020: 5d1a ed3d e075 a33c a55d b5bd 05a2 0d3e
00000030: 08d0 d3bc 1a90 003e 83ef 0d3e c417 c93c
00000040: 0744 b43d d0b0 cf3b 8111 983d 6ba1 bf3c
00000050: 99be 7fbd 003a c7bd 0fa6 cfbc b22d ccbd
00000060: 84db 6a3d 734c 37bd f15e dfbd c4f3 fdbb
00000070: d86b 4e3d 62c9 44bd 3bba e93c 3810 ce3d
00000080: ec1a 90bd c5f8 9cbd 7323 a63d 20df 513b
00000090: d002 2d3d 3868 0abd bed1 873d 381d 133e
000000a0: f0a6 913d 7822 aebd 0975 bbbd d618 aabd
000000b0: 9a7c 15bb dbc1 5bbd 6765 4cbc c43b 05bd
000000c0: 69ab cd3d 9c8a 123d a322 c8bd 7bcd d4bc
000000d0: 0e0e 8cbd 0eb4 033d e2b5 823d 100f 5a3d
000000e0: c88c 373d ca89 833d e9fa 88bd c82e b3bd
000000f0: 3488 07bd 0b9e d4bd 3886 6b3c d6af 8f3d
00000100: 0b80 45bd 8635 d9bd 34f1 02bd 0ba9 3d3d
00000110: b112 b5bb 4273 27bd d0fa 89bc 4b16 a33d
00000120: e1e0 ae3d 3ea8 a8bd 2da6 2c3d 038b 58bd
00000130: 1f62 9dbd 6610 81bd 278e fabc c50c 113d
00000140: 0709 563c 3f29 e8bc 05b1 36bc 0f63 dd3c
00000150: 9e1d 8abd aaad 14bd bdb5 fa3c 5f55 223d
00000160: ceb3 14bc e66d 95bc a482 cebd bceb 98bd
00000170: cac0 ad3d f107 a13d da86 633d c042 e93d
00000180: 06ee 8fbd d83f 91bd 102e 99bd 9c0a f3bc
00000190: b243 ad3d 3bda bd3d e3df f43d 42f7 873d
000001a0: 4e36 e0bb 5928 8abd 001c b9bd 9a86 83bd
000001b0: a965 babd e0e9 4bbd 745c 0bbe c06b 2c3d
000001c0: 5e3a cf3d cb06 09bd 8a98 ff3d 1636 8ebc
000001d0: bdce d4bd d9d9 243d

estimation.0.weight f4 [10, 3]
-0.285516 -0.34137022 -0.23226105 0.5771677 0.2679225 0.3565481 -0.07556513 0.0077865184
0.26604554 0.19043139 -0.13203686 -0.2644497 -0.298228 0.008099542 -0.39901805 -0.13766852
0.30031744 0.31905466 -0.061378032 0.014058534 -0.44825554 0.1554836 -0.15568934 0.1555584
-0.44391692 0.4759633 -0.107659124 -0.39129227 0.47506446 0.19555803
00000000: 272f 92be 14c8 aebe d7d5 6dbe 43c1 133f
00000010: 232d 893e 798d b63e e4c1 9abd 0d26 ff3b
00000020: 1f37 883e 7200 433e ac34 07be f365 87be
00000030: 57b1 98be f1b3 043c 184c ccbe faf8 0cbe
00000040: 35c3 993e 225b a33e 8867 7bbd c455 663c
00000050: c081 e5be 1837 1f3e 076d 1fbe b44a 1f3e
00000060: 1449 e3be 76b1 f33e 637c dcbd 7657 c8be
00000070: a63b f33e 5d40 483e

estimation.0.bias f4 [10]
0.6874131 -0.40577853 -0.29130882 0.2978029 -0.06759955 0.48158306 -0.5623841 0.39233857
0.61474556 0.36226305
00000000: 4efa 2f3f 34c2 cfbe 6e26 95be 9f79 983e
00000010: a271 8abd 0e92 f63e 68f8 0fbf 9ae0 c83e
00000020: f75f 1d3f 8b7a b93e

estimation.3.weight f4 [4, 10]
-0.13683476 0.37402502 -0.15338524 -0.14203103 0.0718803 -0.1454127 0.16309011 -0.19303304
0.084495686 0.24117593 -0.34539202 -0.23090689 0.14382045 0.19978717 -0.2496015 -0.12700309
0.040847953 0.013024599 0.005039212 -0.28167707 0.40847975 -0.027685007 -0.34808806 0.1881972
0.15962268 0.21637692 -0.11258254 -0.19177906 0.15815006 0.358409 0.17115995 0.02603195
0.17075112 -0.013462749 -0.17611314 -0.34860605 0.25268045 0.14985842 -0.31865543 -0.3750065
00000000: 691e 0cbe 3580 bf3e 0511 1dbe 9570 11be
00000010: fb35 933d 11e7 14be 1801 273e 74aa 45be
00000020: 130c ad3d d3f6 763e 39d7 b0be db72 6cbe
00000030: ab45 133e 0295 4c3e 8997 7fbe 190d 02be
00000040: 2f50 273d 2165 553c f91f a53b fa37 90be
00000050: 4224 d13e abcb e2bc 9938 b2be c4b6 403e
00000060: 2174 233e e991 5d3e ad91 e6bd bb61 44be
00000070: 17f2 213e 6281 b73e 8e44 2f3e f540 d53c
00000080: 62d9 2e3e dd92 5cbc 0157 34be 7e7c b2be
00000090: 555f 813e 7c74 193e ce26 a3be da00 c0be

estimation.3.bias f4 [4]
-0.13364893 -0.18167706 0.09132409 0.04185198
00000000: 44db 08be 8d09 3abe 2008 bb3d fb6c 2b3d
