Baseline-models/DAGMM/DAGMM-CHD/no--dagmm/models/14_194_dagmm.pth (torch, 82200 bytes, 22 tensors)

phi f4 [4]
0.1680946 0.12312738 0.6003451 0.10843297
00000000: fe20 2c3e 352a fc3d 37b0 193f 1b12 de3d

mu f4 [4, 3]
0.26414365 1.1966333 -0.093187645 0.284994 1.1790273 -0.061123867 0.13101508 1.3088336
-0.29790393 0.30607784 1.1611522 -0.028676776
00000000: d63d 873e 482b 993f 2ad9 bebd bcea 913e
00000010: 5eea 963f 055d 7abd d128 063e dc87 a73f
00000020: dd86 98be 3cb6 9c3e a3a0 943f 8feb eabc

cov f4 [4, 3, 3]
0.20189996 -0.1704122 0.31054875 -0.1704122 0.14389074 -0.26214275 0.31054875 -0.26214275
0.47768286 0.20718941 -0.17491621 0.31869292 -0.17491621 0.14772736 -0.26907754 0.31869292
-0.26907754 0.49022198 0.15498906 -0.13072048 0.23835456 -0.13072048 0.11029927 -0.20105392
0.23835456 -0.20105392 0.366574 0.21110792 -0.1782357 0.32472903 -0.1782357 0.15053524
-0.274191 0.32472906 -0.274191 0.49952152
00000000: ddbe 4e3e 8980 2ebe 3f00 9f3e 8980 2ebe
00000010: 1858 133e 9337 86be 3f00 9f3e 9337 86be
00000020: d992 f43e 7629 543e 3c1d 33be b82b a33e
00000030: 3c1d 33be d745 173e 88c4 89be b82b a33e
00000040: 88c4 89be 60fe fa3e 74b5 1e3e 97db 05be
00000050: 3813 743e 97db 05be 95e4 e13d 14e1 4dbe
00000060: 3813 743e 14e1 4dbe 96af bb3e ad2c 583e
00000070: 6b83 36be e242 a63e 6b83 36be e925 1a3e
00000080: c362 8cbe e342 a63e c362 8cbe 49c1 ff3e

encoder.0.weight f4 [60, 118]
-0.02352857 0.08318983 0.021315487 0.0015308692 0.08427805 -0.032768022 0.032655276 0.053473152
-0.067608304 0.064316064 0.03446618 0.011873038 0.043329947 0.045689467 -0.06337069 -0.04211628
0.076446876 -0.04654826 -0.026276782 -0.07481934 -0.022598706 -0.02994072 0.0319156 -0.05581281
0.08741313 0.060940847 0.08702499 -0.031550698 -0.042386312 -0.09150229 -0.086835444 -0.019312184
0.05602803 0.032268934 -0.041978672 0.05230453 -0.021856558 -0.055533588 -0.016082533 -0.059049826
0.045161024 0.03725785 0.026085481 -0.0026517187 -0.033854835 0.0107018035 -0.07728731 -0.03452771
-0.0411198 -0.07608633 -0.03786374 -0.02210115 -0.023238251 -0.011131754 0.003639601 -0.08561287
-0.039958622 -0.012119074 -0.0037003192 -0.017259207 -0.0062211454 -0.03224039 0.08284135 0.03746278
0.08047592 0.07639461 0.06690024 -0.07041901 0.04228144 0.069093525 0.090523876 0.0346128
0.06431213 -0.055712838 0.03622337 -0.08358301 -0.03647735 -0.019337084 -0.07674584 -0.004418819
-0.028230784 0.031193301 -0.045538936 0.0009811794 0.06373467 -0.006963663 -0.076007776 0.034130834
-0.09285058 0.08022637 0.008308961 0.015221898 -0.068674795 0.02503504 0.03779351 0.081109546
0.032042176 0.00014427304 0.0639068 -0.04502206 0.06355105 0.059043027 -0.050928175 -0.03264632
-0.0030852424 0.047423348 -0.003931612 -0.06902326 0.052835625 0.029762119 -0.04173507 0.01458152
-0.021516962 -0.07097925 0.068539456 -0.017454619 0.05218173 -0.010207377 -0.028650654 0.059931688
0.088106394 -0.004326837 -0.007982727 -0.06396021 -0.06244352 0.036775228 -0.0029612766 0.053559452
0.047141507 0.036690574 -0.013265005 0.036041982 -0.024367705 -0.030340059 0.042032126 -0.022855699
0.046789933 -0.028473679 0.04256463 0.07338977 0.01742798 -0.041427508 0.022682881 -0.056124724
-0.051178172 -0.10446058 0.075499564 -0.07870886 0.015113059 0.0070767095 0.078298524 0.013540482
0.0204216 -0.06158767 0.038468886 0.08189851 -0.06874555 -0.018904014 -0.08668604 0.010203324
0.02734501 -0.032284744 -0.017232956 -0.03152895 -0.018964188 0.040157285 0.0898998 0.08921861
-0.034407597 0.009548938 -0.06981304 0.065280974 -0.06929809 0.03424536 -0.017933128 0.05545714
0.07832844 -0.01270182 0.08877542 -0.020448808 0.060925003 0.020864725 0.080340944 0.04962921
-0.007250463 0.014341021 0.005065205 -0.05338219 -0.02804337 -0.027316649 0.05969784 0.052447945
0.06809943 -0.039065853 -0.014536873 0.0701576 0.032174066 0.0034206277 -0.0009679172 0.025781129
-0.066537865 -0.064335406 -0.077025004 0.04495891 -0.0050086896 -0.13105786 -0.0041370145 -0.025023105
0.06010141 0.005716175 -0.08003774 0.071136214 -0.02989604 -0.038902197 -0.05147214 -0.06191109
-0.02566162 -0.08038885 -0.012810377 -0.05501119 0.11207893 -0.023242729 0.088719726 -0.04214598
0.0026771028 0.028486961 -0.016882148 -0.09882003 -0.017421575 0.030880708 -0.031151071 0.0053080097
0.010881456 0.095052294 -0.041931055 -0.018716313 -0.010702169 -0.054672554 0.015255866 -0.049978733
0.039232947 -0.09481376 -0.09295411 0.03983976 0.069589645 -0.011917312 0.0025256316 0.002069047
0.07286167 0.040475465 0.008236662 0.053285047 0.027940076 0.0065072086 0.0050365273 0.07664495
00000000: fdbe c0bc 6e5f aa3d d19d ae3c 72a7 c83a
00000010: f899 ac3d c337 06bd 8ac1 053d aa06 5b3d
00000020: 3976 8abd 24b8 833d 692c 0d3d 2187 423c
00000030: be7a 313d e124 3b3d 7ec8 81bd 1f82 2cbd
00000040: 2e90 9c3d 63a9 3ebd 6842 d7bc e23a 99bd
00000050: ec20 b9bc 3e46 f5bc efb9 023d f99b 64bd
00000060: a805 b33d 1c9d 793d 283a b23d 4e3b 01bd
00000070: 459d 2dbd 8d65 bbbd c8d6 b1bd 9634 9ebc
00000080: a67d 653d 6e2c 043d d4f1 2bbd 463d 563d
00000090: 860c b3bc 3077 63bd 84bf 83bc 3bde 71bd
000000a0: c4fa 383d b09b 183d 38b1 d53c 75c8 2dbb
000000b0: 5eab 0abd 9e56 2f3c cf48 9ebd ee6c 0dbd
000000c0: 3c6d 28bd 26d3 9bbd 0217 1bbd 790d b5bc
000000d0: 255e bebc f661 36bc 5f86 6e3b cd55 afbd
000000e0: a7ab 23bd 158f 46bc 0e81 72bb 2e63 8dbc
000000f0: c0da cbbb 800e 04bd baa8 a93d 9272 193d
00000100: 8fd0 a43d c774 9c3d fe02 893d d837 90bd
00000110: 4e2f 2d3d e880 8d3d 9564 b93d 27c6 0d3d
00000120: 14b6 833d 2533 64bd f55e 143d 922d abbd
00000130: 4669 15bd ce68 9ebc ec2c 9dbd becb 90bb
00000140: 3f44 e7bc 1889 ff3c 0987 3abd eb9a 803a
00000150: 5387 823d 702f e4bb f7a9 9bbd c6cc 0b3d
00000160: 7228 bebd b94d a43d 4f22 083c 4565 793c
00000170: 5fa5 8cbd 4916 cd3c 5ecd 1a3d c31c a63d
00000180: a83e 033d 0048 1739 91e1 823d 0d69 38bd
00000190: 0e27 823d 1ad7 713d 109a 50bd 26b8 05bd
000001a0: c731 4abb fc3e 423d c0d4 80bb 115c 8dbd
000001b0: 2b6a 583d b0cf f33c 65f2 2abd 54e7 6e3c
000001c0: 5744 b0bc 925d 91bd 6a5e 8c3d fdfc 8ebc
000001d0: 82bc 553d d83c 27bc c7b4 eabc ee7a 753d
000001e0: 2071 b43d 24c8 8dbb fcc9 02bc 92fd 82bd
000001f0: c7c4 7fbd 9fa1 163d fa11 42bb 2861 5b3d
00000200: 7417 413d db48 163d 7755 59bc c2a0 133d
00000210: c89e c7bc b78b f8bc e129 2c3d e03b bbbc
00000220: cda6 3f3d a241 e9bc 4058 2e3d 604d 963d
00000230: 20c5 8e3c e4af 29bd 73d1 b93c 0ae3 65bd
00000240: 34a0 51bd 6eef d5bd 849f 9a3d 1c32 a1bd
00000250: c49c 773c bee3 e73b fa5a a03d e6d8 5d3c
00000260: 334b a73c 5a43 7cbd 8d91 1d3d 68ba a73d
00000270: 78ca 8cbd 97dc 9abc 7388 b1bd d82b 273c
00000280: a402 e03c 023d 04bd 212c 8dbc 8024 01bd
00000290: c95a 9bbc f77b 243d 631d b83d 3fb8 b63d
000002a0: fbee 0cbd 2673 1c3c 24fa 8ebd 08b2 853d
000002b0: 28ec 8dbd dd44 0c3d 7fe8 92bc 0727 633d
000002c0: a96a a03d 4b1b 50bc e3cf b53d 4284 a7bc
000002d0: 7f8c 793d 80ec aa3c cb89 a43d 0048 4b3d
000002e0: 4b95 edbb 9af6 6a3c 05fa a53b 49a7 5abd
000002f0: 36bb e5bc 2ac7 dfbc b985 743d a8d3 563d
00000300: b777 8b3d 8403 20bd 112c 6ebc caae 8f3d
00000310: f4c8 033d 9c2c 603b d3bb 7dba f232 d33c
00000320: 0145 88bd 48c2 83bd 49bf 9dbd d626 383d
00000330: ef1f a4bb 0834 06be cb8f 87bb 41fd ccbc
00000340: e52c 763d c04e bb3b d4ea a3bd ddaf 913d
00000350: 8ae8 f4bc e957 1fbd 73d4 52bd 7c96 7dbd
00000360: 5138 d2bc e9a2 a4bd 9ee2 51bc 6a53 61bd
00000370: a389 e53d 8967 bebc b0b2 b53d 43a1 2cbd
00000380: 5572 2f3b 7d5d e93c 6e4c 8abc 2862 cabd
00000390: b1b7 8ebc 8af9 fc3c 8830 ffbc d0ee ad3b
000003a0: 2248 323c c7aa c23d e6bf 2bbd f452 99bc
000003b0: 2658 2fbc 54f0 5fbd bdf3 793c 80b6 4cbd
000003c0: bab2 203d b72d c2bd b95e bebd 042f 233d
000003d0: 0485 8e3d d440 43bc 1185 253b d998 073b
000003e0: 8038 953d 9ac9 253d 10f3 063c 6c41 5a3d
000003f0: 96e2 e43c 6c3a d53b 7409 a53b 07f8 9c3d

encoder.0.bias f4 [60]
0.02864607 0.08377703 -0.00070104963 0.03839451 -0.06593639 0.035721075 -0.09813103 -0.030013813
0.05721224 0.07100238 -0.008734019 -0.038717408 -0.044666864 0.06331078 -0.034288064 -0.074089475
-0.011447017 0.07075625 -0.049724486 0.121720366 -0.0034622701 0.05529499 -0.118394405 -0.013452954
0.030670375 0.01195707 0.045223393 -0.035889473 -0.023741152 0.08618241 0.04280436 -0.01954802
0.07154683 -0.07429945 0.018694574 -0.07940713 0.07745283 0.11988658 -0.05873523 0.0003488661
-0.056885727 -0.022068804 0.026266603 -0.016416281 -0.043448385 -0.027446086 0.03946673 -0.03206979
-0.03951371 -0.021438096 -0.04018765 -0.042018417 -0.07803086 -0.03920743 -0.014735611 -0.0076235607
0.03552439 0.0017303168 -0.02527725 0.061107963
00000000: 2aab ea3c 4b93 ab3d a5c6 37ba 9043 1d3d
00000010: a809 87bd 4350 123d ecf8 c8bd 87df f5bc
00000020: 6257 6a3d b269 913d 2119 0fbc 2596 1ebd
00000030: 9af4 36bd 15a9 813d a471 0cbd 39bc 97bd
00000040: 458c 3bbc a7e8 903d e7ab 4bbd 8748 f93d
00000050: 41e7 62bb 007d 623d c478 f2bd c769 5cbc
00000060: 7040 fb3c 96e7 433c 2a3c 393d d700 13bd
00000070: ce7c c2bc 6780 b03d a053 2f3d 2b23 a0bc
00000080: 2587 923d 4f2a 98bd 5d25 993c 35a0 a2bd
00000090: 979f 9e3d 1887 f53d 5a94 70bd 04e8 b639
000000a0: 0201 69bd a3c9 b4bc 0f2d d73c 707b 86bc
000000b0: eff6 31bd 9dd6 e0bc dea7 213d 9d5b 03bd
000000c0: 21d9 21bd f29e afbc ce9b 24bd 811b 2cbd
000000d0: a5ce 9fbd f897 20bd a26d 71bc 10cf f9bb
000000e0: 0682 113d cccb e23a 3c12 cfbc 584c 7a3d

encoder.2.weight f4 [30, 60]
-0.122031525 0.107638374 -0.05949472 -0.022161266 -0.10173158 0.060564112 -0.07429723 0.0873394
0.08716487 -0.053598102 0.06296942 -0.013953105 -0.11347478 -0.081968896 0.11123095 0.04585465
-0.001891993 -0.035971984 0.11229951 -0.029731696 0.10766889 -0.113301374 -0.11269376 0.024545116
0.0963876 0.043395784 -0.0058845887 0.018801829 0.11364255 -0.12937835 0.009997211 -0.07622257
0.01893183 0.00033178687 -0.035065107 0.018528339 0.077357896 0.0037678855 0.010457222 0.06328907
0.13410902 -0.07550191 -0.090863906 -0.11300997 -0.120427534 -0.013768558 -0.052017387 -0.11644255
-0.06234408 0.025514169 0.101956226 0.12488526 0.07193044 -0.040466752 0.011831522 0.0113144545
-0.10076524 0.1354267 -0.12078223 0.10815975 -0.089469545 0.0105689475 0.102287486 -0.06638745
0.09929808 -0.07724885 0.07527607 0.118071124 0.10518575 0.0547627 0.034754112 0.114577234
0.04090795 -0.05139071 0.04472215 -0.10326813 -0.068860784 0.016632462 0.039548796 -0.043213736
-0.10792866 0.034029312 0.0048746616 -0.01418776 -0.009332597 0.031668313 0.091317095 0.12179039
0.06286888 -0.03974461 0.023623623 -0.11067559 0.075886935 -0.0943057 -0.028684193 0.103318594
0.05868145 -0.11124131 0.089641444 0.090961315 0.07035495 0.06782165 -0.07748377 -0.12040256
0.08719282 -0.022904264 0.06093379 0.07368392 0.07358918 -0.07920356 -0.11230316 -0.026934054
-0.059752386 -0.100931674 0.087927334 0.1328755 -0.038247988 0.07485217 0.060947154 0.047779016
-0.031501073 -0.08203136 -0.029328557 0.02942691 0.08184268 0.0474658 0.10248311 -0.061408002
-0.055528417 -0.062480483 -0.09085664 -0.023237651 -0.07289688 0.064598344 0.03382193 -0.032678925
0.08925811 0.07200389 -0.104264826 -0.003940273 0.026648805 0.06631152 -0.1324608 -0.13694717
-0.13657221 -0.0010599853 0.13543119 0.06328529 -0.1245874 0.10703776 -0.071396135 -0.086841404
0.12877867 0.03909964 0.055732496 -0.0058366186 0.023201348 0.010088596 0.030026235 -0.0010070697
-0.12939337 0.1344354 0.10247644 -0.00822641 -0.021455722 0.10425476 0.1117171 0.05648029
0.07198682 -0.10545415 0.062124215 0.108004496 -0.078105584 0.13659425 -0.095285356 -0.13204777
-0.075555354 -0.01937178 -0.10858542 -0.05024288 0.103916526 0.06496192 -0.012903224 -0.022432514
-0.12468265 0.13579081 -0.051412597 -0.0022805978 -0.061384074 -0.08878878 -0.1307214 -0.11388143
-0.0125425365 0.0547234 0.07842834 -0.03131394 0.0101194335 0.07349952 0.06507262 0.13266279
-0.02887181 -0.036119986 -0.014249124 0.07721348 0.026526341 -0.13590762 0.095081046 -0.0028029466
-0.11228644 0.13908714 -0.07992256 -0.0012750396 -0.0707259 -0.08383253 -0.1046237 0.074821755
0.061455622 -0.047216497 0.07193077 -0.106541485 -0.04463012 0.008656609 0.10414071 0.10158627
-0.081654996 0.04164061 -0.026159553 0.09350605 -0.076835595 -0.11740486 -0.034544352 0.04056417
-0.048242286 0.056017864 -0.128511 -0.11198529 0.04079765 -0.13075744 0.052038625 0.019037517
0.1093907 -0.031234799 -0.017823732 -0.13629739 -0.07328584 -0.07422196 -0.13273276 -0.0807912
0.09804268 -0.082143314 -0.1478123 -0.12917039 -0.095008306 0.07040395 -0.10400916 -0.060909558
00000000: aaeb f9bd 8271 dc3d bcb0 73bd 8b8b b5bc
00000010: a658 d0bd 1312 783d 2529 98bd 00df b23d
00000020: 7f83 b23d af89 5bbd 1cf6 803d 909b 64bc
00000030: 7765 e8bd 4fdf a7bd 0dcd e33d 16d2 3b3d
00000040: c0fc f7ba 5c57 13bd 49fd e53d e38f f3bc
00000050: 8281 dc3d 8d0a e8bd fccb e6bd d712 c93c
00000060: dd66 c53d c7bf 313d 82d3 c0bb 4b06 9a3c
00000070: 6dbd e83d c27b 04be 58cb 233c 941a 9cbd
00000080: ed16 9b3c aef3 ad39 6ea0 0fbd bec8 973c
00000090: d16d 9e3d a1ee 763b c554 2b3c b39d 813d
000000a0: e053 093e bfa0 9abd db16 babd c571 e7bd
000000b0: b6a2 f6bd 8595 61bc 2f10 55bd 6f79 eebd
000000c0: 825c 7fbd 1703 d13c 6dce d03d d8c3 ff3d
000000d0: 4450 933d 77c0 25bd 00d9 413c 4360 393c
000000e0: 025e cebd 4cad 0a3e ac5c f7bd dc82 dd3d
000000f0: cf3b b7bd 6129 2d3c 1a7c d13d 25f6 87bd
00000100: cb5c cb3d a534 9ebd 572a 9a3d 46cf f13d
00000110: a06b d73d da4e 603d 545a 0e3d 78a7 ea3d
00000120: 188f 273d 117f 52bd 932e 373d 3e7e d3bd
00000130: e206 8dbd cd40 883c ebfd 213d e300 31bd
00000140: b409 ddbd 5262 0b3d a0bb 9f3b c773 68bc
00000150: c0e7 18bc a2b6 013d 7504 bb3d 3d6d f93d
00000160: 66c1 803d 3fcb 22bd 5486 c13c e2a9 e2bd
00000170: 9c6a 9b3d 5923 c1bd 1dfb eabc b398 d33d
00000180: f65b 703d 7cd2 e3bd ef95 b73d ed49 ba3d
00000190: 4216 903d 14e6 8a3d d0af 9ebd 9e95 f6bd
000001a0: 2692 b23d b9a1 bbbc b695 793d 98e7 963d
000001b0: edb5 963d 7a35 a2bd 33ff e5bd cea4 dcbc
000001c0: ebbe 74bd 44b5 cebd 3f13 b43d 8410 083e
000001d0: eca9 1cbd 184c 993d b9a3 793d eeb3 433d
000001e0: 4507 01bd 0f00 a8bd 7142 f0bc b410 f13c
000001f0: 239d a73d 806b 423d aae2 d13d f586 7bbd
00000200: c471 63bd 89eb 7fbd 0c13 babd e35c bebc
00000210: f64a 95bd 234c 843d dd88 0a3d 56da 05bd
00000220: f5cc b63d c776 933d cc88 d5bd 681d 81bb
00000230: 984e da3c 56ce 873d cea3 07be e13b 0cbe
00000240: 96d9 0bbe 34ef 8aba 79ae 0a3e b89b 813d
00000250: ae27 ffbd 9d36 db3d 2338 92bd e8d9 b1bd
00000260: 8ede 033e f226 203d c247 643d 1b41 bfbb
00000270: c110 be3c a34a 253c 94f9 f53c a7ff 83ba
00000280: b27f 04be 6fa9 093e 2bdf d13d 10c8 06bc
00000290: e9c3 afbc 8583 d53d efcb e43d e057 673d
000002a0: d36d 933d 58f8 d7bd f675 7e3d 7631 dd3d
000002b0: d2f5 9fbd 5ddf 0b3e f824 c3bd 8837 07be
000002c0: c4bc 9abd 91b1 9ebc 0862 debd 7acb 4dbd
000002d0: 30d2 d43d c10a 853d 0b68 53bc 64c4 b7bc
000002e0: 9e59 ffbd bf0c 0b3e 0496 52bd 1576 15bb
000002f0: de6d 7bbd e4d6 b5bd d5db 05be ab3a e9bd
00000300: 367f 4dbc a525 603d 0a9f a03d 0c43 00bd
00000310: fbcb 253c eb86 963d cb44 853d c1d8 073e
00000320: 9384 ecbc 8df2 13bd 2875 69bc 1a22 9e3d
00000330: c54d d93c 5e2b 0bbe dab9 c23d a4b1 37bb
00000340: 6ff6 e5bd dc6c 0e3e 70ae a3bd 3b1f a7ba
00000350: bed8 90bd 64b0 abbd f344 d6bd 263c 993d
00000360: e4b8 7b3d 1666 41bd 7150 933d 6c32 dabd
00000370: 13ce 36bd 73d4 0d3c b947 d53d 760c d03d
00000380: bc3a a7bd 588f 2a3d 8f4c d6bc 1a80 bf3d
00000390: fb5b 9dbd f671 f0bd 617e 0dbd 9d26 263d
000003a0: b499 45bd fd72 653d 6398 03be 8b58 e5bd
000003b0: 701b 273d 47e5 05be 7426 553d 91f4 9b3c
000003c0: 3b08 e03d 1fe0 ffbc 1303 92bc 8b91 0bbe
000003d0: e316 96bd af01 98bd 19eb 07be db75 a5bd
000003e0: 9aca c83d c13a a8bd 1c5c 17be 3e45 04be
000003f0: b793 c2bd f22f 903d c102 d5bd 4d7c 79bd

encoder.2.bias f4 [30]
-0.11218484 -0.025670277 0.10168683 -0.016700225 0.08149576 0.0028522043 0.07955822 0.03260324
0.01440974 -0.030516867 -0.06529363 0.1066384 0.050204147 0.007378871 0.12958221 0.030125495
0.0042856634 0.07013732 0.06852705 0.02198885 0.048852433 0.060249213 -0.029889733 0.07322283
0.08683136 0.11011685 0.042018354 0.04270734 0.09953636 0.06718344
00000000: 2ac1 e5bd 794a d2bc 2f41 d03d e9ce 88bc
00000010: 40e7 a63d 0cec 3a3b 6cef a23d fa8a 053d
00000020: d516 6c3c 82fe f9bc abb8 85bd 3c65 da3d
00000030: dda2 4d3d 75ca f13b 33b1 043e bec9 f63c
00000040: c06e 8c3b 28a4 8f3d e957 8c3d f621 b43c
00000050: 7d19 483d e1c7 763d 50db f4bc daf5 953d
00000060: a4d4 b13d f184 e13d 701b 2c3d e4ed 2e3d
00000070: b8d9 cb3d 7997 893d

encoder.4.weight f4 [10, 30]
-0.15857682 0.16455397 -0.06763817 -0.046465486 0.105004914 0.016674502 -0.05568788 -0.13649398
-0.16413356 -0.050803073 0.07377712 -0.16867621 0.059879 0.19993694 0.029251495 0.16574566
0.0506359 -0.19136178 -0.022281945 0.13997664 -0.07231999 -0.011824799 -0.11012387 0.11490597
-0.023974726 -0.06766547 0.100608446 0.14869103 0.12724046 0.022797216 0.1683229 -0.079815045
-0.055778507 -0.112950355 0.047560453 -0.1386079 0.090109125 0.091103405 -0.12107501 0.07111255
-0.024172284 -0.16266741 0.15201314 -0.03781194 -0.05316384 -0.07592873 0.04047977 -0.17325333
-0.12691271 0.16063261 0.1735554 -0.10926248 0.09745392 0.047633246 -0.14829057 -0.17158353
0.073349014 0.09340687 -0.1849705 -0.0024517276 -0.13411908 -0.07605332 -0.017561473 0.1659055
0.077961914 -0.14075635 -0.049321007 0.18235204 -0.040831767 -0.034640644 -0.038040996 -0.15322036
-0.12112456 0.13828325 -0.116287395 -0.019158414 0.16735977 0.14421485 -0.16238487 0.0054662325
-0.18381797 -0.04875366 -0.023291482 0.035737198 -0.063254416 0.17464237 -0.11775228 0.14886427
0.17913383 0.018191935 -0.10801052 0.0040122224 0.07686143 0.022976987 0.1800018 -0.034663368
0.1963885 -0.052269638 -0.18265593 -0.052121256 -0.0047364077 0.13844043 -0.0319903 0.13169876
0.16239433 0.04341679 0.03011425 -0.011921632 -0.04356922 0.07825997 -0.038327526 -0.12214628
0.049174957 0.12710759 -0.019578492 -0.041958205 0.049104918 0.15480386 -0.14143017 -0.1100956
0.19160274 0.004849935 -0.11672042 -0.1647746 -0.018374134 -0.07386202 -0.17822398 -0.02696755
0.08339516 0.05858621 -0.114917025 0.068056695 -0.003063963 -0.15053906 -0.0022869033 -0.051190544
-0.16910811 -0.13424858 0.024960272 -0.09211326 -0.13419536 -0.0015573541 -0.1224525 -0.10815527
-0.06255664 0.07697966 0.017189682 -0.0074534663 -0.17066623 0.0023605581 -0.059803702 0.08750911
-0.05416541 0.15216972 0.06143693 0.03969429 0.10674627 -0.077114895 -0.13511677 0.03972509
-0.12100644 -0.009423025 -0.15627687 0.12395649 0.15075019 0.13657175 0.09984286 -0.17830746
-0.10348574 -0.0824095 -0.001500582 -0.03383197 0.10727235 0.059022646 0.11289483 0.08530832
-0.14764687 -0.043761592 0.03285142 -0.17009977 0.0713021 -0.07857826 0.037605025 0.13078563
0.105697565 -0.16635978 0.03559287 -0.10034826 0.1565652 0.11998008 0.18034607 0.06353643
0.06853883 -0.030359419 0.02083189 -0.14599925 -0.123291805 -0.08469289 0.061720345 -0.12857075
-0.16009243 -0.114932254 0.19713551 -0.08480499 -0.14410178 0.074408986 -0.19517085 0.1361762
0.1265168 -0.01569131 0.0029005196 0.06503334 -0.038842198 0.0253158 -0.10707411 0.05757437
0.07459405 0.1353385 -0.07050827 0.10187927 -0.10970865 0.1325515 0.07128415 0.062063254
-0.08981014 -0.17649792 -0.16322353 -0.14023785 -0.03549312 0.034995466 -0.0766389 -0.06894942
0.14615797 0.08157832 -0.14835165 0.08017713 0.1188867 -0.07843206 0.17942889 0.023759365
-0.006570289 0.13604932 -0.07783784 0.079150364 0.004290465 -0.109394506 0.0982101 -0.15314917
0.14745305 0.056400348 -0.12686504 -0.062212214 0.19903593 0.20266901 0.03857883 0.15516272
00000000: f661 22be d680 283e e285 8abd 9852 3ebd
00000010: d10c d73d f798 883c f918 64bd 14c5 0bbe
00000020: a112 28be e216 50bd 7518 973d 75b9 2cbe
00000030: af43 753d 45bc 4c3e d5a0 ef3c 3bb9 293e
00000040: 9767 4f3d 58f4 43be a088 b6bc 0956 0f3e
00000050: 811c 94bd cdbc 41bc a088 e1bd d253 eb3d
00000060: a566 c4bc 3294 8abd cd0b ce3d 7642 183e
00000070: 534b 023e 3ac1 ba3c d75c 2c3e 1276 a3bd
00000080: 0178 64bd 8452 e7bd c0ce 423d 3bef 0dbe
00000090: 228b b83d 6c94 ba3d 2df6 f7bd 75a3 913d
000000a0: f404 c6bc 4992 26be 55a9 1b3e b1e0 1abd
000000b0: 54c2 59bd 8680 9bbd 1ece 253d 5269 31be
000000c0: 68f5 01be e07c 243e 82b8 313e 02c5 dfbd
000000d0: ec95 c73d 141b 433d 7cd9 17be 98b3 2fbe
000000e0: 0238 963d 1a4c bf3d e868 3dbe 2aad 20bb
000000f0: 8356 09be d8c1 9bbd 14dd 8fbc 22e3 293e
00000100: 7faa 9f3d 6f22 10be d304 4abd 7eba 3a3e
00000110: 363f 27bd 59e3 0dbd e0d0 1bbd cce5 1cbe
00000120: 2710 f8bd 209a 0d3e 1628 eebd 1bf2 9cbc
00000130: 5c60 2b3e 0fad 133e 3848 26be 151e b33b
00000140: c73a 3cbe ebb1 47bd c7cd bebc 2b61 123d
00000150: 888b 81bd 73d5 323e 1b28 f1bd e06f 183e
00000160: dc6e 373e 4107 953c 9f34 ddbd f678 833b
00000170: 8769 9d3d 3c3a bc3c 6452 383e 2dfb 0dbd
00000180: 111a 493e b018 56bd 280a 3bbe 197d 55bd
00000190: de33 9bbb 54c3 0d3e 4308 03bd 0adc 063e
000001a0: b34a 263e ced5 313d 29b2 f63c f352 43bc
000001b0: a375 32bd c346 a03d 53fd 1cbd d427 fabd
000001c0: ae6b 493d 7e28 023e 1363 a0bc 5edc 2bbd
000001d0: 3d22 493d e784 1e3e 12d3 10be cd79 e1bd
000001e0: 8233 443e 34ec 9e3b 1e0b efbd acba 28be
000001f0: 5a85 96bc f944 97bd 5980 36be 0deb dcbc
00000200: 15cb aa3d 18f8 6f3d 9e59 ebbd 4f61 8b3d
00000210: c5cc 48bb e926 1abe dfdf 15bb 2dad 51bd
00000220: ad2a 2dbe 7678 09be 7c79 cc3c e0a5 bcbd
00000230: 826a 09be 2220 ccba 60c8 fabd 8380 ddbd
00000240: b21d 80bd 83a7 9d3d 60d1 8c3c 353c f4bb
00000250: 21c3 2ebe 98b3 1a3b baf4 74bd fa37 b33d
00000260: 8ddc 5dbd 61d2 1b3e 4aa5 7b3d 7b96 223d
00000270: ca9d da3d 6aee 9dbd 0d5c 0abe c7b6 223d
00000280: 39d2 f7bd 0863 1abc 0b07 20be e6dc fd3d
00000290: 425e 1a3e 77d9 0b3e 6a7a cc3d 3b96 36be
000002a0: 55f0 d3bd 50c6 a8bd 2daf c4ba 6493 0abd
000002b0: 9bb1 db3d bbc1 713d 6835 e73d 21b6 ae3d
000002c0: be30 17be 5b3f 33bd 368f 063d a22e 2ebe
000002d0: d606 923d a4ed a0bd ba07 1a3d abec 053e
000002e0: f777 d83d 385a 2abe d4c9 113d 6383 cdbd
000002f0: a152 203e 1eb8 f53d a4ac 383e 631f 823d
00000300: 165e 8c3d 51b4 f8bc a4a7 aa3c d480 15be
00000310: 6a80 fcbd 7773 adbd 79ce 7c3d 0da8 03be
00000320: 45ef 23be 9a61 ebbd e4dd 493e 3dae adbd
00000330: 6b8f 13be bd63 983d deda 47be c671 0b3e
00000340: 9f8d 013e 108b 80bc a516 3e3b 3330 853d
00000350: ff18 1fbd 1563 cf3c ac49 dbbd 1ad3 6b3d
00000360: c4c4 983d 2d96 0a3e a466 90bd 14a6 d03d
00000370: eeae e0bd 95bb 073e 6dfd 913d 0a36 7e3d
00000380: 61ee b7bd dfbb 34be 1224 27be 839a 0fbe
00000390: 3c61 11bd 6857 0f3d dbf4 9cbd 5a35 8dbd
000003a0: 6faa 153e 8912 a73d 7fe9 17be e833 a43d
000003b0: df7a f33d fda0 a0bd 35bc 373e 00a3 c23c
000003c0: 944b d7bb 8350 0b3e 7269 9fbd 9619 a23d
000003d0: 0797 8c3b 3a0a e0bd 6022 c93d 23d3 1cbe
000003e0: effd 163e 0d04 673d e9e8 01be 3cd2 7ebd
000003f0: 13d0 4b3e 7788 4f3e d604 1e3d fae2 1e3e

encoder.4.bias f4 [10]
-0.06457055 -0.072225034 0.035633717 -0.047282275 0.07404121 0.1505512 -0.123047404 -0.09120229
-0.060918134 -0.025674937
00000000: 913d 84bd b8ea 93bd a9f4 113d 0fab 41bd
00000010: eba2 973d 182a 1a3e 4700 fcbd 44c8 babd
00000020: 4b85 79bd 3f54 d2bc

encoder.6.weight f4 [1, 10]
-0.31652242 -0.030328177 0.32409236 0.23054613 -0.123981595 -0.0011858444 0.19007294 0.034360297
-0.3354842 -0.20590732
00000000: 3a0f a2be cc72 f8bc 6fef a53e 4914 6c3e
00000010: 10ea fdbd 566e 9bba 7ba2 423e 62bd 0c3d
00000020: 96c4 abbe 5ed9 52be

decoder.0.weight f4 [10, 1]
0.36376306 -0.72867703 0.39614525 0.87856114 -0.69050604 -0.4230233 0.4579536 0.9008088
0.24082813 -0.64440036
00000000: 273f ba3e 948a 3abf 8dd3 ca3e 62e9 603f
00000010: 01c5 30bf 8396 d8be e578 ea3e 689b 663f
00000020: a69b 763e 6cf7 24bf

decoder.0.bias f4 [10]
0.9979431 -0.20193037 0.111754335 0.005899858 0.28766903 -0.5031558 0.007291671 -0.7590317
-0.702565 -0.7487491
00000000: 3379 7f3f d6c6 4ebe 75df e43d 9953 c13b
00000010: 5b49 933e d2ce 00bf f8ee ee3b e74f 42bf
00000020: 4ddb 33bf 05ae 3fbf

decoder.2.weight f4 [30, 10]
0.07097707 -0.16949847 -0.1678736 0.24780634 -0.14725733 -0.0713216 0.004160534 -0.22262448
0.0017424497 0.038239453 0.056602288 0.116800144 -0.043539822 -0.3291346 0.116854765 0.32333955
-0.1294784 0.216333 0.28626013 -0.18473941 -0.2385166 -0.31162557 0.025985265 0.15186319
-0.31534138 0.3175274 -0.22207908 -0.11714115 0.059341267 -0.022036044 0.2928491 -0.2639222
0.14797951 0.074154384 0.068332426 -0.033693835 0.1473497 -0.052209564 0.010602741 0.17416447
-0.026919143 0.2232438 0.08601413 -0.27552143 0.08783549 0.10129192 0.31055474 -0.12303351
-0.12243359 0.23696715 0.15948017 0.31442094 0.013821836 0.13222872 -0.26219156 0.2786336
-0.0958869 -0.3424431 -0.12527649 -0.15037903 0.3019243 0.13501327 0.31476206 -0.17440827
0.16472904 -0.054014187 -0.013495937 0.0060070246 0.018944925 0.30577308 -0.025768375 -0.021332134
0.18901774 0.1963414 0.13252462 0.15666163 0.32599887 0.26904002 -0.083353005 0.16068757
-0.036937397 -0.23891416 -0.27448434 0.2594104 -0.14253628 -0.08641241 -0.26650977 -0.09312289
0.3343858 -0.29138094 -0.10798641 -0.024186984 -0.15182406 0.198374 0.09955399 -0.15684074
-0.135057 0.085491076 -0.08947167 -0.12768482 0.18755163 -0.1791247 -0.29320645 -0.26799056
0.06442797 0.016719768 0.22956952 0.30485016 0.06465376 0.05685633 0.0015308737 -0.035905674
0.19051957 0.009544229 -0.19865072 0.06972851 0.04988477 -0.29715917 -0.13112737 -0.115545265
-0.08583615 0.24538377 -0.10987213 0.33383387 0.088697314 -0.1076283 -0.0070381714 -0.073078126
-0.19440202 0.09539259 0.20664343 -0.07767115 -0.18564029 -0.29481357 0.20269836 -0.058427874
0.16553594 0.27835158 0.028967664 -0.11985894 0.22743335 0.20965719 -0.1983122 -0.27641034
-0.0025829417 0.162758 -0.022162067 0.021549974 -0.15116195 -0.22633484 0.27098182 0.3019804
-0.18397522 0.22230479 -0.072087355 -0.25676206 0.1706639 0.043488897 0.05436409 -0.30756152
-0.25314456 0.18650861 -0.08282401 -0.2748073 -0.044290286 0.017934948 -0.27737892 -0.24044904
0.29196355 0.06567258 -0.08544074 0.1665615 -0.31954724 -0.21679096 0.09951565 -0.17683423
-0.047753245 -0.3114526 -0.13809 -0.13226718 -0.038842518 0.012917317 -0.2380587 0.07428323
0.045800686 0.10776782 0.112019956 -0.17228235 0.09273899 0.03200586 0.11268532 0.26828012
0.020090893 0.060504746 -0.029177366 -0.17144617 0.31813005 -0.06097484 -0.096282564 0.09481715
-0.27033174 0.23717637 0.2960811 0.17111209 0.05500929 -0.08973376 0.09975151 0.13490367
-0.3065002 -0.27237612 -0.22748157 0.22008713 -0.09825246 0.22757076 -0.07700281 -0.11081577
-0.08688076 -0.18538567 -0.2284186 -0.04607226 -0.28155807 0.051404938 -0.049992774 0.18671139
0.017297978 -0.10288103 0.27203754 0.14738141 0.12839654 0.038220443 0.19677049 0.007893389
-0.17045699 0.10016819 0.039100636 0.06538623 -0.04899923 -0.21114963 0.05702175 -0.29625255
-0.08735959 -0.27277508 0.14725037 0.13963707 -0.019188687 -0.04323569 0.17997211 0.30287778
0.21696194 0.09227959 -0.07996888 0.07627708 -0.21964589 -0.08089875 0.29756162 -0.23431194
00000000: 6d5c 913d 0291 2dbe 0fe7 2bbe f2c0 7d3e
00000010: a0ca 16be 0f11 92bd 1755 883b acf7 63be
00000020: e962 e43a f9a0 1c3d cdd7 673d ea34 ef3d
00000030: d056 32bd 5584 a8be 8d51 ef3d c38c a53e
00000040: fc95 04be 6686 5d3e b090 923e 542c 3dbe
00000050: b23d 74be 638d 9fbe 0ddf d43c 0682 1b3e
00000060: 6d74 a1be f492 a23e b368 63be b3e7 efbd
00000070: d40f 733d ef84 b4bc 51f0 953e d020 87be
00000080: f187 173e 41de 973d dff1 8b3d 8c02 0abd
00000090: d7e2 163e b2d9 55bd 1eb7 2d3c 2c58 323e
000000a0: 8985 dcbc 069a 643e 2d28 b03d 2511 8dbe
000000b0: 18e3 b33d 2372 cf3d 0801 9f3e fef8 fbbd
000000c0: 76be fabd 84a7 723e c54e 233e c8fb a03e
000000d0: fb74 623c f766 073e f93d 86be 10a9 8e3e
000000e0: 5a60 c4bd b454 afbe 7b48 00be f6fc 19be
000000f0: d295 9a3e eb40 0a3e 7e28 a13e 1598 32be
00000100: bbae 283e fb3d 5dbd 101e 5dbc 93d6 c43b
00000110: 6332 9b3c 4a8e 9c3e 3318 d3bc bac0 aebc
00000120: de8d 413e b80d 493e 89b4 073e e86b 203e
00000130: 53e9 a63e 9dbf 893e fbb4 aabd 488b 243e
00000140: ab4b 17bd eaa5 74be 3689 8cbe 71d1 843e
00000150: 08f5 11be fdf8 b0bd f873 88be 37b7 bebd
00000160: 9e34 ab3e e22f 95be fb27 ddbd c823 c6bc
00000170: c477 1bbe 8e22 4b3e f6e2 cb3d dc9a 20be
00000180: 624c 0abe f215 af3d ec3c b7bd cfbf 02be
00000190: 890d 403e 776c 37be 281f 96be 0f36 89be
000001a0: d0f2 833d e5f7 883c 4614 6b3e 5215 9c3e
000001b0: 3169 843d 2fe2 683d 99a7 c83a d411 13bd
000001c0: 9017 433e 665f 1c3c 186b 4bbe d2cd 8e3d
000001d0: f953 4c3d 3f25 98be 4146 06be ffa2 ecbd
000001e0: ddca afbd e245 7b3e a404 e1bd 46ec aa3e
000001f0: f0a6 b53d 3a6c dcbd 76a0 e6bb fca9 95bd
00000200: 5311 47be 315d c33d 569a 533e 0d12 9fbd
00000210: 7d18 3ebe cef1 96be 2990 4f3e 1152 6fbd
00000220: 4182 293e 1984 8e3e 984d ed3c 9b78 f5bd
00000230: 4ae4 683e 60b0 563e 5a12 4bbe a885 8dbe
00000240: 9246 29bb 08aa 263e 398d b5bc 9289 b03c
00000250: 33ca 1abe 52c4 67be 21be 8a3e 2d9d 9a3e
00000260: 0064 3cbe dea3 633e 89a2 93bd 5176 83be
00000270: 84c2 2e3e 6a21 323d e1ac 5e3d b478 9dbe
00000280: 2a9c 81be 1dfc 3e3e a29f a9bd 8bb3 8cbe
00000290: bb69 35bd 50ec 923c 9c04 8ebe 4638 76be
000002a0: 3f7c 953e 587f 863d 8efb aebd 198f 2a3e
000002b0: b29b a3be 73fe 5dbe dcce cb3d 0814 35be
000002c0: e898 43bd b776 9fbe 7767 0dbe 0c71 07be
000002d0: 5519 1fbd 28a3 533c a9c5 73be ce21 983d
000002e0: 8099 3b3d 60b5 dc3d b86a e53d c96a 30be
000002f0: f1ed bd3d 9418 033d 90c7 e63d 035c 893e
00000300: a895 a43c d3d3 773d 5f05 efbc 968f 2fbe
00000310: f1e1 a23e c1c0 79bd cb2f c5bd 7e2f c23d
00000320: ec68 8abe 5dde 723e f197 973e 0238 2f3e
00000330: 6c51 613d 55c6 b7bd 854a cc3d 3024 0a3e
00000340: 98ed 9cbe e274 8bbe eef0 68be 855e 613e
00000350: 9638 c9bd 4f08 693e a6b3 9dbd 61f3 e2bd
00000360: 8aee b1bd bed5 3dbe 91e6 69be 44b6 3cbd
00000370: 6128 90be fc8d 523d 39c5 4cbd 4531 3f3e
00000380: 7db4 8d3c 4ab3 d2bd 8148 8b3e 27eb 163e
00000390: 627a 033e 0a8d 1c3d 347e 493e 4653 013c
000003a0: 478c 2ebe fb24 cd3d fd27 203d 37e9 853d
000003b0: 6bb3 48bd 9c37 58be a38f 693d 6aae 97be
000003c0: 96e9 b2bd 2da9 8bbe cdc8 163e 05fd 0e3e
000003d0: 9831 9dbc e817 31bd 9c4a 383e cc12 9b3e
000003e0: 452b 5e3e 15fd bc3d b9c6 a3bd 2837 9c3d
000003f0: daea 60be 3eae a5bd ff59 983e 78ef 6fbe

decoder.2.bias f4 [30]
0.19875482 -0.027361192 -0.02958625 -0.13641798 0.31710693 -0.18164925 0.21405171 0.041972697
-0.19926888 0.095274046 -0.27825913 -0.034190696 0.027864503 0.29925936 -0.29791826 0.23198017
0.03372454 -0.066192724 -0.2672919 0.18141443 -0.08729233 -0.29261056 -0.16005588 0.21786796
-0.07833342 -0.14573097 0.053470623 -0.18084818 -0.22585522 -0.16099206
00000000: 6286 4b3e 9424 e0bc dd5e f2bc 28b1 0bbe
00000010: d75b a23e 4302 3abe 5f30 5b3e 90eb 2b3d
00000020: 240d 4cbe 0a1f c33d fb77 8ebe 8b0b 0cbd
00000030: 1944 e43c 8638 993e be88 98be 368c 6d3e
00000040: be22 0a3d 0d90 87bd 7cda 88be b4c4 393e
00000050: 52c6 b2bd 0dd1 95be b0e5 23be c718 5f3e
00000060: 466d a0bd 803a 15be 0304 5b3d 4430 39be
00000070: 9746 67be 1adb 24be

decoder.4.weight f4 [60, 30]
0.029651154 -0.13303661 0.15270932 -0.013964162 0.15705693 0.014660095 0.024582217 0.14282364
-0.10131653 -0.018867755 -0.18437862 0.052666757 -0.078564346 -0.044722322 0.10857523 0.016508926
-0.050504208 -0.074690506 -0.14717406 -0.030685075 0.1671033 -0.12937354 0.10542189 0.1734034
-0.14456744 -0.023511538 -0.11374426 0.07256699 -0.13766187 0.046320762 -0.044355117 -0.085670486
-0.08331503 -0.166864 -0.15433101 -0.0026316608 -0.17523582 0.06810379 -0.10816648 -0.12700695
-0.13782434 0.043119997 0.014430107 0.015162428 0.103321835 -0.04894004 -0.09257326 0.016304031
0.13572526 -0.059185516 -0.009999863 -0.043011878 -0.005525622 -0.17426929 0.12483371 0.16200489
0.13510957 0.038076248 0.07214984 -0.086235814 0.14814164 0.06584798 -0.05073785 -0.15938528
0.08753663 0.035051916 0.13382444 -0.04160249 0.068365596 0.13334927 0.009096708 -0.15106781
0.1107661 0.04964498 0.025873987 0.005244417 0.122086726 -0.059662748 0.1344166 0.14376883
0.070709854 0.038958747 0.039686445 -0.07630985 0.094924465 0.15339915 0.07736781 -0.1330053
0.08225183 -0.06885382 0.059023194 0.07869881 0.09971858 0.0046302886 -0.039167795 -0.038513687
0.057765413 0.06520675 0.10311119 -0.051405065 -0.062836885 -0.12864271 0.19745493 0.103829876
-0.017537918 -0.021308767 -0.03224291 0.19556355 -0.18740794 -0.1348227 -0.008628041 0.14817332
0.037683595 -0.15254824 -0.19803828 0.025991332 -0.07049543 -0.11539755 0.081773214 0.15461397
0.08960158 0.0864854 -0.11660611 0.10628256 -0.08089114 0.19431214 0.15383461 -0.045468975
-0.047053225 -0.07558414 -0.07699572 0.1084646 -0.11312466 -0.0988914 0.12958439 0.006409031
0.15650667 0.2148709 -0.10051587 0.15712927 0.03379032 -0.009427755 0.13544087 -0.15405214
0.12793861 -0.15012093 -0.099292904 0.046353962 -0.19073501 -0.10484407 0.08185163 -0.08728497
-0.17590475 0.13016075 -0.12762307 0.07281073 -0.15272015 -0.18645433 -0.12609757 -0.078972705
-0.1335559 0.1604922 -0.11226818 0.17087357 0.05728799 0.11547081 -0.09699003 -0.06384253
0.11093295 -0.13033949 0.14111741 0.1173791 -0.1222123 0.18282257 0.03820124 -0.083954506
0.031619575 -0.18696831 0.14869137 0.13823396 0.087119 0.09858482 -0.05964485 -0.06996351
0.050699063 0.09526557 0.2079762 -0.15505044 -0.06924845 -0.089625396 -0.0123648625 0.17923655
0.039925106 0.18058622 -0.07984008 0.040128615 0.042057883 -0.08748813 0.040661227 0.08285119
0.06993317 0.04982739 -0.0745919 0.1640215 -0.17261802 0.15634611 0.068753146 0.12573427
0.1087486 -0.021158637 0.09858499 0.050671156 -0.10898119 0.037526857 0.07775314 -0.16680148
0.12577727 0.14440428 -0.06191189 -0.18433383 0.18117599 -0.049265992 0.13325058 -0.07323233
-0.18338276 -0.16309002 -0.0041857697 -0.12461794 -0.0473448 -0.14922042 -0.12740959 -0.12623131
0.0430527 -0.12110682 0.102058984 0.014478849 0.18123494 0.08489741 0.04287518 0.12669204
0.049100667 -0.1366587 -0.041276556 -0.14375179 0.13089639 0.0010725883 0.15712069 -0.034314316
-0.19050105 -0.16657957 -0.16294652 0.020013748 0.003044206 0.11284977 -0.07971158 0.13016948
00000000: fae6 f23c c03a 08be d55f 1c3e f1c9 64bc
00000010: 88d3 203e e530 703c a560 c93c 5c40 123e
00000020: 0a7f cfbd 8d90 9abc c0cd 3cbe 19b9 573d
00000030: 58e6 a0bd c12e 37bd b15c de3d ba3d 873c
00000040: 80dd 4ebd 56f7 98bd ccb4 16be 445f fbbc
00000050: 211d 2b3e 7f7a 04be 6fe7 d73d a990 313e
00000060: 7d09 14be 459b c0bc c0f2 e8bd 019e 943d
00000070: 3cf7 0cbe d7ba 3d3d b6ad 35bd 0274 afbd
00000080: 12a1 aabd 65de 2abe f308 1ebe f177 2cbb
00000090: 0571 33be 007a 8b3d 6386 ddbd 1c0e 02be
000000a0: d321 0dbe 989e 303d 416c 6c3c d56b 783c
000000b0: 669a d33d 5a75 48bd 0d97 bdbd 0890 853c
000000c0: 90fb 0a3e 836c 72bd 77d6 23bc 392d 30bd
000000d0: 4710 b5bb a673 32be d1a8 ff3d 9ce4 253e
000000e0: 2a5a 0a3e d7f5 1b3d 4cc3 933d 679c b0bd
000000f0: 71b2 173e 4edb 863d 7ed2 4fbd e535 23be
00000100: 6846 b33d 9992 0f3d 4609 093e 5f67 2abd
00000110: 4303 8c3d b68c 083e 5c0a 153c 85b1 1abe
00000120: 56d9 e23d 8958 4b3d aff5 d33c 5cd9 ab3b
00000130: 9b08 fa3d ed60 74bd 81a4 093e 2338 133e
00000140: 54d0 903d 3593 1f3d 418e 223d 5748 9cbd
00000150: c267 c23d ab14 1d3e 0473 9e3d 8b32 08be
00000160: a673 a83d 3b03 8dbd 4ec2 713d d72c a13d
00000170: 4139 cc3d adb9 973b 696e 20bd 87c0 1dbd
00000180: 6d9b 6c3d 1e8b 853d f62b d33d 1e8e 52bd
00000190: a0b0 80bd eaba 03be a031 4a3e c2a4 d43d
000001a0: aeab 8fbc b98f aebc 2411 04bd d041 483e
000001b0: dee7 3fbe f60e 0abe a05c 0dbc bfba 173e
000001c0: 1d5a 1a3d 9b35 1cbe 8cca 4abe c6eb d43c
000001d0: e85f 90bd 8d55 ecbd b778 a73d 2053 1e3e
000001e0: 0881 b73d 421f b13d 2fcf eebd acaa d93d
000001f0: 41aa a5bd c3f9 463e d286 1d3e ad3d 3abd
00000200: e2ba 40bd dccb 9abd efaf 9dbd b022 de3d
00000210: e7ad e7bd 9387 cabd c5b1 043e d902 d23b
00000220: 4943 203e 1e07 5c3e 44db cdbd 7fe6 203e
00000230: b867 0a3d df76 1abc 03b1 0a3e d8bf 1dbe
00000240: 5702 033e 4db9 19be 145a cbbd a7dd 3d3d
00000250: 0a50 43be 7db8 d6bd d4a1 a73d 76c2 b2bd
00000260: 6020 34be dc48 053e 9faf 02be cb1d 953d
00000270: ac62 1cbe e2ed 3ebe b91f 01be 71bc a1bd
00000280: e1c2 08be 1158 243e dcec e5bd 7bf9 2e3e
00000290: d0a6 6a3d f67b ec3d b5a2 c6bd dfbf 82bd
000002a0: d130 e33d b777 05be 1581 103e 7464 f03d
000002b0: 714a fabd d735 3b3e e778 1c3d 57f0 abbd
000002c0: 8783 013d 9f74 3fbe 8d42 183e 348d 0d3e
000002d0: 726b b23d d7e6 c93d 294e 74bd 0749 8fbd
000002e0: d2a9 4f3d 981a c33d b7f7 543e 8bc5 1ebe
000002f0: 22d2 8dbd 858d b7bd fe95 4abc c989 373e
00000300: 8288 233d 98eb 383e 3283 a3bd e75d 243d
00000310: e344 2c3d fa2c b3bd 638c 263d e2ad a93d
00000320: 1f39 8f3d ce17 4c3d a3c3 98bd 41f5 273e
00000330: c7c2 30be 3219 203e 73ce 8c3d 7cc0 003e
00000340: 96b7 de3d e154 adbc ede6 c93d 8f8c 4f3d
00000350: 8831 dfbd c3b5 193d 0a3d 9f3d 02ce 2abe
00000360: c2cb 003e b7de 133e 5297 7dbd 02c2 3cbe
00000370: 3386 393e 23cb 49bd d772 083e d5fa 95bd
00000380: b1c8 3bbe 1201 27be c828 89bb b137 ffbd
00000390: 9fec 41bd 3dcd 18be a977 02be c842 01be
000003a0: 0758 303d da06 f8bd 4d04 d13d b238 6d3c
000003b0: a795 393e b1de ad3d e29d 2f3d 8fbb 013e
000003c0: c81d 493d 42f0 0bbe 9b11 29bd ab33 13be
000003d0: b409 063e 1796 8c3a 3fe4 203e 2b8d 0cbd
000003e0: b512 43be d693 2abe 74db 26be dff3 a33c
000003f0: 4d81 473b c81d e73d d33f a3bd 264b 053e

decoder.4.bias f4 [60]
-0.089435846 0.10590737 0.15698265 0.083320126 0.15914787 -0.13784029 0.06887816 0.07524468
-0.15588146 0.016486298 0.11365682 0.048803978 0.1900631 -0.108271845 -0.08452189 0.1440789
-0.13014185 -0.13478722 -0.16919012 0.14926387 0.19305843 0.13162604 -0.071552806 -0.022447871
0.18386893 0.036398727 0.04258926 0.1502629 0.12582557 0.05421347 -0.1107346 -0.14334692
-0.030583749 -0.018448157 0.15172279 -0.09140965 -0.08115904 -0.048411746 -0.08125751 0.05048679
-0.043890994 0.079552114 0.12920074 0.15955128 -0.0010537006 -0.096016645 0.061050426 0.13787371
-0.030419618 0.037425406 0.08117933 -0.115918905 -0.097037934 -0.12710086 0.030182347 0.089891545
0.1733435 0.037652954 -0.16616835 0.089783475
00000000: 242a b7bd f7e5 d83d 0fc0 203e bea3 aa3d
00000010: a9f7 223e 0126 0dbe fe0f 8d3d e219 9a3d
00000020: 649f 1fbe 460e 873c e8c4 e83d aee6 473d
00000030: e79f 423e a1bd ddbd d019 adbd 6b89 133e
00000040: e843 05be a905 0abe 2d40 2dbe a1d8 183e
00000050: 1cb1 453e fac8 063e 478a 92bd 99e4 b7bc
00000060: 2348 3c3e d516 153d 1372 2e3d 85de 193e
00000070: 6bd8 003e f20e 5e3d d2c8 e2bd 89c9 12be
00000080: c58a fabc 9720 97bc 385d 1b3e fc34 bbbd
00000090: b636 a6bd 654b 46bd 566a a6bd 3ccb 4e3d
000000a0: 0bc7 33bd 38ec a23d 334d 043e 6961 233e
000000b0: 531c 8aba 60a4 c4bd 0310 7a3d c42e 0d3e
000000c0: 9032 f9bc 624b 193d 5941 a63d e466 edbd
000000d0: d3bb c6bd ba26 02be f840 f73c 0f19 b83d
000000e0: f580 313e fc39 1a3d 0928 2abe 66e0 b73d

decoder.6.weight f4 [118, 60]
0.04542861 0.08897919 0.072605446 0.021141047 -0.07523088 -0.0018967234 -0.009608778 0.060606033
0.027929982 -0.042597678 -0.15127578 -0.066366464 -0.023444433 0.02875669 0.14771555 -0.10252399
0.022086624 -0.02378006 0.15056597 -0.012983357 -0.15454 0.06242254 0.00020056685 0.09002384
-0.1542609 -0.15962394 0.02370828 -0.12418629 -0.021349704 -0.031235505 0.07006268 0.024514781
-0.054887164 -0.017576074 -0.061107956 -0.07251104 -0.10526192 -0.019939363 0.004163942 -0.004268716
-0.056853775 0.006000188 -0.08869875 -0.09788955 0.06753383 0.12950091 -0.114284836 -0.01070979
0.06720203 0.12458535 0.03039163 -0.08537324 -0.13554077 -0.006092194 0.009644411 -0.010197083
0.052041873 -0.044501126 -0.079479024 -0.1150657 0.14229271 -0.109978 0.01238434 -0.08940163
0.10754236 0.01896277 0.13768435 -0.14046402 0.08929465 0.1199282 -0.12733524 0.015882777
0.016317584 -0.09726753 -0.031811234 -0.018594263 0.046999283 0.025340647 -0.036447003 0.08816267
0.073722325 0.09946421 0.026779957 -0.13896699 0.10476742 -0.059438672 -0.044236276 0.06788881
0.04725543 -0.11392491 -0.0809485 0.016307125 0.061684314 -0.06804924 0.11398362 0.07947526
-0.1460824 -0.027096368 0.06546205 -0.023321215 -0.07884569 -0.030285088 0.039847206 -0.0268192
-0.07822617 0.015818732 0.070349045 0.12400109 0.061365094 0.0346681 0.045443304 0.12834315
-0.110868126 -0.040275846 -0.07187841 -0.06353608 0.068211064 0.09303684 -0.06848776 -0.049012523
0.06194406 0.055105057 0.04758901 0.037120454 -0.09813168 0.078509696 -0.11039086 -0.05213317
0.0028171286 -0.0012280107 -0.0038925528 -0.103210084 0.13253 -0.087519765 -0.0008598401 -0.006279626
-0.008191777 -0.03461909 0.014047547 0.032138042 -0.08207583 0.09320884 -0.020339504 0.10568204
-0.09809975 0.10484276 0.08633562 -0.041477125 0.01614912 0.08567583 -0.112697616 0.09090814
0.064869046 -0.06543844 0.06464229 0.0561107 0.015306959 0.08549868 -0.1005295 -0.017487384
0.009012392 0.094458334 0.07329346 -0.01075077 -0.06055763 -0.13384774 -0.0044536414 -0.038551714
-0.033890203 0.023196563 0.074734725 0.058812693 0.014909154 -0.036945663 0.047949597 0.08309652
-0.029344719 -0.11539698 0.005913134 -0.052098893 0.11129917 -0.10898841 -0.061754588 0.0556169
-0.08120013 -0.004854621 0.0747003 -0.08891402 0.055920232 0.11489071 -0.08735879 0.020193012
-0.0742896 -0.07987833 -0.12228003 0.06430165 0.08523559 -0.08353688 0.08710606 -0.048179664
0.06458141 -0.091621116 0.11955589 -0.11878137 0.06660268 0.062491577 0.027946448 0.13342257
0.06575163 0.07708447 -0.11829619 -0.091445 -0.013481446 0.12610672 0.07728242 -0.123658
0.084342875 0.021476928 -0.017753398 -0.02520043 0.051717006 -0.054202046 0.062752955 -0.078411534
-0.024445957 0.03275297 -0.020482764 0.12675351 -0.087115444 0.044303853 0.08332946 -0.026383568
0.06636984 -0.12589824 -0.056197584 -0.09971731 0.026614625 -0.05906532 -0.104874425 -0.116388
0.0015162228 0.09720863 0.113318436 -0.014907364 -0.027971976 -0.082816556 0.10727815 -0.10782755
-0.010750523 -0.05550374 -0.1287162 0.029936096 -0.081205085 -0.037093576 0.037759833 0.056028534
00000000: 5a13 3a3d b93a b63d 2ab2 943d fd2f ad3c
00000010: a612 9abd 7a9b f8ba 236e 1dbc 083e 783d
00000020: 6bcd e43c e77a 2ebd 0ae8 1abe 24eb 87bd
00000030: 8a0e c0bc 2693 eb3c bf42 173e 19f8 d1bd
00000040: 02ef b43c 66ce c2bc f72d 1a3e 25b8 54bc
00000050: bc3f 1ebe c7ae 7f3d 414f 5239 6b5e b83d
00000060: 92f6 1dbe 7574 23be de37 c23c 6255 febd
00000070: 93e5 aebc 9ae1 ffbc 067d 8f3d 39d3 c83c
00000080: 5dd1 60bd b3fb 8fbc 564c 7abd ab80 94bd
00000090: 9093 d7bd e057 a3bc ad71 883b 96e0 8bbb
000000a0: 81df 68bd 3a9d c43b b1a7 b5bd 517a c8bd
000000b0: 2d4f 8a3d e39b 043e 2b0e eabd 1d78 2fbc
000000c0: 38a1 893d 9b26 ff3d def7 f83c 2ad8 aebd
000000d0: 33cb 0abe 07a1 c7bb 9703 1e3c aa11 27bc
000000e0: dc29 553d d046 36bd e6c5 a2bd 91a7 ebbd
000000f0: 2eb5 113e 253c e1bd b0e7 4a3c 3418 b7bd
00000100: 2b3f dc3d d057 9b3c 20fd 0c3e cdd5 0fbe
00000110: 1de0 b63d eb9c f53d 2b64 02be 991c 823c
00000120: 74ac 853c 3334 c7bd 7f4c 02bd ff52 98bc
00000130: 5282 403d 3097 cf3c 7449 15bd a18e b43d
00000140: bbfb 963d e4b3 cb3d a461 db3c 5d4d 0ebe
00000150: 4d90 d63d f775 73bd 1931 35bd 4a09 8b3d
00000160: e98e 413d 7751 e9bd 54c8 a5bd 8596 853c
00000170: b1a8 7c3d 665d 8bbd 3f70 e93d edc3 a23d
00000180: a096 15be 34f9 ddbc f810 863d 220c bfbc
00000190: d979 a1bd 6f18 f8bc d336 233d f0b3 dbbc
000001a0: 0b35 a0bd 4996 813c 2913 903d 49f4 fd3d
000001b0: f759 7b3d 2300 0e3d c222 3a3d 636c 033e
000001c0: d40e e3bd 49f8 24bd fd34 93bd 341f 82bd
000001d0: 3eb2 8b3d 198a be3d 5043 8cbd 5bc1 48bd
000001e0: 0eb9 7d3d d7b5 613d b2ec 423d 9e0b 183d
000001f0: 43f9 c8bd b1c9 a03d 9a14 e2bd 9789 55bd
00000200: 939f 383b 34f5 a0ba 331a 7fbb cf5f d3bd
00000210: f2b5 073e 903d b3bd e466 61ba 52c5 cdbb
00000220: ce36 06bc bfcc 0dbd af27 663c 2ea3 033d
00000230: 5f17 a8bd 47e4 be3d 089f a6bc d36f d83d
00000240: 86e8 c8bd cdb7 d63d bbd0 b03d ebe3 29bd
00000250: 294b 843c cf76 af3d 02ce e6bd 0c2e ba3d
00000260: 10da 843d 9704 86bd 2d63 843d 55d4 653d
00000270: 0aca 7a3c ef19 af3d 69e2 cdbd b441 8fbc
00000280: b6a8 133c 5f73 c13d e21a 963d ff23 30bc
00000290: 470b 78bd 620f 09be daef 91bb 67e8 1dbd
000002a0: 74d0 0abd b806 be3c 850e 993d 94e5 703d
000002b0: 8645 743c 5654 17bd cc66 443d 822e aa3d
000002c0: 5664 f0bc 4055 ecbd f7c2 c13b a665 55bd
000002d0: d2f0 e33d 5135 dfbd 61f2 7cbd 8cce 633d
000002e0: 414c a6bd 8313 9fbb 79fc 983d 8e18 b6bd
000002f0: 9d0c 653d d24b eb3d 2ae9 b2bd d16b a53c
00000300: 2525 98bd 4097 a3bd f46d fabd 95b0 833d
00000310: ff8f ae3d 6215 abbd a964 b23d 0a58 45bd
00000320: 4243 843d daa3 bbbd b8d9 f43d a643 f3bd
00000330: fc66 883d 2bf7 7f3d f3ef e43c ed9f 083e
00000340: caa8 863d 76de 9d3d 4645 f2bd 8447 bbbd
00000350: 48e1 5cbc 1f22 013e 3f46 9e3d 6840 fdbd
00000360: f5bb ac3d 62f0 af3c 936f 91bc 2271 cebc
00000370: 36d5 533d f702 5ebd 9f84 803d 3a96 a0bd
00000380: e342 c8bc fa27 063d 78cb a7bc accb 013e
00000390: 9569 b2bd f577 353d a3a8 aa3d 5a22 d8bc
000003a0: e9ec 873d 78eb 00be 702f 66bd 9738 ccbd
000003b0: ea06 da3c 7aee 71bd 67c8 d6bd d55c eebd
000003c0: ffbb c63a 5115 c73d 7f13 e83d 043e 74bc
000003d0: 7c25 e5bc ba9b a9bd a6b4 db3d b1d4 dcbd
000003e0: f622 30bc e457 63bd 2ece 03be 8b3c f53c
000003f0: da4e a6bd 6fef 17bd 0eaa 1a3d 2d7e 653d

decoder.6.bias f4 [118]
-0.008141873 -0.018109305 -0.027847802 -0.09209712 -0.07911885 -0.09218874 0.0018582899 0.023327632
0.11512881 0.02015401 -0.08868078 0.13786104 -0.025274906 0.12505005 0.1380768 0.024094325
0.087828435 0.005926106 0.074100316 0.022961015 -0.06274602 -0.097303376 -0.026054459 -0.099444516
0.057646576 -0.044773743 -0.108425856 -0.0077514905 0.04990772 -0.04759189 0.02896736 0.100592166
-0.06987929 -0.07585447 0.08053201 0.0031199 0.041633345 -0.033197057 0.06600263 0.14326306
0.07132923 -0.08499132 -0.09172153 -0.082063764 -0.0028381506 -0.05310546 -0.011997451 -0.03284579
0.1003735 0.035347432 -0.097304106 -0.02634087 -0.06792621 0.032221112 0.06415066 0.052742805
0.044965405 0.06431118 -0.067270055 -0.08825376 -0.033368684 -0.10361282 0.014181232 0.069731064
-0.048482694 -0.10593809 -0.03262672 0.046668757 -0.0055071358 -0.04119706 -0.017425017 0.07931098
0.08492377 -0.08211011 0.041671887 -0.052492317 -0.076487795 -0.06346027 -0.029586105 0.0349115
0.013517731 -0.028608108 -0.010421528 0.02739465 -0.06787028 -0.03587679 0.030036498 0.039338835
-0.009375702 -0.018608764 -0.10112839 -0.07409986 0.08437474 0.07847919 0.05559801 0.1133024
-0.07045855 -0.07145453 -0.07445829 -0.030162614 0.08504698 0.09263734 0.11903856 0.06579032
-0.007574939 -0.068356074 -0.09055789 -0.06403057 -0.09146408 -0.050334625 -0.13571163 0.041303754
0.10109128 -0.033674743 0.124155775 -0.017382123 -0.104276605 0.039364405
00000000: 7e65 05bc f759 94bc 1321 e4bc 6a9d bcbd
00000010: 1009 a2bd 73cd bcbd dd91 f33a 9719 bf3c
00000020: a7c8 eb3d 061a a53c 459e b5bd 722b 0d3e
00000030: 520d cfbc 1f0d 003e 0164 0d3e 7661 c53c
00000040: 65df b33d c82f c23b e8c1 973d bd18 bc3c
00000050: fc80 80bd fe46 c7bd 2970 d5bc 91a9 cbbd
00000060: d11e 6c3d ac64 37bd 600e debd 3700 febb
00000070: 0a6c 4c3d b7ef 42bd f54c ed3c 4403 ce3d
00000080: e01c 8fbd 9759 9bbd f7ed a43d 3c77 4c3b
00000090: ba87 2a3d a3f9 07bd 632c 873d 8db3 123e
000000a0: 0f15 923d ee0f aebd 7fd8 bbbd 0c11 a8bd
000000b0: 4400 3abb 1c85 59bd f590 44bc 4f89 06bd
000000c0: 9f90 cd3d 78c8 103d 6047 c7bd cfc8 d7bc
000000d0: e61c 8bbd 49fa 033d 6c61 833d d708 583d
000000e0: a52d 383d 94b5 833d e2c4 89bd 63be b4bd
000000f0: 9aad 08bd f532 d4bd 6658 683c 29cf 8e3d
00000100: ca95 46bd 12f6 d8bd 98a3 05bd bd27 3f3d
00000110: 3475 b4bb 40be 28bd e9be 8ebc cc6d a23d
00000120: 83ec ad3d 5829 a8bd 24b0 2a3d 2f02 57bd
00000130: a2a5 9cbd 75f7 81bd 8f5e f2bc 5cff 0e3d
00000140: 7979 5d3c 8d5b eabc 0ebf 2abc bf6a e03c
00000150: 93ff 8abd 8af3 12bd 1a0f f63c c221 213d
00000160: 8b9c 19bc 6871 98bc 671c cfbd abc1 97bd
00000170: aacc ac3d b3b9 a03d bdba 633d 170b e83d
00000180: 924c 90bd c156 92bd 977d 98bd 9617 f7bc
00000190: 1c2d ae3d a5b8 bd3d 7dca f33d 13bd 863d
000001a0: 3237 f8bb 45fe 8bbd 6a76 b9bd 7622 83bd
000001b0: 8551 bbbd ae2b 4ebd fdf7 0abe 202e 293d
000001c0: f208 cf3d 87ee 09bd 6245 fe3d f464 8ebc
000001d0: f98e d5bd 923c 213d

estimation.0.weight f4 [10, 3]
-0.28305313 -0.31470627 -0.255423 0.57902783 0.24198073 0.36090192 -0.07907343 -0.015301954
0.27398515 0.19031394 -0.09972653 -0.27151847 -0.29695198 0.028657272 -0.4073191 -0.13437968
0.32178795 0.30279243 -0.058439482 -0.010702731 -0.4256639 0.15347652 -0.17268208 0.1599144
-0.43958178 0.48644933 -0.105490826 -0.38823175 0.4884453 0.19452757
00000000: 57ec 90be 2e21 a1be cec6 82be 2b3b 143f
00000010: ccc9 773e 23c8 b83e 40f1 a1bd 0cb5 7abc
00000020: c847 8c3e a8e1 423e 6c3d ccbd 7804 8bbe
00000030: 170a 98be a8c2 ea3c 218c d0be d49a 09be
00000040: 64c1 a43e 9c07 9b3e 3d5e 6fbd 825a 2fbc
00000050: 9ef0 d9be f328 1d3e 92d3 30be 9ac0 233e
00000060: dd10 e1be e30f f93e 930b d8bd 50c6 c6be
00000070: 8115 fa3e 3c32 473e

estimation.0.bias f4 [10]
0.71315897 -0.41500235 -0.30916128 0.32030895 -0.052002255 0.50032544 -0.5863752 0.38026643
0.6222978 0.37116107
00000000: 9691 363f 307b d4be 634a 9ebe 89ff a33e
00000010: 5100 55bd 5415 003f af1c 16bf 48b2 c23e
00000020: e94e 1f3f d308 be3e

estimation.3.weight f4 [4, 10]
-0.16433251 0.37953877 -0.13195911 -0.16576074 0.06762518 -0.16426855 0.1679476 -0.1929604
0.05706925 0.21316648 -0.37412974 -0.22374609 0.16889982 0.17351227 -0.25246993 -0.14151952
0.048794147 0.010388913 -0.015283314 -0.29873708 0.44023815 -0.045619607 -0.3770596 0.21907027
0.16800736 0.23716196 -0.13136286 -0.18540752 0.18000153 0.37951547 0.14426713 0.026524613
0.19489096 -0.030018564 -0.17528184 -0.3597842 0.25989208 0.14618611 -0.33280274 -0.3880667
00000000: c846 28be e852 c23e 4a20 07be 2fbd 29be
00000010: 127f 8a3d 0436 28be 75fa 2b3e 6997 45be
00000020: 72c1 693d 5048 5a3e ef8d bfbe b21d 65be
00000030: 13f4 2c3e 33ad 313e bd43 81be 7eea 10be
00000040: 5fdc 473d 4236 2a3c dd66 7abc 11f4 98be
00000050: e566 e13e a0db 3abd f50d c1be f553 603e
00000060: 1f0a 2c3e 96da 723e fc83 06be 78db 3dbe
00000070: 5252 383e da4f c23e c3ba 133e 254a d93c
00000080: 7f91 473e 7ee9 f5bc 157d 33be a235 b8be
00000090: 9310 853e d0b1 153e 1f65 aabe aeb0 c6be

estimation.3.bias f4 [4]
-0.1504547 -0.19645397 0.111305855 0.03156851
00000000: cc10 1abe 3b2b 49be 53f4 e33d fb4d 013d
