Baseline-models/DAGMM/DAGMM-CHD/no--dagmm/models/15_194_dagmm.pth (torch, 82200 bytes, 22 tensors)

phi f4 [4]
0	0x3e19e48c	0.1502859
1	0x3de5a9af	0.11214005
2	0x3f240576	0.6407083
3	0x3dc6618c	0.09686574

mu f4 [4, 3]
0	0x3e42e6fe	0.19033429
1	0x3fa2e16f	1.2725047
2	0xbdf0bbc1	-0.11754561
3	0x3e6441b2	0.22290686
4	0x3f9f6fbb	1.2455972
5	0xbd9bb5d4	-0.0760304
6	0x3cdbba69	0.026822286
7	0x3fb42ab5	1.4075533
8	0xbea6d8c2	-0.32587248
9	0x3e772890	0.24136567
10	0x3f9d7e5e	1.2304189
11	0xbd573826	-0.05254378

cov f4 [4, 3, 3]
0	0x3e8d6113	0.27613124
1	0xbe696e45	-0.2279597
2	0x3eb4191c	0.35175407
3	0xbe696e45	-0.2279597
4	0x3e40c274	0.18824178
5	0xbe94b0cb	-0.29041132
6	0x3eb4191c	0.35175407
7	0xbe94b0cb	-0.29041132
8	0x3ee56d10	0.4480977
9	0x3e91f70b	0.2850879
10	0xbe711760	-0.23544073
11	0x3eb9f6c6	0.36321086
12	0xbe711760	-0.23544073
13	0x3e472933	0.1944931
14	0xbe999732	-0.29998165
15	0x3eb9f6c6	0.36321086
16	0xbe999732	-0.29998165
17	0x3eecedfa	0.46275312
18	0x3e4b891b	0.1987652
19	0xbe27fb9d	-0.16404577
20	0x3e819f5d	0.25316897
21	0xbe27fb9d	-0.16404577
22	0x3e0ab1bb	0.13544361
23	0xbe55fbf4	-0.20896894
24	0x3e819f5d	0.25316897
25	0xbe55fbf4	-0.20896894
26	0x3ea51b4b	0.32247385
27	0x3e941241	0.28920177
28	0xbe749983	-0.23886685
29	0x3ebca667	0.36845705
30	0xbe749983	-0.23886685
31	0x3e4a174c	0.1973545
32	0xbe9bd43b	-0.30435356
33	0x3ebca666	0.36845702
34	0xbe9bd43b	-0.30435356
35	0x3ef05afd	0.4694442

encoder.0.weight f4 [60, 118]
0	0xbcce3712	-0.025172744
1	0x3dadc991	0.08485711
2	0x3ca9a0a8	0.02070649
3	0x3adc5059	0.0016808613
4	0x3db0fda1	0.08642126
5	0xbd0d709b	-0.034531217
6	0x3d027188	0.031846553
7	0x3d5a433c	0.053286776
8	0xbd8d684d	-0.069046594
9	0x3d81c46e	0.06336294
10	0x3d0861c9	0.03329638
11	0x3c38dabe	0.011282621
12	0x3d2d0541	0.04224134
13	0x3d377a1a	0.04479418
14	0xbd81c87e	-0.06337069
15	0xbd2f4230	-0.04278773
16	0x3d9b37ad	0.07578979
17	0xbd454cd0	-0.048168957
18	0xbce000c2	-0.027344111
19	0xbd99822c	-0.074955314
20	0xbcb62198	-0.022232816
21	0xbcf67840	-0.030086637
22	0x3cfde84e	0.03099456
23	0xbd6a4529	-0.057194863
24	0x3db046b0	0.086072326
25	0x3d790b44	0.06080176
26	0x3db3fd94	0.087886006
27	0xbd0588f5	-0.032601316
28	0xbd31181b	-0.04323588
29	0xbdbeadae	-0.093104705
30	0xbdb5bbea	-0.088737324
31	0xbca1825c	-0.01971548
32	0x3d619324	0.055071965
33	0x3d031db9	0.032010768
34	0xbd30ac85	-0.043133277
35	0x3d52fdf6	0.051511727
36	0xbcb89090	-0.02252987
37	0xbd670f1c	-0.056410894
38	0xbc88d3c5	-0.016702542
39	0xbd769ca6	-0.060207985
40	0x3d3bbf56	0.04583677
41	0x3d132850	0.035927117
42	0x3cd5b138	0.026085481
43	0xbb4053f6	-0.002934692
44	0xbd004045	-0.031311292
45	0x3c1b9bd8	0.009497605
46	0xbd9f3904	-0.07774547
47	0xbd0ce8c5	-0.034401674
48	0xbd1ee110	-0.038788855
49	0xbd9bd326	-0.07608633
50	0xbd203faa	-0.039123215
51	0xbcb5c99d	-0.022190863
52	0xbcc1a272	-0.02363703
53	0xbc434d7e	-0.011920331
54	0x3aeeae69	0.0018209937
55	0xbdb280fb	-0.08716007
56	0xbd2d2140	-0.042268038
57	0xbc5120db	-0.012764181
58	0xbb9610b3	-0.0045796274
59	0xbc9455bc	-0.018107288
60	0xbbcbdac0	-0.0062211454
61	0xbd01932c	-0.031634495
62	0x3da5f5dd	0.08103535
63	0x3d197292	0.03746278
64	0x3da5fd6d	0.08104978
65	0x3d9c7274	0.07639018
66	0x3d88193a	0.066454366
67	0xbd937cc0	-0.072015285
68	0x3d2a8278	0.04162833
69	0x3d8e450a	0.06946762
70	0x3dba7bff	0.09105682
71	0x3d0aebbb	0.033916216
72	0x3d83d2f2	0.06436719
73	0xbd695d0b	-0.0569735
74	0x3d1ac9de	0.03779017
75	0xbda964ba	-0.08271165
76	0xbd18c3be	-0.03729605
77	0xbc9ea279	-0.019364582
78	0xbda066e0	-0.07832122
79	0xbbbe4833	-0.0058069467
80	0xbcef05a4	-0.029177494
81	0x3d092ac6	0.033488058
82	0xbd3d127a	-0.0461602
83	0xb92d7396	-0.00016541625
84	0x3d81b8ba	0.06334062
85	0xbbe42f70	-0.006963663
86	0xbd9c298b	-0.07625111
87	0x3d082e71	0.033247415
88	0xbdbf39e0	-0.09337211
89	0x3da5de61	0.08099056
90	0x3c0f35f6	0.008740893
91	0x3c768632	0.015046643
92	0xbd8b06d9	-0.067884155
93	0x3cc6bd76	0.024260264
94	0x3d19d9ee	0.03756135
95	0x3da5c0e0	0.080934286
96	0x3d033ea8	0.032042176
97	0x39174800	0.00014427304
98	0x3d818639	0.06324429
99	0xbd3f4a10	-0.04670149
100	0x3d7d5dee	0.061857156
101	0x3d77a49b	0.060459714
102	0xbd4a4ce0	-0.04938972
103	0xbd036d86	-0.03208687
104	0xbb2f0d03	-0.0026710636
105	0x3d3b09f0	0.045663774
106	0xbb2a90a0	-0.0026026145
107	0xbd8f0d42	-0.069849506
108	0x3d523260	0.051317573
109	0x3ce61f8c	0.028091215
110	0xbd31b416	-0.043384634
111	0x3c6d0c1d	0.01446822
112	0xbcbe81eb	-0.02325531
113	0xbd931184	-0.07181075
114	0x3d8f45f6	0.06995766
115	0xbc823883	-0.015896088
116	0x3d5863d2	0.05282957
117	0xbc1a981e	-0.009435682
118	0xbcf8bab0	-0.030362457
119	0x3d7c7697	0.061636534
120	0x3db30f4d	0.08743153
121	0xbb88baa3	-0.0041726395
122	0xbbbafe2d	-0.0057065696
123	0xbd865bed	-0.06560502
124	0xbd82284f	-0.063553445
125	0x3d181d57	0.037137356
126	0xbb8a3efa	-0.004218933
127	0x3d57174f	0.052512463
128	0x3d3e34ab	0.046436947
129	0x3d1484a6	0.036259316
130	0xbc6af1c3	-0.014339867
131	0x3d10610f	0.035248812
132	0xbcc79ec8	-0.024367705
133	0xbcfb426c	-0.03067132
134	0x3d2932e7	0.04130831
135	0xbcc9086c	-0.024540149
136	0x3d3ce797	0.0461193
137	0xbce7c299	-0.028291034
138	0x3d30e306	0.043185256
139	0x3d962b43	0.0733247
140	0x3c86cd42	0.016455296
141	0xbd2fb2e7	-0.042895224
142	0x3cad97ba	0.021190513
143	0xbd66a278	-0.056307286
144	0xbd4d299e	-0.050088517
145	0xbdd7a244	-0.105289966
146	0x3d995158	0.07486218
147	0xbda4aa68	-0.08040315
148	0x3c552f53	0.013011771
149	0x3be0af46	0.0068568317
150	0x3d9e4174	0.07727328
151	0x3c5a0467	0.013306714
152	0x3c9cc567	0.019137098
153	0xbd7ce3db	-0.061740737
154	0x3d1b48c5	0.037911195
155	0x3da5f872	0.08104028
156	0xbd8dded6	-0.06927268
157	0xbca2e024	-0.01988227
158	0xbdafc63b	-0.08582731
159	0x3c108a94	0.008822102
160	0x3ce002a4	0.02734501
161	0xbd067d4c	-0.032834336
162	0xbc6f31fe	-0.014599321
163	0xbd05dff9	-0.0326843
164	0xbc9ec7e2	-0.01938242
165	0x3d256da6	0.040387772
166	0x3dbd0258	0.09228963
167	0x3db6b83f	0.08921861
168	0xbd123830	-0.035698116
169	0x3c1bd336	0.009510806
170	0xbd8fa979	-0.07014746
171	0x3d83a2d3	0.06427541
172	0xbd91c5c9	-0.07117803
173	0x3d07338a	0.033008136
174	0xbca7aec8	-0.020469084
175	0x3d6070fc	0.05479525
176	0x3d9fbae3	0.07799318
177	0xbc5ee723	-0.013604912
178	0x3db5cfe3	0.08877542
179	0xbca25001	-0.01981354
180	0x3d71c415	0.05902489
181	0x3caaec80	0.020864725
182	0x3da5cc79	0.08095641
183	0x3d4c028c	0.049807116
184	0xbbf80026	-0.007568377
185	0x3c51a961	0.012796731
186	0x3b8be1e1	0.00426887
187	0xbd591da0	-0.05300677
188	0xbce11e53	-0.02748028
189	0xbce47092	-0.027885709
190	0x3d74cb0c	0.059763953
191	0x3d523cab	0.05132739
192	0x3d8ec9ca	0.06972082
193	0xbd1c2402	-0.038120277
194	0xbc7d261b	-0.01545098
195	0x3d8fa4a7	0.07013827
196	0x3cfa2162	0.030533496
197	0x3afbf5a6	0.0019222989
198	0xbb013807	-0.0019717233
199	0x3ce71f2a	0.028213102
200	0xbd89a547	-0.06720977
201	0xbd86a5db	-0.06574603
202	0xbd9e7a9d	-0.077382304
203	0x3d3826d6	0.04495891
204	0xbbacaa74	-0.005269343
205	0xbe074580	-0.13210106
206	0xbb9ae43f	-0.004726916
207	0xbcc679d5	-0.024228016
208	0x3d78165d	0.060568202
209	0x3bb564a8	0.005535681
210	0xbda222e5	-0.07916812
211	0x3d8ff2d3	0.07028737
212	0xbcf6ea70	-0.030141085
213	0xbd20152b	-0.039082687
214	0xbd52d473	-0.05147214
215	0xbd7d967c	-0.06191109
216	0xbcd7f4d7	-0.026361866
217	0xbda874cc	-0.08225402
218	0xbc6f103a	-0.014591271
219	0xbd5b566f	-0.053549226
220	0x3de8cbca	0.11366995
221	0xbcb98fc3	-0.022651559
222	0x3db6ad99	0.0891983
223	0xbd344626	-0.04401221
224	0x3b6dd629	0.003629098
225	0x3ce31247	0.027718676
226	0xbc96e2c4	-0.018418677
227	0xbdcdfd9e	-0.10058139
228	0xbc9cef90	-0.019157201
229	0x3cf86046	0.030319344
230	0xbd0702f0	-0.032961786
231	0x3b8a1492	0.004213878
232	0x3c4a5ec8	0.012351699
233	0x3dc5f80f	0.09666454
234	0xbd291515	-0.04127987
235	0xbc92bcf3	-0.017912364
236	0xbc13a002	-0.009010317
237	0xbd6720c9	-0.05642775
238	0x3c81fba0	0.015867054
239	0xbd4d56db	-0.05013166
240	0x3d178428	0.03699127
241	0xbdbe9b27	-0.09306937
242	0xbdbc811f	-0.092043154
243	0x3d23a0de	0.039948337
244	0x3d9185c5	0.07105593
245	0xbc32654c	-0.010888409
246	0x3b6e4eb9	0.003636284
247	0x3b2e96a3	0.002664008
248	0x3d97911a	0.07400723
249	0x3d2993ad	0.0414006
250	0x3c06f310	0.008236662
251	0x3d5cd347	0.053912427
252	0x3cea9af1	0.028638335
253	0x3c05ef8e	0.00817479
254	0x3bc7dfc2	0.006099672
255	0x3d9d383a	0.0767674

encoder.0.bias f4 [60]
0	0x3cdd3d78	0.02700685
1	0x3da8126c	0.08206639
2	0x3a6e4e36	0.0009090634
3	0x3d222908	0.03958991
4	0xbd839d47	-0.06426483
5	0x3d0b9178	0.034074277
6	0xbdc563dd	-0.09638188
7	0xbce9dd54	-0.02854792
8	0x3d70a510	0.058751166
9	0x3d94e9d6	0.07271163
10	0xbbe8b42d	-0.0071015568
11	0xbd181f38	-0.037139148
12	0xbd3d8582	-0.0462699
13	0x3d7cbd29	0.061703835
14	0xbd06424b	-0.032778066
15	0xbd940272	-0.07227029
16	0xbc568b49	-0.013094732
17	0x3d8d8787	0.069106154
18	0xbd52387a	-0.05132339
19	0x3df65e8c	0.12029752
20	0xbb9941a9	-0.0046770168
21	0x3d5c5c50	0.053798974
22	0xbdef88e7	-0.11696034
23	0xbc433862	-0.011915298
24	0x3d03b605	0.03215601
25	0x3c5b32c2	0.013378801
26	0x3d32f517	0.043690767
27	0xbd0bff2b	-0.034178894
28	0xbcb491e8	-0.02204223
29	0x3dad1ebc	0.08453128
30	0x3d360681	0.044439796
31	0xbc92893f	-0.01788771
32	0x3d8f8d20	0.07009339
33	0xbd948ae6	-0.07253055
34	0x3ca6278f	0.020282535
35	0xbda5f880	-0.08104038
36	0x3d9b5b44	0.07585767
37	0x3df2b669	0.11851198
38	0xbd6b7860	-0.057487845
39	0x3b0364ff	0.0020049212
40	0xbd6247cb	-0.05524425
41	0xbcc4dcb9	-0.02403103
42	0x3cc99645	0.024607787
43	0xbc91b1ef	-0.01778504
44	0xbd2af989	-0.04174188
45	0xbcee5664	-0.029093929
46	0x3d1a8126	0.03772082
47	0xbd0a7d0b	-0.033810657
48	0xbd284c8f	-0.041088637
49	0xbca22850	-0.019794613
50	0xbd1e4aea	-0.038645662
51	0xbd32dd85	-0.04366829
52	0xbd9c3500	-0.076272964
53	0xbd280200	-0.041017532
54	0xbc588528	-0.013215341
55	0xbbc23719	-0.0059269783
56	0x3d09e93c	0.033669695
57	0x3b52fd18	0.0032194313
58	0xbcdb6503	-0.026781565
59	0x3d806365	0.06268958

encoder.2.weight f4 [30, 60]
0	0xbdfcdb45	-0.1234651
1	0x3dd8c7f6	0.105850145
2	0xbd6cd591	-0.05782086
3	0xbca7ad11	-0.020468267
4	0xbdccc467	-0.09998398
5	0x3d7069e3	0.05869473
6	0xbd96e99d	-0.07368777
7	0x3db6749e	0.08908962
8	0x3db5eb44	0.08882764
9	0xbd54e7c6	-0.05197885
10	0x3d847661	0.064678915
11	0xbc4d0249	-0.012512752
12	0xbdec0770	-0.11524856
13	0xbda5667a	-0.080761865
14	0x3de74de3	0.112941526
15	0x3d354795	0.04425772
16	0xbb6f6982	-0.0036531393
17	0xbd1a2357	-0.03763136
18	0x3de2bd7a	0.11071296
19	0xbd00e3fb	-0.03146742
20	0x3de020f9	0.10943789
21	0xbdea8ecd	-0.11453018
22	0xbde397d5	-0.11112944
23	0x3cd7fd6d	0.02636596
24	0x3dc8cfee	0.098052844
25	0x3d38531d	0.045001138
26	0xbbf478aa	-0.0074606733
27	0x3ca808b9	0.020511972
28	0x3dec4bba	0.11537881
29	0xbe06262c	-0.13100499
30	0x3c3fa548	0.011697121
31	0xbd98d3f2	-0.074623
32	0x3c8ea74c	0.017413758
33	0xbaca8ef5	-0.0015453981
34	0xbd086b16	-0.03330525
35	0x3c9c5a3e	0.019086
36	0x3d9b1d2f	0.07573926
37	0x3b137e38	0.0022505652
38	0x3c47c6d4	0.0121934
39	0x3d84d60d	0.064861394
40	0x3e0afa8d	0.1357214
41	0xbd977e59	-0.07397146
42	0xbdbd8cea	-0.09255393
43	0xbdeaa2cb	-0.114568315
44	0xbdf3709b	-0.11886712
45	0xbc8020e1	-0.015640678
46	0xbd56c607	-0.052434947
47	0xbdf226dc	-0.11823818
48	0xbd832b80	-0.06404781
49	0x3cdef586	0.027216684
50	0x3dd28fdf	0.102813475
51	0x3dfe4dbc	0.124171704
52	0x3d96d1ca	0.07364233
53	0xbd2cc8c3	-0.04218365
54	0x3c568632	0.013093518
55	0x3c548fe3	0.012973758
56	0xbdcacf57	-0.09902828
57	0x3e0c3f9d	0.13696142
58	0xbdfa8447	-0.12232261
59	0x3de0cb30	0.10976255
60	0xbdba5964	-0.09099081
61	0x3c0ee74c	0.008722138
62	0x3dd50d1a	0.104028895
63	0xbd84667d	-0.064648606
64	0x3dcf0cc1	0.101098545
65	0xbda23153	-0.07919564
66	0x3d9b8b17	0.07594889
67	0x3df57eb5	0.11987058
68	0x3ddaf396	0.106909916
69	0x3d673976	0.056451283
70	0x3d159056	0.036514603
71	0x3dedbfc7	0.11608844
72	0x3d1ff409	0.03905109
73	0xbd4f4826	-0.050605915
74	0x3d3e8fd2	0.046523876
75	0xbdd69a70	-0.10478675
76	0xbd90cf40	-0.0707078
77	0x3c732b05	0.0148418
78	0x3d1b3883	0.03789569
79	0xbd386195	-0.045014936
80	0xbdd94e7c	-0.10610673
81	0x3d064090	0.032776415
82	0x3bd33fef	0.0064468305
83	0xbc49c28b	-0.012314449
84	0xbbfa3000	-0.0076351166
85	0x3d086cea	0.033306994
86	0x3db7c0b9	0.08972306
87	0x3dfd0d6b	0.12356075
88	0x3d847cbd	0.064691044
89	0xbd29baef	-0.04143804
90	0x3ccfde35	0.025374511
91	0xbddf53ac	-0.10904631
92	0x3d984b99	0.07436294
93	0xbdc501c0	-0.096194744
94	0xbcdb27c2	-0.026752356
95	0x3dd4b1e3	0.10385492
96	0x3d697e9f	0.05700552
97	0xbde6fff5	-0.11279289
98	0x3dbb4113	0.09143271
99	0x3dbda683	0.09260275
100	0x3d938b46	0.07204299
101	0x3d8dca00	0.06923294
102	0xbda23f59	-0.07922239
103	0xbdf9c350	-0.12195456
104	0x3db5c2e5	0.08875064
105	0xbccb8c9a	-0.024847317
106	0x3d73b6cf	0.05950051
107	0x3d931aa8	0.07182819
108	0x3d931b69	0.071829624
109	0xbd9e9ff2	-0.07745351
110	0xbde3ce97	-0.11123388
111	0xbce226ed	-0.027606452
112	0xbd6d7597	-0.05797347
113	0xbdd250fd	-0.102693535
114	0x3db6ce95	0.08926121
115	0x3e09d4f3	0.1346014
116	0xbd15e4a9	-0.03659502
117	0x3d9c772b	0.07639917
118	0x3d735fd3	0.059417557
119	0x3d4a7ac0	0.04943347
120	0xbcf5e9a6	-0.030018639
121	0xbda43d82	-0.08019544
122	0xbcfe4dc7	-0.031042947
123	0x3ce2dbfa	0.027692784
124	0x3da3f301	0.08005334
125	0x3d4a407a	0.049377896
126	0x3dd0a096	0.10186879
127	0xbd8172f0	-0.06320751
128	0xbd6a73b1	-0.05723924
129	0xbd83623c	-0.06415221
130	0xbdbda696	-0.09260289
131	0xbcca63b8	-0.024705753
132	0xbd918934	-0.071062475
133	0x3d82874e	0.063734636
134	0x3d03532e	0.03206175
135	0xbcfea57a	-0.031084765
136	0x3dba8847	0.09108024
137	0x3d96fa32	0.0737194
138	0xbdd23318	-0.102636516
139	0xbb0c5a0b	-0.0021415974
140	0x3ccb6be3	0.024831718
141	0x3d8a5aa7	0.06755572
142	0xbe094739	-0.13406076
143	0xbe0e265a	-0.13881817
144	0xbe0d992f	-0.13827966
145	0xbb30ed54	-0.0026996927
146	0x3e0c4c93	0.13701086
147	0x3d7c0852	0.061531372
148	0xbe0168e2	-0.12637666
149	0x3ddea380	0.10871029
150	0xbd95c026	-0.0731204
151	0xbdb53119	-0.08847255
152	0x3e0572a5	0.13032015
153	0x3d27e5d0	0.04099065
154	0x3d5c96a4	0.0538546
155	0xbbd0714a	-0.0063611614
156	0x3ccbab0c	0.024861835
157	0x3c3ea704	0.011636499
158	0x3ce77658	0.028254673
159	0xbb2c17e6	-0.0026259362
160	0xbe06322b	-0.13105075
161	0x3e082993	0.1329711
162	0x3dd566e2	0.10420014
163	0xbbd9c08d	-0.0066452683
164	0xbcbc77c8	-0.023006335
165	0x3dd96f49	0.10616929
166	0x3de6aacd	0.112630464
167	0x3d6ee428	0.058323056
168	0x3d970ad2	0.07375111
169	0xbddb8aa0	-0.107198
170	0x3d7a7f0b	0.061156314
171	0x3dde90bc	0.1086745
172	0xbda38c7c	-0.0798578
173	0x3e0da772	0.13833407
174	0xbdc5d2f1	-0.096593745
175	0xbe08fb28	-0.13377059
176	0xbd9e4354	-0.077276856
177	0xbcab5a81	-0.020917179
178	0xbddb3579	-0.107035585
179	0xbd5481c8	-0.05188158
180	0x3dd7e852	0.105423585
181	0x3d88dfc1	0.06683303
182	0xbc6ff90a	-0.014646778
183	0xbcc65298	-0.024209306
184	0xbe018a9c	-0.12650532
185	0x3e0d093a	0.13773051
186	0xbd555f4d	-0.05209284
187	0xbb86c779	-0.0041131345
188	0xbd815317	-0.06314676
189	0xbdb95272	-0.09048928
190	0xbe07ad5a	-0.13249722
191	0xbdec4a5d	-0.11537621
192	0xbc2eb5f3	-0.010663497
193	0x3d5d419b	0.054017644
194	0x3d9d050d	0.07666979
195	0xbcf387e0	-0.029727876
196	0x3c441490	0.011967793
197	0x3d9a179f	0.075240366
198	0x3d88a851	0.06672729
199	0x3e09bd4d	0.13451119
200	0xbcfbda13	-0.030743634
201	0xbd0ec6cf	-0.034857567
202	0xbc81f75d	-0.015865022
203	0x3d9a3220	0.07529092
204	0x3ccb0130	0.02478084
205	0xbe0cdf8d	-0.13757153
206	0x3dc5fb73	0.09667101
207	0xbb964a87	-0.004586521
208	0xbde9a93f	-0.11409234
209	0x3e10304e	0.14080927
210	0xbda75364	-0.081702024
211	0xbb409433	-0.0029385209
212	0xbd8dadbf	-0.06917905
213	0xbda7bf3b	-0.08190771
214	0xbdda574f	-0.10661184
215	0x3d97ef15	0.07418648
216	0x3d814b05	0.06313137
217	0xbd3afd89	-0.045651946
218	0x3d8f9c50	0.07012236
219	0xbddd8edf	-0.10818266
220	0xbd3dae71	-0.04630894
221	0x3bee711a	0.0072766664
222	0x3dd8d961	0.10588337
223	0x3dd34fc6	0.1031795
224	0xbdaa8c83	-0.08327582
225	0x3d328ca5	0.04359116
226	0xbcca8e16	-0.024725955
227	0x3dc35a37	0.095386915
228	0xbd99a99a	-0.07503052
229	0xbdf41e3d	-0.1191983
230	0xbd11dbd7	-0.035610046
231	0x3d28bdda	0.04119668
232	0xbd4cd427	-0.05000701
233	0x3d6cb7f8	0.057792634
234	0xbe04f3ee	-0.12983677
235	0xbde8f8f4	-0.11375609
236	0x3d2004a1	0.039066914
237	0xbe077961	-0.13229896
238	0x3d5b82f6	0.05359169
239	0x3c8e6032	0.017379854
240	0x3de30a86	0.110859916
241	0xbcf13e7a	-0.029448736
242	0xbc9fbe2a	-0.019499857
243	0xbe0d47ad	-0.13796873
244	0xbd99a680	-0.075024605
245	0xbd942cb7	-0.07235091
246	0xbe0896fd	-0.13338847
247	0xbda8ffbe	-0.08251904
248	0x3dc57146	0.09640746
249	0xbdab85cb	-0.08375128
250	0xbe191a5b	-0.1495146
251	0xbe05c292	-0.13062504
252	0xbdbeed8f	-0.093226545
253	0x3d8e90aa	0.06961186
254	0xbdd89ecf	-0.10577165
255	0xbd73824d	-0.059450436

encoder.2.bias f4 [30]
0	0xbde25d5c	-0.11052963
1	0xbcc4e0ef	-0.024033038
2	0x3dccc65e	0.09998773
3	0xbc97805c	-0.018493824
4	0x3da3dacb	0.08000716
5	0x3b8df22c	0.0043318477
6	0x3d9fe5b7	0.078074865
7	0x3cfd41d3	0.030915176
8	0x3c83dc81	0.016096355
9	0xbced074d	-0.028934145
10	0xbd889c3d	-0.06670425
11	0x3dd792c6	0.10526042
12	0x3d54c409	0.051944766
13	0x3c15c556	0.009141287
14	0x3e06cf12	0.13164929
15	0x3d0258a1	0.031822804
16	0x3b2c35df	0.0026277227
17	0x3d8c5009	0.06851203
18	0x3d88dd20	0.06682801
19	0x3cc03ef4	0.023467518
20	0x3d4f3eb2	0.0505969
21	0x3d7dd8da	0.061974384
22	0xbcffd755	-0.031230608
23	0x3d99bda8	0.07506877
24	0x3db53edf	0.08849882
25	0x3ddebc8f	0.108758084
26	0x3d328f09	0.04359344
27	0x3d280369	0.041018877
28	0x3dc84f15	0.09780709
29	0x3d85f3c8	0.06540638

encoder.4.weight f4 [10, 30]
0	0xbe20ad14	-0.15691024
1	0x3e2a25f3	0.16616039
2	0xbd8df56e	-0.069315776
3	0xbd454284	-0.048159137
4	0x3dd3b5fb	0.103374444
5	0x3c95fa2c	0.018307768
6	0xbd6b4413	-0.057437968
7	0xbe0d65f9	-0.1380843
8	0xbe263df3	-0.16234569
9	0xbd4a08c7	-0.049324777
10	0x3d941271	0.0723008
11	0xbe2e61a1	-0.1702943
12	0x3d7bfac7	0.061518457
13	0x3e4e7b05	0.20164116
14	0x3cf359ea	0.02970596
15	0x3e2b789e	0.1674523
16	0x3d48f56b	0.049062174
17	0xbe4596e0	-0.19295835
18	0xbcc4505f	-0.023964105
19	0x3e10f7c5	0.14157017
20	0xbd90c36e	-0.07068525
21	0xbc266adf	-0.010157316
22	0xbde4e830	-0.11177099
23	0x3deeebda	0.11666079
24	0xbcb715c3	-0.022349244
25	0xbd8def1e	-0.069303736
26	0x3dd18fa9	0.10232479
27	0x3e16a533	0.14711456
28	0x3e009e92	0.1256049
29	0x3cadc9fb	0.021214476
30	0x3e2df69a	0.16988602
31	0xbda06002	-0.07830812
32	0xbd6ae8a3	-0.057350766
33	0xbdea94e6	-0.114541814
34	0x3d3c8d0f	0.04603296
35	0xbe0c5ff8	-0.13708484
36	0x3db52f00	0.08846855
37	0x3db79375	0.08963672
38	0xbdf49ce4	-0.11943987
39	0x3d9478ac	0.07249579
40	0xbcd12435	-0.02552996
41	0xbe281fbb	-0.16418354
42	0x3e1d3a35	0.15354235
43	0xbd145a13	-0.036218714
44	0xbd557c40	-0.052120447
45	0xbd983a36	-0.07432978
46	0x3d1fcb03	0.039011966
47	0xbe32efcd	-0.17474289
48	0xbe039395	-0.12849267
49	0x3e2601ef	0.16211675
50	0x3e334669	0.17507328
51	0xbddc970d	-0.10770998
52	0x3dc4745b	0.095925055
53	0x3d49d2fa	0.04927347
54	0xbe164a8e	-0.14676878
55	0xbe31457e	-0.17311665
56	0x3d998472	0.07495965
57	0x3dbc4d9e	0.09194492
58	0xbe3ef8cb	-0.18649594
59	0xbb80ffed	-0.0039367587
60	0xbe0b1279	-0.13581266
61	0xbd9f1d4f	-0.07769262
62	0xbc81dc2d	-0.015852058
63	0x3e2ba6f9	0.16762914
64	0x3da30feb	0.079620205
65	0xbe11d7e3	-0.1424251
66	0xbd42b59c	-0.047536477
67	0x3e3c62d6	0.18397078
68	0xbd2eb85a	-0.04265628
69	0xbd140be8	-0.036144167
70	0xbd15a02e	-0.036529712
71	0xbe1b359c	-0.15157169
72	0xbdfb7bdc	-0.12279484
73	0x3e0bd1dc	0.13654274
74	0xbdf031ca	-0.117282465
75	0xbcab2f71	-0.020896645
76	0x3e2d07c0	0.16897488
77	0x3e15591a	0.14584771
78	0xbe24878c	-0.16067332
79	0x3b7b6928	0.0038362239
80	0xbe3df05b	-0.1854872
81	0xbd4ea70f	-0.05045229
82	0xbcb0f1e0	-0.02159971
83	0x3d0b0bd5	0.03394683
84	0xbd84f78a	-0.06492527
85	0x3e348971	0.17630555
86	0xbdf4c0ce	-0.11950837
87	0x3e1a15ee	0.15047428
88	0x3e39225f	0.18079518
89	0x3ca24745	0.019809375
90	0xbde096cc	-0.10966262
91	0x3b1ebb2d	0.0024220452
92	0x3da0cfdd	0.07852147
93	0x3cc9f50c	0.02465298
94	0x3e39f8f2	0.18161371
95	0xbd14946d	-0.036274362
96	0x3e4adf9b	0.19811861
97	0xbd4fa386	-0.050693057
98	0xbe3cdbc7	-0.18443213
99	0xbd5b7592	-0.05357892
100	0xbb56ce9d	-0.003277696
101	0x3e0f6738	0.14004219
102	0xbd09ab91	-0.033610884
103	0x3e052337	0.13001715
104	0x3e263265	0.16230161
105	0x3d2af1fa	0.041734673
106	0x3d01b2ac	0.031664535
107	0xbc297fae	-0.010345383
108	0xbd2babdb	-0.04191194
109	0x3d9d0d0b	0.076685034
110	0xbd239a12	-0.039941855
111	0xbdfd8788	-0.12379366
112	0x3d5010c3	0.050797235
113	0x3e0061d1	0.12537314
114	0xbcad8224	-0.02118022
115	0xbd2536fc	-0.04033564
116	0x3d423096	0.047409616
117	0x3e201e0a	0.15636459
118	0xbe0f2a54	-0.1398099
119	0xbdde45e2	-0.10853173
120	0x3e45e64c	0.19326133
121	0x3bd3498f	0.006447978
122	0xbdf2760f	-0.11838924
123	0xbe2a7439	-0.16645898
124	0xbca3c927	-0.019993378
125	0xbd93f34f	-0.07224142
126	0xbe384880	-0.17996407
127	0xbce9e886	-0.028553259
128	0x3dae750e	0.0851842
129	0x3d75f63f	0.06004929
130	0xbdee5b41	-0.11638499
131	0x3d8815cc	0.066447824
132	0xbabc18f8	-0.0014350703
133	0xbe186b62	-0.14884713
134	0xbb141de4	-0.0022600824
135	0xbd4abfdb	-0.049499374
136	0xbe2ec3e1	-0.1706691
137	0xbe0b1843	-0.13583474
138	0x3cbed491	0.023294719
139	0xbdb9670b	-0.09052857
140	0xbe07c0cd	-0.13257141
141	0x38d03fc8	9.930093e-05
142	0xbdfe2226	-0.12408857
143	0xbdd9ed5d	-0.106409766
144	0xbd799ea1	-0.060942296
145	0x3d9a51dd	0.075351454
146	0x3c9accf8	0.018896565
147	0xbc13d75f	-0.009023516
148	0xbe306dc8	-0.17229378
149	0x3a4eb926	0.00078858656
150	0xbd719e28	-0.05898872
151	0x3db4d4db	0.088296615
152	0xbd6128f7	-0.054970708
153	0x3e1afa05	0.15134437
154	0x3d786349	0.06064156
155	0x3d25a26e	0.04043811
156	0x3dd8e38d	0.10590277
157	0xbd9f7435	-0.077858366
158	0xbe0975dc	-0.13423866
159	0x3d25318d	0.04033046
160	0xbdf936a6	-0.121686265
161	0xbc2798a1	-0.010229261
162	0xbe1f38a0	-0.15548944
163	0x3dffa288	0.12482172
164	0x3e1a54cd	0.15071411
165	0x3e0ca910	0.13736367
166	0x3dcaea60	0.09907985
167	0xbe376618	-0.1791004
168	0xbdd5a155	-0.10431162
169	0xbda7234f	-0.081610315
170	0xba3629eb	-0.0006948995
171	0xbd073c1f	-0.03301632
172	0x3dda0b6e	0.10646711
173	0x3d753c24	0.059871808
174	0x3de8cd0e	0.11367236
175	0x3dad065b	0.08448478
176	0xbe165348	-0.14680207
177	0xbd3662f0	-0.044527948
178	0x3d033782	0.03203536
179	0xbe2ef719	-0.17086448
180	0x3d8e823b	0.06958433
181	0xbda45323	-0.080236696
182	0x3d2122d9	0.039339874
183	0x3e07b806	0.13253793
184	0x3ddbe8da	0.10737772
185	0xbe2c172d	-0.16805716
186	0x3d1937cc	0.037406728
187	0xbdca1bf2	-0.098686114
188	0x3e1e5fe6	0.1546627
189	0x3df29bad	0.11846099
190	0x3e3a42c1	0.18189527
191	0x3d858b05	0.065206565
192	0x3d88e08d	0.06683455
193	0xbd039b77	-0.032130685
194	0x3cb05beb	0.021528205
195	0xbe17510b	-0.14777009
196	0xbdf9299c	-0.121661395
197	0xbdaa1086	-0.08303933
198	0x3d81f45c	0.06345436
199	0xbe055b2a	-0.13023058
200	0xbe25b01e	-0.16180465
201	0xbdeef0b8	-0.11667007
202	0x3e4ba258	0.19886148
203	0xbdb16ea0	-0.08663678
204	0xbe154aa2	-0.14579251
205	0x3d9bd710	0.07609379
206	0xbe49af06	-0.19695672
207	0x3e0d2135	0.13782199
208	0x3e0349da	0.12821141
209	0xbc66764a	-0.014066288
210	0x3aac2d31	0.0013136027
211	0x3d820f02	0.06350519
212	0xbd18916f	-0.03724807
213	0x3cdc9b77	0.0269296
214	0xbdd81e5d	-0.10552666
215	0x3d65824f	0.056032475
216	0x3d9c2c05	0.076255836
217	0x3e0c20b0	0.13684344
218	0xbd93de46	-0.0722013
219	0x3dcdcc50	0.10048735
220	0xbdddd681	-0.10831929
221	0x3e094ebc	0.13408941
222	0x3d8ece57	0.0697295
223	0x3d779852	0.060448
224	0xbdb7c064	-0.089722425
225	0xbe366350	-0.17811322
226	0xbe259f11	-0.1617396
227	0xbe0e0e59	-0.1387266
228	0xbd0ada6e	-0.033899717
229	0x3d0927db	0.033485275
230	0xbda01fbf	-0.07818555
231	0xbd907170	-0.070528865
232	0x3e17414f	0.14771007
233	0x3da3a8cc	0.0799118
234	0xbe197c9a	-0.14988938
235	0x3da7642c	0.08173403
236	0x3df023f3	0.11725607
237	0xbd9d91a5	-0.07693795
238	0x3e39539b	0.18098299
239	0x3ccef08c	0.025261186
240	0xbb9fd285	-0.004877391
241	0x3e0cfeeb	0.13769118
242	0xbda2ebba	-0.079551175
243	0x3d9e8d13	0.077417515
244	0x3b2c6094	0.0026302682
245	0xbddc96da	-0.1077096
246	0x3dc57653	0.09641709
247	0xbe1e7aa7	-0.15476476
248	0x3e18dbd1	0.14927603
249	0x3d6d32e0	0.057909846
250	0xbe037418	-0.12837255
251	0xbd82c9d9	-0.06386156
252	0x3e4d8880	0.20071602
253	0x3e51554f	0.20442699
254	0x3d227c0a	0.039669074
255	0x3e20affb	0.15692131

encoder.4.bias f4 [10]
0	0xbd813dd8	-0.06310624
1	0xbd910cb1	-0.07082499
2	0x3d0b4a37	0.034006324
3	0xbd472ca8	-0.048626572
4	0x3d9a73bd	0.075416066
5	0x3e1ac680	0.15114784
6	0xbdfe0ede	-0.124051794
7	0xbdbd5333	-0.092443846
8	0xbd7261d5	-0.05917533
9	0xbcc4d336	-0.024026494

encoder.6.weight f4 [1, 10]
0	0xbea2e02a	-0.3181165
1	0xbd028aa7	-0.03187051
2	0x3ea6be28	0.32566953
3	0x3e6d9474	0.23201162
4	0xbe008b18	-0.1255306
5	0xba9d0aa6	-0.0011981323
6	0x3e444f14	0.19170791
7	0x3d11887e	0.03553056
8	0xbeac973e	-0.3370914
9	0xbe548650	-0.20754361

decoder.0.weight f4 [10, 1]
0	0x3eba56e6	0.36394423
1	0xbf3a8f97	-0.7287535
2	0x3ecbb79e	0.39788526
3	0x3f6138ed	0.87977487
4	0xbf30f720	-0.6912708
5	0xbed88ac9	-0.42293385
6	0x3eeb00b3	0.4589897
7	0x3f664528	0.89949274
8	0x3e74c209	0.23902144
9	0xbf2515b8	-0.64486265

decoder.0.bias f4 [10]
0	0x3f7feb5f	0.9996852
1	0xbe4d00fe	-0.2001991
2	0x3de84b08	0.11342436
3	0x3b9500ea	0.004547228
4	0x3e93bb9d	0.28854075
5	0xbf012199	-0.5044189
6	0x3c0e2fe1	0.008678407
7	0xbf42a929	-0.7603937
8	0xbf3461e1	-0.7046185
9	0xbf3f653d	-0.7476385

decoder.2.weight f4 [30, 10]
0	0x3d95557b	0.07291695
1	0xbe2fd9de	-0.17172953
2	0xbe29a1d9	-0.16565646
3	0x3e7fc5a2	0.24977735
4	0xbe16eef9	-0.14739598
5	0xbd964db6	-0.07339041
6	0x3bcabcca	0.006187056
7	0xbe651c70	-0.2237413
8	0x367e765f	3.791785e-06
9	0x3d143959	0.036187503
10	0x3d65be23	0.05608953
11	0x3df10c11	0.117698796
12	0xbd35f209	-0.044420276
13	0xbea9092c	-0.3301481
14	0x3df19fbf	0.11798047
15	0x3ea5e453	0.3240076
16	0xbe059585	-0.13045318
17	0x3e5c8742	0.21535972
18	0x3e92ab2a	0.28646213
19	0xbe3c8654	-0.18410617
20	0xbe74e03b	-0.23913662
21	0xbea01055	-0.3126246
22	0x3cdc29f7	0.02687548
23	0x3e1d5d8f	0.15367721
24	0xbea24574	-0.31693614
25	0x3ea2b970	0.31782103
26	0xbe61c2d7	-0.22046982
27	0xbded74ea	-0.11594565
28	0x3d76ad4c	0.060223863
29	0xbcb1845e	-0.021669563
30	0x3e9690cd	0.2940735
31	0xbe883303	-0.2660142
32	0x3e199ecc	0.15001982
33	0x3d9c8c8f	0.07643997
34	0x3d885ad1	0.06657947
35	0xbd104550	-0.03522235
36	0x3e1926fb	0.14956276
37	0xbd540ff3	-0.051773023
38	0x3c20ba32	0.009810017
39	0x3e30d560	0.17268896
40	0xbccd0f7e	-0.025031801
41	0x3e628504	0.22121054
42	0x3db45e73	0.08807077
43	0xbe8c223d	-0.27369872
44	0x3db4fe3d	0.088375546
45	0x3dcb750a	0.09934433
46	0x3e9ffea9	0.31248978
47	0xbdfedd06	-0.124445006
48	0xbdfe6529	-0.124216385
49	0x3e70aca7	0.23503362
50	0x3e24ebe8	0.16105616
51	0x3ea06e2e	0.3133406
52	0x3c74bb0d	0.0149371745
53	0x3e0854b3	0.1331356
54	0xbe868eb1	-0.2628074
55	0x3e8df11d	0.27723017
56	0xbdc266a1	-0.09492231
57	0xbeaf4860	-0.34234905
58	0xbe0202d4	-0.12696391
59	0xbe1b72c3	-0.15180497
60	0x3e9b8b3a	0.3037966
61	0x3e07d8aa	0.13266245
62	0x3ea265a3	0.31718168
63	0xbe316154	-0.17322284
64	0x3e297863	0.1654983
65	0xbd6593ed	-0.056049276
66	0xbc4503de	-0.012024848
67	0x3b9a97ef	0.004717819
68	0x3c8d6c85	0.01726366
69	0x3e9b88f7	0.30377933
70	0xbcdeb924	-0.027187891
71	0xbca80d01	-0.020514013
72	0x3e40aa34	0.18814927
73	0x3e487522	0.19575933
74	0x3e07d275	0.13263877
75	0x3e21a7b9	0.15786637
76	0x3ea6910e	0.32532543
77	0x3e8a5292	0.2701612
78	0xbda71788	-0.08158785
79	0x3e25cf05	0.16192253
80	0xbd1e6fc8	-0.03868082
81	0xbe7311bb	-0.23737232
82	0xbe8d58d8	-0.27606845
83	0x3e843e65	0.25828853
84	0xbe1345fe	-0.14382169
85	0xbdad776d	-0.08470044
86	0xbe891da4	-0.26780427
87	0xbdbb596b	-0.091479145
88	0x3eac1990	0.33613253
89	0xbe944ec0	-0.2896633
90	0xbde0b6a6	-0.109723374
91	0xbcbf44ca	-0.02334823
92	0xbe1c5f56	-0.15270743
93	0x3e4a8499	0.19777144
94	0x3dcc7607	0.099834494
95	0xbe1f2bc2	-0.15544036
96	0xbe0afc43	-0.13572793
97	0x3daf5ec9	0.08563001
98	0xbdb3b0a1	-0.08773924
99	0xbe0144a4	-0.1262384
100	0x3e3d858c	0.18507975
101	0xbe3500a4	-0.17676026
102	0xbe975a97	-0.29561302
103	0xbe8a5c47	-0.27023527
104	0x3d84ae4d	0.06478558
105	0x3c9d0fbe	0.019172546
106	0x3e68b4be	0.22725198
107	0x3e9d2869	0.30694893
108	0x3d897423	0.067116044
109	0x3d72e456	0.05929979
110	0x3b45e379	0.0030195399
111	0xbd17b5c2	-0.037038572
112	0x3e4443aa	0.19166437
113	0x3c2babb9	0.010477954
114	0xbe4bdb40	-0.19907856
115	0x3d8bf614	0.06834045
116	0x3d5051b1	0.050859157
117	0xbe986e24	-0.2977153
118	0xbe07dc75	-0.13267691
119	0xbdef8599	-0.116954036
120	0xbdb09a13	-0.08623137
121	0x3e7b4433	0.24537735
122	0xbde10a47	-0.109882884
123	0x3eab0634	0.3340317
124	0x3db443d3	0.08801999
125	0xbddbe577	-0.10737126
126	0xbbe1ec9e	-0.006894662
127	0xbd9253d4	-0.07144895
128	0xbe466df7	-0.19377886
129	0x3dc3f426	0.09568052
130	0x3e554696	0.20827708
131	0xbda1665d	-0.07880852
132	0xbe3cddc6	-0.18443975
133	0xbe969e81	-0.29417804
134	0x3e510d2c	0.20415181
135	0xbd758b48	-0.059947282
136	0x3e2a5824	0.16635185
137	0x3e8d96f6	0.27654237
138	0x3cdf1c72	0.027235243
139	0xbdf89ef8	-0.12139696
140	0x3e6741be	0.22583672
141	0x3e56fe12	0.20995358
142	0xbe4b49ee	-0.1985242
143	0xbe8d85dc	-0.2764119
144	0xbb425137	-0.0029650459
145	0x3e27e86f	0.1639726
146	0xbcb54495	-0.022127429
147	0x3cb6745f	0.022272287
148	0xbe19872d	-0.14992972
149	0xbe664a5b	-0.22489302
150	0x3e8be3ff	0.27322385
151	0x3e997386	0.2997095
152	0xbe3a1a8d	-0.18174191
153	0x3e65e84b	0.22451894
154	0xbd95782f	-0.07298314
155	0xbe849de7	-0.2590172
156	0x3e30fcfe	0.17284009
157	0x3d2a49c0	0.04157424
158	0x3d559f68	0.052153975
159	0xbe9ea184	-0.30982602
160	0xbe8160e5	-0.25269237
161	0x3e403134	0.1876877
162	0xbdac0e5b	-0.084011756
163	0xbe8d5139	-0.2760103
164	0xbd31172e	-0.043234996
165	0x3c928011	0.017883332
166	0xbe8ea106	-0.27857226
167	0xbe772f3b	-0.2413911
168	0x3e95223f	0.2912769
169	0x3d861583	0.06547072
170	0xbdacae32	-0.084316626
171	0x3e29e3b1	0.16590764
172	0xbea33ae1	-0.3188086
173	0xbe5d8a5c	-0.21634811
174	0x3dcbc18a	0.09949024
175	0xbe361363	-0.17780833
176	0xbd413beb	-0.047176283
177	0xbea0114c	-0.31263196
178	0xbe0ec0df	-0.13940762
179	0xbe0871ab	-0.13324611
180	0xbd26e738	-0.04074785
181	0x3c715206	0.014729029
182	0xbe759b2e	-0.23984978
183	0x3d9524b4	0.07282391
184	0x3d3a2657	0.04544672
185	0x3de0a19a	0.10968323
186	0x3de25645	0.11051611
187	0xbe2ede05	-0.17076881
188	0x3dc1b87a	0.09459014
189	0x3d0af9fd	0.033929814
190	0x3de9331a	0.113867
191	0x3e8974d2	0.2684694
192	0x3ca2e319	0.01988368
193	0x3d7516fb	0.05983637
194	0xbce66d3c	-0.028128259
195	0xbe30752d	-0.17232199
196	0x3ea29078	0.31750846
197	0xbd7ed3bf	-0.062213656
198	0xbdc7daef	-0.09758555
199	0x3dc029cf	0.09382974
200	0xbe8a1962	-0.2697249
201	0x3e70df52	0.2352269
202	0x3e988fc5	0.29797187
203	0x3e312fa4	0.1730333
204	0x3d5b6753	0.053565335
205	0xbdba4064	-0.09094313
206	0x3dd014e2	0.10160233
207	0x3e0b140c	0.13581866
208	0xbe9ce5cc	-0.3064407
209	0xbe8c00d4	-0.27344382
210	0xbe6a818b	-0.22900979
211	0x3e6353fd	0.22200008
212	0xbdcd5702	-0.10026361
213	0x3e684d3e	0.22685716
214	0xbd9f4b46	-0.07778029
215	0xbddf9736	-0.10917513
216	0xbdb445db	-0.088023864
217	0xbe3cb2df	-0.18427609
218	0xbe687a2c	-0.22702855
219	0xbd361135	-0.044450004
220	0xbe911453	-0.2833582
221	0x3d5a297f	0.05326223
222	0xbd5463ce	-0.051852994
223	0x3e3d5332	0.18488768
224	0x3c86f299	0.016473101
225	0xbdcefa13	-0.101062916
226	0x3e8a54ac	0.27017725
227	0x3e18902a	0.14898744
228	0x3e05472b	0.1301543
229	0x3d2401d5	0.04004081
230	0x3e4b2d41	0.19841482
231	0x3be2a07e	0.006916105
232	0xbe2d8400	-0.16944885
233	0x3dcdfd4b	0.100580774
234	0x3d256a47	0.040384557
235	0x3d82e1af	0.06390702
236	0xbd467d5c	-0.048459396
237	0xbe5a2dd2	-0.21306542
238	0x3d622c72	0.055218168
239	0xbe98750d	-0.29776803
240	0xbdb348e9	-0.08754141
241	0xbe8bed84	-0.27329648
242	0x3e174219	0.14771308
243	0x3e0fc900	0.14041519
244	0xbca53f30	-0.020171732
245	0xbd314f66	-0.04328861
246	0x3e38fb18	0.18064535
247	0x3e9b85b9	0.3037546
248	0x3e5ea871	0.21743943
249	0x3dbcf7b9	0.09226937
250	0xbda75e95	-0.08172337
251	0x3d9f6aa8	0.07784015
252	0xbe627a0f	-0.22116874
253	0xbda82f2c	-0.08212122
254	0x3e984d7a	0.2974661
255	0xbe6e2762	-0.23257211

decoder.2.bias f4 [30]
0	0x3e4d7045	0.20062359
1	0xbce39468	-0.027780727
2	0xbcf86f87	-0.030326618
3	0xbe0a995d	-0.13535066
4	0x3ea34f0a	0.3189624
5	0xbe384f4b	-0.17998998
6	0x3e5d089c	0.21585315
7	0x3d2596a5	0.04042687
8	0xbe4dd8d0	-0.20102239
9	0x3dbf5046	0.09341483
10	0xbe8fbd35	-0.2807404
11	0xbd05c761	-0.032660846
12	0x3ce06656	0.027392548
13	0x3e9a152a	0.30094272
14	0xbe994c71	-0.29941133
15	0x3e6fd53f	0.2342119
16	0x3d0c692a	0.03427998
17	0xbd851571	-0.0649823
18	0xbe89d243	-0.2691823
19	0x3e3b0c54	0.18266422
20	0xbdb21667	-0.08695679
21	0xbe9692bd	-0.29408827
22	0xbe25bac0	-0.1618452
23	0x3e60da86	0.2195836
24	0xbda10a53	-0.07863297
25	0xbe17043b	-0.14747708
26	0x3d52d727	0.051474717
27	0xbe3c735f	-0.18403386
28	0xbe68f8cb	-0.22751157
29	0xbe2637f7	-0.16232286

decoder.4.weight f4 [60, 30]
0	0x3d00ad1a	0.031415083
1	0xbe09e3a3	-0.13465743
2	0x3e1af849	0.15133776
3	0xbc53a40e	-0.012917532
4	0x3e2187ff	0.15774535
5	0x3c73833f	0.0148628345
6	0x3cd42384	0.025895841
7	0x3e118a8b	0.14213006
8	0xbdd103ee	-0.10205828
9	0xbc8c34fc	-0.017115109
10	0xbe3e8fc1	-0.18609525
11	0x3d5f1fa2	0.054473527
12	0xbd9ef48a	-0.07761486
13	0xbd2fe14c	-0.04293947
14	0x3ddd1e04	0.10796741
15	0x3c960f48	0.018317834
16	0xbd53f3b9	-0.051746104
17	0xbd97fbe3	-0.074210905
18	0xbe1884cc	-0.14894408
19	0xbcec807d	-0.028869862
20	0x3e2baf14	0.16766006
21	0xbe064374	-0.13111669
22	0x3dd4df28	0.10394126
23	0x3e335cb4	0.17515832
24	0xbe14de0e	-0.14537832
25	0xbcc489e7	-0.023991538
26	0xbdeca084	-0.115540534
27	0x3d91062d	0.07081256
28	0xbe0e1ebc	-0.13878912
29	0x3d3c0fef	0.045913633
30	0xbd3c5071	-0.045975152
31	0xbdac6921	-0.08418489
32	0xbda86a10	-0.08223355
33	0xbe2b5939	-0.16733254
34	0xbe1ed4ef	-0.15510915
35	0xbb588663	-0.0033039085
36	0xbe348229	-0.17627777
37	0x3d8d38a5	0.0689557
38	0xbddbed7f	-0.10738658
39	0xbe03a993	-0.12857656
40	0xbe0bb115	-0.1364177
41	0x3d2a13ca	0.04152278
42	0x3c5e137c	0.01355445
43	0x3c61320d	0.013744843
44	0x3dd36b90	0.1032325
45	0xbd4f02b0	-0.050539672
46	0xbdbc11c5	-0.09183077
47	0x3c7eee1c	0.015559699
48	0x3e0c9666	0.13729247
49	0xbd786587	-0.0606437
50	0xbc226fd3	-0.009914356
51	0xbd29c367	-0.041446116
52	0xbb8e463a	-0.0043418678
53	0xbe33e44c	-0.17567557
54	0x3e00b6e5	0.12569769
55	0x3e25b4e3	0.16182284
56	0x3e0bdcad	0.136584
57	0x3d21d35c	0.03950821
58	0x3d95ade5	0.073085584
59	0xbdaf32b5	-0.085545935
60	0x3e189870	0.149019
61	0x3d85217f	0.065005295
62	0xbd5352c8	-0.05159262
63	0xbe236603	-0.15956883
64	0x3db4ff1c	0.08837721
65	0x3d13cd38	0.036084384
66	0x3e09e2c8	0.13465416
67	0xbd2e577e	-0.042563908
68	0x3d8a5bd8	0.06755799
69	0x3e095741	0.13412191
70	0x3c05d051	0.008167342
71	0xbe19b1b6	-0.15009198
72	0x3de48301	0.111577995
73	0x3d4ee691	0.050512854
74	0x3cdb5f85	0.026778946
75	0x3bc84436	0.006111647
76	0x3df99b6c	0.121878475
77	0xbd708f29	-0.05873028
78	0x3e08d49d	0.13362356
79	0x3e14149a	0.14460984
80	0x3d8f4c45	0.06996969
81	0x3d1c7100	0.038193703
82	0x3d1ee6c5	0.038794298
83	0xbd9a6f98	-0.07540816
84	0x3dc08e27	0.094021134
85	0x3e1df9d0	0.15427327
86	0x3d9ca447	0.07648521
87	0xbe091ad2	-0.13389137
88	0x3da6cce7	0.08144551
89	0xbd8ed4b1	-0.069741614
90	0x3d734591	0.059392516
91	0x3da04d3d	0.07827232
92	0x3dcc8a89	0.09987361
93	0x3ba91971	0.0051605036
94	0xbd25344d	-0.04033308
95	0xbd223e14	-0.039609984
96	0x3d6bca6e	0.0575661
97	0x3d885932	0.06657638
98	0x3dd554ea	0.10416587
99	0xbd50e6f2	-0.051001497
100	0xbd810231	-0.06299246
101	0xbe03739e	-0.12837073
102	0x3e492dcd	0.19646378
103	0x3dd53add	0.10411618
104	0xbc94fad4	-0.01818601
105	0xbcab7772	-0.02093098
106	0xbd062f42	-0.032759912
107	0x3e470f0d	0.19439335
108	0xbe405735	-0.18783267
109	0xbe09b95b	-0.13449614
110	0xbc0291fc	-0.007969376
111	0x3e17403c	0.14770597
112	0x3d1aa4f5	0.03775497
113	0xbe1bfe10	-0.15233636
114	0xbe4971b3	-0.19672279
115	0x3ccf53d8	0.025308535
116	0xbd90f37a	-0.070776895
117	0xbdecd166	-0.11563377
118	0x3da88285	0.082280196
119	0x3e1f7aa7	0.15574132
120	0x3db92ed9	0.090421386
121	0x3daf9842	0.08573963
122	0xbdf1c638	-0.11805385
123	0x3ddaea53	0.10689225
124	0xbda3406a	-0.079712704
125	0x3e469a6f	0.19394849
126	0x3e1f0a3e	0.15531251
127	0xbd3d2bf8	-0.04618451
128	0xbd485405	-0.048908252
129	0xbd990eb5	-0.07473508
130	0xbd9fb61a	-0.07798405
131	0x3ddfe615	0.109325565
132	0xbde42bcb	-0.11141165
133	0xbdc86a0e	-0.09785853
134	0x3e042eb9	0.12908448
135	0x3beedccd	0.007289505
136	0x3e1f965b	0.155847
137	0x3e5c2e69	0.21502079
138	0xbdcfa29d	-0.10138438
139	0x3e21e6df	0.15810727
140	0x3d0c7f1d	0.034300912
141	0xbc289eb0	-0.01029174
142	0x3e096f5a	0.13421384
143	0xbe1cb4e9	-0.15303387
144	0x3e0179b6	0.12644085
145	0xbe1a3256	-0.15058264
146	0xbdcd4db7	-0.100245886
147	0x3d39ee80	0.045393467
148	0xbe4540f8	-0.19263065
149	0xbdd6afaa	-0.10482724
150	0x3da8a120	0.08233857
151	0xbdb52b8e	-0.08846198
152	0xbe33a6a5	-0.17544039
153	0x3e06204d	0.1309826
154	0xbe034dca	-0.12822643
155	0x3d9367e1	0.07197548
156	0xbe1cdbca	-0.15318218
157	0xbe3e351a	-0.18574944
158	0xbe008a13	-0.12552671
159	0xbda08a50	-0.07838881
160	0xbe085b3b	-0.13316052
161	0x3e2426f9	0.16030492
162	0xbde6f295	-0.112767376
163	0x3e2ebec9	0.17064966
164	0x3d6714a3	0.056416165
165	0x3ded1136	0.11575548
166	0xbdc87265	-0.09787444
167	0xbd843428	-0.064552605
168	0x3de20d50	0.110376954
169	0xbe05912d	-0.13043661
170	0x3e114992	0.14188221
171	0x3dee69dd	0.116412856
172	0xbdf94f56	-0.12173335
173	0x3e3ae453	0.18251161
174	0x3d1f0585	0.038823623
175	0xbdad9a38	-0.084766805
176	0x3d0244bb	0.031803828
177	0xbe3f2bdc	-0.18669075
178	0x3e18c0d0	0.14917302
179	0x3e0e4117	0.13892017
180	0x3db4f15a	0.08835097
181	0x3dc7be3c	0.09753081
182	0xbd7af492	-0.061268397
183	0xbd8dad60	-0.06917834
184	0x3d507e32	0.0509016
185	0x3dc1dc02	0.09465791
186	0x3e5680b7	0.20947538
187	0xbe1eb75c	-0.15499634
188	0xbd8ebcf6	-0.06969635
189	0xbdb4e2bc	-0.08832309
190	0xbc6450f8	-0.01393532
191	0x3e38deb1	0.180537
192	0x3d2523c8	0.040317327
193	0x3e3ad104	0.18243796
194	0xbda4d1ae	-0.08047806
195	0x3d2a1d48	0.04153183
196	0x3d28bc38	0.041195124
197	0xbdb39b0d	-0.08769808
198	0x3d20a806	0.03922274
199	0x3dad0bd6	0.08449523
200	0x3d90a3dd	0.070625044
201	0x3d4638f7	0.04839417
202	0xbd9c0b7a	-0.076193765
203	0x3e29a224	0.16565758
204	0xbe30f120	-0.17279482
205	0x3e1f7890	0.15573335
206	0x3d89a280	0.067204475
207	0x3dfe48b3	0.1241621
208	0x3ddc5251	0.10757888
209	0xbcaac3a0	-0.020845234
210	0x3dc71dd3	0.097224854
211	0x3d548a30	0.0518896
212	0xbddabe78	-0.1068086
213	0x3d15f266	0.036608122
214	0x3d991e94	0.074765354
215	0xbe2b19e7	-0.167091
216	0x3dfd163d	0.12357757
217	0x3e16a321	0.14710666
218	0xbd6fe337	-0.0585663
219	0xbe3e2952	-0.1857045
220	0x3e3b39df	0.18283795
221	0xbd4fce0f	-0.050733622
222	0x3e064166	0.13110885
223	0xbd9971cf	-0.074924104
224	0xbe3b2c32	-0.18278578
225	0xbe287c76	-0.16453728
226	0xbb4f841a	-0.0031664432
227	0xbe016bbe	-0.12638757
228	0xbd3c1af2	-0.045924135
229	0xbe1a6fd2	-0.15081719
230	0xbe031f18	-0.1280483
231	0xbdffa9b7	-0.124835424
232	0x3d385205	0.045000095
233	0xbdfb7309	-0.122778006
234	0x3dd68d13	0.104761265
235	0x3c758213	0.014984625
236	0x3e3b3315	0.18281205
237	0x3db128a2	0.08650328
238	0x3d39fa82	0.04540492
239	0x3e031175	0.12799628
240	0x3d51d709	0.051230464
241	0xbe0e4ac9	-0.13895716
242	0xbd2f979a	-0.042869188
243	0xbe106803	-0.14102177
244	0x3e071878	0.13192928
245	0x3aa82fc6	0.001283162
246	0x3e2277f7	0.15866075
247	0xbd10d07a	-0.03535507
248	0xbe442eaf	-0.19158433
249	0xbe2869d3	-0.16446619
250	0xbe28beb0	-0.16478992
251	0x3cb481d9	0.022034572
252	0x3b8de167	0.0043298486
253	0x3deb12b0	0.11478174
254	0xbda8f455	-0.08249728
255	0x3e077501	0.13228227

decoder.4.bias f4 [60]
0	0xbdb37929	-0.08763344
1	0x3dd5f2d1	0.10446704
2	0x3e21a44e	0.15785334
3	0x3dab3cf4	0.08361235
4	0x3e2400cf	0.16015933
5	0xbe0d57b0	-0.13802981
6	0x3d9088eb	0.07057365
7	0x3d96ba8c	0.073598
8	0xbe1d9ff8	-0.15393054
9	0x3c908298	0.017640397
10	0x3debc39f	0.11511921
11	0x3d454301	0.048159603
12	0x3e44b6ea	0.19210401
13	0xbde22990	-0.11043084
14	0xbdb16456	-0.08661716
15	0x3e14257a	0.14467421
16	0xbe04151c	-0.12898678
17	0xbe0b975b	-0.13631956
18	0xbe2ecdf0	-0.17070746
19	0x3e1a45c1	0.15065672
20	0x3e465fa5	0.19372423
21	0x3e07e97c	0.13272661
22	0xbd8ea1c9	-0.06964452
23	0xbcc43f4f	-0.02395597
24	0x3e3d7a2e	0.18503639
25	0x3d1a92c6	0.03773763
26	0x3d25d8ed	0.04049008
27	0x3e19a09c	0.15002674
28	0x3e0276f8	0.12740695
29	0x3d648263	0.05578841
30	0xbde6c100	-0.112672806
31	0xbe11d79c	-0.14242405
32	0xbce8d032	-0.028419588
33	0xbca8b478	-0.020593867
34	0x3e1b54c4	0.15169054
35	0xbdb71129	-0.0893882
36	0xbdaa3261	-0.0831039
37	0xbd4be3e4	-0.04977788
38	0xbda75c32	-0.08171882
39	0x3d53ae13	0.051679682
40	0xbd3c321d	-0.04594623
41	0x3da20077	0.07910245
42	0x3e05cd85	0.1306668
43	0x3e262727	0.16225873
44	0xbac153f3	-0.001474975
45	0xbdc56501	-0.096384056
46	0x3d752bb3	0.059856128
47	0x3e101743	0.14071374
48	0xbce4f88a	-0.027950544
49	0x3d146186	0.036225818
50	0x3da2fe14	0.07958618
51	0xbdea41e7	-0.11438351
52	0xbdc7c4e1	-0.097543485
53	0xbe02e741	-0.12783529
54	0x3cf389ea	0.029728848
55	0x3db93ce0	0.09044814
56	0x3e30b52f	0.17256616
57	0x3d214c0f	0.039379176
58	0xbe2a6f90	-0.1664412
59	0x3dbc2779	0.09187216

decoder.6.weight f4 [118, 60]
0	0x3d3202c7	0.04345968
1	0x3db9bf06	0.09069638
2	0x3d93b98a	0.07213123
3	0x3ca2f125	0.019890377
4	0xbd9cb67c	-0.07651994
5	0xbb540be8	-0.003235573
6	0xbc33ba08	-0.010969646
7	0x3d7f5b73	0.062343072
8	0x3cd9c201	0.026581766
9	0xbd33c912	-0.043892927
10	0xbe1b56a4	-0.1516977
11	0xbd899070	-0.067170024
12	0xbccf6312	-0.025315795
13	0x3cfbb3a2	0.030725304
14	0x3e193668	0.1496216
15	0xbdd07b92	-0.10179819
16	0x3cb654aa	0.022257168
17	0xbcb5f10d	-0.022209669
18	0x3e1c331f	0.15253876
19	0xbc5edac9	-0.013601967
20	0xbe20867f	-0.15676306
21	0x3d7476a4	0.059683457
22	0x3abee92f	0.0014565344
23	0x3dbb0172	0.09131135
24	0xbe1fee29	-0.15618195
25	0xbe238e63	-0.15972285
26	0x3cc9ff96	0.024658006
27	0xbdff6d81	-0.12472058
28	0xbcb6e145	-0.022324214
29	0xbd07aca3	-0.033123624
30	0x3d937dcb	0.072017275
31	0x3cd08e4a	0.025458474
32	0xbd68b887	-0.056816604
33	0xbc7da2dd	-0.015480724
34	0xbd71b0de	-0.059006564
35	0xbd984cd9	-0.074365325
36	0xbdd4f137	-0.103975706
37	0xbca42001	-0.020034792
38	0x3b9e4887	0.0048304233
39	0xbbca963c	-0.00618246
40	0xbd616a3e	-0.05503296
41	0x3bb165f9	0.0054137674
42	0xbdb73662	-0.089459196
43	0xbdcde088	-0.100525916
44	0x3d8928a8	0.06697208
45	0x3e063a72	0.13108233
46	0xbde7b681	-0.11314107
47	0xbc4ed2de	-0.012623517
48	0x3d868d96	0.06569974
49	0x3e01d952	0.12680557
50	0x3d04c532	0.032414623
51	0xbdb19e57	-0.08672779
52	0xbe0a8a40	-0.135293
53	0xbb8c464b	-0.0042808405
54	0x3c448410	0.011994377
55	0xbc2f3946	-0.010694807
56	0x3d55a156	0.052155815
57	0xbd306496	-0.043064676
58	0xbda120dc	-0.078675956
59	0xbdedc9f6	-0.116107866
60	0x3e14b144	0.14520746
61	0xbde68559	-0.11255903
62	0x3c5c6ec4	0.013454143
63	0xbdb2fea1	-0.08739973
64	0x3de02a5e	0.10945581
65	0x3cb4dd51	0.022078188
66	0x3e0f14fb	0.13972847
67	0xbe122699	-0.14272536
68	0x3dbb1b06	0.09136014
69	0x3df9d142	0.12198116
70	0xbe016d15	-0.12639268
71	0x3c988ace	0.018620875
72	0x3c9a16b4	0.018809654
73	0xbdcd1732	-0.1001419
74	0xbd0d78b2	-0.034538932
75	0xbcaccb1c	-0.021092944
76	0x3d3e8ac1	0.046519045
77	0x3cbe0a39	0.023198234
78	0xbd2073b9	-0.03917286
79	0x3db7585d	0.08952401
80	0x3d9c4974	0.076311976
81	0x3dd10939	0.10206837
82	0x3cc6ee32	0.024283502
83	0xbe106e6a	-0.1410462
84	0x3ddb82f9	0.107183404
85	0xbd71b6ba	-0.059012152
86	0xbd3c4007	-0.0459595
87	0x3d8d7ade	0.06908201
88	0x3d48ba45	0.049005765
89	0xbde38f03	-0.11111262
90	0xbdab452b	-0.08362802
91	0x3c6fb94a	0.014631579
92	0x3d8404c3	0.06446221
93	0xbd913a47	-0.07091194
94	0x3de4dbf5	0.11174766
95	0x3da7e6fe	0.08198355
96	0xbe191ad0	-0.14951634
97	0xbcda3d6f	-0.026640622
98	0x3d832cea	0.06405051
99	0xbcaa1e88	-0.020766512
100	0xbda6aa42	-0.08137943
101	0xbce8c756	-0.028415363
102	0x3d290c02	0.041271217
103	0xbcc540a3	-0.024078673
104	0xbd9c4007	-0.076294
105	0x3c5df48b	0.013547073
106	0x3d89a043	0.067200206
107	0x3e018842	0.12649634
108	0x3d81e198	0.06341857
109	0x3d03e42b	0.03220002
110	0x3d2fcd15	0.04292019
111	0x3e06a45e	0.13148639
112	0xbde4739f	-0.111548655
113	0xbd2f3280	-0.04277277
114	0xbd993e40	-0.07482576
115	0xbd7ec3af	-0.062198337
116	0x3d8ad5ee	0.06779085
117	0x3dba0d56	0.09084575
118	0xbd919cb7	-0.07109969
119	0xbd417f43	-0.047240507
120	0x3d806859	0.06269903
121	0x3d5e5fbe	0.054290526
122	0x3d4a2363	0.049350154
123	0x3d1d6db7	0.03843471
124	0xbdc6be48	-0.09704262
125	0x3da241dc	0.07922718
126	0xbddf96bb	-0.109174214
127	0xbd5a0aa5	-0.053232808
128	0x3b738f9e	0.003716446
129	0xb91c6d19	-0.00014917961
130	0xbaf221c1	-0.0018473194
131	0xbdd2421c	-0.102665156
132	0x3e08a107	0.13342677
133	0xbdb4e699	-0.088330455
134	0xbadcc33d	-0.0016842854
135	0xbbdeddfc	-0.006801365
136	0xbc01133d	-0.007878122
137	0xbd11870c	-0.03552918
138	0x3c582258	0.013191782
139	0x3d0ac19b	0.033876043
140	0xbda606c2	-0.08106758
141	0x3dc0cafc	0.09413716
142	0xbcadb086	-0.021202337
143	0x3dd63e7f	0.10461139
144	0xbdc6f3f9	-0.09714503
145	0x3ddc4f57	0.107573204
146	0x3dae9f3d	0.08526466
147	0xbd211161	-0.039323214
148	0x3c8d3ebc	0.017241828
149	0x3db0f9aa	0.0864137
150	0xbde869b3	-0.113482855
151	0x3db67c44	0.089104205
152	0x3d85f505	0.065408744
153	0xbd878d9d	-0.066188075
154	0x3d81b5ba	0.0633349
155	0x3d6947cc	0.056953236
156	0x3c72555a	0.014790857
157	0x3db14c36	0.08657114
158	0xbdd0caec	-0.10194954
159	0xbc884dba	-0.016638625
160	0x3c04a090	0.008094922
161	0x3dc22881	0.09480382
162	0x3d989c37	0.074516706
163	0xbc22967e	-0.009923575
164	0xbd76ed37	-0.06028482
165	0xbe0a28fd	-0.13492198
166	0xbba3305e	-0.004980131
167	0xbd1aa5b6	-0.03775569
168	0xbd0768d1	-0.033058945
169	0x3cb75368	0.022378638
170	0x3d974654	0.07386461
171	0x3d73705c	0.059433326
172	0x3c786482	0.015160682
173	0xbd1b5893	-0.037926268
174	0x3d410f97	0.04713401
175	0x3daa67fc	0.08320615
176	0xbd02c254	-0.031923607
177	0xbdee4717	-0.11634653
178	0x3bb65cb4	0.0055652503
179	0xbd515e00	-0.051115036
180	0x3de60e1e	0.112331614
181	0xbde13346	-0.10996108
182	0xbd792576	-0.06082674
183	0x3d6922ce	0.056917958
184	0xbda3ef5c	-0.080046386
185	0xbb7288bd	-0.0037007772
186	0x3d9b67bb	0.075881444
187	0xbdb897f4	-0.09013358
188	0x3d6959fc	0.05697058
189	0x3ded8c48	0.11599022
190	0xbdb0684b	-0.08613642
191	0x3ca56e3c	0.020194165
192	0xbd95de7c	-0.07317826
193	0xbda5be6e	-0.08092962
194	0xbdfc9e1d	-0.12334845
195	0x3d83c915	0.06434838
196	0x3db01226	0.085972115
197	0xbdad4f3c	-0.084623784
198	0x3db03d23	0.08605411
199	0xbd40a26d	-0.0470299
200	0x3d86ca04	0.065815
201	0xbdb8eed8	-0.09029931
202	0x3df1f758	0.11814755
203	0xbdf57f65	-0.11987189
204	0x3d8ad140	0.067781925
205	0x3d821fef	0.06353747
206	0x3cdbfb79	0.02685331
207	0x3e0a06c0	0.13479137
208	0x3d88d3f1	0.066810496
209	0x3d9ffa53	0.078114174
210	0xbdf473fa	-0.11936183
211	0xbdbde0a6	-0.09271364
212	0xbc4de849	-0.012567588
213	0x3dffda7a	0.12492843
214	0x3d9b75ae	0.07590805
215	0xbdfb1535	-0.12259904
216	0x3dab77dc	0.08372471
217	0x3cbc53a4	0.022989102
218	0xbc9b0ed1	-0.018927963
219	0xbcc571f4	-0.024102189
220	0x3d4f67da	0.05063615
221	0xbd5ecd21	-0.054394845
222	0x3d82e166	0.063906476
223	0xbd9e11ec	-0.07718262
224	0xbcced8b3	-0.025249815
225	0x3d018df6	0.031629525
226	0xbcab7873	-0.020931458
227	0x3e02f03b	0.12786953
228	0xbdb0220e	-0.086002454
229	0x3d30bbed	0.04314797
230	0x3da84651	0.08216537
231	0xbccfec66	-0.025381278
232	0x3d8a6ddb	0.067592345
233	0xbe0211d1	-0.12702109
234	0xbd6b442c	-0.05743806
235	0xbdce7ce2	-0.10082413
236	0x3cd1fc24	0.025632925
237	0xbd7752e9	-0.060381804
238	0xbdd596a5	-0.10429124
239	0xbdec1b7c	-0.1152868
240	0x3ab35742	0.0013682621
241	0x3dc6f187	0.097140364
242	0x3de9445c	0.11389992
243	0xbc68d06c	-0.014209848
244	0xbce06133	-0.027390098
245	0xbdabc236	-0.08386652
246	0x3ddcdabe	0.10783909
247	0xbddddc0b	-0.108329855
248	0xbc299b9f	-0.010352044
249	0xbd617e4c	-0.055052087
250	0xbe02d4e3	-0.12776522
251	0x3cea6962	0.028614704
252	0xbda5ce59	-0.08095998
253	0xbd17aea6	-0.037031792
254	0x3d1a95c8	0.0377405
255	0x3d6aa78d	0.057288695
