Baseline-models/DAGMM/DAGMM-CHD/no--dagmm/models/17_194_dagmm.pth (torch, 82200 bytes, 22 tensors)

phi f4 [4]
0.10967795 0.088630974 0.7216929 0.07999814
00000000: d59e e03d 2884 b53d dec0 383f 11d6 a33d

mu f4 [4, 3]
0.34420493 1.1296641 -0.09785601 0.34617338 1.1275978 -0.092921294 0.22541907 1.2544034
-0.39805585 0.3465758 1.1270949 -0.09185702
00000000: a13b b03e d598 903f bb68 c8bd a33d b13e
00000010: 2055 903f 854d bebd 42d4 663e 4a90 a03f
00000020: facd cbbe 6272 b13e a544 903f 891f bcbd

cov f4 [4, 3, 3]
0.087055154 -0.09135642 0.22001418 -0.09135642 0.09588935 -0.23090115 0.22001418 -0.23090115
0.55606705 0.08700841 -0.09131406 0.21988617 -0.09131406 0.09585446 -0.23078734 0.21988617
-0.23078734 0.555725 0.05960739 -0.062581226 0.15068884 -0.062581226 0.06572111 -0.15821932
0.15068884 -0.15821932 0.3809578 0.087497674 -0.09181995 0.2211194 -0.09181995 0.096374296
-0.23205906 0.22111937 -0.23205906 0.55882925
00000000: f949 b23d 1319 bbbd 664b 613e 1319 bbbd
00000010: a361 c43d 5a71 6cbe 664b 613e 5a71 6cbe
00000020: 695a 0e3f 7731 b23d de02 bbbd d729 613e
00000030: de02 bbbd 584f c43d 8453 6cbe d729 613e
00000040: 8453 6cbe fe43 0e3f e126 743d 962a 80bd
00000050: 2d4e 1a3e 962a 80bd ca98 863d 3f04 22be
00000060: 2d4e 1a3e 3f04 22be e70c c33e fb31 b33d
00000070: 190c bcbd 206d 623e 190c bcbd e35f c53d
00000080: e4a0 6dbe 1e6d 623e e4a0 6dbe 6f0f 0f3f

encoder.0.weight f4 [60, 118]
-0.020423045 0.0800575 0.02254383 0.00199757 0.086610936 -0.030745417 0.036659963 0.05366726
-0.06613235 0.06564337 0.03762938 0.013333175 0.04563977 0.049190715 -0.06337069 -0.0383865
0.07941661 -0.04359012 -0.022928309 -0.07307638 -0.021824274 -0.028826842 0.033027552 -0.053003274
0.08922849 0.062940344 0.08923426 -0.03085086 -0.03965163 -0.08894035 -0.085323796 -0.017824326
0.058315 0.034880906 -0.0400582 0.0549762 -0.019352308 -0.05295984 -0.0154798785 -0.057130262
0.04661181 0.041446522 0.026085481 -0.00035401073 -0.029863775 0.013710026 -0.07424067 -0.03244304
-0.04635557 -0.07608633 -0.03659311 -0.019972395 -0.022466136 -0.009515952 0.0051808613 -0.083051994
-0.038015593 -0.009429506 -0.0020935095 -0.014462805 -0.0062211454 -0.030702284 0.08543708 0.03746278
0.081844874 0.078078 0.06792593 -0.06873501 0.043914452 0.07098052 0.08667392 0.035323363
0.0659975 -0.054559145 0.03331806 -0.0801957 -0.034487233 -0.02059208 -0.07286988 -0.003202327
-0.026750773 0.03322092 -0.042276643 -8.3932995e-05 0.06273541 -0.006963663 -0.075509116 0.034563992
-0.09228961 0.08336057 0.009587402 0.015236787 -0.06597675 0.023619125 0.03656885 0.08112444
0.032042176 0.00014427304 0.06353928 -0.04249832 0.06629186 0.05612937 -0.053791273 -0.035436094
-0.0060644033 0.05061091 -0.00442963 -0.06732838 0.053355183 0.03276371 -0.038098812 0.015249052
-0.017875262 -0.06813474 0.06541808 -0.02031911 0.050168294 -0.012089857 -0.02541132 0.056720104
0.089254744 -0.0038432924 -0.0054976163 -0.061381888 -0.05920401 0.03846653 -0.0008516863 0.05495987
0.05178585 0.03863517 -0.010401486 0.040361244 -0.024367705 -0.026095184 0.044993035 -0.019768452
0.0516257 -0.026245864 0.043912668 0.07468701 0.018539662 -0.038224626 0.024305692 -0.053978913
-0.048133582 -0.102947384 0.07903086 -0.07548632 0.016349558 0.008994508 0.080752835 0.016239898
0.022629788 -0.05796188 0.04146603 0.084859215 -0.067649394 -0.016220758 -0.08455058 0.014854702
0.02734501 -0.030463269 -0.013088434 -0.028266342 -0.015901404 0.04278373 0.08410036 0.08921861
-0.032555487 0.012332748 -0.06863178 0.06630257 -0.06765432 0.037313547 -0.016727783 0.058766812
0.0814168 -0.009665535 0.08877542 -0.01884142 0.063904926 0.020864725 0.081818976 0.05186843
-0.005634982 0.016364263 0.0065641208 -0.05140294 -0.031976864 -0.02597045 0.0614865 0.054564163
0.065182135 -0.035324927 -0.012559302 0.0688644 0.036220625 0.0046982826 0.00075082696 0.027922956
-0.0630361 -0.06572574 -0.07781624 0.04495891 -0.0045034043 -0.130788 -0.0037331348 -0.021843284
0.061423834 0.0057376726 -0.07726501 0.06957578 -0.03116823 -0.03888069 -0.05147214 -0.06191109
-0.026078906 -0.07810342 -0.0100172125 -0.05788939 0.10921315 -0.026085624 0.085768394 -0.038886625
0.0020166629 0.030509273 -0.016388407 -0.095783085 -0.013693604 0.030860793 -0.027290752 0.0074816532
0.007777496 0.09218388 -0.04412112 -0.02067115 -0.013906291 -0.051363856 0.013814872 -0.050461788
0.036780715 -0.0971707 -0.096978895 0.039445154 0.06796949 -0.013342351 -0.0010913892 0.00043597998
0.07035867 0.03663527 0.008236662 0.04919602 0.024949266 0.0034451343 0.0012851505 0.07478023
00000000: 3b4e a7bc 30f5 a33d d7ad b83c aae9 023b
00000010: 1361 b13d d0dd fbbc c228 163d 33d2 5b3d
00000020: 6670 87bd 0870 863d 4421 1a3d 6473 5a3c
00000030: c4f0 3a3d 347c 493d 7ec8 81bd 2a3b 1dbd
00000040: 2da5 a23d 8e8b 32bd 26d4 bbbc 12a9 95bd
00000050: d2c8 b2bc 4526 ecbc e647 073d f619 59bd
00000060: 6dbd b63d dee6 803d 74c0 b63d f1ba fcbc
00000070: bf69 22bd 5c26 b6bd 3ebe aebd 5204 92bc
00000080: b6db 6e3d 48df 0e3d 1114 24bd b92e 613d
00000090: bb88 9ebc 6bec 58bd 519f 7dbc 6c01 6abd
000000a0: 06ec 3e3d d4c3 293d 38b1 d53c 849a b9b9
000000b0: e0a4 f4bc 04a0 603c 7e0b 98bd fee2 04bd
000000c0: 57df 3dbd 26d3 9bbd a8e2 15bd 269d a3bc
000000d0: e70a b8bc cce8 1bbc 37c4 a93b 2a17 aabd
000000e0: 3db6 1bbd 377e 1abc 4333 09bb 67f5 6cbc
000000f0: c0da cbbb 5b83 fbbc a3f9 ae3d 9272 193d
00000100: 499e a73d 5ce7 9f3d c01c 8b3d f1c4 8cbd
00000110: a4df 333d 3c5e 913d 1982 b13d 3baf 103d
00000120: b329 873d 6979 5fbd 8578 083d a53d a4bd
00000130: 7c42 0dbd b9b0 a8bc ce3c 95bd 22de 51bb
00000140: 7024 dbbc a912 083d 462a 2dbd 2f05 b0b8
00000150: 6c7b 803d 702f e4bb 86a4 9abd f992 0d3d
00000160: 5602 bdbd f2b8 aa3d 7b14 1d3c b7a3 793c
00000170: d11e 87bd e57c c13c 38c9 153d 9224 a63d
00000180: a83e 033d 0048 1739 e220 823d b812 2ebd
00000190: 07c4 873d e9e7 653d 3d54 5cbd 7025 11bd
000001a0: e7b7 c6bb 634d 4f3d 6e26 91bb 76e3 89bd
000001b0: f78a 5a3d 3d33 063d 800d 1cbd 29d7 793c
000001c0: 246f 92bc 3a8a 8bbd eaf9 853d 4374 a6bc
000001d0: 457d 4d3d 8914 46bc 672b d0bc 5753 683d
000001e0: 31cb b63d bfdf 7bbb 5925 b4bb 936b 7bbd
000001f0: e77f 72bd 158f 1d3d b343 5fba 9a1d 613d
00000200: 661d 543d e93f 1e3d ff6a 2abc d551 253d
00000210: c89e c7bc 91c5 d5bc 9e4a 383d 73f1 a1bc
00000220: 7875 533d 9101 d7bc c5dd 333d 81f5 983d
00000230: 7de0 973c 6d91 1cbd bb1c c73c fe18 5dbd
00000240: b827 45bd 14d6 d2bd eeda a13d 9298 9abd
00000250: 82ef 853c b35d 133c be61 a53d 8909 853c
00000260: 1b62 b93c 7069 6dbd 49d8 293d abca ad3d
00000270: c48b 8abd 65e1 84bc db28 adbd 2361 733c
00000280: a402 e03c 1b8e f9bc df70 56bc d18e e7bc
00000290: a943 82bc fe3d 2f3d cf3c ac3d 3fb8 b63d
000002a0: e758 05bd 4b0f 4a3c d28e 8cbd a4c9 873d
000002b0: 598e 8abd 17d6 183d b408 89bc 78b5 703d
000002c0: dabd a63d 315c 1ebc e3cf b53d 5259 9abc
000002d0: 96e0 823d 80ec aa3c b590 a73d fe73 543d
000002e0: a8a5 b8bb 590e 863c d617 d73b e48b 52bd
000002f0: 2cfa 02bd fbbf d4bc 45d9 7b3d ac7e 5f3d
00000300: 367e 853d dfb0 10bd 88c5 4dbc c708 8d3d
00000310: 145c 143d 0df4 993b 25d3 443a afbe e43c
00000320: 1219 81bd 379b 86bd 1f5e 9fbd d626 383d
00000330: 4b91 93bb 4aed 05be 9ca7 74bb b0f0 b2bc
00000340: 8f97 7b3d 1603 bc3b 1e3d 9ebd bf7d 8e3d
00000350: 8454 ffbc 5c41 1fbd 73d4 52bd 7c96 7dbd
00000360: 6ea3 d5bc b0f4 9fbd 3c1f 24bc 6d1d 6dbd
00000370: 25ab df3d 85b1 d5bc 57a7 af3d 9547 1fbd
00000380: fd29 043b 95ee f93c fb40 86bc ec29 c4bd
00000390: 235b 60bc c6cf fc3c db90 dfbc a828 f53b
000003a0: 5dda fe3b e7ca bc3d 59b8 34bd 8b56 a9bc
000003b0: 36d7 63bc e862 52bd c657 623c 05b1 4ebd
000003c0: 60a7 163d 6f01 c7bd df9c c6bd 3e91 213d
000003d0: 9733 8b3d e099 5abc f20c 8fba 3e94 e439
000003e0: 3518 903d dd0e 163d 10f3 063c c481 493d
000003f0: 6762 cc3c c3c7 613b 7f72 a83a 6126 993d

encoder.0.bias f4 [60]
0.0317976 0.0870311 -0.0038308087 0.0354082 -0.06926698 0.038916934 -0.10150166 -0.03330204
0.054348037 0.06753285 -0.012380242 -0.041953593 -0.04244795 0.066332005 -0.03716476 -0.07670964
-0.008164015 0.07400899 -0.04652989 0.12572311 -0.0025713285 0.058421493 -0.12170171 -0.01670311
0.027531687 0.008341282 0.04876732 -0.03881035 -0.02698541 0.08932341 0.03964735 -0.022682482
0.07509093 -0.078132086 0.015713459 -0.07594349 0.080635615 0.121546224 -0.05865258 -0.0028407194
-0.060264103 -0.018442644 0.029813968 -0.01326717 -0.046562344 -0.024286015 0.042437952 -0.028597811
-0.036036007 -0.025007557 -0.04351591 -0.038800634 -0.08130712 -0.036267966 -0.017554102 -0.011005857
0.03923055 -0.0017923414 -0.0222941 0.058230884
00000000: 333e 023d 5d3d b23d 4e0e 7bbb 3008 113d
00000010: d9db 8dbd 5d67 1f3d 1ae0 cfbd b867 08bd
00000020: 0c9c 5e3d aa4e 8a3d 80d6 4abc 88d7 2bbd
00000030: e7dd 2dbd 13d9 873d 133a 18bd f219 9dbd
00000040: 5cc2 05bc 0692 973d 2096 3ebd 8fbd 003e
00000050: bc83 28bb 604b 6f3d bf3e f9bd f6d4 88bc
00000060: 228a e13c dfa9 083c 3ec0 473d 9af7 1ebd
00000070: 8210 ddbc 31ef b63d 4265 223d 9dd0 b9bc
00000080: 46c9 993d b703 a0bd 83b9 803c 4388 9bbd
00000090: 4924 a53d 3aed f83d b03d 70bd 5d2b 3abb
000000a0: 7ed7 76bd 0715 97bc 6c3c f43c 8b5e 59bc
000000b0: 28b8 3ebd 77f3 c6bc 6bd3 2d3d f545 eabc
000000c0: 7e9a 13bd a6dc ccbc bd3d 32bd 6aed 1ebd
000000d0: 5984 a6bd b88d 14bd 9fcd 8fbc e951 34bc
000000e0: 37b0 203d ffec eaba 1ea2 b6bc 8283 6e3d

encoder.2.weight f4 [30, 60]
-0.118156485 0.1108701 -0.06258145 -0.025699105 -0.10497917 0.064734764 -0.07191464 0.08375347
0.08352967 -0.057367146 0.05963191 -0.017324528 -0.10995646 -0.08378336 0.10641764 0.04830853
0.0022301103 -0.032826625 0.115738414 -0.026595036 0.10441271 -0.1119813 -0.11575811 0.020657027
0.093310066 0.039901286 -0.0021929094 0.015369001 0.11056761 -0.12630469 0.008095196 -0.079502694
0.022150517 0.003722981 -0.038263567 0.017799519 0.08102678 0.007098156 0.0066787903 0.059703927
0.13022457 -0.07975318 -0.08735727 -0.109778754 -0.12272857 -0.009801047 -0.052050043 -0.11298133
-0.059201542 0.022368126 0.10085244 0.12515564 0.06854051 -0.036856268 0.008004549 0.0075779688
-0.10406172 0.13216643 -0.11795639 0.104927406 -0.08540321 0.014021989 0.098821215 -0.07018476
0.09581219 -0.07279135 0.07758384 0.11418276 0.10127272 0.05076249 0.03126335 0.11089133
0.04458943 -0.05237446 0.039783925 -0.10093468 -0.06448106 0.02015675 0.04309102 -0.03987722
-0.11137393 0.03569595 0.0015744406 -0.018436585 -0.012592444 0.02791653 0.095303684 0.11814314
0.059550993 -0.036474667 0.02189984 -0.11415853 0.07942815 -0.090737194 -0.03210048 0.10260966
0.06261344 -0.10770953 0.085599996 0.087147936 0.06613053 0.06324228 -0.073688895 -0.11697032
0.085012674 -0.018582135 0.06292964 0.07739409 0.07697796 -0.08249673 -0.11401015 -0.026601175
-0.06338746 -0.097140275 0.083934456 0.12891503 -0.04155373 0.071347386 0.06399668 0.04435311
-0.035462268 -0.08537084 -0.026012471 0.03312341 0.08522607 0.043148145 0.09996928 -0.0576664
-0.05167519 -0.058574576 -0.08741063 -0.019759174 -0.07652547 0.0663136 0.038661376 -0.035075177
0.085005686 0.068640634 -0.10777567 -0.007182291 0.030043172 0.0650306 -0.12929142 -0.13284102
-0.13336581 0.0025480257 0.13158041 0.066849455 -0.1213815 0.10382642 -0.06953715 -0.08340015
0.12543406 0.035566874 0.05911896 -0.0054194783 0.019431254 0.006630656 0.034005366 0.0027099266
-0.12533581 0.13887711 0.098817244 -0.011594819 -0.01902881 0.10002958 0.11066021 0.052856646
0.06872025 -0.10221894 0.063313514 0.107799836 -0.07459845 0.13283162 -0.09135434 -0.12819631
-0.07216804 -0.015983531 -0.11152796 -0.046913363 0.09983626 0.061531886 -0.009472919 -0.01857574
-0.121180125 0.13131443 -0.05392665 0.0016610795 -0.05728212 -0.084696524 -0.12716798 -0.11024389
-0.0163106 0.055694386 0.08322805 -0.033640046 0.0057787597 0.07003684 0.061519556 0.1292769
-0.025334576 -0.03761009 -0.010905895 0.08154008 0.02988869 -0.13215134 0.091027066 0.0009169077
-0.109010406 0.1357795 -0.078171454 0.0023513096 -0.07427815 -0.08746799 -0.10110497 0.07502551
0.057536885 -0.050847616 0.07601778 -0.102664985 -0.04047595 0.013313369 0.1003381 0.09804407
-0.079383634 0.03726237 -0.02819622 0.08973126 -0.080267616 -0.1141129 -0.03310087 0.04036196
-0.04462049 0.052205928 -0.12443922 -0.10795484 0.044277154 -0.12717876 0.048966825 0.022513365
0.105695546 -0.034416 -0.014685454 -0.1327974 -0.07008172 -0.07829494 -0.13486072 -0.07720456
0.101643674 -0.07845445 -0.14460145 -0.12580387 -0.09837491 0.071231015 -0.09955395 -0.06320586
00000000: 07fc f1bd dd0f e33d b42a 80bd ee86 d2bc
00000010: 52ff d6bd a993 843d fc47 93bd f086 ab3d
00000020: 9b11 ab3d d0f9 6abd 9740 743d 2bec 8dbc
00000030: da30 e1bd 9c96 abbd 7ef1 d93d 2adf 453d
00000040: 0b27 123b 3675 06bd 4308 ed3d d5dd d9bc
00000050: 55d6 d53d 7456 e5bd 9712 edbd ed38 a93c
00000060: 5919 bf3d 886f 233d eab6 0fbb 43ce 7b3c
00000070: 4571 e23d 0456 01be b7a1 043c 4fd2 a2bd
00000080: 0075 b53c 42fd 733b 42ba 1cbd 4cd0 913c
00000090: 5ef1 a53d a697 e83b c1d9 da3b 1b8c 743d
000000a0: 9759 053e a355 a3bd 5ee8 b2bd afd3 e0bd
000000b0: 1e59 fbbd 9294 20bc 6d32 55bd c162 e7bd
000000c0: 517d 72bd 5c3d b73c b98b ce3d cd28 003e
000000d0: f85e 8c3d 99f6 16bd 8325 033c 9c50 f83b
000000e0: 501e d5bd a356 073e 1f93 f1bd 2ee4 d63d
000000f0: e1e7 aebd 7cbc 653c c762 ca3d 07bd 8fbd
00000100: 2e39 c43d a213 95bd 47e4 9e3d a7d8 e93d
00000110: 1268 cf3d 54ec 4f3d 000e 003d fe1a e33d
00000120: 68a3 363d 9a86 56bd 78f4 223d d7b6 cebd
00000130: a50e 84bd c51f a53c 3680 303d 4c56 23bd
00000140: 0418 e4bd eb35 123d 765d ce3a 5208 97bc
00000150: 8a50 4ebc 35b1 e43c 942e c33d 08f5 f13d
00000160: beeb 733d 7666 15bd 4b67 b33c f3cb e9bd
00000170: 3aab a23d 6cd4 b9bd cb7b 03bd 0325 d23d
00000180: 7a3b 803d d096 dcbd 0d4f af3d 9e7a b23d
00000190: 716f 873d 2b85 813d 34ea 96bd 238e efbd
000001a0: 201b ae3d 9039 98bc 41e1 803d cb80 9e3d
000001b0: 9fa6 9d3d 0cf4 a8bd 277e e9bd b5ea d9bc
000001c0: 49d1 81bd 7bf1 c6bd d4e5 ab3d 4d02 043e
000001d0: 3e34 2abd 941e 923d b110 833d 9bab 353d
000001e0: e240 11bd e8d6 aebd 1b18 d5bc 6aac 073d
000001f0: 018b ae3d 1cbc 303d b2bc cc3d 9a33 6cbd
00000200: 5da9 53bd e5eb 6fbd 5804 b3bd fedd a1bc
00000210: 63b9 9cbd 6dcf 873d 645b 1e3d fdaa 0fbd
00000220: 7617 ae3d 7693 8c3d 7eb9 dcbd 6c59 ebbb
00000230: 191d f63c c32e 853d f864 04be 7a07 08be
00000240: 0c91 08be c7fc 263b 04bd 063e 5ee8 883d
00000250: dd96 f8bd f2a2 d43d 7e69 8ebd b3cd aabd
00000260: c971 003e 92ae 113d b926 723d e195 b1bb
00000270: 4b2e 9f3c f945 d93b 3649 0b3d 0699 313b
00000280: 0858 00be cd35 0e3e b260 ca3d 32f8 3dbc
00000290: 4fe2 9bbc 4fdc cc3d d2a1 e23d 3680 583d
000002a0: 34bd 8c3d 2a58 d1bd 84aa 813d 29c6 dc3d
000002b0: 12c7 98bd 0305 083e fc17 bbbd e545 03be
000002c0: d6cc 93bd e5ef 82bc c568 e4bd 3a28 40bd
000002d0: f476 cc3d dc08 7c3d 4d34 1bbc 262c 98bc
000002e0: 492d f8bd 4a77 063e 31e2 5cbd 94b8 d93a
000002f0: a8a0 6abd 5f75 adbd 5338 02be 8cc7 e1bd
00000300: cf9d 85bc cc1f 643d 7873 aa3d 25ca 09bd
00000310: c05b bd3b 7a6f 8f3d eefb 7b3d 2a61 043e
00000320: 758a cfbc 0a0d 1abd a4ae 32bc 7cfe a63d
00000330: 20d9 f43c ae52 07be 666c ba3d a25c 703a
00000340: d940 dfbd c809 0b3e 5b18 a0bd 6e18 1a3b
00000350: 251f 98bd 6b22 b3bd 1f10 cfbd f9a6 993d
00000360: ccab 6b3d 9745 50bd 36af 9b3d 0542 d2bd
00000370: 1cca 25bd 5120 5a3c 107e cd3d 54cb c83d
00000380: e393 a2bd 6da0 183d c2fb e6bc 06c5 b73d
00000390: 5963 a4bd 06b4 e9bd c794 07bd 9552 253d
000003a0: fac3 36bd e2d5 553d fdd9 febd 6d17 ddbd
000003b0: f65b 353d 263b 02be 7091 483d f36d b83c
000003c0: e876 d83d cbf7 0cbd 429b 70bc 0bfc 07be
000003d0: 0187 8fbd 1959 a0bd ee18 0abe 6d1d 9ebd
000003e0: 8f2a d03d baac a0bd 6712 14be bbd2 00be
000003f0: c978 c9bd 91e1 913d f1e2 cbbd 1372 81bd

encoder.2.bias f4 [30]
-0.1154301 -0.028779455 0.10518259 -0.012888059 0.08445136 0.00011932185 0.082368895 0.03580638
0.011503939 -0.033554565 -0.064545244 0.108838454 0.047092207 0.0041144714 0.12496952 0.027085071
0.007483646 0.07351609 0.071824774 0.019140385 0.045959186 0.057438735 -0.02791888 0.07007478
0.08383499 0.11290591 0.039027322 0.04548643 0.10311598 0.07086787
00000000: 9e66 ecbd e4c2 ebbc f869 d73d 7028 53bc
00000010: d6f4 ac3d 6e3c fa38 06b1 a83d b6a9 123d
00000020: 047b 3c3c 8370 09bd 4c30 84bd b2e6 de3d
00000030: c2e3 403d b0d2 863b 05f0 ff3d 83e1 dd3c
00000040: 5f39 f53b 9b8f 963d de18 933d 4ccc 9c3c
00000050: b33f 3c3d e144 6b3d 23b6 e4bc 5e83 8f3d
00000060: aeb1 ab3d 373b e73d 1ddb 1f3d fb4f 3a3d
00000070: 792e d33d 2c23 913d

encoder.4.weight f4 [10, 30]
-0.16216038 0.16097814 -0.06402406 -0.04293496 0.108599536 0.013836998 -0.052147336 -0.13320088
-0.16699842 -0.05335211 0.076506734 -0.16509084 0.056566313 0.19639641 0.029025847 0.16232307
0.053870283 -0.18787684 -0.018928919 0.1365177 -0.075559735 -0.0152142495 -0.10660729 0.111417055
-0.027211832 -0.06409596 0.09690448 0.15224928 0.13066699 0.026041856 0.16503868 -0.083080225
-0.05248356 -0.10972023 0.050828815 -0.14119376 0.09333148 0.09405308 -0.12362804 0.06879686
-0.021719629 -0.15939398 0.14899443 -0.04103416 -0.05448412 -0.07904712 0.043433275 -0.17008416
-0.123841345 0.15749793 0.17059757 -0.11234187 0.10062984 0.04445528 -0.15124054 -0.16831525
0.069968745 0.096630834 -0.18185483 0.000501444 -0.13051283 -0.072437555 -0.021196729 0.16233021
0.07436315 -0.13789533 -0.052882638 0.17904885 -0.03791193 -0.032112036 -0.04085835 -0.15683083
-0.117760256 0.14186357 -0.114741996 -0.015678791 0.16410162 0.14070623 -0.16577531 0.008963114
-0.18050541 -0.045323208 -0.026863776 0.03927495 -0.059958838 0.17105901 -0.11399948 0.14523853
0.17570369 0.014932235 -0.10441263 0.007584016 0.073239274 0.01945154 0.17637801 -0.03180843
0.19284433 -0.05557112 -0.17984883 -0.049514674 -0.007429775 0.13485289 -0.028685845 0.13523363
0.16172965 0.046833146 0.026863785 -0.015415526 -0.04694131 0.08171155 -0.0351123 -0.118764564
0.045683812 0.1305761 -0.016362973 -0.04555708 0.05279058 0.15126994 -0.14488287 -0.1133559
0.18803751 0.0012907151 -0.113122754 -0.16125748 -0.01478845 -0.076701306 -0.1746972 -0.023692727
0.08058927 0.0560118 -0.11221897 0.071620025 -0.006357432 -0.15406393 -0.0018184202 -0.05459686
-0.16587721 -0.13077408 0.028310632 -0.09555729 -0.1374128 -0.0049233427 -0.11896203 -0.11161815
-0.06578057 0.0805335 0.013503247 -0.003926702 -0.16724542 0.005602908 -0.061677273 0.085568786
-0.05232082 0.15407573 0.06337882 0.038302787 0.108487345 -0.075565435 -0.13643506 0.038570624
-0.11983013 -0.0075481622 -0.15797555 0.12202327 0.15074809 0.13481086 0.10155301 -0.17644377
-0.10166399 -0.08430322 -0.0031725063 -0.03556888 0.10907812 0.057242434 0.11120357 0.08722192
-0.14963177 -0.041922778 0.034662906 -0.1683738 0.07502562 -0.07483164 0.033819094 0.12708697
0.10193803 -0.16339014 0.031869687 -0.103855655 0.15959421 0.12266629 0.17749816 0.059797317
0.071995795 -0.026645627 0.018525362 -0.1424444 -0.12668097 -0.08836226 0.058233984 -0.124927886
-0.15671691 -0.111389324 0.19342299 -0.08115606 -0.14069648 0.07070727 -0.19127695 0.13243984
0.12292073 -0.019122958 0.006335106 0.06844826 -0.042298563 0.021941897 -0.11052753 0.060298588
0.0712122 0.13220951 -0.06786647 0.104362495 -0.11222929 0.12913017 0.07442641 0.06543837
-0.090614446 -0.17325199 -0.1663327 -0.14357543 -0.03871259 0.038288735 -0.07357499 -0.06573349
0.14283833 0.084884614 -0.14527805 0.07674845 0.12241703 -0.08178624 0.176133 0.020641241
-0.01023875 0.1323616 -0.074120894 0.08279458 0.00796226 -0.112286426 0.10186296 -0.1497372
0.14433655 0.053860076 -0.12393179 -0.05851592 0.19559088 0.19901358 0.037409924 0.15160896
00000000: 5f0d 26be 74d7 243e 0c1f 83bd 92dc 2fbd
00000010: 6f69 de3d 93b4 623c 7298 55bd d065 08be
00000020: a201 2bbe be87 5abd 90af 9c3d 930d 29be
00000030: 14b2 673d 241c 493e 9dc7 ed3c 0538 263e
00000040: 16a7 5c3d c962 40be d210 9bbc 4ccb 0b3e
00000050: 10bf 9abd 3045 79bc ec54 dabd a02e e43d
00000060: 59eb debc be44 83bd db75 c63d 3ce7 1b3e
00000070: 91cd 053e bb55 d53c e6ff 283e f725 aabd
00000080: 00f9 56bd 00b5 e0bd e031 503d 1995 10be
00000090: 9324 bf3d e79e c03d b330 fdbd 5ee5 8c3d
000000a0: 5ded b1bc 2d38 23be ff91 183e 6f13 28bd
000000b0: be2a 5fbd 75e3 a1bd 17e7 313d 8b2a 2ebe
000000c0: 88a0 fdbd 2347 213e 21b1 2e3e 7f13 e6bd
000000d0: 0417 ce3d bd16 363d cdde 1abe d55a 2cbe
000000e0: c64b 8f3d 63e6 c53d 2738 3abe 5673 033a
000000f0: 28a5 05be 245a 94bd c3a4 adbc e439 263e
00000100: b54b 983d 6f34 0dbe 779b 58bd 9558 373e
00000110: 8a49 1bbd e987 03bd 165b 27bd 4398 20be
00000120: 4a2c f1bd af44 113e dafd eabd cf70 80bc
00000130: 410a 283e 4b15 103e 01c1 29be 06da 123c
00000140: 69d6 38be d4a4 39bd 6c11 dcbc c5de 203d
00000150: 6697 75bd 182a 2f3e 8f78 e9bd 69b9 143e
00000160: abeb 333e 55a6 743c 4ad6 d5bd 5683 f83b
00000170: 79fe 953d d658 9f3c 709c 343e 8e49 02bd
00000180: fc78 453e 8b9e 63bd 4b2a 38be e6cf 4abd
00000190: 7875 f3bb e016 0a3e 94fe eabc af7a 0a3e
000001a0: 759c 253e 1dd4 3f3d 7111 dc3c 6791 7cbc
000001b0: 8845 40bd 6358 a73d ead1 0fbd d63a f3bd
000001c0: f31e 3b3d beb5 053e a40b 86bc 109a 3abd
000001d0: ef3a 583d 82e6 1a3e 2d5c 14be 2327 e8bd
000001e0: e88c 403e 362d a93a e7ac e7bd ae20 25be
000001f0: 414b 72bc 9315 9dbd d3e3 32be 4017 c2bc
00000200: fd0b a53d a16c 653d 0fd3 e5bd 85ad 923d
00000210: 0152 d0bb efc2 1dbe 0f58 eeba f5a0 5fbd
00000220: b7db 29be a4e9 05be b3eb e73c 8ab3 c3bd
00000230: f1b5 0cbe fe53 a1bb 5da2 f3bd 0e98 e4bd
00000240: f7b7 86bd bfee a43d b93c 5d3c 90ab 80bb
00000250: 6242 2bbe 9998 b73b 4fa1 7cbd b03e af3d
00000260: 5b4e 56bd 07c6 1d3e c1cc 813d 62e3 1c3d
00000270: 9d2e de3d 0dc2 9abd a2b5 0bbe 3bfc 1d3d
00000280: 8069 f5bd 9356 f7bb 58c4 21be 56e7 f93d
00000290: b55d 1a3e dc0b 0a3e 06fb cf3d adad 34be
000002a0: 3635 d0bd 2ba7 acbd d3e9 4fbb adb0 11bd
000002b0: 5964 df3d 0b77 6a3d b3be e33d 68a1 b23d
000002c0: 1239 19be 38b7 2bbd b1fa 0d3d 2e6a 2cbe
000002d0: 08a7 993d 5541 99bd e485 0a3d 1623 023e
000002e0: e3c4 d03d bf4f 27be ca89 023d 46b2 d4bd
000002f0: aa6c 233e 7738 fb3d 14c2 353e 08ee 743d
00000300: 8872 933d ee47 dabc 80c2 973c f2dc 11be
00000310: a8b8 01be 46f7 b4bd c286 6e3d 31da ffbd
00000320: 667a 20be 1620 e4bd ad10 463e 2635 a6bd
00000330: bd12 10be f9ce 903d 1bde 43be 4f9e 073e
00000340: ddbd fb3d c0a7 9cbc b996 cf3b 9a2e 8c3d
00000350: 4241 2dbd 7ebf b33c 425c e2bd a7fb 763d
00000360: b4d7 913d ee61 073e 93fd 8abd 01bc d53d
00000370: 78d8 e5bd b33a 043e e06c 983d 8d04 863d
00000380: 1194 b9bd f868 31be 1f53 2abe 7005 13be
00000390: 1891 1ebd a6d4 1c3d 7cae 96bd 489f 86bd
000003a0: 3644 123e fcd7 ad3d c5c3 14be 4b2e 9d3d
000003b0: c8b5 fa3d 8b7f a7bd 365c 343e d217 a93c
000003c0: 6ec0 27bc cd89 073e b2cc 97bd 3490 a93d
000003d0: 2474 023c 6df6 e5bd 879d d03d b554 19be
000003e0: f6cc 133e 629c 5c3d f3cf fdbd 64ae 6fbd
000003f0: fa48 483e 37ca 4b3e 263b 193d 613f 1b3e

encoder.4.bias f4 [10]
-0.067087114 -0.074719205 0.03865551 -0.04532415 0.071804784 0.14907429 -0.12233397 -0.08939969
-0.06395414 -0.02880352
00000000: f864 89bd 6206 99bd 3d55 1e3d d1a5 39bd
00000010: 630e 933d eea6 183e 3c8a fabd 2f17 b7bd
00000020: 63fa 82bd 5cf5 ebbc

encoder.6.weight f4 [1, 10]
-0.3130903 -0.02691991 0.32080445 0.22756095 -0.120737396 -0.0028272457 0.186673 0.033105534
-0.33219063 -0.20252919
00000000: 5f4d a0be 2587 dcbc 7b40 a43e bd05 693e
00000010: 2b45 f7bd 5049 39bb 3527 3f3e ab99 073d
00000020: e414 aabe d063 4fbe

decoder.0.weight f4 [10, 1]
0.35678264 -0.73850965 0.39970878 0.88751066 -0.6905085 -0.42486066 0.4624125 0.90756094
0.2460433 -0.6430728
00000000: 37ac b63e f80e 3dbf a1a6 cc3e e633 633f
00000010: 2ac5 30bf 5687 d9be 55c1 ec3e ea55 683f
00000020: c6f2 7b3e 6ba0 24bf

decoder.0.bias f4 [10]
0.9958855 -0.20338933 0.10701431 0.0073749516 0.28630763 -0.49888772 0.003985016 -0.7539713
-0.698518 -0.75147325
00000000: 5af2 7e3f 4b45 50be 522a db3d 94a9 f13b
00000010: ea96 923e 366e ffbe bd94 823b 4304 41bf
00000020: 13d2 32bf 8d60 40bf

decoder.2.weight f4 [30, 10]
0.067258276 -0.16548434 -0.17181344 0.24424149 -0.14732356 -0.067458004 0.000535627 -0.21997643
0.0052055544 0.042114913 0.060480386 0.11513946 -0.041895006 -0.32851166 0.11865036 0.32023647
-0.12869579 0.21058473 0.28123063 -0.18806382 -0.23708443 -0.31556156 0.029738398 0.15611096
-0.31707555 0.31545973 -0.2180477 -0.11694257 0.058529966 -0.023968102 0.2910903 -0.26348537
0.14757931 0.0745739 0.06624511 -0.032300472 0.14767784 -0.049325876 0.012758109 0.17569932
-0.030375566 0.22815946 0.081273295 -0.28137082 0.08924632 0.10511499 0.30504593 -0.12109065
-0.119420774 0.24074382 0.15598872 0.3197463 0.008565268 0.12648173 -0.2560921 0.2829543
-0.101490386 -0.34835675 -0.12385449 -0.14624982 0.2986568 0.13924336 0.31074575 -0.17750654
0.16313235 -0.050509837 -0.016688952 0.00868704 0.021960823 0.30927825 -0.02243721 -0.027165517
0.19474846 0.20310919 0.12407677 0.15238345 0.33250138 0.278476 -0.08479329 0.15663509
-0.034108687 -0.2435779 -0.27002257 0.2657364 -0.14542362 -0.08967784 -0.2607584 -0.09422683
0.33206305 -0.29457775 -0.10687843 -0.027802529 -0.14824764 0.20245351 0.095108636 -0.15918653
-0.13110697 0.09012185 -0.08797106 -0.12973253 0.19124687 -0.18408313 -0.28839853 -0.2621201
0.057470713 0.012682267 0.23508506 0.3031348 0.061411697 0.05286804 -0.0015165567 -0.03254004
0.18722267 0.006206207 -0.19593076 0.07292787 0.046615057 -0.2974819 -0.1284577 -0.11235643
-0.08444839 0.24420927 -0.10872511 0.3348525 0.08828594 -0.10894653 -0.0060145753 -0.07458075
-0.19588448 0.094040826 0.20459236 -0.07348775 -0.18967253 -0.30054086 0.20881313 -0.055805963
0.16023615 0.27764523 0.030307744 -0.117353715 0.23342372 0.21399654 -0.20279251 -0.2818505
0.0038088982 0.16194855 -0.027542638 0.014382532 -0.15894204 -0.22888908 0.26613086 0.30609426
-0.18799165 0.21893701 -0.07412979 -0.2521198 0.1672586 0.049577188 0.059475355 -0.3028179
-0.25288948 0.18452343 -0.08062846 -0.27312884 -0.045611616 0.017019616 -0.27551788 -0.23937443
0.29225343 0.06503272 -0.08905645 0.17332447 -0.32618925 -0.22495578 0.11090356 -0.17211221
-0.055557355 -0.32276616 -0.13645238 -0.12781194 -0.034882396 0.010200514 -0.23544388 0.07549447
0.049421042 0.104087256 0.113397375 -0.17715912 0.08849665 0.02818989 0.110961154 0.26811203
0.020417044 0.06152357 -0.030936915 -0.1700965 0.31917757 -0.058886006 -0.09435039 0.09636103
-0.2722501 0.23746274 0.29567835 0.17157418 0.053863708 -0.08818431 0.0999872 0.1364348
-0.30449477 -0.2707389 -0.22615647 0.21716747 -0.09574301 0.23061334 -0.07685852 -0.11241074
-0.084105685 -0.18635905 -0.22953022 -0.04767146 -0.2785171 0.046780065 -0.045541167 0.19282608
0.012928508 -0.10630533 0.2776522 0.14605233 0.12582196 0.03485278 0.19396675 0.0119449
-0.1743649 0.09559744 0.04189909 0.0685657 -0.05331684 -0.21034144 0.059316266 -0.29313412
-0.086500615 -0.27432603 0.14860138 0.1413389 -0.020406127 -0.044339024 0.18140264 0.30305076
0.2164318 0.091179214 -0.07612872 0.07608393 -0.21960007 -0.083208956 0.30463177 -0.23713979
00000000: b5be 893d ba74 29be ddef 2fbe 711a 7a3e
00000010: fddb 16be 6c27 8abd 5269 0c3a 8041 61be
00000020: 5b93 aa3b b080 2c3d 48ba 773d 3dce eb3d
00000030: 199a 2bbd ae32 a8be f6fe f23d 09f6 a33e
00000040: d4c8 03be 86a3 573e 76fd 8f3e cd93 40be
00000050: 43c6 72be 4991 a1be f19d f33c 8ddb 1f3e
00000060: ba57 a2be f083 a13e e547 5fbe 967f efbd
00000070: 1ebd 6f3d c158 c4bc ca09 953e 8ee7 86be
00000080: 081f 173e 33ba 983d 84ab 873d 804d 04bd
00000090: dc38 173e ee09 4abd 6307 513c 86ea 333e
000000a0: 2ed6 f8bc a2a2 693e 9d72 a63d d60f 90be
000000b0: c6c6 b63d 8746 d73d fb2e 9c3e 60fe f7bd
000000c0: e192 f4bd 8c85 763e 82bb 1f3e c9b5 a33e
000000d0: 5655 0c3c 6d84 013e 811e 83be 63df 903e
000000e0: 31da cfbd d15b b2be 6ca7 fdbd 83c2 15be
000000f0: 8be9 983e d095 0e3e 111a 9f3e 46c4 35be
00000100: 2b0c 273e 67e3 4ebd 45b7 88bc 1654 0e3c
00000110: 2fe7 b33c b859 9e3e 3dce b7bc 388a debc
00000120: 246c 473e dbfb 4f3e f61b fe3d 680a 1c3e
00000130: 9f3d aa3e 6894 8e3e 1ba8 adbd f364 203e
00000140: 8db5 0bbd 7c6c 79be 6640 8abe 9a0e 883e
00000150: eee9 14be 04a9 b7bd 2082 85be fff9 c0bd
00000160: 2b04 aa3e e5d2 96be 14e3 dabd 21c2 e3bc
00000170: 3bce 17be f94f 4f3e 51c8 c23d cb01 23be
00000180: e840 06be ce91 b83d 2c2a b4bd 9bd8 04be
00000190: 38d6 433e 4a80 3cbe f9a8 93be 9b34 86be
000001a0: 6966 6b3d 49c9 4f3c 23ba 703e 7c34 9b3e
000001b0: d58a 7b3d 288c 583d 33c7 c6ba b448 05bd
000001c0: 4db7 3f3e 705d cb3b 13a2 48be 355b 953d
000001d0: 6eef 3e3d 8c4f 98be 6a8a 03be 211b e6bd
000001e0: 47f3 acbd ff11 7a3e 45ab debd c971 ab3e
000001f0: 42cf b43d 5c1f dfbd ea15 c5bb cbbd 98bd
00000200: f195 48be 7a98 c03d a980 513e bf80 96bd
00000210: 8439 42be 7ee0 99be 1cd3 553e cb94 64bd
00000220: f214 243e 8427 8e3e f247 f83c 2557 f0bd
00000230: a106 6f3e e921 5b3e d7a8 4fbe b54e 90be
00000240: b59e 793b d7d5 253e 19a1 e1bc b6a4 6b3c
00000250: b4c1 22be e661 6abe 4e42 883e 63b8 9c3e
00000260: e280 40be 0631 603e 5cd1 97bd d915 81be
00000270: d745 2b3e 7311 4b3d 6e9c 733d f30a 9bbe
00000280: bb7a 81be b6f3 3c3e 8920 a5bd 8bd7 8bbe
00000290: 3fd3 3abd b96c 8b3c ae10 8dbe 921e 75be
000002a0: 3ea2 953e e02f 853d 3a63 b6bd f87b 313e
000002b0: 4702 a7be cf5a 66be 6821 e33d 2f3e 30be
000002c0: 1c90 63bd 9b41 a5be 2cba 0bbe 22e1 02be
000002d0: d8e0 0ebd 0f20 273c 3318 71be d89c 9a3d
000002e0: b86d 4a3d b32b d53d e23c e83d 3369 35be
000002f0: bb3d b53d 7cee e63c 9a3f e33d fb45 893e
00000300: a541 a73c 2400 7c3d 6a6f fdbc c72d 2ebe
00000310: 3e6b a33e 7432 71bd c73a c1bd ef58 c53d
00000320: 5d64 8bbe 6f29 733e 2763 973e 24b1 2f3e
00000330: 31a0 5c3d fa99 b4bd 17c6 cc3d 90b5 0b3e
00000340: bde6 9bbe 4a9e 8abe 9095 67be 2661 5e3e
00000350: e914 c4bd e725 6c3e 0068 9dbd 9a37 e6bd
00000360: 9a3f acbd e8d4 3ebe f809 6bbe 2643 43bd
00000370: cb99 8ebe 749c 3f3d 6089 3abd 3374 453e
00000380: 18d2 533c 9cb6 d9bd 6e28 8e3e be8e 153e
00000390: 79d7 003e cac1 0e3d 389f 463e 8bb4 433c
000003a0: b68c 32be 97c8 c33d 619e 2b3d 2c6c 8c3d
000003b0: c262 5abd bf63 57be 9df5 723d ad15 96be
000003c0: 3c27 b1bd 7674 8cbe f62a 183e 25bb 103e
000003d0: c02a a7bc d69c 35bd 9dc1 393e 7829 9b3e
000003e0: 4ca0 5d3e 2bbc ba3d 60e9 9bbd e4d1 9b3d
000003f0: d7de 60be 7569 aabd b2f8 9b3e c6d4 72be

decoder.2.bias f4 [30]
0.19512509 -0.023081483 -0.028414583 -0.13832217 0.3138212 -0.18459485 0.21089557 0.044757728
-0.19663756 0.09557664 -0.27472886 -0.037134998 0.029284863 0.29747343 -0.29072213 0.2270391
0.033776786 -0.06920629 -0.26323092 0.17961007 -0.08930592 -0.29139876 -0.15719198 0.21524994
-0.07761357 -0.14146304 0.05677949 -0.17705183 -0.22285873 -0.15925266
00000000: dfce 473e 6115 bdbc b3c5 e8bc 54a4 0dbe
00000010: 2cad a03e 6f06 3dbe 02f5 573e e153 373d
00000020: 5b5b 49be afbd c33d 43a9 8cbe de1a 18bd
00000030: cfe6 ef3c 704e 983e 88d9 94be f07c 683e
00000040: 8759 0a3d 07bc 8dbd 34c6 86be b4eb 373e
00000050: 06e6 b6bd 3832 95be eff6 20be 7b6a 5c3e
00000060: ddf3 9ebd b0db 10be 9c91 683d 134d 35be
00000070: 1435 64be 2113 23be

decoder.4.weight f4 [60, 30]
0.027225064 -0.1314002 0.15649167 -0.013728057 0.15342852 0.010736983 0.02087374 0.1469992
-0.09789121 -0.021014031 -0.18067993 0.049451463 -0.08250672 -0.047870994 0.106733106 0.014015056
-0.050204996 -0.078584984 -0.1451492 -0.03364021 0.16889393 -0.12773454 0.10937135 0.16987541
-0.14052628 -0.025644459 -0.11055802 0.075910985 -0.13407525 0.050043926 -0.04189196 -0.08707085
-0.086632505 -0.1681848 -0.15100163 0.0013485769 -0.17199005 0.06429842 -0.111362144 -0.12496335
-0.14127102 0.046332683 0.017687742 0.018234931 0.10636843 -0.04639743 -0.09188852 0.019988826
0.13364094 -0.0563196 -0.012637417 -0.044697706 -0.009003375 -0.17098042 0.12127639 0.16505863
0.13203475 0.03487012 0.06898566 -0.08974869 0.1471585 0.06610969 -0.04885944 -0.15653555
0.08528503 0.03182192 0.13197507 -0.03898886 0.070511125 0.13271587 0.010822158 -0.15257812
0.10885152 0.048152637 0.021801 0.004184136 0.11996707 -0.06232543 0.13523118 0.14246294
0.0739498 0.039560303 0.04157335 -0.0779108 0.09724258 0.14984603 0.07879456 -0.13145429
0.08415473 -0.06628356 0.058617495 0.079635076 0.09556536 0.0028118046 -0.03136919 -0.03341153
0.062219914 0.057306815 0.094831 -0.05204341 -0.06394395 -0.12842649 0.20356211 0.104681276
-0.014781676 -0.021527134 -0.030639218 0.2018871 -0.18703839 -0.13448548 -0.011120281 0.14868794
0.034807917 -0.15164527 -0.20616704 0.028812164 -0.07092732 -0.11611803 0.07487578 0.14883982
0.086922884 0.08934266 -0.11532216 0.103207596 -0.07520605 0.19863275 0.15274522 -0.051035557
-0.053463556 -0.07838971 -0.07481524 0.10597957 -0.11298642 -0.10114146 0.13297965 0.003779965
0.15958956 0.21961287 -0.097899355 0.15466243 0.030578304 -0.006779482 0.13708918 -0.15636824
0.1238425 -0.1467561 -0.09683726 0.04862296 -0.19087076 -0.10927822 0.07905771 -0.08113163
-0.17849332 0.12571529 -0.124332994 0.077235155 -0.1501598 -0.19024591 -0.12928188 -0.08262289
-0.1356852 0.16141495 -0.10964826 0.17222786 0.061976403 0.11383352 -0.09226874 -0.06003616
0.113921136 -0.12981382 0.13703524 0.12212787 -0.124823086 0.1845039 0.034884777 -0.07960764
0.030677 -0.18849872 0.14599222 0.13457343 0.08363804 0.10282739 -0.06381699 -0.07505625
0.057861954 0.102260955 0.21245202 -0.16253442 -0.07689393 -0.093455225 -0.011607054 0.17671368
0.04400113 0.17948796 -0.07382625 0.036995437 0.04699294 -0.08037302 0.043939553 0.080684
0.06446209 0.053252578 -0.077121034 0.16282617 -0.17920893 0.16223672 0.070830256 0.12717853
0.102584355 -0.027793633 0.10197417 0.046865944 -0.109907895 0.042049266 0.07116287 -0.17467266
0.1264858 0.15139344 -0.055379372 -0.18078598 0.17876478 -0.046265233 0.13318194 -0.07074947
-0.18879247 -0.15985696 -0.008586324 -0.13318528 -0.050601523 -0.1463655 -0.122311875 -0.12956056
0.041556466 -0.11853943 0.10550595 0.0090206405 0.1783953 0.08231664 0.0434264 0.13480268
0.045773283 -0.13325603 -0.038358036 -0.14708485 0.12836562 -0.0018421711 0.15428014 -0.03123664
-0.18826938 -0.16982536 -0.15966375 0.016606407 -0.00016983938 0.109838136 -0.07720945 0.12696494
00000000: 1907 df3c c68d 06be 5a3f 203e a5eb 60bc
00000010: 5e1c 1d3e 2cea 2f3c 68ff aa3c f586 163e
00000020: 307b c8bd 9e25 acbc 2904 39be 9e8d 4a3d
00000030: 49f9 a8bd 6014 44bd e396 da3d 689f 653c
00000040: c1a3 4dbd 2af1 a0bd fea1 14be 51ca 09bd
00000050: 88f2 2c3e d8cc 02be 16fe df3d d2f3 2d3e
00000060: 1fe6 0fbe 5414 d2bc 3e6c e2bd 3877 9b3d
00000070: 064b 09be dcfa 4c3d e796 2bbd 3452 b2bd
00000080: 626c b1bd a338 2cbe 2ca0 1abe bbc2 b03a
00000090: 291e 30be e4ae 833d d611 e4bd c9ec ffbd
000000a0: 5aa9 10be 57c7 3d3d e2e5 903c 6c61 953c
000000b0: b1d7 d93d 3b0b 3ebd 0c30 bcbd 9bbf a33c
000000c0: 2cd9 083e 62af 66bd 2b0d 4fbc f114 37bd
000000d0: e482 13bc 7e15 2fbe c25f f83d 2105 293e
000000e0: 1e34 073e f9d3 0e3d 5b48 8d3d 29ce b7bd
000000f0: b8b0 163e 8464 873d d620 48bd db4a 20be
00000100: eba9 ae3d b457 023d 7924 073e c8b2 1fbd
00000110: 2368 903d abe6 073e 6c4f 313c 703d 1cbe
00000120: 8ced de3d b33b 453d 0398 b23c 141b 893b
00000130: 4cb1 f53d f348 7fbd 0b7a 0a3e cee1 113e
00000140: fe72 973d fc09 223d d148 2a3d b38f 9fbd
00000150: 1e27 c73d 3d71 193e 0b5f a13d f49b 06be
00000160: 5159 ac3d adbf 87bd e618 703d b717 a33d
00000170: c5b7 c33d 4146 383b fb7c 00bd 87da 08bd
00000180: 4fda 7e3d 8dba 6a3d c136 c23d 782b 55bd
00000190: 0cf5 82bd 3c82 03be 9672 503e 2363 d63d
000001a0: d82e 72bc ac59 b0bc 19ff fabc 7ebb 4e3e
000001b0: fe86 3fbe 90b6 09be d731 36bc a741 183e
000001c0: bf92 0e3d e648 1bbe 741d 53be 7d07 ec3c
000001d0: 5842 91bd 4acf edbd 7958 993d 7769 183e
000001e0: a004 b23d 49f9 b63d 062e ecbd 815e d33d
000001f0: a105 9abd 6266 4b3e 3e69 1c3e a90a 51bd
00000200: 9afc 5abd c98a a0bd bc38 99bd d10b d93d
00000210: 6d65 e7bd 4123 cfbd d12b 083e 4ab9 773b
00000220: 726b 233e 32e2 603e 757f c8bd d45f 1e3e
00000230: 5a7f fa3c 6b26 debb 1b61 0c3e ff1e 20be
00000240: 23a1 fd3d 3b47 16be 9d52 c6bd de28 473d
00000250: a073 43be 42cd dfbd 02e9 a13d 5728 a6bd
00000260: f4c6 36be 82bb 003e 4ca2 febd 772d 9e3d
00000270: 7ec3 19be d3cf 42be 7862 04be 3136 a9bd
00000280: 10f1 0abe f649 253e 448f e0bd 805c 303e
00000290: f8da 7d3d 8c21 e93d 65f7 bcbd 7ae8 75bd
000002a0: 7c4f e93d eaed 04be f752 0c3e 2d1e fa3d
000002b0: 3fa3 ffbd 97ee 3c3e 57e3 0e3d 5509 a3bd
000002c0: 554e fb3c cf05 41be fc7e 153e 9ecd 093e
000002d0: 6c4a ab3d 2b97 d23d 7bb2 82bd 17b7 99bd
000002e0: a800 6d3d 316e d13d 068d 593e 6c6f 26be
000002f0: 917a 9dbd 7465 bfbd 832b 3ebc 6ef4 343e
00000300: 873a 343d b1cb 373e 3832 97bd 8788 173d
00000310: ab7b 403d 9c9a a4bd f6f9 333d a73d a53d
00000320: b304 843d 601f 5a3d a2f1 9dbd e7bb 263e
00000330: 8c82 37be 6221 263e 740f 913d 173b 023e
00000340: bf17 d23d 79af e3bc d5d7 d03d 81f6 3f3d
00000350: 6417 e1bd da3b 2c3d d7bd 913d 64dd 32be
00000360: 7e85 013e e206 1b3e 7bd5 62bd f61f 39be
00000370: 1d0e 373e 9d80 3dbd d960 083e 19e5 90bd
00000380: d052 41be 8bb1 23be a7ad 0cbc b961 08be
00000390: 8b43 4fbd d6e0 15be a67e fabd 86ab 04be
000003a0: 1d37 2a3d cdc4 f2bd 8113 d83d 4fcb 133c
000003b0: 42ad 363e a095 a83d e1df 313d b709 0a3e
000003c0: c47c 3b3d 4574 08be 511d 1dbd 699d 16be
000003d0: 4772 033e 0175 f1ba 9dfb 1d3e fbe3 ffbc
000003e0: b0c9 40be b3e6 2dbe e57e 23be 290a 883c
000003f0: e916 32b9 d1f2 e03d fd1f 9ebd 1903 023e

decoder.4.bias f4 [60]
-0.09262867 0.1089578 0.1555582 0.08390091 0.15672252 -0.1368136 0.06713136 0.07798295
-0.15903701 0.015862064 0.11131331 0.049136993 0.18704541 -0.10453047 -0.08154241 0.14276244
-0.13105325 -0.1328002 -0.1663911 0.14810057 0.1934654 0.12988922 -0.07395422 -0.01905908
0.18083844 0.034484804 0.04615132 0.15168028 0.12267117 0.051313285 -0.106688984 -0.14609629
-0.034602623 -0.014798191 0.15042022 -0.09408016 -0.07694178 -0.04518484 -0.080773294 0.04814984
-0.040879834 0.078446746 0.12806381 0.1589708 -0.0021490557 -0.09574028 0.06882211 0.1334154
-0.034027606 0.040696498 0.08477695 -0.11921834 -0.094306186 -0.12646666 0.030940516 0.08909288
0.17541768 0.037287593 -0.16376238 0.08631679
00000000: 1ab4 bdbd 4425 df3d a64a 1f3e 3ed4 ab3d
00000010: de7b 203e dd18 0cbe 2b7c 893d 86b5 9f3d
00000020: 99da 22be 29f1 813c 3cf8 e33d df43 493d
00000030: d588 3f3e 1214 d6bd b5ff a6bd 5130 123e
00000040: d332 06be c7fc 07be 6e62 2abe ada7 173e
00000050: cb1b 463e ae01 053e 4f75 97bd ca21 9cbc
00000060: b62d 393e f03f 0d3d 2b09 3d3d 1352 1b3e
00000070: 063b fb3d e12d 523d c17f dabd 449a 15be
00000080: 7bbb 0dbd 1d74 72bc c207 1a3e 19ad c0bd
00000090: a793 9dbd bd13 39bd 786c a5bd c438 453d
000000a0: 9d71 27bd b0a8 a03d 2923 033e 3ec9 223e
000000b0: 2cd7 0cbb 7b13 c4bd 9bf2 8c3d 0c9e 083e
000000c0: 8860 0bbd 5fb1 263d 8a9f ad3d bf28 f4bd
000000d0: 9a23 c1bd 7a80 01be f776 fd3c 5476 b63d
000000e0: b1a0 333e e0ba 183d 53b1 27be dbc6 b03d

decoder.6.weight f4 [118, 60]
0.048195433 0.08789165 0.06871418 0.014860989 -0.080770776 0.0019639095 -0.014552727 0.06527283
0.024617825 -0.04596154 -0.15908147 -0.06122731 -0.0242871 0.026532644 0.14626162 -0.10753127
0.01722706 -0.020835882 0.1493212 -0.019115241 -0.1563337 0.058555298 -0.001894231 0.09342371
-0.15655763 -0.16574137 0.028818468 -0.13226458 -0.025704008 -0.02902043 0.06903137 0.03110801
-0.05249673 -0.01924329 -0.05248044 -0.07286595 -0.11104157 -0.02920637 0.010939639 -0.004152342
-0.05642994 0.010395674 -0.09542057 -0.09880707 0.073560975 0.13227849 -0.120249666 -0.011563821
0.062450815 0.12737943 0.031539835 -0.080792025 -0.14275973 -0.005379845 0.008449236 -0.0039022989
0.057906214 -0.04149169 -0.08544041 -0.120479025 0.13825737 -0.105844714 0.008730055 -0.094923906
0.10287782 0.015036162 0.13279964 -0.13548064 0.08496809 0.11531753 -0.13196257 0.013646146
0.011866913 -0.09305196 -0.027544579 -0.016342727 0.045663245 0.029661935 -0.03218933 0.08340328
0.06888984 0.09424172 0.031245483 -0.13433415 0.10007015 -0.06332146 -0.039692882 0.06266458
0.042811707 -0.11793811 -0.076749705 0.021488823 0.058377452 -0.063754134 0.11936752 0.07517693
-0.14374833 -0.032708444 0.07029553 -0.027661031 -0.07443332 -0.031664178 0.03527463 -0.031339657
-0.07791103 0.020632243 0.07263138 0.11959975 0.0569301 0.039248936 0.05002197 0.1249067
-0.11415816 -0.03566433 -0.06730927 -0.062002007 0.07173278 0.09800777 -0.06797752 -0.053506594
0.06036077 0.056599617 0.046795953 0.03562228 -0.09923997 0.07669188 -0.11178746 -0.050701723
0.0016769184 -0.002624759 -0.0034233686 -0.105284095 0.13104498 -0.08586347 0.0007366224 -0.004241779
-0.00491904 -0.03336832 0.015663618 0.031286176 -0.08370408 0.09173091 -0.018132685 0.10704081
-0.09955649 0.10736891 0.08732918 -0.041738868 0.015044534 0.08417221 -0.111221395 0.09223189
0.063759685 -0.063950226 0.06603471 0.054690156 0.016993478 0.08668995 -0.099767365 -0.018946664
0.010567534 0.092876755 0.07264556 -0.0122020235 -0.062538 -0.13231331 -0.0027305637 -0.03990006
-0.034896996 0.024410835 0.07616826 0.057195377 0.016954806 -0.03530392 0.049511157 0.08162797
-0.031941675 -0.11396955 0.007668929 -0.05301802 0.10899679 -0.10656548 -0.0645625 0.05141462
-0.084578305 -0.00732122 0.07114047 -0.0852325 0.05294493 0.11171611 -0.0913424 0.021582065
-0.07720908 -0.0774423 -0.11964281 0.0632617 0.08262282 -0.08068533 0.089606896 -0.05192946
0.06120186 -0.0954299 0.12288303 -0.11552125 0.0633133 0.05880379 0.031324793 0.12892811
0.06257715 0.07472946 -0.115719534 -0.087428376 -0.0151961185 0.1290181 0.08144206 -0.12639305
0.08301506 0.016013823 -0.013875112 -0.028094355 0.05457878 -0.05253531 0.059162036 -0.08145372
-0.020398768 0.03605032 -0.021838414 0.12379406 -0.09027747 0.04753079 0.086469755 -0.0280984
0.061652154 -0.122834675 -0.05306269 -0.0941624 0.02999685 -0.05499651 -0.10963679 -0.11970819
0.002465683 0.09714882 0.111550584 -0.017341837 -0.029868536 -0.07926791 0.105394535 -0.10598422
-0.012049195 -0.056872208 -0.13193977 0.034536492 -0.08176019 -0.037796855 0.03747882 0.051795714
00000000: 9368 453d 8a00 b43d 05ba 8c3d 817b 733c
00000010: 266b a5bd efb4 003b 906e 6ebc c3ad 853d
00000020: 52ab c93c 2b42 3cbd 41e6 22be 7dc9 7abd
00000030: bef5 c6bc fd5a d93c 9bc5 153e 5b39 dcbd
00000040: c31f 8d3c 03b0 aabc a8e7 183e 9197 9cbc
00000050: f115 20be aed7 6f3d d847 f8ba ee54 bf3d
00000060: a550 20be 1bb8 29be b514 ec3c 5e70 07be
00000070: 3691 d2bc 41bc edbc 5260 8d3d 3ad6 fe3c
00000080: d006 57bd 1ba4 9dbc bbf5 56bd be3a 95bd
00000090: c369 e3bd 3242 efbc 2c3c 333c 5f10 88bb
000000a0: 1523 67bd 9e52 2a3c dc6b c3bd 5c5b cabd
000000b0: 23a7 963d 0374 073e 7545 f6bd 2e76 3dbc
000000c0: 6dcc 7f3d c16f 023e ea2f 013d 4a76 a5bd
000000d0: 9b2f 12be 6949 b0bb aa6e 0a3c b6bd 7fbb
000000e0: 112f 6d3d 31f3 29bd 62fb aebd b5bd f6bd
000000f0: 5793 0d3e 1dc5 d8bd 8108 0f3c 7767 c2bd
00000100: 9bb1 d23d 3c5a 763c a1fc 073e 70bb 0abe
00000110: c003 ae3d 992b ec3d 3221 07be 1694 5f3c
00000120: 716d 423c 0792 bebd 2ba5 e1bc 2fe1 85bc
00000130: 6209 3b3d 96fd f23c f5d8 03bd 57cf aa3d
00000140: 1e16 8d3d ce01 c13d 87f6 ff3c e48e 09be
00000150: 94f1 cc3d aeae 81bd 0195 22bd 4a56 803d
00000160: 545b 2f3d 8989 f1bd f32e 9dbd 5409 b03c
00000170: 321d 6f3d 8791 82bd f576 f43d 5df6 993d
00000180: c332 13be 4af9 05bd 1af7 8f3d 6399 e2bc
00000190: 7f70 98bd 4cb2 01bd 217c 103d 035e 00bd
000001a0: d18f 9fbd f304 a93c c3bf 943d b7f0 f43d
000001b0: 892f 693d 7ec3 203d d6e3 4c3d 15cf ff3d
000001c0: c1cb e9bd c314 12bd 71d9 89bd d1f5 7dbd
000001d0: a3e8 923d 4cb8 c83d cc37 8bbd bb29 5bbd
000001e0: db3c 773d 00d5 673d 1dad 3f3d abe8 113d
000001f0: 533e cbbd a210 9d3d d3f0 e4bd 9cac 4fbd
00000200: 0bcc db3a 2604 2cbb 985a 60bb 309f d7bd
00000210: a830 063e 30d9 afbd e419 413a 9ffe 8abb
00000220: e62f a1bb 38ad 08bd fd50 803c ef25 003d
00000230: 0b6d abbd 6add bb3d ff8a 94bc 3638 db3d
00000240: 46e4 cbbd 3be4 db3d a4d9 b23d 60f6 2abd
00000250: 597d 763c 7b62 ac3d 0bc8 e3bd 13e4 bc3d
00000260: 7094 823d 56f8 82bd 353d 873d c902 603d
00000270: e835 8b3c 808a b13d d552 ccbd 0936 9bbc
00000280: 7323 2d3c 2b36 be3d 32c7 943d ffea 47bc
00000290: ec13 80bd 247d 07be 42f3 32bb 3f6e 23bd
000002a0: 27f0 0ebd 3bf9 c73c 1bfe 9b3d b345 6a3d
000002b0: cee4 8a3c d89a 10bd 36cc 4a3d 912c a73d
000002c0: 46d5 02bd de68 e9bd a44b fb3b 6c29 59bd
000002d0: b639 df3d 013f dabd 5839 84bd 2398 523d
000002e0: 6437 adbd d8e6 efbb 18b2 913d 618e aebd
000002f0: c8dc 583d 6acb e43d b911 bbbd dfcc b03c
00000300: cb1f 9ebd 129a 9ebd 4a07 f5bd 5a8f 813d
00000310: 2736 a93d 5a3e a5bd d283 b73d fcb3 54bd
00000320: cdae 7a3d c070 c3bd 19aa fb3d 6896 ecbd
00000330: 67aa 813d 3edc 703d 6d4e 003d bb05 043e
00000340: 7328 803d c20b 993d 5dfe ecbd a60d b3bd
00000350: 24f9 78bc 521d 043e 18cb a63d 2e6d 01be
00000360: cd03 aa3d 6c2f 833c 7054 63bc 2226 e6bc
00000370: 008e 5f3d 442f 57bd e453 723d 35d1 a6bd
00000380: 511b a7bc 80a9 133d 79e6 b2bc bd87 fd3d
00000390: 65e3 b8bd a5af 423d 0e17 b13d 9e2e e6bc
000003a0: f886 7c3d bf90 fbbd 4358 59bd 37d8 c0bd
000003b0: f4bb f53c 0544 61bd 4189 e0bd 9129 f5bd
000003c0: 4c97 213b f6f5 c63d a274 e43d 7810 8ebc
000003d0: dcae f4bc 3757 a2bd 17d9 d73d 410e d9bd
000003e0: fd69 45bc d5f2 68bd 381b 07be 2376 0d3d
000003f0: e371 a7bd e0d0 1abd 6483 193d be27 543d

decoder.6.bias f4 [118]
-0.0068029296 -0.022556473 -0.029571969 -0.09488239 -0.078725316 -0.09014515 0.003901775 0.021304246
0.11181943 0.021731585 -0.08786496 0.13595727 -0.022013 0.122648 0.13506262 0.021506956
0.086602084 0.00612488 0.073716536 0.021445148 -0.06459309 -0.09598957 -0.028000373 -0.09659788
0.059148137 -0.04520112 -0.106065534 -0.0068185166 0.048170265 -0.0450418 0.031294182 0.098754175
-0.06800324 -0.07558799 0.07837395 0.0017232699 0.042109627 -0.03167502 0.06765767 0.14132394
0.07136217 -0.081459 -0.090037026 -0.0797325 -0.00421713 -0.05112255 -0.010751878 -0.03344275
0.09765534 0.03412328 -0.09425105 -0.024860011 -0.06550693 0.034568664 0.06510192 0.05194463
0.046910383 0.06518382 -0.06906619 -0.08865049 -0.033807054 -0.10267438 0.0146632325 0.06766382
-0.049146198 -0.10477636 -0.035683233 0.046364598 -0.0045671696 -0.039576977 -0.019953474 0.078289464
0.08225336 -0.08124224 0.038061045 -0.052714817 -0.07432207 -0.06507312 -0.026952017 0.032874413
0.013698863 -0.02728734 -0.008847597 0.026863312 -0.07005915 -0.032847352 0.029120866 0.03711098
-0.010146748 -0.020966282 -0.10085055 -0.0719498 0.080952704 0.07806253 0.0542522 0.11174683
-0.070257075 -0.07206403 -0.07271609 -0.026858954 0.08841769 0.08939657 0.11587962 0.06293085
-0.011173764 -0.06757057 -0.09100796 -0.06274371 -0.094516575 -0.04737333 -0.13188192 0.037746865
0.100049734 -0.034399636 0.12042547 -0.018800728 -0.10670355 0.035814013
00000000: 1ceb debb 5ac8 b8bc ea40 f2bc b351 c2bd
00000010: bd3a a1bd 059e b8bd ecb4 7f3b 3e86 ae3c
00000020: 9601 e53d 7006 b23c 8bf2 b3bd 6238 0b3e
00000030: 9b54 b4bc e02e fb3d db4d 0a3e 5b2f b03c
00000040: 6f5c b13d 38b3 c83b b2f8 963d bcad af3c
00000050: 6249 84bd 2e96 c4bd 0a61 e5bc 1cd5 c5bd
00000060: 5145 723d cf24 39bd e338 d9bd dd6d dfbb
00000070: 2f4e 453d c07d 38bd 542e 003d a13f ca3d
00000080: 4845 8bbd e0cd 9abd 8682 a03d 58df e13a
00000090: 257b 2c3d aabd 01bd 1b90 8a3d 39b7 103e
000000a0: 5426 923d fad3 a6bd 5565 b8bd cb4a a3bd
000000b0: da2f 8abb e165 51bd a528 30bc 44fb 08bd
000000c0: 86ff c73d dac4 0b3d b206 c1bd 39a7 cbbc
000000d0: 7f28 86bd df97 0d3d 2854 853d e4c3 543d
000000e0: 1a25 403d 187f 853d 9372 8dbd 638e b5bd
000000f0: 4479 0abd f246 d2bd 0e3e 703c 5493 8a3d
00000100: 864d 49bd fd94 d6bd 9528 12bd cee8 3d3d
00000110: 32a8 95bb 781b 22bd 7875 a3bc 3a56 a03d
00000120: 7374 a83d 5562 a6bd e6e5 1b3d 7eeb 57bd
00000130: 2b36 98bd 0e45 85bd 7aca dcbc 52a7 063d
00000140: 3271 603c b389 dfbc 83f5 10bc 7310 dc3c
00000150: 2c7b 8fbd f28a 06bd e28e ee3c af01 183d
00000160: 8c3e 26bc 7bc1 abbc bc8a cebd 6b5a 93bd
00000170: 88ca a53d 3fdf 9f3d 8e37 5e3d 86db e43d
00000180: f1e2 8fbd 4e96 93bd 2cec 94bd 4f07 dcbc
00000190: 5514 b53d 8d15 b73d 4b52 ed3d e4e1 803d
000001a0: 2a12 37bc 7062 8abd 6262 babd c67f 80bd
000001b0: e891 c1bd 890a 42bd 0e0c 07be 759c 1a3d
000001c0: e0e6 cc3d a2e6 0cbd a1a1 f63d fc03 9abc
000001d0: 6487 dabd b7b1 123d

estimation.0.weight f4 [10, 3]
-0.26514736 -0.26926187 -0.29854107 0.5755726 0.18720075 0.37192348 -0.08950638 -0.05781864
0.2995118 0.19898278 -0.043484952 -0.29420918 -0.2895495 0.069935836 -0.43318897 -0.120872825
0.36280042 0.26368153 -0.074236415 -0.056838572 -0.37836167 0.14781438 -0.2063531 0.17532119
-0.432111 0.5131288 -0.10900246 -0.38214752 0.51870936 0.18461238
00000000: 65c1 87be b1dc 89be 60da 98be ba58 133f
00000010: 8eb1 3f3e c16c be3e 1f4f b7bd 3dd3 6cbd
00000020: 9c59 993e 24c2 4b3e 471d 32bd 96a2 96be
00000030: d53f 94be 853a 8f3d f2ca ddbe 2c8c f7bd
00000040: fac0 b93e 4401 873e 4309 98bd 90cf 68bd
00000050: 9fb8 c1be a75c 173e 3a4e 53be 6687 333e
00000060: a73d ddbe 695c 033f af3c dfbd d7a8 c3be
00000070: 23ca 043f 070b 3d3e

estimation.0.bias f4 [10]
0.7581996 -0.4500525 -0.3455313 0.37024084 -0.016944781 0.538278 -0.63260823 0.35430762
0.6403244 0.3919471
00000000: 5e19 423f 486d e6be 7be9 b0be 3590 bd3e
00000010: c8cf 8abc 96cc 093f 9df2 21bf cf67 b53e
00000020: 4dec 233f 4aad c83e

estimation.3.weight f4 [4, 10]
-0.21657239 0.3922363 -0.0848215 -0.22215511 0.056564227 -0.20420234 0.18662006 -0.19407815
0.0093425475 0.16607979 -0.42654625 -0.19608255 0.21655029 0.116695985 -0.26673535 -0.17215595
0.06892427 0.010103823 -0.0551074 -0.33105966 0.49607638 -0.088504985 -0.4292384 0.27925593
0.1977983 0.276778 -0.17205451 -0.17825669 0.22138645 0.41829622 0.09154027 0.03468961
0.24166392 -0.07401813 -0.17858006 -0.38372838 0.27742532 0.14122353 -0.3617071 -0.41432378
00000000: 27c5 5dbe 32d3 c83e e5b6 adbd a17c 63be
00000010: e4af 673d 6b1a 51be 5419 3f3e 6cbc 46be
00000020: 7c11 193c d210 2a3e 4564 dabe ddc9 48be
00000030: 5cbf 5d3e 4efe ee3d 8991 88be a649 30be
00000040: 2b28 8d3d 818a 253c 4cb8 61bd a780 a9be
00000050: b9fd fd3e 1a42 b5bd 23c5 dbbe a2fa 8e3e
00000060: a38b 4a3e d9b5 8d3e 0f2f 30be ec88 36be
00000070: 21b3 623e ec2a d63e 7779 bb3d b116 0e3d
00000080: bf76 773e d196 97bd b1dd 36be 0c78 c4be
00000090: b10a 8e3e e79c 103e ac31 b9be 3f22 d4be

estimation.3.bias f4 [4]
-0.19058503 -0.2281864 0.15146385 0.008582043
00000000: b928 43be b2a9 69be 5719 1b3e b39b 0c3c
