Baseline-models/DAGMM/DAGMM-CHD/no--dagmm/models/23_194_dagmm.pth (torch, 82200 bytes, 22 tensors)

phi f4 [4]
000000 c1 69 4d 3d a0 1e 32 3d f9 e4 5d 3f 0d 28 22 3d
       0.050149683 0.043486238 0.8667751 0.039588977

mu f4 [4, 3]
000000 eb 48 c3 3e b7 b5 8e 3f 4e 8d bf bc c3 9e c8 3e
       0.3814157 1.1149205 -0.023382809 0.39183626
000010 e0 1e 8d 3f 01 28 77 3b 66 16 5f 3e 1a 85 a7 3f
       1.1025047 0.0037713053 0.21785888 1.3087494
000020 21 1d e6 be cb 00 d1 3e 9f a0 8a 3f 7a 50 3e 3d
       -0.449441 0.40820917 1.0830268 0.046463467

cov f4 [4, 3, 3]
000000 f1 dd e2 3d 4e a7 06 be 2c c9 93 3e 4e a7 06 be
       0.11077488 -0.13149759 0.2886442 -0.13149759
000010 b8 ea 1f 3e 91 72 af be 2c c9 93 3e 91 72 af be
       0.15616882 -0.34267095 0.2886442 -0.34267095
000020 a5 8b 40 3f df 19 e4 3d 17 59 07 be a4 93 94 3e
       0.7521308 0.11137747 -0.13217579 0.2901889
000030 17 59 07 be 1d b0 20 3e db 55 b0 be a4 93 94 3e
       -0.13217579 0.15692182 -0.34440503 0.2901889
000040 db 55 b0 be 00 8f 41 3f cc 73 a4 3d a6 3c c3 bd
       -0.34440503 0.75608826 0.08029899 -0.09533052
000050 96 47 56 3e a6 3c c3 bd 8d e2 e7 3d 9c 69 7e be
       0.20925745 -0.09533052 0.11322508 -0.24844974
000060 96 47 56 3e 9c 69 7e be d9 9a 0b 3f dd 38 e2 3d
       0.20925745 -0.24844974 0.54533154 0.11046002
000070 b4 3c 06 be 25 5a 93 3e b4 3c 06 be 91 61 1f 3e
       -0.13109094 0.28779712 -0.13109094 0.15564562
000080 76 e3 ae be 26 5a 93 3e 76 e3 ae be 6f f6 3f 3f
       -0.34157914 0.28779715 -0.34157914 0.749854

encoder.0.weight f4 [60, 118]
000000 f3 5a af bc e3 e9 a5 3d c2 a4 c2 3c e4 ba 9c 3b
       -0.021405673 0.08101251 0.023760203 0.0047830213
000010 9b 31 b1 3d a5 e6 ef bc 82 3e 1e 3d 46 04 66 3d
       0.086520396 -0.029284785 0.03863383 0.05615642
000020 b4 62 85 bd 41 83 8a 3d d4 48 1f 3d 53 2c 6b 3c
       -0.06512967 0.06763316 0.038887814 0.014353829
000030 db 8b 44 3d 86 85 4c 3d 7e c8 81 bd 24 cd 16 bd
       0.04798494 0.049932025 -0.06337069 -0.03681673
000040 2c a5 a7 3d cd 15 37 bd 5b 5f b0 bc ac a3 90 bd
       0.08185801 -0.044698525 -0.021529844 -0.07062468
000050 69 49 9b bc 7f 0f db bc 8f 7f 08 3d 01 39 51 bd
       -0.018955903 -0.026740788 0.033324774 -0.051079754
000060 4f 52 ba 3d 89 d9 84 3d 75 dc bb 3d e8 88 ed bc
       0.0909773 0.06486804 0.09172908 -0.028995946
000070 48 97 1a bd 58 ee b2 bd 7a 69 ac bd 63 19 7f bc
       -0.03774193 -0.08736867 -0.084185556 -0.0155700175
000080 d5 c9 73 3d ba 16 13 3d 43 80 1c bd cb ba 67 3d
       0.059518654 0.035910346 -0.038208257 0.056574624
000090 54 56 8f bc 18 00 52 bd 1f 23 58 bc 77 26 61 bd
       -0.01749722 -0.05126962 -0.013191967 -0.054968324
0000a0 ce 7d 4a 3d ac 7d 32 3d 38 b1 d5 3c 96 f8 24 3b
       0.049436383 0.04357688 0.026085481 0.0025172583
0000b0 24 6a d0 bc a1 c8 74 3c 2a b4 95 bd 3e bb f7 bc
       -0.025441237 0.014940412 -0.07309754 -0.030240651
0000c0 56 88 40 bd 26 d3 9b bd ed b7 0e bd 47 12 91 bc
       -0.04700502 -0.07608633 -0.034843374 -0.01770891
0000d0 47 ed a5 bc 07 54 cb bb b9 ad d0 3b 55 00 a6 bd
       -0.020254744 -0.006205085 0.0063683656 -0.08105532
0000e0 c9 5f 14 bd f7 06 01 bc 05 60 4a 39 43 42 68 bc
       -0.03622416 -0.007875196 0.00019299991 -0.014175954
0000f0 c0 da cb bb 18 b8 e6 bc 32 7d b2 3d 92 72 19 3d
       -0.0062211454 -0.028163955 0.08715285 0.03746278
000100 4d b0 b0 3d ac 7e a3 3d 7e d4 8e 3d 74 99 88 bd
       0.08627377 0.07983145 0.069741234 -0.06669894
000110 42 1f 3a 3d 7e 74 9b 3d c9 01 ab 3d 5d df 0b 3d
       0.045439966 0.075905785 0.0834995 0.034148563
000120 52 70 83 3d 61 75 5c bd 8d ce 0f 3d c9 f0 9b bd
       0.06417908 -0.05382288 0.03510909 -0.076142855
000130 9a 01 ed bc 25 de ae bc 84 34 96 bd 87 2b fb 3a
       -0.028931428 -0.021346161 -0.07334235 0.0019162752
000140 aa 4d db bc eb de 0c 3d 64 b0 33 bd ef 8d 59 b9
       -0.026770432 0.03439228 -0.04386939 -0.00020747607
000150 01 60 78 3d 70 2f e4 bb 4c 9e 99 bd 7d 84 d0 3c
       0.06063843 -0.006963663 -0.07500896 0.0254538
000160 34 6e c3 bd 8f c1 a8 3d 40 fc 43 3c 5d e3 8e 3c
       -0.09542504 0.08240043 0.011961997 0.0174424
000170 8e f1 87 bd 86 45 bc 3c 4e f1 28 3d db a8 aa 3d
       -0.0663787 0.02298237 0.04124575 0.08332988
000180 a8 3e 03 3d 00 48 17 39 6d 20 85 3d 78 51 2d bd
       0.032042176 0.00014427304 0.06500325 -0.042314023
000190 8e df 85 3d d0 f8 6d 3d 96 6e 54 bd e9 06 19 bd
       0.0653678 0.058098614 -0.051863275 -0.037360106
0001a0 4e 81 08 bc 18 ac 4a 3d f9 05 95 ba 9d e3 89 bd
       -0.00833161 0.049480528 -0.0011369578 -0.06732867
0001b0 07 d0 4e 3d 6b 9c 04 3d aa 3d 1b bd f9 59 71 3c
       0.05049136 0.032375734 -0.037900604 0.014730924
0001c0 fb ca 95 bc d9 a8 86 bd 46 bb 88 3d 85 eb 96 bc
       -0.018285265 -0.06575174 0.066763446 -0.018422851
0001d0 66 9f 49 3d ce c3 55 bc 27 87 d8 bc 10 ef 6d 3d
       0.04922428 -0.013047172 -0.026431633 0.058089316
0001e0 44 6e b8 3d e4 52 79 ba 48 1b b6 bb 31 46 72 bd
       0.090054065 -0.0009510948 -0.0055574514 -0.05914897
0001f0 d1 b1 71 bd b3 67 2e 3d 82 9d dd 3a 54 69 67 3d
       -0.05900747 0.042579364 0.0016907903 0.056496933
000200 7e 66 5e 3d 1b 49 27 3d a0 75 f3 bb c2 4d 2a 3d
       0.054296963 0.040841203 -0.0074297935 0.041578062
000210 c8 9e c7 bc 09 5a c0 bc 03 fd 42 3d a9 6b ab bc
       -0.024367705 -0.023480432 0.047604572 -0.02092536
000220 0e 1e 61 3d 01 a1 ba bc de 4d 43 3d 56 ff 9d 3d
       0.054960303 -0.02278185 0.04768168 0.07714717
000230 e5 58 9d 3c a6 eb 12 bd 7b fa d4 3c fe 43 55 bd
       0.019207427 -0.035869263 0.025998345 -0.052066796
000240 2d 13 36 bd e7 13 cd bd a9 01 a7 3d ed 5e 94 bd
       -0.04445188 -0.10013562 0.081546135 -0.07244668
000250 0b 45 8c 3c 43 4d 59 3c 2e cd a6 3d 68 63 94 3c
       0.017122766 0.01326305 0.08144604 0.018113807
000260 e9 59 cc 3c 1f 8f 62 bd 9f f5 33 3d a5 a4 b1 3d
       0.024945216 -0.055312272 0.043935414 0.086739816
000270 1f 84 83 bd 8a 3c 54 bc 7b cf a4 bd f6 a9 8c 3c
       -0.064216845 -0.012953887 -0.08047386 0.017170887
000280 a4 02 e0 3c 8a 8d e5 bc 62 8d 09 bc 11 b6 d8 bc
       0.02734501 -0.028021593 -0.008395525 -0.026454004
000290 25 67 7a bc 16 6f 3e 3d d8 a7 aa 3d 3f b8 b6 3d
       -0.015283381 0.04649266 0.08332795 0.08921861
0002a0 e1 f3 f7 bc c4 97 75 3c 4b 7e 86 bd 8e 9a 8b 3d
       -0.030267658 0.014989797 -0.06567057 0.06816588
0002b0 0c 50 87 bd 5f 8c 25 3d c8 ef 88 bc 38 2c 7c 3d
       -0.066070646 0.04041707 -0.0167159 0.061565608
0002c0 0f a6 af 3d 0d 3c 1a bc e3 cf b5 3d bf aa 83 bc
       0.08576595 -0.009413731 0.08877542 -0.016072629
0002d0 51 0e 86 3d 80 ec aa 3c 97 ad b1 3d 65 f8 5f 3d
       0.065456994 0.020864725 0.08675688 0.054680247
0002e0 fe e5 04 bb ce 88 9d 3c f7 8b f6 3b d8 9d 3d bd
       -0.0020278688 0.019230273 0.0075240093 -0.04629311
0002f0 80 0b 10 bd fa 76 d5 bc 5b c8 73 3d 44 91 69 3d
       -0.035167217 -0.026057709 0.059517246 0.0570233
000300 a8 9a 8a 3d a4 43 fb bc 03 ab df bb 06 95 8b 3d
       0.067677796 -0.030671902 -0.006825806 0.06815533
000310 d2 3a 12 3d 68 e8 25 3c ed aa 99 3a b0 1c ef 3c
       0.035700627 0.010126211 0.0011723913 0.029188484
000320 e5 b9 84 bd a6 a9 87 bd a4 9b a3 bd d6 26 38 3d
       -0.06480769 -0.06624155 -0.079886705 0.04495891
000330 14 d5 87 bb 3e ea 10 be 1f 42 f8 bb 0c 8c bd bc
       -0.004145274 -0.14151856 -0.0075762416 -0.023138069
000340 2a 39 83 3d 16 ee 03 3c 32 1b 9f bd 89 30 8d 3d
       0.064073876 0.00805237 -0.07768859 0.06894023
000350 9b d8 d6 bc 4f c6 15 bd 73 d4 52 bd 7c 96 7d bd
       -0.026226332 -0.036566075 -0.05147214 -0.06191109
000360 7b 5e c9 bc 3a d1 a1 bd e3 eb 36 bc 24 d8 61 bd
       -0.024581185 -0.07901235 -0.011164638 -0.05513777
000370 17 1a e5 3d f2 77 e4 bc b4 62 ab 3d fb 63 25 bd
       0.11186617 -0.027889226 0.083684355 -0.040378552
000380 20 3a b6 3b f2 e0 fd 3c 35 31 97 bc e8 b1 c5 bd
       0.0055611283 0.030991051 -0.01845608 -0.096530735
000390 e8 e2 61 bc f8 8f f1 3c c0 e6 e1 bc 19 85 05 3c
       -0.013787009 0.029487595 -0.02757585 0.008149409
0003a0 bc a8 20 3c 5c 24 c2 3d d8 6e 38 bd 15 6d b0 bc
       0.009805854 0.09479591 -0.045027584 -0.02153639
0003b0 34 c2 52 bc 82 9a 56 bd 22 77 47 3c a0 a9 5a bd
       -0.012863684 -0.052393444 0.0121744 -0.053384423
0003c0 cc 26 17 3d 36 f2 ca bd 9b e0 c9 bd 34 90 15 3d
       0.036902234 -0.09909479 -0.09857293 0.036514476
0003d0 7f 7a 88 3d da f0 7c bc 3a bf 37 bb a1 16 83 ba
       0.06663989 -0.015438283 -0.0028037564 -0.0010001251
0003e0 44 11 8b 3d 5a a7 12 3d 10 f3 06 3c 56 2f 41 3d
       0.067904025 0.03580413 0.008236662 0.047164284
0003f0 7c ad b7 3c 36 1b 97 3b a3 f9 13 ba 75 7b 93 3d
       0.022421591 0.004611398 -0.0005644804 0.07201282

encoder.0.bias f4 [60]
000000 49 29 fe 3c 6a 55 b2 3d f0 ba 4f bb f1 9d 0b 3d
       0.031025546 0.08707698 -0.0031697117 0.03408617
000010 e1 45 8d bd 9d bb 1d 3d 19 c7 cd bd 06 1e 0b bd
       -0.06898094 0.038509 -0.100477405 -0.03396418
000020 54 5c 61 3d 26 52 8b 3d 3d 1e 4f bc 07 f0 29 bd
       0.05501969 0.06802778 -0.012641487 -0.041488674
000030 ad 7a 34 bd 3b a4 85 3d 41 f9 16 bd 90 fe 98 bd
       -0.044062305 0.06525465 -0.0368588 -0.07470429
000040 fa 50 00 bc cf 61 96 3d df dd 3f bd 3e 2b 02 3e
       -0.007831806 0.07342874 -0.046842452 0.12711808
000050 b3 9f bb bb 1b 4c 6f 3d 7a 83 f9 bd 4c 15 88 bc
       -0.0057258247 0.05842219 -0.1218328 -0.016611718
000060 b3 24 e2 3c 2e e7 ff 3b 60 bc 49 3d bd 47 1a bd
       0.02760539 0.007809541 0.049251914 -0.03766607
000070 79 b4 d7 bc 6c 80 b5 3d 78 a2 25 3d 0c 23 b3 bc
       -0.026331173 0.08862385 0.040438145 -0.021867298
000080 dc 63 9e 3d f2 50 9f bd 42 73 83 3c 08 ae 9d bd
       0.077338904 -0.07779111 0.01604617 -0.076992095
000090 5c 3c a4 3d e9 d9 f5 3d 65 e5 72 bd d1 8b 10 bb
       0.08019325 0.12004454 -0.0593008 -0.0022055993
0000a0 1c ad 75 bd 73 fe 9e bc 3c 79 f2 3c 92 d9 71 bc
       -0.059979543 -0.01940844 0.029598825 -0.014761345
0000b0 5b ee 3a bd 70 7d c9 bc 7e 80 27 3d cd 86 ed bc
       -0.04563747 -0.024595946 0.040894024 -0.028994942
0000c0 83 85 12 bd 34 f7 ce bc 17 63 31 bd 99 f2 23 bd
       -0.035771858 -0.02526436 -0.04330739 -0.04002628
0000d0 a1 6f a4 bd 96 01 1c bd 01 22 8a bc 01 03 30 bc
       -0.08029104 -0.03808745 -0.016861917 -0.010742904
0000e0 40 5b 1d 3d 51 86 f8 ba 76 e8 be bc 3e 48 72 3d
       0.0384171 -0.0018960928 -0.023304205 0.059150927

encoder.2.weight f4 [30, 60]
000000 d1 63 f1 bd 43 ef e0 3d 4a 81 7b bd 99 9d cf bc
       -0.117866166 0.109831356 -0.061402597 -0.025343703
000010 d3 99 d4 bd 7e 74 85 3d 71 00 91 bd fb 68 ac 3d
       -0.10380902 0.0651636 -0.07080162 0.08418461
000020 71 45 ab 3d ca 36 6e bd 5f 95 79 3d 9e 41 94 bc
       0.08362854 -0.05815772 0.060933467 -0.018097695
000030 94 05 e3 bd c6 12 a6 bd 83 b2 d8 3d f7 f5 40 3d
       -0.11085048 -0.081090495 0.105809234 0.04710957
000040 3c bb 32 3b df 4d 0c bd 34 01 ec 3d ff db dd bc
       0.0027272245 -0.03425395 0.11523667 -0.027082441
000050 05 03 d8 3d b8 b8 ea bd e4 43 ed bd 79 ba a6 3c
       0.10547451 -0.114610136 -0.11585215 0.020352589
000060 e2 bd c0 3d e3 63 24 3d 19 2e 0c bb b6 32 86 3c
       0.09411217 0.040134322 -0.002138978 0.016381603
000070 36 62 e5 3d 72 e1 01 be 22 09 20 3c 02 39 a1 bd
       0.11200373 -0.12683657 0.009767802 -0.078722015
000080 2d fd ab 3c f4 22 15 3b 6b 47 1d bd 46 aa 99 3c
       0.020994747 0.002275643 -0.038398188 0.01875795
000090 7a 8e a5 3d 13 3a d9 3b 95 7e f0 3b 32 a2 77 3d
       0.08083816 0.0066292374 0.0073393085 0.060457416
0000a0 36 f8 04 3e 31 ff a0 bd 59 84 b4 bd d6 3c e0 bd
       0.1298531 -0.07861174 -0.08814306 -0.109491035
0000b0 73 72 fa bd 33 21 25 bc e0 b3 54 bd f1 89 e9 bd
       -0.12228861 -0.010078716 -0.051929355 -0.11403263
0000c0 9d 44 74 bd ba 5b bd 3c 40 2d cf 3d 6b 34 fa 3d
       -0.059635747 0.023115028 0.10116053 0.12217029
0000d0 d1 35 8e 3d d6 2e 1a bd a2 29 f6 3b 7e 90 ee 3b
       0.069438584 -0.037642322 0.0075122872 0.0072804084
0000e0 fc 15 d2 bd 46 25 08 3e dc 88 f1 bd e1 ab d8 3d
       -0.102580994 0.13295469 -0.11793682 0.10579658
0000f0 52 d6 ae bd 95 82 54 3c 4a 70 cc 3d 2c 27 8f bd
       -0.08536972 0.012970586 0.09982355 -0.06989893
000100 55 96 c6 3d 67 6d 94 bd 6f 78 a1 3d 38 85 ea 3d
       0.09696642 -0.07247429 0.07884299 0.11451191
000110 ca 70 cf 3d 7d f9 4c 3d 5e d3 05 3d ff e7 e1 3d
       0.10128935 0.050042618 0.03267228 0.11030578
000120 88 2a 32 3d 0e f1 4a bd 6a 8e 21 3d 50 41 d1 bd
       0.043497592 -0.049546294 0.039442457 -0.102175355
000130 e4 2e 83 bd f7 3f 98 3c 94 07 2e 3d a5 1b 25 bd
       -0.06405428 0.018585188 0.042487696 -0.040309567
000140 13 dd e1 bd 47 2f 08 3d 78 c5 9d 3a 97 6e 9b bc
       -0.11028495 0.033248212 0.0012037 -0.018973632
000150 86 3e 42 bc ea 44 e6 3c e8 7c c3 3d 9a 38 f4 3d
       -0.011855727 0.028109033 0.09545308 0.119248584
000160 a6 02 7a 3d c3 c5 17 bd e7 06 c3 3c ef 34 e8 bd
       0.061037682 -0.037053835 0.023807002 -0.11338221
000170 7c 84 a0 3d 33 b7 bc bd f2 5f 03 bd 5b a6 d3 3d
       0.078377694 -0.0921463 -0.032073922 0.10334464
000180 40 a9 7f 3d bb 8e dd bd 19 84 b0 3d 94 1c b4 3d
       0.06241727 -0.10818239 0.08618946 0.08794513
000190 af 8b 86 3d 1b 6e 83 3d 71 6e 98 bd 63 7a ee bd
       0.06569611 0.06417485 -0.0744294 -0.11644437
0001a0 c9 9f ae 3d 25 b6 99 bc 28 c5 80 3d 03 5d 9c 3d
       0.0852657 -0.018763611 0.062876046 0.07634928
0001b0 a4 06 9d 3d 7b 71 a7 bd 52 b4 e8 bd fb c2 f4 bc
       0.07667282 -0.081759416 -0.11362518 -0.02987813
0001c0 60 9f 7f bd 08 83 c8 bd 69 4a ab 3d 00 b5 03 3e
       -0.06240785 -0.09790617 0.08363802 0.12862015
0001d0 ec 3b 24 bd 1e b7 93 3d ea 7a 83 3d 41 bc 39 3d
       -0.04009621 0.07212661 0.06419928 0.04534555
0001e0 e4 0e 11 bd 93 3f ac bd ac 91 de bc bc d2 05 3d
       -0.03541459 -0.08410563 -0.027169071 0.032671675
0001f0 e9 ce ab 3d fe c5 2f 3d f8 42 ca 3d 18 ae 6e bd
       0.08389074 0.04291343 0.098760545 -0.058271497
000200 d0 e8 53 bd 50 27 6d bd ab 0d b6 bd 25 5c 9d bc
       -0.0517357 -0.05789882 -0.08889326 -0.019208977
000210 fe 6e 9a bd 1e 1b 83 3d d8 7e 1e 3d ea 18 0a bd
       -0.07540701 0.064016566 0.038695186 -0.033715166
000220 63 b0 ad 3d f3 b7 8f 3d 62 3f db bd 6b 4e d6 bb
       0.08480909 0.070175074 -0.10705449 -0.00654011
000230 d9 96 ec 3c 34 bf 8b 3d 33 66 04 be 0c be 07 be
       0.028880524 0.068235785 -0.12929611 -0.13256091
000240 39 77 09 be 62 4e 0b 3b 8d 9b 06 3e 10 7e 86 3d
       -0.13424386 0.0021256437 0.13145275 0.06567013
000250 2c 02 fc bd fc e1 d5 3d 39 e6 91 bd 82 6c ac bd
       -0.12305102 0.10443494 -0.071239896 -0.08419134
000260 6c d5 01 3e 02 d8 17 3d 51 dd 72 3d 0c 6c df bb
       0.1267907 0.037071235 0.059293095 -0.0068183
000270 7c 0d a3 3c 1c 0c eb 3b 4f 57 08 3d 20 f0 e4 3a
       0.01990389 0.0071730744 0.03328639 0.0017466582
000280 6f 3a 00 be a1 20 0d 3e 37 4c cc 3d de b7 43 bc
       -0.1252229 0.13781978 0.09975474 -0.011945693
000290 21 e7 9a bc e4 6a cd 3d 2c 24 e2 3d 3b 50 5d 3d
       -0.018909039 0.100301534 0.110420555 0.05403159
0002a0 5a ec 8d 3d bc 36 d3 bd 22 af 7f 3d 0a 53 e3 3d
       0.06929846 -0.10313174 0.06242288 0.11099823
0002b0 19 10 9b bd c9 e4 08 3e 01 9a ba bd 0c 30 03 be
       -0.0757143 0.13368525 -0.09111405 -0.12811297
0002c0 ca f0 96 bd 68 f3 89 bc 88 73 e4 bd f8 7e 44 bd
       -0.073701456 -0.016839698 -0.11154848 -0.04797265
0002d0 be 65 cc 3d f5 83 80 3d e2 24 2d bc 9a 75 9b bc
       0.09980343 0.06275169 -0.010567876 -0.018976975
0002e0 f1 d4 fa bd cc 0e 06 3e 91 c9 62 bd fc 6c a2 3a
       -0.122476466 0.13091582 -0.05536801 0.0012392099
0002f0 72 68 6a bd 0f e4 ab bd 2a c1 03 be 80 86 e0 bd
       -0.057228513 -0.08393108 -0.12866655 -0.10963154
000300 2f 91 78 bc ce a4 57 3d f0 fc aa 3d 62 0a 04 bd
       -0.015171333 0.052647404 0.08349025 -0.032236464
000310 a4 d5 b2 3b d7 73 92 3d 4d 26 7f 3d b9 f8 04 3e
       0.005457597 0.07151001 0.062292386 0.12985505
000320 dd 4b d9 bc db e2 0e bd fa 2e 2f bc 4f fd a7 3d
       -0.026525432 -0.034884315 -0.010692352 0.08202612
000330 af fa ed 3c 83 a7 07 be 33 df b9 3d 71 ac 5e b9
       0.0290502 -0.13247494 0.09075775 -0.00021235809
000340 13 a2 e2 bd c1 b9 0b 3e 81 4a a4 bd 48 51 cb 3a
       -0.110660695 0.13645078 -0.08022023 0.0015511895
000350 4f a6 95 bd a4 0b b0 bd 6f b9 ce bd 60 7d 96 3d
       -0.073071115 -0.0859597 -0.100939624 0.07348132
000360 30 d9 6c 3d 3c 7f 4e bd 6c 54 9a 3d 4c 09 d4 bd
       0.057824314 -0.05041431 0.075356334 -0.10353336
000370 13 95 24 bd 05 c8 4a 3c 34 29 cf 3d c0 d0 c7 3d
       -0.04018123 0.01237679 0.10115281 0.09756613
000380 ca 40 a3 bd 75 50 19 3d 7d 8c e8 bc 80 03 ba 3d
       -0.07971342 0.037430245 -0.028387303 0.09082699
000390 7f 7e a3 bd f1 a5 eb bd 35 b7 0a bd ee 5f 33 3d
       -0.079831116 -0.1150626 -0.033866126 0.043792658
0003a0 1e ec 3a bd 8c 52 59 3d d1 4b fe bd 9e c0 dc bd
       -0.045635335 0.05305724 -0.124168046 -0.10778926
0003b0 49 a9 2e 3d d6 f8 02 be 4b ec 47 3d 3b 59 b0 3c
       0.04264191 -0.12790236 0.04880933 0.021526923
0003c0 36 b0 d8 3d 62 02 09 bd 2d cd 80 bc a0 2f 08 be
       0.105804846 -0.033449538 -0.015722835 -0.13299417
0003d0 91 b8 91 bd 4e ca a0 bd f8 72 0b be 8c 90 9e bd
       -0.071152814 -0.078510866 -0.13618076 -0.07742414
0003e0 02 57 d0 3d c8 30 9f bd 04 69 15 be 1c 5f 00 be
       0.101728454 -0.07772976 -0.14590842 -0.12536281
0003f0 91 6a c7 bd a0 14 8c 3d 33 e3 cb bd 5a a0 7f bd
       -0.09737123 0.068398714 -0.09955444 -0.062408783

encoder.2.bias f4 [30]
000000 86 c4 ea bd c0 b9 e4 bc ac 96 d6 3d 82 42 5f bc
       -0.11463265 -0.027920604 0.10477957 -0.013626697
000010 2f a8 ac 3d 0d 89 61 3a f4 09 a8 3d 19 27 0f 3d
       0.08430516 0.0008603491 0.082050234 0.034949396
000020 80 fc 52 3c d9 1a 06 bd 7b 4d 8a bd bd 0f dd 3d
       0.0128775835 -0.032740448 -0.067530595 0.107940175
000030 57 cd 45 3d 32 6b 9b 3b 78 3f 00 3e 12 cd e4 3c
       0.04829153 0.0047430033 0.12524211 0.027929816
000040 db b6 d7 3b a2 91 95 3d 52 a0 92 3d 3b 85 9e 3c
       0.0065830774 0.07303168 0.07159485 0.019350639
000050 52 29 42 3d 76 36 71 3d 62 92 ed bc 4a dc 91 3d
       0.047402687 0.05888983 -0.029000465 0.07122095
000060 2d 1f ae 3d e5 e6 e6 3d 2a d1 22 3d a4 81 34 3d
       0.0850204 0.112745084 0.039750256 0.044068947
000070 a6 45 d2 3d 31 01 90 3d
       0.10267191 0.07031477

encoder.4.weight f4 [10, 30]
000000 1a a4 25 be 8d ee 24 3e 96 b2 83 bd 22 ee 31 bd
       -0.16175881 0.16106625 -0.06430547 -0.04343999
000010 5f 7f de 3d d1 25 6f 3c c9 6c 57 bd 76 f0 07 be
       0.10864138 0.0145964185 -0.05259398 -0.13275322
000020 2e ee 29 be fc d5 57 bd f3 71 9b 3d 2e 25 29 be
       -0.16594765 -0.052694306 0.075900935 -0.16518089
000030 f0 13 6a 3d 3f 70 49 3e fa ea e7 3c 93 bd 26 3e
       0.05714792 0.19671725 0.028310288 0.16283254
000040 15 ad 5b 3d 08 3d 40 be 6b 2e a1 bc ce 9a 0b 3e
       0.05363186 -0.18773282 -0.019675454 0.13633272
000050 6a 38 9a bd 31 93 74 bc 06 a4 d9 bd 9b cf e5 3d
       -0.075302914 -0.014927671 -0.10626988 0.11221238
000060 18 7e da bc 37 50 84 bd fd 98 c6 3d 36 f7 1b 3e
       -0.026671454 -0.06460612 0.09697149 0.15231022
000070 e3 b0 05 3e 53 e1 cf 3c d4 43 29 3e 74 1d aa bd
       0.13055758 0.025375998 0.1652978 -0.08306399
000080 30 c0 57 bd ae 83 e1 bd 07 a2 50 3d 88 f6 0f be
       -0.05267352 -0.11011444 0.05093577 -0.14058888
000090 43 67 be 3d ad 8e c1 3d cf 5e fb bd 75 fc 8d 3d
       0.09297039 0.09451041 -0.12273943 0.06932918
0000a0 f6 63 b6 bc d5 3d 23 be 4c 08 19 3e ef 0a 27 bd
       -0.022264462 -0.15941556 0.14944571 -0.04078191
0000b0 4e a2 60 bd 1a f6 a0 bd 2a 66 31 3d 78 f8 2d be
       -0.054842286 -0.0785944 0.043310322 -0.16989315
0000c0 20 ec fe bd ee 0e 21 3e 9b da 2e 3e 00 a0 e5 bd
       -0.12447381 0.15728351 0.17075579 -0.11212158
0000d0 04 ac ce 3d af d8 38 3d 3d 65 1a be 01 b5 2c be
       0.10091403 0.04512852 -0.15077682 -0.16865923
0000e0 58 55 8f 3d d5 1e c6 3d 4b 38 3a be 64 dd 3d b8
       0.069987 0.096738495 -0.18185537 -4.5267298e-05
0000f0 fe 0c 06 be 8a 8c 94 bd 18 27 ab bc 8c c1 26 3e
       -0.13090894 -0.07253368 -0.020892665 0.1628477
000100 0c 3b 98 3d 59 03 0e be 43 8d 56 bd d4 d1 36 3e
       0.07433137 -0.13868465 -0.05238081 0.1785348
000110 10 ac 1f bd 59 66 06 bd 1f e4 24 bd e0 7b 20 be
       -0.03898245 -0.03281245 -0.040256616 -0.15672255
000120 3b 5f f2 bd 12 e9 10 3e 21 d9 e9 bd 9d d5 84 bc
       -0.1183457 0.1415141 -0.11418367 -0.01621514
000130 3f 4c 28 3e 20 f2 0f 3e ed f6 28 be 45 a4 15 3c
       0.16435336 0.14057207 -0.16500445 0.009133403
000140 59 13 39 be 97 d2 3a bd a5 85 de bc 38 7d 1d 3d
       -0.18073787 -0.04561099 -0.027163336 0.038449496
000150 b2 02 78 bd 17 b0 2f 3e 39 af e9 bd a7 a5 14 3e
       -0.060549445 0.17157017 -0.11410374 0.14516316
000160 7b 07 34 3e 8e 32 80 3c 82 6f d6 bd be 0f f8 3b
       0.17580979 0.015649106 -0.10470487 0.007570236
000170 a3 56 96 3d c6 d5 a2 3c 52 6b 34 3e 3b fa 04 bd
       0.073407434 0.019877326 0.17619064 -0.0324652
000180 81 cf 45 3e ef 95 65 bd 36 5c 39 be f3 cd 4c bd
       0.19317438 -0.05605119 -0.18101582 -0.050001096
000190 a4 7f e0 bb 45 16 0a 3e f4 10 ef bc 0a 40 0a 3e
       -0.0068511534 0.13485058 -0.029182889 0.13500991
0001a0 a4 30 26 3e 58 35 3e 3d 43 01 dd 3c 9f 48 80 bc
       0.16229492 0.04643759 0.02697814 -0.015659628
0001b0 43 db 3d bd 75 d8 a7 3d 63 b5 10 bd 86 a7 f3 bd
       -0.046351682 0.08195583 -0.035329234 -0.11897187
0001c0 4e 72 39 3d 4e f7 04 3e 24 f0 89 bc 5e 23 39 bd
       0.045275025 0.12984964 -0.01683814 -0.045199744
0001d0 8d 38 58 3d fa c9 1a 3e d1 5d 14 be d5 02 e7 bd
       0.052788306 0.1511611 -0.14488913 -0.11279837
0001e0 35 e5 40 3e 79 7b ae 3a 22 1d e8 bd cf 96 25 be
       0.18837436 0.0013311944 -0.11333682 -0.1617081
0001f0 31 31 70 bc fe ae 9b bd f7 44 33 be 3b 7e be bc
       -0.014660166 -0.076017365 -0.17506777 -0.02325355
000200 81 6e a7 3d 0d 9d 67 3d 3b 0c e7 bd eb 99 92 3d
       0.08175374 0.05654626 -0.1128163 0.07158264
000210 9d 0e bf bb 78 7f 1d be 57 2a 2c bb 58 dc 5d bd
       -0.0058305995 -0.15380657 -0.0026270354 -0.054165214
000220 e4 04 2a be dd b4 05 be 4a b2 e2 3c 54 28 c4 bd
       -0.16603428 -0.13057275 0.027672905 -0.095780045
000230 f8 7a 0c be 1f 48 99 bb fe dd f2 bd e1 0c e3 bd
       -0.13718784 -0.004677787 -0.11858748 -0.11086441
000240 45 b5 85 bd 14 15 a4 3d c9 95 5d 3c fe df 7b bb
       -0.06528715 0.08011833 0.013524481 -0.003843307
000250 34 4c 2b be 7c 15 a4 3b f8 0a 79 bd 44 25 b0 3d
       -0.16728288 0.005007444 -0.060801476 0.08600858
000260 20 2a 59 bd 64 c7 1c 3e b4 82 81 3d c4 71 22 3d
       -0.05301869 0.15310436 0.06323758 0.039659277
000270 fe 37 dc 3d 29 1c 9a bd 1c 6c 09 be df d3 21 3d
       0.10752867 -0.075249024 -0.13420147 0.039508697
000280 23 0b f7 bd 4b 0a 03 bc 47 c3 20 be 14 35 fb 3d
       -0.12062671 -0.0079980595 -0.15699492 0.12265983
000290 c9 06 19 3e ae d7 0a 3e 7d c6 ce 3d 18 bf 34 be
       0.14943995 0.13558838 0.100964524 -0.17651021
0002a0 0d 6c d2 bd 27 94 ac bd 96 c4 27 bb b1 70 0f bd
       -0.10274515 -0.08426695 -0.0025599352 -0.03501958
0002b0 32 df df 3d 96 3f 70 3d 57 de e5 3d 7e b5 b0 3d
       0.10931243 0.05865439 0.112240486 0.08628367
0002c0 02 b0 18 be 83 c5 2c bd 66 55 0c 3d 7c b1 2d be
       -0.14910892 -0.04218055 0.03426113 -0.16962236
0002d0 a4 cc 98 3d e3 61 99 bd df 95 0b 3d d9 a9 02 3e
       0.07460907 -0.074893735 0.034078475 0.12760104
0002e0 b3 a2 d0 3d ae 22 28 be 5d 37 04 3d fe 8d d5 bd
       0.101872824 -0.16419479 0.03227936 -0.104274735
0002f0 a1 25 22 3e f5 e5 f9 3d 4b 7f 36 3e 5f 35 75 3d
       0.15834667 0.12202064 0.17821996 0.05986535
000300 b4 1b 92 3d 46 c0 dc bc 9d 95 9e 3c f3 65 12 be
       0.0713419 -0.026947152 0.01935845 -0.14296703
000310 bc 7d 01 be 08 56 b5 bd 52 8f 71 3d 64 71 ff bd
       -0.1264562 -0.088543 0.05897457 -0.124727994
000320 83 cd 20 be 03 c8 e4 bd 68 a4 45 3e 63 ea a7 bd
       -0.15703396 -0.11170962 0.19300997 -0.081990026
000330 fe 9d 10 be 9b db 91 3d fd e5 43 be 95 8e 07 3e
       -0.14122769 0.071219645 -0.19130702 0.13237984
000340 98 f8 fb 3d bb 94 97 bc 53 c6 c4 3b 36 0c 8c 3d
       0.12303275 -0.018503537 0.0060050874 0.068382666
000350 06 5a 2c bd 53 94 b7 3c 15 9c e2 bd 68 37 74 3d
       -0.04207804 0.022409594 -0.110649265 0.059623152
000360 4f 9e 92 3d de f2 06 3e af 5a 8d bd c1 af d4 3d
       0.07159101 0.13178584 -0.06902062 0.10385085
000370 17 8c e4 bd 75 49 04 3e 60 52 97 3d 7b 72 85 3d
       -0.111595325 0.12918647 0.07388759 0.06515976
000380 9f 76 b8 bd 0e e3 31 be 6f 2b 2a be 5b 36 13 be
       -0.09007 -0.1737177 -0.16618131 -0.14376204
000390 05 f3 1b bd ad 99 1d 3d 29 34 97 bd df 29 87 bd
       -0.03807356 0.038476635 -0.07382996 -0.06599783
0003a0 21 f0 11 3e 64 44 ac 3d 23 4c 15 be 3d fc 9d 3d
       0.14251758 0.08411482 -0.14579825 0.07714126
0003b0 ae 98 fa 3d c4 97 a7 bd 12 65 34 3e 06 f1 ad 3c
       0.122361526 -0.08183244 0.1761668 0.021233093
0003c0 a3 44 21 bc 11 9c 07 3e ca 63 98 bd 7e 8b a8 3d
       -0.009843024 0.13243128 -0.07440908 0.08229731
0003d0 7e da 02 3c 61 4a e4 bd e2 9b cf 3d 1a 9e 18 be
       0.007986663 -0.11146999 0.10137154 -0.14904061
0003e0 e1 62 14 3e f7 b8 5f 3d 20 ad fe bd 21 02 70 bd
       0.14490844 0.054619756 -0.12435365 -0.05859578
0003f0 0b d8 48 3e 90 27 4c 3e 2a ea 19 3d d5 ca 1b 3e
       0.19613664 0.19936967 0.037576832 0.15214093

encoder.4.bias f4 [10]
000000 f0 25 87 bd 0f 0d 97 bd 75 ec 19 3d 6b 18 40 bd
       -0.06599033 -0.073755376 0.03757902 -0.046898287
000010 b2 d7 95 3d 1e 29 1b 3e d7 b2 fe bd dd 87 ba bd
       0.07316531 0.15152404 -0.12436455 -0.09107945
000020 7d 56 80 bd 06 a2 e4 bc
       -0.06266496 -0.02790929

encoder.6.weight f4 [1, 10]
000000 cb 45 a0 be 5c 31 dd bc b5 45 a4 3e 8f fd 68 3e
       -0.31303248 -0.027001075 0.32084432 0.22752975
000010 77 66 f7 bd e4 55 6a bb b9 6a 3f 3e 45 78 06 3d
       -0.120800905 -0.0035756761 0.18693055 0.03282954
000020 4c 37 aa be 0f c6 4f be
       -0.33245313 -0.20290397

decoder.0.weight f4 [10, 1]
000000 ad 40 b5 3e 22 e2 3e bf 8d cc d1 3e df 41 65 3f
       0.35400906 -0.745638 0.40976372 0.89553636
000010 bc 57 31 bf aa 21 dd be 44 87 f1 3e 2f 0e 6a 3f
       -0.692745 -0.43189746 0.47173512 0.9142789
000020 ee fa 7e 3e 1e b7 23 bf
       0.2490041 -0.6395129

decoder.0.bias f4 [10]
000000 83 02 7f 3f 4d ec 4c be 9d 2f d3 3d 7b ad b5 3b
       0.9961321 -0.20012017 0.10311816 0.005544362
000010 d1 9c 92 3e e5 00 fd be df a5 91 39 82 7a 40 bf
       0.28635266 -0.49414745 0.0002778014 -0.7518693
000020 9e b2 32 bf 0a 05 41 bf
       -0.698038 -0.75398314

decoder.2.weight f4 [30, 10]
000000 7d 60 88 3d 7d 5b 29 be c8 2d 30 be c5 8a 7a 3e
       0.06659029 -0.16538806 -0.17204964 0.24466999
000010 88 11 18 be d5 0a 89 bd ff cc 2a 3a 02 86 60 be
       -0.14850438 -0.06691519 0.0006515532 -0.2192612
000020 c3 6d c3 3b dd ca 2e 3d b5 c9 81 3d da 7d ed 3d
       0.0059640124 0.042673934 0.06337301 0.1159627
000030 97 72 2f bd 21 9d a9 be 09 e5 01 3e 15 23 a3 3e
       -0.04283389 -0.33127692 0.12685026 0.31862703
000040 58 68 06 be 85 be 4b 3e f7 7a 8d 3e 45 a7 42 be
       -0.13125741 0.19896896 0.27632877 -0.19009121
000050 2e 69 72 be 19 1a a4 be 25 20 0e 3d 78 97 27 3e
       -0.23672935 -0.3205116 0.034698624 0.16366374
000060 32 7f a5 be 3e bc a0 3e fe ed 57 be 40 ec e8 bd
       -0.32323605 0.31393617 -0.2108688 -0.11373186
000070 0a 47 73 3d 9a ed cd bc 56 91 95 3e ae 18 8a be
       0.05939392 -0.025137711 0.29212445 -0.26971954
000080 a1 7d 1d 3e 7e 5f aa 3d 23 09 61 3d 08 8c 0f bd
       0.15379955 0.08318995 0.054940354 -0.035045654
000090 5d a4 1f 3e 50 b4 27 bd 75 91 67 3c 58 a2 31 3e
       0.15590043 -0.040943444 0.014133801 0.17347085
0000a0 b7 0f fb bc cf d9 6a 3e 31 e0 a3 3d 9d 11 91 be
       -0.030647142 0.2293465 0.080017455 -0.2833375
0000b0 c1 0a bc 3d 6e 57 d8 3d ad 2d 9b 3e 0e 0e fa bd
       0.09181739 0.10563551 0.30308285 -0.12209712
0000c0 2f a9 f4 bd d7 f7 76 3e 81 57 20 3e 03 7b a5 3e
       -0.11946332 0.24117981 0.1565838 0.32320413
0000d0 5f 41 9f 3b 73 85 f8 3d b6 02 7d be fd 60 91 3e
       0.0048600878 0.121348284 -0.24708065 0.2839431
0000e0 9e 56 da bd fa 39 b9 be 4c 8f 02 be cd 4f 15 be
       -0.10661052 -0.36177045 -0.12749976 -0.14581223
0000f0 a3 af 98 3e 26 bf 0d 3e d9 98 9f 3e ec 46 33 be
       0.298215 0.13842449 0.311713 -0.17507523
000100 04 b6 23 3e 2e 4d 4e bd 5d 94 69 bc 80 40 2b 3c
       0.15987402 -0.050366573 -0.014256564 0.01045239
000110 54 60 ba 3c 5f 7d 9e 3e d3 3c ba bc 05 39 02 bd
       0.022751011 0.30955026 -0.022734081 -0.03179266
000120 8a 5d 4c 3e 73 17 57 3e 59 b2 e3 3d b3 7f 1a 3e
       0.19957557 0.21005039 0.111180015 0.15087776
000130 aa b4 ad 3e 27 39 98 3e d1 66 a6 bd 3f 79 1f 3e
       0.33926898 0.29731104 -0.081250794 0.15573595
000140 04 25 0c bd a0 84 7a be 90 b6 89 be 02 34 89 3e
       -0.03421499 -0.24464655 -0.26897097 0.2679749
000150 87 83 18 be 34 0c b8 bd 2b 7b 84 be df 34 be bd
       -0.14893924 -0.089867026 -0.2587522 -0.09287428
000160 2d 3e aa 3e 95 e0 96 be 64 83 e1 bd 82 9d f2 bc
       0.3325056 -0.29468217 -0.11011389 -0.029616121
000170 26 ac 15 be 00 1b 53 3e c2 e0 b3 3d 42 c0 21 be
       -0.1461645 0.20615768 0.087831035 -0.15795997
000180 54 81 02 be 25 70 ce 3d 44 9d a6 bd 72 e5 02 be
       -0.12744647 0.100799836 -0.08135465 -0.12782839
000190 b5 60 43 3e 3c 6e 3b be bd 36 94 be ca 01 87 be
       0.1907986 -0.1830377 -0.28948012 -0.26368552
0001a0 d6 d5 81 3d f9 e3 59 3c 3b 26 6f 3e d2 ca 9a 3e
       0.06339614 0.013298982 0.23354428 0.30232865
0001b0 86 5f 7c 3d d8 d1 5a 3d c6 57 f2 ba b4 37 04 bd
       0.061614536 0.05342278 -0.0018489293 -0.032279685
0001c0 01 63 3f 3e a4 cc c4 3b cd 64 48 be be 06 96 3d
       0.1869011 0.0060058404 -0.19569702 0.07325505
0001d0 d9 ba 3d 3d ea 7b 98 be 3b 3d 03 be 07 76 e5 bd
       0.04632077 -0.2978204 -0.12816326 -0.112041526
0001e0 bc 9f aa bd 5c 9d 7a 3e 11 e4 df bd 5e ac aa 3e
       -0.08331248 0.2447409 -0.10932172 0.3333463
0001f0 e0 c1 be 3d 59 4f e0 bd 0e 8a f3 bb e5 10 a5 bd
       0.093143225 -0.10952634 -0.007432229 -0.08059863
000200 91 a4 4a be b7 04 bf 3d 64 20 52 3e 98 01 94 bd
       -0.1978934 0.09327071 0.20520169 -0.072268665
000210 9d 6e 43 be 79 40 9b be 4c a4 5c 3e 5b 03 65 bd
       -0.19085164 -0.30322626 0.2154705 -0.055911403
000220 30 a4 21 3e 4d 98 8c 3e c9 48 ee 3c 0e da f0 bd
       0.15785289 0.27459946 0.029087441 -0.11760341
000230 a3 d9 74 3e bc 2f 66 3e fd f1 5a be ff 73 96 be
       0.23911147 0.22479147 -0.21381374 -0.29385373
000240 35 54 85 3c 0d 92 29 3e 3f 60 21 bd e8 17 cf 3a
       0.016275505 0.1655962 -0.039398428 0.0015799971
000250 9c 57 2e be e9 03 6a be 87 37 87 3e f9 a2 9c 3e
       -0.17025608 -0.22853054 0.26409552 0.30593088
000260 10 47 40 be 78 15 62 3e 5f db ad bd 58 60 80 be
       -0.18777108 0.22078502 -0.08489107 -0.25073504
000270 7f ef 2c 3e e0 ca 65 3d 11 98 7f 3d 89 38 9a be
       0.16888236 0.05610168 0.06240088 -0.30121258
000280 05 1c 81 be 03 7a 3c 3e 15 ae a3 bd fe c8 8b be
       -0.2521669 0.18405919 -0.07992188 -0.27301782
000290 ab 32 3b bd 5b 9e 84 3c 53 da 8c be e3 08 75 be
       -0.045702618 0.016188791 -0.27510318 -0.23929171
0002a0 75 61 95 3e 57 a4 83 3d fd 2e b6 bd 16 8f 37 3e
       0.29175916 0.0642783 -0.08895681 0.17925677
0002b0 a6 2e aa be 87 80 6f be 9e 60 03 3e 8d 24 2e be
       -0.33238715 -0.23388873 0.12829825 -0.1700613
0002c0 fd ae 83 bd 90 1a b1 be 69 a3 0f be 50 85 01 be
       -0.06429861 -0.34590578 -0.1402718 -0.12648511
0002d0 05 11 09 bd a3 e2 3f 3c 8d ba 72 be 1b c3 92 3d
       -0.033463497 0.011711749 -0.23703976 0.0716612
0002e0 72 10 71 3d 47 f1 d3 3d 5e ef e0 3d f1 20 3b be
       0.058853574 0.103487544 0.10983156 -0.18274285
0002f0 45 38 b0 3d 51 ba df 3c 86 d4 e3 3d 6e c7 87 3e
       0.086044826 0.027310522 0.1112452 0.2651934
000300 c4 89 c0 3c 31 94 85 3d da c8 0b bd f7 4e 2f be
       0.023503192 0.06522406 -0.034127094 -0.17119966
000310 07 4f a5 3e 93 2d 68 bd cf f9 bf bd f7 b9 c3 3d
       0.32286856 -0.056684088 -0.09373819 0.09556954
000320 c7 85 8b be ba 01 6f 3e f3 76 99 3e e4 5c 35 3e
       -0.27250502 0.23340502 0.29973564 0.17711216
000330 c5 a9 43 3d c4 12 b7 bd 51 77 d7 3d 90 89 10 3e
       0.047769327 -0.08939126 0.10520805 0.14114976
000340 cc e5 9a be 82 00 8b be ca e7 68 be bb 22 5e 3e
       -0.30253446 -0.27148825 -0.2274467 0.21692936
000350 19 3d c4 bd 80 37 6e 3e 79 40 a0 bd ab f6 e3 bd
       -0.09581966 0.23263359 -0.07824797 -0.111310326
000360 d1 50 a9 bd fc a6 3d be 1b aa 69 be 38 9a 3e bd
       -0.08267368 -0.1852073 -0.22818796 -0.046533793
000370 f9 6e 8e be e8 1d 35 3d 03 ee 2f bd ab 32 4a 3e
       -0.2781904 0.044217974 -0.042951595 0.19745891
000380 62 01 1e 3b 23 9a db bd 7b 61 90 3e 2f 96 18 3e
       0.002410971 -0.107227586 0.28199372 0.1490104
000390 54 47 01 3e 77 c0 0b 3d 1c b5 46 3e 40 74 4b 3c
       0.12624866 0.034119096 0.19405025 0.012417853
0003a0 f6 f6 32 be 82 0d c2 3d 7d 1b 30 3d 9e 91 8c 3d
       -0.1747702 0.09475233 0.042994965 0.06863712
0003b0 61 26 5d bd 7c 0e 58 be 34 e4 71 3d 55 10 96 be
       -0.05399168 -0.21099275 0.059055522 -0.29309335
0003c0 f9 81 b1 bd 2b 86 8d be 6a 2a 1a 3e c2 fd 13 3e
       -0.086673684 -0.27641425 0.15055242 0.1445227
0003d0 84 a5 cc bc b2 eb 37 bd 36 9f 3c 3e c8 f4 9c 3e
       -0.024981268 -0.04490251 0.18420109 0.30655503
0003e0 9d d3 5e 3e ca f5 b9 3d 60 da 98 bd 5a 89 a5 3d
       0.21760412 0.09080084 -0.07463527 0.08082838
0003f0 6d 08 66 be 10 0a bc bd 76 ba a3 3e 4b 6d 72 be
       -0.22464152 -0.09181607 0.31978196 -0.23674504

decoder.2.bias f4 [30]
000000 6e 12 47 3e fb 2b a0 bc 3a ac e9 bc b5 64 0d be
       0.19440624 -0.019552222 -0.028524507 -0.13807948
000010 96 97 a0 3e df 8c 3b be 05 64 57 3e a0 4c 32 3d
       0.3136565 -0.18315457 0.21034248 0.043530107
000020 61 98 49 be 22 f9 ba 3d ae da 8c be 6a 77 19 bd
       -0.19687034 0.091295496 -0.2751059 -0.037467398
000030 64 6b fb 3c b8 bb 98 3e 49 77 90 be 6a 1a 66 3e
       0.030690856 0.29830718 -0.28216007 0.22471014
000040 69 17 0d 3d d1 4d 8b bd 35 de 85 be 41 e4 37 3e
       0.034446154 -0.06801952 -0.26146093 0.17958166
000050 19 b4 b8 bd a8 e2 95 be c3 e4 20 be 97 93 5c 3e
       -0.09018726 -0.29274487 -0.15712266 0.21540676
000060 73 09 a0 bd 5a 7b 0e be bd 90 6d 3d b6 90 35 be
       -0.07814302 -0.13914242 0.05799936 -0.17730984
000070 b8 b5 63 be a4 ae 23 be
       -0.22237289 -0.15984589

decoder.4.weight f4 [60, 30]
000000 98 9e ea 3c 33 b6 09 be 3e 92 24 3e dc 3f fe bb
       0.028640077 -0.1344841 0.16071412 -0.0077590775
000010 21 55 15 3e 8b cb d5 b9 75 e9 88 3c 17 bd 1f 3e
       0.14583255 -0.00040778177 0.016712883 0.15599476
000020 18 35 b9 bd 1d 75 96 bc 87 1f 37 be a9 f8 48 3d
       -0.0904333 -0.01836639 -0.1788312 0.049065266
000030 71 fe b2 bd 35 c9 47 bd af 3b c8 3d 14 e1 7a 3c
       -0.08739937 -0.04877587 0.09777009 0.015312452
000040 49 94 61 bd 02 07 b4 bd 61 c5 16 be 02 f3 08 bd
       -0.055073056 -0.08790399 -0.14723732 -0.033434875
000050 43 2d 35 3e 63 48 05 be 62 77 e7 3d 5d a4 2c 3e
       0.17693047 -0.13015895 0.11302067 0.16859575
000060 97 b7 08 be 76 a9 0d bd 2a ee e1 bd cd 61 9d 3d
       -0.13351284 -0.03458544 -0.11031754 0.0768467
000070 34 ff 03 be 0b 7f 71 3d 08 85 2d bd 76 b1 ac bd
       -0.12890321 0.05895905 -0.042363197 -0.084322855
000080 0e 93 b9 bd 4e b9 32 be 37 d9 14 be 11 85 22 3c
       -0.090612516 -0.174535 -0.14535986 0.009919421
000090 26 2e 2c be 3c b6 6b 3d c4 5e ef bd 89 f4 01 be
       -0.16814479 0.05754684 -0.11687997 -0.12690939
0000a0 18 56 13 be e0 b5 43 3d f2 c9 b2 3c 72 40 a5 3c
       -0.14388311 0.04778087 0.02182481 0.020172331
0000b0 69 4e ec 3d 0b 19 3f bd 35 a1 b1 bd e7 97 dc 3c
       0.11538393 -0.046654742 -0.08673326 0.026927901
0000c0 b9 06 0a 3e 61 0c 63 bd ea b5 a3 bc 24 95 30 bd
       0.13479127 -0.055431727 -0.019984204 -0.04311098
0000d0 fc a8 50 bc c8 dd 2c be 0f 3a ed 3d 8e 7d 31 3e
       -0.0127356015 -0.16881478 0.115833394 0.17333052
0000e0 e1 e0 05 3e 80 1a 07 3d 89 72 84 3d dc 3a c5 bd
       0.13074066 0.032984257 0.06467158 -0.09630367
0000f0 fe f7 16 3e a2 94 84 3d c5 a5 42 bd ea 74 1b be
       0.14743039 0.06473662 -0.04752137 -0.15181318
000100 91 7f aa 3d 5e 29 e7 3c f8 d4 05 3e 11 65 15 bd
       0.083251126 0.028217968 0.13069522 -0.036473338
000110 fc 67 94 3d 55 c5 08 3e 4a 51 3f 3c e6 b6 1c be
       0.07246396 0.13356526 0.011677096 -0.15304145
000120 02 13 dc 3d b6 a7 42 3d 9d 4a 84 3c 90 60 8e 3b
       0.10745813 0.047523223 0.01614886 0.0043450072
000130 b2 30 ee 3d fa 14 85 bd e5 00 0a 3e 0d 9d 11 3e
       0.11630382 -0.064981416 0.13476904 0.14220066
000140 1e 2d a0 3d 7f 62 1f 3d 52 5b 2f 3d 19 fd a0 bd
       0.078211054 0.038912293 0.0428117 -0.078607745
000150 ba 2e cb 3d d5 b6 14 3e fa 2d a2 3d 14 ff 05 be
       0.09921022 0.1452287 0.079189256 -0.13085586
000160 1d 56 af 3d b9 90 82 bd 5a ca 74 3d 68 92 a2 3d
       0.08561347 -0.0637526 0.05976329 0.07938081
000170 9b 0b b4 3d 4e 47 cb 3a f9 98 9e bc e8 36 da bc
       0.08791276 0.0015508921 -0.019360052 -0.02663751
000180 2f b2 8f 3d 2a f7 35 3d 0d 9c a9 3d e4 6a 52 bd
       0.07016408 0.044425167 0.082817174 -0.05137147
000190 44 d3 89 bd 16 51 01 be 31 87 59 3e 4a 8c dc 3d
       -0.06729749 -0.12628588 0.21242978 0.107689455
0001a0 ab 3f 40 bc e8 2b a5 bc 8e ea f5 bc 0f a6 58 3e
       -0.01173393 -0.020162538 -0.030019071 0.21157096
0001b0 f7 94 40 be 95 8d 07 be ce 7b 60 bc 5f 50 17 3e
       -0.18806826 -0.13237603 -0.013701392 0.14776753
0001c0 fa 5b ed 3c 68 27 18 be 94 12 61 be 70 67 03 3d
       0.028974522 -0.14858782 -0.21979743 0.032081068
0001d0 40 02 96 bd d7 55 f3 bd 70 49 81 3d b5 a0 0f 3e
       -0.07324648 -0.11881607 0.06312835 0.14026149
0001e0 41 06 b0 3d bc a2 b9 3d 33 f0 ee bd 45 7b cf 3d
       0.08594943 0.09064242 -0.11666908 0.10130934
0001f0 1b 47 89 bd 43 fe 4f 3e 3f de 1d 3e 5a 05 76 bd
       -0.067030154 0.20311837 0.15416811 -0.060063697
000200 aa a4 7c bd ca f3 a2 bd 2a 09 99 bd 59 db d7 3d
       -0.061680473 -0.07956655 -0.07472451 0.10539884
000210 7c 78 e0 bd 01 ef cf bd 63 cc 0a 3e e1 41 39 3b
       -0.109604806 -0.10153008 0.1355453 0.0028268027
000220 b8 1b 25 3e c4 2b 67 3e 89 34 c6 bd d1 a3 1d 3e
       0.16123855 0.22575289 -0.09677989 0.15394522
000230 20 ce e5 3c 1d c2 b9 bb 03 84 0b 3e c7 66 20 be
       0.02805239 -0.005668892 0.13624577 -0.15664206
000240 a2 2b eb 3d ea 79 13 be ae 16 c5 bd cc dd 48 3d
       0.11482932 -0.14401975 -0.096234664 0.049039647
000250 5b ac 46 be a9 1c eb bd b1 3d a4 3d e1 80 9e bd
       -0.19401686 -0.11480076 0.08019579 -0.077394255
000260 d7 69 3b be 47 aa f7 3d 4e 15 f5 bd 89 01 ab 3d
       -0.18302093 0.12093025 -0.11966954 0.08349902
000270 d4 7c 15 be 4c b2 48 be 61 fb 08 be 5c f8 ac bd
       -0.145984 -0.19599265 -0.13377143 -0.08445808
000280 23 e8 0f be 48 67 2a 3e c7 98 d7 bd 66 8c 34 3e
       -0.14053397 0.16640961 -0.10527187 0.17631683
000290 c9 31 8b 3d ee 32 ec 3d 62 86 b4 bd 7c 43 5f bd
       0.06796605 0.115331516 -0.08814694 -0.054507717
0002a0 04 95 ea 3d f1 0a 02 be af 2c 07 3e c4 11 fd 3d
       0.11454204 -0.12699486 0.13200639 0.12356904
0002b0 01 bd 04 be 1f 6a 41 3e c3 05 f5 3c ba 92 97 bd
       -0.12962724 0.18888138 0.029909974 -0.07401033
0002c0 71 de dd 3c d2 2a 45 be 35 3d 11 3e 5c 87 04 3e
       0.027083607 -0.19254616 0.14183505 0.1294226
0002d0 15 28 ab 3d 21 0a d5 3d c5 bb 93 bd 58 9c 9f bd
       0.083572544 0.104023226 -0.072135486 -0.07793492
0002e0 2f 46 89 3d 16 c4 df 3d 31 30 62 3e 62 8f 30 be
       0.067028396 0.10926072 0.22088696 -0.17242196
0002f0 fc 29 b1 bd 5f c7 c0 bd 66 35 71 bc 06 44 36 3e
       -0.08650586 -0.09413027 -0.014722204 0.17799386
000300 ed 04 52 3d 2d 78 3a 3e 72 a1 8d bd 35 86 18 3d
       0.05127423 0.18209906 -0.06915559 0.037237365
000310 ec 6c 49 3d 2b 45 93 bd d3 94 34 3d ce c9 a7 3d
       0.04917614 -0.07190927 0.044087242 0.08192788
000320 25 98 77 3d 75 f8 5a 3d bc 3e ab bd 2b 63 29 3e
       0.06044783 0.053459603 -0.08361575 0.16541736
000330 23 70 41 be fa fe 2a 3e 94 ea 8d 3d 99 0a 00 3e
       -0.18890433 0.16698828 0.06929508 0.12504043
000340 f0 09 bd 3d 04 85 10 bd d7 62 d1 3d 7d 84 3d 3d
       0.09230411 -0.035283104 0.1022393 0.04626893
000350 14 e9 dd bd db 96 31 3d bd 26 84 3d 01 93 37 be
       -0.10835472 0.043356758 0.06452701 -0.17927171
000360 83 c9 ff 3d 09 b6 22 3e 30 2f 49 bd 3a c0 38 be
       0.12489607 0.15889753 -0.049117267 -0.18042079
000370 59 8e 37 3e bc c6 3d bd d0 cd 05 3e f5 99 91 bd
       0.17925395 -0.046332106 0.13066792 -0.07109443
000380 17 8e 43 be 85 7d 23 be 5e f3 1c bc be c1 0f be
       -0.19097172 -0.1596585 -0.009579508 -0.1403875
000390 9e a5 50 bd 12 eb 15 be 09 48 f6 bd a8 ff 04 be
       -0.050939195 -0.14640453 -0.12025458 -0.1298815
0003a0 6b 19 2f 3d c2 90 f3 bd bc 3a e2 3d 2c d9 d8 3b
       0.04274885 -0.11892845 0.11046359 0.006617686
0003b0 30 cf 36 3e ab 13 a9 3d de ec 3b 3d 0d 83 10 3e
       0.17852473 0.082557045 0.04588019 0.14112492
0003c0 2c 37 3d 3d 36 be 09 be 7a 48 14 bd 18 11 13 be
       0.046195194 -0.13451466 -0.03620193 -0.1436199
0003d0 c1 d6 fb 3d 77 c6 81 bc d8 c6 1b 3e ef 7d c9 bc
       0.122968204 -0.015841706 0.15212572 -0.024596183
0003e0 2f 99 3b be 06 c7 2c be 3e 6e 22 be e5 82 84 3c
       -0.18320154 -0.16872796 -0.15862367 0.016175697
0003f0 6a ef 40 bb 03 db df 3d 6f 5c af bd 53 6c 02 3e
       -0.0029439577 0.10930445 -0.08562552 0.12736635

decoder.4.bias f4 [60]
000000 60 75 be bd 48 11 e2 3d 16 d7 1e 3e 61 12 b1 3d
       -0.09299731 0.110384524 0.15511736 0.086460836
000010 9c eb 1f 3e 8a 66 08 be bc 49 8d 3d a7 45 9f 3d
       0.15617222 -0.13320366 0.06898829 0.07776957
000020 c9 2b 23 be c9 42 8f 3c 39 d6 e3 3d 03 a0 45 3d
       -0.15934671 0.0174879 0.11124844 0.048248302
000030 99 ce 3f 3e 09 93 d3 bd d8 5f a5 bd dd e8 10 3e
       0.18731155 -0.10330779 -0.08074921 0.1415133
000040 13 f5 05 be 9b 8f 07 be d4 c0 27 be fe c1 18 3e
       -0.1308177 -0.13238375 -0.16382152 0.14917752
000050 26 42 48 3e 75 91 07 3e 91 b2 96 bd 9c 29 92 bc
       0.19556484 0.13239081 -0.073582776 -0.017842107
000060 20 5f 38 3e e8 b0 0b 3d f4 6e 3d 3d 62 97 1e 3e
       0.18005037 0.034104258 0.04624839 0.15487435
000070 52 3e fb 3d ad 2a 48 3d 40 00 d7 bd 89 b6 16 be
       0.12267746 0.048868824 -0.104980946 -0.14718069
000080 05 c2 12 bd 97 cb 76 bc 7a a9 17 3e 55 d7 c1 bd
       -0.035829563 -0.015063188 0.14810744 -0.094648995
000090 03 f7 98 bd d4 4b 26 bd da e6 a8 bd 61 0f 43 3d
       -0.07468989 -0.04059966 -0.082471564 0.04762209
0000a0 6d 2a 28 bd ea 50 9e 3d 20 22 04 3e fd 85 25 3e
       -0.041056085 0.07730277 0.12903643 0.16164394
0000b0 af fa 89 bb 89 e7 c7 bd f2 56 9b 3d 9b 38 09 3e
       -0.004210792 -0.09760959 0.07584943 0.134005
0000c0 17 74 08 bd 00 0a 29 3d 69 ee ad 3d 21 1a f6 bd
       -0.033313837 0.041269302 0.08492739 -0.120167024
0000d0 83 37 bf bd ff 03 03 be 14 43 00 3d 4f 82 b0 3d
       -0.0933676 -0.12794493 0.03131397 0.086186044
0000e0 4b 0d 35 3e b5 c2 1c 3d 4f ca 25 be cd bd b0 3d
       0.17680852 0.038271625 -0.16190456 0.086299516

decoder.6.weight f4 [118, 60]
000000 75 20 44 3d c9 36 b6 3d 39 81 83 3d 43 74 9a 3b
       0.047882516 0.08897168 0.06421132 0.0047135665
000010 e1 8d b6 bd 1d 93 bf 3a 6f 97 b8 bc bd 9c 95 3d
       -0.0891378 0.0014615987 -0.022533147 0.07305286
000020 71 3e 9d 3c 6f 63 53 bd b2 9f 2c be cb be 73 bd
       0.019194813 -0.0516085 -0.16857794 -0.059508126
000030 7f db e3 bc 4e d0 e0 3c f3 72 17 3e b9 73 df bd
       -0.027814625 0.027443077 0.14789943 -0.10910744
000040 a8 7f 73 3c f6 80 81 bc 6e 85 1a 3e af 0a e3 bc
       0.014861979 -0.015808564 0.15089962 -0.027715055
000050 1c 6a 25 be cc 4c 4f 3d da f6 c2 3a be d8 cb 3d
       -0.16153759 0.05061035 0.0014874593 0.0995345
000060 91 1d 26 be 9c 2f 30 be 38 41 16 3d 5a 04 13 be
       -0.16222216 -0.17205662 0.03668329 -0.14357129
000070 16 e2 04 bd 44 d9 f4 bc 5a 50 91 3d d9 c8 28 3d
       -0.032442175 -0.029888757 0.07095404 0.04120717
000080 3c de 51 bd 3a 92 8a bc 3a 5c 25 bd 15 07 9b bd
       -0.05123733 -0.01691543 -0.040371157 -0.0756971
000090 21 eb e9 bd da fe 2b bd d3 cc ad 3c da 1d f4 bb
       -0.114218004 -0.041991092 0.021215832 -0.0074498476
0000a0 69 a8 5a bd 5c f0 4b 3c b7 e0 d6 bd 73 13 d3 bd
       -0.053383265 0.012447443 -0.1049208 -0.10306444
0000b0 c0 ec 9e 3d 04 f6 0c 3e e9 23 fd bd 5f c4 80 bc
       0.0776 0.13765723 -0.12360365 -0.015718637
0000c0 14 d0 60 3d fb 8a 09 3e 0f 42 14 3d 58 40 a3 bd
       0.05488594 0.13431923 0.03619581 -0.07971257
0000d0 89 46 19 be 1c f1 e8 ba 4c 24 3f 3c fb 12 0d 3b
       -0.14968313 -0.0017772052 0.011666369 0.0021526206
0000e0 5f eb 81 3d d5 ee 07 bd 19 eb b6 bd 51 5c 03 be
       0.063437216 -0.033186752 -0.0893156 -0.12828185
0000f0 d5 85 0e 3e 09 27 d9 bd 9e 77 83 3b c1 65 cd bd
       0.1391824 -0.106031485 0.004012062 -0.10029174
000100 55 d4 c6 3d 3d ee 81 3c 83 60 03 3e 36 af 06 be
       0.09708468 0.015860671 0.12829785 -0.13152775
000110 1c b5 a6 3d fb ae e5 3d 6d 0a 13 be b2 76 90 3c
       0.081400126 0.112150155 -0.14359446 0.017634723
000120 1c 17 2a 3c 74 a5 bf bd 4f 83 e1 bc 18 82 a5 bc
       0.010381486 -0.093577296 -0.027528433 -0.020203635
000130 55 15 22 3d 03 ec 05 3d 86 99 03 bd 38 34 9c 3d
       0.039571125 0.03269578 -0.032128833 0.076271474
000140 c1 18 88 3d 77 e4 b8 3d 2b 2b 04 3d 23 eb 05 be
       0.066453464 0.09027951 0.03226773 -0.13077979
000150 2d f4 c6 3d 9f 2f 96 bd 8b 6a 0a bd d4 9b 57 3d
       0.097145416 -0.07333302 -0.033793014 0.052638844
000160 07 25 1c 3d ae ac f0 bd 9d 34 9c bd c8 dd e4 3c
       0.03812125 -0.11751686 -0.07627223 0.027937785
000170 3b 98 73 3d 2f a1 80 bd 64 26 01 3e b1 5f 97 3d
       0.05947135 -0.06280743 0.12612301 0.073912986
000180 5a 8d 18 be 54 db 41 bd bf f7 a0 3d 5e 22 ec bc
       -0.14897671 -0.04732831 0.07859754 -0.028824981
000190 72 18 96 bd e4 21 e3 bc 14 53 dd 3c 09 90 09 bd
       -0.07328881 -0.027726121 0.027017154 -0.03358463
0001a0 65 45 8e bd 01 04 bd 3c 4d b4 88 3d e3 a8 f0 3d
       -0.0694683 0.023073198 0.06675015 0.117509626
0001b0 20 b0 54 3d 22 c4 31 3d 77 65 56 3d 25 3a 02 3e
       0.05192578 0.043399937 0.05234286 0.12717493
0001c0 3c b1 02 be 57 e1 0c bd 1f cc 86 bd 83 c0 4d bd
       -0.12762922 -0.03439459 -0.06581902 -0.05023242
0001d0 7e 22 a7 3d 88 c3 d1 3d f3 ca 9a bd cc 0c 74 bd
       0.08160876 0.10242373 -0.07558241 -0.059582517
0001e0 30 9f 73 3d 69 f3 6a 3d 72 c4 42 3d 63 4b 12 3d
       0.059477985 0.05736104 0.047550626 0.035716426
0001f0 45 5d ca bd ce 15 9b 3d 76 db e4 bd c7 06 4f bd
       -0.09881071 0.07572518 -0.11174671 -0.050543573
000200 3b b7 d4 3a 61 0c 3b bb 57 8b 66 3a f7 94 da bd
       0.0016228923 -0.0028541314 0.0008794567 -0.10672944
000210 b4 a5 05 3e ac 03 ae bd 56 25 c9 3a 3a 5f 33 bb
       0.13051492 -0.08496794 0.001534621 -0.0027369992
000220 0c f3 1d bb f0 15 08 bd ce 9a 86 3c 5f c1 04 3d
       -0.0024101166 -0.033224046 0.016431239 0.032410976
000230 8a 58 ac bd 80 70 bb 3d 01 be 8d bc 6b 7d db 3d
       -0.08415325 0.09152317 -0.017302515 0.10717281
000240 64 78 cc bd d4 30 e8 3d f3 cf b1 3d 5a d7 20 bd
       -0.099839 0.11337438 0.08682241 -0.039267875
000250 12 1d 7a 3c a7 cf aa 3d 72 7a e2 bd ec 66 bb 3d
       0.01526572 0.08340388 -0.11058511 0.0915049
000260 ca 72 81 3d ed c1 81 bd 9c 22 86 3d 60 d7 5d 3d
       0.063207224 -0.063358165 0.0654957 0.054160476
000270 cb b2 95 3c 24 17 ba 3d df 0a cf bd f3 7c 9f bc
       0.018273732 0.09086445 -0.10109495 -0.01946876
000280 96 8e 37 3c 85 d9 bb 3d 96 82 97 3d 16 a2 4e bc
       0.011203429 0.09172348 0.07397954 -0.0126118865
000290 a4 0f 84 bd 56 ff 06 be f5 89 ad ba 76 fa 24 bd
       -0.06448296 -0.1318334 -0.0013239967 -0.04027792
0002a0 5f 20 0e bd a3 36 c8 3c 09 c0 9c 3d df 2b 66 3d
       -0.03469884 0.024440115 0.07653815 0.056194182
0002b0 0b 3c a5 3c c2 d3 0d bd ab 08 4d 3d d0 1f a3 3d
       0.020170232 -0.034625776 0.050057095 0.07965052
0002c0 0a 00 1a bd 92 6f e9 bd f1 3e 16 3c 69 25 57 bd
       -0.037597694 -0.113982335 0.00917028 -0.05252591
0002d0 6a 86 df 3d 3e 0e d9 bd 1a bf 8b bd 01 4f 36 3d
       0.10914309 -0.105984196 -0.06823559 0.044508938
0002e0 88 6d b7 bd 4b f0 02 bc 8b 5a 87 3d 28 8b a4 bd
       -0.08956438 -0.007991861 0.066090666 -0.080343544
0002f0 69 2f 4b 3d 34 1d dd 3d 4a 11 cb bd 7f ae e2 3c
       0.04960576 0.10796586 -0.09915407 0.027671097
000300 e0 2e a3 bd 02 b9 9d bd 7f 93 f2 bd f5 61 6e 3d
       -0.07967925 -0.07701303 -0.11844539 0.058198888
000310 ee b7 a0 3d a0 e5 9e bd 4c 7b b9 3d 94 46 6e bd
       0.07847582 -0.07758641 0.0905672 -0.058172777
000320 7a ca 6a 3d 41 0f cf bd 7d 8b 02 3e dd 4c e4 bd
       0.057322003 -0.10110331 0.12748523 -0.11147473
000330 19 34 73 3d 83 88 55 3d 55 d2 15 3d 96 8d f6 3d
       0.059375856 0.05213214 0.03657754 0.12038724
000340 03 6e 6e 3d e4 30 98 3d d1 37 ea bd 5a 2b a5 bd
       0.058210384 0.074312 -0.114364274 -0.08064909
000350 e3 d6 61 bc a0 75 06 3e 8a fa b4 3d 9e 70 03 be
       -0.013784143 0.13130808 0.08836849 -0.12835929
000360 0e c6 94 3d 04 b6 8b 3b a4 60 db bb cd b1 f9 bc
       0.072643384 0.0042636413 -0.00669487 -0.03048029
000370 a7 66 68 3d e2 1f 40 bd 77 12 58 3d 47 5a ad bd
       0.056738522 -0.046905406 0.052751984 -0.08464485
000380 b5 cc 1a bc fa 8c 22 3d 64 4d 06 bd 61 3c f7 3d
       -0.00944822 0.039685227 -0.03278865 0.12072063
000390 38 e8 c1 bd 6f b8 54 3d ae 1b b8 3d 70 67 d2 bc
       -0.0946812 0.051933702 0.089896545 -0.025684088
0003a0 44 ae 50 3d 16 22 f6 bd 99 03 4d bd 06 77 a2 bd
       0.050947443 -0.1201822 -0.05005226 -0.07932858
0003b0 b9 10 14 3d 34 c5 45 bd 90 1b fc bd 02 1f ff bd
       0.03614876 -0.04828377 -0.12309945 -0.12457086
0003c0 2c 55 79 3b 02 7f c5 3d 41 00 e3 3d 67 ff 98 bc
       0.003804515 0.096433654 0.11084033 -0.018676473
0003d0 50 34 fd bc 14 19 9d bd 9c 03 d6 3d a8 68 d7 bd
       -0.030908734 -0.07670799 0.10449907 -0.105180085
0003e0 4b d5 4d bc cc a2 6a bd 22 4e 09 be ab 18 1a 3d
       -0.01256306 -0.05728416 -0.13408712 0.03762118
0003f0 ea 07 a7 bd 64 c6 1f bd 9b e4 15 3d 41 26 48 3d
       -0.08155806 -0.03900756 0.03659497 0.048864607
