Baseline-models/DAGMM/DAGMM-CHD/no--dagmm/models/25_194_dagmm.pth (torch, 82200 bytes, 22 tensors)

phi f4 [4]
00000000: 4fb5 403d 49eb 233d 2e11 603f 814c 1a3d
0.04704791 0.040019307 0.87526214 0.037670616

mu f4 [4, 3]
00000000: 78e0 c93e bacc 8c3f bb2b 73bc 68dc c43e
00000010: 4755 8e3f 5f64 2dbd 2e45 753e 3bfd a43f
00000020: a957 e5be 885f c53e 4c2f 8e3f 8b29 22bd
0.3942907 1.0999978 -0.014841969 0.38449407 1.1119775 -0.04233205 0.23952171 1.288978
-0.44793442 0.38549447 1.1108184 -0.0395904

cov f4 [4, 3, 3]
00000000: 0362 c93d efdd f5bd 5fe5 8c3e efdd f5bd
00000010: 0d1e 163e 2e07 acbe 5fe5 8c3e 2e07 acbe
00000020: 4c28 453f 8a89 c53d 563a f1bd 6035 8a3e
00000030: 563a f1bd 0c53 133e bfc9 a8be 6035 8a3e
00000040: bfc9 a8be e266 413f 8d79 913d 62a7 b1bd
00000050: 0a99 4b3e 62a7 b1bd 2901 d93d 66a6 78be
00000060: 0a99 4b3e 66a6 78be 8d79 0e3f 3c06 c63d
00000070: 99c4 f1bd a789 8a3e 99c4 f1bd 429e 133e
00000080: 8026 a9be a689 8a3e 8026 a9be 78d8 413f
0.098331474 -0.12005221 0.27518746 -0.12005221 0.14659901 -0.33599228 0.27518746 -0.33599228
0.77014613 0.09645374 -0.11778705 0.26993847 -0.11778705 0.14387149 -0.3296642 0.26993847
-0.3296642 0.7554761 0.07103262 -0.08674504 0.19882599 -0.08674504 0.105959244 -0.24282226
0.19882599 -0.24282226 0.5565422 0.09669158 -0.11805076 0.27058145 -0.11805076 0.1441584
-0.33037186 0.27058142 -0.33037186 0.7572093

encoder.0.weight f4 [60, 118]
00000000: e732 acbc 7a6d a53d 9e24 b93c c28e e53b
00000010: 2c9a b23d 23d8 eebc e2c8 1c3d ae57 673d
00000020: 9075 84bd 9bbe 8a3d fa43 203d 1a1b 703c
00000030: 7dea 453d 04fe 4f3d 7ec8 81bd 0d4e 13bd
00000040: 5a19 aa3d 5abb 35bd e238 adbc e079 90bd
00000050: 291c 96bc 35ad d6bc 04f2 0b3d 0823 4ebd
00000060: 5caf ba3d f6cc 853d 27b8 bc3d a0a4 eebc
00000070: 3246 1abd 843c b3bd 052b acbd 4d88 7ebc
00000080: dedd 743d 5ecb 153d ec84 1abd 3224 693d
00000090: 0656 8dbc 51a7 50bd 72cb 50bc e388 61bd
000000a0: eaf9 4c3d 7a98 333d 38b1 d53c 00fd 4d3b
000000b0: 5bc4 cebc 17bd 783c addc 94bd 856d f4bc
000000c0: c376 43bd 26d3 9bbd d88a 0ebd 9aac 8ebc
000000d0: f8fb a5bc 68ce e9bb e3c6 ef3b 6e9f a4bd
000000e0: 2465 15bd 740a f8bb fc85 f239 ffe9 5cbc
000000f0: c0da cbbb de55 e4bc 68b0 b33d 9272 193d
00000100: 9ef5 b13d ba52 a53d e78a 903d 9948 88bd
00000110: a6e2 3b3d d25e 9b3d e90a aa3d b1ab 083d
00000120: 4dae 823d e713 5dbd 36d2 0e3d bddc 9fbd
00000130: fb26 f1bc 0d8f b4bc e020 95bd 5d21 893a
00000140: 8fc2 d9bc d504 0d3d edb0 39bd c376 3abb
00000150: 89ad 773d 702f e4bb 7bcf 99bd a585 ba3c
00000160: fb7e c3bd 2d52 ab3d 5798 353c f3fb 8b3c
00000170: b9b4 84bd ae99 c13c ba02 283d 04ef a93d
00000180: a83e 033d 0048 1739 a436 873d 97d8 29bd
00000190: 250d 873d 80ff 6c3d a989 55bd 2d9e 1abd
000001a0: 9120 0ebc 884c 4d3d f810 a6ba ae5b 8abd
000001b0: c8d5 4e3d 68a0 063d 5f42 18bd 8b14 643c
000001c0: e0cd 91bc 3a3c 85bd d11a 883d 5de8 98bc
000001d0: 9642 493d 873b 55bc 0b50 d5bc 17de 6d3d
000001e0: 44e2 b53d 2b3a b03a 5bd7 9dbb 4e29 71bd
000001f0: c835 74bd 1075 323d c74e 2f3b d374 673d
00000200: 709d 613d 91bf 293d dd7e e2bb 44ac 2e3d
00000210: c89e c7bc 3aed b5bc ccfc 473d f0ab a8bc
00000220: fde6 653d 78cf b7bc 5868 473d 2c19 9f3d
00000230: c461 a53c e9d4 0ebd 35cf d83c cf91 53bd
00000240: e754 32bd a1d6 ccbd f7fd a73d ffa8 93bd
00000250: 98eb 8d3c 9d42 5e3c 5196 a73d 26f1 9b3c
00000260: 8fca d23c 2cbc 5fbd 2569 363d b4ec b23d
00000270: e2ed 81bd 14d9 50bc bcd3 a2bd 2b1c 8e3c
00000280: a402 e03c d0f1 e1bc faf3 05bc 3017 d3bc
00000290: 39a1 73bc a8c5 413d 784a a93d 3fb8 b63d
000002a0: b736 f5bc 34d3 7c3c 8622 86bd 70a1 883d
000002b0: 43ea 84bd 2e71 293d e2d9 8dbc c320 803d
000002c0: 0ccd b13d fe44 0ebc e3cf b53d 6def 80bc
000002d0: 5dee 863d 80ec aa3c f517 b33d e27b 653d
000002e0: e3cd 58ba 5217 a33c b24b 033c ec10 3ebd
000002f0: ebcf 11bd 4d4e d9bc 7c3b 723d 2393 6b3d
00000300: a683 8a3d 4e32 06bd e0b5 f1bb 6817 8a3d
00000310: ff68 143d 9d32 173c eb08 c13a 9568 ef3c
00000320: a2d5 87bd 116c 8dbd 75de a3bd d626 383d
00000330: 2b1a 8ebb f508 14be ef03 febb 3383 b3bc
00000340: e573 813d f17b fb3b 09d7 9bbd 65a7 8e3d
00000350: 8cdd d8bc 5152 17bd 73d4 52bd 7c96 7dbd
00000360: 4ef4 c0bc 82c5 a0bd a045 2ebc f9f7 61bd
00000370: edf1 e43d 0ed0 e6bc c5e6 aa3d 0e03 23bd
00000380: 3fe1 bc3b 70df fd3c c868 93bc 25e1 c4bd
00000390: 2015 57bc fb77 ea3c b961 ddbc fde5 083c
000003a0: b9ed 1e3c 9e0b c23d 3f8f 38bd 5c8e afbc
000003b0: 852e 59bc 5cc8 55bd 5c41 593c cb10 64bd
000003c0: b124 143d bb5a cbbd 051b c9bd 6bd0 133d
000003d0: 786a 873d cf4c 7fbc 20b5 55bb fe39 b3ba
000003e0: 55a3 8a3d ea0e 0f3d 10f3 063c 3b31 3d3d
000003f0: 69c5 ad3c 01fc 8b3b 68d2 83ba f94c 933d
-0.021020366 0.080775216 0.022600468 0.0070055434 0.08720812 -0.029155796 0.038277514 0.056480102
-0.06467736 0.06774636 0.039127328 0.014654899 0.04831933 0.050779358 -0.06337069 -0.035963107
0.08305617 -0.044368125 -0.021145288 -0.07054496 -0.018323975 -0.026205638 0.03416635 -0.050326377
0.091154784 0.06533234 0.09214812 -0.029131234 -0.0376646 -0.08751777 -0.08406643 -0.015535426
0.0597819 0.0365709 -0.03772442 0.056919284 -0.017252933 -0.050940815 -0.012743818 -0.055062186
0.050043024 0.043846585 0.026085481 0.0031431317 -0.025240114 0.015181801 -0.07268653 -0.02983738
-0.047720682 -0.07608633 -0.03480038 -0.017416287 -0.02026175 -0.0071352012 0.0073174103 -0.08038221
-0.03647341 -0.0075696055 0.00046257663 -0.013483523 -0.0062211454 -0.027872976 0.08773881 0.03746278
0.08689426 0.080724195 0.070577435 -0.06654472 0.045870446 0.07586445 0.08302862 0.033366863
0.063809015 -0.05397406 0.03486844 -0.07805774 -0.029437533 -0.022040868 -0.07281661 0.0010462214
-0.02658203 0.034428436 -0.045334745 -0.0028452135 0.06046823 -0.006963663 -0.07510277 0.022768805
-0.09545704 0.08365283 0.011083684 0.017087912 -0.064797826 0.02363285 0.041018225 0.08297542
0.032042176 0.00014427304 0.06602219 -0.04146632 0.06594304 0.05786085 -0.052133236 -0.037748504
-0.008674757 0.050121814 -0.0012669852 -0.06755768 0.050496846 0.03286782 -0.03717267 0.013920913
-0.017798364 -0.06505628 0.0664574 -0.018665487 0.049135767 -0.013014681 -0.026039144 0.05807313
0.08881047 0.001344507 -0.004816932 -0.05887728 -0.059621602 0.04356867 0.0026749836 0.056507897
0.055081785 0.041442458 -0.006912096 0.042644754 -0.024367705 -0.022207845 0.04882507 -0.020589799
0.05612849 -0.022437796 0.048683494 0.07768473 0.02018822 -0.034871016 0.026465992 -0.051652726
-0.043538 -0.10001875 0.08202737 -0.07209968 0.017324254 0.0135656865 0.081829675 0.019035887
0.025731353 -0.054622814 0.044533867 0.08736554 -0.06344201 -0.012747068 -0.079505414 0.017347416
0.02734501 -0.027581125 -0.008175844 -0.025767893 -0.014869981 0.04730764 0.08266157 0.08921861
-0.029933317 0.015431214 -0.065495536 0.06671417 -0.064899944 0.041367702 -0.017315809 0.06256249
0.08681688 -0.008683441 0.08877542 -0.015739167 0.06588433 0.020864725 0.08744804 0.056026347
-0.00082704256 0.01990858 0.008013653 -0.046402857 -0.035598677 -0.026526595 0.05913876 0.057513367
0.06763391 -0.032762818 -0.0073764175 0.06742746 0.036232945 0.009228376 0.0014727389 0.029224673
-0.06632544 -0.06905378 -0.08001415 0.04495891 -0.0043366156 -0.14456542 -0.0077519338 -0.021913147
0.06320933 0.007674687 -0.07609374 0.06965522 -0.02647283 -0.036943737 -0.05147214 -0.06191109
-0.023553994 -0.078501716 -0.010636717 -0.055168126 0.11178956 -0.02817538 0.08344797 -0.039797835
0.005764156 0.030990332 -0.0179943 -0.096132554 -0.013127595 0.028621664 -0.027024137 0.008355615
0.009700232 0.09474872 -0.045058485 -0.021430187 -0.01325572 -0.05219303 0.013260212 -0.055680078
0.036167804 -0.09929415 -0.09819607 0.036087435 0.06612104 -0.015582277 -0.003260918 -0.0013673899
0.06769434 0.034926333 0.008236662 0.046189528 0.021212297 0.0042719846 -0.0010057213 0.07192416

encoder.0.bias f4 [60]
00000000: 85ed 003d 9145 b43d ab9c 77bb d5f8 063d
00000010: a6ce 8ebd 85d2 1f3d 93ad cebd bc1e 0fbd
00000020: c1e0 5e3d 3846 8a3d a3e1 5dbc 051c 2cbd
00000030: f193 33bd 0e7f 863d f1b7 19bd 1b41 99bd
00000040: fa00 e4bb bf91 973d 6916 3dbd ae71 033e
00000050: 134e dabb 98f3 723d de39 fbbd 2f73 8ebc
00000060: 371c da3c 6875 e33b 262f 4d3d ca6b 1cbd
00000070: b748 dcbc 97a5 b63d e0a0 233d 8c1f b8bc
00000080: 386a a13d 2469 a0bd 17c7 773c 41bd 9cbd
00000090: 1094 a53d d0c1 f63d b5d8 74bd 9793 38bb
000000a0: 187e 78bd 080b 9bbc 4980 f83c 70fc 70bc
000000b0: 11fe 3cbd de21 c4bc 32d8 283d 9d73 e7bc
000000c0: d378 0ebd d6ff d5bc 6563 34bd 13b0 20bd
000000d0: db5e a5bd 560f 1bbd cdc0 8ebc 996e 3abc
000000e0: 3f78 1d3d 5c7a 2abb a1ae bbbc 7432 703d
0.031476516 0.08802331 -0.003778259 0.03295215 -0.06973009 0.039019126 -0.100917004 -0.03494142
0.05441356 0.067516744 -0.0135425655 -0.04201891 -0.04384226 0.065672025 -0.037528936 -0.07483121
-0.006958124 0.07400846 -0.04616395 0.12836334 -0.006662139 0.05931434 -0.12266897 -0.017388908
0.026624782 0.006941486 0.050093792 -0.038188733 -0.026890142 0.089183025 0.039948344 -0.02247598
0.07881588 -0.07832554 0.01512315 -0.07653285 0.08084881 0.120486856 -0.05977698 -0.0028164142
-0.060667127 -0.018926159 0.030334609 -0.014708623 -0.046140734 -0.02394193 0.041221805 -0.02825337
-0.034783196 -0.026122969 -0.044040103 -0.039230417 -0.08074733 -0.037856422 -0.017425919 -0.011378908
0.038444754 -0.0026012873 -0.022910418 0.058641866

encoder.2.weight f4 [30, 60]
00000000: 4d5a f0bd 51e5 e13d b1aa 7cbd 3d4b d4bc
00000010: 2c7c d5bd b37e 863d c9c1 90bd 831a ab3d
00000020: 880b aa3d 87e6 70bd 1fbf 773d 0bdc 97bc
00000030: e001 e2bd 4e69 a6bd d7b8 d63d 9276 423d
00000040: 58c3 5d3b ce90 0cbd 3d5b ed3d 6401 d9bc
00000050: 3304 d73d 07e6 e9bd 8ddd eebd 753e a13c
00000060: c39a bf3d 6f20 223d 0dd3 e7ba c7fa 823c
00000070: 5273 e43d 716e 01be f31c 193c d583 a2bd
00000080: b762 af3c d0db 2b3b 7fbf 1ebd d06d 953c
00000090: b8d6 a63d 22eb e73b f650 e13b 607b 753d
000000a0: 644b 043e b43f a1bd ecaa b3bd f416 dfbd
000000b0: 65ea fabd 8018 1dbc 594c 56bd 27ba e8bd
000000c0: 00d8 71bd 2374 b93c 550a cf3d 5f78 f73d
000000d0: 465e 8d3d f78b 18bd a7ec db3b 5c83 d23b
000000e0: 4c45 d3bd c7cd 073e 795b f0bd efeb d73d
000000f0: 3602 aebd 1529 5c3c 81c4 cb3d 5d58 90bd
00000100: 7aab c53d b689 93bd 1ba9 a13d 6e27 e93d
00000110: 9d2d ce3d b4b7 4a3d c60f 043d 5b32 e13d
00000120: 28ee 333d ef61 4bbd 6034 1e3d 8f78 d0bd
00000130: abee 81bd 73a6 973c e671 303d 94a2 22bd
00000140: 06e5 e2bd f33f 0a3d 35a1 b039 963e a1bc
00000150: 6e23 4cbc 96ca e13c ae31 c43d 5a74 f33d
00000160: 2d52 783d ba0f 16bd 8b48 c03c 3499 e9bd
00000170: 326b a13d abf4 bbbd 25a0 04bd 8991 d23d
00000180: ec10 813d cea3 dcbd a889 af3d 4717 b33d
00000190: 9b2e 853d a02d 833d 7b91 97bd a655 edbd
000001a0: 7238 ae3d d893 95bc 1433 803d a232 9d3d
000001b0: 1d4e 9e3d ff6e a8bd aa0c e9bd f16c ffbc
000001c0: 1294 80bd 1fad c7bd 18d7 a93d 5cdd 023e
000001d0: e60a 27bd 0613 933d ffb2 843d cd55 383d
000001e0: 5278 12bd dc0b adbd 816e dcbc 46fb 073d
000001f0: 4595 ac3d a93a 2e3d dd05 ca3d 9455 6cbd
00000200: 4069 51bd c4ec 6abd 913b b5bd c603 9bbc
00000210: 9e4a 9bbd 70aa 833d 8e55 213d a784 0bbd
00000220: 09a5 ac3d 19ff 8f3d a063 dcbd bddf e7bb
00000230: e772 f03c e83c 8b3d 19a6 03be 4c19 07be
00000240: abe7 08be 8ac4 293b 3147 063e 552f 873d
00000250: 6349 fbbd 010d d53d 570a 91bd 2e13 abbd
00000260: 5a7d 013e 7e72 163d 1a70 743d f890 d4bb
00000270: 8707 9f3c 615f dd3b 401e 0a3d f521 0f3b
00000280: 4e62 ffbd 483e 0d3e b697 cb3d bc88 4cbc
00000290: f1c6 97bc a579 cc3d ffd0 e23d 66d5 5b3d
000002a0: 06d5 8c3d 785a d2bd 8a41 7f3d 1133 e63d
000002b0: ef6b 9abd 5c83 083e 7735 b9bd a769 02be
000002c0: 9ba5 95bd bca7 87bc 7d8c e5bd 4145 43bd
000002d0: c996 cb3d 1f5c 7f3d 830b 28bc 5f24 97bc
000002e0: 5903 fabd 8c94 053e 0570 63bd c230 f33a
000002f0: fddf 67bd 42c6 aabd 4f58 03be d6d0 dfbd
00000300: e555 7fbc eb0c 583d b1ad ac3d f13f 05bd
00000310: 09f3 9f3b ca72 923d 23ef 7c3d 756c 043e
00000320: 9c8c d5bc 7085 10bd 1581 22bc 2458 a93d
00000330: ab76 f23c b229 07be c016 b93d d14f 1939
00000340: a2d4 e1bd 5357 0b3e dba8 a3bd f4e1 103b
00000350: 5c6c 96bd 4eb8 b0bd 2ff6 cdbd 8304 973d
00000360: a888 6a3d 8c4e 50bd da40 9b3d 490f d3bd
00000370: df0f 22bd f6b3 4c3c 805b ce3d 03c7 c63d
00000380: 0fee a2bd 6837 173d 3776 e7bc ed3a b93d
00000390: 51a1 a4bd 33d4 eabd d296 0abd 5012 393d
000003a0: 7068 39bd 92c3 573d ede3 fcbd 9e34 dbbd
000003b0: 0612 313d 1da5 02be e2a7 453d f510 b33c
000003c0: 91e0 d73d 45f9 0abd a082 7cbc cd8e 07be
000003d0: 60cb 90bd b6b5 a1bd ad97 0bbe 3d23 9dbd
000003e0: 96ad d13d 54f4 9dbd def6 14be a400 00be
000003f0: a851 c8bd d846 8c3d f05f cabd 85cd 80bd
-0.117359735 0.11030067 -0.06168622 -0.025914783 -0.104240745 0.06567135 -0.070682116 0.08354666
0.08302981 -0.058813598 0.060485 -0.018537542 -0.11035514 -0.08125554 0.10484474 0.04747636
0.0033838358 -0.034317784 0.11589668 -0.02648992 0.10498848 -0.11420827 -0.11663351 0.019683102
0.0935569 0.039581712 -0.0017686799 0.01598872 0.11154808 -0.12639786 0.009345281 -0.07935301
0.021409376 0.0026223548 -0.038756844 0.01824084 0.08146423 0.0070775906 0.0068761064 0.059932113
0.12919384 -0.078734785 -0.08772835 -0.1089305 -0.122517385 -0.009588361 -0.052318905 -0.11363631
-0.059043884 0.022638386 0.101093926 0.12083506 0.06902747 -0.037242856 0.0067115608 0.0064243507
-0.10315952 0.13262092 -0.11736197 0.10543048 -0.084965155 0.013437529 0.099495895 -0.07048104
0.09651847 -0.07204001 0.078935824 0.11384474 0.10067294 0.0494916 0.032241605 0.10995933
0.043928295 -0.049653944 0.038624167 -0.10179245 -0.063443504 0.018511986 0.043077372 -0.039705828
-0.11078839 0.033752393 0.00033689445 -0.019683164 -0.012459619 0.02756242 0.09579788 0.11887427
0.060625244 -0.03663609 0.023472091 -0.11406174 0.07881774 -0.09177526 -0.03237929 0.10281665
0.06302056 -0.10773431 0.08571178 0.08744674 0.0650303 0.06405187 -0.07400795 -0.11588602
0.0850686 -0.018258974 0.062597424 0.07675673 0.07729743 -0.08224296 -0.113793686 -0.031179877
-0.06278242 -0.09749817 0.08292979 0.12779754 -0.040781878 0.07181363 0.06479453 0.0450037
-0.035759278 -0.084495276 -0.026908161 0.033198617 0.084269084 0.04253641 0.098643996 -0.0576988
-0.051125765 -0.057354704 -0.08849252 -0.018922698 -0.075825915 0.06428993 0.039388232 -0.034062054
0.084299155 0.07031078 -0.107611895 -0.007076232 0.029351665 0.06798726 -0.1285633 -0.13193244
-0.13369624 0.00259045 0.13113095 0.06600825 -0.12269857 0.10402871 -0.0708205 -0.083532676
0.12645474 0.036730282 0.05967722 -0.006487008 0.019412769 0.006755755 0.033720255 0.0021840308
-0.12469922 0.1379329 0.09941046 -0.012483772 -0.01852748 0.09984139 0.11075019 0.05367031
0.068765685 -0.10271162 0.062318362 0.11240209 -0.07540118 0.1333136 -0.09043401 -0.12735616
-0.07306977 -0.016559474 -0.11208437 -0.047673468 0.09940869 0.062343713 -0.010256651 -0.01844996
-0.1220767 0.13044947 -0.055526752 0.001855396 -0.056610096 -0.08338596 -0.12826656 -0.10928504
-0.015584444 0.052746695 0.084315665 -0.032531682 0.004881267 0.071508005 0.061751496 0.12931998
-0.026068024 -0.035283506 -0.009918471 0.082687646 0.0295976 -0.13199499 0.09037542 0.00014620951
-0.110268846 0.1360753 -0.07991191 0.0022107335 -0.07344887 -0.08628903 -0.100567214 0.073739074
0.05725923 -0.050856158 0.07580729 -0.1030565 -0.039565917 0.012494078 0.10076046 0.09705927
-0.07955562 0.036918074 -0.028254611 0.09044442 -0.08038581 -0.11466255 -0.03383524 0.04518348
-0.045265615 0.052676745 -0.12348161 -0.10703395 0.04323008 -0.12758298 0.04825581 0.021858672
0.105408795 -0.03392913 -0.015412003 -0.13238068 -0.07070041 -0.07895987 -0.13632078 -0.07672737
0.10238187 -0.077126175 -0.14547297 -0.12500244 -0.097812 0.0684945 -0.0988158 -0.062892

encoder.2.bias f4 [30]
00000000: ecb6 ebbd f6c8 e8bc b1ff d73d c09b 57bc
00000010: f6fb ad3d 9f9e d639 9478 a93d e015 113d
00000020: 51fd 4c3c e31f 08bd bdf4 89bd 8030 de3d
00000030: a913 443d 05f6 823b 4136 ff3d 4944 e03c
00000040: 99b2 e83b e7db 963d 496b 943d 2f39 993c
00000050: 4fad 403d 6595 6f3d e1a7 e9bc 73b2 903d
00000060: 251c ad3d 91fe e73d c6bf 203d 75ea 353d
00000070: 6859 d33d 7b55 913d
-0.11509499 -0.028416138 0.10546816 -0.013159692 0.08495323 0.00040935443 0.082749516 0.035421252
0.012511567 -0.033233535 -0.06736133 0.108490944 0.047870312 0.003996613 0.1246152 0.02737631
0.0071013686 0.07366162 0.072470255 0.018704025 0.04704028 0.058492083 -0.028522434 0.070652865
0.08452634 0.113278516 0.03924539 0.04441305 0.10319787 0.07096382

encoder.4.weight f4 [10, 30]
00000000: b533 26be 615f 243e 7773 82bd 31dc 2fbd
00000010: 5cd9 df3d 7fd4 653c 25ce 54bd 0649 07be
00000020: fb1a 2abe facd 59bd 47ad 9c3d f384 28be
00000030: 2caf 673d e8d8 483e a1a7 dd3c a429 263e
00000040: e77d 5e3d f487 3fbe be71 9cbc 82fc 0a3e
00000050: c349 9bbd e058 7ebc bff1 d7bd f6d5 e43d
00000060: 741a dfbc f42a 83bd 2242 c53d 5fab 1c3e
00000070: 2645 063e 8339 d43c 59a4 283e 3d55 abbd
00000080: 2614 55bd 0262 e0bd 3e88 533d 5894 10be
00000090: 73c8 bf3d a8eb c23d e7c7 fbbd 10f2 8c3d
000000a0: 4a9e b1bc 1293 22be da65 183e 308a 29bd
000000b0: f849 65bd 5b2b a2bd 4e5d 343d a339 2dbe
000000c0: efa8 fdbd 6b66 203e 1848 2e3e e5e3 e6bd
000000d0: e95b d03d 43c0 363d 83fd 1abe 8610 2cbe
000000e0: 68eb 8d3d a498 c73d be94 39be fc0e 0a3a
000000f0: 3b7e 05be d073 93bd 3e02 b0bc a43f 263e
00000100: bce7 963d 4171 0dbe 4f15 59bd 8227 363e
00000110: 76e5 1ebd 4680 04bd 7b62 27bd 3e18 21be
00000120: 322f f1bd 6f7a 113e 9296 e7bd 165c 80bc
00000130: ed9d 273e ac41 0f3e 9d8a 29be 3c59 1f3c
00000140: 798b 38be 7f6e 38bd af0d e5bc f25e 1f3d
00000150: 0fd1 75bd ab1d 2f3e f363 e8bd 42f1 133e
00000160: 0774 333e 9d06 783c e835 d5bd 259e 053c
00000170: 1bfc 943d 8a64 9e3c b5ac 333e 5e78 02bd
00000180: cb1a 453e 3e5b 68bd 133e 39be 4687 4abd
00000190: b29c f4bb f569 093e 57f8 e9bc afe3 0a3e
000001a0: 9d77 273e ecb8 403d 96e0 d63c bf62 86bc
000001b0: 887a 40bd 6227 a93d d875 0ebd 1259 f2bd
000001c0: b8e4 353d 297c 053e 0413 85bc 51b2 3bbd
000001d0: 1f08 5b3d 000f 1a3e 1001 15be 2932 e8bd
000001e0: 364e 403e 017d 473a 59ce e6bd 8e0c 25be
000001f0: 14c1 64bc 40e6 9cbd 7895 32be 6d27 b9bc
00000200: 6a31 a73d d872 653d 6ad0 e5bd 35e8 933d
00000210: ead9 d2bb 3c1e 1ebe 07fe 80bb e54a 60bd
00000220: 3d47 29be bef7 04be 64be e73c a56f c5bd
00000230: 4608 0dbe f37c adbb 1621 f1bd d80e e4bd
00000240: 61e6 86bd 0c4e a53d 7d8b 523c 9a06 4ebb
00000250: f7ae 2abe 5969 b63b 7a64 7abd 0773 af3d
00000260: 1a95 57bd 3413 1d3e 6c76 823d 46ed 203d
00000270: e308 dd3d c749 99bd 472c 09be c01c 203d
00000280: b827 f6bd cd3a f9bb 9726 21be 8171 fa3d
00000290: f609 183e 4575 0a3e 27cc cf3d db3e 34be
000002a0: 7499 d1bd a763 adbd 3c86 3dbb f90d 11bd
000002b0: 0218 e13d 883f 6f3d 5c20 e53d 316f b13d
000002c0: c818 19be 2309 2bbd e5dd 0d3d d658 2dbe
000002d0: 9ce4 993d af46 98bd 9817 093d 5c29 023e
000002e0: 1b4d cf3d a992 27be bd92 013d 4dd8 d6bd
000002f0: ba41 223e 5de3 fa3d 12e9 353e 9cb3 723d
00000300: 2f40 933d ff06 d8bc 145e a73c 34d6 11be
00000310: 7532 02be 28c1 b6bd cb3a 6f3d 1e3d febd
00000320: f34b 20be 2295 e3bd b5c6 443e 65f8 a6bd
00000330: bd09 10be 5fbc 903d 2b3c 43be 17dd 063e
00000340: bfd6 fa3d c501 9cbc b22e d83b fb3b 8d3d
00000350: b504 2fbd 4f32 b33c 8d13 e4bd f9ab 763d
00000360: 1f3b 913d ab46 063e 1a26 8dbd 66cd d53d
00000370: 61b7 e5bd ba9f 033e 958e 983d 04b4 863d
00000380: 29f6 b5bd 0c47 31be adec 2abe c3f6 13be
00000390: c785 1ebd 892d 203d 7b1a 96bd 92e5 85bd
000003a0: a913 113e d947 ad3d b1b3 14be 46b8 9c3d
000003b0: 28fc fb3d 3204 a9bd 12c3 333e 0941 a93c
000003c0: 15c2 29bc 5a13 073e 6734 97bd 988b a93d
000003d0: 09f5 0c3c e867 e5bd 0ddb d03d 0aec 17be
000003e0: 90ff 133e c3fb 5d3d e946 fdbd bc9d 6dbd
000003f0: 543d 483e 1f99 4b3e 1000 163d 833c 1b3e
-0.16230662 0.16052009 -0.063696794 -0.0429346 0.1093013 0.014027714 -0.051954407 -0.1321145
-0.16611855 -0.05317495 0.076502375 -0.16456966 0.05656354 0.19613993 0.02705747 0.16226822
0.05431929 -0.18704206 -0.019097205 0.13572887 -0.07582428 -0.015524119 -0.10544156 0.11173622
-0.027234294 -0.06404677 0.096317545 0.15299748 0.13112316 0.02590633 0.16468944 -0.08365867
-0.05202117 -0.109561935 0.051643603 -0.14119089 0.093644045 0.09517604 -0.12293988 0.06882107
-0.021681923 -0.15876415 0.14882603 -0.04139155 -0.055978745 -0.07918426 0.044034295 -0.16916518
-0.12385737 0.1566407 0.17019689 -0.11273936 0.101737805 0.04461695 -0.1513577 -0.16803178
0.06929666 0.09745911 -0.18123147 0.0005266515 -0.13036434 -0.07199824 -0.021485444 0.16235214
0.073684186 -0.13812734 -0.052998837 0.17788509 -0.03879305 -0.032348894 -0.040865403 -0.15731904
-0.1177658 0.14206861 -0.11308016 -0.01566891 0.16368838 0.13989896 -0.16556783 0.009725865
-0.18021955 -0.045027252 -0.027960626 0.038908906 -0.060013827 0.17101161 -0.11347189 0.14447501
0.1752473 0.0151382955 -0.104106724 0.00815538 0.07274648 0.01933505 0.17546351 -0.031853072
0.19248502 -0.05672764 -0.18090086 -0.049445413 -0.0074649686 0.13419326 -0.0285608 0.13563417
0.16354223 0.047051355 0.026230138 -0.016404508 -0.046991855 0.08259465 -0.034780353 -0.11833395
0.044407576 0.13035645 -0.016244419 -0.045824353 0.05347454 0.15044785 -0.14551187 -0.11337692
0.18779835 0.00076098746 -0.112698264 -0.1611807 -0.013962049 -0.07661104 -0.1743983 -0.022601807
0.08163722 0.056017727 -0.112213925 0.07222024 -0.006434669 -0.15441221 -0.0039365324 -0.054758925
-0.16531081 -0.12985131 0.028289028 -0.09640435 -0.13772687 -0.005294436 -0.11773889 -0.11135644
-0.0658691 0.08071527 0.012850639 -0.003143704 -0.16668306 0.0055667576 -0.06113098 0.085668616
-0.05263243 0.15339357 0.063702434 0.03928878 0.10792711 -0.07484775 -0.13395797 0.039089918
-0.120192945 -0.0076058866 -0.15737377 0.122286804 0.1484755 0.13521297 0.10146361 -0.17602102
-0.10234347 -0.08466273 -0.0028919121 -0.035413716 0.10990907 0.058410197 0.11187813 0.08663786
-0.1495086 -0.04175676 0.034635443 -0.1692842 0.07514307 -0.07435357 0.033469766 0.1271109
0.101221286 -0.1636454 0.03163408 -0.10490475 0.15845385 0.12250397 0.1776469 0.05925332
0.071899764 -0.026370523 0.020430602 -0.14241868 -0.1271456 -0.089235604 0.05840568 -0.12414001
-0.15653972 -0.11112429 0.19216426 -0.08152846 -0.14066215 0.07067179 -0.19065921 0.13170277
0.12247991 -0.019043813 0.0065973634 0.06896206 -0.0427291 0.021874575 -0.111365415 0.0602226
0.070913546 0.13112895 -0.06892033 0.10439567 -0.112166174 0.128539 0.0744907 0.06577304
-0.08884842 -0.17312258 -0.16691847 -0.14449601 -0.0387018 0.039105926 -0.073292695 -0.06537928
0.14167656 0.084609695 -0.14521672 0.07652335 0.12303954 -0.08252753 0.17554882 0.020660894
-0.010361214 0.13190976 -0.07383042 0.082785785 0.008603343 -0.11201459 0.101980306 -0.14836136
0.14452958 0.054195177 -0.12367041 -0.058011755 0.19554645 0.1988263 0.036621153 0.15159802

encoder.4.bias f4 [10]
00000000: 3708 88bd 52e6 97bd fa7c 1b3d 1c19 3fbd
00000010: 432b 953d 4109 1b3e 3035 febd 6412 babd
00000020: 2e3c 81bd bba6 e8bc
-0.06642192 -0.07416977 0.037960984 -0.046654806 0.07283642 0.15140249 -0.124124885 -0.09085539
-0.063103065 -0.028399816

encoder.6.weight f4 [1, 10]
00000000: d7e8 9fbe aaf0 d7bc 2af1 a33e df3d 683e
00000010: 8df5 f5bd d856 44bb 35c4 3e3e 9b08 063d
00000020: e0e4 a9be 0c28 4fbe
-0.3123233 -0.026359875 0.3201993 0.22679852 -0.12009726 -0.002995899 0.18629535 0.03272305
-0.3318243 -0.2023012

decoder.0.weight f4 [10, 1]
00000000: 3b0f b53e 4e20 3fbf 7f20 d23e d57e 653f
00000010: 8a50 31bf c3b2 ddbe 22f3 f13e 0631 6a3f
00000020: cd86 7f3e 3b7b 23bf
0.35363182 -0.7465867 0.41040418 0.89646655 -0.6926352 -0.43300447 0.47255808 0.91481054
0.24953766 -0.6385991

decoder.0.bias f4 [10]
00000000: 1ce8 7e3f d910 4dbe e8e0 d13d acbc c03b
00000010: 4780 923e bc7c fcbe 099e 84b9 5259 40bf
00000020: c395 32bf 4d2f 41bf
0.9957292 -0.20025958 0.102479756 0.0058818664 0.28613493 -0.49313915 -0.00025294747 -0.7513629
-0.6975977 -0.754628

decoder.2.weight f4 [30, 10]
00000000: b942 873d c1d2 28be 9bcf 30be 4307 7a3e
00000010: 0272 17be d5e8 87bd 0472 8036 5474 60be
00000020: 6dad d33b c4f5 303d 8e6c 823d c9b9 ed3d
00000030: 4db3 2fbd 21ca a9be 81e3 023e e40b a33e
00000040: 91a6 06be 0dcb 4a3e 733c 8d3e ccdb 42be
00000050: 2656 72be e527 a4be 82d8 0d3d 80ac 273e
00000060: 1a41 a5be d5b3 a03e c81a 58be 7b14 eabd
00000070: 18b2 723d 82d2 cebc 0e49 953e d908 8abe
00000080: d534 1d3e cc7f aa3d 23dc 603d 49c8 0dbd
00000090: fb77 1f3e c04f 27bd 82d9 713c c710 323e
000000a0: df06 febc 8333 6b3e 9129 a33d 023a 91be
000000b0: e4f0 bb3d 3e14 d93d 2603 9b3e 2e4c f9bd
000000c0: f8e9 f3bd aa56 773e b11a 203e 47cf a53e
000000d0: cfc1 893b 0cd4 f63d f8c1 7bbe 0b93 913e
000000e0: f200 dcbd a7b7 b9be 6390 02be c9f7 14be
000000f0: 5378 983e 7cf5 0d3e 6c7c 9f3e d243 33be
00000100: da06 233e 16c8 4cbd fb2d 6abc 71c7 343c
00000110: 8343 be3c f4af 9e3e c23d b8bc ba08 05bd
00000120: 800c 4d3e 5601 583e 3e2f e13d ff17 1a3e
00000130: c621 ae3e bc92 983e 2f76 a6bd 541b 1f3e
00000140: 78ab 0abd 8ec5 7abe d19c 89be 1d43 893e
00000150: e19d 17be bfb7 b8bd 6b74 84be 709d bfbd
00000160: 5a07 aa3e 970e 97be 4d68 e1bd be01 f7bc
00000170: 8322 15be 0be1 533e b0aa b13d 70f9 21be
00000180: 8ac8 01be 3efa cf3d 1e42 a6bd 4213 03be
00000190: 4bc5 433e 8aab 3bbe 5a17 94be 84f4 86be
000001a0: 3bb9 843d 9d43 543c 7b48 6f3e 4178 9a3e
000001b0: 9a95 7a3d fa5c 593d 6d49 17bb fe54 03bd
000001c0: 6829 3f3e c31d c33b ce0a 49be 4dd1 963d
000001d0: c965 3d3d 2505 98be 82aa 02be 789f e4bd
000001e0: 03fc a9bd 19d2 7a3e 4857 e0bd d369 aa3e
000001f0: 76f8 c13d c59b e0bd 66c9 01bc 6af3 a7bd
00000200: 3c35 4bbe a49b be3d 57e3 513e c08e 93bd
00000210: 8096 43be 8658 9bbe 630d 5c3e 1519 64bd
00000220: 228e 213e c1e0 8c3e 8182 f03c 325a f0bd
00000230: 8d7a 753e bfc9 673e 2372 5cbe 305d 97be
00000240: efb5 933c c41e 2a3e 9a14 28bd 9200 b7b8
00000250: f600 30be f4c5 69be 53df 863e c5d2 9c3e
00000260: a1b4 40be a4f0 613e 7007 b0bd 1e13 80be
00000270: 2ead 2c3e 28b2 693d 4a5c 813d 9fe9 99be
00000280: e011 81be 6052 3c3e 7016 a3bd b3b0 8bbe
00000290: fea9 3cbd 929c 833c 67ad 8cbe 88a3 74be
000002a0: 0465 953e c87e 833d adb7 b6bd 5b6f 383e
000002b0: e89a aabe 81a8 70be 7f09 053e 78aa 2dbe
000002c0: b6d2 85bd 7da5 b1be 1cac 0fbe 3918 01be
000002d0: 49c2 06bd f476 3c3c 4a71 72be 9da9 923d
000002e0: 6dc5 743d defa d23d 3221 e13d 50eb 3bbe
000002f0: dbe0 ae3d 88c7 db3c 6511 e33d d5cd 873e
00000300: 5f27 c03c 2c0d 863d 8331 0ebd 6e01 2fbe
00000310: 1869 a53e bcfb 65bd 6211 bfbd 2561 c43d
00000320: 1ecb 8bbe ec4f 6f3e 2a3d 993e ce2d 353e
00000330: b162 443d d416 b6bd 42b0 d63d d57d 103e
00000340: 2ba3 9abe 11c5 8abe 0b59 68be 23de 5d3e
00000350: 5f39 c4bd aa21 6e3e 00e4 9dbd e4e6 e4bd
00000360: 8526 aabd 2bf3 3ebe 565e 6abe 4bd8 40bd
00000370: a929 8ebe 6d01 323d c6db 2cbd a120 4b3e
00000380: 07ce 973a 06d4 dcbd add3 903e 4773 183e
00000390: b2d3 003e b95d 093d eb5d 463e 016b 4f3c
000003a0: cb2d 33be 9bbd c13d 24ef 2c3d 6031 8d3d
000003b0: 8b9d 5dbd b470 57be e371 733d 24e6 95be
000003c0: 5e81 b1bd 0781 8dbe 95fe 193e 3ae7 133e
000003d0: 2af1 c6bc 6cce 37bd 875b 3c3e 868c 9c3e
000003e0: dbb9 5e3e 39ed b93d aec7 97bd bf10 a63d
000003f0: d23c 66be 1f88 bdbd 95a0 a43e 7bb9 72be
0.06604523 -0.16486646 -0.17266695 0.24416833 -0.14789584 -0.06636206 3.8279704e-06 -0.21919376
0.006459883 0.04320313 0.063683614 0.11607701 -0.042895604 -0.33162025 0.12782098 0.3184501
-0.13149478 0.1980402 0.27585182 -0.19029158 -0.23665676 -0.32061687 0.034630306 0.16374397
-0.3227623 0.313872 -0.21103966 -0.114296876 0.059251875 -0.025246862 0.291573 -0.26959875
0.15352185 0.083251566 0.05489744 -0.034614835 0.15573113 -0.04084754 0.014761331 0.17389213
-0.031009136 0.22968869 0.079669125 -0.2836457 0.091768056 0.10599564 0.3027584 -0.12172733
-0.119098604 0.24154153 0.15635182 0.32384703 0.004204012 0.120521635 -0.24585712 0.28432497
-0.10742368 -0.36272928 -0.12750392 -0.14547648 0.297793 0.13863176 0.31149614 -0.1750634
0.15920582 -0.049995504 -0.014293189 0.011033879 0.023225551 0.30993617 -0.022490386 -0.032479025
0.200243 0.2109426 0.10995339 0.15048216 0.34010142 0.2979945 -0.081280105 0.15537769
-0.03385493 -0.24489424 -0.26877454 0.26809016 -0.1480632 -0.09019422 -0.2587007 -0.09356201
0.33208734 -0.2950332 -0.11006222 -0.030152198 -0.14563946 0.20691316 0.08675134 -0.15817809
-0.12674156 0.10155152 -0.081180796 -0.12800315 0.1911823 -0.18327156 -0.28924066 -0.26358426
0.064806424 0.012955573 0.23367493 0.3016987 0.061177827 0.053067185 -0.0023084537 -0.032063477
0.18668139 0.0059544756 -0.19633028 0.0736414 0.046239648 -0.29691425 -0.12760356 -0.11163229
-0.083000205 0.24494208 -0.109541476 0.33283862 0.09471218 -0.10967211 -0.007921552 -0.082007244
-0.19844526 0.0930703 0.2049688 -0.07204962 -0.1910038 -0.30340976 0.21489482 -0.055687983
0.15776876 0.27515224 0.029359104 -0.117359534 0.2397253 0.22635554 -0.21527915 -0.29563284
0.018031089 0.16613299 -0.041035272 -8.726226e-05 -0.17187867 -0.2282942 0.26342258 0.30629554
-0.18818904 0.22064453 -0.085951686 -0.25014585 0.16862938 0.05705467 0.06316431 -0.3006105
-0.2520895 0.18390799 -0.07963264 -0.27283248 -0.046060555 0.01606587 -0.27476045 -0.23890507
0.2917863 0.06420666 -0.08921752 0.18011229 -0.3332131 -0.23501779 0.12991904 -0.1695956
-0.065343305 -0.3469657 -0.14030498 -0.12606896 -0.03290013 0.01150297 -0.23676029 0.071612574
0.059758592 0.10301755 0.1099266 -0.18351483 0.085389815 0.026828542 0.11087302 0.26524225
0.023456274 0.06545481 -0.034715187 -0.17090389 0.32306743 -0.056148276 -0.093294874 0.09588841
-0.27303404 0.23370332 0.29929477 0.17693254 0.047945682 -0.08891073 0.10482837 0.14110501
-0.30202612 -0.27103475 -0.22690217 0.2166677 -0.09581255 0.2325503 -0.07709503 -0.111768514
-0.08308128 -0.18647449 -0.22887549 -0.047081273 -0.2776616 0.04345839 -0.04220178 0.19836666
0.0011581787 -0.10782628 0.28286496 0.14887725 0.12580755 0.033536647 0.19371764 0.012659789
-0.17497937 0.094599925 0.04222025 0.06894183 -0.054105323 -0.21039087 0.059434783 -0.29277146
-0.08667253 -0.27637503 0.15038522 0.14443675 -0.024284918 -0.044874594 0.1839429 0.3057596
0.21750586 0.0907845 -0.07411133 0.08108663 -0.22484139 -0.09254479 0.32153764 -0.23703568

decoder.2.bias f4 [30]
00000000: 5b84 463e 0a16 9dbc 1b17 e9bc 9a04 0ebe
00000010: 3868 a03e e7b5 3bbe 5af0 563e 5efc 323d
00000020: fd36 49be c0e9 ba3d 32a6 8cbe 567b 1bbd
00000030: e99b fe3c fe9c 983e dde4 8fbe 1060 653e
00000040: f956 0d3d 65a0 8bbd dd8e 85be 5a7b 373e
00000050: b5d5 b9bd 3598 95be d662 20be b039 5c3e
00000060: ec03 a0bd 30d6 0dbe aa78 703d 8f06 35be
00000070: ec5c 63be 386d 23be
0.19386427 -0.019175548 -0.0284534 -0.13868943 0.31329513 -0.18331109 0.20990124 0.043697707
-0.19649883 0.091266155 -0.27470547 -0.03795942 0.031080203 0.29807276 -0.28104296 0.22399926
0.03450677 -0.06817702 -0.2608556 0.17918149 -0.090739645 -0.29217687 -0.15662703 0.21506381
-0.07813248 -0.13851237 0.058708824 -0.17678283 -0.22203416 -0.15959632

decoder.4.weight f4 [60, 30]
00000000: efef e93c c4ee 09be f0a6 253e b95e e6bb
00000010: c59b 133e 5dff 29bb 687f 803c f5bb 213e
00000020: ddbc b5bd 0749 95bc 948b 36be da96 473d
00000030: a660 b5bd f4c5 49bd ca37 c53d 0f11 793c
00000040: 9784 63bd bf10 b8bd 7cc7 16be b717 0abd
00000050: 9874 363e aa4d 05be 1055 e93d e120 2c3e
00000060: 6825 07be 6dde 13bd 1943 e1bd 094f 9e3d
00000070: dab6 02be 6c07 793d 223e 2bbd c659 adbd
00000080: 0468 bbbd afc5 32be 20f9 13be ab3b 313c
00000090: fd4a 2bbe 7ec8 673d d332 f1bd e38f 01be
000000a0: d61e 14be af7b 463d e253 b93c 3bf8 ab3c
000000b0: eca6 ed3d faa2 3cbd 5fe2 b1bd c6fe e33c
000000c0: ce72 093e 3b30 60bd e4c9 a6bc 3f01 33bd
000000d0: a0b3 5ebc a716 2cbe 017d eb3d d61e 323e
000000e0: 1d2b 053e d601 043d 42a0 823d 74d5 c6bd
000000f0: c67c 163e 7261 853d 91b6 40bd 1ebe 1bbe
00000100: d7b4 a93d 3936 e43c c75d 053e cba5 13bd
00000110: d742 953d 5664 083e 6d08 473c bb34 1dbe
00000120: 584e db3d 7c77 403d dc94 823c 1493 7c3b
00000130: cfdc ee3d 1ade 85bd 0c86 0a3e 441a 113e
00000140: 240e a03d eab3 213d 7440 313d 99f8 a1bd
00000150: 45f9 cb3d 7290 143e 9f29 a33d 267d 05be
00000160: 6b40 b03d 4be8 81bd b668 753d d888 a23d
00000170: 3de5 b13d 0539 b43a f386 90bc 952d d4bc
00000180: 24e1 913d e644 2f3d 8df4 a53d f70e 52bd
00000190: d6a2 8abd f60e 01be 4e6c 5a3e 567a dd3d
000001a0: 1629 39bc 4485 a3bc 2053 f5bc 6be7 593e
000001b0: 31c5 40be 673f 07be 7e8d 65bc 261e 173e
000001c0: 3d6e e73c e3c1 17be b4e7 62be 9136 053d
000001d0: e19e 96bd eb0f f4bd 2c62 7b3d d890 0e3e
000001e0: 743d af3d e96c ba3d ef51 eebd 4c9e ce3d
000001f0: a0c2 88bd 0b5f 503e 7b85 1d3e de42 77bd
00000200: 6d8c 7dbd 79a6 a3bd 8d4a 98bd 6c10 d73d
00000210: 84c3 e0bd 28ac d0bd 5639 0b3e 9f89 203b
00000220: 7482 253e 2e8c 673e 0969 c5bd a241 1d3e
00000230: 5525 e23c 441e adbb 04d9 0b3e 7ac3 20be
00000240: f609 eb3d 2a06 13be 7c52 c4bd 0167 4a3d
00000250: a064 46be ace4 ebbd 17b8 a33d 60be 9cbd
00000260: 6b47 3cbe d633 f53d 610b f3bd f7c5 ad3d
00000270: bfba 14be 5ff1 49be 8efb 09be 2c4d aebd
00000280: 5177 10be 69af 2a3e 2bcc d5bd 2dfd 343e
00000290: 930b 8e3d 15c6 eb3d 2a6a b2bd d668 5abd
000002a0: ba85 eb3d f4fc 01be 51f3 053e 920b fe3d
000002b0: 6993 05be dde3 413e 8bc6 ec3c 06e6 94bd
000002c0: 0185 dc3c a689 45be 4468 103e a265 033e
000002d0: a5bb aa3d 5070 d53d 845f 93bd 99f0 9fbd
000002e0: 83ae 883d d2a5 de3d 9803 623e 0fd4 2fbe
000002f0: 8a20 b1bd 9afb c0bd f16b 6cbc 94f7 353e
00000300: d09c 4f3d eb64 3a3e 2776 8dbd d9f8 173d
00000310: 7216 4a3d 373c 94bd 82d4 343d 0e89 a73d
00000320: c8a5 773d 2110 5b3d dd9e aabd eb29 293e
00000330: 30c8 40be 3c06 2b3e d64a 8e3d 6d44 003e
00000340: a137 bd3d ac3a 0ebd c139 d23d 85ec 3b3d
00000350: 40cd debd fc2b 333d 6f5d 853d 7555 37be
00000360: 025d 003e e401 223e 2778 4bbd 4169 38be
00000370: dd19 373e 9ef4 3bbd 3044 063e d2ca 90bd
00000380: f1dd 43be bd16 23be 550b 23bc 4337 0fbe
00000390: 4b35 52bd 5782 15be b19c f5bd 2d61 05be
000003a0: c83f 2d3d 83b6 f2bd 541c e13d 6ec1 ce3b
000003b0: 9263 363e 2430 a83d a604 3a3d 6c02 103e
000003c0: e25b 3b3d 7e6f 09be 1f9d 10bd f311 13be
000003d0: b1ba f83d ca59 99bc 5fdb 1a3e 0686 babc
000003e0: 2b1d 3abe 8b13 2dbe 0fba 21be 9e57 7f3c
000003f0: 3e1b 82bb a99b de3d 77e1 b0bd bff6 013e
0.028556792 -0.13469988 0.16176963 -0.007030335 0.1441489 -0.0025939562 0.015685752 0.15794356
-0.088739134 -0.018223299 -0.17826682 0.048727848 -0.08856325 -0.04926105 0.096297815 0.015201821
-0.05554637 -0.08987569 -0.14724535 -0.033714022 0.17817914 -0.13017908 0.113931775 0.16809417
-0.13197863 -0.036100794 -0.10999126 0.077299185 -0.12765065 0.060798094 -0.0418073 -0.084643885
-0.09150699 -0.17458223 -0.14450502 0.010817449 -0.16727825 0.05658769 -0.11777272 -0.12652545
-0.14464888 0.048457798 0.022623006 0.020992389 0.116041034 -0.046053864 -0.08685755 0.027831446
0.13422701 -0.054733496 -0.02035994 -0.04370236 -0.013592631 -0.16805516 0.11498452 0.17394575
0.13004728 0.032228313 0.06378223 -0.09708682 0.14696035 0.06512727 -0.04704911 -0.15209243
0.082864456 0.027857887 0.13024054 -0.036046784 0.07288139 0.13319525 0.012148005 -0.15352146
0.10708302 0.04698895 0.015940122 0.0038539814 0.1166321 -0.06536503 0.13527697 0.14170176
0.07815197 0.03947822 0.043274358 -0.07908744 0.09959654 0.14508227 0.07966923 -0.13036022
0.08606037 -0.063431345 0.059914313 0.07936257 0.08686302 0.0013749903 -0.017642474 -0.025900641
0.0712302 0.042790316 0.08103285 -0.051283803 -0.0676934 -0.12603363 0.21330377 0.10814349
-0.0113013 -0.019961007 -0.029946864 0.21279685 -0.18825223 -0.1320778 -0.014010785 0.14757594
0.028250808 -0.14820056 -0.221587 0.03252274 -0.073545225 -0.119170986 0.06137292 0.13922441
0.08556643 0.09102804 -0.11636721 0.100887865 -0.06677747 0.20348756 0.1538295 -0.060366504
-0.0619015 -0.079907365 -0.074360944 0.10501179 -0.10974792 -0.10189086 0.1359609 0.002449609
0.16163045 0.22612068 -0.096391745 0.15357068 0.027605692 -0.005283149 0.13657004 -0.15699568
0.11476509 -0.1435782 -0.09586045 0.04941464 -0.19374323 -0.11518225 0.07994097 -0.07653499
-0.18386619 0.119727775 -0.11867405 0.084850244 -0.14524363 -0.19720982 -0.13474867 -0.08510813
-0.14108016 0.16668476 -0.104393326 0.17674704 0.06935801 0.115123905 -0.087116554 -0.053322636
0.11500116 -0.1269415 0.13081099 0.124045506 -0.13044514 0.18934579 0.028903266 -0.07270436
0.02691889 -0.1929079 0.14102274 0.12831739 0.083365716 0.104218125 -0.071959525 -0.07809562
0.066739105 0.108714715 0.22071683 -0.17170738 -0.086487845 -0.09422989 -0.014430032 0.17770225
0.050686657 0.1820256 -0.069073014 0.037102554 0.04933781 -0.072380476 0.044147976 0.08180438
0.060460836 0.05348218 -0.08331082 0.16519897 -0.18826365 0.16701597 0.069478676 0.12526102
0.09239126 -0.034723923 0.10264922 0.04587986 -0.10878992 0.04374312 0.06511962 -0.17903693
0.1253548 0.15821034 -0.049675133 -0.18008901 0.1788096 -0.045887582 0.13111949 -0.07069935
-0.19127633 -0.15926643 -0.009951432 -0.13985924 -0.051320355 -0.14600502 -0.11992777 -0.13025351
0.042297155 -0.118512176 0.10991731 0.0063096797 0.1781142 0.08212307 0.04541459 0.14063424
0.045741923 -0.13421437 -0.035306092 -0.14362316 0.121449836 -0.018719573 0.15122746 -0.022768985
-0.18175189 -0.16901986 -0.15793632 0.015584854 -0.0039705327 0.108695336 -0.08636754 0.12691782

decoder.4.bias f4 [60]
00000000: fe3a bfbd 3492 e33d db55 1e3e aace b13d
00000010: d18d 1f3e 321f 08be e806 8d3d 6712 a03d
00000020: 8cbf 23be ff65 8f3c 473b e33d 1519 453d
00000030: 057d 3f3e ff04 d2bd f065 a4bd 1202 113e
00000040: fc52 06be 03fb 06be 53ec 26be 4199 183e
00000050: f84d 483e ec8d 073e d83a 97bd 2aef 8dbc
00000060: 2705 383e 46b9 0a3d 34ea 3e3d f5da 1e3e
00000070: 577d fa3d d93e 453d 3ae0 d5bd 64db 16be
00000080: b465 15bd aed4 71bc 82bb 173e 84b2 c2bd
00000090: 2d94 97bd b461 23bd 4c94 a9bd 121f 413d
000000a0: 422b 26bd 2dab 9d3d 0d02 043e f031 253e
000000b0: 9fa2 98bb ce19 c8bd dac6 9c3d 75d3 083e
000000c0: 1160 0abd 7259 2a3d 51c5 ae3d 0f0a f7bd
000000d0: 901b bfbd 92ee 02be c4f5 003d 092e af3d
000000e0: 0b43 353e e9eb 183d 786e 25be 5807 b03d
-0.09337424 0.111118704 0.15462439 0.08681996 0.15581442 -0.1329315 0.06886083 0.0781601
-0.15991038 0.01750469 0.11095291 0.048119623 0.18700035 -0.10254859 -0.080272555 0.14160946
-0.13117594 -0.13181691 -0.16301088 0.14902212 0.19560993 0.13237733 -0.073842704 -0.017325956
0.17970715 0.033868097 0.046610072 0.15513213 0.12230938 0.04815564 -0.104431584 -0.14732128
-0.036473945 -0.014760179 0.14817622 -0.095067054 -0.07401309 -0.0398881 -0.082802385 0.04714877
-0.040568598 0.07698665 0.12891407 0.16132331 -0.004658058 -0.09770547 0.076551154 0.13361914
-0.033783022 0.041589208 0.08533729 -0.120624654 -0.09331429 -0.1278632 0.03148438 0.085537024
0.17701356 0.037334356 -0.16155422 0.08595151

decoder.6.weight f4 [118, 60]
00000000: bf66 443d 4412 b63d 973a 833d 9e59 913b
00000010: 5bfa b6bd c28c c23a d63e babc 19f6 953d
00000020: ee08 9d3c d5f7 53bd cceb 2cbe a66d 73bd
00000030: 9a65 e4bc a6b9 e03c 9d75 173e 7eb0 dfbd
00000040: 1da3 743c 6e66 80bc 608d 1a3e a1fc e4bc
00000050: 4290 25be e174 4e3d b646 ec3a e220 cc3d
00000060: 0744 26be 1060 30be 6700 173d 4360 13be
00000070: 6078 05bd 7bde f4bc 515d 913d 8835 2a3d
00000080: 18ee 50bd d55c 8abc c948 24bd 730e 9bbd
00000090: c150 eabd a9dd 2dbd 0388 b03c bf04 f5bb
000000a0: 1784 5abd 561b 4e3c 8466 d7bd 2b4e d3bd
000000b0: 3a5b 9f3d 5416 0d3e c37f fdbd ba75 81bc
000000c0: 2246 603d ffab 093e ecb2 143d 4bfd a2bd
000000d0: 5d9c 19be a881 ddba c4a0 403c d1a2 143b
000000e0: df4c 823d da93 06bd 0156 b7bd d57b 03be
000000f0: b13d 0e3e 2976 d8bd ad04 393b 6ba7 cfbd
00000100: f60c c43d fb38 7e3c 1153 023e b5c6 05be
00000110: cfce a43d fee2 e33d 0041 15be 5cdd 903c
00000120: 49a7 1f3c baed bebd 2037 debc de15 a6bc
00000130: 3634 203d 66ee 093d 19d5 01bd bb3e 993d
00000140: 6791 863d 7ad1 b63d 0612 073d 7cfd 04be
00000150: b339 c53d 2968 99bd 37e9 04bd a930 503d
00000160: 1797 173d 1d62 f1bd 652e 9bbd d6ba ef3c
00000170: e146 723d 7ce4 7ebd 2b88 023e a526 963d
00000180: 99c0 18be 5241 4bbd 3152 a43d ca8e f0bc
00000190: 4cf4 94bd 57bc e1bc af4b cf3c 82e3 0cbd
000001a0: 79e3 8cbd 6698 c23c 0dba 873d 8b1a ef3d
000001b0: 468a 4f3d 8a43 363d 3f7a 593d 1a21 023e
000001c0: d94e 04be 989e 0abd 1675 85bd 6a20 47bd
000001d0: abe6 a93d f4e5 d33d dea7 9bbd e797 79bd
000001e0: 92fb 763d 99b9 673d ec84 473d a4f7 173d
000001f0: 0d5f c8bd 1805 9d3d 9f90 e2bd 9325 53bd
00000200: 5eec 1b3b 08b7 ecba 7814 1a3b 8ed4 d8bd
00000210: e59a 063e 4edc afbd 93cd 273a d410 6fbb
00000220: 21ba 55bb 0be9 0bbd b874 7e3c 5836 0a3d
00000230: 302d aabd cfd6 bd3d 8ce6 97bc 6490 d93d
00000240: 1f80 cabd ac3d ea3d 62d3 af3d 4be9 19bd
00000250: 4ad4 843c 9d59 ac3d 6926 e4bd a977 b83d
00000260: c548 823d 3876 83bd 158c 833d 865c 613d
00000270: 0d68 903c 2184 bd3d 01a5 d1bd 5081 98bc
00000280: 1e6e 283c 9304 bd3d 2ec3 993d 6670 3ebc
00000290: 39d9 82bd 7812 08be ace9 f9ba c85c 21bd
000002a0: feda 0abd a3af c13c 00df 9a3d fe15 693d
000002b0: 7cb9 a43c 90f2 11bd 1e44 493d 5326 a33d
000002c0: 75b8 19bd 1aaa ebbd 26d5 0c3c 25e7 53bd
000002d0: c54b df3d 5aa3 d8bd 5b90 8dbd e7aa 2f3d
000002e0: bae4 b9bd 0c6b 0dbc b9df 843d 8523 a2bd
000002f0: b113 483d 7022 db3d 9ca6 cebd 799e e73c
00000300: b79a a4bd 7822 9dbd 9da6 f1bd ac9e 6c3d
00000310: ec9b 9f3d 4435 9dbd 673c ba3d 201a 74bd
00000320: 0b8f 663d 0921 d2bd 3816 043e 3631 e2bd
00000330: 76f1 6e3d 88e3 4f3d 1613 1b3d 8ed3 f23d
00000340: 9a4b 6a3d c5a6 973d 4542 e9bd 50f9 a1bd
00000350: e458 5dbc ce42 073e ed3e b83d cc05 04be
00000360: 2750 913d 9e28 f93a 673b a5bb 14ac febc
00000370: 5bf4 6a3d ac50 3cbd 7720 523d f94b afbd
00000380: 0c35 f4bb 4d51 263d e4a5 0ebd 4666 f53d
00000390: 852a c4bd e983 593d 2b01 ba3d f1a8 d1bc
000003a0: b821 483d 399d f4bd 6d17 49bd dec3 9cbd
000003b0: e62e 193d d1e7 3ebd 8952 00be 3eb3 00be
000003c0: b864 613b 3d12 c63d 31d3 e23d 5ba6 9bbc
000003d0: 1b7c febc e85f 9ebd c795 d53d 6fea d6bd
000003e0: a19a 50bc 3385 6bbd a157 09be 3b8c 183d
000003f0: de9c a7bd b44f 1ebd be4a 173d 66ee 493d
0.04794955 0.08890203 0.064076595 0.004435732 -0.0893447 0.0014842974 -0.02273504 0.0732233
0.019169297 -0.051750023 -0.16886824 -0.05943074 -0.027880479 0.027432274 0.1479096 -0.10922335
0.014931467 -0.015673842 0.15092993 -0.027952494 -0.16168311 0.050404433 0.0018026445 0.099672094
-0.16236888 -0.17224145 0.036865618 -0.1439219 -0.0325855 -0.029891243 0.07097877 0.041554958
-0.051008314 -0.016889969 -0.040108476 -0.07571115 -0.11441184 -0.04244772 0.02154923 -0.0074773724
-0.053348627 0.01257976 -0.105176 -0.10317644 0.07781072 0.13778049 -0.12377884 -0.015803207
0.054754384 0.13444518 0.036303446 -0.07958468 -0.15001054 -0.0016899602 0.0117570795 0.0022680054
0.06362318 -0.032855846 -0.08951951 -0.12840207 0.13890721 -0.10569412 0.0028231547 -0.10139354
0.095727846 0.015516515 0.12727 -0.13064082 0.08047258 0.1112728 -0.14575577 0.017683677
0.009744474 -0.093226865 -0.027125895 -0.020274099 0.039112292 0.03367462 -0.031697366 0.07482668
0.06570702 0.08926673 0.032976173 -0.12987322 0.09630146 -0.0749057 -0.032448974 0.050827656
0.037009325 -0.11786292 -0.075772084 0.029263895 0.059149627 -0.06222962 0.12747256 0.073315896
-0.1491722 -0.04962284 0.08023489 -0.029364962 -0.072731584 -0.027555628 0.025304643 -0.034396656
-0.068793245 0.02375431 0.06627283 0.116749845 0.050668977 0.044498004 0.0530951 0.1270794
-0.12920703 -0.033842653 -0.06516473 -0.048614897 0.082959495 0.103465945 -0.076003775 -0.06093588
0.06029851 0.056573484 0.04871075 0.037101403 -0.097837545 0.07666987 -0.110627405 -0.051549505
0.002379201 -0.0018059919 0.0023510735 -0.105874166 0.13145025 -0.08586942 0.00064011774 -0.0036478536
-0.0032612162 -0.034157794 0.015530758 0.033743232 -0.083094 0.09269487 -0.01854255 0.106232435
-0.098877184 0.11437544 0.0858524 -0.037576 0.016214509 0.0841553 -0.11140139 0.09007198
0.06361536 -0.06419033 0.06423203 0.055019878 0.01762774 0.09253717 -0.1023655 -0.018616349
0.01028016 0.09229388 0.07507931 -0.011623478 -0.06389088 -0.13288295 -0.0019066832 -0.039395124
-0.033900253 0.02364332 0.07562065 0.05690574 0.020107977 -0.035631716 0.049137227 0.07966294
-0.037529428 -0.11507054 0.00859574 -0.05173411 0.10903124 -0.10578032 -0.06912299 0.042887595
-0.09076829 -0.008631479 0.06487984 -0.07916931 0.048846904 0.10699928 -0.10090372 0.028273808
-0.08037322 -0.0767259 -0.11799357 0.05776851 0.077934116 -0.07676175 0.09093552 -0.059595227
0.05628876 -0.10260207 0.12899101 -0.110445425 0.058335744 0.0507541 0.03786 0.11856757
0.057201006 0.07404856 -0.11389593 -0.07908881 -0.013509963 0.13209078 0.08996377 -0.12892836
0.07095366 0.0019009297 -0.0050424817 -0.031087913 0.05736194 -0.045975372 0.051300492 -0.085594125
-0.0074526127 0.04060488 -0.034826174 0.11982398 -0.095784225 0.053104315 0.09082254 -0.025593253
0.04886028 -0.1194405 -0.049094606 -0.07654546 0.03739824 -0.046607796 -0.12531485 -0.12568375
0.0034392308 0.096714474 0.11075438 -0.019000223 -0.031065037 -0.077331364 0.104289584 -0.104939334
-0.012732179 -0.057500076 -0.13412334 0.03724311 -0.08184217 -0.03865023 0.036936514 0.04929962

decoder.6.bias f4 [118]
00000000: 2105 14bc 429b bfbc 92a8 f0bc df23 c7bd
00000010: 9a05 a0bd d64d b9bd 20b6 bc3b b175 933c
00000020: a505 e53d 0be5 b63c 22b5 b5bd 7aa2 083e
00000030: 3b87 a3bc 3603 fb3d 2104 0a3e 0291 a03c
00000040: c049 ae3d 9421 163b a9ff 953d 0212 a63c
00000050: 939a 88bd 2958 c4bd f99b f7bc b6e1 c6bd
00000060: 82c5 7a3d d1e1 39bd c1d5 d6bd 8daa e4bb
00000070: abac 403d 7f1f 2cbd 5dfc 0d3d 273d ca3d
00000080: a012 87bd 1c6b 9abd 764c 9b3d cbbc cf3a
00000090: a9b1 293d ae87 efbc 8a8b 883d e776 0e3e
000000a0: 5613 913d 0dc2 a3bd 425a babd b06b 9cbd
000000b0: b2a5 adbb 45c2 51bd 09bf 14bc 00ec 06bd
000000c0: 3fba c23d 05f7 053d 4136 bdbd 2e4a c9bc
000000d0: ba1b 82bd d504 173d 4c59 883d ed56 513d
000000e0: 5954 4d3d 5172 843d 6e33 92bd 7d4e b3bd
000000f0: 5561 10bd f428 d5bd b3d2 5f3c 8091 863d
00000100: d7e1 50bd ad8a d7bd f553 22bd a5e9 453d
00000110: 6cc9 9cbb cebf 24bd a86b b0bc fba8 a23d
00000120: f5a7 a23d 7b72 a1bd 80b8 1b3d 9b03 50bd
00000130: b4b4 93bd 8d02 8abd b1ea d4bc 4fc9 f53c
00000140: 94c8 533c ee7d e6bc 2c13 ddbb c0e9 e03c
00000150: c477 94bd 05e4 01bd dd14 ef3c 12f6 0f3d
00000160: ceb7 2fbc ddc0 c5bc 4bad cfbd f333 8fbd
00000170: cc77 a13d 65cf 9e3d e455 5b3d 7c17 e43d
00000180: 7a16 92bd 48f3 95bd 2589 91bd 9a10 d9bc
00000190: ae1c b03d 155b b83d 9a96 ed3d 890e 783d
000001a0: 16b7 6dbc 998d 93bd 36e4 b5bd fc03 80bd
000001b0: 159f c6bd a20e 54bd ea8d 06be f3ec 203d
000001c0: b78c c93d b8d8 0fbd 780a f63d 77b9 8abc
000001d0: 69df ddbd 47b8 063d
-0.009034426 -0.023389462 -0.029377256 -0.09723639 -0.078135684 -0.09048049 0.0057590157 0.018000456
0.11182717 0.022326013 -0.08872439 0.1334323 -0.019961944 0.12256472 0.13478138 0.019600395
0.085101604 0.0022908198 0.07324154 0.020272259 -0.06670108 -0.09587128 -0.03022574 -0.0971102
0.061223514 -0.04538137 -0.10489989 -0.006978339 0.04703967 -0.042022225 0.0346645 0.09874945
-0.06595349 -0.07539961 0.07582943 0.0015849111 0.041429196 -0.029239502 0.0666724 0.13912545
0.07083766 -0.079959966 -0.090992466 -0.07637727 -0.0052992934 -0.05121066 -0.009078749 -0.03293991
0.0950818 0.03270628 -0.09238864 -0.024571504 -0.06352945 0.036869843 0.06657657 0.05110829
0.05012927 0.064671166 -0.07138716 -0.08755205 -0.035249073 -0.10408202 0.013661074 0.06570721
-0.050996628 -0.10524497 -0.03963085 0.048318524 -0.0047847535 -0.04022198 -0.02153571 0.07942387
0.079421915 -0.078831635 0.03801775 -0.05078469 -0.07212201 -0.06738768 -0.025990816 0.030003218
0.0129262395 -0.02813622 -0.00674667 0.02745521 -0.07249406 -0.031711597 0.029184753 0.03514678
-0.010724975 -0.024139816 -0.10140475 -0.069923304 0.078841776 0.07754401 0.05354871 0.11137292
-0.07133193 -0.07321793 -0.07106236 -0.026497174 0.0859922 0.090017475 0.116009906 0.060560737
-0.014508983 -0.07204742 -0.088814184 -0.0625076 -0.09698311 -0.051771767 -0.13140073 0.039288472
0.09841292 -0.03511879 0.120137155 -0.01693414 -0.10833628 0.032890584

estimation.0.weight f4 [10, 3]
00000000: da55 3abe 7588 40be dd9c a6be c654 033f
00000010: 7db8 a53d 8a74 c53e f2f1 20be 9f4e 10be
00000020: 266d a13e 360b 8c3e b5ee 493d 8fef a0be
00000030: af0f 53be 1d3d 203e 85c9 e3be e9e1 33bd
00000040: 8ebf dc3e 75a5 703e d5b4 3bbe 9a95 ffbd
00000050: ca03 afbe 60e4 c63d f8dd 88be 3e61 343e
00000060: 0c70 c9be 9838 193f 923b eabd a4aa b0be
00000070: 0a0b 173f 7a0a 303e
-0.18196812 -0.18802054 -0.32541552 0.5130123 0.08091829 0.38565475 -0.15717295 -0.14092492
0.31528586 0.27352303 0.049299914 -0.3143277 -0.20611452 0.15648313 -0.44489685 -0.043916617
0.43114895 0.23500617 -0.183307 -0.12479706 -0.34182578 0.09711528 -0.2673185 0.1761522
-0.39343297 0.5985198 -0.114371434 -0.34505188 0.5900122 0.17191496

estimation.0.bias f4 [10]
00000000: ee8d 583f 9d63 0ebf 54ef dcbe d526 f03e
00000010: c92f 9d3d 1afa 1c3f 1bbf 35bf d5bd 933e
00000020: 83b0 353f 7244 e93e
0.8459157 -0.5562075 -0.43151343 0.46904626 0.0767513 0.61319125 -0.7099473 0.28855768
0.7097246 0.45560032

estimation.3.weight f4 [4, 10]
00000000: 5f85 9dbe 019b df3e 1dfe 9b3b 3ff8 a3be
00000010: b278 a73c 5069 92be 00cc 843e 40aa 45be
00000020: 9a6e 99bd ad11 ac3d b16a 03bf df9f 10be
00000030: 28ac 9a3e 3707 b13c 148c 99be 45c2 7bbe
00000040: 0539 143e 2cce 113c d80b 08be cda9 ccbe
00000050: c323 153f b897 12be 865b 04bf 3d05 c03e
00000060: 09d6 6f3e 24eb b63e 6baf 89be a2b5 1fbe
00000070: 8938 9a3e 0025 fd3e 80d8 843c 6bc0 263d
00000080: 968c a43e f2a4 23be fbb1 2cbe 0507 e4be
00000090: f117 af3e cf7e e73d 13bb dbbe 0133 f4be
-0.30765817 0.43672946 0.0047605173 -0.32025334 0.020443294 -0.28595972 0.2593689 -0.19303226
-0.07491799 0.08401809 -0.51334673 -0.14123486 0.3020947 0.021609886 -0.29989684 -0.24585827
0.14474876 0.008899253 -0.13285768 -0.39973298 0.58257693 -0.14315689 -0.51702154 0.37503996
0.23421492 0.35726273 -0.26891646 -0.15596631 0.30121258 0.4944229 0.016216516 0.040710848
0.3213851 -0.1598089 -0.16864769 -0.44536605 0.34197953 0.11303484 -0.42916164 -0.47695163

estimation.3.bias f4 [4]
00000000: 3e43 8ebe 4015 9dbe f0ad 723e 60b4 6abd
-0.27785677 -0.30680275 0.23699164 -0.057300925
