Baseline-models/DAGMM/DAGMM-CHD/no--dagmm/models/28_194_dagmm.pth (torch, 82200 bytes, 22 tensors)

phi f4 [4]
00000000: 89ec 073d e849 ee3c 15f6 683f 4a1a e33c
0.033184562 0.029087976 0.9100049 0.027722497

mu f4 [4, 3]
00000000: 76cf d53e 917d 893f 86ce 2f3d 5cb7 d03e
00000010: c815 8b3f 1cc3 6b3c 373b 7c3e 4e08 a53f
00000020: a077 e6be e67d d33e d536 8a3f 5695 f53c
0.41759843 1.0741445 0.042921565 0.40764892 1.0866022 0.014389779 0.24631964 1.2893159
-0.45013142 0.4130699 1.0797983 0.029978435

cov f4 [4, 3, 3]
00000000: 6da6 c43d 1b13 f7bd f88b 8d3e 1b13 f7bd
00000010: 603e 1b3e 81d9 b1be f88b 8d3e 81d9 b1be
00000020: 6ec5 4b3f dc4d c43d 7dab f6bd df50 8d3e
00000030: 7dab f6bd 0702 1b3e 9294 b1be df50 8d3e
00000040: 9294 b1be ea76 4b3f be93 913d cdf4 b6bd
00000050: 70a3 513e cdf4 b6bd e001 e63d 27be 83be
00000060: 70a3 513e 27be 83be bef2 163f 0da3 c33d
00000070: 94d6 f5bd ced5 8c3e 94d6 f5bd 947e 1a3e
00000080: 7ffb b0be ced5 8c3e 7ffb b0be a7c5 4a3f
0.09602056 -0.12064191 0.2764585 -0.12064191 0.15160513 -0.34736255 0.2764585 -0.34736255
0.7959813 0.09585163 -0.120444275 0.27600762 -0.120444275 0.15137492 -0.34683663 0.27600762
-0.34683663 0.79478323 0.07108258 -0.08933411 0.20472503 -0.08933411 0.112308264 -0.25731012
0.20472503 -0.25731012 0.58964145 0.09552584 -0.12003818 0.2750687 -0.12003818 0.15087348
-0.34566876 0.2750687 -0.34566876 0.79207844

encoder.0.weight f4 [60, 118]
00000000: 3797 acbc fda1 a53d f015 b63c 673b f93b
00000010: 7eec b33d 30b6 e5bc f5b0 1e3d 34cb 683d
00000020: 8201 83bd c39e 8c3d fc28 243d fed0 7f3c
00000030: 5928 4c3d 1505 533d 7ec8 81bd 5755 11bd
00000040: f141 aa3d 87f6 35bd 4674 abbc f5b2 8ebd
00000050: 4dc2 92bc a977 d1bc 2884 0d3d d0d3 4abd
00000060: 9fe8 bb3d eab1 873d 46e2 be3d 6098 edbc
00000070: ad5f 18bd a724 b2bd 6b35 abbd 3ea8 6fbc
00000080: a9bf 773d a635 1a3d 5f21 16bd 3122 6f3d
00000090: df08 86bc 4ee3 4ebd fd37 47bc 9601 5ebd
000000a0: 653c 4d3d c760 373d 38b1 d53c 92c8 673b
000000b0: e0f7 c7bc 79bc 833c 819c 93bd 0420 f1bc
000000c0: 317b 45bd 26d3 9bbd 2dc2 0cbd eded 83bc
000000d0: 9f78 9ebc e30d bcbb 4288 023c 0666 a1bd
000000e0: 93c7 13bd 2597 d0bb 08bd ac3a 40f6 53bc
000000f0: c0da cbbb fc80 c9bc d8f9 b53d 9272 193d
00000100: 85c3 b23d 715d a63d b4c3 913d 6b0d 87bd
00000110: 7227 3f3d d900 9d3d 403e a83d 5764 063d
00000120: 5378 823d e365 5ebd b11f 103d 0b1c a0bd
00000130: 37b7 03bd aeed aebc 24d9 94bd bffe c83a
00000140: 483a ddbc c2f6 093d 0c9e 38bd bfb2 28bb
00000150: 6e8e 743d 702f e4bb c8e6 98bd 3a8b a83c
00000160: 390d c6bd abd0 aa3d 48dd 383c c720 8e3c
00000170: 937b 84bd dea4 c63c 4548 2f3d 3878 aa3d
00000180: a83e 033d 0048 1739 262c 893d 77b8 28bd
00000190: bc19 873d 4db0 6e3d 0d43 54bd c288 1dbd
000001a0: 628f 18bc 6be4 4c3d 1a0a f9b9 111d 89bd
000001b0: 6dae 4b3d d852 073d 51b5 16bd 3796 623c
000001c0: 7fcb 90bc 21ec 83bd 0392 883d 5b02 96bc
000001d0: 5777 483d 333d 58bc 0db1 d5bc 1450 6f3d
000001e0: e7a1 b43d 6a73 013b 24ec 85bb 4267 6abd
000001f0: fcb9 73bd 9747 363d 857e 7b3b cf6e 6e3d
00000200: 1364 673d 30f7 2e3d 30d0 aabb f3d6 313d
00000210: c89e c7bc 6baa aebc 6d83 483d 4824 a9bc
00000220: ebb3 6a3d 5838 aebc b15d 493d 3e67 a03d
00000230: 5274 a93c db8d 0abd 3ec0 dd3c 761c 50bd
00000240: 0408 2bbd 70c9 cbbd 994f a93d 37c6 90bd
00000250: 5eab 953c 9331 7c3c 9a5b a93d 2760 a73c
00000260: 8d36 df3c 6c4d 57bd bb13 3d3d 741f b53d
00000270: 3031 7fbd 31cc 3dbc 4ab6 a1bd b78f 953c
00000280: a402 e03c 7329 e0bc f990 edbb 190c c8bc
00000290: 9a85 69bc 5d98 453d 2255 a83d 3fb8 b63d
000002a0: dd26 edbc ca05 8c3c 3f79 83bd ea74 8a3d
000002b0: e3c9 82bd be17 303d 98cc 8ebc d659 843d
000002c0: eb8c b43d 25b1 04bc e3cf b53d 5cc6 48bc
000002d0: 1bcf 893d 80ec aa3c 5200 b43d d259 6a3d
000002e0: 27c4 a739 35d8 ad3c 1726 0f3c 5bd5 3abd
000002f0: 8c40 15bd 1f8a d9bc ac7c 713d 72f6 6d3d
00000300: 55c1 8b3d 6a85 06bd b0e8 28bc 2ede 8b3d
00000310: c4e9 143d 10e0 1f3c 36c3 b43a 4cd6 e83c
00000320: fb57 87bd 5878 8dbd 8e6b a5bd d626 383d
00000330: 0a3d 84bb e99e 16be e0da 18bc 9b94 b6bc
00000340: e2ee 813d 4687 013c b79d 9bbd 9709 903d
00000350: be62 cabc 0460 16bd 73d4 52bd 7c96 7dbd
00000360: 9fb2 b9bc 9d62 a1bd 3f99 2fbc 74f6 5ebd
00000370: 3e2a e63d 4d9f ebbc 1ee0 a93d 0215 24bd
00000380: 7e5e e63b edb6 023d 3ac2 95bc cce6 c4bd
00000390: 8946 53bc a3ed e73c 41d6 dbbc 1c67 073c
000003a0: bf83 273c 335e c33d fd17 39bd d634 b0bc
000003b0: 9140 58bc b468 56bd e20c 5d3c 10a3 66bd
000003c0: f847 113d b309 cebd a8f6 c9bd 55ef 113d
000003d0: b4d6 853d 0009 88bc fd0a 8fbb 9571 1fbb
000003e0: 06a2 873d 3a86 0c3d 10f3 063c 468f 3a3d
000003f0: 8b7a ad3c 1810 8e3b 9b46 afba ea65 913d
-0.021068199 0.080875374 0.022227257 0.0076059583 0.08785342 -0.028040975 0.038742978 0.056834415
-0.06396772 0.06866219 0.04007815 0.015613792 0.049843166 0.05151852 -0.06337069 -0.035481777
0.083133586 -0.04442456 -0.020929467 -0.06967727 -0.017914915 -0.025569754 0.034549862 -0.049518406
0.09175228 0.06625731 0.09320502 -0.029003322 -0.03720062 -0.08698397 -0.08359798 -0.014627514
0.060485516 0.03764882 -0.03665292 0.058382217 -0.016361652 -0.050509743 -0.012159345 -0.05420073
0.050106425 0.04477003 0.026085481 0.0035367352 -0.024410188 0.016081082 -0.07207585 -0.029434212
-0.048213188 -0.07608633 -0.034364868 -0.016104663 -0.019344626 -0.00573896 0.007967057 -0.078807876
-0.036079 -0.006365674 0.0013178894 -0.012937129 -0.0062211454 -0.024597637 0.088855445 0.03746278
0.08728699 0.08123291 0.071174055 -0.06594356 0.046668477 0.07666177 0.08214998 0.032810535
0.06370606 -0.054296385 0.035186473 -0.07817849 -0.03215715 -0.021353569 -0.07267979 0.0015334709
-0.02700533 0.033682592 -0.0450726 -0.0025741307 0.059706144 -0.006963663 -0.07465893 0.0205742
-0.09670491 0.083405815 0.011283226 0.017349614 -0.064688824 0.024248537 0.04279353 0.08323711
0.032042176 0.00014427304 0.06697874 -0.041191544 0.06596705 0.058273602 -0.051821757 -0.0384605
-0.009311529 0.050022524 -0.00047500507 -0.06694997 0.049726892 0.03303799 -0.03679401 0.013829759
-0.01767516 -0.064415224 0.066684745 -0.01831167 0.048941936 -0.013198185 -0.026085401 0.058425978
0.08819943 0.001975263 -0.004086988 -0.05722738 -0.05950354 0.044501867 0.0038374972 0.058211144
0.056491923 0.042716205 -0.005212806 0.043417882 -0.024367705 -0.021321496 0.048953462 -0.020647183
0.05730049 -0.021267101 0.049161617 0.07832192 0.020685349 -0.03382669 0.027069207 -0.050808392
-0.04175569 -0.099505305 0.08267135 -0.070690565 0.01827019 0.015392679 0.08269425 0.020431591
0.027247692 -0.05256407 0.046161395 0.0884389 -0.06230277 -0.011584328 -0.07896097 0.018257005
0.02734501 -0.027363515 -0.007249948 -0.024419831 -0.0142530445 0.048241008 0.08219363 0.08921861
-0.028949196 0.017092604 -0.0641961 0.06760581 -0.06386163 0.042991392 -0.017431542 0.06462447
0.088159405 -0.008098875 0.08877542 -0.012254324 0.06728955 0.020864725 0.087891236 0.057214566
0.00031998867 0.02122126 0.008737109 -0.045613628 -0.03643851 -0.02655512 0.058956787 0.058096357
0.068239845 -0.032842077 -0.010309383 0.06829487 0.03635575 0.0097580105 0.0013791088 0.028422497
-0.06608578 -0.069077194 -0.08077155 0.04495891 -0.0040355967 -0.14709057 -0.009329528 -0.022287657
0.063443914 0.007905787 -0.07598441 0.07033079 -0.024705287 -0.03671266 -0.05147214 -0.06191109
-0.022668181 -0.07880137 -0.010717689 -0.054434255 0.11238526 -0.028762484 0.082947 -0.040059097
0.0070303073 0.031912733 -0.018281091 -0.096143335 -0.012895235 0.028311556 -0.026835563 0.008264329
0.010224282 0.095394515 -0.045188893 -0.02150957 -0.013198988 -0.052345946 0.013491841 -0.056307852
0.035469025 -0.10060444 -0.09861499 0.035628635 0.06535092 -0.016605854 -0.0043653236 -0.0024329175
0.066227004 0.034307696 0.008236662 0.045546792 0.021176597 0.0043354146 -0.0013372482 0.07099517

encoder.0.bias f4 [60]
00000000: 43e4 003d 1e59 b53d 5d6c 80bb 58f1 023d
00000010: de87 8fbd 2662 203d 6599 cebd 062a 12bd
00000020: cb58 5e3d 9922 8a3d 8e19 67bc cec7 2cbd
00000030: 1109 35bd ad57 863d 9ecb 1abd 4def 97bd
00000040: 310d d2bb 38eb 973d bdf1 3bbd 9ea3 043e
00000050: 3249 06bc a413 753d 624a fcbd ba42 91bc
00000060: 6d25 d53c 6a46 ce3b f7af 4f3d dbf2 1bbd
00000070: 4185 ddbc e8e2 b63d fa68 233d 2b17 b9bc
00000080: 6ee4 a43d 38ca a0bd f2de 723c 14f3 9cbd
00000090: 0315 a63d 5c06 f63d 8c8d 75bd 8ff9 41bb
000000a0: cda4 79bd aed5 9abc cae3 fa3c 3ae1 78bc
000000b0: 8f0f 3dbd 43e8 c1bc cd8d 273d b2ac e5bc
000000c0: 7908 0cbd e796 dabc 1cfd 35bd 442f 20bd
000000d0: 2e43 a5bd 38ae 1cbd f386 8fbc bbc6 3ebc
000000e0: 609b 1c3d 4840 43bb 3db9 bcbc 2939 703d
0.031467687 0.088548884 -0.003919168 0.031968445 -0.070083365 0.0391561 -0.100878514 -0.035684608
0.0542839 0.0674488 -0.014105214 -0.042182736 -0.0441981 0.065596916 -0.03779184 -0.0741869
-0.006410264 0.07417911 -0.045884836 0.1295304 -0.008196162 0.059833184 -0.12318875 -0.017732013
0.026018823 0.006295015 0.050704923 -0.038073402 -0.02704108 0.08929998 0.039895035 -0.022594055
0.08051382 -0.0785107 0.014823662 -0.07663551 0.081094764 0.12012932 -0.059949443 -0.0029598211
-0.060948182 -0.018900719 0.030626196 -0.015190417 -0.046157416 -0.023670321 0.040906716 -0.02803645
-0.034187768 -0.026683284 -0.044430837 -0.039107576 -0.08069454 -0.038252085 -0.017520403 -0.011644061
0.038234115 -0.0029792953 -0.023037547 0.058648262

encoder.2.weight f4 [30, 60]
00000000: e4a9 efbd dcc8 e13d d6f8 7bbd f9b5 d5bc
00000010: cb42 d5bd 1b5b 873d 9573 90bd 12d0 aa3d
00000020: 1383 a93d d310 73bd bb26 783d 5c30 9cbc
00000030: fee7 e1bd cd3e a5bd 789e d53d 9eeb 413d
00000040: 391b 7e3b 8c02 0ebd a79f ed3d 30c4 d7bc
00000050: 6720 d73d 5d07 ebbd 6270 efbd 0768 9e3c
00000060: 989f bf3d fa5b 213d 9e54 e5ba aa70 833c
00000070: acd4 e43d 7c36 01be 0f81 1b3c 45af a2bd
00000080: b199 ae3c 61a7 1d3b 9c31 21bd a512 943c
00000090: 934a a73d 9fe2 ea3b ae4b de3b 38a8 753d
000000a0: 6aef 033e 99b1 a0bd 56b5 b3bd 516f debd
000000b0: 2008 fbbd e63d 1abc b67e 56bd e3ca e8bd
000000c0: 0351 71bd d322 b93c 24c0 ce3d 4a38 f43d
000000d0: 185f 8d3d ec7a 18bd b396 cc3b d4f2 c33b
000000e0: 3ffa d2bd 1ee9 073e 9efd efbd 12fc d73d
000000f0: 84af adbd da0f 5b3c 6ff8 cb3d 67b5 90bd
00000100: 48dc c53d c2fb 92bd 27f5 a13d 0ccf e83d
00000110: 7fa8 cd3d e729 493d ea9f 043d 885f e03d
00000120: bdb6 333d caca 48bd 65a1 1c3d fabe d0bd
00000130: 1a1c 81bd 48ef 933c b4b0 303d 9603 22bd
00000140: 79c4 e2bd ccd4 083d f396 1bb8 1d66 a4bc
00000150: 9269 4cbc 0d54 e03c aa34 c43d 5ea9 f33d
00000160: bc2a 793d 1e44 15bd de3a c23c 69d3 e9bd
00000170: dd51 a13d 395b bcbd 1322 06bd 5507 d23d
00000180: a875 813d 6387 dcbd 1f59 af3d 9c47 b33d
00000190: 3474 843d d3ae 833d 7a9d 97bd cf9d ecbd
000001a0: 9612 ae3d bf1b 94bc 08f7 7f3d 7a21 9d3d
000001b0: eea0 9e3d 9182 a8bd f36b e9bd 628a 05bd
000001c0: 4272 80bd e79f c7bd 203d a93d 4178 023e
000001d0: 8fc5 26bd 5357 933d e91f 853d 46b5 383d
000001e0: 8def 12bd 50b1 acbd 32ea ddbc a764 083d
000001f0: bf32 ac3d 8a39 2d3d 37bc c93d 3f2f 6cbd
00000200: c65f 50bd da55 69bd 8697 b5bd f80e 98bc
00000210: 772a 9bbd d2dc 823d 392e 223d 96b8 0abd
00000220: 090d ac3d 67e8 903d 1c66 dcbd c2c3 e9bb
00000230: e39e ef3c 2ad3 8c3d b574 03be 4cd1 06be
00000240: 82f5 08be af1e 2e3b 9749 063e 5be6 863d
00000250: e8e6 fbbd 3eb0 d43d ba4c 91bd 47e3 aabd
00000260: 7db3 013e ea6e 173d 5bd7 763d ca58 d7bb
00000270: 8eab 9e3c 9561 dc3b ea47 0a3d 74fb 033b
00000280: 1306 ffbd 2df7 0c3e 23d6 cb3d 0661 51bc
00000290: aa4c 95bc 6c32 cc3d c2d1 e23d 7435 5c3d
000002a0: a8c4 8c3d d276 d2bd 73c2 7e3d b06e e93d
000002b0: 95ae 9abd 3389 083e a99f b8bd 841c 02be
000002c0: 3ceb 95bd 6004 89bc 2cce e5bd f8cb 43bd
000002d0: e647 cb3d 8ffd 7f3d 8817 2abc 8c4e 96bc
000002e0: e959 fabd 3a3a 053e 4457 64bd cf1c 003b
000002f0: d9c2 66bd 9dfb a9bd 4687 03be 98fb debd
00000300: ab29 7ebc 6633 553d b26e ad3d 223f 04bd
00000310: 087a 943b 5a21 933d a706 7d3d e95b 043e
00000320: 528a d6bc 0c5d 0ebd ea72 1ebc c304 aa3d
00000330: 2703 f23c 2912 07be a1ef b83d 0606 0c38
00000340: e25e e2bd 3a31 0b3e 9235 a4bd 99ba 163b
00000350: 7620 96bd 0137 b0bd 42c9 ccbd 7495 963d
00000360: c4fc 693d 0b96 50bd 5a61 9b3d a652 d3bd
00000370: 15f3 20bd a0b2 483c f37b ce3d f330 c63d
00000380: 35db a2bd cc69 163d 657f e8bc 1258 b93d
00000390: dcc5 a4bd a6ff eabd f8b0 0abd c36c 3f3d
000003a0: e2aa 39bd fed3 573d 0f55 fcbd 089c dabd
000003b0: 5944 303d 94c0 02be ab00 453d 0458 b23c
000003c0: 929e d73d 63d3 0abd ba9a 7ebc 3650 07be
000003d0: 58f0 90bd f448 a2bd 79da 0bbe 67aa 9cbd
000003e0: 735f d23d 8001 9dbd 6b14 15be d33c ffbd
000003f0: 9c45 c8bd 2b02 8b3d 78e3 c9bd 28ed 80bd
-0.11702326 0.11024639 -0.061516605 -0.026087748 -0.104131304 0.06609174 -0.070532955 0.083404675
0.082769535 -0.059342217 0.06058381 -0.019066028 -0.11030577 -0.08068619 0.10430616 0.047343843
0.003877355 -0.034670398 0.11602717 -0.026338667 0.10504227 -0.11476014 -0.11691357 0.019336713
0.09356612 0.039394356 -0.0017496531 0.016044933 0.111733764 -0.1261844 0.009491219 -0.07943586
0.02131352 0.0024056064 -0.03935395 0.018075297 0.08168521 0.0071681286 0.006783924 0.05997488
0.12884298 -0.07846374 -0.087748215 -0.10861076 -0.12257409 -0.009414172 -0.052366935 -0.113668226
-0.05891515 0.022599613 0.10095242 0.11924799 0.06902903 -0.037226602 0.0062435507 0.005979875
-0.10301637 0.13272521 -0.117182955 0.105461255 -0.084807426 0.0133704785 0.09959494 -0.0706585
0.09661156 -0.07176925 0.07908087 0.11367616 0.10041904 0.049112227 0.03237907 0.10955721
0.043875445 -0.04902152 0.038239855 -0.10192676 -0.06304188 0.018058434 0.043137267 -0.0395542
-0.110726304 0.033406064 -3.7095462e-05 -0.020068223 -0.012476342 0.027383829 0.095803574 0.118975386
0.06083177 -0.036441915 0.02370971 -0.114172764 0.07876942 -0.09197087 -0.03274734 0.10255305
0.06321269 -0.107680105 0.085619204 0.08753893 0.064674765 0.064298294 -0.07403083 -0.11553537
0.08499639 -0.018079637 0.062491447 0.07672401 0.07745539 -0.082280286 -0.11397543 -0.032602675
-0.06271793 -0.09747296 0.08263612 0.12741186 -0.04071575 0.0719439 0.06500227 0.04509475
-0.035872985 -0.08432257 -0.027089212 0.033299115 0.084081165 0.0422912 0.09850352 -0.057662245
-0.050872587 -0.05696664 -0.088667914 -0.018561825 -0.07576459 0.063897744 0.039594863 -0.03386744
0.08400924 0.07075577 -0.10761663 -0.007133932 0.029250568 0.06876214 -0.12837489 -0.13165778
-0.13374904 0.0026568582 0.1311401 0.065869056 -0.12299901 0.10385178 -0.070947126 -0.08344131
0.12666126 0.03697101 0.060263973 -0.006571864 0.019368913 0.0067255 0.03375999 0.0020138891
-0.124523304 0.13766165 0.09952953 -0.01277948 -0.018225033 0.09970555 0.110751644 0.053761914
0.06873447 -0.102765694 0.06219716 0.11398065 -0.0755283 0.13333587 -0.09014828 -0.1270619
-0.07320258 -0.016725719 -0.11220965 -0.04780194 0.09925823 0.06249767 -0.010381587 -0.018348001
-0.1222418 0.13010493 -0.055747285 0.0019548421 -0.056338165 -0.082999445 -0.12844571 -0.108878314
-0.015512864 0.05205097 0.08468379 -0.03228677 0.004531149 0.07184096 0.061773922 0.12925686
-0.026189003 -0.034756705 -0.009670952 0.083016895 0.029542519 -0.13190521 0.090300806 3.338421e-05
-0.11053254 0.13592997 -0.0801803 0.0022999404 -0.0733041 -0.08604241 -0.099993244 0.07352725
0.05712582 -0.050924342 0.07586928 -0.10318498 -0.03929432 0.012249619 0.10082235 0.09677305
-0.07951967 0.03672199 -0.028381059 0.09050001 -0.08045551 -0.11474542 -0.033860177 0.046734583
-0.045328982 0.052692406 -0.12320911 -0.10674292 0.04303393 -0.12768775 0.04809634 0.021770485
0.10528292 -0.033893 -0.015539819 -0.13214192 -0.07077092 -0.07924071 -0.1365756 -0.07649689
0.10272112 -0.07666302 -0.1455857 -0.12462773 -0.09778902 0.06787523 -0.09857839 -0.06295234

encoder.2.bias f4 [30]
00000000: 83c4 ebbd 4cf0 e8bc c188 d83d 9835 57bc
00000010: 44b8 ae3d 4d1c 9539 da28 aa3d a42b 113d
00000020: 73db 4f3c ab4d 08bd be72 8bbd 1746 de3d
00000030: 6a76 443d 147a 783b c89e fe3d f68e df3c
00000040: 3419 ea3b 3443 973d 6e40 953d 7a88 963c
00000050: 9290 413d 167e 703d ba78 e9bc 10d1 903d
00000060: 6e25 ad3d 9c8a e83d f067 203d 0d16 353d
00000070: dfa2 d33d f4b5 913d
-0.11512091 -0.028434895 0.10572959 -0.013135336 0.0853124 0.0002844058 0.08308573 0.03544201
0.012686598 -0.033277195 -0.06808995 0.10853212 0.04796449 0.003791456 0.12432629 0.027289849
0.0071441177 0.07385865 0.072876796 0.018375624 0.047257014 0.058713995 -0.02849995 0.070711255
0.08454405 0.11354563 0.039161623 0.044210482 0.103337996 0.07114783

encoder.4.weight f4 [10, 30]
00000000: 055b 26be 9623 243e 510f 82bd 0f73 2fbd
00000010: 457d e03d 19f6 633c fd48 54bd 82d0 06be
00000020: 450c 2abe 42fe 59bd b8d8 9c3d 4f46 28be
00000030: c449 673d f7a9 483e 978e dd3c 1902 263e
00000040: 0c89 5f3d 6734 3fbe d6de 9bbc 719a 0a3e
00000050: 8fab 9bbd f5f9 80bc 40ef d6bd cbc5 e43d
00000060: 243b e0bc f7f5 82bd f4ad c43d b505 1d3e
00000070: 7b82 063e 1ed7 d43c 6b63 283e 22f4 abbd
00000080: 2bfd 53bd 0c05 e0bd 871d 553d 65c2 10be
00000090: da2d c03d 94f4 c33d 6cbb fbbd afc2 8c3d
000000a0: 0600 b1bc 6641 22be ad3a 183e 9c84 2abd
000000b0: 0e5e 65bd 7093 a2bd e0b4 353d aed4 2cbe
000000c0: fb61 fdbd 0ef5 1f3e 6e05 2e3e 4270 e7bd
000000d0: cd64 d13d 7658 363d a92c 1bbe ced9 2bbe
000000e0: ae36 8d3d 9e6e c83d 4b3f 39be 7a68 2f3a
000000f0: c555 05be 11ff 92bd 0576 b1bc f626 263e
00000100: eb49 963d ee57 0dbe 2680 59bd 33a7 353e
00000110: b304 1fbd d965 04bd 84c5 27bd 4755 21be
00000120: 46fe f0bd 4ba4 113e 64a0 e7bd 6082 7ebc
00000130: 2e60 273e 7ef1 0e3e ba99 29be 784f 253c
00000140: 2f57 38be ac88 37bd b8e2 e8bc 1a73 1f3d
00000150: 1f5c 75bd 2203 2f3e 45db e7bd 5794 133e
00000160: b135 333e b130 773c edc8 d4bd 2f11 0a3c
00000170: c876 943d 7c37 9d3c d344 333e d0c8 01bd
00000180: bae8 443e b159 6abd 0969 39be e5f2 49bd
00000190: c96e f7bb cb1d 093e eecd e8bc 6521 0b3e
000001a0: bd70 273e 7c98 413d 682f d43c 9285 89bc
000001b0: 0019 41bd 2400 aa3d 8198 0dbd 0bcf f1bd
000001c0: 60af 333d 048d 053e a8a1 83bc fc6f 3cbd
000001d0: b759 5c3d 71ad 193e cf4f 15be d778 e8bd
000001e0: 891d 403e a9ee 033a cb55 e6bd 78ea 24be
000001f0: 8aca 5ebc b834 9dbd 3869 32be ec5d b5bc
00000200: 4180 a73d b2fd 643d 9da8 e5bd f475 943d
00000210: d4eb d6bb e656 1ebe 9489 82bb 3514 61bd
00000220: 19f8 28be 009a 04be 1ac3 e83c b041 c6bd
00000230: 583e 0dbe 9c6a b5bb 8f11 f0bd 5c29 e4bd
00000240: b63c 87bd 2b9d a53d fd74 4d3c 3484 36bb
00000250: 3766 2abe 9723 ba3b 7417 7abd d06e af3d
00000260: 51b1 57bd c1f6 1c3e 2bb8 823d 7e1d 213d
00000270: 0bdd dc3d ade2 98bd d5ab 08be 3d0b 203d
00000280: 4c44 f6bd f3cd f8bb 740f 21be ed7d fa3d
00000290: c5ea 173e 7d7a 0a3e 2ffa cf3d 0420 34be
000002a0: f1bd d1bd 7ab2 adbd 377f 3cbb 3122 11bd
000002b0: a4a3 e13d 5c0c 703d af3b e53d c43d b13d
000002c0: ef21 19be e9b7 2abd bf0a 0e3d d675 2dbe
000002d0: 062a 9a3d 64d3 97bd c54f 083d d013 023e
000002e0: 45aa ce3d d878 27be d206 013d 23bf d7bd
000002f0: ee1a 223e 5904 fb3d c7e1 353e f9c0 713d
00000300: 925e 933d ad98 d6bc 2a24 a63c a3b3 11be
00000310: c975 02be 0369 b7bd 83f7 6e3d c281 fdbd
00000320: 0a27 20be 5e2f e3bd 8442 443e 24f6 a6bd
00000330: 07e6 0fbe 1a8c 903d 22f4 42be de88 063e
00000340: 7763 fa3d 35ca 9cbc 0fd2 dd3b b3b7 8d3d
00000350: 8ae4 2fbd f454 b23c ffcc e4bd c132 773d
00000360: 3dec 903d a1d3 053e a192 8dbd 6304 d63d
00000370: c2c0 e5bd db5d 033e d7be 983d 2718 873d
00000380: 290e b6bd 621d 31be b238 2bbe b650 14be
00000390: acf5 1ebd 67b6 213d d2c1 95bd 0777 85bd
000003a0: 8495 103e 8a52 ad3d 9e90 14be 546c 9c3d
000003b0: cb91 fc3d 5eaf a9bd e57c 333e e070 a83c
000003c0: d016 2cbc 97d9 063e dcd8 96bd dfbe a93d
000003d0: 159b 113c 3b9b e5bd bb0e d13d e753 17be
000003e0: 76b6 133e ffff 5d3d 29d5 fcbd 01ac 6cbd
000003f0: b21d 483e ea70 4b3e 13f5 163d f117 1b3e
-0.16245659 0.160292 -0.063505776 -0.042834338 0.10961393 0.013913655 -0.05182742 -0.13165477
-0.16606243 -0.053220995 0.07658523 -0.1643307 0.056466833 0.19596086 0.027045531 0.16211738
0.054574057 -0.18672334 -0.019027155 0.13535477 -0.076010816 -0.015744189 -0.10494852 0.111705385
-0.02737195 -0.0639457 0.096034914 0.15334208 0.13135712 0.025981482 0.16444175 -0.08396174
-0.05175511 -0.109384626 0.052030113 -0.14136656 0.093837455 0.09568134 -0.12291607 0.068730704
-0.021606456 -0.1584526 0.14866133 -0.041630372 -0.0559979 -0.07938278 0.04436195 -0.16878006
-0.12372204 0.15620825 0.16994259 -0.11300708 0.10224304 0.044517957 -0.15153755 -0.16782305
0.06895195 0.097867236 -0.1809055 0.00066912884 -0.13021 -0.07177556 -0.021662721 0.162258
0.073383175 -0.13803074 -0.053100727 0.17739563 -0.03882284 -0.032323692 -0.04095985 -0.15755187
-0.11767249 0.14222829 -0.11309889 -0.0155340135 0.16345283 0.1395931 -0.16562548 0.010089748
-0.18002008 -0.044808075 -0.02842842 0.03892813 -0.059902307 0.17091039 -0.11321119 0.14412056
0.1750095 0.0150872925 -0.10389886 0.008426948 0.07249218 0.019191496 0.17506723 -0.03168565
0.19229403 -0.057214443 -0.18106474 -0.049303908 -0.0075510484 0.13390271 -0.028418507 0.13586958
0.163516 0.04726456 0.025901511 -0.016787324 -0.047142982 0.08300808 -0.034569267 -0.118070684
0.043868423 0.13042074 -0.016068295 -0.046005234 0.053796496 0.15007569 -0.14581226 -0.11351173
0.18761267 0.00050328166 -0.112468325 -0.16105068 -0.013598094 -0.07676071 -0.1742295 -0.022139512
0.08178759 0.055906005 -0.11213801 0.0724906 -0.0065588746 -0.15462837 -0.0039836857 -0.05495091
-0.16500892 -0.12949371 0.028413344 -0.09680498 -0.13793314 -0.0055363905 -0.11722099 -0.11140701
-0.066033766 0.08086618 0.012540099 -0.0027849795 -0.16640554 0.005680512 -0.061057523 0.08566058
-0.052659336 0.15328504 0.063827835 0.039334767 0.10784348 -0.0746511 -0.13346799 0.039073218
-0.12024745 -0.0075929104 -0.15728551 0.1223105 0.14835651 0.13523288 0.101551406 -0.17590338
-0.102413066 -0.08481307 -0.002876235 -0.035432998 0.1101754 0.058605537 0.11193024 0.08654359
-0.14954351 -0.041679297 0.034678217 -0.16939482 0.075275466 -0.074133664 0.0332792 0.1270287
0.1009107 -0.16354692 0.031500645 -0.10534503 0.15830585 0.122566886 0.17761908 0.059021924
0.07195772 -0.026195848 0.020280916 -0.14228682 -0.12740244 -0.08955576 0.058341514 -0.12378265
-0.15639892 -0.11093019 0.19165999 -0.08152416 -0.14052592 0.07057972 -0.19038442 0.13138148
0.12226003 -0.019139389 0.0067694257 0.069198035 -0.04294256 0.021769024 -0.111719124 0.060351137
0.07076309 0.13069011 -0.06912733 0.104500555 -0.11218406 0.12828772 0.07458275 0.065964036
-0.088894196 -0.17296365 -0.16720846 -0.14483914 -0.03880851 0.039480593 -0.07312359 -0.06516843
0.14119536 0.08463009 -0.14508292 0.076378495 0.12332495 -0.08285402 0.17528112 0.020561635
-0.010503486 0.13168941 -0.073655814 0.08288359 0.008887072 -0.112112485 0.10207888 -0.147781
0.14425072 0.054199215 -0.123453446 -0.057781223 0.19542578 0.19867292 0.036854815 0.15145852

encoder.4.bias f4 [10]
00000000: 46fb 87bd 1ed9 97bd 1b32 1b3d 780d 40bd
00000010: cc6d 953d 974a 1b3e 67bc febd dd9d babd
00000020: f1ff 80bd 4911 e9bc
-0.066397235 -0.07414459 0.03788958 -0.046887845 0.07296333 0.15165173 -0.12438279 -0.09112141
-0.06298817 -0.028450625

encoder.6.weight f4 [1, 10]
00000000: 60bb 9fbe 34a3 d5bc bdc9 a33e 2cd1 673e
00000010: 7652 f5bd 57aa 48bb 6b83 3e3e d95c 053d
00000020: 39c5 a9be 7bf5 4ebe
-0.31197643 -0.026078798 0.31989852 0.22638386 -0.11978619 -0.0030619109 0.1860482 0.03255925
-0.3315828 -0.20210831

decoder.0.weight f4 [10, 1]
00000000: 448a b43e a0a2 3fbf d738 d33e ac11 663f
00000010: cf94 31bf f390 debe f31c f33e aba1 6a3f
00000020: 0b4d 803e bd36 23bf
0.35261738 -0.7485752 0.41254303 0.89870715 -0.6936769 -0.43469962 0.47483024 0.91652936
0.2505878 -0.637554

decoder.0.bias f4 [10]
00000000: c2e7 7e3f 3393 4cbe e28a cf3d 2d95 b23b
00000010: da8f 923e 2677 fbbe 5edc 98ba b822 40bf
00000020: 7f78 32bf 285d 41bf
0.99572384 -0.19978027 0.10133912 0.005449912 0.28625375 -0.4911434 -0.0011662354 -0.75052977
-0.6971511 -0.7553277

decoder.2.weight f4 [30, 10]
00000000: 1ec7 853d ec44 28be 057a 31be 079d 793e
00000010: 7956 17be e480 86bd 6542 1aba 8f04 60be
00000020: ae72 eb3b ffb8 333d 038b 843d e1db ed3d
00000030: cbf2 2fbd 2a25 aabe d2f6 053e e1b3 a23e
00000040: 8641 07be 4843 473e 7672 8c3e 2ea8 43be
00000050: 854e 72be e7c0 a4be 9549 123d 1197 293e
00000060: 3a56 a6be ba85 a03e 8f6f 56be 2738 e8bd
00000070: 39f6 733d 200c d1bc 762a 953e 45b8 8abe
00000080: 2473 1e3e 0ea5 ae3d bed9 543d 3a07 0fbd
00000090: eb40 213e 1e46 1cbd dde3 803c 1ae4 313e
000000a0: d3df ffbc 24ca 6b3e 52e1 a13d 97a7 91be
000000b0: eab8 bf3d 40c4 d93d b290 9a3e 2f57 fabd
000000c0: 1ec3 f3bd 16a3 773e aeee 1f3e 7860 a63e
000000d0: 32e2 463b cd8f f33d 45b4 78be dad4 913e
000000e0: 4042 dfbd a91f bbbe e2ee 02be c093 14be
000000f0: b744 983e bc4f 0e3e ec49 9f3e eb8b 33be
00000100: 3ed9 223e 6530 4bbd 78fd 6fbc 2e00 3a3c
00000110: fa6f c13c 48e2 9e3e 1994 b6bc 33a6 0abd
00000120: 717f 4e3e 780e 5a3e f2bb d93d 377a 193e
00000130: 6421 af3e 66f3 993e 4baa a5bd 12a1 1e3e
00000140: 75d5 09bd 1c4c 7bbe 2f5b 89be f3a6 893e
00000150: 2eb7 18be 2d50 b9bd bb18 84be 3862 bfbd
00000160: e2f8 a93e b531 97be d6ba e2bd 7131 fbbc
00000170: d88f 14be cd05 553e b33c ac3d d7b8 21be
00000180: 17af 00be 1f18 d63d 2fbf a3bd f4ae 02be
00000190: f012 443e 7bcc 3bbe 1306 94be f1f7 86be
000001a0: ee2b 883d b028 503c 1a4a 6f3e 432e 9a3e
000001b0: 9c20 793d c747 583d 957e 3abb 3ea2 02bd
000001c0: 6ffd 3e3e 8bb4 c53b 1a28 4abe 1ab0 973d
000001d0: 5e92 3d3d 9266 97be e8f5 01be 58ad e3bd
000001e0: b2a0 a8bd 340c 7b3e 8de8 e0bd 4f05 aa3e
000001f0: 7589 c73d d75f e1bd e43f 0ebc c620 adbd
00000200: b04e 4cbe 81a1 bd3d b104 523e 33fd 92bd
00000210: 82d6 43be 8ea4 9bbe 37b8 5d3e 7425 64bd
00000220: 2d10 213e a29b 8c3e 5d75 ee3c 636e f0bd
00000230: a0cd 773e b781 6a3e f929 5fbe b722 99be
00000240: e980 b43c db2a 2a3e e490 35bd 6664 8ebb
00000250: e469 34be 807f 6abe 5568 863e 4af2 9c3e
00000260: 51fb 40be 2935 623e 1c3a b6bd c36a 7fbe
00000270: 2dd1 2c3e 6974 713d d7b3 833d d784 99be
00000280: 9add 80be 7b96 3c3e 5869 a3bd 90fa 8bbe
00000290: 42f2 39bd 1dd5 813c 0de0 8cbe 2b2e 75be
000002a0: 1c1f 953e 32fb 823d df29 b7bd 6f3c 3a3e
000002b0: ef86 abbe cc3f 73be 9e7d 093e dde3 2cbe
000002c0: 57d6 8abd a088 b3be 994a 10be 6c80 00be
000002d0: 454b 04bd 2751 3d3c 076e 72be 9295 913d
000002e0: 7dbd 7d3d a61f d23d e066 e03d a547 3dbe
000002f0: 8738 ad3d 4501 d83c fc67 e23d a6b3 873e
00000300: a4e2 c13c 1259 873d a813 12bd 7fce 2ebe
00000310: c4b5 a53e c035 63bd ff23 bebd cadc c43d
00000320: 4126 8cbe 8eb7 6e3e 1681 993e 596f 363e
00000330: 5cda 3a3d 9f83 b5bd 85d0 d83d fbb4 123e
00000340: f104 9abe f591 8abe e69b 68be bb9a 5d3e
00000350: f629 c4bd 94b2 6e3e 4082 9ebd 989b e4bd
00000360: a5c6 a9bd 66f1 3ebe 6d11 6abe 8251 40bd
00000370: 5a1d 8ebe bb84 2e3d bd39 29bd f386 4c3e
00000380: 9c57 15bb 8c81 ddbd 0583 913e e0f2 193e
00000390: 2f0f 013e fa57 083d 7540 463e 856b 543c
000003a0: 947f 33be d5ce c03d 5f60 313d c18a 8d3d
000003b0: cc6c 5fbd 129d 57be 0d9f 733d 49d2 95be
000003c0: f464 b1bd dbd0 8dbe a586 1a3e 06d7 143e
000003d0: 38a9 d2bc e9b8 38bd 1e1d 3d3e 35d4 9c3e
000003e0: ffdd 5e3e 0986 b93d 1a74 96bd cedf a73d
000003f0: 2a21 67be 3137 c1bd 73a9 a63e b8e5 72be
0.06532119 -0.16432542 -0.17331703 0.24376307 -0.1477908 -0.06567553 -0.00058845273 -0.21876739
0.0071853017 0.043877598 0.06471827 0.11614204 -0.042956155 -0.3323148 0.13082436 0.31777862
-0.13208589 0.1945926 0.27431077 -0.19107124 -0.23662765 -0.32178423 0.035714705 0.16561534
-0.3248766 0.31352025 -0.20940994 -0.11338835 0.059560988 -0.025518477 0.29133958 -0.27093711
0.1547361 0.085275754 0.051965468 -0.034919 0.1574742 -0.038152806 0.015733654 0.1737217
-0.031234657 0.2302633 0.079043046 -0.28448173 0.093614414 0.10633135 0.3018852 -0.1222366
-0.1190245 0.24183306 0.15618393 0.32495475 0.0030347225 0.11892662 -0.24287517 0.28482705
-0.10901308 -0.36547592 -0.12786439 -0.14509487 0.29739925 0.13897604 0.31111085 -0.17533843
0.15903184 -0.0496067 -0.014647834 0.011352582 0.023612965 0.31032014 -0.022287415 -0.033849906
0.20165803 0.21294582 0.10631551 0.14988028 0.34205163 0.3006851 -0.080891214 0.15491131
-0.033650834 -0.24540752 -0.2682738 0.26885185 -0.14913628 -0.090484954 -0.25800118 -0.093449056
0.33197695 -0.2953011 -0.110707924 -0.030663224 -0.14507997 0.20802994 0.08410015 -0.15793167
-0.12566791 0.104538195 -0.0799545 -0.12762052 0.19147849 -0.18339722 -0.28910884 -0.2636104
0.06649004 0.012705013 0.23368111 0.3011342 0.060822114 0.052802827 -0.0028456796 -0.031893007
0.18651365 0.0060334853 -0.1974186 0.074066356 0.046282165 -0.29570442 -0.12691462 -0.11117047
-0.08233775 0.24516374 -0.109818555 0.33207175 0.09743015 -0.11004608 -0.008682225 -0.08453517
-0.19951892 0.0925932 0.20509602 -0.071772 -0.19124797 -0.30398983 0.21652304 -0.05569978
0.15728827 0.27462488 0.029108698 -0.117398046 0.24199533 0.22901045 -0.21793355 -0.29909298
0.022034125 0.1661791 -0.04432763 -0.0043454645 -0.17618519 -0.229002 0.26251474 0.30653602
-0.1884587 0.22090591 -0.08897802 -0.2494307 0.16876669 0.058948908 0.06430786 -0.2998416
-0.2516907 0.18416779 -0.07979077 -0.27339602 -0.04539705 0.01584869 -0.27514687 -0.23943393
0.29125297 0.06395568 -0.08943533 0.18187116 -0.33501384 -0.23754805 0.13426825 -0.16883798
-0.06779163 -0.35065174 -0.14090957 -0.12548989 -0.032298345 0.011554993 -0.23674785 0.071086064
0.06194829 0.10259943 0.10957122 -0.18484361 0.08458047 0.026367793 0.1105499 0.26504248
0.023667641 0.06608786 -0.035663277 -0.1707096 0.3236524 -0.055471182 -0.092842095 0.09612425
-0.27372935 0.23312208 0.29981297 0.17815913 0.0456184 -0.08862995 0.10586647 0.14326851
-0.30081895 -0.2706448 -0.2271572 0.21641056 -0.09578316 0.2331031 -0.07739687 -0.1116249
-0.082898416 -0.18646774 -0.2285821 -0.046952732 -0.27756768 0.04260705 -0.04131483 0.19973354
-0.0022787815 -0.10815725 0.28420272 0.15034056 0.12603448 0.033287026 0.19360526 0.012965088
-0.17529136 0.0941445 0.043304797 0.06911231 -0.054547116 -0.21056011 0.059477855 -0.29261997
-0.086618334 -0.27698407 0.15090425 0.1453515 -0.025715455 -0.04509822 0.18468139 0.3063065
0.21764372 0.09058768 -0.07346363 0.08196984 -0.22571245 -0.09434355 0.32551154 -0.23720443

decoder.2.bias f4 [30]
00000000: 23c2 453e a033 93bc effc e9bc e685 0ebe
00000010: fb50 a03e e9b7 3bbe 0589 563e 090c 333d
00000020: 890b 49be e134 b93d e37c 8cbe eee2 1dbd
00000030: 028e 023d 74b4 983e c03e 8ebe c95b 643e
00000040: 4a43 0f3d ab8a 8bbd 5735 85be f519 373e
00000050: 22a6 bbbd c9bf 95be 0266 20be 1423 5c3e
00000060: 6312 a0bd 16f4 0cbe 2a28 733d 82db 34be
00000070: 1411 63be be80 23be
0.19312339 -0.017968953 -0.028562991 -0.13918266 0.31311783 -0.18331875 0.20950706 0.04371265
-0.19633307 0.09043289 -0.2743903 -0.038546495 0.03187371 0.29825175 -0.2778225 0.22300638
0.03497628 -0.06813558 -0.26017258 0.17880996 -0.09162547 -0.29247883 -0.15663913 0.21497756
-0.07816007 -0.13764986 0.059364475 -0.1766186 -0.22174484 -0.1596708

decoder.4.weight f4 [60, 30]
00000000: e00a e83c 7429 0abe ff5e 273e 4167 c5bb
00000010: 38b4 103e 7355 cebb 5d54 663c 7715 253e
00000020: 05ed afbd 4926 94bc 3599 35be 061f 453d
00000030: 7b36 b9bd 2614 4dbd 7771 c03d d3d3 743c
00000040: 1df3 65bd 0dfa bebd 00b3 16be 3c21 0cbd
00000050: 656e 383e 223b 05be 4652 ec3d 9246 2b3e
00000060: 3492 04be 68c5 1dbd a916 e0bd 59e7 9f3d
00000070: 54aa 00be 74f6 823d 81c1 28bd 95c1 adbd
00000080: 9543 bebd 8c46 33be c457 12be c14a 513c
00000090: b0ed 29be c245 603d 4684 f4bd 4d41 01be
000000a0: 0e30 15be b4fc 493d b453 c43c e9c8 b43c
000000b0: 69f7 f03d 0aec 39bd 5c9d b1bd aadb f23c
000000c0: b3df 083e fbc2 5cbd d5f2 afbc 716c 35bd
000000d0: 7501 74bc 6d0c 2bbe 115b e83d c1b0 333e
000000e0: 4749 043e 46e0 ff3c 375c 7f3d bc21 cabd
000000f0: d72f 163e cab2 853d 19d2 3ebd b69f 1bbe
00000100: 74b4 a83d c9e6 de3c ebea 043e 7658 11bd
00000110: e64c 963d 0f36 083e 9454 4d3c ce90 1dbe
00000120: fc7a da3d 44b9 3e3d 8272 783c 4bc1 673b
00000130: f9ed ee3d 1e02 87bd 23d6 0a3e f3bb 103e
00000140: 7de9 a03d fc12 233d 9c05 333d 80c2 a2bd
00000150: f8ec cc3d b7e9 133e 71e2 a33d ef17 05be
00000160: 4233 b13d 8fe7 80bd c9bf 763d 4f6c a23d
00000170: f88e ad3d 4c68 853a 1b8d 67bc 9939 c6bc
00000180: 5b37 963d b99f 203d 14e6 9e3d 105d 51bd
00000190: 885f 8cbd 6e7e 00be b884 5c3e 4848 df3d
000001a0: e525 2abc 1648 a0bc d145 f4bc 68a7 5c3e
000001b0: 3819 41be c4a8 06be d13f 71bc 1ec8 163e
000001c0: dde7 da3c aaed 16be 90ec 66be 6227 093d
000001d0: 9cdd 97bd ab94 f5bd 6f4c 6d3d 882e 0c3e
000001e0: fb1d ae3d 50b7 bb3d 394f eebd 2afd cc3d
000001f0: fbd4 84bd eab7 513e 2f77 1d3e 56eb 7fbd
00000200: 077d 82bd 94d2 a4bd ef8b 97bd 7a17 d63d
00000210: 2b0b e0bd 2e82 d1bd 3639 0c3e 1228 fa3a
00000220: 4239 263e ca4c 693e 1833 c4bd 6fbf 1c3e
00000230: cd43 da3c 3dee 99bb ebfb 0b3e 4528 21be
00000240: 8af9 e73d 10f7 11be f25a c3bd 771d 4c3d
00000250: c9b8 46be 0d23 efbd 90ea a33d ad04 9bbd
00000260: 2311 3ebe b324 f23d f38c efbd 6921 b23d
00000270: 3f27 13be 0b16 4cbe f8ad 0bbe 2a73 afbd
00000280: e30a 12be 05d1 2b3e f415 d2bd e05e 363e
00000290: 9626 923d 6727 ec3d 6218 b0bd aa4d 52bd
000002a0: b70b ec3d 174b 01be d43a 043e eda6 fe3d
000002b0: ad6e 07be bc55 433e 78df dd3c cdff 90bd
000002c0: 491a d53c b4d8 46be 56d0 0e3e da89 013e
000002d0: 5064 aa3d 5c15 d63d d3d1 94bd fa0b a1bd
000002e0: 470a 8c3d ef51 e03d 89b8 623e 5a29 31be
000002f0: 9224 b5bd 8658 c1bd b853 6dbc 84dc 353e
00000300: 0748 513d 029f 3a3e f4b9 8bbd 7ca6 173d
00000310: dab8 4b3d 1f8e 91bd 7b21 353d f893 a73d
00000320: 4b07 753d 0432 5b3d 2b63 abbd a340 293e
00000330: 48e2 41be c4e1 2b3e 314a 8e3d 9c37 003e
00000340: ebbe ba3d a675 12bd 0d0f d33d d113 3a3d
00000350: 121b dfbd 6c8a 353d 8a1e 843d 1828 38be
00000360: 3f8c 003e 108d 223e 16af 48bd 0006 38be
00000370: 37c5 363e 9e61 3abd b256 063e 212b 90bd
00000380: 669a 44be 67b1 22be 921c 2bbc 2f2e 10be
00000390: 60e0 53bd df22 15be c433 f4bd 64c9 05be
000003a0: b95a 2c3d 9311 f2bd e073 e13d 7d71 b53b
000003b0: 8706 363e 947c a73d 4fc8 393d 34ef 103e
000003c0: aede 393d c542 09be fbb6 0cbd 77e3 12be
000003d0: 617f f43d 3466 bcbc c3e3 193e b957 a6bc
000003e0: ca19 38be ef3c 2dbe 7d0e 21be b38e 763c
000003f0: 3549 a7bb a278 dd3d 0c22 b3bd 399a 013e
0.028325498 -0.13492376 0.16344832 -0.0060242717 0.14131248 -0.0062968074 0.0140582 0.1612147
-0.0859013 -0.018084662 -0.17734225 0.04812529 -0.090435944 -0.050068043 0.09396642 0.014943081
-0.056140054 -0.09325037 -0.1471672 -0.034211382 0.18010862 -0.13010839 0.1153913 0.16726139
-0.12946397 -0.03851834 -0.10941822 0.07807798 -0.12564975 0.063946635 -0.041200165 -0.084841885
-0.09290234 -0.1750738 -0.14291292 0.01277417 -0.16594577 0.054754026 -0.11939292 -0.12622567
-0.14569113 0.049313262 0.023965694 0.022068458 0.1176594 -0.04539112 -0.08672592 0.02964576
0.13366584 -0.053896885 -0.021478096 -0.04429287 -0.0148929255 -0.16703959 0.113454945 0.17547895
0.12918578 0.031234872 0.062343802 -0.098697156 0.14666687 0.06528242 -0.046587083 -0.15197644
0.08237544 0.027209656 0.12980239 -0.035484754 0.07338886 0.13301872 0.012532372 -0.1538727
0.10667989 0.0465634 0.01516402 0.0035363014 0.116664834 -0.06592201 0.13558249 0.14134197
0.07857034 0.039813027 0.04370652 -0.07947254 0.10006136 0.14444624 0.08002175 -0.12997411
0.08652355 -0.06294166 0.060241494 0.079308145 0.08474535 0.0010178178 -0.014132763 -0.024197387
0.07334777 0.039214823 0.07758728 -0.051114142 -0.06854159 -0.12548229 0.21535003 0.109024584
-0.010385011 -0.019565623 -0.029818447 0.21548235 -0.18857276 -0.13150316 -0.014724688 0.14724776
0.02672189 -0.14739099 -0.22551179 0.033484824 -0.074153155 -0.11991247 0.05793422 0.13689625
0.08501812 0.091658235 -0.11636204 0.10009225 -0.06485935 0.20480314 0.15377496 -0.062480293
-0.06371503 -0.08047977 -0.07399737 0.104536965 -0.1093963 -0.10229908 0.13693699 0.0019085428
0.1623278 0.22783199 -0.09580058 0.15307401 0.026643658 -0.0046975897 0.13670318 -0.15738018
0.11326893 -0.14254403 -0.09538831 0.049832787 -0.19406427 -0.11676607 0.080037236 -0.07569251
-0.18561225 0.11823406 -0.11696806 0.08697779 -0.1437044 -0.19930284 -0.13640583 -0.08566888
-0.14261965 0.16778953 -0.102580935 0.1780963 0.07136266 0.11530953 -0.08598401 -0.051343597
0.11525672 -0.12626301 0.12913066 0.12434182 -0.13225813 0.19075674 0.027084097 -0.0708004
0.02601351 -0.19418603 0.13946661 0.12650242 0.08319914 0.10453293 -0.07266583 -0.078636125
0.06837898 0.109531276 0.22140707 -0.1730093 -0.08844866 -0.09440713 -0.014485292 0.17759901
0.05109408 0.18224719 -0.06822577 0.037024006 0.049736835 -0.071071856 0.044221383 0.0818252
0.05982141 0.053514495 -0.08368524 0.16528563 -0.18933976 0.16785342 0.06947745 0.12521213
0.09118446 -0.03575673 0.10305605 0.045429055 -0.10893835 0.044321463 0.06451137 -0.17984045
0.125535 0.15874124 -0.0489951 -0.17971039 0.17848669 -0.04550325 0.13119009 -0.07039476
-0.19199523 -0.15887986 -0.010443823 -0.14080118 -0.051727653 -0.14564084 -0.11923936 -0.13065106
0.042078707 -0.11819758 0.110084295 0.0055372105 0.17775927 0.08178058 0.045357045 0.14153749
0.04537838 -0.13404377 -0.03435419 -0.14344583 0.11938358 -0.022997953 0.1502829 -0.020305501
-0.17978588 -0.16917776 -0.15728183 0.015048671 -0.0051051625 0.108140245 -0.08746728 0.12656488

decoder.4.bias f4 [60]
00000000: 978e c0bd 347c e53d 60f3 1d3e 1444 b33d
00000010: aa1a 1f3e 5a03 07be 3e39 8d3d 8abb a03d
00000020: bd42 24be eebc 933c 52be e33d a3fc 433d
00000030: a06b 3f3e cdd2 cfbd 4afc a3bd 19b4 103e
00000040: 0e4a 06be 01ab 06be 33c3 25be 55d1 183e
00000050: 3b94 483e 96e3 073e 5f75 97bd 2863 8abc
00000060: 809d 373e 1503 0b3d c007 3e3d 5f46 1f3e
00000070: dfe5 f93d 3c39 423d 028a d4bd 146a 17be
00000080: 6d9d 17bd 6487 6fbc 4686 173e 7b6f c3bd
00000090: 0dc7 95bd 43a9 1fbd abe7 a9bd a588 3e3d
000000a0: 13ad 24bd 8dd1 9b3d 6626 043e 0ebf 253e
000000b0: b829 b0bb d95b c8bd 8013 a03d 91bd 083e
000000c0: 160a 0abd 8fc5 2b3d cc88 af3d f30f f8bd
000000d0: 8f57 bebd 30ee 02be 0987 013d 2d01 ae3d
000000e0: 3eab 353e 795a 183d c2c2 24be 8289 af3d
-0.09402197 0.112053305 0.15424871 0.08753219 0.15537515 -0.13184872 0.06895684 0.0784827
-0.16041084 0.018034425 0.11120285 0.047848355 0.186934 -0.10147629 -0.08007105 0.14131202
-0.13114187 -0.1315117 -0.16187744 0.14923604 0.19587795 0.13270411 -0.07395434 -0.016892985
0.17931175 0.033938486 0.04639411 0.15554188 0.122020476 0.047417864 -0.103778854 -0.1478656
-0.037015367 -0.014619682 0.14797315 -0.095427476 -0.073133565 -0.03897978 -0.0829614 0.046517033
-0.04020412 0.07608328 0.12905273 0.16186163 -0.005376067 -0.097831436 0.07816219 0.13353564
-0.033701025 0.041936453 0.08571014 -0.12112417 -0.09294044 -0.12786174 0.03162292 0.08496318
0.17741105 0.037195656 -0.16089919 0.085711494

decoder.6.weight f4 [118, 60]
00000000: b752 433d 43a0 b63d ab7a 813d 9cbd 583b
00000010: 32f6 b8bd 83ea 833a f009 c2bc ddc0 973d
00000020: 6c52 983c 1443 57bd 3c7e 2ebe 8d74 74bd
00000030: 3e3a e9bc 5ae9 e33c 62ee 173e 2e2f dfbd
00000040: 0211 7b3c 1a37 75bc 7f02 1b3e 69da eebc
00000050: ea56 26be 0f94 4a3d 11d6 413b 58de cd3d
00000060: 5a15 27be b475 31be 456b 1b3d 63cf 14be
00000070: 8525 09bd 0503 f8bc ee55 923d 526f 2f3d
00000080: 6723 50bd b6ed 85bc 7e13 20bd 8f03 9cbd
00000090: 0498 eabd 9f69 35bd 4d41 bc3c 9731 03bc
000000a0: 2260 58bd a4d4 4e3c 77eb d9bd a49e d4bd
000000b0: 5a07 a03d ccd3 0d3e f4da fdbd 6f04 87bc
000000c0: 71d8 5c3d 9180 0a3e 9e97 173d d064 a3bd
000000d0: dbc0 1abe 8dcd 8aba 698a 4b3c 1bc8 573b
000000e0: 5ed9 833d 496d 01bd f2ef b7bd a36d 04be
000000f0: d619 0e3e 91f6 d7bd 44ff 703a 3907 d3bd
00000100: 61b8 bf3d 1927 783c 1eca 003e 4e76 04be
00000110: 7c3d a23d a169 e13d 9e22 19be 8719 933c
00000120: 9846 133c 3e60 bebd 5a19 dbbc 1b74 a8bc
00000130: 50f0 1c3d ab6c 0f3d aa22 00bd e18d 943d
00000140: 7b84 843d 59b6 b33d 9397 0b3d 8aa2 03be
00000150: 59d0 c23d 2167 9fbd 4d1a f8bc 6c3d 443d
00000160: feec 103d 67ff f1bd 6b13 9abd 8a57 003d
00000170: e691 713d 10fa 7bbd 93a7 043e 06b7 943d
00000180: bf64 19be aaf0 5abd 07e7 a93d be27 f5bc
00000190: 63aa 93bd dab4 ddbc b28a b83c 1345 11bd
000001a0: 1b17 8abd 02c9 c93c 0e82 853d 6b02 ed3d
000001b0: 20cf 473d 6d1b 3d3d dd9e 5d3d 7034 023e
000001c0: 0042 07be 75fd 07bd 6898 83bd 62fe 3abd
000001d0: 0b2b af3d 875d d73d eca9 9dbd 5b2a 81bd
000001e0: fb3c 753d 1338 693d 2fc3 483d d60b 183d
000001f0: 9eea c7bd d134 9c3d a297 e2bd f9b4 52bd
00000200: 8c8c 173b 94dd f9ba 5783 833b 18fc d9bd
00000210: b35b 063e c509 afbd 5a70 833a 5cf9 46bb
00000220: 36e5 29bb 17d5 0bbd ecf4 813c c0b0 0b3d
00000230: 5791 aabd 50c3 bd3d 9ab1 96bc 3bb1 d93d
00000240: 90bc cabd d73b ee3d 694f af3d 7123 17bd
00000250: 4d6c 853c eaa6 ab3d 6f92 e3bd 2aed b73d
00000260: 94ba 813d 00e9 82bd 7d29 833d dc56 603d
00000270: d255 953c 7422 c03d 1ba8 d2bd 65bf 9abc
00000280: 8371 2d3c c4ec bb3d 90e9 9a3d d606 41bc
00000290: 29a9 84bd 48d5 07be b9a9 9fba b304 22bd
000002a0: 1663 0abd a5aa c13c 0831 9b3d bd2b 673d
000002b0: 4672 b13c 38af 10bd c919 4a3d 9f2c a13d
000002c0: 4bbe 21bd 20b2 ebbd 98bf 173c 6003 53bd
000002d0: 18e8 de3d ac18 d8bd 1c98 8fbd 57da 273d
000002e0: 5eb2 bcbd 71c0 1cbc 2606 823d 805f 9fbd
000002f0: e79d 443d 37cd d83d d6aa d2bd 103f ea3c
00000300: 9f50 a6bd ce50 9cbd 3673 f0bd e931 6c3d
00000310: 1ef3 9e3d 1a3e 9bbd 4f36 bb3d 699f 7abd
00000320: 9e86 613d 4bd4 d5bd 2019 063e 1ebd dfbd
00000330: 8de8 693d cfbf 493d 7d2b 213d a2b4 ee3d
00000340: fda2 653d d1ee 963d ef09 e8bd 9c54 9ebd
00000350: 8469 58bc 8b42 083e 2df8 bb3d 4eba 04be
00000360: a4c5 8d3d 7062 3dba 382d 4fbb a539 02bd
00000370: 8a0b 6e3d 38cb 38bd 018d 4b3d 8098 b1bd
00000380: 0365 afbb eab2 2a3d b766 17bd 6523 f33d
00000390: b0c7 c6bd a22d 5f3d d647 bc3d b662 d2bc
000003a0: edd2 3e3d f8c7 f2bd 3128 44bd da8c 96bd
000003b0: bbb2 1e3d fbba 36bd 7bae 02be b0fc 01be
000003c0: 350f 823b 0753 c53d 67f9 e23d 44a3 98bc
000003d0: ed57 fdbc c790 9cbd f514 d63d b17b d7bd
000003e0: 5eba 4dbc 396c 6abd 256a 09be 9d2e 1b3d
000003f0: b3d0 a6bd b17f 20bd fb45 153d 9f38 473d
0.047686305 0.08917286 0.06322225 0.0033072 -0.09031333 0.0010064397 -0.02368638 0.074098326
0.01859399 -0.052554205 -0.17040342 -0.059681464 -0.028470155 0.027821232 0.1483703 -0.10897671
0.015323879 -0.0149667505 0.15137671 -0.02915688 -0.16244093 0.049457606 0.0029577056 0.10052174
-0.16316739 -0.17330056 0.037944097 -0.14532237 -0.033483047 -0.030274877 0.07145296 0.042830773
-0.050815012 -0.016348701 -0.03908109 -0.07617866 -0.11454776 -0.04429018 0.022980357 -0.008007429
-0.052826054 0.01262394 -0.106406145 -0.10381821 0.07813902 0.13850325 -0.123952776 -0.016481606
0.053917352 0.13525607 0.037009828 -0.07978213 -0.15112631 -0.0010589823 0.012423136 0.0032925669
0.06437944 -0.031598363 -0.08981313 -0.12932448 0.13877043 -0.10545076 0.0009193311 -0.10304112
0.09361339 0.01514604 0.12577102 -0.12935755 0.079218835 0.11006475 -0.14954612 0.017956508
0.008988999 -0.092957005 -0.026745487 -0.020563176 0.038315117 0.035015743 -0.03128306 0.07253624
0.06470581 0.087750144 0.0340801 -0.12854972 0.095123954 -0.07783342 -0.030285979 0.04791014
0.035382263 -0.11816292 -0.07523235 0.031333484 0.05897703 -0.061517775 0.1295455 0.072614715
-0.14979838 -0.05345217 0.08296018 -0.029926177 -0.07210233 -0.027063776 0.022527073 -0.035466265
-0.06742688 0.02463198 0.065189466 0.11572727 0.048781514 0.046168733 0.054106582 0.12715316
-0.13208771 -0.0332007 -0.064255536 -0.045652755 0.08553132 0.10515886 -0.07698426 -0.06306907
0.05987261 0.056938242 0.049014267 0.037120663 -0.097615466 0.076272614 -0.11064078 -0.05144212
0.0023124544 -0.0019063228 0.0040134597 -0.10643786 0.13120918 -0.08546785 0.001002799 -0.0030361032
-0.0025923974 -0.034138765 0.015863858 0.03410411 -0.083285026 0.092657685 -0.018395234 0.10629507
-0.09899247 0.11632507 0.08560068 -0.036899034 0.016286993 0.08381446 -0.11111914 0.08980782
0.06334415 -0.063920975 0.06404398 0.054770336 0.018229399 0.093815714 -0.1028597 -0.018890092
0.010586145 0.09176019 0.0756408 -0.011781415 -0.06477577 -0.13264954 -0.0012181319 -0.039555263
-0.033785902 0.02364094 0.07577711 0.056438196 0.021660935 -0.03532335 0.049340997 0.07869839
-0.03948812 -0.11508584 0.009261988 -0.05151689 0.10884112 -0.10551581 -0.070114344 0.04097971
-0.09213708 -0.009567366 0.06348829 -0.07781887 0.04800215 0.105860166 -0.102864906 0.028594524
-0.08120846 -0.076326 -0.11740725 0.057664786 0.07761215 -0.07580204 0.09141218 -0.06118718
0.05506002 -0.10440882 0.13095522 -0.10924743 0.057106543 0.04925519 0.039348114 0.11655547
0.05606364 0.07369769 -0.1133002 -0.07730982 -0.013208751 0.13306634 0.09178195 -0.12961695
0.069224626 -0.0007224446 -0.0031612646 -0.031793255 0.058116473 -0.04511568 0.04969502 -0.08671665
-0.0053526177 0.041674532 -0.03696319 0.11871985 -0.09706056 0.05448688 0.09193389 -0.025681835
0.046587873 -0.11854547 -0.047889892 -0.07351084 0.03874467 -0.044611912 -0.12761872 -0.12694049
0.003969098 0.09634977 0.11082726 -0.018632539 -0.030925715 -0.076448016 0.10453216 -0.10521639
-0.01255664 -0.057232115 -0.13419397 0.03788625 -0.08145275 -0.039184276 0.03644369 0.048637982

decoder.6.bias f4 [118]
00000000: 8102 1ebc 5622 c4bc 1c47 f3bc 4dd9 c8bd
00000010: cdda 9ebd a0da b8bd 6ff2 d73b 4d5b 8c3c
00000020: af34 e43d 6ebf b83c 56e8 b4bd 51d9 073e
00000030: 4c2e 9fbc 956e fb3d 4d7e 093e 2e1b 9c3c
00000040: 03f6 ae3d 8a57 cd3a c02f 963d 7bf9 a43c
00000050: b0c5 89bd e323 c3bd ec74 fbbc 5aa4 c5bd
00000060: 62a4 7c3d 33e1 3abd b1f2 d5bd 075d d4bb
00000070: 78e3 403d 945d 2abd 727c 123d ed08 c93d
00000080: 665c 86bd d15b 9bbd 88e1 9a3d ebc1 ae3a
00000090: affc 2a3d fee9 edbc d59d 883d c0b0 0d3e
000000a0: 92c5 913d 27c0 a1bd 24bc b9bd 47d8 9abd
000000b0: 9852 b6bb df55 51bd 5f5a 0fbc 6b57 05bd
000000c0: a9b6 c03d 9f8b 053d ed59 bbbd 62b9 cabc
000000d0: 42d9 81bd f4fc 1a3d 2046 893d 703a 503d
000000e0: 81b7 513d e031 843d bb0c 94bd e4f8 b2bd
000000f0: 3680 11bd 1635 d5bd 28c9 633c 1cd4 843d
00000100: 70e5 52bd 13e9 d6bd 6666 26bd f8a8 463d
00000110: f16b a0bb d952 24bd 586a b3bc a7df a23d
00000120: d550 a03d ac73 a0bd ac8b 1b3d adeb 4fbd
00000130: dad2 91bd 1863 8bbd 0379 d7bc fbd5 ee3c
00000140: aded 503c 6fdf e6bc c098 dabb 1322 df3c
00000150: 627b 95bd 0eba ffbc 3e5e ef3c 304e 0c3d
00000160: fc08 2bbc 0559 cebc 2810 d0bd 12f6 8ebd
00000170: 7c2b a03d 44a2 9e3d 799d 5a3d 0aad e33d
00000180: 295f 92bd fb28 96bd aaef 8fbd a60f d3bc
00000190: 610c b03d a64d b83d 0f8d ed3d 650d 763d
000001a0: 34fd 79bc 5728 93bd 5ffc b4bd 361e 7fbd
000001b0: 6df3 c8bd 480b 55bd 3c2d 06be c2fa 203d
000001c0: 10d0 c83d e992 0fbd 89be f53d 1625 8abc
000001d0: 83d6 debd 8bf8 033d
-0.009644152 -0.023942154 -0.029696994 -0.09807072 -0.07756577 -0.090260744 0.0065901796 0.01713338
0.11142861 0.022552218 -0.08833377 0.13266493 -0.019431256 0.12276951 0.13427086 0.019055929
0.08543017 0.0015666347 0.07333326 0.020138493 -0.06727159 -0.09528329 -0.030695401 -0.09650488
0.061680205 -0.045624923 -0.1044668 -0.0064808163 0.04709193 -0.04159315 0.03576321 0.098161556
-0.06560592 -0.07585872 0.07562548 0.0013332939 0.041744884 -0.02904224 0.06670729 0.13836956
0.07117762 -0.07897978 -0.09069088 -0.07560783 -0.005564045 -0.051107284 -0.0087495735 -0.03255407
0.0940984 0.032603856 -0.09148011 -0.0247466 -0.06340267 0.03783889 0.067028284 0.05083698
0.051200394 0.064548254 -0.07228991 -0.08738878 -0.035522662 -0.10410516 0.01390294 0.06485769
-0.05148834 -0.10493674 -0.040625 0.048500985 -0.00489568 -0.040118072 -0.021901295 0.079528145
0.078279175 -0.07834563 0.037975 -0.050761867 -0.07120295 -0.0680601 -0.02630282 0.029154768
0.012751979 -0.028182713 -0.0066710413 0.027237928 -0.07298924 -0.031216647 0.029219743 0.034254253
-0.010439154 -0.025188932 -0.101593316 -0.06980528 0.07820794 0.077457935 0.053372834 0.11116989
-0.071470566 -0.07332035 -0.07028134 -0.025764298 0.08596111 0.08999185 0.115991704 0.060071368
-0.015258122 -0.071854286 -0.088371985 -0.06228467 -0.09812055 -0.05201271 -0.13103193 0.03930164
0.0980531 -0.035052214 0.11999232 -0.016863387 -0.108807586 0.03221945

estimation.0.weight f4 [10, 3]
00000000: 9cc3 31be 7de2 2bbe 87f1 a9be 8d21 fd3e
00000010: c984 523d 56ea c53e c5c5 28be 22e7 24be
00000020: 4451 a43e bf9c 923e e575 953d 04c0 a2be
00000030: a1b9 3fbe 4e65 3a3e 1e07 e4be 3f52 f6bc
00000040: 3131 e43e f6e4 6e3e 3e0a 55be 782c 0bbe
00000050: 712d b0be ce19 ad3d b9e6 8fbe d6d3 313e
00000060: 0ff2 c8be d00e 1e3f 265b ffbd 5c1a aebe
00000070: 4159 1b3f 3b28 2a3e
-0.17359775 -0.16785617 -0.33192083 0.4943966 0.051396165 0.38655347 -0.16481693 -0.16103795
0.3209325 0.28635213 0.07297877 -0.3178712 -0.18723156 0.18202707 -0.4453668 -0.030068515
0.4456878 0.23329529 -0.20804688 -0.13591182 -0.3440967 0.084521875 -0.28105715 0.17365965
-0.39247176 0.6174135 -0.12468557 -0.34004486 0.60683066 0.16616909

estimation.0.bias f4 [10]
00000000: 5b19 5d3f 2ab5 15bf 6f8e e5be a8cb fb3e
00000010: ddc8 d23d 7f33 213f 96b5 39bf 3a79 8b3e
00000020: 7157 383f 0cf1 ef3e
0.86366814 -0.5847956 -0.4483523 0.49178815 0.10292218 0.629692 -0.72542703 0.27240926
0.72008425 0.46863592

estimation.3.weight f4 [4, 10]
00000000: d1c4 a8be 060c e73e b997 d43c 384a b0be
00000010: 7d25 3b3c d424 9cbe 8018 8f3e 1477 45be
00000020: 073b c2bd 39ad 853d b616 09bf 536c 03be
00000030: a94e a53e e155 93ba 177c 9fbe 16f5 86be
00000040: c015 293e c925 3c3c 522b 1bbe 3fec d4be
00000050: b6a1 1a3f 629f 1fbe c0bb 09bf 872f cc3e
00000060: b3f0 783e 1069 c03e ce21 95be 3c53 1ebe
00000070: c721 a43e 8319 033f fec1 09bb 1523 3c3d
00000080: d06e ae3e 7dda 3abe 4759 2ebe 62a0 ebbe
00000090: 9694 b73e 2d33 de3d 45b2 e4be 81e6 fbbe
-0.3296266 0.4512636 0.025951253 -0.34431624 0.011422512 -0.30496848 0.2794838 -0.19283706
-0.09483915 0.0652718 -0.5355028 -0.12834291 0.32286575 -0.0011240804 -0.3114936 -0.2635886
0.16512203 0.011483618 -0.15153244 -0.4158649 0.60403 -0.15588143 -0.5380211 0.3988001
0.2431057 0.37580156 -0.29127353 -0.15461439 0.3205702 0.512108 -0.002102017 0.045931894
0.34068918 -0.18247409 -0.17026244 -0.460208 0.3585555 0.10849605 -0.4466726 -0.49199298

estimation.3.bias f4 [4]
00000000: 88c2 99be c2da a7be 9797 843e 3e56 9bbd
-0.30031228 -0.32784086 0.25896904 -0.07584809
