Baseline-models/DAGMM/DAGMM-CHD/no--dagmm/models/32_194_dagmm.pth (torch, 82200 bytes, 22 tensors)

phi f4 [4]
000000 a3 5f d9 3c 32 07 bc 3c c2 93 6d 3f e3 20 b8 3c
       0.026534861 0.02295265 0.92803586 0.02247662

mu f4 [4, 3]
000000 92 83 d1 3e 87 4d 8f 3f e4 86 e5 3c 87 c8 d1 3e
       0.40920693 1.1195534 0.028018422 0.40973303
000010 24 33 8f 3f b4 bf ef 3c 86 83 38 3e d6 fc af 3f
       1.1187482 0.029266216 0.18018922 1.3749034
000020 d6 49 e5 be 3c f7 d2 3e ea df 8e 3f f3 ec 0a 3d
       -0.44782895 0.4120425 1.1162083 0.03391738

cov f4 [4, 3, 3]
000000 10 73 40 3e 33 65 56 be c4 ee c7 3e 33 65 56 be
       0.18793893 -0.20937042 0.3904935 -0.20937042
000010 54 e3 6e 3e ec bc de be c4 ee c7 3e ec bc de be
       0.23328906 -0.4350351 0.3904935 -0.4350351
000020 8a b5 4f 3f 22 e8 40 3e 0e e3 56 be b0 6b c8 3e
       0.8113638 0.18838552 -0.20985052 0.3914466
000030 0e e3 56 be e6 67 6f 3e 19 43 df be b0 6b c8 3e
       -0.20985052 0.23379478 -0.4360588 0.3914466
000040 19 43 df be b9 3a 50 3f 2d e5 0f 3e f1 5b 20 be
       -0.4360588 0.81339604 0.14052267 -0.15660073
000050 ed 82 95 3e f1 5b 20 be c0 cc 32 3e bb a1 a6 be
       0.2920145 -0.15660073 0.17460918 -0.32545266
000060 ed 82 95 3e bb a1 a6 be c5 59 1b 3f c6 2a 3f 3e
       0.2920145 -0.32545266 0.6068385 0.1866866
000070 e2 db 54 be dd 94 c6 3e e2 db 54 be 08 0a 6d 3e
       -0.20787004 0.3878545 -0.20787004 0.23148358
000080 6c 1e dd be dc 94 c6 3e 6c 1e dd be 0d 49 4e 3f
       -0.43187273 0.38785446 -0.43187273 0.80580217

encoder.0.weight f4 [60, 118]
000000 99 eb c2 bc 2c aa ab 3d f9 f5 ac 3c 05 5d e7 3b
       -0.023793982 0.08382067 0.021113383 0.0070606493
000010 54 fd b6 3d 1d 96 df bc d7 23 20 3d d3 a1 6c 3d
       0.08935037 -0.02729326 0.03909668 0.057771515
000020 da c5 83 bd cd 69 8e 3d 80 1d 25 3d ac 31 82 3c
       -0.064342216 0.06953774 0.040311337 0.015892826
000030 9a bc 4f 3d 15 e2 53 3d 7e c8 81 bd 3a 95 13 bd
       0.050716974 0.05172928 -0.06337069 -0.036030985
000040 83 25 ac 3d 6a 46 41 bd 69 54 a5 bc 1d e4 8d bd
       0.08405592 -0.047186293 -0.020181851 -0.06928275
000050 7e bd 7d bc 20 ce cb bc 7b 61 0a 3d 41 77 48 bd
       -0.015487073 -0.024878561 0.03378437 -0.048941854
000060 9a 0e be 3d df 99 87 3d 31 e4 bf 3d 86 e7 ee bc
       0.09280129 0.066211455 0.09369696 -0.029163133
000070 59 28 17 bd 96 5c b1 bd 92 90 a9 bd 24 95 6b bc
       -0.036903713 -0.086602375 -0.08279528 -0.01437882
000080 af 1e 7b 3d 0f c0 1a 3d 21 2d 13 bd b8 f0 71 3d
       0.06130856 0.037780818 -0.03593171 0.059067458
000090 82 ff 83 bc 23 c8 4a bd c0 33 2d bc a0 c3 5c bd
       -0.016113047 -0.04950727 -0.01057142 -0.0538975
0000a0 46 2d 4f 3d 26 ae 3a 3d 38 b1 d5 3c 98 7b aa 3b
       0.050580285 0.045576237 0.026085481 0.005202722
0000b0 15 ed b5 bc 17 6c 83 3c 97 39 92 bd e5 e0 e5 bc
       -0.022207776 0.016042752 -0.07139891 -0.02806134
0000c0 ed a0 3a bd 26 d3 9b bd e2 d0 07 bd a5 5e 81 bc
       -0.045563627 -0.07608633 -0.03315819 -0.0157922
0000d0 ef 3a 92 bc 02 0b c4 bb f2 b5 06 3c 3e 3b a1 bd
       -0.017850367 -0.0059827575 0.00822209 -0.07872628
0000e0 52 8f 13 bd af 8f cb bb 01 bb 17 3b 74 77 4e bc
       -0.036025353 -0.006212197 0.0023152234 -0.012601722
0000f0 c0 da cb bb 98 f4 dd bc 03 12 b7 3d 92 72 19 3d
       -0.0062211454 -0.02709417 0.08938982 0.03746278
000100 e4 57 b0 3d 76 fd a9 3d 88 15 93 3d be e4 83 bd
       0.08610514 0.08300297 0.07181841 -0.064401135
000110 15 08 42 3d bf 71 9b 3d c5 8c a7 3d 7a c4 02 3d
       0.04737099 0.07590055 0.081811465 0.031925656
000120 58 fb 81 3d 4f 89 5d bd ee b3 1d 3d f8 43 9f bd
       0.06346768 -0.054086026 0.038501672 -0.07776636
000130 5c b0 f4 bc e4 da b9 bc c6 a2 9a bd 4e 05 cd 38
       -0.029869251 -0.022687383 -0.07550578 9.77615e-05
000140 c1 00 da bc 6d 54 08 3d 68 ea 44 bd 2b 26 b0 bb
       -0.026611688 0.03328364 -0.04807511 -0.0053756437
000150 7a 99 73 3d 70 2f e4 bb e0 1d 9a bd 30 47 77 3c
       0.05947254 -0.006963663 -0.075252295 0.015092656
000160 c6 ab cb bd 73 a9 a8 3d 92 72 35 3c fb 9f 81 3c
       -0.099448726 0.08235445 0.011074679 0.015823355
000170 4e a8 81 bd 24 91 b5 3c 90 0a 2e 3d 06 58 a7 3d
       -0.0633093 0.022163935 0.042490542 0.08171086
000180 a8 3e 03 3d 00 48 17 39 3f 75 8c 3d a1 83 2e bd
       0.032042176 0.00014427304 0.068583004 -0.042606
000190 6e 7c 82 3d 64 7f 7c 3d 4f c3 46 bd c3 87 1e bd
       0.06371389 0.061644927 -0.048526105 -0.03870369
0001a0 74 73 1b bc c8 e8 41 3d 61 88 ff 3a 3f 29 8a bd
       -0.009487975 0.047341138 0.00194956 -0.06746148
0001b0 47 dd 3f 3d 2f 9c fb 3c 3e b0 1f bd 43 ee 74 3c
       0.046841886 0.030714123 -0.038986437 0.014949384
0001c0 66 9f a6 bc 01 d2 81 bd 26 12 8f 3d 45 31 75 bc
       -0.020339679 -0.06338883 0.069858834 -0.01496536
0001d0 39 b0 49 3d f7 32 51 bc f1 5d ec bc bc c4 7c 3d
       0.049240325 -0.012768499 -0.028853389 0.061711058
0001e0 46 fa b1 3d cf 74 b7 3a 58 70 1f bb b0 3e 66 bd
       0.08690314 0.0013996604 -0.0024328437 -0.056212127
0001f0 96 24 74 bd 74 fe 3c 3d c5 2c 92 3b bd 39 74 3d
       -0.059605204 0.046141103 0.0044609034 0.059625376
000200 4c b9 67 3d c4 89 2f 3d 20 a9 86 bb 5b 29 33 3d
       0.056573197 0.042855993 -0.0041095167 0.04374061
000210 c8 9e c7 bc 99 30 b0 bc 94 6a 4c 3d 3d 20 c0 bc
       -0.024367705 -0.021507548 0.04990633 -0.023452872
000220 f0 cb 71 3d 27 6d a7 bc 76 44 53 3d 94 95 a1 3d
       0.05903238 -0.02043779 0.05157896 0.07889858
000230 ff ec a4 3c df 70 07 bd cd a3 ea 3c f3 b8 50 bd
       0.02013254 -0.033066627 0.02864256 -0.05095763
000240 e3 a4 25 bd 9b f9 ca bd dc a6 aa 3d ab a7 8d bd
       -0.04044045 -0.0991089 0.08332607 -0.06916746
000250 67 d0 a3 3c 7b 16 88 3c bf dd ab 3d 66 af ac 3c
       0.019996835 0.016612282 0.08391904 0.02107973
000260 bc f5 e5 3c 35 ec 52 bd 6f 44 3f 3d ad 40 b8 3d
       0.028071277 -0.051494796 0.046696123 0.08996711
000270 5e 75 77 bd fc d2 34 bc a6 8a 9f bd 0e 36 9c 3c
       -0.060414664 -0.011036631 -0.07790117 0.019068744
000280 a4 02 e0 3c 1d 3c d4 bc d0 ab 9f bb 98 f9 c4 bc
       0.02734501 -0.02590757 -0.0048727766 -0.024044797
000290 a6 2e 62 bc b3 ea 4e 3d 8d 12 ae 3d 3f b8 b6 3d
       -0.013805067 0.050516795 0.08499632 0.08921861
0002a0 e2 68 df bc ae 8e 8c 3c 8c a6 7e bd fa 8d 88 3d
       -0.027271692 0.017157879 -0.06217055 0.06667705
0002b0 c8 49 81 bd 5a b8 30 3d 3e 00 90 bc da 26 86 3d
       -0.06312901 0.04314456 -0.01757824 0.06550379
0002c0 ed fc b7 3d c5 ad f9 bb e3 cf b5 3d 42 21 73 bc
       0.08983789 -0.007619592 0.08877542 -0.014839472
0002d0 b8 c6 8a 3d 80 ec aa 3c 20 4b b1 3d 6e d5 73 3d
       0.06776184 0.020864725 0.08656907 0.059529714
0002e0 2b 7c d9 3a cc 06 c2 3c 54 78 1d 3c 3b 48 3e bd
       0.0016592791 0.023684882 0.009611208 -0.046455603
0002f0 5a 73 16 bd 4a ae db bc 54 29 70 3d 6d 2e 73 3d
       -0.0367311 -0.026816506 0.058633164 0.059370447
000300 4d 8c 93 3d 28 c6 04 bd 2a b5 02 bc 34 55 89 3d
       0.072044946 -0.03241554 -0.007977763 0.06705704
000310 1d 06 09 3d 42 63 08 3c 12 20 01 3b ab 12 e5 3c
       0.033453096 0.008324446 0.0019702953 0.027963003
000320 62 95 8d bd 06 9c 94 bd 71 c1 a5 bd d6 26 38 3d
       -0.06913258 -0.072563216 -0.08093537 0.04495891
000330 4e 3d a1 bb 2a a8 1c be 84 f3 4b bc 8e ee c0 bc
       -0.004920638 -0.15298524 -0.012448195 -0.023551252
000340 76 9e 81 3d 3d 68 d2 3b 91 b2 98 bd da ac 8b 3d
       0.06329052 0.0064211176 -0.07455934 0.06820078
000350 91 f8 cc bc d1 74 1c bd 73 d4 52 bd 7c 96 7d bd
       -0.02502087 -0.038197342 -0.05147214 -0.06191109
000360 d0 dc ad bc 5a 05 a6 bd 74 64 57 bc d7 01 4f bd
       -0.021223456 -0.081064895 -0.0131465085 -0.050538864
000370 47 eb ed 3d 7a 51 ec bc db da a9 3d 7f 27 30 bd
       0.11617141 -0.028847445 0.082936965 -0.043006416
000380 52 67 26 3c 84 e1 01 3d 4d 4a a8 bc aa 3e ca bd
       0.010156469 0.03170921 -0.020543242 -0.098752335
000390 74 63 7b bc 4b 52 ee 3c 44 59 f1 bc 0a 3a 0a 3c
       -0.015343536 0.029091975 -0.02946151 0.008436689
0003a0 d3 aa 63 3c 15 3c cb 3d ab 79 37 bd 60 bd ab bc
       0.013895708 0.09923569 -0.044793766 -0.020964324
0003b0 dd 26 2b bc cf c9 62 bd c8 32 6c 3c db 4c 64 bd
       -0.010446277 -0.05536824 0.014416404 -0.055737358
0003c0 03 f9 0a 3d f6 c0 cf bd fd a4 ca bd 94 6f 0d 3d
       0.033928882 -0.10144226 -0.0989475 0.034530237
0003d0 8a 76 86 3d f5 a1 8f bc 3a b7 99 bb 5d c1 34 bb
       0.06565578 -0.017533282 -0.0046910318 -0.0027581074
0003e0 a7 4b 86 3d 81 d8 0b 3d 10 f3 06 3c fa 30 3c 3d
       0.06557398 0.03414202 0.008236662 0.045945145
0003f0 b0 42 a6 3c 6b 4d e9 3b 91 15 0e bb e1 80 90 3d
       0.020295471 0.0071198246 -0.0021680335 0.07055832

encoder.0.bias f4 [60]
000000 ae 58 ee 3c eb da b1 3d 8e ae e7 ba 78 51 03 3d
       0.02909502 0.086843334 -0.0017675923 0.032060117
000010 2b 9f 8b bd 25 1d 18 3d d4 ed c9 bd 08 28 0d bd
       -0.06817468 0.03713717 -0.09859815 -0.034462005
000020 72 8a 65 3d 95 eb 8e 3d 6e 2a 47 bc 9a 17 24 bd
       0.056040235 0.069785275 -0.012156112 -0.04006157
000030 38 e2 3e bd b3 cd 81 3d 71 55 13 bd b3 96 91 bd
       -0.046602458 0.06338062 -0.035970155 -0.07108822
000040 bb a3 02 bc 33 9a 93 3d 8e fd 43 bd 69 f2 03 3e
       -0.007973607 0.072071455 -0.04784923 0.12885441
000050 36 d3 4d bc 42 a3 6b 3d 30 92 f9 bd 47 dc 85 bc
       -0.012562564 0.05752874 -0.12186086 -0.016340388
000060 88 3c df 3c 17 79 03 3c 17 e0 49 3d 47 df 11 bd
       0.027250543 0.008024476 0.049285974 -0.035613324
000070 37 16 ca bc 5d e4 b2 3d be be 2b 3d 38 1c a8 bc
       -0.024668796 0.08734963 0.041929953 -0.020521268
000080 e4 4f a2 3d 8e 88 9c bd 49 fe 85 3c 4d af a2 bd
       0.07925394 -0.07643233 0.016356604 -0.07943592
000090 5b 19 a2 3d 4e 94 f2 3d 26 e8 7f bd 9e 6d 63 ba
       0.079149924 0.11844693 -0.062477253 -0.0008675697
0000a0 97 2c 71 bd 81 2c ab bc c9 9d e9 3c f1 d1 90 bc
       -0.058880415 -0.020895245 0.02851762 -0.017678233
0000b0 c5 7d 34 bd 13 a2 d1 bc ac ee 1b 3d ba 07 f8 bc
       -0.044065256 -0.025589978 0.038069412 -0.030277122
0000c0 91 d8 12 bd 08 09 cd bc 06 f9 2d bd 9b d5 29 bd
       -0.035851065 -0.02502872 -0.042473815 -0.041463476
0000d0 7a e1 9f bd 9a fb 28 bd 3f 7c 7f bc 50 80 1c bc
       -0.07806678 -0.04125557 -0.015593587 -0.009552076
0000e0 49 26 13 3d 9e a9 87 ba e0 aa cd bc 9b be 79 3d
       0.035925183 -0.0010350232 -0.025105894 0.06097279

encoder.2.weight f4 [30, 60]
000000 23 9b f5 bd 4d e5 db 3d 20 db 6d bd 41 66 c1 bc
       -0.119924806 0.10737095 -0.058070302 -0.023608329
000010 9a 0b cf bd 73 43 82 3d bd bd 91 bd 49 1c b0 3d
       -0.10109635 0.06360521 -0.07116268 0.08599145
000020 4a e0 ae 3d 6d e1 6b bd 28 33 82 3d d8 fe 86 bc
       0.085388735 -0.05758803 0.063574135 -0.01647894
000030 fc be e7 bd fc bb 9f bd d8 40 db 3d 3f 15 39 3d
       -0.11315724 -0.07799527 0.10705727 0.045186277
000040 26 eb b1 3a 76 f0 1d bd cc 83 e8 3d 37 37 eb bc
       0.0013574108 -0.0385594 0.11353263 -0.028712852
000050 2c ce dc 3d a9 bb ef bd 99 3d eb bd 5f 69 b1 3c
       0.10781512 -0.11705715 -0.11486358 0.02165669
000060 de e7 c4 3d 95 65 2b 3d 4c 1b 8e bb af c1 9b 3c
       0.09614538 0.041844923 -0.00433675 0.019013254
000070 18 4b eb 3d 8f f2 03 be d2 14 42 3c d3 fe 9c bd
       0.11488932 -0.12885498 0.011845784 -0.07665791
000080 b3 0a 9a 3c 3a d9 f1 b9 60 3a 18 bd 1a f1 8f 3c
       0.01880393 -0.00046128948 -0.037165046 0.01757102
000090 14 a6 a1 3d 7c 5d 93 3b 60 0d 1e 3c ab 74 81 3d
       0.07893005 0.004497228 0.009646744 0.06321081
0000a0 83 d0 06 3e 8f 1e 9b bd 7b bc b9 bd e6 5f e2 bd
       0.13165478 -0.07574188 -0.09069153 -0.110534474
0000b0 41 83 f5 bd fe 4f 4a bc 65 6b 55 bd cd ed ee bd
       -0.11987925 -0.012348173 -0.052104373 -0.11666451
0000c0 7c 23 7b bd 99 e8 cf 3c 81 a7 d1 3d ae 78 e6 3d
       -0.061313137 0.025379466 0.10237027 0.112534866
0000d0 f7 61 93 3d dc e8 24 bd c1 fc 0d 3c 9c d7 04 3c
       0.0719642 -0.040261135 0.008666218 0.008108046
0000e0 d4 bb cd bd 1d b1 0a 3e 2a bb f3 bd 23 d1 dd 3d
       -0.10045591 0.13544126 -0.11900933 0.10830905
0000f0 65 03 b4 bd af ca 2b 3c e8 d2 d2 3d 12 a6 8b bd
       -0.0878971 0.010485335 0.102941334 -0.06818785
000100 52 04 cc 3d ef 6a 98 bd 1a 1b a1 3d 6f 08 ee 3d
       0.099617615 -0.07442271 0.07866497 0.11622702
000110 13 02 d3 3d aa eb 50 3d 83 fd 10 3d db f5 e5 3d
       0.1030313 0.051005997 0.035398018 0.11228534
000120 7f 84 27 3d 6d 67 3e bd c3 7a 28 3d ef ce d4 bd
       0.040897842 -0.046485353 0.0411327 -0.10391032
000130 4e 7b 86 bd 11 50 67 3c cb 3b 26 3d c0 a7 2b bd
       -0.06566487 0.01411821 0.040584367 -0.041908026
000140 75 1c dd bd c1 14 ff 3c 20 91 f1 3a 25 f9 91 bc
       -0.107964434 0.031137826 0.0018430091 -0.017818997
000150 14 65 23 bc ad 8e f4 3c e9 fa be 3d 17 d7 f9 3d
       -0.009972829 0.02985319 0.09325201 0.12199228
000160 1e 18 83 3d bc 55 20 bd 75 80 d4 3c 4e 38 e4 bd
       0.06401084 -0.039144263 0.02594016 -0.11143552
000170 71 50 9c 3d 97 1d c2 bd 4a 0e f8 bc 6f 09 d1 3d
       0.076325305 -0.094783 -0.030280251 0.102068774
000180 43 80 77 3d 99 0a e2 bd 34 31 b5 3d 76 f9 b9 3d
       0.060425054 -0.110371776 0.088472754 0.09080784
000190 92 21 8a 3d 1b 18 89 3d 39 a2 9d bd 59 39 f0 bd
       0.06744684 0.06694051 -0.07696957 -0.11729688
0001a0 1b ea b2 3d ca 0a ac bc 85 ef 7c 3d 9f 02 97 3d
       0.08736058 -0.021001238 0.06175186 0.07373547
0001b0 af d3 99 3d 16 e4 a2 bd ae b2 e5 bd 41 ef 1f bd
       0.075110786 -0.0795366 -0.11215721 -0.03904653
0001c0 c2 86 74 bd 62 b4 cd bd 0a 9e ae 3d b0 b7 04 3e
       -0.059698828 -0.10044171 0.08526237 0.12960696
0001d0 9a 40 1d bd 0d e4 98 3d d9 b0 81 3d 9f ab 44 3d
       -0.038391687 0.07465372 0.06332559 0.048015233
0001e0 e2 f9 05 bd 7b 7e a6 bd 30 25 fa bc 2a be fb 3c
       -0.03270901 -0.08129593 -0.03053531 0.030730326
0001f0 19 c5 a5 3d 54 0b 38 3d 22 e0 ca 3d 7b 54 77 bd
       0.08094234 0.04493268 0.09906031 -0.0603833
000200 fa 19 5b bd 34 12 71 bd 37 e6 bb bd 38 3b ae bc
       -0.05349157 -0.05885525 -0.09174769 -0.021268472
000210 37 0b 95 bd c2 07 7c 3d eb 20 15 3d 5c db 01 bd
       -0.0727753 0.061530836 0.036408346 -0.031703338
000220 6a c2 b1 3d 11 eb 98 3d 84 fb d6 bd 24 28 98 bb
       0.0867966 0.0746671 -0.104971915 -0.004643457
000230 1f 7b d8 3c c9 65 92 3d 6b aa 05 be 1d 46 09 be
       0.026425896 0.0714832 -0.1305329 -0.13405652
000240 9e a5 0b be 7d 66 65 38 28 dc 08 3e 95 a0 80 3d
       -0.13637397 5.4693304e-05 0.13365233 0.062806286
000250 8a 59 01 be 93 3f da 3d 55 be 95 bd 55 8c b0 bd
       -0.12631813 0.10656657 -0.073116936 -0.08620516
000260 b2 68 04 3e 33 3b 23 3d 13 2a 6e 3d 2b d5 d5 bb
       0.12930563 0.03985138 0.058145594 -0.0065256557
000270 31 0c b7 3c 7b bf 1a 3c 1b 90 fc 3c ce f3 b4 ba
       0.02234468 0.009445067 0.030830434 -0.001380557
000280 a9 a1 02 be d1 3b 0a 3e 66 18 d2 3d 9c 30 32 bc
       -0.12756981 0.1349938 0.1025856 -0.010875847
000290 2d 52 a7 bc 5f 48 d2 3d 4e cc e2 3d af c4 68 3d
       -0.020424927 0.1026771 0.11074124 0.056828197
0002a0 43 ee 91 3d a3 61 d8 bd de aa 76 3d ef f3 f6 3d
       0.07125523 -0.10565498 0.060221545 0.120582454
0002b0 29 01 a1 bd fd aa 0b 3e ed 0f be bd ad 7d 04 be
       -0.078615494 0.13639446 -0.09280381 -0.12938567
0002c0 dd 0a 9b bd fd 74 9f bc fe 0e e2 bd 25 e4 4f bd
       -0.075704314 -0.019464964 -0.11038016 -0.050754685
0002d0 dc 9f d1 3d aa 26 86 3d 3c 14 61 bc 2d 78 ab bc
       0.10235569 0.06550343 -0.013737734 -0.020931328
0002e0 4f 5d 00 be f1 c9 07 3e 02 dd 62 bd fb a1 38 ba
       -0.12535594 0.13260628 -0.05538655 -0.000704318
0002f0 74 79 71 bd d8 d4 ad bd 31 b0 06 be 02 6a e4 bd
       -0.058953717 -0.08487862 -0.13153149 -0.11153032
000300 6c c7 4c bc d2 7d 4a 3d 94 85 a7 3d 47 bf f6 bc
       -0.012498718 0.049436398 0.08179775 -0.030120505
000310 fb 90 ec 3b d4 a8 9a 3d 87 f8 83 3d 8d ea 06 3e
       0.0072194315 0.07551733 0.06443887 0.13175412
000320 58 03 ee bc 63 10 04 bd d6 c0 40 bc 93 38 a5 3d
       -0.029054329 -0.03224219 -0.011764726 0.08067431
000330 b6 6b dc 3c c8 b9 09 be e7 da bd 3d 3c cc 44 bb
       0.02690683 -0.13449776 0.09270268 -0.003002896
000340 8b 06 e9 bd 13 07 0e 3e 2e d3 a8 bd 80 51 00 ba
       -0.11378201 0.13869886 -0.08243404 -0.0004894957
000350 3a d7 90 bd ee 4b aa bd be 25 d1 bd 73 1d 96 3d
       -0.07072301 -0.08315264 -0.10212277 0.07329836
000360 a6 b4 75 3d 72 a3 45 bd 4b 73 95 3d a0 28 da bd
       0.059986733 -0.048251577 0.07297381 -0.1065228
000370 50 ca 2c bd 97 b6 1d 3c 47 98 d4 3d 90 0e ca 3d
       -0.042185128 0.009626052 0.10380607 0.09866059
000380 12 cb a7 bd 30 38 22 3d b3 80 e6 bc 0e 8a bf 3d
       -0.081930295 0.039604366 -0.02813754 0.09352504
000390 82 ad 9f bd 84 fc f0 bd 95 0c 13 bd 3f 5d 5a 3d
       -0.07796766 -0.117669135 -0.03590067 0.053311583
0003a0 dc f0 45 bd 91 31 64 3d c8 e6 00 be d2 6e df bd
       -0.048325405 0.055711333 -0.12588036 -0.10909809
0003b0 6c c2 25 3d 42 79 05 be a5 2a 4c 3d 1d 8e 9a 3c
       0.04046862 -0.13034537 0.049845356 0.018866593
0003c0 1b 08 de 3d e2 27 fe bc 87 28 9b bc ab c6 09 be
       0.1084139 -0.031024877 -0.018940223 -0.13454692
0003d0 15 12 97 bd 9f d9 9c bd d3 9e 0b be 0c c0 a1 bd
       -0.07376496 -0.076586954 -0.13634805 -0.07897958
0003e0 0b 3d cd 3d bd ad a0 bd 43 2a 18 be 09 70 02 be
       0.10021409 -0.07845638 -0.14859872 -0.1273805
0003f0 f9 35 c2 bd 85 d3 85 3d 92 2f d0 bd e1 b0 7a bd
       -0.09482951 0.06534485 -0.10165323 -0.06120384

encoder.2.bias f4 [30]
000000 89 d8 e6 bd 6c 79 d8 bc ea 60 d4 3d 24 d7 7b bc
       -0.112717696 -0.026425086 0.103700474 -0.015371118
000010 01 9b ab 3d f4 c3 e8 3a 35 72 a7 3d 51 d8 07 3d
       0.08379174 0.0017758594 0.0817608 0.03316528
000020 8b 7a 7a 3c 5a 54 fa bc 8a 16 8e bd 69 59 db 3d
       0.015288006 -0.0305578 -0.06937893 0.10710413
000030 90 6b 4e 3d bb 1d c0 3b 2b 15 02 3e d6 ec ef 3c
       0.05039555 0.005862919 0.12703387 0.029287737
000040 e1 d3 9e 3b 80 1a 93 3d 96 53 91 3d 5d 15 a1 3c
       0.0048470353 0.07182789 0.07096021 0.019663507
000050 1e da 4a 3d 1d 10 7a 3d c9 41 f1 bc 9c a0 95 3d
       0.04952442 0.061050523 -0.029450314 0.073060244
000060 9e b6 b0 3d 97 0e e5 3d 5e f3 26 3d d6 3d 2c 3d
       0.086285815 0.111844234 0.040759437 0.04205116
000070 30 2a cf 3d d0 c5 8c 3d
       0.101154685 0.06873667

encoder.4.weight f4 [10, 30]
000000 f3 70 23 be 65 e4 26 3e 6b de 87 bd 13 4d 3b bd
       -0.15961055 0.16298063 -0.0663422 -0.0457278
000010 81 27 db 3d 02 a7 87 3c 46 c4 5f bd 58 cf 09 be
       0.10700894 0.016559128 -0.05463054 -0.13458002
000020 e6 8b 26 be 95 4f 50 bd c1 d8 97 3d 7b f8 2a be
       -0.16264305 -0.050857145 0.074143894 -0.1669635
000030 65 b2 73 3d b5 93 4b 3e fd c5 e5 3c bd de 28 3e
       0.059496302 0.19880565 0.02804851 0.16491218
000040 a9 c2 54 3d c1 ef 41 be d9 09 b3 bc 99 28 0d 3e
       0.051943455 -0.18939115 -0.021855282 0.13785018
000050 8e b8 95 bd 9a a4 52 bc 25 ed db bd 1f d8 ea 3d
       -0.07310592 -0.012856627 -0.10738591 0.11467003
000060 00 72 c9 bc 8b 01 89 bd 45 b8 c9 3d f5 47 1a 3e
       -0.024590492 -0.066897474 0.098496 0.15066512
000070 93 b2 03 3e 32 4a bd 3c 72 2b 2b 3e b9 ab a6 bd
       0.1286109 0.023106668 0.16715792 -0.08138222
000080 4e 2e 5f bd 88 bb e5 bd 1e ea 4a 3d 86 28 0e be
       -0.05448752 -0.11217409 0.049539678 -0.13882646
000090 c5 a1 ba 3d 72 3c be 3d d2 ed f4 bd d4 69 91 3d
       0.09112886 0.09288873 -0.11959423 0.07100263
0000a0 b0 10 c5 bc e9 d7 24 be fc 39 1b 3e 49 39 1f bd
       -0.024055809 -0.16097988 0.15158838 -0.03887299
0000b0 d7 ef 5f bd 58 f9 9c bd 7e 6f 2b 3d df 72 2f be
       -0.05467209 -0.07664746 0.041854374 -0.17133664
0000c0 23 80 01 be dc 65 22 3e ee df 30 3e c1 ae e1 bd
       -0.12646537 0.15859169 0.17272922 -0.1101966
0000d0 3a 87 cc 3d c9 1a 42 3d 67 67 18 be 70 b9 2e be
       0.0998673 0.047388826 -0.14883195 -0.17062926
0000e0 cf 0f 92 3d fd 2e c3 3d 16 eb 3b be d3 47 0a bb
       0.071319215 0.09530447 -0.18351397 -0.002109994
0000f0 49 3c 08 be 12 81 98 bd f4 20 9a bc 2d 1d 29 3e
       -0.13304247 -0.07446493 -0.018814541 0.16515036
000100 62 a0 9b 3d a4 0f 10 be 8c ed 4d bd ce a0 38 3e
       0.0759895 -0.14068466 -0.05027537 0.18030092
000110 c8 c9 2c bd 57 24 0e bd ba b3 1d bd b7 a3 1e be
       -0.04218462 -0.034702625 -0.03850148 -0.1549214
000120 98 35 f7 bd 16 b5 0e 3e b9 9e ea bd 3c 4f 96 bc
       -0.12070769 0.13936266 -0.11456055 -0.018348329
000130 26 18 2a 3e 26 b0 11 3e e5 b1 26 be 82 b5 f8 3b
       0.16610774 0.14227352 -0.16278799 0.007589997
000140 4e 4e 3b be ab 61 43 bd de 9b d4 bc ae 46 13 3d
       -0.1829159 -0.047700565 -0.02595323 0.035956077
000150 69 70 80 bd 99 06 32 3e 7a f0 ec bd 23 4e 16 3e
       -0.062714405 0.1738533 -0.11569305 0.14678244
000160 94 02 36 3e 6b 52 93 3c bc 75 da bd ee db bd 3b
       0.17774421 0.017983636 -0.10666987 0.00579404
000170 ff 17 9a 3d fb 72 b4 3c ff d1 35 3e 05 54 0c bd
       0.07524108 0.022027483 0.17755888 -0.034259815
000180 4c b0 47 3e c6 95 5e bd 88 18 3d be 51 19 53 bd
       0.19500846 -0.054342054 -0.18466389 -0.051537815
000190 31 ef a7 bb f9 be 0b 3e 6c 81 00 bd 0d 4d 08 3e
       -0.0051249494 0.13647069 -0.031373426 0.13310643
0001a0 bf c3 26 3e 15 88 36 3d 11 dd e8 3c c9 ce 68 bc
       0.16285609 0.04456337 0.028425725 -0.014209458
0001b0 05 fc 35 bd 83 fe a4 3d bc 4f 19 bd 47 94 f7 bd
       -0.044429798 0.08056357 -0.037429556 -0.120888285
0001c0 34 5e 3d 3d 1f 90 02 3e 72 f4 99 bc 4d ca 30 bd
       0.046232417 0.1275029 -0.018793318 -0.04316168
0001d0 2e 7c 52 3d 5f 61 1c 3e 4e 97 12 be 98 be e2 bd
       0.05138796 0.15271519 -0.1431553 -0.11071509
0001e0 f2 fc 42 3e f4 01 4f 3b f7 0a ec bd 26 d8 27 be
       0.19041803 0.0031586858 -0.11525529 -0.16391048
0001f0 f8 34 84 bc 81 df 97 bd f4 39 35 be 82 3b cd bc
       -0.016138539 -0.07415677 -0.17697889 -0.02505279
000200 00 d3 ae 3d ea 51 6e 3d 14 ad ea bd f2 23 8f 3d
       0.08536339 0.058183588 -0.11458793 0.06989278
000210 f5 04 6a bb 0e 7a 1b be 3c dc 5a bb d9 dc 55 bd
       -0.003570852 -0.15183279 -0.003339543 -0.05221257
000220 ed 98 2b be 43 48 07 be 4b 2e d2 3c 8e 34 c1 bd
       -0.16757555 -0.1321116 0.02565684 -0.09433852
000230 de 4c 0a be fd d0 2f bb d8 fb f4 bd 3c 23 de bd
       -0.13505885 -0.0026827448 -0.11962098 -0.10846564
000240 d2 9c 81 bd 27 b2 9f 3d 21 3f 75 3c 1f 7f b2 bb
       -0.06328739 0.07797652 0.014968664 -0.005447283
000250 1c 28 2d be 1a d5 3a 3b bb 06 70 bd 29 26 b4 3d
       -0.16909832 0.0028508366 -0.05860017 0.08796341
000260 fb a3 61 bd 08 70 1a 3e 62 9f 7c 3d 9b 0f 2a 3d
       -0.055088025 0.15081799 0.061675437 0.04151879
000270 dc f8 d7 3d f6 35 9e bd a6 2b 05 be a1 3b 27 3d
       0.10545513 -0.07725136 -0.13004932 0.04082835
000280 72 8c fa bd 95 b4 21 bc 4b 6c 1e be cc 70 ff 3d
       -0.12233819 -0.009869714 -0.15470998 0.12472686
000290 1d f8 17 3e 9f d6 0c 3e 00 7c cb 3d 88 70 36 be
       0.14840741 0.13753746 0.099357605 -0.17816365
0002a0 a5 78 d6 bd b0 5c a9 bd cd 03 c7 b9 9a f9 06 bd
       -0.1047223 -0.08269632 -0.0003795907 -0.032952882
0002b0 3e 65 dd 3d f1 92 7a 3d bf 02 ea 3d 07 1a ac 3d
       0.10810326 0.06117529 0.11426305 0.08403402
0002c0 a8 f6 16 be e2 55 34 bd 5c 99 04 3d d2 f0 2f be
       -0.1474253 -0.044027217 0.032372817 -0.1718171
0002d0 45 41 94 3d d6 67 9d bd 30 01 14 3d 80 17 05 3e
       0.07239012 -0.07685821 0.036133945 0.12997246
0002e0 bf 11 d4 3d 4c 3e 2a be 69 93 0c 3d 4a ab d1 bd
       0.10354947 -0.16625327 0.03432027 -0.10237749
0002f0 f3 69 1e 3e c2 26 f6 3d fe 6b 38 3e d9 ac 7c 3d
       0.15470104 0.12019111 0.18009946 0.061688278
000300 05 0a 8d 3d 89 1c ee bc 80 42 a7 3c 2e 99 14 be
       0.06886677 -0.029066341 0.020417452 -0.14511558
000310 21 7d ff bd 89 e4 b1 bd 04 a6 7a 3d e4 5f 01 be
       -0.12475038 -0.08686168 0.06119348 -0.12634236
000320 4a 35 23 be c6 2e e9 bd fb c5 46 3e 09 25 ad bd
       -0.15938297 -0.113858745 0.19411461 -0.084543295
000330 7d c7 12 be e0 a5 96 3d ce 83 45 be 30 57 09 3e
       -0.14333911 0.07355857 -0.19288561 0.13412166
000340 62 0c 00 3e 75 38 85 bc 35 e4 83 3b b4 61 88 3d
       0.12504724 -0.016262272 0.004025007 0.066592604
000350 66 b7 24 bd 24 60 c9 3c d8 ba df bd dd bd 6c 3d
       -0.040213965 0.024581976 -0.109243095 0.057798255
000360 1c 71 96 3d 87 b9 08 3e 4e d5 94 bd e0 7c d1 3d
       0.07345793 0.13352023 -0.07267247 0.10228896
000370 f9 bf e0 bd d9 f8 05 3e b9 b8 92 3d 14 78 81 3d
       -0.10974116 0.13083209 0.07164139 0.06321731
000380 ec 59 b7 bd 29 e1 33 be 6f a9 28 be 2a b3 11 be
       -0.08952698 -0.1756636 -0.16470884 -0.14228502
000390 03 e3 13 bd 10 d1 17 3d ce 8d 9b bd 67 36 8b bd
       -0.036105167 0.037064612 -0.075954065 -0.06797486
0003a0 1a ff 12 3e 9b 62 a7 3d 70 55 17 be 2d 31 a2 3d
       0.14355126 0.081731044 -0.14778686 0.07919536
0003b0 36 af f7 3d df 56 a4 bd f5 2c 36 3e 5e 24 bf 3c
       0.12093966 -0.08024382 0.17790587 0.02333277
0003c0 d0 43 fb bb 04 98 09 3e 3d af 9c bd 3c d7 a3 3d
       -0.007667996 0.13436896 -0.076506115 0.08000037
0003d0 3c e1 cc 3b db 2b e0 bd 03 41 cb 3d b7 2c 1a be
       0.006252436 -0.10945865 0.099245094 -0.1505612
0003e0 b8 b6 16 3e 07 ed 67 3d 1b b6 00 be ee 67 77 bd
       0.14718139 0.05662253 -0.12569468 -0.06040185
0003f0 e8 32 4b 3e e0 62 4e 3e b1 10 1e 3d db f9 1d 3e
       0.19843638 0.20154905 0.038590137 0.15427344

encoder.4.bias f4 [10]
000000 28 5f 84 bd fc c4 93 bd 44 5f 12 3d de d0 46 bd
       -0.06463462 -0.07215306 0.035735384 -0.048539035
000010 5b a7 98 3d 0b 86 1c 3e 21 e0 ff bd 74 e4 bd bd
       0.074537955 0.15285508 -0.12493921 -0.092720896
000020 36 8c 78 bd 98 e0 d7 bc
       -0.06068059 -0.026352212

encoder.6.weight f4 [1, 10]
000000 9d 14 a1 be b1 e2 eb bc 33 2a a5 3e ae 5d 6a 3e
       -0.3146104 -0.028794618 0.32258758 0.22887298
000010 aa 98 fa bd 1c 4f 34 bb 0d 3b 41 3e 4c 6c 05 3d
       -0.122361496 -0.0027512973 0.18870182 0.032573983
000020 e6 34 ab be 68 cf 51 be
       -0.33438796 -0.20489275

decoder.0.weight f4 [10, 1]
000000 21 be b5 3e f3 3b 3f bf 22 d2 d3 3e 1e d2 65 3f
       0.3549662 -0.7470085 0.41371256 0.8977374
000010 95 42 31 bf 1f 70 df be 44 52 f3 3e d3 fc 69 3f
       -0.6924222 -0.4364023 0.475237 0.91401404
000020 59 ac 7d 3e 89 90 22 bf
       0.24772777 -0.63501793

decoder.0.bias f4 [10]
000000 fb 4b 7f 3f c3 9a 4a be 81 98 d0 3d d9 68 86 3b
       0.9972531 -0.197856 0.10185338 0.0041018543
000010 6c e6 92 3e e9 60 fb be 58 d7 bf ba 70 a3 40 bf
       0.28691423 -0.49097374 -0.0014636321 -0.75249386
000020 a2 12 33 bf 12 30 41 bf
       -0.69950306 -0.75463974

decoder.2.weight f4 [30, 10]
000000 78 12 89 3d 0b f2 29 be c2 fc 2f be 4d 42 7b 3e
       0.06692976 -0.16596238 -0.17186263 0.2453701
000010 cb 27 17 be d2 c4 89 bd ad 7d 44 3a 48 5d 62 be
       -0.14761274 -0.067269936 0.0007495534 -0.22105896
000020 5c 7f b4 3b 52 fb 2c 3d b8 53 85 3d f8 2a ee 3d
       0.0055083465 0.042231865 0.06510109 0.116292894
000030 f4 1a 30 bd 39 5e aa be ee fb 06 3e 19 97 a2 3e
       -0.042994455 -0.3327501 0.13182041 0.31755903
000040 44 7e 07 be 6e 53 46 3e c0 28 8c 3e c2 e6 43 be
       -0.1323176 0.19367763 0.2737484 -0.19130996
000050 40 9e 73 be 31 02 a4 be 2a c9 0a 3d 08 0e 28 3e
       -0.23790836 -0.32032922 0.03388325 0.16411602
000060 f2 70 a5 be 51 3d a1 3e 64 80 58 be 11 a4 e9 bd
       -0.32312733 0.31492093 -0.21142727 -0.11408246
000070 7d e1 77 3d ec a1 c6 bc 45 c4 95 3e 0b 6a 8b be
       0.060517777 -0.024247132 0.29251304 -0.27229342
000080 78 65 1f 3e 3a 5c b1 3d a4 dc 54 3d 14 e3 13 bd
       0.15566051 0.08660169 0.05196823 -0.03610523
000090 eb 0c 22 3e 84 b7 24 bd 7c 19 6c 3c 45 8b 30 3e
       0.1582524 -0.040214077 0.014410373 0.17240627
0000a0 41 78 ed bc 8c 33 69 3e e2 19 a7 3d 47 48 90 be
       -0.028988006 0.2277357 0.08159234 -0.28180143
0000b0 10 af bb 3d 75 fa d4 3d 57 f0 9b 3e d9 e8 fc bd
       0.0916425 0.103993334 0.30456802 -0.123491
0000c0 6a 09 f8 bd d3 46 75 3e a0 6a 22 3e 27 4b a5 3e
       -0.121111706 0.23952799 0.15860987 0.322839
0000d0 bc c1 a9 3b eb 76 f7 3d 3d 85 79 be f5 a2 90 3e
       0.0051805656 0.12083229 -0.24367233 0.28249326
0000e0 3e 36 db bd 98 33 bc be dd 7e 05 be 40 fc 16 be
       -0.10703705 -0.36758113 -0.13036676 -0.14744663
0000f0 f5 44 99 3e 63 be 0b 3e f6 92 a0 3e 15 8c 30 be
       0.29935423 0.13646846 0.31362122 -0.17240937
000100 df 8c 20 3e 30 d6 53 bd 1a 12 41 bc 45 98 29 3c
       0.15678738 -0.051717937 -0.011784101 0.010351245
000110 6e 27 b3 3c ae d3 9d 3e 35 30 c9 bc cb 56 02 bd
       0.021869387 0.3082556 -0.02455912 -0.031821053
000120 2c 50 4c 3e c1 29 58 3e ee 83 db 3d fc be 1b 3e
       0.19952458 0.21109678 0.10718523 0.15209574
000130 12 19 ae 3e f3 b9 9a 3e d9 06 a1 bd 73 e2 20 3e
       0.34003502 0.30219993 -0.07862634 0.15711384
000140 4a 3a 13 bd 2b 5f 78 be ba e4 8a be ec fc 87 3e
       -0.03594426 -0.24255054 -0.2712763 0.26560152
000150 5d c9 15 be 4f 3d b4 bd 2f d7 85 be 27 1f be bd
       -0.14627595 -0.08800756 -0.26140735 -0.092832856
000160 6f fd aa 3e d9 f8 95 be 93 24 ea bd 80 8b e1 bc
       0.3339648 -0.29291418 -0.11432757 -0.02753234
000170 e1 d6 17 be 81 2d 52 3e e7 c7 ae 3d 7e 25 1e be
       -0.14828064 0.20525171 0.08534222 -0.1544399
000180 7f ab 03 be 8f 06 db 3d 89 36 9c bd ef 2e fe bd
       -0.1285839 0.1069461 -0.07627589 -0.124112956
000190 e3 cd 41 3e cc e2 38 be 9d 80 95 be c5 b3 88 be
       0.18926196 -0.18055266 -0.29199687 -0.26699653
0001a0 7c 55 95 3d f1 6a 77 3c a1 d6 6b 3e ed af 9a 3e
       0.072916955 0.01510118 0.23031093 0.30212346
0001b0 ed 97 80 3d fe d4 61 3d a5 5f 8b ba 74 0c 0b bd
       0.062789775 0.055134766 -0.0010633363 -0.033947423
0001c0 04 13 41 3e f9 cb 06 3c 6c fc 4b be 8c dc 93 3d
       0.1885491 0.008227342 -0.1992051 0.072198
0001d0 a6 57 46 3d ee e9 97 be f8 a5 03 be 55 75 e7 bd
       0.04842343 -0.29670662 -0.12856281 -0.11301676
0001e0 cc 51 a8 bd 1c 2e 7b 3e ba 1a e1 bd a1 df a9 3e
       -0.082187265 0.24529308 -0.10991426 0.33178428
0001f0 84 cf c8 3d 95 82 e1 bd 60 dd 11 bc 4c 18 ae bd
       0.098052055 -0.11011235 -0.008902878 -0.08500728
000200 79 91 4c be 4d 76 bd 3d 90 e0 53 3e 4e 52 97 bd
       -0.19977368 0.0925108 0.20691133 -0.07388745
000210 d1 7a 41 be dd 72 9a be 1b a0 5a 3e 7b 0c 6c bd
       -0.18894507 -0.3016576 0.21350138 -0.05762909
000220 b1 b6 23 3e c6 71 8c 3e d3 77 e1 3c c4 38 f4 bd
       0.1598766 0.27430552 0.027522957 -0.1192489
000230 7d ca 78 3e a9 3a 6b 3e 4b 88 5f be fb 9d 99 be
       0.24295993 0.22971596 -0.21829335 -0.30003342
000240 ac ce b9 3c 6a ef 29 3e c8 af 37 bd ec b2 9c bb
       0.022681557 0.16595235 -0.044845372 -0.0047820713
000250 34 f2 35 be 81 d4 6a be d0 53 87 3e 96 c6 9b 3e
       -0.17768174 -0.22932626 0.2643113 0.30424947
000260 3d bc 3e be 54 de 64 3e 0f 47 bb bd c4 b2 80 be
       -0.18626495 0.22350436 -0.09144413 -0.25136387
000270 14 48 2f 3e 5a b5 6c 3d d9 59 80 3d d3 7f 9a be
       0.1711734 0.057790138 0.06267137 -0.30175647
000280 cb f0 80 be ec 39 3d 3e 51 46 a4 bd 8d 60 8c be
       -0.2518371 0.18479127 -0.08021224 -0.27417412
000290 2b f8 38 bd cf 18 84 3c fb 1e 8d be 7b d7 74 be
       -0.045158546 0.01612511 -0.275627 -0.23910324
0002a0 e3 29 95 3e 8b 92 83 3d 0d 52 b3 bd d5 d0 38 3e
       0.2913352 0.06424435 -0.08755884 0.18048413
0002b0 28 bf aa be bf 1f 72 be 64 3f 09 3e dd ab 2e be
       -0.33348966 -0.23644923 0.13403088 -0.17057748
0002c0 49 1f 88 bd c8 41 b4 be 8c 4e 12 be da 48 02 be
       -0.06646592 -0.35206437 -0.14287776 -0.12723103
0002d0 83 0a 0a bd 33 1d 59 3c 4c ff 73 be 33 cd 8d 3d
       -0.03370143 0.013251591 -0.23827857 0.06923904
0002e0 98 9b 80 3d ca 23 d5 3d 13 2d dd 3d 65 c7 3b be
       0.06279677 0.10407217 0.10799613 -0.18337782
0002f0 7d ff af 3d 3d 3c e4 3c 37 9c e4 3d c2 16 87 3e
       0.085936524 0.027860755 0.11162608 0.2638455
000300 d2 d1 ca 3c e7 9d 89 3d 13 d6 0f bd f3 f0 2f be
       0.024758253 0.067195706 -0.035116266 -0.17181759
000310 7c 2f a6 3e 51 6e 67 bd ef 46 c0 bd b3 90 c2 3d
       0.32458103 -0.05650169 -0.093885295 0.095002554
000320 e5 bc 8b be 11 a1 6d 3e a4 ea 99 3e d6 8f 37 3e
       -0.27292553 0.23205973 0.3006183 0.17925963
000330 26 83 3a 3d 28 4b b7 bd 08 55 da 3d b1 73 11 3e
       0.04553523 -0.08949882 0.1066075 0.14204289
000340 13 6e 9a be a4 0a 8b be 6b 86 6a be e0 0a 60 3e
       -0.30162105 -0.27156556 -0.22902839 0.21879148
000350 e0 f5 c9 bd 0e 18 6c 3e e5 22 98 bd 4b 3c e0 bd
       -0.0986135 0.23056051 -0.074285306 -0.10949
000360 0e 2e b0 bd 4f 62 40 be ad bf 68 be f4 59 38 bd
       -0.08602534 -0.18787502 -0.22729369 -0.04500766
000370 bd 50 8f be 79 e2 37 3d 0a f0 32 bd 4c 46 4a 3e
       -0.27991286 0.044893716 -0.04368595 0.19753379
000380 77 ef 71 ba b5 b2 d8 bd 81 51 90 3e 3f 59 1b 3e
       -0.00092291035 -0.10580961 0.28187183 0.15170763
000390 15 61 03 3e 8d df 11 3d 25 e3 47 3e 9a 3f 36 3c
       0.12830003 0.035613585 0.19520243 0.011123562
0003a0 a1 85 31 be 80 f8 c4 3d ef 80 26 3d 29 1b 8a 3d
       -0.17336132 0.0961771 0.040650304 0.06743462
0003b0 af a0 56 bd a6 61 58 be 58 a9 6d 3d 7a a8 96 be
       -0.052399334 -0.21131 0.058022827 -0.29425412
0003c0 16 fb b2 bd 56 59 8d be d7 51 19 3e 31 cb 13 3e
       -0.08739297 -0.2760722 0.14972626 0.1443298
0003d0 57 0d c0 bc fa 36 35 bd 91 b2 3b 3e ab 3e 9c 3e
       -0.023443861 -0.044241883 0.18329836 0.30516562
0003e0 20 6c 5f 3e 2e 15 bb 3d be 17 98 bd 88 6a aa 3d
       0.2181859 0.09134899 -0.074264035 0.083211005
0003f0 e8 2b 68 be 0f 24 c4 bd 59 00 a7 3e 50 f5 71 be
       -0.22672999 -0.0957719 0.32617453 -0.23628736

decoder.2.bias f4 [30]
000000 d8 67 47 3e 4b 67 8f bc f4 14 f4 bc ff 58 0d be
       0.19473207 -0.017505309 -0.029795147 -0.1380348
000010 eb 71 a1 3e 19 31 39 be a1 77 58 3e 13 a2 29 3d
       0.31532225 -0.18085136 0.21139385 0.04141433
000020 3f 50 4b be 7e af b1 3d 65 95 8d be 06 c1 16 bd
       -0.1985483 0.086760506 -0.2765304 -0.036805175
000030 4f 55 03 3d 3a 9c 99 3e ae 92 8d be 25 22 66 3e
       0.03206378 0.30002004 -0.2765097 0.22473963
000040 84 e7 0e 3d 4d 90 87 bd 7c e8 85 be 6c 2f 38 3e
       0.03488876 -0.0661932 -0.26153934 0.1798684
000050 01 17 ba bd 48 a5 96 be 06 cc 22 be 05 bd 5d 3e
       -0.09086419 -0.29422975 -0.15898141 0.21654136
000060 41 98 a1 bd f2 b5 0d be 2d 57 6d 3d a1 17 37 be
       -0.07890368 -0.13838938 0.057944465 -0.17880107
000070 8f e1 64 be a1 b2 25 be
       -0.22351669 -0.16181423

decoder.4.weight f4 [60, 30]
000000 76 1b f4 3c 56 11 0c be 35 71 27 3e a5 c2 6a bb
       0.02979825 -0.13678488 0.16351779 -0.0035821584
000010 03 5d 0e 3e 02 ce 27 bc 12 7a 65 3c b6 97 27 3e
       0.13902669 -0.010241987 0.014006155 0.16366467
000020 87 db aa bd 8d b5 85 bc 58 7b 36 be 64 e6 49 3d
       -0.08342653 -0.016321922 -0.1782049 0.049291983
000030 53 62 b9 bd d7 57 49 bd 2b 71 b9 3d d0 27 86 3c
       -0.09051957 -0.049156036 0.09054788 0.016376406
000040 f4 b9 6e bd ba 46 c5 bd 10 4b 18 be 2c 28 07 bd
       -0.058282807 -0.09632631 -0.14872384 -0.032997295
000050 c9 86 3b 3e 32 d0 06 be 29 c4 eb 3d d5 3b 2c 3e
       0.18313135 -0.13165358 0.11512024 0.16819699
000060 0c 46 03 be b9 ba 2b bd ae 7b e2 bd a5 e7 9d 3d
       -0.1281969 -0.04192612 -0.11058746 0.07710198
000070 6c 00 00 be d5 0b 89 3d 64 7c 29 bd db e5 ac bd
       -0.12500161 0.0669171 -0.041378394 -0.08442279
000080 be 38 bf bd 21 ed 33 be 3e 94 11 be 7e d3 5d 3c
       -0.093369946 -0.17570926 -0.14216706 0.013539193
000090 1b 71 29 be 6b a7 5d 3d cd 68 f6 bd 5c 95 01 be
       -0.16547053 0.05411474 -0.12031708 -0.12654632
0000a0 1f 41 15 be 8b b3 49 3d e6 2b c5 3c 9c c7 b6 3c
       -0.14575623 0.04924349 0.024068784 0.022311978
0000b0 23 43 f3 3d b2 40 3a bd 72 7e b0 bd 46 f2 f8 3c
       0.1187804 -0.045471855 -0.086178675 0.030388962
0000c0 e5 ed 08 3e 42 84 5c bd 76 8e b5 bc b5 6d 35 bd
       0.13372 -0.05383707 -0.022162657 -0.044294078
0000d0 98 73 78 bc 9c f7 2a be ea 70 e7 3d 00 aa 34 3e
       -0.015164278 -0.16696018 0.113008335 0.17642975
0000e0 dc 45 04 3e 97 24 ff 3c 13 b4 7c 3d 2a 50 cb bd
       0.12917274 0.031145377 0.06169517 -0.099273995
0000f0 a1 9c 17 3e 78 66 82 3d 41 b6 41 bd 8e b9 19 be
       0.14805843 0.063672006 -0.04729295 -0.1501219
000100 3f e6 a8 3d 6f 68 db 3c 10 95 05 3e d3 54 12 bd
       0.08247041 0.026783196 0.13045144 -0.035725426
000110 e6 55 96 3d 78 b7 09 3e c9 5d 3b 3c ed 48 1c be
       0.073406026 0.13448894 0.011435934 -0.15262194
000120 82 5e dc 3d c8 15 43 3d 95 ea 58 3c 33 58 9f 3b
       0.107602134 0.047628194 0.013239522 0.004862809
000130 81 33 eb 3d c5 fa 86 bd bd 7e 09 3e bb ee 11 3e
       0.11484433 -0.06590799 0.13427253 0.14251225
000140 36 03 a4 3d 13 95 1d 3d 93 72 2f 3d 76 72 a0 bd
       0.08008425 0.038472246 0.042833876 -0.07834332
000150 3d f8 cb 3d 4b 57 12 3e 56 70 a1 3d e7 3b 06 be
       0.09959457 0.14291112 0.078827545 -0.13108788
000160 9a 45 b0 3d a3 d4 80 bd c4 78 7b 3d db 1c a0 3d
       0.086070254 -0.06290557 0.061394468 0.07818004
000170 73 bf aa 3d ff b7 0c 3b ee dc 71 bc b3 09 d3 bc
       0.08337297 0.0021471975 -0.014762146 -0.02576146
000180 74 26 99 3d 59 a4 25 3d 95 66 9f 3d ce 73 4c bd
       0.074780375 0.040439937 0.07783238 -0.049915127
000190 8d af 8e bd 9c b7 fe bd 49 3c 5d 3e 98 1c e2 3d
       -0.069670774 -0.124373645 0.21605028 0.1104061
0001a0 3c 63 3c bc 40 13 96 bc 1b 9b fd bc 96 56 5b 3e
       -0.011498269 -0.018319726 -0.03095775 0.21419749
0001b0 62 76 42 be 09 58 05 be c8 fa 5b bc e3 5e 15 3e
       -0.18990472 -0.13021864 -0.01342649 0.14586978
0001c0 5b 85 d1 3c 3a b5 15 be 39 ea 66 be a8 41 04 3d
       0.025576284 -0.14619914 -0.22550286 0.032289177
0001d0 84 5f 9a bd 6e 04 f8 bd a3 83 66 3d ff b3 0d 3e
       -0.075377494 -0.1211022 0.056277882 0.13838194
0001e0 b7 26 b1 3d 44 ac b8 3d 5c 49 f1 bd 2e 07 d0 3d
       0.086499624 0.09017232 -0.1178157 0.101576194
0001f0 0d 84 86 bd 32 08 50 3e e1 e9 1e 3e c6 76 7c bd
       -0.065681554 0.20315626 0.15518905 -0.06163671
000200 ba ce 80 bd 2b ae a1 bd 88 90 9a bd 17 09 d9 3d
       -0.0628943 -0.07894548 -0.075470984 0.10597437
000210 b7 c5 dc bd 9e 57 ce bd b7 ba 0a 3e 67 90 60 3b
       -0.107798986 -0.100753054 0.13547789 0.0034265758
000220 8a ad 24 3e be f0 67 3e 80 50 c7 bd 4e 4f 1e 3e
       0.16081825 0.2265043 -0.09732151 0.1545994
000230 f8 22 e6 3c 4f 91 cd bb c3 82 0a 3e a5 9c 1f be
       0.028092846 -0.0062734256 0.13526444 -0.15587099
000240 bc 85 e6 3d ae 72 13 be c4 6f c6 bd 93 0f 46 3d
       0.112559766 -0.14399216 -0.09689286 0.048354696
000250 7d 13 48 be b0 2e ec bd 08 72 ab 3d 3c 57 a1 bd
       -0.19538684 -0.115323424 0.08371359 -0.07877967
000260 fe 46 40 be 35 b0 f6 3d 5d 4f ef bd 0a 56 b0 3d
       -0.18777081 0.120453276 -0.11685059 0.08610161
000270 bc 24 11 be 29 25 4c be 27 d7 0b be e1 cd a8 bd
       -0.1417417 -0.1993605 -0.13656293 -0.08242393
000280 67 d3 15 be dc eb 2f 3e 28 9b ce bd b7 78 3a 3e
       -0.14631425 0.17179817 -0.100881875 0.18210112
000290 70 35 8f 3d db d9 f3 3d fe 6c b5 bd 8c 71 53 bd
       0.06992614 0.11906787 -0.08858679 -0.05162196
0002a0 00 b6 e4 3d 0c d8 fa bd 7d d3 05 3e 36 1f f7 3d
       0.11167526 -0.12248239 0.13068958 0.120665
0002b0 e2 27 0a be 56 3b 47 3e 77 e9 d8 3c a6 ca 93 bd
       -0.13491777 0.19456229 0.026478512 -0.072163865
0002c0 16 b4 b5 3c 57 c2 4a be 9f 75 0d 3e 37 f6 01 3e
       0.022180598 -0.19800697 0.138144 0.1269158
0002d0 4c 34 af 3d 7f fd d0 3d 24 4b 98 bd be 79 9b bd
       0.08554897 0.102046005 -0.07436207 -0.0759158
0002e0 8b 61 87 3d 8e b3 d7 3d 45 80 64 3e 9e 20 2e be
       0.06610402 0.10532294 0.22314556 -0.1700463
0002f0 f7 56 b1 bd e9 0c bc bd 06 f9 86 bc 91 04 38 3e
       -0.08659165 -0.0918215 -0.016476166 0.17970492
000300 9f 85 54 3d 66 1d 3d 3e f5 e8 91 bd 80 d7 21 3d
       0.051885244 0.18468246 -0.07124511 0.039512157
000310 08 fd 40 3d 77 c8 98 bd 3e 27 2a 3d 80 93 ac 3d
       0.04711631 -0.07460111 0.04154133 0.08426571
000320 45 11 81 3d c9 cd 4f 3d 3b be ae bd 00 72 2b 3e
       0.06302122 0.05073336 -0.08532377 0.16742706
000330 be fb 40 be ff a4 28 3e 70 8e 89 3d 10 02 fc 3d
       -0.18846032 0.16469191 0.06716621 0.12305081
000340 0f ec b7 3d 1c 6a 02 bd c3 3e ce 3d f8 51 44 3d
       0.089805715 -0.031839475 0.100705646 0.047929734
000350 1c 84 db bd c2 64 2a 3d 87 65 86 3d f8 dd 33 be
       -0.10718557 0.041599996 0.065623336 -0.17565143
000360 8d 8d fd 3d 2d 62 21 3e cd f4 4d bd 69 9a 3a be
       0.12380514 0.15760107 -0.05028229 -0.18222965
000370 62 ea 38 3e ab 51 43 bd 85 9e 04 3e 93 c1 94 bd
       0.1805816 -0.047685307 0.12951095 -0.07263484
000380 06 65 41 be 4c 23 25 be b3 b3 ff bb f9 50 0d be
       -0.18886194 -0.16126746 -0.0078034042 -0.1380042
000390 9d ce 49 bd 8e 80 17 be 5d 76 fa bd 2a 37 03 be
       -0.049269307 -0.14795133 -0.12229607 -0.12814012
0003a0 bf e3 33 3d d5 83 f6 bd 98 ab e2 3d 52 36 0f 3c
       0.043918367 -0.12036864 0.11067885 0.008740978
0003b0 09 59 38 3e 21 ea ab 3d ad 95 3f 3d cb 63 0d 3e
       0.18002714 0.08394266 0.0467736 0.13807599
0003c0 a4 ee 42 3d 25 e5 0b be b2 43 10 bd ea 96 0f be
       0.047590867 -0.1366163 -0.03522081 -0.14022413
0003d0 be 66 ee 3d 74 06 03 bd 14 c5 1a 3e 26 a9 8a bc
       0.1164069 -0.031988576 0.15114242 -0.01692636
0003e0 d4 fd 34 be a3 a8 2a be 5a bb 22 be 4b bf 8a 3c
       -0.17674953 -0.16665892 -0.15891781 0.016936919
0003f0 c6 18 91 bb d4 32 e1 3d 63 b7 bc bd 07 e2 03 3e
       -0.004428002 0.10996023 -0.09214666 0.12879191

decoder.4.bias f4 [60]
000000 6a 50 be bd 5a a6 e5 3d 67 26 1f 3e 34 e7 b5 3d
       -0.092926815 0.1121337 0.15541993 0.08881989
000010 1b ae 20 3e 03 04 03 be ee 15 92 3d ba 0e 9c 3d
       0.15691416 -0.12794499 0.07133089 0.07619996
000020 72 47 22 be 60 60 a0 3c 15 40 e8 3d 51 f8 40 3d
       -0.15847567 0.019577205 0.11340348 0.047111813
000030 26 74 41 3e aa e7 d3 bd e7 64 a7 bd 17 e3 10 3e
       0.18891963 -0.10346921 -0.081735425 0.14149128
000040 95 14 04 be ec 5d 08 be 92 3d 25 be 9c 9c 1a 3e
       -0.12898476 -0.13317078 -0.16136768 0.15098804
000050 53 12 4a 3e de ac 09 3e 77 0d 94 bd 45 1f 97 bc
       0.19733553 0.1344485 -0.07229131 -0.018447528
000060 45 38 39 3e 0a 70 10 3d 05 93 34 3d df 87 20 3e
       0.18087871 0.0352631 0.04408552 0.1567683
000070 3b ae fe 3d 34 77 44 3d 8f 70 d7 bd 57 d3 17 be
       0.124355756 0.047965243 -0.10519516 -0.14826714
000080 40 f1 11 bd bd aa 89 bc 4d fd 15 3e 82 19 c0 bd
       -0.035630465 -0.016805047 0.14647408 -0.09379865
000090 b7 3d 98 bd de e0 15 bd 1b 76 ad bd b6 f4 41 3d
       -0.07433646 -0.036591403 -0.084697925 0.047352515
0000a0 18 7e 2c bd d4 15 9c 3d c2 27 06 3e ff bf 28 3e
       -0.04211244 0.07621351 0.13101104 0.1647949
0000b0 5e b6 b4 bb 87 28 c9 bd ae b7 a1 3d cd 78 0b 3e
       -0.005514904 -0.09822183 0.07896362 0.136203
0000c0 b6 24 fb bc 92 32 23 3d 41 85 ab 3d 84 61 f5 bd
       -0.030657154 0.03984315 0.083750255 -0.1198149
0000d0 b3 cb c0 bd 94 b0 03 be b1 80 fa 3c 11 f9 ab 3d
       -0.094138525 -0.12860328 0.030578943 0.08397115
0000e0 98 11 35 3e a2 59 15 3d 30 b9 24 be b4 ff b3 3d
       0.17682493 0.036462434 -0.16086268 0.08789006

decoder.6.weight f4 [118, 60]
000000 54 03 39 3d 4b 56 bb 3d 37 45 7d 3d 16 07 90 3a
       0.04516919 0.091473185 0.061833587 0.001098844
000010 70 53 bc bd fc a9 bf ba 32 d9 d2 bc 01 f7 9b 3d
       -0.09195602 -0.0014622803 -0.025738332 0.07615472
000020 8a b5 88 3c 89 38 60 bd 92 ce 2e be 6e 33 7f bd
       0.016688127 -0.054741416 -0.17070988 -0.062304907
000030 53 a5 fc bc 9c a8 f8 3c ed 76 1a 3e 91 e5 d9 bd
       -0.030840551 0.030353837 0.15084429 -0.106394894
000040 22 d5 90 3c 93 6e 52 bc ae 8a 1d 3e 20 df fb bc
       0.017679755 -0.012843746 0.15384933 -0.030746043
000050 a3 b2 28 be c7 e3 41 3d 88 c8 b0 3b c5 f3 d1 3d
       -0.16474395 0.047336366 0.005394999 0.102515735
000060 b0 4c 29 be 91 a5 30 be 70 1c 22 3d 45 53 16 be
       -0.1653316 -0.17250659 0.0395779 -0.14680202
000070 e9 c4 10 bd 24 c5 05 bd 1b 3d 97 3d 48 5d 37 3d
       -0.03534404 -0.03265871 0.07384702 0.044766694
000080 43 ef 58 bd 34 23 66 bc ae 9d 18 bd db c0 a0 bd
       -0.052962553 -0.014046479 -0.03725975 -0.07849284
000090 63 fe e4 bd 7c fd 39 bd 2f a7 c7 3c 65 07 2a bc
       -0.11181333 -0.045407757 0.024371712 -0.01037774
0000a0 e3 ad 4e bd bd f3 28 3c dc 97 dc bd 83 62 d9 bd
       -0.0504588 0.010312018 -0.107711524 -0.10614493
0000b0 e7 41 9a 3d 46 27 10 3e 6a 07 f8 bd b3 80 99 bc
       0.07532101 0.14077482 -0.12110789 -0.018738126
0000c0 b1 70 55 3d 17 5f 0c 3e 7f af 20 3d 00 67 a8 bd
       0.052109424 0.13708149 0.039229866 -0.08222771
0000d0 14 39 18 be dc 01 b1 3a d7 ac 70 3c 30 1f e0 3a
       -0.14865524 0.0013504582 0.014689646 0.0017099138
0000e0 c5 ed 7d 3d fa f1 f1 bc 17 59 b2 bd f3 ee 05 be
       0.061994333 -0.029534329 -0.08708399 -0.13079433
0000f0 73 5e 10 3e d3 05 dc bd 23 14 a1 3a da e3 cf bd
       0.1409853 -0.107432984 0.0012289326 -0.10150881
000100 b8 9c c0 3d 4a 91 8e 3c 38 31 02 3e 9e 0c 06 be
       0.09404892 0.017403264 0.12714088 -0.1309075
000110 1f c2 a4 3d 23 98 e4 3d 0d 65 1b be 72 ac a7 3c
       0.08044838 0.1116183 -0.15175267 0.02046797
000120 c4 9e 31 3c d2 d2 c2 bd 40 95 ec bc a0 01 be bc
       0.010841075 -0.09512867 -0.028879762 -0.023194134
000130 eb 72 12 3d ae 9a 0a 3d b9 4e 08 bd f2 94 95 3d
       0.035754126 0.03383892 -0.0332782 0.073038
000140 c7 20 88 3d 90 aa b6 3d 37 c4 04 3d 42 11 05 be
       0.06646877 0.08919251 0.032413688 -0.12994865
000150 d9 f7 c5 3d 07 41 a4 bd 9a f3 fc bc 80 10 44 3d
       0.09666414 -0.080202155 -0.030877877 0.047867298
000160 33 13 15 3d ab ff ed bd 91 fb 9d bd a5 56 f9 3c
       0.036395263 -0.116210304 -0.07713998 0.030436823
000170 2e 45 78 3d d2 e0 81 bd 7c c4 03 3e f5 73 98 3d
       0.06061285 -0.06341709 0.12867922 0.07443992
000180 0e 03 1c be b3 6e 5f bd 55 04 aa 3d 4a 02 e5 bc
       -0.1523554 -0.05454893 0.083016075 -0.027955193
000190 1d ab 97 bd 28 f2 ca bc 55 ea b5 3c 19 89 0a bd
       -0.07405684 -0.024773672 0.022206465 -0.033822153
0001a0 3b ff 83 bd 04 ad ba 3c ac 2b 7f 3d b8 7d f0 3d
       -0.06445166 0.022787578 0.062297508 0.11742729
0001b0 e9 36 4b 3d c4 fc 38 3d c4 d7 56 3d c9 a6 04 3e
       0.049612913 0.04516293 0.052451864 0.12954248
0001c0 c8 b1 0a be 5a 33 10 bd 71 31 87 bd 2f e2 2f bd
       -0.1354438 -0.035205223 -0.06601227 -0.042940315
0001d0 dd d9 b5 3d 31 8d d4 3d 14 ee a2 bd b1 70 80 bd
       0.08879445 0.103784926 -0.07955566 -0.06271494
0001e0 d3 a4 74 3d a1 72 69 3d c9 82 51 3d ff a7 1e 3d
       0.0597275 0.056994084 0.051150117 0.038734432
0001f0 d9 22 c4 bd 01 d0 9c 3d dd ca df bd e7 65 57 bd
       -0.09576959 0.07656861 -0.10927365 -0.052587416
000200 6d d2 4b 3b 6b 9a 61 ba f1 9a 12 3c 1e 9d da bd
       0.0031100765 -0.0008606079 0.008948074 -0.10674499
000210 a1 e6 06 3e ed 1c af bd f6 ce 54 3a 0f dc 34 bb
       0.13173915 -0.08550439 0.0008117998 -0.0027596985
000220 86 e7 15 bb fe ef 0f bd 02 90 80 3c 29 73 15 3d
       -0.0022873594 -0.035140984 0.015693668 0.03648678
000230 bc ce a8 bd d2 91 c0 3d 0b 9f a1 bc cf 3e d7 3d
       -0.082425565 0.09402813 -0.019729158 0.10510027
000240 e9 aa c8 bd da d2 f8 3d 8e 17 ab 3d 16 dc 0a bd
       -0.097982235 0.12149592 0.08354102 -0.033901297
000250 5f 2d 91 3c dd aa ab 3d bf 27 e4 bd d2 82 b3 3d
       0.01772183 0.08382199 -0.111403935 0.08765186
000260 82 f4 80 3d 72 e8 83 bd b5 96 7e 3d bf f9 61 3d
       0.06296636 -0.0644082 0.062155444 0.055169817
000270 71 d0 9c 3c 34 f1 c8 3d f7 91 d8 bd 19 f2 97 bc
       0.019142361 0.09811631 -0.105747156 -0.018548058
000280 bf 16 27 3c 0b 37 ba 3d 29 a6 a0 3d 14 aa 34 bc
       0.010198294 0.0909253 0.078441925 -0.011026878
000290 fd 03 88 bd 06 95 08 be dc a9 33 b8 4d be 1e bd
       -0.06641386 -0.13338098 -4.283512e-05 -0.038755704
0002a0 ab 82 04 bd 29 10 b7 3c 3e 8a 99 3d fe 5e 66 3d
       -0.032351177 0.022346573 0.07497071 0.056242935
0002b0 a3 5e d1 3c 1a aa 12 bd 69 fe 46 3d d6 17 9a 3d
       0.025557822 -0.035806753 0.04858247 0.075240776
0002c0 bf 73 32 bd 62 62 ef bd d8 60 2d 3c 1e b3 4b bd
       -0.043567415 -0.11688687 0.010582171 -0.049731366
0002d0 e8 74 e0 3d 2c 1a d9 bd 45 5a 90 bd fc 9e 25 3d
       0.10959798 -0.10600695 -0.070484675 0.040434822
0002e0 7a b7 bd bd 4b 75 14 bc e1 45 81 3d 39 bb 9e bd
       -0.09263511 -0.009061168 0.063121565 -0.07750554
0002f0 8f 2f 44 3d fc 73 d8 3d b8 f4 d4 bd 0a c5 f5 3c
       0.047896918 0.10568997 -0.10398239 0.030001182
000300 e1 00 a6 bd 55 91 9d bd be 56 f1 bd 2d c3 66 3d
       -0.081056364 -0.076937355 -0.11784123 0.056338478
000310 f8 0b 9e 3d c1 09 9b bd 0a 4a ba 3d ab 58 7d bd
       0.077171266 -0.0757022 0.09096153 -0.06185214
000320 ea 2f 61 3d 15 c1 d6 bd ae 94 06 3e 19 21 df bd
       0.054977335 -0.10486046 0.13142654 -0.10894985
000330 b7 15 69 3d 2f fb 45 3d ca a0 23 3d 90 d9 ec 3d
       0.056905475 0.04833525 0.039948262 0.11564934
000340 f6 41 64 3d 00 f3 97 3d 5b b0 e8 bd 15 f8 9c bd
       0.055726968 0.074193954 -0.11361762 -0.076645054
000350 5a 7a 4c bc 80 1a 08 3e 24 3e bd 3d 8f 7d 04 be
       -0.012480343 0.13291359 0.09240368 -0.12938522
000360 83 e4 88 3d 36 9d 09 bb 9a d1 14 bb 98 54 01 bd
       0.0668421 -0.0020998246 -0.002270794 -0.031574816
000370 48 22 6d 3d 7e f1 32 bd f7 86 48 3d b6 7e b1 bd
       0.05789402 -0.043687336 0.048956838 -0.08666746
000380 c9 2c 52 bb f5 d6 2a 3d a9 c8 21 bd 8d 06 f3 3d
       -0.003207015 0.041708905 -0.039498005 0.11866484
000390 0b 91 c7 bd dc d7 60 3d fa 6e bc 3d 05 22 ca bc
       -0.097444616 0.05489336 0.092008546 -0.024674425
0003a0 dc fb 37 3d 33 1c f3 bd 4d 15 44 bd 9d 5a 92 bd
       0.044917926 -0.11870613 -0.047871877 -0.07146189
0003b0 8a c6 22 3d 5a c9 33 bd 69 26 05 be 5f 7b 02 be
       0.039740123 -0.043893196 -0.13002934 -0.12742375
0003c0 e1 85 18 3b c8 e5 c7 3d d8 97 e2 3d 60 5d a0 bc
       0.0023273157 0.09760624 0.11064118 -0.019575775
0003d0 a4 62 00 bd 2a 63 a0 bd 7a a3 d4 3d 36 da d5 bd
       -0.03134407 -0.07831414 0.10382743 -0.10442011
0003e0 1f b3 59 bc e9 ef 6d bd 25 f0 08 be a4 b0 14 3d
       -0.013287335 -0.058090124 -0.13372858 0.03630127
0003f0 37 65 a9 bd e8 1b 1a bd 90 4e 1b 3d 77 32 4e 3d
       -0.08271258 -0.03762427 0.03791672 0.050341096
