Baseline-models/DAGMM/DAGMM-CHD/no--dagmm/models/35_194_dagmm.pth (torch, 82200 bytes, 22 tensors)

phi f4 [4]
0	0x3cb72565	0.022356698
1	0x3c9c152b	0.019053062
2	0x3f70beae	0.94040954
3	0x3c94efab	0.018180689

mu f4 [4, 3]
0	0x3ea1c403	0.31594858
1	0x3fad806a	1.3554814
2	0xbdd1f7e0	-0.102523565
3	0x3e97670b	0.29570803
4	0x3faf5736	1.369849
5	0xbdf730f5	-0.12069885
6	0xbd96eb34	-0.0736908
7	0x3fd153be	1.6353681
8	0xbee8b7fb	-0.45452866
9	0x3eab2af9	0.33431223
10	0x3fabc6d4	1.3420053
11	0xbdafb011	-0.08578504

cov f4 [4, 3, 3]
0	0x3f1bf15b	0.60915154
1	0xbedf5326	-0.43618125
2	0x3f0cb981	0.54970556
3	0xbedf5326	-0.43618125
4	0x3e9ffe15	0.31248537
5	0xbec98f28	-0.39367032
6	0x3f0cb981	0.54970556
7	0xbec98f28	-0.39367032
8	0x3efdfeb6	0.49608392
9	0x3f1a8596	0.60360086
10	0xbedd747b	-0.4325293
11	0x3f0b7862	0.54480565
12	0xbedd747b	-0.4325293
13	0x3e9ec5bb	0.3101023
14	0xbec7e933	-0.39045104
15	0x3f0b7862	0.54480565
16	0xbec7e933	-0.39045104
17	0x3efbc800	0.49176025
18	0x3ee6f18b	0.45106158
19	0xbea59561	-0.3234053
20	0x3ed06b45	0.4070684
21	0xbea59561	-0.3234053
22	0x3e6dbe5d	0.23217149
23	0xbe957992	-0.29194313
24	0x3ed06b45	0.4070684
25	0xbe957992	-0.29194313
26	0x3ebc1b2b	0.36739478
27	0x3f1bba6f	0.6083135
28	0xbedf1172	-0.43567997
29	0x3f0c8b2c	0.5489986
30	0xbedf1172	-0.43567997
31	0x3e9fd4ae	0.3121695
32	0xbec9571f	-0.3932428
33	0x3f0c8b2c	0.5489986
34	0xbec9571f	-0.3932428
35	0x3efdb063	0.49548635

encoder.0.weight f4 [60, 118]
0	0xbcf671e8	-0.030083612
1	0x3dbaf0d3	0.09127965
2	0x3ceaaa8f	0.028645782
3	0x3ba7beef	0.0051191966
4	0x3db4dce7	0.08831196
5	0xbc9b1722	-0.018931929
6	0x3d025452	0.031818695
7	0x3d83f45f	0.064430945
8	0xbd98bee0	-0.074582815
9	0x3d9d9865	0.076950826
10	0x3d4efc36	0.050533496
11	0x3c8467f6	0.016162854
12	0x3d7435ee	0.059621744
13	0x3d736e26	0.059431218
14	0xbd81c87e	-0.06337069
15	0xbd28b41e	-0.041187398
16	0x3dc0872c	0.09400782
17	0xbd5d1bcb	-0.053981584
18	0xbc218ef8	-0.009860747
19	0xbd885c27	-0.06658202
20	0xbc380885	-0.0112325
21	0xbcdcc576	-0.026949625
22	0x3d1dd124	0.03852953
23	0xbd1cbac8	-0.038264066
24	0x3dbdf57c	0.09275338
25	0x3d8c0912	0.068376675
26	0x3dd168a5	0.102250375
27	0xbcaff9a0	-0.021481335
28	0xbd398432	-0.045292087
29	0xbd9f8186	-0.077883765
30	0xbdb816aa	-0.08988698
31	0xbc7f20bd	-0.01557177
32	0x3d906653	0.07050767
33	0x3d38b747	0.045096662
34	0xbd08ed4a	-0.03342942
35	0x3d87ee70	0.06637275
36	0xbc244230	-0.010025546
37	0xbd2a81a4	-0.04162754
38	0xba80403b	-0.0009784767
39	0xbd502141	-0.050812963
40	0x3d2810ab	0.04103152
41	0x3d5bb612	0.053640433
42	0x3cd5b138	0.026085481
43	0x3c74a536	0.0149319675
44	0xbca2e6d8	-0.019885466
45	0x3ce33e28	0.0277396
46	0xbd8c0e18	-0.06838626
47	0xbcaba87e	-0.020954367
48	0xbd24bf1d	-0.040221322
49	0xbd9bd326	-0.07608633
50	0xbca1983e	-0.019725915
51	0xbc77829f	-0.015106826
52	0xbc4146c2	-0.011796655
53	0xbc17419c	-0.009231951
54	0x3c0f88d8	0.008760653
55	0xbd9a7783	-0.07542326
56	0xbd358f13	-0.0443259
57	0x3b5b0656	0.0033420525
58	0x3b6aacf0	0.0035808645
59	0xbb9272c6	-0.0044692485
60	0xbbcbdac0	-0.0062211454
61	0xbcc62e94	-0.024192132
62	0x3dc3c70f	0.09559452
63	0x3d197292	0.03746278
64	0x3dba2f01	0.090909965
65	0x3dc7755d	0.09739182
66	0x3d88e85c	0.06684944
67	0xbd8130bb	-0.06308123
68	0x3d5ac365	0.053409
69	0x3dacd310	0.084386945
70	0x3dab6f55	0.08370844
71	0x3d13817a	0.03601215
72	0x3d82c36f	0.06384932
73	0xbd31879b	-0.043342214
74	0x3d335b56	0.043788277
75	0xbda1a334	-0.07892457
76	0xbceeb131	-0.029137226
77	0xbcbac817	-0.022800488
78	0xbda547fa	-0.08070369
79	0x3a243088	0.0006263335
80	0xbc924426	-0.017854761
81	0x3d018e4a	0.031629838
82	0xbd23ee3f	-0.04002213
83	0xbc05d878	-0.008169286
84	0x3d894ce3	0.06704118
85	0xbbe42f70	-0.006963663
86	0xbda14dc4	-0.07876161
87	0x3ca01694	0.019542016
88	0xbdc1b258	-0.094578445
89	0x3daf714f	0.08566534
90	0x3bfeb057	0.007772486
91	0x3c861a06	0.01636983
92	0xbd7f216d	-0.062287737
93	0x3cc0ae9c	0.02352076
94	0x3d2ea2f7	0.042635884
95	0x3da87686	0.082257316
96	0x3d033ea8	0.032042176
97	0x39174800	0.00014427304
98	0x3d85e5d0	0.06537974
99	0xbd4785e0	-0.048711658
100	0x3d69ce85	0.057081718
101	0x3d887f89	0.066649504
102	0xbd314d61	-0.043286685
103	0xbd12a828	-0.035804898
104	0xbbd488f0	-0.006486051
105	0x3d2d6a43	0.042337667
106	0x3c203729	0.009778776
107	0xbd7a49c2	-0.061105497
108	0x3d2ddd47	0.042447355
109	0x3cc699f6	0.024243336
110	0xbd375da5	-0.04476704
111	0x3caec795	0.021335403
112	0xbcd80271	-0.026368352
113	0xbd67851a	-0.05652342
114	0x3d99e82d	0.07514987
115	0xbc1db936	-0.009626677
116	0x3d535800	0.051597595
117	0xbc1f73b8	-0.009732179
118	0xbd0f0ba7	-0.034923222
119	0x3d8d5786	0.069014594
120	0x3dbfdaf2	0.093679324
121	0xb9ffd910	-0.00048799114
122	0xbb5f9597	-0.0034116262
123	0xbd43f5c1	-0.04784179
124	0xbd878d63	-0.06618764
125	0x3d59e7b2	0.053199477
126	0xbb8c1352	-0.004274764
127	0x3d89855a	0.06714888
128	0x3d8896c3	0.066693805
129	0x3d336f5e	0.04380738
130	0x3b8dd199	0.0043279645
131	0x3d53a724	0.05167307
132	0xbcc79ec8	-0.024367705
133	0xbcd2909c	-0.02570372
134	0x3d73025e	0.05932843
135	0xbcf5d120	-0.030006945
136	0x3d8f75fc	0.070049256
137	0xbc8d7208	-0.017266288
138	0x3d648096	0.05578669
139	0x3d9d7f6b	0.07690319
140	0x3cc8667f	0.024462936
141	0xbcb93403	-0.022607809
142	0x3cefa7f2	0.029254887
143	0xbd49df72	-0.04928536
144	0xbd04f2e4	-0.0324582
145	0xbdba1bb4	-0.09087315
146	0x3d9cd9d4	0.07658735
147	0xbd79b4a7	-0.0609633
148	0x3c6a1685	0.014287596
149	0x3c852736	0.016254049
150	0x3dbf3bce	0.09337579
151	0x3ce4501d	0.027870232
152	0x3d01500c	0.03157048
153	0xbd34b1fd	-0.044115055
154	0x3d589d59	0.052884433
155	0x3dc96523	0.098337434
156	0xbd5223b2	-0.051303573
157	0xbbf144b3	-0.007362926
158	0xbdb14b1f	-0.08656906
159	0x3cdd46f5	0.027011374
160	0x3ce002a4	0.02734501
161	0xbc8adffc	-0.016952507
162	0xbb249be5	-0.0025117334
163	0xbc4e2553	-0.012582141
164	0xbc29a4c2	-0.010354223
165	0x3d6c3000	0.057662964
166	0x3db7ca1b	0.089740954
167	0x3db6b83f	0.08921861
168	0xbc68ac99	-0.014201307
169	0x3c9848d0	0.018589407
170	0xbd66b78f	-0.0563274
171	0x3d823ffa	0.06359859
172	0xbd7f2aeb	-0.06229679
173	0x3d3fad3d	0.046796072
174	0xbccc8cbf	-0.024969457
175	0x3d9a102a	0.07522614
176	0x3dbbb124	0.09164646
177	0x39cc7973	0.000390004
178	0x3db5cfe3	0.08877542
179	0xbc4453cb	-0.011982868
180	0x3d967fb8	0.07348579
181	0x3caaec80	0.020864725
182	0x3dbb5f7f	0.09149074
183	0x3d960e17	0.07326906
184	0xbb0c75de	-0.002143256
185	0x3cd2e0fc	0.025742047
186	0x3c81bbd7	0.01583664
187	0xbd1cd555	-0.038289387
188	0xbd0e6309	-0.034762416
189	0xbcb9a06b	-0.022659501
190	0x3d71a25f	0.05899274
191	0x3d8e96ca	0.069623545
192	0x3d9e11c4	0.07718232
193	0xbd0982ec	-0.033572122
194	0xbbf34c8b	-0.007424896
195	0x3d892b5a	0.06697722
196	0x3ce8ca58	0.028416798
197	0x3c103393	0.008801359
198	0x3c27a47a	0.010232085
199	0x3cd73d4e	0.02627435
200	0xbd7b9f6f	-0.061431345
201	0xbd9a6c23	-0.07540157
202	0xbd974c00	-0.07387543
203	0x3d3826d6	0.04495891
204	0xbc063625	-0.00819162
205	0xbe187704	-0.14889151
206	0xbc02e3c8	-0.007988878
207	0xbca8024f	-0.020508913
208	0x3d769e8a	0.06020979
209	0x3be461e4	0.0069696773
210	0xbd96b4f5	-0.073587336
211	0x3d8e3c6f	0.069451205
212	0xbccb542d	-0.024820412
213	0xbd1a35aa	-0.037648834
214	0xbd52d473	-0.05147214
215	0xbd7d967c	-0.06191109
216	0xbcc69faa	-0.024246056
217	0xbdb265cc	-0.087108225
218	0xbca08832	-0.019596193
219	0xbd3b16d4	-0.045676067
220	0x3df8584f	0.121262185
221	0xbcd4aa73	-0.025960183
222	0x3daffe2a	0.085934
223	0xbd442b10	-0.04789263
224	0x3c8f8679	0.017520176
225	0x3d1c4f17	0.038161363
226	0xbcc8611d	-0.02446037
227	0xbdd727cf	-0.1050564
228	0xbcabc075	-0.020965794
229	0x3d0ddf35	0.034636695
230	0xbd1063ba	-0.035251357
231	0x3c69b413	0.014264124
232	0x3c9c1c4a	0.019056458
233	0x3dd5de78	0.10442823
234	0xbd2daeb4	-0.042402938
235	0xbc92f2c0	-0.017938018
236	0xbb897aa0	-0.0041955262
237	0xbd8026f2	-0.06257428
238	0x3bf1a4e9	0.007374395
239	0xbd5ca194	-0.05386503
240	0x3d0ef5b1	0.03490228
241	0xbde05c23	-0.10955074
242	0xbdbc0d67	-0.09182244
243	0x3ce70dce	0.028204825
244	0x3d9aeb30	0.0756439
245	0xbcc81b56	-0.024427097
246	0xbc7077f7	-0.014677039
247	0xbb36ebfc	-0.0027911654
248	0x3d686590	0.056737483
249	0x3cda8f2f	0.026679603
250	0x3c06f310	0.008236662
251	0x3d5131c8	0.051072866
252	0x3c2f5964	0.010702465
253	0x3c628ced	0.013827545
254	0xbc440e98	-0.01196637
255	0x3d8b98e8	0.06816274

encoder.0.bias f4 [60]
0	0x3cdcd290	0.026955873
1	0x3dae5032	0.0851139
2	0x39fffe61	0.00048826917
3	0x3ce8b5b0	0.028406948
4	0xbd882ba5	-0.066489495
5	0x3d0de78c	0.03464465
6	0xbdc5b08b	-0.096528135
7	0xbd03b8e5	-0.03215875
8	0x3d6aae28	0.057294995
9	0x3d92bb33	0.07164612
10	0xbc542568	-0.0129483715
11	0xbd19f654	-0.037588432
12	0xbd3fd4b5	-0.046833713
13	0x3d790536	0.060795985
14	0xbd05e703	-0.032691013
15	0xbd8dfbc4	-0.06932786
16	0xbc2806d1	-0.010255531
17	0x3d8e9ece	0.06963883
18	0xbd4b636e	-0.04965537
19	0x3e0701fa	0.13184348
20	0xbcdf0a22	-0.027226511
21	0x3d5a9c51	0.05337173
22	0xbdf847ee	-0.121230945
23	0xbc80db9b	-0.015729716
24	0x3cd713e8	0.02625461
25	0x3c1d3acc	0.009596538
26	0x3d411aa9	0.047144566
27	0xbd0d0cbd	-0.034435976
28	0xbcafcb89	-0.021459358
29	0x3db1824c	0.0866743
30	0x3d31e27b	0.04342888
31	0xbca36f7d	-0.019950623
32	0x3d9224b2	0.07135905
33	0xbd97bb1f	-0.074087374
34	0x3c792a7b	0.015207882
35	0xbdab9d22	-0.0837958
36	0x3d9dc246	0.0770307
37	0x3df2d878	0.118576944
38	0xbd877f95	-0.06616131
39	0x3aa02e63	0.0012220856
40	0xbd661820	-0.05617535
41	0xbcba5206	-0.02274419
42	0x3cd5f40a	0.026117343
43	0xbc5fdf52	-0.013664084
44	0xbd2f479c	-0.0427929
45	0xbce65fef	-0.028121917
46	0x3d0f0e14	0.034925535
47	0xbd00869a	-0.031378366
48	0xbd19f370	-0.037585676
49	0xbcbb93dc	-0.022897653
50	0xbd21c6c7	-0.03949621
51	0xbd2fa40d	-0.04288106
52	0xbd99af4b	-0.075041376
53	0xbd350081	-0.044189934
54	0xbc5fda20	-0.013662845
55	0xbc0cb5ce	-0.0085882675
56	0x3d0a793d	0.033807028
57	0x3aece27a	0.0018072866
58	0xbcd422d8	-0.025895521
59	0x3d834fbd	0.06411693

encoder.2.weight f4 [30, 60]
0	0xbe030c55	-0.12797673
1	0x3dce8360	0.100836515
2	0xbd4d5def	-0.05013841
3	0xbc8de026	-0.017318796
4	0xbdc1d77c	-0.094649285
5	0x3d66dea1	0.05636466
6	0xbd84208a	-0.06451519
7	0x3dbd5779	0.092452
8	0x3dbc200c	0.091858
9	0xbd4e2b7b	-0.050334435
10	0x3d8e62ce	0.06952439
11	0xbbd7cd55	-0.006585757
12	0xbdf4c19f	-0.11950993
13	0xbd9e11b8	-0.07718223
14	0x3dea9713	0.11454596
15	0x3d249297	0.04017886
16	0xbbc68d8c	-0.006059354
17	0xbd4b7a59	-0.049677227
18	0x3ddcc498	0.10779685
19	0xbd108cee	-0.03529065
20	0x3de8d41a	0.1136858
21	0xbe00c77b	-0.12576096
22	0xbdddb5ca	-0.10825689
23	0x3ce367e2	0.027759496
24	0x3dd11e10	0.10210812
25	0x3d46db90	0.048549235
26	0xbc35fa1c	-0.011106994
27	0x3ccf83cc	0.0253314
28	0x3df8c42d	0.121467926
29	0xbe0c0d5e	-0.13676974
30	0x3c9f9641	0.019480826
31	0xbd8ec3f1	-0.069709666
32	0x3c5ca061	0.013465972
33	0xbb99b930	-0.0046912655
34	0xbcd489b1	-0.025944563
35	0x3c1f5def	0.009726985
36	0x3d930d53	0.07180276
37	0xbb156488	-0.0022795517
38	0x3c7e0e58	0.0155063495
39	0x3d8e455c	0.06946823
40	0x3e0e4ea3	0.13897185
41	0xbd9422dd	-0.07233212
42	0xbdc73dc6	-0.09728579
43	0xbdef8add	-0.11696408
44	0xbde3b367	-0.11118203
45	0xbc9d77b0	-0.01922211
46	0xbd5738c1	-0.05254436
47	0xbdfb7b99	-0.12279434
48	0xbd8b3d81	-0.0679884
49	0x3d02bf85	0.03192093
50	0x3de23d69	0.11046869
51	0x3dc3dd4e	0.09563695
52	0x3da1dbdb	0.07903262
53	0xbd3b97fa	-0.045799233
54	0x3c858e12	0.016303096
55	0x3c745690	0.014913216
56	0xbdc692a4	-0.09695938
57	0x3e115ab0	0.14194751
58	0xbe0165bc	-0.12636465
59	0x3dec6f3b	0.11544653
60	0xbdc2bf43	-0.095091365
61	0x3b990561	0.0046698307
62	0x3de121a9	0.10992748
63	0xbd801f39	-0.06255955
64	0x3dd7b740	0.10532999
65	0xbda584c8	-0.08081967
66	0x3dac4aca	0.084127024
67	0x3df9e247	0.12201362
68	0x3ddeca12	0.108783856
69	0x3d6b4d95	0.057447035
70	0x3d26b02a	0.040695347
71	0x3df78d85	0.120875396
72	0x3d1005d3	0.035161804
73	0xbd3fc420	-0.0468179
74	0x3d43b4b3	0.04777975
75	0xbddd6d25	-0.10811833
76	0xbd93e375	-0.07221118
77	0x3b9f2331	0.00485649
78	0x3d119901	0.035546307
79	0xbd43ae17	-0.047773447
80	0xbdd26a8f	-0.10274231
81	0x3cc024d6	0.023455065
82	0x3bfc0134	0.007690573
83	0xbc4b735b	-0.01241764
84	0xbb9ad10e	-0.0047246283
85	0x3d12f0cb	0.03587417
86	0x3db2e348	0.08734757
87	0x3e02bbe9	0.12766995
88	0x3d8f03e6	0.069831654
89	0xbd3d8853	-0.046272587
90	0x3d043376	0.03227564
91	0xbdd76d4e	-0.10518895
92	0x3d92c66e	0.07166754
93	0xbdc98882	-0.0984049
94	0xbca89d7a	-0.020582903
95	0x3dc413c0	0.095740795
96	0x3d5d589c	0.054039583
97	0xbdee878e	-0.11646949
98	0x3dbfe2ea	0.09369452
99	0x3dc56e8d	0.096402265
100	0x3d9745c3	0.07386353
101	0x3d8f287c	0.06990144
102	0xbda9bee7	-0.08288365
103	0xbdfbc198	-0.122927845
104	0x3dc2259a	0.09479828
105	0xbcde2dc9	-0.027121441
106	0x3d733638	0.05937788
107	0x3d8bd1c5	0.0682712
108	0x3d8db036	0.06918375
109	0xbd971a4d	-0.07378063
110	0xbdd698b4	-0.104783446
111	0xbd603712	-0.05474002
112	0xbd5aa6b5	-0.05338164
113	0xbdd7b977	-0.105334215
114	0x3dbcc95c	0.09218094
115	0x3e0b0184	0.13574797
116	0xbd12f3b7	-0.035876956
117	0x3da4c81b	0.080459796
118	0x3d68fb31	0.05688018
119	0x3d5f090f	0.054452
120	0xbcceadb0	-0.025229305
121	0xbd9a38f4	-0.07530394
122	0xbd1ad6d5	-0.037802536
123	0x3ccc87a0	0.024967015
124	0x3d99b976	0.07506077
125	0x3d52f6b4	0.051504806
126	0x3dbf8a94	0.093526036
127	0xbd87d320	-0.06632066
128	0xbd730df4	-0.05933948
129	0xbd861b56	-0.06548183
130	0xbdc6f965	-0.09715537
131	0xbcf7f66a	-0.030268867
132	0xbd8914a0	-0.06693387
133	0x3d7c01f8	0.061525315
134	0x3cf0627c	0.029343836
135	0xbcdedade	-0.027203973
136	0x3dbfc14a	0.09363039
137	0x3dad4d4b	0.08462008
138	0xbdcc6d4f	-0.099817865
139	0x3ab3a984	0.0013707136
140	0x3cacd0a0	0.021095574
141	0x3da31765	0.079634465
142	0xbe0be09c	-0.136599
143	0xbe0ef482	-0.1396046
144	0xbe112a18	-0.14176214
145	0xbbc99ff1	-0.0061530997
146	0x3e0f160f	0.13973258
147	0x3d69817d	0.057008255
148	0xbe0781d7	-0.13233124
149	0x3de92275	0.11383525
150	0xbda2fde2	-0.079585806
151	0xbdbd8f84	-0.09255889
152	0x3e096915	0.13418992
153	0x3d327853	0.04357178
154	0x3d4538ef	0.04815
155	0x398066e7	0.0002449073
156	0x3ced67f7	0.028980238
157	0x3c8062d0	0.015672117
158	0x3cd11e25	0.02552707
159	0xbbe92b77	-0.007115777
160	0xbe0985c4	-0.13429934
161	0x3e070726	0.1318632
162	0x3dde8786	0.10865693
163	0xbba4c330	-0.005028151
164	0xbce49eea	-0.027907807
165	0x3ddf20e8	0.10894948
166	0x3de4cc86	0.11171822
167	0x3d7f9c16	0.062404715
168	0x3d9e6e0e	0.07735835
169	0xbde481f2	-0.111575976
170	0x3d571f77	0.05252024
171	0x3e0c1d03	0.13682942
172	0xbdae6017	-0.085144214
173	0x3e10be62	0.14135125
174	0xbdcc9eb5	-0.099912085
175	0xbe0af24e	-0.13568994
176	0xbda0d8f1	-0.07853878
177	0xbcd055bc	-0.025431506
178	0xbdd45596	-0.10367887
179	0xbd6aee4f	-0.057356175
180	0x3de02a69	0.10945589
181	0x3d91be9e	0.071164355
182	0xbca87c79	-0.020567166
183	0xbcd77268	-0.02629967
184	0xbe05fcf5	-0.13084777
185	0x3e0e2661	0.13881828
186	0xbd7927b8	-0.060828894
187	0xbbcc533b	-0.006235508
188	0xbd83728e	-0.06418334
189	0xbdba8b71	-0.091086276
190	0xbe0bd609	-0.13655867
191	0xbdf5dff4	-0.12005606
192	0xbbe69cb3	-0.007037723
193	0x3d4c8e1c	0.049940214
194	0x3d9995ec	0.074992985
195	0xbcd6968d	-0.026194835
196	0x3c6110dd	0.013736931
197	0x3dadb668	0.08482057
198	0x3d8dee73	0.06930246
199	0x3e0ca387	0.13734256
200	0xbd0af161	-0.033921603
201	0xbcc93450	-0.024561077
202	0xbc8dfbf6	-0.017332058
203	0x3d9acf53	0.07559075
204	0x3cb4e9db	0.022084167
205	0xbe0fbc7d	-0.14036746
206	0x3dc9623a	0.09833188
207	0xbc099730	-0.008397862
208	0xbdf4bd96	-0.11950223
209	0x3e1511a2	0.14557508
210	0xbdb4bad9	-0.08824701
211	0xbbce3d94	-0.006293962
212	0xbd878e37	-0.06618922
213	0xbda38eb2	-0.07986201
214	0xbde3d2f6	-0.11124222
215	0x3da1640b	0.0788041
216	0x3d87bf1b	0.06628247
217	0xbd2e252b	-0.042515915
218	0x3d8b511c	0.0680258
219	0xbde4f5fb	-0.111797296
220	0xbd46dc43	-0.0485499
221	0x3bdf42ab	0.0068133674
222	0x3de04d28	0.109522164
223	0x3dd4dba6	0.10393457
224	0xbdb570c0	-0.08859396
225	0x3d3a4b6c	0.045482084
226	0xbcd3ba46	-0.025845658
227	0x3dca1d67	0.09868889
228	0xbd942003	-0.07232668
229	0xbdfc4860	-0.12318492
230	0xbd328e11	-0.043592516
231	0x3d8d2ace	0.0689293
232	0xbd5f64ba	-0.05453942
233	0x3d770cc7	0.06031492
234	0xbe07c5f8	-0.13259113
235	0xbdeb8a57	-0.115009956
236	0x3d1d964b	0.03847341
237	0xbe0b1f23	-0.13586096
238	0x3d658306	0.056033157
239	0x3c4fa0f1	0.012672649
240	0x3def1945	0.11674742
241	0xbcc5e25d	-0.02415579
242	0xbcddbb39	-0.027066814
243	0xbe109edc	-0.141231
244	0xbda4e8f1	-0.080522425
245	0xbd8db8aa	-0.069199875
246	0xbe12941d	-0.14314313
247	0xbdafb9fa	-0.08580394
248	0x3dbf503b	0.093414746
249	0xbdb02916	-0.086015865
250	0xbe1e9cfd	-0.15489574
251	0xbe0c8b6b	-0.13725059
252	0xbdb452b6	-0.08804838
253	0x3d868b23	0.06569507
254	0xbddf9e1f	-0.10918831
255	0xbd659662	-0.05605162

encoder.2.bias f4 [30]
0	0xbddf1b89	-0.10893924
1	0xbccb29c2	-0.024800185
2	0x3dcf0967	0.10109215
3	0xbc7e06ce	-0.015504552
4	0x3da66f2f	0.08126675
5	0x3b1c6366	0.0023862957
6	0x3da3b8da	0.07994242
7	0x3cf747b2	0.030185554
8	0x3c993f70	0.018707007
9	0xbccfdb3e	-0.025373098
10	0xbd8032ba	-0.06259675
11	0x3dd77f5c	0.10522339
12	0x3d58d511	0.05293757
13	0x3bf73e57	0.0075452733
14	0x3e056b21	0.13029148
15	0x3cfdf852	0.031002197
16	0x3af79af6	0.0018890786
17	0x3d8de3f5	0.06928245
18	0x3d8df139	0.06930775
19	0x3ca4caff	0.020116327
20	0x3d4fa856	0.050697647
21	0x3d7ffd0d	0.062497187
22	0xbce85230	-0.028359503
23	0x3d979537	0.07401507
24	0x3dae57f4	0.085128695
25	0x3ddd24f5	0.107980646
26	0x3d265d51	0.040616337
27	0x3d278d00	0.040905952
28	0x3dcafd40	0.09911585
29	0x3d87fbe4	0.06639841

encoder.4.weight f4 [10, 30]
0	0xbe1bb5a8	-0.15206015
1	0x3e2e4d9f	0.17021798
2	0xbd96e37d	-0.07367609
3	0xbd583664	-0.052786246
4	0x3dcafe48	0.099117815
5	0x3ccbb843	0.024868136
6	0xbd7c8f0a	-0.06165985
7	0xbe147ee6	-0.14501533
8	0xbe1bb2cd	-0.15204926
9	0xbd2777de	-0.0408858
10	0x3d87296a	0.06599696
11	0xbe3293ba	-0.17439166
12	0x3d89b100	0.06723213
13	0x3e52d562	0.20589212
14	0x3d02bf29	0.031920586
15	0x3e2fcd18	0.17168081
16	0x3d33195b	0.043725353
17	0xbe4a39a4	-0.1974855
18	0xbced1b68	-0.028943732
19	0x3e1588f2	0.14603022
20	0xbd85ad59	-0.06527204
21	0xbba25b38	-0.004954722
22	0xbdec3106	-0.11532788
23	0x3df95712	0.121748105
24	0xbc8debc8	-0.017324343
25	0xbd9972ec	-0.07492623
26	0x3dd719ea	0.105029896
27	0x3e11b9bc	0.14231008
28	0x3df611fc	0.12015149
29	0x3c7a1fd0	0.015266374
30	0x3e342f8d	0.17596264
31	0xbd955f00	-0.072935104
32	0xbd8128a9	-0.063065834
33	0xbdf6aa74	-0.1204423
34	0x3d25149e	0.040302865
35	0xbe044acb	-0.12919156
36	0x3da9c4e7	0.08289509
37	0x3da5ea9e	0.0810139
38	0xbddc9402	-0.10770418
39	0x3da8e790	0.08247292
40	0xbd0903b3	-0.033450793
41	0xbe2db3e4	-0.16963154
42	0x3e246bfc	0.16056818
43	0xbcfa7d6c	-0.030577384
44	0xbd4856eb	-0.048911016
45	0xbd8c9e9d	-0.068661906
46	0x3d048151	0.03234989
47	0xbe3913e6	-0.18073997
48	0xbe0a0c85	-0.13481338
49	0x3e2c16fb	0.16805641
50	0x3e3a22d6	0.18177351
51	0xbdced884	-0.10099891
52	0x3db9cac8	0.090718806
53	0x3d63fcfc	0.055661187
54	0xbe0fbb89	-0.14036383
55	0xbe384c4c	-0.17997855
56	0x3da1bf65	0.07897834
57	0x3daf88ed	0.085710384
58	0xbe460175	-0.19336493
59	0xbc3891a0	-0.011265188
60	0xbe0fb29f	-0.14032982
61	0xbda6adf6	-0.08138649
62	0xbc409a39	-0.01175552
63	0x3e3006ba	0.17190066
64	0x3dab5ee5	0.08367709
65	0xbe184767	-0.14870988
66	0xbd324e09	-0.04353145
67	0x3e432559	0.19057216
68	0xbd565aff	-0.052332874
69	0xbd362e69	-0.044477854
70	0xbcfb989f	-0.030712424
71	0xbe175759	-0.14779414
72	0xbe033664	-0.12813717
73	0x3e07c6b8	0.13259399
74	0xbdf2e30e	-0.118597135
75	0xbccb6baf	-0.024831621
76	0x3e3235f5	0.17403395
77	0x3e19b388	0.15009892
78	0xbe1fb59a	-0.15596619
79	0xb9920506	-0.00027851033
80	0xbe42f1b5	-0.19037516
81	0xbd628481	-0.055302147
82	0xbc969a50	-0.018384129
83	0x3cef604a	0.029220719
84	0xbd8e8a87	-0.06960016
85	0x3e3a0858	0.18167245
86	0xbdf9ac3e	-0.12191056
87	0x3e1e7f44	0.15478235
88	0x3e3e731f	0.18598603
89	0x3cd13000	0.025535583
90	0xbdea3bfe	-0.11437224
91	0xbad66eb5	-0.0016359898
92	0x3da97131	0.08273543
93	0x3cefc675	0.029269436
94	0x3e3e00fb	0.18555062
95	0xbd2f021a	-0.042726614
96	0x3e4f1106	0.20221338
97	0xbd337ce2	-0.04382027
98	0xbe484e88	-0.19561207
99	0xbd7c3ebd	-0.06158327
100	0x3b58eb4e	0.0033099237
101	0x3e138b5a	0.14408627
102	0xbd20ea01	-0.039285664
103	0x3e00d86b	0.12582557
104	0x3e2313e4	0.15925556
105	0x3d1a16b1	0.037619296
106	0x3d16b4f8	0.03679368
107	0xbbc38f85	-0.0059680366
108	0xbd185cb9	-0.037197802
109	0x3d93d9fd	0.07219312
110	0xbd3a5703	-0.045493137
111	0xbe0410e9	-0.12897076
112	0x3d5edf23	0.05441202
113	0x3df62eb5	0.120206274
114	0xbcd76f74	-0.026298262
115	0xbd0f7733	-0.035025787
116	0x3d36e4e3	0.044651877
117	0x3e25292a	0.16128984
118	0xbe09ce2f	-0.13457559
119	0xbdd25cd9	-0.102716155
120	0x3e4add7f	0.19811057
121	0x3c2c9cdb	0.010535444
122	0xbdfb544e	-0.12271939
123	0xbe2f3440	-0.17109776
124	0xbcc5d8c1	-0.024151208
125	0xbd8694ec	-0.06571373
126	0xbe3c8fdd	-0.18414254
127	0xbd11b1a6	-0.03556981
128	0x3dc50224	0.09619549
129	0x3d8bbf92	0.068236485
130	0xbdfba67c	-0.12287614
131	0x3d7f38d8	0.06231007
132	0x3b8c51f7	0.004282232
133	0xbe141654	-0.14461643
134	0xb981d998	-0.00024766917
135	0xbd39a2b5	-0.045321185
136	0xbe342078	-0.17590511
137	0xbe0fb0c4	-0.14032274
138	0x3c97244d	0.018449927
139	0xbdb02afc	-0.086019486
140	0xbe0225e5	-0.12709768
141	0x3baf1020	0.0053424984
142	0xbe02c453	-0.12770204
143	0xbdcf5bff	-0.10124969
144	0xbd64f2b2	-0.055895515
145	0x3d8efb63	0.06981542
146	0x3cb135d7	0.021632118
147	0xbc64b020	-0.013958007
148	0xbe35f282	-0.1776829
149	0xbba792aa	-0.0051139193
150	0xbd3cbe3f	-0.04607987
151	0x3dccabc7	0.099937014
152	0xbd899ca3	-0.06719329
153	0x3e0e66ff	0.13906477
154	0x3d472b32	0.04862518
155	0x3d6144d8	0.054997295
156	0x3dc02936	0.0938286
157	0xbdbe9844	-0.09306386
158	0xbde9c18b	-0.114138685
159	0x3d652e67	0.055952456
160	0xbe099eca	-0.1343948
161	0xbcb56006	-0.022140514
162	0xbe11bafe	-0.14231488
163	0x3e0bb7c0	0.13644314
164	0x3e1bc720	0.15212679
165	0x3e18562d	0.14876623
166	0x3db098ed	0.08622918
167	0xbe43cd70	-0.19121337
168	0xbdeeb3bd	-0.11655376
169	0xbd8e7434	-0.06955758
170	0x3c469a16	0.012121698
171	0xbca593da	-0.020212103
172	0x3dc3f1e8	0.09567624
173	0x3d94f079	0.07272429
174	0x3e0109eb	0.1260144
175	0x3d9145bb	0.07093378
176	0xbe0bd9d4	-0.13657314
177	0xbd6a655f	-0.05722558
178	0x3c98941f	0.018625317
179	0xbe3d0658	-0.18459451
180	0x3d85b05b	0.06527778
181	0xbdab4e98	-0.083646
182	0x3d300e0d	0.04298215
183	0x3e0bda5b	0.13657515
184	0x3de3459e	0.11097263
185	0xbe3247e1	-0.17410232
186	0x3d277315	0.040881235
187	0xbdbde218	-0.092716396
188	0x3e1426d6	0.1446794
189	0x3de31938	0.110887945
190	0x3e3fd9d7	0.18735443
191	0x3d8cac07	0.06868749
192	0x3d7cab4d	0.061686803
193	0xbd121017	-0.035659876
194	0x3cabd850	0.02097717
195	0xbe1b040b	-0.15138261
196	0xbdefbae2	-0.11705567
197	0xbda26966	-0.079302594
198	0x3d8ae217	0.067814045
199	0xbe0940ad	-0.13403578
200	0xbe2aab62	-0.1666694
201	0xbdf82bcb	-0.12117728
202	0x3e4e4ffb	0.20147698
203	0xbdba9910	-0.091112256
204	0xbe19aa0b	-0.15006272
205	0x3da6208c	0.081116766
206	0xbe4bc5f6	-0.19899735
207	0x3e11636e	0.14198086
208	0x3e082ac3	0.13297562
209	0xbc126ad0	-0.008936599
210	0xbb944c83	-0.0045257225
211	0x3d6f1a7a	0.05837486
212	0xbd02af31	-0.031905357
213	0x3d05874a	0.032599725
214	0xbdcd891d	-0.10035918
215	0x3d467c34	0.048458293
216	0x3da6c9e7	0.081439786
217	0x3e1476e8	0.14498484
218	0xbdad18ea	-0.084520176
219	0x3dbaf57c	0.09128854
220	0xbdcdebcc	-0.1005474
221	0x3e0e9d58	0.1392721
222	0x3d80da1e	0.062916026
223	0x3d61ecae	0.055157356
224	0xbdbe445b	-0.092903815
225	0xbe3bc961	-0.18338539
226	0xbe1f3bca	-0.15550151
227	0xbe086507	-0.13319789
228	0xbce5d861	-0.028057279
229	0x3ce438f0	0.027859181
230	0xbdadaf2e	-0.084806785
231	0xbd9d7f92	-0.07690348
232	0x3e1c2d43	0.15251641
233	0x3d96e10d	0.07367144
234	0xbe1fc7d9	-0.1560358
235	0x3db4b0d2	0.08822788
236	0x3de8770f	0.113508336
237	0xbd911137	-0.070833616
238	0x3e3fe547	0.18739806
239	0x3d03c5cc	0.032171056
240	0xba189c89	-0.00058216654
241	0x3e107025	0.1410528
242	0xbdaaad99	-0.083338924
243	0x3d967b21	0.07347704
244	0xbaa5513e	-0.0012612713
245	0xbdd02e0a	-0.10165031
246	0x3dbdf68f	0.09275543
247	0xbe246871	-0.16055466
248	0x3e20948f	0.1568167
249	0x3d879584	0.06620315
250	0xbe080b7d	-0.13285632
251	0xbd89cb4c	-0.06728229
252	0x3e528a80	0.20560646
253	0x3e550ef8	0.20806491
254	0x3d2d1a37	0.04226133
255	0x3e245756	0.16048941

encoder.4.bias f4 [10]
0	0xbd7fdde5	-0.062467474
1	0xbd8bcf10	-0.068266034
2	0x3d087f76	0.03332468
3	0xbd4e1217	-0.05031022
4	0x3d9ac77f	0.07557582
5	0x3e1b341b	0.15156595
6	0xbdf595e7	-0.11991482
7	0xbdc008d3	-0.09376683
8	0xbd7006a5	-0.058600087
9	0xbcc3e029	-0.023910599

encoder.6.weight f4 [1, 10]
0	0xbea545fa	-0.3227995
1	0xbd1ac998	-0.03778991
2	0x3ea9a98a	0.3313716
3	0x3e74c463	0.2390304
4	0xbe063aed	-0.13108416
5	0xbc521ed0	-0.012824729
6	0x3e48ce19	0.1960987
7	0x3d35af63	0.044356715
8	0xbeaf7239	-0.34266832
9	0xbe59dd89	-0.21275915

decoder.0.weight f4 [10, 1]
0	0x3eb772d9	0.3582981
1	0xbf3e3930	-0.7430601
2	0x3ed3a041	0.41333202
3	0x3f64e7c5	0.8941615
4	0xbf308212	-0.6894847
5	0xbedc5ffd	-0.43041983
6	0x3ef1a1a9	0.4719365
7	0x3f681971	0.9066382
8	0x3e74e967	0.23917161
9	0xbf23c5e1	-0.63973814

decoder.0.bias f4 [10]
0	0x3f80045c	1.000133
1	0xbe492ca8	-0.19645941
2	0x3dd96d8c	0.106165975
3	0x3b5654ee	0.003270443
4	0x3e93466f	0.28764674
5	0xbefd5cb1	-0.4948478
6	0xb943543b	-0.00018628027
7	0xbf41a7c0	-0.7564659
8	0xbf3464cb	-0.704663
9	0xbf404e59	-0.7511955

decoder.2.weight f4 [30, 10]
0	0x3d93e10f	0.07220661
1	0xbe2e54aa	-0.17024484
2	0xbe2b03d0	-0.16700673
3	0x3e7f281e	0.24917647
4	0xbe18933e	-0.14899918
5	0xbd9418b1	-0.07231272
6	0x3bad9913	0.005297789
7	0xbe65fdd8	-0.22460115
8	0x39251259	0.00015742461
9	0x3d18cccf	0.037304696
10	0x3d81699c	0.063189715
11	0x3dee3d7e	0.116328225
12	0xbd308e3d	-0.0431044
13	0xbea9e923	-0.33185682
14	0x3e02cc99	0.1277336
15	0x3ea340d2	0.3188539
16	0xbe06b90b	-0.13156526
17	0x3e4b0b8b	0.19828622
18	0x3e8d8b17	0.2764518
19	0xbe427213	-0.18988828
20	0xbe72ded6	-0.23717818
21	0xbea3f845	-0.32025352
22	0x3d095d7c	0.03353642
23	0x3e276428	0.163468
24	0xbea456b0	-0.32097387
25	0x3ea0fee2	0.3144446
26	0xbe597883	-0.21237378
27	0xbdee378e	-0.1163169
28	0x3d7349e3	0.059396636
29	0xbccbc3ad	-0.024873579
30	0x3e975419	0.2955635
31	0xbe8c271a	-0.27373582
32	0x3e20f563	0.15718608
33	0x3db3102b	0.08743318
34	0x3d57a2b7	0.05264541
35	0xbd1e0d4c	-0.0385869
36	0x3e2302ae	0.15918991
37	0xbd3024a2	-0.043003686
38	0x3c2ec85f	0.010667889
39	0x3e2de6ea	0.16982618
40	0xbccc67b1	-0.024951788
41	0x3e642ae9	0.22281994
42	0x3db265e5	0.08710841
43	0xbe8d61ba	-0.27613622
44	0x3dab0cf4	0.0835208
45	0x3dcc05af	0.099620216
46	0x3e9f2bc4	0.31088078
47	0xbdfa70e5	-0.12228564
48	0xbdfee884	-0.124466926
49	0x3e71162a	0.23543611
50	0x3e25f4f8	0.1620673
51	0x3ea2b9ee	0.31782478
52	0x3c2ed4d8	0.010670863
53	0x3e01c172	0.1267145
54	0xbe811e42	-0.25218397
55	0x3e8e8f1a	0.27843553
56	0xbdce45c6	-0.10071902
57	0xbeb9d0f7	-0.3629224
58	0xbe07e289	-0.1327001
59	0xbe1acc58	-0.15117013
60	0x3e9badae	0.30405945
61	0x3e06d485	0.13167007
62	0x3ea356c8	0.31902146
63	0xbe2b5401	-0.16731264
64	0x3e1cfbe4	0.15330464
65	0xbd6775ec	-0.056508943
66	0xbbc36ceb	-0.005963912
67	0x3c0b9cce	0.008521272
68	0x3c8f21dd	0.017472202
69	0x3e9b7a01	0.3036652
70	0xbcecade2	-0.028891508
71	0xbcd530ae	-0.026024189
72	0x3e45d82d	0.19320746
73	0x3e516530	0.20448756
74	0x3decf1b3	0.11569538
75	0x3e20c596	0.15700373
76	0x3eaa7743	0.33294114
77	0x3e98e759	0.29864004
78	0xbd9a6789	-0.07539279
79	0x3e258e99	0.16167678
80	0xbd265459	-0.040607784
81	0xbe72c368	-0.23707354
82	0xbe8e0ccf	-0.27744147
83	0x3e84cf8c	0.25939596
84	0xbe0ec014	-0.1394046
85	0xbdaa0717	-0.083021335
86	0xbe896876	-0.2683751
87	0xbdbef26d	-0.09323583
88	0x3ead07c1	0.33794978
89	0xbe939309	-0.28823116
90	0xbdf80681	-0.121106155
91	0xbca1e03c	-0.019760244
92	0xbe203603	-0.15645604
93	0x3e49c8a9	0.19705452
94	0x3dc1768c	0.09446439
95	0xbe16be97	-0.14721142
96	0xbe0c7513	-0.13716535
97	0x3dd3ace2	0.10335709
98	0xbd906402	-0.07050325
99	0xbdeff149	-0.11715943
100	0x3e3c2f98	0.1837753
101	0xbe32cd86	-0.17461213
102	0xbe98e955	-0.29865518
103	0xbe8c1d06	-0.27365893
104	0x3daadab3	0.08342495
105	0x3caa38ec	0.020779096
106	0x3e6429cf	0.22281574
107	0x3e9b5c20	0.30343723
108	0x3d8ade71	0.067807086
109	0x3d77fc30	0.06054324
110	0x3a9f42b7	0.001215062
111	0xbd128d0e	-0.03577905
112	0x3e43842e	0.19093391
113	0x3c230893	0.009950775
114	0xbe4e27a6	-0.20132312
115	0x3d8f5ad4	0.06999746
116	0x3d505adb	0.050867897
117	0xbe97cadf	-0.29646966
118	0xbe05d6d6	-0.13070235
119	0xbdeba5f9	-0.11506266
120	0xbda81e84	-0.082089454
121	0x3e78a81e	0.24282882
122	0xbddc08e9	-0.10743887
123	0x3eabb845	0.33539024
124	0x3dbb51b1	0.09146441
125	0xbde35acf	-0.11101305
126	0xbbb03773	-0.005377704
127	0xbda5debd	-0.080991246
128	0xbe4b94f3	-0.19881038
129	0x3dbc0702	0.09181024
130	0x3e582158	0.2110647
131	0xbda1c9c9	-0.078998156
132	0xbe3b9653	-0.18319063
133	0xbe976a20	-0.29573154
134	0x3e516db8	0.2045201
135	0xbd7e8e82	-0.062147625
136	0x3e2a8611	0.16652705
137	0x3e8d0b1a	0.27547532
138	0x3cc55aa7	0.024091078
139	0xbdfcdde4	-0.1234701
140	0x3e783ee6	0.24242744
141	0x3e661bf9	0.22471608
142	0xbe5a234f	-0.21302532
143	0xbe968a00	-0.2940216
144	0x3c7a873b	0.0152910305
145	0x3e27b6f8	0.16378391
146	0xbd1e552f	-0.038655456
147	0x3b4eda0e	0.0031563076
148	0xbe30a63f	-0.17250918
149	0xbe6c3349	-0.23066439
150	0x3e89a565	0.26884
151	0x3e9a4f73	0.3013874
152	0xbe3b4463	-0.18287806
153	0x3e66c84e	0.22537348
154	0xbdb5f7b0	-0.08885133
155	0xbe82cd11	-0.25547078
156	0x3e31ec6f	0.17375349
157	0x3d5c097b	0.05371998
158	0x3d6ce8a3	0.057839047
159	0xbe9c9327	-0.30581018
160	0xbe8215ab	-0.25407156
161	0x3e400531	0.1875198
162	0xbdaa6ab5	-0.08321134
163	0xbe8dcf22	-0.27697092
164	0xbd2f15a2	-0.04274524
165	0x3c988c17	0.018621488
166	0xbe8eb224	-0.27870286
167	0xbe758b91	-0.23979022
168	0x3e960849	0.29303196
169	0x3d885ef8	0.06658739
170	0xbdae399c	-0.08507082
171	0x3e343a06	0.17600259
172	0xbea8372b	-0.3285459
173	0xbe6c88e2	-0.23099092
174	0x3e01251b	0.12611811
175	0xbe320184	-0.1738339
176	0xbd78398b	-0.060601752
177	0xbeb165b2	-0.346479
178	0xbe136f1d	-0.14397855
179	0xbe053b20	-0.13010836
180	0xbd1761f3	-0.036958646
181	0x3c7b72c1	0.015347184
182	0xbe7688bc	-0.24075598
183	0x3d8ac72a	0.06776269
184	0x3d7bdc46	0.061489366
185	0x3ddb2cb8	0.10701889
186	0x3dd92017	0.10601824
187	0xbe38eef9	-0.18059911
188	0x3db7222e	0.08942066
189	0x3cfc062f	0.030764667
190	0x3de2f397	0.11081617
191	0x3e898f84	0.26867306
192	0x3ca014b3	0.01954112
193	0x3d75466e	0.05988162
194	0xbce10b39	-0.027471172
195	0xbe2dd744	-0.16976649
196	0x3ea25308	0.31703973
197	0xbd76f245	-0.06028964
198	0xbdc1a663	-0.09455564
199	0x3dc5e8f5	0.09663574
200	0xbe892a34	-0.2679001
201	0x3e69a00f	0.22814964
202	0x3e9c203e	0.3049335
203	0x3e3af208	0.1825639
204	0x3d3482d2	0.044070072
205	0xbdc10cfd	-0.094263054
206	0x3de21005	0.11038212
207	0x3e0f53e1	0.13996841
208	0xbe9d052e	-0.30668014
209	0xbe8d70e5	-0.27625194
210	0xbe714862	-0.23562768
211	0x3e673a8a	0.22580925
212	0xbdd9ff3b	-0.106443845
213	0x3e64b426	0.22334346
214	0xbd88cd34	-0.066797644
215	0xbdd22007	-0.10260015
216	0xbdc0f047	-0.09420829
217	0xbe41953c	-0.18904585
218	0xbe62e03f	-0.22155856
219	0xbd1d894a	-0.038461007
220	0xbe92aebc	-0.28648937
221	0x3d56cd6f	0.05244201
222	0xbd543d89	-0.051816497
223	0x3e41e29a	0.18934098
224	0x3c21e7bc	0.00988191
225	0xbdca64f9	-0.0988254
226	0x3e8bd0bb	0.27307686
227	0x3e18e92d	0.149327
228	0x3e09337c	0.13398546
229	0x3d2d3491	0.04228646
230	0x3e4a252e	0.19740745
231	0x3c076112	0.008262889
232	0xbe2e254e	-0.17006418
233	0x3dcc4799	0.09974594
234	0x3d092ba3	0.03348888
235	0x3d852133	0.06500473
236	0xbd45f94d	-0.048333455
237	0xbe57a4dc	-0.21058983
238	0x3d665e78	0.056242436
239	0xbe97cdb4	-0.29649127
240	0xbdb4e761	-0.088331945
241	0xbe8c50c6	-0.27405375
242	0x3e16f58b	0.14742105
243	0x3e1116b9	0.14168824
244	0xbc95ee90	-0.018302232
245	0xbd2fbeb9	-0.042906497
246	0x3e38ae7c	0.1803531
247	0x3e9ab92c	0.302194
248	0x3e5fb137	0.21844946
249	0x3dbd6c4c	0.092491716
250	0xbd9d0211	-0.0766641
251	0x3daa5afc	0.08318135
252	0xbe6842a5	-0.22681673
253	0xbdc1bbb6	-0.09459631
254	0x3ea4c474	0.32181132
255	0xbe704f2e	-0.23467705

decoder.2.bias f4 [30]
0	0x3e4ced30	0.20012355
1	0xbca173b6	-0.019708496
2	0xbced5997	-0.028973384
3	0xbe09f17e	-0.13471028
4	0x3ea370d2	0.31922013
5	0xbe35ef5a	-0.17767087
6	0x3e5d4241	0.21607305
7	0x3d18f6cc	0.03734474
8	0xbe4ff580	-0.20308495
9	0x3da4456a	0.08021052
10	0xbe905c1f	-0.28195283
11	0xbd0d347d	-0.034473885
12	0x3d022779	0.031775925
13	0x3e9ba915	0.30402437
14	0xbe8e9f2d	-0.27855816
15	0x3e6af814	0.22946197
16	0x3d0651a4	0.032792702
17	0xbd833485	-0.06406502
18	0xbe87a6a1	-0.26494315
19	0x3e37e61b	0.17958872
20	0xbdaf9527	-0.085733704
21	0xbe99f549	-0.3006995
22	0xbe2957ca	-0.16537395
23	0x3e5fe8b4	0.21866113
24	0xbda325f0	-0.079662204
25	0xbe108b31	-0.14115597
26	0x3d57797f	0.052606102
27	0xbe3e3667	-0.1857544
28	0xbe673cf3	-0.22581844
29	0xbe294f65	-0.16534193

decoder.4.weight f4 [60, 30]
0	0x3cfeba4f	0.031094698
1	0xbe0d46de	-0.13796565
2	0x3e25fb34	0.16209108
3	0xbb1fe0f1	-0.002439555
4	0x3e0eff1f	0.13964508
5	0xbc382d5e	-0.011241285
6	0x3c7dcce5	0.015490745
7	0x3e277c15	0.16355927
8	0xbdad5117	-0.08462732
9	0xbc76ae8e	-0.0150562655
10	0xbe37c980	-0.1794796
11	0x3d4ec4f1	0.050480787
12	0xbdb7640f	-0.089546315
13	0xbd428ba9	-0.04749647
14	0x3db782f3	0.089605235
15	0x3c91ec54	0.017812885
16	0xbd73b4c1	-0.059498552
17	0xbdc609e9	-0.09669859
18	0xbe19efa6	-0.15032825
19	0xbd00fb64	-0.031489745
20	0x3e3ccf8c	0.18438548
21	0xbe089873	-0.13339405
22	0x3de935bc	0.11387202
23	0x3e2d9cec	0.16954392
24	0xbe03bb8f	-0.12864517
25	0xbd302e5c	-0.04301296
26	0xbde543b5	-0.11194555
27	0x3d9b0d77	0.075709276
28	0xbe01a08a	-0.12658897
29	0x3d89f0e0	0.067353964
30	0xbd29cb1c	-0.041453466
31	0xbdac6ceb	-0.08419212
32	0xbdc06593	-0.09394374
33	0xbe343fd4	-0.17602473
34	0xbe10c905	-0.14139183
35	0x3c64d990	0.013967887
36	0xbe28e4bc	-0.16493505
37	0x3d5b1652	0.053488083
38	0xbdf84636	-0.12122767
39	0xbe01b25e	-0.12665698
40	0xbe1557b6	-0.1458424
41	0x3d49a52b	0.049229782
42	0x3cc633a4	0.024194546
43	0x3cb8e8b8	0.022571906
44	0x3df49134	0.11941758
45	0xbd3a345e	-0.045460097
46	0xbdafdcf6	-0.08587067
47	0x3cfecbbb	0.031103006
48	0x3e08e6ff	0.13369368
49	0xbd5bd571	-0.05367035
50	0xbcb8d2b1	-0.022561403
51	0xbd359728	-0.044333607
52	0xbc7db053	-0.0154839335
53	0xbe2ad409	-0.16682447
54	0x3de64130	0.11242902
55	0x3e353b95	0.1769851
56	0x3e042fb6	0.12908825
57	0x3cfe35ce	0.031031515
58	0x3d7992ff	0.060931202
59	0xbdcc49a1	-0.09974981
60	0x3e1eace4	0.1549564
61	0x3d6eb62c	0.0582792
62	0xbd652e68	-0.05595246
63	0xbe16c5d7	-0.14723907
64	0x3dbadabd	0.09123752
65	0x3d136507	0.03598502
66	0x3e0e4ddb	0.13896887
67	0xbd370650	-0.044683754
68	0x3d833a4e	0.06407605
69	0x3e0f91ae	0.14020416
70	0x3b73c6c5	0.0037197333
71	0xbe14fdad	-0.14549895
72	0x3dedb7ba	0.11607309
73	0x3d653f62	0.05596865
74	0x3ca6fec5	0.020385155
75	0x3c46755e	0.012112943
76	0x3de1eab0	0.11031091
77	0xbd6add97	-0.05734023
78	0x3e01effa	0.126892
79	0x3e19ec84	0.1503163
80	0x3da08ef9	0.0783977
81	0x3cfc0506	0.030764114
82	0x3d0d9b38	0.034571856
83	0xbd9075c4	-0.07053712
84	0x3dbb25ff	0.091381066
85	0x3e18701f	0.14886521
86	0x3d923689	0.07139308
87	0xbe0e4c97	-0.13896404
88	0x3d9e014c	0.07715091
89	0xbd91a6b7	-0.071118765
90	0x3d84db17	0.064871006
91	0x3d97e08e	0.07415877
92	0x3dab6526	0.08368902
93	0x3beed965	0.007289099
94	0xbccddbcf	-0.025129227
95	0xbd0d781f	-0.034538385
96	0x3d99bb29	0.07506401
97	0x3d54deb7	0.05197021
98	0x3db2020e	0.08691798
99	0xbd3db094	-0.046310976
100	0xbd93453a	-0.07190938
101	0xbdf8dacf	-0.121511094
102	0x3e5a9219	0.21344794
103	0x3de82aa6	0.113362595
104	0xbc9123a1	-0.017717184
105	0xbc719dfb	-0.014747138
106	0xbd114972	-0.035470434
107	0x3e5106d8	0.20412767
108	0xbe469e82	-0.19396403
109	0xbe02077f	-0.12698172
110	0xbbe3130b	-0.0069297603
111	0x3e10d81e	0.14144942
112	0x3ccd0edb	0.025031498
113	0xbe134682	-0.14382365
114	0xbe5cb9d5	-0.21555264
115	0x3cd22c67	0.025655938
116	0xbda08eac	-0.078397125
117	0xbdfd95de	-0.123821005
118	0x3d70213f	0.058625456
119	0x3e17dd2a	0.14830461
120	0x3db72244	0.089420825
121	0x3db2875b	0.08717223
122	0xbdf5bd6e	-0.119990215
123	0x3dd75715	0.105146565
124	0xbd8dfe3e	-0.069332585
125	0x3e4a1cf0	0.19737601
126	0x3e21834f	0.15772747
127	0xbd63faa7	-0.055658963
128	0xbd7c1e32	-0.061552234
129	0xbd9bb6eb	-0.07603248
130	0xbd9f9be5	-0.077934064
131	0x3dde3c05	0.108512916
132	0xbddc97e9	-0.10771162
133	0xbdc79e8f	-0.097470395
134	0x3e06c679	0.13161649
135	0x3bd78cdb	0.0065780706
136	0x3e21574a	0.15755954
137	0x3e61df30	0.22057796
138	0xbdce910f	-0.100862615
139	0x3e218b91	0.15775897
140	0x3d0513e3	0.03248967
141	0xbc262faa	-0.0101432
142	0x3e088204	0.13330847
143	0xbe1ceed8	-0.15325487
144	0x3dedbdcc	0.116084665
145	0xbe17cd72	-0.14824465
146	0xbdcc540d	-0.09976969
147	0x3d3a81f4	0.04553409
148	0xbe4a93dd	-0.19782968
149	0xbddfac17	-0.109214954
150	0x3dbd0d6c	0.09231076
151	0xbdb37216	-0.087619945
152	0xbe42c362	-0.19019845
153	0x3e04b9e4	0.12961537
154	0xbdfabcab	-0.12243017
155	0x3d9d70eb	0.07687553
156	0xbe0e154d	-0.13875313
157	0xbe445952	-0.19174698
158	0xbe077c60	-0.13231039
159	0xbd97776a	-0.07395823
160	0xbe1cc9d9	-0.15311374
161	0x3e37fb29	0.17966904
162	0xbdd1b978	-0.102404535
163	0x3e42cb96	0.19022974
164	0x3d797142	0.060899027
165	0x3e02e9a7	0.12784444
166	0xbdc79b66	-0.09746437
167	0xbd740b23	-0.059580933
168	0x3dd1af82	0.102385536
169	0xbde9bcb9	-0.11412949
170	0x3e0f53d6	0.13996825
171	0x3de33038	0.11093181
172	0xbe0ddc2c	-0.1385352
173	0x3e4e812f	0.20166467
174	0x3d02f52a	0.031972088
175	0xbda66f18	-0.08126658
176	0x3c67e5ae	0.014153881
177	0xbe529acb	-0.20566861
178	0x3e0cca0d	0.13748951
179	0x3e0a168f	0.13485168
180	0x3db8127f	0.08987903
181	0x3dc74e70	0.09731758
182	0xbd9c1f01	-0.07623101
183	0xbd8faf50	-0.0701586
184	0x3d72aacf	0.059244927
185	0x3dc5489c	0.0963299
186	0x3e66f159	0.22553004
187	0xbe256be9	-0.16154446
188	0xbda71429	-0.08158142
189	0xbdb2dc91	-0.08733476
190	0xbca1c64a	-0.019747872
191	0x3e3bcb2b	0.18339221
192	0x3d512860	0.051063895
193	0x3e417c71	0.18895127
194	0xbd9f8692	-0.07789339
195	0x3d347bad	0.04406326
196	0x3d2bbf94	0.04193075
197	0xbdab1810	-0.08354199
198	0x3d153c4c	0.036434457
199	0x3db5851e	0.08863281
200	0x3d8f8ef7	0.0700969
201	0x3d395917	0.04525098
202	0xbdb2ed65	-0.08736686
203	0x3e2f0179	0.17090406
204	0xbe3b4f80	-0.18292046
205	0x3e21627e	0.15760228
206	0x3d814ffe	0.063140854
207	0x3df438db	0.11924907
208	0x3db535e0	0.088481665
209	0xbcb9770a	-0.02263977
210	0x3dc66c3d	0.096886136
211	0x3d542a18	0.051797956
212	0xbdd4b2a7	-0.10385638
213	0x3d17a830	0.03702563
214	0x3d86f2b2	0.06589259
215	0xbe2ba373	-0.1676157
216	0x3df6214d	0.1201807
217	0x3e1e5ed6	0.15465865
218	0xbd44b993	-0.04802854
219	0xbe3e887a	-0.18606749
220	0x3e3c5d96	0.18395075
221	0xbd513429	-0.051075134
222	0x3e02f11b	0.12787287
223	0xbd9d7ff5	-0.076904215
224	0xbe3c2dc8	-0.18376839
225	0xbe2957fd	-0.16537471
226	0xbb6cf8a3	-0.0036158941
227	0xbe0773a5	-0.13227709
228	0xbd36fde7	-0.044675734
229	0xbe1bc238	-0.15210807
230	0xbe034556	-0.12819418
231	0xbdfc51c6	-0.123202845
232	0x3d403290	0.04692322
233	0xbdfdc5ba	-0.12391229
234	0x3de20ca8	0.1103757
235	0x3c6d7cfe	0.0144951325
236	0x3e3c3994	0.1838134
237	0x3db398fd	0.087694146
238	0x3d4ee798	0.050513834
239	0x3e0670ab	0.13128917
240	0x3d5b3f43	0.053527128
241	0xbe120f56	-0.14263663
242	0xbd2511ff	-0.040300366
243	0xbe086649	-0.13320269
244	0x3deee619	0.116649814
245	0xbd3831e9	-0.044969473
246	0x3e20585c	0.15658706
247	0xbc5f73ff	-0.0136384955
248	0xbe384cad	-0.17998
249	0xbe24c36f	-0.16090177
250	0xbe283183	-0.16425137
251	0x3cb7108f	0.022346763
252	0xbaa26e0b	-0.0012392415
253	0x3dee2c35	0.116295256
254	0xbdcd07c6	-0.10011248
255	0x3e0a41ae	0.13501617

decoder.4.bias f4 [60]
0	0xbdbb3ef0	-0.09142864
1	0x3de5f3c0	0.11228132
2	0x3e27409f	0.16333245
3	0x3dbbc37f	0.09168147
4	0x3e23bb89	0.15989508
5	0xbdf5d6ec	-0.12003884
6	0x3d9a5307	0.075353675
7	0x3d93f696	0.07224767
8	0xbe1c2bdc	-0.15251106
9	0x3cb84cfe	0.02249765
10	0x3deed922	0.116625085
11	0x3d3ff4f7	0.046864476
12	0x3e463048	0.19354355
13	0xbddd5fbb	-0.10809275
14	0xbdb15296	-0.0865833
15	0x3e0f54a8	0.13997138
16	0xbdfbf236	-0.123020574
17	0xbe0c14e8	-0.1367985
18	0xbe264175	-0.16235907
19	0x3e1eef9b	0.1552109
20	0x3e48feb1	0.19628407
21	0x3e075f21	0.13219883
22	0xbd91af91	-0.07113565
23	0xbcaba44d	-0.020952368
24	0x3e3c2363	0.18372874
25	0x3d17914f	0.03700381
26	0x3d2b46ee	0.04181569
27	0x3e1c00aa	0.15234628
28	0x3e03640b	0.12831132
29	0x3d524f31	0.051345054
30	0xbdddb050	-0.108246446
31	0xbe1b1d6f	-0.15147947
32	0xbd10726a	-0.035265364
33	0xbca9330a	-0.02065422
34	0x3e114a46	0.1418849
35	0xbdb80f9f	-0.089873545
36	0xbd9da28f	-0.07697021
37	0xbcfadeaf	-0.030623762
38	0xbdaf7c44	-0.08568624
39	0x3d60724e	0.05479651
40	0xbd3c42af	-0.045962032
41	0x3da51984	0.08061507
42	0x3e0d0ce5	0.1377445
43	0x3e2e8c04	0.17045599
44	0xbb3dae63	-0.0028943054
45	0xbdc2addd	-0.09505818
46	0x3da8dfd9	0.082458206
47	0x3e108f2d	0.14117117
48	0xbcca92ed	-0.024728263
49	0x3d070e23	0.032972466
50	0x3da43e96	0.0801975
51	0xbdee0479	-0.11621947
52	0xbdc7f4cc	-0.09763488
53	0xbe0367ec	-0.12832612
54	0x3cd10e05	0.02551938
55	0x3db83f14	0.08996406
56	0x3e35f187	0.17767917
57	0x3cff084e	0.03113189
58	0xbe26c4e7	-0.1628605
59	0x3dbc42ae	0.09192406

decoder.6.weight f4 [118, 60]
0	0x3d37a2cf	0.044833
1	0x3dbc7cc6	0.09203486
2	0x3d741a0e	0.05959516
3	0xb9b68fc7	-0.00034820868
4	0xbdc0992c	-0.09404215
5	0xbaf7c7e2	-0.0018904174
6	0xbcdfba4a	-0.02731051
7	0x3d9e7be6	0.077384755
8	0x3c803cf7	0.01565407
9	0xbd66b782	-0.05632735
10	0xbe31fd7d	-0.17381854
11	0xbd7f11cc	-0.06227283
12	0xbd031c50	-0.032009423
13	0x3cfdeb8c	0.030996107
14	0x3e1b35a9	0.15157188
15	0xbddae4e9	-0.106881924
16	0x3c9afda7	0.018919779
17	0xbc31901d	-0.010837582
18	0x3e1e9a89	0.15488638
19	0xbd066b2e	-0.03281706
20	0xbe2a2c12	-0.16618374
21	0x3d3a3779	0.04546306
22	0x3be6a4f4	0.007038707
23	0x3dd4ca30	0.10390127
24	0xbe2aba48	-0.16672623
25	0xbe335cab	-0.17515819
26	0x3d2a79bd	0.041620005
27	0xbe1927e1	-0.14956619
28	0xbd17ba63	-0.037042987
29	0xbd07f583	-0.033193123
30	0x3d994db8	0.07485527
31	0x3d3f993f	0.046777006
32	0xbd5f827b	-0.054567795
33	0xbc572ea1	-0.013133676
34	0xbd11c228	-0.035585552
35	0xbda2bacd	-0.07945786
36	0xbde59372	-0.112097636
37	0xbd43ce2d	-0.047804046
38	0x3cdb66b0	0.026782364
39	0xbc2e1c47	-0.010626859
40	0xbd4a836c	-0.04944174
41	0x3c4bcf18	0.012439512
42	0xbde13286	-0.10995965
43	0xbddc5d63	-0.107599996
44	0x3d9db22d	0.077
45	0x3e11767d	0.14205356
46	0xbdf9ffc8	-0.122069895
47	0xbca415d3	-0.020029938
48	0x3d4e4ec4	0.050368086
49	0x3e0d87f5	0.13821395
50	0x3d25abd1	0.04044706
51	0xbda7ca54	-0.08192888
52	0xbe1b3e7b	-0.15160553
53	0x3b1d27a7	0.0023979933
54	0x3c7f2c97	0.015574596
55	0x3bbd55a8	0.0057780333
56	0x3d846913	0.06465354
57	0xbce687bf	-0.0281409
58	0xbdb3d6ce	-0.08781205
59	0xbe07d655	-0.13265355
60	0x3e10e555	0.14149983
61	0xbddd1043	-0.10794117
62	0x3b9b5f21	0.004741565
63	0xbdcbaabb	-0.09944674
64	0x3dc62318	0.09674662
65	0x3c94cd6f	0.018164365
66	0x3e0440dd	0.12915368
67	0xbe07a247	-0.13245498
68	0x3da7da8a	0.0819598
69	0x3de8743f	0.11350297
70	0xbe17a1ec	-0.14807862
71	0x3ca86915	0.02055792
72	0x3c483697	0.0122200465
73	0xbdc4689f	-0.095902674
74	0xbcf3ea5b	-0.029774835
75	0xbcbd90dc	-0.023140363
76	0x3d13624a	0.035982408
77	0x3d00ab8c	0.0314136
78	0xbd0caf9b	-0.034347158
79	0x3d9b884c	0.07594356
80	0x3d8b7e90	0.06811249
81	0x3dbacb49	0.09120805
82	0x3cf68d75	0.030096749
83	0xbe06c967	-0.13162766
84	0x3dc9709d	0.098359324
85	0xbd9ee12e	-0.07757793
86	0xbd098daf	-0.033582386
87	0x3d527479	0.05138061
88	0x3d1e1c51	0.038601223
89	0xbdec75d1	-0.11545909
90	0xbda04e4d	-0.07827435
91	0x3ce23f3b	0.027618041
92	0x3d7c97bc	0.061668143
93	0xbd843683	-0.0645571
94	0x3e0139c7	0.12619697
95	0x3d9adcb6	0.075616285
96	0xbe1c0eda	-0.1524004
97	0xbd50941c	-0.050922498
98	0x3da355c7	0.07975345
99	0xbcdee1c8	-0.02720727
100	0xbd9a0ce3	-0.07521989
101	0xbcd18f7c	-0.025581114
102	0x3cd24818	0.025669143
103	0xbd0336f6	-0.032034837
104	0xbd85bd25	-0.06530217
105	0x3cafd24c	0.021462582
106	0x3d80e9dc	0.06294605
107	0x3df3c28b	0.119023405
108	0x3d5502e8	0.052004725
109	0x3d31e94c	0.04343538
110	0x3d50c4a7	0.050968792
111	0x3e04b6ec	0.12960404
112	0xbe08c197	-0.13355099
113	0xbd150850	-0.03638488
114	0xbd89cf0f	-0.067289464
115	0xbd3aec7c	-0.045635685
116	0x3db2346b	0.08701404
117	0x3dcff3d9	0.10153932
118	0xbda25c11	-0.079277165
119	0xbd767f35	-0.060179908
120	0x3d552e1f	0.052045938
121	0x3d816994	0.063189656
122	0x3d60f86e	0.05492442
123	0x3d20647a	0.039158322
124	0xbdbf7692	-0.09348787
125	0x3d8f91cc	0.070102304
126	0xbddf16ae	-0.10892998
127	0xbd551648	-0.052023202
128	0xba58af5f	-0.00082658784
129	0xbab660d4	-0.0013914355
130	0x3c9d429d	0.019196803
131	0xbdea4e7e	-0.114407524
132	0x3e031c86	0.1280385
133	0xbda27ddb	-0.07934161
134	0x3bca49d2	0.006173351
135	0x3bcf1c60	0.0063205212
136	0xbb141c57	-0.00225999
137	0xbd0b720f	-0.03404432
138	0x3ca68871	0.020328732
139	0x3d27a92b	0.040932816
140	0xbdac1583	-0.084025405
141	0x3dc17792	0.09446634
142	0xbcabbb5d	-0.020963365
143	0x3dd70c8d	0.10500441
144	0xbdcaeff5	-0.099090494
145	0x3e098aa7	0.13431798
146	0x3da4810e	0.08032428
147	0xbcdea39c	-0.027177624
148	0x3c96d7e7	0.018413497
149	0x3d9f06a3	0.07764938
150	0xbddaed64	-0.1068981
151	0x3dabf7b8	0.08396858
152	0x3d6b009b	0.057373624
153	0xbd76ae65	-0.06022491
154	0x3d7b8e66	0.0614151
155	0x3d4e18fe	0.050316803
156	0x3cf1237c	0.029435866
157	0x3dd82590	0.105540395
158	0xbde52011	-0.11187757
159	0xbccd5e3a	-0.025069345
160	0x3c715153	0.014728862
161	0x3da292dd	0.07938168
162	0x3da97f02	0.08276178
163	0xbc71568d	-0.014730108
164	0xbda1c5d8	-0.07899064
165	0xbe06d187	-0.13165866
166	0x3c255e38	0.010093264
167	0xbd2a36a0	-0.041556
168	0xbd08d99c	-0.033410653
169	0x3cc72698	0.024310395
170	0x3d9e962f	0.07743489
171	0x3d45fc22	0.048336156
172	0x3d259a12	0.040430136
173	0xbd044056	-0.032287918
174	0x3d54f010	0.051986754
175	0x3d7da7eb	0.061927717
176	0xbd6f96b3	-0.058493327
177	0xbdf2e306	-0.118597075
178	0x3cb3d518	0.021952197
179	0xbd451638	-0.048116893
180	0x3ddd177a	0.107954934
181	0xbdd70367	-0.10498696
182	0xbd8d85b3	-0.06910267
183	0x3d2c1b07	0.042017963
184	0xbdbad572	-0.09122743
185	0xbc260c1c	-0.010134723
186	0x3d83a2f6	0.06427567
187	0xbda0d982	-0.07853986
188	0x3d445555	0.04793294
189	0x3dda39d3	0.1065556
190	0xbdcf3e49	-0.10119302
191	0x3ce29ee8	0.027663663
192	0xbda61436	-0.08109324
193	0xbd9b7460	-0.07590556
194	0xbdf00aec	-0.11720833
195	0x3d72616d	0.059174944
196	0x3d9ec6b7	0.077527456
197	0xbd9c252a	-0.07624276
198	0x3dbb6137	0.09149402
199	0xbd75a33e	-0.059970133
200	0x3d63f9ce	0.055658154
201	0xbdd401af	-0.103518836
202	0x3e04b083	0.12957959
203	0xbde1539b	-0.110022746
204	0x3d6c71bb	0.05772565
205	0x3d4f7456	0.050648056
206	0x3d1cb8b6	0.03826209
207	0x3df1e535	0.11811296
208	0x3d68362c	0.056692287
209	0x3d95eb84	0.07320312
210	0xbde7e702	-0.11323358
211	0xbda10e5b	-0.07864066
212	0xbc61e2d5	-0.013786991
213	0x3e0832aa	0.13300577
214	0x3dba0eab	0.09084829
215	0xbe04d345	-0.12971218
216	0x3d9123ac	0.07086882
217	0x3a9de3d7	0.0012046051
218	0xbb982ec2	-0.004644246
219	0xbd047a6f	-0.032343324
220	0x3d6e219f	0.058137532
221	0xbd418e31	-0.047254745
222	0x3d4ff282	0.050768383
223	0xbdb16b87	-0.08663087
224	0xbbf21be0	-0.007388577
225	0x3d289243	0.04115511
226	0xbd0f9527	-0.035054352
227	0x3df3c0b7	0.11901992
228	0xbdc5f84f	-0.09666502
229	0x3d5dd3c4	0.054157034
230	0x3dbb9c2c	0.09160647
231	0xbcda8a6a	-0.02667733
232	0x3d4721b2	0.04861612
233	0xbdf32a5b	-0.11873313
234	0xbd4550a7	-0.04817262
235	0xbd9bac73	-0.076012515
236	0x3d18faad	0.037348438
237	0xbd3c4829	-0.045967255
238	0xbe00b2ac	-0.12568158
239	0xbe013da7	-0.12621175
240	0xbc00cab7	-0.007860831
241	0x3ddbcaaf	0.10732018
242	0x3dca751d	0.09885619
243	0xbd07a230	-0.03311366
244	0xbd33cdc8	-0.04389742
245	0xbdb7ec57	-0.08980625
246	0x3dbb3620	0.09141183
247	0xbdbd24ef	-0.0923556
248	0xbcc748c2	-0.024326686
249	0xbd8fd5a7	-0.07023173
250	0xbe15da6c	-0.14634103
251	0x3ce296b3	0.02765975
252	0xbdc17060	-0.09445262
253	0xbcdc747c	-0.026911013
254	0x3d486593	0.048924994
255	0x3d70eda1	0.05882037
