Baseline-models/DAGMM/DAGMM-CHD/no--dagmm/models/36_194_dagmm.pth (torch, 82200 bytes, 22 tensors)

phi f4 [4]
000000 8f f4 c4 3c ec a8 af 3c 3c 04 6f 3f 12 db aa 3c
       0.024042396 0.021442853 0.93365836 0.020856414

mu f4 [4, 3]
000000 61 30 b7 3e 01 1b ac 3f 4f 76 69 bd bc 20 ba 3e
       0.35779098 1.3445741 -0.056997593 0.363531
000010 82 9e ab 3f 27 ac 56 bd 7d c5 57 bd c0 da ce 3f
       1.3407748 -0.05241027 -0.052678574 1.6160507
000020 76 e8 c5 be 51 97 bc 3e bc 32 ab 3f 70 a7 46 bd
       -0.38653916 0.36834195 1.3374858 -0.048499525

cov f4 [4, 3, 3]
000000 18 47 39 3f 30 dc f4 be d7 b8 14 3f 30 dc f4 be
       0.72374105 -0.4782424 0.58094543 -0.4782424
000010 4f e3 a1 3e 30 92 c4 be d7 b8 14 3f 30 92 c4 be
       0.31618735 -0.38392782 0.58094543 -0.38392782
000020 f6 c3 ee 3e f0 40 38 3f e7 5c f3 be 35 de 13 3f
       0.4663388 0.71974087 -0.47531816 0.57760936
000030 e7 5c f3 be e2 cc a0 3e d3 53 c3 be 35 de 13 3f
       -0.47531816 0.31406313 -0.3814989 0.57760936
000040 d3 53 c3 be 06 58 ed 3e 33 61 13 3f 5a cf c2 be
       -0.3814989 0.4635622 0.5757019 -0.38048822
000050 cd a2 ec 3e 5a cf c2 be 87 e5 80 3e 95 6f 9c be
       0.46217957 -0.38048822 0.25175115 -0.3055388
000060 cd a2 ec 3e 95 6f 9c be c3 fc bd 3e b8 33 39 3f
       0.46217957 -0.3055388 0.37106904 0.7234454
000070 32 8e f4 be 20 a0 14 3f 32 8e f4 be bc 88 a1 3e
       -0.47764736 0.5805683 -0.47764736 0.31549633
000080 a3 46 c4 be 21 a0 14 3f a3 46 c4 be 7b 8d ee 3e
       -0.38335142 0.5805684 -0.38335142 0.46592316

encoder.0.weight f4 [60, 118]
000000 89 30 fd bc f7 bc bd 3d 3e 85 f7 3c 49 a0 af 3b
       -0.030906932 0.09264558 0.030214902 0.0053596837
000010 e4 1a b3 3d e2 7b 91 bc 26 59 f4 3c 15 c3 86 3d
       0.08745363 -0.017759267 0.029827666 0.06580178
000020 05 a2 9e bd f1 58 a3 3d 99 b8 5e 3d 00 ce 7a 3c
       -0.077457465 0.079759486 0.054375265 0.015307903
000030 40 88 81 3d e7 71 7c 3d 7e c8 81 bd 3c d0 2a bd
       0.06324816 0.061632063 -0.06337069 -0.041702494
000040 de 9c c6 3d 95 30 61 bd 63 ff d7 bb a7 fc 86 bd
       0.09697889 -0.054977972 -0.0065917238 -0.06591158
000050 d6 c4 3b bc 24 17 e6 bc 29 21 23 3d 2c bc 11 bd
       -0.011460504 -0.028087206 0.039826546 -0.035579845
000060 1b 26 be 3d 97 d1 8b 3d e3 68 d7 3d c7 ac 9f bc
       0.09284612 0.068270855 0.105180524 -0.019491566
000070 97 6c 4b bd e8 a0 97 bd 83 8d ba bd ea a2 82 bc
       -0.049664106 -0.07403737 -0.091090225 -0.015946824
000080 85 3f 94 3d 30 39 40 3d 7d f1 07 bd 37 a3 8c 3d
       0.07238678 0.04692954 -0.033189286 0.06867068
000090 82 00 01 bc 21 16 24 bd 8a 7d 07 3b 82 45 47 bd
       -0.007873656 -0.040060166 0.0020674192 -0.048650272
0000a0 7f f4 1e 3d 4f 28 64 3d 38 b1 d5 3c 03 ad 8f 3c
       0.03880739 0.055702504 0.026085481 0.017538553
0000b0 9e f5 a9 bc 7c e2 04 3d e3 46 88 bd 15 0a a1 bc
       -0.020747002 0.032442555 -0.066541456 -0.019658128
0000c0 52 db 21 bd 26 d3 9b bd 9a da 83 bc 0e 88 71 bc
       -0.0395158 -0.07608633 -0.016095448 -0.014741911
0000d0 99 44 24 bc b2 c8 20 bc 71 f3 07 3c ce ae 94 bd
       -0.010026121 -0.0098134745 0.008297787 -0.07259904
0000e0 5b 6f 3c bd c4 72 e3 3b 13 97 10 3b d0 69 2b bb
       -0.046004634 0.0069411714 0.0022062704 -0.0026155598
0000f0 c0 da cb bb d4 49 c0 bc 7e a9 c7 3d 92 72 19 3d
       -0.0062211454 -0.023472704 0.09749125 0.03746278
000100 ef 76 bb 3d 0f e2 cc 3d 2d 16 87 3d 70 0b 7b bd
       0.09153544 0.10004055 0.065960266 -0.061290205
000110 fd c6 63 3d 7c 38 b5 3d a6 83 ac 3d 25 b6 16 3d
       0.055609692 0.08848664 0.084235474 0.0367948
000120 1f a4 81 3d f5 f6 27 bd c0 a5 36 3d a2 57 a2 bd
       0.06330132 -0.041007 0.044591665 -0.07926871
000130 1b 52 d6 bc 44 57 bf bc 7d 8a a6 bd 37 20 2a 3b
       -0.026162198 -0.023357041 -0.08131883 0.0025959143
000140 70 cc 90 bc ba 48 00 3d 37 a1 1f bd f5 8e 16 bc
       -0.017675608 0.031319357 -0.038972106 -0.009189357
000150 1e f0 8d 3d 70 2f e4 bb 7b f7 a3 bd 69 2e ae 3c
       0.06930564 -0.006963663 -0.080061875 0.021262364
000160 5f 56 bf bd 58 43 af 3d 53 10 c6 3b 23 31 81 3c
       -0.09342646 0.08557767 0.0060444265 0.0157705
000170 9f 82 80 bd 70 f4 c4 3c 24 66 2c 3d 51 3c a7 3d
       -0.06274914 0.024042338 0.042089596 0.08165801
000180 a8 3e 03 3d 00 48 17 39 23 a9 81 3d 07 17 4b bd
       0.032042176 0.00014427304 0.063310884 -0.049582507
000190 f9 6a 65 3d d2 f8 89 3d 4c d3 2d bd a9 b8 0f bd
       0.05601022 0.06736912 -0.042437837 -0.035088215
0001a0 df 12 c0 bb 31 1c 2b 3d d2 e6 33 3c e1 92 75 bd
       -0.0058616246 0.041774932 0.010980325 -0.059954528
0001b0 a0 05 2f 3d 14 6b bf 3c 39 ae 3a bd a7 1e b4 3c
       0.042729974 0.023366489 -0.045576308 0.021987272
0001c0 23 b4 de bc 3e 67 63 bd ac 8a 9b 3d 3c df 0f bc
       -0.027185505 -0.05551838 0.07594809 -0.008781251
0001d0 30 06 55 3d 25 0b 14 bc b4 3f 12 bd e4 ff 8f 3d
       0.052007854 -0.00903586 -0.035705283 0.07031229
0001e0 58 86 c2 3d 5b 68 89 b9 1a 70 8a bb 6e 29 3f bd
       0.0949828 -0.00026208427 -0.0042247893 -0.04667037
0001f0 f3 13 8b bd 61 69 60 3d 97 8f d6 bb 59 86 8f 3d
       -0.067909144 0.054787997 -0.006547879 0.07008047
000200 f3 5f 90 3d d2 c0 31 3d ec 6f fd 3b 6d 85 5c 3d
       0.07049551 0.04339678 0.0077342894 0.053838182
000210 c8 9e c7 bc f9 11 d5 bc 75 57 7e 3d 41 89 fd bc
       -0.024367705 -0.026009547 0.062095124 -0.030949237
000220 52 23 96 3d 2b e5 86 bc 49 ad 64 3d 29 72 9b 3d
       0.073309556 -0.016466698 0.05582932 0.07590134
000230 f3 fb d0 3c 79 95 a4 bc 3a 9a f1 3c 6d f5 4a bd
       0.025510764 -0.020090805 0.029492486 -0.049550463
000240 dc 78 f3 bc b2 c7 b5 bd 43 dc 94 3d 7b 9c 6a bd
       -0.029720716 -0.088759795 0.07268574 -0.057278138
000250 3a af 5f 3c 24 a2 85 3c 25 18 c3 3d 04 e3 f0 3c
       0.013652617 0.016312666 0.095260896 0.029405124
000260 76 d2 03 3d 37 5f 2b bd 06 18 63 3d 1e f3 cc 3d
       0.032183133 -0.04183885 0.055442832 0.100073084
000270 f0 02 46 bd eb df a5 bb d3 5e b5 bd 55 9b ee 3c
       -0.048342645 -0.0050620935 -0.08855977 0.029126802
000280 a4 02 e0 3c 9c 64 6f bc 5e 5d 58 bb 9e db 04 bc
       0.02734501 -0.0146113895 -0.0033014636 -0.008109001
000290 b8 b8 0b bc bb 7a 71 3d b1 b9 b8 3d 3f b8 b6 3d
       -0.008527927 0.058954936 0.09019793 0.08921861
0002a0 59 9b 2f bc 7d 98 9d 3c 43 8d 5f bd 7d 19 81 3d
       -0.01071819 0.019237751 -0.054578077 0.0630369
0002b0 a3 42 80 bd 4c dc 4a 3d d4 be d7 bc c1 b5 a1 3d
       -0.0626271 0.049526498 -0.026336111 0.07895995
0002c0 d3 c8 b9 3d 77 18 14 3b e3 cf b5 3d 96 ad 38 bc
       0.09071507 0.002259759 0.08877542 -0.011271855
0002d0 70 65 9a 3d 80 ec aa 3c d7 9b bc 3d fa 01 9b 3d
       0.07538879 0.020864725 0.092094116 0.075687364
0002e0 66 c0 35 bb ec 35 e3 3c e4 2b 93 3c 06 66 0c bd
       -0.0027733087 0.027735673 0.017965265 -0.034276985
0002f0 eb 30 0c bd 85 26 b3 bc 80 88 6f 3d ae 25 93 3d
       -0.03422634 -0.021868953 0.058479786 0.07184921
000300 11 8a 9f 3d 79 b5 0a bd 80 af 95 bb 7c 34 88 3d
       0.07790006 -0.033864472 -0.0045680404 0.066506356
000310 b6 e3 e3 3c 47 72 2f 3c e6 8a 2e 3c 0f b6 d4 3c
       0.027818542 0.010708398 0.010653233 0.025965719
000320 99 94 77 bd 8f 5f 9c bd f6 2c 93 bd d6 26 38 3d
       -0.06044445 -0.07635414 -0.0718631 0.04495891
000330 8e 71 19 bc 00 cd 16 be b4 85 e4 bb 8c d7 a8 bc
       -0.009365452 -0.14726639 -0.0069739465 -0.020610593
000340 5d 0a 70 3d 35 df d2 3b d1 8e 97 bd 86 2a 8f 3d
       0.058603633 0.0064352998 -0.07400287 0.069905326
000350 a3 7d cf bc fc 65 1c bd 73 d4 52 bd 7c 96 7d bd
       -0.025328463 -0.038183197 -0.05147214 -0.06191109
000360 cf 34 d6 bc 54 ff b3 bd 71 e5 a8 bc 40 7c 38 bd
       -0.026148228 -0.08788934 -0.020617219 -0.04504037
000370 60 ea f9 3d 10 c9 ce bc 65 50 b1 3d 27 6f 46 bd
       0.122029066 -0.025242358 0.08657912 -0.048445847
000380 e2 fa 97 3c bc 3d 21 3d af 20 c6 bc 9f e1 d8 bd
       0.018552247 0.039365515 -0.024185507 -0.10589909
000390 15 0f b2 bc 34 bd 0f 3d 5a 7d 13 bd 53 94 74 3c
       -0.021735707 0.035092548 -0.036008216 0.014927941
0003a0 13 ff a1 3c f9 6d d7 3d e3 d0 2b bd d1 30 8d bc
       0.01977495 0.105190225 -0.041947257 -0.017235192
0003b0 db 75 5c bb d3 db 82 bd 71 02 c3 3b 2a 8d 5d bd
       -0.0033639583 -0.063895844 0.005951219 -0.054089703
0003c0 c3 5f 12 3d 0d b0 e2 bd 67 e9 b7 bd 1c 34 dd 3c
       0.035735857 -0.11068735 -0.08980065 0.027002387
0003d0 1e f3 a0 3d 37 cc dd bc a1 d7 96 bc 44 54 ea ba
       0.07858871 -0.027074916 -0.018413367 -0.0017877896
0003e0 58 9f 59 3d 6f 5c c9 3c 10 f3 06 3c 7d c2 53 3d
       0.053130478 0.024580209 0.008236662 0.05169915
0003f0 ca b8 00 3c 0c ad 72 3c 13 58 78 bc e5 7d 8a 3d
       0.007856557 0.014811765 -0.015157717 0.06762294

encoder.0.bias f4 [60]
000000 48 d2 e1 3c c7 7e af 3d 60 96 f3 b8 6a 3d d5 3c
       0.02756609 0.08569103 -0.000116151525 0.026030261
000010 40 79 89 bd 9b d9 0f 3d b3 e3 c6 bd 1b 1f 06 bd
       -0.0671258 0.035119634 -0.09711399 -0.03274451
000020 10 2a 67 3d b5 37 91 3d aa c6 6a bc 12 45 1c bd
       0.0564366 0.070907034 -0.014329592 -0.038151808
000030 6a ba 3a bd 76 d9 79 3d 01 cc 06 bd 36 eb 8e bd
       -0.045587935 0.060998403 -0.032909397 -0.06978457
000040 b1 63 20 bc 16 c0 8f 3d d2 0d 49 bd 17 48 09 3e
       -0.009789393 0.07019059 -0.049085446 0.13406406
000050 e7 e3 01 bd da a3 5c 3d 49 77 fa bd 8c 6a 88 bc
       -0.031711485 0.0538672 -0.12229783 -0.016652368
000060 f1 d8 c9 3c 1d 08 0f 3c 31 38 43 3d a2 ac 10 bd
       0.024639579 0.008729962 0.04766101 -0.035320885
000070 87 7c b1 bc 0f 8c b3 3d dc b8 2e 3d 9c d7 ac bc
       -0.021665825 0.087669484 0.042656764 -0.021098904
000080 6c 4f 91 3d 7c ae 97 bd a2 70 5a 3c 12 18 ab bd
       0.07095227 -0.07406327 0.013332518 -0.083542004
000090 28 ce 9e 3d b4 f3 f5 3d 97 10 8b bd 38 19 34 3a
       0.07754165 0.12009373 -0.06790274 0.0006870213
0000a0 e3 67 67 bd cb 5b b8 bc 64 7f d9 3c 7e d8 32 bc
       -0.05649556 -0.022504708 0.026550002 -0.010915874
0000b0 86 a6 32 bd 80 8d e2 bc 47 f7 0f 3d dd 7d f9 bc
       -0.04361584 -0.027655363 0.03514793 -0.030455524
0000c0 c9 93 16 bd 22 2e bf bc 51 2d 23 bd 21 11 2b bd
       -0.036762033 -0.023337428 -0.03983814 -0.041764382
0000d0 35 3b 9a bd c7 00 34 bd fd b5 69 bc e3 6c 1d bc
       -0.07530824 -0.043946054 -0.014264581 -0.00960848
0000e0 3c 12 0b 3d 8c b4 bf 3a 70 a8 cb bc 6e 98 82 3d
       0.033952937 0.0014625951 -0.02486059 0.0637673

encoder.2.weight f4 [30, 60]
000000 7a 7a 04 be c3 76 cc 3d 40 ed 47 bd 3e 1d 86 bc
       -0.12937346 0.099835895 -0.048810244 -0.016371366
000010 ae e3 bf bd 26 a8 61 3d 17 6e 80 bd 72 78 bf 3d
       -0.09369598 0.055092 -0.06270998 0.09349145
000020 c1 e4 bd 3d 77 0b 49 bd d9 28 90 3d 53 5d 9b bb
       0.09272147 -0.0490832 0.07039041 -0.0047413497
000030 22 d2 f6 bd 11 d6 9e bd 7b a9 ed 3d 27 16 22 3d
       -0.120517984 -0.07755674 0.116045915 0.039571907
000040 ef 08 f0 bb 80 24 53 bd 66 de da 3d 84 c0 14 bd
       -0.0073252837 -0.05154848 0.106869504 -0.03631641
000050 4b 84 ea 3d 89 a9 02 be ac 8d db bd 3e f3 ea 3c
       0.11451014 -0.12759985 -0.10720381 0.02868044
000060 13 c5 d2 3d 64 6a 4b 3d eb 77 48 bc 81 4d d7 3c
       0.10291495 0.04966201 -0.012235622 0.026282074
000070 92 e1 fa 3d 9a 5a 0d be b2 b7 a9 3c e7 b6 8c bd
       0.122500554 -0.13804093 0.020717476 -0.06870823
000080 d6 a1 4e 3c 4d d3 a9 bb fb d7 c3 bc 47 6c 04 3c
       0.012611827 -0.0051826597 -0.023906698 0.008082456
000090 b7 94 90 3d 34 8e 58 bb 38 50 86 3c 91 07 90 3d
       0.07059615 -0.0033043744 0.016395673 0.07032693
0000a0 96 a1 0f 3e 7d 71 93 bd 90 55 c9 bd d6 80 f1 bd
       0.14026484 -0.071993805 -0.09830773 -0.11792152
0000b0 15 30 e1 bd 6c 8e a6 bc 86 73 59 bd 4c 5a fd bd
       -0.10995499 -0.020331584 -0.053088687 -0.123707384
0000c0 cc 60 8d bd 01 cc 06 3d fe 55 e6 3d 39 70 bf 3d
       -0.06903228 0.032909397 0.112468705 0.09347577
0000d0 ed 46 a4 3d ed e0 3e bd eb 04 90 3c a2 ac 83 3c
       0.080213405 -0.046601225 0.01758047 0.016073529
0000e0 be 1b c6 bd bd 69 12 3e 44 97 02 be d8 b6 ee 3d
       -0.0967326 0.14298148 -0.12753016 0.116559684
0000f0 92 40 c5 bd f5 fb 79 3b 39 77 e3 3d 85 e6 7c bd
       -0.096314564 0.0038144563 0.11106724 -0.061743278
000100 1e 61 d9 3d 8b c3 a7 bd 14 2a af 3d 4c be fb 3d
       0.10614227 -0.08191594 0.08552948 0.122921556
000110 ce 43 e0 3d 87 b9 6f 3d c5 ba 29 3d 38 cb fa 3d
       0.10950433 0.058526542 0.041437883 0.12245792
000120 37 63 0c 3d ba 50 42 bd 56 d9 48 3d b8 56 de bd
       0.034274306 -0.047440268 0.049035393 -0.10856384
000130 1f 17 96 bd ac f6 5a 3b f7 69 0e 3d 71 48 47 bd
       -0.07328629 0.0033411188 0.034769025 -0.04865307
000140 98 fb d0 bd 4d b8 b2 3c 30 e5 0c 3c 0d 9f 3e bc
       -0.10204238 0.021816397 0.008599564 -0.0116346
000150 e3 d8 84 bb cd ea 16 3d da ea b0 3d 17 96 03 3e
       -0.004054175 0.036845017 0.086385444 0.12850223
000160 c8 d2 90 3d 4e 13 42 bd 9c 57 08 3d 7f a6 d5 bd
       0.07071453 -0.04738169 0.033286676 -0.10432147
000170 f9 53 91 3d 08 50 ca bd 74 c4 99 bc f8 1e c1 3d
       0.07096095 -0.09878546 -0.018770434 0.09429735
000180 92 01 59 3d d2 61 f0 bd f2 72 c1 3d 0b f7 c6 3d
       0.052980013 -0.11737408 0.09445752 0.097150885
000190 d6 82 99 3d ac b7 8f 3d 00 94 ab bd 09 66 fd bd
       0.07495658 0.070174545 -0.08377838 -0.12372977
0001a0 ba 2a c4 3d 48 03 e6 bc 8e dc 6f 3d 2f 33 8a 3d
       0.09578462 -0.028077736 0.058559947 0.06748044
0001b0 21 db 8b 3d 2c 65 95 bd fc 1d d3 bd 8d cf 68 bd
       0.06828905 -0.07294688 -0.103084534 -0.05683856
0001c0 38 77 56 bd bf 22 d9 bd 7e 22 bf 3d 38 0d 0c 3e
       -0.05235979 -0.106023304 0.09332751 0.13676918
0001d0 f5 dc 12 bd 51 a6 a6 3d 0e e7 64 3d df 12 63 3d
       -0.035855252 0.08137191 0.055884413 0.05543792
0001e0 2b 4a c4 bc 61 70 98 bd 68 b9 1f bd e8 b6 c5 3c
       -0.023961147 -0.074433096 -0.038995177 0.024135068
0001f0 fe 08 98 3d ec 95 57 3d 3a 9b bc 3d 6b b6 89 bd
       0.0742359 0.05263321 0.092092946 -0.067242466
000200 ab 0c 76 bd 86 63 88 bd 13 7f c8 bd 2c db 02 bd
       -0.060070675 -0.066596076 -0.097898625 -0.0319473
000210 7e 41 87 bd 12 58 7e 3d 30 5d e5 3c a7 a8 da bc
       -0.066042885 0.06209571 0.027998537 -0.026691748
000220 83 09 c2 3d 32 a8 b0 3d 92 d8 ca bd 48 69 14 3b
       0.094744705 0.08625831 -0.09904589 0.002264576
000230 44 00 a7 3c fd 99 a6 3d 84 d7 0c be e8 c6 0f be
       0.020385869 0.0813484 -0.13754088 -0.1404072
000240 44 de 11 be b0 7a ea bb 85 21 10 3e db 0d 66 3d
       -0.14244944 -0.007155739 0.14075287 0.056165557
000250 67 6a 08 be 87 6f eb 3d 8b 00 a5 bd fe 5f bf bd
       -0.1332184 0.114958815 -0.08056744 -0.09344481
000260 26 2e 0a 3e 11 0c 34 3d 44 a9 3d 3d a5 40 e4 3a
       0.13494167 0.04395682 0.046304002 0.0017414285
000270 ce 67 f6 3c 49 f7 87 3c f6 eb ca 3c 3f e6 00 bc
       0.030078795 0.016597407 0.024770718 -0.007867395
000280 c0 b0 0a be fa af 06 3e 4c 65 e0 3d 99 21 89 bb
       -0.13543987 0.13153067 0.10956821 -0.0041849134
000290 64 95 ec bc a9 1e e1 3d 4e ec e5 3d 26 6e 81 3d
       -0.028879829 0.10992176 0.11226712 0.06319837
0002a0 d3 4e a0 3d 25 3a e6 bd f2 b5 4f 3d 93 4c 0e 3e
       0.078275345 -0.11241559 0.050710626 0.13896398
0002b0 ee 89 b0 bd 31 6e 11 3e d5 00 cf bd 1a 04 0c be
       -0.08620058 0.14202191 -0.101075806 -0.1367344
0002c0 d5 08 a1 bd e3 14 d8 bc 10 32 d2 bd 64 0e 6f bd
       -0.07863013 -0.026377147 -0.10263455 -0.058363333
0002d0 48 92 e2 3d 83 5a 93 3d e5 58 b1 bc 42 7a dd bc
       0.11063057 0.07194998 -0.021648834 -0.027035836
0002e0 3a ba 06 be 34 36 0f 3e ba ac 7e bd 73 3b e7 bb
       -0.13156977 0.1398552 -0.062176444 -0.0070566474
0002f0 0b 9c 84 bd 1c a6 bc bd 4d 80 0c be 22 14 f9 bd
       -0.06475075 -0.0921137 -0.13720818 -0.12162043
000300 00 4a cc bb 73 2c 4f 3d 24 0f 97 3d 34 74 d3 bc
       -0.0062344074 0.0505795 0.07375935 -0.025812246
000310 35 d4 71 3c 0e c6 b0 3d 20 5e 8f 3d 42 73 0d 3e
       0.014760067 0.08631526 0.07000375 0.13813499
000320 82 63 0d bd ba 7b bc bc 73 be 94 bc 17 67 99 3d
       -0.034518726 -0.023008216 -0.01815722 0.07490366
000330 56 73 b0 3c e7 ae 10 be a3 3f cb 3d e3 cc 15 bc
       0.021539371 -0.1412922 0.09924247 -0.009143087
000340 b8 62 f6 bd a6 1f 16 3e 63 6b b6 bd 64 90 e6 bb
       -0.12030548 0.1466051 -0.08907201 -0.0070362557
000350 d8 34 86 bd 46 fa a2 bd c1 3e e7 bd 72 e3 a3 3d
       -0.06553048 -0.07957892 -0.11291266 0.08002366
000360 aa d2 89 3d 4c d8 2a bd 5e f6 89 3d fa 3e e6 bd
       0.06729634 -0.041710183 0.06736444 -0.112424806
000370 10 17 4b bd 98 47 d6 3b 2f fb e1 3d cb 53 d6 3d
       -0.04958254 0.0065392964 0.110342376 0.10465201
000380 0b 00 b7 bd 7e d9 3d 3d 56 fc cd bc ac 87 cb 3d
       -0.08935555 0.046349995 -0.025144737 0.09937987
000390 c6 79 92 bd ab c8 fd bd da 8b 39 bd c8 44 91 3d
       -0.07152133 -0.1239179 -0.04529939 0.07093197
0003a0 a1 64 63 bd f5 68 79 3d 25 df 08 be cb 7f ed bd
       -0.05551589 0.06089111 -0.13366373 -0.1159664
0003b0 61 14 1e 3d 0e fc 0b be 65 50 69 3d 79 cb 40 3c
       0.038593654 -0.1367037 0.056961436 0.011767262
0003c0 a8 1c f2 3d 96 17 bd bc c5 14 e9 bc bf af 11 be
       0.11821872 -0.023082536 -0.028452286 -0.14227198
0003d0 64 00 a7 bd a4 07 8b bd 0c 73 14 be 93 0d b2 bd
       -0.081543714 -0.06788567 -0.14497012 -0.08693995
0003e0 d1 6f bd 3d f6 e7 b2 bd 30 94 1f be e1 75 0e be
       0.09249843 -0.08735649 -0.15583873 -0.13912155
0003f0 c8 0a b2 bd 71 20 88 3d 86 99 e2 bd f6 f3 62 bd
       -0.086934626 0.06646813 -0.110644385 -0.05540844

encoder.2.bias f4 [30]
000000 16 fa de bd 46 8f cf bc d7 7c cf 3d c1 da 6e bc
       -0.10887544 -0.025336873 0.10131233 -0.014578522
000010 1d 3c a7 3d 39 de be 3a 67 bc a4 3d 5d d9 f8 3c
       0.081657626 0.0014562077 0.080437474 0.030377084
000020 91 fb 96 3c 9d 8e cf bc 0d 93 73 bd 5e 9a d8 3d
       0.018430503 -0.025336558 -0.05946641 0.10576318
000030 56 c6 57 3d 48 40 e6 3b a7 41 05 3e fa 08 fa 3c
       0.052679382 0.007026706 0.13013326 0.030521858
000040 70 30 09 3b 9d 75 8e 3d 0d 0f 8f 3d b6 8d 9c 3c
       0.0020933412 0.06956027 0.069852926 0.019110542
000050 90 d5 4c 3d 3a 4a 7d 3d 74 d9 dc bc ef 06 96 3d
       0.050008357 0.061838366 -0.026959158 0.07325541
000060 30 7b ab 3d fb 2e dd 3d f7 16 22 3d 9e a0 2a 3d
       0.083731055 0.107999764 0.039572682 0.041657083
000070 fa 23 cc 3d c9 f8 88 3d
       0.099677995 0.06688077

encoder.4.weight f4 [10, 30]
000000 94 58 1a be cb 8e 2f 3e db 72 99 bd 26 e8 5c bd
       -0.15072852 0.17144315 -0.0749261 -0.05393233
000010 d5 12 c8 3d 44 ad d7 3c ee ad 80 bd 4c 4b 16 be
       0.09769217 0.026327737 -0.062831745 -0.14677161
000020 21 e2 19 be 44 c0 1f bd 99 00 84 3d 2e e4 33 be
       -0.15027668 -0.03900172 0.064454265 -0.17567512
000030 36 52 8c 3d 9e 0b 54 3e 3f 91 04 3d 1f fc 30 3e
       0.06851618 0.20707557 0.03236508 0.17283677
000040 dd 33 2d 3d 03 a5 4b be a7 30 f7 bc 8c fc 16 3e
       0.04228579 -0.19887166 -0.030174566 0.14744776
000050 fe 0b 83 bd 40 00 6d bb f7 02 ef bd c4 c5 fb 3d
       -0.06398772 -0.003616348 -0.116704874 0.1229358
000060 b6 63 84 bc 88 78 9c bd 47 4b d9 3d 76 3a 10 3e
       -0.016160827 -0.07640177 0.10610061 0.14084801
000070 73 fb f2 3d 02 cd 63 3c 8a d9 35 3e 8a 4a 92 bd
       0.118643664 0.013903858 0.17758766 -0.071431234
000080 e1 4d 84 bd 2e 95 f9 bd 39 ea 1d 3d 2f 7d 02 be
       -0.06460167 -0.12186657 0.03855345 -0.12743066
000090 1d cc a6 3d 01 c5 a1 3d 8c 76 d8 bd e2 57 ad 3d
       0.081444 0.07898904 -0.10569486 0.08464028
0000a0 83 44 10 bd 3c 4e 2f be da 02 26 3e e3 86 ee bc
       -0.035221588 -0.17119688 0.16212025 -0.029117053
0000b0 27 d7 44 bd 90 a9 89 bd 41 ee fa 3c 1f cb 3a be
       -0.048056748 -0.067217946 0.030631186 -0.18241547
0000c0 81 9e 0b be 80 d5 2d 3e af b6 3b 3e 2d 87 cb bd
       -0.13634683 0.16975975 0.18331407 -0.09937892
0000d0 ad 71 b6 3d 4f f5 69 3d bf 45 0e be c5 1f 3a be
       0.08908401 0.05711871 -0.13893794 -0.18176182
0000e0 45 7c a4 3d 3e fd ab 3d fc de 47 be 52 c4 53 bc
       0.08031515 0.083979115 -0.19518656 -0.012925224
0000f0 0c f2 10 be 18 f0 a8 bd 71 0b 2e bc 7d 14 31 3e
       -0.14154834 -0.08248919 -0.010622845 0.17292972
000100 ff 16 ae 3d ee a6 19 be 01 ff 2d bd 83 d5 44 3e
       0.0850048 -0.15005085 -0.04247952 0.19222073
000110 2f 01 5d bd f5 6b 3d bd 34 66 f0 bc 4c 27 16 be
       -0.053956207 -0.046245534 -0.02934561 -0.14663428
000120 ab 64 04 be 72 b2 06 3e a8 c1 f3 bd e2 df d3 bc
       -0.12929027 0.13154009 -0.119021714 -0.025863592
000130 d0 8d 33 3e 28 01 1b 3e ce 90 1e be 32 69 ce ba
       0.17534566 0.1513716 -0.15484926 -0.0015747903
000140 3b 1c 44 be c9 75 67 bd 44 89 8c bc 0d c2 e6 3c
       -0.19151394 -0.056508813 -0.017155297 0.028168702
000150 44 a2 90 bd 61 6f 3b 3e 90 a2 fb bd af da 1f 3e
       -0.070622 0.18304206 -0.12286866 0.15610765
000160 aa e2 3f 3e cc 62 db 3c bc 1a ed bd 1b 83 40 bb
       0.18738809 0.026780508 -0.11577365 -0.002937502
000170 b8 26 ac 3d c8 c1 f9 3c a6 86 3f 3e 6a 49 35 bd
       0.084058225 0.03048791 0.18703708 -0.044259466
000180 17 59 50 3e 6a 09 2c bd 4c 3a 4a be e3 1d 82 bd
       0.20346485 -0.042001165 -0.19748801 -0.06353357
000190 29 ca a2 3b df f0 14 3e 89 80 26 bd 2d 19 ff 3d
       0.004967947 0.1454501 -0.040649924 0.12455974
0001a0 38 ab 22 3e 12 05 15 3d 88 e5 1c 3d f6 f3 93 bb
       0.15885627 0.03638179 0.038304836 -0.0045151664
0001b0 43 08 13 bd af ca 90 3d 9a f7 3f bd 21 85 05 be
       -0.03589655 0.07069909 -0.04686699 -0.13039066
0001c0 b2 e4 64 3d c8 92 f3 3d a3 af e1 bc c7 27 09 bd
       0.055882163 0.11893231 -0.02754957 -0.0334852
0001d0 7d 35 32 3d 23 bf 26 3e 86 31 08 be f9 6e cf bd
       0.04350804 0.1628385 -0.13300142 -0.10128588
0001e0 34 46 4c 3e 96 5e 41 3c 3d f9 fd bd c0 6a 30 be
       0.19948655 0.011802336 -0.12401054 -0.17228222
0001f0 e3 df d1 bc 4d 80 83 bd c7 ce 3d be 4a 06 19 bd
       -0.025619453 -0.06420956 -0.1853591 -0.037359513
000200 ac bf c8 3d 2f ae 8f 3d 84 e7 fe bd 67 c5 79 3d
       0.098021835 0.07015645 -0.12446502 0.060979273
000210 5f a8 b7 3b 1a d5 12 be 12 4d 2d b7 3c ba 34 bd
       0.005604788 -0.14339104 -1.0329548e-05 -0.04412292
000220 a7 a3 35 be c9 25 11 be 3d b9 8c 3c 9e 2d ad bd
       -0.1773821 -0.1417457 0.017178172 -0.084559664
000230 37 cb 00 be 2c 39 dc 3b f5 38 04 be 38 d7 cc bd
       -0.1257752 0.0067206826 -0.12912352 -0.10001987
000240 b3 08 60 bd a3 de 8b 3d 74 4c ba 3c 6c 6b 7d bc
       -0.054695796 0.06829574 0.022741534 -0.015467506
000250 09 89 37 be 59 73 d5 bb 00 11 32 bd 94 ae d1 3d
       -0.17923369 -0.0065139947 -0.043473244 0.10238376
000260 69 af 8e bd fd f6 0b 3e 58 e9 3b 3d 07 59 6c 3d
       -0.069670506 0.13668437 0.04587683 0.05770209
000270 e4 42 bb 3d 07 4b c4 bd 1b 30 e4 bd 92 1a 71 3d
       0.09143618 -0.09584623 -0.11141988 0.05886323
000280 49 20 0c be 83 e3 c9 bc 50 42 0f be 7f 2e 0e 3e
       -0.13684191 -0.024644619 -0.1399014 0.13884924
000290 59 e1 1b 3e ef cc 1a 3e 87 46 ab 3d 1e 6a 46 be
       0.15222682 0.15117238 0.083630614 -0.19376418
0002a0 70 e4 f3 bd c8 2a 89 bd cb 86 6d 3c 22 10 91 bc
       -0.11908805 -0.06697613 0.014497469 -0.017707888
0002b0 fe ec be 3d fe c6 99 3d 0c 5f 03 3e f6 ae 8b 3d
       0.093225464 0.07508658 0.12829226 0.068204805
0002c0 48 8a 09 be db f8 74 bd ae f1 81 3c 8b a7 3f be
       -0.13431656 -0.05980764 0.015862312 -0.18716256
0002d0 21 3d 83 3d 62 89 ad bd 05 90 34 3d 6d e3 0c 3e
       0.06408144 -0.08473469 0.04408266 0.13758631
0002e0 b6 e1 e5 3d e1 a1 33 be e0 a1 2b 3d 65 aa ba bd
       0.112246916 -0.1754222 0.041902423 -0.091145314
0002f0 d5 81 12 3e 71 9e df 3d 2d 31 41 3e 17 03 8f 3d
       0.1430734 0.10918892 0.18866415 0.06983011
000300 8a 13 78 3d d7 4c 16 bd 08 60 b0 3c b4 09 1c be
       0.06056551 -0.036694374 0.021530166 -0.15238076
000310 49 14 ed bd 77 e3 9f bd 0f 1b 8d 3d 33 8e 0a be
       -0.11576135 -0.07807057 0.06889927 -0.13530807
000320 2f d3 2b be b4 91 fa bd fa 8d 4f 3e d4 b7 bc bd
       -0.16779779 -0.12234822 0.20269004 -0.0921475
000330 1b b1 1a be e4 d4 a8 3d 85 be 4c be a4 bb 12 3e
       -0.15106623 0.08243731 -0.19994552 0.14329392
000340 9a 8c 09 3e 8b 3a fd bb ba be cb bb 4d ad 68 3d
       0.13432541 -0.007727926 -0.0062178047 0.056805898
000350 04 47 f8 bc 3b 97 0b 3d 2e dd c9 bd 95 04 3f 3d
       -0.0303073 0.03407977 -0.0985664 0.04663523
000360 7e e6 a9 3d 53 99 16 3e f5 6e b1 bd b6 66 b6 3d
       0.08295916 0.14706926 -0.086637415 0.08906309
000370 ee 06 ca bd db 4b 10 3e 3d 07 7b 3d 79 a3 5b 3d
       -0.09864603 0.14091437 0.0612862 0.053622697
000380 5e cd be bd 61 56 3d be 84 67 1d be 0d a1 06 be
       -0.093165144 -0.18489982 -0.1537152 -0.13147373
000390 76 d4 d8 bc 57 c3 d5 3c 7f 04 b1 bd 76 f8 a0 bd
       -0.026468497 0.026094122 -0.08643436 -0.0785989
0003a0 78 f2 1d 3e 07 bc 93 3d de 4f 21 be 80 77 b8 3d
       0.15424526 0.07213598 -0.15753123 0.09007168
0003b0 9a a0 e5 3d f3 56 8d bd 47 d0 41 3e 64 c2 0a 3d
       0.11212273 -0.0690135 0.18927108 0.03387679
0003c0 5e 1e 14 3a 00 7c 11 3e b7 d4 ac bd 95 87 94 3d
       0.0005650277 0.14207458 -0.0843901 0.07252423
0003d0 e0 9f 24 bb 1b 9b cd bd 45 02 bc 3d 5b 00 26 be
       -0.0025119707 -0.1003935 0.091801204 -0.16211073
0003e0 f1 19 22 3e 5a 03 8b 3d f5 45 09 be bd fc 8b bd
       0.15830208 0.06787749 -0.13405593 -0.068353154
0003f0 bf a0 53 3e 05 0c 56 3e 00 67 2e 3d a9 4c 25 3e
       0.20666789 0.20903023 0.042578697 0.16142525

encoder.4.bias f4 [10]
000000 1b a4 80 bd 3a b5 8b bd 5e 96 09 3d a7 fd 4b bd
       -0.06281301 -0.068216756 0.033590667 -0.04980245
000010 df 3f 99 3d 7c 65 18 3e 24 d4 f0 bd 29 05 be bd
       0.074828856 0.14882463 -0.117592126 -0.09278328
000020 1e 70 71 bd 4b ef c5 bc
       -0.058944814 -0.024161955

encoder.6.weight f4 [1, 10]
000000 85 09 a6 be 0b d0 21 bd 4c 76 aa 3e d2 ac 76 3e
       -0.32429138 -0.039505046 0.33293378 0.24089363
000010 25 d9 07 be 14 fe 72 bc a4 1b 4a 3e b1 d7 3d 3d
       -0.13266428 -0.014831085 0.19737107 0.046348277
000020 8b 30 b0 be 2c 4b 5b be
       -0.34412035 -0.21415395

decoder.0.weight f4 [10, 1]
000000 bc 46 b7 3e 62 2a 3e bf ef 84 d3 3e e7 e1 64 3f
       0.35796154 -0.7428342 0.41312358 0.894072
000010 df 84 30 bf a9 9a db be 25 6d f1 3e 2e ec 67 3f
       -0.68952745 -0.42891434 0.47153583 0.90594757
000020 9d 04 74 3e 91 51 24 bf
       0.23829885 -0.6418696

decoder.0.bias f4 [10]
000000 ec ff 7f 3f 88 d7 49 be 2e 94 db 3d 8d 63 84 3b
       0.9999988 -0.19711125 0.107216224 0.0040401877
000010 98 f7 92 3e 61 c9 fd be 21 01 f1 39 db a9 41 bf
       0.28704524 -0.49567702 0.00045967943 -0.75649804
000020 ad 71 34 bf 44 15 40 bf
       -0.70485955 -0.7503245

decoder.2.weight f4 [30, 10]
000000 5c fd 94 3d c4 a9 2e be 7d 84 2a be 6c 61 7f 3e
       0.07274887 -0.17056948 -0.16652103 0.24939507
000010 80 19 18 be 95 11 95 bd 87 b4 ba 3b b6 2e 66 be
       -0.14853477 -0.07278744 0.00569779 -0.22478756
000020 55 22 dc b9 b3 09 17 3d d0 fe 7f 3d 7d 3c ee 3d
       -0.0004198725 0.036874484 0.062498868 0.11632631
000030 a2 d6 30 bd a2 bf a9 be d9 b4 01 3e 57 7f a3 3e
       -0.04317344 -0.33154017 0.12666644 0.3193309
000040 7b 7a 06 be 9e 2f 4c 3e 1b 04 8e 3e 58 ef 41 be
       -0.1313266 0.1994004 0.27737507 -0.18938959
000050 df 5e 71 be 60 7e a4 be fb 46 0d 3d a4 0d 28 3e
       -0.23571347 -0.32127666 0.03449152 0.16411453
000060 77 09 a4 be 98 4c a0 3e c0 e3 58 be 9c 18 f1 bd
       -0.3203847 0.31308436 -0.2118063 -0.11772272
000070 45 d7 6c 3d 7d 43 d7 bc 4e 80 97 3e f2 33 8c be
       0.057822485 -0.026277298 0.29590076 -0.2738338
000080 d9 f7 20 3e 52 44 b3 3d 04 09 58 3d b6 db 1e bd
       0.15719546 0.087532654 0.052742973 -0.03878375
000090 bd f6 22 3e de 55 31 bd 01 32 23 3c 78 a8 2d 3e
       0.15914436 -0.04329478 0.009960652 0.16958797
0000a0 83 02 cb bc 77 c3 63 3e 14 7e b3 3d 54 0e 8d be
       -0.024781471 0.22242533 0.08764282 -0.27549994
0000b0 d8 c0 a7 3d 4a 86 cb 3d e3 8e 9f 3e d9 01 f8 bd
       0.08191079 0.09937723 0.311637 -0.121097274
0000c0 60 ed fe bd bd e9 70 3e cf ce 25 3e 3c 88 a2 3e
       -0.124476194 0.23526664 0.16192172 0.31744564
0000d0 66 43 36 3c 54 73 02 3e e4 ee 81 be 0a 8a 8e 3e
       0.0111244675 0.12739307 -0.25377572 0.2783969
0000e0 c8 cf cc bd 37 d0 b8 be 03 67 07 be 74 c0 1a be
       -0.10000569 -0.36096355 -0.1322289 -0.15112478
0000f0 b3 df 9b 3e 3c 93 06 3e f6 85 a3 3e 31 0a 2b be
       0.30444106 0.13142103 0.31938142 -0.16703106
000100 ca 42 1d 3e 26 d4 68 bd 78 16 b7 bb 4d f4 0a 3c
       0.1535751 -0.056842946 -0.0055873953 0.008481097
000110 b5 d9 8b 3c bf 52 9b 3e 1b db ec bc 1f eb d1 bc
       0.017071584 0.30336568 -0.028913071 -0.02562481
000120 73 5a 45 3e 2b bd 50 3e 74 c6 ef 3d fe ed 20 3e
       0.19272785 0.20384662 0.11707774 0.15715787
000130 b8 1d aa 3e a4 1b 98 3e 97 e1 9a bd 7e a3 25 3e
       0.332258 0.29708588 -0.07562559 0.16175649
000140 2f e1 26 bd 39 94 72 be e8 37 8e be 57 a6 84 3e
       -0.040742096 -0.23689355 -0.27777028 0.25908157
000150 7f ca 0d be b7 b5 a9 bd 37 a4 89 be 10 b1 c0 bd
       -0.13846777 -0.082866125 -0.26883098 -0.09408772
000160 8d 0c ad 3e 23 87 93 be eb 3c f8 bd b1 c2 9e bc
       0.33798638 -0.2881404 -0.12120994 -0.019379945
000170 a6 a5 20 be ef 40 49 3e 1b 66 c3 3d cf 87 16 be
       -0.1568819 0.19653676 0.095409594 -0.14700244
000180 df 04 0d be 29 d4 d0 3d d9 9c 90 bd 34 9e ef bd
       -0.1377139 0.10196716 -0.07061166 -0.11700097
000190 b7 e5 3b 3e 65 b0 32 be b8 04 99 be 91 2d 8c be
       0.18349348 -0.17450102 -0.29886413 -0.27378514
0001a0 2f d5 aa 3d 89 1a ac 3c a4 f7 63 3e 59 52 9b 3e
       0.08341443 0.021008747 0.22262436 0.30336264
0001b0 37 7e 8b 3d 2f cb 78 3d a2 11 75 3a f5 30 11 bd
       0.06811183 0.060740646 0.0009348636 -0.03544708
0001c0 cc 4c 43 3e cd c9 1e 3c 1b 84 4e be 64 f4 8f 3d
       0.19072264 0.009691668 -0.20167582 0.07029036
0001d0 49 c6 4f 3d e9 53 97 be 04 82 05 be 16 f2 ea bd
       0.05072621 -0.29556206 -0.13037878 -0.114719555
0001e0 5e 5c a8 bd 52 32 78 3e 75 32 db bd 2b 0e ac 3e
       -0.08220743 0.24237946 -0.10702983 0.3360456
0001f0 21 33 b9 3d 32 83 e3 bd 13 3d 9c bb b8 76 a4 bd
       0.09042955 -0.11109008 -0.004768023 -0.08030456
000200 79 37 4b be 91 e8 bb 3d 7d 0a 58 3e 18 bc a1 bd
       -0.1984538 0.09175218 0.21097751 -0.07897204
000210 56 83 3b be a3 5c 97 be d1 9a 50 3e 5b 48 7e bd
       -0.1831182 -0.29562864 0.20371558 -0.062080722
000220 a9 b6 2a 3e 20 75 8d 3e 8d b3 c6 3c bc a1 fc bd
       0.16671242 0.27628422 0.024255538 -0.12335536
000230 a6 e6 76 3e 72 3e 65 3e 17 3e 59 be 15 f4 95 be
       0.24111423 0.22387102 -0.21215092 -0.29287782
000240 e8 26 60 3c e7 dc 27 3e 7c 8a 19 bd 6c 0d aa 3b
       0.013681151 0.16392861 -0.037485585 0.0051895883
000250 78 5a 2d be cb ca 6b be 1b e3 89 3e b3 50 9a 3e
       -0.16929042 -0.23026578 0.2693108 0.30139694
000260 02 23 3b be 4b 6f 66 3e 66 22 b4 bd b6 f8 82 be
       -0.18275073 0.22503392 -0.087956235 -0.25580376
000270 74 b6 31 3e 32 2a 5a 3d f3 81 6a 3d 21 bc 9c be
       0.17354757 0.053262897 0.057252835 -0.3061228
000280 7d 6c 82 be aa 11 41 3e 84 af ac bd 4f 66 8e be
       -0.25473395 0.18854395 -0.084319144 -0.2781243
000290 0b 24 2a bd b9 2d 9f 3c 6a 51 8f be 37 22 76 be
       -0.04153828 0.019430982 -0.27991802 -0.2403649
0002a0 a1 3f 96 3e 92 e3 89 3d 4a f4 ae bd a1 f7 33 3e
       0.2934542 0.06732859 -0.08542688 0.17574932
0002b0 b0 0d a8 be b3 f4 6b be 63 69 ff 3d f9 dc 31 be
       -0.32822943 -0.23042564 0.12471273 -0.1736945
0002c0 b6 ce 75 bd 53 6d b0 be ea af 12 be e2 ff 04 be
       -0.060011588 -0.34458408 -0.14324918 -0.12988237
0002d0 7e 24 19 bd 23 31 80 3c c7 f8 76 be 11 5a 8a 3d
       -0.037388317 0.01564843 -0.24118339 0.0675546
0002e0 6c 46 7b 3d 5e 02 dc 3d 9a 76 d8 3d d3 f1 38 be
       0.061346456 0.10742639 0.105694965 -0.18060999
0002f0 8f fb b7 3d ed 06 ff 3c 9a 3d e2 3d 43 1d 8a 3e
       0.08983528 0.031131232 0.11046906 0.2697545
000300 f8 ba 96 3c a4 71 70 3d 32 01 d8 bc 62 2e 2d be
       0.0183997 0.058702126 -0.026367757 -0.16912225
000310 94 ae a1 3e 1f 5f 79 bd eb 8e c1 bd 51 0b c7 3d
       0.31578505 -0.06088173 -0.094510876 0.09718955
000320 c4 8f 88 be 27 b3 68 3e c3 9e 9c 3e c8 bc 3b 3e
       -0.26672184 0.22724591 0.30589876 0.18333733
000330 11 b8 33 3d 8f 52 c3 bd dd b1 e3 3d c7 b4 0e 3e
       0.04387671 -0.09537231 0.11117909 0.13936149
000340 ef a4 9d be 09 00 8e be 5a b6 71 be da 64 67 3e
       -0.30789897 -0.27734402 -0.23604718 0.22597066
000350 6e ad da bd fb 97 64 3e c9 5e 88 bd a5 67 d1 bd
       -0.1067761 0.22323601 -0.06658704 -0.10224847
000360 69 90 c1 bd ff df 41 be 29 70 62 be b1 4a 1c bd
       -0.09451372 -0.18933104 -0.22113098 -0.03815717
000370 8e de 92 be 00 92 58 3d 07 5a 56 bd 9b 57 41 3e
       -0.2868542 0.05287361 -0.05233195 0.18881075
000380 04 1d 32 3c 20 98 c9 bd ad 82 8b 3e 9e f5 17 3e
       0.010871176 -0.09843469 0.27248135 0.1483979
000390 82 7a 09 3e 93 9d 2e 3d e6 e6 49 3e 21 9a 07 3c
       0.1342564 0.042630743 0.19716987 0.008276493
0003a0 1d 28 2e be c0 cb cc 3d 6d 3d 04 3d a7 83 85 3d
       -0.1700749 0.099998 0.032285143 0.06519251
0003b0 1e 3a 45 bd 66 f2 56 be fd 9e 67 3d 89 b1 97 be
       -0.048151128 -0.20990905 0.056548107 -0.29627636
0003c0 ee e0 b3 bd ae 66 8c be 89 1b 17 3e 9e 11 11 3e
       -0.08783136 -0.27422088 0.14756598 0.14166877
0003d0 88 15 90 bc 56 58 31 bd 1f a5 38 3e 67 33 9a 3e
       -0.017588392 -0.043297134 0.18031739 0.30117342
0003e0 66 02 5f 3e 58 8d bc 3d 1c 30 9f bd da f4 aa 3d
       0.21778259 0.09206647 -0.07772848 0.08347483
0003f0 e8 a3 68 be db b2 c1 bd 09 7c a4 3e 19 6e 6f be
       -0.22718775 -0.09457942 0.3212588 -0.23381843

decoder.2.bias f4 [30]
000000 9e 86 4d 3e bc ef a7 bc 37 1d e1 bc 52 81 09 be
       0.20070884 -0.020500056 -0.027479751 -0.13428238
000010 f5 83 a3 3e a5 2b 36 be 3e ae 5d 3e 9d 1d 19 3d
       0.31936613 -0.17790087 0.216485 0.037381757
000020 9f 18 50 be 76 29 a4 3d 28 85 90 be b5 49 0e bd
       -0.20321892 0.080157205 -0.2822659 -0.03473826
000030 7b 42 01 3d 6b 9d 9b 3e 37 b1 8f be dd 85 6b 3e
       0.03155754 0.30393538 -0.28064892 0.23000284
000040 a2 e7 03 3d 8e 24 84 bd 3a e1 87 be 24 ab 37 3e
       0.032203324 -0.06452285 -0.26539022 0.17936379
000050 c5 1c ad bd 9f 31 9a be c6 b5 29 be 12 a6 5f 3e
       -0.08452753 -0.30115983 -0.16573247 0.21840695
000060 50 05 a2 bd 97 b5 11 be 48 9b 54 3d 9c df 3e be
       -0.079111695 -0.14229427 0.0519059 -0.18639988
000070 ca 2c 67 be df 43 29 be
       -0.2257568 -0.16529797

decoder.4.weight f4 [60, 30]
000000 e6 72 00 3d f2 6e 0d be b2 d3 25 3e fc 7a 24 bb
       0.031359576 -0.13811854 0.16194037 -0.0025097718
000010 59 55 0f 3e b3 81 31 bc 03 be 80 3c 88 23 27 3e
       0.13997401 -0.010834145 0.015715605 0.16322148
000020 01 24 ae bd ee aa 73 bc af 28 38 be 2b 0a 50 3d
       -0.08502961 -0.014872296 -0.1798427 0.050790947
000030 ff bb b6 bd c0 0e 41 bd e5 ed b7 3d 3c 18 94 3c
       -0.08922576 -0.047133207 0.08980922 0.018077962
000040 62 06 74 bd e4 84 c5 bd ae 2f 1a be 6d c1 ff bc
       -0.0595764 -0.096444875 -0.15057251 -0.031220162
000050 82 9f 3c 3e ef cb 08 be 89 aa e8 3d 64 f3 2d 3e
       0.18420222 -0.13359044 0.11360652 0.16987377
000060 83 f0 03 be 1a 4f 2f bd b0 e2 e5 bd 4e 4c 9a 3d
       -0.12884717 -0.042800047 -0.11224878 0.07534085
000070 77 d1 01 be e5 28 89 3d 75 97 2c bd 8b 33 ab bd
       -0.12677561 0.06697253 -0.04213663 -0.083594404
000080 58 e8 bf bd a2 9f 34 be b0 bc 10 be 5e cb 5e 3c
       -0.09370488 -0.1763902 -0.14134479 0.013598291
000090 d1 46 29 be 1e 36 5c 3d e5 ab f8 bd 58 30 02 be
       -0.1653092 0.053762548 -0.12142161 -0.12713754
0000a0 a1 77 14 be aa 54 46 3d 54 23 bf 3c 83 98 b4 3c
       -0.1449876 0.048420586 0.023332275 0.02204538
0000b0 bb 0a f5 3d b7 8b 3c bd 6a d0 ae bd 0a 9e fe 3c
       0.11964937 -0.04603168 -0.085358456 0.031081218
0000c0 99 61 09 3e b7 e7 5d bd 4b 81 ba bc 43 fe 33 bd
       0.13416137 -0.05417606 -0.02276673 -0.043943655
0000d0 c4 6f 72 bc 6d 90 2b be 1c 97 e6 3d b9 6b 35 3e
       -0.014797155 -0.16754313 0.112592906 0.17716874
0000e0 4f dc 04 3e bc 4f 02 3d df 71 79 3d 16 b9 cb bd
       0.12974666 0.031814322 0.06089961 -0.09947412
0000f0 31 4e 1f 3e 12 e3 6e 3d 15 f6 6b bd cf 2f 18 be
       0.15557171 0.05832202 -0.05760773 -0.14861988
000100 8c 51 bf 3d f4 29 1e 3d 22 f8 0f 3e a0 77 3f bd
       0.09341726 0.03861423 0.14059499 -0.046744943
000110 4e 37 7d 3d 75 ff 0f 3e 1c 07 2b 3b 85 3a 14 be
       0.06182032 0.14062293 0.0026096767 -0.14475448
000120 c6 27 f1 3d f6 6a 6a 3d fd 0a c8 3c c1 6e 53 3c
       0.11775164 0.057230912 0.024419302 0.012904824
000130 08 fb e2 3d f9 99 61 bd 55 19 01 3e 98 0f 1b 3e
       0.11083037 -0.05507848 0.1260732 0.15142667
000140 6d 5e 99 3d 02 6c f5 3c ac b7 07 3d 0b 20 8e bd
       0.074887134 0.029958729 0.033134148 -0.069397055
000150 f4 55 b7 3d 86 98 1c 3e 61 4e 90 3d 55 69 0f be
       0.08951941 0.15292558 0.070461996 -0.14005025
000160 1d 26 9a 3d 2a 73 96 bd c0 a8 84 3d 9c c4 97 3d
       0.07526801 -0.073461846 0.06477499 0.07410547
000170 28 a5 ad 3d d3 59 f8 3b ed 34 dd bc 38 94 11 bd
       0.08478767 0.0075790673 -0.027002776 -0.035541743
000180 ca b8 97 3d 14 23 5c 3d bd 72 b6 3d 1d 8a 3d bd
       0.074082926 0.05374439 0.08908603 -0.046274293
000190 5c 7b 92 bd 0d 4a f9 bd 53 34 59 3e fe 91 e7 3d
       -0.07152435 -0.12172327 0.21211366 0.11307143
0001a0 08 a8 95 bc 26 2c 73 bc e0 f4 11 bd c7 b0 4f 3e
       -0.0182686 -0.014842069 -0.03563392 0.20282279
0001b0 31 99 46 be 5a 36 02 be d7 bc d3 bb 6d d5 10 3e
       -0.19394375 -0.12716046 -0.0064617204 0.14143915
0001c0 9c ac d3 3c 8d a2 13 be 97 8f 5a be 84 80 cd 3c
       0.025839143 -0.14417477 -0.21343838 0.025085695
0001d0 63 1b a0 bd cd f1 fc bd 31 f8 76 3d 9d 2b 19 3e
       -0.078177236 -0.12350807 0.060295288 0.14958043
0001e0 09 38 b7 3d ec 56 b2 3d ca 3a f5 bd 10 de d7 3d
       0.08946235 0.08707985 -0.11974104 0.10540402
0001f0 ef eb 8f bd ad 1b 49 3e 20 55 21 3e e7 40 5e bd
       -0.07027423 0.19639464 0.15755129 -0.054261114
000200 67 f3 79 bd 31 6d 9b bd e9 5e 9f bd 8e 0b de 3d
       -0.061023142 -0.07589186 -0.077817746 0.10842048
000210 ec f2 dd bd cb 62 c7 bd 73 5a 06 3e 55 05 db 3b
       -0.10837349 -0.0973564 0.13120441 0.0066839852
000220 f5 28 21 3e 2f ba 60 3e f3 fd ce bd 16 a6 21 3e
       0.1573828 0.21946023 -0.10107031 0.15786013
000230 e3 e0 06 3d b2 98 2a bc 16 cc 08 3e f9 fc 1c be
       0.032929312 -0.010412382 0.13359103 -0.15330876
000240 66 88 f0 3d 71 46 18 be 42 58 cc bd 5b 9e 3a 3d
       0.11744766 -0.14870621 -0.09977771 0.045561176
000250 95 5b 4a be 57 5a dd bd cb 86 bd 3d 80 22 b4 bd
       -0.19761498 -0.108082466 0.09254225 -0.08795643
000260 cc 54 42 be b0 40 05 3e a5 d1 fc bd 74 53 9b 3d
       -0.1897766 0.13012958 -0.12344674 0.07584277
000270 13 63 0e be 7b 06 43 be 25 9f 06 be fc b8 96 bd
       -0.13904981 -0.19045441 -0.13146646 -0.07359502
000280 f5 c4 1c be 99 11 38 3e fa 78 d3 bd ec f9 42 3e
       -0.15309508 0.17975463 -0.10325809 0.1904065
000290 7f 8e 76 3d fb 2f 03 3e c1 77 c8 bd 04 88 78 bd
       0.06019449 0.12811272 -0.09788466 -0.06067659
0002a0 94 f5 d0 3d 50 43 e9 bd 01 fb 0f 3e dd 63 e2 3d
       0.1020309 -0.11389792 0.14060594 0.11054204
0002b0 7b 7e 0d be ba 8a 4e 3e 22 06 08 3d 5c e1 a7 bd
       -0.1381778 0.20170107 0.033208974 -0.08197281
0002c0 0d 77 65 3c 94 af 52 be 4f 3d 0d 3e 62 31 0b 3e
       0.014005435 -0.2057479 0.13792919 0.13593057
0002d0 d2 ca b7 3d df 5d c7 3d fe c1 9a bd 35 4e 8f bd
       0.08974232 0.09734701 -0.07556532 -0.06997339
0002e0 79 58 6d 3d e2 6c c3 3d 95 53 66 3e 86 fc 23 be
       0.057945702 0.09542252 0.22492822 -0.16014299
0002f0 6a 70 a4 bd b6 d3 b2 bd 1e cd 9e bc 94 84 3b 3e
       -0.08029254 -0.08731787 -0.019384917 0.18312293
000300 72 6b 4d 3d 8b 49 41 3e dd 64 a0 bd 57 13 34 3d
       0.050151296 0.1887571 -0.07831738 0.043963756
000310 8b 7a 2b 3d c6 54 ad bd 94 46 15 3d 10 47 b5 3d
       0.041864913 -0.08463435 0.03644426 0.08851445
000320 45 45 90 3d 07 44 39 3d 35 a6 b1 bd 5a b1 2e 3e
       0.07044462 0.04523089 -0.086742796 0.17059842
000330 0d e3 39 be e2 ee 20 3e 03 c0 81 3d 92 cd f4 3d
       -0.18153019 0.15716127 0.063354515 0.11953272
000340 91 b7 b6 3d b2 88 b0 bc c8 56 c6 3d f4 5c 54 3d
       0.08921731 -0.021549556 0.09684521 0.05184646
000350 83 ae d4 bd c3 ea 16 3d f3 be 87 3d e3 78 2a be
       -0.10384848 0.03684498 0.066282175 -0.16647677
000360 a3 05 f6 3d d3 58 1d 3e eb 3a 44 bd 45 ae 3e be
       0.12012794 0.15365915 -0.04790775 -0.18621166
000370 26 55 3c 3e ab ed 50 bd 4b 2d 03 3e 1a dd 9d bd
       0.18391857 -0.051007908 0.12810247 -0.077081874
000380 db d1 3b be 3d 77 29 be d1 22 65 bb a1 44 06 be
       -0.18341772 -0.16549392 -0.003496338 -0.13112117
000390 09 11 36 bd d4 ea 1b be d6 ac 03 be 5d c2 fb bd
       -0.04444984 -0.15226299 -0.128589 -0.12292931
0003a0 5d de 3f 3d e4 d0 fd bd 3f a9 e0 3d cf 83 74 3c
       0.04684292 -0.12393358 0.10969781 0.014924004
0003b0 3c 44 3c 3e 4a aa b3 3d 43 75 4f 3d e6 3e 05 3e
       0.18385404 0.087727144 0.05064894 0.13012275
0003c0 15 b3 5c 3d 42 56 12 be b4 90 27 bd df 1f 08 be
       0.053881723 -0.14290717 -0.040909484 -0.13293408
0003d0 6a a8 f0 3d a2 09 3a bd b7 01 21 3e 24 cb 63 bc
       0.117508724 -0.045419343 0.1572331 -0.013903413
0003e0 e0 86 39 be 16 62 24 be 2c 9e 28 be 80 95 b9 3c
       -0.18117857 -0.16053042 -0.16466588 0.022654295
0003f0 2b bd 41 ba 98 58 ef 3d c3 60 cd bd d6 b2 0a 3e
       -0.0007390554 0.1168682 -0.100282215 0.13544783

decoder.4.bias f4 [60]
000000 ba 8d ba bd ff b8 e4 3d 38 72 28 3e b7 3d bb 3d
       -0.091090634 0.11168098 0.16449821 0.091426305
000010 a7 cb 23 3e 4b 80 f5 bd 82 ed 99 3d 6b b4 93 3d
       0.15995656 -0.119873606 0.07516004 0.07212146
000020 a9 a5 1b be bf fa ba 3c 3f b0 ee 3d e8 81 41 3d
       -0.15199913 0.022824643 0.1165471 0.04724303
000030 f7 b1 46 3e 8f 17 df bd c0 e5 b2 bd f3 24 0f 3e
       0.19403826 -0.10893165 -0.087352276 0.13978939
000040 d0 66 fa bd 0a 56 0c be b8 c0 27 be 1a 1f 1f 3e
       -0.12226641 -0.13704696 -0.1638211 0.15539208
000050 bc 2e 48 3e 7c 70 06 3e 83 14 92 bd a3 20 b0 bc
       0.19549078 0.13128847 -0.071328185 -0.021499937
000060 05 4d 3c 3e 17 ec 15 3d 58 7e 2a 3d 31 ec 19 3e
       0.18388756 0.036602106 0.041624397 0.15031506
000070 65 6f 03 3e 51 02 54 3d e0 0e df bd 3d 37 1b be
       0.12835462 0.05176002 -0.10891509 -0.1515779
000080 ec 60 10 bd eb df aa bc f5 53 11 3e c9 e6 b6 bd
       -0.035248682 -0.020858726 0.14192183 -0.089307375
000090 ea 41 9f bd 3e a1 f9 bc 08 4b ad bd d7 e5 62 3d
       -0.07776244 -0.030472394 -0.08461577 0.055394974
0000a0 05 63 3e bd 68 da a5 3d 74 81 0d 3e aa ab 2e 3e
       -0.04648115 0.08098298 0.13818914 0.17057672
0000b0 5b e1 0e bb 73 e4 c0 bd 2c 56 a9 3d a0 d1 10 3e
       -0.0021801803 -0.09418573 0.08268389 0.14142466
0000c0 a4 3a c7 bc c3 71 04 3d e2 f6 a3 3d 63 5f ec bd
       -0.024319954 0.032335054 0.080060735 -0.11541631
0000d0 03 23 cd bd cc c0 02 be f2 20 cd 3c 9f aa ba 3d
       -0.100164436 -0.12768859 0.025040124 0.09114575
0000e0 07 8b 36 3e 11 d7 fc 3c 56 79 27 be 38 bf bc 3d
       0.17826472 0.03086427 -0.1635488 0.092161596

decoder.6.weight f4 [118, 60]
000000 24 31 3a 3d 36 64 bb 3d 4f 36 75 3d da a3 d1 37
       0.04545702 0.09149973 0.059866246 2.499104e-05
000010 72 0f c0 bd 0c 09 a2 ba b7 11 dd bc 88 a0 9d 3d
       -0.09377946 -0.0012362315 -0.026985986 0.076966345
000020 8d 49 85 3c 10 63 65 bd 60 f8 31 be 68 c6 7c bd
       0.016270423 -0.056002676 -0.17379904 -0.061712652
000030 96 53 01 bd 23 91 f9 3c d1 ae 1a 3e 0a 5d dc bd
       -0.031573854 0.030464714 0.1510575 -0.10759933
000040 9d ea 9f 3c bd 17 36 bc 11 32 1e 3e 4a 8d 05 bd
       0.019521052 -0.011114058 0.15448786 -0.032605447
000050 4d d8 29 be 23 11 3b 3d 0e 23 df 3b 58 00 d4 3d
       -0.16586418 0.04567064 0.0068095988 0.10351628
000060 f9 5a 2a be 5f 77 33 be 0d 82 29 3d 25 34 19 be
       -0.16636266 -0.17526005 0.04138379 -0.14961298
000070 0e 74 16 bd 65 8b 05 bd 6d 62 98 3d 4e bf 3e 3d
       -0.036731772 -0.03260364 0.07440648 0.04656916
000080 e3 81 5e bd 7c 99 5f bc b1 55 13 bd 08 a7 a1 bd
       -0.05432309 -0.013647433 -0.035970394 -0.07893187
000090 bc e6 e6 bd cd e4 42 bd 62 9d da 3c 4f 2b 22 bc
       -0.11274478 -0.047581483 0.026686374 -0.009898021
0000a0 c1 6f 4c bd 2b 24 5f 3c 62 a1 e0 bd 64 84 db bd
       -0.049911264 0.013619463 -0.10968281 -0.10718611
0000b0 73 35 9f 3d c5 1e 11 3e fd 07 fb bd 4c 98 a0 bc
       0.077738665 0.14171894 -0.12257383 -0.01960387
0000c0 af 0e 50 3d b3 ea 0c 3e 5d f0 23 3d 3c 2a a6 bd
       0.050795253 0.13761406 0.04002415 -0.08113524
0000d0 6c b8 1b be 2b 4c 02 3b 10 07 76 3c a8 5f d3 3b
       -0.1520707 0.0019881825 0.015016332 0.006450612
0000e0 ee 4d 85 3d c3 dd e9 bc c1 18 b5 bd 36 77 07 be
       0.065090045 -0.028548127 -0.08842612 -0.13229069
0000f0 cc 0b 11 3e 76 3c dd bd 49 90 a7 3b 10 d3 ca bd
       0.14164656 -0.10802548 0.0051136357 -0.09903538
000100 4a 92 c6 3d b0 fb 96 3c a1 89 04 3e 55 bb 07 be
       0.09695871 0.01843056 0.12943126 -0.13255055
000110 9f cb a8 3d 0d db e8 3d ca 7d 17 be 02 5a a9 3c
       0.08241963 0.113699056 -0.14794078 0.020672802
000120 bb 6d 4e 3c 1a e5 c4 bd e5 17 f6 bc 19 76 be bc
       0.012599404 -0.0961401 -0.03004069 -0.023249673
000130 41 38 16 3d 78 75 fb 3c 0f f6 0d bd ba b8 9b 3d
       0.03667474 0.030695662 -0.034658488 0.07603593
000140 b5 20 8c 3d 3e fa ba 3d a6 d0 ed 3c b2 ce 06 be
       0.06842176 0.09129761 0.029030155 -0.13164786
000150 fd 33 ca 3d 90 c6 9e bd 50 b4 09 bd 03 66 52 3d
       0.09873197 -0.077527165 -0.033619225 0.051366817
000160 a1 83 1f 3d 19 e9 eb bd 68 fe a0 bd 92 24 e0 3c
       0.03894389 -0.11519069 -0.07861024 0.027361188
000170 45 be 7c 3d 44 e9 84 bd bd b4 00 3e c3 81 9b 3d
       0.061704893 -0.064898044 0.12568946 0.075931095
000180 7a 2c 1c be 01 73 4f bd 11 1b a3 3d 05 85 dc bc
       -0.15251341 -0.050646786 0.07964147 -0.026918897
000190 20 b0 9a bd 41 e2 d1 bc 42 cf d6 3c 27 f5 00 bd
       -0.075531244 -0.025620582 0.026221875 -0.031483795
0001a0 d8 bf 85 bd 36 73 b0 3c c6 ee 80 3d a7 b0 f4 3d
       -0.06530732 0.021539312 0.062955424 0.11947756
0001b0 27 10 58 3d d4 b4 2f 3d 76 17 4f 3d 6f d0 04 3e
       0.05274978 0.04289706 0.050559483 0.12970136
0001c0 88 b3 08 be f2 0e 16 bd 31 a6 8a bd 4f f8 3a bd
       -0.13349736 -0.036635347 -0.0676998 -0.04564696
0001d0 b1 24 b2 3d f2 77 cf 3d d4 83 a2 bd 15 bb 75 bd
       0.086984046 0.101303 -0.079353005 -0.05999287
0001e0 2a 7e 4f 3d 0d b7 83 3d 53 a4 68 3d 01 09 23 3d
       0.05065743 0.064313985 0.056797337 0.03980351
0001f0 91 f5 bc bd d6 69 8d 3d 66 95 dd bd 3a 05 57 bd
       -0.092265256 0.06904952 -0.10819511 -0.05249522
000200 c1 c1 9a ba c9 9f 4e ba 81 0f ae 3c f3 5e ed bd
       -0.0011807011 -0.0007882086 0.021247627 -0.11590376
000210 af e0 02 3e ee 8d a0 bd e8 15 e2 3b 73 e5 06 3c
       0.12781022 -0.07839571 0.006899584 0.008233416
000220 e6 28 cc ba 58 e7 0d bd cb bb aa 3c e9 e6 2d 3d
       -0.0015576154 -0.034644455 0.0208415 0.04245654
000230 9f 82 ab bd 67 d3 c2 3d 58 68 b1 bc 37 a1 d5 3d
       -0.08374523 0.09512978 -0.0216562 0.1043114
000240 77 1f ca bd 4f be 0b 3e 90 be a1 3d 2f bc cf bc
       -0.09869283 0.13646816 0.07897675 -0.025358288
000250 34 8c 9d 3c 9f d4 9c 3d 70 ea d9 bd 97 14 a9 3d
       0.019231893 0.07657742 -0.106404185 0.0825588
000260 dc 7e 68 3d b8 e2 74 bd 22 1d 78 3d b6 0d 4c 3d
       0.056761608 -0.05978653 0.06057466 0.049817763
000270 ce f1 ff 3c 48 be db 3d 05 96 e8 bd 65 91 d6 bc
       0.031243231 0.10729653 -0.11356739 -0.026192376
000280 b8 db 78 3c 37 e5 9d 3d 48 89 ac 3d 66 de 73 bc
       0.015189104 0.07709735 0.08424622 -0.014884567
000290 10 39 a6 bd e7 03 07 be 0a 0f 46 3c f2 5f 2a bd
       -0.081163526 -0.13185082 0.0120885465 -0.041595407
0002a0 8e 30 07 bd 5e 80 c6 3c db 8c 9e 3d 7b dc 3f 3d
       -0.03300529 0.024231132 0.0774171 0.046841126
0002b0 37 d6 2e 3d 72 16 03 bd 9c e1 55 3d 66 87 74 3d
       0.04268476 -0.032003827 0.05221711 0.05969944
0002c0 46 17 79 bd 14 e9 f4 bd 89 42 c4 3c 6e cb 40 bd
       -0.06081321 -0.119585186 0.023957508 -0.047069006
0002d0 c3 52 db 3d f0 dd d5 bd 91 8f 8c bd ec 5c 2e 3d
       0.10709145 -0.10442722 -0.068633206 0.042569086
0002e0 88 e2 b9 bd 50 22 32 bc b9 65 84 3d 1c 6b a1 bd
       -0.090764105 -0.010872439 0.064647146 -0.078817576
0002f0 53 67 44 3d ea a9 da 3d c3 19 cd bd f5 ee d9 3c
       0.0479501 0.1067694 -0.10014679 0.026603201
000300 c9 34 a6 bd 10 4d 9a bd 58 46 ef bd 51 ad 77 3d
       -0.08115537 -0.0753423 -0.11683339 0.06046802
000310 4a 8e 9f 3d d7 bb 9c bd 8c eb bb 3d 02 1b 73 bd
       0.07790811 -0.07653015 0.091757864 -0.05935193
000320 d4 d9 64 3d b2 60 d3 bd e1 9f 03 3e bf f0 e1 bd
       0.0558718 -0.103211775 0.12853958 -0.11032247
000330 11 c4 6d 3d ad 25 53 3d 42 99 1a 3d d9 9a f3 3d
       0.05804831 0.051549602 0.037743814 0.11894769
000340 a3 8d 69 3d c4 c8 94 3d de 73 e7 bd 8e 7a a2 bd
       0.05701984 0.072648555 -0.11301397 -0.07933532
000350 f4 de 6b bc 37 55 08 3e c1 e2 b8 3d d6 08 05 be
       -0.014396418 0.13313757 0.09027625 -0.12991652
000360 b8 de 93 3d 90 90 1f 3b 37 c1 b3 bb 77 7b 06 bd
       0.072202146 0.002434764 -0.0054856795 -0.03283259
000370 8f df 6e 3d b4 44 47 bd ea b3 52 3d 49 aa b1 bd
       0.05831867 -0.048649505 0.05144111 -0.086750574
000380 98 1a 10 bc f3 8c 28 3d c6 82 09 bd 88 f6 f3 3d
       -0.008795403 0.041150045 -0.03357198 0.119122565
000390 b0 3b c5 bd 15 89 5c 3d 88 4a bb 3d 6e 75 e2 bc
       -0.09630525 0.05384167 0.09145075 -0.027643885
0003a0 92 98 4c 3d 8d 04 f3 bd a7 8b 45 bd ec 9d 9e bd
       0.04995019 -0.11866102 -0.048228886 -0.07744965
0003b0 b9 e6 14 3d 4e 17 3f bd 06 84 fe bd 6f e2 00 be
       0.036352847 -0.046653084 -0.12427525 -0.12586378
0003c0 56 4e 0e bc 75 86 dd 3d e5 4e c6 3d 7d 0b 0e bd
       -0.008685669 0.10816661 0.09683017 -0.034678925
0003d0 3a 40 3b bd 69 ee b9 bd 19 d1 b7 3d f1 05 ba bd
       -0.045715548 -0.09078676 0.08975429 -0.090831645
0003e0 05 3d d2 bc 01 33 93 bd 33 4f 18 be 16 64 df 3c
       -0.025663862 -0.071874626 -0.14873962 0.027269404
0003f0 70 46 c4 bd ec b0 d3 bc 45 2f 4d 3d 23 7f 71 3d
       -0.095837474 -0.025841199 0.050093908 0.058959138
