Baseline-models/DAGMM/DAGMM-CHD/no--dagmm/models/41_194_dagmm.pth (torch, 82200 bytes, 22 tensors)

phi f4 [4]
0	0x3cb11305	0.021615515
1	0x3c96b53f	0.018396972
2	0x3f70f848	0.9412885
3	0x3c992ed7	0.018699093

mu f4 [4, 3]
0	0x3ebe40b4	0.3715874
1	0x3faa8aea	1.3323643
2	0xbd19bccb	-0.037533563
3	0x3ec59c04	0.38595593
4	0x3fa978c2	1.3239977
5	0xbce1d87c	-0.027569048
6	0xbdef149c	-0.11673853
7	0x3fce7c36	1.6131656
8	0xbec02a85	-0.3753244
9	0x3eba3934	0.36371768
10	0x3fab19a5	1.3367201
11	0xbd2fdcfe	-0.042935364

cov f4 [4, 3, 3]
0	0x3f6b1d88	0.91841936
1	0xbf06ed7d	-0.5270613
2	0x3f2280b8	0.6347766
3	0xbf06ed7d	-0.5270613
4	0x3e9ae41b	0.30252156
5	0xbeba85a1	-0.36430076
6	0x3f2280b8	0.6347766
7	0xbeba85a1	-0.36430076
8	0x3ee0a26d	0.4387392
9	0x3f66ddf1	0.90182406
10	0xbf049514	-0.51789975
11	0x3f1f983a	0.62341654
12	0xbf049514	-0.51789975
13	0x3e98504a	0.29748756
14	0xbeb7509b	-0.35803685
15	0x3f1f983a	0.62341654
16	0xbeb7509b	-0.35803685
17	0x3edca781	0.43096545
18	0x3f378451	0.71686274
19	0xbed2c47b	-0.41165528
20	0x3efda145	0.495371
21	0xbed2c47b	-0.41165528
22	0x3e722b75	0.2364939
23	0xbe91a9f9	-0.2844999
24	0x3efda145	0.495371
25	0xbe91a9f9	-0.2844999
26	0x3eaf460c	0.3423313
27	0x3f68bd01	0.909134
28	0xbf059497	-0.52179855
29	0x3f20dc8e	0.6283654
30	0xbf059497	-0.52179855
31	0x3e995db4	0.29954302
32	0xbeb8a97d	-0.3606681
33	0x3f20dc8e	0.6283654
34	0xbeb8a97d	-0.3606681
35	0x3ede5e41	0.43431285

encoder.0.weight f4 [60, 118]
0	0xbd04de50	-0.032438576
1	0x3dc2f463	0.09519269
2	0x3cf4bf9a	0.029876519
3	0x3b61d9b0	0.0034462027
4	0x3db31493	0.087441586
5	0xbc9153a3	-0.017740076
6	0x3d00f873	0.03148694
7	0x3d876b50	0.06612265
8	0xbda2363c	-0.07920501
9	0x3da61fc8	0.081115305
10	0x3d62337a	0.055224873
11	0x3c7ed704	0.015554193
12	0x3d838ce9	0.06423361
13	0x3d818914	0.06324974
14	0xbd81c87e	-0.06337069
15	0xbd2562d9	-0.04037747
16	0x3dcc915a	0.09988661
17	0xbd683622	-0.05669225
18	0xbbb10a8f	-0.00540287
19	0xbd843852	-0.06456055
20	0xbc18ea05	-0.009333138
21	0xbcecddd1	-0.028914364
22	0x3d271b0d	0.040797282
23	0xbd0e35b9	-0.034719203
24	0x3dc5c404	0.09656528
25	0x3d8da7ac	0.069167465
26	0x3dd9dcf8	0.106378496
27	0xbca74c1d	-0.020422036
28	0xbd3e8b11	-0.046519343
29	0xbd9472d6	-0.07248466
30	0xbdb941de	-0.09045766
31	0xbc5dcc03	-0.01353741
32	0x3d9691cd	0.07352028
33	0x3d4782e1	0.0487088
34	0xbd063876	-0.03276869
35	0x3d8e896d	0.06959806
36	0xbbc43726	-0.0059880195
37	0xbd240c18	-0.040050596
38	0x3b90d085	0.0044193887
39	0xbd4a2d9e	-0.04935991
40	0x3d2ddb11	0.042445246
41	0x3d633edd	0.055479873
42	0x3cd5b138	0.026085481
43	0x3ca5c2fd	0.02023458
44	0xbcb95fd8	-0.02262871
45	0x3d06808d	0.03283744
46	0xbd87aef7	-0.06625169
47	0xbc902f39	-0.017600643
48	0xbd1a744c	-0.037708566
49	0xbd9bd326	-0.07608633
50	0xbc6308be	-0.013857065
51	0xbc4ecf38	-0.012622647
52	0xbc07b4c9	-0.008282849
53	0xbc030ebd	-0.007999119
54	0x3c1ca690	0.009561196
55	0xbd943cce	-0.0723816
56	0xbd353ce7	-0.044247534
57	0x3bdbb106	0.0067044524
58	0x3b72314b	0.003695565
59	0xbad0020a	-0.0015869748
60	0xbbcbdac0	-0.0062211454
61	0xbcd0d096	-0.025490087
62	0x3dcb6814	0.09931961
63	0x3d197292	0.03746278
64	0x3dc4f8a1	0.09617735
65	0x3dce9b32	0.10088195
66	0x3d832f6f	0.064055316
67	0xbd727d07	-0.059201267
68	0x3d6852ed	0.05671971
69	0x3dc1ddfb	0.094661675
70	0x3dadef37	0.08492892
71	0x3d13fbc0	0.03612876
72	0x3d818faf	0.063262336
73	0xbd274a12	-0.040842123
74	0x3d3f6a4f	0.046732243
75	0xbda0a7f4	-0.078445345
76	0xbccb7117	-0.024834199
77	0xbcc702f7	-0.024293406
78	0xbda93f00	-0.082639694
79	0x3bba79be	0.0056907823
80	0xbc952615	-0.018206635
81	0x3ce01467	0.027353479
82	0xbd1eb34c	-0.03874521
83	0xbbcf7228	-0.006330747
84	0x3d8f3382	0.06992246
85	0xbbe42f70	-0.006963663
86	0xbda54cfd	-0.08071325
87	0x3ccacf32	0.024757002
88	0xbdbe4eb0	-0.09292352
89	0x3db4c7c7	0.08827167
90	0x3ad178c4	0.0015981426
91	0x3c5b1271	0.013371096
92	0xbd7d27f2	-0.061805673
93	0x3ccf9239	0.02533828
94	0x3d1e1cb4	0.038601592
95	0x3da25274	0.07925883
96	0x3d033ea8	0.032042176
97	0x39174800	0.00014427304
98	0x3d74de20	0.059782147
99	0xbd512cdb	-0.051068168
100	0x3d5d528f	0.054033812
101	0x3d8d6ee0	0.06905913
102	0xbd24f262	-0.040270217
103	0xbd0c85bd	-0.03430723
104	0xbbacb1f8	-0.005270239
105	0x3d279465	0.040913004
106	0x3c5f7273	0.013638127
107	0xbd6f8069	-0.05847207
108	0x3d2b9ab8	0.0418956
109	0x3cb2de94	0.02183465
110	0xbd4051a1	-0.046952847
111	0x3cc1def2	0.023665879
112	0xbceaaeb9	-0.028647767
113	0xbd5efc09	-0.05443958
114	0x3d9f8da0	0.07790685
115	0xbbd6e96d	-0.0065585882
116	0x3d560f49	0.05226067
117	0xbc076c3f	-0.008265554
118	0xbd187958	-0.037225097
119	0x3d952714	0.07282844
120	0x3dc0f0f9	0.09420962
121	0xbb0a1323	-0.0021068535
122	0xbb8c506f	-0.0042820494
123	0xbd3e2545	-0.04642226
124	0xbd877138	-0.06613392
125	0x3d6578a2	0.056023248
126	0xbbf48b4e	-0.0074628955
127	0x3d93f9bf	0.0722537
128	0x3d9278be	0.07151936
129	0x3d346a33	0.044046592
130	0x3c0a83f4	0.008454312
131	0x3d6551d5	0.055986244
132	0xbcc79ec8	-0.024367705
133	0xbcc78eb9	-0.024360048
134	0x3d84a9af	0.06477677
135	0xbd05adb8	-0.032636374
136	0x3d98d343	0.0746217
137	0xbc70eeea	-0.014705399
138	0x3d6d8a75	0.05799337
139	0x3d99eedc	0.07516262
140	0x3cd9c7b6	0.026584487
141	0xbc9dfae3	-0.019284671
142	0x3d0a16b7	0.03371307
143	0xbd483b96	-0.04888495
144	0xbce7823e	-0.028260347
145	0xbdb6bc53	-0.08922639
146	0x3d9c6966	0.07637291
147	0xbd623818	-0.055229276
148	0x3c731e57	0.014838777
149	0x3c9ce087	0.019150032
150	0x3dc634c7	0.09678035
151	0x3cfd4052	0.03091446
152	0x3d087d3b	0.033322554
153	0xbd2650ad	-0.040604282
154	0x3d6caa5f	0.057779666
155	0x3dcda025	0.10040311
156	0xbd3b01ed	-0.045656133
157	0xbbaaa92f	-0.0052081565
158	0xbdade27c	-0.08490464
159	0x3cec0a56	0.028813522
160	0x3ce002a4	0.02734501
161	0xbc50a7ff	-0.012735366
162	0xbba76ef2	-0.0051096613
163	0xbbffae23	-0.007802741
164	0xbc050717	-0.008119366
165	0x3d7bde7e	0.061491482
166	0x3dbbc9b2	0.0916933
167	0x3db6b83f	0.08921861
168	0xbc08e09e	-0.008354334
169	0x3cacbaac	0.021085106
170	0xbd57d96e	-0.05269759
171	0x3d83c59b	0.064341746
172	0xbd7a6829	-0.06113449
173	0x3d50021c	0.05078326
174	0xbcc74278	-0.024323687
175	0x3da2b25e	0.07944177
176	0x3dbe63a2	0.09296347
177	0x3b60e133	0.0034313917
178	0x3db5cfe3	0.08877542
179	0xbc591a4d	-0.0132508995
180	0x3d9f3462	0.07773663
181	0x3caaec80	0.020864725
182	0x3dc60130	0.09668195
183	0x3d9c690e	0.07637225
184	0xbb8409bb	-0.0040294803
185	0x3cfb4dee	0.030676808
186	0x3ca2449a	0.019808102
187	0xbce5e568	-0.028063491
188	0xbd08ee0b	-0.03343014
189	0xbcb69ab2	-0.022290561
190	0x3d6f7f84	0.058471218
191	0x3d9439da	0.07237597
192	0x3da3d084	0.079987556
193	0xbd079dd8	-0.033109516
194	0xbb59d687	-0.003323944
195	0x3d8687a4	0.0656884
196	0x3cd8d716	0.026469748
197	0x3c61cbf4	0.013781536
198	0x3c30116d	0.010746342
199	0x3cb40fc5	0.021980176
200	0xbd76f278	-0.06028983
201	0xbd96b1de	-0.07358144
202	0xbd9214e4	-0.07132891
203	0x3d3826d6	0.04495891
204	0xbc23277c	-0.009958144
205	0xbe136dad	-0.14397307
206	0xbbd76bfc	-0.006574152
207	0xbc9498bd	-0.018139238
208	0x3d5eec45	0.054424543
209	0x3b8c9553	0.004290262
210	0xbd95b5a9	-0.073100396
211	0x3d919c09	0.071098395
212	0xbce9e9fd	-0.028553957
213	0xbd252f10	-0.040328085
214	0xbd52d473	-0.05147214
215	0xbd7d967c	-0.06191109
216	0xbcf18435	-0.029481987
217	0xbdb7033a	-0.08936162
218	0xbcb9093f	-0.022587417
219	0xbd31c1d0	-0.043397725
220	0x3dfe4194	0.12414852
221	0xbcc77fdd	-0.024352962
222	0x3db2d94b	0.087328516
223	0xbd4a1c63	-0.049343478
224	0x3caa5741	0.020793559
225	0x3d2869a3	0.041116368
226	0xbccc3099	-0.024925517
227	0xbddc0621	-0.107433565
228	0xbcbd42a1	-0.02310306
229	0x3d13c715	0.03607853
230	0xbd1918d3	-0.03737719
231	0x3c7ba438	0.015358977
232	0x3cb1c9d1	0.021702679
233	0x3ddbe406	0.107368514
234	0xbd2a2700	-0.0415411
235	0xbc85c58c	-0.01632955
236	0xbaeb5f19	-0.0017957418
237	0xbd881444	-0.0664449
238	0x3bcf2226	0.0063212095
239	0xbd56066b	-0.052252214
240	0x3d124590	0.03571087
241	0xbde27b95	-0.11058728
242	0xbdbb0532	-0.0913185
243	0x3cddd081	0.027076961
244	0x3da4d939	0.080492444
245	0xbce4e435	-0.027940849
246	0xbc9c5b0a	-0.01908638
247	0xbaf2538f	-0.0018488037
248	0x3d54e7de	0.05197894
249	0x3cc04cdd	0.023474151
250	0x3c06f310	0.008236662
251	0x3d4ed702	0.050498016
252	0x3ba4ea21	0.005032793
253	0x3c877f35	0.01654015
254	0xbc84df85	-0.016219864
255	0x3d8864b6	0.06659834

encoder.0.bias f4 [60]
0	0x3ce524fd	0.027971739
1	0x3db0593d	0.08610771
2	0xba21f5cb	-0.00061782886
3	0x3cbd61ac	0.023117863
4	0xbd8aa27c	-0.06769273
5	0x3d10c187	0.035340812
6	0xbdc7d5a4	-0.097575456
7	0xbd09287d	-0.03348588
8	0x3d63d796	0.05562552
9	0x3d8f9c96	0.07012288
10	0xbc810a72	-0.015752051
11	0xbd1e3a2b	-0.038629692
12	0xbd361964	-0.044457808
13	0x3d79933d	0.060931433
14	0xbd06b521	-0.03288758
15	0xbd8eca7e	-0.06972216
16	0xbc1b68bb	-0.009485419
17	0x3d908751	0.070570596
18	0xbd478c82	-0.048717983
19	0x3e0c4373	0.13697605
20	0xbd1b34d5	-0.03789218
21	0x3d5fbb05	0.054621715
22	0xbdfd68ad	-0.12373481
23	0xbc911479	-0.017709957
24	0x3cb8676d	0.022510255
25	0x3bf9860d	0.007614857
26	0x3d457a6e	0.04821246
27	0xbd141b75	-0.036158998
28	0xbcb024c5	-0.021501908
29	0x3db58d1b	0.08864804
30	0x3d2bebd8	0.041972965
31	0xbcb7cce0	-0.02243656
32	0x3d9135ea	0.070903614
33	0xbd96a618	-0.073558986
34	0x3c39d507	0.011342294
35	0xbdaaa6c0	-0.08332586
36	0x3d9fa445	0.07795004
37	0x3df93da6	0.12169962
38	0xbd8de58a	-0.06928547
39	0x39a739cc	0.00031895784
40	0xbd67cae0	-0.05658996
41	0xbcb9d5db	-0.022684982
42	0x3cdbc61c	0.026827864
43	0xbbf5b8ce	-0.007498837
44	0xbd35ac69	-0.044353876
45	0xbce073b7	-0.027398927
46	0x3d0f501f	0.03498852
47	0xbcf1f71e	-0.02953678
48	0xbd11cf57	-0.035598125
49	0xbcc1cd67	-0.023657514
50	0xbd2441d5	-0.040101845
51	0xbd26173c	-0.0405495
52	0xbd99fd2b	-0.07518991
53	0xbd34c688	-0.044134647
54	0xbc72357b	-0.014783259
55	0xbc30609c	-0.010765221
56	0x3d09222f	0.033479866
57	0x3a9247c4	0.0011160304
58	0xbcc1c801	-0.02365494
59	0x3d822ad2	0.063558236

encoder.2.weight f4 [30, 60]
0	0xbe068175	-0.13135321
1	0x3dc86c36	0.097862646
2	0xbd3dc2d1	-0.04632837
3	0xbc6f5623	-0.014607939
4	0xbdbc134b	-0.09183367
5	0x3d59383a	0.053032137
6	0xbd761c99	-0.060085867
7	0x3dc30f4d	0.09524403
8	0x3dc0bb6e	0.094107494
9	0xbd423351	-0.04741222
10	0x3d93b15c	0.07211563
11	0xbb197355	-0.002341469
12	0xbdfaa47d	-0.12238405
13	0xbd9f34cd	-0.07773743
14	0x3df27499	0.118386455
15	0x3d1d73af	0.038440403
16	0xbc19ff56	-0.009399256
17	0xbd5d795e	-0.054070823
18	0x3dd6de24	0.10491589
19	0xbd1c2b56	-0.038127266
20	0x3dedda6f	0.116139285
21	0xbe04954c	-0.12947577
22	0xbdd832d3	-0.10556569
23	0x3cf7f2b8	0.030267105
24	0x3dd5d4f6	0.1044101
25	0x3d5315cb	0.051534455
26	0xbc68651e	-0.0141842645
27	0x3ce53c8e	0.027982976
28	0x3dff58de	0.12468122
29	0xbe0f84e9	-0.14015545
30	0x3cb91ee2	0.022597734
31	0xbd898b62	-0.06716038
32	0x3c351feb	0.011054973
33	0xbbd92033	-0.006626153
34	0xbcb3c27a	-0.02194332
35	0x3be9e3da	0.0071377577
36	0x3d8c4fcd	0.06851158
37	0xbba00feb	-0.00488471
38	0x3c94e138	0.018173799
39	0x3d935fe2	0.071960226
40	0x3e11de5b	0.14244978
41	0xbd91664b	-0.07099589
42	0xbdcd1791	-0.100142606
43	0xbdf4cf08	-0.119535506
44	0xbddd6a43	-0.108112834
45	0xbcb757ea	-0.022380788
46	0xbd5e66c9	-0.054297242
47	0xbe007fb4	-0.12548715
48	0xbd9107ff	-0.07081603
49	0x3d0e6f26	0.03477397
50	0x3dec701f	0.11544823
51	0x3dbae737	0.09126132
52	0x3da897a3	0.082320474
53	0xbd46c0a6	-0.048523568
54	0x3c9c173e	0.019054051
55	0x3c926f63	0.017875379
56	0xbdc455af	-0.09586655
57	0x3e141c25	0.14463861
58	0xbe04344a	-0.12910572
59	0x3df232c0	0.11826086
60	0xbdc9442b	-0.09827455
61	0x3b01d8b6	0.0019813008
62	0x3de82e98	0.11337012
63	0xbd762247	-0.060091283
64	0x3ddcee15	0.10787598
65	0xbdabdc02	-0.083915725
66	0x3db3cca9	0.0877927
67	0x3dff1cbc	0.124566525
68	0x3de2ee60	0.11080623
69	0x3d76517b	0.0601363
70	0x3d306b69	0.043071184
71	0x3dff73b7	0.12473243
72	0x3d04ec9e	0.03245222
73	0xbd44da16	-0.048059545
74	0x3d51cff1	0.0512237
75	0xbde0022e	-0.10937916
76	0xbd9a1c4f	-0.07524931
77	0x3a7e5960	0.0009702649
78	0x3d06de26	0.0329267
79	0xbd4e27bb	-0.05033086
80	0xbdcde5f4	-0.10053626
81	0x3ca36807	0.019947065
82	0x3c24fcd7	0.010070047
83	0xbc26df4a	-0.010185072
84	0xbb31890f	-0.002708975
85	0x3d1e1c40	0.03860116
86	0x3dad45e6	0.08460598
87	0x3e05402f	0.13012765
88	0x3d9514e1	0.07279373
89	0xbd4a6f0d	-0.049422313
90	0x3d100dbd	0.03516935
91	0xbdd2b21e	-0.102878794
92	0x3d8e8c0c	0.069603056
93	0xbdccd6fd	-0.10001943
94	0xbc89a540	-0.01680243
95	0x3dbf22aa	0.093327835
96	0x3d50eba4	0.051005974
97	0xbdf37c18	-0.118889034
98	0x3dc4e21b	0.09613439
99	0x3dca3467	0.09873276
100	0x3d9da97e	0.07698344
101	0x3d91456f	0.070933215
102	0xbdaf1fea	-0.08551009
103	0xbe0032f3	-0.12519436
104	0x3dc7d2c4	0.09756997
105	0xbcf5f0a0	-0.030021966
106	0x3d686d76	0.056745015
107	0x3d86bd95	0.06579129
108	0x3d8880f9	0.066652246
109	0xbd91d3f9	-0.07120509
110	0xbdcd6e7f	-0.10030841
111	0xbd721adc	-0.059107646
112	0xbd4e4475	-0.050358254
113	0xbddcdde9	-0.107845135
114	0x3dc23439	0.09482617
115	0x3e0dcb6e	0.13847134
116	0xbd11177b	-0.035422783
117	0x3da9df49	0.082945414
118	0x3d5f17a5	0.05446591
119	0x3d69d812	0.057090826
120	0xbcb3dcc3	-0.021955853
121	0xbd94956b	-0.07255062
122	0xbd29ab63	-0.041423213
123	0x3cb7dd7f	0.022444485
124	0x3d946564	0.07245901
125	0x3d5ff4a8	0.05467668
126	0x3db7d9cf	0.089770906
127	0xbd8d30ad	-0.0689405
128	0xbd7b657d	-0.061376084
129	0xbd8bc51d	-0.06824706
130	0xbdcbd87f	-0.09953403
131	0xbd0c9cc2	-0.034329183
132	0xbd838a31	-0.06422842
133	0x3d807c95	0.06273762
134	0x3cd246cd	0.025668526
135	0xbcd29983	-0.025707966
136	0x3dc634ee	0.09678064
137	0x3db5b717	0.08872812
138	0xbdc70f45	-0.09719709
139	0x3b82d9d3	0.003993252
140	0x3c9a6a3e	0.018849488
141	0x3daaa0b6	0.083314344
142	0xbe0e7806	-0.13912973
143	0xbe11548d	-0.1419241
144	0xbe135002	-0.1438599
145	0xbc134128	-0.008987702
146	0x3e121678	0.14266384
147	0x3d5f4eca	0.0545185
148	0xbe0a943b	-0.13533108
149	0x3def9cf7	0.116998605
150	0xbda892c3	-0.082311176
151	0xbdc26d1a	-0.09493466
152	0x3e0bb04d	0.13641472
153	0x3d393b03	0.045222294
154	0x3d359c56	0.044338547
155	0x3b2fdf49	0.002683597
156	0x3d03abd4	0.03214629
157	0x3c94cb52	0.018163357
158	0x3cbd268a	0.023089666
159	0xbc1b35c3	-0.009473267
160	0xbe0ce0f1	-0.13757683
161	0x3e05bf34	0.1306122
162	0x3de40aae	0.111348495
163	0xbb2da67b	-0.0026496935
164	0xbcfa3f4a	-0.030547757
165	0x3de52b4e	0.111899
166	0x3de8b1d8	0.11362046
167	0x3d84eb65	0.064902104
168	0x3da3d154	0.079989105
169	0xbde9d7de	-0.114181265
170	0x3d4372b9	0.04771683
171	0x3e10a4d2	0.14125374
172	0xbdb4c524	-0.08826664
173	0x3e134a7f	0.14383887
174	0xbdd21834	-0.10258523
175	0xbe0dd36b	-0.13850181
176	0xbda2456a	-0.07923396
177	0xbce589f5	-0.028019885
178	0xbdcf148f	-0.10111343
179	0xbd75f35d	-0.060046542
180	0x3de69683	0.112591766
181	0x3d97067b	0.07374283
182	0xbcc48f40	-0.023994088
183	0xbceaa0f1	-0.028641196
184	0xbe086d6e	-0.13322994
185	0x3e11300d	0.14178486
186	0xbd83f5ac	-0.064433426
187	0xbc0dc0f0	-0.008651957
188	0xbd86e9bc	-0.0658755
189	0xbdbfe50c	-0.09369859
190	0xbe0e0e4d	-0.13872643
191	0xbdfde356	-0.123968765
192	0xbb933cfd	-0.0044933544
193	0x3d5245ac	0.051335976
194	0x3d92977c	0.071577996
195	0xbccd0abd	-0.025029534
196	0x3c88b7f0	0.01668927
197	0x3db58d7f	0.08864879
198	0x3d930418	0.07178515
199	0x3e0f23f4	0.13978559
200	0xbd1335e0	-0.03594005
201	0xbcacc955	-0.021092096
202	0xbca10553	-0.01965586
203	0x3d969089	0.07351787
204	0x3ca61feb	0.020278892
205	0xbe12822f	-0.14307474
206	0x3dceeaad	0.101033546
207	0xbc2eca1d	-0.010668305
208	0xbdfa7a03	-0.12230303
209	0x3e182f1a	0.14861718
210	0xbdb9c169	-0.09070093
211	0xbc0948b6	-0.008379152
212	0xbd83752a	-0.06418832
213	0xbda0c590	-0.07850182
214	0xbdeb28a3	-0.1148236
215	0x3da5322d	0.08066211
216	0x3d8de8f7	0.069292
217	0xbd24ee16	-0.04026612
218	0x3d86c363	0.06580236
219	0xbde94735	-0.11390535
220	0xbd5354a6	-0.0515944
221	0x3bbc79a5	0.005751806
222	0x3de56483	0.11200812
223	0x3dd9446c	0.106087536
224	0xbdba321d	-0.090915896
225	0x3d456c51	0.048199
226	0xbcc22d4c	-0.02370324
227	0x3dcebfee	0.100952014
228	0xbd8f2337	-0.069891386
229	0xbe009bab	-0.12559383
230	0xbd458ff2	-0.04823298
231	0x3d95f196	0.073214695
232	0xbd6b6b63	-0.05747546
233	0x3d8028f0	0.06257808
234	0xbe0a64f0	-0.13515067
235	0xbdf1144d	-0.1177145
236	0x3d1d0fe2	0.038345225
237	0xbe0d8b6a	-0.13822713
238	0x3d6f16eb	0.058371466
239	0x3c26ff18	0.010192655
240	0x3df64aa9	0.12025959
241	0xbcaca0f2	-0.021072838
242	0xbcfd65e8	-0.030932382
243	0xbe138615	-0.14406617
244	0xbdaadae5	-0.08342532
245	0xbd86c690	-0.065808415
246	0xbe1725f7	-0.14760576
247	0xbdb5a538	-0.088694036
248	0x3dbab9f9	0.09117503
249	0xbdb65342	-0.08902599
250	0xbe2168fa	-0.15762702
251	0xbe10e620	-0.14150286
252	0xbdae08b2	-0.08497752
253	0x3d897dbe	0.067134365
254	0xbde74b22	-0.11293627
255	0xbd5ed7f4	-0.054405168

encoder.2.bias f4 [30]
0	0xbdddf8ef	-0.10838496
1	0xbcd2244d	-0.025652075
2	0x3dcf6023	0.101257585
3	0xbc5f8f85	-0.013645058
4	0x3da7acec	0.08187279
5	0x3a15921d	0.00057056715
6	0x3da57c66	0.08080368
7	0x3cf79ff8	0.030227646
8	0x3c97fa3e	0.018551942
9	0xbccdece5	-0.025137374
10	0xbd65e881	-0.056129936
11	0x3dd950b0	0.10611093
12	0x3d58570c	0.05281739
13	0x3bdb295d	0.0066882805
14	0x3e052612	0.13002804
15	0x3cf85851	0.03031555
16	0x3b04b2ce	0.0020248177
17	0x3d8e97d4	0.06962553
18	0x3d8fcaba	0.07021089
19	0x3c94503a	0.018104661
20	0x3d4af4e2	0.049549945
21	0x3d7b55a0	0.061360955
22	0xbccfb84d	-0.025356436
23	0x3d94d216	0.07266633
24	0x3da80a0b	0.082050405
25	0x3ddce9e2	0.10786797
26	0x3d1d75c6	0.038442396
27	0x3d2ccee5	0.042189498
28	0x3dccf46d	0.10007558
29	0x3d89abed	0.06722245

encoder.4.weight f4 [10, 30]
0	0xbe185730	-0.1487701
1	0x3e317d0f	0.17332862
2	0xbd9d63f3	-0.076850794
3	0xbd64b696	-0.05583819
4	0x3dc3ce97	0.09560888
5	0x3ce89eb0	0.02839598
6	0xbd84989c	-0.064744204
7	0xbe185e1e	-0.14879653
8	0xbe17bbad	-0.14817686
9	0xbd172e42	-0.03690935
10	0x3d8046db	0.062635146
11	0xbe35c6ce	-0.17751619
12	0x3d904bad	0.07045684
13	0x3e55f9ad	0.20896025
14	0x3d07f8a1	0.033196095
15	0x3e3309d1	0.17484213
16	0x3d25a472	0.04044003
17	0xbe4d9c3a	-0.20079127
18	0xbd03bca6	-0.03216233
19	0x3e18f99e	0.14938971
20	0xbd7e6b60	-0.06211412
21	0xbae0777d	-0.0017125454
22	0xbdf2d844	-0.11857656
23	0x3dffa295	0.12482182
24	0xbc6b33ec	-0.014355641
25	0xbda0931e	-0.078405604
26	0x3ddd0463	0.10791852
27	0x3e0e3f0a	0.13891235
28	0x3deed2dd	0.11661313
29	0x3c43783f	0.011930524
30	0x3e37dc6a	0.17955175
31	0xbd8e68a7	-0.069535546
32	0xbd884880	-0.06654453
33	0xbdfd8f86	-0.123808905
34	0x3d1541a1	0.03643954
35	0xbe005deb	-0.12535827
36	0x3da2d1ca	0.0795017
37	0x3d9daba1	0.07698751
38	0xbdd44429	-0.10364563
39	0x3db19292	0.08670534
40	0xbd177c02	-0.036983497
41	0xbe3130b2	-0.17303732
42	0x3e27fd67	0.16405259
43	0xbcdee94e	-0.027210858
44	0xbd40dea0	-0.04708731
45	0xbd85762e	-0.065166816
46	0x3cebf9c5	0.028805623
47	0xbe3cc2cf	-0.18433689
48	0xbe0db38b	-0.13838021
49	0x3e2fd056	0.17169318
50	0x3e3d9c55	0.18516667
51	0xbdc7a12d	-0.09747539
52	0x3db2a958	0.08723706
53	0x3d71b7d5	0.059013207
54	0xbe0c6ad5	-0.13712628
55	0xbe3c296c	-0.18375176
56	0x3da84ac6	0.08217387
57	0x3da816d2	0.08207478
58	0xbe49f297	-0.19721447
59	0xbc744760	-0.014909595
60	0xbe12f045	-0.14349468
61	0xbdacbec0	-0.0843482
62	0xbc0eb617	-0.008710406
63	0x3e32fd3e	0.17479417
64	0x3db269bc	0.087115735
65	0xbe1bc6ee	-0.15212604
66	0xbd2640e4	-0.04058923
67	0x3e46ef92	0.19427326
68	0xbd657429	-0.056018982
69	0xbd463823	-0.04839338
70	0xbce21dac	-0.02760204
71	0xbe14480e	-0.14480612
72	0xbe06597e	-0.13120076
73	0x3e04cd78	0.12969005
74	0xbdf5cb6f	-0.120016925
75	0xbce3f217	-0.027825398
76	0x3e3575bf	0.17720698
77	0x3e1cfe63	0.15331416
78	0xbe1c8bb9	-0.15287675
79	0xbb66fd2a	-0.0035246112
80	0xbe45fba5	-0.19334276
81	0xbd6f2dcb	-0.05839328
82	0xbc7a8da4	-0.015292559
83	0x3cd7ada6	0.02632792
84	0xbd944288	-0.07239252
85	0x3e3d7ffd	0.18505855
86	0xbdff4c89	-0.1246577
87	0x3e21d503	0.15803914
88	0x3e41fa8f	0.18943237
89	0x3cebadb9	0.02876936
90	0xbdf10fb7	-0.117705755
91	0xbb9db8e7	-0.004813302
92	0x3db00c00	0.08596039
93	0x3d04acc5	0.03239133
94	0x3e419b31	0.18906857
95	0xbd3da05f	-0.04629552
96	0x3e524b98	0.20536649
97	0xbd23e9ed	-0.04001801
98	0xbe4c68d9	-0.19961871
99	0xbd864304	-0.06555751
100	0x3bdf369d	0.0068119303
101	0x3e16ceea	0.14727369
102	0xbd2e6862	-0.042580016
103	0x3dfb4029	0.12268097
104	0x3e21f6bd	0.1581678
105	0x3d0cd2b6	0.034380637
106	0x3d244543	0.040105116
107	0xbb2cf77f	-0.0026392636
108	0xbd0b01d6	-0.033937298
109	0x3d8cde14	0.068782955
110	0xbd47a7f9	-0.048744176
111	0xbe0773ee	-0.13227817
112	0x3d6c80b3	0.057739925
113	0x3defb2f6	0.11704056
114	0xbcf07dfc	-0.029356949
115	0xbd0122b3	-0.031527232
116	0x3d2ac4d1	0.041691605
117	0x3e28b699	0.16475905
118	0xbe0627fa	-0.13101187
119	0xbdcb7a52	-0.0993544
120	0x3e4e48da	0.20144978
121	0x3c605a56	0.013693413
122	0xbe00f5de	-0.12593791
123	0xbe326075	-0.17419608
124	0xbce2ec16	-0.027700465
125	0xbd7e85d9	-0.062139366
126	0xbe3fc660	-0.18728018
127	0xbd21507b	-0.039383393
128	0x3dcd21a6	0.100161836
129	0x3d93ed82	0.072230354
130	0xbe0154f9	-0.12630071
131	0x3d7233ed	0.05913155
132	0x3bf75d70	0.0075489804
133	0xbe10e611	-0.14150263
134	0x3a0260fc	0.0004973558
135	0xbd2c7a4c	-0.04210882
136	0xbe37839e	-0.17921302
137	0xbe131ac0	-0.14365673
138	0x3c78e4c8	0.015191264
139	0xbda93314	-0.082616955
140	0xbdfdbf59	-0.12390012
141	0x3c0d4e79	0.008624666
142	0xbe0624a7	-0.1309992
143	0xbdc8f4a1	-0.09812284
144	0xbd58a36d	-0.05289023
145	0x3d87c45b	0.06629249
146	0x3cc9456d	0.024569238
147	0xbc8ea69e	-0.017413434
148	0xbe399cc4	-0.18126208
149	0xbc0ae9ee	-0.008478625
150	0xbd2af3ac	-0.04173629
151	0x3dd519e3	0.10405328
152	0xbd922ae2	-0.071370855
153	0x3e0a30fd	0.1349525
154	0x3d3449b4	0.0440156
155	0x3d73f192	0.05955655
156	0x3db7c46c	0.089730114
157	0xbdc7ea3e	-0.09761475
158	0xbde0343e	-0.109474644
159	0x3d7883f3	0.06067271
160	0xbe0dc8ec	-0.13846177
161	0xbcd6f090	-0.026237756
162	0xbe0d7eff	-0.13817976
163	0x3e0fe510	0.14052224
164	0x3e1b0f46	0.15142545
165	0x3e1cb4b4	0.15303308
166	0x3da81f9b	0.08209153
167	0xbe4817b6	-0.19540295
168	0xbdf79018	-0.120880306
169	0xbd85b0c7	-0.06527858
170	0x3c843e23	0.01614291
171	0xbc836f72	-0.016044352
172	0x3dbba2a6	0.09161882
173	0x3d9d3cc0	0.07677603
174	0x3e04fa77	0.1298617
175	0x3d881a02	0.066455856
176	0xbe07e130	-0.13269496
177	0xbd7be242	-0.061495073
178	0x3c669a4b	0.014074872
179	0xbe4166cf	-0.18886875
180	0x3d7ea59d	0.06216966
181	0xbdb145ed	-0.086559154
182	0x3d3c272d	0.0459358
183	0x3e0ec406	0.13941965
184	0x3dea082b	0.11427339
185	0xbe35b71f	-0.17745636
186	0x3d331904	0.04372503
187	0xbdb69f7d	-0.08917139
188	0x3e10625c	0.14100021
189	0x3ddb626f	0.10712134
190	0x3e42f943	0.19040398
191	0x3d92aa4a	0.07161386
192	0x3d705db3	0.05868311
193	0xbd1db2a3	-0.03850044
194	0x3cb1a000	0.02168274
195	0xbe1e032a	-0.15430894
196	0xbde9617d	-0.113955475
197	0xbd9c11ff	-0.0762062
198	0x3d910876	0.07081692
199	0xbe0c80f0	-0.13721061
200	0xbe2db22d	-0.169625
201	0xbdfe560f	-0.12418758
202	0x3e516be7	0.20451318
203	0xbdc06fe8	-0.093963444
204	0xbe1c7499	-0.15278853
205	0x3dacd986	0.08439927
206	0xbe4e8ab2	-0.20170096
207	0x3e14aef1	0.1451986
208	0x3e0b93b6	0.13630566
209	0xbbbee36f	-0.005825452
210	0xbc052412	-0.008126276
211	0x3d6114f4	0.054951623
212	0xbce8e355	-0.028428713
213	0x3d1362df	0.035982963
214	0xbdc5bfe4	-0.09655741
215	0x3d36cb31	0.044627372
216	0x3dadc39d	0.08484576
217	0x3e18939a	0.14900056
218	0xbdb5bcfe	-0.08873938
219	0x3db25f47	0.08709579
220	0xbdc64f90	-0.09683144
221	0x3e1220dd	0.14270349
222	0x3d733814	0.059379652
223	0x3d54031c	0.051760778
224	0xbdbf60a4	-0.093446046
225	0xbe3f665c	-0.18691391
226	0xbe1b9fac	-0.15197629
227	0xbe04c276	-0.12964806
228	0xbcc8cfec	-0.024513207
229	0x3cc6666e	0.024218764
230	0xbdb4cb98	-0.08827895
231	0xbda4c4f6	-0.0804538
232	0x3e1fcd08	0.15605557
233	0x3d8fe477	0.07025998
234	0xbe2321c1	-0.15930845
235	0x3dbc65e4	0.091991216
236	0x3de1ee1b	0.11031743
237	0xbd897e5e	-0.06713556
238	0x3e43d00d	0.19122334
239	0x3d127f04	0.035765663
240	0x3b219412	0.0024654907
241	0x3e1352e7	0.14387093
242	0xbdb09fef	-0.08624255
243	0x3d90d8a7	0.07072573
244	0xbb95bff7	-0.004570003
245	0xbdc97779	-0.09837241
246	0x3db85287	0.09000116
247	0xbe28085f	-0.16409443
248	0x3e241629	0.16024078
249	0x3d8f5909	0.06999404
250	0xbe0af0db	-0.13568442
251	0xbd8f9660	-0.07011104
252	0x3e55852d	0.20851584
253	0x3e57df5a	0.21081296
254	0x3d327b85	0.04357483
255	0x3e273c2a	0.16331545

encoder.4.bias f4 [10]
0	0xbd80c9a1	-0.06288458
1	0xbd8b0548	-0.06788117
2	0x3d094824	0.033516064
3	0xbd4b1034	-0.049576
4	0x3d97d721	0.074140795
5	0x3e154437	0.14576803
6	0xbde9e8ef	-0.11421382
7	0xbdbc2179	-0.09186072
8	0xbd716916	-0.05893811
9	0xbcc51934	-0.02405987

encoder.6.weight f4 [1, 10]
0	0xbea70714	-0.32622588
1	0xbd29fa8b	-0.041498702
2	0x3eab7789	0.33489636
3	0x3e7895fa	0.24275962
4	0xbe09bfd7	-0.13452087
5	0xbc8465c0	-0.0161618
6	0x3e4bff0e	0.19921514
7	0x3d43f950	0.047845185
8	0xbeb12ef7	-0.34606144
9	0xbe5d4ffd	-0.21612544

decoder.0.weight f4 [10, 1]
0	0x3eb7340a	0.3578189
1	0xbf3dbf5e	-0.7412013
2	0x3ed2a3de	0.41140646
3	0x3f647bb8	0.8925128
4	0xbf2ffa9f	-0.6874179
5	0xbedac27b	-0.42726502
6	0x3ef09746	0.46990412
7	0x3f6762a2	0.90384877
8	0x3e722bdc	0.23649544
9	0xbf24b84e	-0.64343727

decoder.0.bias f4 [10]
0	0x3f7fcc3a	0.99921
1	0xbe4b0481	-0.19825937
2	0x3ddbe245	0.10736517
3	0x3bad668b	0.005291765
4	0x3e931469	0.2872651
5	0xbefd8729	-0.49517182
6	0x39f796a0	0.00047223736
7	0xbf41cac4	-0.7570002
8	0xbf347c8a	-0.7050253
9	0xbf3fd95d	-0.74941045

decoder.2.weight f4 [30, 10]
0	0x3d93e5db	0.07221576
1	0xbe2dcad4	-0.16971904
2	0xbe2b1d4e	-0.16710398
3	0x3e7e92be	0.24860665
4	0xbe186b3a	-0.14884654
5	0xbd93cbe9	-0.07216627
6	0x3ba9827a	0.0051730247
7	0xbe6522c6	-0.22376546
8	0x38cd8158	9.799254e-05
9	0x3d19e201	0.03756905
10	0x3d7f80c0	0.062378645
11	0x3ded620b	0.11590966
12	0xbd2fc207	-0.04290965
13	0xbea973b6	-0.33096093
14	0x3e013fba	0.12621966
15	0x3ea37886	0.3192789
16	0xbe0619c1	-0.13095762
17	0x3e4c5b28	0.19956648
18	0x3e8e26e5	0.2776405
19	0xbe41fc75	-0.18943961
20	0xbe70f0d7	-0.23529373
21	0xbea3dfc2	-0.3200665
22	0x3d05e165	0.032685656
23	0x3e25b6d3	0.16183023
24	0xbea1aafb	-0.3157576
25	0x3ea05dd9	0.313216
26	0xbe5bc903	-0.21463399
27	0xbdfa1857	-0.12211674
28	0x3d674680	0.05646372
29	0xbcd92df7	-0.026511176
30	0x3e94fc09	0.29098538
31	0xbe8a79a8	-0.2704594
32	0x3e1d81c0	0.15381527
33	0x3dad7caf	0.08471047
34	0x3d5ed4e9	0.054402266
35	0xbd0d28ce	-0.034462743
36	0x3e1ffe10	0.15624261
37	0xbd2f7317	-0.042834368
38	0x3c8066f5	0.015674094
39	0x3e323bae	0.17405578
40	0xbcc9e63b	-0.024645915
41	0x3e62b2dc	0.22138542
42	0x3db62705	0.08894161
43	0xbe8c2578	-0.27372336
44	0x3d9ee1c7	0.07757907
45	0x3dcaa9d5	0.09895674
46	0x3ea09390	0.3136258
47	0xbdf10a19	-0.11769504
48	0xbdfe2e1b	-0.12411138
49	0x3e70ab65	0.23502882
50	0x3e25bfe0	0.16186476
51	0x3ea1e0fa	0.31616956
52	0x3c4d4c2e	0.01253037
53	0x3e046fd7	0.12933289
54	0xbe83d02c	-0.2574476
55	0x3e8e4ff3	0.2779537
56	0xbdc8cc89	-0.09804637
57	0xbeb5de6c	-0.35521257
58	0xbe06513b	-0.13116924
59	0xbe1afb18	-0.15134847
60	0x3e9be49c	0.30447853
61	0x3e0662da	0.13123646
62	0x3ea3c1f0	0.319839
63	0xbe2ab9dc	-0.16672462
64	0x3e1bfb7a	0.1523265
65	0xbd693909	-0.05693916
66	0xbba1db53	-0.0049394756
67	0x3c1d1b0a	0.009588966
68	0x3c8cc823	0.017185276
69	0x3e9b5388	0.30337167
70	0xbced8160	-0.028992355
71	0xbcc8fd6b	-0.024534902
72	0x3e44290a	0.1915628
73	0x3e4f03e2	0.20216325
74	0x3df68548	0.1203714
75	0x3e215e05	0.15758522
76	0x3ea94691	0.3306165
77	0x3e95a3b7	0.29226467
78	0xbd9c0f98	-0.07620162
79	0x3e25e99f	0.162024
80	0xbd2834ca	-0.04106597
81	0xbe71803a	-0.23584071
82	0xbe8edbb7	-0.27902004
83	0x3e83c917	0.25739357
84	0xbe09d52d	-0.13460226
85	0xbda8957d	-0.082316376
86	0xbe8a9114	-0.2706381
87	0xbdc6b788	-0.097029746
88	0x3ead0017	0.3378913
89	0xbe935362	-0.28774554
90	0xbdf98694	-0.12183872
91	0xbc959f03	-0.0182643
92	0xbe21cb73	-0.15800266
93	0x3e47e11f	0.1951947
94	0x3dc722a6	0.097234055
95	0xbe15b24c	-0.14618796
96	0xbe0e5986	-0.13901338
97	0x3dcafc8a	0.09911449
98	0xbd9036c1	-0.070416935
99	0xbdee1ada	-0.11626215
100	0x3e3bfe54	0.18358737
101	0xbe328618	-0.17433965
102	0xbe992d62	-0.29917437
103	0xbe8c7b9f	-0.27438065
104	0x3db02d44	0.08602384
105	0x3cabdb72	0.020978663
106	0x3e634631	0.22194745
107	0x3e9a7ee3	0.30174932
108	0x3d8afb6e	0.06786238
109	0x3d784ecc	0.06062202
110	0x3a626493	0.00086362025
111	0xbd136267	-0.035982516
112	0x3e442fc3	0.19158845
113	0x3c2fbb91	0.010725872
114	0xbe51eab5	-0.2049969
115	0x3d8fa663	0.070141576
116	0x3d556452	0.052097626
117	0xbe9567bd	-0.2918071
118	0xbe04f240	-0.12983036
119	0xbdeadd66	-0.1146801
120	0xbda8afa2	-0.08236624
121	0x3e773647	0.24141799
122	0xbdd998d1	-0.106248505
123	0x3eacb5c4	0.33732426
124	0x3db64a8b	0.08900937
125	0xbde40124	-0.1113303
126	0xbb72c56f	-0.003704395
127	0xbda299d1	-0.079394944
128	0xbe4a96e4	-0.19784123
129	0x3dbb7515	0.09153191
130	0x3e5816f1	0.21102501
131	0xbda33d92	-0.07970728
132	0xbe3a9d77	-0.1822413
133	0xbe96b087	-0.29431555
134	0x3e4cbb90	0.19993424
135	0xbd7f59a8	-0.062341362
136	0x3e2c1f2b	0.16808765
137	0x3e8f1abb	0.2795008
138	0x3cc98b1f	0.02460247
139	0xbdfce4c0	-0.12348318
140	0x3e776230	0.2415855
141	0x3e631da7	0.2217928
142	0xbe57196a	-0.21005788
143	0xbe94cccc	-0.29062498
144	0x3c381193	0.011234659
145	0x3e264225	0.1623617
146	0xbd10693a	-0.035256602
147	0x3c00ac8e	0.00785364
148	0xbe2a133b	-0.16608898
149	0xbe6d25c5	-0.23158939
150	0x3e89cf87	0.26916143
151	0x3e9ad79e	0.30242628
152	0xbe3bf0a9	-0.18353523
153	0x3e6517d4	0.22372371
154	0xbdb32fe4	-0.08749369
155	0xbe82cbae	-0.2554602
156	0x3e30922b	0.17243259
157	0x3d5abafb	0.053400975
158	0x3d6a9e44	0.05727984
159	0xbe9c8ca7	-0.3057606
160	0xbe817e0d	-0.25291482
161	0x3e413e6b	0.18871467
162	0xbdacca88	-0.08437067
163	0xbe8ec2b6	-0.27882928
164	0xbd24b487	-0.040211227
165	0x3c963669	0.018336492
166	0xbe8f97ac	-0.28045404
167	0xbe7858c6	-0.24252614
168	0x3e94f518	0.29093242
169	0x3d875e37	0.06609767
170	0xbdaf4052	-0.0855719
171	0x3e327bce	0.1743004
172	0xbea73cc1	-0.3266354
173	0xbe69afbc	-0.22820944
174	0x3df6f121	0.120577104
175	0xbe325389	-0.17414679
176	0xbd6c9f3c	-0.057769045
177	0xbead5b03	-0.338585
178	0xbe115b80	-0.1419506
179	0xbe053488	-0.1300832
180	0xbd157259	-0.036486004
181	0x3c6c01e9	0.014404752
182	0xbe75e0dc	-0.24011558
183	0x3d8cad6c	0.06869015
184	0x3d7b2a9b	0.06131993
185	0x3dd9ecc6	0.10640864
186	0x3dda773c	0.106672734
187	0xbe39f176	-0.18158516
188	0x3db64912	0.08900656
189	0x3cf65bec	0.030073129
190	0x3dddb9d8	0.108264625
191	0x3e8b174f	0.2716622
192	0x3c87c24b	0.016572138
193	0x3d699c79	0.05703399
194	0xbccdd7ca	-0.02512731
195	0xbe2ae543	-0.16689019
196	0x3ea0d6d1	0.31413892
197	0xbd7c9126	-0.06166186
198	0xbdbf6348	-0.09345108
199	0x3dcbbbc5	0.099479236
200	0xbe889c18	-0.2668159
201	0x3e6953c4	0.2278586
202	0x3e9c35c8	0.30509782
203	0x3e3aefb4	0.18255502
204	0x3d385b3c	0.045008883
205	0xbdc2aeed	-0.09506021
206	0x3de19f4c	0.110167116
207	0x3e0ddca3	0.13853697
208	0xbe9dc738	-0.30816054
209	0xbe8de423	-0.27713117
210	0xbe722376	-0.2364634
211	0x3e685ead	0.22692366
212	0xbddce985	-0.10786728
213	0x3e631372	0.22175387
214	0xbd817253	-0.06320634
215	0xbdd03c12	-0.101677075
216	0xbdc4b84b	-0.096054636
217	0xbe442f94	-0.19158775
218	0xbe6250fd	-0.22101207
219	0xbd1a6cfd	-0.037701596
220	0xbe92ec94	-0.2869612
221	0x3d5ab7a3	0.053397786
222	0xbd58afea	-0.05290214
223	0x3e4079fd	0.18796535
224	0x3c5248b6	0.012834718
225	0xbdc91b4c	-0.098196596
226	0x3e8b170e	0.27166027
227	0x3e14df64	0.14538342
228	0x3e095191	0.13410021
229	0x3d2f447e	0.04278993
230	0x3e490d6e	0.1963403
231	0x3c0a3fa1	0.008438022
232	0xbe2e3762	-0.17013314
233	0x3dcde6e3	0.10053804
234	0x3ced6131	0.028977009
235	0x3d86dbbb	0.06584879
236	0xbd430d61	-0.04762018
237	0xbe5489a0	-0.20755625
238	0x3d6c1698	0.057638735
239	0xbe974db9	-0.29551485
240	0xbdb4fa90	-0.088368535
241	0xbe8b99b9	-0.2726572
242	0x3e155624	0.14583641
243	0x3e0eeaac	0.13956708
244	0xbc6100c0	-0.013733089
245	0xbd2d97f7	-0.042381253
246	0x3e365d36	0.17808995
247	0x3e9847b7	0.29742214
248	0x3e5ed81e	0.2176213
249	0x3dbe15b0	0.0928148
250	0xbd9e215c	-0.077212065
251	0x3da7e5ae	0.08198105
252	0xbe672949	-0.22574343
253	0xbdbea0cb	-0.093080126
254	0x3ea3e8e5	0.32013622
255	0xbe707045	-0.23480327

decoder.2.bias f4 [30]
0	0x3e4d0957	0.20023094
1	0xbca99a6f	-0.020703522
2	0xbcdbf1c9	-0.02684869
3	0xbe0ed8ce	-0.13949892
4	0x3ea3874f	0.3193917
5	0xbe367afd	-0.17820354
6	0x3e5db566	0.2165123
7	0x3d1972a7	0.037462857
8	0xbe5056f6	-0.20345673
9	0x3da3132f	0.07962643
10	0xbe90770d	-0.2821583
11	0xbd0ee9ca	-0.034890927
12	0x3cff7976	0.031185847
13	0x3e9b9892	0.3038984
14	0xbe90218b	-0.2815059
15	0x3e6b754b	0.22993962
16	0x3d0cacc8	0.034344465
17	0xbd850a91	-0.06496156
18	0xbe8773d0	-0.26455545
19	0x3e35a369	0.17738117
20	0xbdad185f	-0.08451914
21	0xbe9a60e5	-0.3015205
22	0xbe29c3b5	-0.16578563
23	0x3e5ebcf0	0.21751761
24	0xbda2bf59	-0.07946653
25	0xbe1166c7	-0.14199363
26	0x3d5490f8	0.051896065
27	0xbe3e6fb5	-0.185973
28	0xbe670a8e	-0.2256262
29	0xbe29aa5d	-0.16568895

decoder.4.weight f4 [60, 30]
0	0x3cfd87be	0.030948516
1	0xbe0d2f60	-0.13787603
2	0x3e26eefe	0.16302106
3	0xbb221a95	-0.0024735082
4	0x3e0e85a5	0.13918169
5	0xbc3bb9cc	-0.011457872
6	0x3c72b09e	0.014812617
7	0x3e2810a3	0.16412596
8	0xbdacc6e9	-0.084363766
9	0xbc7a083e	-0.015260754
10	0xbe3778a9	-0.17917122
11	0x3d4d917b	0.05018757
12	0xbdb8fc3d	-0.09032486
13	0xbd42eef7	-0.047591176
14	0x3db75760	0.08952212
15	0x3c90fd6f	0.017698972
16	0xbd73bfda	-0.059509136
17	0xbdc72e25	-0.09725598
18	0xbe19fb0b	-0.15037172
19	0xbd02471b	-0.031806093
20	0x3e3d0f4e	0.1846287
21	0xbe08aae3	-0.13346438
22	0x3dea9af8	0.11455339
23	0x3e2d3d99	0.16918029
24	0xbe02ddbb	-0.12779896
25	0xbd30cdba	-0.043164946
26	0xbde4c939	-0.11171193
27	0x3d9b5d2c	0.075861305
28	0xbe00c816	-0.12576327
29	0x3d8ab6fe	0.06773184
30	0xbd1d9ec4	-0.03848149
31	0xbdb1e471	-0.0868615
32	0xbdc8671f	-0.09785294
33	0xbe31bde3	-0.17357592
34	0xbe10ba7a	-0.14133635
35	0x3c3bc0d2	0.011459546
36	0xbe24e199	-0.16101684
37	0x3d5faac1	0.054606203
38	0xbdfac7fc	-0.12245175
39	0xbdfd18e7	-0.12358265
40	0xbe187845	-0.14889629
41	0x3d556cf5	0.052105863
42	0x3ccc5024	0.024940558
43	0x3cd8b605	0.026453981
44	0x3df052b2	0.11734523
45	0xbd2cc5e4	-0.04218091
46	0xbdb50e85	-0.0884066
47	0x3cf45870	0.029827327
48	0x3e0577fe	0.13034055
49	0xbd4c63d2	-0.049899884
50	0xbca68a4f	-0.020329623
51	0xbd43ce20	-0.047803998
52	0xbc99546a	-0.01871701
53	0xbe275e36	-0.16344532
54	0x3de656b4	0.11247006
55	0x3e3306c8	0.17483056
56	0x3e00cde8	0.12578547
57	0x3ce3f5bf	0.027827142
58	0x3d696913	0.056984972
59	0xbdc8938b	-0.097937666
60	0x3e1fb52f	0.1559646
61	0x3d6fb1b8	0.058519095
62	0xbd7016d1	-0.05861551
63	0xbe1b9508	-0.1519357
64	0x3dc1cd62	0.09463002
65	0x3d241628	0.040060192
66	0x3e10f418	0.14155614
67	0xbd444197	-0.047914114
68	0x3d783559	0.06059775
69	0x3e107bf0	0.14109778
70	0x3af61c76	0.0018776793
71	0xbe13bd85	-0.14427765
72	0x3df37c52	0.118889466
73	0x3d6daf10	0.05802828
74	0x3cda712a	0.026665289
75	0x3c5c1b87	0.013434297
76	0x3de4e2e8	0.111760914
77	0xbd5c7bc5	-0.053828973
78	0x3e0090a3	0.12555175
79	0x3e1bd2a8	0.15217078
80	0x3d92c17d	0.07165811
81	0x3cf1b677	0.029505951
82	0x3d03f9a7	0.03222051
83	0xbd8c8ebb	-0.06863161
84	0x3db50bf4	0.088401705
85	0x3e1efae5	0.15525396
86	0x3d8f0f14	0.06985298
87	0xbe1022b6	-0.14075741
88	0x3d97eb08	0.074178755
89	0xbd9921e0	-0.07477164
90	0x3d84e95f	0.064898245
91	0x3d96a418	0.07355517
92	0x3db3d505	0.087808646
93	0x3c0bc30d	0.00853039
94	0xbd02527c	-0.031816944
95	0xbd1cc39d	-0.03827249
96	0x3d923559	0.071390815
97	0x3d6defdb	0.058090072
98	0x3dc28125	0.094972886
99	0xbd3b2faa	-0.045699753
100	0xbd90d622	-0.070720926
101	0xbdf9ca4e	-0.1219679
102	0x3e545fad	0.20739622
103	0x3de6bd78	0.11266607
104	0xbca3aa1c	-0.019978575
105	0xbc70dd62	-0.014701219
106	0xbd1559ff	-0.03646278
107	0x3e4c4a8a	0.1995031
108	0xbe46ec11	-0.1942599
109	0xbe025d90	-0.12731004
110	0xbba99b26	-0.005175966
111	0x3e1068bf	0.14102457
112	0x3ce596fa	0.028026093
113	0xbe1449a9	-0.14481224
114	0xbe54d119	-0.2078289
115	0x3cbf7a18	0.023373649
116	0xbd9f9af4	-0.07793227
117	0xbdfba703	-0.12287714
118	0x3d860cfd	0.06545446
119	0x3e1c742c	0.15278691
120	0x3db76b01	0.08955956
121	0x3db19add	0.08672116
122	0xbdf2ebf9	-0.118614145
123	0x3dd96e38	0.10616726
124	0xbd97a6b9	-0.07404847
125	0x3e460a05	0.1933976
126	0x3e20424e	0.15650293
127	0xbd4bcd02	-0.049756058
128	0xbd6e96a9	-0.05824915
129	0xbd9a5025	-0.075348176
130	0xbd9e406e	-0.07727133
131	0x3ddd62e6	0.10809879
132	0xbde3b334	-0.11118165
133	0xbdc73660	-0.09727168
134	0x3e04e38b	0.12977426
135	0x3be32d18	0.006932866
136	0x3e2081b2	0.15674475
137	0x3e5d312f	0.21600793
138	0xbdcfff7e	-0.10156153
139	0x3e21cc45	0.15800579
140	0x3d0bdeb4	0.034147933
141	0xbc34b8ef	-0.01103042
142	0x3e0a05ee	0.13478824
143	0xbe1d50f6	-0.15362915
144	0x3dfa7eea	0.12231238
145	0xbe19cf2e	-0.15020439
146	0xbdcc2c01	-0.099693306
147	0x3d3bedb7	0.045881
148	0xbe48e7a7	-0.19619618
149	0xbdd6447c	-0.10462281
150	0x3dbd314d	0.09237919
151	0xbdb44738	-0.088026464
152	0xbe40ca87	-0.18827258
153	0x3e058805	0.13040169
154	0xbe00e949	-0.12588991
155	0x3d9895a6	0.07450418
156	0xbe0fe116	-0.14050707
157	0xbe40d3be	-0.18830773
158	0xbe036eaf	-0.12835191
159	0xbd96526b	-0.07339939
160	0xbe1c01b3	-0.15235023
161	0x3e379c95	0.17930825
162	0xbdda9472	-0.10672845
163	0x3e42a484	0.1900807
164	0x3d738ead	0.059462238
165	0x3e0315a2	0.12801221
166	0xbdc8f9fe	-0.09813307
167	0xbd7f4349	-0.062320028
168	0x3dd0ebb9	0.102012105
169	0xbde9ad82	-0.11410047
170	0x3e106b21	0.14103366
171	0x3de234df	0.110452406
172	0xbe0bf0f0	-0.13666129
173	0x3e4df620	0.2011342
174	0x3d133f4e	0.035949044
175	0xbda95a67	-0.08269196
176	0x3c6b4962	0.014360758
177	0xbe5210db	-0.20514242
178	0x3e0f4cf7	0.13994204
179	0x3e0cc70c	0.13747805
180	0x3db8c817	0.09022539
181	0x3dc5b9d8	0.096545875
182	0xbd981df6	-0.074275896
183	0xbd8cf453	-0.06882539
184	0x3d5c138d	0.053729583
185	0x3dbdd419	0.0926897
186	0x3e6523b5	0.22376902
187	0xbe1ff182	-0.15619472
188	0xbd9acbb3	-0.07558384
189	0xbdb0db95	-0.08635632
190	0xbc9cea7b	-0.019154778
191	0x3e3ba35b	0.18324034
192	0x3d41c764	0.047309294
193	0x3e418675	0.18898948
194	0xbda41abe	-0.08012913
195	0x3d365b4e	0.04452067
196	0x3d2731b1	0.040818874
197	0xbdb3f022	-0.08786036
198	0x3d124670	0.035711706
199	0x3db62446	0.08893637
200	0x3d93234e	0.07184468
201	0x3d35f84d	0.04442625
202	0xbdaf5f78	-0.08563131
203	0x3e2ea804	0.1705628
204	0xbe355178	-0.17706859
205	0x3e1f18a5	0.15536745
206	0x3d814781	0.063124664
207	0x3df4ed0f	0.11959278
208	0x3dbab207	0.09115987
209	0xbc9758b5	-0.018474916
210	0x3dc538a7	0.09629946
211	0x3d578d65	0.05262508
212	0xbdd50037	-0.104004316
213	0x3d122032	0.035675235
214	0x3d8c4636	0.06849329
215	0xbe26129c	-0.16218036
216	0x3df64a8d	0.12025938
217	0x3e198fca	0.14996257
218	0xbd48ac4c	-0.04899244
219	0xbe3fb279	-0.18720426
220	0x3e3c6a55	0.18399937
221	0xbd51bb41	-0.05120397
222	0x3e041a6d	0.12900706
223	0xbd9f055b	-0.07764693
224	0xbe39ae53	-0.18132906
225	0xbe2a2c30	-0.16618419
226	0xbb1e15de	-0.002412192
227	0xbe01f87f	-0.1269245
228	0xbd325128	-0.043534428
229	0xbe1c8c45	-0.15287884
230	0xbe058499	-0.13038863
231	0xbdf9aabf	-0.1219077
232	0x3d3ed001	0.046585087
233	0xbdfe5445	-0.12418417
234	0x3ddb95e4	0.10721949
235	0x3c8c426a	0.017121512
236	0x3e3cae1e	0.18425795
237	0x3db4237d	0.08795831
238	0x3d4e8c48	0.05042675
239	0x3e00c59b	0.1257538
240	0x3d5d6f69	0.054061327
241	0xbe1297fe	-0.14315793
242	0xbd27f034	-0.04100056
243	0xbe07ce50	-0.13262296
244	0x3def2bdf	0.116782896
245	0xbd468772	-0.048469014
246	0x3e210c2d	0.15727301
247	0xbc43f5bf	-0.011960446
248	0xbe396e85	-0.18108566
249	0xbe23db16	-0.16001543
250	0xbe28a0d8	-0.16467607
251	0x3cb99e7f	0.022658585
252	0xba828cd8	-0.0009960188
253	0x3deff5a9	0.11716778
254	0xbdcf4b0d	-0.10121737
255	0x3e0aff02	0.1357384

decoder.4.bias f4 [60]
0	0xbdbba66c	-0.09162602
1	0x3ded6a45	0.11592535
2	0x3e2941da	0.16529027
3	0x3dba9623	0.091106676
4	0x3e23d177	0.15997873
5	0xbdf626ef	-0.12019145
6	0x3d9a7b4e	0.0754305
7	0x3d929d9f	0.0715897
8	0xbe1b5c2e	-0.15171883
9	0x3cb3e1e9	0.021958308
10	0x3df02b52	0.11727013
11	0x3d3f257b	0.046666604
12	0x3e46eb5d	0.19425721
13	0xbde13075	-0.109955706
14	0xbdb3be60	-0.087765455
15	0x3e12b8a9	0.14328255
16	0xbdf8c762	-0.12147404
17	0xbe0cb7ef	-0.1374204
18	0xbe294cad	-0.16533156
19	0x3e1f6dbe	0.15569207
20	0x3e463ec7	0.19359885
21	0x3e054bbe	0.13017175
22	0xbd937418	-0.071998775
23	0xbcb3f720	-0.021968424
24	0x3e3c0c0c	0.1836397
25	0x3d182139	0.03714106
26	0x3d2d440e	0.04230123
27	0x3e197ab2	0.14988211
28	0x3e03b0c5	0.12860401
29	0x3d57238f	0.052524146
30	0xbde0558e	-0.10953818
31	0xbe1bd61f	-0.152184
32	0xbd16b37a	-0.036792256
33	0xbca6f790	-0.020381719
34	0x3e124add	0.1428637
35	0xbdb824ba	-0.0899138
36	0xbda01371	-0.07816208
37	0xbcf679e4	-0.030087419
38	0xbdad9411	-0.08475507
39	0x3d653dcc	0.055967137
40	0xbd405035	-0.04695149
41	0x3da30afa	0.07961078
42	0x3e0dd477	0.1385058
43	0x3e2ecf57	0.17071281
44	0xbb8d2ec7	-0.004308555
45	0xbdbeeebf	-0.09322881
46	0x3daafb05	0.083486594
47	0x3e101c26	0.14073238
48	0xbcc4e5c8	-0.02403535
49	0x3d030147	0.03198364
50	0x3da4294d	0.0801569
51	0xbdeb938a	-0.1150275
52	0xbdd15d38	-0.10222858
53	0xbe01515b	-0.12628691
54	0x3cca8eb4	0.02472625
55	0x3dbbc73e	0.09168862
56	0x3e375af8	0.17905796
57	0x3cf86292	0.03032044
58	0xbe275eec	-0.16344804
59	0x3dbcd829	0.09220917

decoder.6.weight f4 [118, 60]
0	0x3d441b7b	0.04787777
1	0x3db7b63a	0.08970304
2	0x3d799635	0.060934264
3	0x3a8e34e5	0.0010849504
4	0xbdbe3ea5	-0.09289292
5	0x3a882d16	0.0010389413
6	0xbcd4b1dc	-0.025963716
7	0x3d9af9de	0.0756719
8	0x3c95c25e	0.018281158
9	0xbd6169a0	-0.055032372
10	0xbe316e22	-0.17327169
11	0xbd748a2d	-0.059702087
12	0xbcf6abe6	-0.030111264
13	0x3ce95828	0.028484419
14	0x3e18d07a	0.14923277
15	0xbde0f584	-0.109843284
16	0x3cae41a3	0.021271532
17	0xbc45a440	-0.012063086
18	0x3e1caa3c	0.15299314
19	0xbd0240f8	-0.03180024
20	0xbe28c451	-0.16481139
21	0x3d3d716c	0.046250746
22	0x3bc96661	0.0061462377
23	0x3dd17594	0.102275044
24	0xbe2921e8	-0.1651684
25	0xbe331e4a	-0.17492023
26	0x3d2621a1	0.040559415
27	0xbe1909e7	-0.14945184
28	0xbd11ed96	-0.03562697
29	0xbcf98515	-0.030458966
30	0x3d950879	0.07277007
31	0x3d3bc6e3	0.04584397
32	0xbd5a1044	-0.05323817
33	0xbc7c1d1f	-0.015387802
34	0xbd17e070	-0.037079275
35	0xbd9e1678	-0.07719129
36	0xbdeb7acf	-0.11498033
37	0xbd3f05ae	-0.046636276
38	0x3cd6bf9d	0.026214415
39	0xbbeec16e	-0.007286242
40	0xbd532f7e	-0.051558964
41	0x3c8302be	0.015992519
42	0xbdde9377	-0.108679704
43	0xbdd8a550	-0.10578406
44	0x3da2346e	0.079201564
45	0x3e100c2d	0.14067145
46	0xbdfd8b22	-0.12380053
47	0xbc954660	-0.018222034
48	0x3d5598eb	0.052147787
49	0x3e0b0764	0.13577038
50	0x3d1e4349	0.038638387
51	0xbda03928	-0.07823402
52	0xbe1c249d	-0.15248342
53	0x3a217eeb	0.0006160575
54	0x3c5944d1	0.013261036
55	0x3bedbd3b	0.007255224
56	0x3d85e559	0.06537885
57	0xbcf3fa08	-0.02978231
58	0xbdb7e0a6	-0.08978395
59	0xbe064918	-0.1311382
60	0x3e10aed4	0.14129192
61	0xbddc6a5e	-0.107624754
62	0x3ba47c3b	0.0050196922
63	0xbdca3303	-0.09873011
64	0x3dc6b101	0.097017296
65	0x3c942e5b	0.01808851
66	0x3e047a6f	0.1293733
67	0xbe073802	-0.13204959
68	0x3da8bb44	0.08238843
69	0x3de8c356	0.113653824
70	0xbe1784ba	-0.14796725
71	0x3ca57207	0.020195974
72	0x3c4b52aa	0.012409845
73	0xbdc42552	-0.09577431
74	0xbcf2c5fd	-0.029635424
75	0xbcbd507d	-0.023109669
76	0x3d1a6f75	0.03770395
77	0x3cf710ac	0.030159317
78	0xbd0ca6e7	-0.034338858
79	0x3d9b5258	0.07584065
80	0x3d8b95ce	0.06815682
81	0x3dbad86c	0.091233104
82	0x3ce54839	0.02798854
83	0xbe062455	-0.13099797
84	0x3dc9c465	0.098519124
85	0xbd9f14fb	-0.077676736
86	0xbd08bbf0	-0.033382356
87	0x3d516afe	0.051127426
88	0x3d1ed229	0.038774643
89	0xbdec6c5c	-0.115441054
90	0xbda05c5c	-0.07830116
91	0x3cdfccdd	0.027319366
92	0x3d7b13e0	0.06129825
93	0xbd842db2	-0.06454028
94	0x3e004f4d	0.12530251
95	0x3d9b052d	0.075693466
96	0xbe1bfbe6	-0.1523281
97	0xbd50061c	-0.050787076
98	0x3da36a4b	0.07979258
99	0xbcdeda5b	-0.02720373
100	0xbd99eb2f	-0.07515561
101	0xbccef263	-0.025262063
102	0x3cd892aa	0.026437122
103	0xbd00765e	-0.031362884
104	0xbd860e1e	-0.065456614
105	0x3cb680ff	0.022278307
106	0x3d819e76	0.06329052
107	0x3df4754a	0.119364336
108	0x3d59f2bd	0.05321001
109	0x3d2fba94	0.042902544
110	0x3d4fda67	0.050745394
111	0x3e044689	0.12917532
112	0xbe0897fd	-0.13339229
113	0xbd142d09	-0.03617576
114	0xbd8a33d6	-0.06748168
115	0xbd39ff5f	-0.045409556
116	0x3db2636a	0.08710368
117	0x3dcff9c4	0.10155061
118	0xbda28feb	-0.079376064
119	0xbd75eebc	-0.060042128
120	0x3d52d636	0.05147382
121	0x3d808e77	0.06277173
122	0x3d77bc3d	0.060482252
123	0x3d34b386	0.04411652
124	0xbdb4cba4	-0.08827904
125	0x3d91e428	0.071235955
126	0xbdd4e067	-0.10394364
127	0xbd67a7b7	-0.05655643
128	0x3b7293de	0.0037014405
129	0x3b7dc9e2	0.0038725068
130	0x3cc320fd	0.023819441
131	0xbdec7a2e	-0.115467414
132	0x3e07db19	0.13267173
133	0xbda4eabd	-0.08052585
134	0x3b7aa008	0.0038242359
135	0x3c073303	0.008251908
136	0x3b1b750c	0.0023720888
137	0xbd25999d	-0.0404297
138	0x3c90ced8	0.017676756
139	0x3d3aba1f	0.045587655
140	0xbda1e007	-0.07904058
141	0x3dcc9891	0.09990037
142	0xbcd44b37	-0.025914771
143	0x3dcd7ab2	0.10033168
144	0xbdc088fe	-0.09401129
145	0x3e0dbb28	0.13840926
146	0x3d9a98eb	0.07548698
147	0xbcbaf6df	-0.022822795
148	0x3cbe786e	0.023250785
149	0x3da05f3c	0.078306645
150	0xbde15763	-0.11002996
151	0x3da1ec04	0.079063445
152	0x3d74554a	0.05965165
153	0xbd82a5ce	-0.06379281
154	0x3d659781	0.05605269
155	0x3d5d9569	0.054097567
156	0x3d00e992	0.03147275
157	0x3de19581	0.11014844
158	0xbdee1843	-0.11625721
159	0xbcc6875d	-0.024234468
160	0x3c32d390	0.010914698
161	0x3d9dc9cd	0.07704506
162	0x3db440da	0.08801432
163	0xbc1d4796	-0.009599587
164	0xbda80f78	-0.082060754
165	0xbe0b5b15	-0.13608964
166	0x3c5988ec	0.013277274
167	0xbd15cf02	-0.03657437
168	0xbce04e85	-0.027381191
169	0x3c9a2e07	0.018820776
170	0x3d949abb	0.07256075
171	0x3d42a313	0.0475188
172	0x3d354f6d	0.0442652
173	0xbd147965	-0.036248583
174	0x3d42039e	0.04736673
175	0x3d6f6f44	0.05845572
176	0xbd7f459d	-0.062322248
177	0xbdfc77b5	-0.1232752
178	0x3cc9d05e	0.02463549
179	0xbd305685	-0.04305126
180	0x3ddd7c1a	0.10814686
181	0xbdd82082	-0.105530754
182	0xbd895ff4	-0.06707755
183	0x3d373a14	0.044733122
184	0xbdb67c2e	-0.08910404
185	0xbc1aaf80	-0.0094412565
186	0x3d883263	0.066502355
187	0xbda4c2f3	-0.08044996
188	0x3d4b8e6b	0.049696367
189	0x3ddf1c54	0.10894075
190	0xbdcc802e	-0.09985386
191	0x3ce20159	0.027588533
192	0xbda2219f	-0.07916569
193	0xbd9d0ff2	-0.07669057
194	0xbdf263c7	-0.11835437
195	0x3d742398	0.059604257
196	0x3da34e66	0.07973938
197	0xbda21818	-0.07914752
198	0x3db8e455	0.09027926
199	0xbd6feadc	-0.05857359
200	0x3d6e184b	0.058128636
201	0xbdceb714	-0.10093513
202	0x3e00bcec	0.12572068
203	0xbde4ec80	-0.11177921
204	0x3d76c8a6	0.060249947
205	0x3d52be7d	0.051451195
206	0x3d165a83	0.036707412
207	0x3df41df3	0.11919775
208	0x3d6fba93	0.05852754
209	0x3d9775c8	0.07395512
210	0xbdeacba8	-0.114646256
211	0xbda4d2fc	-0.080480546
212	0xbc530e1b	-0.012881781
213	0x3e06646d	0.13124247
214	0x3db3eb6a	0.08785136
215	0xbe033947	-0.12814818
216	0x3d921287	0.0713244
217	0x3b389514	0.002816503
218	0xbbc01357	-0.0058616805
219	0xbd015c63	-0.031582247
220	0x3d678c31	0.05653018
221	0xbd431cb5	-0.0476348
222	0x3d5933f2	0.053028055
223	0xbdad058e	-0.08448325
224	0xbc064027	-0.008194006
225	0x3d22080e	0.039558463
226	0xbd0b6854	-0.034035042
227	0x3df898c0	0.1213851
228	0xbdbfe409	-0.09369666
229	0x3d52387d	0.051323403
230	0x3db6fda3	0.08935096
231	0xbcda03ea	-0.026613194
232	0x3d4b39f4	0.049615815
233	0xbdf69875	-0.120407976
234	0xbd4f022c	-0.05053918
235	0xbd9d6979	-0.07686133
236	0x3d163842	0.036674745
237	0xbd4431ac	-0.047898933
238	0xbe000ab5	-0.12504084
239	0xbdfe6ddc	-0.12423298
240	0xbc0c5b0f	-0.008566632
241	0x3ddcaebc	0.107755154
242	0x3dc434e7	0.09580403
243	0xbd10df47	-0.035369184
244	0xbd3ef04f	-0.046615895
245	0xbdba3dda	-0.090938285
246	0x3db60f90	0.08889687
247	0xbdb88cf6	-0.09011261
248	0xbcd54ea8	-0.026038483
249	0xbd94d74d	-0.07267628
250	0xbe19c88f	-0.15017913
251	0x3ce23c44	0.027616628
252	0xbdc568b9	-0.09639115
253	0xbcd19a69	-0.025586324
254	0x3d4e9736	0.050437175
255	0x3d6bedfc	0.057600006
