Baseline-models/MTGFlow/MTGFlow-ROAD/checkpoint/SWaT/CHD-model.pth (torch, 63937 bytes, 27 tensors)

rnn.weight_ih_l0 f4 [128, 1]
000000 e1 e8 eb bc d8 54 a0 3c 33 7f b7 3d 59 17 9f bb
       -0.028797569 0.019571707 0.08959808 -0.004855078
000010 4f 32 b9 3d 3a 55 5a be 4b bc b2 3d 93 a3 f6 bc
       0.09042799 -0.21321574 0.0872732 -0.030107295
000020 44 3b 32 3d 97 b0 b8 bd a4 44 c3 bd 2c 8d b9 bc
       0.04351355 -0.09018057 -0.095345765 -0.022650324
000030 65 17 75 3b 00 cd ae 3c 93 eb a4 3d bf 37 d3 3d
       0.0037397977 0.021337986 0.08052745 0.10313367
000040 b6 00 6b 3e 99 22 3d bd b8 e8 71 3e fa c7 51 3c
       0.2294949 -0.046175573 0.23623931 0.012804026
000050 32 2f a4 bb 7e 3a b1 3d c8 19 25 3e 6d cd f9 bc
       -0.005010509 0.086537346 0.16123116 -0.030493462
000060 7e 8a 18 3d 18 f4 f1 3c f6 cd b5 3c 33 b7 45 bd
       0.03724145 0.029535338 0.022192936 -0.048270416
000070 59 e2 f1 3c f1 07 37 3c f3 d5 c2 bd d7 cb 99 be
       0.029526876 0.011171327 -0.09513464 -0.3003833
000080 68 e1 86 36 a6 69 34 3d 03 68 99 3d d1 d4 bd 3d
       4.019752e-06 0.044046067 0.07490542 0.09269107
000090 99 93 21 bd 78 f2 26 3d 68 6c 0d 3d 41 d9 28 be
       -0.0394474 0.04075858 0.034527212 -0.16489126
0000a0 a3 59 91 bc 72 b4 c1 3d d3 ec ae 3c ce 03 fe 3b
       -0.017742937 0.09458245 0.021353161 0.0077519184
0000b0 67 d4 3c 3d 35 62 39 3c 2c 55 86 3c 46 38 1f 3d
       0.046101 0.011314918 0.016398035 0.038872026
0000c0 1c bb 82 3d 5e e2 31 3d 0c 87 61 3c 0e a2 db bd
       0.063833445 0.04342877 0.013765108 -0.10724269
0000d0 0b 13 0f 3d 00 4d 3d bd 79 8d 27 bd ee 33 be 3c
       0.03493027 -0.04621601 -0.040906403 0.023218121
0000e0 9c d6 85 3b b0 14 12 3e 38 19 29 3b 06 b8 81 3d
       0.0040844213 0.14265704 0.0025802385 0.06333928
0000f0 b0 01 cb bc 94 c8 0a 3e 4c 46 db 3d 09 63 c9 3c
       -0.024781078 0.13553077 0.107067674 0.024583356
000100 1f ba 38 3c bd 23 1c 3e 4e 8d 3e 3d 75 d6 82 bc
       0.0112748435 0.15248008 0.046521477 -0.015971402
000110 53 eb 7e 3d 77 92 61 3e 64 b1 38 3e c4 9a 01 be
       0.06223614 0.22028528 0.18036419 -0.12656695
000120 fa b3 f9 bd 55 42 08 3e 50 3e 63 3e b5 e1 d5 3c
       -0.12192531 0.13306554 0.22191739 0.026108602
000130 f9 08 36 be 07 1d dc bc b5 c4 02 3d 99 4a 5d 3d
       -0.1777686 -0.02686931 0.031925876 0.05402622
000140 1a 8e 27 be 00 40 9d 3d 23 47 13 3e df 4c a5 3e
       -0.16362801 0.07678223 0.14382605 0.3228521
000150 49 ce c2 3d 96 2b a8 bd b6 d7 97 3d f3 0f 49 3e
       0.09512002 -0.08211438 0.074141905 0.1963499
000160 91 2e 03 be 03 ff fb bb 04 49 24 bc 7d d5 fa bc
       -0.12810732 -0.007690312 -0.010027174 -0.030619377
000170 a7 7f 0d 3e c2 48 2a 3e a3 25 55 be fe 22 3c 3e
       0.13818227 0.16629317 -0.20815139 0.18372723
000180 a9 e5 ac bd 93 de 92 3c 38 6c b0 bd 68 d1 cd 3d
       -0.08442242 0.017928397 -0.08614391 0.10049707
000190 ec ea 11 be 3b d7 f4 bd 05 74 76 bd 49 a2 0a be
       -0.14249772 -0.119551145 -0.06016924 -0.1353847
0001a0 62 4a a5 3d 10 ed 87 3d cc 85 26 3e 65 90 74 bc
       0.08070828 0.06637013 0.16261977 -0.014927004
0001b0 3e e6 39 3d 6d 87 fd 3c ab 60 f9 3c ba 2a d3 3d
       0.04538559 0.030948365 0.030441603 0.10310884
0001c0 56 4c 82 3d 33 8a de bd 9f 98 67 3e a9 b1 b9 ba
       0.06362216 -0.10866203 0.22616814 -0.0014167327
0001d0 95 46 76 3d 6a e2 e9 3d a0 e0 46 3d f7 fd 7f bd
       0.060125906 0.11420138 0.048554063 -0.06249806
0001e0 32 c7 08 bd cb 2b 3c 3e b4 4f 1b 3c c9 d2 ab bd
       -0.033393092 0.1837608 0.009479452 -0.083898135
0001f0 5e 6c 15 3d 42 45 1d 3e b0 b4 16 3d 67 43 ed be
       0.0364803 0.15358451 0.03679341 -0.46340486

rnn.weight_hh_l0 f4 [128, 32]
000000 6d 1d 7e 39 1e cd 11 bb 49 39 78 ba 27 63 79 bb
       0.0002423429 -0.0022247504 -0.00094689854 -0.0038053484
000010 6b f3 99 bb 77 5c d1 bb b6 95 dc ba ce 5f 08 3c
       -0.004698207 -0.0063891965 -0.0016829285 0.008323623
000020 20 06 0e bc 7a db 9d 3a 7e a9 f5 3a 59 96 56 3b
       -0.0086684525 0.0012043559 0.0018742529 0.0032743423
000030 ac 3b 2d bc 5e db ac 3b bc 9c 7a 3b 3e 0a 29 bb
       -0.010573309 0.005275174 0.0038240394 -0.0025793458
000040 18 1d 0b 3b 78 e3 32 39 5a f6 99 b9 1c 5f d4 b9
       0.0021227058 0.00017060142 -0.0002936598 -0.00040506653
000050 f4 8e 92 bb 70 e0 bb b9 a6 4b 14 3b 73 45 c2 3b
       -0.0044726077 -0.00035834638 0.0022628098 0.005928689
000060 93 4c cf 3b 48 af a3 3a 36 c1 8c b8 a2 d4 76 ba
       0.006326267 0.0012488151 -6.7117086e-05 -0.000941584
000070 1e cd 04 bb 0f 47 83 3a 9f 5d f4 ba 1c 66 fd 3b
       -0.002026386 0.0010015684 -0.0018643624 0.0077331197
000080 21 ea a3 ba 79 36 b9 3b 9a 40 c8 3b b9 ad be 3b
       -0.0012505689 0.0056522456 0.0061112167 0.005819049
000090 c1 b4 d4 3b 86 0a 2e 3c 88 6f 2b 3c 72 8a bc bb
       0.006491274 0.010622626 0.010463603 -0.0057538087
0000a0 d8 78 9a 3b 8b 81 d6 3a 89 8b 44 3b 5d 7d 15 bb
       0.0047141127 0.0016365511 0.0029990396 -0.0022810318
0000b0 ad 49 8b 3b 17 c2 8f 3b 47 cf 02 bb c2 24 1a b9
       0.004250726 0.004387151 -0.0019959973 -0.00014700278
0000c0 b5 8b 83 bb d5 5d 3b 3b 5e de 63 3b 9d 32 2f 3b
       -0.004014457 0.0028589864 0.0034769992 0.0026733049
0000d0 25 4d bc 3b 7e ae 84 3b 6e c1 8f bb 90 a3 ae b9
       0.005746501 0.0040491214 -0.0043870723 -0.0003330973
0000e0 11 0d c3 bb f6 90 02 3b d4 1c 0a 39 3d 87 b3 bb
       -0.0059524854 0.001992283 0.00013171445 -0.005478768
0000f0 af a0 aa 3b 27 99 c8 3b b6 b8 34 bb ef b4 63 bb
       0.0052071433 0.006121773 -0.0027575917 -0.0034745296
000100 40 23 38 ba ae 6e ac 3a 9f d7 83 3b 29 79 80 3b
       -0.00070242956 0.0013155544 0.004023507 0.0039206934
000110 d5 e4 f7 3b 5b 4d 0c 3c 88 70 88 b9 fa 95 37 3c
       0.0075651207 0.008563365 -0.00026023784 0.011205191
000120 43 d6 a0 3a cd d0 1d 3c 69 0d 18 3d 56 16 b6 b9
       0.0012270886 0.0096323015 0.037122164 -0.00034730387
000130 4c 22 b5 3b 5b 94 4f bc a7 97 d5 3a a6 42 86 3c
       0.00552777 -0.012669648 0.0016295806 0.016389202
000140 b7 73 05 bc e2 f9 e3 bb 79 0f 17 3b 2a e0 21 bd
       -0.008145264 -0.0069572786 0.0023049994 -0.03952042
000150 1c ca 76 3b 49 2c 02 bd af 12 42 3c 44 10 14 bb
       0.0037657088 -0.031780515 0.011845275 -0.0022592703
000160 b2 6d 88 bb 19 09 c5 3c ce 06 fc 38 ba 91 b5 3c
       -0.0041634673 0.02405219 0.00012017564 0.022164214
000170 ba 34 4b bd 2b 88 17 bc 90 59 28 3c a3 ad 0f bc
       -0.04961083 -0.009248774 0.01027526 -0.008769426
000180 b1 6f 1c 3b 6d 4f 17 3c 18 d5 ac 3c 8f 9f 60 bc
       0.0023870284 0.009235245 0.021097705 -0.013709917
000190 9e 41 88 bc 2a 4b 36 3c 7c 6e fb bc 01 49 76 bd
       -0.016632851 0.011126319 -0.030692331 -0.060128216
0001a0 b8 7b 4c bb ac 3b 85 3c 80 3b 6c bd 2f bd af 3a
       -0.0031201672 0.016263805 -0.05767393 0.0013407822
0001b0 dd 9b 26 bc c7 3d 33 bc 3b 27 f9 3b 84 9d f8 3c
       -0.010168997 -0.010940022 0.0076035536 0.030348547
0001c0 f3 e8 2a bc 13 f6 52 3a f0 3e 17 3c 07 e3 f5 3c
       -0.010431516 0.0008047532 0.009231314 0.030015482
0001d0 87 b8 fd 3b bb 45 4e bc a4 0b 2c 3d dd ff 1c 3c
       0.0077429446 -0.012589867 0.04200329 0.009582487
0001e0 00 dd 1a bc eb fc 70 bc 58 9b b6 ba 7e 93 eb 3c
       -0.009452105 -0.014708738 -0.0013931794 0.028756853
0001f0 c7 9d bb bc 72 69 21 bc c5 1a a7 3c 97 53 9a ba
       -0.022902383 -0.0098518 0.020398507 -0.0011774179
000200 af 54 87 3b 44 9e f6 3b 79 1b 1e 3c 68 5a c2 3a
       0.004129968 0.007526191 0.009650105 0.0014827969
000210 62 17 2c bd 1b 84 aa 3a bd 01 d0 3c bd 09 49 bc
       -0.042014487 0.0013009341 0.025391454 -0.012270388
000220 cf b9 ac bb 21 ee dd 3b b9 16 53 3d 1d 31 f0 3a
       -0.0052711735 0.006772772 0.051535342 0.0018325184
000230 e4 72 0a bc bf ed b6 3c ec af 1b 3d 3a 1c e7 3c
       -0.008450244 0.022330163 0.03800957 0.028211702
000240 a2 2d c7 bb 2d e3 59 bc b1 fc f3 3b ee cd 0a bd
       -0.006078438 -0.013298792 0.0074458946 -0.033887796
000250 0e 2c 47 3b ca 7c 35 bc bc b3 88 3d d9 43 fb 3b
       0.003039125 -0.011077115 0.066749066 0.007668
000260 11 ed 6b bb 0e 04 a5 bc 3e 2f a0 ba 3e 20 9f 3d
       -0.0035999457 -0.020143535 -0.001222111 0.077698216
000270 28 b8 81 bd d7 b0 4c bc 4c e2 e6 bc c7 46 93 bc
       -0.06333953 -0.012493334 -0.028184079 -0.017978085
000280 b4 00 bb bb 81 17 5f 3c 1a f4 b8 3c e5 0b d0 3b
       -0.005706871 0.013616444 0.022577334 0.006349074
000290 7d 2e b4 3c 39 2d 1d 3c 67 86 59 3d 2a 48 aa 3c
       0.021994824 0.009593301 0.05310669 0.020786364
0002a0 2c 32 fa ba b6 ff 0f 3c d1 86 c0 3c ed 2c 8d 3a
       -0.0019088439 0.008788994 0.023501785 0.0010770835
0002b0 bf c7 fc bc 00 3f 19 3d ab b0 e8 3b fd ad 85 bc
       -0.030856965 0.037413597 0.0071011386 -0.016318316
0002c0 e0 07 05 bd ec 7c a8 3c 6e 10 88 3c 03 4c f2 3c
       -0.032478213 0.02056738 0.016609397 0.02957726
0002d0 84 f9 2d 3c 29 93 a1 3c 13 76 d8 bc 02 40 01 3d
       0.010618571 0.019723492 -0.02642349 0.031555183
0002e0 ca ff 33 3a 04 a3 99 3c 80 66 88 b8 71 46 f4 bc
       0.00068664236 0.01875449 -6.5040775e-05 -0.029818745
0002f0 dd e5 ae 3c 32 65 dd 3c 75 d4 ad bc fc 0d 92 3c
       0.021349842 0.027025793 -0.021219471 0.017828934
000300 32 40 0e 3c 71 dc 9f 3b 6b 08 f0 bc 4a 52 2a bd
       0.008682298 0.0048785736 -0.029300889 -0.041582383
000310 25 17 d8 bc 37 f5 1b 3d 0a d1 b8 bd b3 d9 7d bd
       -0.026378224 0.038075652 -0.09024246 -0.061975192
000320 0f b0 f1 bb b3 a2 a7 bc b9 f8 06 bd 98 e4 b8 39
       -0.007375724 -0.020463323 -0.032952044 0.0003526553
000330 16 c2 50 b9 26 e5 8c bd 1c c7 97 3b a9 55 8a 3c
       -0.00019908728 -0.06879644 0.00463189 0.01688655
000340 e1 11 88 3c e7 3c 36 bb 8f 28 23 3c d3 58 b5 bd
       0.016610088 -0.0027807297 0.0099584 -0.088548325
000350 b3 94 41 3c cf c5 92 bc f8 4b 3b 3d 94 27 f8 3b
       0.011815238 -0.017916588 0.045726746 0.0075730775
000360 d1 ed a6 bc f2 88 9e bd 72 29 29 3a 18 0a bf 3c
       -0.020377072 -0.07740964 0.0006453014 0.023320243
000370 86 49 b3 bd 21 7f 77 bc 3b e6 56 bc 16 8e b9 bb
       -0.08754258 -0.0151059935 -0.013116415 -0.00566269
000380 4b 61 32 bc 09 1f b1 3c 3c 92 00 3e e3 da 6b ba
       -0.010887454 0.021621244 0.12555784 -0.0008997155
000390 21 16 7a 3d a2 b1 5f bb 8d 3e d4 3d b2 d5 4f 3d
       0.06105626 -0.0034132977 0.10363493 0.050740905
0003a0 08 db 44 bd b0 d3 35 3d 64 11 bf 3d 29 be 87 3c
       -0.048060447 0.044391334 0.09329489 0.016570168
0003b0 cf c5 84 bd b3 26 7c 3d a7 bb ee bb 4d 04 ac bd
       -0.064830415 0.061560344 -0.0072855535 -0.08399258
0003c0 06 9b 85 bd e1 1e 4b 3d 83 38 9e 3c 81 88 8a 3c
       -0.06523709 0.049589995 0.019314056 0.016910793
0003d0 cc 1a 2f bc 97 0a 6d 3d 8e 62 78 bd f2 e5 93 3d
       -0.010687541 0.057871427 -0.060640864 0.07221593
0003e0 5d 3b 8b 3c 31 e8 eb 3a e7 c2 21 bc fd d1 ee bc
       0.01699608 0.0017998276 -0.0098731285 -0.029152865
0003f0 97 c0 aa 3d 90 6e 1a 3c 2e b1 4e bd 1b 92 af 3d
       0.08337515 0.009425774 -0.05046194 0.08572789

rnn.bias_ih_l0 f4 [128]
000000 6a 40 00 be ec 62 8d 3c 3c 2f 76 3c 78 21 06 be
       -0.12524572 0.017259084 0.01502591 -0.13098705
000010 35 25 bd 3c cd ae 9a 3d ef c7 a7 3c f0 2c 93 bc
       0.02308903 0.07552872 0.020481078 -0.017965764
000020 d1 87 7a 3d a8 e6 e7 3a 4a ff 2a bd 41 78 a7 bc
       0.06116468 0.0017692642 -0.04174737 -0.020443084
000030 c0 83 f4 3d 00 d4 13 bd 3e 6c ea bd ae 70 01 be
       0.11939192 -0.03609085 -0.11446427 -0.1264064
000040 e9 60 6e 3c 8d 4b 78 bd 37 e9 93 3c af e9 e0 bd
       0.014549472 -0.060618926 0.018055541 -0.109820716
000050 08 7a 57 3d b8 cb 29 bc 92 2a fe 3d 3b 76 e3 3d
       0.052606612 -0.010363512 0.124104634 0.11106535
000060 c9 dc d4 3d 14 0e 44 be 22 98 70 bd 86 b0 a4 bc
       0.10393674 -0.19145995 -0.058738835 -0.020103704
000070 f6 49 25 3c 29 77 04 bd 66 ef 1a ba 40 45 48 3e
       0.010088434 -0.032340202 -0.0005910307 0.19557667
000080 d3 6d b4 ba cb 5b d5 bb 36 ef b0 3d 4e 85 b9 bd
       -0.001376564 -0.0065111867 0.08639376 -0.09058629
000090 f0 6c bd 3d c6 62 b7 3c 6d f3 de 3c 8e a6 87 3d
       0.09249294 0.022385966 0.027215684 0.06623565
0000a0 81 fa 12 bc e3 e7 84 3d f4 32 58 bd fd 2d 8a 3c
       -0.008970858 0.064895414 -0.052782968 0.016867632
0000b0 f3 2a 88 3d 05 3c 06 be f0 6f 9c 3d a6 b4 31 bd
       0.06648817 -0.13108833 0.07638538 -0.04338517
0000c0 5f 41 c0 3d b8 38 c9 bd 0a 98 0b bc de 0c f7 3d
       0.093874685 -0.09825271 -0.008520136 0.12063001
0000d0 6c ed 52 bc be 2c 00 be 71 42 a1 3d 26 ab 46 3d
       -0.012873989 -0.12517068 0.07874001 0.048503064
0000e0 7e 6b 4b 3d 29 2d c3 3d 21 1f 40 bc 0f 37 4a bd
       0.04966306 0.09530098 -0.011726172 -0.049368914
0000f0 d4 a4 89 bd 0e b3 a1 3d 6e 64 17 bd bf 55 27 3e
       -0.067208916 0.0789548 -0.03696101 0.16341303
000100 60 50 8f bd 44 58 ea bd a8 cd a4 3d 60 bd f5 bc
       -0.06997752 -0.114426166 0.08047038 -0.029997528
000110 bc 2d 24 bb 5b 27 98 ba b2 03 25 3e ae 38 8f 3d
       -0.0025051674 -0.0011608409 0.16114691 0.06993233
000120 43 92 fe 3c 08 7f 51 3d 73 10 68 3d d6 74 fd bc
       0.031075602 0.051146537 0.056656312 -0.0309395
000130 1e 0a 56 3d 0e 0c 59 3d 98 3d a0 bd 20 04 c8 bc
       0.052255742 0.052990012 -0.07824248 -0.02441603
000140 a9 71 c7 bd e2 b3 d8 3b 0a ca b7 bd 99 65 98 bc
       -0.09738476 0.0066132406 -0.08974083 -0.018603133
000150 ae b3 64 bd 55 19 20 3e 6b 2c 68 bd 11 55 1f 3e
       -0.05583542 0.15634663 -0.056682985 0.15559794
000160 67 27 06 be 57 bb 67 bd 7b c6 f6 bc 75 2b 29 be
       -0.13100968 -0.056575146 -0.03012394 -0.16520484
000170 9f 72 f2 3d 54 c9 14 3e ed 63 7c bd 01 ec ff bd
       0.118382685 0.14529926 -0.061618734 -0.12496186
000180 d8 e5 dc bd 01 8a 4d 3b 4c aa 95 3d 16 6d 10 be
       -0.10786027 0.0031362774 0.07307872 -0.14104113
000190 85 35 c7 3d 49 3e 34 3e b6 45 ff 3c bc ce ff bb
       0.09727005 0.17601885 0.03116117 -0.007806627
0001a0 42 ca a2 3d a1 38 61 bc 0f bd 08 be 3f aa ed 3b
       0.07948734 -0.013746412 -0.1335337 0.007252961
0001b0 be 45 f6 3d 44 b2 d5 3d 99 e2 72 bd 98 19 d4 3d
       0.12025021 0.10434392 -0.05929813 0.10356444
0001c0 b5 42 ea 3d da 49 10 be 63 0c f1 3c c9 70 e6 3d
       0.114385046 -0.14090672 0.029424852 0.11251981
0001d0 d8 61 25 3d ce 4e a6 bd 38 72 4d be 06 7f cb 3d
       0.040376514 -0.081204996 -0.20063102 0.09936337
0001e0 07 42 05 3d 58 66 3d 3d e4 2c 84 bd b7 b3 10 bc
       0.03253367 0.04624018 -0.06453875 -0.00883191
0001f0 21 8c 93 3b bc e2 8e bd 12 f9 e4 3d e2 1e 07 3e
       0.0045027887 -0.0697684 0.11180319 0.13195375

rnn.bias_hh_l0 f4 [128]
000000 3d 20 75 3d 08 9d 91 3d dd a7 28 3d da f0 07 be
       0.059845198 0.071100295 0.041175712 -0.13275471
000010 04 69 2d be ad 0c cb 3d 70 39 1d 3d 65 0f 1c 3e
       -0.16934592 0.09914527 0.038384855 0.15240248
000020 ef c8 4a 3d 1b 2e a0 3c 81 9c 52 3d 3f df d2 bc
       0.04950803 0.019553235 0.051418785 -0.025741218
000030 c0 18 f7 3d e2 c9 ab bd e5 80 5f 3c 30 13 eb bd
       0.120652676 -0.083881155 0.013641571 -0.11478269
000040 d5 99 d4 3b 54 e5 69 bd b0 16 46 3d 92 8d e3 3d
       0.006488065 -0.05710347 0.04836148 0.11110987
000050 0d 57 01 bc 61 49 88 bd a2 d8 08 be 4f f3 96 3d
       -0.00789429 -0.06654621 -0.13363889 0.07370626
000060 db cb d9 3d a2 c8 0d be 51 6e 30 bc 02 e9 a0 bd
       0.106345855 -0.13846067 -0.010768489 -0.07856943
000070 c7 fb b3 3d 87 8c 9f 3c 61 4f 37 bd 23 cb 2b 3e
       0.08788257 0.019476188 -0.044753436 0.1677671
000080 f6 18 e2 bd 31 20 27 bd 0a 51 ba 3d c4 be 2d be
       -0.11039917 -0.040802184 0.09097488 -0.16967303
000090 65 14 69 bd c2 f6 a9 bc 99 25 14 bd 19 54 2e 3e
       -0.056904215 -0.020747546 -0.03616867 0.17024268
0000a0 e0 d8 40 bc 70 eb a0 bc 0d b6 ba 3d 26 dc 62 bc
       -0.011770457 -0.019643515 0.09116755 -0.013846433
0000b0 10 b5 30 3d 65 72 47 bc d1 2d a7 bd 26 30 0d bd
       0.043141425 -0.01217327 -0.08163036 -0.034469746
0000c0 00 7a 07 3d b1 05 6c bd 94 17 28 3c 3a 86 8b bd
       0.033075333 -0.057622615 0.010259528 -0.06812711
0000d0 7e c6 70 bd 1f 6f 0c 3d 69 4b ff bd 6a ee 92 3d
       -0.058783047 0.03428566 -0.12465555 0.0717438
0000e0 23 b7 b1 3c b9 df c4 bd 01 48 17 bc 68 f6 d9 bd
       0.021693772 -0.09612984 -0.009233476 -0.106427014
0000f0 e0 00 bd bd 3c 02 cd bc 9a 61 6e 3c a0 93 19 3e
       -0.092286825 -0.02502548 0.014549637 0.1499772
000100 8c 04 84 3c 90 db 2e 3e 1f b1 dc 3c 42 01 06 3e
       0.01611545 0.17075944 0.026939927 0.13086417
000110 c1 16 ea 3d 90 0f 55 3d 51 50 ce 3d d7 10 08 bd
       0.11430121 0.052016795 0.10073913 -0.033219185
000120 34 55 3f 3b d9 80 8c bc 9d 2c 02 3d ad 2f 0c 3c
       0.0029195072 -0.017151283 0.031780828 0.008556289
000130 ee 22 e9 bd 97 08 13 3e f0 91 93 3d 70 f8 41 bd
       -0.113836154 0.14358746 0.0720557 -0.04735607
000140 0a 7e 5c 3c b2 b7 bd 3d f7 1f fd 3d bd ce 89 3d
       0.013457784 0.09263553 0.123596124 0.06728885
000150 65 fd c3 3d 2b ca 15 bd 77 35 bf bd 02 e0 e4 bd
       0.095698155 -0.036569756 -0.093363695 -0.111755386
000160 e1 3f dd 3d 6c 97 16 3e ab ca 41 3d 00 85 9a bc
       0.108031996 0.147062 0.04731242 -0.018862247
000170 1a d6 3f bd 31 e3 fa bc 01 d2 b0 bc c9 33 df 3d
       -0.046835043 -0.030625911 -0.021584513 0.10898549
000180 ef 24 89 bd de 9f 2f bc 7b b8 dd 3d d8 62 06 3d
       -0.06696498 -0.010719268 0.108262025 0.03280911
000190 09 8e bc 3c 86 d2 23 3e 2f e2 3a 3d 0d d3 3e 3b
       0.023016946 0.15998277 0.04562586 0.0029117495
0001a0 6c fd 65 3d fc b1 a2 3d c9 ca 63 bd 9f 60 94 3c
       0.056149885 0.07944104 -0.055613313 0.018112479
0001b0 00 0f d4 3d 0d 6a de 3d 6a 69 01 be f1 90 a9 3d
       0.103544235 0.10860071 -0.12637869 0.082795985
0001c0 fc 1a 11 3e 1a bc f0 bd 9d b5 10 bb 74 59 0c 3c
       0.1417045 -0.117546275 -0.0022080906 0.008566249
0001d0 d8 3a 25 bd 50 a6 b3 3c 5a 83 40 3d 0d be f8 3d
       -0.04033932 0.02192989 0.047000267 0.12145624
0001e0 e7 82 a1 3d 29 03 47 3d 01 df 81 bd c2 17 0f be
       0.07886296 0.048586998 -0.06341363 -0.13973907
0001f0 0b 69 f4 3c 06 f8 93 3d 31 62 8b bc 6c 43 3f 3e
       0.029835245 0.07225041 -0.017014595 0.18678063

gcn.lin_n.weight f4 [32, 32]
000000 da c2 0b bd 1f 41 71 3d ad ca 2f 3d f9 31 8e bc
       -0.03412137 0.058899995 0.042917896 -0.017357813
000010 e0 ef 0e be 1e 8a 44 3d d2 ed d8 bd 99 2f 44 3d
       -0.13958693 0.04798328 -0.105922356 0.047896955
000020 95 3a e8 bc f2 e8 be bd b3 e2 bc bd 31 fa d6 bc
       -0.028348247 -0.093217745 -0.09222927 -0.026242347
000030 9e fd 85 3d ff 42 2f 3d c4 e6 be 3d dd 54 87 3d
       0.06542514 0.0427885 0.09321359 0.06607983
000040 e9 54 c4 3d 4e 50 24 3d 78 5d 3e 3c 68 8d 50 bd
       0.09586508 0.040115647 0.011618964 -0.050916106
000050 a7 39 d9 3a b0 15 a9 bc 6f 51 02 bc 06 4b bc bc
       0.0016572968 -0.020640224 -0.007953986 -0.022984993
000060 7c 07 23 bd 9b b5 01 be c4 48 a1 bc 85 cd d4 3d
       -0.03980206 -0.12666933 -0.019688018 0.10390762
000070 3b 8d 0d be b6 df 91 bd 0b 9b 0b 3c c0 15 2b bd
       -0.13823406 -0.071227476 0.008520852 -0.04176879
000080 4f d5 8f 3d 1e 8a 90 3d 35 0a 1a 3e 4a ae ea 3d
       0.07023107 0.07057594 0.15042956 0.11459024
000090 b2 30 e9 3d 97 44 00 bb cf 01 88 3d 62 c3 8b bd
       0.11386241 -0.0019572133 0.0664097 -0.06824376
0000a0 2e 22 9d 3c 0d fc 11 3c db bf 87 3c d9 e8 f0 bd
       0.019181337 0.008910191 0.016570976 -0.11763162
0000b0 27 4f 87 bd ee ca 1b bd 1b ea cc bc 2f 9e 84 bd
       -0.06606894 -0.038035326 -0.025013974 -0.064754836
0000c0 bc 0c 1f bd d5 f4 00 be 55 6d d3 3d 04 f7 04 be
       -0.038830504 -0.12593396 0.10323588 -0.12984854
0000d0 a2 f6 1c 3e b0 d2 81 3d 6b ef 02 3e b3 c4 04 3e
       0.15328458 0.063390136 0.12786643 0.1296566
0000e0 12 36 bb bd d2 af 13 3e 23 1e c4 bd be fc aa bb
       -0.091411725 0.14422539 -0.095760606 -0.0052181175
0000f0 d4 6c 88 3d 2b 27 b0 3d f5 c7 24 bd 80 b3 38 bd
       0.06661382 0.08601221 -0.040229756 -0.04509306
000100 f4 65 06 80 93 ba 04 80 46 a0 00 00 18 85 05 80
       -5.87587e-40 -4.34272e-40 5.7495e-41 -5.06923e-40
000110 64 54 00 80 86 44 02 00 75 4b 01 80 e2 92 05 00
       -3.0274e-41 2.08253e-40 -1.18904e-40 5.11869e-40
000120 84 11 04 00 73 3d 00 80 58 77 06 80 fc 23 04 00
       3.73625e-40 -2.2044e-41 -5.93825e-40 3.80251e-40
000130 53 c1 03 80 33 56 00 00 9e 1f 00 00 09 b2 01 80
       -3.44858e-40 3.0922e-41 1.1342e-41 -1.55702e-40
000140 a1 67 01 00 d9 d8 04 00 20 49 00 80 20 0a 03 00
       1.2901e-40 4.45132e-40 -2.6232e-41 2.79139e-40
000150 61 85 01 80 26 90 04 00 e4 a8 01 00 38 09 01 80
       -1.39683e-40 4.19053e-40 1.52422e-40 -9.5143e-41
000160 28 52 07 80 7e 41 01 80 2f a1 00 80 24 e9 04 00
       -6.7232e-40 -1.1533e-40 -5.7822e-41 4.50977e-40
000170 3e 2f 00 80 0d 9c 01 80 a9 b3 02 00 04 da 02 80
       -1.6947e-41 -1.47816e-40 2.48121e-40 -2.6188e-40
000180 8e f2 0a 26 7c ba be a3 00 f0 20 23 da 2c c3 25
       4.820709e-16 -2.067882e-17 8.724439e-18 3.38575e-16
000190 1f 9c 6a 26 3c a6 90 a4 5c 62 94 a5 0c 94 a9 a5
       8.139664e-16 -6.273166e-17 -2.5740558e-16 -2.9417147e-16
0001a0 22 6f 81 24 7a 02 04 a4 c0 c9 7a 25 60 82 d6 a3
       5.61331e-17 -2.8625035e-17 2.1752399e-16 -2.3257142e-17
0001b0 98 ba b0 a3 6a c9 72 26 9b 42 54 a4 f8 d7 61 a6
       -1.9160984e-17 8.4233583e-16 -4.602659e-17 -7.835525e-16
0001c0 88 2f 38 24 68 a2 0f 26 d1 72 c7 a3 f4 bc d3 25
       3.99389e-17 4.9833193e-16 -2.162425e-17 3.6730705e-16
0001d0 5a 1e fe a2 fe 05 cc 26 a2 6d 1a a6 8f 8a 39 a5
       -6.8878974e-18 1.4156968e-15 -5.3578063e-16 -1.6093138e-16
0001e0 7e 37 fb 25 2e 20 31 26 44 e1 7f 24 2b de 5c a6
       4.3579162e-16 6.1452823e-16 5.5485118e-17 -7.6628927e-16
0001f0 a3 a9 05 26 e8 0d a0 24 82 b9 87 25 ba d4 4b 26
       4.6373545e-16 6.94125e-17 2.3544472e-16 7.071807e-16
000200 f8 9b 36 3d ba 39 91 bd 98 93 13 3c 2d ab ec 3c
       0.044582337 -0.070910886 0.009007357 0.028890217
000210 1a 57 82 be 88 e5 15 be f3 b2 c5 bd 38 67 6a bd
       -0.25457078 -0.1463834 -0.096532725 -0.057227343
000220 b9 61 1b be 91 aa 7c 3d ab 01 ae 3d 0a d4 33 3d
       -0.15173997 0.061686102 0.08496412 0.043903388
000230 51 2e 82 3d 05 cb 17 be 69 15 24 3e bb b8 8b bd
       0.063564904 -0.1482354 0.16023792 -0.06822344
000240 78 21 c0 3c 1f b7 34 be f0 ce 54 bc 16 c0 1c bc
       0.02345346 -0.1764798 -0.012988791 -0.009567281
000250 11 b0 ba bd 86 3c 9a bd 52 aa 9f bd 4a 62 bf bb
       -0.09115613 -0.07531075 -0.07796158 -0.0058405744
000260 5a 95 bc bd 54 18 e1 3d 15 da cb bd 58 ab 39 bd
       -0.09208174 0.10990968 -0.09953705 -0.04532942
000270 ac de 37 3c dd 1a de 3c 1b b2 52 3d 86 20 93 3d
       0.011222523 0.027112419 0.051439386 0.07183938
000280 9e 29 cf 9c d4 5a 2d 1d 10 ad fd 1a 96 62 41 1d
       -1.3708869e-21 2.2943316e-21 1.04917945e-22 2.5594305e-21
000290 72 77 56 1d f0 44 6c 9c 5c ab 11 9e 1e c2 8f 9d
       2.8384416e-21 -7.817495e-22 -7.711672e-21 -3.8052497e-21
0002a0 66 41 cc 9c 2e ed dd 1a 3e b2 b0 1c ca 8c 88 1c
       -1.3516493e-21 9.178664e-23 1.1692778e-21 9.036118e-22
0002b0 8d 1d bb 9d fa 35 4c 9d 5e 5f 18 9c c2 5b 05 9d
       -4.9529043e-21 -2.702708e-21 -5.041584e-22 -1.7649841e-21
0002c0 c2 30 37 9d ab f0 4e 9d 0e aa 3c 1d f8 42 25 1c
       -2.4245056e-21 -2.7388295e-21 2.496951e-21 5.4680476e-22
0002d0 17 d4 1e 9b 3a 1f 05 1d 08 fb 24 1d dd eb a4 9d
       -1.3137984e-22 1.7618547e-21 2.1835e-21 -4.3654315e-21
0002e0 7c f0 6b 9b 30 4e 88 9c 36 c4 44 9a 52 44 cc 9d
       -1.9516449e-22 -9.019936e-22 -4.0690348e-23 -5.406899e-21
0002f0 1a 81 88 9d 76 2e a1 9d 24 f4 91 9c 92 7e a6 1d
       -3.613239e-21 -4.2664385e-21 -9.658404e-22 4.4070705e-21
000300 df fa 1c 3d fb dd ad bc 7c d3 64 bd 13 7a 5f bd
       0.038325187 -0.021224013 -0.05586575 -0.05455978
000310 c4 0e 62 bd 9c b0 8f 3b 2c 12 ac bd c9 26 74 bd
       -0.055189863 0.004385067 -0.084019035 -0.0596073
000320 7b b7 2e bd f1 65 a5 39 80 22 0a bd 80 fc b1 3c
       -0.04265545 0.00031547205 -0.033724308 0.021726847
000330 bc c6 9e 3c 90 c5 a1 bd ab 0d 8d 3c 10 cd 5f 3d
       0.019381873 -0.0789901 0.017218431 0.054638922
000340 c2 45 16 3d 67 a5 2c bd 67 26 12 bc ba 04 ee 3b
       0.03668762 -0.042149927 -0.008920289 0.007263747
000350 df 63 36 bc 49 d7 8a bd be 58 8f 3d 7d 77 e3 3b
       -0.01113221 -0.06779344 0.06999348 0.0069417343
000360 45 8c 35 bc e7 77 5c bd 8b f6 80 bc 25 35 9a 3d
       -0.011080806 -0.053825285 -0.01574256 0.07529668
000370 00 bf 14 bd f0 ec 3e bd 9b 73 0e 3d 3b e7 87 3d
       -0.036314964 -0.04661268 0.03477822 0.066359006
000380 20 50 26 ae e4 13 1c 2d 03 3a cb 2f 83 fb c2 2f
       -3.7815195e-11 8.87199e-12 3.6966705e-10 3.5467104e-10
000390 1e 78 36 30 e4 e5 75 ae 44 c4 56 30 21 99 8a 30
       6.638191e-10 -5.5910734e-11 7.8131657e-10 1.0084343e-09
0003a0 09 03 6f af 86 78 c7 ae 30 c8 17 2d 47 a1 31 2e
       -2.1738002e-10 -9.0708815e-11 8.627807e-12 4.0388384e-11
0003b0 ff 9d c9 2f 41 0f d3 2f 6e 08 90 2c e1 6b 2e b0
       3.667395e-10 3.8391515e-10 4.093662e-12 -6.3454136e-10
0003c0 4a ea 0d ad dc 75 37 b0 5b 76 d0 2b 16 05 31 30
       -8.066945e-12 -6.67425e-10 1.4812139e-12 6.439945e-10
0003d0 8e 34 bd ac 72 4e 9f 30 b5 23 a2 ae 75 94 3e af
       -5.377538e-12 1.1591068e-09 -7.37325e-11 -1.7333142e-10
0003e0 48 24 36 b0 ca b4 c1 2f 2a 6c fc ad 40 0c ae b0
       -6.6262773e-10 3.5234954e-10 -2.8697118e-11 -1.2663648e-09
0003f0 90 42 a6 2f 60 f4 26 30 2e ef 64 af 78 85 c4 2f
       3.024252e-10 6.0737726e-10 -2.0821453e-10 3.5747028e-10

gcn.lin_n.bias f4 [32]
000000 95 a7 96 bc 5a 05 09 3c 74 81 e2 b5 ef 3d e1 a7
       -0.018390456 0.008363092 -1.6875988e-06 -6.2517194e-15
000010 4c 33 d5 3d 62 68 8a 9e fe 53 e5 3c 53 a2 c0 b1
       0.10410175 -1.465449e-20 0.027994152 -5.6063896e-09
000020 86 b8 07 bd cb d4 62 ba 22 a9 0f bd 8d 16 8a ba
       -0.03313496 -0.00086529244 -0.035073407 -0.0010535285
000030 50 4f 95 a1 1e 3c 85 b2 93 e4 ec bb 1f ca fb 3d
       -1.0117627e-18 -1.5510576e-08 -0.0072293966 0.12294411
000040 1e b3 99 3d 52 3c 3f 3e fe 49 bf 3d 64 39 30 3e
       0.07504867 0.18675354 0.09340285 0.17209393
000050 16 e6 bf bc d6 0a 34 b4 52 ef 8d b4 f9 0c 7d b8
       -0.023425143 -1.6767748e-07 -2.6437425e-07 -6.0331982e-05
000060 cb 7a d5 3d 39 6b f0 3d 6d de 44 bc 7e 45 f9 bb
       0.104238115 0.11739201 -0.012015921 -0.007607161
000070 d8 f4 41 3e 6d 4e 89 3d 15 3a 2d 3e 32 0d 0b 3e
       0.18941057 0.06704412 0.16916688 0.13579252

gcn.lin_r.weight f4 [32, 32]
000000 f8 e5 c2 bc e9 b2 8f bd 81 b0 9a bb cc 10 04 3d
       -0.023791298 -0.07016546 -0.004720748 0.03224258
000010 50 33 9c 3d 55 d0 1b bc 7d eb 5f bc 55 04 30 3c
       0.076269746 -0.009510119 -0.013666985 0.01074322
000020 f0 39 00 bd 0c 0b d6 bd e6 54 d5 3d 3c 8a 90 bb
       -0.031305254 -0.10451326 0.10416584 -0.00441101
000030 af 7f b0 3d 39 1c a3 3d d2 38 b8 bb 66 29 55 bd
       0.08618104 0.079643674 -0.005622008 -0.052041434
000040 49 59 c9 bc 21 2a 5c bd 75 4a 87 3b 1c 36 63 3d
       -0.024578707 -0.053751115 0.004128749 0.055471525
000050 ab 4b 18 bd a9 99 16 3d 9d 30 01 3e 0c b5 3f 3d
       -0.037181538 0.036767635 0.12616201 0.04680352
000060 76 be 9c bd 9e a5 ec 3a 63 b0 9e bd 21 d0 72 3b
       -0.07653515 0.0018054729 -0.07748487 0.0037050324
000070 09 a4 29 3c c2 50 7a 3b d3 7e 3d 3c 5c 25 66 3d
       0.01035405 0.0038195108 0.011565882 0.056187972
000080 7e 66 62 3d 1f 73 ff 3d 37 b8 92 bb fa 72 89 bd
       0.055273525 0.124731295 -0.0044775265 -0.06711383
000090 3e 6e 9d bd 38 47 b9 bd ba 82 f3 bc 3f a9 98 bd
       -0.07687043 -0.09046787 -0.029725421 -0.07454156
0000a0 b8 0d b0 bc b2 ef 90 3d a3 73 12 3a 50 56 25 bd
       -0.021490917 0.07076968 0.0005586689 -0.040365517
0000b0 54 a6 50 bc 86 30 d2 3c 85 0f 05 3c 64 19 8b 3d
       -0.012734968 0.025657903 0.008121376 0.06791952
0000c0 e9 a6 be bd b2 02 d3 3d 6c ba 8f 3d 6d 74 9f 3c
       -0.09309179 0.103032485 0.07017979 0.019464696
0000d0 26 e2 d1 3d 10 89 59 3d 49 0a 83 bc ea 20 93 3d
       0.102482125 0.05310923 -0.015996115 0.07184012
0000e0 65 df 6e 3d 46 dc 0c bd b0 18 fb bc c9 cf 36 3b
       0.058318514 -0.034389757 -0.03065142 0.0027894846
0000f0 96 2d 06 bd c1 43 9b 3a ff c2 12 be e2 94 f8 bd
       -0.032758318 0.0011845754 -0.14332198 -0.12137772
000100 3e 13 03 80 4c 55 05 00 b8 e7 00 80 f3 bd 06 00
       -2.82409e-40 4.89776e-40 -8.3125e-41 6.19154e-40
000110 3d 2c 05 00 95 7b 02 80 eb 9a 02 00 7c 66 00 00
       4.75047e-40 -2.28004e-40 2.39245e-40 3.6764e-41
000120 08 1d 07 00 e9 60 01 80 68 3d e4 87 b8 c7 00 00
       6.53263e-40 -1.266e-40 -3.4341718e-34 7.1646e-41
000130 e8 62 06 00 90 a0 00 80 d6 37 00 80 15 0d 00 00
       5.86494e-40 -5.7599e-41 -2.003e-41 4.693e-42
000140 3d 29 07 80 dd 0e 06 00 d0 a1 02 80 8a 1f 00 80
       -6.57642e-40 5.56345e-40 -2.41718e-40 -1.1314e-41
000150 f2 c2 00 00 94 5c 02 80 20 27 90 01 f1 ed 04 80
       6.9933e-41 -2.16882e-40 5.295339e-38 -4.52699e-40
000160 1b b4 01 80 db 50 02 80 29 39 04 80 45 a7 00 00
       -1.56445e-40 -2.12676e-40 -3.87847e-40 6.0005e-41
000170 df 47 00 80 ef 9b 00 80 72 d7 00 00 24 58 04 00
       -2.5782e-41 -5.5938e-41 7.7287e-41 3.98961e-40
000180 51 2e 9a a5 35 e2 15 24 ca 6b 17 26 5c e3 ef 25
       -2.6746127e-16 3.250083e-17 5.253473e-16 4.1613956e-16
000190 fd 53 5b 26 39 f2 18 a3 8c e0 85 26 fd 92 cf 25
       7.6094714e-16 -8.291229e-18 9.289592e-16 3.600838e-16
0001a0 84 e6 b8 25 38 a6 08 a4 90 01 73 25 4c 05 4f 24
       3.2075115e-16 -2.9631092e-17 2.107742e-16 4.4890457e-17
0001b0 39 70 1e 26 00 45 fd 22 11 2a d8 23 fb ae ff a4
       5.496935e-16 6.8648844e-18 2.3436583e-17 -1.1088505e-16
0001c0 b4 0f bc 24 0b 16 0b 26 f3 af 5b a4 ca 1c 07 a6
       8.1558605e-17 4.8255186e-16 -4.763709e-17 -4.687655e-16
0001d0 76 a0 27 a4 c0 07 ca 26 2c 0d 96 24 d7 a1 dc a4
       -3.6348268e-17 1.4018666e-15 6.5074444e-17 -9.568396e-17
0001e0 f2 b7 93 25 b9 fc 3c 26 40 6b 81 22 b4 7d c2 a6
       2.562508e-16 6.5568106e-16 3.5079075e-18 -1.3495526e-15
0001f0 46 46 16 25 ba 83 63 26 2f fc b8 a5 dd 83 8c a6
       1.3034236e-16 7.893497e-16 -3.2089798e-16 -9.750193e-16
000200 cb 9f 15 3e ca 4d 02 bd 94 cf 54 be 5c c2 35 be
       0.14611737 -0.031812467 -0.2078231 -0.17749923
000210 14 9f 35 3d 7e 30 cd bd 45 e4 75 be d2 7f c1 bc
       0.04434116 -0.10019015 -0.24012859 -0.02362052
000220 01 c4 ec bd 1e 05 3a 3e e1 c9 37 3d 59 75 fe bc
       -0.11560822 0.18166015 0.04487026 -0.031061815
000230 a8 ba 1e 3c 70 5b 3f be 57 e6 10 bd 4c 00 48 3e
       0.009688057 -0.18687224 -0.03537592 0.19531363
000240 c1 dd 4c 3d ec 34 b7 bd a1 58 78 bd ab f5 00 bd
       0.05001617 -0.08945641 -0.060631398 -0.031484287
000250 63 3c 1c 3e c5 e1 24 3d 65 37 ae bd 0d 88 55 3c
       0.1525741 0.040254373 -0.085066594 0.013032925
000260 03 5d 15 bd 74 88 c5 bd 66 26 98 bd a4 fd cc 3c
       -0.036465656 -0.09645167 -0.07429199 0.025023289
000270 5f dc 04 3d e0 f0 b1 3c 10 99 be bd 5a 5e 96 bd
       0.032436725 0.021721303 -0.09306538 -0.07342215
000280 be 3f c3 9c 81 54 60 9d dc 18 8a 9c fc e6 df 1c
       -1.2920495e-21 -2.968984e-21 -9.1385e-22 1.481661e-21
000290 be 71 5e 1d b6 16 87 9b 12 56 15 9e 48 24 ae 1d
       2.9440259e-21 -2.2348553e-22 -7.905793e-21 4.609493e-21
0002a0 ef e3 54 9d 30 e6 35 1b 6b 14 c3 9c 8d 33 94 9c
       -2.8175805e-21 1.5046347e-22 -1.2909295e-21 -9.807144e-22
0002b0 7d c5 32 1d 68 b1 5e 9d 62 dd 44 1c c2 04 f7 9b
       2.3660203e-21 -2.9473172e-21 6.513709e-22 -4.0865797e-22
0002c0 85 24 75 1c 7a 7c 0f 9d d4 12 c3 9c 0f 00 bc 9c
       8.11109e-22 -1.8990245e-21 -1.2908885e-21 -1.2440812e-21
0002d0 98 8f 8a 9b d5 d7 a3 1d eb e5 14 1d 6e 06 b8 1d
       -2.292298e-22 4.3368906e-21 1.9706502e-21 4.8711043e-21
0002e0 a8 44 55 1c 9f 0a e3 9c 16 e1 85 9b 84 c4 0a 9d
       7.0564524e-22 -1.5024345e-21 -2.2148463e-22 -1.8365744e-21
0002f0 78 11 09 1c c6 0d 68 9d ff 21 69 9b 8a 61 f0 9c
       4.5352075e-22 -3.0712065e-21 -1.9284293e-22 -1.5907081e-21
000300 a8 55 c7 3c f5 28 15 bc d6 73 13 bd d4 9c 2c bd
       0.024332836 -0.009104003 -0.03599914 -0.04214175
000310 24 4a 30 bd dc db 35 3c 85 cf a2 bd 72 46 f9 bc
       -0.043039456 0.011099782 -0.079497375 -0.030429099
000320 67 fc 15 bd 21 10 09 3b b5 2f a3 bc c3 53 6a 3c
       -0.036617663 0.0020914155 -0.01992021 0.014302197
000330 9c 38 5f 3b 02 0c 95 bd 4b 36 21 3c 95 60 11 3d
       0.0034060841 -0.07277681 0.009839605 0.0354925
000340 55 93 d5 3c 1f 44 e4 bc 7e c2 ad bb 19 c2 46 3c
       0.02607123 -0.027864514 -0.0053027263 0.012131237
000350 bc 50 0f bc 07 69 57 bd ca d3 6e 3d 33 91 35 3c
       -0.008747276 -0.052590396 0.058307447 0.0110819815
000360 da 12 86 bb ea 5d 11 bd 07 2d 0a bc ad 4a 71 3d
       -0.0040916028 -0.035489954 -0.008433587 0.058909107
000370 b8 cc b2 bc f3 e5 f3 bc d1 a4 6f 3c 48 f3 97 3d
       -0.021826133 -0.029772734 0.014626698 0.07419449
000380 7c 04 d2 ad 11 d3 6f 2d b9 44 2f 30 48 89 b4 2f
       -2.3876227e-11 1.3632443e-11 6.376229e-10 3.2839353e-10
000390 bf b6 2f 30 13 04 de ab 2c ad 6e 30 7d db bd 2f
       6.3924327e-10 -1.577518e-12 8.682999e-10 3.4534856e-10
0003a0 f2 dd 14 2e 2b af 01 af f8 5a 9e 2e 1e 79 15 2d
       3.384843e-11 -1.1794714e-10 7.2011674e-11 8.496563e-12
0003b0 e0 09 24 af da 7f 92 30 20 57 aa 2d 9c 71 27 af
       -1.4919221e-10 1.0659236e-09 1.9365454e-11 -1.5228924e-10
0003c0 c8 d1 39 2e 66 98 6f af 0b 3c 9d ad 2e 4a 9a af
       4.2250453e-11 -2.1791066e-10 -1.7875498e-11 -2.8065145e-10
0003d0 19 5c 55 ad f6 75 89 2f b7 cf 49 b0 92 a4 bc 2e
       -1.2128098e-11 2.500397e-10 -7.3418555e-10 8.578484e-11
0003e0 94 bf f2 2f 20 25 65 2f 46 2b 9e ae 8d e3 bb b0
       4.4155668e-10 2.0840618e-10 -7.192695e-11 -1.3670715e-09
0003f0 1e 18 a6 2f 40 cc 81 2c ef 77 c5 af fd 35 e3 2e
       3.021236e-10 3.689077e-12 -3.591931e-10 1.0332355e-10

gcn.lin_2.weight f4 [32, 32]
000000 44 df 37 3c 5d 56 ac bc 01 3f 98 80 e0 39 f4 28
       0.011222664 -0.021037275 -1.3981597e-38 2.7114541e-14
000010 07 9f 5d bd ee 12 af 1b 3c 7e 62 bb b6 80 0b b0
       -0.05410674 2.8963554e-22 -0.0034560105 -5.0750815e-10
000020 73 df 40 bb df 91 50 bd fa d9 01 00 07 06 98 bd
       -0.002943006 -0.050920364 1.70031e-40 -0.074230246
000030 21 19 9a 0b c9 76 06 00 c5 e6 06 80 bc 68 e1 bc
       5.935645e-32 5.93625e-40 -6.33797e-40 -0.027515762
000040 5d fd 07 3e 7a b5 5a bc 0d 3a 94 bd 90 9e db bc
       0.13280244 -0.013348931 -0.07237635 -0.026809007
000050 b8 07 02 80 8d 07 04 80 ae 92 07 00 10 0f 05 00
       -1.8644e-40 -3.7005e-40 6.95467e-40 4.64581e-40
000060 d8 96 d7 3d 32 66 23 bd 2b 77 03 00 c2 41 00 00
       0.10526818 -0.039892383 3.18256e-40 2.359e-41
000070 8e 01 b1 3c ba 64 b5 bc 5b ed f3 bc cb 2d 20 be
       0.021607187 -0.022142757 -0.029776266 -0.15642469
000080 f7 52 ca bb b4 fd 78 3d e8 53 02 80 3b 1e 3a 2a
       -0.006174441 0.060788825 -2.13771e-40 1.6530607e-13
000090 16 09 08 3d ee 38 5d 1b 39 20 11 3d ba 17 96 31
       0.03321179 1.8299087e-22 0.03543112 4.368272e-09
0000a0 61 f4 46 bd 2e fc f0 bc 93 64 b2 b9 d4 9c 22 bd
       -0.0485729 -0.029417124 -0.0003402574 -0.039700344
0000b0 b3 05 cc 8d 25 6b 05 00 83 91 cc 0f cf 70 40 bd
       -1.2573843e-30 4.97614e-40 2.0172002e-29 -0.046982583
0000c0 b8 d0 2a 3c c1 ae 1a be 87 59 81 bd 26 96 c5 3d
       0.010425739 -0.15105726 -0.06315904 0.09647779
0000d0 63 21 df ad d0 3d 04 04 90 c8 b6 9e 8d 59 06 00
       -2.5366991e-11 1.5544908e-36 -1.935295e-20 5.83138e-40
0000e0 f3 04 64 3d df 0c 32 be ca 5d 73 35 27 09 00 00
       0.055668782 -0.17387722 9.0661035e-07 3.283e-42
0000f0 9f e1 5f bd 47 7d f5 bd 98 26 58 be f0 94 be bd
       -0.05465853 -0.119867854 -0.21108472 -0.09305751
000100 c9 0c e9 3b 96 e3 1e bb ea 67 00 80 bd a4 ee 28
       0.00711212 -0.0024244539 -3.7277e-41 2.6494752e-14
000110 e2 a8 38 bd 48 c7 0f 9a 8e e6 74 bb 64 4f 94 30
       -0.045082934 -2.9732685e-23 -0.0037368867 1.0790981e-09
000120 f3 af ee 3b 00 10 82 bc c1 b0 a9 89 4c 6f 88 bb
       0.0072841584 -0.01587677 -4.085149e-33 -0.0041636582
000130 3a 19 13 0c b2 df 42 00 b9 75 04 00 68 d5 53 be
       1.133206e-31 6.14139e-39 4.09573e-40 -0.20686877
000140 64 6d d7 3d 31 e1 01 3c 34 02 0a 3e 28 ae f5 3d
       0.105189115 0.007927225 0.13477403 0.11996108
000150 24 2c d0 01 82 f2 00 00 67 3c 9f 8b 2f 5f 01 80
       7.647047e-38 8.6995e-41 -6.1335456e-32 -1.25981e-40
000160 6e ec 09 be 18 b5 c7 bd c9 5c 1e 2b 73 56 04 00
       -0.13469097 -0.09751338 5.626164e-13 3.98354e-40
000170 7a 46 20 bd 85 41 af bd 0b ca 1a 3b 00 18 5a bd
       -0.03912971 -0.08557419 0.0023618962 -0.053245544
000180 1a a9 5d bd 3e db 00 bc df 03 07 80 18 d4 e8 28
       -0.054116346 -0.007864771 -6.44237e-40 2.5849155e-14
000190 44 33 ac 3d 39 33 25 9c 88 cd 1e 3d da 32 8d 31
       0.08408216 -5.4660124e-22 0.03877023 4.1094212e-09
0001a0 37 f6 3d bc 7f 64 8d 3d 74 88 27 ba 9f fa f6 bc
       -0.011594347 0.06903934 -0.00063908775 -0.030148802
0001b0 4a 04 32 0d e7 2a 02 80 77 f9 22 93 6f 72 b0 3c
       5.4855648e-31 -1.99061e-40 -2.057027e-27 0.021538941
0001c0 a5 bf e4 bd 3a f4 80 bd 5a 8e a3 3d d9 a0 d6 3d
       -0.11169366 -0.062965825 0.07986136 0.10479898
0001d0 fe 6b 11 af f9 bd 86 06 64 0d 02 80 b1 68 04 80
       -1.322604e-10 5.068434e-35 -1.88475e-40 -4.04898e-40
0001e0 15 3e 0e 3d 0f d1 04 3d 8a 47 f9 35 d4 36 07 00
       0.034727175 0.032425936 1.8572766e-06 6.62517e-40
0001f0 35 80 dc 3d b8 b1 9c 3d 84 4c 38 3e b2 49 bc 3c
       0.10766641 0.07651085 0.17997938 0.02298436
000200 a9 9f d5 3d 36 af 01 3d 79 88 07 00 51 e4 d3 2a
       0.104308434 0.031661235 6.91806e-40 3.7639556e-13
000210 63 d0 30 3b d0 90 5b 9d 18 c0 bc 3d 78 40 d9 30
       0.0026979677 -2.9059275e-21 0.092163265 1.5807151e-09
000220 47 99 71 bd 12 b1 c1 bd 14 71 35 bc 6e ff 6d 3d
       -0.058984067 -0.094576016 -0.011074323 0.058104925
000230 9d 2d 96 8d 28 25 07 80 2a 89 27 31 89 4d 37 bd
       -9.255445e-31 -6.56178e-40 2.4379667e-09 -0.044751678
000240 d4 65 a8 3c 8f aa 0f be 54 c6 b3 3d af 99 17 bd
       0.020556368 -0.14029907 0.087780625 -0.0370118
000250 87 07 58 b8 a7 0e 4a 2e 57 e1 02 80 ed 37 02 00
       -5.1505423e-05 4.5942496e-11 -2.64508e-40 2.03733e-40
000260 c3 9d b0 bd bf 18 02 be 8f 91 4f 3a 98 47 00 00
       -0.08623841 -0.12704752 0.0007918113 2.5683e-41
000270 90 b7 e2 3d 41 7e 23 be a6 ac 8c 3d f6 c0 26 3e
       0.11070168 -0.15966131 0.068688676 0.16284546
000280 69 93 cf 39 dd fa 1e be 81 73 1f 00 f0 fb 65 2a
       0.00039591946 -0.15525384 2.888335e-39 2.0426694e-13
000290 a7 b0 3f be 89 5c a9 1b 03 43 33 bd 06 30 ca b0
       -0.18719731 2.8018504e-22 -0.04376508 -1.4711083e-09
0002a0 45 0f b7 bb 55 ea 65 bd c4 63 20 3a 42 ad 9c bc
       -0.005586537 -0.05613168 0.0006118382 -0.019125585
0002b0 6e 66 98 0d f0 38 00 00 ec ed 32 80 78 c3 a9 bd
       9.392382e-31 2.0425e-41 -4.677125e-39 -0.08289236
0002c0 3e 38 ca 3d db 98 48 3d 7f 45 2c bd ea 55 d6 bd
       0.098740086 0.0489739 -0.042058464 -0.104656056
0002d0 24 e0 67 2a 7b 53 05 80 b2 42 00 00 91 1f 03 80
       2.0594686e-13 -4.89125e-40 2.3926e-41 -2.8683e-40
0002e0 aa 0d 96 bc 8a 8c 33 3e ab bf f6 b0 45 68 04 00
       -0.018317062 0.1753408 -1.7953331e-09 4.04747e-40
0002f0 d8 1b a4 3d c4 2d af 3d e3 84 99 bd b5 54 46 3c
       0.08013123 0.08553651 -0.07496049 0.012105157
000300 27 aa 82 3d a8 c8 05 bd ff 53 03 80 6a a4 06 2b
       0.0638011 -0.032662064 -3.05639e-40 4.7834534e-13
000310 16 42 38 3d 51 55 2f 9d c2 99 bb 3d 48 71 92 30
       0.0449849 -2.3205165e-21 0.09160186 1.0655095e-09
000320 84 76 17 bd ad ed ad 3d 11 7f 1e bc ea 2b f8 3c
       -0.03697826 0.08492599 -0.00967385 0.030294377
000330 12 71 3c 0e 23 e5 02 00 d4 f6 32 2f b3 dd 29 be
       2.322723e-30 2.6587e-40 1.6276697e-10 -0.16588478
000340 dc 14 6e bd 45 00 9d 3d ed 33 05 3d 64 27 bb bd
       -0.05812536 0.07666067 0.032520223 -0.091383725
000350 df d1 a4 b7 df 2e ac 2b 4a e9 e2 81 7b 62 03 80
       -1.9648052e-05 1.2234344e-12 -8.335404e-38 -3.10835e-40
000360 2d 9e f8 bd 4a ee 82 bd 53 a3 e8 39 e9 d8 05 80
       -0.12139545 -0.06393106 0.00044372174 -5.3699e-40
000370 27 a9 58 3d 44 f1 17 bb cf 67 e5 bd 30 a8 d6 bc
       0.05289569 -0.0023184577 -0.112014405 -0.026203245
000380 0d 25 37 bd 4d c5 ac bd 3d 04 02 00 a4 50 85 2a
       -0.04471307 -0.0843607 1.85191e-40 2.3681502e-13
000390 f0 f7 d1 3c 23 eb 89 9c b5 39 9c 3d 1a f7 0d 31
       0.025630921 -9.126681e-22 0.07628194 2.0658661e-09
0003a0 8b 2b 55 3d ce c0 56 bd b1 f5 33 bc 45 ac fb 3d
       0.05204348 -0.052429967 -0.01098387 0.12288717
0003b0 15 1b d9 8d 7c 1c 1e 82 c7 61 e0 31 b1 e9 ab bc
       -1.3380177e-30 -1.1616181e-37 6.530374e-09 -0.020985456
0003c0 2f 14 8a bc 3a df e2 bd 70 f9 f5 bd 5a 21 1a be
       -0.016855327 -0.11077733 -0.12010467 -0.15051785
0003d0 41 21 97 b8 f2 40 40 2f 2f 8b 02 00 88 0f 05 80
       -7.206435e-05 1.7485371e-10 2.336e-40 -4.64749e-40
0003e0 bd be bb bd 96 31 9b bd a5 f0 79 3a c4 0f 07 00
       -0.0916724 -0.07577817 0.0009534455 6.48504e-40
0003f0 9e 57 66 bd ee 1c 2a be 51 d0 86 bd 54 86 03 3d
       -0.056235902 -0.16612598 -0.06582702 0.032110527

gcn.lin_2.bias f4 [32]
000000 c2 54 a9 3c cd e5 9e bd 6f 33 8f 3d 8a c5 e1 bd
       0.020670298 -0.07758675 0.06992232 -0.11024006
000010 50 ed d2 bd 9f 1a c2 3d 3a c0 37 be 0d 1d 08 3d
       -0.1029917 0.09477734 -0.17944422 0.03323083
000020 b4 93 fb 3d 86 ae bd 3c 68 7d 50 3d 5c 76 af bd
       0.122840315 0.023154508 0.050900847 -0.08567497
000030 5c eb 1c be 00 d4 e9 bd 00 95 d6 3d d0 1b d0 bd
       -0.15324157 -0.11417389 0.10477638 -0.10161555
000040 3b 0b d2 bd ab 4b 06 be 85 2e 17 be 79 c6 e1 bd
       -0.10256048 -0.13114803 -0.1476384 -0.11024184
000050 6e 94 e6 bd bd 84 92 bd ab d6 19 bd b8 e9 24 be
       -0.112587795 -0.07154224 -0.03755824 -0.16104782
000060 53 64 eb bd f3 d6 fa bd 8d 63 2c be 2b eb e8 3d
       -0.11493745 -0.122480296 -0.1683485 0.1137298
000070 26 39 c1 3d e9 cb 27 3e 65 d8 de 3d 3e 6f b7 3d
       0.09434728 0.1638638 0.10881118 0.08956765

nf.base_dist_mean f4 [243, 1]
000000 90 38 f9 bf 56 33 bc 3d fc 0f 4c be d4 fe 89 be
       -1.9470387 0.09189479 -0.19927973 -0.2695223
000010 c7 49 55 bf 1c 27 d7 3f a9 30 e1 3e c9 3a ab 3f
       -0.833157 1.680881 0.43982437 1.3377315
000020 47 8c 03 bf ab ba 61 bf 7f a4 a6 be b1 ce 80 3f
       -0.5138592 -0.8817546 -0.32547376 1.0063077
000030 e8 d0 4f 3f 1c 81 0f 3f c3 69 c6 be 55 80 0d 3f
       0.8117814 0.5605638 -0.38752565 0.55273944
000040 e4 8a 62 be ff 82 a2 be b0 8f 36 c0 61 e3 5c 3d
       -0.22123295 -0.31740567 -2.85252 0.053927783
000050 bb b0 e3 3f ab c1 00 3f dd 5f 6e bf b9 76 75 3f
       1.7788309 0.50295514 -0.93115026 0.9588428
000060 60 7f 60 bf d3 e0 cd 3f f6 0d 4a 3f 8b ab 52 be
       -0.8769436 1.6084236 0.7892755 -0.20573251
000070 cb 1f e4 3d 53 f2 4f 3f d8 9b 56 3f 02 3e 27 bf
       0.111388765 0.8122913 0.8383155 -0.6532899
000080 9b 42 2e 40 ff 7f 30 bf 0e cf 9a bf 5d 15 19 c0
       2.7228153 -0.68945307 -1.2094438 -2.391929
000090 bb 64 84 be 3a 3b fc bf e2 6b 96 3f 09 d9 d0 3f
       -0.258581 -1.9705575 1.1751673 1.6316234
0000a0 1e bb f5 be 7d 54 45 be 9a 63 e2 bf 97 e9 92 be
       -0.47994322 -0.19270511 -1.7686646 -0.2869384
0000b0 88 2c 0c bf ab bd a5 be 44 b4 04 40 96 2e 00 c0
       -0.5475545 -0.32371268 2.0735025 -2.0028434
0000c0 07 f5 9d 3e 20 df 55 bf 1a 23 59 bf a4 d2 b3 3f
       0.30851004 -0.83543587 -0.84819186 1.4048657
0000d0 d5 34 31 3f 8e 7a 11 bf 3f b5 bd 3e fb 86 c7 3e
       0.6922124 -0.5682763 0.37052342 0.3897017
0000e0 f4 c6 fc bd 48 4b 1a 3f 54 47 73 be 1e 9a 4f bf
       -0.12342635 0.6027112 -0.23757678 -0.8109454
0000f0 3e 8f 05 c0 2e a3 64 bf e4 58 6c 3f dd 52 a5 bf
       -2.0868678 -0.8931149 0.92323136 -1.2915913
000100 2a c4 15 3d fb 9a 54 3f 2f 20 9d be 96 e0 ba bf
       0.03656403 0.8304898 -0.30688617 -1.4599788
000110 d8 e3 f6 be 33 40 c9 bf 28 16 06 be b4 30 a4 be
       -0.48220706 -1.5722717 -0.1309439 -0.32068408
000120 27 42 98 bf 84 0b 05 c0 7a 97 ad bf 61 5d 89 bf
       -1.1895188 -2.0788279 -1.3561852 -1.0731622
000130 48 f8 d1 3e 6d 33 c5 3f 27 22 d1 bf 0d e6 8f 3f
       0.41009736 1.5406319 -1.6338547 1.1242081
000140 d4 64 3c 3f 08 9b 8c bf ad 2a 9e be a8 c8 35 bf
       0.7359135 -1.0984812 -0.30891934 -0.710093
000150 e8 61 ff 3d df 39 45 bf 58 8d f4 3f 50 c1 4c 3f
       0.12469846 -0.7704143 1.9105635 0.7998247
000160 36 89 58 3f c5 96 5e 3f b2 3d 78 bf b3 28 d5 3f
       0.8458437 0.86948806 -0.9696914 1.6653045
000170 47 cd 8b 3f 9d 6c ff 3c 0e 97 b3 3d 06 9d a3 3e
       1.0922021 0.03117972 0.08769046 0.31955737
000180 74 76 4a be 20 0c 4e 3f c1 02 63 3d ea a8 08 bf
       -0.19771749 0.8048725 0.05542255 -0.5338274
000190 f7 ae 13 be df 8d 94 3d f7 65 f0 be 68 26 75 3f
       -0.14422213 0.07253622 -0.46952793 0.9576173
0001a0 06 43 55 bf d3 91 d4 3f e4 2e a9 bf 99 ef b6 bf
       -0.83305395 1.6607002 -1.3217435 -1.4291869
0001b0 e0 44 80 bf 5d 02 3b c0 7c 89 e6 bc 4b 1a 5b 3f
       -1.0021019 -2.9220192 -0.02814173 0.85586995
0001c0 b6 96 c3 3f 4a f3 d4 bd e5 24 c6 be 94 4d b0 be
       1.5280368 -0.10397966 -0.38700023 -0.34434187
0001d0 c0 41 55 bf 51 db 4b bf 11 8c c5 bf 82 4e 90 be
       -0.8330345 -0.79631525 -1.543337 -0.28184897
0001e0 9d 91 4f 3c 84 6c b1 3f 69 34 36 be 66 d7 b4 3f
       0.012668994 1.3861241 -0.1779343 1.4128234
0001f0 18 84 c6 3f 8b 6b 2c bf b9 99 6c 3f d0 d3 3e 3f
       1.5509062 -0.673516 0.9242206 0.7454195
000200 de f1 0d 3f 27 c9 8b 3f e3 9f 5f 3d f6 cf 3e 3f
       0.55447185 1.0920762 0.05459584 0.74536073
000210 66 9d c2 bf 77 ca 02 3f b4 ac 30 be 41 f9 7e be
       -1.5204284 0.51090187 -0.17253381 -0.2489977
000220 85 33 05 be 76 d8 4d 3f bd ed 1a bf c6 49 84 bf
       -0.13007934 0.8040842 -0.6051901 -1.0335014
000230 10 e6 22 bf f5 9a 45 bf 1c fe a5 3f 48 e3 ad bf
       -0.636323 -0.7718957 1.2968173 -1.3584986
000240 88 9a 29 bf e9 8d 8b 3f 80 61 10 c0 1c 75 c9 3f
       -0.6625142 1.0902683 -2.255951 1.5738864
000250 06 a4 68 be 69 37 b2 3e ce 81 1d 3e 3a 5d 25 3f
       -0.2271882 0.348079 0.15381548 0.6459538
000260 50 87 95 be 4e 84 12 3e 71 0d aa 3e e1 b6 a1 be
       -0.29204798 0.14308283 0.3321338 -0.31584838
000270 4a 6f 8f 3e 67 1c 9c be 3c d7 60 3f 9b db dd 3f
       0.28014594 -0.3049042 0.8782842 1.7332643
000280 d0 96 0f bf 22 e2 1c 40 5a 25 60 3f 0a ea 29 bf
       -0.56089497 2.451302 0.87556994 -0.6637274
000290 56 8d 47 3f 41 09 23 bf ca a3 02 bf 54 aa f0 be
       0.77950037 -0.63685995 -0.5103117 -0.4700495
0002a0 82 5b a3 bf ba f9 d6 be db ca 9a 3e f7 3a c5 be
       -1.2762301 -0.419874 0.3023289 -0.3852155
0002b0 aa f2 81 3f c3 84 d2 3f 3a 9e ce 3e 75 94 52 bf
       1.015218 1.6446766 0.40355092 -0.8225778
0002c0 45 f9 fc be 3b bc ae be 30 7c 32 bf d2 a3 07 bf
       -0.49408928 -0.34127983 -0.69720745 -0.52984345
0002d0 eb 6e 13 bf 0b 6b 61 3e be 78 95 be 65 50 84 3f
       -0.5759112 0.2201349 -0.2919368 1.0337034
0002e0 c5 63 48 bd df 33 66 3f 03 1f 40 3f 91 d8 17 bf
       -0.048923273 0.899229 0.7504732 -0.5931483
0002f0 e6 f9 0b bd 6c 53 d8 be 2d ec b8 3f b7 94 87 3e
       -0.03417387 -0.42251146 1.4447075 0.26480648
000300 2a e6 9c bf 92 54 44 3e ef 36 5d bf 8d 8b 83 3f
       -1.225774 0.19172886 -0.86411947 1.0276963
000310 58 aa 85 bf 91 ee c0 be 8c 72 f7 bd 52 f7 7e bd
       -1.044261 -0.37682012 -0.12082395 -0.06224758
000320 61 0f 1f 40 36 b8 a7 bf 65 8d 18 3f 19 8b 98 be
       2.4853137 -1.3103092 0.5959075 -0.29793623
000330 64 f8 02 3f 39 69 c2 be 82 5a 98 bf bb 93 85 3e
       0.51160264 -0.37970904 -1.1902621 0.26089272
000340 09 65 74 bb 05 05 84 bf 5c 65 6c bf 8e 7b 1a 40
       -0.0037291667 -1.0314032 -0.9234216 2.4137912
000350 96 1b e1 be 0e fa df 3c 1f 19 26 40 f5 c7 22 bf
       -0.4396636 0.027340915 2.5952833 -0.6358636
000360 4a ce c2 be 3b fe f0 be eb 48 e1 bf a1 f7 db be
       -0.3804801 -0.47068962 -1.7600378 -0.42962363
000370 c3 42 2c 3e f3 0e 11 3f 91 ad 3b bf 71 33 d4 3d
       0.16822343 0.56663436 -0.73311716 0.10361374
000380 e3 53 03 bf 08 7f f7 3e c7 bb 16 3f 56 43 eb 3e
       -0.51299876 0.48339105 0.58880275 0.4594981
000390 98 63 6d bf 40 c3 aa 3d 99 aa 6a 3f f4 f7 47 be
       -0.92730093 0.08338022 0.9166656 -0.1952818
0003a0 32 bd 1f c0 f0 8d c6 3f ce 7c 01 be c4 f0 d9 3e
       -2.4959226 1.5512066 -0.12645265 0.42566502
0003b0 b9 26 38 bf 71 bb 5a bf 1c 4b 02 40 0c 93 cb bd
       -0.71934086 -0.8544226 2.0358343 -0.09940156
0003c0 bf 8d b0 bc 92 27 67 bf 75 ef 2f bf
       -0.021551965 -0.90294755 -0.6872476
