Baseline-models/DAGMM/DAGMM-ROAD/no--dagmm/models/13_194_dagmm.pth (torch, 82200 bytes, 22 tensors)

phi f4 [4]
000000 fe 94 38 3e b4 c8 06 3e ce c8 12 3f 2c fe ea 3d
       0.18025586 0.131625 0.57337654 0.11474261

mu f4 [4, 3]
000000 60 25 66 3e 4e 4a 9d 3f 04 43 c6 bd 22 df 85 3e
       0.22475195 1.2288301 -0.09680751 0.261468
000010 03 68 99 3f b6 33 3f bd 5c 01 c2 3d bf f4 aa 3f
       1.1984867 -0.046680175 0.094729155 1.335594
000020 ba 35 8c be 0b 0c 8f 3e 8c 7d 97 3f ca fc b4 bc
       -0.2738474 0.27938876 1.1835189 -0.022093195

cov f4 [4, 3, 3]
000000 31 e5 78 3e a5 03 4c be a1 56 a9 3e a5 03 4c be
       0.2430618 -0.19923265 0.33073905 -0.19923265
000010 f4 47 27 3e b5 d1 8a be a1 56 a9 3e b5 d1 8a be
       0.16336042 -0.2711312 0.33073905 -0.2711312
000020 f1 6e e6 3e 92 70 81 3e 1c 42 54 be 92 25 b0 3e
       0.45006517 0.25281197 -0.20728344 0.34403664
000030 1c 42 54 be 20 16 2e 3e 8b 70 90 be 92 25 b0 3e
       -0.20728344 0.17000628 -0.28210863 0.34403664
000040 8b 70 90 be b6 b7 ef 3e b0 35 43 3e 91 fc 1f be
       -0.28210863 0.46819848 0.19063449 -0.1562369
000050 b4 cd 84 3e 91 fc 1f be 38 30 03 3e 5a b8 59 be
       0.2593819 -0.1562369 0.12811363 -0.21261731
000060 b4 cd 84 3e 5a b8 59 be 3d b5 b4 3e 16 f5 82 3e
       0.2593819 -0.21261731 0.35294524 0.2557761
000070 5c bc 56 be 62 38 b2 3e 5c bc 56 be f8 18 30 3e
       -0.20970291 0.34808642 -0.20970291 0.17197025
000080 1f 21 92 be 63 38 b2 3e 1f 21 92 be a8 8c f2 3e
       -0.28540894 0.34808645 -0.28540894 0.47372937

encoder.0.weight f4 [60, 118]
000000 55 79 c7 bc bf d5 ab 3d 72 51 ab 3c bd 45 38 ba
       -0.024349848 0.08390378 0.02091286 -0.0007029435
000010 45 3e ac 3d ef 3e 08 bd 94 07 ff 3c 84 83 5c 3d
       0.084103145 -0.033263143 0.031131543 0.05383636
000020 93 fb 8b bd 1d 5f 83 3d 0e df 0b 3d ce aa 37 3c
       -0.06835093 0.06414626 0.03414827 0.011210157
000030 1a fd 2c 3d 25 53 35 3d 7e c8 81 bd 0b 8e 30 bd
       0.042233564 0.044268746 -0.06337069 -0.043104213
000040 35 22 9a 3d 02 c7 41 bd d0 e1 e1 bc c6 99 9a bd
       0.07526056 -0.04730893 -0.027573496 -0.07548861
000050 c9 7e bc bc 8f 71 f6 bc f1 56 01 3d b8 c4 67 bd
       -0.023009675 -0.030083446 0.031577054 -0.05658409
000060 5a ce af 3d 9e 8b 78 3d 00 09 b2 3d 16 d8 02 bd
       0.0858428 0.060680024 0.08693123 -0.031944357
000070 28 ef 2f bd 24 44 be bd 66 55 b4 bd d4 d0 a7 bc
       -0.042952687 -0.092903405 -0.08805351 -0.02048532
000080 11 6b 61 3d 57 6f 04 3d fe 61 2f bd b3 fd 53 3d
       0.055033747 0.032332744 -0.042818062 0.05175562
000090 62 f5 bc bc 65 71 6b bd 18 56 85 bc a9 27 77 bd
       -0.023066226 -0.05748119 -0.016276404 -0.060340557
0000a0 b9 73 37 3d b3 52 16 3d 38 b1 d5 3c e7 a8 49 bb
       0.044788096 0.036699962 0.026085481 -0.003077084
0000b0 64 16 0c bd 6e 90 24 3c 0c a7 9f bd a2 63 0e bd
       -0.03420104 0.0100442 -0.077955335 -0.034762986
0000c0 66 e5 22 bd 26 d3 9b bd a1 59 1b bd cf bb b2 bc
       -0.039769553 -0.07608633 -0.037927274 -0.02181807
0000d0 cc c2 c1 bc c0 30 43 bc 15 31 09 3b 8d a0 b0 bd
       -0.023652457 -0.011913478 0.0020933796 -0.08624373
0000e0 aa 51 2c bd 69 88 53 bc 7a 37 8f bb e2 5d 95 bc
       -0.04207007 -0.012910941 -0.004370627 -0.018233243
0000f0 c0 da cb bb f7 66 07 bd f4 9a a6 3d 92 72 19 3d
       -0.0062211454 -0.03305718 0.08135024 0.03746278
000100 da 36 a2 3d 8f d6 9c 3d 9a 57 88 3d 8e 8c 92 bd
       0.07920618 0.07658111 0.06657334 -0.07155715
000110 a6 f2 2c 3d cb 6e 90 3d eb 3c bb 3d a0 7a 0b 3d
       0.042223595 0.07052382 0.091424786 0.03405249
000120 e9 22 80 3d 8a 76 66 bd f8 2e 17 3d 80 5d ab bd
       0.062566586 -0.05626539 0.036910027 -0.08367443
000130 ce e9 18 bd 94 c5 9b bc f8 3c 9f bd fc 15 b8 bb
       -0.03733235 -0.019015111 -0.07775301 -0.005617855
000140 d5 3e ef bc 6e 56 fe 3c d4 70 3b bd 4d bf 00 3b
       -0.029204765 0.031047072 -0.0457619 0.0019645274
000150 cd dd 81 3d 70 2f e4 bb 15 dd 9b bd d0 7b 10 3d
       0.06341133 -0.006963663 -0.076105274 0.035274327
000160 7d 26 be bd e9 84 a2 3d cd 30 02 3c 53 21 7e 3c
       -0.09284685 0.07935507 0.007946205 0.015510875
000170 18 e7 8d bd 1c 8e cd 3c 50 07 1d 3d 40 b4 a6 3d
       -0.06928843 0.025092177 0.038337052 0.08139849
000180 a8 3e 03 3d 00 48 17 39 df 22 83 3d 9a 07 3c bd
       0.032042176 0.00014427304 0.064031355 -0.045905687
000190 ff 8d 80 3d 20 b7 74 3d e0 e8 4d bd 48 24 03 bd
       0.062770836 0.059744954 -0.050270915 -0.032017022
0001a0 5a 2b 1f bb 38 54 3e 3d 9a ae 39 bb 09 05 8e bd
       -0.0024287314 0.046467036 -0.002833283 -0.06934554
0001b0 c7 0f 57 3d a4 07 ed 3c 9a 0f 2f bd d5 9d 70 3c
       0.05250528 0.028934307 -0.04273949 0.014686068
0001c0 af 72 b8 bc 95 6f 94 bd 2a d0 8d 3d 97 b3 89 bc
       -0.022515623 -0.07247845 0.0692447 -0.016809268
0001d0 a6 9b 57 3d e3 8f 21 bc 18 be f1 bc c0 6f 78 3d
       0.052638672 -0.009860965 -0.02950959 0.060653448
0001e0 a1 9f b3 3d bc 08 d8 bb e1 e5 05 bc b8 15 84 bd
       0.08770681 -0.006592838 -0.008172483 -0.06449455
0001f0 97 bd 82 bd 7a ef 15 3d 07 47 88 bb 44 ab 5a 3d
       -0.06383818 0.036605336 -0.0041588577 0.053385988
000200 56 b5 3e 3d 48 ee 11 3d 3a 39 6d bc 70 38 0d 3d
       0.046559654 0.035627633 -0.014478976 0.03447765
000210 c8 9e c7 bc a5 9b 01 bd 86 40 27 3d de c0 c1 bc
       -0.024367705 -0.031642575 0.04083302 -0.023651537
000220 d0 0c 39 3d a5 33 ef bc 35 2e 2b 3d e8 f2 95 3d
       0.045178235 -0.02919943 0.041792113 0.07321721
000230 e3 8d 8b 3c d9 68 2d bd 64 49 ad 3c 88 3e 67 bd
       0.01703543 -0.04233632 0.02115316 -0.05645612
000240 8f 2e 53 bd 87 6d d7 bd 17 30 99 3d ea 93 a4 bd
       -0.051558074 -0.105189376 0.074798755 -0.08036025
000250 36 01 64 3c e3 9c bb 3b 69 80 9e 3d 65 59 5d 3c
       0.013916304 0.0057254895 0.07739336 0.013510083
000260 b1 11 9f 3c e2 74 7f bd c6 76 18 3d 01 97 a3 3d
       0.019417616 -0.062367328 0.037222646 0.07987786
000270 ab 93 8d bd b6 18 a8 bc 69 dc b2 bd 45 86 1c 3c
       -0.06912931 -0.020519596 -0.08733446 0.009553497
000280 a4 02 e0 3c 35 eb 04 bd 9c 50 90 bc a0 bc 03 bd
       0.02734501 -0.032450873 -0.017616563 -0.03216231
000290 e5 bb 9f bc fd ba 22 3d ca 2b bb 3d 3f b8 b6 3d
       -0.019498775 0.039729107 0.091392115 0.08921861
0002a0 da a4 0d bd 1f 3b 1f 3c 78 d2 8f bd bc d8 84 3d
       -0.034581043 0.009718685 -0.070225656 0.06486651
0002b0 e8 5a 91 bd af 65 08 3d 10 d3 a3 bc 89 84 5f 3d
       -0.07097417 0.033300098 -0.019998103 0.054569755
0002c0 7c 2f 9e 3d 28 66 5f bc e3 cf b5 3d 81 76 ae bc
       0.07723901 -0.013635196 0.08877542 -0.021296741
0002d0 47 18 73 3d 80 ec aa 3c a4 c5 a1 3d e5 b7 4b 3d
       0.059349325 0.020864725 0.07899025 0.049735922
0002e0 3d df 01 bc 65 66 56 3c b9 d1 a3 3b e5 6f 54 bd
       -0.007926759 0.013085936 0.004999366 -0.051864523
0002f0 81 2c de bc 42 e4 e5 bc 57 16 6d 3d 2b 4f 53 3d
       -0.02712083 -0.028062943 0.057882633 0.051589172
000300 bb dc 8c 3d e4 6a 20 bd 80 22 7d bc d1 4f 90 3d
       0.068780385 -0.03916444 -0.01545012 0.07046474
000310 cc ef fe 3c b4 b1 10 3b 2d 3b 04 bb 74 eb d1 3c
       0.031120203 0.0022078576 -0.0020176873 0.025624968
000320 05 c2 88 bd 77 8e 81 bd 3e 93 9e bd d6 26 38 3d
       -0.06677631 -0.06326001 -0.07742928 0.04495891
000330 a0 6f a7 bb c0 d8 04 be 99 4b 86 bb 30 7a d4 bc
       -0.0051097423 -0.12973309 -0.0040983674 -0.02593717
000340 71 8c 74 3d 04 e8 c4 3b 1e 49 a5 bd ef ce 91 3d
       0.059704248 0.0060091037 -0.080705866 0.071195476
000350 23 51 f0 bc c2 24 1e bd 73 d4 52 bd 7c 96 7d bd
       -0.029335564 -0.038609274 -0.05147214 -0.06191109
000360 e8 26 d1 bc c1 5a a6 bd ef 03 5f bc 67 7b 5e bd
       -0.025531247 -0.08122779 -0.013611778 -0.054316904
000370 b4 dd e6 3d 12 46 b9 bc c7 02 b7 3d 52 b0 30 bd
       0.11272755 -0.02261642 0.089360766 -0.043136902
000380 81 40 80 3b a9 b4 e5 3c fc 51 8d bc a1 1f cc bd
       0.0039139395 0.028040247 -0.017251007 -0.0996697
000390 4e 3b 97 bc ff c0 ff 3c aa f0 03 bd f7 7b 7c 3b
       -0.018460896 0.031219957 -0.032211937 0.0038526037
0003a0 f6 a5 3d 3c 9d f7 c3 3d 52 bc 29 bd 3c 57 96 bc
       0.011575213 0.09568713 -0.041439362 -0.018352143
0003b0 be 7a 21 bc 76 11 63 bd 8c 96 80 3c 1d 74 43 bd
       -0.009855924 -0.055436574 0.015696786 -0.047718156
0003c0 12 78 21 3d f2 1b c1 bd e5 33 bb bd a8 eb 21 3d
       0.03942115 -0.09429158 -0.091407575 0.03953138
0003d0 b5 37 90 3d 81 85 40 bc 4a 89 3e 3b fd 76 37 3b
       0.07041875 -0.01175058 0.002907353 0.0027994507
0003e0 ec 94 97 3d 73 f2 2b 3d 10 f3 06 3c b6 b5 5e 3d
       0.074014515 0.041979264 0.008236662 0.05437251
0003f0 3e af ee 3c 91 0b ef 3b ca ed d2 3b b5 67 9e 3d
       0.029136296 0.00729508 0.006437038 0.07734624

encoder.0.bias f4 [60]
000000 42 cb e1 3c bf 36 a9 3d 94 55 ca 39 47 fa 22 3d
       0.027562741 0.08262395 0.00038592203 0.039789464
000010 0e a1 84 bd 7a dc 0d 3d ff 98 c6 bd 4a fa eb bc
       -0.06476031 0.03463409 -0.096971504 -0.02880587
000020 72 c0 6e 3d 3f d4 93 3d 9d ff f1 bb 84 27 1a bd
       0.058289 0.07218217 -0.007385208 -0.03763534
000030 32 11 3b bd 54 3f 7f 3d 34 32 08 bd da 88 95 bd
       -0.045670696 0.062316254 -0.033251002 -0.07301493
000040 e1 0d 4f bc 29 a1 8e 3d 05 53 50 bd 82 09 f6 3d
       -0.012637586 0.069643326 -0.050860424 0.12013532
000050 17 c6 35 bb a9 3b 5e 3d 13 ea ef bd f8 2e 48 bc
       -0.002773648 0.054256115 -0.11714568 -0.0122182295
000060 da ab 02 3d 2f 09 58 3c c3 6a 34 3d 7e 94 0e bd
       0.03190217 0.013185783 0.04404713 -0.034809582
000070 cc 6a b9 bc d9 13 ae 3d a3 ee 33 3d 80 bc 96 bc
       -0.022633933 0.084998794 0.043928754 -0.01840043
000080 5d 53 90 3d b9 b6 95 bd 5a e0 a2 3c 32 90 a4 bd
       0.0704715 -0.07310242 0.01988237 -0.080353156
000090 2d 5f 9c 3d 73 d7 f3 3d a5 61 6d bd 3f 21 bf 3a
       0.07635341 0.11906328 -0.05795445 0.0014582052
0000a0 14 63 64 bd d7 b5 be bc 81 82 cd 3c cb 3d 91 bc
       -0.05575855 -0.023280067 0.025086643 -0.01772966
0000b0 6a 73 2d bd c6 f3 e9 bc 34 85 1d 3d 18 6a 08 bd
       -0.042346396 -0.028558623 0.03845711 -0.033304304
0000c0 60 e8 26 bd 21 d5 a5 bc 81 1b 20 bd 9f cb 30 bd
       -0.040748954 -0.02024323 -0.03908873 -0.04316294
0000d0 a3 a6 9d bd d5 ad 24 bd 1b 6f 60 bc ac ee d2 bb
       -0.07697799 -0.04020484 -0.013698365 -0.0064371433
0000e0 57 36 0d 3d 4d 62 3c 3b 60 74 d8 bc 9f 65 7e 3d
       0.03447565 0.0028745115 -0.02642268 0.062108632

encoder.2.weight f4 [30, 60]
000000 fd f0 fb bd 8d ad da 3d 6f ac 70 bd 3b ae ad bc
       -0.12301824 0.106776334 -0.058758195 -0.021201244
000010 05 87 ce bd 5e e9 73 3d 97 93 98 bd a3 e7 b4 3d
       -0.10084347 0.05954873 -0.074500255 0.08833244
000020 f2 a7 b4 3d 55 3e 57 bd 2b c7 82 3d 6d 94 56 bc
       0.088210955 -0.05254968 0.063856445 -0.013096911
000030 9c 4a ea bd ef 8d a7 bd db 54 e6 3d 98 1a 39 3d
       -0.11440012 -0.081813686 0.11246654 0.045191377
000040 56 70 41 bb eb 33 16 bd da 0e e4 3d 92 dd fa bc
       -0.002951642 -0.036670607 0.11135645 -0.030623231
000050 63 5b de 3d 1f 28 e9 bd 79 ee e4 bd 83 28 d2 3c
       0.108572744 -0.113846056 -0.111782975 0.025654083
000060 96 3e c7 3d cf 99 35 3d 50 ab de bb 7d 60 a1 3c
       0.09728734 0.044336136 -0.0067953244 0.01969933
000070 5f 6d ea 3d a7 52 05 be 46 e9 2f 3c 2d 30 9a bd
       0.11446642 -0.1301981 0.010736769 -0.0752872
000080 46 bf 94 3c 48 a7 f9 b9 17 23 0c bd 3a 71 98 3c
       0.018157613 -0.00047617615 -0.03421315 0.018608678
000090 86 7e 9c 3d a1 32 3d 3b 45 4e 3b 3c d4 94 83 3d
       0.0764132 0.0028869289 0.011432235 0.06424871
0000a0 79 68 0a 3e 6f 29 99 bd 99 f0 bb bd b7 46 e9 bd
       0.13516416 -0.07478606 -0.0917675 -0.11390441
0000b0 da 01 f5 bd fc a5 72 bc 6c 0b 56 bd b5 4c f0 bd
       -0.11963244 -0.014810082 -0.052256986 -0.11733381
0000c0 13 81 81 bd 5a 4e d8 3c 9d 65 d1 3d f3 7a ff 3d
       -0.06323447 0.026404548 0.10224459 0.124746226
0000d0 26 04 95 3d 8a 99 29 bd 7b 54 53 3c f5 b5 4a 3c
       0.07276182 -0.041406192 0.01289856 0.0123724835
0000e0 65 5a cc bd b7 8a 0b 3e 56 26 f9 bd ff 3b df 3d
       -0.09978179 0.13627134 -0.12165515 0.10900115
0000f0 9b 4b b9 bd a3 7b 1e 3c d4 1f d3 3d 64 e8 85 bd
       -0.09047624 0.009673032 0.10308805 -0.065384656
000100 35 43 cd 3d 09 60 a0 bd b4 b8 99 3d c6 f6 f3 3d
       0.10022584 -0.07830817 0.075059325 0.11912303
000110 44 af d9 3d 87 bc 64 3d 08 0a 12 3d e3 81 ec 3d
       0.106291324 0.055843856 0.035654098 0.115482114
000120 e2 ba 23 3d 2b b8 52 bd 03 4d 3c 3d ac be d4 bd
       0.039973147 -0.051445168 0.04597188 -0.1038793
000130 9a 49 8f bd 8b e9 81 3c c7 22 1e 3d 87 cf 34 bd
       -0.0699646 0.015858432 0.038607385 -0.044143226
000140 5d 20 db bd 1a e4 08 3d 42 71 bf 3b 41 08 55 bc
       -0.10699532 0.03342066 0.005842359 -0.013002456
000150 27 85 09 bc 50 b7 05 3d a4 13 b9 3d 5f 52 fb 3d
       -0.008393562 0.032645524 0.09036949 0.122715704
000160 6d 85 82 3d 4d 3f 26 bd 7c 68 c7 3c 0a ac e0 bd
       0.06373105 -0.040587712 0.024341814 -0.10970314
000170 4e b9 99 3d 05 cc c2 bd 0e e3 e3 bc 49 d7 d3 3d
       0.07506047 -0.0951157 -0.027818229 0.10343797
000180 39 58 6c 3d d9 ac e5 bd eb a9 b9 3d 21 55 bc 3d
       0.057701323 -0.11214609 0.090656124 0.091959246
000190 51 61 92 3d 50 63 8c 3d 8d a3 a0 bd 43 7d f8 bd
       0.07147468 0.0685488 -0.07843695 -0.12133267
0001a0 91 33 b4 3d 41 a7 c4 bc fc b3 76 3d e2 01 95 3d
       0.08798898 -0.024005534 0.06023024 0.0727575
0001b0 e8 c8 94 3d 20 58 a0 bd d1 22 e5 bd 00 d0 dd bc
       0.07264882 -0.078293085 -0.11188281 -0.027076721
0001c0 0a 33 71 bd 3a a8 d0 bd 35 4d b6 3d ce 2e 09 3e
       -0.058886565 -0.10188337 0.08901445 0.13396761
0001d0 65 97 18 bd 62 18 9b 3d ad d9 75 3d 65 3b 47 3d
       -0.037253756 0.0757301 0.060022045 0.048640627
0001e0 4a 06 fa bc 8a 38 a6 bd 3c 88 f6 bc 24 07 e9 3c
       -0.030520577 -0.08116253 -0.030094258 0.028445788
0001f0 1a c3 a5 3d 10 99 46 3d c4 68 d2 3d bd b0 7f bd
       0.08093853 0.048485816 0.10273889 -0.06242441
000200 9c e9 67 bd 0b 20 82 bd 38 e7 bb bd 12 5e c5 bc
       -0.05661927 -0.06353768 -0.09174961 -0.024092708
000210 80 65 93 bd d5 04 84 3d 5a 8c 05 3d c3 40 03 bd
       -0.07197094 0.06446234 0.032604553 -0.032044183
000220 a7 fc b8 3d 3a f1 94 3d 97 9d d3 bd c1 e9 46 bb
       0.090325646 0.07272573 -0.10332792 -0.003035173
000230 87 bd d2 3c 34 e3 88 3d 7e 97 08 be 87 69 0d be
       0.02572514 0.066839606 -0.1333904 -0.13809787
000240 13 cc 0c be ec 68 03 bb 78 9f 0b 3e 99 7f 7f 3d
       -0.13749723 -0.0020051552 0.13635051 0.062377546
000250 01 6e 00 be 60 eb dc 3d c4 bf 93 bd e4 d3 b3 bd
       -0.12541963 0.10787082 -0.07214311 -0.08780649
000260 14 ac 04 3e 48 7b 23 3d 0f ba 60 3d 50 36 c0 bb
       0.12956268 0.039912492 0.05486494 -0.0058658496
000270 9b c3 c5 3c 79 df 33 3c 0b c0 ed 3c d0 ce 01 bb
       0.024141124 0.010978573 0.029022237 -0.0019807108
000280 b4 9a 05 be 93 ed 08 3e bc c1 d3 3d cc 92 ef bb
       -0.13047296 0.13371877 0.10339686 -0.0073112007
000290 4c bf b6 bc 44 ba d7 3d e0 db e5 3d 24 11 6b 3d
       -0.022308014 0.10533574 0.112235785 0.057389393
0002a0 0b 4a 95 3d 04 d0 d9 bd a3 43 7d 3d d2 6f dd 3d
       0.07289513 -0.10635379 0.06183208 0.10812344
0002b0 d2 a9 a1 bd a2 d8 0c 3e dc 57 c5 bd 74 4f 08 be
       -0.07893719 0.13754514 -0.096358985 -0.13311559
0002c0 60 d1 9c bd 25 ae a5 bc f7 8c dc bd 4d 3c 51 bd
       -0.076571226 -0.02022464 -0.107690744 -0.051082898
0002d0 ee de d6 3d 9a d5 86 3d c8 15 60 bc b8 00 c0 bc
       0.10491739 0.0658371 -0.013677068 -0.023437843
0002e0 cb 9d 00 be 0a 21 0c 3e 92 69 51 bd bb a7 5a bb
       -0.12560193 0.13684478 -0.05112607 -0.0033364135
0002f0 8c 11 80 bd 21 18 b8 bd 20 c8 06 be 03 0b eb bd
       -0.06253347 -0.08988977 -0.13162279 -0.1147671
000300 08 0f 3e bc 64 5a 60 3d a1 21 9e 3d 05 bd fb bc
       -0.011600263 0.054773703 0.07721258 -0.03072978
000310 ab 86 37 3c c2 10 98 3d f1 2c 87 3d 0d cc 08 3e
       0.011201541 0.07425071 0.06600369 0.13359089
000320 be 3b f4 bc eb a2 11 bd 4c 53 79 bc 83 ad 9b 3d
       -0.029813644 -0.03555576 -0.015217613 0.07601454
000330 2a 7e d1 3c 06 29 0c be 7f ae c4 3d 0d a4 74 bb
       0.025572855 -0.13687524 0.09603595 -0.0037329227
000340 17 b0 e7 bd 2c 48 0f 3e c9 2a a5 bd b7 fe 14 bb
       -0.11312883 0.13992375 -0.08064801 -0.002273483
000350 ba 2b 8f bd 20 0d aa bd d9 0d d8 bd c2 48 99 3d
       -0.06990762 -0.08303285 -0.10549516 0.074845806
000360 ff ad 7f 3d d5 a5 3d bd fa 3d 91 3d 23 3f dc bd
       0.062421795 -0.046300728 0.07091899 -0.1075423
000370 0d 4b 3b bd 79 0b 02 3c 55 36 d7 3d bc fb d1 3d
       -0.04572587 0.007937306 0.1050841 0.10253093
000380 6d e9 a8 bd 32 1a 2f 3d 50 54 d0 bc ad 65 c1 3d
       -0.082476474 0.04274959 -0.025430828 0.09443221
000390 9c 71 9b bd 20 48 f2 bd 6d e6 0e bd 14 89 26 3d
       -0.07590029 -0.11830163 -0.03488772 0.04065807
0003a0 02 14 49 bd 4b 51 69 3d 72 b9 04 be 4c 99 e7 bd
       -0.049091347 0.056962293 -0.12961367 -0.11308536
0003b0 c3 eb 22 3d 95 cd 06 be 69 f4 58 3d 26 e7 94 3c
       0.03977562 -0.13164361 0.052967463 0.018176626
0003c0 33 fb e1 3d 6b ce f8 bc c2 2b 98 bc e9 8e 0c be
       0.110342406 -0.030371865 -0.018575553 -0.13726391
0003d0 17 e9 97 bd cd f1 95 bd 02 b6 07 be d4 86 a7 bd
       -0.07417505 -0.073215105 -0.13253024 -0.08180013
0003e0 2c a0 c6 3d 0b 5b aa bd a0 3f 18 be 86 25 05 be
       0.09698519 -0.08318146 -0.14868021 -0.13002595
0003f0 27 bd c0 bd 4c 47 90 3d 37 64 d7 bd 57 df 76 bd
       -0.09411078 0.07044849 -0.10517161 -0.060271587

encoder.2.bias f4 [30]
000000 27 a3 e3 bd 39 3c c9 bc 11 e5 cd 3d 73 7d 93 bc
       -0.11115103 -0.02456485 0.100534566 -0.018004155
000010 89 a9 a4 3d 24 92 81 3b 71 b0 a0 3d 3d 2d 01 3d
       0.08040149 0.003954189 0.078461535 0.031537283
000020 0b b5 7b 3c c6 53 f2 bc a0 64 87 bd 90 7a d8 3d
       0.015362988 -0.029580962 -0.066109896 0.10570252
000030 02 e9 51 3d 13 ba 0b 3c 3b 14 06 3e 3f c7 ff 3c
       0.051247604 0.00852825 0.13093655 0.031222938
000040 63 34 54 3b dc 5a 8d 3d 06 ff 89 3d 6e a2 bd 3c
       0.0032379858 0.06902096 0.06738095 0.023148742
000050 9a 71 4c 3d 8a 16 7b 3d 08 45 fd bc c3 48 98 3d
       0.049913026 0.06130079 -0.030916706 0.07435753
000060 e9 52 b4 3d f0 81 df 3d 8f 0a 31 3d e0 a8 2a 3d
       0.08804876 0.109134555 0.04322296 0.041664958
000070 6f 65 c9 3d ce 2f 87 3d
       0.098338 0.06600915

encoder.4.weight f4 [10, 30]
000000 7d 68 21 be ab 7c 29 3e 53 87 8c bd 2c 31 42 bd
       -0.15762515 0.16551463 -0.068617485 -0.047410175
000010 d0 0e d5 3d 15 5c 8f 3c 42 1e 68 bd b8 b9 0c be
       0.10403216 0.017499963 -0.05666948 -0.13742721
000020 c9 4b 27 be 7f 0f 4d bd 4c 41 95 3d 45 b8 2d be
       -0.16337503 -0.050063606 0.07287845 -0.16964824
000030 72 26 79 3d da b9 4d 3e b4 f2 f1 3c 89 b0 2a 3e
       0.06082768 0.20090428 0.029534675 0.16668905
000040 98 97 4b 3d 32 f3 44 be 1a 0c be bc a2 4f 10 3e
       0.049705118 -0.19233397 -0.02319913 0.14092878
000050 24 36 92 bd bf 29 32 bc a7 9b e3 bd 01 45 ed 3d
       -0.07139233 -0.010874211 -0.11113673 0.11585427
000060 96 de bc bc 3c 83 8c bd 28 1b d0 3d 57 43 17 3e
       -0.023055356 -0.068609685 0.1016143 0.14771782
000070 91 58 01 3e ae a2 b3 3c 68 49 2d 3e 0c 9a a1 bd
       0.12631442 0.021928158 0.16922534 -0.0789071
000080 78 40 68 bd bf 28 e9 bd 4e 0f 3f 3d 69 23 0d be
       -0.056702107 -0.11384725 0.046645455 -0.13783039
000090 e2 a6 b6 3d 30 ce b8 3d 0c 84 f6 bd c2 0f 93 3d
       0.08918549 0.09023702 -0.12036905 0.0718074
0000a0 ba c9 cc bc a5 82 27 be 70 93 1c 3e 9d 26 17 bd
       -0.024998534 -0.1635843 0.15290618 -0.03690206
0000b0 09 f4 56 bd f0 ad 99 bd ff 37 22 3d b6 58 32 be
       -0.052478824 -0.07503879 0.039604183 -0.17416653
0000c0 22 d9 02 be f9 66 25 3e 78 9d 32 3e 3a f1 dd bd
       -0.12778142 0.16152562 0.17442882 -0.10837026
0000d0 8d a7 c5 3d d8 c4 46 3d 06 f7 16 be 9f 9d 30 be
       0.096510984 0.04852757 -0.1474267 -0.17247628
0000e0 ac 2a 98 3d d3 6d bd 3d 05 4d 3e be a7 56 56 bb
       0.07430014 0.09249463 -0.18584068 -0.0032705457
0000f0 71 4f 0a be 44 bb 9d bd 08 d9 87 bc e9 db 2a 3e
       -0.13506867 -0.07701734 -0.01658298 0.16685452
000100 69 a5 a1 3d 99 fb 10 be a2 00 46 bd f3 af 3b 3e
       0.078928776 -0.14158477 -0.048340447 0.18328838
000110 46 69 2a bd 43 e0 10 bd 19 06 18 bd 56 e7 1b be
       -0.041604303 -0.035370123 -0.03711519 -0.15224966
000120 0c 07 fa bd aa 9b 0c 3e 07 7b ef bd 6e bc a4 bc
       -0.12208375 0.13731256 -0.116933875 -0.020109382
000130 0a 55 2c 3e 79 ac 14 3e 69 57 25 be 63 bc 93 3b
       0.16829315 0.14518918 -0.16146626 0.0045085414
000140 c3 31 3d be 05 9d 4b bd 40 6d b6 bc 70 78 0e 3d
       -0.18476014 -0.049710292 -0.022268891 0.034782827
000150 a2 71 83 bd e4 cb 33 3e 66 3a f3 bd 64 72 19 3e
       -0.06418158 0.17558247 -0.11876373 0.14985043
000160 45 60 38 3e c9 22 9c 3c bc 2d df bd de 98 47 3b
       0.18005474 0.019059556 -0.10897395 0.0030456106
000170 ab 6f 9f 3d bb 03 c4 3c 55 55 39 3e a4 67 11 bd
       0.07784971 0.02392756 0.18098958 -0.03549923
000180 6c 1d 4a 3e 8e 3e 52 bd dc ce 3b be aa 99 58 bd
       0.19737786 -0.051329188 -0.1834063 -0.05288092
000190 f0 21 7c bb 28 c4 0e 3e b9 ed 06 bd 1d dd 05 3e
       -0.0038472377 0.13942015 -0.032941554 0.1307263
0001a0 a9 3d 26 3e f3 f2 2d 3d 9a 64 fe 3c 05 46 33 bc
       0.16234459 0.042468023 0.03105383 -0.010941987
0001b0 b0 a6 2e bd aa 51 9e 3d 1c c9 20 bd 5a 1c fc bd
       -0.042639434 0.0773042 -0.039254293 -0.12310095
0001c0 99 8f 4d 3d 9a 2f 01 3e 46 e9 a7 bc 79 ed 27 bd
       0.050185774 0.12615815 -0.020496976 -0.040997956
0001d0 9b 01 45 3d da 83 1f 3e 8e dc 0f be d4 ac df bd
       0.048097234 0.15577641 -0.14048979 -0.10921636
0001e0 aa 2d 45 3e 45 7a be 3b d4 0d f1 bd 1d b3 29 be
       0.192557 0.0058129155 -0.11770216 -0.16572233
0001f0 41 87 9e bc 07 91 95 bd 76 82 37 be 35 92 e4 bc
       -0.019351603 -0.073030524 -0.1792086 -0.027901748
000200 54 54 ac 3d d4 0a 73 3d 42 2d ed bd 20 63 89 3d
       0.08414522 0.0593365 -0.11580898 0.0670836
000210 d4 a3 0a bb b9 28 19 be 5a e6 10 bb 6d cd 4d bd
       -0.0021154778 -0.1495694 -0.0022109956 -0.050244737
000220 99 1f 2e be f8 77 0a be 7a e9 c4 3c ae b1 ba bd
       -0.17004241 -0.13522327 0.024037112 -0.09115921
000230 73 77 08 be c4 1b 1f ba af da fc bd 90 8f db bd
       -0.13326816 -0.0006069506 -0.12346398 -0.10720742
000240 42 76 7c bd 83 b6 9b 3d f4 12 95 3c 75 07 0a bc
       -0.061636217 0.07603171 0.018197514 -0.008424629
000250 61 b7 2f be 10 da c2 3a d0 d6 72 bd 65 4d b4 3d
       -0.17159797 0.0014866013 -0.059286892 0.08803824
000260 7b fd 5f bd dc 4a 1b 3e f8 72 79 3d 09 63 24 3d
       -0.054685097 0.15165275 0.06090066 0.04013351
000270 19 90 d9 3d d6 e2 9e bd cc f5 09 be df 48 24 3d
       0.106231876 -0.07758109 -0.1347267 0.040108558
000280 82 c3 f8 bd 64 21 23 bc 71 80 1f be 66 fe fe 3d
       -0.12146665 -0.009956691 -0.1557634 0.124508664
000290 bc 64 1a 3e e6 5c 0c 3e 07 68 cb 3d 00 24 37 be
       0.1507749 0.13707313 0.09931951 -0.17884827
0002a0 84 05 d5 bd f2 b0 a7 bd 04 d8 81 ba 4d 74 08 bd
       -0.10401443 -0.081880465 -0.0009906297 -0.033314038
0002b0 a7 92 da 3d 8a d7 73 3d 7c 3f e8 3d 02 9f ad 3d
       0.10672503 0.059531726 0.11340234 0.08477594
0002c0 a0 a3 16 be e7 5c 35 bd e8 73 04 3d d7 af 2e be
       -0.14710855 -0.04427805 0.0323371 -0.17059265
0002d0 0e 07 90 3d 16 f7 a2 bd f6 2d 1e 3d 3a ec 06 3e
       0.070325956 -0.07957284 0.03861805 0.13176051
0002e0 ce 86 da 3d 9d 39 2b be a7 f8 15 3d 2d 83 cb bd
       0.10670243 -0.16721196 0.036614086 -0.09937129
0002f0 8d 84 1f 3e f3 27 f4 3d 0f a2 39 3e a1 2d 84 3d
       0.15577908 0.11921682 0.18128227 0.064540155
000300 b2 5d 8a 3d 4c 76 00 bd b2 88 ad 3c 01 7f 16 be
       0.06756152 -0.031362817 0.021183345 -0.14696886
000310 8a 87 fa bd 61 62 ab bd df 54 80 3d 99 ab 04 be
       -0.12232883 -0.08368374 0.06266188 -0.12956084
000320 26 ea 24 be 21 64 ed bd 56 f4 4a 3e 5c b0 af bd
       -0.16104946 -0.11591364 0.1981977 -0.0857856
000330 b3 8a 14 be 68 5f 9a 3d ff ec 48 be fa 7a 0c 3e
       -0.14506035 0.075377285 -0.19621657 0.13718787
000340 10 89 02 3e e9 45 72 bc 9d 08 01 3b 2a 46 83 3d
       0.12747598 -0.014787176 0.0019688972 0.06409867
000350 7d 30 1b bd 00 ee d6 3c f7 55 d9 bd 08 86 68 3d
       -0.03788804 0.026236534 -0.106120996 0.056768447
000360 63 b9 9a 3d 67 82 0b 3e a2 dd 91 bd 7b 26 cf 3d
       0.07554891 0.13623963 -0.07122351 0.101147614
000370 0f f7 de bd 7a b3 08 3e 47 1e 90 3d 48 5d 7a 3d
       -0.108869664 0.13349715 0.07037025 0.061124116
000380 a2 d6 b7 bd e2 aa 35 be 36 36 26 be a6 a2 0e be
       -0.08976485 -0.17740968 -0.16231617 -0.13929233
000390 cf b2 0d bd 13 91 0b 3d 57 c8 9e bd 8f 16 8f bd
       -0.034594353 0.0340739 -0.077530555 -0.069867246
0003a0 d0 a8 16 3e 8a 32 a5 3d e3 d1 18 be 0c 1a a6 3d
       0.14712834 0.0806628 -0.14923815 0.08110437
0003b0 47 7b f1 3d a0 b7 9e bd 70 aa 38 3e 36 9b c9 3c
       0.117910914 -0.077498674 0.18033767 0.024610143
0003c0 8c e5 b7 bb 80 50 0c 3e a0 72 a1 bd 4d 22 a0 3d
       -0.005612081 0.13702583 -0.07883191 0.07819042
0003d0 f2 f6 58 3b b3 56 de bd 61 16 c7 3d f2 cd 1d be
       0.0033106175 -0.1085638 0.09721065 -0.15410593
0003e0 dc d2 17 3e 7d 00 6a 3d 9f e5 02 be a4 6e 81 bd
       0.1482653 0.057129372 -0.12782906 -0.06319931
0003f0 53 d0 4c 3e f7 8a 50 3e cd 2e 20 3d 8d e0 1f 3e
       0.20001344 0.20365511 0.039107133 0.15613003

encoder.4.bias f4 [10]
000000 a2 48 82 bd 92 19 92 bd 76 b7 0d 3d 9e 0c 45 bd
       -0.0636151 -0.071337834 0.03459879 -0.048107736
000010 52 84 99 3d 8b b4 1a 3e b3 d1 fd bd b4 5e bc bd
       0.07495941 0.15107934 -0.123935126 -0.09197751
000020 3a 32 75 bd fb 85 c9 bc
       -0.059862353 -0.02460002

encoder.6.weight f4 [1, 10]
000000 6d 8d a2 be a3 02 00 bd 88 68 a6 3e 43 fb 6c 3e
       -0.31748524 -0.031252515 0.32501626 0.23142724
000010 1c d1 ff bd 31 78 b1 ba 86 9e 43 3e 21 59 0f 3d
       -0.12491056 -0.0013539848 0.1910344 0.03499711
000020 78 3e ac be 85 cc 53 be
       -0.3364141 -0.20683487

decoder.0.weight f4 [10, 1]
000000 59 da ba 3e a4 13 3a bf 47 db ca 3e 3b ab 60 3f
       0.3649471 -0.7268622 0.3962042 0.87761277
000010 45 ed 30 bf 4d 6b d8 be ee 59 ea 3e 4b 3d 66 3f
       -0.69112045 -0.42269364 0.45771736 0.89937276
000020 cf 0b 75 3e 71 18 25 bf
       0.23930286 -0.6449042

decoder.0.bias f4 [10]
000000 aa b6 7f 3f 36 ef 4d be 28 5c e7 3d 76 ed a5 3b
       0.998881 -0.20110783 0.11296874 0.005063708
000010 8f 9a 93 3e 75 1f 01 bf ad ed 08 3c fb a8 42 bf
       0.28828856 -0.50438625 0.008357448 -0.76039094
000020 ff 37 34 bf 6e 72 3f bf
       -0.70397943 -0.7478398

decoder.2.weight f4 [30, 10]
000000 c5 57 94 3d 94 58 2f be 91 1e 2a be 02 43 7f 3e
       0.07243303 -0.17123634 -0.16613223 0.24927905
000010 14 e5 16 be e3 4d 95 bd 0a 9a bb 3b de c3 64 be
       -0.14735824 -0.07290246 0.00572515 -0.22340342
000020 39 8e f6 39 9f 38 16 3d 28 50 64 3d f9 75 f0 3d
       0.0004702674 0.03667509 0.055740505 0.117412515
000030 6e f4 34 bd 58 c4 a8 be a8 d2 ef 3d 37 f4 a5 3e
       -0.04417842 -0.32962298 0.11710101 0.32412884
000040 43 23 05 be 0b c2 5d 3e cd 06 93 3e 09 5b 3c be
       -0.13001733 0.21656053 0.28716126 -0.18394102
000050 a2 b4 74 be 4b 7b 9f be eb 79 d4 3c 94 b6 1b 3e
       -0.23897031 -0.31148753 0.025937041 0.15206367
000060 70 b9 a1 be 0b c9 a2 3e 76 25 63 be 8a a3 ee bd
       -0.3158679 0.3179401 -0.22182259 -0.11652286
000070 05 14 75 3d 21 cd b0 bc 2b 51 96 3e d2 b3 87 be
       0.059833545 -0.021582188 0.293588 -0.2650438
000080 11 b5 18 3e 00 45 9a 3d b4 20 8a 3d 42 a3 0d bd
       0.14912821 0.07532692 0.06744519 -0.034579523
000090 23 21 18 3e 95 d7 54 bd 12 70 25 3c 6a 7a 31 3e
       0.1485639 -0.051963408 0.01009752 0.17331854
0000a0 b2 59 d2 bc 8a 06 63 3e 6e 3c b3 3d 02 51 8c be
       -0.025677536 0.22170463 0.087517604 -0.27405554
0000b0 80 58 b4 3d 97 b9 cc 3d 07 c3 9f 3e 61 d4 fd bd
       0.088059425 0.09996336 0.31203482 -0.12394024
0000c0 34 11 fd bd 69 4c 71 3e 68 44 24 3e 56 54 a0 3e
       -0.12356797 0.23564304 0.1604172 0.31314343
0000d0 39 38 77 3c c3 be 08 3e 81 e7 86 be 00 16 8e 3e
       0.015089088 0.1335402 -0.26348498 0.2775116
0000e0 8e b7 c1 bd d7 bc ae be 07 a7 00 be 8d 19 1b be
       -0.094588384 -0.34128448 -0.12563716 -0.15146466
0000f0 0e 33 9b 3e c7 c8 08 3e 83 e3 a1 3e 1e 20 32 be
       0.3031239 0.1335784 0.3161889 -0.17395064
000100 df 51 29 3e cd 97 62 bd ed 9d 53 bc f7 61 a6 3b
       0.16535138 -0.05532055 -0.01291607 0.0050775963
000110 25 48 92 3c 65 e4 9b 3e 6b 0c db bc 83 20 a4 bc
       0.017856667 0.3044769 -0.02673932 -0.020035034
000120 ff 40 40 3e 61 a2 47 3e db 38 09 3e 08 8d 21 3e
       0.18774794 0.19495536 0.13400595 0.15776455
000130 d4 38 a6 3e 0e 0d 89 3e c2 52 a9 bd f4 a6 25 3e
       0.3246523 0.26767772 -0.08267738 0.16176969
000140 cc 70 1b bd e1 63 73 be de 22 8d be 2c 2c 84 3e
       -0.03794937 -0.2376857 -0.27565664 0.2581495
000150 af 3c 12 be 11 c9 ae bd 42 11 89 be b9 f5 bc bd
       -0.14280961 -0.08534444 -0.2677098 -0.092265554
000160 05 b1 ab 3e 25 a3 94 be f1 b1 dd bd fc 90 c0 bc
       0.33533493 -0.2903072 -0.10824955 -0.023506634
000170 67 26 1c be d7 64 4a 3e cb 60 cd 3d b3 16 20 be
       -0.15249024 0.1976503 0.100282274 -0.15633659
000180 53 04 0b be c6 a3 ad 3d 5b da b7 bd d4 47 02 be
       -0.13575868 0.08478503 -0.08977195 -0.12722713
000190 6a 98 3e 3e cd 9a 35 be 28 07 97 be b4 3a 8a be
       0.18612829 -0.17734833 -0.29497647 -0.26997912
0001a0 ae 93 87 3d cc 82 95 3c 8e 15 69 3e 8f 61 9c 3e
       0.066199645 0.018250845 0.22762129 0.3054318
0001b0 6d 00 87 3d 00 0d 6f 3d 41 2b 1f 3b f3 18 17 bd
       0.06591878 0.058362007 0.0024287256 -0.036889028
0001c0 ed 17 44 3e 1c fe 2b 3c 5f 37 4c be 0d d9 8c 3d
       0.19149752 0.010497596 -0.19942997 0.06877337
0001d0 e4 3c 50 3d 78 ff 97 be 7a 03 07 be c2 92 ee bd
       0.05083932 -0.29687095 -0.1318492 -0.116490856
0001e0 5f 41 b0 bd 48 78 7b 3e 83 6b e1 bd f7 d5 aa 3e
       -0.086062185 0.24557602 -0.11006834 0.33366367
0001f0 61 e4 b5 3d 04 fb db bd 7b 97 ec bb 5e 68 95 bd
       0.088814504 -0.10741237 -0.0072202063 -0.07295297
000200 ec d2 46 be ba cf c3 3d 4b 7f 54 3e bb 63 a1 bd
       -0.19416398 0.09561105 0.20751683 -0.0788035
000210 02 fd 3c be 42 50 96 be 98 10 4f 3e 30 33 73 bd
       -0.1845589 -0.29358107 0.20221174 -0.059374988
000220 5c b2 2a 3e 1a 3c 8e 3e fa e8 e6 3c a0 68 f7 bd
       0.16669601 0.2778023 0.028187264 -0.120805025
000230 3d 5f 67 3e 07 f3 55 3e 08 54 4a be 67 02 8d be
       0.22594924 0.20893489 -0.19758618 -0.27540895
000240 3f 70 7b bb 18 27 27 3e 67 9d ad bc a1 7d bc 3c
       -0.0038366464 0.16323507 -0.02119322 0.023009123
000250 00 fd 18 be 20 f8 66 be 0b 8c 8b 3e c4 d5 99 3e
       -0.14940262 -0.2255559 0.27255282 0.30045903
000260 9e d1 3a be ae 1a 65 3e 9b b9 94 bd 96 43 84 be
       -0.18244025 0.22373459 -0.07261964 -0.25832814
000270 5a 45 30 3e f8 dd 2c 3d c5 4e 58 3d 16 46 9e be
       0.17213956 0.042203873 0.052809495 -0.30912846
000280 c1 81 81 be 78 db 3f 3e 09 8c ab bd 2d 1c 8d be
       -0.25294307 0.18736064 -0.08376319 -0.2756056
000290 77 75 32 bd 52 be 93 3c 2e 75 8e be 45 e6 76 be
       -0.043569054 0.018035088 -0.27823776 -0.24111278
0002a0 2b 48 95 3e 5b 6d 86 3d 18 ed ac bd b9 19 29 3e
       0.29156622 0.06563827 -0.084436595 0.16513719
0002b0 f0 e5 a2 be 9f 5e 5c be 20 f0 c7 3d 16 42 36 be
       -0.31816053 -0.2152047 0.09762597 -0.17798647
0002c0 ec 5a 3d bd 27 cd 9e be d0 29 0e be 9d 99 08 be
       -0.046229288 -0.31015894 -0.13883138 -0.13339849
0002d0 36 e5 24 bd 6f 78 67 3c 93 06 75 be 71 6a 96 3d
       -0.040257655 0.014127835 -0.23928289 0.07344521
0002e0 ae a7 39 3d 56 90 df 3d d7 7e e3 3d b9 2e 2f be
       0.045325927 0.10916202 0.11108177 -0.17107667
0002f0 84 cc c0 3d 49 da 08 3d 3e 5d e8 3d 78 5a 89 3e
       0.09414008 0.033411298 0.113459095 0.26826835
000300 31 78 a4 3c bb be 76 3d d6 a5 ea bc 44 31 30 be
       0.020076843 0.06024049 -0.02864353 -0.17206293
000310 d9 c0 a2 3e cc a1 7c bd a8 d2 c6 bd 82 c8 c0 3d
       0.31787756 -0.06167774 -0.09708148 0.09413244
000320 0d 3b 8a be 2d 28 72 3e 6f fd 97 3e e9 dd 2f 3e
       -0.26998177 0.23648138 0.29685542 0.17174496
000330 8a 20 5f 3d c1 ed b8 bd f6 be cd 3d e6 90 0a 3e
       0.05447439 -0.09029723 0.100461885 0.13531837
000340 28 f6 9c be 31 b3 8b be ea aa 69 be 2c 18 62 3e
       -0.30656552 -0.2728515 -0.22819105 0.22079533
000350 aa 5e ca bd 76 1b 69 3e 02 23 9f bd cd 76 e1 bd
       -0.09881337 0.22764382 -0.07770349 -0.110089876
000360 e4 9f b1 bd f8 fd 3c be 9b 2d 69 be 0a 95 39 bd
       -0.08673075 -0.18456256 -0.22771303 -0.04530815
000370 63 c0 90 be 1f 60 58 3d e0 5b 52 bd f0 89 3d 3e
       -0.2827178 0.052826043 -0.05135715 0.1850965
000380 3f cf 8c 3c 27 33 d0 bd 34 82 8a 3e 6c eb 17 3e
       0.017188666 -0.101660065 0.27052462 0.148359
000390 ba 97 04 3e ac 92 21 3d 11 81 4a 3e c6 2f e1 3b
       0.12948504 0.039446518 0.19775797 0.00687215
0003a0 ab 8a 2d be 60 08 cf 3d 19 80 1f 3d 17 d6 83 3d
       -0.16947429 0.10109019 0.038940523 0.06437319
0003b0 73 0a 45 bd 8e ea 58 be 23 bc 65 3d 1e 34 98 be
       -0.04810567 -0.21183226 0.056087624 -0.29727262
0003c0 fb 2e b3 bd 06 be 8b be b6 03 17 3e 78 47 0f 3e
       -0.08749195 -0.27293414 0.1474751 0.13992107
0003d0 5c ca a1 bc 59 ff 30 bd 0a a4 38 3e c3 70 9b 3e
       -0.019749813 -0.04321227 0.18031326 0.30359468
0003e0 98 7c 5e 3e 99 26 bd 3d 0c 69 a6 bd be 65 9d 3d
       0.21727216 0.092358775 -0.08125505 0.076854214
0003f0 60 83 61 be 67 c5 a5 bd be c5 97 3e 53 cd 6e be
       -0.22022772 -0.08094292 0.29643053 -0.23320512

decoder.2.bias f4 [30]
000000 7d f2 4c 3e 60 77 e7 bc 09 22 f6 bc 29 03 0b be
       0.20014377 -0.028255165 -0.030045526 -0.13575424
000010 cc f8 a2 3e f2 32 39 be 13 5e 5c 3e d8 4a 28 3d
       0.31830442 -0.1808584 0.21520261 0.041087
000020 a2 0e 4d be 15 f7 c2 3d 82 2b 8f be 62 8d 08 bd
       -0.20025113 0.095197834 -0.2796288 -0.03333796
000030 19 5f e2 3c d6 a5 99 3e a7 68 99 be 15 28 6f 3e
       0.027633237 0.30009335 -0.29962656 0.23355134
000040 0c 46 0b 3d d8 ae 85 bd 06 94 89 be da 94 3a 3e
       0.03400235 -0.065274894 -0.26870745 0.18220845
000050 f4 40 b2 bd 1a 2c 96 be 59 0d 25 be 82 16 60 3e
       -0.08703795 -0.29330522 -0.16118373 0.21883586
000060 24 cc a0 bd f0 9e 16 be aa c6 55 3d 6e 1a 3b be
       -0.07851437 -0.14709067 0.052191414 -0.18271801
000070 3d 5d 68 be 1e 91 25 be
       -0.22691818 -0.16168639

decoder.4.weight f4 [60, 30]
000000 28 d5 f8 3c cd b8 08 be 71 42 1b 3e 90 75 65 bc
       0.030375078 -0.13351746 0.15162064 -0.01400508
000010 cb d0 21 3e b9 04 80 3c ef 23 d2 3c ec 25 11 3e
       0.15802304 0.015627252 0.0256519 0.14174622
000020 7f 6e d1 bd 50 32 95 bc e0 ee 3d be 73 a2 5b 3d
       -0.102261536 -0.018212467 -0.18548155 0.05362172
000030 39 d5 9e bd ef 38 33 bd c2 2f df 3d ed 82 8d 3c
       -0.07755513 -0.043755468 0.10897781 0.017274344
000040 58 2b 4f bd 7e f4 96 bd 4f 5f 17 be 08 ce f3 bc
       -0.050578445 -0.07370852 -0.14782451 -0.02976133
000050 b7 b1 2a 3e a4 07 05 be 31 92 d5 3d cc a5 32 3e
       0.16669355 -0.12991196 0.104282744 0.17446059
000060 04 1d 15 be 26 be bc bc 7d ee ea bd ea 89 92 3d
       -0.1456185 -0.023039889 -0.11471269 0.07155211
000070 ac 01 0e be a6 e5 39 3d ec da 38 bd 6e 9e ae bd
       -0.13867825 0.045385025 -0.045130655 -0.08526312
000080 c6 ac a8 bd 85 7e 2a be 25 f8 1e be 45 96 6f bb
       -0.08236079 -0.16649826 -0.15524347 -0.0036558073
000090 84 66 34 be 57 8d 8d 3d 09 af db bd 69 bd 02 be
       -0.17617232 0.06911724 -0.10726745 -0.12767567
0000a0 8a 10 0c be c2 88 2c 3d 8b 52 5e 3c c2 b0 68 3c
       -0.13678184 0.04212261 0.013569484 0.014202299
0000b0 ce 14 d2 3d 41 d7 4b bd b1 17 be bd 84 40 7b 3c
       0.102578744 -0.04976583 -0.092818625 0.015335206
0000c0 e7 b6 0b 3e 08 2a 76 bd 41 02 19 bc b2 bd 2d bd
       0.1364399 -0.060098678 -0.009338916 -0.042417236
0000d0 20 2f 94 bb 79 78 33 be 18 cf 00 3e 0f 21 25 3e
       -0.0045222193 -0.17526425 0.12579 0.16125892
0000e0 fe 54 0b 3e 73 00 20 3d e8 9c 95 3d 2d b9 ae bd
       0.1360664 0.03906293 0.07305318 -0.08531413
0000f0 69 09 18 3e e0 bd 86 3d ca 74 52 bd 46 4c 24 be
       0.1484734 0.065791845 -0.05138091 -0.16044721
000100 fe d2 b4 3d 89 d2 13 3d b9 af 09 3e bd ec 2d bd
       0.08829306 0.036089454 0.13445939 -0.0424621
000110 9f 84 8a 3d c2 c9 08 3e c3 55 0b 3c 3e 29 1a be
       0.06763577 0.13358214 0.008504334 -0.15054795
000120 a7 25 e4 3d a2 7b 4d 3d 2a 66 de 3c 10 1d b8 3b
       0.11139994 0.050166734 0.027148325 0.005618699
000130 2b 02 fc 3d 6d ce 70 bd 53 56 09 3e 6d b1 13 3e
       0.12305101 -0.058790613 0.13411836 0.14423151
000140 4f ae 8e 3d ff aa 1e 3d 81 ed 1f 3d 45 27 9b bd
       0.069668405 0.038737293 0.03904486 -0.075758494
000150 35 d2 c0 3d 22 3a 1e 3e 7b 6e 9d 3d a7 bd 08 be
       0.09415094 0.15451863 0.07687088 -0.13353597
000160 b5 1d a7 3d 8f bc 8e bd 59 c5 72 3d 00 76 a0 3d
       0.08159963 -0.069695584 0.059270237 0.07835007
000170 a7 b1 cd 3d 5a c3 a8 3b 56 9d 27 bd ac 4b 22 bd
       0.1004365 0.005150241 -0.04092153 -0.039622948
000180 3f 58 69 3d 48 03 89 3d 8f 2f d7 3d f1 6f 51 bd
       0.056968924 0.06690079 0.10507118 -0.051132146
000190 03 99 80 bd c3 96 03 be d7 f2 48 3e a0 9c d4 3d
       -0.06279185 -0.1285048 0.19623886 0.10381436
0001a0 7b 48 95 bc 06 eb ac bc 6c 11 06 bd 35 d9 46 3e
       -0.018223038 -0.021108162 -0.03273146 0.19418795
0001b0 4d 20 40 be c0 f8 09 be 2c 2b 03 bc ca 7a 17 3e
       -0.18762322 -0.13473797 -0.008005898 0.14792934
0001c0 f9 0b 1c 3d 62 38 1c be 6c 0d 49 be cc 4c cf 3c
       0.038097356 -0.15255883 -0.19634026 0.025305174
0001d0 63 87 90 bd 67 64 ec bd 67 59 aa 3d c4 98 1f 3e
       -0.07057073 -0.11542588 0.083178334 0.15585619
0001e0 29 d9 b8 3d 15 c3 af 3d 4b 0f f0 bd bc 01 db 3d
       0.09025795 0.08582131 -0.11721667 0.1069369
0001f0 5b b5 a6 bd d8 4a 46 3e 72 21 1e 3e f8 03 38 bd
       -0.081400596 0.19364488 0.15442446 -0.04492566
000200 ee a0 3e bd a8 76 99 bd c8 fa 9e bd 53 7b df 3d
       -0.046540193 -0.07493335 -0.077626765 0.10912194
000210 a9 2b e7 bd 12 3f c9 bd aa 02 04 3e 87 74 e7 3b
       -0.112876244 -0.09826483 0.12891641 0.0070634517
000220 0d 94 1f 3e a7 66 5b 3e 91 2c cf bd 9e 91 21 3e
       0.1558382 0.21425878 -0.10115922 0.15778205
000230 86 02 0d 3d d8 ff 24 bc 52 11 0a 3e fd 15 1d be
       0.034426235 -0.0100707635 0.1348317 -0.15340419
000240 36 3c 03 3e 12 66 1a be 0a b1 cc bd 64 42 3b 3d
       0.12815937 -0.15077999 -0.09994705 0.045717612
000250 ed d0 43 be 3e 78 d5 bd 39 64 a8 3d 67 a4 b5 bd
       -0.19122668 -0.10423325 0.08222241 -0.08869248
000260 8b 67 33 be c9 61 06 3e 56 8e 03 be 79 d5 92 3d
       -0.17519967 0.1312324 -0.12847266 0.07169623
000270 58 1a 1d be 6f f0 3d be 77 47 00 be 32 bd a0 bd
       -0.1534208 -0.1854875 -0.12527262 -0.07848586
000280 40 1a 08 be 68 ec 23 3e 44 61 e7 bd a3 7e 2e 3e
       -0.13291264 0.1600815 -0.11297849 0.17040496
000290 23 e9 65 3d d1 af ec 3d c2 f8 c8 bd ff b9 84 bd
       0.05613054 0.11556972 -0.09813072 -0.064807884
0002a0 81 63 e2 3d 84 cb 05 be 7b 8a 11 3e b0 98 ee 3d
       0.11054135 -0.13065916 0.14212982 0.116502166
0002b0 42 d0 f8 bd 2c a7 3a 3e 2f 04 20 3d f6 24 ae bd
       -0.12149097 0.18227834 0.03906649 -0.085031435
0002c0 75 2c 03 3d ae f0 3e be ee ff 18 3e b9 81 0e 3e
       0.03202482 -0.186465 0.1494138 0.13916673
0002d0 60 e9 b3 3d c5 29 c8 3d 83 33 71 bd 6b 56 8d bd
       0.08784747 0.09773592 -0.058887016 -0.069012485
0002e0 2b 23 4b 3d 5c e9 c0 3d 93 26 54 3e 4c a3 1d be
       0.049594086 0.0941951 0.2071784 -0.15394324
0002f0 57 55 8b bd ac 10 b6 bd 28 2a 4e bc f1 26 38 3e
       -0.06803387 -0.08889899 -0.012583293 0.17983605
000300 c3 dd 20 3d a2 24 39 3e 87 b1 a5 bd 70 fa 26 3d
       0.03927399 0.1808038 -0.08090501 0.04076618
000310 ea 6d 28 3d e1 65 b5 bd 39 ed 23 3d 71 90 aa 3d
       0.041120447 -0.088573225 0.040021155 0.08328331
000320 85 2d 91 3d 2c 68 49 3d 01 d0 97 bd 30 3b 28 3e
       0.0708876 0.04917161 -0.074127205 0.16428828
000330 5d c1 2f be 08 0c 1f 3e 1d e5 8b 3d 78 64 00 3e
       -0.17163606 0.15531933 0.06830809 0.12538326
000340 77 c9 e0 3d fe 07 a5 bc f1 f7 c7 3d 67 99 53 3d
       0.10975926 -0.020145413 0.09764088 0.051659968
000350 f9 e1 dd bd 3b 6b 15 3d f9 5c a0 3d b8 a7 29 be
       -0.108341165 0.036479216 0.07830233 -0.16567886
000360 32 2d 00 3e 74 47 13 3e 80 b7 7f bd 1a b4 3d be
       0.1251724 0.14382726 -0.06243086 -0.18525735
000370 21 62 3a 3e 2e 94 4d bd 75 20 08 3e 14 a7 97 bd
       0.18201496 -0.050190143 0.13293631 -0.074049145
000380 e6 a2 3a be 57 f1 27 be 93 d5 4d bb 04 35 fd bd
       -0.18226203 -0.16400658 -0.0031407818 -0.123636276
000390 c9 37 3e bd b9 b2 19 be aa 8b 03 be 78 55 00 be
       -0.04643992 -0.15009584 -0.12846246 -0.12532604
0003a0 90 41 33 3d d6 c3 f9 bd 15 d8 d0 3d 22 62 7f 3c
       0.043763697 -0.12195556 0.101974644 0.0155873615
0003b0 65 7c 3a 3e a6 9f af 3d eb 4f 31 3d 19 bb 00 3e
       0.18211515 0.085753724 0.043289106 0.12571372
0003c0 4f a1 4d 3d 77 15 0d be 6a 25 2d bd ba 29 12 be
       0.050202664 -0.1377772 -0.04227201 -0.1427373
0003d0 8a f8 06 3e 95 62 0d 3b b4 e3 21 3e be dd 10 bd
       0.13180748 0.0021573652 0.15809518 -0.03536772
0003e0 c6 f1 43 be c8 87 29 be ea fb 27 be 41 62 ad 3c
       -0.19135198 -0.16555703 -0.16404691 0.021165015
0003f0 f0 e6 83 3b 39 36 e9 3d f7 0f a4 bd ed 63 06 3e
       0.0040253326 0.11387295 -0.080108576 0.13124056

decoder.4.bias f4 [60]
000000 ba 2d b5 bd a9 f7 d6 3d 7e 42 21 3e 40 b8 aa 3d
       -0.08846612 0.10496456 0.15748021 0.08335924
000010 a9 a1 23 3e 5c 93 0d be c5 c1 8d 3d 37 5b 98 3d
       0.15979637 -0.13825744 0.06921724 0.07439273
000020 72 8d 1e be cc 14 8b 3c 95 aa ea 3d 25 e2 46 3d
       -0.15483645 0.01697769 0.11458317 0.048555512
000030 71 d9 43 3e f8 61 e0 bd 35 b1 af bd ea fe 13 3e
       0.19125916 -0.10956186 -0.085787214 0.14452711
000040 03 b8 04 be 28 df 0a be f1 49 2e be b2 73 19 3e
       -0.1296082 -0.1356169 -0.17020394 0.1498554
000050 07 8a 45 3e 8d 4f 07 3e 74 a0 90 bd a3 0b c1 bc
       0.19290935 0.1321394 -0.07061854 -0.02356512
000060 78 2a 3d 3e c6 4a 18 3d dc b6 28 3d 38 ec 18 3e
       0.18473232 0.037180685 0.041190013 0.1493386
000070 a2 e3 01 3e c5 26 62 3d 06 96 e5 bd a8 bd 11 be
       0.12684491 0.055212755 -0.11210255 -0.14232504
000080 79 71 ee bc 35 c0 a1 bc 0d e4 1b 3e 9a b2 b8 bd
       -0.029106842 -0.019744972 0.15223713 -0.090184405
000090 f2 0a a9 bd 99 c2 4b bd 0c fe a6 bd 8c a9 51 3d
       -0.08254041 -0.04974613 -0.08153924 0.051187083
0000a0 40 79 38 bd 7d b1 a2 3d ea ef 04 3e 19 5b 24 3e
       -0.045037508 0.079440095 0.12982145 0.16050376
0000b0 e2 d9 65 ba 89 c9 c4 bd 44 f2 70 3d 0d 21 0f 3e
       -0.0008768124 -0.09608752 0.058824793 0.13977452
0000c0 06 fc ed bc 10 b9 15 3d 8e f3 a3 3d 88 34 eb bd
       -0.029050838 0.036553442 0.08005439 -0.11484629
0000d0 d5 3e c8 bd 5d 5d 02 be ea 74 f5 3c 14 f6 b8 3d
       -0.09777609 -0.12730928 0.029962976 0.09031311
0000e0 4c d7 30 3e d5 46 1c 3d a8 c9 2a be f1 64 ba 3d
       0.17269629 0.03815349 -0.16678488 0.09101284

decoder.6.weight f4 [118, 60]
000000 0d ff 34 3d 69 5f b7 3d 04 6f 96 3d 34 0e b5 3c
       0.044188548 0.08953745 0.07345393 0.0221015
000010 5a 40 98 bd 15 b6 61 bb 7e 07 11 bc de e1 75 3d
       -0.07434149 -0.0034440805 -0.008851884 0.060029857
000020 3f 91 e8 3c 0a 72 2c bd 55 47 19 be d6 21 8b bd
       0.028389571 -0.042100944 -0.14968617 -0.06793563
000030 58 be c1 bc 6a 07 f4 3c c6 18 18 3e fb e0 ce bd
       -0.023650333 0.029788692 0.148532 -0.10101505
000040 a8 08 bf 3c fe f7 c5 bc 83 e5 1a 3e 99 49 41 bc
       0.023319557 -0.024166103 0.15126614 -0.011797332
000050 f1 64 1e be 13 85 7f 3d dc d0 88 3a 2b 74 b7 3d
       -0.15468194 0.06238277 0.0010438222 0.08957704
000060 8f ed 1d be 4d 10 22 be 15 6f bb 3c ed fe fa bd
       -0.15422653 -0.15826531 0.022880116 -0.122556545
000070 7c ca a8 bc 1a 52 04 bd e9 fa 90 3d d1 0d bf 3c
       -0.020604365 -0.03230486 0.07079107 0.023322018
000080 f2 b1 65 bd e3 eb 85 bc c1 79 7f bd 23 23 95 bd
       -0.056077905 -0.016347831 -0.062371973 -0.072820924
000090 7f a1 d3 bd da bb 92 bc 97 21 40 3b fa 03 9c bb
       -0.10333537 -0.01791184 0.0029316896 -0.004761216
0000a0 cc c3 67 bd ea 2a 9a 3b 2b 10 b3 bd c6 99 c9 bd
       -0.05658321 0.004704823 -0.08743318 -0.09843783
0000b0 e0 f3 86 3d 44 49 04 3e 31 2b e6 bd 57 9a 34 bc
       0.06589484 0.12918574 -0.11238707 -0.011023126
0000c0 1a f3 8a 3d 09 52 ff 3d 83 58 fb 3c 40 6c b2 bd
       0.06784649 0.12466819 0.030681854 -0.08712053
0000d0 6b fc 08 be 52 6f c1 bb 5a 5c 33 3c 2f 55 40 bc
       -0.1337754 -0.005903163 0.010947311 -0.011739059
0000e0 54 e2 4f 3d fa 8e 36 bd 6e 41 9f bd 7b d4 e9 bd
       0.050752953 -0.044569947 -0.077761516 -0.114174806
0000f0 40 51 13 3e 7a 56 e4 bd 91 af 5a 3c e8 23 b4 bd
       0.14386463 -0.111493066 0.013347522 -0.08795911
000100 af 33 df 3d 20 bc a6 3c c8 7a 0e 3e 1f 6e 11 be
       0.1089853 0.020353377 0.13914025 -0.14202164
000110 62 cd b9 3d c9 7d f8 3d b8 30 01 be b5 64 88 3c
       0.09072377 0.121333666 -0.12616241 0.016649583
000120 94 34 92 3c 3e 77 ca bd c1 9a 08 bd 27 ca 9d bc
       0.017847337 -0.09886025 -0.03335071 -0.019261433
000130 6d 2d 42 3d bb e2 c3 3c f6 b0 1b bd 8d 13 b7 3d
       0.047406603 0.023911824 -0.03801056 0.08939276
000140 63 42 9a 3d 22 1b cf 3d 0c a2 d2 3c 65 c4 0f be
       0.075321935 0.10112597 0.025712036 -0.14039762
000150 af b5 d9 3d 9e dd 6f bd 3c a0 3a bd 02 90 8d 3d
       0.106303565 -0.05856096 -0.045562968 0.06912233
000160 2f f6 46 3d 65 23 e6 bd 1f f0 a8 bd 9a 59 75 3c
       0.048574623 -0.1123722 -0.082489245 0.014974976
000170 fb 77 81 3d 4e 99 8e bd 55 19 e6 3d ef e6 a5 3d
       0.063217126 -0.06962834 0.112353005 0.08100688
000180 78 ee 16 be 7a 64 d5 bc a1 81 83 3d 41 a3 b2 bc
       -0.14739406 -0.026048888 0.06421209 -0.021806361
000190 39 a0 a4 bd 4c c3 f4 bc c2 7a 28 3d 1f 09 ce bc
       -0.080383725 -0.029878281 0.041132696 -0.025150834
0001a0 c2 cb 9f bd e7 9d 6a 3c 1b b1 8d 3d 4f 88 00 3e
       -0.078025356 0.014319873 0.06918546 0.12551998
0001b0 c1 ad 80 3d 0e 61 07 3d 0a cb 33 3d 04 e0 04 3e
       0.06283141 0.033051543 0.043894805 0.1297608
0001c0 c0 fe e1 bd a4 2e 2b bd f6 a4 96 bd 28 10 82 bd
       -0.11034918 -0.041792527 -0.073556826 -0.06350738
0001d0 55 ee 89 3d 1b d1 bb 3d b0 6d 8d bd f4 1a 43 bd
       0.06734911 0.09170743 -0.06905687 -0.047633126
0001e0 97 1a 80 3d 53 4b 5f 3d 1b f5 44 3d 4b 4b 1a 3d
       0.062550716 0.054515194 0.048085313 0.03766946
0001f0 d6 e9 c7 bd c1 27 a2 3d 0c da e0 bd a6 f4 57 bd
       -0.097613975 0.07917739 -0.10979089 -0.05272355
000200 17 38 59 3b 0e 60 2a ba 84 76 75 bb fa e4 d1 bd
       0.0033145004 -0.00064992986 -0.0037454674 -0.10248752
000210 4e 52 08 3e d8 89 b4 bd 7b 7f c1 ba d1 37 e4 bb
       0.13312647 -0.08815354 -0.0014762724 -0.0069646616
000220 c7 aa 14 bc 67 00 10 bd 73 be 5b 3c a6 93 05 3d
       -0.00907392 -0.035156634 0.013412106 0.03261151
000230 d6 c4 a6 bd 02 09 c0 3d ec 9a ac bc 0e 42 d7 3d
       -0.08143012 0.09376718 -0.021069966 0.10510646
000240 44 b3 c7 bd 83 74 d5 3d 97 db af 3d b8 dd 28 bd
       -0.09750989 0.104226135 0.08586805 -0.041227072
000250 c2 5e 88 3c af aa b0 3d a1 ff e7 bd 90 e4 b8 3d
       0.016646747 0.08626305 -0.11328054 0.0902797
000260 5a d3 85 3d a7 33 87 bd c2 18 83 3d 79 30 68 3d
       0.06534453 -0.06601649 0.064012066 0.056686852
000270 7f 7a 70 3c f1 55 ae 3d 8b b5 ce bd 8a 81 8a bc
       0.014677643 0.08512486 -0.1009322 -0.016907472
000280 ed 7b 09 3c 80 87 c2 3d 77 e0 96 3d 7e a4 26 bc
       0.008391363 0.09498501 0.07367032 -0.010171054
000290 79 46 75 bd 53 af 09 be 90 a2 a6 bb a0 b3 1b bd
       -0.05988166 -0.13445787 -0.005085297 -0.0380131
0002a0 04 fc 08 bd 95 cf b9 3c a5 e1 97 3d 29 62 73 3d
       -0.033443466 0.02268199 0.07416085 0.059419785
0002b0 3f f8 69 3c 30 f2 19 bd 37 ea 41 3d 14 37 ab 3d
       0.014280378 -0.037584484 0.047342505 0.08360115
0002c0 87 9d ec bc 3e 72 ed bd b0 fb ac 3b a3 97 53 bd
       -0.028883709 -0.115940556 0.005279027 -0.051658284
0002d0 81 80 e5 3d bb d9 e0 bd 51 4d 79 bd 28 bd 68 3d
       0.11206151 -0.10979029 -0.06086475 0.05682102
0002e0 74 21 a4 bd 88 af 8b bb e4 36 9b 3d cd 6c b8 bd
       -0.08014193 -0.0042628683 0.07578829 -0.09005127
0002f0 bf fa 68 3d d4 4b ed 3d 71 64 b0 bd 6c f9 9f 3c
       0.056879755 0.11586729 -0.08612908 0.019528113
000300 75 43 96 bd c9 31 a5 bd dc 22 fc bd fd e6 84 3d
       -0.07337085 -0.080661364 -0.123113364 0.0648937
000310 97 7a b0 3d a3 f0 ac bd 3a bf b0 3d db ab 40 bd
       0.08617132 -0.08444335 0.086302236 -0.047038894
000320 63 5f 86 3d ef 61 b9 bd 0d 7b f3 3d af 50 f5 bd
       0.06561162 -0.090518825 0.118887044 -0.1197828
000330 91 78 8a 3d 52 4f 82 3d 57 7c dc 3c 0f 0d 0a 3e
       0.067612775 0.063627854 0.026914759 0.13481544
000340 44 b0 88 3d 5c 71 9f 3d 27 f6 f3 bd bc b7 bd bd
       0.06674245 0.077852935 -0.11912184 -0.0926356
000350 8d 2c 52 bc 60 36 00 3e 7b af 9b 3d 26 74 fb bd
       -0.012828005 0.12520742 0.076018296 -0.12278013
000360 e2 33 ad 3d 7a 5c bd 3c 0d e6 9a bc 24 dd c6 bc
       0.084571615 0.023115385 -0.018908525 -0.02427537
000370 d9 1c 50 3d e9 d0 60 bd d5 cf 82 3d 06 a0 9e bd
       0.05080876 -0.054886732 0.06387297 -0.07745366
000380 32 41 d2 bc 1e 09 02 3d ad fb a5 bc cc bc 02 3e
       -0.025665853 0.031746976 -0.02026161 0.12767333
000390 6f 5d b0 bd 93 51 31 3d a0 ad a8 3d 2c ce d3 bc
       -0.08611571 0.043290686 0.08236241 -0.025855146
0003a0 d8 ea 8a 3d ae e3 01 be e4 10 6a bd 43 60 cf bd
       0.06783074 -0.12684509 -0.057145014 -0.10125782
0003b0 f5 52 d1 3c 05 9a 76 bd 51 fb d3 bd 3b 38 ec bd
       0.025552252 -0.06020548 -0.10350669 -0.115341626
0003c0 96 47 af 3a a4 de c6 3d f4 78 e9 3d 32 8b 66 bc
       0.0013372775 0.09710434 0.11400023 -0.014071273
0003d0 ef b8 df bc 36 74 ac bd 96 16 dd 3d a3 27 de bd
       -0.027309863 -0.08420603 0.107953236 -0.10847404
0003e0 55 32 28 bc 1b 35 61 bd af ac 02 be 05 64 e7 3c
       -0.010265906 -0.054982286 -0.12761186 0.028245935
0003f0 47 c8 a5 bd 85 88 17 bd 5c 9d 1a 3d cd cc 6b 3d
       -0.080948405 -0.03699543 0.037747726 0.05756836
