Baseline-models/DAGMM/DAGMM-ROAD/no--dagmm/models/19_194_dagmm.pth (torch, 82200 bytes, 22 tensors)

phi f4 [4]
0.085065365 0.069326565 0.78286564 0.06274241
00000000: c036 ae3d 16fb 8d3d e269 483f 187f 803d

mu f4 [4, 3]
0.38662702 1.084368 -0.008980197 0.38825068 1.0823824 -0.0038856296 0.27290374 1.2240913
-0.3650995 0.39548728 1.0734034 0.018850273
00000000: faf3 c53e 92cc 8a3f ad21 13bc cbc8 c63e
00000010: 828b 8a3f 0ca6 7ebb 0aba 8b3e 06af 9c3f
00000020: 52ee babe 4f7d ca3e 4865 893f e36b 9a3c

cov f4 [4, 3, 3]
0.067136355 -0.08246371 0.21016303 -0.08246371 0.10131954 -0.25815895 0.21016303 -0.25815895
0.65790343 0.06740669 -0.082823105 0.21102202 -0.082823105 0.101799265 -0.25930095 0.21102202
-0.25930095 0.66063243 0.05029418 -0.061748542 0.15738344 -0.061748542 0.07583722 -0.1932424
0.15738344 -0.1932424 0.49250484 0.06778094 -0.083280765 0.21220203 -0.083280765 0.1023555
-0.26074237 0.212202 -0.26074237 0.6643518
00000000: c97e 893d bce2 a8bd fa34 573e bce2 a8bd
00000010: 9e80 cf3d 692d 84be fa34 573e 692d 84be
00000020: 5c6c 283f 850c 8a3d 299f a9bd 2816 583e
00000030: 299f a9bd 227c d03d 18c3 84be 2816 583e
00000040: 18c3 84be 351f 293f 4501 4e3d 0aec 7cbd
00000050: 2029 213e 0aec 7cbd 8b50 9b3d 56e1 45be
00000060: 2029 213e 56e1 45be 9829 fc3e bcd0 8a3d
00000070: 1b8f aabd 7d4b 593e 1b8f aabd c39f d13d
00000080: 0680 85be 7b4b 593e 0680 85be f612 2a3f

encoder.0.weight f4 [60, 118]
-0.019540535 0.07899491 0.023633506 0.0043385513 0.08899281 -0.029955378 0.037659906 0.055209078
-0.06536473 0.066520475 0.038059875 0.013802645 0.046749074 0.050182376 -0.06337069 -0.037761018
0.0809217 -0.042782202 -0.021943973 -0.07211647 -0.0208275 -0.027636308 0.033832517 -0.05148802
0.089681774 0.064524665 0.09059124 -0.029548822 -0.038485013 -0.087818764 -0.08395064 -0.01617882
0.059024733 0.03564255 -0.038446914 0.05570467 -0.018069012 -0.052291945 -0.014090074 -0.055721477
0.047102764 0.043225423 0.026085481 0.0016063802 -0.026515 0.0150581775 -0.07364145 -0.031009387
-0.04859698 -0.07608633 -0.035813823 -0.018784005 -0.0209366 -0.0073344023 0.0060589863 -0.082145065
-0.03651881 -0.0088226115 -0.0013002742 -0.013878405 -0.0062211454 -0.029745528 0.08668895 0.03746278
0.08348734 0.07881256 0.06885296 -0.06781028 0.04436947 0.073742576 0.08470934 0.035402823
0.064873196 -0.05353873 0.03249459 -0.078797445 -0.030074002 -0.020995557 -0.071616165 -0.00051962846
-0.026374923 0.034837518 -0.043153144 0.0011016306 0.062364575 -0.006963663 -0.07512997 0.03279021
-0.0927633 0.08074579 0.010268238 0.015698759 -0.069718346 0.02132189 0.03734528 0.08158635
0.032042176 0.00014427304 0.06371555 -0.04189828 0.06683249 0.055426195 -0.054520357 -0.036670048
-0.0075061223 0.051276077 -0.0026694203 -0.067270786 0.05240708 0.03370747 -0.03677837 0.015371329
-0.016616287 -0.06700488 0.06444371 -0.021087116 0.049319167 -0.012948037 -0.02445532 0.05565901
0.09023974 -0.0014255776 -0.0029539277 -0.06010297 -0.058492023 0.040845145 0.0009389868 0.055953365
0.053066928 0.03952379 -0.0090124095 0.04165491 -0.024367705 -0.024989344 0.046587005 -0.01889322
0.053480674 -0.024978258 0.045203358 0.07614195 0.019519966 -0.036423914 0.024876155 -0.052269466
-0.04624616 -0.10120028 0.08057907 -0.07366306 0.017638942 0.011769253 0.0814459 0.01724115
0.024368826 -0.056751557 0.0430707 0.08561621 -0.065775074 -0.014337947 -0.08370704 0.016831204
0.02734501 -0.028548907 -0.009560994 -0.026678469 -0.01552566 0.04471754 0.08149473 0.08921861
-0.03163273 0.013714039 -0.066955276 0.0681381 -0.06653854 0.038712036 -0.015721064 0.059897084
0.08287422 -0.009037769 0.08877542 -0.017812934 0.06512432 0.020864725 0.0836416 0.05290715
-0.004114865 0.017946359 0.0068153995 -0.048487484 -0.033978105 -0.025449794 0.06027794 0.056339633
0.06441136 -0.03371945 -0.007993095 0.068433136 0.03756424 0.0074950983 0.001332048 0.029682813
-0.064024925 -0.0645758 -0.07812095 0.04495891 -0.0041180453 -0.13306053 -0.0044049346 -0.024714725
0.062163822 0.006225585 -0.08112315 0.06713255 -0.030300295 -0.038392805 -0.05147214 -0.06191109
-0.025871996 -0.07776336 -0.009483327 -0.058495697 0.10854924 -0.027302511 0.0843854 -0.03825137
0.0037693044 0.030669719 -0.017229114 -0.094872214 -0.012369526 0.030695809 -0.025887271 0.007931803
0.0068519297 0.09147212 -0.04497765 -0.021512361 -0.014829135 -0.05022287 0.012509665 -0.052902393
0.034211755 -0.098197505 -0.097975336 0.03766208 0.06696316 -0.0143193165 -0.0017365282 -0.00019628431
0.06917171 0.03554037 0.008236662 0.048348222 0.023369359 0.0025967658 4.6056673e-05 0.07369315
00000000: 7913 a0bc 15c8 a13d 0e9b c13c 682a 8e3b
00000010: dd41 b63d fb64 f5bc 4641 1a3d ea22 623d
00000020: f2dd 85bd e33b 883d ace4 1b3d 7d24 623c
00000030: f57b 3f3d 098c 4d3d 7ec8 81bd 4cab 1abd
00000040: 47ba a53d 643c 2fbd d9c3 b3bc cdb1 93bd
00000050: 6f9e aabc 8a65 e2bc f793 0a3d 1ae5 52bd
00000060: 14ab b73d 8225 843d e687 b93d 5f10 f2bc
00000070: 76a2 1dbd 53da b3bd 50ee abbd 7289 84bc
00000080: ebc3 713d ecfd 113d 837a 1dbd 942a 643d
00000090: 7705 94bc 1430 56bd 0eda 66bc 343c 64bd
000000a0: d4ee 403d 240d 313d 38b1 d53c 2d8d d23a
000000b0: fc35 d9bc 93b6 763c 54d1 96bd 6607 febc
000000c0: a00d 47bd 26d3 9bbd 84b1 12bd eae0 99bc
000000d0: 3c83 abbc 6d55 f0bb 768a c63b ac3b a8bd
000000e0: bf94 15bd b78c 10bc f66d aaba 4062 63bc
000000f0: c0da cbbb e5ac f3bc fa89 b13d 9272 193d
00000100: 69fb aa3d 7b68 a13d c802 8d3d 1ee0 8abd
00000110: c3bc 353d 5906 973d 177c ad3d 8d02 113d
00000120: 3ddc 843d 6d4b 5bbd 0c19 053d 8e60 a1bd
00000130: c15d f6bc e0fe abbc 7fab 92bd ad37 08ba
00000140: 3910 d8bc c9b1 0e3d 5ac1 30bd 9764 903a
00000150: ff71 7f3d 702f e4bb bedd 99bd 074f 063d
00000160: affa bdbd 0c5e a53d 1d3c 283c af9a 803c
00000170: 7ec8 8ebd 3fab ae3c 5df7 183d bf16 a73d
00000180: a83e 033d 0048 1739 4c7d 823d 889d 2bbd
00000190: 79df 883d 9406 633d bd50 5fbd 5533 16bd
000001a0: ebf5 f5bb dd06 523d 71f1 2ebb 44c5 89bd
000001b0: cea8 563d d810 0a3d eba4 16bd 07d8 7b3c
000001c0: e11e 88bc db39 89bd 10fb 833d e3be acbc
000001d0: e502 4a3d 0124 54bc 8656 c8bc b4fa 633d
000001e0: 9dcf b83d 72da baba af96 41bb 882e 76bd
000001f0: 5595 6fbd 3d4d 273d 5626 763a 5b2f 653d
00000200: b55c 593d b3e3 213d c9a8 13bc 579e 2a3d
00000210: c89e c7bc 74b6 ccbc 04d2 3e3d f4c5 9abc
00000220: 8d0e 5b3d 349f ccbc 2827 393d 50f0 9b3d
00000230: 56e8 9f3c 3e31 15bd 14c9 cb3c 8218 56bd
00000240: 9d6c 3dbd 1842 cfbd a406 a53d a9dc 96bd
00000250: 8b7f 903c d3d3 403c 1ccd a63d 503d 8d3c
00000260: 22a1 c73c 5274 68bd e76a 303d 8d57 af3d
00000270: 15b5 86bd b5e9 6abc 996e abbd 98e1 893c
00000280: a402 e03c 66df e9bc b7a5 1cbc ce8c dabc
00000290: 565f 7ebc bd29 373d b6e6 a63d 3fb8 b63d
000002a0: 5291 01bd d9b0 603c d91f 89bd fd8b 8b3d
000002b0: 5c45 88bd 8390 1e3d 76c9 80bc a556 753d
000002c0: f6b9 a93d 2713 14bc e3cf b53d 6eec 91bc
000002d0: e65f 853d 80ec aa3c 4a4c ab3d 2bb5 583d
000002e0: fdd5 86bb 3e04 933c b753 df3b d09a 46bd
000002f0: a02c 0bbd 167c d0bc 00e6 763d 63c4 663d
00000300: 1aea 833d 681d 0abd 78f5 02bc ac26 8c3d
00000310: f6dc 193d 7199 f53b 1d98 ae3a 5f29 f33c
00000320: 801f 83bd 5140 84bd e0fd 9fbd d626 383d
00000330: abf0 86bb 0541 08be 4557 90bb 8976 cabc
00000340: 7e9f 7e3d feff cb3b e523 a6bd ca7c 893d
00000350: 5338 f8bc c641 1dbd 73d4 52bd 7c96 7dbd
00000360: 82f1 d3bc 6642 9fbd f55f 1bbc 2f99 6fbd
00000370: 104f de3d 84a9 dfbc 41d2 ac3d 78ad 1cbd
00000380: 6f06 773b 103f fb3c 1224 8dbc 5d4c c2bd
00000390: 8da9 4abc c775 fb3c 8b11 d4bc 65f4 013c
000003a0: 2786 e03b bc55 bb3d 7c3a 38bd b13a b0bc
000003b0: e6f5 72bc 7fb6 4dbd 57f5 4c3c 2eb0 58bd
000003c0: a021 0c3d c61b c9bd 4ba7 c8bd 8e43 1a3d
000003d0: fb23 893d 919b 6abc 389c e3ba abd1 4db9
000003e0: e6a9 8d3d c792 113d 10f3 063c c908 463d
000003f0: 1971 bf3c 802e 2a3b fa2c 4138 6fec 963d

encoder.0.bias f4 [60]
0.032469165 0.087873995 -0.0044602663 0.034859292 -0.07006068 0.03968525 -0.10210172 -0.03420289
0.05393655 0.06670864 -0.013493897 -0.042712282 -0.042403188 0.06680493 -0.03776804 -0.07674902
-0.0072850552 0.074714266 -0.04580299 0.12694062 -0.0015748971 0.059443645 -0.122415744 -0.01726677
0.026958177 0.007207725 0.04980097 -0.03923032 -0.027790992 0.08984384 0.03909534 -0.023203611
0.07680462 -0.07904585 0.015267469 -0.07508052 0.08132935 0.12111436 -0.05734039 -0.0035240992
-0.06111524 -0.017782517 0.030742535 -0.012862951 -0.04707847 -0.023555532 0.042881217 -0.027810957
-0.035154294 -0.026018478 -0.044376306 -0.038418952 -0.08205557 -0.035851035 -0.018040126 -0.011904769
0.040050358 -0.00278732 -0.021934858 0.057713937
00000000: 63fe 043d 48f7 b33d 6d27 92bb 9ec8 0e3d
00000010: f97b 8fbd 008d 223d b51a d1bd 5418 0cbd
00000020: 92ec 5c3d 8a9e 883d 8215 5dbc 13f3 2ebd
00000030: f7ae 2dbd 06d1 883d a9b2 1abd 972e 9dbd
00000040: 79b7 eebb cb03 993d eb9b 3bbd b9fc 013e
00000050: c76c ceba 2e7b 733d 1bb5 fabd 0b73 8dbc
00000060: 65d7 dc3c c82e ec3b 1afc 4b3d f9af 20bd
00000070: efa9 e3bc 0c00 b83d 6f22 203d 8015 bebc
00000080: be4b 9d3d cae2 a1bd 6824 7a3c d1c3 99bd
00000090: 0190 a63d ce0a f83d c2dd 6abd 93f4 66bb
000000a0: f953 7abd a4ac 91bc c5d7 fb3c 20bf 52bc
000000b0: 5bd5 40bd 88f7 c0bc 37a4 2f3d ced3 e3bc
000000c0: f3fd 0fbd b424 d5bc eec3 35bd 315d 1dbd
000000d0: c00c a8bd 89d8 12bd e3c8 93bc 380c 43bc
000000e0: d80b 243d 78ab 36bb bbb0 b3bc 7365 6c3d

encoder.2.weight f4 [30, 60]
-0.116538376 0.11185929 -0.06364472 -0.026881808 -0.10590166 0.06646671 -0.07022358 0.08258062
0.08219754 -0.0588027 0.0587039 -0.018716522 -0.10884776 -0.08411072 0.10443926 0.04879289
0.0040444676 -0.031731214 0.11686204 -0.025670733 0.103524566 -0.1123287 -0.11662851 0.019209832
0.09252377 0.038724348 -0.0009620847 0.014330938 0.109674364 -0.12527312 0.008072651 -0.080378056
0.02297262 0.00469188 -0.03989685 0.017776325 0.082364 0.00825275 0.0053129857 0.058521125
0.12861486 -0.08094475 -0.086188495 -0.10869253 -0.123377986 -0.0082247555 -0.051755268 -0.11187024
-0.058257274 0.021344852 0.10064935 0.12450485 0.06742266 -0.035498112 0.006487497 0.0062918016
-0.10468943 0.13126555 -0.117240965 0.103917055 -0.08372039 0.015108217 0.097532175 -0.0714903
0.09478553 -0.07094544 0.07922648 0.11287259 0.0998035 0.049228776 0.030286742 0.109364316
0.045748156 -0.052581515 0.037786733 -0.10055984 -0.062557176 0.021378372 0.0442869 -0.038860787
-0.11232355 0.035507813 0.0005927919 -0.020071086 -0.013435561 0.026618589 0.09668276 0.1170385
0.058535103 -0.03534784 0.022019371 -0.11509208 0.08035773 -0.089687005 -0.033900652 0.10249942
0.06407255 -0.106471054 0.08409498 0.08585521 0.0643579 0.06191782 -0.072394654 -0.11577805
0.084388345 -0.01682619 0.06383377 0.07861516 0.07804729 -0.0836051 -0.114505105 -0.02735708
-0.06460039 -0.095684685 0.082334384 0.12751509 -0.042107437 0.07036506 0.06478586 0.04329292
-0.03709686 -0.086383276 -0.024798347 0.034361444 0.08618971 0.041361976 0.09828232 -0.056457058
-0.050234906 -0.05708313 -0.08646099 -0.018326383 -0.07765763 0.066798665 0.04059966 -0.035460684
0.08314665 0.06744526 -0.10893643 -0.00812711 0.030966556 0.06551606 -0.12841149 -0.13129888
-0.13255495 0.0037465533 0.13025655 0.06791498 -0.1204267 0.10272997 -0.06954737 -0.08247071
0.124627896 0.034549054 0.06095025 -0.0055359015 0.01807804 0.0054280525 0.03546949 0.003941096
-0.12365671 0.14012618 0.09760076 -0.012736075 -0.018212792 0.098312825 0.10995606 0.051687595
0.06774511 -0.10116102 0.06349843 0.10858225 -0.073446676 0.1313876 -0.08979124 -0.12687859
-0.07157301 -0.015055324 -0.11226284 -0.045894273 0.09815151 0.06047975 -0.008218623 -0.017263051
-0.12017378 0.12945938 -0.055653665 0.0029832453 -0.055711452 -0.08312562 -0.12618625 -0.10874272
-0.017490307 0.055816587 0.08513434 -0.0340121 0.0038865616 0.06885336 0.06035765 0.12826079
-0.02436335 -0.037314072 -0.009923872 0.08321107 0.03076051 -0.1308706 0.08961911 0.002043159
-0.10805928 0.1346419 -0.07830966 0.0033385819 -0.0751643 -0.0885258 -0.09918187 0.07483271
0.056103483 -0.05214155 0.07753304 -0.10136329 -0.038757388 0.014640805 0.09905517 0.096807495
-0.07870238 0.035485134 -0.02908263 0.08848874 -0.08134232 -0.11303001 -0.03279403 0.041191425
-0.043426994 0.05074976 -0.122810945 -0.10654825 0.044863332 -0.12616754 0.04817559 0.02359663
0.104266904 -0.035386372 -0.013610408 -0.13162021 -0.06917369 -0.07989788 -0.1364137 -0.07601778
0.102947064 -0.077086575 -0.14373001 -0.124496 -0.09940004 0.07136982 -0.09788405 -0.063682795
00000000: acab eebd 7c16 e53d 2a58 82bd 3d37 dcbc
00000010: f8e2 d8bd b31f 883d 61d1 8fbd 0720 a93d
00000020: 2f57 a83d 1adb 70bd 8073 703d 6453 99bc
00000030: 93eb debd 3e42 acbd 40e4 d53d 0edb 473d
00000040: 7487 843b 97f8 01bd 5d55 ef3d 6e4b d2bc
00000050: b004 d43d 970c e6bd eeda eebd f05d 9d3c
00000060: 1a7d bd3d 6c9d 1e3d 6934 7cba 50cc 6a3c
00000070: f49c e03d 9947 00be 2743 043c 409d a4bd
00000080: 1331 bc3c 58be 993b e16a 23bd a89f 913c
00000090: 75ae a83d 8b36 073c 8e18 ae3b d9b3 6f3d
000000a0: 9db3 033e 5cc6 a5bd 9883 b0bd 309a debd
000000b0: 99ad fcbd 20c1 06bc 55fd 53bd 391c e5bd
000000c0: 2e9f 6ebd 66db ae3c 3f21 ce3d 66fc fe3d
000000d0: e414 8a3d 7866 11bd 1295 d43b 752b ce3b
000000e0: 6967 d6bd 7a6a 063e 081c f0bd 77d2 d43d
000000f0: 9975 abbd 7488 773c f3be c73d 8269 92bd
00000100: ea1e c23d d84b 91bd 7e41 a23d bf29 e73d
00000110: c765 cc3d 1da4 493d e71b f83c 66fa df3d
00000120: 6b62 3b3d b75f 57bd 43c6 1a3d 51f2 cdbd
00000130: fa1d 80bd b221 af3c 2e66 353d 7d2c 1fbd
00000140: e409 e6bd a470 113d 9765 1b3a 1e6c a4bc
00000150: d420 5cbc 3a0f da3c 9c01 c63d e2b1 ef3d
00000160: 81c2 6f3d e6c8 10bd f861 b43c 65b5 ebbd
00000170: 9892 a43d d2ad b7bd 69db 0abd 37eb d13d
00000180: 7838 833d 7f0d dabd fd39 ac3d dbd4 af3d
00000190: 13ce 833d 8a9d 7d3d a643 94bd 0b1d edbd
000001a0: ccd3 ac3d 14d7 89bc 48bb 823d fc00 a13d
000001b0: 42d7 9f3d 2739 abbd a781 eabd f41b e0bc
000001c0: 364d 84bd 55f6 c3bd ee9e a83d 5193 023e
000001d0: d978 2cbd 8e1b 903d 73ae 843d eb53 313d
000001e0: e1f2 17bd b7e9 b0bd e725 cbbc 96be 0c3d
000001f0: 3b84 b03d 2d6b 293d 3e48 c93d 843f 67bd
00000200: 1ec3 4dbd 00d0 69bd 7612 b1bd 3621 96bc
00000210: f70a 9fbd bdcd 883d d44b 263d 393f 11bd
00000220: ca48 aa3d be20 8a3d 101a dfbd 9227 05bc
00000230: 93ad fd3c 492d 863d 4d7e 03be 3773 06be
00000240: 7cbc 07be bc88 753b f961 053e 0217 8b3d
00000250: 46a2 f6bd 1764 d23d da6e 8ebd 67e6 a8bd
00000260: e93c ff3d 4f83 0d3d f8a6 793d 8266 b5bb
00000270: 6618 943c cedd b13b 7548 113d 4f24 813b
00000280: bb3f fdbd 3d7d 0f3e e8e2 c73d f8aa 50bc
00000290: fe32 95bc 3c58 c93d a530 e13d 5fb6 533d
000002a0: f3bd 8a3d 822d cfbd 770b 823d 5f60 de3d
000002b0: 366b 96bd 798a 063e 78e4 b7bd 76ec 01be
000002c0: df94 92bd 9baa 76bc 0fea e5bd a2fb 3bbd
000002d0: a903 c93d 9db9 773d 67a7 06bc 3e6b 8dbc
000002e0: ac1d f6bd 0091 043e 19f5 63bd 8d82 433b
000002f0: b131 64bd c43d aabd f836 01be 81b4 debd
00000300: d547 8fbc ef9f 643d ea5a ae3d 4650 0bbd
00000310: afb5 7e3b fe02 8d3d 9539 773d cc56 033e
00000320: a695 c7bc a4d6 18bd bc97 22bc 916a aa3d
00000330: 77fd fb3c f102 06be 398a b73d 85e6 053b
00000340: 2f4e ddbd 91df 093e d160 a0bd 1ccc 5a3b
00000350: beef 99bd 044d b5bd dd1f cbbd e441 993d
00000360: c4cc 653d 6192 55bd a4c9 9e3d 8e97 cfbd
00000370: 11c0 1ebd fddf 6f3c 70dd ca3d 0243 c63d
00000380: b72e a1bd dc58 113d b23e eebc 9639 b53d
00000390: cd96 a6bd 477c e7bd 0853 06bd 57b8 283d
000003a0: 81e0 31bd fbde 4f3d 4e84 fbbd f835 dabd
000003b0: 9dc2 373d 1032 01be c453 453d b84d c13c
000003c0: e389 d53d 4df1 10bd 30fe 5ebc 73c7 06be
000003d0: f0aa 8dbd 80a1 a3bd 08b0 0bbe 36af 9bbd
000003e0: e9d5 d23d 91df 9dbd f62d 13be c2f7 febd
000003f0: 4092 cbbd 572a 923d 6f77 c8bd 206c 82bd

encoder.2.bias f4 [30]
-0.11620773 -0.029313501 0.10603255 -0.012032933 0.08506573 -0.00019889211 0.082833566 0.03646196
0.010980754 -0.034372125 -0.06592851 0.10890749 0.046527877 0.0034645428 0.12360831 0.026580632
0.008138929 0.07428003 0.072644316 0.018676244 0.045661215 0.057193767 -0.028230935 0.06961569
0.083637945 0.11356264 0.038661044 0.045735836 0.103995815 0.07183276
00000000: 51fe edbd de22 f0bc 9827 d93d c725 45bc
00000010: f136 ae3d b28d 50b9 a5a4 a93d 2359 153d
00000020: 9fe8 333c c9c9 0cbd 8705 87bd e40a df3d
00000030: 0494 3e3d 620d 633b 5b26 fd3d a0bf d93c
00000040: 2459 053c 2120 983d 8bc6 943d ecfe 983c
00000050: 4107 3b3d 0344 6a3d 9044 e7bc ac92 8e3d
00000060: 5f4a ab3d 8893 e83d 0b5b 1e3d 8055 3b3d
00000070: c2fb d43d 0e1d 933d

encoder.4.weight f4 [10, 30]
-0.16340692 0.15965292 -0.06273044 -0.041730266 0.10993298 0.013090882 -0.050966132 -0.13198268
-0.16795176 -0.054022938 0.07715404 -0.16376546 0.05552214 0.19513549 0.029760595 0.1611209
0.05489741 -0.18660969 -0.017870206 0.13523524 -0.07668568 -0.016425373 -0.10526992 0.11025254
-0.028209789 -0.06286812 0.09562049 0.15359345 0.13190864 0.02706197 0.16392626 -0.08424813
-0.05134511 -0.10865568 0.05199508 -0.14184377 0.09436467 0.09506139 -0.1244071 0.06822755
-0.021188334 -0.15822652 0.14809197 -0.042132787 -0.0541923 -0.08009303 0.044335514 -0.16898645
-0.122905396 0.15639187 0.16962264 -0.11338095 0.10175998 0.043431655 -0.15210806 -0.16721794
0.06883554 0.09778842 -0.18076894 0.0013974109 -0.129238 -0.0710827 -0.022511652 0.16110186
0.073013805 -0.13713971 -0.054071557 0.17779762 -0.03693254 -0.03145136 -0.041540697 -0.15818396
-0.11668642 0.14314975 -0.11492438 -0.014452756 0.16304496 0.139412 -0.16685134 0.010270184
-0.17932816 -0.04407619 -0.028237598 0.04046274 -0.058935218 0.16980782 -0.112694435 0.14384773
0.17444403 0.013906827 -0.103153445 0.008908975 0.07193632 0.018244535 0.17502192 -0.031046033
0.19165273 -0.056782227 -0.178953 -0.04880307 -0.008059613 0.13352531 -0.027642697 0.13649487
0.16060118 0.048039015 0.025821317 -0.016688745 -0.048024405 0.08298978 -0.034005426 -0.11756158
0.044362023 0.13173386 -0.015372517 -0.0468107 0.054070197 0.14994037 -0.14614089 -0.114392385
0.18679447 -2.7620155e-05 -0.111833744 -0.16005558 -0.013452909 -0.07745727 -0.17351669 -0.02249626
0.07969119 0.055316407 -0.11158914 0.07293544 -0.0073943995 -0.15531857 -0.0008454557 -0.05579589
-0.16484481 -0.129512 0.029380897 -0.09683149 -0.13852282 -0.0061178133 -0.11764286 -0.112771556
-0.06677323 0.08176458 0.012224566 -0.0026018005 -0.16600367 0.0066284128 -0.06313756 0.08396243
-0.050805263 0.15548934 0.06504237 0.037525013 0.10981005 -0.07391818 -0.1375443 0.0378374
-0.11901232 -0.0059518176 -0.15927996 0.12045508 0.15100606 0.13339107 0.10282239 -0.1748095
-0.100418374 -0.08595108 -0.004613828 -0.037130583 0.11082746 0.05595072 0.110052414 0.0887021
-0.15110314 -0.04022284 0.036213517 -0.16724142 0.07633604 -0.0734212 0.03244525 0.12580498
0.10051758 -0.16258478 0.030604308 -0.10518193 0.16060342 0.12341344 0.1768387 0.058398962
0.073096044 -0.025302788 0.017109012 -0.14118147 -0.12778322 -0.089723974 0.05710984 -0.1235518
-0.15553375 -0.11011195 0.19198245 -0.07992919 -0.13963 0.06941425 -0.18990569 0.13100913
0.12159631 -0.020233687 0.007525065 0.06970249 -0.043527234 0.020799458 -0.111804426 0.06101187
0.070090234 0.13108024 -0.06704059 0.105022125 -0.11279214 0.1278796 0.0753994 0.066626005
-0.09165916 -0.17212617 -0.16731513 -0.14477587 -0.03972912 0.039494555 -0.07253719 -0.0646109
0.14160396 0.08597217 -0.14434826 0.07556669 0.12363211 -0.083032124 0.1749457 0.019663751
-0.01154467 0.13096602 -0.072760805 0.08406228 0.009352835 -0.1130564 0.10309962 -0.14839518
0.14316426 0.05318793 -0.12317277 -0.057116024 0.19446719 0.19768655 0.03782876 0.15033537
00000000: 2554 27be 0e7c 233e d178 80bd 5bed 2abd
00000010: 8b24 e13d 247b 563c ddc1 50bd 7826 07be
00000020: 8cfb 2bbe 2847 5dbd f002 9e3d 22b2 27be
00000030: 2f6b 633d 99d1 473e 7ecc f33c e1fc 243e
00000040: 1bdc 603d 9c16 3fbe 8a64 92bc 1b7b 0a3e
00000050: 620d 9dbd 818e 86bc c197 d7bd 15cc e13d
00000060: 3718 e7bc 00c1 80bd add4 c33d 9a47 1d3e
00000070: 0f13 073e 11b1 dd3c 49dc 273e 498a acbd
00000080: 404f 52bd df86 debd cbf8 543d 7e3f 11be
00000090: 4442 c13d 8caf c23d 26c9 febd e3ba 8b3d
000000a0: 2893 adbc 2206 22be 6ca5 173e 6e93 2cbd
000000b0: bff8 5dbd d107 a4bd 2899 353d c90a 2dbe
000000c0: d3b5 fbbd 3125 203e 8fb1 2d3e 4634 e8bd
000000d0: 8967 d03d 64e5 313d 37c2 1bbe 2e3b 2bbe
000000e0: a6f9 8c3d 4c45 c83d 7e1b 39be 5429 b73a
000000f0: f756 04be ce93 91bd 5b6a b8bc e3f7 243e
00000100: 4388 953d 5a6e 0cbe 237a 5dbd 9410 363e
00000110: 9346 17bd 24d3 00bd 9426 2abd fafa 21be
00000120: 4af9 eebd d995 123e 795d ebbd 41cb 6cbc
00000130: 42f5 263e 05c2 0e3e 14db 2abe 4644 283c
00000140: cda1 37be 3c89 34bd 8952 e7bc 42bc 253d
00000150: 0e66 71bd 1ae2 2d3e 57cc e6bd d24c 133e
00000160: 75a1 323e 76d9 633c 1d42 d3bd f3f6 113c
00000170: 5953 933d 9075 953c f238 333e 4054 febc
00000180: 9d40 443e 7b94 68bd 753f 37be bae5 47bd
00000190: 780c 04bc dcba 083e f072 e2bc 50c5 0b3e
000001a0: a374 243e 8fc4 443d 3a87 d33c d6b6 88bc
000001b0: 3db5 44bd 8cf6 a93d 4649 0bbd 20c4 f0bd
000001c0: f4b4 353d 3ee5 063e 02dd 7bbc 94bc 3fbd
000001d0: b678 5d3d f889 193e f5a5 15be 8e46 eabd
000001e0: 0d47 3f3e d5b1 e7b7 1709 e5bd 9ce5 23be
000001f0: 9769 5cbc eba1 9ebd 5cae 31be 144a b8bc
00000200: 2235 a33d 7593 623d d988 e4bd 2d5f 953d
00000210: b84c f2bb d50b 1fbe 92a1 5dba 3b8a 64bd
00000220: 14cd 28be cb9e 04be 35b0 f03c 974f c6bd
00000230: edd8 0dbe f077 c8bb bdee f0bd c6f4 e6bd
00000240: 67c0 88bd 3074 a73d 8c49 483c f882 2abb
00000250: defc 29be 2833 d93b 444e 81bd 7ff4 ab3d
00000260: 2e19 50bd 9938 1f3e ef34 853d d4b3 193d
00000270: 17e4 e03d 6a62 97bd 6ad8 0cbe 64fb 1a3d
00000280: bbbc f3bd 7707 c3bb 491a 23be 27b1 f63d
00000290: 55a1 1a3e ab97 083e 8c94 d23d 4301 33be
000002a0: 26a8 cdbd 1f07 b0bd 982f 97bb 3d16 18bd
000002b0: 82f9 e23d 952c 653d 2963 e13d 72a9 b53d
000002c0: c8ba 1abe b4c0 24bd a054 143d 5641 2bbe
000002d0: 1256 9c3d db5d 96bd 4fe5 043d 05d3 003e
000002e0: 29dc cd3d a07c 26be e3b5 fa3c a069 d7bd
000002f0: 3975 243e 30c0 fc3d 3415 353e c033 6f3d
00000300: 61b3 953d cb47 cfbc 3328 8c3c e091 10be
00000310: 9bd9 02be 34c1 b7bd 02ec 693d ba08 fdbd
00000320: 3d44 1fbe 6082 e1bd 0c97 443e eab1 a3bd
00000330: 2bfb 0ebe 0f29 8e3d a376 42be 4227 063e
00000340: 7c07 f93d 1ec1 a5bc d294 f63b 2ec0 8e3d
00000350: 9d49 32bd a063 aa3c b8f9 e4bd 95e7 793d
00000360: 788b 8f3d e639 063e 944c 89bd d715 d73d
00000370: 91ff e6bd dff2 023e 006b 9a3d 3773 883d
00000380: ccb7 bbbd d841 30be a854 2bbe 2040 14be
00000390: 00bb 22bd 0bc5 213d 618e 94bd b852 84bd
000003a0: a100 113e 2d12 b03d 08d0 13be b5c2 9a3d
000003b0: d532 fd3d bf0c aabd f724 333e e015 a13c
000003c0: db25 3dbc f51b 063e 9e03 95bd d828 ac3d
000003d0: a23c 193c 1d8a e7bd e525 d33d e8f4 17be
000003e0: a799 123e 96db 593d 0142 fcbd 7ef2 69bd
000003f0: 6822 473e 586e 4a3e 54f2 1a3d 84f1 193e

encoder.4.bias f4 [10]
-0.06731741 -0.07509651 0.039158072 -0.045440648 0.071798645 0.149575 -0.12359475 -0.08958349
-0.06439152 -0.029402316
00000000: b6dd 89bd 33cc 99bd 3764 203d f91f 3abd
00000010: 2b0b 933d 302a 193e 3f1f fdbd 8c77 b7bd
00000020: b4df 83bd 20dd f0bc

encoder.6.weight f4 [1, 10]
-0.31184706 -0.02570172 0.31967303 0.2265819 -0.11966645 -0.004829998 0.185524 0.033213433
-0.3310553 -0.20139304
00000000: 6baa 9fbe 6a8c d2bc 2fac a33e 1605 683e
00000010: af13 f5bd f644 9ebb 01fa 3d3e cf0a 083d
00000020: 1580 a9be fa39 4ebe

decoder.0.weight f4 [10, 1]
0.35334092 -0.7439633 0.40490228 0.8936097 -0.6924741 -0.4274651 0.4674974 0.9125907
0.2489156 -0.6422769
00000000: 1ae9 b43e 6174 3ebf 5a4f cf3e 9bc3 643f
00000010: fc45 31bf b5dc dabe d25b ef3e 8b9f 693f
00000020: bbe3 7e3e 426c 24bf

decoder.0.bias f4 [10]
0.9954991 -0.20244247 0.104203545 0.006850121 0.2861444 -0.4964614 0.0017318265 -0.75158024
-0.69706446 -0.75283206
00000000: 07d9 7e3f 144d 4fbe ab68 d53d fb76 e03b
00000010: 8581 923e 3030 febe 74fe e23a 9067 40bf
00000020: d172 32bf 9ab9 40bf

decoder.2.weight f4 [30, 10]
0.06605616 -0.16456755 -0.17269698 0.24369778 -0.14817716 -0.06631881 -4.6526628e-05 -0.21859245
0.006458928 0.043294806 0.062389523 0.11523989 -0.042104226 -0.3296251 0.122429624 0.31903857
-0.12975663 0.2040034 0.27816775 -0.18950872 -0.23652835 -0.31927195 0.033609137 0.16151355
-0.32130468 0.31409645 -0.21266012 -0.11466361 0.058864415 -0.025050754 0.2912566 -0.26639217
0.15060537 0.07879328 0.06022967 -0.033366248 0.15184686 -0.044353165 0.013876174 0.17494665
-0.03157186 0.23031119 0.07911276 -0.2842911 0.0917565 0.1065653 0.3022135 -0.121235915
-0.11855515 0.24212253 0.15500247 0.32266673 0.0055690594 0.12286489 -0.25119954 0.28473145
-0.105058014 -0.3545752 -0.124539874 -0.14473724 0.29751033 0.14046903 0.30958107 -0.17836802
0.1624014 -0.049329944 -0.017539166 0.009751932 0.023062179 0.31047344 -0.021316754 -0.0307818
0.19844134 0.20783235 0.1167154 0.15032989 0.33711296 0.28893375 -0.084108666 0.15489154
-0.033168074 -0.24582082 -0.26777095 0.26923063 -0.1493822 -0.090950385 -0.25745252 -0.0934685
0.33154035 -0.29575044 -0.10701431 -0.03012356 -0.14582317 0.2054882 0.09106573 -0.16012947
-0.1281099 0.09508738 -0.085772306 -0.13031806 0.19206175 -0.1850789 -0.2874198 -0.26099065
0.056257833 0.011817591 0.23616706 0.30261698 0.060663477 0.052011654 -0.0025870036 -0.031411875
0.1861044 0.005092075 -0.19504201 0.07402883 0.045510672 -0.2974029 -0.12747912 -0.11126105
-0.083585046 0.24388269 -0.10843433 0.33486313 0.08938463 -0.10962699 -0.0059876745 -0.07707981
-0.19703972 0.09329291 0.2042406 -0.071638204 -0.19156447 -0.3035863 0.21470805 -0.05503438
0.15731443 0.2755276 0.030103456 -0.11671952 0.23623355 0.21895489 -0.20794632 -0.2874081
0.009741716 0.16358142 -0.033107754 0.008132921 -0.1643949 -0.22886285 0.26407787 0.30710694
-0.188903 0.2187788 -0.079031244 -0.25037932 0.1670782 0.053954232 0.061964966 -0.3009489
-0.25219482 0.18402286 -0.08010259 -0.2729721 -0.045480818 0.016231945 -0.2752969 -0.23966837
0.29170832 0.064259596 -0.09014042 0.17755069 -0.3305438 -0.23071072 0.12092055 -0.16989696
-0.061203707 -0.336158 -0.13743025 -0.12597802 -0.033330515 0.010008138 -0.23536259 0.074495316
0.053562015 0.10290541 0.11244912 -0.18055436 0.086485155 0.026858171 0.11070413 0.26727173
0.021334672 0.062690675 -0.03216454 -0.17017357 0.32035613 -0.05779674 -0.09376192 0.09641904
-0.27293244 0.23538648 0.2978845 0.17456685 0.050270725 -0.08844052 0.1029424 0.13978444
-0.30275488 -0.270656 -0.2263355 0.21575363 -0.09435764 0.23336501 -0.078367054 -0.1125052
-0.08140595 -0.1854441 -0.22910585 -0.047673244 -0.27739516 0.044217926 -0.042983964 0.1967442
0.006385806 -0.10780094 0.28135338 0.14706926 0.12518811 0.033466414 0.19322434 0.013441843
-0.17587046 0.093581095 0.04443385 0.06952836 -0.05526221 -0.21090835 0.059756946 -0.29223868
-0.08634343 -0.27602875 0.15032092 0.14376308 -0.023835827 -0.04502151 0.18371594 0.3058203
0.21704942 0.09066188 -0.07451456 0.07771051 -0.22146025 -0.08691488 0.31188717 -0.23779087
00000000: 7448 873d 6584 28be 7ad7 30be e98b 793e
00000010: c1bb 17be 28d2 87bd 9625 43b8 b3d6 5fbe
00000020: 6aa5 d33b e555 313d 288c 7f3d e402 ec3d
00000030: 7b75 2cbd 9fc4 a8be 62bc fa3d 0659 a33e
00000040: ecde 04be 44e6 503e 016c 8e3e 930e 42be
00000050: 7d34 72be 9d77 a3be bca9 093d cf63 253e
00000060: 0c82 a4be 40d1 a03e 93c3 59be c1d4 eabd
00000070: d01b 713d 3d37 cdbc 961f 953e 8e64 88be
00000080: 4b38 1a3e 5f5e a13d 63b3 763d 0cab 08bd
00000090: be7d 1b3e aaab 35bd e458 633c 3725 333e
000000a0: 7f51 01bd b2d6 6b3e df05 a23d 9a8e 91be
000000b0: d5ea bb3d e83e da3d babb 9a3e 894a f8bd
000000c0: 0bcd f2bd f8ee 773e f8b8 1e3e 9334 a53e
000000d0: a87c b63b 96a0 fb3d 3a9d 80be 52c8 913e
000000e0: a828 d7bd e18a b5be c30e ffbd 0036 14be
000000f0: 4653 983e 1dd7 0f3e 6981 9e3e 1ba6 36be
00000100: 8d4c 263e 320e 4abd 4cae 8fbc 91c6 1f3c
00000110: e5ec bc3c 60f6 9e3e 79a0 aebc 1d2a fcbc
00000120: 3534 4b3e 01d2 543e 7c08 ef3d 14f0 193e
00000130: 129a ac3e 20ef 933e 2a41 acbd e39b 1e3e
00000140: 3fdb 07bd 74b8 7bbe 4619 89be 99d8 893e
00000150: a6f7 18be 3244 babd d1d0 83be 6a6c bfbd
00000160: a8bf a93e 9a6c 97be 522a dbbd afc5 f6bc
00000170: ab52 15be 806b 523e ab80 ba3d fbf8 23be
00000180: 3e2f 03be 2cbd c23d 64a9 afbd 1972 05be
00000190: d6ab 443e 5385 3dbe b028 93be 91a0 85be
000001a0: 9d6e 663d 929e 413c c7d5 713e 9df0 9a3e
000001b0: 447a 783d 2c0a 553d b88a 29bb bda9 00bd
000001c0: 2792 3e3e 6cdb a63b 18b9 47be 6d9c 973d
000001d0: 6669 3a3d 3145 98be e389 02be d5dc e3bd
000001e0: a32e abbd 62bc 793e d112 debd 2e73 ab3e
000001f0: 4a0f b73d 1e84 e0bd 4134 c4bb 05dc 9dbd
00000200: c8c4 49be 5a10 bf3d 7324 513e 0db7 92bd
00000210: 7a29 44be aa6f 9bbe 6ddc 5b3e bb6b 61bd
00000220: 0917 213e f411 8d3e 869b f63c a50a efbd
00000230: 35e7 713e b635 603e e1ef 54be 2827 93be
00000240: b89b 1f3c e381 273e ff9b 07bd f13f 053c
00000250: 2357 28be 065b 6abe 3735 873e 1f3d 9d3e
00000260: ca6f 41be 8d07 603e 22db a1bd b831 80be
00000270: 8c16 2b3e 1dff 5c3d face 7d3d f915 9abe
00000280: ae1f 81be 7d70 3c3e d40c a4bd 00c3 8bbe
00000290: 184a 3abd dbf8 843c b7f3 8cbe a06b 75be
000002a0: cb5a 953e 899a 833d 8a9b b8bd d9cf 353e
000002b0: 093d a9be 6e3f 6cbe 31a5 f73d 78f9 2dbe
000002c0: bdb0 7abd e71c acbe 84ba 0cbe 6200 01be
000002d0: 9485 08bd 2cf9 233c e402 71be 0091 983d
000002e0: d863 5b3d 12c0 d23d b94b e63d 3ee3 38be
000002f0: 211f b13d ab05 dc3c d9b8 e23d d7d7 883e
00000300: 0dc6 ae3c f863 803d f7be 03bd fb41 2ebe
00000310: b805 a43e 46bc 6cbd 4006 c0bd 5877 c53d
00000320: cdbd 8bbe 2709 713e 5184 983e a7c1 323e
00000330: ade8 4d3d 4e20 b5bd 77d3 d23d a723 0f3e
00000340: b002 9bbe 6c93 8abe 7ec4 67be 85ee 5c3e
00000350: 943e c1bd 3df7 6e3e e87e a0bd 2069 e6bd
00000360: 2ab8 a6bd 0fe5 3dbe b99a 6abe 0545 43bd
00000370: bd06 8ebe db1d 353d f40f 30bd 5077 493e
00000380: 0640 d13b bdc6 dcbd 8d0d 903e 5399 163e
00000390: 5031 003e 1414 093d 9adc 453e 2d3b 5c3c
000003a0: 6317 34be 72a7 bf3d 4500 363d e364 8e3d
000003b0: a15a 62bd 5cf8 57be b3c3 743d 4fa0 95be
000003c0: d3d4 b0bd a453 8dbe baed 193e a136 133e
000003d0: 5a43 c3bc 7a68 38bd 0820 3c3e 7a94 9c3e
000003e0: 3442 5e3e f0ac b93d 179b 98bd b026 9f3d
000003f0: 7ac6 62be 6e00 b2bd adaf 9f3e 737f 73be

decoder.2.bias f4 [30]
0.19390428 -0.020815618 -0.028174933 -0.13856307 0.31273627 -0.185137 0.20977007 0.045381982
-0.19583887 0.09483374 -0.27393776 -0.038185917 0.03023919 0.29730693 -0.2865751 0.22484739
0.034419343 -0.069707245 -0.2615268 0.17923425 -0.090368435 -0.29167283 -0.15623283 0.21460731
-0.07770843 -0.13943665 0.05806895 -0.17627451 -0.221818 -0.15877022
00000000: d88e 463e 8485 aabc 1ecf e6bc 7ae3 0dbe
00000010: f81e a03e 8e94 3dbe f7cd 563e 75e2 393d
00000020: fc89 48be 3138 c23d 9241 8cbe d668 1cbd
00000030: 2eb8 f73c 9d38 983e f9b9 92be 653e 663e
00000040: 4cfb 0c3d acc2 8ebd d7e6 85be 2f89 373e
00000050: 1613 b9bd 2456 95be 80fb 1fbe 05c2 5b3e
00000060: 9925 9fbd 7bc8 0ebe b5d9 6d3d 4e81 34be
00000070: 4224 63be a994 22be

decoder.4.weight f4 [60, 30]
0.027244322 -0.13211304 0.15855625 -0.011813909 0.15045464 0.0066638035 0.018826097 0.15052451
-0.09503485 -0.020518376 -0.17933486 0.048701268 -0.08485187 -0.048762567 0.10363012 0.013989034
-0.05173678 -0.08213257 -0.14547114 -0.034132976 0.17167078 -0.12825406 0.111322895 0.1687735
-0.13755831 -0.02875887 -0.10986184 0.07687208 -0.13178486 0.053427603 -0.041494634 -0.08648334
-0.08860615 -0.17041582 -0.14855322 0.0048605157 -0.17007317 0.06135557 -0.113700174 -0.12515768
-0.14292338 0.047556937 0.019765435 0.019525038 0.10977213 -0.045935035 -0.09011178 0.022950264
0.13360408 -0.055400677 -0.015454918 -0.044480518 -0.01097965 -0.16952643 0.11876453 0.16824451
0.13091241 0.033534124 0.066976435 -0.09255356 0.14681487 0.06606857 -0.04804048 -0.15501663
0.08426584 0.030175773 0.13119252 -0.037717357 0.0714603 0.13260035 0.011554737 -0.15320839
0.107971564 0.04755248 0.019601261 0.0038300885 0.118951164 -0.0636249 0.13542677 0.14198656
0.07564335 0.03968147 0.04240103 -0.07857657 0.09831724 0.1479652 0.07934978 -0.1308406
0.08496832 -0.065049246 0.05903798 0.0796816 0.09159435 0.0019545886 -0.025075236 -0.029451057
0.06635499 0.050427124 0.08853258 -0.051870093 -0.06562668 -0.12743925 0.20878622 0.10605785
-0.013004046 -0.02100777 -0.030086005 0.20715024 -0.18734844 -0.13355136 -0.012723115 0.14847146
0.03174566 -0.15015197 -0.21340856 0.030722234 -0.071999416 -0.11740262 0.0688902 0.14407907
0.08563977 0.09081439 -0.11546902 0.10140064 -0.06964591 0.20210114 0.15301535 -0.056900825
-0.059344627 -0.07985631 -0.07407535 0.1049568 -0.11182753 -0.10206246 0.13515949 0.0025103425
0.16129655 0.22388552 -0.09656744 0.15353237 0.028492266 -0.005423142 0.13727812 -0.1572557
0.11869447 -0.1445369 -0.09577585 0.049541812 -0.19227734 -0.11316662 0.07826044 -0.0781509
-0.1803224 0.123078845 -0.12219007 0.080218315 -0.14842218 -0.1928487 -0.13134202 -0.08458508
-0.13740638 0.16277604 -0.10787734 0.17346334 0.06497109 0.1134035 -0.089701064 -0.057473708
0.11531969 -0.12920956 0.13449702 0.12419905 -0.12671511 0.18592645 0.032667458 -0.07683972
0.029713426 -0.18977481 0.14420103 0.13216306 0.08232247 0.10486838 -0.068468325 -0.078146316
0.06412757 0.10819059 0.21722035 -0.16957633 -0.08331926 -0.09528696 -0.012639874 0.17642044
0.048408594 0.17985287 -0.06967842 0.03580891 0.049709145 -0.074101165 0.045444235 0.080170885
0.060652234 0.054870185 -0.080628276 0.16336654 -0.18561897 0.16641816 0.071070835 0.12693503
0.096582584 -0.03359448 0.103337124 0.04521642 -0.10961087 0.044298843 0.06536663 -0.18010429
0.12609252 0.1579391 -0.049782977 -0.17922805 0.1781069 -0.04524501 0.13226096 -0.069907926
-0.19175464 -0.15853943 -0.010627418 -0.14008823 -0.052015733 -0.14525937 -0.11947789 -0.13101728
0.041514616 -0.117735036 0.10905863 0.005927877 0.17737265 0.081446856 0.044665206 0.14117575
0.044928648 -0.13260193 -0.03707212 -0.14717922 0.12665617 -0.0051020933 0.15302193 -0.02908743
-0.18674783 -0.17051347 -0.1584925 0.015552569 -0.0017420672 0.108844236 -0.0786413 0.12614034
00000000: 7c2f df3c a448 07be 925c 223e 208f 41bc
00000010: c810 1a3e 095c da3b 3039 9a3c 1923 1a3e
00000020: a2a1 c2bd 2716 a8bc 8fa3 37be fb7a 473d
00000030: d1c6 adbd 42bb 47bd 073c d43d 4332 653c
00000040: f2e9 53bd 1f35 a8bd 63f6 14be 05cf 0bbd
00000050: 77ca 2f3e 0855 03be 42fd e33d f6d2 2c3e
00000060: 16dc 0cbe b997 ebbc 3fff e0bd 1c6f 9d3d
00000070: 9cf2 06be e7d6 5a3d 47f6 29bd 2d1e b1bd
00000080: 2477 b5bd 7c81 2ebe 561e 18be f644 9f3b
00000090: a927 2ebe fa4f 7b3d a3db e8bd 5629 00be
000000a0: 825a 12be 10cb 423d 1feb a13c f9f2 9f3c
000000b0: 36d0 e03d 6026 3cbd 868c b8bd 3102 bc3c
000000c0: 82cf 083e d2eb 62bd a036 7dbc 3431 36bd
000000d0: fde3 33bc 5698 2dbe d13a f33d 4a48 2c3e
000000e0: e70d 063e 145b 093d f12a 893d b98c bdbd
000000f0: a356 163e f54e 873d 18c6 44bd aebc 1ebe
00000100: 9293 ac3d 2f33 f73c 5557 063e 847d 1abd
00000110: c759 923d 63c8 073e 1450 3d3c a9e2 1cbe
00000120: 3220 dd3d 64c6 423d d392 a03c 3902 7b3b
00000130: ab9c f33d c64d 82bd 51ad 0a3e ed64 113e
00000140: e7ea 9a3d 0989 223d b4ac 2d3d c1ec a0bd
00000150: 8d5a c93d 3084 173e 2382 a23d 14fb 05be
00000160: df03 ae3d 8a38 85bd cfd1 713d 1b30 a33d
00000170: d295 bb3d 8e18 003b 956a cdbc 5843 f1bc
00000180: 20e5 873d ac8c 4e3d 9250 b53d bc75 54bd
00000190: 4867 86bd 6f7f 02be 0ecc 553e dc34 d93d
000001a0: ec0e 55bc 7d18 acbc ed76 f6bc 311f 543e
000001b0: 45d8 3fbe b0c1 08be 9d74 50bc e708 183e
000001c0: bd07 023d 70c1 19be c687 5abe 32ad fb3c
000001d0: 6e74 93bd c970 f0bd 4e16 8d3d 7789 133e
000001e0: e763 af3d e5fc b93d 067b ecbd 24ab cf3d
000001f0: 84a2 8ebd 9af3 4e3e 0eb0 1c3e d710 69bd
00000200: 5a13 73bd b48b a3bd d1b4 97bd 97f3 d63d
00000210: d505 e5bd 1f06 d1bd 4067 0a3e 8f84 243b
00000220: ec2a 253e 3f42 653e 26c5 c5bd 9737 1d3e
00000230: 9d68 e93c 9db4 b1bb a392 0c3e a307 21be
00000240: 1616 f33d 7b01 14be 2126 c4bd 5bec 4a3d
00000250: 5ae4 44be e7c3 e7bd 0247 a03d 940d a0bd
00000260: 6fa6 38be c310 fc3d ca3e fabd 8049 a43d
00000270: fcfb 17be 217a 45be 867e 06be f13a adbd
00000280: 42b4 0cbe c3ae 263e cbee dcbd 60a0 313e
00000290: 900f 853d 1840 e83d 31b5 b7bd 8d69 6bbd
000002a0: bb2c ec3d 834f 04be 96b9 093e 125c fe3d
000002b0: 9bc1 01be 8163 3e3e 50ce 053d 255e 9dbd
000002c0: 9269 f33c 5454 42be 6fa9 133e c155 073e
000002d0: af98 a83d 3cc5 d63d 1f39 8cbd 2d0b a0bd
000002e0: 5155 833d 0793 dd3d 036f 5e3e 6ba5 2dbe
000002f0: 4aa3 aabd cf25 c3bd 7917 4fbc 8fa7 343e
00000300: 1748 463d 5a2b 383e 8fb3 8ebd 5dac 123d
00000310: d19b 4b3d 5ac2 97bd bc23 3a3d a230 a43d
00000320: 7a6e 783d 8fbf 603d 7020 a5bd 8f49 273e
00000330: e612 3ebe 8669 2a3e 968d 913d 42fb 013e
00000340: 17cd c53d 5e9a 09bd 6aa2 d33d da34 393d
00000350: aa7b e0bd b472 353d f1de 853d 426d 38be
00000360: 661e 013e caba 213e 3ce9 4bbd 8f87 37be
00000370: a861 363e d552 39bd 6b6f 073e e32b 8fbd
00000380: 545b 44be 2958 22be 9f1e 2ebc 4a73 0fbe
00000390: 730e 55bd dfbe 14be d3b0 f4bd 6529 06be
000003a0: 3b0b 2a3d 111f f1bd 225a df3d a33e c23b
000003b0: 2da1 353e 9ccd a63d ddf2 363d 6090 103e
000003c0: 1a07 383d cdc8 07be efd8 17bd 26b6 16be
000003d0: 28b2 013e 762f a7bb c8b1 1c3e c348 eebc
000003e0: d33a 3fbe 159b 2ebe dc4b 22be 34d0 7e3c
000003f0: 1356 e4ba bae9 de3d b10e a1bd ef2a 013e

decoder.4.bias f4 [60]
-0.093352675 0.11009852 0.15500034 0.08507659 0.1556678 -0.13584036 0.067029215 0.07897415
-0.16002356 0.016253414 0.11043402 0.048749134 0.18637459 -0.10320062 -0.08047706 0.14194943
-0.13123484 -0.13206595 -0.16508828 0.1480105 0.1941335 0.13045949 -0.074484 -0.017521625
0.1795588 0.03390573 0.047342792 0.15321887 0.12164729 0.04973419 -0.10496171 -0.14698704
-0.036033444 -0.013752793 0.14947376 -0.09501828 -0.07504212 -0.04331616 -0.08143986 0.04739864
-0.040107388 0.07760818 0.12806065 0.15933739 -0.0030726008 -0.096698314 0.07283675 0.1324557
-0.0350584 0.041977268 0.08594936 -0.12052172 -0.09274021 -0.1270407 0.031555973 0.08792239
0.17647837 0.03797116 -0.16234775 0.085269794
00000000: b02f bfbd 557b e13d 69b8 1e3e a33c ae3d
00000010: 6167 1f3e bc19 0bbe 9d46 893d 33bd a13d
00000020: 37dd 23be e125 853c 3b2b e23d 2cad 473d
00000030: fbd8 3e3e d95a d3bd 28d1 a4bd 315b 113e
00000040: 6d62 06be 4c3c 07be e70c 29be 1190 173e
00000050: efca 463e 2c97 053e 118b 98bd 8389 8fbc
00000060: 43de 373e bce0 0a3d 84ea 413d 68e5 1c3e
00000070: 3722 f93d 14b6 4b3d 2af6 d6bd c583 16be
00000080: ce97 13bd 6553 61bc a60f 193e f298 c2bd
00000090: afaf 99bd 496c 31bd f1c9 a6bd 1425 423d
000000a0: a547 24bd 0af1 9e3d 5522 033e 5729 233e
000000b0: b05d 49bb c409 c6bd 6f2b 953d 78a2 073e
000000c0: 6699 0fbd 5bf0 2b3d 3806 b03d 17d4 f6bd
000000d0: 94ee bdbd f516 02be d640 013d a710 b43d
000000e0: bfb6 343e a687 1b3d 7d3e 26be eea1 ae3d

decoder.6.weight f4 [118, 60]
0.049070027 0.087693386 0.06625219 0.009011083 -0.08554605 0.0028696405 -0.018971626 0.069629
0.021654764 -0.048792377 -0.16500354 -0.05897168 -0.025617411 0.025984865 0.14622362 -0.1096861
0.01481165 -0.018428389 0.14925352 -0.02404262 -0.1587314 0.054209974 -0.0013426924 0.096594445
-0.15931256 -0.16994977 0.03325388 -0.13895464 -0.029398952 -0.028478669 0.06924011 0.03678228
-0.051081054 -0.01883374 -0.044960886 -0.073793575 -0.11410161 -0.03684744 0.016844466 -0.0053046793
-0.055405248 0.012444674 -0.10098004 -0.10052377 0.07699434 0.13490607 -0.12339315 -0.013276979
0.058171716 0.13109908 0.033601593 -0.07902569 -0.14761479 -0.004064775 0.009380513 0.00048526764
0.06186244 -0.03719004 -0.088796645 -0.12509269 0.1373186 -0.104635365 0.0062627606 -0.09848406
0.09982827 0.0141062895 0.1298834 -0.1326972 0.08262145 0.11288741 -0.13651764 0.014210091
0.0100215925 -0.0919435 -0.026215302 -0.016736591 0.043716874 0.03187118 -0.030894188 0.07977525
0.066622615 0.09135478 0.03279707 -0.13185664 0.097755566 -0.06721847 -0.03660367 0.05796894
0.04007964 -0.11898928 -0.07534922 0.02513026 0.057774357 -0.062169764 0.123149045 0.07345208
-0.1448196 -0.038976766 0.07425215 -0.029359238 -0.07268601 -0.030967224 0.03151596 -0.03344655
-0.07526858 0.022953952 0.07138645 0.11759899 0.05416339 0.041768942 0.052128896 0.124610275
-0.119140275 -0.03380894 -0.06548612 -0.057919692 0.07529599 0.10082804 -0.070338614 -0.05656076
0.05985998 0.057063345 0.046606198 0.035059445 -0.099436514 0.076076 -0.11218543 -0.05027412
0.001444165 -0.0030543006 -0.0027507194 -0.10604479 0.13059093 -0.08531125 0.0012679887 -0.0034487057
-0.003559001 -0.03304674 0.01618283 0.03108853 -0.084219664 0.09125681 -0.017238442 0.10742619
-0.099980034 0.10865757 0.08752105 -0.041636318 0.0147841135 0.08368311 -0.110775135 0.09266808
0.063501745 -0.06350734 0.0663352 0.054278173 0.017536927 0.08728897 -0.09962912 -0.019369956
0.011047555 0.09235038 0.07264137 -0.012619105 -0.063293934 -0.13178755 -0.0021292623 -0.04028513
-0.035071716 0.024673292 0.07658394 0.0566744 0.017822523 -0.03474408 0.04999298 0.081011966
-0.033546124 -0.113517575 0.008251054 -0.053129967 0.108431086 -0.105804026 -0.06614005 0.048484586
-0.08667529 -0.00817032 0.06894528 -0.08304285 0.05136208 0.109961234 -0.09430915 0.023395246
-0.078587174 -0.076698884 -0.11865254 0.061883397 0.0810005 -0.079192854 0.090492636 -0.054463826
0.059326634 -0.09788629 0.12495237 -0.11369896 0.061483677 0.056209587 0.033477373 0.1255377
0.0606849 0.07403844 -0.1147265 -0.08464488 -0.015240708 0.13033693 0.0843426 -0.12759307
0.079781204 0.011474531 -0.011067066 -0.029441841 0.05586208 -0.050856657 0.056635022 -0.08306533
-0.016585456 0.037836332 -0.0252212 0.12226497 -0.09216209 0.049415253 0.08814558 -0.027884454
0.05767228 -0.121363625 -0.051487558 -0.08868726 0.032340012 -0.05226226 -0.11452306 -0.12175978
0.0029300342 0.09697372 0.1110411 -0.018401306 -0.030599449 -0.07825829 0.1046722 -0.10528002
-0.012494708 -0.057313237 -0.13321671 0.036066808 -0.08189434 -0.03818155 0.037269466 0.05040012
00000000: a7fd 483d 9798 b33d 3aaf 873d 39a3 133c
00000010: c432 afbd 9410 3c3b 626a 9bbc a699 8e3d
00000020: 5565 b13c 84da 47bd b0f6 28be 4a8c 71bd
00000030: 9bdb d1bc 36de d43c a5bb 153e 1ba3 e0bd
00000040: 90ac 723c 22f7 96bc ead5 183e 07f5 c4bc
00000050: 7c8a 22be 470b 5e3d 48fd afba 4fd3 c53d
00000060: d522 23be 5007 2ebe 3835 083d 204a 0ebe
00000070: 12d6 f0bc 194c e9bc c2cd 8d3d 04a9 163d
00000080: 5e3a 51bd 3749 9abc e828 38bd 1621 97bd
00000090: 1bae e9bd 57ed 16bd 68fd 893c e0d2 adbb
000000a0: 9df0 62bd bfe4 4b3c a0ce cebd 68df cdbd
000000b0: 35af 9d3d d124 0a3e 8cb5 fcbd b087 59bc
000000c0: 7745 6e3d d63e 063e d3a1 093d 39d8 a1bd
000000d0: 5528 17be ce31 85bb b9b0 193c 856b fe39
000000e0: 7863 7d3d 9554 18bd 04db b5bd 4c18 00be
000000f0: 3f9d 0c3e 114b d6bd d837 cd3b 03b2 c9bd
00000100: c472 cc3d 111e 673c 2700 053e c6e1 07be
00000110: 6f35 a93d 8431 e73d 48cb 0bbe 71d1 683c
00000120: 9b31 243c e04c bcbd 79c1 d6bc 2d1b 89bc
00000130: 7710 333d 5b8b 023d cf15 fdbc 3561 a33d
00000140: 7071 883d 3718 bb3d 3856 063d 6d05 07be
00000150: 1234 c83d d6a9 89bd bbed 15bd d770 6d3d
00000160: 8c2a 243d a7b0 f3bd b150 9abd fadd cd3c
00000170: cea4 6c3d b9a5 7ebd 9135 fc3d 0b6e 963d
00000180: 974b 14be 1aa6 1fbd 8311 983d c982 f0bc
00000190: 67dc 94bd faae fdbc e116 013d 40ff 08bd
000001a0: 6a26 9abd ed09 bc3c 0f33 923d bdd7 f03d
000001b0: 6eda 5d3d e915 2b3d 1c85 553d ac33 ff3d
000001c0: d1ff f3bd 3e7b 0abd 961d 86bd 333d 6dbd
000001d0: c934 9a3d ee7e ce3d b10d 90bd 41ac 67bd
000001e0: bd2f 753d 41bb 693d 24e6 3e3d 7e9a 0f3d
000001f0: 5fa5 cbbd bccd 9b3d 7ac1 e5bd 3cec 4dbd
00000200: 234a bd3a a92a 48bb 6a45 34bb 032e d9bd
00000210: a1b9 053e aab7 aebd a432 a63a ae03 62bb
00000220: 213e 69bb 055c 07bd db91 843c 5fad fe3c
00000230: 5c7b acbd dae4 ba3d a237 8dbc 4302 dc3d
00000240: 55c2 ccbd dc87 de3d 3c3e b33d d88a 2abd
00000250: 1139 723c 0d62 ab3d 13de e2bd c3c8 bd3d
00000260: 340d 823d 2310 82bd c0da 873d ca52 5e3d
00000270: 9aa9 8f3c 8fc4 b23d 5a0a ccbd bead 9ebc
00000280: ce00 353c 3222 bd3d 00c5 943d 5dc0 4ebc
00000290: 40a0 81bd 51f3 06be 188b 0bbb 0502 25bd
000002a0: 5ca7 0fbd a51f ca3c 0ad8 9c3d 6a23 683d
000002b0: 8a00 923c cf4f 0ebd 70c5 4c3d 9ae9 a53d
000002c0: a967 09bd e77b e8bd 6e2f 073c cf9e 59bd
000002d0: 1e11 de3d c8af d8bd 6f74 87bd c697 463d
000002e0: d082 b1bd cedc 05bc 2f33 8d3d 5f12 aabd
000002f0: 0b61 523d 5b33 e13d 2825 c1bd 63a7 bf3c
00000300: 50f2 a0bd 4e14 9dbd 1a00 f3bd 7279 7d3d
00000310: 97e3 a53d dd2f a2bd 3454 b93d 7615 5fbd
00000320: 7c00 733d 9b78 c8bd 07e7 ff3d 00db e8bd
00000330: 4fd6 7b3d 063c 663d 921f 093d f48c 003e
00000340: bb90 783d 77a1 973d baf5 eabd 4b5a adbd
00000350: 2ab4 79bc 0b77 053e d0bb ac3d c2a7 02be
00000360: 5464 a33d acff 3b3c a452 35bc 0430 f1bc
00000370: a3cf 643d 124f 50bd 20fa 673d 281e aabd
00000380: 39de 87bc 45fa 1a3d b19c cebc 0e66 fa3d
00000390: 7abf bcbd a667 4a3d ab85 b43d f06d e4bc
000003a0: c539 6c3d 7e8d f8bd 9ee4 52bd aba1 b5bd
000003b0: f676 043d f410 56bd 118b eabd 315d f9bd
000003c0: d105 403b 289a c63d 8469 e33d 56be 96bc
000003d0: b2ab fabc e245 a0bd 615e d63d 0d9d d7bd
000003e0: 9bb6 4cbc 49c1 6abd f669 08be caba 133d
000003f0: 38b8 a7bd 4264 1cbd dea7 183d 5b70 4e3d

decoder.6.bias f4 [118]
-0.006983162 -0.02400505 -0.030170558 -0.0960472 -0.07850733 -0.09030825 0.0048788176 0.02012584
0.11104464 0.02195341 -0.0872961 0.13497743 -0.02066255 0.12239222 0.1342401 0.02085615
0.08524615 0.00525595 0.07363445 0.020773396 -0.06530564 -0.09541044 -0.029229552 -0.09602745
0.059863377 -0.045419957 -0.10524752 -0.0068283794 0.04743432 -0.043668088 0.032511737 0.09799449
-0.06712172 -0.075784676 0.07655041 0.0016848705 0.042282328 -0.030798877 0.06676923 0.14053418
0.07109954 -0.08003168 -0.08986289 -0.078648865 -0.005137764 -0.05064345 -0.01021975 -0.033258878
0.096238285 0.033924185 -0.09272617 -0.024741799 -0.06492215 0.03577053 0.06543739 0.051890302
0.04805639 0.0651768 -0.06979694 -0.0882625 -0.034017157 -0.103222705 0.014469128 0.06658076
-0.049692146 -0.10454311 -0.03761187 0.047003996 -0.0045709386 -0.039762065 -0.021165598 0.07850271
0.08081614 -0.08057674 0.037208423 -0.05185925 -0.07329318 -0.065948196 -0.025806189 0.03174883
0.013343053 -0.027615681 -0.007846641 0.027332848 -0.07128935 -0.03170631 0.029103471 0.036352806
-0.010234669 -0.022336366 -0.101196066 -0.07115358 0.07981953 0.078179136 0.0535764 0.11118715
-0.069722265 -0.07249543 -0.07225228 -0.025990376 0.0889268 0.08879846 0.11529964 0.06127538
-0.013332968 -0.0681547 -0.090534344 -0.06295896 -0.09544015 -0.048036158 -0.13060546 0.037287764
0.09934186 -0.035680287 0.119580686 -0.018303648 -0.10785143 0.03385769
00000000: 02d3 e4bb 3da6 c4bc 3f28 f7bc 65b4 c4bd
00000010: 73c8 a0bd 88f3 b8bd 7dde 9f3b f2de a43c
00000020: 5f6b e33d a3d7 b33c 4cc8 b2bd 8637 0a3e
00000030: 8244 a9bc c6a8 fa3d 3d76 093e 84da aa3c
00000040: 8995 ae3d 1b3a ac3b a9cd 963d f82c aa3c
00000050: f7be 85bd 8c66 c3bd d072 efbc 0aaa c4bd
00000060: 4d33 753d 470a 3abd 038c d7bd 99c0 dfbb
00000070: 7d4a 423d 4fdd 32bd 072b 053d 56b1 c83d
00000080: 1d77 89bd ff34 9bbd 76c6 9c3d dfd6 dc3a
00000090: 3c30 2d3d ed4d fcbc 4ebe 883d 31e8 0f3e
000000a0: a39c 913d a6e7 a3bd 090a b8bd a812 a1bd
000000b0: b05a a8bb 826f 4fbd bd70 27bc 763a 08bd
000000c0: 9418 c53d 16f4 0a3d 38e7 bdbd 50af cabc
000000d0: e7f5 84bd 1f84 123d 0a04 863d ed8a 543d
000000e0: c7d6 443d 6a7b 853d b3f1 8ebd f8c2 b4bd
000000f0: 9355 0bbd 6d66 d3bd ec0f 6d3c 7e5b 883d
00000100: fe89 4bbd b31a d6bd e70e 1abd 4387 403d
00000110: d0c7 95bb 8cdd 22bd 7a63 adbc 07c6 a03d
00000120: ef82 a53d 6b05 a5bd dc67 183d 5d6a 54bd
00000130: bc1a 96bd d90f 87bd 8067 d3bc 100b 023d
00000140: d29c 5a3c 483a e2bc 338f 00bc 23e9 df3c
00000150: 2700 92bd 7ade 01bd 676a ee3c aee6 143d
00000160: 50af 27bc c1fa b6bc e23f cfbd f8b8 91bd
00000170: 6c78 a33d 621c a03d ed72 5b3d 17b6 e33d
00000180: 8cca 8ebd 7c78 94bd 01f9 93bd c5e9 d4bc
00000190: 411f b63d f8db b53d 3822 ec3d e5fb 7a3d
000001a0: 8572 5abc b194 8bbd 126a b9bd a1f0 80bd
000001b0: 2076 c3bd 90c1 44bd 70bd 05be 0ebb 183d
000001c0: bf73 cb3d 7e25 12bd b8e6 f43d 88f1 95bc
000001d0: 36e1 dcbd 5cae 0a3d

estimation.0.weight f4 [10, 3]
-0.23598023 -0.2394316 -0.31988624 0.56214267 0.14847007 0.38421702 -0.10764754 -0.086963445
0.3165482 0.21921337 -0.009219662 -0.3119855 -0.2686431 0.10076159 -0.4508873 -0.097353525
0.39044973 0.24094318 -0.111859605 -0.08595342 -0.35205093 0.13700418 -0.230898 0.18741494
-0.42426077 0.5395693 -0.116928495 -0.37367812 0.5441839 0.17319551
00000000: cda4 71be 8f2d 75be 21c8 a3be 95e8 0f3f
00000010: 8a08 183e 18b8 c43e 5076 dcbd e419 b2bd
00000020: 9b12 a23e 7879 603e 110e 17bc 90bc 9fbe
00000030: 978b 89be 185c ce3d b3da e6be 4961 c7bd
00000040: 07e9 c73e cfb9 763e a616 e5bd 5908 b0bd
00000050: 0540 b4be d34a 0c3e 8670 6cbe b4e9 3f3e
00000060: b538 d9be 3721 0a3f 3578 efbd bd52 bfbe
00000070: a34f 0b3f 2a5a 313e

estimation.0.bias f4 [10]
0.78983 -0.4860794 -0.37424687 0.4052276 0.014093282 0.56654066 -0.66352224 0.33173823
0.6598604 0.41246092
00000000: 4d32 4a3f 66df f8be 499d bfbe fe79 cf3e
00000010: 82e7 663c cf08 113f 98dc 29bf 98d9 a93e
00000020: 9cec 283f 142e d33e

estimation.3.weight f4 [4, 10]
-0.25073534 0.40599847 -0.051344063 -0.25889704 0.044064455 -0.2335266 0.20882678 -0.19438548
-0.02165307 0.13533686 -0.45914453 -0.17303696 0.24849749 0.07957017 -0.28060836 -0.19856578
0.09254166 0.011366893 -0.08326304 -0.3554178 0.5301271 -0.11557409 -0.46240437 0.31617907
0.21964568 0.3058941 -0.20564122 -0.17496595 0.25007993 0.44579306 0.058431637 0.04461464
0.27203724 -0.107054345 -0.18270336 -0.4042808 0.29605296 0.13752632 -0.3843171 -0.4352932
00000000: 6260 80be 08df cf3e 274e 52bd 278e 84be
00000010: ee7c 343d 9921 6fbe b0d6 553e fd0c 47be
00000020: c761 b1bc bf95 0a3e fe14 ebbe 9a30 31be
00000030: 2076 7e3e aff5 a23d e6ab 8fbe d454 4bbe
00000040: 7b86 bd3d 343c 3a3c d085 aabd 52f9 b5be
00000050: 69b6 073f 1cb2 ecbd 44c0 ecbe 39e2 a13e
00000060: ccea 603e 279e 9c3e 9d93 52be 462a 33be
00000070: 7a0a 803e fd3e e43e 0356 6f3d d7bd 363d
00000080: 7748 8b3e 4f3f dbbd 9716 3bbe e5fd cebe
00000090: 4194 973e b3d3 0c3e 36c5 c4be c0de debe

estimation.3.bias f4 [4]
-0.22164606 -0.25521445 0.18184388 -0.012936548
00000000: 2ff7 62be 78ab 82be 4835 3a3e d1f3 53bc
