Baseline-models/DAGMM/DAGMM-ROAD/no--dagmm/models/21_194_dagmm.pth (torch, 82200 bytes, 22 tensors)

phi f4 [4]
0	0x3d766b1e	0.06016075
1	0x3d52c9ef	0.05146211
2	0x3f57aee0	0.84251213
3	0x3d3bdcf4	0.045865014

mu f4 [4, 3]
0	0x3ebd3062	0.36950976
1	0x3f8eff53	1.1171669
2	0xbd6e42d4	-0.0581692
3	0x3ebca785	0.36846557
4	0x3f8f24fe	1.1183164
5	0xbd7a31b3	-0.061082553
6	0x3e7093e3	0.23493914
7	0x3fa3e4bf	1.2804183
8	0xbee0b7cd	-0.4389023
9	0x3ec3c3a4	0.382352
10	0x3f8cfa2d	1.1013848
11	0xbcb23d84	-0.021757849

cov f4 [4, 3, 3]
0	0x3db245cd	0.0870472
1	0xbdd853ff	-0.10562896
2	0x3e7c3507	0.24629603
3	0xbdd853ff	-0.10562896
4	0x3e034ca9	0.12822212
5	0xbe990843	-0.29889116
6	0x3e7c3507	0.24629603
7	0xbe990843	-0.29889116
8	0x3f3267e0	0.6968975
9	0x3db2b5a6	0.08726053
10	0xbdd8d54e	-0.1058756
11	0x3e7cd445	0.2469035
12	0xbdd8d54e	-0.1058756
13	0x3e039493	0.12849645
14	0xbe996434	-0.2995926
15	0x3e7cd445	0.2469035
16	0xbe996434	-0.2995926
17	0x3f32d93d	0.6986273
18	0x3d7f1d81	0.062283996
19	0xbd9aac84	-0.07552436
20	0x3e346f67	0.17620622
21	0xbd9aac84	-0.07552436
22	0x3dbb9ac1	0.09160376
23	0xbe5acde6	-0.21367607
24	0x3e346f67	0.17620622
25	0xbe5acde6	-0.21367607
26	0x3eff3cc2	0.49851042
27	0x3db453ce	0.08805047
28	0xbddada99	-0.106862254
29	0x3e7f22d4	0.2491563
30	0xbddada99	-0.106862254
31	0x3e04d6b0	0.12972522
32	0xbe9ad4df	-0.30240533
33	0x3e7f22d4	0.2491563
34	0xbe9ad4df	-0.30240533
35	0x3f347e3b	0.7050511

encoder.0.weight f4 [60, 118]
0	0xbca86674	-0.020556666
1	0x3da416ad	0.080121376
2	0x3cc05384	0.023477323
3	0x3bb1f6e4	0.005431043
4	0x3db44b4d	0.08803425
5	0xbceff6cf	-0.029292492
6	0x3d1ac7b3	0.037788104
7	0x3d6530a1	0.05595458
8	0xbd86c950	-0.06581366
9	0x3d89235e	0.06696199
10	0x3d1e0e20	0.03858769
11	0x3c66d37f	0.014088511
12	0x3d429a20	0.047510266
13	0x3d4b902b	0.049698036
14	0xbd81c87e	-0.06337069
15	0xbd1940d4	-0.03741534
16	0x3da692dc	0.0813348
17	0xbd33805c	-0.043823585
18	0xbcb4d857	-0.022075815
19	0xbd925ac1	-0.07146216
20	0xbca85f40	-0.020553231
21	0xbcda008b	-0.026611587
22	0x3d0806fb	0.033209782
23	0xbd4ec4a6	-0.050480507
24	0x3db922ea	0.090398625
25	0x3d852869	0.06501848
26	0x3db9c549	0.09070832
27	0xbcf0e68a	-0.029406805
28	0xbd1f2166	-0.03885021
29	0xbdb4e350	-0.08832419
30	0xbdad2809	-0.08454902
31	0xbc781c69	-0.015143492
32	0x3d726264	0.059175864
33	0x3d131a8e	0.035913996
34	0xbd1e566b	-0.038656633
35	0x3d67b0b5	0.056565005
36	0xbc9435fa	-0.018092144
37	0xbd55c432	-0.05218906
38	0xbc60a624	-0.013711486
39	0xbd646976	-0.055764638
40	0x3d44ccd7	0.048046913
41	0x3d3240ac	0.043518707
42	0x3cd5b138	0.026085481
43	0x3b379da0	0.0028017536
44	0xbcd4e179	-0.02598642
45	0x3c73b04b	0.0148735745
46	0xbd9614e7	-0.073282056
47	0xbcfb1d91	-0.030653747
48	0xbd4393fe	-0.04774856
49	0xbd9bd326	-0.07608633
50	0xbd10c685	-0.035345573
51	0xbc98c0ce	-0.018646624
52	0xbca24df0	-0.019812554
53	0xbbe34081	-0.0069351797
54	0x3bc672f1	0.0060561826
55	0xbda6b0fc	-0.08139226
56	0xbd1802e3	-0.037112128
57	0xbc079e07	-0.008277423
58	0xba6db003	-0.00090670603
59	0xbc634654	-0.013871748
60	0xbbcbdac0	-0.0062211454
61	0xbce234b0	-0.027613014
62	0x3db21f24	0.08697346
63	0x3d197292	0.03746278
64	0x3dace339	0.08441777
65	0x3da2d8c4	0.07951501
66	0x3d8cde02	0.06878282
67	0xbd8b3931	-0.06798018
68	0x3d384f3d	0.044997443
69	0x3d95dd33	0.07317581
70	0x3dac5827	0.08415251
71	0x3d0b1240	0.03395295
72	0x3d856e75	0.06515209
73	0xbd5bffc0	-0.0537107
74	0x3d0b4112	0.033997603
75	0xbd9c303b	-0.07626387
76	0xbcecf04f	-0.028923182
77	0xbcab84e1	-0.020937385
78	0xbd94b8b5	-0.072617926
79	0x3a54d5c4	0.0008119012
80	0xbcd5d52d	-0.026102627
81	0x3d100ad3	0.035166573
82	0xbd322936	-0.043496333
83	0x3a984df4	0.0011619912
84	0x3d7bf4a1	0.061512593
85	0xbbe42f70	-0.006963663
86	0xbd98a140	-0.07452631
87	0x3cebf525	0.028803417
88	0xbdc0d800	-0.09416199
89	0x3da54b6c	0.08071026
90	0x3c33b614	0.010968704
91	0x3c88407b	0.01663231
92	0xbd8e4ee9	-0.06948645
93	0x3caf8af1	0.021428557
94	0x3d1ff45c	0.0390514
95	0x3da9002f	0.08251988
96	0x3d033ea8	0.032042176
97	0x39174800	0.00014427304
98	0x3d840007	0.06445318
99	0xbd2ca71c	-0.042151555
100	0x3d87190e	0.06596576
101	0x3d693fb4	0.056945518
102	0xbd590ac3	-0.05298878
103	0xbd178448	-0.036991388
104	0xbc02c1f7	-0.007980815
105	0x3d4e0307	0.050295856
106	0xbaf1eaba	-0.0018456795
107	0xbd8a1fac	-0.06744322
108	0x3d522f72	0.05131478
109	0x3d07557d	0.033040512
110	0xbd18e71c	-0.037329778
111	0x3c70da58	0.014700495
112	0xbc8f9ab3	-0.017529821
113	0xbd88f6dd	-0.066877104
114	0x3d869b6f	0.06572615
115	0xbca06208	-0.019577995
116	0x3d49a839	0.049232695
117	0xbc55dc0d	-0.0130529525
118	0xbcd12fcb	-0.025535485
119	0x3d6977a0	0.05699885
120	0x3db82a57	0.08992451
121	0xb987900b	-0.00025856527
122	0xbb81dbc0	-0.003962964
123	0xbd72a1c7	-0.059236314
124	0xbd732fd6	-0.05937179
125	0x3d2c7037	0.042099204
126	0x3a39b252	0.0007083762
127	0x3d650d0a	0.05592064
128	0x3d5c633a	0.053805567
129	0x3d24671f	0.040137406
130	0xbc02fcc1	-0.007994832
131	0x3d28cf6c	0.041213438
132	0xbcc79ec8	-0.024367705
133	0xbcc789b9	-0.024357663
134	0x3d40b556	0.047047935
135	0xbca3da01	-0.020001413
136	0x3d5ca655	0.053869564
137	0xbcc56a90	-0.024098665
138	0x3d3b7229	0.04576317
139	0x3d9e5729	0.07731468
140	0x3c9b6223	0.018967694
141	0xbd10acd8	-0.035321087
142	0x3ccf8c71	0.025335522
143	0xbd543fe7	-0.051818755
144	0xbd3c3f0a	-0.045958556
145	0xbdce5ccb	-0.100762926
146	0x3da4284c	0.080154985
147	0xbd975fda	-0.07391329
148	0x3c88f044	0.01671613
149	0x3c5739fc	0.013136383
150	0x3da6341b	0.08115407
151	0x3c924abf	0.017857907
152	0x3cc76998	0.024342343
153	0xbd63f5b1	-0.05565423
154	0x3d30c8e3	0.04316033
155	0x3daf7d3f	0.08568811
156	0xbd85ae36	-0.06527369
157	0xbc6857a1	-0.014181049
158	0xbda8d0ce	-0.08242951
159	0x3c8cac65	0.017172048
160	0x3ce002a4	0.02734501
161	0xbce13ae2	-0.027493898
162	0xbc13452f	-0.008988663
163	0xbcdab8d2	-0.026699457
164	0xbc7d3bdf	-0.015456169
165	0x3d3a94de	0.045552127
166	0x3da8f0ca	0.08249052
167	0x3db6b83f	0.08921861
168	0xbcfdbca5	-0.030973742
169	0x3c639f3e	0.013892947
170	0xbd862d17	-0.06551569
171	0x3d8b2165	0.06793479
172	0xbd888678	-0.06666273
173	0x3d222977	0.039590325
174	0xbc8d8baa	-0.017278511
175	0x3d78618e	0.06063991
176	0x3dabd939	0.08391041
177	0xbc16aabd	-0.009195981
178	0x3db5cfe3	0.08877542
179	0xbc7d8dbf	-0.015475689
180	0x3d8603b0	0.06543672
181	0x3caaec80	0.020864725
182	0x3dad688c	0.08467206
183	0x3d5d5e97	0.054045286
184	0xbb6b681b	-0.0035920206
185	0x3c9226ce	0.01784077
186	0x3bea4bd2	0.0071501518
187	0xbd494311	-0.049136225
188	0xbd0d74ad	-0.0345351
189	0xbcd9f9e9	-0.026608424
190	0x3d781af7	0.06057259
191	0x3d67d442	0.05659891
192	0x3d87bed8	0.066281974
193	0xbcfc5e18	-0.030806586
194	0xbbdf5a4d	-0.0068161846
195	0x3d8c655d	0.06855271
196	0x3d156e2f	0.036482032
197	0x3c125c4d	0.008933139
198	0x3aea26a9	0.0017864305
199	0x3cf63177	0.030052884
200	0xbd83ebeb	-0.06441482
201	0xbd83f1de	-0.06442617
202	0xbda1cadf	-0.07900023
203	0x3d3826d6	0.04495891
204	0xbb66af5b	-0.0035199735
205	0xbe0d074f	-0.1377232
206	0xbbc69294	-0.006059954
207	0xbccb6d84	-0.024832495
208	0x3d80f808	0.06297308
209	0x3bec06a8	0.007202942
210	0xbda5a51c	-0.08088133
211	0x3d89be5a	0.0672576
212	0xbce98a2f	-0.028508274
213	0xbd1940f3	-0.037415456
214	0xbd52d473	-0.05147214
215	0xbd7d967c	-0.06191109
216	0xbccd9031	-0.02509317
217	0xbda0929e	-0.07840465
218	0xbc2b74e2	-0.010464879
219	0xbd67d08d	-0.056595374
220	0x3de2352f	0.110453
221	0xbce1f922	-0.027584616
222	0x3dabf5f7	0.083965234
223	0xbd2164af	-0.03940266
224	0x3b9dc3ff	0.0048146243
225	0x3cfb49c0	0.030674815
226	0xbc933604	-0.017970093
227	0xbdc3fd67	-0.09569817
228	0xbc560dd1	-0.0130648175
229	0x3cf3cbd1	0.029760273
230	0xbcdbbd2d	-0.026823604
231	0x3bf42c85	0.007451596
232	0x3c0af5ee	0.008481486
233	0x3dbf2e50	0.09335005
234	0xbd38864d	-0.045049954
235	0xbcb0d6d0	-0.021586806
236	0xbc61467e	-0.013749717
237	0xbd52aa67	-0.05143204
238	0x3c4df116	0.012569686
239	0xbd5d7ce6	-0.05407419
240	0x3d1070ac	0.035263702
241	0xbdcacd38	-0.099024236
242	0xbdc858d1	-0.097825654
243	0x3d169af9	0.036768887
244	0x3d8a0410	0.06739056
245	0xbc71e0da	-0.014763081
246	0xbb1d40d1	-0.0023994932
247	0xba1b8148	-0.0005932045
248	0x3d8bea29	0.06831772
249	0x3d138ef7	0.036025014
250	0x3c06f310	0.008236662
251	0x3d4426ca	0.047888555
252	0x3cbbfc80	0.02294755
253	0x3b7288ff	0.0037007926
254	0x38c94455	9.597155e-05
255	0x3d9566b0	0.07294977

encoder.0.bias f4 [60]
0	0x3d01d433	0.03169651
1	0x3db309c8	0.087421
2	0xbb74d288	-0.0037356932
3	0x3d0d5938	0.034508914
4	0xbd8e3881	-0.06944371
5	0x3d1feddb	0.039045196
6	0xbdcf3875	-0.1011819
7	0xbd0b5a68	-0.034021765
8	0x3d5f8343	0.05456854
9	0x3d8a099a	0.067401126
10	0xbc5543f4	-0.01301669
11	0xbd2c3495	-0.042042334
12	0xbd310d93	-0.043225836
13	0x3d871245	0.065952815
14	0xbd189d79	-0.037259553
15	0xbd9b1b11	-0.07573522
16	0xbbf8ba23	-0.0075905486
17	0x3d978b0c	0.07399568
18	0xbd3e05be	-0.046392195
19	0x3e01ff9d	0.12695165
20	0xbb7e3c82	-0.003879339
21	0x3d7118b1	0.05886144
22	0xbdf9f668	-0.122052014
23	0xbc89eff0	-0.016838044
24	0x3ce07696	0.027400296
25	0x3bf732e5	0.007543909
26	0x3d4a9d43	0.049466383
27	0xbd1d3d0a	-0.03838829
28	0xbcdd2159	-0.02699344
29	0x3db696e8	0.08915502
30	0x3d2321e7	0.039827254
31	0xbcb7dee4	-0.02244515
32	0x3d9dd97e	0.07707499
33	0xbda07809	-0.07835395
34	0x3c803f0c	0.015655063
35	0xbd9bde6f	-0.07610785
36	0x3da53ed7	0.080686264
37	0x3df6dc0e	0.12053691
38	0xbd6f800f	-0.058471736
39	0xbb36b4e9	-0.0027878827
40	0xbd77b7c4	-0.060477987
41	0xbc99a25e	-0.01875418
42	0x3cf67617	0.030085607
43	0xbc62de3c	-0.01384693
44	0xbd3d95e8	-0.04628554
45	0xbcc5ae89	-0.024131076
46	0x3d2b62c8	0.041842252
47	0xbce921bc	-0.028458469
48	0xbd119c39	-0.035549376
49	0xbcd15a9d	-0.025555903
50	0xbd3339d3	-0.043756317
51	0xbd21578a	-0.039390124
52	0xbda617c8	-0.08110005
53	0xbd17afb2	-0.03703279
54	0xbc8e621a	-0.017380763
55	0xbc391264	-0.011295889
56	0x3d20ab0e	0.03922563
57	0xbb155781	-0.0022787752
58	0xbcb9e940	-0.02269423
59	0x3d6fa0be	0.058502905

encoder.2.weight f4 [30, 60]
0	0xbdf02000	-0.117248535
1	0x3de2dbe5	0.11077098
2	0xbd7fc9b4	-0.06244822
3	0xbcd54b9d	-0.026037032
4	0xbdd68a10	-0.10475552
5	0x3d86ac16	0.065757915
6	0xbd90c2bb	-0.07068392
7	0x3daae386	0.08344178
8	0x3da9b541	0.082865246
9	0xbd6f78ee	-0.058464937
10	0x3d75aa4e	0.05997687
11	0xbc963499	-0.018335627
12	0xbde147b4	-0.110000044
13	0xbda8831c	-0.08228132
14	0x3dd78a53	0.1052443
15	0x3d442996	0.047891222
16	0x3b5f93f9	0.0034115298
17	0xbd075181	-0.033036713
18	0x3ded54f3	0.115884684
19	0xbcd8bb21	-0.026456418
20	0x3dd63aa6	0.10460405
21	0xbde8bd99	-0.11364288
22	0xbdedf6dd	-0.11619351
23	0x3ca20c1a	0.019781161
24	0x3dbf4c24	0.093406945
25	0x3d21ddcd	0.039518166
26	0xbad4464e	-0.0016195269
27	0x3c7d9c8c	0.015479218
28	0x3de35ccb	0.11101683
29	0xbe0124dd	-0.12611718
30	0x3c1268af	0.008936091
31	0xbda2d976	-0.07951634
32	0x3cb23bcb	0.021757027
33	0x3b584ca3	0.0033004663
34	0xbd219849	-0.03945187
35	0x3c98d2b6	0.018655162
36	0x3da6ea9a	0.081502154
37	0x3bf36420	0.0074277073
38	0x3bd2c24a	0.0064318525
39	0x3d73cde7	0.059522536
40	0x3e0443e4	0.12916523
41	0xbda2bf3f	-0.079466335
42	0xbdb2a65c	-0.08723137
43	0xbddf7e15	-0.1091272
44	0xbdfbc2e5	-0.122930326
45	0xbc1711e4	-0.009220574
46	0xbd5431e1	-0.05180538
47	0xbde79039	-0.11306805
48	0xbd71b5fb	-0.05901144
49	0x3cb66b58	0.022267982
50	0x3dce924c	0.10086498
51	0x3dfd11b6	0.12356894
52	0x3d8c5969	0.06852991
53	0xbd1628a1	-0.03665984
54	0x3be5674d	0.00700084
55	0x3be0ac2d	0.0068564625
56	0xbdd3c3aa	-0.10340054
57	0x3e07699b	0.13223879
58	0xbdf0e70a	-0.11762817
59	0x3dd6e6c8	0.10493237
60	0xbdad4aec	-0.08461556
61	0x3c645c76	0.01393806
62	0x3dca515a	0.09878798
63	0xbd909593	-0.07059779
64	0x3dc4a002	0.096008316
65	0xbd930364	-0.07178381
66	0x3da18036	0.078857824
67	0x3de901ee	0.11377321
68	0x3dcdd2b3	0.10049953
69	0x3d4b5e82	0.049650677
70	0x3d01b896	0.031670175
71	0x3de11eb2	0.10992183
72	0x3d360e3e	0.044447176
73	0xbd4fc257	-0.050722446
74	0x3d1ec359	0.038760517
75	0xbdcfbe0a	-0.10143669
76	0xbd81a892	-0.0633098
77	0x3ca3057a	0.019900072
78	0x3d30faf5	0.04320808
79	0xbd2285e0	-0.039678454
80	0xbde3b025	-0.11117581
81	0x3d0bebd6	0.034160458
82	0x3a7ae3b4	0.00095706736
83	0xbc9fd399	-0.019510077
84	0xbc4d5b32	-0.01253395
85	0x3ce10d6d	0.027472222
86	0x3dc492dc	0.09598324
87	0x3df2464e	0.11829816
88	0x3d75b908	0.059990913
89	0xbd149fa2	-0.03628505
90	0x3cbbe417	0.02293591
91	0xbde9d8bd	-0.11418293
92	0x3da2023c	0.079105824
93	0xbdbaa2c8	-0.09113079
94	0xbd087bba	-0.03332112
95	0x3dd38e3e	0.10329865
96	0x3d814562	0.06312062
97	0xbddbdd12	-0.10735525
98	0x3daea43d	0.0852742
99	0x3db21605	0.08695606
100	0x3d8520a9	0.0650037
101	0x3d81ce27	0.063381486
102	0xbd968b30	-0.07350767
103	0xbdeddeac	-0.11614737
104	0x3dad7991	0.084704526
105	0xbc929547	-0.017893447
106	0x3d81bb41	0.06334544
107	0x3d9e6122	0.0773337
108	0x3d9e4520	0.07728028
109	0xbda93568	-0.082621396
110	0xbde99765	-0.11405829
111	0xbce910b8	-0.028450355
112	0xbd81cc4c	-0.06337795
113	0xbdc67d5f	-0.096918814
114	0x3da9f7fc	0.082992524
115	0x3e033884	0.12814528
116	0xbd273127	-0.04081836
117	0x3d923bc4	0.07140306
118	0x3d83f91a	0.06443997
119	0x3d35f5d0	0.04442388
120	0xbd1442ff	-0.036196705
121	0xbdae627c	-0.08514878
122	0xbcd5aeda	-0.026084352
123	0x3d08e7bb	0.03342412
124	0x3dade7d4	0.08491483
125	0x3d2ce0b8	0.042206496
126	0x3dca1f8b	0.098692976
127	0xbd6b459b	-0.057439428
128	0xbd50a934	-0.050942615
129	0xbd6b8aa8	-0.05750528
130	0xbdb3f1e4	-0.08786371
131	0xbc9a6114	-0.018845119
132	0xbd9c61f2	-0.07635869
133	0x3d8541ab	0.06506666
134	0x3d21d189	0.03950647
135	0xbd0d66c0	-0.03452182
136	0x3dabf7c8	0.0839687
137	0x3d8d1150	0.06888068
138	0xbddccc4d	-0.10781155
139	0xbbed4bbd	-0.0072416947
140	0x3cf41d02	0.029798988
141	0x3d89617a	0.06708045
142	0xbe03ff7f	-0.12890433
143	0xbe071ad5	-0.1319383
144	0xbe08b5d6	-0.13350615
145	0x3b39c002	0.0028343205
146	0x3e0612d2	0.13093117
147	0x3d887d4d	0.06664524
148	0xbdf9be49	-0.12194497
149	0x3dd44e47	0.10366493
150	0xbd903cc8	-0.07042843
151	0xbdaac3d6	-0.08338134
152	0x3e00fbaf	0.1259601
153	0x3d1388ab	0.03601901
154	0x3d77919f	0.06044161
155	0xbbd73945	-0.0065681064
156	0x3c9c8343	0.01910556
157	0x3bcf331b	0.006323231
158	0x3d0c4709	0.034247432
159	0x3b37229c	0.0027944213
160	0xbdfec11b	-0.12439176
161	0x3e0df82a	0.13864198
162	0x3dca44d3	0.098764084
163	0xbc4995a3	-0.012303743
164	0xbc9746d9	-0.0184664
165	0x3dcb9242	0.09940006
166	0x3de1a74b	0.11018237
167	0x3d591a2e	0.053003483
168	0x3d8c7d49	0.06859834
169	0xbdd14fb5	-0.10220281
170	0x3d80f8af	0.06297433
171	0x3de06d87	0.10958391
172	0xbd98fb9b	-0.07469865
173	0x3e07d6fa	0.13265601
174	0xbdb940a4	-0.09045532
175	0xbe02a264	-0.1275726
176	0xbd95503e	-0.072906956
177	0xbc83d71c	-0.016093783
178	0xbde51770	-0.11186111
179	0xbd40a137	-0.047028746
180	0x3dcadb33	0.0990509
181	0x3d7ccb50	0.06171733
182	0xbc1be123	-0.009514126
183	0xbc953bc0	-0.018216968
184	0xbdf8c07f	-0.12146091
185	0x3e056688	0.13027394
186	0xbd629e79	-0.055326913
187	0x3b052735	0.0020317559
188	0xbd671c92	-0.05642373
189	0xbdab1942	-0.08354427
190	0xbe02af8e	-0.12762281
191	0xbddfcfaa	-0.10928281
192	0xbc844602	-0.016146664
193	0x3d5caef8	0.0538778
194	0x3dac5a40	0.08415651
195	0xbd076d5d	-0.03306328
196	0x3b993302	0.00467527
197	0x3d8ff09c	0.070283145
198	0x3d7bf22a	0.061510243
199	0x3e04401d	0.12915082
200	0xbcd1859e	-0.025576409
201	0xbd130466	-0.035892867
202	0xbc29b591	-0.01035823
203	0x3da92f33	0.08260956
204	0x3cf41101	0.029793264
205	0xbe06f172	-0.13178042
206	0x3db8e7b1	0.09028567
207	0x3a4607a2	0.0007554238
208	0xbde068d0	-0.109574914
209	0x3e0ae3ad	0.13563414
210	0xbda26572	-0.079295054
211	0x3b1c859b	0.0023883346
212	0xbd97409d	-0.07385371
213	0xbdb23a17	-0.08702486
214	0xbdcc4274	-0.099736124
215	0x3d971f60	0.07379031
216	0x3d69d9a9	0.057092343
217	0xbd51e933	-0.051247787
218	0x3d9c46af	0.07630669
219	0xbdd1f035	-0.10250894
220	0xbd218e1c	-0.039442167
221	0x3c57b300	0.0131652355
222	0x3dcd36ea	0.1002024
223	0x3dc71ad9	0.09721918
224	0xbda1f832	-0.079086676
225	0x3d15c5e7	0.036565688
226	0xbceb2a12	-0.028706584
227	0x3db7ef66	0.089812085
228	0xbda4e194	-0.08050838
229	0xbde9b016	-0.11410539
230	0xbd088342	-0.033328302
231	0x3d2d5353	0.042315792
232	0xbd36f02a	-0.044662632
233	0x3d551f6b	0.052031916
234	0xbdfceb94	-0.123496205
235	0xbddba38c	-0.107245535
236	0x3d320f1e	0.043471448
237	0xbe02404d	-0.12719841
238	0x3d46d42d	0.04854219
239	0x3cb7f01d	0.022453362
240	0x3dd72fa9	0.10507137
241	0xbd0cbc03	-0.03435899
242	0xbc714439	-0.014725738
243	0xbe078bd4	-0.13236934
244	0xbd8fddcc	-0.07024726
245	0xbda22037	-0.07916301
246	0xbe0b6894	-0.13614112
247	0xbd9d36ca	-0.07676466
248	0x3dd1b86c	0.10240254
249	0xbd9e8aa4	-0.07741287
250	0xbe146ffb	-0.14495842
251	0xbdfffa46	-0.12498908
252	0xbdc93d9e	-0.09826206
253	0x3d8e7aab	0.06956991
254	0xbdca5eb8	-0.098813474
255	0xbd8106dd	-0.06300137

encoder.2.bias f4 [30]
0	0xbdec362c	-0.1153377
1	0xbce9b91d	-0.028530652
2	0x3dd7a952	0.10530342
3	0xbc53a7b5	-0.012918402
4	0x3dad4df5	0.08462135
5	0x39dfa147	0.00042654035
6	0x3da8a6de	0.082349524
7	0x3d11ee90	0.0356279
8	0x3c44b569	0.012006142
9	0xbd093499	-0.033497427
10	0xbd88d35d	-0.06680939
11	0x3ddde120	0.10833955
12	0x3d428cd3	0.04749758
13	0x3b895e32	0.004192137
14	0x3dff06f6	0.124524996
15	0x3cdff535	0.027338604
16	0x3bee41e9	0.0072710407
17	0x3d96ab97	0.07356947
18	0x3d93863f	0.0720334
19	0x3c9c4c07	0.019079221
20	0x3d3efa9d	0.046625722
21	0x3d6e127b	0.058123093
22	0xbceb397a	-0.02871393
23	0x3d9060c2	0.07049705
24	0x3dacef83	0.08444121
25	0x3de7a5ed	0.11310945
26	0x3d20e57d	0.039281357
27	0x3d379443	0.044819128
28	0x3dd3812d	0.10327373
29	0x3d91609b	0.07098504

encoder.4.weight f4 [10, 30]
0	0xbe266b10	-0.16251779
1	0x3e243c20	0.16038561
2	0xbd822bcd	-0.063560106
3	0xbd2ead93	-0.042646002
4	0x3ddfb262	0.10922696
5	0x3c642cbf	0.013926684
6	0xbd545c8d	-0.051846076
7	0xbe077c48	-0.13231003
8	0xbe2b142a	-0.1670691
9	0xbd5a6bf1	-0.053325597
10	0x3d9ca932	0.07649459
11	0xbe2872b6	-0.16450009
12	0x3d66d788	0.05635789
13	0x3e48a647	0.1959468
14	0x3ceab3da	0.028650213
15	0x3e25f21e	0.16205642
16	0x3d5e2a8c	0.054239795
17	0xbe3fa65d	-0.18715806
18	0xbc9a736f	-0.018853871
19	0x3e0b0bf6	0.13578781
20	0xbd9bb5bb	-0.07603022
21	0xbc80a0ba	-0.01570164
22	0xbdd8859a	-0.105723575
23	0x3de3eedd	0.11129544
24	0xbce06e6e	-0.027396407
25	0xbd82aced	-0.06380639
26	0x3dc55c8d	0.09636793
27	0x3e1ca0bb	0.15295689
28	0x3e065e13	0.13121824
29	0x3cd5fb63	0.026120847
30	0x3e289a00	0.16464996
31	0xbdab502a	-0.083648995
32	0xbd5518a9	-0.05202547
33	0xbde0178d	-0.10941992
34	0x3d52a768	0.051429182
35	0xbe108c4c	-0.14116019
36	0x3dbfc09d	0.0936291
37	0x3dc23e24	0.09484509
38	0xbdfd51d6	-0.123691246
39	0x3d8ce11d	0.068788745
40	0xbcb20a31	-0.021733375
41	0xbe22a3c4	-0.15882784
42	0x3e185672	0.14876726
43	0xbd29d2cf	-0.04146081
44	0xbd604f4e	-0.05476313
45	0xbda265db	-0.07929584
46	0x3d337aab	0.043818157
47	0xbe2d7a8c	-0.16941279
48	0xbdfd6b11	-0.12373937
49	0x3e2097f7	0.1568297
50	0x3e2e39a5	0.17014177
51	0xbde701b7	-0.11279624
52	0x3dcfa5b3	0.101390265
53	0x3d35805c	0.044311866
54	0xbe1b0e53	-0.15142183
55	0xbe2c02c6	-0.16797933
56	0x3d8e4225	0.0694621
57	0x3dc73b55	0.097281136
58	0xbe39a8bd	-0.18130775
59	0x3a1fa99f	0.0006090644
60	0xbe0544b7	-0.13014494
61	0xbd9320b8	-0.07183975
62	0xbcb1672f	-0.021655647
63	0x3e25ee8c	0.1620428
64	0x3d970380	0.073737144
65	0xbe0d506d	-0.13800211
66	0xbd59b764	-0.05315341
67	0x3e366178	0.17810619
68	0xbd1b0435	-0.03784581
69	0xbd03c27e	-0.032167904
70	0xbd275ee5	-0.040861983
71	0xbe2132fc	-0.15742105
72	0xbdf0baca	-0.11754377
73	0x3e11b924	0.14230782
74	0xbde9f591	-0.11423791
75	0xbc7ca466	-0.015420055
76	0x3e27a76a	0.16372457
77	0x3e0f570a	0.13998047
78	0xbe29d1d5	-0.16583951
79	0x3c1ed1a4	0.009693537
80	0xbe385269	-0.18000187
81	0xbd379588	-0.04482034
82	0xbce34769	-0.027744012
83	0x3d215358	0.039386123
84	0xbd74e860	-0.059791923
85	0x3e2edd33	0.17076568
86	0xbde866a5	-0.11347703
87	0x3e13f9a7	0.14450704
88	0x3e33598e	0.17514631
89	0x3c73d97c	0.014883395
90	0xbdd4f8e9	-0.10399038
91	0x3c069c34	0.008215953
92	0x3d94e9ce	0.07271157
93	0x3c9c9d98	0.019118115
94	0x3e33e140	0.17566395
95	0xbd026570	-0.03183502
96	0x3e451863	0.19247584
97	0xbd675079	-0.05647323
98	0xbe382c1f	-0.17985581
99	0xbd4a7d2c	-0.04943578
100	0xbbf35d26	-0.0074268756
101	0x3e096f11	0.13421275
102	0xbce8ec2a	-0.028432924
103	0x3e0afdcf	0.13573383
104	0x3e25b7c7	0.16183387
105	0x3d412e30	0.04716319
106	0x3cd878f6	0.026424866
107	0xbc849a45	-0.016186843
108	0xbd40f718	-0.047110647
109	0x3da8e690	0.08247101
110	0xbd0dd8c4	-0.034630552
111	0xbdf22879	-0.11824126
112	0x3d37627e	0.044771664
113	0x3e05df08	0.13073361
114	0xbc844609	-0.016146677
115	0xbd3c2b87	-0.04593995
116	0x3d5a90c0	0.0533607
117	0x3e1a27c6	0.15054235
118	0xbe14fe40	-0.14550114
119	0xbde8732f	-0.113500945
120	0x3e4025c3	0.18764405
121	0x3a30dc7a	0.0006746721
122	0xbde6a70e	-0.11262332
123	0xbe24cd09	-0.1609384
124	0xbc673687	-0.014112121
125	0xbd9cff5b	-0.07665893
126	0xbe3289a9	-0.17435326
127	0xbcbae9a7	-0.022816492
128	0x3da50f07	0.08059507
129	0x3d653972	0.055962987
130	0xbde5d973	-0.11223116
131	0x3d93f021	0.07223535
132	0xbbd80f23	-0.0065936013
133	0xbe1e411d	-0.15454526
134	0xbb0ad651	-0.0021184871
135	0xbd60e565	-0.054906268
136	0xbe296f02	-0.16546252
137	0xbe05260a	-0.13002792
138	0x3ce911b0	0.028450817
139	0xbdc53b5e	-0.09630464
140	0xbe0d33c1	-0.13789274
141	0xbbb1c2b8	-0.0054248236
142	0xbdf1cd35	-0.11806718
143	0xbde4e2aa	-0.11176045
144	0xbd872527	-0.06598883
145	0x3da5a399	0.080878444
146	0x3c540dfb	0.012942786
147	0xbb529d2e	-0.0032137143
148	0xbe2aa7a9	-0.1666552
149	0x3bbb940f	0.005724437
150	0xbd7c79fd	-0.061639775
151	0x3dae9840	0.08525133
152	0xbd55dae9	-0.052210722
153	0x3e1dab00	0.15397263
154	0x3d82bcb2	0.06383647
155	0x3d1f743f	0.03892922
156	0x3ddde071	0.108338244
157	0xbd98e43e	-0.07465409
158	0xbe0b19a3	-0.13583998
159	0x3d1f5cb8	0.038906783
160	0xbdf5b59d	-0.119975306
161	0xbbed568f	-0.0072429846
162	0xbe21a9a5	-0.1578737
163	0x3df982a3	0.1218312
164	0x3e198b20	0.14994478
165	0x3e0a0b97	0.13480984
166	0x3dd01fe1	0.101623304
167	0xbe34180d	-0.175873
168	0xbdd0bf83	-0.10192778
169	0xbdaddc19	-0.08489246
170	0xbb5f41c6	-0.0034066304
171	0xbd12f3af	-0.035876926
172	0x3de12114	0.10992637
173	0x3d6c1688	0.057638675
174	0x3de43ada	0.111440375
175	0x3db27a1a	0.08714695
176	0xbe19609f	-0.14978264
177	0xbd29998d	-0.041406203
178	0x3d0f4af4	0.03498359
179	0xbe2cdc82	-0.16880992
180	0x3d9a6ad7	0.07539909
181	0xbd97f08b	-0.07418927
182	0x3d0873f5	0.03331371
183	0x3e01d072	0.12677172
184	0x3dcf6296	0.10126226
185	0xbe276788	-0.16348088
186	0x3d01168e	0.03151565
187	0xbdd694ea	-0.10477622
188	0x3e236da3	0.15959792
189	0x3dfb3c88	0.12267405
190	0x3e35d5e8	0.1775738
191	0x3d725799	0.05916557
192	0x3d93d679	0.07218642
193	0xbcd63fbd	-0.02615344
194	0x3c98664c	0.018603466
195	0xbe1192ef	-0.14216207
196	0xbe0222bd	-0.12708564
197	0xbdb68ecc	-0.08913955
198	0x3d6e1a3e	0.058130495
199	0xbdfe4067	-0.124146275
200	0xbe200059	-0.15625133
201	0xbde31d5d	-0.11089585
202	0x3e45110e	0.19244787
203	0xbda5f434	-0.08103219
204	0xbe0fda13	-0.14048032
205	0x3d902aac	0.07039389
206	0xbe434242	-0.19068244
207	0x3e06da35	0.13169177
208	0x3dfa8c35	0.122337736
209	0xbc9dc50f	-0.019259004
210	0x3bdbeece	0.0067118173
211	0x3d8d5c31	0.0690235
212	0xbd2f2f49	-0.042769704
213	0x3cb165fe	0.021655079
214	0xbde3b05f	-0.111176245
215	0x3d76c4d3	0.0602463
216	0x3d9131de	0.070895895
217	0x3e0686ce	0.13137361
218	0xbd8b0edd	-0.06789944
219	0x3dd5d4ad	0.10440955
220	0xbde5bccd	-0.112176515
221	0x3e03a33c	0.12855238
222	0x3d98d8a7	0.07463198
223	0x3d86ec37	0.06588023
224	0xbdb9654b	-0.09052523
225	0xbe3123e0	-0.17298841
226	0xbe2abaf7	-0.16672884
227	0xbe13bf93	-0.14428549
228	0xbd1f0dea	-0.03883163
229	0x3d1fb10d	0.03898721
230	0xbd95cbce	-0.07314263
231	0xbd85ad90	-0.06527245
232	0x3e116b83	0.14201169
233	0x3dae10e1	0.08499313
234	0xbe149778	-0.14510906
235	0x3d9c7d0b	0.076410376
236	0x3dfbc3ef	0.12293231
237	0xbda8d943	-0.082445644
238	0x3e33c73b	0.17556469
239	0x3ca838d8	0.020534918
240	0xbc2df26a	-0.010616878
241	0x3e06e51f	0.1317334
242	0xbd96cf02	-0.07363702
243	0x3daa33bc	0.08310649
244	0x3c0ce3b4	0.0085992105
245	0xbde5b735	-0.112165846
246	0x3dd136ee	0.10215555
247	0xbe183c06	-0.14866647
248	0x3e136617	0.14394413
249	0x3d5cf224	0.05394186
250	0xbdfd9472	-0.12381829
251	0xbd6d2064	-0.05789222
252	0x3e4806b2	0.19533804
253	0x3e4b52ff	0.19855879
254	0x3d193362	0.037402518
255	0x3e1af791	0.15133502

encoder.4.bias f4 [10]
0	0xbd884e56	-0.066555664
1	0xbd984563	-0.074351095
2	0x3d1cc8f7	0.038277593
3	0xbd3d8bfa	-0.04627607
4	0x3d94acbc	0.07259509
5	0x3e1a79ce	0.15085527
6	0xbdfe1615	-0.124065556
7	0xbdb93e23	-0.09045055
8	0xbd81e7b8	-0.06343025
9	0xbce9e759	-0.028552698

encoder.6.weight f4 [1, 10]
0	0xbe9ff8d8	-0.3124454
1	0xbcd8173b	-0.026378265
2	0x3ea3f9cc	0.32026517
3	0x3e687d14	0.22703964
4	0xbdf64593	-0.12024989
5	0xbb86fa98	-0.0041192286
6	0x3e3ebc52	0.18626526
7	0x3d06af4c	0.03288202
8	0xbea9dc21	-0.33175758
9	0xbe4f0ddf	-0.20220135

decoder.0.weight f4 [10, 1]
0	0x3eb52e6d	0.35386983
1	0xbf3eaf5b	-0.7448632
2	0x3ed0f5b2	0.4081245
3	0x3f6509a1	0.8946782
4	0xbf315024	-0.6926291
5	0xbedc5200	-0.4303131
6	0x3ef0c958	0.47028613
7	0x3f69ed40	0.9137764
8	0x3e7ef13f	0.24896716
9	0xbf240215	-0.64065677

decoder.0.bias f4 [10]
0	0x3f7eeee0	0.99583244
1	0xbe4de125	-0.20105417
2	0x3dd43f87	0.103636794
3	0x3bc7a092	0.0060921395
4	0x3e929157	0.2862651
5	0xbefd892a	-0.4951871
6	0x3a7990d3	0.00095201767
7	0xbf407046	-0.75171316
8	0xbf329a08	-0.69766283
9	0xbf40e780	-0.7535324

decoder.2.weight f4 [30, 10]
0	0x3d87d27e	0.06631945
1	0xbe290cb3	-0.1650875
2	0xbe3062a7	-0.17225133
3	0x3e7a3ce2	0.24437287
4	0xbe184e20	-0.14873552
5	0xbd887e9e	-0.06664775
6	0x3a02657f	0.00049742305
7	0xbe5feb50	-0.21867108
8	0x3bcd4e54	0.006265441
9	0x3d2ffec5	0.042967577
10	0x3d80dd22	0.06292178
11	0x3deceee3	0.115690015
12	0xbd2e5ab9	-0.04256699
13	0xbea9448c	-0.3306011
14	0x3dffc188	0.12488085
15	0x3ea33ee1	0.3188391
16	0xbe05ca8f	-0.13065551
17	0x3e4dea88	0.20108998
18	0x3e8de383	0.2771264
19	0xbe425dcd	-0.18981095
20	0xbe723979	-0.23654737
21	0xbea3eb20	-0.32015324
22	0x3d0d1bbd	0.03445028
23	0x3e26dd17	0.16295277
24	0xbea52ad6	-0.32259244
25	0x3ea0b57c	0.31388462
26	0xbe587053	-0.21136598
27	0xbde98105	-0.11401562
28	0x3d722204	0.05911447
29	0xbcce750f	-0.025202302
30	0x3e95ba3d	0.2924365
31	0xbe89ca10	-0.26911974
32	0x3e1cf755	0.15328725
33	0x3da83c3d	0.082146145
34	0x3d678365	0.056521792
35	0xbd0fa7be	-0.03507208
36	0x3e1ec475	0.1550463
37	0xbd2d3026	-0.042282246
38	0x3c5cceef	0.013477071
39	0x3e318a81	0.17337991
40	0xbcfe574e	-0.03104749
41	0x3e6b39c2	0.22971252
42	0x3da32ba5	0.07967309
43	0xbe913c1e	-0.28366178
44	0x3dbbc0ac	0.091676086
45	0x3dd9232a	0.1060241
46	0x3e9b069e	0.30278486
47	0xbdf9307f	-0.12167453
48	0xbdf3d298	-0.11905402
49	0x3e775fe1	0.24157669
50	0x3e1fa466	0.15590057
51	0x3ea567c0	0.32305717
52	0x3ba5f3be	0.0050644567
53	0x3df9a2db	0.12189265
54	0xbe7eb0bd	-0.24872108
55	0x3e9192b6	0.28432244
56	0xbdd9378c	-0.10606298
57	0xbeb7c772	-0.35894352
58	0xbe01581f	-0.12631272
59	0xbe14d074	-0.14532644
60	0x3e988d83	0.29795465
61	0x3e0e65cd	0.13906021
62	0x3e9f43f2	0.31106526
63	0xbe3448d5	-0.17605908
64	0x3e248d69	0.16069569
65	0xbd4cd890	-0.050011218
66	0xbc793ebc	-0.015212711
67	0x3c289ac7	0.010290808
68	0x3cbb9140	0.022896409
69	0x3e9ea7eb	0.30987486
70	0xbcb45b45	-0.022016177
71	0xbd012e20	-0.03153813
72	0x3e4c11d5	0.19928677
73	0x3e5652f1	0.20930077
74	0x3de805b8	0.11329216
75	0x3e1a1cdb	0.1505007
76	0x3ead581c	0.33856285
77	0x3e96a87d	0.2942542
78	0xbda8f557	-0.0824992
79	0x3e1ef94e	0.1552479
80	0xbd0a3949	-0.033746038
81	0xbe7b0737	-0.24514471
82	0xbe89719f	-0.268445
83	0x3e897780	0.26848984
84	0xbe18bded	-0.14916201
85	0xbdb907c0	-0.09034681
86	0xbe843195	-0.25819078
87	0xbdbeb411	-0.09311689
88	0x3eaa053d	0.33207121
89	0xbe971e43	-0.29515275
90	0xbddf42c0	-0.109014034
91	0xbcf3b97c	-0.029751532
92	0xbe1593f4	-0.14607221
93	0x3e52c55d	0.205831
94	0x3db6a9a6	0.089190766
95	0xbe228846	-0.15872297
96	0xbe02d02d	-0.12774725
97	0x3dc9dd72	0.098566905
98	0xbda9d4c3	-0.08292534
99	0xbe03ca62	-0.12870172
100	0x3e43bbfd	0.1911468
101	0xbe3c04d9	-0.18361224
102	0xbe93ead5	-0.288901
103	0xbe869d2e	-0.26291794
104	0x3d7ab843	0.061210882
105	0x3c5327a4	0.012887869
106	0x3e6fe966	0.23428878
107	0x3e9ad747	0.3024237
108	0x3d7b502d	0.06135576
109	0x3d59384c	0.053032205
110	0xbb11f5f0	-0.0022271834
111	0xbd02508a	-0.03181509
112	0x3e3eefd2	0.18646172
113	0x3bb458a3	0.0055037304
114	0xbe47f5bc	-0.19527334
115	0x3d96dab7	0.07365935
116	0x3d3bd86a	0.045860685
117	0xbe986a1d	-0.29768458
118	0xbe02e4d5	-0.12782605
119	0xbde4a312	-0.11163916
120	0xbdaaf380	-0.08347225
121	0x3e7a4654	0.2444089
122	0xbddf2d81	-0.10897351
123	0x3eaafdd6	0.33396786
124	0x3dbb6336	0.09149782
125	0xbde05052	-0.1095282
126	0xbbdffb76	-0.0068353964
127	0xbda20d85	-0.07912735
128	0xbe4a3a2c	-0.19748753
129	0x3dbf1fc6	0.09332232
130	0x3e51c56c	0.20485467
131	0xbd939c54	-0.072075516
132	0xbe43ae1d	-0.19109388
133	0xbe9b4aac	-0.30330408
134	0x3e5c5425	0.21516474
135	0xbd63c035	-0.055603225
136	0x3e2176e1	0.15768005
137	0x3e8cbf5c	0.27489746
138	0x3cf1504d	0.029457236
139	0xbdf038bb	-0.117295705
140	0x3e731f44	0.23742396
141	0x3e6404a9	0.22267403
142	0xbe58cc30	-0.21171641
143	0xbe952fd6	-0.29138058
144	0x3c606d7c	0.013697978
145	0x3e295037	0.16534506
146	0xbd17af0d	-0.037032176
147	0x3b89be95	0.0042036274
148	0xbe2b9d4d	-0.16759224
149	0xbe6997d4	-0.22811824
150	0x3e873dd8	0.2641437
151	0x3e9cd1f4	0.30628932
152	0xbe409b94	-0.18809348
153	0x3e616d2a	0.22014299
154	0xbda9f7ee	-0.08299242
155	0xbe805763	-0.2506667
156	0x3e2c6104	0.16833884
157	0x3d62f18c	0.05540614
158	0x3d7eca14	0.062204435
159	0xbe9a3309	-0.30117062
160	0xbe8122b3	-0.25221786
161	0x3e3c6a4d	0.18399926
162	0xbda3c51f	-0.07996582
163	0xbe8bbcec	-0.27292573
164	0xbd3b07a6	-0.04566159
165	0x3c84e859	0.016224073
166	0xbe8cde93	-0.2751356
167	0xbe752ad5	-0.2394212
168	0x3e956522	0.2917872
169	0x3d83ab42	0.06429149
170	0xbdb727e0	-0.089431524
171	0x3e36dec5	0.17858417
172	0xbea9d2dd	-0.33168688
173	0xbe6e37f7	-0.23263536
174	0x3e007e3d	0.12548156
175	0xbe2e10e1	-0.16998626
176	0xbd813fcc	-0.063109964
177	0xbeaf5dfb	-0.3425139
178	0xbe0e8491	-0.13917758
179	0xbe0150b1	-0.12628438
180	0xbd091705	-0.03346922
181	0x3c374283	0.011185291
182	0xbe723a44	-0.23655039
183	0x3d949b21	0.07256151
184	0x3d69bbb9	0.057063792
185	0x3dd3a543	0.103342555
186	0x3de28bdc	0.11061832
187	0xbe3a6817	-0.1820377
188	0x3db09b6b	0.086233936
189	0x3cded6ea	0.027202088
190	0x3de3b6fb	0.11118885
191	0x3e88012c	0.26563394
192	0x3cbcd7ff	0.023052214
193	0x3d8456bc	0.06461856
194	0xbd09b885	-0.033623237
195	0xbe2f2374	-0.17103368
196	0x3ea502d7	0.3222873
197	0xbd695e31	-0.056974594
198	0xbdc01c08	-0.093803465
199	0x3dc3fdc2	0.09569885
200	0xbe8b8479	-0.27249506
201	0x3e6f96cb	0.23397367
202	0x3e993756	0.2992503
203	0x3e34856f	0.17629026
204	0x3d474d93	0.048657965
205	0xbdb6b965	-0.0892208
206	0x3dd6187f	0.10453891
207	0x3e100e56	0.14067969
208	0xbe9b015b	-0.30274472
209	0xbe8aedfe	-0.271347
210	0xbe685f44	-0.22692591
211	0x3e5d71b6	0.21625409
212	0xbdc27807	-0.0949555
213	0x3e6ed899	0.23324813
214	0xbda10dc4	-0.07863954
215	0xbde52f1c	-0.11190626
216	0xbda76f64	-0.08175543
217	0xbe3d85b0	-0.18508029
218	0xbe6a0cea	-0.22856489
219	0xbd40d5c2	-0.047078855
220	0xbe8e34c1	-0.27774623
221	0x3d34c523	0.044133317
222	0xbd2f9e8d	-0.042875815
223	0x3e49f718	0.19723165
224	0x3b87325c	0.0041258764
225	0xbddc4dff	-0.10757064
226	0x3e9048cf	0.2818055
227	0x3e17a58a	0.14809242
228	0x3e00b474	0.12568837
229	0x3d0a34cf	0.03374177
230	0x3e46488d	0.19363613
231	0x3c52863e	0.012849389
232	0xbe336f3c	-0.17522901
233	0x3dc12547	0.09430938
234	0x3d318c20	0.043346524
235	0x3d8d6ed7	0.06905907
236	0xbd5f22ee	-0.05447667
237	0xbe57d771	-0.21078278
238	0x3d737a1b	0.05944262
239	0xbe95da2a	-0.29268008
240	0xbdb13b7d	-0.086539246
241	0xbe8d77b5	-0.27630392
242	0x3e1a251c	0.15053219
243	0x3e13bfb8	0.14428604
244	0xbcca7420	-0.024713576
245	0xbd383295	-0.044970114
246	0x3e3c8745	0.18410976
247	0x3e9cecbd	0.30649367
248	0x3e5ea314	0.21741897
249	0x3db9d556	0.09073894
250	0xbd98f5a2	-0.07468726
251	0x3da36580	0.07978344
252	0xbe64f86d	-0.22360392
253	0xbdb88e8b	-0.09011563
254	0x3ea236a8	0.31682324
255	0xbe72b82d	-0.2370307

decoder.2.bias f4 [30]
0	0x3e46cbbc	0.19413656
1	0xbca4d1ae	-0.020119514
2	0xbce7bb72	-0.028287623
3	0xbe0cf065	-0.13763578
4	0x3ea0628b	0.31325182
5	0xbe3c67a4	-0.18398911
6	0x3e5729d7	0.21012054
7	0x3d35ed2c	0.044415638
8	0xbe491e88	-0.19640553
9	0x3dbd8cdf	0.09255385
10	0xbe8cb093	-0.27478465
11	0xbd1af618	-0.03783235
12	0x3cf97bb7	0.0304545
13	0x3e988bc7	0.29794142
14	0xbe919d6d	-0.2844042
15	0x3e663525	0.2248121
16	0x3d0cda7e	0.034388058
17	0xbd8cadab	-0.06869062
18	0xbe85e7d2	-0.26153427
19	0x3e37e0b6	0.17956814
20	0xbdb8821c	-0.090091914
21	0xbe95a289	-0.29225567
22	0xbe2064fc	-0.15663522
23	0x3e5c27aa	0.21499506
24	0xbd9fb10e	-0.077974424
25	0xbe0eb10d	-0.13934727
26	0x3d6d83a8	0.057986885
27	0xbe356354	-0.17713672
28	0xbe637670	-0.22213149
29	0xbe2322cd	-0.15931244

decoder.4.weight f4 [60, 30]
0	0x3ce81c94	0.02833394
1	0xbe0904e0	-0.13380766
2	0x3e238e59	0.1597227
3	0xbc1517b4	-0.00909989
4	0x3e17432e	0.14771721
5	0x3b1a7770	0.0023569725
6	0x3c90b874	0.01766608
7	0x3e1d744f	0.153764
8	0xbdbd0e8b	-0.092312895
9	0xbc9b514b	-0.018959662
10	0xbe377f9c	-0.17919773
11	0x3d493a5e	0.04912793
12	0xbdb0ada0	-0.08626866
13	0xbd46ec40	-0.04856515
14	0x3dcc9d13	0.09990897
15	0x3c7650fe	0.0150339585
16	0xbd5d5d6d	-0.054044176
17	0xbdaf44b3	-0.08558025
18	0xbe165091	-0.14679171
19	0xbd092e92	-0.03349168
20	0x3e333bc5	0.17503269
21	0xbe04cb65	-0.12968214
22	0x3de5cd44	0.11220792
23	0x3e2ce87f	0.16885565
24	0xbe0a6e9c	-0.13518757
25	0xbd04d0cf	-0.032425698
26	0xbde1fc20	-0.11034417
27	0x3d9d01aa	0.07666333
28	0xbe05447e	-0.13014409
29	0x3d6871f5	0.056749303
30	0xbd2d3919	-0.04229078
31	0xbdadb906	-0.08482556
32	0xbdb7d8b5	-0.089768805
33	0xbe317bf8	-0.17332447
34	0xbe1611eb	-0.14655273
35	0x3c05709b	0.008144523
36	0xbe2d003e	-0.16894624
37	0x3d71743d	0.058948744
38	0xbdece534	-0.115671545
39	0xbe0191e2	-0.12653306
40	0xbe12d78f	-0.14340042
41	0x3d42a768	0.047522932
42	0x3cac277c	0.021014921
43	0x3ca1b306	0.019738685
44	0x3de86d76	0.11349003
45	0xbd3f0a11	-0.04664046
46	0xbdb37afe	-0.08763693
47	0x3cd0bfe0	0.025482118
48	0x3e09df2f	0.13464044
49	0xbd63db57	-0.0556291
50	0xbc979ec8	-0.01850833
51	0xbd31456e	-0.043279104
52	0xbc446d3b	-0.011988933
53	0xbe2d4b84	-0.16923338
54	0x3def787e	0.11692904
55	0x3e2fb92e	0.17160484
56	0x3e0621cb	0.13098828
57	0x3d089f57	0.033355083
58	0x3d865892	0.06559862
59	0xbdc27c43	-0.09496357
60	0x3e166f9b	0.14691012
61	0x3d864f0a	0.06558044
62	0xbd42e18e	-0.047578387
63	0xbe1d0bcc	-0.15336531
64	0x3dab25a7	0.08356791
65	0x3cecc32f	0.028901665
66	0x3e05e4d1	0.13075568
67	0xbd16de0e	-0.03683286
68	0x3d93b629	0.07212479
69	0x3e081947	0.13290893
70	0x3c423565	0.011853551
71	0xbe1d0d3f	-0.15337084
72	0x3ddc166d	0.10746465
73	0x3d41e55b	0.04733787
74	0x3c907032	0.017631624
75	0x3b7f1e0a	0.0038927817
76	0x3df10403	0.11768343
77	0xbd843461	-0.06455303
78	0x3e0a7f94	0.1352523
79	0x3e114ebb	0.1419019
80	0x3d9df841	0.07713366
81	0x3d219459	0.039448116
82	0x3d2f722c	0.042833492
83	0xbda16c6f	-0.0788201
84	0x3dcac25b	0.099003516
85	0x3e15dd3e	0.14635178
86	0x3da2c7f8	0.07948297
87	0xbe05c57a	-0.13063613
88	0x3daf0859	0.08546514
89	0xbd836919	-0.0641653
90	0x3d741fe2	0.05960072
91	0x3da29055	0.079376854
92	0x3db6b914	0.089220196
93	0x3aee403b	0.0018177101
94	0xbcb18f94	-0.021674909
95	0xbce36b16	-0.027761023
96	0x3d8ced09	0.06881148
97	0x3d3fa5b5	0.04678889
98	0x3dae6a9d	0.085164286
99	0xbd52b8bd	-0.05144571
100	0xbd88ca1f	-0.066791765
101	0xbe01a31d	-0.12659879
102	0x3e584f1a	0.21123925
103	0x3ddb767f	0.10715961
104	0xbc4a10bd	-0.012333092
105	0xbca6f038	-0.020378217
106	0xbcf704b8	-0.030153617
107	0x3e56d68d	0.20980282
108	0xbe406607	-0.1878892
109	0xbe07e6c4	-0.13271624
110	0xbc58bf54	-0.01322921
111	0x3e1780aa	0.14795175
112	0x3cf4f3bf	0.029901383
113	0xbe18a3e3	-0.14906268
114	0xbe5e96c2	-0.21737197
115	0x3d00d52d	0.0314533
116	0xbd954775	-0.0728902
117	0xbdf276fd	-0.118391015
118	0x3d85ca5d	0.06532738
119	0x3e112f15	0.14178117
120	0x3dafa475	0.085762896
121	0x3db9e9c1	0.09077788
122	0xbdede3ef	-0.116157405
123	0x3dcf697b	0.10127541
124	0xbd8b1755	-0.067915596
125	0x3e4fba99	0.20286025
126	0x3e1d5e56	0.15368018
127	0xbd71a7ff	-0.058998104
128	0xbd797b42	-0.060908563
129	0xbda3589b	-0.079758845
130	0xbd9869ed	-0.07442079
131	0x3dd76400	0.1051712
132	0xbde240c6	-0.11047511
133	0xbdd07f9c	-0.101805896
134	0x3e0ab8fc	0.13547128
135	0x3b2c9748	0.0026335288
136	0x3e253546	0.16133603
137	0x3e66905c	0.22516006
138	0xbdc5e2b5	-0.096623816
139	0x3e1d683d	0.15371795
140	0x3ce68abf	0.028142331
141	0xbbb4117d	-0.005495249
142	0x3e0bf914	0.13669235
143	0xbe20b55d	-0.15694185
144	0x3dee0d59	0.116236396
145	0xbe139a43	-0.14414315
146	0xbdc497e3	-0.095992826
147	0x3d49e80e	0.04929357
148	0xbe45f336	-0.19331059
149	0xbdea1886	-0.11430459
150	0x3da1e8ab	0.07905706
151	0xbd9e6bd9	-0.07735414
152	0xbe3a3574	-0.18184453
153	0x3df91fa9	0.12164242
154	0xbdf72b14	-0.120687634
155	0x3da86899	0.082230754
156	0xbe1690d5	-0.14703687
157	0xbe4765ce	-0.19472429
158	0xbe07f8e1	-0.13278534
159	0xbdadbc87	-0.08483224
160	0xbe0e7106	-0.13910303
161	0x3e289cb1	0.16466023
162	0xbdd9ea03	-0.10640337
163	0x3e332265	0.17493589
164	0x3d88e6a6	0.06684618
165	0x3de9e9bb	0.11421534
166	0xbdb55e9b	-0.08855935
167	0xbd6416d7	-0.055685844
168	0x3debef5d	0.11520264
169	0xbe03345f	-0.12812947
170	0x3e081bfb	0.13291924
171	0x3dfe6ea3	0.12423446
172	0xbe036cd3	-0.12834482
173	0x3e3ffcdd	0.18748803
174	0x3cfe47b0	0.031040043
175	0xbd99c0ad	-0.07507453
176	0x3ce8792f	0.028378097
177	0xbe43ce75	-0.19121726
178	0x3e1243f8	0.1428374
179	0x3e05a20e	0.130501
180	0x3da9cbfe	0.082908615
181	0x3dd62333	0.104559325
182	0xbd90f175	-0.07077304
183	0xbda054aa	-0.078286484
184	0x3d878b19	0.06618328
185	0x3ddffa21	0.1093638
186	0x3e60c9b8	0.2195195
187	0xbe2fdebf	-0.17174815
188	0xbdaf109d	-0.085480906
189	0xbdc22777	-0.094801836
190	0xbc632663	-0.013864133
191	0x3e3588ac	0.17727917
192	0x3d4e1430	0.05031222
193	0x3e396b20	0.18107271
194	0xbd8d68c8	-0.06904751
195	0x3d1572c1	0.03648639
196	0x3d4b4b39	0.049632285
197	0xbd942984	-0.07234481
198	0x3d37b48c	0.044849917
199	0x3da609e7	0.081073575
200	0x3d768ca6	0.060192727
201	0x3d5e4a4c	0.054270074
202	0xbda8fb4d	-0.08251057
203	0x3e28796c	0.16452569
204	0xbe406e50	-0.18792081
205	0x3e2b1a62	0.16709283
206	0x3d8f9c9e	0.07012294
207	0x3e00e8c4	0.12588793
208	0x3dc050c0	0.09390402
209	0xbd0faedf	-0.03507888
210	0x3dd2543b	0.10269972
211	0x3d3bb96a	0.04583112
212	0xbddf0ad6	-0.10890739
213	0x3d332736	0.043738566
214	0x3d850caf	0.0649656
215	0xbe37f89c	-0.1796593
216	0x3e007034	0.12542802
217	0x3e224349	0.1584598
218	0xbd4ad3d6	-0.04951843
219	0xbe383b62	-0.17991403
220	0x3e371007	0.17877208
221	0xbd3bed93	-0.045880865
222	0x3e067ba8	0.13133109
223	0xbd908a56	-0.070576355
224	0xbe43e090	-0.19128633
225	0xbe230096	-0.15918192
226	0xbc241086	-0.010013705
227	0xbe0f98f4	-0.1402319
228	0xbd528d67	-0.051404383
229	0xbe156ae5	-0.14591558
230	0xbdf59d84	-0.11992934
231	0xbe05815c	-0.13037628
232	0x3d2cee85	0.042219657
233	0xbdf286f1	-0.11842144
234	0x3de0fd62	0.10985829
235	0x3bcf9f65	0.00633614
236	0x3e364f1d	0.17803617
237	0x3da81c8b	0.08208569
238	0x3d399bf4	0.045314744
239	0x3e108f6e	0.14117214
240	0x3d3b9078	0.045792073
241	0xbe0917ec	-0.13388032
242	0xbd15ce57	-0.036573734
243	0xbe1446d9	-0.14480151
244	0x3dfee7be	0.12446545
245	0xbc3bd34d	-0.011463952
246	0x3e1c28c5	0.15249927
247	0xbcd87494	-0.026422776
248	0xbe3d1397	-0.18464504
249	0xbe2d673d	-0.16933914
250	0xbe226dcd	-0.15862198
251	0x3c831e3c	0.016005628
252	0xbb209277	-0.0024501362
253	0x3ddf992a	0.109178856
254	0xbdaa7cb4	-0.083245665
255	0x3e02049b	0.1269707

decoder.4.bias f4 [60]
0	0xbdbe4e3e	-0.09292267
1	0x3de17437	0.11008494
2	0x3e1e9100	0.15485
3	0x3db03792	0.08604349
4	0x3e1fa5e1	0.15590622
5	0xbe09bc96	-0.13450846
6	0x3d8b6c11	0.068077214
7	0x3da0549a	0.078286365
8	0xbe2360da	-0.15954915
9	0x3c8ad203	0.016945845
10	0x3de2d009	0.11074836
11	0x3d4688ea	0.048470415
12	0x3e3f738b	0.1869642
13	0xbdd36c6b	-0.103234135
14	0xbda51fcb	-0.08062705
15	0x3e10da8f	0.14145873
16	0xbe0616a0	-0.13094568
17	0xbe077cf1	-0.13231255
18	0xbe286c50	-0.16447568
19	0x3e182a11	0.14859797
20	0x3e47aa00	0.19498444
21	0x3e06ef99	0.13177337
22	0xbd97515d	-0.07388566
23	0xbc8fe830	-0.01756677
24	0x3e380ab6	0.17972836
25	0x3d0b299c	0.03397523
26	0x3d3fe01b	0.046844583
27	0x3e1de28f	0.15418456
28	0x3dfa242b	0.1221393
29	0x3d494cfd	0.049145687
30	0xbdd6ecb0	-0.10494363
31	0xbe1618b8	-0.14657867
32	0xbd12ed45	-0.03587081
33	0xbc6c3c9c	-0.014418747
34	0x3e17c3ff	0.1482086
35	0xbdc1e48d	-0.09467421
36	0xbd9964a2	-0.07489897
37	0xbd2c1c2e	-0.04201906
38	0xbda82509	-0.08210189
39	0x3d41e55d	0.04733788
40	0xbd26ed47	-0.04075363
41	0x3d9f0926	0.07765417
42	0x3e03c800	0.12869263
43	0x3e249d1e	0.1607556
44	0xbb6b4dbb	-0.0035904485
45	0xbdc79973	-0.09746065
46	0x3d9902a8	0.0747121
47	0x3e08a451	0.13343932
48	0xbd0be4fd	-0.034153927
49	0x3d2a6d86	0.041608356
50	0x3daeb504	0.0853062
51	0xbdf64c92	-0.120263234
52	0xbdbebeb0	-0.093137145
53	0xbe02c366	-0.12769851
54	0x3d015a88	0.031580478
55	0x3db1e590	0.08686364
56	0x3e34ebff	0.1766815
57	0x3d1e0aaf	0.038584407
58	0xbe25ec4d	-0.16203423
59	0x3daff70b	0.085920416

decoder.6.weight f4 [118, 60]
0	0x3d466423	0.04843534
1	0x3db5095d	0.088396765
2	0x3d855b4e	0.065115556
3	0x3bd21f23	0.006412403
4	0xbdb38be6	-0.08766918
5	0x3b0bb39e	0.0021316777
6	0xbcacc91a	-0.021091986
7	0x3d92d610	0.071697354
8	0x3ca582ed	0.020204032
9	0xbd4e8bba	-0.050426222
10	0xbe2b116e	-0.16705868
11	0xbd726a77	-0.059183564
12	0xbcdc2621	-0.02687365
13	0x3cdb4dc9	0.02677049
14	0x3e16ae4b	0.14714925
15	0xbde028ba	-0.10945268
16	0x3c70f122	0.014705928
17	0xbc8a91fc	-0.016915314
18	0x3e19c382	0.15015987
19	0xbcd66c1a	-0.026174594
20	0xbe243914	-0.16037399
21	0x3d5546ff	0.05206966
22	0x395750f1	0.00020534151
23	0x3dc959ba	0.09831567
24	0xbe24e1a2	-0.16101697
25	0xbe2f4f82	-0.17120174
26	0x3d1058df	0.035241004
27	0xbe110fff	-0.14166258
28	0xbcff5f43	-0.031173354
29	0xbcef8e58	-0.02924268
30	0x3d8fc05a	0.0701911
31	0x3d216887	0.039406326
32	0xbd51618d	-0.051118422
33	0xbc917b13	-0.017758882
34	0xbd2c756b	-0.042104166
35	0xbd995c54	-0.07488313
36	0xbdea0439	-0.11426587
37	0xbd2319eb	-0.03981964
38	0x3c9ee163	0.019394582
39	0xbbd652f7	-0.006540652
40	0xbd5e3443	-0.05424906
41	0x3c4cc8fc	0.01249909
42	0xbdd3819a	-0.10327454
43	0xbdd0e3fe	-0.10199736
44	0x3d9e92d9	0.07742853
45	0x3e0bcf29	0.13653244
46	0xbdfd1e60	-0.12359309
47	0xbc70670e	-0.014673008
48	0x3d665f19	0.056243036
49	0x3e083439	0.13301171
50	0x3d0fd02b	0.035110634
51	0xbda2813a	-0.07934804
52	0xbe1870c8	-0.14886773
53	0xbb3434cb	-0.0027497287
54	0x3c2f0bd8	0.010683976
55	0x3ac04c41	0.0014671163
56	0x3d80b572	0.06284608
57	0xbd0eb148	-0.034837037
58	0xbdb6aa36	-0.08919184
59	0xbe0203ab	-0.12696712
60	0x3e0db8a5	0.13839968
61	0xbdd7daac	-0.10539755
62	0x3b9e1a34	0.004824901
63	0xbdcc52af	-0.09976708
64	0x3dc8d495	0.09806172
65	0x3c782090	0.015144482
66	0x3e03da5e	0.12876269
67	0xbe06fbd6	-0.13182005
68	0x3da76ab7	0.08174651
69	0x3de6037b	0.112311326
70	0xbe103f87	-0.14086734
71	0x3c860fc4	0.01636494
72	0x3c262420	0.010140449
73	0xbdbe37c1	-0.09287978
74	0xbcdcafca	-0.026939292
75	0xbc9ac819	-0.018894242
76	0x3d287709	0.041129146
77	0x3d04db45	0.032435674
78	0xbd0160c4	-0.031586424
79	0x3d9eb4e4	0.07749346
80	0x3d87ffb8	0.06640571
81	0x3db981d1	0.09057964
82	0x3d04f92f	0.032464202
83	0xbe0636a2	-0.13106778
84	0x3dc73487	0.09726816
85	0xbd91705c	-0.07101509
86	0xbd0e78d0	-0.034783185
87	0x3d5f696f	0.05454391
88	0x3d1ec274	0.038759664
89	0xbdf1ef5e	-0.11813234
90	0xbd9b5269	-0.07584078
91	0x3cdd2242	0.026993874
92	0x3d70bbd0	0.058772862
93	0xbd7fe942	-0.06247831
94	0x3e001c93	0.125109
95	0x3d96d0a3	0.07364013
96	0xbe16fe38	-0.14745414
97	0xbd358478	-0.044315785
98	0x3d9dbda1	0.077021845
99	0xbceed83c	-0.029155843
100	0xbd9564d7	-0.07294624
101	0xbced128c	-0.028939508
102	0x3ceb0617	0.028689427
103	0xbd09a300	-0.033602715
104	0xbd929103	-0.07156565
105	0x3cbdc347	0.023164405
106	0x3d8c4af1	0.068502314
107	0x3df085d5	0.117442764
108	0x3d57da4b	0.052698415
109	0x3d2f8ed4	0.04286082
110	0x3d567cf7	0.05236527
111	0x3e012e04	0.1261521
112	0xbdff0512	-0.12452139
113	0xbd0b80f8	-0.03405854
114	0xbd866173	-0.06561556
115	0xbd591f87	-0.053008582
116	0x3da225dc	0.07917377
117	0x3dd0b606	0.10190968
118	0xbd96fd03	-0.07372477
119	0xbd6fab52	-0.058512993
120	0x3d754e27	0.059888985
121	0x3d697fb4	0.057006553
122	0x3d4187eb	0.047248762
123	0x3d1223b8	0.035678595
124	0xbdcac7b1	-0.09901369
125	0x3d9bf03e	0.07614182
126	0xbde4e1c7	-0.11175876
127	0xbd4f51ef	-0.050615247
128	0x3ad8f529	0.0016552556
129	0xbb33dc7b	-0.002744465
130	0xba96729b	-0.0011478247
131	0xbdd9514e	-0.10611211
132	0x3e05e60b	0.13076036
133	0xbdaed94b	-0.08537539
134	0x3a99977f	0.0011718123
135	0xbb5d675f	-0.0033783538
136	0xbb58c2a8	-0.0033075009
137	0xbd085b6d	-0.033290315
138	0x3c83bde6	0.016081762
139	0x3d02d044	0.0319369
140	0xbdabf042	-0.08395435
141	0x3dbb97c0	0.091598034
142	0xbc8fdf67	-0.017562581
143	0x3ddb60ab	0.10711797
144	0xbdcc3989	-0.099719115
145	0x3de2b633	0.11069908
146	0x3db24fe7	0.087066464
147	0xbd24c979	-0.0402312
148	0x3c78894e	0.015169455
149	0x3dab8227	0.08374434
150	0xbde311c4	-0.11087373
151	0x3dbc0ae2	0.09181763
152	0x3d81f9f5	0.06346504
153	0xbd824cb9	-0.0636229
154	0x3d869d71	0.06572998
155	0x3d5eddad	0.054410625
156	0x3c90e3a2	0.017686669
157	0x3db65317	0.08902567
158	0xbdcdcb3a	-0.10048528
159	0xbc9d7808	-0.019222274
160	0x3c32afd7	0.010906181
161	0x3dbce8ed	0.092241146
162	0x3d963d84	0.07335952
163	0xbc4b8ae6	-0.012423253
164	0xbd824760	-0.0636127
165	0xbe073af4	-0.13206083
166	0xbb0119e3	-0.0019699268
167	0xbd244a0e	-0.040109687
168	0xbd0e89a0	-0.03479922
169	0x3cc83db4	0.024443485
170	0x3d9c69e0	0.076373816
171	0x3d68032d	0.056643654
172	0x3c9911db	0.018685272
173	0xbd0f14fe	-0.03493213
174	0x3d4c0fe4	0.049819842
175	0x3da4fbba	0.080558255
176	0xbd102948	-0.03519562
177	0xbde95c4e	-0.11394559
178	0x3c0b1ed8	0.00849124
179	0xbd58181e	-0.052757375
180	0x3ddea824	0.10871914
181	0xbdd8a8c7	-0.10579067
182	0xbd8a0c72	-0.06740655
183	0x3d3caaf0	0.046061456
184	0xbdb50f6b	-0.08840831
185	0xbc0543c6	-0.008133834
186	0x3d89a103	0.06720164
187	0xbda6abf3	-0.081382655
188	0x3d4dd779	0.05025432
189	0x3ddea883	0.10871985
190	0xbdc6fc7f	-0.097161286
191	0x3cd43f1a	0.025908995
192	0xbda27364	-0.07932165
193	0xbd9d3809	-0.076767035
194	0xbdf288ad	-0.11842475
195	0x3d74d21c	0.05977069
196	0x3da2b9d4	0.079456
197	0xbda02295	-0.07819096
198	0x3db9a15b	0.09063979
199	0xbd683817	-0.056694116
200	0x3d6dd65e	0.058065765
201	0xbdcc7496	-0.099831745
202	0x3e0173b2	0.1264179
203	0xbde61476	-0.11234371
204	0x3d768557	0.060185757
205	0x3d5c479c	0.05377923
206	0x3d10b448	0.03532818
207	0x3dfabff2	0.12243642
208	0x3d726076	0.059174024
209	0x3d97c8da	0.07411356
210	0xbdea58ae	-0.114426956
211	0xbda86c03	-0.082237266
212	0xbc6d9ab7	-0.014502219
213	0x3e061e11	0.13097407
214	0x3db1b7c8	0.086776316
215	0xbe033597	-0.12813412
216	0x3d9adce7	0.07561665
217	0x3bea02f6	0.0071414663
218	0xbc0ac020	-0.008468658
219	0xbcf7045b	-0.030153444
220	0x3d6751e2	0.056474574
221	0xbd46ee77	-0.04856726
222	0x3d5e7cf1	0.054318372
223	0xbdac26ab	-0.08405813
224	0xbc4af2fa	-0.012387032
225	0x3d1fcda2	0.039014466
226	0xbcf2844f	-0.029604105
227	0x3df86a66	0.12129669
228	0xbdbfdaf1	-0.09367932
229	0x3d508df4	0.050916627
230	0x3db6c5a7	0.08924418
231	0xbcda7883	-0.026668793
232	0x3d5bda9a	0.05367527
233	0xbdf6eed0	-0.120572686
234	0xbd4f3a88	-0.05059293
235	0xbdaa10ee	-0.0830401
236	0x3d0dabaa	0.03458754
237	0xbd4c5d11	-0.049893443
238	0xbdf5156a	-0.11966975
239	0xbdfcd90e	-0.123460874
240	0x3b58a8d2	0.003305961
241	0x3dc62ab7	0.09676116
242	0x3de30ced	0.1108645
243	0xbc99c722	-0.018771712
244	0xbcfcf881	-0.030880215
245	0xbd9ee6df	-0.07758879
246	0x3dd5e219	0.10443515
247	0xbdd730f3	-0.10507383
248	0xbc4ed9e6	-0.012625193
249	0xbd6b2b83	-0.057414543
250	0xbe0903f5	-0.13380416
251	0x3d1716d2	0.036886998
252	0xbda7963e	-0.08182953
253	0xbd1dcc8b	-0.038525146
254	0x3d179cfd	0.03701495
255	0x3d4b4245	0.049623746
