Baseline-models/DAGMM/DAGMM-ROAD/no--dagmm/models/24_194_dagmm.pth (torch, 82200 bytes, 22 tensors)

phi f4 [4]
00000000: c0aa 393d 4de3 203d dcd2 603f 3644 183d
0.045328856 0.03927927 0.87821746 0.037174426

mu f4 [4, 3]
00000000: e95d bc3e 3aff 913f 5883 0cbd 4ab1 bd3e
00000010: 0398 913f d154 e7bc 1238 3c3e d0f3 ad3f
00000020: a813 ecbe 80b1 bd3e 9498 913f 4923 e8bc
0.36790398 1.1406014 -0.034304947 0.37049323 1.1374515 -0.028238686 0.18380764 1.3590031
-0.46108747 0.37049484 1.1374688 -0.028337138

cov f4 [4, 3, 3]
00000000: a70e 0d3e b34f 27be f874 a33e b34f 27be
00000010: 167d 463e eee3 c1be f874 a33e eee3 c1be
00000020: 626b 3d3f 5b3f 0c3e 7666 26be fb87 a23e
00000030: 7666 26be 5678 453e b1d9 c0be fb87 a23e
00000040: b1d9 c0be a25c 3c3f 073e ca3d 41c2 efbd
00000050: fa50 6a3e 41c2 efbd 5325 0e3e f3e5 8abe
00000060: fa50 6a3e f3e5 8abe e7bd 073f 3dca 0d3e
00000070: 6542 28be c052 a43e 6542 28be 6cb5 473e
00000080: 5902 c3be c252 a43e 5902 c3be 4771 3e3f
0.1377512 -0.16338997 0.31925178 -0.16338997 0.19383654 -0.3786921 0.31925178 -0.3786921
0.7399198 0.13696043 -0.16250023 0.3174437 -0.16250023 0.19284186 -0.37666085 0.3174437
-0.37666085 0.73578846 0.09875112 -0.11706973 0.22882453 -0.11706973 0.13881426 -0.27128562
0.22882453 -0.27128562 0.53024143 0.13846679 -0.16431578 0.32094383 -0.16431578 0.195028
-0.3808773 0.3209439 -0.3808773 0.743916

encoder.0.weight f4 [60, 118]
00000000: a1be b6bc 2ff5 a73d 889e b93c 51a5 e83b
00000010: c404 b23d 9f38 f1bc 6f7e 1a3d ff5e 693d
00000020: cfc4 87bd 5691 8a3d fba7 1c3d 1529 683c
00000030: 150b 463d 49fc 493d 7ec8 81bd ae93 1bbd
00000040: d36b a93d c6f2 3abd d36a b7bc 1f62 91bd
00000050: b6bb 9cbc 695f d9bc 871c 063d c259 4dbd
00000060: 35a9 b73d c5dc 853d ab6d b93d fbc4 e9bc
00000070: 8768 1ebd 15c7 b5bd 6966 aebd 35ea 85bc
00000080: 8be0 713d 5aa0 123d 96d7 1fbd 76c6 653d
00000090: 5fc9 97bc 5c45 55bd c26b 58bc 33a2 64bd
000000a0: f1e1 473d 1fee 2f3d 38b1 d53c 9721 803b
000000b0: 5a93 cfbc d096 733c 76b4 96bd 141c fbbc
000000c0: 0d5e 3cbd 26d3 9bbd 38db 0ebd d034 97bc
000000d0: dd5b a2bc 0cbc f1bb 3acd cb3b 61df a6bd
000000e0: c550 1bbd cd3a ffbb ebdf b439 ad9d 65bc
000000f0: c0da cbbb 1023 dbbc 6cab af3d 9272 193d
00000100: f07d b13d aae7 a33d 3a83 8e3d 7267 89bd
00000110: 0494 393d c443 9a3d 4217 ab3d 378c 0a3d
00000120: dba6 823d b802 5ebd 8fc8 133d 2138 a0bd
00000130: a7fc f1bc f5c0 b5bc 6009 98bd b8a4 0f3a
00000140: 25ec d8bc e5bb 093d a7cd 37bd be22 c2ba
00000150: 5e4e 743d 702f e4bb 4f40 99bd eb28 c33c
00000160: 30b5 c3bd 7e08 aa3d de03 3b3c 5cce 8e3c
00000170: 0574 86bd 57d9 bc3c 72cf 283d 9ea3 aa3d
00000180: a83e 033d 0048 1739 46e2 853d 29ad 2fbd
00000190: 6037 843d e098 713d 84a1 50bd 9995 18bd
000001a0: 45eb 06bc e12e 473d ea15 b8b8 3cd2 89bd
000001b0: e8bd 4b3d 7444 013d c579 1ebd 1b8e 693c
000001c0: bcb0 9dbc cfbe 86bd b68b 8a3d 3b28 8fbc
000001d0: 8a86 4a3d 5133 51bc af3a e0bc 6f6c 723d
000001e0: 0f12 b63d e2ea bc3a d41f a7bb d8d7 72bd
000001f0: 5e11 76bd 384c 333d 7655 5e3a aa2a 673d
00000200: cbcd 5c3d cd02 273d c08f e4bb 3e6c 273d
00000210: c89e c7bc 8fb9 c8bc 229a 463d 5878 b3bc
00000220: 1c1d 5f3d 2281 bcbc db48 433d 6e6e 9e3d
00000230: 4109 993c 5ba1 0ebd 4470 ca3c 965a 53bd
00000240: 9781 39bd 0fcd cbbd 2b89 a53d 89fb 96bd
00000250: 914d 843c 1753 4f3c 5dc8 a53d 6774 943c
00000260: a524 c63c 559d 63bd 50e2 2f3d 442e b03d
00000270: 064f 83bd e648 5fbc 70c1 a5bd d5a7 873c
00000280: a402 e03c 1414 dbbc fcba 07bc 0bd9 d7bc
00000290: 7d1c 81bc 7923 3d3d 28d6 ac3d 3fb8 b63d
000002a0: f070 f7bc 8b36 6b3c 4a4f 85bd caba 883d
000002b0: 1559 87bd ad04 243d 7d89 98bc 8023 7e3d
000002c0: 7dd8 b03d 3f20 17bc e3cf b53d bd48 6ebc
000002d0: fc1f 833d 80ec aa3c e791 b23d dda9 613d
000002e0: 0198 03bb b8ea 9c3c dbf0 f33b f43e 40bd
000002f0: 71d2 0fbd 6dee d6bc 621b 723d 3f8b 693d
00000300: fcd4 8c3d 49f6 06bd 9d58 f5bb 77a9 893d
00000310: 5767 0e3d b437 0f3c a1b5 c93a 2722 e83c
00000320: a2de 86bd 1562 8abd 439c a5bd d626 383d
00000330: 5989 82bb bebc 12be 5555 febb cc75 b8bc
00000340: 1024 823d 95c1 033c 249b 9dbd 365b 8d3d
00000350: 2e1e d7bc 6ed1 15bd 73d4 52bd 7c96 7dbd
00000360: 424e c6bc 4272 a3bd 6739 45bc 04c6 5dbd
00000370: 253b e73d 6c30 e3bc 08b0 ab3d 1031 29bd
00000380: 9845 d93b ff28 ff3c d24f 9cbc b389 c7bd
00000390: f916 70bc d7ef ec3c b6f6 e9bc 2c6d 003c
000003a0: 9001 313c d350 c43d b96c 37bd 74db adbc
000003b0: 3d7c 43bc b0de 5abd b214 593c 3375 64bd
000003c0: 3768 153d 28a3 cabd 68f5 c7bd 81ce 113d
000003d0: 33d8 8a3d 88a3 7dbc c7e5 13bb 77e5 59ba
000003e0: 4f8c 8a3d 6763 153d 10f3 063c f326 463d
000003f0: db74 b03c 90f3 b63b 0eda a239 9438 943d
-0.022307696 0.08201062 0.022658601 0.0070997854 0.08692315 -0.029445944 0.037718233 0.05697536
-0.06629335 0.06766002 0.038246136 0.014169951 0.048350412 0.049312863 -0.06337069 -0.037982635
0.08272519 -0.045641683 -0.022389805 -0.07098793 -0.019132476 -0.026534753 0.03274205 -0.050134428
0.089678206 0.06536249 0.09054121 -0.02853631 -0.038673904 -0.088758625 -0.08515627 -0.01634703
0.05905203 0.035797454 -0.03902396 0.05609747 -0.018528638 -0.0520681 -0.013209285 -0.055818748
0.04879946 0.0429517 0.026085481 0.003910254 -0.025338817 0.0148674995 -0.07358639 -0.030653037
-0.04598813 -0.07608633 -0.034877032 -0.0184578 -0.019819194 -0.0073771533 0.0062195333 -0.08148075
-0.037918825 -0.007788992 0.00034499107 -0.014014644 -0.0062211454 -0.026750118 0.08577618 0.03746278
0.08666599 0.08003171 0.06958623 -0.06709184 0.045307174 0.075324565 0.083540455 0.033825126
0.063794814 -0.05420181 0.03607994 -0.07823206 -0.02953942 -0.022186736 -0.07423663 0.0005479562
-0.02647979 0.033626456 -0.04487386 -0.0014811379 0.05964505 -0.006963663 -0.07482969 0.023823222
-0.09556043 0.08302401 0.011414496 0.017432384 -0.06565098 0.023052854 0.04121346 0.08331989
0.032042176 0.00014427304 0.06537299 -0.042889748 0.064558744 0.058983684 -0.050935283 -0.037252042
-0.008234804 0.04862869 -8.7778855e-05 -0.06729552 0.049741656 0.031559423 -0.038690347 0.014255072
-0.019249313 -0.065793626 0.06764929 -0.017475238 0.049444713 -0.012768582 -0.027371733 0.05918544
0.08890163 0.0014413262 -0.0051002298 -0.059287876 -0.060075156 0.04377386 0.00084813626 0.056437172
0.053907197 0.040774155 -0.006975144 0.040874712 -0.024367705 -0.024502544 0.048486836 -0.02190797
0.05447112 -0.023010794 0.047676902 0.077359065 0.01868117 -0.03482185 0.024711736 -0.05160006
-0.045289602 -0.09951221 0.08082803 -0.07372195 0.016150268 0.0126540875 0.08094857 0.018121911
0.024187395 -0.055569965 0.042940438 0.086025745 -0.06411557 -0.01362822 -0.08093536 0.01655952
0.02734501 -0.026742972 -0.008284327 -0.026348611 -0.015760655 0.046176407 0.084392846 0.08921861
-0.03020522 0.014356266 -0.06509264 0.06676252 -0.06608788 0.04004352 -0.018620247 0.062045574
0.08635042 -0.009223997 0.08877542 -0.014543709 0.06402585 0.020864725 0.08719235 0.055093635
-0.0020079615 0.019154891 0.0074444837 -0.046935037 -0.035112802 -0.026236737 0.059108146 0.05701756
0.06876561 -0.03294972 -0.00748737 0.06721776 0.03476652 0.008741308 0.0015389213 0.028336598
-0.065854326 -0.06756989 -0.08086445 0.04495891 -0.0039836583 -0.14329812 -0.007761637 -0.022517107
0.063545346 0.008041759 -0.07695606 0.06902163 -0.026259508 -0.03657668 -0.05147214 -0.06191109
-0.024207238 -0.07980777 -0.012037612 -0.05414392 0.11290578 -0.02773305 0.08383185 -0.041306555
0.0066306107 0.031147478 -0.01908103 -0.09743061 -0.014653915 0.028922958 -0.028560024 0.007838529
0.010803595 0.095857285 -0.04478142 -0.021222807 -0.011931476 -0.053435028 0.013249563 -0.055775832
0.03647634 -0.09894401 -0.097636044 0.035597328 0.06779518 -0.015480883 -0.0022567378 -0.0008312086
0.06765043 0.03647175 0.008236662 0.04837699 0.021540096 0.005583234 0.0003106151 0.07237354

encoder.0.bias f4 [60]
00000000: a9c5 f63c e3ba b03d 1522 16bb d754 0d3d
00000010: dc7d 8bbd 9433 1a3d a7d7 cbbd f377 08bd
00000020: 7d97 643d f929 8d3d 7793 40bc 687b 26bd
00000030: 6daf 38bd e9d4 833d cabf 13bd be9c 96bd
00000040: d294 0cbc aa8a 943d 4955 43bd 0993 013e
00000050: 7649 d7bb 587e 6b3d 7820 f8bd 7c10 82bc
00000060: 7d43 e83c 7ec5 0b3c 5be2 463d 0453 16bd
00000070: 83ec cfbc 8cba b33d 0342 293d c9d5 abbc
00000080: 81a1 9d3d d479 9dbd a688 893c 8696 9fbd
00000090: fa8d a23d e366 f43d b577 73bd 00e7 aeba
000000a0: 4c44 72bd 006a a6bc 3b81 eb3c 9310 81bc
000000b0: 6947 37bd 2d85 d0bc b031 233d 0111 f5bc
000000c0: 5773 15bd c093 c8bc 9a0d 2ebd 7f0d 28bd
000000d0: bd65 a2bd be86 20bd 0877 83bc a8f8 21bc
000000e0: 8e40 193d b0d7 90ba d7e7 c5bc 76f6 753d
0.030123549 0.08629396 -0.0022908498 0.034504738 -0.06811115 0.037646845 -0.09953242 -0.033317517
0.055808533 0.06892771 -0.011753908 -0.040645033 -0.045089174 0.06437094 -0.036071576 -0.07354115
-0.008580403 0.072530106 -0.047688756 0.12653746 -0.0065700365 0.057493538 -0.12115568 -0.015877001
0.028352493 0.0085309725 0.048555713 -0.036700264 -0.025381332 0.08775815 0.04132272 -0.020975964
0.0769682 -0.076892525 0.016788792 -0.07792382 0.07937236 0.119336866 -0.059440333 -0.001334399
-0.059147164 -0.020314217 0.028748145 -0.015754974 -0.044745836 -0.025454128 0.039842308 -0.029915335
-0.03648695 -0.024484515 -0.04249344 -0.041028496 -0.07929561 -0.039191 -0.01604797 -0.009885944
0.03741508 -0.0011050608 -0.024158401 0.060049497

encoder.2.weight f4 [30, 60]
00000000: 1a33 f3bd 3b05 df3d 0a89 77bd 8d65 c8bc
00000010: f19e d2bd 9263 833d 0f99 91bd 9f3f ae3d
00000020: 121e ad3d 7e45 6bbd 127a 7d3d 9c56 8ebc
00000030: dc05 e5bd 658c a4bd 6d7f da3d 41ad 3d3d
00000040: 1c32 f43a 6146 11bd 5b75 ea3d 14e5 e4bc
00000050: cff1 d93d 45d4 ebbd 71f0 ebbd 7dee ad3c
00000060: 8070 c23d b2f6 273d 3a8e 40bb af21 8e3c
00000070: 512e e73d c0db 02be 0357 2c3c b78a 9fbd
00000080: 9148 a53c 39a4 ac3a 1368 19bd 90ba 9a3c
00000090: 09b3 a33d 4d47 bd3b 6d00 083c 672d 7b3d
000000a0: e9ca 053e 781c 9fbd 847d b6bd c6b8 e1bd
000000b0: 50a4 f8bd 3944 36bc 159d 54bd e7a0 ebbd
000000c0: 9b9d 77bd d093 c43c a4ad cf3d 1bfd f73d
000000d0: c22c 903d f72e 1ebd f038 083c de84 043c
000000e0: 0b55 d0bd dd08 093e 3fee f2bd b9a3 da3d
000000f0: 07c3 b0bd bc1e 453c ed6c ce3d df59 8dbd
00000100: 9b8f c83d 4f90 96bd 7309 a13d 5b58 ec3d
00000110: 8f4c d13d 890c 503d ffbc 093d df8a e33d
00000120: 1805 2e3d 2d37 48bd d373 253d 68c2 d2bd
00000130: 8408 85bd 1aed 8d3c 1ddb 2a3d 649e 28bd
00000140: b6f1 dfbd 6ce9 053d 8ff5 ea3a 7859 94bc
00000150: a12d 35bc 1370 ed3c 3bde c13d f93a f63d
00000160: d0c4 7d3d 12c9 1bbd f8e9 c83c 1890 e6bd
00000170: ffe1 9e3d a59f bebd e06e febc 51dc d33d
00000180: dfe2 7b3d 6349 dfbd 8a78 b23d 03ec b53d
00000190: e13c 883d 8238 853d dd67 9abd 4edf efbd
000001a0: 703c b03d 7053 a2bc 841a 803d 6246 9a3d
000001b0: 4662 9b3d 69aa a5bd a1da e7bd 99e9 fdbc
000001c0: 4a97 7bbd 047a cabd cd05 ad3d c58d 043e
000001d0: 221d 21bd 9579 953d f62f 823d b0bc 3d3d
000001e0: f229 0dbd a744 aabd 9a93 e6bc 8e22 023d
000001f0: c8c8 a93d ef07 343d 07c9 ca3d 377a 72bd
00000200: 4c9e 57bd 173a 70bd 4708 b8bd ebbc a3bc
00000210: d65b 98bd 17d2 813d 2d6c 1a3d 43de 06bd
00000220: 5d97 af3d 6042 923d 3ca3 d9bd 1240 b9bb
00000230: aacc e43c ec05 8d3d 7f13 05be 7fa8 08be
00000240: d750 0abe 54e7 9f3a 7268 073e 3077 843d
00000250: d3e7 fdbd cbe2 d73d 0055 93bd d215 aebd
00000260: 70b1 023e bfb8 1b3d 9d01 6f3d b757 e5bb
00000270: 7aeb aa3c 6f8d 033c c35f 043d 41a7 5d3a
00000280: 041d 01be bc37 0c3e c551 ce3d 43ec 37bc
00000290: e61c a1bc 9b94 cf3d 0a55 e23d 3f8d 613d
000002a0: b6a6 8f3d e20c d5bd f40d 7e3d 0fa6 e53d
000002b0: 161a 9dbd f7e3 093e 9759 bcbd 3610 04be
000002c0: 269a 98bd 2612 91bc 6012 e3bd 3a89 48bd
000002d0: 6a52 ce3d 0d7d 823d fb0a 3dbc 91e3 a2bc
000002e0: 2dd9 fcbd d519 073e 11fd 61bd 46b9 a839
000002f0: 0d29 6ebd c56d adbd 2ebf 04be 711e e2bd
00000300: 19c7 67bc a3f5 543d 7311 a93d 3bd8 00bd
00000310: 2a99 d03b 16ea 943d aa33 813d f5e2 053e
00000320: b333 e1bc d973 0cbd 18a3 39bc 2b2b a63d
00000330: cf2c e73c d394 08be 0071 bb3d b331 9dba
00000340: d883 e4bd 44c0 0c3e 06c8 a5bd 4255 403a
00000350: def8 93bd 211b aebd e4c1 d0bd bd0e 963d
00000360: e8b0 703d 8905 4bbd 295a 983d 8bdc d5bd
00000370: 3702 28bd 1f83 3c3c 3427 d13d 6845 c93d
00000380: 41eb a4bd 8899 1d3d 07a9 e6bc 7920 bc3d
00000390: 5dc7 a1bd 4580 edbd 3c8d 0cbd 740b 383d
000003a0: 44ee 3ebd 414b 5d3d f808 00be 3888 debd
000003b0: 8852 2b3d 33d8 03be 6898 4a3d f352 a83c
000003c0: 8590 da3d e739 05bd fb98 88bc 0d0f 09be
000003d0: 0baa 93bd 3fb8 9ebd d241 0bbe e552 a0bd
000003e0: 0596 ce3d 2ba3 a0bd 0161 16be 4e26 01be
000003f0: 6963 c5bd 72a6 8a3d 97d8 cdbd d8c9 7cbd
-0.11874981 0.108896695 -0.060433425 -0.024462486 -0.10284222 0.06415476 -0.07109272 0.085082285
0.08453001 -0.05743932 0.061883993 -0.017375283 -0.11182758 -0.08034591 0.10668836 0.046307806
0.0018630656 -0.03546751 0.11448165 -0.027941264 0.106418245 -0.115150966 -0.1152047 0.021231884
0.09494114 0.04100675 -0.0029381649 0.017350046 0.11288131 -0.1277914 0.010518792 -0.0779013
0.020176204 0.0013171501 -0.03745277 0.018887788 0.079931326 0.005776322 0.008300883 0.061322596
0.13065685 -0.07769102 -0.08910659 -0.11021571 -0.12140715 -0.011124664 -0.051907618 -0.11505299
-0.06045304 0.023996264 0.10140541 0.12108823 0.07039787 -0.038619008 0.008314356 0.008088319
-0.10172471 0.13382287 -0.11861848 0.10675759 -0.086309485 0.012031253 0.1007937 -0.06901907
0.097930156 -0.073517434 0.078631304 0.1154029 0.102196805 0.050793204 0.033627506 0.11110472
0.042485327 -0.048880745 0.04039366 -0.10290986 -0.06495765 0.017324973 0.04171287 -0.041166678
-0.109347746 0.03269331 0.0017925965 -0.018109068 -0.011058242 0.028984105 0.09466215 0.12022967
0.061955273 -0.038033552 0.024525627 -0.112579525 0.07757949 -0.093077935 -0.031058729 0.103447564
0.061495658 -0.10902669 0.08714397 0.08882906 0.06652237 0.06504919 -0.075393416 -0.11712514
0.086052775 -0.019815177 0.062550575 0.07532956 0.075871035 -0.08089144 -0.11320997 -0.030995177
-0.061423577 -0.09886554 0.08448372 0.12944706 -0.039334424 0.072985806 0.06356804 0.046322525
-0.03446383 -0.08313876 -0.028146554 0.031771235 0.08290249 0.04395288 0.09901624 -0.059198584
-0.052641198 -0.05864915 -0.08985954 -0.019987544 -0.07439391 0.063388996 0.03770082 -0.03292681
0.08573792 0.07141566 -0.106268376 -0.0056533897 0.027929623 0.06885895 -0.12995718 -0.13345526
-0.135074 0.0012199678 0.13223436 0.06468046 -0.123977326 0.10541304 -0.07193947 -0.08500256
0.12763 0.038017984 0.058351148 -0.006998982 0.020864237 0.008029326 0.032317888 0.0008455404
-0.12608725 0.13693136 0.1007419 -0.011225763 -0.0196671 0.10135766 0.11051376 0.055066343
0.070142195 -0.10402848 0.062025025 0.11213314 -0.07670991 0.13465868 -0.091967754 -0.12896809
-0.074512765 -0.01770885 -0.11087489 -0.048958994 0.10074313 0.06371508 -0.0115382625 -0.019883903
-0.123461105 0.13193448 -0.055172984 0.00032181496 -0.058144618 -0.084682025 -0.12963554 -0.110409625
-0.01414659 0.05199207 0.08255281 -0.031456213 0.006365915 0.07271211 0.06308682 0.13074858
-0.027490472 -0.03429017 -0.0113303885 0.081137024 0.028219609 -0.13338022 0.091524124 -0.0011992961
-0.1115796 0.13745219 -0.08094792 0.0007336923 -0.07225202 -0.08501268 -0.10193232 0.0732703
0.05876246 -0.049565826 0.07439072 -0.10442456 -0.041017737 0.011505871 0.102125555 0.09827691
-0.080526836 0.038476497 -0.02815677 0.09185881 -0.07899354 -0.11596731 -0.03431438 0.044932798
-0.046613947 0.054026846 -0.12503421 -0.108658254 0.041826755 -0.12875442 0.049461752 0.020547366
0.10672096 -0.032525923 -0.01667451 -0.13384648 -0.072101675 -0.07749986 -0.13599327 -0.07828311
0.10087208 -0.07843622 -0.14685442 -0.12612268 -0.096381016 0.06770028 -0.10051077 -0.06171593

encoder.2.bias f4 [30]
00000000: 4bdd e8bd 9c99 ddbc 86d4 d43d a8d1 6ebc
00000010: 3c19 ab3d 4dec d83a a888 a63d 8f5e 0b3d
00000020: 1c53 633c 224c 02bd f718 8cbd ac8e db3d
00000030: c4cb 493d 70fe b73b 2b29 013e c426 ec3c
00000040: 5609 ba3b 25db 933d a1f6 903d 9575 a43c
00000050: 9e0d 463d 3c28 753d 8818 f3bc 3dda 933d
00000060: 54e7 af3d ee65 e53d e229 263d bbb0 303d
00000070: a170 d03d 671d 8e3d
-0.11370333 -0.027050786 0.10392098 -0.014576353 0.083544225 0.0016549915 0.08131534 0.034025725
0.013874795 -0.031810887 -0.06840699 0.10720572 0.04926659 0.005615048 0.1261336 0.028827079
0.0056773825 0.07219533 0.07078291 0.020075599 0.04835283 0.059852824 -0.029674783 0.0721936
0.08589044 0.11201082 0.040567286 0.043137293 0.10177732 0.06939202

encoder.4.weight f4 [10, 30]
00000000: 88b1 24be 73d5 253e 588d 85bd 3ed5 35bd
00000010: 0ec1 dc3d 1c51 7d3c f62b 5bbd a0d7 08be
00000020: b9b3 28be 8cde 54bd e52a 9a3d 140b 2abe
00000030: 58d4 6d3d 8562 4a3e 0e5f e93c 34a9 273e
00000040: 3a44 583d b616 41be 206e a8bc 6b79 0c3e
00000050: 495c 98bd 9dce 65bc c158 dbbd 12d5 e73d
00000060: ae35 d3bc 8c2b 86bd 8a66 c83d 2107 1b3e
00000070: 08cb 043e feae c83c 7726 2a3e 946c a8bd
00000080: 403c 5bbd e05a e3bd 0c62 4d3d 5e25 0fbe
00000090: 0fa3 bc3d 81fc bf3d ef2a f9bd 7f59 8f3d
000000a0: b91e bbbc 6e15 24be 1de6 193e 217a 23bd
000000b0: de15 5fbd 3734 9fbd c643 2e3d 23c1 2ebe
000000c0: c452 00be 12dc 213e 70b4 2f3e c5e8 e3bd
000000d0: d517 cd3d dbab 3c3d e889 19be d191 2dbe
000000e0: 4d09 913d 4e66 c43d de0b 3bbe 7be5 64ba
000000f0: cc01 07be 1361 96bd 849e a3bc 2fbe 273e
00000100: e6fe 993d 5de9 0ebe 24bd 52bd 34bc 373e
00000110: 36a0 24bd 166a 09bd f845 22bd 5b92 1fbe
00000120: 1647 f4bd 32f2 0f3e 0cbc eabd ec54 8cbc
00000130: 362c 293e b4d0 103e ab0b 28be fe7a 073c
00000140: 0006 3abe 4296 3ebd 2e73 d7bc 1c63 193d
00000150: 06bf 7bbd 9a9f 303e 5585 ebbd c099 153e
00000160: 85ef 343e ad86 873c 4b49 d8bd c1c8 db3b
00000170: 0d25 983d e27e aa3c ab42 353e 5c6d 08bd
00000180: 32b9 463e 6e0e 62bd 569b 3abe b3a1 4fbd
00000190: ea45 ccbb c7f6 0a3e 9963 f6bc e353 093e
000001a0: 6f2a 263e f7a0 3a3d 9d91 e33c 8863 73bc
000001b0: 7e5a 3abd 7b24 a63d 5c59 14bd 3574 f5bd
000001c0: acc1 3c3d a3f8 033e 9911 91bc 0d8a 35bd
000001d0: 50ae 543d 7bb5 1b3e 3c7e 13be cf41 e5bd
000001e0: 78d4 413e 953a 103b 89f0 e9bd bb8d 26be
000001f0: fcd7 7dbc 44f1 99bd fa30 34be 01a1 c5bc
00000200: d3ec a93d 917b 6a3d b652 e8bd aed4 903d
00000210: 637f a1bb 1e91 1cbe 0d17 2bbb 953e 5abd
00000220: e6d9 2abe 658a 06be dc9a db3c d370 c2bd
00000230: 9390 0bbe 5a61 78bb 148b f4bd e50b e1bd
00000240: 51e9 83bd ad42 a23d 61d9 6b3c d29d 9bbb
00000250: 1f2e 2cbe 1bbf 873b 8a9a 75bd 79c7 b13d
00000260: 297e 5cbd 97e5 1b3e dff4 7f3d b1aa 253d
00000270: 0a89 da3d 88fe 9bbd f009 08be 9156 243d
00000280: cb3f f8bd 171a 10bc 28e4 1fbe 98ea fc3d
00000290: 83f1 183e 39a5 0b3e 983b cd3d cb85 35be
000002a0: 57fb d3bd 4df5 aabd b5aa ddba 4e01 0cbd
000002b0: db44 de3d a3f3 733d 8f88 e73d 3d0b af3d
000002c0: 19e0 17be ee5d 30bd b70e 093d e57e 2ebe
000002d0: 93dd 963d c337 9bbd 125a 0f3d 14a9 033e
000002e0: 5e6a d23d e20c 29be 3205 083d b6a8 d3bd
000002f0: d3d5 203e 4f62 f83d bf2a 373e 14dc 783d
00000300: a42b 903d 5574 e4bc 50f8 a13c a955 13be
00000310: 069f 00be e899 b3bd 873b 753d 829e 00be
00000320: 4ac4 21be f3ac e6bd 0584 463e b6fc a9bd
00000330: 618b 11be f6bf 933d dfd1 44be 7d86 083e
00000340: 46d0 fd3d e954 90bc 311f a83b 4956 8a3d
00000350: 05da 28bd 9a05 bf3c 7dfb e0bd ece3 703d
00000360: 6b63 943d a6c8 073e 84bd 8fbd 5e54 d33d
00000370: c851 e3bd 9d22 053e 1a8d 953d 87a8 833d
00000380: 3871 b8bd 95c2 32be b061 29be 656b 12be
00000390: 198a 18bd a951 1a3d 3ef4 98bd 63e7 88bd
000003a0: 3ebc 123e f954 aa3d 0e29 16be 7cb9 9f3d
000003b0: 4ee1 f83d 6dd2 a5bd 673c 353e 42bd b43c
000003c0: 1fe9 11bc 3386 083e c846 9abd dc91 a63d
000003d0: c222 e93b e879 e2bd 9eb2 cd3d 8083 19be
000003e0: 168b 153e 66ce 623d e0e0 ffbd 73a7 73bd
000003f0: accb 493e 0220 4d3e 7bed 1b3d 25bb 1c3e
-0.16083348 0.16194706 -0.065211 -0.044392817 0.1077901 0.0154612325 -0.05350872 -0.13363504
-0.16474809 -0.05197005 0.07527713 -0.16605788 0.058063835 0.19764145 0.028487708 0.1637314
0.05279944 -0.1885632 -0.020560324 0.13718192 -0.07439477 -0.014026311 -0.10710288 0.11319937
-0.025782432 -0.06551275 0.09785183 0.15139438 0.12968075 0.024497505 0.16616236 -0.08223835
-0.053524256 -0.111013174 0.050142333 -0.13979098 0.092107885 0.09374333 -0.12166392 0.06999492
-0.022841798 -0.160238 0.15029188 -0.039911393 -0.054464214 -0.07773631 0.042545103 -0.17065863
-0.12531573 0.15806606 0.17158675 -0.11128382 0.10014311 0.04606233 -0.14994013 -0.16950156
0.07081852 0.095898256 -0.18266246 -0.0008731705 -0.13184279 -0.07342734 -0.019973047 0.16381143
0.07519321 -0.13956209 -0.05144991 0.17942888 -0.04019185 -0.033548437 -0.03961751 -0.15583174
-0.11927621 0.14057234 -0.11461648 -0.017130338 0.16520771 0.14142114 -0.16410701 0.00826907
-0.18166351 -0.046530016 -0.02630004 0.037448034 -0.06146147 0.17248383 -0.115000404 0.14609432
0.17669494 0.01654371 -0.105608545 0.0067072813 0.07428942 0.020812456 0.17701213 -0.03330742
0.19406584 -0.055189542 -0.18223318 -0.050691318 -0.0062339203 0.135707 -0.030076789 0.13410906
0.16227125 0.045563664 0.027779395 -0.014855273 -0.045496456 0.08112427 -0.036218032 -0.11985055
0.046083137 0.12887816 -0.017708587 -0.04432111 0.05192405 0.15205948 -0.14403623 -0.111941926
0.18928707 0.0022007574 -0.114228316 -0.16265003 -0.015493389 -0.07516721 -0.17596808 -0.024124624
0.08297124 0.05724675 -0.11343901 0.070718154 -0.0049285158 -0.15289733 -0.0026106269 -0.05328234
-0.16684684 -0.13138731 0.026807241 -0.09494176 -0.1362937 -0.0037899823 -0.119405895 -0.10988597
-0.06440986 0.07922874 0.014395089 -0.0047490383 -0.16814469 0.0041426546 -0.059961833 0.086806245
-0.053831253 0.152243 0.062489387 0.040445987 0.106706694 -0.07616907 -0.13285041 0.04012162
-0.121215425 -0.008795283 -0.15614378 0.12349433 0.1493588 0.13637246 0.10021132 -0.17726819
-0.10350674 -0.08347569 -0.0016911837 -0.03418093 0.10852977 0.059558522 0.11305343 0.085470654
-0.1483158 -0.04305833 0.0334613 -0.17040594 0.07366481 -0.07578995 0.034998007 0.12857467
0.10274194 -0.1650882 0.03320808 -0.103349134 0.15706567 0.12128126 0.178874 0.060756758
0.07039574 -0.027887503 0.019771725 -0.14388146 -0.12560663 -0.0876959 0.059871223 -0.12560466
-0.15797535 -0.11263456 0.19386299 -0.08300154 -0.14213325 0.07214348 -0.19220684 0.13332553
0.12393241 -0.017618613 0.0051306714 0.06754739 -0.041223545 0.0233181 -0.109854676 0.058811113
0.07245525 0.13260135 -0.07018569 0.10318826 -0.11099583 0.13001485 0.073023036 0.064286284
-0.0900597 -0.1745704 -0.16541171 -0.1429878 -0.037241075 0.037675533 -0.074684605 -0.066847585
0.14329621 0.083169885 -0.14664099 0.0779905 0.121523485 -0.08096776 0.17698823 0.022062901
-0.008905678 0.13332443 -0.07533032 0.08133289 0.007114739 -0.11058408 0.10043834 -0.1499157
0.14603838 0.05537262 -0.124940634 -0.059485864 0.19706601 0.20031741 0.038068276 0.15305765

encoder.4.bias f4 [10]
00000000: 5076 85bd bd5c 95bd 8c35 163d 636c 43bd
00000010: 8c79 973d b4e2 1b3e 59f1 ffbd 6f24 bcbd
00000020: 9bc9 7cbd 6a46 ddbc
-0.06516707 -0.07293079 0.03667216 -0.047710788 0.0739623 0.15223199 -0.12497205 -0.09186637
-0.061715703 -0.027011115

encoder.6.weight f4 [1, 10]
00000000: 02b3 a0be 47ee e3bc 53b5 a43e 3cc9 693e
00000010: 5216 f9bd 3d38 53bb 9251 403e f669 073d
00000020: afa9 aabe 51af 50be
-0.31386572 -0.02782358 0.3216959 0.22830671 -0.121624604 -0.0032229566 0.18781117 0.033060037
-0.33332583 -0.20379378

decoder.0.weight f4 [10, 1]
00000000: 06b8 b53e 0bc9 3ebf e06a d23e 1d45 653f
00000010: d362 31bf 11e3 ddbe bee4 f13e b7e3 693f
00000020: 3eeb 7d3e 968c 23bf
0.3549196 -0.7452552 0.41097164 0.89558583 -0.6929142 -0.433373 0.4724483 0.9136309
0.24796769 -0.6388639

decoder.0.bias f4 [10]
00000000: 5947 7f3f 33b1 4bbe 539a d43d 0fe2 9a3b
00000010: d5b6 923e a554 fdbe 475c 013a 19b6 40bf
00000020: e704 33bf ace5 40bf
0.9971824 -0.19891815 0.103809975 0.0047266553 0.28655115 -0.4947864 0.000493471 -0.7527786
-0.69929355 -0.7535045

decoder.2.weight f4 [30, 10]
00000000: 08d1 8a3d 30a2 2abe 39f0 2ebe cdcd 7b3e
00000010: dc89 18be 5385 8bbd 2e7d f03a 9b91 61be
00000020: 4171 9d3b b0cd 293d 4f47 813d 5e89 ee3d
00000030: bd7f 31bd d1f1 a9be 62eb 023e 224f a33e
00000040: 9e08 07be ea4f 4b3e 1a8b 8d3e ec54 42be
00000050: 51a7 72be 7f3b a4be a101 0f3d 2c35 283e
00000060: 50ef a5be 84ca a03e c56c 57be 89e0 e7bd
00000070: e2bb 743d 9acd ccbc 4c8b 963e e839 8bbe
00000080: 6aa9 1f3e 30de ae3d ad29 5b3d b0e1 17bd
00000090: b8c6 213e afa0 29bd da38 4c3c 088d 2f3e
000000a0: e471 f1bc 8da6 693e 3c44 a63d 7b7d 90be
000000b0: 370e bc3d a3ee d53d 86c1 9b3e b728 fcbd
000000c0: a406 f7bd 89c2 753e 508d 213e 9b19 a53e
000000d0: fe01 b73b ee8d f93d d8b3 7cbe 70d9 903e
000000e0: db48 d9bd f00f babe e0fb 03be 406b 16be
000000f0: 5c50 993e 213c 0c3e 775c a03e e4a2 31be
00000100: 5390 233e 3fa0 53bd 6c35 4fbc 400e 1e3c
00000110: db30 b13c 8bd5 9d3e da88 c3bc d539 ffbc
00000120: fdb8 4b3e 3cbb 563e d271 e23d 9c7e 1b3e
00000130: a182 ad3e 5d19 993e d8a1 a3bd 0285 203e
00000140: aca3 10bd 6e6d 79be b343 8abe 0db1 883e
00000150: b3dd 18be 9ccf b5bd fc01 85be c93d bcbd
00000160: 22cc aa3e 4351 96be 140e e4bd 0c88 ecbc
00000170: 2f6b 16be 7aa3 523e a40f b33d e7a3 20be
00000180: 31fe 02be 484b d13d d9b2 a3bd d3bc 01be
00000190: f1d9 413e 07ca 39be b50a 95be 14e0 87be
000001a0: f692 843d 07da 723c 2a69 6d3e 8264 9b3e
000001b0: d720 813d cd02 613d 013e 71ba 9d92 07bd
000001c0: 3536 403e 06dd dc3b 1896 48be 2831 943d
000001d0: 85b3 403d 82f3 98be be39 04be 6552 e7bd
000001e0: 212f abbd e6d3 7a3e 8048 e0bd 8b97 aa3e
000001f0: 4f7e be3d 97cb dfbd 2c4a f8bb 1c2f a4bd
00000200: 4854 4abe 838e bf3d 8010 533e 859d 95bd
00000210: c598 42be 75e8 9abe 20f7 5c3e daa1 68bd
00000220: 6c64 223e c726 8c3e d3a2 e63c 11ab f2bd
00000230: 9fad 733e e497 673e 483e 5cbe a10e 97be
00000240: 42a1 8b3c f321 2b3e 7be0 25bd 3abe 9c3a
00000250: 4aff 2dbe ce7d 68be 2de2 873e 42e9 9b3e
00000260: 7cd8 3ebe 9a98 633e c42e b0bd 7d0f 81be
00000270: 3568 2e3e ff92 613d e975 7a3d 36e7 9abe
00000280: 1f41 81be 192c 3d3e 330a a5bd 6e28 8cbe
00000290: 922b 39bd 5d27 883c d334 8dbe e13b 75be
000002a0: c06f 953e ba72 843d cb59 b4bd 4124 373e
000002b0: 41f8 a9be b75a 6fbe ee09 043e 29e5 2ebe
000002c0: ab49 83bd 82db b1be efc5 10be 5251 02be
000002d0: 437f 0dbd eab0 533c 5af1 73be 0731 903d
000002e0: 6cbd 733d 993d d63d 6774 de3d 2c52 3abe
000002f0: 3751 b23d 0ae3 e83c add7 e53d 704e 873e
00000300: e6e4 c73c c6ea 863d a5a7 0abd 6455 30be
00000310: 33a2 a53e 8521 6bbd 11df c1bd fcac c13d
00000320: e61c 8bbe d1d2 6d3e 0b0b 9a3e afa6 363e
00000330: 2485 3f3d 68fc b8bd dfeb d93d 0f9c 103e
00000340: 4834 9bbe fb76 8bbe 2545 69be a956 5e3e
00000350: afc7 c4bd ed36 6e3e c3a2 a0bd 9847 e3bd
00000360: 8e94 a9bd fb6e 3dbe 2950 69be bc3d 3dbd
00000370: cbec 8ebe 957d 383d 5a47 33bd fb7c 493e
00000380: 0b06 fb3a 15b7 d9bd ad04 903e 6dac 193e
00000390: c44b 023e ed97 0f3d c6c6 473e 9c5a 3b3c
000003a0: 9eef 31be 38ef c33d 946a 303d 3075 8a3d
000003b0: 5839 59bd 0704 59be 2f9f 6d3d 6d97 96be
000003c0: dacf b1bd 928b 8dbe 8f2a 1a3e e923 143e
000003d0: d66b cfbc 238a 37bd a4b2 3c3e d913 9d3e
000003e0: c708 5f3e d128 ba3d ecd9 9abd c2fd a73d
000003f0: 423b 67be 6fa3 bebd 072a a43e 4359 71be
0.06778151 -0.16663432 -0.17083825 0.24590226 -0.14896339 -0.06812539 0.0018347853 -0.220282
0.0048047607 0.041455925 0.06312429 0.116472945 -0.04333471 -0.33192304 0.12785104 0.3189631
-0.13186881 0.19854704 0.2764519 -0.18977708 -0.23696639 -0.32076642 0.034913663 0.16426533
-0.32409143 0.31404507 -0.21037586 -0.113221236 0.05974949 -0.025000382 0.2940315 -0.27192616
0.1559197 0.08538473 0.053506542 -0.037080467 0.15798461 -0.041413005 0.012464726 0.17143643
-0.029473253 0.2281744 0.081184834 -0.28220734 0.09182399 0.10445907 0.30421084 -0.12312453
-0.120618135 0.2399999 0.15776563 0.32246098 0.0055849543 0.12185274 -0.2467798 0.28290892
-0.10609599 -0.36340284 -0.12889051 -0.1468935 0.29944122 0.13694812 0.31320545 -0.17347294
0.15973024 -0.051666494 -0.012647014 0.009646952 0.021629741 0.30826983 -0.023868967 -0.031155506
0.19894786 0.20969862 0.11056866 0.15185016 0.33888724 0.29902163 -0.079898536 0.15675738
-0.03531234 -0.2435815 -0.27004775 0.2669758 -0.14928322 -0.08877489 -0.25978076 -0.09191472
0.33358866 -0.29358873 -0.11135498 -0.028873466 -0.14689325 0.20570174 0.087432176 -0.15687524
-0.12792279 0.10219437 -0.07993097 -0.12669687 0.18930794 -0.18143474 -0.2910973 -0.26538146
0.06473343 0.01482249 0.23184648 0.3035012 0.06305092 0.05493431 -0.000920266 -0.033098806
0.18770678 0.0067402152 -0.19588506 0.07235938 0.047046203 -0.29873282 -0.12912652 -0.112950124
-0.083585985 0.24494895 -0.10951328 0.33318743 0.09301435 -0.109275036 -0.0075772014 -0.08016798
-0.19758713 0.09353354 0.20611763 -0.07305435 -0.1900359 -0.30255476 0.21578646 -0.05679498
0.1585862 0.27373335 0.028153813 -0.118490346 0.237967 0.22616535 -0.21508133 -0.29503348
0.017044667 0.1671217 -0.040497284 0.0011958547 -0.16991916 -0.2270424 0.26539746 0.304514
-0.1863727 0.22226182 -0.0860267 -0.2520713 0.1703194 0.055071827 0.061147604 -0.30254525
-0.25244996 0.18473853 -0.08058586 -0.27374595 -0.045207568 0.016620332 -0.27579364 -0.23948623
0.2918682 0.06467195 -0.08806189 0.17884924 -0.33197215 -0.23374449 0.12894413 -0.17079605
-0.064105354 -0.34737784 -0.14138006 -0.12726334 -0.034545194 0.012920598 -0.23822537 0.07040601
0.05950682 0.104609676 0.10862046 -0.18195409 0.08706897 0.028428573 0.112227775 0.2642703
0.02440114 0.06587748 -0.033851285 -0.17220074 0.3235031 -0.057405014 -0.09466375 0.09456822
-0.27170485 0.23224951 0.3008655 0.17837022 0.046757832 -0.09032518 0.10640692 0.14122032
-0.30313325 -0.27239212 -0.22780283 0.21712746 -0.09608399 0.2326314 -0.07843544 -0.1109764
-0.08280288 -0.18499367 -0.22784485 -0.046201453 -0.27915034 0.04504164 -0.043769218 0.19676583
0.0019151581 -0.10630623 0.28128567 0.15007181 0.12724215 0.035056997 0.1950942 0.011435177
-0.17376563 0.09567112 0.04307039 0.06760633 -0.053033203 -0.21192943 0.058013137 -0.29412404
-0.08682223 -0.27645546 0.15055297 0.14466824 -0.025319975 -0.04480947 0.18427521 0.30679205
0.21780692 0.09089816 -0.075610965 0.08202697 -0.22581199 -0.09308516 0.32063314 -0.23569207

decoder.2.bias f4 [30]
00000000: 3847 483e cbda a1bc df0c ecbc a185 0bbe
00000010: f430 a13e b244 3abe 699c 583e 5256 2d3d
00000020: 2cb8 4abe 5a4a b83d 1f9c 8dbe 029b 15bd
00000030: 9c19 f93c 9535 993e 76e5 90be 286b 673e
00000040: 5e34 0c3d 5e50 89bd 3269 86be 65e1 383e
00000050: 2435 b7bd 2212 96be 60e4 21be 94a6 5d3e
00000060: 9365 a0bd a770 0fbe b7f9 683d 486d 37be
00000070: 6bd4 64be 3e92 24be
0.19558418 -0.019757649 -0.028814731 -0.13625194 0.3148266 -0.18190268 0.21153416 0.04231865
-0.19796818 0.089985564 -0.27658173 -0.03652478 0.03040772 0.29923692 -0.28300065 0.2259947
0.03422963 -0.06704782 -0.26252133 0.18054731 -0.08945683 -0.2931071 -0.15809774 0.21645576
-0.07831874 -0.14007817 0.05687877 -0.17912781 -0.22346656 -0.16071412

decoder.4.weight f4 [60, 30]
00000000: db21 f73c ea6f 0bbe bff6 233e 1b79 bdbb
00000010: 24b4 143e c2f7 0abb 3ac1 8d3c be73 203e
00000020: c7e3 b7bd e939 89bc 8948 38be e668 4e3d
00000030: 1f0e b2bd 47b4 42bd 0bf9 c33d 9fd6 893c
00000040: 171a 69bd c523 b6bd 0a68 18be fb35 03bd
00000050: fd33 373e e3f6 06be 8ddf e53d edde 2d3e
00000060: ce89 08be 81e0 15bd bcae e4bd dad1 9a3d
00000070: ed43 04be 50e7 753d ac73 32bd 1acf a9bd
00000080: 03e0 b8bd f45a 34be 7c95 14be feaa 2f3c
00000090: 9183 2cbe d299 6a3d f7f6 efbd f846 03be
000000a0: 308a 12be f9a5 3f3d 122e b03c 556b 9e3c
000000b0: 5255 ef3d 50d3 43bd c27b aebd 582a e03c
000000c0: 5747 0b3e e11a 67bd 1a39 aebc 5b56 2bbd
000000d0: 6baa 48bc 0fb7 2dbe 8729 ed3d 7dce 323e
000000e0: fddb 063e 3da7 0a3d 3bb8 843d 3925 c6bd
000000f0: 7f71 173e aa94 833d 4cf6 43bd be12 1bbe
00000100: ccfd aa3d dffe e93c ee20 063e 31d5 16bd
00000110: 4901 943d 5d34 093e e798 383c 423e 1cbe
00000120: 36e8 dc3d b02e 443d 16ee 843c a747 9c3b
00000130: 861d ed3d f570 84bd 599e 093e c800 123e
00000140: 7708 a03d 4bc5 1d3d 0ad7 2d3d 3825 a0bd
00000150: 237f ca3d 01e0 143e a059 a13d a965 06be
00000160: e0d1 ae3d 9327 83bd c3ec 763d 4291 a13d
00000170: 96ab b23d 9eb5 043b 3d63 9ebc f503 debc
00000180: e21e 913d c872 363d f360 a93d 164c 50bd
00000190: 92f1 8abd 16c9 00be c201 5a3e add2 dd3d
000001a0: a508 47bc 1ca4 a0bc 25df f9bc b060 583e
000001b0: c32a 41be 37f4 06be edb8 58bc aab5 163e
000001c0: 0993 e83c 4c93 17be 545a 61be bba6 013d
000001d0: e028 97bd 477c f4bd ec56 7f3d f9fa 0f3e
000001e0: 0159 b13d 016f b83d f6e7 f0bd 1587 d03d
000001f0: 1be3 87bd 53cc 4f3e 16dc 1e3e 2705 79bd
00000200: 4c38 7fbd faac a1bd bc97 9abd a843 d93d
00000210: 5129 debd 5c65 cebd 846a 0a3e 7298 643b
00000220: 918a 243e a160 673e 0f82 c7bd 725d 1e3e
00000230: 050f e93c 20e5 cebb d79c 0a3e a9a0 1fbe
00000240: 224d e83d 0dd4 13be 048b c6bd 2ee3 453d
00000250: 5ae1 47be 6b41 ebbd b092 a73d c116 a1bd
00000260: 5be2 3bbe 4ec4 f83d cfce f4bd 61f2 aa3d
00000270: cb10 15be 58db 48be d41e 09be 613f aabd
00000280: f6d6 10be 49e8 2b3e d1d2 d6bd fe9c 353e
00000290: 95b6 8a3d 0253 ef3d 97ff b5bd c8e9 5ebd
000002a0: 0ea6 e73d 90de 00be dd6b 073e 42f8 f93d
000002b0: 7d51 05be 046b 423e 3a2f f33c 8af3 97bd
000002c0: 3968 d43c 2336 46be 50ec 103e fe78 043e
000002d0: 2ae2 ac3d 167a d33d 6924 96bd dc44 9ebd
000002e0: 8846 8a3d ccf3 de3d 5365 633e 4eee 30be
000002f0: 9464 b2bd dd0e bfbd 494d 80bc 4126 373e
00000300: 19b2 553d 028d 3b3e fd98 8ebd 8436 1c3d
00000310: 9e7e 463d 4617 93bd d9d5 303d cdc3 a93d
00000320: 49ec 793d c11c 573d 1161 adbd 7160 2a3e
00000330: a932 42be 1b86 2a3e a1ff 8b3d 1d25 fe3d
00000340: f471 ba3d d429 10bd e5f4 ce3d 9926 423d
00000350: 522b dbbd 2831 2d3d 8eba 813d aa12 37be
00000360: 4e0a fd3d afee 233e 5a5e 44bd 4bf0 39be
00000370: bcd6 383e c2b8 42bd a35d 043e 5133 94bd
00000380: 76a9 42be a1b8 24be 6baa 0abc ad5c 10be
00000390: 54ca 4bbd ef2f 17be 7335 f8bd 05c4 03be
000003a0: 0d72 343d 1925 f6bd 1310 e53d 3850 f43b
000003b0: 7512 383e c29d ab3d d9a8 413d 5dc2 103e
000003c0: 18a5 423d 3737 0bbe fc94 17bd 1c42 11be
000003d0: 2977 fb3d c3c6 96bc c695 1c3e 6bb8 c7bc
000003e0: a364 3bbe cb5c 2bbe f98a 23be 4c4e 8e3c
000003f0: 9681 0ebb 7c3d e23d 5ffd b3bd bcc5 033e
0.03016751 -0.1361691 0.16012095 -0.005782259 0.14521843 -0.0021204804 0.017304052 0.15669152
-0.08978992 -0.016751247 -0.1799642 0.050393008 -0.086941 -0.047535207 0.095689856 0.016825972
-0.056909647 -0.08893541 -0.14883438 -0.0320339 0.17890926 -0.13180117 0.112242796 0.1697957
-0.13333818 -0.036591057 -0.111661404 0.07559557 -0.12916537 0.06003505 -0.043567345 -0.082914546
-0.09027102 -0.17612821 -0.14510149 0.01072192 -0.16847064 0.0572756 -0.11717027 -0.12820041
-0.14310527 0.046789143 0.021506343 0.01933829 0.116861954 -0.047808945 -0.08519699 0.027363941
0.13601433 -0.056422118 -0.021267463 -0.041830402 -0.012247662 -0.16964363 0.11580186 0.17461582
0.13169856 0.033850897 0.06480452 -0.096750684 0.14789389 0.0642484 -0.04784231 -0.15143868
0.08349189 0.028563915 0.13098499 -0.03682441 0.072268076 0.13398881 0.0112669235 -0.15258124
0.10786478 0.047896087 0.01622681 0.004769284 0.11577897 -0.06466857 0.13439311 0.1425811
0.078141145 0.03851823 0.042441405 -0.07819599 0.09887531 0.14538576 0.07878423 -0.13124718
0.08536124 -0.064040326 0.060284387 0.07889034 0.08724134 0.0020249854 -0.01933443 -0.027101496
0.070859686 0.044543058 0.08270445 -0.05085381 -0.06784357 -0.12576708 0.21289733 0.10831199
-0.012148057 -0.019609503 -0.030501911 0.21130633 -0.18863969 -0.13179098 -0.0132276835 0.14717737
0.028390424 -0.14802283 -0.22007114 0.031653147 -0.07380843 -0.119377665 0.062338755 0.14060582
0.08659554 0.09005547 -0.11762993 0.10182015 -0.06635114 0.20292787 0.15513644 -0.06079593
-0.06230955 -0.07894321 -0.07548472 0.106086075 -0.10847724 -0.100779265 0.13517195 0.0034880904
0.16068484 0.22595455 -0.097416036 0.15465334 0.028449545 -0.006313935 0.13536392 -0.1558863
0.11342837 -0.1443636 -0.09694484 0.04831236 -0.19519559 -0.11487087 0.08182275 -0.07865668
-0.18348067 0.12146817 -0.11953508 0.08347011 -0.14557187 -0.19614923 -0.13390666 -0.0831287
-0.14144501 0.16787829 -0.10489429 0.17735669 0.06773106 0.11685754 -0.088866405 -0.05442217
0.11310969 -0.12584901 0.1322474 0.122055545 -0.13019367 0.18986136 0.029685605 -0.07419498
0.025928603 -0.19356589 0.14152646 0.1293678 0.08441575 0.103260204 -0.073311634 -0.07727978
0.06751734 0.10886344 0.22206621 -0.17278406 -0.0871059 -0.09329007 -0.015661852 0.17885686
0.0521718 0.18315509 -0.06962774 0.038137928 0.048460595 -0.071821734 0.04317269 0.08289299
0.061016355 0.052517656 -0.084657796 0.16638352 -0.18964638 0.1665272 0.06835867 0.124094225
0.09103766 -0.03519614 0.10105304 0.04740009 -0.10701622 0.042283207 0.063344106 -0.17878214
0.12355481 0.1600902 -0.047941543 -0.1815807 0.18050665 -0.04753948 0.12926345 -0.0723635
-0.19009957 -0.16086055 -0.008463482 -0.14097853 -0.049753502 -0.14764379 -0.1211957 -0.12867744
0.04405408 -0.120187946 0.111847065 0.007455852 0.17975791 0.08379699 0.047280166 0.14136644
0.047520727 -0.13595282 -0.037007317 -0.14185375 0.12278587 -0.018405324 0.15291509 -0.02437993
-0.18300109 -0.16734616 -0.15970983 0.01737132 -0.002174472 0.110468835 -0.08788561 0.12868398

decoder.4.bias f4 [60]
00000000: 53c4 bbbd 1c2f e03d 6b40 1f3e 3a46 b23d
00000010: caab 203e 4445 07be 734f 8f3d 2eb3 9c3d
00000020: deef 21be 8b24 973c 1f83 e53d 560d 453d
00000030: 273c 413e e55a d6bd e5b8 a7bd 99ac 103e
00000040: 1196 05be 9a84 08be 0572 28be b0a1 193e
00000050: 752d 493e 66fd 083e 54fe 93bd ea6b 99bc
00000060: 824d 393e 219f 0e3d 5cfc 373d 57e0 1e3e
00000070: e481 fd3d ffc9 493d 1328 d9bd 33c7 15be
00000080: b866 0dbd d11c 87bc dba3 163e fc47 bfbd
00000090: 8038 9bbd a11f 26bd 3149 a9bd d902 453d
000000a0: 98d4 2dbd 9675 9f3d 000c 053e 44f9 263e
000000b0: 4374 8abb e227 c9bd 499b 9a3d 8d12 0b3e
000000c0: 1e23 02bd 50ec 253d e58c ab3d 9c69 f4bd
000000d0: b55d c1bd 93b5 03be d0d0 fe3c f57b af3d
000000e0: 88b1 343e fae4 1f3d 44fb 25be 0685 b33d
-0.09168305 0.109464854 0.15551917 0.08704801 0.15690532 -0.13210016 0.069975756 0.07651363
-0.15814158 0.018450042 0.1120665 0.04810842 0.18870603 -0.104665555 -0.08189563 0.14128341
-0.13045527 -0.13331833 -0.16449745 0.15003085 0.19646247 0.13377914 -0.072262436 -0.018728215
0.18095973 0.034819726 0.044918403 0.15515266 0.1237829 0.049264904 -0.10603347 -0.1462677
-0.03452179 -0.016493233 0.14710943 -0.09339902 -0.07579136 -0.040557507 -0.08265913 0.04809842
-0.042439073 0.077860996 0.12992859 0.16306025 -0.0042252853 -0.0982206 0.075491495 0.13581295
-0.03177177 0.04050857 0.08376483 -0.11934206 -0.09441701 -0.12862234 0.031105429 0.08568565
0.17645848 0.03903673 -0.16209131 0.087656066

decoder.6.weight f4 [118, 60]
00000000: 6e90 3e3d 17fa b83d d816 813d 39b5 343b
00000010: 114e babd 66b5 4538 3668 c7bc 0244 993d
00000020: 022c 903c 7549 5abd 6914 2ebe 38ec 77bd
00000030: f8df f0bc 9862 ec3c 88ef 183e d639 ddbd
00000040: 5a2b 7b3c 048b 67bc 0dff 1b3e 25eb f0bc
00000050: a92c 27be cd6b 473d 9ff0 4b3b ec42 cf3d
00000060: f4df 27be 58d7 30be f961 1d3d 6bf7 14be
00000070: 627e 0bbd f3a7 ffbc 474d 943d e38f 303d
00000080: 5b65 56bd 6c9a 7bbc 4dfa 1cbd ec30 9ebd
00000090: a90e e8bd 8d91 33bd 57be bc3c 5208 13bc
000000a0: cc40 54bd 27d3 3f3c f877 dabd f3a6 d6bd
000000b0: ace0 9d3d 1daa 0e3e 4da4 fbbd 3776 8ebc
000000c0: 353c 593d ee6c 0b3e 2310 1b3d 97a3 a5bd
000000d0: 108a 19be 29ec 4db9 beb0 593c e39e 223b
000000e0: 2067 823d 223d 00bd faaa b5bd 4315 05be
000000f0: 873b 103e 0e55 dcbd e28a 933b 3a2d cbbd
00000100: 3e36 c83d 38b0 8f3c e164 043e 37cb 07be
00000110: d9d2 a83d 210b e83d 8ae1 13be 4f1b 9f3c
00000120: ecdc 403c d0ef c2bd 1024 eebc 28c2 b4bc
00000130: 4a2a 1c3d eb59 013d 18c8 09bd 1d06 9d3d
00000140: e2cb 8a3d a96f bb3d dd2b fe3c fff2 06be
00000150: ce5e c93d 3f78 98bd 73cb 0cbd 7f2b 583d
00000160: b347 1f3d 89ab edbd 7e2b 9fbd c36d df3c
00000170: 9bfc 793d 81a3 83bd b140 003e 3c50 9a3d
00000180: 6889 1abe 42a6 44bd 5298 a03d 1ca5 e0bc
00000190: ae18 99bd 36c5 d4bc 3479 de3c ffd0 03bd
000001a0: 7528 8abd 8d5d b23c b9d1 843d 8e65 f33d
000001b0: 3d4c 583d 9e9c 2d3d d32d 513d 9500 043e
000001c0: 3fc2 04be a9b4 12bd 53a9 89bd aeaf 46bd
000001d0: d649 aa3d 74ed cf3d b6d7 9ebd addf 71bd
000001e0: ab3c 763d a551 683d e716 483d 7d0d 183d
000001f0: 6631 c8bd 26b6 9c3d fe85 e2bd 7d43 53bd
00000200: 12df 1b3b 9e23 f4ba 1d62 473b 3f5c d9bd
00000210: f879 063e 9277 afbd abde 513a cf29 5fbb
00000220: ce20 37bb bf8b 0bbd 28bc 803c 2814 0b3d
00000230: 7e5a aabd 2fcc bd3d f84f 96bc 3a8a d93d
00000240: e098 cabd a92b ec3d 7594 af3d 056e 18bd
00000250: 4e17 853c 0c0a ac3d 98db e3bd e847 b83d
00000260: fb0e 823d cd46 83bd dc43 833d cfe9 603d
00000270: da9f 923c 25c9 be3d fb38 d2bd ad6d 99bc
00000280: d747 2a3c e09f bc3d 0244 9a3d 3306 40bc
00000290: 019a 83bd aeff 07be 46fb d4ba feaa 21bd
000002a0: ec9d 0abd 825c c13c c905 9b3d 0675 683d
000002b0: 9785 a93c 6b6b 11bd a99e 493d 3344 a23d
000002c0: eb89 1dbd b0b6 ebbd 496d 123c 2b63 53bd
000002d0: e538 e03d c690 d9bd 5fc0 8bbd 9b91 363d
000002e0: 1069 b7bd ad2c f8bb a375 873d 34ae a4bd
000002f0: 8b7a 4b3d 2752 dd3d 2067 cbbd 64e8 e73c
00000300: 22cc a2bd a65e 9ebd e020 f3bd f9c6 6b3d
00000310: a13e a03d 5821 9fbd 30f0 b83d 307b 6ebd
00000320: e871 6b3d 7bce cebd cf49 023e 9b6c e4bd
00000330: eeac 733d 2fd1 543d 31e3 153d 605a f63d
00000340: 1485 6e3d 61be 983d aab1 eabd f925 a5bd
00000350: 4964 5dbc 6b38 063e 3ff2 b43d b23c 03be
00000360: 9931 933d c0e0 843b f1b4 d8bb 2e28 f8bc
00000370: 1792 673d ec09 3ebd 23c6 573d 57f2 acbd
00000380: b33c 11bc 54fe 213d d852 09bd c891 f73d
00000390: 4bd4 c1bd e174 543d ebcc b73d 4073 cebc
000003a0: 6837 4f3d 688a f6bd f6e6 4dbd 6589 a1bd
000003b0: 07e9 143d 08e5 45bd c593 fdbd e925 ffbd
000003c0: e795 4d3b 537d c63d 75dc e23d 35a9 9bbc
000003d0: 6d5e febc bc45 9fbd 1a8b d53d 2dd5 d6bd
000003e0: 6880 51bc 0dcb 6bbd 8e28 09be c1f4 163d
000003f0: 04f1 a7bd b72a 1dbd 4744 183d cd8c 4b3d
0.046524458 0.09032076 0.06303185 0.0027573837 -0.09096921 4.71374e-05 -0.024341684 0.074836746
0.01759911 -0.05329271 -0.16999973 -0.06052801 -0.029403672 0.028855607 0.14935124 -0.10802047
0.01533016 -0.014132265 0.15234013 -0.029409 -0.1632563 0.04868679 0.0031118763 0.10120186
-0.16394025 -0.17269647 0.038423512 -0.14547507 -0.034056075 -0.031208014 0.07241302 0.04310597
-0.052342754 -0.015356641 -0.038324643 -0.07724175 -0.11330921 -0.04383998 0.02303998 -0.008974152
-0.051819608 0.0117080575 -0.106674135 -0.10481062 0.077088684 0.1393208 -0.12287197 -0.017390354
0.053035934 0.13615772 0.037857186 -0.08087843 -0.14994073 -0.000196383 0.0132867675 0.0024813942
0.06367326 -0.0313083 -0.08870502 -0.12996392 0.14085208 -0.107584104 0.00450264 -0.09920736
0.09775971 0.017540082 0.12929107 -0.13261114 0.08243341 0.11330248 -0.14441505 0.019422201
0.011771422 -0.09518397 -0.02906993 -0.022065237 0.038126267 0.031579893 -0.03363809 0.07667182
0.06777169 0.09152157 0.031026775 -0.13178633 0.09832536 -0.0744481 -0.03437371 0.052775856
0.038886737 -0.11604983 -0.07771967 0.027274018 0.06103192 -0.0642767 0.12524678 0.07534835
-0.15091479 -0.04801012 0.07841553 -0.02742248 -0.074754104 -0.025972944 0.027157404 -0.032181736
-0.06745998 0.021773124 0.06485314 0.118846044 0.05280708 0.04238569 0.051069092 0.12890847
-0.12964724 -0.035816822 -0.06721749 -0.048507385 0.08314864 0.101527125 -0.07755987 -0.059051204
0.06011645 0.056718487 0.048849966 0.03712224 -0.09775047 0.076519296 -0.11060713 -0.051578034
0.0023784083 -0.0018626337 0.003042347 -0.10613298 0.13132465 -0.08567728 0.00080058974 -0.003405202
-0.0027943137 -0.03406882 0.01571472 0.03395477 -0.08318041 0.092674606 -0.018348679 0.10622068
-0.0989244 0.11531765 0.08573238 -0.037214298 0.016246464 0.08400354 -0.111258686 0.0899809
0.063505135 -0.064099886 0.064094275 0.054910477 0.017898489 0.09315709 -0.102647744 -0.018729055
0.0103931045 0.09210181 0.07532503 -0.011720228 -0.06425858 -0.13281128 -0.0016249202 -0.03946971
-0.033842012 0.023603681 0.07569463 0.056752227 0.020693583 -0.035502832 0.049223576 0.07923164
-0.038461607 -0.11509454 0.008937188 -0.051608246 0.10948352 -0.106233165 -0.06823801 0.044572454
-0.08955586 -0.007573685 0.06614234 -0.08041039 0.049677413 0.10806685 -0.09931779 0.028309055
-0.079490915 -0.077328965 -0.11871505 0.057562802 0.078244455 -0.07770032 0.09030187 -0.05822295
0.057481676 -0.10097977 0.12723468 -0.11153527 0.05949109 0.051957306 0.03659362 0.120289564
0.058232382 0.07458187 -0.11459668 -0.08063883 -0.013512679 0.13107459 0.08835267 -0.12816122
0.071871944 0.0040551126 -0.006613367 -0.030292597 0.056535807 -0.04639618 0.052679192 -0.0844466
-0.0088645695 0.039549187 -0.03352627 0.120883524 -0.0946432 0.051869277 0.08974632 -0.02520144
0.05058995 -0.12038118 -0.05026909 -0.07887534 0.036355045 -0.048314124 -0.123817004 -0.12458403
0.0031369866 0.096918724 0.11077205 -0.019001583 -0.031050885 -0.07776973 0.10426922 -0.10489879
-0.012786962 -0.05756669 -0.13394377 0.03685451 -0.08200267 -0.038370814 0.03717449 0.049694825

decoder.6.bias f4 [118]
00000000: 287b 2bbc 085d afbc 5129 f2bc 2945 c5bd
00000010: 6d88 a0bd 47fd bbbd e62b a03b 0c3b 9b3c
00000020: 00ce e73d e17c af3c 379f b5bd 525f 093e
00000030: 8963 a8bc 89ba fd3d a69b 0a3e 94be a93c
00000040: 876d b13d 8286 2c3a 1aa5 963d c48a ab3c
00000050: 3d52 86bd 8da6 c5bd 2b11 f1bc 0a5e c9bd
00000060: 5990 783d dc66 3cbd 5abc d9bd eeb5 e6bb
00000070: 9dd1 403d 6629 2cbd dcbb 093d e5de ca3d
00000080: 2e84 87bd 2acc 9abd 60f3 9c3d a8ec 343b
00000090: ed60 2a3d 4b16 edbc f39b 873d d89e 0f3e
000000a0: cc42 923d 7b08 a7bd dd6c bdbd 1a5a 9bbd
000000b0: a154 aabb 5a46 52bd 3578 16bc f07b 07bd
000000c0: c5b1 c53d 32bc 073d b6e4 bebd 5766 cebc
000000d0: 61bc 83bd f3cd 133d 901d 883d dd1a 533d
000000e0: 3d4a 493d 054e 843d ae6a 90bd b26f b2bd
000000f0: 46d2 0ebd 68c0 d6bd c415 663c 77a5 873d
00000100: 08f0 4ebd b31c d9bd 1481 1ebd 4fc4 493d
00000110: 0ac2 adbb 70c8 28bd 72a7 aabc 58d4 a13d
00000120: 6179 a43d bb22 9ebd 15d5 213d c968 47bd
00000130: d7eb 94bd c9a6 88bd 2fc3 e0bc 7379 fd3c
00000140: 37fe 5c3c fda2 edbc 8b92 cfbb 551c e93c
00000150: 1e83 91bd 3320 07bd 7bde ed3c eee3 143d
00000160: 847a 25bc ae09 bebc 2fe7 cfbd 5bf0 8fbd
00000170: ed23 a43d 5036 9f3d 70df 5e3d 71fa e43d
00000180: a5ae 90bd f781 96bd c7a9 93bd 4b42 e6bc
00000190: 645b ac3d f5f2 bb3d 6a44 f13d c700 7b3d
000001a0: 7a7c 5ebc fb6d 94bd 415f b4bd de58 7abd
000001b0: 214b c3bd 494b 5cbd 2717 08be 8548 283d
000001c0: 1689 c73d f13c 06bd 68a3 f93d 007f 7abc
000001d0: 1c6b dcbd cdba 093d
-0.010466374 -0.021406665 -0.029560717 -0.09632332 -0.07838521 -0.09179168 0.0048880456 0.018949054
0.11318588 0.021421852 -0.088682584 0.13415268 -0.020555275 0.123890944 0.13535938 0.020720758
0.08663469 0.00065813225 0.073557094 0.020940192 -0.065586545 -0.09650908 -0.029427132 -0.0983239
0.060684536 -0.04599653 -0.10631628 -0.0070407307 0.047074903 -0.042031668 0.033626422 0.09905795
-0.06617008 -0.075584725 0.076636076 0.0027606878 0.041596342 -0.028941294 0.06621542 0.14025438
0.07141647 -0.081559144 -0.0924928 -0.07585545 -0.005198077 -0.051336624 -0.009183933 -0.03307718
0.096530475 0.03313846 -0.09320967 -0.025195284 -0.06432415 0.03608508 0.066462636 0.05153929
0.049143065 0.064601935 -0.070515975 -0.087127104 -0.0348685 -0.10485917 0.014043275 0.06623357
-0.05052188 -0.10601177 -0.038697317 0.04925948 -0.0053026723 -0.041206777 -0.020831797 0.079018295
0.08030964 -0.07721468 0.03950985 -0.048683915 -0.072715454 -0.06672437 -0.02743682 0.0309417
0.013488344 -0.029008383 -0.006334608 0.028455893 -0.07105087 -0.032989692 0.029036751 0.036350183
-0.010100011 -0.023197975 -0.10151517 -0.07028266 0.08014665 0.07774031 0.054412305 0.111805804
-0.07064561 -0.073490076 -0.07210117 -0.028107783 0.08415869 0.091772 0.11780627 0.06128004
-0.013579482 -0.072475396 -0.08807231 -0.061119907 -0.09535814 -0.053782735 -0.13290082 0.041084785
0.09742944 -0.032772962 0.121893704 -0.015289068 -0.10762617 0.033625413

estimation.0.weight f4 [10, 3]
00000000: 73b2 3cbe 7ddb 46be e223 a5be b05e 043f
00000010: 12fd b53d 088e c43e bfad 1ebe 6d18 0abe
00000020: 6c42 a03e 4d70 8a3e d447 2c3d f4b5 9fbe
00000030: 7ade 57be b434 193e 893d e3be b684 42bd
00000040: da24 da3e a7c0 723e a570 34be 89da f4bd
00000050: 9bd7 afbe f5f7 cd3d 2a87 86be 9c46 343e
00000060: a8b5 c9be 61ae 173f acb2 e3bd 6a78 b1be
00000070: 3da2 153f f049 323e
-0.18427448 -0.19419666 -0.3225394 0.5170698 0.0888616 0.3838961 -0.15495966 -0.1348588
0.31300676 0.27038804 0.04206069 -0.31193507 -0.21080962 0.14961511 -0.44382885 -0.047489844
0.4260624 0.23706304 -0.17621095 -0.11955745 -0.3434418 0.1005706 -0.26274997 0.1760506
-0.39396405 0.59250456 -0.11118063 -0.3466218 0.5845068 0.17411017

estimation.0.bias f4 [10]
00000000: fa2e 573f 5584 0cbf 3257 dabe e0d2 ec3e
00000010: 3953 8f3d 15a6 1b3f bc2b 34bf 0d3d 963e
00000020: c2c8 343f ae17 e73e
0.84056056 -0.5488942 -0.4264465 0.46254635 0.06998295 0.60800296 -0.70379233 0.29343453
0.7061883 0.45135254

estimation.3.weight f4 [4, 10]
00000000: bccc 99be d5e4 dc3e 073b 12bb a414 a0be
00000010: 8b2f cc3c dc71 8fbe 3faf 813e 6195 47be
00000020: 7b48 8cbd 2963 b83d 73a3 01bf 59fe 15be
00000030: 4b6c 973e de67 ef3c 4859 97be 3d4b 76be
00000040: 1f0c 0e3e 71ad df3b 8f26 01be 69ef c9be
00000050: cd52 133f 5589 0dbe 1f9c 02bf be1b bc3e
00000060: 0cea 6b3e 9ffb b33e 1813 86be 63c7 1ebe
00000070: 49ce 963e b223 fa3e 722d b93c c594 203d
00000080: f32b a13e 9859 1cbe b261 2cbe dc94 e1be
00000090: a447 ac3e 16dc e93d 7781 d8be 0874 f1be
-0.30039012 0.43143335 -0.0022313015 -0.31265748 0.024925014 -0.28016555 0.25329015 -0.19490577
-0.06849762 0.09003288 -0.5064003 -0.14647807 0.29574808 0.029224332 -0.29560304 -0.24052139
0.13871811 0.0068260957 -0.12612365 -0.39440468 0.5754822 -0.1382192 -0.5101947 0.36739916
0.230385 0.3515291 -0.26186442 -0.15505747 0.29454258 0.48855358 0.022604678 0.039204378
0.31478843 -0.15268552 -0.16834143 -0.44058883 0.33648407 0.11418931 -0.42286274 -0.47158837

estimation.3.bias f4 [4]
00000000: 10c7 8abe b0cf 99be cdcd 6b3e 51a3 53bd
-0.27104998 -0.30041265 0.23027726 -0.051669423
