Baseline-models/DAGMM/DAGMM-ROAD/no--dagmm/models/26_194_dagmm.pth (torch, 82200 bytes, 22 tensors)

phi f4 [4]
0.04179107 0.033805758 0.8918087 0.032594424
00000000: 1d2d 2b3d e877 0a3d 934d 643f bb81 053d

mu f4 [4, 3]
0.37502477 1.1208816 -0.09253883 0.39364943 1.0988995 -0.038418885 0.24107122 1.2799283
-0.4823554 0.38325012 1.1113237 -0.068729386
00000000: 3f03 c03e 0c79 8f3f 0085 bdbd 6b8c c93e
00000010: bda8 8c3f 1f5d 1dbd 60db 763e b1d4 a33f
00000020: 49f7 f6be 5c39 c43e db3f 8e3f fec1 8cbd

cov f4 [4, 3, 3]
0.09108835 -0.10804521 0.26500517 -0.10804521 0.12818047 -0.3143494 0.26500517 -0.3143494
0.7709938 0.09191237 -0.109019645 0.2673954 -0.109019645 0.12933375 -0.31717727 0.2673954
-0.31717727 0.7779283 0.06377747 -0.075635895 0.18552819 -0.075635895 0.089726456 -0.22004141
0.18552819 -0.22004141 0.5397145 0.09154169 -0.108571306 0.26631948 -0.108571306 0.12879221
-0.31587568 0.26631948 -0.31587568 0.7748051
00000000: 878c ba3d cf46 ddbd c2ae 873e cf46 ddbd
00000010: be41 033e 68f2 a0be c2ae 873e 68f2 a0be
00000020: da5f 453f 8d3c bc3d b145 dfbd 0de8 883e
00000030: b145 dfbd 1170 043e 0f65 a2be 0de8 883e
00000040: 0f65 a2be 4f26 473f c39d 823d fee6 9abd
00000050: 1afb 3d3e fee6 9abd 81c2 b73d 8952 61be
00000060: 1afb 3d3e 8952 61be bb2a 0a3f 367a bb3d
00000070: a25a debd 075b 883e a25a debd 1be2 033e
00000080: 75ba a1be 075b 883e 75ba a1be a159 463f

encoder.0.weight f4 [60, 118]
-0.020818647 0.08068035 0.022644466 0.006979621 0.087254904 -0.029035648 0.038570557 0.056379758
-0.06457449 0.068138644 0.03900445 0.015128435 0.048894912 0.051254652 -0.06337069 -0.036081005
0.08339945 -0.044182446 -0.020953244 -0.070305265 -0.018608417 -0.02617482 0.034787364 -0.049751673
0.09111635 0.06544445 0.09262544 -0.029038994 -0.037443697 -0.08797902 -0.08341779 -0.014683106
0.059990253 0.03680197 -0.03749416 0.05767557 -0.01697458 -0.05106136 -0.012540986 -0.05452058
0.04954178 0.045089077 0.026085481 0.0033820195 -0.02517557 0.015558075 -0.07266652 -0.029529095
-0.04800083 -0.07608633 -0.034581624 -0.017462859 -0.019385884 -0.006125414 0.00733576 -0.08009344
-0.036374044 -0.0075914906 0.00070213346 -0.01358337 -0.0062211454 -0.027026985 0.08791454 0.03746278
0.08714627 0.08061085 0.07094656 -0.06624525 0.04567274 0.0761465 0.082798846 0.033220388
0.06458899 -0.053746503 0.034791518 -0.078854084 -0.030487446 -0.022010539 -0.07254473 0.0012512781
-0.026084425 0.032889046 -0.044975996 -0.0032905515 0.060798474 -0.006963663 -0.075004406 0.022405995
-0.09564833 0.08358597 0.010930892 0.015881848 -0.0647524 0.023453638 0.040549684 0.08176943
0.032042176 0.00014427304 0.066220306 -0.041153062 0.06612311 0.057806946 -0.052214686 -0.03783356
-0.00880447 0.05028712 -0.00093129394 -0.06695648 0.0506471 0.03310468 -0.03683292 0.014352812
-0.017514652 -0.0646254 0.066341996 -0.018724076 0.04927693 -0.01301638 -0.025829671 0.058074392
0.0888137 0.0013174512 -0.0047627776 -0.058682274 -0.059455555 0.043580938 0.0029183489 0.057009734
0.055060815 0.042027872 -0.0062760105 0.04315203 -0.024367705 -0.022189775 0.04918864 -0.020397492
0.056745097 -0.022114512 0.04847977 0.077728055 0.020855313 -0.034258977 0.026334029 -0.05157018
-0.042806048 -0.099759 0.08232988 -0.07226218 0.01810449 0.014650145 0.0820216 0.019343553
0.025994219 -0.053747654 0.04499342 0.0874952 -0.0631462 -0.012119279 -0.079838954 0.01855854
0.02734501 -0.027333694 -0.008104552 -0.025277266 -0.014932443 0.047783703 0.0824123 0.08921861
-0.0295907 0.015542911 -0.06449443 0.067558676 -0.06479255 0.041690893 -0.01740564 0.062763855
0.08718295 -0.008721095 0.08877542 -0.014831563 0.06607514 0.020864725 0.08773152 0.055995513
-0.0003841932 0.020474745 0.00783372 -0.046129975 -0.035810344 -0.026543822 0.059910998 0.058052648
0.06764648 -0.03353979 -0.008514293 0.067467734 0.03651036 0.00944647 0.0020591414 0.027561177
-0.06596782 -0.06965609 -0.07963189 0.04495891 -0.004285101 -0.14501277 -0.008023819 -0.022021703
0.06305652 0.0063979873 -0.07604678 0.06945181 -0.026981637 -0.038220376 -0.05147214 -0.06191109
-0.023384916 -0.07834049 -0.0104827145 -0.05512447 0.111795925 -0.028220514 0.08336318 -0.039671674
0.00626707 0.031703427 -0.017619738 -0.0959417 -0.012819715 0.02900697 -0.026707685 0.008529087
0.00967405 0.094782226 -0.044901263 -0.021396302 -0.013460035 -0.052119024 0.013144483 -0.05565309
0.036117323 -0.09944489 -0.09847299 0.03618073 0.0660094 -0.01600152 -0.003164039 -0.0018893959
0.06721542 0.03443213 0.008236662 0.046284582 0.020875756 0.004082643 -0.0012464117 0.071674064
00000000: de8b aabc bd3b a53d e380 b93c 4eb5 e43b
00000010: b3b2 b23d 2bdc edbc 29fc 1d3d 76ee 663d
00000020: a13f 84bd 468c 8b3d 21c3 1f3d 41dd 773c
00000030: 0846 483d 66f0 513d 7ec8 81bd adc9 13bd
00000040: 55cd aa3d a7f8 34bd 23a6 abbc 35fc 8fbd
00000050: ae70 98bc 936c d6bc 327d 0e3d 69c8 4bbd
00000060: 359b ba3d bd07 863d 68b2 bd3d 2fe3 edbc
00000070: 905e 19bd 582e b4bd f2d6 aabd 6991 70bc
00000080: 57b8 753d aabd 163d 7a93 19bd 383d 6c3d
00000090: 460e 8bbc b725 51bd b578 4dbc f950 5fbd
000000a0: 52ec 4a3d 53af 383d 38b1 d53c dfa4 5d3b
000000b0: ff3c cebc 4ce7 7e3c 2fd2 94bd 00e7 f1bc
000000c0: 859c 44bd 26d3 9bbd 76a5 0dbd 450e 8fbc
000000d0: 25cf 9ebc b2b7 c8bb d160 f03b 0808 a4bd
000000e0: f3fc 14bd 0ac2 f8bb 610f 383a c88c 5ebc
000000f0: c0da cbbb b267 ddbc 8a0c b43d 9272 193d
00000100: be79 b23d 4d17 a53d 6e4c 913d 97ab 87bd
00000110: 5713 3b3d b2f2 9b3d 7192 a93d 1a12 083d
00000120: 3b47 843d 4b25 5cbd 8d81 0e3d 407e a1bd
00000130: cfc0 f9bc 724f b4bc 5592 94bd ed01 a43a
00000140: 01af d5bc aab6 063d c038 38bd 4ba6 57bb
00000150: d207 793d 702f e4bb e99b 99bd c78c b73c
00000160: 46e3 c3bd 1f2f ab3d 7c17 333c a61a 823c
00000170: e89c 84bd d821 c03c 6d17 263d bb76 a73d
00000180: a83e 033d 0048 1739 839e 873d 1d90 28bd
00000190: 8e6b 873d fac6 6c3d 11df 55bd 5df7 1abd
000001a0: a040 10bc def9 4d3d 1422 74ba 7b20 89bd
000001b0: 5573 4f3d c698 073d 1ede 16bd 0f28 6b3c
000001c0: e37a 8fbc 525a 84bd 50de 873d 3c63 99bc
000001d0: 9bd6 493d a842 55bc bf98 d3bc 6adf 6d3d
000001e0: f5e3 b53d 54ae ac3a 1311 9cbb d35c 70bd
000001f0: ab87 73bd ed81 323d c541 3f3b 0a83 693d
00000200: 7387 613d 6b25 2c3d fea6 cdbb 2fc0 303d
00000210: c89e c7bc 55c7 b5bc 077a 493d a418 a7bc
00000220: 8c6d 683d 7e29 b5bc b992 463d e32f 9f3d
00000230: c3d8 aa3c 2453 0cbd 76ba d73c 413b 53bd
00000240: 6555 2fbd 724e ccbd 919c a83d 32fe 93bd
00000250: de4f 943c 2907 703c f1fa a73d 5f76 9e3c
00000260: d4f1 d43c 8026 5cbd 054b 383d af30 b33d
00000270: cb52 81bd f18f 46bc 9b82 a3bd 1408 983c
00000280: a402 e03c e9ea dfbc f4c8 04bc 4512 cfbc
00000290: 35a7 74bc d8b8 433d c8c7 a83d 3fb8 b63d
000002a0: 3268 f2bc b2a7 7e3c a815 84bd 345c 8a3d
000002b0: f5b1 84bd 12c4 2a3d 4696 8ebc 568a 803d
000002c0: f98c b23d ece2 0ebc e3cf b53d 1600 73bc
000002d0: 6752 873d 80ec aa3c 95ac b33d 8d5b 653d
000002e0: 8a6d c9b9 a7ba a73c 0159 003c c9f2 3cbd
000002f0: dead 12bd 6e72 d9bc 3c65 753d 9dc8 6d3d
00000300: 3d8a 8a3d 0561 09bd 887f 0bbc 862c 8a3d
00000310: e38b 153d 5ec5 1a3c a9f2 063b fac7 e13c
00000320: 231a 87bd daa7 8ebd 0b16 a3bd d626 383d
00000330: 086a 8cbb 3a7e 14be 5676 03bc dc66 b4bc
00000340: c723 813d 35a6 d13b 6abe 9bbd c03c 8e3d
00000350: 9808 ddbc f88c 1cbd 73d4 52bd 7c96 7dbd
00000360: b991 bfbc fb70 a0bd b1bf 2bbc 32ca 61bd
00000370: 43f5 e43d b52e e7bc 51ba aa3d c47e 22bd
00000380: fe5b cd3b 74db 013d 4557 90bc 157d c4bd
00000390: c809 52bc 06a0 ed3c 13ca dabc 95bd 0b3c
000003a0: e87f 1e3c 2f1d c23d 63ea 37bd 4c47 afbc
000003b0: 7b87 5cbc c27a 55bd f55b 573c 7ff4 63bd
000003c0: c2ef 133d c3a9 cbbd 35ac c9bd 3f32 143d
000003d0: f02f 873d 9f15 83bc c45b 4fbb 9ba5 f7ba
000003e0: 3da8 893d b508 0d3d 10f3 063c e794 3d3d
000003f0: a203 ab3c b1c7 853b a35e a3ba dac9 923d

encoder.0.bias f4 [60]
0.03192233 0.088707246 -0.0043414817 0.031844832 -0.070360616 0.039487906 -0.1014237 -0.035629828
0.05383719 0.06707311 -0.014289736 -0.042508654 -0.043316625 0.06611457 -0.038056236 -0.0753473
-0.0062993034 0.074554324 -0.04556002 0.12941128 -0.008112987 0.05975649 -0.12339149 -0.01808251
0.025785048 0.006319663 0.050722014 -0.038652208 -0.027384 0.08981157 0.039419573 -0.023052992
0.07904349 -0.078906074 0.014476541 -0.076282576 0.081405975 0.12100926 -0.060656995 -0.0033501242
-0.061178908 -0.018406212 0.030854963 -0.0141547825 -0.04667845 -0.023387237 0.04159423 -0.027671533
-0.034159835 -0.026752377 -0.04461277 -0.03853301 -0.08113702 -0.0375005 -0.017963806 -0.01190343
0.038872547 -0.0031051352 -0.022415875 0.05823021
00000000: fdc0 023d 25ac b53d fd42 8ebb ba6f 023d
00000010: 3a19 90bd 12be 213d 3bb7 cfbd 95f0 11bd
00000020: 6384 5c3d a05d 893d 7f1f 6abc 8e1d 2ebd
00000030: c66c 31bd 1367 873d dbe0 1bbd af4f 9abd
00000040: 636a cebb f0af 983d 259d 3abd 6484 043e
00000050: 55ec 04bc 39c3 743d adb4 fcbd c621 94bc
00000060: 2a3b d33c 2d15 cf3b e3c1 4f3d c751 1ebd
00000070: 6954 e0bc 21ef b73d 6b76 213d a1d9 bcbc
00000080: 8ee1 a13d 8299 a1bd 042f 6d3c 0a3a 9cbd
00000090: 2db8 a63d b4d3 f73d 7873 78bd c28d 5bbb
000000a0: bc96 7abd a0c8 96bc 8cc3 fc3c 76e9 67bc
000000b0: e731 3fbd 9796 bfbc b65e 2a3d 69af e2bc
000000c0: 2feb 0bbd cd27 dbbc e1bb 36bd cad4 1dbd
000000d0: 2a2b a6bd 209a 19bd d528 93bc 9b06 43bc
000000e0: d238 1f3d 867f 4bbb 7fa1 b7bc cd82 6e3d

encoder.2.weight f4 [30, 60]
-0.11708131 0.11046485 -0.061815895 -0.026171869 -0.1043763 0.065890335 -0.07054967 0.08334131
0.082761265 -0.0591017 0.06031155 -0.018698487 -0.11010871 -0.081343435 0.10463708 0.04762667
0.003658341 -0.034374215 0.116147965 -0.026227616 0.10478602 -0.11438431 -0.116873465 0.019420566
0.09334022 0.03935491 -0.0017151522 0.015821608 0.11149286 -0.12609845 0.009225639 -0.07953769
0.021512462 0.0027547495 -0.03915215 0.01785374 0.08172049 0.007309549 0.0066275443 0.05978034
0.12900643 -0.078819565 -0.08758246 -0.10866493 -0.12288566 -0.009384361 -0.05251396 -0.1134448
-0.05880418 0.022401923 0.10103253 0.1204048 0.06890963 -0.037001625 0.0063508023 0.0060601267
-0.1033722 0.1325535 -0.117233805 0.10527702 -0.08475321 0.013598065 0.09934228 -0.07074055
0.09637711 -0.071872324 0.07902655 0.11363411 0.10040553 0.049260236 0.032078415 0.10983866
0.044143315 -0.04974908 0.03845219 -0.1016416 -0.063199095 0.018436795 0.043310445 -0.039433017
-0.110995755 0.03365465 6.853068e-05 -0.01995141 -0.012696371 0.027344218 0.09583416 0.118724294
0.06056922 -0.036334284 0.023370756 -0.114253685 0.07892758 -0.09162844 -0.032741413 0.10239079
0.063257836 -0.10751308 0.08546171 0.08730634 0.0648363 0.06396448 -0.07386755 -0.115616895
0.084660076 -0.018057976 0.062411673 0.0769493 0.07755578 -0.08248478 -0.11390351 -0.0315939
-0.06287759 -0.09725713 0.08262325 0.12745108 -0.04104714 0.07176895 0.064912066 0.044878274
-0.035960816 -0.08462294 -0.026780754 0.03343481 0.08438035 0.042383265 0.09853805 -0.05752781
-0.05085901 -0.0571198 -0.08834034 -0.018828997 -0.076039106 0.064445436 0.039485022 -0.03419737
0.0840942 0.07040237 -0.10782818 -0.0073168897 0.029546082 0.068225995 -0.12835047 -0.13169602
-0.13348345 0.0027760097 0.13110024 0.0661475 -0.12268069 0.10373441 -0.070691325 -0.0833453
0.12639184 0.036599588 0.060090896 -0.0061656022 0.019218422 0.006540762 0.03395565 0.0022973358
-0.124570794 0.13801429 0.09929978 -0.012740024 -0.018061917 0.09965515 0.11093276 0.053494826
0.068548396 -0.10249807 0.062313307 0.11284899 -0.075328775 0.13308334 -0.09012699 -0.12703659
-0.07283417 -0.016522573 -0.11218392 -0.047557015 0.09919943 0.062210638 -0.010116374 -0.01821136
-0.121958554 0.13026424 -0.055649415 0.0020444302 -0.056334127 -0.08315036 -0.12811495 -0.109170265
-0.015798267 0.0528194 0.08447401 -0.032653652 0.0046577575 0.07155674 0.06154485 0.12907174
-0.025875336 -0.035122953 -0.009687416 0.08293976 0.029815746 -0.13180333 0.090320066 0.000294014
-0.11023677 0.13578634 -0.07982348 0.0023978932 -0.07352954 -0.08641931 -0.100154765 0.074024804
0.057039816 -0.051083628 0.07604769 -0.10293044 -0.039407026 0.012581046 0.10063418 0.096804634
-0.07914915 0.03671506 -0.028122745 0.09025847 -0.08061708 -0.114456125 -0.033799924 0.045636185
-0.045173448 0.052448276 -0.1231796 -0.10671071 0.043458916 -0.12753025 0.048151724 0.021986347
0.10521382 -0.034090076 -0.015277135 -0.13211296 -0.07056038 -0.07912789 -0.13644247 -0.07650562
0.10266448 -0.07687432 -0.1453129 -0.12487805 -0.098023735 0.06858108 -0.098681785 -0.06309049
00000000: 53c8 efbd 653b e23d aa32 7dbd 6366 d6bc
00000010: 3ec3 d5bd 83f1 863d 587c 90bd d9ae aa3d
00000020: bd7e a93d a014 72bd 3e09 773d 922d 99bc
00000030: ad80 e1bd 6397 a6bd f74b d63d 2f14 433d
00000040: c7c0 6f3b facb 0cbd fcde ed3d 4cdb d6bc
00000050: 0e9a d63d 5242 eabd 5b5b efbd e117 9f3c
00000060: 2829 bf3d 9d32 213d f5ce e0ba 519c 813c
00000070: 5e56 e43d f41f 01be 2227 173c a8e4 a2bd
00000080: e73a b03c 0789 343b 015e 20bd 0242 923c
00000090: 125d a73d f184 ef3b df2b d93b 3bdc 743d
000000a0: 431a 043e 276c a1bd 6f5e b3bd b88b debd
000000b0: 7aab fbbd ddc0 19bc e118 57bd bf55 e8bd
000000c0: a7dc 70bd 3d84 b73c 25ea ce3d cb96 f63d
000000d0: 7e20 8d3d 048f 17bd 641a d03b 0794 c63b
000000e0: ceb4 d3bd 1bbc 073e 4718 f0bd 7a9b d73d
000000f0: 1793 adbd 6bca 5e3c f773 cb3d 6ce0 90bd
00000100: 5d61 c53d cc31 93bd acd8 a13d 00b9 e83d
00000110: 6aa1 cd3d 1ac5 493d a864 033d 17f3 e03d
00000120: 9fcf 343d b1c5 4bbd 0b80 1d3d 7929 d0bd
00000130: 876e 81bd c308 973c 4b66 313d 8484 21bd
00000140: be51 e3bd 75d9 093d 21b8 8f38 2471 a3bc
00000150: 7104 50bc fb00 e03c b344 c43d b925 f33d
00000160: 6e17 783d 42d3 14bd 0774 bf3c d6fd e9bd
00000170: c8a4 a13d b1a7 bbbd dc1b 06bd 43b2 d13d
00000180: 538d 813d d12f dcbd 8d06 af3d abcd b23d
00000190: e5c8 843d cfff 823d df47 97bd 8dc8 ecbd
000001a0: 4362 ad3d 52ee 93bc 62a3 7f3d 9897 9d3d
000001b0: 91d5 9e3d c8ed a8bd 3e46 e9bd 9b68 01bd
000001c0: f7c5 80bd bf2e c7bd 6136 a93d 8982 023e
000001d0: 0c21 28bd 99fb 923d 9ef0 843d 48d2 373d
000001e0: a64b 13bd cb4e adbd 5063 dbbc f0f2 083d
000001f0: 9bcf ac3d 139a 2d3d 51ce c93d 48a2 6bbd
00000200: 8a51 50bd 74f6 69bd c8eb b4bd 453f 9abc
00000210: 64ba 9bbd f8fb 833d 0cbb 213d 8b12 0cbd
00000220: 9439 ac3d 1e2f 903d 05d5 dcbd 85c2 efbb
00000230: a00a f23c 12ba 8b3d 4e6e 03be 52db 06be
00000240: e3af 08be b7ed 353b 243f 063e 5778 873d
00000250: 0340 fbbd b572 d43d 9dc6 90bd f1b0 aabd
00000260: dd6c 013e 73e9 153d df21 763d d208 cabb
00000270: f46f 9d3c e353 d63b 1415 0b3d e68e 163b
00000280: f91e ffbd 9e53 0d3e af5d cb3d 89bb 50bc
00000290: 96f6 93bc 0018 cc3d b730 e33d 641d 5b3d
000002a0: 1a63 8c3d 82ea d1bd 3d3c 7f3d 5f1d e73d
000002b0: f945 9abd 0047 083e 8094 b8bd e115 02be
000002c0: 152a 95bd 595a 87bc afc0 e5bd 25cb 42bd
000002d0: 1229 cb3d 95d0 7e3d 26bf 25bc fd2f 95bc
000002e0: 68c5 f9bd fd63 053e a4f0 63bd d9fb 053b
000002f0: 9dbe 66bd bc4a aabd 9130 03be a994 dfbd
00000300: 5e6b 81bc 2859 583d b600 ad3d d6bf 05bd
00000310: 1aa0 983b 578c 923d 7416 7c3d 622b 043e
00000320: 83f8 d3bc 16dd 0fbd f8b7 1ebc 52dc a93d
00000330: 2740 f43c 74f7 06be baf9 b83d e425 9a39
00000340: d1c3 e1bd 930b 0b3e 7e7a a3bd f925 1d3b
00000350: a896 96bd 9bfc b0bd f11d cdbd 519a 973d
00000360: 95a2 693d 113d 51bd e4be 9b3d 32cd d2bd
00000370: 4369 21bd bb20 4e3c 4b19 ce3d 8241 c63d
00000380: f318 a2bd 8862 163d ac61 e6bc 6fd9 b83d
00000390: 911a a5bd f967 eabd ca71 0abd 02ed 3a3d
000003a0: cb07 39bd 01d4 563d 9645 fcbd 258b dabd
000003b0: fa01 323d 4a97 02be be3a 453d b61c b43c
000003c0: 587a d73d 09a2 0bbd f34c 7abc 9f48 07be
000003d0: f681 90bd ce0d a2bd 93b7 0bbe faae 9cbd
000003e0: c141 d23d 4970 9dbd e8cc 14be 10c0 ffbd
000003f0: abc0 c8bd 3d74 8c3d ad19 cabd 9635 81bd

encoder.2.bias f4 [30]
-0.11548176 -0.02897121 0.106009305 -0.012578621 0.085564055 -0.00024225697 0.083446965 0.03589085
0.012141959 -0.033511795 -0.06657196 0.10914529 0.04741574 0.0033900337 0.124405056 0.02678212
0.007528642 0.074190214 0.07310474 0.01795928 0.04654612 0.05799015 -0.027767077 0.07010191
0.08383634 0.1137591 0.038550973 0.04491883 0.10366775 0.07143557
00000000: b381 ecbd 0855 edbc 681b d93d 8f16 4ebc
00000010: 353c af3d 5c06 7eb9 3ee6 aa3d 4902 133d
00000020: 11ef 463c aa43 09bd e156 88bd 9187 df3d
00000030: 0237 423d 542b 5e3b 14c8 fe3d 2d66 db3c
00000040: d4b2 f63b 0af1 973d f0b7 953d 571f 933c
00000050: 25a7 3e3d 1487 6d3d c877 e3bc 9791 8f3d
00000060: 63b2 ab3d 88fa e83d a0e7 1d3d cffc 373d
00000070: c24f d43d d04c 923d

encoder.4.weight f4 [10, 30]
-0.16247052 0.1602898 -0.06350336 -0.04272959 0.10952034 0.013857794 -0.05175371 -0.1319119
-0.16622671 -0.05332661 0.07663296 -0.16434707 0.05636296 0.19590057 0.026381852 0.16199894
0.054511487 -0.18680967 -0.018893175 0.13543989 -0.07608634 -0.015750038 -0.1050824 0.111537665
-0.027493853 -0.063926764 0.09604406 0.15331143 0.13130032 0.02606642 0.16449763 -0.083907425
-0.051808458 -0.109339 0.051881302 -0.14137475 0.09385958 0.095388964 -0.123051815 0.068664424
-0.021559384 -0.15852334 0.14861137 -0.041642044 -0.056548607 -0.07945835 0.044246264 -0.16891736
-0.123640254 0.15634082 0.16992523 -0.11297254 0.10208834 0.044405274 -0.15161848 -0.16788062
0.06901049 0.09778348 -0.18102953 0.00070272305 -0.1301959 -0.07176667 -0.021676969 0.16214655
0.073467396 -0.13795981 -0.053194012 0.17767455 -0.03867464 -0.0322043 -0.04099916 -0.15754251
-0.11756276 0.14230363 -0.112500735 -0.015403234 0.16349874 0.13966872 -0.16576916 0.010014823
-0.17995113 -0.044800606 -0.028312411 0.039105725 -0.059761688 0.17088985 -0.11320278 0.1441532
0.17506786 0.014983486 -0.103921875 0.008400419 0.07253115 0.019115895 0.17521478 -0.031664647
0.19226319 -0.056946166 -0.18082266 -0.049261276 -0.007598123 0.13395296 -0.028345533 0.13589144
0.16424033 0.047339197 0.026013464 -0.0166589 -0.04722147 0.082896665 -0.034511756 -0.11809368
0.044035148 0.13056527 -0.015973752 -0.0459744 0.05376013 0.15012622 -0.14571378 -0.1135578
0.18762086 0.00052058813 -0.11249102 -0.16096613 -0.013724254 -0.076793425 -0.17418395 -0.02239196
0.08155598 0.0558438 -0.11208469 0.07245365 -0.0066440096 -0.15466309 -0.0046543097 -0.05503993
-0.16510276 -0.12960535 0.02850977 -0.096702114 -0.13799393 -0.0055273813 -0.11737315 -0.111560784
-0.06613626 0.08085511 0.012568704 -0.0028260492 -0.16648914 0.005740572 -0.06123902 0.08550868
-0.052500486 0.15353107 0.06386716 0.039170384 0.108062916 -0.07471803 -0.13394377 0.038955968
-0.120116174 -0.00745036 -0.15751441 0.12211642 0.14798255 0.13501601 0.101605825 -0.17585193
-0.102191396 -0.08487211 -0.0030776737 -0.035571344 0.11017448 0.0582856 0.11169553 0.08671955
-0.14969413 -0.041537944 0.034762137 -0.16917744 0.0753012 -0.07412576 0.033276502 0.12691112
0.101000644 -0.16347955 0.031430826 -0.105109334 0.15853557 0.12266653 0.17753167 0.059033535
0.07208892 -0.026131924 0.0211613 -0.1421537 -0.12733617 -0.08946902 0.05820306 -0.123854816
-0.15628998 -0.110906065 0.1917983 -0.08133773 -0.1403983 0.070551835 -0.19038811 0.13139476
0.12230504 -0.019211348 0.0067733643 0.06919651 -0.042933375 0.021666566 -0.1116027 0.06040001
0.07070355 0.13092451 -0.06885749 0.104568616 -0.112277836 0.12831017 0.074690655 0.06601671
-0.08817291 -0.17285225 -0.16712491 -0.14473869 -0.03891826 0.03939497 -0.07303935 -0.06515561
0.14132534 0.0848049 -0.1449606 0.07638101 0.12331347 -0.08283237 0.1753553 0.020489592
-0.0105171595 0.13168299 -0.07364574 0.08298954 0.008807698 -0.11217619 0.102170624 -0.14813592
0.14432484 0.054061666 -0.12350286 -0.057794113 0.19533817 0.19859444 0.036103893 0.15132907
00000000: ac5e 26be 0223 243e 0d0e 82bd 3905 2fbd
00000010: 334c e03d cd0b 633c b3fb 53bd ea13 07be
00000020: 5637 2abe 016d 5abd bef1 9c3d 994a 28be
00000030: d9dc 663d 299a 483e c11e d83c 0de3 253e
00000040: 7047 5f3d 094b 3fbe dcc5 9abc c1b0 0a3e
00000050: 28d3 9bbd 3906 81bc 7135 d7bd dc6d e43d
00000060: ca3a e1bc 09ec 82bd c0b2 c43d acfd 1c3e
00000070: 9773 063e 3f89 d53c 1172 283e a8d7 abbd
00000080: 1b35 54bd 20ed dfbd 7d81 543d 8bc4 10be
00000090: 7439 c03d 4a5b c33d 9702 fcbd ef9f 8c3d
000000a0: 4e9d b0bc f153 22be 942d 183e d990 2abd
000000b0: 839f 67bd 0fbb a2bd 923b 353d acf8 2cbe
000000c0: 1a37 fdbd cf17 203e e100 2e3e 265e e7bd
000000d0: b113 d13d 4ee2 353d e041 1bbe e6e8 2bbe
000000e0: 5f55 8d3d b542 c83d ce5f 39be f236 383a
000000f0: 1352 05be 67fa 92bd e693 b1bc bf09 263e
00000100: 1376 963d 5645 0dbe f7e1 59bd 51f0 353e
00000110: 4d69 1ebd a8e8 03bd bcee 27bd d352 21be
00000120: bfc4 f0bd 0bb8 113e c966 e6bd d95d 7cbc
00000130: 376c 273e 5105 0f3e 64bf 29be 3615 243c
00000140: 1c45 38be d780 37bd 6eef e7bc 532d 203d
00000150: acc8 74bd c0fd 2e3e dcd6 e7bd e59c 133e
00000160: fd44 333e 4c7d 753c fed4 d4bd e9a1 093c
00000170: 368b 943d f098 9c3c 816b 333e cab2 01bd
00000180: a4e0 443e 6240 69bd 9329 39be 31c6 49bd
00000190: adf9 f8bb f72a 093e e434 e8bc 2027 0b3e
000001a0: 9e2e 283e bfe6 413d 301a d53c 3f78 88bc
000001b0: 4d6b 41bd bac5 a93d 335c 0dbd 19db f1bd
000001c0: 335e 343d e7b2 053e 63db 82bc a74f 3cbd
000001d0: 9533 5c3d b0ba 193e fe35 15be fe90 e8bd
000001e0: af1f 403e 1478 083a b161 e6bd 4ed4 24be
000001f0: b2db 60bc df45 9dbd 475d 32be 586f b7bc
00000200: d206 a73d 78bc 643d a88c e5bd 9462 943d
00000210: feb5 d9bb 0060 1ebe 2e83 98bb 8d71 61bd
00000220: b310 29be 44b7 04be 528d e93c c20b c6bd
00000230: 484e 0dbe 091f b5bb 5661 f0bd fb79 e4bd
00000240: 7372 87bd 5d97 a53d f7ec 4d3c 3d35 39bb
00000250: 217c 2abe 691b bc3b c4d5 7abd 2d1f af3d
00000260: c00a 57bd 4037 1d3e c9cc 823d 2071 203d
00000270: 1750 dd3d c405 99bd 8e28 09be 4b90 1f3d
00000280: 78ff f5bd 2622 f4bb 754b 21be 2c18 fa3d
00000290: bd88 173e a341 0a3e b716 d03d 8712 34be
000002a0: b949 d1bd 6ed1 adbd ccb2 49bb 42b3 11bd
000002b0: 28a3 e13d e2bc 6e3d a0c0 e43d 059a b13d
000002c0: 6b49 19be b123 2abd be62 0e3d da3c 2dbe
000002d0: 8437 9a3d 3fcf 97bd f14c 083d fdf4 013e
000002e0: 6dd9 ce3d 2f67 27be 9cbd 003d 9043 d7bd
000002f0: 2657 223e 9738 fb3d ddca 353e 26cd 713d
00000300: 5ba3 933d 9e12 d6bc 765a ad3c bd90 11be
00000310: 6a64 02be 893b b7bd 5566 6e3d 98a7 fdbd
00000320: 7b0a 20be b822 e3bd c666 443e 6594 a6bd
00000330: 92c4 0fbe 7b7d 903d 1af5 42be 598c 063e
00000340: 117b fa3d 1e61 9dbc 19f3 dd3b e6b6 8d3d
00000350: e8da 2fbd 157e b13c f58f e4bd 0066 773d
00000360: 06cd 903d 1311 063e 2805 8dbd 1228 d63d
00000370: ecf1 e5bd be63 033e 6af7 983d c533 873d
00000380: 0094 b4bd 2e00 31be cb22 2bbe 6136 14be
00000390: c168 1fbd 9f5c 213d a895 95bd 4e70 85bd
000003a0: 97b7 103e 31ae ad3d 8d70 14be a66d 9c3d
000003b0: c68b fc3d 05a4 a9bd 5790 333e cad9 a73c
000003c0: 2a50 2cbc e8d7 063e 94d3 96bd 6cf6 a93d
000003d0: 2a4e 103c a1bc e5bd d53e d13d f1b0 17be
000003e0: e4c9 133e c46f 5d3d 11ef fcbd 85b9 6cbd
000003f0: bb06 483e 575c 4b3e ade1 133d 02f6 1a3e

encoder.4.bias f4 [10]
-0.06700329 -0.07463214 0.03843953 -0.046107985 0.072256126 0.15101823 -0.12325676 -0.09032949
-0.06360425 -0.028941225
00000000: 0539 89bd bcd8 98bd c572 1d3d badb 3cbd
00000010: 05fb 933d 86a4 1a3e 0a6e fcbd abfe b8bd
00000020: f242 82bd 2616 edbc

encoder.6.weight f4 [1, 10]
-0.3120531 -0.026181543 0.31997874 0.22654678 -0.11986635 -0.0021470585 0.18600883 0.032133542
-0.33158448 -0.20208642
00000000: 6dc5 9fbe ad7a d6bc 41d4 a33e e1fb 673e
00000010: 7d7c f5bd aab5 0cbb 1979 3e3e 769e 033d
00000020: 71c5 a9be beef 4ebe

decoder.0.weight f4 [10, 1]
0.35321876 -0.7471674 0.4101585 0.8968196 -0.6923333 -0.4324366 0.472583 0.9151501
0.25007948 -0.63847816
00000000: 17d9 b43e 5d46 3fbf 4b00 d23e f895 653f
00000010: c13c 31bf 5468 ddbe 66f6 f13e 4747 6a3f
00000020: 6b0a 803e 4e73 23bf

decoder.0.bias f4 [10]
0.99500835 -0.2010218 0.10189357 0.0065628937 0.28592002 -0.49209073 -0.0005860852 -0.7507106
-0.6968297 -0.75530624
00000000: deb8 7e3f a9d8 4dbe 93ad d03d 8b0d d73b
00000010: 1c64 923e 51f3 fbbe 83a3 19ba 922e 40bf
00000020: 6e63 32bf c05b 41bf

decoder.2.weight f4 [30, 10]
0.06528302 -0.16414508 -0.17342095 0.24349506 -0.14757206 -0.06560473 -0.00072892406 -0.21864319
0.0072053317 0.043956716 0.0640838 0.11575049 -0.042533528 -0.33133474 0.12761422 0.3180683
-0.13115479 0.19783005 0.2754478 -0.19066866 -0.23631448 -0.3207005 0.034602206 0.16359861
-0.3218382 0.31361166 -0.21131381 -0.11518158 0.058787152 -0.02556016 0.29017505 -0.26824763
0.15211138 0.081995085 0.05583018 -0.033200372 0.15438126 -0.04077271 0.016027577 0.17528886
-0.031721696 0.23029779 0.079079576 -0.2841452 0.09125349 0.10667847 0.3022678 -0.120849796
-0.11835009 0.24224111 0.15562174 0.32450417 0.0035691035 0.11992767 -0.24563383 0.28503248
-0.10799832 -0.3620276 -0.1267426 -0.14475475 0.29701647 0.1393137 0.31082198 -0.17560568
0.1585691 -0.04924084 -0.014847526 0.011862571 0.02401901 0.3107029 -0.021865886 -0.03300885
0.20073497 0.2113921 0.10999683 0.14988956 0.3405133 0.29718477 -0.0819562 0.15476362
-0.03316242 -0.24539608 -0.26832598 0.2683871 -0.14680155 -0.090830564 -0.25845376 -0.09462531
0.33131844 -0.29570132 -0.10966994 -0.030457286 -0.14537042 0.20715073 0.086858384 -0.15854004
-0.12654008 0.10096558 -0.08162524 -0.12838578 0.19211297 -0.18411706 -0.28840497 -0.26282042
0.06573794 0.012050261 0.2344379 0.30062625 0.060216893 0.052150257 -0.0030880175 -0.031500798
0.18613578 0.0055502737 -0.19676216 0.07435382 0.04583439 -0.29578027 -0.12673569 -0.11089399
-0.08241547 0.24468046 -0.10930643 0.33289042 0.09553875 -0.11015234 -0.007875027 -0.08320096
-0.1991749 0.09255115 0.20448397 -0.07173214 -0.19127023 -0.30357662 0.21375494 -0.055256493
0.15765747 0.27606568 0.029924033 -0.116898395 0.24082641 0.22628248 -0.21518257 -0.29580066
0.018415876 0.16541292 -0.04113924 -0.000647319 -0.17299865 -0.22913018 0.26249543 0.30708718
-0.18899538 0.21996647 -0.08620459 -0.24925534 0.16791008 0.05805705 0.064126775 -0.29971102
-0.25202608 0.1836152 -0.07925564 -0.2724562 -0.046553105 0.015912494 -0.27429837 -0.23847486
0.2918585 0.0641036 -0.08992025 0.18079068 -0.33385047 -0.23565237 0.13017727 -0.16890089
-0.06593047 -0.34632266 -0.13958642 -0.1253587 -0.032042343 0.010775817 -0.23600619 0.07222169
0.059903797 0.1021914 0.11059591 -0.18432716 0.08451268 0.025997492 0.11008844 0.26585466
0.02285859 0.06512654 -0.035213146 -0.17014524 0.32273427 -0.05541954 -0.092505984 0.09665822
-0.27358052 0.23432468 0.29859373 0.17629376 0.048635922 -0.0883187 0.10409136 0.14083506
-0.30160227 -0.2704792 -0.22684577 0.21708632 -0.09638424 0.23179492 -0.07588726 -0.11168047
-0.08401253 -0.18736508 -0.2291306 -0.04707427 -0.2774422 0.043338504 -0.042108234 0.19840464
0.0016754217 -0.1080133 0.28287828 0.14837103 0.12553827 0.033331826 0.19315657 0.013073312
-0.17536855 0.09432001 0.041214094 0.069458716 -0.05436746 -0.20955166 0.06005432 -0.29223466
-0.086592115 -0.2762767 0.15021473 0.14421988 -0.023386056 -0.04488825 0.18364173 0.30492148
0.21730259 0.090731144 -0.07339108 0.08065938 -0.2243838 -0.09232021 0.3219625 -0.23767442
00000000: 1bb3 853d a615 28be 4395 31be c556 793e
00000010: 211d 17be c65b 86bd 4415 3fba 00e4 5fbe
00000020: b41a ec3b f50b 343d 5e3e 833d 980e ed3d
00000030: a337 2ebd b5a4 a9be 4dad 023e d9d9 a23e
00000040: 714d 06be f693 4a3e 7e07 8d3e a53e 43be
00000050: 6cfc 71be db32 a4be 0bbb 0d3d 6586 273e
00000060: fac7 a4be b591 a03e a662 58be 52e4 ebbd
00000070: ccca 703d 8a63 d1bc d391 943e c157 89be
00000080: 16c3 1b3e 0aed a73d 30ae 643d 1dfd 07bd
00000090: 1f16 1e3e 4901 27bd 444c 833c ec7e 333e
000000a0: 9cee 01bd 2fd3 6b3e 79f4 a13d 7b7b 91be
000000b0: 1ce3 ba3d 3e7a da3d d8c2 9a3e 1980 f7bd
000000c0: 8861 f2bd 0e0e 783e 4e5b 1f3e 6925 a63e
000000d0: 9fe7 693b a39c f53d 6f87 7bbe c7ef 913e
000000e0: 392e ddbd ae5b b9be d0c8 01be 973a 14be
000000f0: 8b12 983e 40a8 0e3e 0f24 9f3e fad1 33be
00000100: f05f 223e c3b0 49bd 0a43 73bc 3b5b 423c
00000110: 84c3 c43c 7314 9f3e 1620 b3bc 4a34 07bd
00000120: 788d 4d3e 2c77 583e 0546 e13d a67c 193e
00000130: c257 ae3e 9a28 983e a7d8 a7bd 5b7a 1e3e
00000140: 51d5 07bd 1c49 7bbe 0662 89be 096a 893e
00000150: 2553 16be 6005 babd 0d54 84be eaca c1bd
00000160: 92a2 a93e 2a66 97be a29a e0bd 8f81 f9bc
00000170: fcdb 14be 521f 543e cfe2 b13d 5258 22be
00000180: b993 01be 0bc7 ce3d 222b a7bd 9077 03be
00000190: 43b9 443e 2f89 3cbe d1a9 93be 6690 86be
000001a0: 9da1 863d 756e 453c 7d10 703e afeb 993e
000001b0: fda5 763d 829b 553d 5660 4abb fb06 01bd
000001c0: 619a 3e3e 12df b53b 057c 49be d146 983d
000001d0: d7bc 3b3d 8370 97be 00c7 01be 631c e3bd
000001e0: 71c9 a8bd 848d 7a3e 0ddc dfbd 9d70 aa3e
000001f0: d2a9 c33d 8d97 e1bd 4206 01bc 4465 aabd
00000200: 81f4 4bbe 758b bd3d 3f64 513e 4de8 92bd
00000210: 58dc 43be 656e 9bbe 93e2 5a3e a254 62bd
00000220: f670 213e 7b58 8d3e 3f23 f53c 6d68 efbd
00000230: 339b 763e 98b6 673e d258 5cbe 2f73 97be
00000240: e4dc 963c 0162 293e 9f81 28bd d8b0 29ba
00000250: 8f26 31be 1aa1 6abe cd65 863e 883a 9d3e
00000260: 0188 41be e43e 613e 088c b0bd cb3c 7fbe
00000270: 9ff0 2b3e 3bcd 6d3d e654 833d b973 99be
00000280: 9009 81be 9f05 3c3e c850 a2bd 617f 8bbe
00000290: 78ae 3ebd eb5a 823c d670 8cbe c132 74be
000002a0: 7a6e 953e c048 833d 1c28 b8bd 3121 393e
000002b0: 73ee aabe db4e 71be 314d 053e 5bf4 2cbe
000002c0: 8e06 87bd 3451 b1be beef 0ebe 085e 00be
000002d0: d53e 03bd 0d8d 303c 9bab 71be f7e8 933d
000002e0: af5d 753d ba49 d13d 1c80 e23d 42c0 3cbe
000002f0: fc14 ad3d b1f8 d43c 0c76 e13d 1a1e 883e
00000300: f041 bb3c 1061 853d a93b 10bd 8e3a 2ebe
00000310: 6d3d a53e 99ff 62bd c773 bdbd bff4 c53d
00000320: bf12 8cbe cff2 6f3e 47e1 983e 5a86 343e
00000330: 7636 473d 6fe0 b4bd da2d d53d 1137 103e
00000340: 9d6b 9abe 407c 8abe 424a 68be e04b 5e3e
00000350: 1a65 c5bd a65b 6d3e c86a 9bbd bbb8 e4bd
00000360: c30e acbd a2dc 3fbe 36a1 6abe f3d0 40bd
00000370: e70c 8ebe b783 313d af79 2cbd 962a 4b3e
00000380: d399 db3a 1436 ddbd 6cd5 903e 93ee 173e
00000390: 1b8d 003e f486 083d d6ca 453e 7231 563c
000003a0: d093 33be d92a c13d 1cd0 283d 5f40 8e3d
000003b0: 6ab0 5ebd b694 56be 85fb 753d c89f 95be
000003c0: 3557 b1bd 2474 8dbe e4d1 193e 60ae 133e
000003d0: 1d94 bfbc bedc 37bd 940c 3c3e ab1e 9c3e
000003e0: 9284 5e3e 40d1 b93d 104e 96bd bf30 a53d
000003f0: dec4 65be 6112 bdbd 45d8 a43e ec60 73be

decoder.2.bias f4 [30]
0.19310118 -0.018766018 -0.028081024 -0.1400704 0.31257167 -0.18404934 0.20911829 0.04433442
-0.195785 0.09167005 -0.2737645 -0.03876822 0.03171195 0.29756644 -0.27985016 0.22305587
0.034533802 -0.06888003 -0.25998485 0.17839181 -0.091263294 -0.2920662 -0.15639448 0.21448468
-0.078023024 -0.13775703 0.059618507 -0.17578632 -0.22124583 -0.1590708
00000000: 51bc 453e 31bb 99bc 2d0a e6bc 9d6e 0fbe
00000010: 6509 a03e 6e77 3cbe 1b23 563e 0298 353d
00000020: dd7b 48be 82bd bb3d dc2a 8cbe 6dcb 1ebd
00000030: 64e4 013d a15a 983e 8548 8fbe c268 643e
00000040: 5173 0d3d f910 8dbd bc1c 85be 58ac 363e
00000050: 40e8 babd b389 95be e025 20be dfa1 5b3e
00000060: 89ca 9fbd 2e10 0dbe 8932 743d 5401 34be
00000070: 448e 62be 75e3 22be

decoder.4.weight f4 [60, 30]
0.027607206 -0.13382977 0.16278693 -0.007741127 0.14346896 -0.0028863326 0.014701436 0.15875243
-0.08809128 -0.019113239 -0.17725438 0.0477442 -0.08960572 -0.05028821 0.09663405 0.014242361
-0.05473641 -0.09049834 -0.14631598 -0.03470352 0.17777774 -0.12922964 0.1149633 0.16707464
-0.1310962 -0.035837714 -0.10899965 0.0783042 -0.12671852 0.061298966 -0.040744282 -0.08570189
-0.09226138 -0.17364207 -0.1441859 0.0107601695 -0.16656415 0.056219008 -0.11808815 -0.12547207
-0.14557882 0.04945797 0.023320243 0.022000976 0.11548263 -0.044985857 -0.08789132 0.028063782
0.13314381 -0.053709418 -0.019767547 -0.044839494 -0.014408635 -0.16708633 0.11450317 0.1734804
0.1290431 0.031257313 0.063177355 -0.09723033 0.14665443 0.06535303 -0.046674803 -0.15209287
0.082494944 0.027333852 0.12989244 -0.035584938 0.073237315 0.1329654 0.012504855 -0.15386805
0.10669029 0.04663107 0.015433541 0.0035474035 0.116777204 -0.065812364 0.13555315 0.14138173
0.07845386 0.03977145 0.043651957 -0.07944282 0.09999392 0.14462446 0.079998456 -0.1300138
0.08640854 -0.06302982 0.05980112 0.079516575 0.086685464 0.0011636496 -0.0170145 -0.02552693
0.071415454 0.04220703 0.08037125 -0.051416866 -0.06765599 -0.12611455 0.2134126 0.108124234
-0.011014462 -0.020059366 -0.029764844 0.21329518 -0.18815039 -0.13214786 -0.014254786 0.14767843
0.02818121 -0.14824241 -0.22210237 0.032810073 -0.0734762 -0.119123355 0.06093758 0.13878246
0.08497729 0.09157541 -0.115571246 0.100400254 -0.06727046 0.2036586 0.1530264 -0.059786282
-0.06150093 -0.08045812 -0.07368876 0.10438123 -0.110636175 -0.102536894 0.13633735 0.0018582756
0.16215119 0.22598147 -0.09582238 0.1529518 0.027205108 -0.004715254 0.13732478 -0.15765533
0.11587127 -0.14321536 -0.09523023 0.05005952 -0.19282375 -0.115150884 0.079389535 -0.0758192
-0.18414448 0.11904637 -0.11823265 0.08549257 -0.14499696 -0.19774601 -0.13518342 -0.08576202
-0.1410868 0.16640735 -0.10407933 0.17666557 0.07006258 0.114618525 -0.08645895 -0.052783478
0.11558484 -0.12722982 0.13020147 0.124658294 -0.13068165 0.18929106 0.028486539 -0.0720516
0.027160406 -0.19280885 0.14071313 0.12781036 0.08303306 0.104467764 -0.07125079 -0.078196146
0.06575178 0.107993506 0.22002168 -0.17043097 -0.08566452 -0.09447048 -0.013911752 0.17726414
0.049746826 0.18162249 -0.06919918 0.03679041 0.049512856 -0.07335153 0.044394348 0.081448436
0.06058784 0.053706944 -0.08263493 0.16472897 -0.18704996 0.16683304 0.06987566 0.12571147
0.093213014 -0.033807836 0.103357844 0.045232877 -0.1097166 0.044282053 0.066492565 -0.17861642
0.12627742 0.15673316 -0.050976194 -0.17944072 0.17799626 -0.045122076 0.13216531 -0.06992637
-0.19157887 -0.1585607 -0.01055419 -0.13857779 -0.05199091 -0.14526726 -0.11957691 -0.13092098
0.04139799 -0.11771666 0.108669944 0.0060505522 0.17735936 0.08134209 0.04440732 0.13956074
0.04497028 -0.13350742 -0.03438277 -0.14420478 0.12039315 -0.019911626 0.1503265 -0.021479929
-0.18078712 -0.16972367 -0.15707994 0.014763843 -0.0050221574 0.10786707 -0.08614252 0.12615068
00000000: 8228 e23c ac0a 09be 9eb1 263e 48a9 fdbb
00000010: 87e9 123e a028 3dbb 4bde 703c ff8f 223e
00000020: 3369 b4bd 5e93 9cbc 2c82 35be 6c8f 433d
00000030: 3483 b7bd 03fb 4dbd 13e8 c53d cb58 693c
00000040: 4933 60bd 3257 b9bd dbd3 15be 4725 0ebd
00000050: 5e0b 363e c654 04be e171 eb3d 9d15 2b3e
00000060: 153e 06be 91ca 12bd 353b dfbd f45d a03d
00000070: 80c2 01be a014 7b3d 7ae3 26bd 7984 afbd
00000080: 89f3 bcbd 3acf 31be 78a5 13be 6c4b 303c
00000090: cb8f 2abe e745 663d 33d8 f1bd c07b 00be
000000a0: 9d12 15be 7194 4a3d 180a bf3c 643b b43c
000000b0: 2882 ec3d 1743 38bd 5d00 b4bd 04e6 e53c
000000c0: da56 083e 68fe 5bbd 8def a1bc 9ea9 37bd
000000d0: 3212 6cbc ae18 2bbe a380 ea3d d9a4 313e
000000e0: e023 043e ab07 003d 2163 813d b220 c7bd
000000f0: 942c 163e cfd7 853d 142e 3fbd 3cbe 1bbe
00000100: 1cf3 a83d 3eeb df3c 8602 053e 83c1 11bd
00000110: 72fd 953d 1528 083e 2ae1 4c3c 968f 1dbe
00000120: 7080 da3d 3900 3f3d f6dc 7c3c 8e7b 683b
00000130: e328 ef3d a2c8 86bd 72ce 0a3e 5fc6 103e
00000140: 6bac a03d 63e7 223d 65cc 323d ebb2 a2bd
00000150: 9dc9 cc3d 6f18 143e 3bd6 a33d 5622 05be
00000160: f6f6 b03d c715 81bd 05f2 743d 96d9 a23d
00000170: 2688 b13d 9a85 983a fe61 8bbc da1d d1bc
00000180: 4442 923d 47e1 2c3d af99 a43d 7e9a 52bd
00000190: 398f 8abd 2c24 01be d588 5a3e 3d70 dd3d
000001a0: 0176 34bc 8a53 a4bc 67d5 f3bc 0d6a 5a3e
000001b0: 7faa 40be c551 07be e88c 69bc 0439 173e
000001c0: 48dc e63c dccc 17be ce6e 63be db63 063d
000001d0: b17a 96bd f2f6 f3bd af99 793d fd1c 0e3e
000001e0: 9308 ae3d e38b bb3d 9eb0 ecbd a69e cd3d
000001f0: 18c5 89bd e18b 503e f4b2 1c3e 76e2 74bd
00000200: 66e8 7bbd 3ac7 a4bd 22ea 96bd d4c5 d53d
00000210: 3895 e2bd ddfe d1bd 059c 0b3e 6291 f33a
00000220: f60a 263e b067 673e 863e c4bd 669f 1c3e
00000230: 3fdd de3c 6b82 9abb de9e 0c3e 6670 21be
00000240: eb4d ed3d 0ca7 12be 1108 c3bd 360b 4d3d
00000250: 9773 45be 3ad4 ebbd fb96 a23d 1947 9bbd
00000260: 5f90 3cbe 95ce f33d f623 f2bd bb16 af3d
00000270: 157a 14be ee7d 4abe 866d 0abe ffa3 afbd
00000280: 0f79 10be b066 2a3e 8b27 d5bd d2e7 343e
00000290: f87c 8f3d 1ebd ea3d 6411 b1bd 7d33 58bd
000002a0: bfb7 ec3d 8948 02be 8953 053e d94c ff3d
000002b0: 69d1 05be 84d5 413e 9a5c e93c ca8f 93bd
000002c0: 807f de3c af6f 45be 1a17 103e b8e0 023e
000002d0: 3d0d aa3d 32f3 d53d efeb 91bd 4d25 a0bd
000002e0: dfa8 863d b32b dd3d 5d4d 613e 7585 2ebe
000002f0: e170 afbd bd79 c1bd 1eee 63bc bb84 353e
00000300: 54c3 4b3d 3ffb 393e 4db8 8dbd 8ab1 163d
00000310: fecd 4a3d 5439 96bd d9d6 353d 70ce a63d
00000320: f42a 783d d0fb 5b3d 813c a9bd b6ae 283e
00000330: 068a 3fbe 48d6 2a3e f81a 8f3d 82ba 003e
00000340: 77e6 be3d 167a 0abd 47ad d33d 1c46 393d
00000350: 19b3 e0bd 1961 353d 412d 883d 39e7 36be
00000360: de4e 013e a87e 203e 6acc 50bd 4fbf 37be
00000370: a744 363e edd1 38bd 5856 073e 8f35 8fbd
00000380: 402d 44be bc5d 22be 7beb 2cbc 56e7 0dbe
00000390: 6cf4 54bd f1c0 14be bde4 f4bd 2610 06be
000003a0: f090 293d 6f15 f1bd 598e de3d b643 c63b
000003b0: b19d 353e af96 a63d 73e4 353d 03e9 0e3e
000003c0: c232 383d 2bb6 08be f3d4 0cbd 6baa 13be
000003d0: af90 f63d b51d a3bc 31ef 193e adf6 afbc
000003e0: 4220 39be 0bcc 2dbe 90d9 20be 0ce4 713c
000003f0: e990 a4bb 69e9 dc3d 7d6b b0bd a52d 013e

decoder.4.bias f4 [60]
-0.09438512 0.11213341 0.15428232 0.08676884 0.15517746 -0.13311045 0.06846576 0.07892237
-0.16072898 0.01709995 0.11048562 0.04804781 0.18624039 -0.1014396 -0.07959249 0.14157087
-0.1313002 -0.13111068 -0.16208763 0.14864455 0.19507971 0.13173755 -0.074717514 -0.016720304
0.17902881 0.033370964 0.047179226 0.15499674 0.12162408 0.047683276 -0.10359257 -0.14799944
-0.03744409 -0.013964892 0.14895833 -0.09600057 -0.07308149 -0.039579876 -0.08297936 0.046624437
-0.039640684 0.07616899 0.12847294 0.16063073 -0.004702847 -0.09710938 0.0773383 0.13280192
-0.03446041 0.042101108 0.086186476 -0.12126978 -0.093299285 -0.12744705 0.031696264 0.085595265
0.17748754 0.036722172 -0.16125724 0.08511488
00000000: fc4c c1bd 34a6 e53d 2ffc 1d3e ddb3 b13d
00000010: d7e6 1e3e 1b4e 08be c737 8c3d 0da2 a13d
00000020: 2396 24be 3215 8c3c 4946 e23d c8cd 443d
00000030: cdb5 3e3e 91bf cfbd 6301 a3bd f4f7 103e
00000040: 8f73 06be e141 06be 4dfa 25be 4736 183e
00000050: fac2 473e 35e6 063e 7f05 99bd 05f9 88bc
00000060: 5453 373e feaf 083d 013f 413d 77b7 1e3e
00000070: 0c16 f93d 8a4f 433d 5728 d4bd 2a8d 17be
00000080: f95e 19bd 01cd 64bc 8888 183e f29b c4bd
00000090: c0ab 95bd 821e 22bd 15f1 a9bd 44f9 3e3d
000000a0: 455e 22bd 7dfe 9b3d 698e 033e 627c 243e
000000b0: 571a 9abb 48e1 c6bd 8b63 9e3d 3afd 073e
000000c0: 5c26 0dbd 3672 2c3d 8982 b03d 4a5c f8bd
000000d0: b213 bfbd 7b81 02be f1d3 013d 924c af3d
000000e0: 4bbf 353e fd69 163d 9e20 25be b650 ae3d

decoder.6.weight f4 [118, 60]
0.048556786 0.088293895 0.06472113 0.0053671873 -0.08846073 0.0021632349 -0.021867735 0.072372034
0.019931095 -0.050947882 -0.16795631 -0.05893248 -0.027152505 0.026793739 0.14724198 -0.10976736
0.014690563 -0.016437003 0.15028602 -0.027042244 -0.1608917 0.05130249 0.0010190757 0.09885
-0.16156468 -0.17173004 0.035949875 -0.14291891 -0.031773172 -0.029289791 0.07031267 0.040619846
-0.05053832 -0.017615354 -0.04105232 -0.07500657 -0.11479856 -0.041335367 0.020569831 -0.006781737
-0.054060433 0.0129143 -0.10425104 -0.10240164 0.078012064 0.13700746 -0.124085814 -0.015024947
0.0556349 0.13357794 0.03552944 -0.079019316 -0.14971817 -0.0024184606 0.010999522 0.0018349574
0.06338786 -0.033794634 -0.08975355 -0.12753458 0.1380963 -0.104904845 0.0019040551 -0.10246259
0.09470746 0.014649157 0.12628007 -0.1297059 0.07956911 0.1102973 -0.14663447 0.016960958
0.0088194 -0.09237842 -0.026270313 -0.019552859 0.039560013 0.03469517 -0.030831944 0.07382609
0.06474071 0.08820218 0.03399141 -0.12894799 0.09534496 -0.07532382 -0.031450357 0.04973305
0.036068264 -0.11867233 -0.07490045 0.03033187 0.0583938 -0.061328255 0.12854621 0.07241222
-0.14851122 -0.050683282 0.08124455 -0.030222828 -0.07183911 -0.028140547 0.02427962 -0.035415996
-0.0692405 0.02467283 0.06678053 0.11579243 0.049643893 0.045476444 0.054034337 0.1263435
-0.12927733 -0.0329438 -0.06422817 -0.048472803 0.083018504 0.10447974 -0.075438805 -0.061876014
0.059758622 0.05707109 0.0485166 0.03668664 -0.09805086 0.07610463 -0.11100017 -0.051154908
0.0020699175 -0.0022260626 0.0029475845 -0.10651611 0.13098037 -0.08531911 0.0011666872 -0.0029709528
-0.002524135 -0.033808745 0.016043983 0.033563256 -0.083565496 0.09228049 -0.0180603 0.10659176
-0.09927887 0.11535301 0.086047456 -0.037616327 0.015936 0.08369235 -0.11094164 0.09033779
0.0632923 -0.06373193 0.064530075 0.05456128 0.018223798 0.09290403 -0.102291666 -0.01907024
0.010782645 0.091784075 0.07505057 -0.012074043 -0.06462743 -0.13240013 -0.0012933897 -0.03981121
-0.03413988 0.023928838 0.0760343 0.056373533 0.021074135 -0.03511368 0.04958747 0.079113856
-0.03880648 -0.114750445 0.009212113 -0.051895477 0.10879397 -0.10554628 -0.06957982 0.041999955
-0.09139486 -0.009203765 0.06422107 -0.0785221 0.0484245 0.106435455 -0.10172537 0.028185677
-0.080836624 -0.07640507 -0.11760926 0.05794981 0.077846624 -0.076275654 0.09126936 -0.060305383
0.055663303 -0.10346041 0.1299409 -0.10987288 0.05772996 0.05013659 0.038526293 0.11768401
0.05666861 0.07376853 -0.11352462 -0.07828183 -0.01349509 0.13262722 0.090794675 -0.12932971
0.07048948 0.00078856625 -0.0042217136 -0.031493913 0.05779539 -0.045791976 0.050596323 -0.08618638
-0.006742237 0.041156232 -0.035479553 0.11926028 -0.096377894 0.053749684 0.09138906 -0.025824875
0.047971737 -0.11894436 -0.0484696 -0.07534696 0.037927307 -0.04569982 -0.12607464 -0.12625182
0.0037390112 0.096511684 0.11074319 -0.018970696 -0.03107641 -0.07689798 0.10432419 -0.104993396
-0.012678876 -0.057422157 -0.13429527 0.037630722 -0.081674114 -0.038934432 0.036690466 0.0489063
00000000: 7be3 463d 6ed3 b43d 838c 843d 3bdf af3b
00000010: e62a b5bd 0fc5 0d3b f723 b3bc ca37 943d
00000020: 8946 a33c baae 50bd bdfc 2bbe 2f63 71bd
00000030: ee6e debc 8b7e db3c 9ac6 163e b6cd e0bd
00000040: b0b0 703c e5a6 86bc 94e4 193e b287 ddbc
00000050: cbc0 24be 8f22 523d 8292 853a de71 ca3d
00000060: 3671 25be 00da 2fbe 2d40 133d 5659 12be
00000070: 9624 02bd 25f1 efbc 1700 903d ff60 263d
00000080: 4501 4fbd 134e 90bc 7a26 28bd 0b9d 99bd
00000090: 821b ebbd 464f 29bd 1082 a83c 5539 debb
000000a0: 796e 5dbd 8096 533c 9281 d5bd f3b7 d1bd
000000b0: cac4 9f3d af4b 0c3e b420 febd 322b 76bc
000000c0: 6ce1 633d a8c8 083e 5187 113d e1d4 a1bd
000000d0: b84f 19be 097f 1ebb 5737 343c f482 f03a
000000e0: 7fd1 813d 3e6c 0abd b6d0 b7bd 6d98 02be
000000f0: 1e69 0d3e 5ad8 d6bd 7d91 f93a e8d7 d1bd
00000100: fcf5 c13d 0503 703c 904f 013e a0d1 04be
00000110: 21f5 a23d 8de3 e13d 5927 16be b5f1 8a3c
00000120: 3f7f 103c e630 bdbd d734 d7bc 512d a0bc
00000130: ae09 223d 861c 0e3d 4693 fcbc 2232 973d
00000140: c796 843d 58a3 b43d 943a 0b3d f10a 04be
00000150: 3844 c33d 6043 9abd 17d2 00bd e2b4 4b3d
00000160: 51bc 133d 7b0a f3bd 6865 99bd 8b7a f83c
00000170: 562e 6f3d 5633 7bbd 9ea1 033e dc4c 943d
00000180: 5313 18be 4699 4fbd 8b63 a63d dd95 f7bc
00000190: 6220 93bd 0187 e6bc 0ee6 c63c 5d10 11bd
000001a0: f7cd 8dbd ad1e ca3c 3bc4 883d 9524 ed3d
000001b0: 6557 4b3d 8245 3a3d 1c53 5d3d 3160 013e
000001c0: 4761 04be 14f0 06bd 0f8a 83bd 6b8b 46bd
000001d0: 9b05 aa3d 79f9 d53d a97f 9abd b471 7dbd
000001e0: 75c5 743d 60c3 693d 58b9 463d bb44 163d
000001f0: e4ce c8bd bfdc 9b3d 0f54 e3bd cf87 51bd
00000200: 74a7 073b 22e3 11bb 432c 413b 1e25 dabd
00000210: b81f 063e c9bb aebd 87eb 983a 51b4 42bb
00000220: f56b 25bb 0a7b 0abd ac6e 833c a079 093d
00000230: 6324 abbd 8efd bc3d 32f3 93bc c84c da3d
00000240: b852 cbbd 333e ec3d a639 b03d 9413 1abd
00000250: 378c 823c e566 ab3d 5f35 e3bd 0503 b93d
00000260: 659f 813d e385 82bd 5828 843d a67b 5f3d
00000270: 134a 953c 7844 be3d 4b7e d1bd 3139 9cbc
00000280: b1a9 303c 4af9 bb3d 1db4 993d 35d2 45bc
00000290: 635b 84bd e693 07be f586 a9ba 1411 23bd
000002a0: 42d6 0bbd 6906 c43c dfb7 9b3d efe7 663d
000002b0: aaa3 ac3c 5dd3 0fbd 3b1c 4b3d 7206 a23d
000002c0: 8bf3 1ebd 4802 ebbd 67ee 163c 5a90 54bd
000002d0: 5fcf de3d a628 d8bd dd7f 8ebd 2508 2c3d
000002e0: 3a2d bbbd 63cb 16bc 5686 833d 32d0 a0bd
000002f0: c558 463d d5fa d93d 6455 d0bd a6e5 e63c
00000300: ac8d a5bd 437a 9cbd 20dd f0bd c85c 6d3d
00000310: 0d6e 9f3d 6936 9cbd 6eeb ba3d c702 77bd
00000320: 34ff 633d 0de3 d3bd 3a0f 053e 0805 e1bd
00000330: 4076 6c3d 065c 4d3d bfcd 1d3d 5004 f13d
00000340: 581d 683d f413 973d 997f e8bd 3952 a0bd
00000350: 831a 5dbc 6ecf 073e 8ff2 b93d 026f 04be
00000360: ca5c 903d c9b7 4e3a 4d56 8abb c3ff 00bd
00000370: dcba 6c3d 5e90 3bbd 173e 4f3d 7c82 b0bd
00000380: fced dcbb 7093 283d 0253 11bd bc3e f43d
00000390: c661 c5bd a128 5c3d 302a bb3d b08e d3bc
000003a0: 037e 443d 1a99 f3bd 0f88 46bd 824f 9abd
000003b0: aa59 1b3d bc2f 3bbd b619 01be 2848 01be
000003c0: 330a 753b eba7 c53d 53cd e23d 6f68 9bbc
000003d0: f593 febc b07c 9dbd eca7 d53d c706 d7bd
000003e0: 0fbb 4fbc 7f33 6bbd b384 09be ac22 1a3d
000003f0: c244 a7bd b679 1fbd be48 163d f951 483d

decoder.6.bias f4 [118]
-0.008338338 -0.024297623 -0.029910995 -0.097728185 -0.07787185 -0.08979062 0.0062451037 0.017516457
0.11148759 0.022519303 -0.08829938 0.13301547 -0.019589555 0.12229424 0.13429852 0.019234212
0.08498066 0.0029356498 0.07325848 0.02029556 -0.06702379 -0.095572956 -0.030710695 -0.09646009
0.061492976 -0.045184918 -0.10452473 -0.0068201753 0.047124587 -0.04149332 0.03519089 0.09761974
-0.06584137 -0.07557622 0.07568447 0.0011548474 0.041649666 -0.02916719 0.06630573 0.13859522
0.07124417 -0.079243556 -0.090527095 -0.07647497 -0.0053908797 -0.05119871 -0.008763576 -0.032779377
0.09406988 0.0325945 -0.09192739 -0.02481177 -0.06365456 0.037311062 0.06680901 0.05108529
0.050672494 0.06464222 -0.07177666 -0.08731982 -0.03534022 -0.103650466 0.013945197 0.06528459
-0.0511487 -0.10410889 -0.040168837 0.048030466 -0.004602886 -0.039786875 -0.02184749 0.0795265
0.07870073 -0.07876876 0.037250977 -0.05086837 -0.07166575 -0.06764721 -0.025420418 0.029543525
0.012923212 -0.027834956 -0.006797386 0.027363248 -0.073095925 -0.031286366 0.02907021 0.034561023
-0.010881974 -0.024683896 -0.10123498 -0.06983093 0.0782369 0.077544756 0.053365614 0.11118753
-0.071354814 -0.07319642 -0.0705606 -0.025862988 0.08677343 0.08919817 0.11513821 0.060172807
-0.01496549 -0.07091804 -0.089120254 -0.06270092 -0.09801381 -0.051032662 -0.13052759 0.03864902
0.09905665 -0.035530273 0.11936477 -0.017752476 -0.10878101 0.032515526
00000000: 869d 08bc cf0b c7bc e707 f5bc b725 c8bd
00000010: 477b 9fbd 25e4 b7bd baa3 cc3b ac7e 8f3c
00000020: 9b53 e43d 677a b83c 4ed6 b4bd 3535 083e
00000030: 467a a0bc 6775 fa3d 8d85 093e 1191 9d3c
00000040: 570a ae3d 0864 403b 8b08 963d e042 a63c
00000050: c543 89bd c1bb c3bd ff94 fbbc de8c c5bd
00000060: 0fe0 7b3d d213 39bd 1011 d6bd c77b dfbb
00000070: b605 413d e6f4 29bd 5324 103d dcec c73d
00000080: d7d7 86bd b5c7 9abd 7600 9b3d 405e 973a
00000090: d798 2a3d 08f0 eebc 4ccb 873d e8eb 0d3e
000000a0: 77e8 913d 724a a2bd 4566 b9bd e99e 9cbd
000000b0: faa5 b0bb bdb5 51bd 1a95 0fbc ab43 06bd
000000c0: b6a7 c03d cf81 053d 6d44 bcbd 0e42 cbbc
000000d0: 525d 82bd 7cd3 183d 2ad3 883d cf3e 513d
000000e0: f68d 4f3d 2463 843d a4ff 92bd bcd4 b2bd
000000f0: e8c0 10bd b246 d4bd 657a 643c edb3 853d
00000100: 4d81 51bd 0b37 d5bd 1488 24bd 98bb 443d
00000110: ced3 96bb 90f7 22bd 82f9 b2bc cade a23d
00000120: d92d a13d 8451 a1bd 7b94 183d 5a5b 50bd
00000130: 7ec5 92bd 9f8a 8abd 7b3e d0bc 4305 f23c
00000140: e1bb 533c 2206 e4bc 9bbc debb e428 e03c
00000150: 51b3 95bd 2226 00bd a624 ee3c dc8f 0d3d
00000160: 4f4a 32bc e235 cabc 4954 cfbd 8503 8fbd
00000170: ab3a a03d c9cf 9e3d e795 5a3d 4ab6 e33d
00000180: 7922 92bd 01e8 95bd 1382 90bd 9ede d3bc
00000190: 45b6 b13d 88ad b63d 95cd eb3d c377 763d
000001a0: d131 75bc 7a3d 91bd ae84 b6bd 5769 80bd
000001b0: 77bb c8bd a007 51bd 06a9 05be 6f4e 1e3d
000001c0: 37de ca3d 3188 11bd 8475 f43d a46d 91bc
000001d0: 94c8 debd 002f 053d

estimation.0.weight f4 [10, 3]
-0.17826785 -0.18185739 -0.32652885 0.50601125 0.071929134 0.38447493 -0.16047868 -0.14717005
0.31620672 0.27862194 0.05672903 -0.3145577 -0.19957773 0.16410245 -0.44432405 -0.03897868
0.43557352 0.23495612 -0.19140607 -0.1284332 -0.34266803 0.093094125 -0.27120236 0.17495276
-0.39235845 0.60445666 -0.11663705 -0.3430416 0.59493583 0.17081848
00000000: d98b 36be d338 3abe ca2e a7be f489 013f
00000010: 954f 933d e6d9 c43e 8654 24be bfb3 16be
00000020: d9e5 a13e 89a7 8e3e b35c 683d b50d a1be
00000030: 1b5e 4cbe 790a 283e 717e e3be 1ca8 1fbd
00000040: 7e03 df3e 5698 703e f4ff 43be fe83 03be
00000050: 2f72 afbe 22a8 be3d 09db 8abe d126 333e
00000060: 35e3 c8be acbd 1a3f 68df eebd 26a3 afbe
00000070: b74d 183f 0aeb 2e3e

estimation.0.bias f4 [10]
0.85186297 -0.56551737 -0.4372114 0.4766228 0.08484789 0.6183367 -0.71491295 0.28387696
0.7134997 0.45970348
00000000: b113 5a3f bfc5 10bf 2cda dfbe e707 f43e
00000010: bbc4 ad3d 504b 1e3f 8904 37bf 5258 913e
00000020: eba7 363f 415e eb3e

estimation.3.weight f4 [4, 10]
-0.31414777 0.44020846 0.011068786 -0.32784697 0.01843417 -0.2920545 0.26585835 -0.1936858
-0.08084014 0.07826019 -0.5197585 -0.13711311 0.3083005 0.014296711 -0.30322117 -0.25145668
0.1513873 0.009524598 -0.1385602 -0.40455183 0.588985 -0.14662951 -0.52339554 0.38249096
0.23632276 0.36311805 -0.27628306 -0.15479271 0.30698216 0.49971488 0.010476307 0.041722238
0.3275597 -0.16666146 -0.16850437 -0.44991276 0.3474585 0.11099974 -0.43422017 -0.48122963
00000000: fad7 a0be 0163 e13e da59 353c 8fdb a7be
00000010: 4203 973c 2b88 95be 961e 883e 9255 46be
00000020: 848f a5bd e146 a03d e50e 05bf 6167 0cbe
00000030: 90d9 9d3e c13c 6a3c ce3f 9bbe eebe 80be
00000040: 4605 1b3e 0f0d 1c3c bae2 0dbe 6b21 cfbe
00000050: b9c7 163f 0c26 16be 40fd 05bf dbd5 c33e
00000060: 98fe 713e 9cea b93e f974 8dbe fb81 1ebe
00000070: c42c 9d3e a1da ff3e d1a4 2b3c f0e4 2a3d
00000080: e8b5 a73e 4da9 2abe 698c 2cbe f75a e6be
00000090: 15e6 b13e d553 e33d 1b52 debe bb63 f6be

estimation.3.bias f4 [4]
-0.28463864 -0.3130207 0.24356835 -0.06278859
00000000: 28bc 91be 4044 a0be fb69 793e 4e97 80bd
