Baseline-models/DAGMM/DAGMM-ROAD/no--dagmm/models/29_194_dagmm.pth (torch, 82200 bytes, 22 tensors)

phi f4 [4]
00000000: 0f4e 013d 3e94 da3c 8752 6a3f d97e d83c
0.031568583 0.026682016 0.91532177 0.026427673

mu f4 [4, 3]
00000000: 506d cb3e 944d 8d3f a5d3 69bb 0a80 d03e
00000010: 74a7 8b3f f2cb ca3c e856 6e3e b6e9 a83f
00000020: 1061 f2be 33a5 d03e 4b9a 8b3f 7a2b d23c
0.39731836 1.10393 -0.0035679128 0.40722686 1.0910478 0.024755452 0.2327534 1.3196323
-0.47339678 0.40751037 1.0906461 0.025655497

cov f4 [4, 3, 3]
00000000: 5753 c93d 86f8 03be 359d 8f3e 86f8 03be
00000010: 8f0d 2d3e 5748 bcbe 359d 8f3e 5748 bcbe
00000020: 39e5 4c3f c68f ca3d 40be 04be 5d7f 903e
00000030: 40be 04be 0b04 2e3e 0863 bdbe 5d7f 903e
00000040: 0863 bdbe 7c28 4e3f 6971 913d fd96 bebd
00000050: bf77 4f3e fd96 bebd 9fcb f93d e4ef 87be
00000060: bf77 4f3e e4ef 87be 5df9 133f 72c0 c93d
00000070: 1d3d 04be 36ee 8f3e 1d3d 04be 1264 2d3e
00000080: 2dae bcbe 38ee 8f3e 2dae bcbe 595d 4d3f
0.09830349 -0.12887773 0.28049627 -0.12887773 0.16899703 -0.3677394 0.28049627 -0.3677394
0.80037266 0.09890704 -0.129632 0.2822217 -0.129632 0.1699373 -0.36989617 0.2822217
-0.36989617 0.80530524 0.071017094 -0.093061425 0.20260523 -0.093061425 0.12197041 -0.2655021
0.20260523 -0.2655021 0.57802373 0.09851159 -0.12913938 0.28111428 -0.12913938 0.16932705
-0.36851636 0.28111434 -0.36851636 0.8022056

encoder.0.weight f4 [60, 118]
00000000: 4026 aebc 3bcb a53d 62fe b63c 7fd1 f13b
00000010: 9746 b33d aabc e6bc d80a 203d 7bc4 6c3d
00000020: 420d 83bd 47b9 8c3d 922f 233d b346 803c
00000030: d705 4f3d a3fb 533d 7ec8 81bd c736 10bd
00000040: f422 ab3d 7acd 36bd 7d97 a8bc d7c1 8ebd
00000050: 990a 90bc c70a d0bc 38ad 0b3d b4b0 45bd
00000060: 2ed6 bd3d 19d7 873d b675 bf3d 8a2d ebbc
00000070: 2ed8 15bd 5614 b2bd 2572 acbd 5755 72bc
00000080: 7750 783d 6a0f 1f3d c3e3 14bd 27f3 6d3d
00000090: 7b13 84bc 663a 4fbd 0d73 4bbc e646 5bbd
000000a0: df0e 4e3d 1b26 373d 38b1 d53c 90df 893b
000000b0: 5e66 babc 0f43 813c 882d 93bd 41f3 f2bc
000000c0: 28b3 45bd 26d3 9bbd 7b6f 0bbd d453 84bc
000000d0: 0ef4 9ebc 7833 c4bb 67a6 ff3b 2d03 a1bd
000000e0: 5dd3 11bd 7287 e7bb 6372 b43a 5f50 4ebc
000000f0: c0da cbbb 6f3c e0bc 5401 b63d 9272 193d
00000100: 0103 b33d 056c a73d 3760 933d 2bd4 86bd
00000110: 2308 433d 7fd7 9c3d 9676 a73d 055f 093d
00000120: 43be 823d f0b1 5fbd 560e 113d ba4b 9ebd
00000130: eb57 00bd 9d0f bdbc c72a 95bd 834b 873a
00000140: 8813 e1bc 0a85 083d 00c1 3fbd 4810 63bb
00000150: 7131 753d 702f e4bb 4e0b 99bd bbef 983c
00000160: 6729 c7bd 9036 aa3d 8bed 313c c9b0 8d3c
00000170: 0f58 84bd 732b c73c 1841 2f3d 3c5c aa3d
00000180: a83e 033d 0048 1739 55e5 893d bf6b 29bd
00000190: c4d4 863d a2bc 6f3d 4952 53bd bc7b 1ebd
000001a0: ca92 1cbc 11fb 4b3d a03e 9539 4131 8abd
000001b0: 61be 493d e0ca 063d 1e0b 17bd 56cf 633c
000001c0: 72db 91bc b56c 84bd 21f2 883d 9e13 94bc
000001d0: 4377 483d 9818 5abc e650 d7bc 5cfc 6f3d
000001e0: 8dd7 b43d 2ee6 e33a 31c6 90bb 4799 6abd
000001f0: 8613 73bd c2c6 3b3d b6b0 833b 721a 6f3d
00000200: ccd9 663d d426 2f3d 96a3 8ebb 0dbc 323d
00000210: c89e c7bc 04e7 abbc 264c 4a3d 9ce3 aabc
00000220: 865d 6d3d b887 adbc e51f 4b3d 4baa a03d
00000230: fe3e a63c 7ab4 04bd a5a2 e63c 65f0 4fbd
00000240: 53f7 28bd c9ee cabd 9fd4 aa3d ec3c 90bd
00000250: c22e 933c 06bd 7e3c 35bc a93d 6ee5 b33c
00000260: 2283 e23c c2de 57bd 9685 3e3d 5327 b53d
00000270: a1fb 7fbd 44c1 30bc 7811 a1bd 11c7 943c
00000280: a402 e03c d195 dbbc d427 b3bb de4c c9bc
00000290: 831f 66bc f99d 453d e240 a83d 3fb8 b63d
000002a0: 3e64 e9bc 30a4 8a3c 996e 83bd 0948 893d
000002b0: c7e0 82bd da8b 313d d5e7 8bbc 0068 833d
000002c0: 8be0 b43d 7d1e fabb e3cf b53d d7d7 77bc
000002d0: c8ef 893d 80ec aa3c ae48 b43d dd7d 6d3d
000002e0: 5ee7 b33a 3744 b13c b319 213c e439 3bbd
000002f0: 97c4 16bd 6c89 d1bc 3a00 723d ab36 6e3d
00000300: 446f 8c3d cebe 02bd c0fd 1abc fc42 883d
00000310: d339 143d d3c3 173c a9b0 7a3a 88b1 e53c
00000320: 56fa 8abd 5f7b 8fbd 8d00 a5bd d626 383d
00000330: 306a 89bb c8a8 18be 4a83 23bc fa77 b9bc
00000340: 4b11 813d 249e 003c b078 9bbd ea30 903d
00000350: ae72 cabc 4a9a 16bd 73d4 52bd 7c96 7dbd
00000360: 0136 b7bc 7b28 a2bd 1567 32bc 2175 5dbd
00000370: bcd9 e63d 860f edbc 4e7c a93d 583f 25bd
00000380: 5d82 013c 27cc 003d ca29 98bc d64c c5bd
00000390: 6395 55bc 29e7 e73c 32bd dcbc a667 fe3b
000003a0: 2f2a 2c3c 3f11 c43d 22f6 38bd 20c6 b0bc
000003b0: 730a 55bc e4e2 56bd 9f3e 5a3c f5ac 65bd
000003c0: 97ad 123d 74d6 cdbd 139a cabd 60c0 0d3d
000003d0: 25d9 853d 0298 88bc 4736 87bb 1af3 22bb
000003e0: c552 863d 7d91 0b3d 10f3 063c 5749 393d
000003f0: 57e7 a93c 88f1 943b 72aa e1ba d16e 913d
-0.021258473 0.08095404 0.022338096 0.00737971 0.08753698 -0.028166134 0.03907284 0.057804566
-0.06399013 0.06871276 0.03984029 0.015658712 0.05054268 0.05175365 -0.06337069 -0.03520849
0.08356276 -0.04462955 -0.020580048 -0.06970566 -0.017583178 -0.025395764 0.03410074 -0.04826422
0.09269367 0.066328235 0.093486235 -0.028708238 -0.03658312 -0.08695285 -0.08420209 -0.014790854
0.060623612 0.03883306 -0.036350023 0.058093216 -0.01612257 -0.050592802 -0.012417567 -0.05353441
0.05030715 0.044714075 0.026085481 0.004207559 -0.02275389 0.015779046 -0.07186419 -0.029657008
-0.04826656 -0.07608633 -0.034041863 -0.016153254 -0.019403484 -0.005987581 0.007801819 -0.07861934
-0.035601962 -0.007065707 0.0013767 -0.012592404 -0.0062211454 -0.027372567 0.08886972 0.03746278
0.08740807 0.081749 0.07196086 -0.065834366 0.04761518 0.0765829 0.08176915 0.033537883
0.06383946 -0.054613054 0.035414062 -0.077292874 -0.031333845 -0.023078734 -0.0728355 0.0010322187
-0.027475134 0.03333 -0.04681492 -0.0034647156 0.059861604 -0.006963663 -0.07472859 0.018669
-0.09724694 0.08311188 0.010859857 0.017296212 -0.06462108 0.02431271 0.042786688 0.083183736
0.032042176 0.00014427304 0.06733195 -0.04136252 0.065835506 0.058529504 -0.051592145 -0.03869222
-0.009556482 0.049799982 0.00028466154 -0.06747676 0.049253825 0.03290832 -0.036875837 0.013904413
-0.017804835 -0.06466047 0.066868074 -0.01807576 0.04894186 -0.013311528 -0.026283693 0.058590278
0.088301755 0.0017387324 -0.0044181575 -0.057275083 -0.05934479 0.045843847 0.0040188683 0.05837483
0.05636005 0.04276164 -0.004352997 0.04363637 -0.024367705 -0.02098418 0.049389027 -0.020860486
0.05795052 -0.02118288 0.049590964 0.07844981 0.020293709 -0.03239868 0.028153727 -0.050766367
-0.04125149 -0.09908826 0.083413355 -0.0704287 0.017966632 0.015547996 0.08287851 0.021959987
0.02765042 -0.052702673 0.046514116 0.08845391 -0.06249583 -0.010788266 -0.0786466 0.018161329
0.02734501 -0.026804836 -0.0054673944 -0.024572786 -0.014045599 0.048246358 0.082155004 0.08921861
-0.028490182 0.016923994 -0.06417579 0.06703193 -0.06390529 0.043346263 -0.01707832 0.06416321
0.08831891 -0.007633029 0.08877542 -0.015127144 0.06735188 0.020864725 0.08802925 0.05798136
0.0013725569 0.021638973 0.009832787 -0.045709506 -0.036808576 -0.025578223 0.059082247 0.058157604
0.0685716 -0.031920247 -0.009459913 0.06653401 0.036187958 0.009262997 0.00095630676 0.028038755
-0.06786029 -0.07005953 -0.08056746 0.04495891 -0.0041935667 -0.14908135 -0.009980032 -0.022640217
0.063021265 0.007850204 -0.07591379 0.070405796 -0.024712887 -0.036768235 -0.05147214 -0.06191109
-0.022364618 -0.07917877 -0.0108888345 -0.05406678 0.11271998 -0.028938066 0.08275662 -0.040343612
0.007904616 0.031444695 -0.018574614 -0.09633796 -0.013036105 0.028308468 -0.026945684 0.0077638207
0.010508104 0.09573602 -0.045156606 -0.021578848 -0.01300298 -0.052462474 0.013320594 -0.056073148
0.03581008 -0.10050669 -0.098926686 0.03460729 0.06535558 -0.016674045 -0.0041263434 -0.0024864138
0.06558756 0.034074295 0.008236662 0.045235958 0.020740194 0.0045453943 -0.0017216934 0.07101215

encoder.0.bias f4 [60]
00000000: 2e64 fe3c ddd9 b43d 8c71 69bb e7a7 043d
00000010: 28de 8ebd 38fa 1e3d 96b3 cdbd 447b 11bd
00000020: 8bf8 5f3d 3cdf 8a3d 539e 61bc f96d 2bbd
00000030: 1213 38bd c081 853d cb8e 19bd d55a 96bd
00000040: 3c99 dabb 9234 973d 175a 3dbd fa60 043e
00000050: 1254 00bc 806a 743d 03a9 fbbd 4948 8ebc
00000060: 9906 d83c 05ea d53b 31f7 4e3d 92fa 19bd
00000070: 729a dabc 36f0 b53d 4e3b 253d 09cb b5bc
00000080: dc5a a63d 6bff 9fbd a115 783c 1367 9dbd
00000090: 065f a53d 4dc8 f43d 73f3 72bd 14f8 2abb
000000a0: 9d83 78bd d62e 9ebc 91b1 f83c 4feb 82bc
000000b0: 2951 3bbd a770 c4bc 089d 253d a592 e8bc
000000c0: 22bc 0cbd 3cc9 d8bc 17e3 34bd c51b 22bd
000000d0: 2f83 a4bd 6fd3 1ebd bc30 8cbc 3e8d 39bc
000000e0: 7e49 1a3d 1668 34bb 46f3 c0bc 8fc2 713d
0.031053629 0.088306166 -0.0035620658 0.032386687 -0.06975967 0.038812846 -0.10044019 -0.035517946
0.05468039 0.0678086 -0.013770658 -0.041852925 -0.044940062 0.065188885 -0.037489694 -0.073415436
-0.006671099 0.07383074 -0.046228494 0.12927619 -0.007832544 0.05967188 -0.12288096 -0.017368453
0.026370334 0.0065281414 0.05052871 -0.037592478 -0.026684973 0.08883707 0.04033976 -0.022191541
0.08122799 -0.07812389 0.0151418755 -0.076856755 0.08074765 0.11952267 -0.059314203 -0.0026087807
-0.06067239 -0.019309442 0.030358108 -0.015981345 -0.045731697 -0.023979498 0.04043296 -0.028390238
-0.034359105 -0.026463144 -0.044161882 -0.039577264 -0.08032834 -0.038775858 -0.017113082 -0.011325179
0.037667744 -0.002752786 -0.023553502 0.059023436

encoder.2.weight f4 [30, 60]
00000000: a5da efbd 5a71 e13d 8fe9 7bbd 8fb9 d4bc
00000010: 67d4 d4bd 606d 873d d9a4 90bd 310f ab3d
00000020: b3be a93d d5f9 72bd a403 793d 34fc 9cbc
00000030: c642 e2bd 6b64 a4bd 1c47 d53d 3fe0 403d
00000040: 820f 7c3b 20f3 0dbd 3c77 ed3d 2e9a d8bc
00000050: 1c8e d73d 4bb3 ebbd 044e efbd a8e4 9e3c
00000060: 2ff3 bf3d fbc9 213d 62c0 e3ba a8f1 843c
00000070: bc32 e53d ef4b 01be 3a3e 1f3c ca57 a2bd
00000080: 7ce2 ac3c fbe0 0e3b 3034 22bd 1e47 953c
00000090: 5a30 a73d e265 e73b 4ce7 e13b c56c 763d
000000a0: 6eee 033e 085b a0bd 1c02 b4bd 4ca2 debd
000000b0: 4fb0 fabd fcdc 1abc 58d3 55bd 2422 e9bd
000000c0: a4b9 71bd aab4 ba3c 58be ce3d 28f8 f23d
000000d0: 219c 8d3d 6efe 18bd 883d cf3b 8dc1 c53b
000000e0: 8174 d2bd a30e 083e a12e f0bd 7855 d83d
000000f0: 96fe adbd 1037 583c c6f8 cb3d f774 90bd
00000100: ad49 c63d 4408 93bd fecd a13d 3f0b e93d
00000110: 0de6 cd3d b478 493d 2e88 053d bc4e e03d
00000120: 80db 323d 92ff 46bd af5a 1c3d a149 d1bd
00000130: 473f 81bd b65f 933c 4b46 303d 8c6f 22bd
00000140: 6654 e2bd 92b9 073d e025 a135 f505 a4bc
00000150: 9ffd 49bc 5d43 e13c 9b35 c43d 2311 f43d
00000160: 97fa 793d cba0 15bd 513c c43c 5480 e9bd
00000170: 87e8 a03d 30cb bcbd add8 06bd a04f d23d
00000180: 4d51 813d c4c1 dcbd 5e8f af3d cab1 b33d
00000190: 6179 843d 6df9 833d 16eb 97bd 4fcf ecbd
000001a0: 8e59 ae3d 6c69 94bc 9a3f 803d 9ecb 9c3d
000001b0: 8871 9e3d 271c a8bd d358 e9bd a6e4 07bd
000001c0: 3528 80bd f5dd c7bd 7384 a93d 458d 023e
000001d0: 46d4 25bd e3a5 933d 80f4 843d 797d 393d
000001e0: 273c 12bd 3b44 acbd b80c debc 48ca 073d
000001f0: 96b4 ab3d b158 2d3d 9de9 c93d f0d5 6cbd
00000200: b1dc 50bd a9a1 69bd 8a13 b6bd 84d6 97bc
00000210: faba 9abd a023 823d 234d 223d 8591 09bd
00000220: 8444 ac3d c8fc 903d 1828 dcbd 5160 e5bb
00000230: bcc3 ed3c 91af 8d3d ea8e 03be 31e7 06be
00000240: cc22 09be 6d43 243b 054a 063e 0577 863d
00000250: 585d fcbd 61e1 d43d 99bb 91bd 6c3a abbd
00000260: 42f5 013e da5f 183d ade4 773d 1036 dfbb
00000270: 159d 9f3c fa72 e03b 6fc7 093d 4e95 e93a
00000280: f127 ffbd 53ce 0c3e f834 cc3d 8794 4fbc
00000290: 75cd 95bc 914c cc3d 5574 e23d 10f8 5c3d
000002a0: 660a 8d3d d1ec d2bd 2f49 7e3d 06b4 ea3d
000002b0: 6103 9bbd 92ac 083e 68ec b8bd 1839 02be
000002c0: 4a6e 96bd fc5d 8abc b992 e5bd 66a3 44bd
000002d0: 6995 cb3d 0668 803d 1eff 29bc 3287 97bc
000002e0: 26d4 fabd 3f37 053e cb24 64bd 51fd ed3a
000002f0: fd3e 67bd 5d21 aabd bbc5 03be 5fe0 debd
00000300: 219e 7abc da50 533d a69c ad3d bbfa 02bd
00000310: 04ff 963b a822 933d 228b 7d3d c77f 043e
00000320: 1480 d8bc 7501 0dbd bce1 1fbc e4e1 a93d
00000330: 8989 f03c 5b37 07be 24dd b83d 4e8b 31b9
00000340: c6cc e2bd e44c 0b3e 0ac0 a4bd 055e 0b3b
00000350: d2a6 95bd 80bc afbd c645 ccbd 36fa 953d
00000360: ba51 6a3d 5923 50bd 3d26 9b3d f9c3 d3bd
00000370: 530e 21bd f564 463c b4ce ce3d 4f71 c63d
00000380: e32d a3bd dd82 163d a15f eabc 93b2 b93d
00000390: 6e84 a4bd fe7b ebbd 9310 0bbd d0e8 413d
000003a0: ae37 3abd ea59 583d a1a1 fcbd efd7 dabd
000003b0: c915 2f3d 50e5 02be 396c 453d a4ca b03c
000003c0: 85eb d73d 632f 0abd c7c1 7ebc e169 07be
000003d0: 9d55 91bd a745 a2bd 66d0 0bbe a9d7 9cbd
000003e0: 4e33 d23d 8915 9dbd 284b 15be 1f26 ffbd
000003f0: c3df c7bd 1e1d 8a3d 09cf c9bd d382 80bd
-0.11711625 0.11007948 -0.061502036 -0.025967387 -0.10392075 0.066126585 -0.07062692 0.08352507
0.08288326 -0.05932029 0.060794488 -0.019163229 -0.11047892 -0.08026966 0.10413954 0.047088858
0.0038461392 -0.03465569 0.11595008 -0.026440706 0.10525152 -0.11508807 -0.11684802 0.019396141
0.093725555 0.039499264 -0.001737606 0.016228512 0.111913174 -0.12626623 0.009719426 -0.07926901
0.02110409 0.002180158 -0.03960055 0.018222388 0.08163519 0.007061706 0.006894028 0.060162324
0.12883922 -0.07829863 -0.08789465 -0.108707994 -0.122406594 -0.009452101 -0.052203506 -0.11383465
-0.05901493 0.022791225 0.10094899 0.11863738 0.06914545 -0.037352018 0.006324474 0.006035036
-0.102761276 0.13286833 -0.11727644 0.10563177 -0.08495824 0.013196722 0.09959559 -0.07053559
0.09682021 -0.07179311 0.07900618 0.11379098 0.10053644 0.049187377 0.032600574 0.109525174
0.043666363 -0.048583575 0.03817242 -0.10219122 -0.06310897 0.017989974 0.043035787 -0.03965716
-0.11051254 0.033135958 1.2006458e-06 -0.020022372 -0.012328534 0.027497942 0.09580537 0.11917331
0.061029997 -0.036530297 0.023954542 -0.1140143 0.07856851 -0.092184424 -0.032921482 0.102690935
0.06314335 -0.10779145 0.08572267 0.08774145 0.06468464 0.064440586 -0.07417886 -0.115629785
0.08513175 -0.018116675 0.06262131 0.076560244 0.07736498 -0.08208495 -0.11393895 -0.03317704
-0.06257669 -0.09759132 0.08277216 0.12749203 -0.040485643 0.07209375 0.06491947 0.045285676
-0.035701897 -0.084114514 -0.027105674 0.033151895 0.083840534 0.04232091 0.09859011 -0.057821214
-0.050991718 -0.057038937 -0.088904455 -0.018534906 -0.07555194 0.06354451 0.039624345 -0.033586044
0.08411506 0.07079464 -0.10749835 -0.007000007 0.029023997 0.06918252 -0.12847486 -0.1317413
-0.1339218 0.0025064603 0.13114174 0.0656567 -0.123224914 0.1039455 -0.071158595 -0.083607525
0.12691215 0.037200786 0.060520817 -0.0068118647 0.019484082 0.006849644 0.03363746 0.0017820986
-0.1245879 0.13750581 0.099710405 -0.012669689 -0.018286446 0.099755414 0.11057345 0.05394751
0.06886749 -0.102990754 0.062081512 0.11460118 -0.07569004 0.1334708 -0.09029466 -0.12717092
-0.07345255 -0.016890518 -0.11209626 -0.04800739 0.09940607 0.06269841 -0.010375766 -0.018497083
-0.12247495 0.13009356 -0.05569915 0.0018157159 -0.056456555 -0.08307145 -0.12868397 -0.10882639
-0.01529649 0.051590778 0.08477144 -0.031977396 0.004608037 0.071843445 0.061900266 0.12939368
-0.02642826 -0.034425218 -0.009758409 0.08295038 0.029362457 -0.1320471 0.09026554 -0.0001693193
-0.11074214 0.1360355 -0.08044441 0.0021265757 -0.07307209 -0.085808754 -0.09974246 0.073231146
0.057206847 -0.05081496 0.07575653 -0.10340113 -0.0393203 0.012109031 0.10098019 0.09689581
-0.079677366 0.036745895 -0.028610053 0.090672635 -0.080330715 -0.11498259 -0.033951353 0.047341168
-0.045463257 0.052820124 -0.12335516 -0.10685717 0.042745385 -0.12782788 0.048198912 0.021581002
0.10542969 -0.033736598 -0.01554913 -0.13223983 -0.070964076 -0.079234414 -0.13653716 -0.076583214
0.10263692 -0.07670123 -0.14579451 -0.12458443 -0.09759476 0.06743835 -0.09853942 -0.06274953

encoder.2.bias f4 [30]
00000000: 4813 ebbd d15a e5bc 04ef d73d 802c 5fbc
00000010: a201 ae3d 8975 503a cb63 a93d 25a0 0f3d
00000020: 6c66 563c 7865 07bd 1d7e 8dbd 224e dd3d
00000030: 0940 463d 0b45 873b d1d1 fe3d 3221 e33c
00000040: 9e9a de3b 3f9b 963d 71bf 943d da2e 9a3c
00000050: a9be 433d 0fa5 723d e64c eebc 80c2 913d
00000060: 9a50 ae3d bed2 e73d df9e 223d bde3 323d
00000070: bede d23d 3222 913d
-0.11478287 -0.027997406 0.105436355 -0.0136214495 0.08496405 0.00079520844 0.08270987 0.035064835
0.013085943 -0.033055753 -0.0690882 0.10805918 0.048400912 0.0041281036 0.12442363 0.02772579
0.006793334 0.073538296 0.07263077 0.018821169 0.04778925 0.059239443 -0.029089402 0.07117176
0.08511467 0.11319493 0.039702293 0.04367422 0.10296391 0.070866

encoder.4.weight f4 [10, 30]
00000000: f543 26be 1137 243e 4434 82bd 03fc 2fbd
00000010: 1b71 e03d 2f1d 663c 58a9 54bd 6ab7 06be
00000020: 8100 2abe 1bc0 59bd 92b3 9c3d 244f 28be
00000030: abd6 673d 87c2 483e 58fd e03c e31d 263e
00000040: a138 5f3d 9d37 3fbe fee5 9cbc cea5 0a3e
00000050: b66f 9bbd 3593 80bc 59db d6bd 330c e53d
00000060: 9246 dfbc fc34 83bd 82d3 c43d 0705 1d3e
00000070: f16f 063e 3e05 d43c 3d6f 283e 64de abbd
00000080: dd23 54bd 2c38 e0bd 132b 553d 59a8 10be
00000090: 080d c03d 1338 c43d 54a9 fbbd 9fd4 8c3d
000000a0: c291 b1bc e741 22be 6355 183e 1a3f 2abd
000000b0: 47c8 63bd 1767 a2bd 988b 353d 4fcf 2cbe
000000c0: 7394 fdbd 34f8 1f3e c51a 2e3e 2f63 e7bd
000000d0: 407f d13d 40c8 363d 4613 1bbe 85ec 2bbe
000000e0: 9b4d 8d3d 5c7c c83d 5346 39be 2fe7 1c3a
000000f0: e86b 05be 6327 93bd dbda b0bc c549 263e
00000100: 0356 963d 077b 0dbe 2018 59bd dd89 353e
00000110: 142d 1fbd 2aa6 04bd 7379 27bd e34b 21be
00000120: 5345 f1bd bf89 113e 0b75 e8bd d32b 80bc
00000130: c775 273e 92f5 0e3e e977 29be 4a8d 243c
00000140: f374 38be 86be 37bd d417 e9bc 76e0 1e3d
00000150: f3e2 75bd 6e21 2f3e f404 e8bd 7a94 133e
00000160: 3a47 333e 6df2 783c 16ed d4bd e916 093c
00000170: e090 943d 012a 9e3c 1744 333e 253f 02bd
00000180: 51fb 443e 3dc4 6abd b37e 39be a011 4abd
00000190: 4a32 f5bb 2e22 093e 74c5 e9bc 060e 0b3e
000001a0: b3fb 263e 0e3f 413d 1e99 d43c 7698 89bc
000001b0: d7b1 40bd 29f0 a93d 2c05 0ebd a2e0 f1bd
000001c0: 3176 333d ec6c 053e 3678 84bc 1f0d 3cbd
000001d0: f51c 5c3d daab 193e ea42 15be 994e e8bd
000001e0: 7a31 403e 19c3 143a e773 e6bd 020a 25be
000001f0: dfe7 5ebc 68f6 9cbd 9f7d 32be ee97 b4bc
00000200: faa8 a73d 7e25 653d 95ce e5bd e369 943d
00000210: c2d8 d2bb ca41 1ebe a017 69bb 5db3 60bd
00000220: b407 29be cb99 04be 49e2 e73c 722f c6bd
00000230: 9c22 0dbe b914 b4bb eef8 efbd ace6 e3bd
00000240: a604 87bd df66 a53d ab79 4e3c 9c65 36bb
00000250: f174 2abe ba45 b73b 8b2f 7abd 535e af3d
00000260: 3380 57bd 90f1 1c3e 60ef 823d 7d31 213d
00000270: 63ea dc3d b078 98bd efa3 08be 95b9 1f3d
00000280: c838 f6bd 1045 f6bb 5a0b 21be 516e fa3d
00000290: 7733 183e a273 0a3e 1c14 d03d f602 34be
000002a0: 60b7 d1bd b6d2 adbd 7e6f 3cbb e471 11bd
000002b0: bafb e13d ee28 703d 833c e53d c13b b13d
000002c0: 3e2a 19be bf4e 2abd e53c 0e3d de72 2dbe
000002d0: fef8 993d b9fb 97bd d299 083d ed37 023e
000002e0: 25b8 ce3d eb9d 27be 0a66 013d e8e9 d7bd
000002f0: 8f08 223e 3de6 fa3d 99f9 353e d0e5 713d
00000300: 9410 933d a360 d7bc 4d9c a13c 76d1 11be
00000310: 4761 02be 3462 b7bd 337e 6f3d 489d fdbd
00000320: 4e49 20be 4f4d e3bd 0b38 443e 1f41 a7bd
00000330: 4605 10be f7cc 903d 3308 43be 778b 063e
00000340: 918b fa3d ae04 9cbc 33b9 db3b 949a 8d3d
00000350: cab3 2fbd 7540 b33c 02d0 e4bd d4bf 763d
00000360: e00f 913d b9b8 053e babe 8dbd 9bf5 d53d
00000370: d496 e5bd 6661 033e 0081 983d 46f2 863d
00000380: c3f6 b6bd 2634 31be ab2c 2bbe ff53 14be
00000390: eb8f 1ebd 709a 213d c9f6 95bd 2c89 85bd
000003a0: ac87 103e ff12 ad3d 14ab 14be f99a 9c3d
000003b0: a475 fc3d e1b3 a9bd 4588 333e 5f12 a93c
000003c0: 788a 2abc 7bee 063e 5602 97bd f777 a93d
000003d0: 490c 113c df50 e5bd 66d8 d03d 8f2f 17be
000003e0: e5a4 133e 054f 5e3d afe4 fcbd 75d4 6cbd
000003f0: 9140 483e cb8c 4b3e bbce 183d a035 1b3e
-0.16236861 0.16036631 -0.06357625 -0.042964946 0.10959073 0.014045044 -0.05191931 -0.13155904
-0.16601755 -0.05316172 0.07651438 -0.1643644 0.056601208 0.19605456 0.027464554 0.16222338
0.054497365 -0.18673559 -0.019152638 0.13539812 -0.075896665 -0.015695194 -0.10491056 0.111839674
-0.02725533 -0.0640659 0.096106544 0.15333949 0.1312864 0.025881406 0.16448684 -0.08392027
-0.051792014 -0.10948214 0.052043032 -0.1412672 0.093774855 0.09581008 -0.12288156 0.06876492
-0.021675948 -0.15845452 0.14876322 -0.041564085 -0.05561092 -0.07929819 0.04432258 -0.16875957
-0.1238183 0.15622026 0.170024 -0.11298215 0.10229349 0.044624567 -0.15144071 -0.16789444
0.06899568 0.09789345 -0.18093233 0.0005985377 -0.13029444 -0.07185247 -0.021588733 0.16239078
0.07340624 -0.13816462 -0.053001523 0.17728372 -0.03886135 -0.03238503 -0.040887307 -0.15751605
-0.11780801 0.14212702 -0.11350449 -0.015645897 0.16353522 0.13960865 -0.16549648 0.010043452
-0.18013363 -0.04485943 -0.028453745 0.03878828 -0.06003089 0.17102596 -0.1132907 0.14412108
0.1750764 0.015194518 -0.10396783 0.008367279 0.07254195 0.019307138 0.17506443 -0.0317985
0.19236495 -0.057316054 -0.18114738 -0.049333215 -0.0074828016 0.13391945 -0.028536536 0.13579568
0.16306953 0.047179274 0.025951918 -0.016796332 -0.0470446 0.0829776 -0.0346729 -0.118104234
0.043813888 0.13029832 -0.016170602 -0.04591095 0.053738553 0.15006962 -0.14576307 -0.11343116
0.18768874 0.0005674824 -0.11252575 -0.16117099 -0.013605087 -0.07664186 -0.17430733 -0.022045102
0.081865266 0.05594396 -0.11221043 0.07246759 -0.006434531 -0.15454784 -0.003556706 -0.054858554
-0.16506845 -0.12949292 0.028306143 -0.09677018 -0.13782734 -0.0054956344 -0.117174014 -0.111279815
-0.065926835 0.08076262 0.01260225 -0.002783156 -0.16646172 0.005593029 -0.061080497 0.08562913
-0.052612495 0.15326524 0.063933134 0.039353836 0.10786893 -0.07444894 -0.13343786 0.038995344
-0.12022549 -0.007515557 -0.15726987 0.122280724 0.14863382 0.13520673 0.101600856 -0.17579255
-0.10240054 -0.084874555 -0.0028752978 -0.035509005 0.11034341 0.058632784 0.11193182 0.08653975
-0.1495752 -0.041579004 0.034726042 -0.1693835 0.075181946 -0.07421059 0.03334982 0.12716646
0.100937165 -0.16368835 0.031591453 -0.10542661 0.15823577 0.12250946 0.17770995 0.059057057
0.071808964 -0.026291197 0.01972785 -0.1424006 -0.12732421 -0.08954278 0.058469962 -0.12383515
-0.15652964 -0.1109873 0.19162004 -0.08166718 -0.14064512 0.07070344 -0.19046097 0.13139139
0.122336514 -0.0190452 0.006705427 0.06914249 -0.04289607 0.021881321 -0.11172487 0.060241535
0.07083106 0.13058747 -0.06921144 0.10447236 -0.11210409 0.12830123 0.0744648 0.06589179
-0.08933785 -0.1730505 -0.16716258 -0.14485167 -0.03871147 0.039453924 -0.07322461 -0.06520304
0.14114255 0.08450889 -0.14518386 0.07646746 0.12327126 -0.08286262 0.17532451 0.020638643
-0.01040899 0.1317691 -0.073734924 0.082748346 0.008853027 -0.111970656 0.10197525 -0.14764236
0.14418371 0.054274578 -0.123483054 -0.057819802 0.1955588 0.19877927 0.03730653 0.15157175

encoder.4.bias f4 [10]
00000000: beff 86bd a8fc 96bd 2955 193d ab63 42bd
00000010: 0289 963d dfc6 1b3e 3235 00be 76cb bbbd
00000020: c20e 80bd aea6 e5bc
-0.06591748 -0.07372409 0.03743473 -0.047458332 0.07350351 0.15212582 -0.12520292 -0.091696665
-0.06252815 -0.02803358

encoder.6.weight f4 [1, 10]
00000000: 04bd 9fbe 15e4 d5bc 4ecf a33e 6ac0 673e
00000010: 1867 f5bd b20c 64bb 949c 3e3e 1c40 063d
00000020: 18cb a9be b809 4fbe
-0.31198895 -0.026109735 0.31994098 0.22631994 -0.11982554 -0.0034797606 0.18614417 0.032775983
-0.3316276 -0.20218551

decoder.0.weight f4 [10, 1]
00000000: 735f b43e 72cf 3fbf 39da d33e cf56 663f
00000010: 37d0 31bf f03d dfbe 87a3 f33e 2cca 6a3f
00000020: ba6a 803e 3b1b 23bf
0.35229072 -0.7492591 0.41377428 0.8997621 -0.69458336 -0.43601942 0.475857 0.9171474
0.25081426 -0.63713425

decoder.0.bias f4 [10]
00000000: 1f12 7f3f 46a7 4bbe 0b32 cf3d bd8f 993b
00000010: baa5 923e 4962 fbbe 95bc c6ba e629 40bf
00000020: 2290 32bf 3d4a 41bf
0.99637026 -0.19888029 0.10116967 0.0046863244 0.28642064 -0.49098423 -0.0015162403 -0.7506393
-0.6975118 -0.75503904

decoder.2.weight f4 [30, 10]
00000000: 279f 863d f3b5 28be 8814 31be 7b0d 7a3e
00000010: 715e 17be 2d59 87bd 722c 6ab9 658f 60be
00000020: 58a9 dd3b 1cfc 313d def5 843d 2b92 ee3d
00000030: 4e78 31bd 357c aabe f3ec 073e 9db1 a23e
00000040: c7eb 07be 0b94 453e 1934 8c3e 15bd 43be
00000050: 2087 72be a415 a5be 1811 153d 68d6 2a3e
00000060: 7264 a7be 4980 a03e 653c 55be 7baf e5bd
00000070: eb15 763d 47ab d0bc f365 953e 785c 8bbe
00000080: a0b6 1f3e c1dd b13d 8dcc 4c3d 4f14 12bd
00000090: c0c7 223e f659 16bd 6dda 803c 1237 313e
000000a0: 0109 fcbc a0a8 6b3e 450c a23d bdba 91be
000000b0: 6845 c33d 0806 d93d 657a 9a3e cea7 fcbd
000000c0: e201 f5bd 3f38 773e a277 203e a86a a63e
000000d0: bf9b 3e3b b3b3 f23d fb10 77be 9bab 913e
000000e0: 9821 e0bd f02c bcbe 62c9 03be c3fa 14be
000000f0: 1a85 983e 1cf0 0d3e 1375 9f3e 7150 33be
00000100: 00af 233e ce0b 4dbd c7db 6cbc ed9c 2e3c
00000110: 9209 bd3c 1ba4 9e3e d882 babc a3ac 0bbd
00000120: b9ce 4e3e 7bc1 5a3e dc6f d53d b2b7 193e
00000130: 827a af3e 0004 9b3e 1bf6 a3bd 45f6 1e3e
00000140: 4091 0bbd 8947 7bbe a358 89be 83d3 893e
00000150: 95b2 1abe 3bb0 b8bd 56ec 83be dc4e bdbd
00000160: 1a43 aa3e bc03 97be 3cc1 e3bd 1fa5 fcbc
00000170: a755 14be 2d96 553e 07dd a83d c872 21be
00000180: f31f 00be 2c14 da3d d506 a2bd a452 02be
00000190: 4c8f 433e ba59 3bbe 713d 94be bd29 87be
000001a0: 9183 863d c508 583c 16ea 6e3e e57f 9a3e
000001b0: ea49 7b3d f54a 5a3d 5639 29bb a48a 03bd
000001c0: 4e33 3f3e bbd7 cb3b ed11 4abe e32d 973d
000001d0: d944 3e3d 7794 97be 2740 02be 3334 e4bd
000001e0: 678c a8bd 9333 7b3e 3b3b e1bd f9e2 a93e
000001f0: ddcb c83d dd53 e1bd 3273 12bc 1e01 aebd
00000200: 846f 4cbe baa2 bd3d bb5d 523e c4db 92bd
00000210: b6ec 43be f3d5 9bbe d0df 5f3e 590a 65bd
00000220: 4cb1 203e 521b 8c3e 1f72 ea3c e3f6 f0bd
00000230: 1f01 783e b40b 6c3e 83b5 60be d809 9abe
00000240: 31e9 c33c acd1 2a3e 8891 3cbd 3ffe c9bb
00000250: 58b2 35be fb1e 6abe aa93 863e 64ad 9c3e
00000260: fd74 40be 8de2 623e ee6c b8bd 29d0 7fbe
00000270: 0074 2d3e aa6c 713d 682c 833d c1b5 99be
00000280: 51c5 80be 7602 3d3e a745 a4bd 5454 8cbe
00000290: a831 36bd 93df 813c 1835 8dbe 23f3 75be
000002a0: 4beb 943e 05dd 823d 9953 b6bd 02b2 3a3e
000002b0: cac7 abbe b82d 74be 71bb 0b3e 2b01 2dbe
000002c0: c6a8 8cbd 87b8 b4be 5328 11be 52b9 00be
000002d0: adec 05bd afaf 463c 96fd 72be ab31 903d
000002e0: 6c64 803d a20a d33d 471e df3d cd21 3dbe
000002f0: f0e8 ad3d 939a db3c 818f e33d 2366 873e
00000300: 148b c63c d365 883d 114f 11bd f965 2fbe
00000310: 5bf4 a53e 361c 65bd 223e bfbd 48ad c33d
00000320: a12b 8cbe edfb 6d3e 95e1 993e 968d 373e
00000330: fd5f 333d 4af6 b5bd dffa da3d e22a 143e
00000340: f3cf 99be 8fa3 8abe 6888 68be 87cc 5c3e
00000350: b990 c2bd d0e9 6f3e 714c a1bd c430 e5bd
00000360: 9a7b a7bd 5c3e 3ebe 44e7 69be 3339 41bd
00000370: fe45 8ebe d9af 2d3d 4033 28bd 4418 4d3e
00000380: b498 93bb ad35 ddbd 46cd 913e ac71 1b3e
00000390: 699c 013e a232 093d 24be 463e b814 513c
000003a0: 7451 33be 88c1 c03d 942c 393d 35bb 8c3d
000003b0: 5591 5fbd ff95 58be 1e3a 713d 710a 96be
000003c0: 6084 b1bd 4c03 8ebe 5aec 1a3e 0281 153e
000003d0: a640 dfbc f711 39bd bbbd 3d3e 1b4e 9d3e
000003e0: 8920 5f3e ab70 b93d 36fd 96bd 437d a93d
000003f0: c7f0 67be 056d c3bd 1581 a73e 1474 72be
0.06573325 -0.16475658 -0.17292988 0.24419205 -0.1478212 -0.06608806 -0.00022332536 -0.219297
0.006764572 0.04345332 0.06492208 0.11648973 -0.043327622 -0.33297887 0.13273983 0.31776133
-0.13273536 0.19294755 0.27383497 -0.19115098 -0.23684359 -0.32243073 0.036393255 0.16683352
-0.3269382 0.31347874 -0.2082382 -0.11215111 0.060079496 -0.025472296 0.29179344 -0.27218986
0.1559701 0.08684874 0.049999762 -0.0356639 0.15896511 -0.036706887 0.015729154 0.17306164
-0.030766012 0.23013544 0.079124965 -0.28462783 0.095347226 0.105968535 0.30171505 -0.12336694
-0.1196325 0.2414255 0.15670636 0.32503247 0.002908453 0.11850681 -0.24127571 0.28451237
-0.109439075 -0.36753035 -0.1286979 -0.14548783 0.29789048 0.13861126 0.31144008 -0.17511155
0.15984726 -0.050060086 -0.014456696 0.010657531 0.023075853 0.30984578 -0.02276747 -0.034100186
0.20196046 0.2136287 0.10421726 0.1501148 0.34273154 0.3027649 -0.08005925 0.15523632
-0.034074068 -0.24539007 -0.26825437 0.26919183 -0.15107186 -0.09017988 -0.25766248 -0.09243557
0.3325432 -0.29495037 -0.11120841 -0.030840455 -0.14485799 0.20858069 0.082452826 -0.15766442
-0.12512188 0.10648379 -0.07911459 -0.12726837 0.19097632 -0.18295947 -0.28953126 -0.2639903
0.06568063 0.013185685 0.23331484 0.301757 0.061349787 0.05329414 -0.0025821528 -0.03211464
0.18671915 0.0062207854 -0.197334 0.07381799 0.046452377 -0.29605457 -0.12719785 -0.11142769
-0.082299046 0.24531393 -0.109976254 0.3318098 0.09804509 -0.11002324 -0.0089385975 -0.08496307
-0.19964415 0.09259553 0.20543568 -0.07170823 -0.19133267 -0.30436668 0.21862721 -0.05591807
0.15692633 0.27364594 0.02861887 -0.1176584 0.24219178 0.2305134 -0.21944241 -0.30085635
0.023914905 0.16681546 -0.046037227 -0.0061643417 -0.17743814 -0.2286338 0.26284534 0.30601037
-0.18794627 0.22156735 -0.09005152 -0.2498175 0.16938782 0.05894152 0.06404954 -0.3002148
-0.2515054 0.1845797 -0.08021098 -0.27408087 -0.04448095 0.015853679 -0.2757957 -0.2401853
0.29085764 0.063898124 -0.08902664 0.18231967 -0.33550864 -0.23845565 0.13645722 -0.16894977
-0.068681285 -0.35297033 -0.14175539 -0.12570694 -0.032696415 0.012126847 -0.23729548 0.070407234
0.06269154 0.103047624 0.10894447 -0.18469925 0.08491695 0.026807105 0.111113556 0.26445112
0.02423624 0.066600464 -0.035475794 -0.17128743 0.3241299 -0.055935107 -0.09338023 0.09554535
-0.27377036 0.23240633 0.30054918 0.17925104 0.043792713 -0.088848665 0.10692381 0.14469483
-0.30041465 -0.2707791 -0.22708285 0.21562396 -0.0950026 0.23429036 -0.07875908 -0.11190942
-0.08177872 -0.18578476 -0.22842127 -0.04717369 -0.27787775 0.04240403 -0.0410645 0.20028788
-0.0045042876 -0.108012535 0.28476924 0.15180081 0.12657322 0.033495553 0.1940847 0.012761287
-0.1751154 0.09411913 0.04520853 0.068716444 -0.05458196 -0.21150969 0.058893315 -0.2930484
-0.08667827 -0.2773689 0.15129223 0.14599994 -0.027252506 -0.04518315 0.18529408 0.30723652
0.21789755 0.09054693 -0.07372515 0.08275845 -0.22650443 -0.09542278 0.3271567 -0.23677093

decoder.2.bias f4 [30]
00000000: b12d 463e d3d1 90bc dda3 ecbc 7234 0ebe
00000010: 3994 a03e e615 3bbe 9a0d 573e f19f 303d
00000020: 4587 49be 5ff6 b73d d8bf 8cbe f5c7 1cbd
00000030: b9d3 023d c9e7 983e 4af0 8dbe d5ab 643e
00000040: cb56 103d 3a6c 8abd 7466 85be 76ab 373e
00000050: a4fa bbbd 94c1 95be 69ca 20be 08aa 5c3e
00000060: c754 a0bd 1324 0dbe aadb 713d cb78 35be
00000070: 1a93 63be 5300 24be
0.19353367 -0.017678177 -0.02888673 -0.13887194 0.31363085 -0.18270072 0.21001282 0.043121282
-0.19680507 0.089825384 -0.27490115 -0.03827663 0.031940196 0.29864338 -0.27722389 0.22331174
0.035239022 -0.06758924 -0.26054728 0.17936501 -0.09178665 -0.2924925 -0.15702213 0.21549237
-0.0782867 -0.13783292 0.05904738 -0.1772186 -0.22224084 -0.16015749

decoder.4.weight f4 [60, 30]
00000000: 0bed eb3c 66cd 0abe 237e 273e 2013 a9bb
00000010: b4ca 0f3e 9a47 00bc c77e 643c 9d1d 263e
00000020: a40b aebd 4d34 8fbc 4fd2 35be 2183 463d
00000030: 6797 b9bd f0f5 4bbd 65e6 bd3d 2580 7c3c
00000040: a6ff 68bd eb65 c1bd 573d 17be a68d 0abd
00000050: 7491 393e 58c9 05be 1356 ec3d 968a 2b3e
00000060: d2f7 03be d4db 22bd 0fd1 e0bd 1d58 9f3d
00000070: 4056 00be 3955 853d b2b3 29bd 10fd acbd
00000080: abaa bebd a5d7 33be 17df 11be 951b 5d3c
00000090: cbbb 29be 372b 5e3d e482 f5bd 0399 01be
000000a0: 3829 15be 6578 493d 36ca c53c 448c b43c
000000b0: 039f f23d 83c5 3abd eca5 b0bd 367f f73c
000000c0: 061f 093e 6d47 5dbd 9530 b5bc b066 34bd
000000d0: dd00 76bc c518 2bbe 93a3 e73d 8372 343e
000000e0: b267 043e ee27 003d c22f 7e3d dc32 cbbd
000000f0: fb6d 163e f32f 853d 7f7f 3fbd 016d 1bbe
00000100: 9de8 a83d 31df df3c 6711 053e 26ff 11bd
00000110: 7429 963d 1e75 083e 73d0 493c 2f54 1dbe
00000120: c6f5 da3d cf86 3f3d 0f4c 773c 064b 763b
00000130: 5867 ee3d 99bc 86bd f6a1 0a3e a9f0 103e
00000140: 50fd a03d 6d3e 223d a138 323d 0350 a2bd
00000150: 2295 cc3d 9fe7 133e fd71 a33d c34d 05be
00000160: a0f4 b03d fd25 81bd 7bb8 773d 652a a23d
00000170: 62a8 ab3d a25d 813a c442 51bc 239b c1bc
00000180: cc17 983d 2ef1 1a3d f72b 9c3d 9ead 50bd
00000190: 0542 8dbd d52a 00be d169 5d3e 8e38 e03d
000001a0: d2da 25bc e01b 9ebc 05c7 f4bc c8a8 5d3e
000001b0: a457 41be ac50 06be 1d3b 74bc 6585 163e
000001c0: 9e3c d53c 007f 16be 348e 68be 2e45 0a3d
000001d0: b091 98bd b163 f6bd 1769 673d 8452 0b3e
000001e0: fe79 ae3d 648c bb3d 07c6 efbd 6ad0 cc3d
000001f0: a877 81bd c467 523e b529 1e3e 34a5 83bd
00000200: 3e99 85bd b292 a4bd 3448 98bd 439d d63d
00000210: e114 debd 50d8 d0bd e687 0c3e ad2c 093b
00000220: 3734 263e 1986 6a3e f67a c4bd 90fd 1c3e
00000230: 7317 d83c 7dba 9ebb 1b63 0b3e ddce 20be
00000240: f432 e43d 369e 11be eae2 c3bd 8adf 4a3d
00000250: 09c7 47be 9e3b f1bd d889 a43d 8f01 9bbd
00000260: 0ac7 3ebe 107d f13d 805e eebd db6f b33d
00000270: d088 12be ddcc 4cbe 2543 0cbe ec49 afbd
00000280: 82b9 12be bf66 2c3e deae d0bd 7f0a 373e
00000290: 6647 933d 45d4 ec3d 8dc6 afbd 17b1 4fbd
000002a0: 76a2 eb3d 1fd7 00be f1c3 033e 1a31 fe3d
000002b0: 912c 08be 40ff 433e f2ad d83c fcea 8fbd
000002c0: 22fd d03c da75 47be e535 0e3e 0cf2 003e
000002d0: 1cf8 aa3d a2d2 d53d 72fe 96bd dc50 a1bd
000002e0: f3c0 8f3d fe47 e23d 98c5 633e 5c04 33be
000002f0: b1fb b8bd c2ee c0bd 1b22 76bc b042 363e
00000300: 6d98 553d 6232 3b3e b2b3 8abd 26f4 183d
00000310: e89a 4b3d 0a6a 8ebd 7c04 343d 2669 a83d
00000320: c172 733d 2bfe 593d c91a adbd 21cb 293e
00000330: 4f92 43be e76d 2c3e e66c 8d3d 6b71 ff3d
00000340: 7bd2 b73d f8df 17bd 6625 d23d a582 3b3d
00000350: f565 ddbd baeb 343d ab85 803d cb21 39be
00000360: 9172 ff3d 365a 243e 3d5f 41bd 956d 38be
00000370: df61 373e 257c 3cbd fc59 053e 5a5c 91bd
00000380: 27cc 44be 3829 23be 8276 26bc 5b16 12be
00000390: cc2f 52bd fba6 15be adf7 f3bd de59 05be
000003a0: c26f 2f3d c246 f3bd 6f21 e43d 5431 ad3b
000003b0: 948f 363e c59f a83d d5c6 3d3d 4fa3 123e
000003c0: 255b 3b3d d9a6 09be 85e4 0dbd c27b 12be
000003d0: bd86 f43d a86a c2bc 8b2a 1a3e 1b6a a6bc
000003e0: 5f1a 38be 91d4 2cbe f562 21be e809 7c3c
000003f0: 7a79 9dbb 9f30 de3d b019 b4bd fbfa 013e
0.028799554 -0.13554916 0.16356711 -0.0051597506 0.14042169 -0.007829571 0.013946242 0.16222234
-0.08498314 -0.017480994 -0.17756008 0.048464898 -0.09062081 -0.04979509 0.0927246 0.015411411
-0.05688443 -0.094432674 -0.14769493 -0.033826493 0.18121892 -0.13065088 0.11539855 0.16752085
-0.12887505 -0.039760426 -0.10977375 0.07780478 -0.12532902 0.065103956 -0.041431136 -0.08446705
-0.09309896 -0.1756273 -0.14245258 0.013495346 -0.16575544 0.05424043 -0.11987856 -0.12656026
-0.14566505 0.049187083 0.024144273 0.02203954 0.11846735 -0.045598518 -0.08625397 0.030212026
0.13390741 -0.054023195 -0.022117892 -0.044043243 -0.015014854 -0.16708668 0.11310496 0.17621808
0.12930182 0.03128808 0.062057264 -0.0992181 0.14690392 0.06503286 -0.04675245 -0.151783
0.082474925 0.027328106 0.1299492 -0.03564372 0.07332125 0.13325927 0.012317765 -0.15364145
0.10691409 0.046759423 0.015093817 0.0037581339 0.11640805 -0.06578941 0.13538346 0.14154305
0.078608155 0.039610315 0.043511037 -0.07925417 0.09989382 0.14443825 0.07980726 -0.13017945
0.086404085 -0.06306074 0.06047867 0.07918242 0.08381726 0.0009869824 -0.012772266 -0.023633545
0.07426414 0.037827663 0.07625573 -0.050946824 -0.06897358 -0.12516339 0.21622397 0.10948287
-0.010122972 -0.019300401 -0.029880056 0.21646416 -0.18881088 -0.13116711 -0.014906672 0.14699323
0.026029881 -0.14696884 -0.22710496 0.03375738 -0.07449663 -0.120307334 0.056496706 0.13605696
0.08519362 0.09157637 -0.117076926 0.10000689 -0.06321651 0.20547396 0.15445597 -0.06427994
-0.06523369 -0.080357924 -0.07435647 0.10479214 -0.10843826 -0.10197508 0.13723716 0.002093117
0.16230856 0.22902717 -0.095937654 0.15331101 0.026378369 -0.0048440085 0.13612024 -0.15703912
0.11142531 -0.14220509 -0.09564765 0.04952959 -0.1950952 -0.11778949 0.08034104 -0.07568657
-0.18630615 0.11791432 -0.11639118 0.08761569 -0.14310002 -0.20000024 -0.13697489 -0.08559021
-0.14328578 0.1683607 -0.10189603 0.17875098 0.071913525 0.11563925 -0.085827924 -0.050705995
0.11505596 -0.12582062 0.12867714 0.12411709 -0.1329825 0.19140339 0.026450131 -0.070272416
0.025511328 -0.1947855 0.13887747 0.12592334 0.08348104 0.10440566 -0.0737275 -0.07876751
0.07019224 0.11048888 0.22243345 -0.17482132 -0.09032381 -0.094205394 -0.01502278 0.17798877
0.052147318 0.18280938 -0.067725554 0.037342213 0.049708277 -0.06953819 0.04394959 0.082231805
0.05943561 0.05322091 -0.084523745 0.16581394 -0.19098781 0.168388 0.06905536 0.12472805
0.08975693 -0.037078828 0.102610394 0.04577889 -0.108104624 0.04417012 0.06275495 -0.18079297
0.12473024 0.16050038 -0.047209967 -0.18010552 0.17908429 -0.04601683 0.13022608 -0.07097693
-0.19218503 -0.15933692 -0.01016009 -0.1426634 -0.051315114 -0.14614479 -0.11912475 -0.13022563
0.04283119 -0.1187873 0.111391895 0.0052854214 0.17828208 0.082335986 0.0463322 0.1432011
0.04574122 -0.13442554 -0.03464176 -0.14305022 0.11939762 -0.023732498 0.15055291 -0.020314267
-0.1797881 -0.16877963 -0.15760405 0.015383221 -0.004805741 0.108491175 -0.08793962 0.12693398

decoder.4.bias f4 [60]
00000000: 93df bfbd f54c e53d f22b 1e3e a80e b43d
00000010: e666 1f3e 9f6f 06be 9735 8e3d e598 9f3d
00000020: 6ce4 23be 7b5a 993c ed7d e43d ab6d 433d
00000030: 1312 403e a98b d0bd 2aff a4bd 2ea3 103e
00000040: 3612 06be 1c15 07be a3f8 25be 6f55 193e
00000050: 9742 493e e973 083e 4c1f 96bd 31d4 8dbc
00000060: 9e15 383e 3fb4 0c3d b5f7 3a3d e994 1f3e
00000070: d9c3 fa3d 6bd6 403d 704e d5bd 0d77 17be
00000080: eaa1 15bd 4b8b 79bc 320d 173e d861 c2bd
00000090: e35e 96bd 29d2 1dbd e145 aabd af9d 3e3d
000000a0: aeec 26bd 808c 9b3d 6986 043e 7553 263e
000000b0: bdb6 babb b102 c9bd 305d a03d e38e 093e
000000c0: 59aa 07bd 3435 2b3d 0a94 ae3d 9889 f7bd
000000d0: 2398 bebd 6238 03be 8ab7 003d 13d1 ac3d
000000e0: 6a6c 353e b6c0 183d cd9c 24be c9ae b03d
-0.09368815 0.11196319 0.15446451 0.08791858 0.15566596 -0.13128518 0.06943815 0.07792834
-0.16005105 0.018719902 0.11156831 0.04771201 0.18756895 -0.10182888 -0.08056481 0.14124748
-0.13092884 -0.13191646 -0.16208129 0.14973997 0.19654308 0.13325466 -0.07330188 -0.017313095
0.17976996 0.034351584 0.045646388 0.15584148 0.12244386 0.047079485 -0.104153514 -0.14791508
-0.036531366 -0.015230964 0.14751127 -0.094913185 -0.07342317 -0.038530502 -0.083141096 0.046537098
-0.04075306 0.075951576 0.12941898 0.16242774 -0.0056980536 -0.098149665 0.07830274 0.13433413
-0.03312144 0.041798785 0.0852433 -0.12086791 -0.093063615 -0.12814477 0.031425036 0.08438315
0.17717138 0.03729316 -0.1607544 0.086270876

decoder.6.weight f4 [118, 60]
00000000: d69e 403d 5bf9 b73d 94dc 7d3d 87cd ec3a
00000010: 3bfa bbbd 612a 0139 ba3e cdbc a969 9a3d
00000020: 8e8c 8f3c 523c 5cbd 17a7 30be a8b1 76bd
00000030: 5c62 f1bc 5d24 ea3c 91cb 183e 67fa ddbd
00000040: 5bcf 803c 556a 62bc c1d6 1b3e 2d6b fcbc
00000050: 5287 27be 7ee9 443d 8b32 8e3b 0f7e d03d
00000060: ca53 28be 77f6 32be 0eed 213d cdb9 16be
00000070: e89c 0ebd f0e3 fdbc 7a1a 943d 692a 363d
00000080: bd5d 51bd 45cf 7bbc d0d8 19bd f7de 9dbd
00000090: 2038 eabd fae1 3ebd 307f cb3c 7a46 12bc
000000a0: 7089 54bd 9687 4c3c bf84 ddbd e0dc d6bd
000000b0: f667 a03d f0f7 0e3e 6ed1 fdbd a336 90bc
000000c0: 2b32 573d 7dde 0b3e 362f 1c3d 459a a4bd
000000d0: a71c 1cbe 0060 67b8 a05a 5d3c ec8a 9f3b
000000e0: 8dd5 853d 8db4 f5bc 1c20 b8bd 9ded 05be
000000f0: 14d0 0e3e e63a d9bd 36bb 5c3a bd86 d2bd
00000100: ef97 bf3d b84d 813c 9908 013e f1c4 04be
00000110: 6dc6 a23d 0020 e23d 1d32 1abe c9b7 993c
00000120: 258c 1b3c f1ba bfbd d939 e0bc 0e2e afbc
00000130: ce91 193d c243 0e3d 799a 02bd 6748 943d
00000140: 4068 853d bc48 b43d 82f5 093d 05e7 03be
00000150: 1b85 c33d df88 a1bd 4573 f7bc 50c9 423d
00000160: 686b 113d 47c1 f0bd 4b37 9bbd 003c 003d
00000170: 34f7 733d ce16 7ebd e2a0 043e cfc4 953d
00000180: 9f4d 1abe fe4a 5ebd 52a1 aa3d e5a2 f0bc
00000190: b7c7 94bd 473e d7bc c95f b53c d27e 0fbd
000001a0: f6e8 87bd 4bfe c53c e578 833d 3fde ed3d
000001b0: 2415 483d f393 3c3d 35f4 5b3d 4af6 023e
000001c0: 329b 08be 993b 0abd fa85 84bd 71dd 35bd
000001d0: 28a9 b13d b90d d73d d4a2 9fbd 406f 81bd
000001e0: 4b13 743d 2d47 6a3d 801e 493d 41c4 173d
000001f0: d0d7 c7bd d3ad 9b3d a7bd e2bd cb44 52bd
00000200: 63b8 103b b039 05bb 99a3 9a3b 88aa dabd
00000210: a628 063e 567d aebd 7be8 a33a ad17 30bb
00000220: fd99 12bb c86f 0bbd 29ed 833c de1e 0c3d
00000230: a0e5 aabd bf92 bd3d 92fe 95bc 24e0 d93d
00000240: f2fb cabd 2c0f f03d 4633 af3d d236 16bd
00000250: 242f 853c 842e ab3d f523 e3bd f9cf b73d
00000260: d14a 813d b781 82bd 702b 833d fb7e 5f3d
00000270: ad6e 983c c532 c13d b114 d3bd 6260 9cbc
00000280: dc12 313c 4445 bb3d 5957 9b3d c4c5 43bc
00000290: 70ac 85bd 9aa6 07be 83a1 54ba e8a5 22bd
000002a0: 6e7f 0abd 2818 c23c 337d 9b3d f2fb 653d
000002b0: 440d b83c b4d0 0fbd 59c7 4a3d 981a a03d
000002c0: ba86 25bd b8ad ebbd 5781 1e3c 32d6 52bd
000002d0: dd28 df3d b43f d8bd b3d5 8fbd c505 273d
000002e0: 8a09 bdbd 7234 1cbc 7ebc 813d c31b 9fbd
000002f0: 4055 443d e89c d83d 594d d3bd 728e ec3c
00000300: fd5a a6bd 687f 9cbd 8c8b f0bd ac2b 6b3d
00000310: f3b5 9e3d ef17 9bbd 9d18 bb3d f876 7bbd
00000320: 0e31 613d 5432 d6bd b443 063e 727f dfbd
00000330: ee7c 693d 37bd 483d a8f3 213d a424 ee3d
00000340: 8221 653d ea15 973d 5f17 e8bd 4be5 9dbd
00000350: 2a28 56bc f849 083e a56b bc3d 47ba 04be
00000360: cfb7 8c3d 0f31 92ba 262b 3ebb 7d39 02bd
00000370: fe0e 6e3d 3183 37bd 5ba1 4a3d fcb7 b1bd
00000380: cbfd 9ebb cdf5 2a3d dbc4 19bd 39fd f23d
00000390: 4b14 c7bd c0cf 5f3d 6c6e bc3d 9ef1 d0bc
000003a0: ed1a 3d3d d7be f2bd 5ae0 43bd 076c 95bd
000003b0: 5aba 1f3d 7fc7 35bd 5b41 03be a526 02be
000003c0: 45fe 783b 6b95 c53d 7108 e33d eedb 97bc
000003d0: e602 fdbc 25df 9cbd ec29 d63d 488b d7bd
000003e0: 6e33 4ebc 3a72 6abd 6d41 09be 4879 1a3d
000003f0: 8cf4 a6bd 29f3 1fbd a6bb 153d 20fe 473d
0.047026478 0.08983108 0.061977938 0.0018066623 -0.09178587 0.00012318186 -0.025054324 0.07539684
0.017523076 -0.053768463 -0.1725124 -0.06022802 -0.029465847 0.028581792 0.14921404 -0.10838776
0.015723875 -0.013819297 0.15218641 -0.030812824 -0.16360214 0.048074238 0.0043395213 0.10180294
-0.16438213 -0.17476831 0.039532714 -0.14719315 -0.034817606 -0.030992478 0.072316125 0.04447404
-0.051114786 -0.015369241 -0.037560284 -0.07708543 -0.11436486 -0.046602227 0.024840921 -0.008927936
-0.051888883 0.012483498 -0.10816335 -0.10491347 0.07832329 0.13961768 -0.12393461 -0.017604178
0.05253808 0.13659091 0.03813096 -0.08037237 -0.15245305 -5.51641e-05 0.013510376 0.0048688557
0.06534872 -0.02999332 -0.089904994 -0.13078924 0.13946563 -0.10606937 0.00084202306 -0.102796055
0.09355151 0.01578413 0.12600936 -0.12965752 0.07948003 0.1104126 -0.15058179 0.018764393
0.009493862 -0.09361828 -0.027371334 -0.021384265 0.037492566 0.034732588 -0.031885598 0.07240372
0.06514025 0.088029355 0.0336814 -0.12881096 0.09546872 -0.07887434 -0.030206332 0.047555268
0.03550282 -0.11755615 -0.07578906 0.03130722 0.059561923 -0.062033467 0.12951997 0.07312929
-0.15068673 -0.054270737 0.08331551 -0.02937455 -0.07264655 -0.026274813 0.0221404 -0.035033055
-0.06636231 0.024169108 0.06419543 0.11614656 0.048848286 0.046039533 0.05369969 0.12789264
-0.13340452 -0.033748243 -0.064708665 -0.044400636 0.08674842 0.10500664 -0.07794729 -0.063200474
0.05958871 0.057196785 0.049101353 0.037052397 -0.0975796 0.07601514 -0.110713296 -0.051335137
0.002208256 -0.0020328574 0.0047192094 -0.106770575 0.13101444 -0.0852 0.0012505198 -0.002686958
-0.0022369616 -0.03404215 0.016104298 0.034209125 -0.08344579 0.09256505 -0.018309865 0.106384546
-0.09911336 0.11721644 0.085547015 -0.036673374 0.01625783 0.083584815 -0.11090843 0.089752145
0.06313098 -0.063723974 0.064047694 0.054564457 0.018607462 0.09433512 -0.10306681 -0.019088928
0.010807719 0.09144071 0.075850196 -0.0119490065 -0.065270305 -0.13247147 -0.00081112253 -0.039709
-0.033812933 0.02369316 0.07592239 0.056148477 0.022467263 -0.035111144 0.04950652 0.07817572
-0.04041169 -0.115077436 0.009674392 -0.051473804 0.10896466 -0.105590254 -0.07023182 0.040776987
-0.09230335 -0.009533988 0.0633478 -0.07768967 0.047932863 0.105768025 -0.10317487 0.028876517
-0.081228234 -0.07641488 -0.117453665 0.057414696 0.07749548 -0.07572924 0.09135554 -0.061392754
0.054978423 -0.10458818 0.13111764 -0.1091298 0.057003908 0.049008574 0.03953901 0.116280824
0.05594016 0.07377227 -0.11332583 -0.0770975 -0.013071099 0.13309467 0.09200219 -0.12961684
0.06870996 -0.0011153537 -0.0029017418 -0.031793106 0.058119766 -0.04480285 0.049470287 -0.0867767
-0.004852032 0.04173832 -0.03754125 0.11864705 -0.097206675 0.054641485 0.09200749 -0.025505837
0.046168257 -0.11852806 -0.04782138 -0.07295995 0.038996078 -0.044379707 -0.128179 -0.12710054
0.0037993353 0.0964764 0.110855944 -0.018537488 -0.030885171 -0.07659749 0.10457215 -0.10524613
-0.012585504 -0.05723784 -0.13403864 0.03771332 -0.08152112 -0.039050255 0.03655591 0.048826337

decoder.6.bias f4 [118]
00000000: a2b5 2dbc 275d bfbc a218 f5bc c1d1 c8bd
00000010: f405 9fbd 433e babd 322d d53b f480 8a3c
00000020: 6a17 e53d 476d b83c 7c5b b5bd 97cc 073e
00000030: 8ee4 a1bc a457 fc3d 4df5 093e f2b3 9c3c
00000040: f70d af3d e2d9 2c3a b7fc 963d 9b15 a73c
00000050: dce1 89bd c4d5 c3bd 4f7d f8bc 301e c9bd
00000060: 5e16 7c3d 81ed 3abd 43e1 d5bd 8ecd e7bb
00000070: 20da 403d d385 28bd 5c4c 133d 0935 c93d
00000080: d20c 86bd 74b0 9cbd 77e0 9a3d 79fb ca3a
00000090: 7a93 2b3d 6ea5 edbc 8a73 893d 42b1 0d3e
000000a0: 8b8b 913d dc42 a1bd bea6 babd 1b62 9abd
000000b0: cb5c b0bb a92e 51bd 6163 10bc 0e5c 03bd
000000c0: 2757 c13d 90f5 053d a735 bcbd 1f75 c3bc
000000d0: 12d3 81bd 53ab 1a3d 7b46 893d 4e78 4f3d
000000e0: 453a 523d 0938 853d 845e 94bd d78c b3bd
000000f0: 47f0 12bd d20f d5bd 7461 663c 0dd3 843d
00000100: 8a13 54bd a287 d6bd 05d0 26bd 53e9 483d
00000110: 6552 b7bb b4b4 25bd 8046 b2bc 6719 a23d
00000120: 7d5e a03d ef18 9fbd 0f19 1e3d 3276 50bd
00000130: 5904 93bd fdc6 8bbd 0224 ddbc 6804 ef3c
00000140: 30d1 513c fcf0 e8bc c09e c4bb 0cd4 e53c
00000150: 1f06 96bd f747 00bd 75f1 ed3c 7594 0c3d
00000160: 5cd2 29bc cf9a cebc aef8 cfbd 4c97 8fbd
00000170: 1f2c a13d 0856 9e3d a458 5b3d 8eee e33d
00000180: 410b 93bd b17b 96bd 8620 90bd 020b d0bc
00000190: 6899 ae3d 12c5 b93d 1adc ee3d 4121 763d
000001a0: a825 79bc 0864 94bd 4adf b5bd 478d 7dbd
000001b0: 831a c9bd 1208 58bd 00be 06be ad85 223d
000001c0: 672e c73d 2e14 0ebd 5f0b f73d bfda 84bc
000001d0: c203 dfbd 6c23 043d
-0.010602387 -0.023359848 -0.029918972 -0.098056324 -0.07764807 -0.09093907 0.006505632 0.016907193
0.111861065 0.022513045 -0.0885534 0.13261639 -0.019762304 0.123214036 0.13472481 0.019128773
0.085475855 0.00065937464 0.0737242 0.020396044 -0.067325324 -0.09562257 -0.03033319 -0.09820211
0.06154477 -0.045636658 -0.10443356 -0.0070740646 0.04708302 -0.04114325 0.035961494 0.09824569
-0.06545414 -0.07650843 0.075623445 0.0015486322 0.04188869 -0.029009547 0.067114905 0.1383715
0.07106694 -0.078740805 -0.09113835 -0.075382434 -0.0053821555 -0.05106989 -0.008812756 -0.032070212
0.09440451 0.03270489 -0.09189921 -0.023859559 -0.063390866 0.037761044 0.06702896 0.05065184
0.0513251 0.065048285 -0.0724459 -0.087670974 -0.035873678 -0.10403408 0.014061321 0.06485567
-0.051776446 -0.10475089 -0.040725727 0.04905064 -0.005594539 -0.040455535 -0.021762133 0.07915001
0.07830522 -0.077684276 0.038598116 -0.05089397 -0.071785636 -0.068250634 -0.026994709 0.029176906
0.012806222 -0.028435223 -0.00600037 0.028055213 -0.07325386 -0.03131863 0.0290458 0.034321267
-0.010365095 -0.025220303 -0.10154854 -0.070112795 0.078697436 0.07731253 0.05355133 0.11129485
-0.07179881 -0.07347811 -0.07037453 -0.025395874 0.08525354 0.09070791 0.11663075 0.060090307
-0.015206732 -0.07245642 -0.0888048 -0.06190231 -0.0981951 -0.05274207 -0.13158417 0.039678264
0.097256474 -0.034687214 0.12062716 -0.016217588 -0.108893886 0.032260343

estimation.0.weight f4 [10, 3]
00000000: 3c37 2ebe 8b0d 26be 79d9 a9be b323 fa3e
00000010: f041 2f3d 3264 c53e 87f3 2cbe 73c8 2bbe
00000020: fbfc a33e 753a 953e 8d3f a33d e416 a2be
00000030: c869 38be 414d 423e 0bca e2be 6a59 cdbc
00000040: 5795 e53e 3ef0 703e 817f 5dbe 8fa7 0bbe
00000050: f111 b2be baf5 a03d cd28 91be 76bb 2d3e
00000060: 0eb1 c7be 8eec 1f3f 5c34 00be d471 acbe
00000070: aeb4 1c3f 82de 2a3e
-0.17013258 -0.16216104 -0.3317373 0.4885536 0.042787492 0.38553005 -0.16889773 -0.16775684
0.32028946 0.29146162 0.07971106 -0.3165809 -0.18009102 0.18974783 -0.44294772 -0.02506705
0.448405 0.23529145 -0.2163067 -0.13638137 -0.34779313 0.078593686 -0.2835144 0.16966042
-0.3900227 0.6247033 -0.12519974 -0.33680594 0.61213195 0.16686442

estimation.0.bias f4 [10]
00000000: 7180 5e3f b4df 17bf 92c8 e8be 637e ff3e
00000010: f078 e43d ed46 223f 2253 3abf 79f3 883e
00000020: 409d 393f 287c f23e
0.86914736 -0.5932572 -0.45465523 0.49901113 0.111558795 0.63389474 -0.727831 0.26748255
0.7250557 0.4736035

estimation.3.weight f4 [4, 10]
00000000: 2fc8 abbe db22 e93e c1c4 013d 87bf b3be
00000010: 09ba 1a3c e29c 9ebe 10fb 913e 90f7 45be
00000020: 8eba cdbd 068c 753d 7b87 0abf 0603 02be
00000030: ec36 a83e 6186 d8bb f41d a0be c92c 89be
00000040: 1f07 2f3e 5448 243c 8062 20be 5a8a d7be
00000050: 30dc 1b3f 95cb 20be b93a 0bbf a64c cf3e
00000060: e52a 793e 8de1 c23e de83 98be 7961 1bbe
00000070: 5cfc a63e 9d73 043f 7c00 97bb 9ab4 343d
00000080: 375a b13e 5b7d 40be f006 2cbe 3fdb edbe
00000090: 5087 ba3e c31a d53d b08b e7be a742 febe
-0.33551165 0.45534405 0.03168178 -0.3510706 0.009443768 -0.30979067 0.28511858 -0.19332719
-0.10045348 0.05994799 -0.54112977 -0.12696466 0.32854402 -0.006607816 -0.31272852 -0.2679198
0.1709256 0.01002701 -0.15662575 -0.4209774 0.60882854 -0.1570266 -0.5438648 0.40488166
0.24332769 0.38062707 -0.29788107 -0.15173902 0.3261441 0.5173891 -0.004608212 0.044117548
0.3463914 -0.1879782 -0.16799521 -0.46456334 0.3643136 0.10405495 -0.4522376 -0.49660227

estimation.3.bias f4 [4]
00000000: 09fa 9cbe 29f6 aabe 01cd 873e 5f86 a6bd
-0.30659512 -0.3339093 0.26523593 -0.08131098
