Baseline-models/DAGMM/DAGMM-ROAD/no--dagmm/models/2_194_dagmm.pth (torch, 82173 bytes, 22 tensors)

phi f4 [4]
0	0x3e83bac1	0.2572842
1	0x3e57d827	0.2107855
2	0x3eb8d540	0.36100197
3	0x3e2f07d7	0.17092834

mu f4 [4, 3]
0	0xbd5c6efb	-0.053816777
1	0x3facdbd1	1.3504583
2	0xbe08b23e	-0.13349244
3	0x3d1ffc28	0.039058834
4	0x3fa4c2c2	1.2871935
5	0xbd4b7e98	-0.049681276
6	0xbda17a81	-0.07884694
7	0x3faf0943	1.3674701
8	0xbe1fc922	-0.1560407
9	0x3def49ce	0.11683999
10	0x3f9df89f	1.2341498
11	0x3ca7fffe	0.020507809

cov f4 [4, 3, 3]
0	0x3e93e80a	0.2888797
1	0xbe492800	-0.19644165
2	0x3e85631a	0.2605217
3	0xbe492800	-0.19644165
4	0x3e08ecab	0.13371532
5	0xbe357a8f	-0.17722534
6	0x3e85631a	0.2605217
7	0xbe357a8f	-0.17722534
8	0x3e70a05c	0.23498672
9	0x3eac5cbe	0.33664507
10	0xbe6a74f8	-0.22896183
11	0x3e9b7371	0.30361512
12	0xbe6a74f8	-0.22896183
13	0x3e1f972d	0.15585013
14	0xbe53850f	-0.20656227
15	0x3e9b7371	0.30361512
16	0xbe53850f	-0.20656227
17	0x3e8c3801	0.27386478
18	0x3e8bedf5	0.27329984
19	0xbe3e4af6	-0.18583283
20	0x3e7c64b4	0.2464779
21	0xbe3e4af6	-0.18583283
22	0x3e018729	0.12649216
23	0xbe2bafe0	-0.1676631
24	0x3e7c64b4	0.2464779
25	0xbe2bafe0	-0.1676631
26	0x3e63aa13	0.22232847
27	0x3eba3b48	0.36373353
28	0xbe7d61c4	-0.24744326
29	0x3ea7f7ad	0.3280615
30	0xbe7d61c4	-0.24744326
31	0x3e2c7b65	0.16843946
32	0xbe6496de	-0.22323176
33	0x3ea7f7ae	0.32806152
34	0xbe6496de	-0.22323176
35	0x3e978315	0.29592195

encoder.0.weight f4 [60, 118]
0	0xbcd58a48	-0.026066914
1	0x3daab4d4	0.083352715
2	0x3cb7f584	0.022455938
3	0xbb958b57	-0.0045637297
4	0x3da6922f	0.08133351
5	0xbd14eac9	-0.03635672
6	0x3ce7c1c5	0.028290639
7	0x3d577ea1	0.052610997
8	0xbd8e8d97	-0.069606
9	0x3d788a90	0.06067902
10	0x3d0785af	0.033086475
11	0x3c48c51f	0.012254029
12	0x3d241126	0.040055417
13	0x3d364544	0.04449965
14	0xbd81c87e	-0.06337069
15	0xbd39b594	-0.045339182
16	0x3d8c7162	0.068575636
17	0xbd473955	-0.04863866
18	0xbcdc7802	-0.026912693
19	0xbd9ca751	-0.076491006
20	0xbcb5990c	-0.022167705
21	0xbd00cdb2	-0.031446166
22	0x3cf1f747	0.029536856
23	0xbd703359	-0.05864272
24	0x3dacadf4	0.084316164
25	0x3d742ee2	0.059615023
26	0x3dade279	0.08490462
27	0xbcef64cd	-0.02922287
28	0xbd33ab23	-0.04386438
29	0xbdbbd420	-0.09171319
30	0xbdb72890	-0.089432836
31	0xbcac6494	-0.021044053
32	0x3d65539d	0.055987943
33	0x3cf55930	0.029949754
34	0xbd34077e	-0.043952458
35	0x3d4a3e27	0.04937568
36	0xbcc201b7	-0.023682458
37	0xbd70ff5a	-0.058837272
38	0xbc8b6a3b	-0.017018428
39	0xbd79309e	-0.06083738
40	0x3d3a3569	0.045461092
41	0x3d0c4954	0.03424962
42	0x3cd5b138	0.026085481
43	0xbc3a8e5c	-0.01138648
44	0xbd2d6649	-0.042333875
45	0x3c040f99	0.008060359
46	0xbda76c8c	-0.081750005
47	0xbd138428	-0.036014706
48	0xbd1c782a	-0.038200535
49	0xbd9bd326	-0.07608633
50	0xbd201dd1	-0.039090935
51	0xbcc1625d	-0.023606474
52	0xbcc4e8ba	-0.024036754
53	0xbc4d94e1	-0.0125477025
54	0xb980532c	-0.0002447603
55	0xbdb34291	-0.08752931
56	0xbd2ba9bc	-0.04190992
57	0xbc7cac74	-0.015421975
58	0xbb6d192f	-0.003617834
59	0xbc87c059	-0.01657121
60	0xbbcbdac0	-0.0062211454
61	0xbd157a78	-0.03649375
62	0x3d9ac45d	0.075569846
63	0x3d197292	0.03746278
64	0x3d903749	0.07041795
65	0x3d975ca9	0.073907204
66	0x3d870bdf	0.06594061
67	0xbd95f0fb	-0.07321354
68	0x3d2212bb	0.039568644
69	0x3d96fc80	0.07372379
70	0x3dc855c5	0.09781984
71	0x3d1564f6	0.036473237
72	0x3d802dd6	0.062587425
73	0xbd690ce1	-0.056897048
74	0x3d11029a	0.03540287
75	0xbd8cb5de	-0.06870626
76	0xbcedbe54	-0.02902142
77	0xbb2b467e	-0.0026134546
78	0xbda73e94	-0.08166233
79	0xbba64923	-0.0050746365
80	0xbd02c6a4	-0.03192772
81	0x3cb6b636	0.022303682
82	0xbd3ff9c1	-0.046869043
83	0x3c8214a6	0.015878987
84	0x3d87560d	0.0660821
85	0xbbe42f70	-0.006963663
86	0xbda6433b	-0.08118292
87	0x3d8235ad	0.06357894
88	0xbdbfae57	-0.093594246
89	0x3d8ac762	0.067763105
90	0x3b2c407a	0.0026283548
91	0x3c533b0a	0.012892494
92	0xbd9e8d79	-0.077418275
93	0x3ce7fbee	0.028318372
94	0x3d2126a6	0.0393435
95	0x3da15785	0.07878021
96	0x3d033ea8	0.032042176
97	0x39174800	0.00014427304
98	0x3d86bf4d	0.065794565
99	0xbd47e7dd	-0.048805106
100	0x3d775fc0	0.06039405
101	0x3d7ff1a8	0.06248632
102	0xbd521dfe	-0.051298134
103	0xbcfab452	-0.030603562
104	0x3b334b92	0.0027358276
105	0x3d3047fd	0.043037403
106	0x3a33de42	0.0006861427
107	0xbd966ba9	-0.07344753
108	0x3d510038	0.0510256
109	0x3cdcae30	0.026938528
110	0xbd3d175e	-0.046164863
111	0x3c59c54a	0.013291666
112	0xbcca5c86	-0.024702322
113	0xbd9df0d0	-0.07711947
114	0x3d90aedb	0.07064601
115	0xbc951021	-0.018196167
116	0x3d5f593e	0.054528467
117	0xbc05962b	-0.008153479
118	0xbcff5d05	-0.031172285
119	0x3d74a6d2	0.059729405
120	0x3db8f4af	0.09031045
121	0xbc2da570	-0.010598525
122	0xbc34befd	-0.011031863
123	0xbd8d0d34	-0.06887284
124	0xbd845ddb	-0.06463214
125	0x3d02a1b1	0.031892482
126	0xbc003560	-0.007825226
127	0x3d5032e8	0.050829798
128	0x3d2e3a1d	0.04253589
129	0x3d0b2ad9	0.03397641
130	0xbc8dc9f8	-0.01730822
131	0x3d07a156	0.033112846
132	0xbcc79ec8	-0.024367705
133	0xbd13a08b	-0.036041778
134	0x3d0c36ba	0.03423188
135	0xbccc2164	-0.024918266
136	0x3d2db163	0.042405497
137	0xbd037b47	-0.03209999
138	0x3d2af8e9	0.041741285
139	0x3d925f18	0.07147044
140	0x3c7f1072	0.015567886
141	0xbd358f7b	-0.044326287
142	0x3cb0cdc1	0.021582486
143	0xbd6f005d	-0.058349956
144	0xbd61e67d	-0.05515145
145	0xbdd5cf90	-0.1043998
146	0x3d91ccb0	0.07119119
147	0xbda28738	-0.07935947
148	0x3c64b609	0.013959416
149	0x3b4ca9e5	0.0031229195
150	0x3da37b50	0.07982504
151	0x3c31cc80	0.010851979
152	0x3c914656	0.017733734
153	0xbd896834	-0.06709328
154	0x3d117917	0.03551587
155	0x3da3862b	0.07984575
156	0xbd915a56	-0.07097308
157	0xbcbcebd6	-0.023061674
158	0xbdb28c31	-0.08718146
159	0x3bc1f88e	0.0059195226
160	0x3ce002a4	0.02734501
161	0xbd11c66f	-0.03558963
162	0xbcd4b4c9	-0.025965111
163	0xbd083ed6	-0.03326305
164	0xbcb5fc5b	-0.022215059
165	0x3d0f2524	0.03494753
166	0x3dbe4cbf	0.09291982
167	0x3db6b83f	0.08921861
168	0xbd1202a1	-0.03564704
169	0x3bf7be85	0.0075605535
170	0xbd90f099	-0.0707714
171	0x3d8a0129	0.067385025
172	0xbd95c064	-0.07312086
173	0x3ceeb19e	0.029137429
174	0xbc90e26f	-0.017686097
175	0x3d590a8e	0.05298858
176	0x3d975e04	0.07390979
177	0xbc3c9aed	-0.011511547
178	0x3db5cfe3	0.08877542
179	0xbccc9938	-0.024975404
180	0x3d571f6d	0.052520204
181	0x3caaec80	0.020864725
182	0x3d8f1c83	0.0698786
183	0x3d390742	0.045172937
184	0xbc409e21	-0.011756451
185	0x3c4faeaf	0.012675925
186	0x3b879b7b	0.0041384078
187	0xbd45bf14	-0.04827793
188	0xbca66f7f	-0.020316837
189	0xbce37e5b	-0.027770212
190	0x3d6d2fab	0.057906788
191	0x3d48c553	0.049016308
192	0x3d879bfc	0.066215485
193	0xbcc1fcaa	-0.02368005
194	0xbbe6e861	-0.0070467447
195	0x3db29c52	0.08721222
196	0x3cdec00a	0.02719118
197	0x3b27fa74	0.002563146
198	0xbbb844ed	-0.005623451
199	0x3c889ce4	0.016676374
200	0xbd8b6f27	-0.0680831
201	0xbd4475dd	-0.047963966
202	0xbd97d32e	-0.07413326
203	0x3d3826d6	0.04495891
204	0xbc2a5b5a	-0.0103977565
205	0xbdcc3e63	-0.09972837
206	0xbba0f4d1	-0.004911997
207	0xbd1cc080	-0.03826952
208	0x3d5e874d	0.05432825
209	0x3b60a569	0.003427828
210	0xbdb69124	-0.08914402
211	0x3d9887b7	0.074477606
212	0xbce8bb3f	-0.028409598
213	0xbd28b74c	-0.04119043
214	0xbd52d473	-0.05147214
215	0xbd7d967c	-0.06191109
216	0xbcc1b2d6	-0.023644846
217	0xbdaaee58	-0.08346242
218	0xbc822e30	-0.015891165
219	0xbd5494e0	-0.05189979
220	0x3de2bed0	0.11071551
221	0xbca88feb	-0.020576438
222	0x3dc1dff5	0.094665445
223	0xbd3ddeef	-0.046355184
224	0x3c4334fe	0.01191449
225	0x3cbeff2c	0.023315035
226	0xbc9cb288	-0.0191281
227	0xbdd0376d	-0.10166822
228	0xbcb326e4	-0.02186913
229	0x3d13b0ee	0.036057405
230	0xbd0c2602	-0.034215935
231	0x39533c7f	0.00020145065
232	0x3c4a0c12	0.012331979
233	0x3dbf03f4	0.09326926
234	0xbd1dfc91	-0.038570944
235	0xbc84123e	-0.01612198
236	0xbc0609b2	-0.0081810225
237	0xbd5f1c1d	-0.05447017
238	0x3c60c07f	0.01371777
239	0xbd32dc05	-0.04366686
240	0x3d2db614	0.04240997
241	0xbdb9a7f6	-0.09065239
242	0xbdb5e241	-0.08881045
243	0x3d28f2e9	0.041247282
244	0x3d934a10	0.07191861
245	0xbc0679b8	-0.008207731
246	0x3b91874e	0.0044411784
247	0x3b0b4bbc	0.0021254858
248	0x3d9cf60c	0.07664117
249	0x3d2ab16f	0.04167312
250	0x3c06f310	0.008236662
251	0x3d695d45	0.056973714
252	0x3d12b73a	0.03581927
253	0x3c0ceaf9	0.008600944
254	0x3bca154a	0.0061670886
255	0x3da07dba	0.078364804

encoder.0.bias f4 [60]
0	0x3c997720	0.018733561
1	0x3d97b90f	0.07408344
2	0x3c1e3ac8	0.009657569
3	0x3d75ac30	0.059978664
4	0xbd6589de	-0.056039684
5	0x3ce255fa	0.027628887
6	0xbdb35308	-0.08756071
7	0xbc9b7bbf	-0.018979905
8	0x3d8b044e	0.067879304
9	0x3da98b6b	0.08278545
10	0x3bbf7365	0.0058426135
11	0xbcf027b7	-0.029315813
12	0xbd626b67	-0.055278208
13	0x3d62c189	0.05536035
14	0xbcd6eeea	-0.02623697
15	0xbd862ab2	-0.06551112
16	0xbcb40d58	-0.021979019
17	0x3d7c17af	0.061546024
18	0xbd7969a5	-0.060891766
19	0x3dcb7212	0.099338666
20	0x3bdf0ffe	0.0068073263
21	0x3d3c7838	0.046013087
22	0xbdd46af1	-0.1037196
23	0x39945f04	0.00028299552
24	0x3d42bbee	0.047542505
25	0x3cc8a29c	0.0244916
26	0x3d113e83	0.035460006
27	0xbcc7c1ed	-0.024384463
28	0xbc86bd84	-0.01644779
29	0x3d96d0fd	0.0736408
30	0x3d60847b	0.054813843
31	0xbbab15c3	-0.0052211
32	0x3d8483cc	0.06470451
33	0xbd8940c5	-0.06701807
34	0x3d2b767f	0.041861054
35	0xbdaea80b	-0.085281454
36	0x3d8bda30	0.06828725
37	0x3ddaa2a0	0.106755495
38	0xbd2e7b81	-0.04259825
39	0x3c242c7c	0.0100203715
40	0xbd4222b9	-0.047396395
41	0xbcd0cf8a	-0.025489587
42	0x3c85fe39	0.016356574
43	0xbd14a030	-0.03628558
44	0xbd043c62	-0.032284148
45	0xbd1457ea	-0.036216654
46	0x3d01e962	0.03171671
47	0xbd3fac2d	-0.04679506
48	0xbd59cb3c	-0.053172335
49	0xbc37639c	-0.011193182
50	0xbcffa5dd	-0.03120702
51	0xbd6ea388	-0.058261424
52	0xbd90d7fb	-0.07072445
53	0xbd3d1512	-0.046162672
54	0xbba36ac7	-0.004987094
55	0x3b7ae484	0.0038283179
56	0x3d0897b7	0.03334781
57	0x3c3ea4d1	0.011635975
58	0xbd1aa047	-0.03775051
59	0x3d8c6afd	0.06856344

encoder.2.weight f4 [30, 60]
0	0xbe01b08b	-0.12665002
1	0x3dd93646	0.10606055
2	0xbd6c6309	-0.057711635
3	0xbc995614	-0.018717803
4	0xbdcb9630	-0.09940755
5	0x3d6c1fd7	0.057647552
6	0xbd9fa297	-0.077946834
7	0x3dba2ad0	0.09090197
8	0x3dbb5c54	0.091484696
9	0xbd485a9b	-0.048914533
10	0x3d867152	0.06564583
11	0xbc29db77	-0.010367266
12	0xbded1590	-0.11576378
13	0xbdb0ef81	-0.08639432
14	0x3dee8e30	0.11648214
15	0x3d311229	0.04323021
16	0xbba2e1e8	-0.004970778
17	0xbd1636d2	-0.036673374
18	0x3ddf67e8	0.109084904
19	0xbd070859	-0.032966945
20	0x3de26ef5	0.110563196
21	0xbdecdc57	-0.11565464
22	0xbdddfafc	-0.10838887
23	0x3cee18cc	0.029064558
24	0x3dcd6475	0.10028926
25	0x3d41a59b	0.047277074
26	0xbc21f476	-0.009884944
27	0x3caf3737	0.021388633
28	0x3deb9b39	0.11504216
29	0xbe063011	-0.13104273
30	0x3c4614c6	0.012089914
31	0xbd9376ed	-0.07200418
32	0x3c7dcb00	0.0154902935
33	0xba2c916d	-0.00065829494
34	0xbd050b37	-0.0324814
35	0x3c7c7da8	0.015410818
36	0x3d97b0b2	0.07406749
37	0xb74813fe	-1.1925584e-05
38	0x3c5cfd8c	0.013488185
39	0x3d8b1b15	0.06792275
40	0x3e0d3849	0.13791002
41	0xbd89dcb3	-0.06731548
42	0xbdc022e5	-0.093816556
43	0xbdef7ebb	-0.11694094
44	0xbdf265ab	-0.11835798
45	0xbc83ec35	-0.016103843
46	0xbd4ec1cb	-0.050477784
47	0xbdf2e171	-0.11859406
48	0xbd866813	-0.06562819
49	0x3ce455f7	0.027873022
50	0x3dd233d1	0.102637894
51	0x3e002047	0.12512313
52	0x3d979ac7	0.07402568
53	0xbd2ccaec	-0.04218571
54	0x3c990b75	0.018682221
55	0x3c861caf	0.0163711
56	0xbdc2a475	-0.09504024
57	0x3e0e94cb	0.13923948
58	0xbdff777d	-0.124739625
59	0x3de27c57	0.11058872
60	0xbdc07f44	-0.09399274
61	0x3c11ae98	0.008891724
62	0x3dd5e39b	0.10443803
63	0xbd809065	-0.06277541
64	0x3dd05822	0.1017306
65	0xbda428b4	-0.08015576
66	0x3d92f615	0.07175843
67	0x3df9a413	0.12189498
68	0x3de0c8ee	0.10975824
69	0x3d73d2a2	0.059527047
70	0x3d18eb38	0.037333697
71	0x3df1bd94	0.11803737
72	0x3d1fc2c3	0.0390041
73	0xbd640207	-0.055665996
74	0x3d4adaa5	0.049524922
75	0xbdd8bbe9	-0.10582716
76	0xbd939eae	-0.07208
77	0x3c8064a3	0.015672987
78	0x3d15d95e	0.03658425
79	0xbd3f413b	-0.046693068
80	0xbdd703d6	-0.104987785
81	0x3d00c3ef	0.031436857
82	0x3c1f7c8a	0.009734282
83	0xbc172731	-0.009225653
84	0xbba17b00	-0.004927993
85	0x3d120f37	0.03565904
86	0x3db2e6b4	0.087354094
87	0x3dfea518	0.12433833
88	0x3d83854d	0.064219095
89	0xbd293c6b	-0.041317385
90	0x3cd0d8e1	0.02549404
91	0xbdd98ff9	-0.10623164
92	0x3d93b902	0.07213022
93	0xbdc30ea5	-0.095242776
94	0xbcd65c8d	-0.026167179
95	0x3dce5a02	0.100757614
96	0x3d62d707	0.055380847
97	0xbdebeefc	-0.11520192
98	0x3dbe29fa	0.0928535
99	0x3dc426c6	0.09577708
100	0x3d98985f	0.074509375
101	0x3d9d2bcf	0.076743715
102	0xbda5402c	-0.080688804
103	0xbdff9ce6	-0.12481098
104	0x3db74261	0.08948208
105	0xbcd04d0c	-0.025427364
106	0x3d7cef5e	0.061751716
107	0x3d9255c4	0.07145265
108	0x3d8f26d5	0.069898285
109	0xbd9d5ce1	-0.07683731
110	0xbde39b23	-0.11113574
111	0xbcdbd285	-0.026833782
112	0xbd6ba60f	-0.057531413
113	0xbdd20844	-0.10255483
114	0x3dc221e3	0.0947912
115	0x3e0d39d5	0.13791592
116	0xbd01eab4	-0.03171797
117	0x3da1744f	0.07883512
118	0x3d67cd11	0.05659205
119	0x3d4d4f27	0.050124314
120	0xbcddf64d	-0.027094984
121	0xbda50d16	-0.080591366
122	0xbcff6e09	-0.031180399
123	0x3cd4c180	0.025971174
124	0x3da304d5	0.07959906
125	0x3d4d1bfc	0.050075516
126	0x3dda2800	0.10652161
127	0xbd84fce4	-0.064935476
128	0xbd75833a	-0.0599396
129	0xbd895a76	-0.06706707
130	0xbdbf3857	-0.09336918
131	0xbcda06ae	-0.026614513
132	0xbd9168e8	-0.071000874
133	0x3d8b4166	0.06799583
134	0x3cef0ad1	0.029179962
135	0xbcf65f1c	-0.030074649
136	0x3dbcb85c	0.09214851
137	0x3d94b9a5	0.072619714
138	0xbdcfa25a	-0.10138388
139	0xba472a89	-0.0007597586
140	0x3cc30def	0.023810355
141	0x3d8c450c	0.06849107
142	0xbe0c3821	-0.13693286
143	0xbe10fef7	-0.14159761
144	0xbe101251	-0.14069487
145	0xbb9ebb2d	-0.0048440904
146	0x3e0ea0fb	0.13928597
147	0x3d793a15	0.060846407
148	0xbe00bb9c	-0.12571567
149	0x3dde51d2	0.1085545
150	0xbd96176c	-0.07328686
151	0xbdbaa5e1	-0.0911367
152	0x3e077f0f	0.13232063
153	0x3d24058e	0.04004436
154	0x3d5b3c27	0.053524163
155	0xbb3a8168	-0.002845848
156	0x3cd71cf9	0.026258932
157	0x3c629d0a	0.013831386
158	0x3cdd0def	0.026984183
159	0xbbb7ea2d	-0.0056126327
160	0xbe08736d	-0.13325281
161	0x3e00a675	0.12563498
162	0x3dd7f3b9	0.10544533
163	0xbb83b542	-0.0040194103
164	0xbcc43a56	-0.023953598
165	0x3dda445a	0.10657568
166	0x3de1c555	0.11023966
167	0x3d6fa340	0.058505297
168	0x3d9a3776	0.075301096
169	0xbddc8cf0	-0.10769069
170	0x3d7c5842	0.061607607
171	0x3ddd34da	0.10801096
172	0xbda3f61e	-0.080059275
173	0x3e0d6e62	0.13811639
174	0xbdd0db31	-0.101980574
175	0xbe0c2b50	-0.13688397
176	0xbda7944c	-0.08182582
177	0xbcbe3a16	-0.023221057
178	0xbdd5ed06	-0.10445599
179	0xbd56f6d7	-0.0524815
180	0x3dde605c	0.10858223
181	0x3d87ce68	0.06631166
182	0xbc72da59	-0.014822566
183	0xbcd4b143	-0.025963431
184	0xbe01f93c	-0.12692732
185	0x3e0e14f0	0.13875175
186	0xbd403d39	-0.046933386
187	0xbbc6836b	-0.0060581467
188	0xbd87b640	-0.06626558
189	0xbdc03cc6	-0.093865916
190	0xbe087415	-0.13325532
191	0xbdf09639	-0.11747403
192	0xbc2ea21b	-0.010658766
193	0x3d70d931	0.05880088
194	0x3d969336	0.07352297
195	0xbcee5d81	-0.02909732
196	0x3c56fb2a	0.013121406
197	0x3d989baa	0.074515656
198	0x3d8b26bd	0.06794498
199	0x3e0b55b1	0.13606907
200	0xbd01f229	-0.031725083
201	0xbd0aa56a	-0.033849157
202	0xbc9d25a4	-0.019182988
203	0x3d93f63c	0.072247
204	0x3cb44e8e	0.022010114
205	0xbe0f3a1e	-0.13987014
206	0x3dcb4b79	0.09926505
207	0xbbafa542	-0.0053602764
208	0xbde88814	-0.1135408
209	0x3e0fc220	0.14038897
210	0xbda74dee	-0.08169161
211	0xbbc1aafc	-0.0059102755
212	0xbd890e14	-0.06692138
213	0xbdaa8c97	-0.08327597
214	0xbddad1ce	-0.10684548
215	0x3da0ce1c	0.07851812
216	0x3d849e67	0.06475525
217	0xbd3090d4	-0.04310687
218	0x3d8d0091	0.06884874
219	0xbde45bbb	-0.11150309
220	0xbd47265f	-0.048620578
221	0xba62acc8	-0.0008646962
222	0x3ddbbcb6	0.10729353
223	0x3dd9683b	0.106155835
224	0xbdab64ab	-0.0836881
225	0x3d34cb8b	0.044139426
226	0xbcdca1aa	-0.026932556
227	0x3dc3b801	0.0955658
228	0xbd9618f6	-0.0732898
229	0xbdf48380	-0.11939144
230	0xbd0fc9be	-0.035104506
231	0x3d242c7e	0.040081494
232	0xbd4e72b1	-0.050402347
233	0x3d6b1202	0.05739022
234	0xbe0b1d70	-0.13585448
235	0xbdeff1a3	-0.117160104
236	0x3d0bb175	0.034104783
237	0xbe0a4493	-0.13502721
238	0x3d67b23f	0.056566473
239	0x3c88ae91	0.016684802
240	0x3de89123	0.11355808
241	0xbcf4bcf3	-0.029875254
242	0xbca14f06	-0.019691002
243	0xbe0f1619	-0.13973273
244	0xbd9a87c8	-0.075454295
245	0xbd9297a2	-0.07157828
246	0xbe0423a7	-0.12904225
247	0xbdacefce	-0.084441766
248	0x3dbfa182	0.09356977
249	0xbdb18eac	-0.086697906
250	0xbe19d29a	-0.15021744
251	0xbe078240	-0.1323328
252	0xbdbefa42	-0.09325077
253	0x3d990711	0.07472051
254	0xbddde723	-0.108351015
255	0xbd6be507	-0.057591464

encoder.2.bias f4 [30]
0	0xbdd97181	-0.10617352
1	0xbc838732	-0.016055677
2	0x3dbf6bc0	0.093467236
3	0xbcfc314f	-0.03078523
4	0x3d93a386	0.07208924
5	0x3c53a874	0.01291858
6	0x3d923680	0.07139301
7	0x3cd00fd9	0.025398182
8	0x3ca3f173	0.020012593
9	0xbcd08f6b	-0.025459012
10	0xbda10f07	-0.07864194
11	0x3dca2e9c	0.09872171
12	0x3d6a5a91	0.057215277
13	0x3c95d650	0.018290669
14	0x3e0a6327	0.13514386
15	0x3d22044b	0.039554875
16	0xbb47e392	-0.0030500633
17	0x3d7b3953	0.061333966
18	0x3d6b84f0	0.057499826
19	0x3d0ef835	0.034904677
20	0x3d7176f4	0.058951333
21	0x3d91444c	0.07093105
22	0xbd376848	-0.044777185
23	0x3db146fa	0.08656116
24	0x3dd7cbb6	0.10536902
25	0x3dd415d1	0.10355724
26	0x3d61eb9e	0.055156343
27	0x3d06e924	0.032937184
28	0x3db5218a	0.08844288
29	0x3d6bf8b8	0.057610244

encoder.4.weight f4 [10, 30]
0	0xbe1f0218	-0.15528142
1	0x3e2c570b	0.1683008
2	0xbd91b923	-0.0711539
3	0xbd4be414	-0.04977806
4	0x3dcfd888	0.10148722
5	0x3c98503a	0.018592943
6	0xbd71302b	-0.058883827
7	0xbe0f4823	-0.13992362
8	0xbe277d79	-0.16356458
9	0xbd47827e	-0.04870843
10	0x3d902547	0.0703836
11	0xbe3079a9	-0.1723391
12	0x3d814d88	0.06313616
13	0x3e4fe459	0.20301951
14	0x3cf29af5	0.029614905
15	0x3e2c7a79	0.16843595
16	0x3d411e49	0.047148023
17	0xbe481449	-0.19538988
18	0xbcd0968b	-0.02546241
19	0x3e1316b5	0.14364131
20	0xbd8dd3d8	-0.069251716
21	0xbc0e40cc	-0.008682441
22	0xbde96f75	-0.11398212
23	0x3df1426c	0.11780247
24	0xbca59ddf	-0.02021688
25	0xbd912565	-0.070872106
26	0x3dd57efb	0.1042461
27	0x3e1462be	0.14490792
28	0x3dfd9fa1	0.123839624
29	0x3ca0a1a6	0.01960833
30	0x3e2f9a18	0.17148626
31	0xbd9c1d78	-0.07622808
32	0xbd72351d	-0.059132684
33	0xbdedde4e	-0.11614667
34	0x3d352a0b	0.04422955
35	0xbe0c0c46	-0.13676557
36	0x3db24f6d	0.087065555
37	0x3db3edec	0.08785614
38	0xbdf685d5	-0.12037245
39	0x3d957528	0.072977364
40	0xbce0d35b	-0.027444532
41	0xbe2a30b2	-0.16620138
42	0x3e1ee3cc	0.15516585
43	0xbd0ea28d	-0.03482299
44	0xbd4af1a0	-0.049546838
45	0xbd962f8d	-0.07333288
46	0x3d18013f	0.037110563
47	0xbe355f0e	-0.17712042
48	0xbe052596	-0.13002619
49	0x3e28161f	0.16414689
50	0x3e34d089	0.17657675
51	0xbdd98333	-0.106207274
52	0x3dbfee3b	0.09371611
53	0x3d4e9914	0.050438955
54	0xbe1427bf	-0.14468287
55	0xbe32dbe9	-0.17466702
56	0x3d9d6c5e	0.07686685
57	0x3db7b926	0.08970861
58	0xbe40b840	-0.18820286
59	0xbbb3a885	-0.0054827356
60	0xbe0c96a5	-0.13729341
61	0xbda336d6	-0.079694435
62	0xbc685f4a	-0.014182875
63	0x3e2d366c	0.16915292
64	0x3da6862a	0.081310585
65	0xbe1207a3	-0.14260726
66	0xbd3d6af0	-0.04624456
67	0x3e3e209c	0.18567127
68	0xbd293322	-0.04130853
69	0xbd15ad51	-0.03654224
70	0xbd0db494	-0.03459604
71	0xbe194e2d	-0.14971228
72	0xbdfeb4e7	-0.12436848
73	0x3e0a9bc6	0.13535985
74	0xbdf1d441	-0.11808062
75	0xbcb25aca	-0.021771807
76	0x3e2ecbb9	0.17069902
77	0x3e17a717	0.14809833
78	0xbe23248d	-0.15931912
79	0x3af7bf17	0.0018901554
80	0xbe3f5082	-0.18683055
81	0xbd53fbac	-0.051753685
82	0xbca047d2	-0.019565497
83	0x3d06ef12	0.03294284
84	0xbd88fe4e	-0.0668913
85	0x3e360302	0.17774585
86	0xbdf87674	-0.12131968
87	0x3e1c5039	0.15264978
88	0x3e3ac091	0.18237521
89	0x3cae2586	0.021258127
90	0xbde45dc3	-0.11150696
91	0x38ff1818	0.00012163835
92	0x3da4fdbf	0.08056211
93	0x3cd885ef	0.026431052
94	0x3e3c2975	0.1837519
95	0xbd16b4d8	-0.03679356
96	0x3e4c8ed0	0.19976354
97	0xbd47615f	-0.048676845
98	0xbe3bc4e0	-0.1833682
99	0xbd5f2a33	-0.054483604
100	0xbaa37efa	-0.0012473755
101	0x3e11b46d	0.14228983
102	0xbd10f210	-0.0353871
103	0x3e03825c	0.12842697
104	0x3e26e69a	0.16298905
105	0x3d260ca3	0.040539395
106	0x3d0a785d	0.033806194
107	0xbbfcf730	-0.0077198967
108	0xbd2480ca	-0.040161885
109	0x3d9880fb	0.07446476
110	0xbd2a1276	-0.041521512
111	0xbe007d31	-0.12547757
112	0x3d59cf27	0.05317607
113	0x3dfe1570	0.12406433
114	0xbcc002de	-0.023438867
115	0xbd1dc38a	-0.03851656
116	0x3d39b9bd	0.04534315
117	0x3e227f7a	0.15868941
118	0xbe0d2025	-0.13781793
119	0xbdda9b6a	-0.10674174
120	0x3e479f18	0.19494283
121	0x3c0da17c	0.008644458
122	0xbdf658bf	-0.12028646
123	0xbe2c2c45	-0.16813762
124	0xbcb3eba0	-0.02196294
125	0xbd932de9	-0.07186491
126	0xbe39d52a	-0.18147722
127	0xbcf94be2	-0.030431692
128	0x3dabf5e8	0.08396512
129	0x3d78fcee	0.060788088
130	0xbdf25fdf	-0.11834692
131	0x3d83c16d	0.064333774
132	0x3970f7a1	0.00022980433
133	0xbe16ea92	-0.14737919
134	0xbb1b5606	-0.0023702397
135	0xbd465cab	-0.04842822
136	0xbe30d146	-0.17267331
137	0xbe0da9df	-0.13834332
138	0x3cb18ccd	0.021673584
139	0xbdb50abd	-0.08839939
140	0xbe063a19	-0.131081
141	0x3ad8d1e4	0.0016542044
142	0xbe0168c7	-0.12637626
143	0xbdd77b41	-0.10521556
144	0xbd708ee1	-0.05873001
145	0x3d96fca1	0.07372404
146	0x3cab0ac3	0.020879155
147	0xbc385f00	-0.0112531185
148	0xbe32513f	-0.17413805
149	0xba68ea04	-0.00088849687
150	0xbd712ff4	-0.058883622
151	0x3db5ac95	0.08870808
152	0xbd623cb6	-0.05523368
153	0x3e1ad5a4	0.1512056
154	0x3d7758b7	0.06038734
155	0x3d23f72b	0.04003064
156	0x3dd8df82	0.10589506
157	0xbd9fc53f	-0.078012936
158	0xbe0b47da	-0.13601628
159	0x3d25a0b4	0.04043646
160	0xbdf9bffe	-0.12194823
161	0xbc2db68e	-0.010602606
162	0xbe1f274a	-0.15542331
163	0x3dff82a6	0.12476091
164	0x3e1ae074	0.15124685
165	0x3e0c9dff	0.13732146
166	0x3dca313f	0.09872674
167	0xbe37f4d4	-0.17964488
168	0xbdd62a41	-0.10457278
169	0xbda6b1c9	-0.081393786
170	0xba4616c9	-0.0007556496
171	0xbd070151	-0.03296024
172	0x3dd9252e	0.106027946
173	0x3d74d6e8	0.059775263
174	0x3de9eae7	0.11421757
175	0x3dad20b2	0.08453502
176	0xbe1615f1	-0.14656807
177	0xbd37d9f8	-0.044885606
178	0x3d02bcf3	0.031918477
179	0xbe2f3310	-0.17109323
180	0x3d8b7bb6	0.06810705
181	0xbda8adc7	-0.082362704
182	0x3d284296	0.041079126
183	0x3e09477a	0.13406172
184	0x3ddf98a8	0.10917789
185	0xbe2c11b9	-0.16803636
186	0x3d1eaf9b	0.03874169
187	0xbdc68842	-0.09693958
188	0x3e203f8f	0.15649246
189	0x3df1945c	0.117958754
190	0x3e3c2378	0.18372905
191	0x3d899490	0.06717789
192	0x3d85eb7a	0.06539054
193	0xbd08a49d	-0.033360112
194	0x3cb2899c	0.021794133
195	0xbe181200	-0.14850616
196	0xbdf57b0c	-0.1198636
197	0xbda51da1	-0.08062292
198	0x3d84b9ef	0.064807765
199	0xbe076dc1	-0.13225462
200	0xbe26ecd1	-0.16301276
201	0xbdf1959a	-0.11796112
202	0x3e4dda60	0.20102835
203	0xbdb35725	-0.08756856
204	0xbe17923b	-0.14801876
205	0x3d9eb0d5	0.07748572
206	0xbe4b90e3	-0.19879489
207	0x3e0f4667	0.139917
208	0x3e0504eb	0.12990157
209	0xbc4c191a	-0.012457157
210	0xba15280c	-0.00056898664
211	0x3d7aa183	0.061189186
212	0xbd100795	-0.03516348
213	0x3ceb7279	0.028741108
214	0xbdd3b660	-0.1033752
215	0x3d631b2e	0.055445842
216	0x3d9fa563	0.07795217
217	0x3e0e34cd	0.1388733
218	0xbd91df8b	-0.071227156
219	0x3dcbbc93	0.09948077
220	0xbdd9bedf	-0.10632109
221	0x3e0ba58e	0.13637373
222	0x3d8b2e8e	0.06795989
223	0x3d70dc6a	0.058803953
224	0xbdb5d8c0	-0.088792324
225	0xbe37aada	-0.17936268
226	0xbe2360c5	-0.15954883
227	0xbe0b58ec	-0.1360814
228	0xbd03701d	-0.03208934
229	0x3d001d96	0.031278215
230	0xbda369dc	-0.079791754
231	0xbd9401a4	-0.072268754
232	0x3e19bdaf	0.15013765
233	0x3da0d9e3	0.078540586
234	0xbe1bd798	-0.15218961
235	0x3dab1f22	0.083555475
236	0x3debd44f	0.11515104
237	0xbd98d747	-0.07462936
238	0x3e3b6315	0.18299516
239	0x3cddd590	0.027079374
240	0xbb6898cd	-0.0035491467
241	0x3e0f00a9	0.13965096
242	0xbda621ab	-0.081118904
243	0x3d9ba374	0.075995356
244	0x3a88af5f	0.0010428241
245	0xbddcd5cc	-0.10782966
246	0x3dc30ad2	0.09523548
247	0xbe20286e	-0.15640423
248	0x3e17383d	0.14767547
249	0x3d6e0ae8	0.05811587
250	0xbe05640f	-0.1302645
251	0xbd866649	-0.06562478
252	0x3e4f04a5	0.20216615
253	0x3e525d73	0.2054346
254	0x3d240f69	0.04005376
255	0x3e215de9	0.1575848

encoder.4.bias f4 [10]
0	0xbd6cdd13	-0.05782802
1	0xbd8829d6	-0.066486046
2	0x3cea57d6	0.028606337
3	0xbd58b008	-0.05290225
4	0x3da67554	0.08127847
5	0x3e1d9593	0.1538909
6	0xbe06f1c8	-0.1317817
7	0xbdc61042	-0.0967107
8	0xbd57e2c9	-0.052706514
9	0xbc97dcca	-0.018537898

encoder.6.weight f4 [1, 10]
0	0xbea3e891	-0.32013372
1	0xbd0aca11	-0.03388411
2	0x3ea7b155	0.3275248
3	0x3e6f607f	0.23376654
4	0xbe02cfa8	-0.12774527
5	0xbbca436d	-0.0061725886
6	0x3e4657c3	0.19369416
7	0x3d1a2ed8	0.03764233
8	0xbead70d3	-0.3387514
9	0xbe562d46	-0.20915708

decoder.0.weight f4 [10, 1]
0	0x3ec00e52	0.37510926
1	0xbf36a99f	-0.7135257
2	0x3eca358c	0.39493978
3	0x3f5e1b58	0.86760473
4	0xbf324127	-0.69630665
5	0xbed60dec	-0.41807497
6	0x3ee8b141	0.45447734
7	0x3f65bb46	0.8973888
8	0x3e6cf7ee	0.23141453
9	0xbf260b3e	-0.64860904

decoder.0.bias f4 [10]
0	0x3f801dde	1.0009115
1	0xbe4b099c	-0.19827884
2	0x3dec8435	0.11548654
3	0x387babb3	6.000297e-05
4	0x3e95e7b7	0.29278347
5	0xbf030436	-0.511783
6	0x3c2c5a6c	0.010519605
7	0xbf45091f	-0.7696704
8	0xbf35cf87	-0.71019787
9	0xbf3e2311	-0.7427226

decoder.2.weight f4 [30, 10]
0	0x3da01a25	0.07817487
1	0xbe360d3d	-0.17778488
2	0xbe234849	-0.15945543
3	0x3e815b3a	0.25264913
4	0xbe164cd2	-0.14677742
5	0xbda36a9d	-0.07979319
6	0x3c21bd17	0.009871743
7	0xbe67d368	-0.22639239
8	0xbb850f97	-0.0040606963
9	0x3cf3fc7e	0.029783484
10	0x3d54df41	0.051970724
11	0x3df47c5a	0.11937781
12	0xbd3f08d7	-0.04663929
13	0xbea95ee3	-0.33080205
14	0x3df1185b	0.117722236
15	0x3ea7afba	0.32751256
16	0xbe0703fa	-0.1318511
17	0x3e5dd0c1	0.21661665
18	0x3e94cb55	0.2906138
19	0xbe38fa2e	-0.18064186
20	0xbe74f76b	-0.23922507
21	0xbe9f8f1a	-0.31163865
22	0x3cef4d00	0.029211521
23	0x3e1c5343	0.15266137
24	0xbea37de1	-0.31931975
25	0x3ea1dfc7	0.3161604
26	0xbe60bea4	-0.21947724
27	0xbde48417	-0.11158007
28	0x3d7ba42f	0.061435875
29	0xbcb1b532	-0.021692846
30	0x3e975985	0.29560485
31	0xbe8a64e4	-0.27030098
32	0x3e1e683d	0.15469451
33	0x3da637f5	0.08116142
34	0x3d81972f	0.06327664
35	0xbd19df9c	-0.037566766
36	0x3e1e84e7	0.15480386
37	0xbd4bbbd1	-0.049739663
38	0x3c179859	0.009252631
39	0x3e2eb566	0.17061386
40	0xbcabcc53	-0.020971453
41	0x3e5e1141	0.2168627
42	0x3dbb602a	0.09149201
43	0xbe8b7c94	-0.27243483
44	0x3db9e308	0.09076506
45	0x3dc20655	0.09473864
46	0x3ea07c53	0.31344852
47	0xbe03c27f	-0.12867163
48	0xbe02e933	-0.12784271
49	0x3e6ba37e	0.23011586
50	0x3e249a9d	0.16074605
51	0x3e9ba25e	0.30397314
52	0x3cc390c4	0.02387274
53	0x3e1334b4	0.14375573
54	0xbe8c45f7	-0.2739713
55	0x3e8ba36f	0.27273127
56	0xbdad6699	-0.084668346
57	0xbea9962b	-0.33122382
58	0xbdf3adfb	-0.118984185
59	0xbe1f8a45	-0.1558009
60	0x3e9d8bdb	0.30770764
61	0x3e094c2c	0.13407964
62	0x3ea10b8f	0.3145413
63	0xbe34ee32	-0.1766899
64	0x3e2defbe	0.16985986
65	0xbd76abb1	-0.06022233
66	0xbc843e90	-0.016143113
67	0xb99bbee0	-0.00029706117
68	0x3c5be39d	0.013420966
69	0x3e992bc1	0.29916194
70	0xbce6a73b	-0.028155914
71	0xbc1eb6d7	-0.009687147
72	0x3e36af05	0.17840202
73	0x3e3b8f5e	0.18316409
74	0x3e169569	0.14705433
75	0x3e26e659	0.16298808
76	0x3ea0a2f0	0.3137431
77	0x3e819151	0.2530618
78	0xbdb5ccca	-0.08876951
79	0x3e2afd63	0.16698222
80	0xbd279c5f	-0.04092061
81	0xbe6b604b	-0.22985952
82	0xbe906b17	-0.28206703
83	0x3e7f3ae7	0.24924813
84	0xbe0fc00f	-0.14038108
85	0xbda66582	-0.0812483
86	0xbe8d0713	-0.2754446
87	0xbdb94945	-0.09047178
88	0x3eacb841	0.33734325
89	0xbe926bf1	-0.28597978
90	0xbdd2b94a	-0.10289247
91	0xbc92456b	-0.017855367
92	0xbe21c5ce	-0.15798113
93	0x3e43695c	0.1908316
94	0x3ddd869c	0.1081669
95	0xbe1f2d90	-0.15544724
96	0xbe11c864	-0.14236599
97	0x3d9be474	0.07611933
98	0xbdcd3be4	-0.10021189
99	0xbe024475	-0.12721427
100	0x3e3a2e8f	0.18181823
101	0xbe28da9e	-0.16489646
102	0xbe9d3f63	-0.30712423
103	0xbe926677	-0.285938
104	0x3da990a9	0.08279545
105	0x3cce07a5	0.02515013
106	0x3e598c90	0.21245027
107	0x3e991608	0.2989962
108	0x3d890a9d	0.066914774
109	0x3d84e13c	0.064882725
110	0x3b438d4b	0.0029838856
111	0xbd35b823	-0.04436506
112	0x3e4ba205	0.19886024
113	0x3c9f7581	0.01946521
114	0xbe55fd39	-0.20897378
115	0x3d8608bd	0.065446354
116	0x3d7476a6	0.059683464
117	0xbe93a665	-0.28837886
118	0xbe037b3a	-0.12839976
119	0xbdf49401	-0.11942292
120	0xbdb18041	-0.086670406
121	0x3e7ffd84	0.24999052
122	0xbdea7825	-0.11448697
123	0x3ea7eb65	0.3279678
124	0x3dc6f366	0.09714393
125	0xbdd7ca30	-0.10536611
126	0xbc5248d6	-0.012834748
127	0xbdada4c7	-0.084786944
128	0xbe48fc9a	-0.1962761
129	0x3dc77903	0.09739878
130	0x3e581c48	0.21104538
131	0xbdb79b32	-0.08965148
132	0xbe332fd3	-0.17498712
133	0xbe8f20a9	-0.27954605
134	0x3e43c576	0.19118294
135	0xbd84dbef	-0.064872615
136	0x3e376599	0.1790985
137	0x3e8f3452	0.27969605
138	0x3cdb4b49	0.026769297
139	0xbe0166a2	-0.12636808
140	0x3e637347	0.22211944
141	0x3e4c634a	0.19959751
142	0xbe40c393	-0.18824606
143	0xbe87968b	-0.26482043
144	0xbc7deefc	-0.015498873
145	0x3e23c3e0	0.15992689
146	0xbc2ec1ed	-0.010666353
147	0x3d0f8307	0.035037067
148	0xbe0e34c9	-0.13887323
149	0xbe68f988	-0.22751439
150	0x3e8ddf71	0.27709535
151	0x3e97e7bd	0.2966899
152	0xbe36b63d	-0.17842956
153	0x3e67f8e4	0.22653538
154	0xbd97a75c	-0.07404968
155	0xbe868620	-0.26274204
156	0x3e33cd1f	0.17558716
157	0x3d23088e	0.03980308
158	0x3d45f8e8	0.04833308
159	0xbea0880c	-0.31353796
160	0xbe804209	-0.2505038
161	0x3e429879	0.19003476
162	0xbdb32c7c	-0.08748719
163	0xbe8ebbfd	-0.278778
164	0xbd224b3b	-0.039622527
165	0x3c8a3cb2	0.016874645
166	0xbe906477	-0.2820165
167	0xbe7b59e7	-0.24546014
168	0x3e93b5de	0.2884969
169	0x3d825f58	0.063658416
170	0xbd9cae4c	-0.07650432
171	0x3e19fe14	0.1503833
172	0xbe9c4ea7	-0.30528757
173	0xbe4c35cf	-0.19942401
174	0x3dac64c6	0.084176585
175	0xbe40dea6	-0.18834934
176	0xbd045ac6	-0.03231313
177	0xbe9ad493	-0.30240306
178	0xbe12a2f4	-0.14319974
179	0xbe13a40c	-0.14418048
180	0xbd3f83ad	-0.046756435
181	0x3c96bb27	0.018399788
182	0xbe79a2aa	-0.24378458
183	0x3d922af4	0.07137099
184	0x3d3022de	0.043002002
185	0x3dec2607	0.11530691
186	0x3ddd9e21	0.10821176
187	0xbe292704	-0.1651879
188	0x3dce6d40	0.100794315
189	0x3d228704	0.039679542
190	0x3de78c3e	0.11306046
191	0x3e8b12b8	0.2716272
192	0x3c83f7ce	0.016109373
193	0x3d689059	0.056778286
194	0xbcc8f7ed	-0.024532283
195	0xbe2d8d55	-0.16948445
196	0x3ea0bc4d	0.31393662
197	0xbd87cdee	-0.06631075
198	0xbdcb5a0d	-0.09929285
199	0x3dc46eee	0.09591471
200	0xbe892d17	-0.26792213
201	0x3e70133a	0.23444834
202	0x3e99b6a3	0.30022153
203	0x3e31751d	0.17329831
204	0x3d529e0d	0.05142026
205	0xbdc0e55a	-0.09418745
206	0x3dd32b70	0.103110194
207	0x3e0e74d7	0.13911758
208	0xbe9cd61c	-0.30632102
209	0xbe8d386f	-0.27582118
210	0xbe6bcc9b	-0.2302727
211	0x3e65c1b2	0.2243717
212	0xbdcf2aa1	-0.10115553
213	0x3e6744f9	0.22584905
214	0xbda197af	-0.078902595
215	0xbddc2b81	-0.10750485
216	0xbdb416df	-0.08793425
217	0xbe3a5cac	-0.18199414
218	0xbe675809	-0.22592176
219	0xbd2dc75a	-0.042426445
220	0xbe9419c7	-0.28925917
221	0x3d8500ea	0.06494315
222	0xbd808b14	-0.06276527
223	0x3e2c4b37	0.16825567
224	0x3cbe504f	0.023231653
225	0xbdc03377	-0.09384816
226	0x3e827ec1	0.2548733
227	0x3e1ae308	0.15125668
228	0x3e09e851	0.13467528
229	0x3d4192c1	0.047259096
230	0x3e4cba7f	0.19993018
231	0x3ad389c9	0.0016139086
232	0xbe29759a	-0.16548768
233	0x3ddb28f3	0.1070117
234	0x3d114618	0.035467237
235	0x3d7b4291	0.06134278
236	0xbd320092	-0.043457575
237	0xbe59bd11	-0.2126353
238	0x3d60331d	0.054736245
239	0xbe99f59c	-0.30070198
240	0xbdb2b729	-0.08726341
241	0xbe8d22ae	-0.2756552
242	0x3e1b1c6c	0.15147561
243	0x3e12deda	0.14342824
244	0xbcd31fe4	-0.025772043
245	0xbd3721af	-0.044709858
246	0x3e3d6cfc	0.18498605
247	0x3e9f7ec0	0.3115139
248	0x3e60d1da	0.21955052
249	0x3dbbdf4f	0.09173452
250	0xbdabde32	-0.0839199
251	0x3d9a12dc	0.075231284
252	0xbe5ffe3c	-0.21874326
253	0xbd9d3d05	-0.07677654
254	0x3e93adc2	0.28843504
255	0xbe6d5ce2	-0.23179963

decoder.2.bias f4 [30]
0	0x3e523f87	0.20532046
1	0xbd039f3f	-0.03213429
2	0xbcfaa35d	-0.030595476
3	0xbe095fbd	-0.13415428
4	0x3ea5384d	0.32269517
5	0xbe3bc13f	-0.18335436
6	0x3e60d58a	0.21956459
7	0x3d2d4d1a	0.042309858
8	0xbe4f846e	-0.20265362
9	0x3dd457e3	0.103683256
10	0xbe90b07e	-0.28259653
11	0xbd0c9577	-0.03432223
12	0x3ce48de3	0.027899688
13	0x3e9aee27	0.3025982
14	0xbe9d1d02	-0.30686194
15	0x3e73daef	0.23813985
16	0x3d15f8eb	0.03661434
17	0xbd7166f5	-0.058936078
18	0xbe8cf255	-0.27528635
19	0x3e3b3a5b	0.1828398
20	0xbdafa23e	-0.08575867
21	0xbe9719fd	-0.29512015
22	0xbe2b1c03	-0.16709904
23	0x3e61bca0	0.22044611
24	0xbda19088	-0.07888895
25	0xbe19f9d3	-0.15036707
26	0x3d420d0e	0.04737573
27	0xbe402bc1	-0.18766691
28	0xbe6c2a24	-0.2306295
29	0xbe279f85	-0.16369446

decoder.4.weight f4 [60, 30]
0	0x3d00cf7c	0.031447873
1	0xbe07def1	-0.13268639
2	0x3e150a43	0.14554696
3	0xbc9089c4	-0.017643817
4	0x3e28a726	0.16470012
5	0x3cc51893	0.02405957
6	0x3d01eed3	0.0317219
7	0x3e0921b2	0.1339176
8	0xbddd3b9d	-0.10802386
9	0xbc8a5d3b	-0.016890159
10	0xbe431904	-0.19052511
11	0x3d678451	0.05652267
12	0xbd8fb8aa	-0.07017644
13	0xbd275c7a	-0.040859677
14	0x3de91bac	0.11382231
15	0x3c96f8f6	0.01842926
16	0xbd41d10f	-0.047318514
17	0xbd87906a	-0.06619342
18	0xbe1762cd	-0.14783783
19	0xbcda9083	-0.026680237
20	0x3e250e3c	0.16118711
21	0xbe03be9e	-0.12865683
22	0x3dc87ac2	0.09789039
23	0x3e378fa9	0.17925896
24	0xbe1ce7db	-0.15322821
25	0xbc903be2	-0.01760668
26	0xbdf26a83	-0.11836722
27	0x3d8a2d1b	0.067468844
28	0xbe13fba5	-0.14451464
29	0x3d1a994f	0.037743863
30	0xbd41e194	-0.04733427
31	0xbdb147af	-0.08656251
32	0xbd9c7a85	-0.07640556
33	0xbe2666a7	-0.16250096
34	0xbe2538dd	-0.16134973
35	0xbc320b5e	-0.010866968
36	0xbe3a8148	-0.1821338
37	0x3d9b7a90	0.07591736
38	0xbdd013e1	-0.101600416
39	0xbe05897d	-0.13040729
40	0xbe059ebe	-0.13048837
41	0x3d196aff	0.037455555
42	0x3bec1b2c	0.0072053876
43	0x3c19685d	0.009363261
44	0x3dc7aab2	0.097493544
45	0xbd5769b8	-0.052591056
46	0xbdc5f97f	-0.09666728
47	0x3c0f46d9	0.008744919
48	0x3e0d5c67	0.1380478
49	0xbd851647	-0.0649839
50	0xbb8662e2	-0.004101143
51	0xbd2e991d	-0.04262649
52	0x3afa261c	0.0019084844
53	0xbe3991df	-0.18122052
54	0x3e079411	0.13240077
55	0x3e1fa120	0.15588808
56	0x3e10da87	0.14145862
57	0x3d37ad41	0.044842962
58	0x3da1589f	0.07878231
59	0xbda12e02	-0.078701034
60	0x3e165b74	0.14683324
61	0x3d963055	0.07333437
62	0xbd612c22	-0.05497373
63	0xbe32da1c	-0.17466015
64	0x3dbf8c91	0.09352983
65	0x3d346577	0.044042077
66	0x3e0d64ef	0.13808034
67	0xbd462171	-0.048371736
68	0x3d80e205	0.0629311
69	0x3e07be1b	0.13256113
70	0x3bd5a29e	0.0065196296
71	0xbe1a0b04	-0.15043265
72	0x3dedcc38	0.11611217
73	0x3d529292	0.05140931
74	0x3d1ed4f5	0.03877731
75	0x3b9c8e37	0.0047776955
76	0x3e0f257f	0.13979147
77	0xbd571c54	-0.05251725
78	0x3e0ae9f9	0.13565816
79	0x3e14bae5	0.1452442
80	0x3d72be05	0.059263248
81	0x3d2a385d	0.04155766
82	0x3d12844b	0.035770696
83	0xbd973ae9	-0.07384283
84	0x3db588aa	0.08863957
85	0x3e28d4b7	0.16487394
86	0x3d9af4b3	0.07566204
87	0xbe0a46f2	-0.13503626
88	0x3d9ef9e0	0.077625036
89	0xbd9bfc07	-0.0761643
90	0x3d7bbacd	0.061457444
91	0x3d9b2715	0.07575814
92	0x3dd3406b	0.10315021
93	0x3c067d15	0.008208533
94	0xbd41d100	-0.04731846
95	0xbd284757	-0.04108366
96	0x3d5cc5f2	0.053899713
97	0x3d8f2d30	0.06991041
98	0x3dee14b0	0.116250396
99	0xbd49233f	-0.04910588
100	0xbd8354b1	-0.06412638
101	0xbe016183	-0.12634854
102	0x3e455ef8	0.19274509
103	0x3dd51fe4	0.10406473
104	0xbcb15570	-0.021647185
105	0xbc9f9d9c	-0.019484334
106	0xbd1263a9	-0.035739575
107	0x3e442143	0.19153313
108	0xbe415d37	-0.18883215
109	0xbe08f769	-0.1337563
110	0xbbb45244	-0.005502971
111	0x3e167234	0.14692003
112	0x3d1dc543	0.0385182
113	0xbe1afc45	-0.15135296
114	0xbe452d4b	-0.19255559
115	0x3cb65fee	0.02226254
116	0xbd935fe1	-0.07196022
117	0xbdeef561	-0.11667896
118	0x3db9f168	0.09079248
119	0x3e219d30	0.15782619
120	0x3dbf490c	0.093401045
121	0x3da7e9a3	0.081988595
122	0xbdeae744	-0.11469892
123	0x3de4e60f	0.11176693
124	0xbdc0c985	-0.09413437
125	0x3e3f6f2c	0.18694752
126	0x3e1af180	0.15131187
127	0xbd0e98ad	-0.03481357
128	0xbce9f683	-0.028559929
129	0xbd93e317	-0.07221048
130	0xbda20ece	-0.0791298
131	0x3de5ae9a	0.11214943
132	0xbdfb2f25	-0.122648515
133	0xbdc6c623	-0.0970576
134	0x3dfcd19e	0.12344669
135	0x3c1fb806	0.009748464
136	0x3e1ac788	0.15115178
137	0x3e52e382	0.205946
138	0xbdd45783	-0.10368254
139	0x3e2349fa	0.15946189
140	0x3d229660	0.03969419
141	0xbc50ed5c	-0.012751903
142	0x3e0aae0c	0.13542956
143	0xbe1b931e	-0.1519284
144	0x3e0dcf75	0.1384867
145	0xbe202df8	-0.15642536
146	0xbdd10084	-0.102051765
147	0x3d3475f7	0.044057813
148	0xbe3bb047	-0.18328963
149	0xbdc57224	-0.09640911
150	0x3da95b32	0.08269347
151	0xbdc86f1b	-0.09786817
152	0xbe2d1f50	-0.16906476
153	0x3e0e576b	0.13900535
154	0xbe0aa0d3	-0.13537912
155	0x3d819924	0.063280374
156	0xbe236c79	-0.15959348
157	0xbe36450c	-0.17799777
158	0xbdf2fd75	-0.11864749
159	0xbda255d6	-0.07926528
160	0xbe0253c3	-0.12727265
161	0x3e203509	0.15645231
162	0xbdf4fe36	-0.119625494
163	0x3e29cee6	0.16582832
164	0x3d442bad	0.047893215
165	0x3de9ad02	0.11409952
166	0xbdd97575	-0.10618106
167	0xbd940183	-0.07226851
168	0x3de29905	0.110643424
169	0xbe0a2245	-0.13489635
170	0x3e1989d5	0.14993985
171	0x3de7ccb4	0.11318341
172	0xbdebfd6b	-0.11522945
173	0x3e353b28	0.17698348
174	0x3d3d3d30	0.04620093
175	0xbdbe8e3b	-0.09304472
176	0x3d15e768	0.03659764
177	0xbe39ba2f	-0.1813743
178	0x3e1f6757	0.15566765
179	0x3e16334f	0.1466801
180	0x3dbe094a	0.092791155
181	0x3db6b642	0.08921482
182	0xbd37c136	-0.044861995
183	0xbd6cb891	-0.057793204
184	0x3d13f475	0.036121804
185	0x3daa53e8	0.08316785
186	0x3e45cfa1	0.19317485
187	0xbe1105cc	-0.14162368
188	0xbd56f819	-0.052482698
189	0xbdb07084	-0.08615211
190	0xbbcb7649	-0.006209169
191	0x3e3b5b26	0.18296489
192	0x3cf0d49d	0.029398257
193	0x3e2ff9ae	0.17185089
194	0xbdbedc28	-0.09319335
195	0x3d2e746f	0.04259151
196	0x3cf749a7	0.030186487
197	0xbdcde428	-0.10053283
198	0x3d1f69b8	0.03891918
199	0x3d9e95ee	0.077434406
200	0x3da78675	0.081799425
201	0x3d4127e2	0.047157176
202	0xbd7efd97	-0.06225356
203	0x3e2164ac	0.1576106
204	0xbe23d63e	-0.15999696
205	0x3e12fec7	0.14355002
206	0x3d932bfa	0.07186122
207	0x3e05ce55	0.1306699
208	0x3dff366e	0.124615535
209	0xbc0f7667	-0.008756257
210	0x3dc47edd	0.0959451
211	0x3d61b1d2	0.055101223
212	0xbdef9154	-0.11697641
213	0x3cf3b78c	0.029750608
214	0x3dc943cf	0.098273866
215	0xbe1c9e96	-0.1529487
216	0x3e099188	0.13434422
217	0x3e0186c2	0.12649062
218	0xbdb12d9c	-0.086512774
219	0xbe3ec104	-0.18628317
220	0x3e389d0e	0.18028662
221	0xbd5253a8	-0.051349312
222	0x3e11eb72	0.14249972
223	0xbd925bd1	-0.07146419
224	0xbe3186cf	-0.17336582
225	0xbe2895c0	-0.16463375
226	0x3b3e4513	0.002903287
227	0xbddc6d8e	-0.107630834
228	0xbd3d5e71	-0.046232644
229	0xbe18034b	-0.14845006
230	0xbe0c27d3	-0.13687067
231	0xbdff8dc0	-0.124782085
232	0x3d1d72dd	0.03843962
233	0xbdf6021e	-0.120121226
234	0x3db3686b	0.087601505
235	0x3ccce197	0.025009913
236	0x3e39b32e	0.18134758
237	0x3daca143	0.08429196
238	0x3cf2a51c	0.029619746
239	0x3de2d948	0.11076599
240	0x3d5e0b0d	0.054209758
241	0xbe1123f9	-0.14173879
242	0xbd3b8a02	-0.04578591
243	0xbe11737b	-0.14204209
244	0x3e0aec7b	0.13566773
245	0x3c14a44a	0.009072373
246	0x3e256c2f	0.1615455
247	0xbd25ad50	-0.040448487
248	0xbe46dc50	-0.1941998
249	0xbe25ee64	-0.1620422
250	0xbe2c3fc8	-0.16821206
251	0x3cd3dec9	0.025863068
252	0x3c0b4b72	0.008501874
253	0x3def3044	0.11679128
254	0xbd9ef6f7	-0.077619486
255	0x3e09f599	0.13472594

decoder.4.bias f4 [60]
0	0xbdae066a	-0.08497317
1	0x3dcc6a04	0.099811584
2	0x3e229ec1	0.15880872
3	0x3dac4d0d	0.08413134
4	0x3e251d63	0.16124491
5	0xbe1257d1	-0.14291312
6	0x3d802ef8	0.062589586
7	0x3d9c3dff	0.07629012
8	0xbe1b2958	-0.1515249
9	0x3c9aa80b	0.018878957
10	0x3defe329	0.11713249
11	0x3d413076	0.047165357
12	0x3e46ce95	0.19414742
13	0xbde30792	-0.11085428
14	0xbdb6ddf2	-0.089290515
15	0x3e15460c	0.14577502
16	0xbe0428ae	-0.12906143
17	0xbe0dedbc	-0.1386022
18	0xbe30b412	-0.17256191
19	0x3e1afd0d	0.15135594
20	0x3e409970	0.18808532
21	0x3e09365c	0.13399643
22	0xbd8e54df	-0.069497816
23	0xbcd8957c	-0.026438467
24	0x3e3f6146	0.1868945
25	0x3d21cf41	0.039504293
26	0x3d0e5ab4	0.03475447
27	0x3e0e1f01	0.13879015
28	0x3e06070e	0.13088629
29	0x3d70d591	0.058797423
30	0xbdee4a35	-0.116352476
31	0xbe0d2e8e	-0.1378729
32	0xbcbbaf04	-0.022910602
33	0xbcd0ca7a	-0.025487173
34	0x3e1ffc05	0.15623482
35	0xbdb09039	-0.08621258
36	0xbdb1823e	-0.0866742
37	0xbd6d9d16	-0.058011137
38	0xbdabf2ab	-0.083958946
39	0x3d579fde	0.052642696
40	0xbd3dd2e4	-0.0463437
41	0x3da77bcb	0.081779085
42	0x3e06c8f0	0.13162589
43	0x3e2536f6	0.16134247
44	0x3ad9f819	0.0016629725
45	0xbdc7f86e	-0.09764181
46	0x3d461478	0.048359364
47	0x3e1601e6	0.14649162
48	0xbcca3b01	-0.024686338
49	0x3d0d0e89	0.03443769
50	0x3d9cc012	0.07653822
51	0xbde5b4e4	-0.11216143
52	0xbdd74408	-0.10511023
53	0xbe014b55	-0.12626393
54	0x3cfa9662	0.030589286
55	0x3dc3dd39	0.09563679
56	0x3e2e36c4	0.17013079
57	0x3d102848	0.035194665
58	0xbe2e0ab3	-0.16996269
59	0x3dbf89c4	0.093524486

decoder.6.weight f4 [118, 60]
0	0x3d3bf50f	0.045888003
1	0x3daa1248	0.08304268
2	0x3daddbe3	0.08489206
3	0x3d01f640	0.031728983
4	0xbd7e6628	-0.062109143
5	0xbc89bdbd	-0.016814107
6	0x3b1c6a48	0.002386706
7	0x3d4d556c	0.050130293
8	0x3d1cdd0c	0.038296744
9	0xbd02d0be	-0.031937353
10	0xbe09c34a	-0.13453403
11	0xbda88300	-0.08228111
12	0xbc836179	-0.01603769
13	0x3cd2f373	0.025750851
14	0x3e138f3d	0.1441011
15	0xbdb2144d	-0.08695278
16	0x3d1434ce	0.03618317
17	0xbd0ec50d	-0.03485589
18	0x3e143152	0.14471939
19	0x3a22bc82	0.00062078994
20	0xbe16175d	-0.1465735
21	0x3d8ea457	0.06964939
22	0x3b3cb22a	0.0028792717
23	0x3da3c19a	0.07995911
24	0xbe15c210	-0.1462481
25	0xbe14bf46	-0.1452609
26	0x3c4a9d2a	0.012366572
27	0xbddc337c	-0.10752007
28	0xbc2218ee	-0.009893639
29	0xbcf33738	-0.029689416
30	0x3d86b74f	0.06577932
31	0x3c32f822	0.010923417
32	0xbd5dc50b	-0.054142993
33	0xbc672fd5	-0.014110525
34	0xbd9bf590	-0.07615197
35	0xbd85c1dd	-0.06531117
36	0xbdb3ce4c	-0.087795824
37	0xbaf403c8	-0.001861685
38	0xbc1050cd	-0.008808327
39	0x39dd1e06	0.00042174774
40	0xbd83c3a2	-0.064337984
41	0xbc0738d8	-0.008253299
42	0xbd98dacb	-0.074636064
43	0xbdba0d50	-0.090845704
44	0x3d522df4	0.051313356
45	0x3df4306d	0.11923299
46	0xbdcd8c39	-0.10036511
47	0xbba1ba23	-0.0049355193
48	0x3da09c57	0.078423195
49	0x3df06498	0.11737937
50	0x3cc8ad6c	0.024496756
51	0xbdd0b5b2	-0.10190906
52	0xbdf217a5	-0.11820916
53	0xbc5cb7b5	-0.013471534
54	0x3c8e7b03	0.017392641
55	0xbcbb83b8	-0.022889957
56	0x3d1ab756	0.0377725
57	0xbd42e5c4	-0.047582403
58	0xbd80968a	-0.06278713
59	0xbdd350ef	-0.10318171
60	0x3e141729	0.1446196
61	0xbde9dc34	-0.114189535
62	0x3c9797a2	0.018504921
63	0xbdacdee5	-0.08440951
64	0x3de7d6c3	0.113202594
65	0x3c81c085	0.01583887
66	0x3e131a30	0.14365458
67	0xbe15920c	-0.14606494
68	0x3dc17df4	0.09447852
69	0x3e007952	0.1254628
70	0xbdf691f0	-0.12039554
71	0x3c2022ac	0.009773891
72	0x3ca7de7d	0.020491833
73	0xbdcd8378	-0.10034841
74	0xbd0f53a1	-0.034991864
75	0xbc54b14e	-0.012981726
76	0x3d5c100b	0.053726237
77	0x3ca98be7	0.020696593
78	0xbd24b532	-0.040211864
79	0x3dc2223a	0.094791844
80	0x3d9f21ad	0.07770095
81	0x3dd16ca5	0.102258004
82	0x3ce294f5	0.027658919
83	0xbe1446e5	-0.14480169
84	0x3ddf4cfd	0.10903356
85	0xbd552d97	-0.05204543
86	0xbd4d0e45	-0.050062437
87	0x3d9ab194	0.075534016
88	0x3d59700d	0.053085376
89	0xbde420d1	-0.11139072
90	0xbdac4d47	-0.08413177
91	0x3c25a09c	0.010109093
92	0x3d805719	0.062666126
93	0xbd8d6d9a	-0.069056705
94	0x3ddddc9e	0.10833095
95	0x3dab50f3	0.08365049
96	0xbe10d6ce	-0.14144441
97	0xbc9c32e9	-0.019067245
98	0x3d728cef	0.059216436
99	0xbca3130b	-0.019906541
100	0xbdaac56a	-0.08338435
101	0xbd136451	-0.03598434
102	0x3d3bcc13	0.045848917
103	0xbcc992d3	-0.024606144
104	0xbdae69f3	-0.08516302
105	0x3c291291	0.010319368
106	0x3d95c316	0.073126
107	0x3e026ccc	0.12736815
108	0x3d875194	0.06607357
109	0x3d00c3b3	0.031436633
110	0x3d2b9469	0.04188958
111	0x3e00ad2d	0.12566061
112	0xbdd2b7a3	-0.10288932
113	0xbd3735b3	-0.044728946
114	0xbd93a6f9	-0.07209582
115	0xbd8cdaa8	-0.06877643
116	0x3d7a3fac	0.06109588
117	0x3dba8669	0.09107668
118	0xbd7ad5e7	-0.06123915
119	0xbd31212e	-0.043244533
120	0x3d8a1e2c	0.06744036
121	0x3d4f60b7	0.050629344
122	0x3d240ae2	0.04004944
123	0x3d2185c7	0.03943422
124	0xbdc2a3db	-0.09503909
125	0x3daff2f1	0.08591259
126	0xbddbd0c0	-0.10733175
127	0xbd64b875	-0.055839974
128	0x3bc95d1a	0.006145132
129	0x3aff1ada	0.0019462958
130	0xbc103a9d	-0.008803037
131	0xbdc07c75	-0.09398738
132	0x3e0c8b32	0.13724974
133	0xbdbe3f5e	-0.0928943
134	0xbbc5c68a	-0.0060356306
135	0xbc740fee	-0.014896376
136	0xbcd05385	-0.02543045
137	0xbd1e9665	-0.038717646
138	0x3c108d42	0.008822741
139	0x3cf1c881	0.029514553
140	0xbd9da499	-0.0769741
141	0x3dc94217	0.09827059
142	0xbce74907	-0.028233064
143	0x3dd25a81	0.102711685
144	0xbdbf7b3d	-0.09349678
145	0x3da20db4	0.0791277
146	0x3dac6573	0.084177874
147	0xbd4f71f4	-0.050645784
148	0x3c956972	0.018238757
149	0x3dba59f6	0.0909919
150	0xbdf1542f	-0.11783635
151	0x3dbaef9d	0.09127734
152	0x3d8f5103	0.06997874
153	0xbd919dde	-0.07110189
154	0x3d768caa	0.06019274
155	0x3d7877d2	0.060661145
156	0x3c04b939	0.008100801
157	0x3d9ba8df	0.07600569
158	0xbdcd29d4	-0.10017744
159	0xbc503de4	-0.012710068
160	0x3b932277	0.0044901925
161	0x3dd20843	0.10255482
162	0x3d97ef26	0.07418661
163	0xbbab6839	-0.00523093
164	0xbd50a4d6	-0.05093845
165	0xbe0ca852	-0.13736084
166	0xbc3a4c17	-0.01137068
167	0xbd0a8c85	-0.033825416
168	0xbcf7b54f	-0.030237822
169	0x3c98df69	0.018661218
170	0x3d8efb39	0.06981511
171	0x3d85f190	0.06540215
172	0x3b89d36c	0.0042061117
173	0xbd29df97	-0.041472998
174	0x3d2bfe6b	0.04199068
175	0x3dba9d3d	0.09112022
176	0xbc10c094	-0.008834977
177	0xbdf60a77	-0.12013715
178	0xbb409cd4	-0.0029390352
179	0xbd4af216	-0.049547277
180	0x3dec59f7	0.11540597
181	0xbde9c85e	-0.1141517
182	0xbd643491	-0.055714194
183	0x3d7fb4c8	0.062428266
184	0xbd9a1c62	-0.07524945
185	0xbc1914af	-0.00934331
186	0x3da65583	0.08121779
187	0xbdc453fc	-0.09586331
188	0x3d7cfdb7	0.0617654
189	0x3df765f0	0.1207999
190	0xbda4b4ad	-0.08042274
191	0x3c505a12	0.012716787
192	0xbd8dc5e6	-0.06922512
193	0xbdac7310	-0.08420384
194	0xbe01fb64	-0.12693554
195	0x3d916d75	0.071009554
196	0x3dbd6beb	0.09249099
197	0xbdb4ecc1	-0.0883422
198	0x3da93332	0.08261718
199	0xbd282eda	-0.041060306
200	0x3d8ed7c8	0.06974751
201	0xbdb1012f	-0.08642804
202	0x3e00fb5e	0.12595889
203	0xbe005672	-0.12532976
204	0x3d93924c	0.07205638
205	0x3d8feef4	0.070279986
206	0x3cb0ce4a	0.021582741
207	0x3e115021	0.14190723
208	0x3d935daa	0.071955994
209	0x3da6db27	0.08147269
210	0xbdfb345e	-0.122658476
211	0xbdc94449	-0.098274775
212	0xbc2ac852	-0.010423737
213	0x3dfb009d	0.12255976
214	0x3d91653d	0.07099388
215	0xbdf2e3ff	-0.11859893
216	0x3dba691c	0.09102079
217	0x3d0673ab	0.032825153
218	0xbcca5dc9	-0.024702923
219	0xbca39e33	-0.019972896
220	0x3d3dd464	0.04634513
221	0xbd7df9f3	-0.06200595
222	0x3d8d662c	0.06904253
223	0xbd9928e2	-0.07478501
224	0xbd08f8f4	-0.033440545
225	0x3cd86d26	0.026419234
226	0xbc8c05f0	-0.017092675
227	0x3e06a380	0.13148308
228	0xbda72fe8	-0.08163434
229	0x3d1f0427	0.03882232
230	0x3da06b48	0.07832962
231	0xbce8ab9b	-0.02840214
232	0x3d9b4928	0.07582313
233	0xbe06a446	-0.13148603
234	0xbd745194	-0.05964811
235	0xbde2a66f	-0.11066901
236	0x3c9e094d	0.019291544
237	0xbd843e06	-0.064571425
238	0xbdbdba90	-0.092640996
239	0xbde1aac7	-0.11018901
240	0x3b2adbca	0.0026070946
241	0x3dc120a0	0.09430051
242	0x3df407d7	0.11915558
243	0xbc17f98c	-0.009275805
244	0xbcbea5f2	-0.023272488
245	0xbdbcd979	-0.09221167
246	0x3de653d2	0.11246456
247	0xbde72675	-0.11286632
248	0xbbd4b4cd	-0.0064912797
249	0xbd50c2a0	-0.05096686
250	0xbdf977eb	-0.12181076
251	0x3c97185e	0.018444236
252	0xbda052d0	-0.07828295
253	0xbd1e490d	-0.038643885
254	0x3d1299f2	0.035791345
255	0x3d87cee0	0.06631255
