Baseline-models/DAGMM/DAGMM-ROAD/no--dagmm/models/30_194_dagmm.pth (torch, 82200 bytes, 22 tensors)

phi f4 [4]
0.028622689 0.025649797 0.921061 0.02466655
00000000: 217a ea3c 861f d23c a7ca 6b3f 8111 ca3c

mu f4 [4, 3]
0.39237934 1.1046187 -0.04532821 0.4032915 1.0898235 -0.010452043 0.26673135 1.2743833
-0.44605976 0.40965202 1.081356 0.009714027
00000000: f2e5 c83e 2564 8d3f 13aa 39bd 397c ce3e
00000010: 567f 8b3f 0c3f 2bbc 0391 883e fe1e a33f
00000020: f261 e4be e9bd d13e e069 8a3f 9527 1f3c

cov f4 [4, 3, 3]
0.078234576 -0.10561071 0.24943374 -0.10561071 0.14259472 -0.33672783 0.24943374 -0.33672783
0.795279 0.07899944 -0.10666887 0.25188282 -0.10666887 0.14406024 -0.34011438 0.25188282
-0.34011438 0.80311984 0.05951346 -0.080364466 0.18981795 -0.080364466 0.1085635 -0.25634125
0.18981795 -0.25634125 0.60544086 0.0783701 -0.1057717 0.24984139 -0.1057717 0.14278461
-0.33720797 0.24984142 -0.33720797 0.7965006
00000000: 7339 a03d 6e4a d8bd 8f6b 7f3e 6e4a d8bd
00000010: 5a04 123e 9767 acbe 8f6b 7f3e 9767 acbe
00000020: 6897 4b3f 75ca a13d 3575 dabd c9f6 803e
00000030: 3575 dabd 8784 133e 7923 aebe c9f6 803e
00000040: 7923 aebe 4399 4d3f 63c4 733d 2096 a4bd
00000050: a35f 423e 2096 a4bd 8a56 de3d 293f 83be
00000060: a35f 423e 293f 83be 2cfe 1a3f 8180 a03d
00000070: d59e d8bd 6cd6 7f3e d59e d8bd 2136 123e
00000080: 86a6 acbe 6ed6 7f3e 86a6 acbe 77e7 4b3f

encoder.0.weight f4 [60, 118]
-0.020468077 0.08025082 0.021938844 0.0077331825 0.087990664 -0.028061185 0.039571777 0.057077777
-0.063861415 0.068831444 0.040467996 0.015831605 0.050321873 0.052029386 -0.06337069 -0.034978557
0.08384335 -0.043852348 -0.01980892 -0.068990216 -0.01748462 -0.02512327 0.034833454 -0.04944382
0.09240077 0.06681307 0.09341367 -0.028950837 -0.03600584 -0.08666292 -0.08354812 -0.0138172945
0.060437888 0.037526637 -0.035774797 0.05840388 -0.015900532 -0.050390955 -0.011628156 -0.054144423
0.05096751 0.046413925 0.026085481 0.004368584 -0.022389967 0.01606196 -0.071259975 -0.028739445
-0.049229622 -0.07608633 -0.03382249 -0.015742354 -0.018952057 -0.006656058 0.008096063 -0.07869107
-0.035223745 -0.006100858 0.0019027048 -0.012608539 -0.0062211454 -0.02727389 0.08924868 0.03746278
0.08656175 0.082038485 0.071910515 -0.06561118 0.047051374 0.07697478 0.08151991 0.032656424
0.06323199 -0.05448626 0.034686793 -0.07764703 -0.03199445 -0.021180844 -0.07196629 0.0008105607
-0.027285725 0.0332667 -0.04625228 -0.004002202 0.05974857 -0.006963663 -0.074544095 0.018081108
-0.09723712 0.083095945 0.010999371 0.01873199 -0.06422732 0.024838246 0.04512739 0.084619425
0.032042176 0.00014427304 0.067958996 -0.040315714 0.066745736 0.05783818 -0.0523205 -0.03897415
-0.009791978 0.050695118 -0.0001833612 -0.067553714 0.049639963 0.03376666 -0.035861682 0.0132148545
-0.01692177 -0.063855715 0.06611836 -0.018783174 0.048782624 -0.013336101 -0.025474448 0.058002893
0.08784515 0.0021139416 -0.0039269226 -0.057140768 -0.058980785 0.045463476 0.0044233906 0.05872997
0.056963906 0.042953953 -0.0045168702 0.044045735 -0.024367705 -0.020681042 0.049676042 -0.020065084
0.058812514 -0.02040404 0.049730424 0.07868903 0.021126674 -0.033526096 0.027905347 -0.05035743
-0.04104531 -0.09919081 0.08416499 -0.06977566 0.018797705 0.01670037 0.0829501 0.020732312
0.028260969 -0.05228065 0.04682712 0.0888043 -0.061654247 -0.01135769 -0.077779494 0.019913658
0.02734501 -0.026670307 -0.0050701085 -0.024212325 -0.01348302 0.049350865 0.081242085 0.08921861
-0.028164929 0.017308114 -0.063574545 0.0661452 -0.06343752 0.043159053 -0.016730556 0.06522802
0.08910221 -0.0076135895 0.08877542 -0.015023776 0.067727916 0.020864725 0.08708218 0.058433287
0.0015126066 0.022072785 0.009395694 -0.04529598 -0.037048467 -0.026302254 0.0584482 0.0585635
0.067937165 -0.032289296 -0.010140196 0.06858663 0.037070237 0.009020308 0.0012023456 0.027967198
-0.06728913 -0.07070735 -0.080658436 0.04495891 -0.004088585 -0.14974362 -0.010088522 -0.022719817
0.06320691 0.009343555 -0.075510085 0.07098202 -0.022339981 -0.035274953 -0.05147214 -0.06191109
-0.021784347 -0.07831197 -0.009994095 -0.054655254 0.11208471 -0.029178958 0.08256283 -0.039475903
0.0077552986 0.031462338 -0.017931584 -0.09552642 -0.012052934 0.027649453 -0.02601348 0.008343187
0.009855326 0.095124066 -0.045289345 -0.021578925 -0.0138188135 -0.051732715 0.013674131 -0.056444712
0.03532953 -0.10062186 -0.09943158 0.03530224 0.065191306 -0.016843699 -0.004818886 -0.0026794763
0.06588607 0.03376604 0.008236662 0.044965096 0.020472704 0.0037415721 -0.00252201 0.07027665
00000000: abac a7bc 8b5a a43d 17b9 b33c a366 fd3b
00000010: 7334 b43d 92e0 e5bc 0416 223d 63ca 693d
00000020: c6c9 82bd 80f7 8c3d c5c1 253d 48b1 813c
00000030: 4f1e 4e3d c41c 553d 7ec8 81bd ad45 0fbd
00000040: 10b6 ab3d 859e 33bd 5146 a2bc be4a 8dbd
00000050: e83b 8fbc 51cf cdbc 86ad 0e3d 9a85 4abd
00000060: 9d3c bd3d 4ad5 883d ab4f bf3d 4e2a edbc
00000070: dc7a 13bd 547c b1bd 471b abbd ef61 62bc
00000080: b88d 773d 88b5 193d 9888 12bd e838 6f3d
00000090: d541 82bc bf66 4ebd 0584 3ebc 8bc6 5dbd
000000a0: 4fc3 503d 871c 3e3d 38b1 d53c 5726 8f3b
000000b0: 2a6b b7bc 5f94 833c c0f0 91bd fc6e ebbc
000000c0: 00a5 49bd 26d3 9bbd 7489 0abd 1cf6 80bc
000000d0: 5841 9bbc 101b dabb 59a5 043c c928 a1bd
000000e0: c646 10bd b5e9 c7bb 2e64 f93a 0c94 4ebc
000000f0: c0da cbbb 7e6d dfbc 03c8 b63d 9272 193d
00000100: 4947 b13d cb03 a83d d245 933d 285f 86bd
00000110: f1b8 403d f4a4 9d3d e9f3 a63d bec2 053d
00000120: c67f 813d fc2c 5fbd bd13 0e3d 6805 9fbd
00000130: 9d0c 03bd 7383 adbc 1063 93bd cf7b 543a
00000140: 5086 dfbc aa42 083d 0873 3dbd e724 83bb
00000150: ebba 743d 702f e4bb 93aa 98bd d51e 943c
00000160: 4124 c7bd 352e aa3d b536 343c d573 993c
00000170: 9d89 83bd 9479 cb3c 80d7 383d f34c ad3d
00000180: a83e 033d 0048 1739 162e 8b3d 1722 25bd
00000190: fdb1 883d bae7 6c3d 054e 56bd 5ca3 1fbd
000001a0: 886e 20bc afa5 4f3d a644 40b9 9a59 8abd
000001b0: 4653 4b3d e94e 0a3d b3e3 12bd 1e83 583c
000001c0: 869f 8abc c9c6 82bd 1069 873d 2cdf 99bc
000001d0: 4ad0 473d a97f 5abc caaf d0bc 7194 6d3d
000001e0: 28e8 b33d 0e8a 0a3b 6aad 80bb 700c 6abd
000001f0: d695 71bd e937 3a3d 17f2 903b d68e 703d
00000200: fc52 693d 7cf0 2f3d 4102 94bb 4d69 343d
00000210: c89e c7bc 4a6b a9bc 1b79 4b3d 885f a4bc
00000220: 64e5 703d 6026 a7bc 21b2 4b3d b727 a13d
00000230: d911 ad3c a952 09bd c199 e43c 9843 4ebd
00000240: 211f 28bd 8d24 cbbd b25e ac3d 8be6 8ebd
00000250: a5fd 993c 37cf 883c bee1 a93d cfd6 a93c
00000260: 8c83 e73c 3c24 56bd cbcd 3f3d 07df b53d
00000270: 2a89 7cbd 9b15 3abc db4a 9fbd f821 a33c
00000280: a402 e03c b07b dabc 2723 a6bb ed58 c6bc
00000290: e2e7 5cbc 2224 4a3d 4062 a63d 3fb8 b63d
000002a0: 23ba e6bc bfc9 8d3c 5f33 82bd 2277 873d
000002b0: 88eb 81bd 8cc7 303d 850e 89bc 4596 853d
000002c0: 387b b63d 6b7b f9bb e3cf b53d 4926 76bc
000002d0: efb4 8a3d 80ec aa3c 2458 b23d be57 6f3d
000002e0: a842 c63a fcd1 b43c 66f0 193c 4788 39bd
000002f0: 22c0 17bd d377 d7bc 6167 6f3d 48e0 6f3d
00000300: a422 8b3d c841 04bd 1123 26bc 2677 8c3d
00000310: f6d6 173d eac9 133c 0698 9d3a 771b e53c
00000320: e2ce 89bd 04cf 90bd 4030 a5bd d626 383d
00000330: 89f9 85bb 6456 19be 544a 25bc e91e babc
00000340: a072 813d b615 193c 08a5 9abd 055f 913d
00000350: 5602 b7bc 787c 10bd 73d4 52bd 7c96 7dbd
00000360: 1675 b2bc 0762 a0bd 46be 23bc 30de 5fbd
00000370: ab8c e53d b608 efbc b316 a93d 7cb1 21bd
00000380: 2920 fe3b a7de 003d 42e5 92bc 5ba3 c3bd
00000390: ab79 45bc 1b81 e23c 391a d5bc ddb1 083c
000003a0: 3c78 213c 68d0 c23d 5281 39bd 49c6 b0bc
000003b0: 4e68 62bc afe5 53bd 7609 603c 9232 67bd
000003c0: b2b5 103d d512 cebd c9a2 cbbd 1599 103d
000003d0: 0583 853d ccfb 89bc bfe7 9dbb 279a 2fbb
000003e0: 47ef 863d 424e 0a3d 10f3 063c 522d 383d
000003f0: 5fb6 a73c 2a35 753b 4e48 25bb 34ed 8f3d

encoder.0.bias f4 [60]
0.03193735 0.08947811 -0.0044972287 0.03126444 -0.070833765 0.03967193 -0.10123104 -0.03663746
0.053802505 0.066923775 -0.0149881365 -0.042734325 -0.04416381 0.065950416 -0.038450718 -0.07407532
-0.0055631176 0.07475888 -0.045210388 0.13061321 -0.008137225 0.060943484 -0.12388358 -0.018298125
0.025245398 0.0053969296 0.05156751 -0.03855065 -0.027663844 0.089709096 0.03950588 -0.02312777
0.08297766 -0.07898699 0.013957854 -0.07597503 0.08170266 0.12023436 -0.05962219 -0.0035502666
-0.061670512 -0.018559808 0.031374823 -0.015452803 -0.04658231 -0.023008483 0.041214406 -0.027360257
-0.033213165 -0.02757425 -0.045195695 -0.038450066 -0.081207395 -0.03803252 -0.018002976 -0.012327931
0.03821718 -0.0037557676 -0.022836443 0.058156267
00000000: bdd0 023d 4d40 b73d 7d5d 93bb 240f 003d
00000010: 4b11 91bd 097f 223d 3852 cfbd 2911 16bd
00000020: 0460 5c3d 550f 893d cd90 75bc 300a 2fbd
00000030: 1ce5 34bd 0311 873d 807e 1dbd cdb4 97bd
00000040: d04a b6bb 2f1b 993d 872e 39bd 78bf 053e
00000050: ff51 05bc e09f 793d adb6 fdbd f3e5 95bc
00000060: 70cf ce3c bad8 b03b 7438 533d 49e7 1dbd
00000070: 499f e2bc 67b9 b73d ebd0 213d 7376 bdbc
00000080: 31f0 a93d eec3 a1bd 7caf 643c cc98 9bbd
00000090: b953 a73d 6f3d f63d 6636 74bd 97ab 68bb
000000a0: 389a 7cbd bd0a 98bc e382 003d c12d 7dbc
000000b0: 18cd 3ebd 497c bcbc 70d0 283d 9e22 e0bc
000000c0: 870a 08bd 65e3 e1bc 1f1f 39bd d17d 1dbd
000000d0: 1050 a6bd fdc7 1bbd fa7a 93bc 17fb 49bc
000000e0: 9e89 1c3d 5323 76bb 7e13 bbbc 4435 6e3d

encoder.2.weight f4 [30, 60]
-0.11611525 0.11095765 -0.062278893 -0.026896358 -0.10478704 0.06700943 -0.07069687 0.0825531
0.08192842 -0.06028513 0.05992374 -0.020040084 -0.10955734 -0.0806912 0.102973886 0.047811903
0.004873998 -0.034108322 0.11693305 -0.025519783 0.104367994 -0.11440545 -0.117819786 0.018419849
0.092849344 0.038553104 -0.0011130819 0.015410972 0.11104902 -0.1253783 0.008904201 -0.080228716
0.02177993 0.0029296393 -0.04044189 0.017699538 0.082597695 0.007881193 0.0060322518 0.059255596
0.12783802 -0.07878446 -0.08707276 -0.10785375 -0.12316858 -0.008556751 -0.05256014 -0.1129833
-0.058091044 0.021865092 0.10041592 0.11838171 0.06829626 -0.036482763 0.005167032 0.00490065
-0.103605874 0.1321659 -0.11646584 0.10481137 -0.084033005 0.014059739 0.09880328 -0.071454555
0.095957704 -0.07096869 0.07887142 0.11282275 0.09958844 0.04830021 0.031754356 0.1087099
0.044542614 -0.048933364 0.03709521 -0.10150616 -0.062120754 0.018551175 0.043966375 -0.038748793
-0.111389875 0.033902783 -0.0009829518 -0.020994257 -0.013204761 0.026572019 0.096395075 0.11838039
0.060185816 -0.035658207 0.023227915 -0.11498379 0.07923573 -0.09144781 -0.03372856 0.10216003
0.06407826 -0.10699458 0.08487032 0.08686256 0.06369399 0.06400066 -0.07336941 -0.11481491
0.084442206 -0.01722708 0.06253667 0.07739948 0.07828444 -0.08299817 -0.114601664 -0.03332889
-0.06339216 -0.09673627 0.08168267 0.12639289 -0.041340347 0.071431 0.065699235 0.044493787
-0.03659888 -0.08493335 -0.026354304 0.03404064 0.08466246 0.041534737 0.09867244 -0.05690379
-0.050045196 -0.056153174 -0.08807517 -0.017763328 -0.076420814 0.06399481 0.040630132 -0.03427511
0.083183125 0.07028681 -0.10840825 -0.007872625 0.029883083 0.06859756 -0.127555 -0.13081163
-0.13307069 0.0033889145 0.13056687 0.066430576 -0.122423306 0.10308333 -0.070385516 -0.082647786
0.12630278 0.036476552 0.061370715 -0.0064278264 0.018611448 0.0060623325 0.034463987 0.0026260354
-0.12367811 0.13795999 0.09894368 -0.013491377 -0.017483756 0.09889353 0.11082638 0.053132217
0.06799501 -0.102115326 0.06253876 0.1148512 -0.074907735 0.1326363 -0.089213684 -0.1261073
-0.07261276 -0.016238902 -0.11285785 -0.04723621 0.09850267 0.061881185 -0.009608294 -0.017615354
-0.121651635 0.12926811 -0.055616774 0.0027487346 -0.055507075 -0.08219875 -0.12786305 -0.10803427
-0.016156448 0.051908296 0.08582247 -0.032623943 0.0036604519 0.071272515 0.061013117 0.1285293
-0.025578814 -0.0351062 -0.0088307345 0.08388973 0.030205306 -0.13116656 0.08966477 0.0006073752
-0.109934576 0.1351934 -0.07974547 0.0030850347 -0.07368989 -0.086520314 -0.09887563 0.07355533
0.05631162 -0.05160718 0.076585725 -0.10254802 -0.03838531 0.012547647 0.10019975 0.0961064
-0.079016335 0.035865545 -0.028571537 0.08985262 -0.0812062 -0.114127025 -0.033405166 0.047568504
-0.04466407 0.051991988 -0.12228454 -0.10580244 0.04355144 -0.12716798 0.04744762 0.022360833
0.1045017 -0.034628063 -0.014755616 -0.13128087 -0.07007505 -0.080075264 -0.13644679 -0.07557389
0.10362468 -0.07577247 -0.14492345 -0.12376351 -0.09849537 0.06780292 -0.0975025 -0.06352155
00000000: d5cd edbd c43d e33d 2718 7fbd c055 dcbc
00000010: 969a d6bd 3d3c 893d 85c9 90bd 9a11 a93d
00000020: 16ca a73d 8aed 76bd 9872 753d 1a2b a4bc
00000030: 995f e0bd 6e41 a5bd f9e3 d23d 6ad6 433d
00000040: 0fb6 9f3b 2bb5 0bbd 987a ef3d dd0e d1bc
00000050: e3be d53d 684d eabd 804b f1bd 39e5 963c
00000060: cc27 be3d dce9 1d3d d5e4 91ba 4d7e 7c3c
00000070: ab6d e33d 2b63 00be ede2 113c f44e a4bd
00000080: d36b b23c 31ff 3f3b 65a6 25bd 9ffe 903c
00000090: fb28 a93d 1f20 013c 32aa c53b ffb5 723d
000000a0: f8e7 023e bf59 a1bd 3453 b2bd 6de2 dcbd
000000b0: cf3f fcbd 9d31 0cbc 4d49 57bd ca63 e7bd
000000c0: e0f0 6dbd 6c1e b33c dda6 cd3d 1c72 f23d
000000d0: e9de 8b3d f36e 15bd 3550 a93b a295 a03b
000000e0: 512f d4bd 7f56 073e a485 eebd 58a7 d63d
000000f0: 7f19 acbd d25a 663c 6059 ca3d c456 92bd
00000100: 7985 c43d 0858 91bd 5787 a13d 9d0f e73d
00000110: 06f5 cb3d 71d6 453d db10 023d 4ca3 de3d
00000120: 5172 363d 5a6e 48bd 26f1 173d 76e2 cfbd
00000130: 5572 7ebd a2f8 973c 1616 343d 0eb7 1ebd
00000140: 6020 e4bd a5dd 0a3d 64d6 80ba 26fc abbc
00000150: c858 58bc 90ad d93c c86a c53d 6b71 f23d
00000160: 6785 763d 570e 12bd 7848 be3c 9f7c ebbd
00000170: 5846 a23d fd48 bbbd f526 0abd 4739 d13d
00000180: 763b 833d f91f dbbd 7ed0 ad3d ffe4 b13d
00000190: ff71 823d c712 833d b442 96bd 1424 ebbd
000001a0: 09f0 ac3d ce1f 8dbc 3a13 803d 9e83 9e3d
000001b0: 9853 a03d f2fa a9bd 47b4 eabd e083 08bd
000001c0: c0d3 81bd aa1d c6bd 3e49 a73d 236d 013e
000001d0: 7f54 29bd 6b4a 923d 528d 863d 1e3f 363d
000001e0: b5e8 15bd 89f1 adbd fbe4 d7bc 336e 0b3d
000001f0: 8363 ad3d 5420 2a3d c714 ca3d f313 69bd
00000200: 31fc 4cbd df00 66bd c160 b4bd 6684 91bc
00000210: 8482 9cbd b60f 833d c86b 263d 0f64 0cbd
00000220: ea5b aa3d 88f2 8f3d 2505 debd 2ffc 00bc
00000230: 5ecd f43c e17c 8c3d c79d 02be 7cf3 05be
00000240: af43 08be 8d18 5e3b 52b3 053e c10c 883d
00000250: 12b9 fabd 5a1d d33d 4826 90bd 3e43 a9bd
00000260: 8455 013e 7068 153d dc5f 7b3d 84a0 d2bb
00000270: 0977 983c 88a6 c63b 1c2a 0d3d 9019 2c3b
00000280: f34a fdbd 6245 0d3e fca2 ca3d f00a 5dbc
00000290: 183a 8fbc b188 ca3d f1f8 e23d 2ba1 593d
000002a0: f840 8b3d d721 d1bd 5214 803d 1b37 eb3d
000002b0: 3a69 99bd cfd1 073e aab5 b6bd 4622 01be
000002c0: 00b6 94bd 7207 85bc 0422 e7bd c27a 41bd
000002d0: c5bb c93d 2077 7d3d 1b6c 1dbc 134e 90bc
000002e0: 7e24 f9bd dc5e 043e 6ace 63bd 1d24 343b
000002f0: 635b 63bd d157 a8bd 88ee 02be 1241 ddbd
00000300: 875a 84bc cb9d 543d b1c3 af3d afa0 05bd
00000310: 31e4 6f3b 53f7 913d e4e8 793d 2f9d 033e
00000320: a98a d1bc 85cb 0fbd c9ae 10bc 61ce ab3d
00000330: 1e71 f73c 8750 06be 2aa2 b73d 4238 1f3a
00000340: 6125 e1bd 2370 0a3e 9851 a3bd 4b2e 4a3b
00000350: baea 96bd 9031 b1bd 4e7f cabd 2da4 963d
00000360: 03a7 663d 0d62 53bd fad8 9c3d b204 d2bd
00000370: ea39 1dbd a594 4d3c 8735 cd3d 6fd3 c43d
00000380: 51d3 a1bd c0e7 123d db0e eabc a704 b83d
00000390: 704f a6bd 6ebb e9bd dbd3 08bd 31d7 423d
000003a0: acf1 36bd 8df5 543d 5170 fabd f3ae d8bd
000003b0: ff62 323d 5338 02be 7058 423d 112e b73c
000003c0: fd04 d63d 28d6 0dbd 8ac1 71bc 7e6e 06be
000003d0: 8283 8fbd 80fe a3bd b5b8 0bbe 7cc6 9abd
000003e0: 2d39 d43d 992e 9bbd d066 14be b977 fdbd
000003f0: f1b7 c9bd 42dc 8a3d 64af c7bd 9617 82bd

encoder.2.bias f4 [30]
-0.11562819 -0.028802406 0.10638817 -0.012768016 0.085904114 3.6891997e-05 0.08360271 0.035896193
0.0123066995 -0.033958115 -0.06861681 0.10880374 0.047570016 0.0031188284 0.12340492 0.026838267
0.0076582595 0.0744449 0.073738694 0.017922943 0.047049116 0.058476876 -0.028452294 0.07024814
0.08433529 0.11406977 0.03893381 0.04438903 0.103875324 0.07185443
00000000: 79ce ecbd 06f3 ebbc 0ae2 d93d f130 51bc
00000010: 7fee af3d 7bbc 1a38 e637 ab3d e307 133d
00000020: 0aa2 493c aa17 0bbd f886 8cbd 7fd4 de3d
00000030: c7d8 423d 4265 4c3b b8bb fc3d eddb db3c
00000040: 23f2 fa3b 9176 983d 5004 973d 23d3 923c
00000050: 93b6 403d 7385 6f3d c914 e9bc 42de 8f3d
00000060: fbb7 ac3d 699d e93d 0f79 1f3d 46d1 353d
00000070: 96bc d43d 6a28 933d

encoder.4.weight f4 [10, 30]
-0.16331632 0.15943055 -0.06260928 -0.042029005 0.11060759 0.013048166 -0.05095233 -0.13045354
-0.16680779 -0.053997222 0.07737275 -0.16341156 0.055581592 0.19508232 0.02604145 0.16126324
0.055540077 -0.18569386 -0.018192831 0.13439377 -0.07687799 -0.016709216 -0.103786826 0.11093699
-0.028196461 -0.06310506 0.095116824 0.15437101 0.13226064 0.026785964 0.16349487 -0.08489141
-0.05078838 -0.1085114 0.05309894 -0.1422884 0.094773315 0.0969264 -0.12365665 0.06790868
-0.02082083 -0.15747131 0.14771669 -0.042566378 -0.057008985 -0.08028595 0.045398958 -0.16768661
-0.12282283 0.15519089 0.1690185 -0.11401568 0.10342406 0.04369249 -0.15240157 -0.1668844
0.06797542 0.09894557 -0.17991626 0.0015374158 -0.12935346 -0.07092624 -0.022541963 0.16146512
0.07240264 -0.13718145 -0.05395039 0.17617218 -0.038059577 -0.031565696 -0.041750908 -0.15845668
-0.11679628 0.14308305 -0.11214704 -0.014699705 0.16250703 0.13857964 -0.16644394 0.011035401
-0.17915584 -0.043854076 -0.02956009 0.03967849 -0.05910578 0.17007312 -0.11231628 0.14309198
0.17411095 0.014305739 -0.10298485 0.009330413 0.07153875 0.018344976 0.17400236 -0.030771153
0.19136211 -0.058448065 -0.18039688 -0.048448525 -0.008353953 0.13293448 -0.02749003 0.13679954
0.16450368 0.0481734 0.02487048 -0.017874226 -0.048044667 0.08400853 -0.03367266 -0.11706349
0.04266357 0.13122307 -0.015208092 -0.046916626 0.05475144 0.14901786 -0.14677806 -0.11436914
0.18671867 -0.0003866387 -0.11153593 -0.16021794 -0.012560155 -0.077657655 -0.17331678 -0.020929046
0.081113786 0.055076096 -0.11134757 0.07344057 -0.0074696923 -0.15554038 -0.00501385 -0.055840272
-0.16400099 -0.12842885 0.02929217 -0.097791865 -0.13882145 -0.006523708 -0.116035126 -0.112195686
-0.066882275 0.081751965 0.011596866 -0.0017402094 -0.16546068 0.0065193465 -0.0614005 0.08529517
-0.05228195 0.15359987 0.06434882 0.038905818 0.108214244 -0.074040756 -0.13346422 0.038604084
-0.11991933 -0.007197296 -0.15766406 0.121937394 0.14743476 0.13484351 0.102033116 -0.1753832
-0.102027886 -0.08529578 -0.0032306868 -0.03585471 0.110783234 0.058363415 0.11157731 0.086889654
-0.14995508 -0.041210655 0.035111733 -0.16905834 0.0761193 -0.073279746 0.032385737 0.12623842
0.09992775 -0.16269891 0.030622153 -0.10651835 0.15899073 0.12334602 0.17687356 0.05810629
0.07281346 -0.025321437 0.021113716 -0.14145081 -0.1283658 -0.09058175 0.057516824 -0.12283741
-0.1555618 -0.10998322 0.19048694 -0.080771945 -0.13970105 0.06975159 -0.18947409 0.13036609
0.12137117 -0.019952945 0.007637805 0.070056245 -0.043845687 0.02097015 -0.1127336 0.06121596
0.06988144 0.12951885 -0.068520404 0.10530749 -0.1129076 0.12736769 0.07545111 0.06684037
-0.08795458 -0.1721139 -0.16818906 -0.14587502 -0.039657034 0.040434413 -0.07228041 -0.06422352
0.14005774 0.08537906 -0.14427611 0.07551302 0.12423429 -0.0838576 0.17435868 0.019750688
-0.011333589 0.1308532 -0.072791696 0.083669074 0.009839882 -0.11294952 0.10291442 -0.14651448
0.14327095 0.053473033 -0.12258945 -0.056889266 0.19453922 0.19783036 0.036044728 0.15062924
00000000: 653c 27be c341 233e 4b39 80bd 9b26 2cbd
00000010: 3b86 e23d fac7 553c 64b3 50bd 9d95 05be
00000020: a9cf 2abe 312c 5dbd 9b75 9e3d 5c55 27be
00000030: 86a9 633d a9c3 473e e154 d53c 3122 253e
00000040: fe7d 633d 8826 3ebe 2209 95bc 859e 093e
00000050: 3572 9dbd c4e1 88bc 308e d4bd ef32 e33d
00000060: 44fc e6bc 3a3d 81bd 9ccc c23d 6f13 1e3e
00000070: 556f 073e 3d6e db3c 336b 273e 8cdb adbd
00000080: 7a07 50bd 3a3b debd 467e 593d 0db4 11be
00000090: 8318 c23d 5981 c63d b33f fdbd b513 8b3d
000000a0: 7290 aabc 2940 21be 0b43 173e 155a 2ebd
000000b0: 4182 69bd f66c a4bd 42f4 393d 0ab6 2bbe
000000c0: 898a fbbd 5cea 1e3e 3013 2d3e 0e81 e9bd
000000d0: fecf d33d e5f6 323d 280f 1cbe bfe3 2abe
000000e0: b236 8b3d faa3 ca3d f83b 38be 1d83 c93a
000000f0: 3c75 04be c741 91bd eca9 b8bc 1d57 253e
00000100: d647 943d 4b79 0cbe 16fb 5cbd 7b66 343e
00000110: 5ce4 1bbd 084b 01bd 0003 2bbd 7842 22be
00000120: e332 efbd 5d84 123e 59ad e5bd 08d7 70bc
00000130: 3e68 263e d2e7 0d3e 4870 2abe d4cd 343c
00000140: a174 37be 55a0 33bd 0028 f2bc ea85 223d
00000150: e718 72bd a627 2e3e 1406 e6bd b486 123e
00000160: 244a 323e 9e62 6a3c b9e9 d2bd 97de 183c
00000170: e882 923d 3448 963c ad2d 323e c913 fcbc
00000180: 6ef4 433e 3d67 6fbd f6b9 38be f671 46bd
00000190: 05df 08bc fa1f 083e c532 e1bc 2e15 0c3e
000001a0: a773 283e 7951 453d 2dbd cb3c f86c 92bc
000001b0: 7cca 44bd aa0c ac3d 58ec 09bd fcbe efbd
000001c0: ffbf 2e3d 575f 063e 5c2b 79bc a62b 40bd
000001d0: 0c43 603d 2398 183e fd4c 16be 5e3a eabd
000001e0: 2e33 3f3e c5b5 cab9 f36c e4bd 2c10 24be
000001f0: 1cc9 4dbc fa0a 9fbd f479 31be 6473 abbc
00000200: fc1e a63d 7997 613d 320a e4bd 0268 963d
00000210: 52c4 f4bb fa45 1fbe 394b a4bb c5b8 64bd
00000220: e0ef 27be da82 03be 22f6 ef3c 1a47 c8bd
00000230: 3627 0ebe d4c4 d5bb d3a3 edbd dac6 e5bd
00000240: 93f9 88bd 936d a73d c800 3e3c bd17 e4ba
00000250: 866e 29be 3ea0 d53b 177f 7bbd 3caf ae3d
00000260: 9925 56bd 4949 1d3e 50c9 833d b55b 1f3d
00000270: 6e9f dd3d aea2 97bd d8aa 08be 511f 1e3d
00000280: 4498 f5bd 4bd7 ebbb b072 21be 50ba f93d
00000290: 23f9 163e 6b14 0a3e bdf6 d03d a797 33be
000002a0: fff3 d0bd 8eaf aebd eeb9 53bb 63dc 12bd
000002b0: 52e2 e23d 7a0e 6f3d a582 e43d 34f3 b13d
000002c0: d38d 19be 81cc 28bd 52d1 0f3d a11d 2dbe
000002d0: 70e4 9b3d b113 96bd e8a6 043d a544 013e
000002e0: eca6 cc3d 8b9a 26be 4fdb fa3c 4b26 dabd
000002f0: 77ce 223e d79c fc3d 581e 353e dc00 6e3d
00000300: 391f 953d e76e cfbc acf6 ac3c 7bd8 10be
00000310: 5372 03be ed82 b9bd c396 6b3d 2e92 fbbd
00000320: 984b 1fbe e23e e1bd 020f 433e c36b a5bd
00000330: cb0d 0fbe ecd9 8e3d 7f05 42be b07e 053e
00000340: 7391 f83d 5c74 a3bc 8d46 fa3b a679 8f3d
00000350: 8997 33bd 98c9 ab3c e0e0 e6bd 96bd 7a3d
00000360: 001e 8f3d 97a0 043e 6d54 8cbd 74ab d73d
00000370: 1a3c e7bd ad6c 023e 1d86 9a3d 9be3 883d
00000380: 8821 b4bd a03e 30be c139 2cbe 4360 15be
00000390: 6a6f 22bd 8e9e 253d c007 94bd 9f87 83bd
000003a0: 4c6b 0f3e 37db ae3d 1ebd 13be 92a6 9a3d
000003b0: 8c6e fe3d 89bd abbd 158b 323e 32cc a13c
000003c0: 85b0 39bc 62fe 053e d013 95bd b15a ab3d
000003d0: 7537 213c 1452 e7bd ccc4 d23d e407 16be
000003e0: 9fb5 123e 8a06 5b3d 2d10 fbbd b804 69bd
000003f0: 4a35 473e 0b94 4a3e a3a3 133d 8d3e 1a3e

encoder.4.bias f4 [10]
-0.06662969 -0.074475415 0.03818035 -0.046933725 0.07291488 0.15182243 -0.124822155 -0.09122261
-0.063317426 -0.028851029
00000000: 2675 88bd 9186 98bd 0063 1c3d 943d 40bd
00000010: 6654 953d 5777 1b3e c2a2 ffbd ebd2 babd
00000020: 91ac 81bd fe58 ecbc

encoder.6.weight f4 [1, 10]
-0.31092587 -0.025086952 0.31889346 0.22528279 -0.11878582 -0.002828909 0.18513744 0.032567818
-0.3306062 -0.20120163
00000000: ad31 9fbe 2783 cdbc 0146 a33e 88b0 663e
00000010: fb45 f3bd 3865 39bb ab94 3d3e d565 053d
00000020: 3745 a9be cd07 4ebe

decoder.0.weight f4 [10, 1]
0.3515344 -0.75017035 0.413927 0.9006209 -0.6947179 -0.43636304 0.47631216 0.91799825
0.25169188 -0.6370238
00000000: 51fc b33e 2a0b 40bf 3dee d33e 178f 663f
00000010: 08d9 31bf fa6a dfbe 30df f33e ef01 6b3f
00000020: c2dd 803e fe13 23bf

decoder.0.bias f4 [10]
0.9955834 -0.19952491 0.10048565 0.0052100574 0.28628471 -0.48976973 -0.0018883792 -0.74976456
-0.6966037 -0.7556524
00000000: 8ede 7e3f 4250 4cbe 6ccb cd3d 21b9 aa3b
00000010: e993 923e 19c3 fabe 7e83 f7ba 92f0 3fbf
00000020: 9f54 32bf 7072 41bf

decoder.2.weight f4 [30, 10]
0.06466744 -0.16380315 -0.17393565 0.2433296 -0.14749484 -0.06504708 -0.0011781335 -0.21840663
0.00783471 0.044491526 0.06523623 0.116397694 -0.04320918 -0.33301264 0.13318025 0.31751743
-0.13271253 0.1923293 0.27343747 -0.19140959 -0.23654874 -0.32266667 0.036543176 0.1669911
-0.32660493 0.3132044 -0.2081982 -0.112677254 0.05973998 -0.025772348 0.29098323 -0.27192858
0.15564671 0.08685501 0.049561303 -0.03503017 0.15884447 -0.035834614 0.01672974 0.17373642
-0.031568795 0.23096307 0.07828067 -0.2854546 0.095744535 0.10678396 0.30086637 -0.12277556
-0.11885728 0.24223419 0.15589349 0.32594377 0.0019917325 0.11756123 -0.24043092 0.2853648
-0.11038119 -0.36729044 -0.12795343 -0.14464974 0.2969936 0.13947757 0.31054774 -0.17592414
0.15966994 -0.04916529 -0.01531573 0.01143134 0.02396068 0.3107375 -0.021967812 -0.035011977
0.20286348 0.21457641 0.10347956 0.14927247 0.34365505 0.30243927 -0.0807917 0.15440597
-0.033271674 -0.24616614 -0.2674904 0.26991513 -0.15081955 -0.09097728 -0.25695568 -0.09322782
0.33173698 -0.29575264 -0.110747285 -0.03154914 -0.14414038 0.20940441 0.08145201 -0.15821616
-0.124310136 0.106869504 -0.079432 -0.12778842 0.19187704 -0.18372934 -0.28875282 -0.2633339
0.06702348 0.012321104 0.23399837 0.3007089 0.060408838 0.05241954 -0.0035598509 -0.0314238
0.18603137 0.005744229 -0.19807133 0.07471048 0.045950126 -0.29468662 -0.1261156 -0.11050722
-0.08178896 0.24527797 -0.10996985 0.33155268 0.099418804 -0.11037833 -0.009195594 -0.086398095
-0.20036876 0.09218509 0.20492607 -0.07123351 -0.19178686 -0.30479798 0.21841152 -0.055418603
0.15652396 0.274236 0.029144986 -0.11715102 0.2427612 0.23112753 -0.22003204 -0.3017428
0.02501443 0.16675301 -0.046845756 -0.007346781 -0.1785735 -0.22884814 0.26175982 0.30678195
-0.18873134 0.22104575 -0.091217086 -0.24882138 0.16880938 0.060388014 0.06523666 -0.29919305
-0.25115788 0.18436897 -0.07994164 -0.2739664 -0.04445701 0.015533764 -0.2755921 -0.24033095
0.29051965 0.06358249 -0.08970131 0.18323737 -0.3364168 -0.23947056 0.13746588 -0.16818537
-0.06966106 -0.35310423 -0.14121957 -0.124969155 -0.03179102 0.011495956 -0.2366265 0.07083068
0.06332191 0.10221744 0.10945483 -0.18578486 0.083936304 0.025961319 0.11026691 0.26495662
0.023744522 0.06651048 -0.03647515 -0.17051716 0.3240208 -0.05493857 -0.09246697 0.096341655
-0.2743705 0.23273805 0.30016023 0.17906915 0.043657403 -0.08832695 0.10664351 0.1452111
-0.29975 -0.27024788 -0.22666988 0.21524912 -0.09472891 0.23458347 -0.07856854 -0.11231122
-0.08161631 -0.18634881 -0.22886044 -0.047605988 -0.2771171 0.041501217 -0.040153798 0.20126113
-0.005524861 -0.10882334 0.28574044 0.15156397 0.12589297 0.032701515 0.19335203 0.013402971
-0.17574728 0.093562424 0.04463648 0.069423236 -0.0551314 -0.21064937 0.059657387 -0.29233095
-0.08654983 -0.2774869 0.15135053 0.14610088 -0.02704156 -0.04530173 0.18531135 0.306815
0.21773243 0.09041042 -0.072937764 0.08247704 -0.22619307 -0.09545196 0.3281436 -0.23740327
00000000: 5d70 843d 03bc 27be 301c 32be 652b 793e
00000010: e308 17be 6737 85bd 9a6b 9aba fda5 5fbe
00000020: 285d 003c bf3c 363d 939a 853d ea61 ee3d
00000030: 1cfc 30bd a280 aabe 6760 083e a591 a23e
00000040: cbe5 07be f9f1 443e ffff 8b3e e000 44be
00000050: d539 72be 9134 a5be 4cae 153d b7ff 2a3e
00000060: c338 a7be 545c a03e e931 55be 55c3 e6bd
00000070: e9b1 743d 8820 d3bc c1fb 943e 393a 8bbe
00000080: da61 1f3e 0ae1 b13d cb00 4b3d cc7b 0fbd
00000090: 20a8 223e 51c7 12bd cf0c 893c f6e7 313e
000000a0: 484e 01bd 9581 6c3e 9e51 a03d 1b27 92be
000000b0: b615 c43d 8cb1 da3d 280b 9a3e c171 fbbd
000000c0: 726b f3bd 3d0c 783e 8ba2 1f3e 1ae2 a63e
000000d0: ba87 023b f1c3 f03d 8633 76be 561b 923e
000000e0: 890f e2bd 7e0d bcbe 3906 03be 101f 14be
000000f0: 8c0f 983e 35d3 0e3e 1d00 9f3e 7525 34be
00000100: 8480 233e 8b61 49bd d4ee 7abc 844a 3b3c
00000110: 3049 c43c fc18 9f3e d7f5 b3bc b868 0fbd
00000120: 72bb 4f3e ebb9 5b3e 17ed d33d e2da 183e
00000130: 8ef3 af3e 52d9 9a3e 1e76 a5bd 991c 1e3e
00000140: e147 08bd fa12 7cbe 80f4 88be 5132 8a3e
00000150: 7170 1abe 4c52 babd b28f 83be 3aee bebd
00000160: 6ed9 a93e e46c 97be 79cf e2bd ac39 01bd
00000170: 8999 13be 1c6e 563e 50d0 a63d 6b03 22be
00000180: 5096 febd 66de da3d 3fad a2bd f8da 02be
00000190: 6a7b 443e 8b23 3cbe 69d7 93be b3d3 86be
000001a0: 9b43 893d 75de 493c 459d 6f3e 84f6 993e
000001b0: 426f 773d dfb5 563d 634c 69bb 3eb6 00bd
000001c0: 027f 3e3e 163a bc3b 36d3 4abe cf01 993d
000001d0: 3336 3c3d 2ae1 96be 7324 01be 9c51 e2bd
000001e0: f880 a7bd 262a 7b3e df37 e1bd 46c1 a93e
000001f0: 169c cb3d 090e e2bd 1ea9 16bc 7cf1 b0bd
00000200: 782d 4dbe 89cb bc3d 24d8 513e e0e2 91bd
00000210: c663 44be 7b0e 9cbe 45a7 5f3e 9efe 62bd
00000220: d147 203e a968 8c3e 77c1 ee3c e0ec efbd
00000230: 6496 783e b2ac 6c3e 1450 61be 087e 9abe
00000240: 10eb cc3c 4dc1 2a3e 56e1 3fbd 44bd f0bb
00000250: f9db 36be 2b57 6abe 6205 863e 8612 9d3e
00000260: ca42 41be d159 623e 06d0 babd 08cb 7ebe
00000270: 5edc 2c3e 6c59 773d cc9a 853d d52f 99be
00000280: c497 80be 38cb 3c3e 71b8 a3bd 5345 8cbe
00000290: 8e18 36bd 5481 7e3c 681a 8dbe 5119 76be
000002a0: febe 943e 8937 823d 52b5 b7bd 94a2 3b3e
000002b0: d33e acbe c537 75be dbc3 0c3e c938 2cbe
000002c0: 75aa 8ebd 14ca b4be dd9b 10be d4ef ffbd
000002d0: 4d37 02bd 8959 3c3c 384e 72be ad0f 913d
000002e0: ebae 813d 6157 d13d db29 e03d 633e 3ebe
000002f0: cce6 ab3d d5ac d43c 9ed3 e13d 65a8 873e
00000300: df83 c23c a636 883d f866 15bd 0d9c 2ebe
00000310: 0ee6 a53e 4407 61bd 535f bdbd c64e c53d
00000320: 4a7a 8cbe e252 6e3e 9aae 993e e75d 373e
00000330: 1bd2 323d c3e4 b4bd ea67 da3d 38b2 143e
00000340: d578 99be ee5d 8abe 261c 68be 446a 5c3e
00000350: 3b01 c2bd a636 703e 8be8 a0bd 6d03 e6bd
00000360: 7426 a7bd 39d2 3ebe 645a 6abe 7ffe 42bd
00000370: 4be2 8dbe 2efd 293d 4f78 24bd 6617 4e3e
00000380: e509 b5bb c5de debd 924c 923e 9633 1b3e
00000390: 16ea 003e 06f2 053d 13fe 453e 2398 5b3c
000003a0: 18f7 33be a89d bf3d bed4 363d c52d 8e3d
000003b0: 76d1 61bd 78b4 57be 4e5b 743d 67ac 95be
000003c0: 0a41 b1bd c312 8ebe a2fb 1a3e 789b 153e
000003d0: 4386 ddbc 4f8e 39bd 42c2 3d3e db16 9d3e
000003e0: 40f5 5e3e 1929 b93d 6560 95bd b9e9 a83d
000003f0: 289f 67be 517c c3bd 7002 a83e d819 73be

decoder.2.bias f4 [30]
0.19245788 -0.017330246 -0.028586999 -0.1397617 0.31283522 -0.18349347 0.20911689 0.043898866
-0.19600263 0.09024229 -0.27398586 -0.039290633 0.032519683 0.29813117 -0.2764208 0.22218856
0.03559558 -0.06821899 -0.25960997 0.17849208 -0.0924219 -0.29208204 -0.15628603 0.21475007
-0.07815565 -0.13697654 0.060043976 -0.17628238 -0.22147718 -0.15950088
00000000: ae13 453e 29f8 8dbc 482f eabc b11d 0fbe
00000010: f02b a03e b6e5 3bbe bd22 563e 4ccf 333d
00000020: eab4 48be f3d0 b83d e047 8cbe 37ef 20bd
00000030: 5c33 053d a6a4 983e 0787 8dbe 6685 633e
00000040: accc 113d 66b6 8bbd 99eb 84be a1c6 363e
00000050: b147 bdbd c78b 95be 7209 20be 71e7 5b3e
00000060: 1210 a0bd 9443 0cbe acf0 753d 5e83 34be
00000070: eaca 62be 3354 23be

decoder.4.weight f4 [60, 30]
0.02810067 -0.1349809 0.16458364 -0.0055427463 0.13939968 -0.0085725235 0.012951321 0.1633656
-0.08394914 -0.018062687 -0.17671469 0.047693793 -0.09165582 -0.050658207 0.0926382 0.014695506
-0.056392483 -0.095446676 -0.14701284 -0.034605414 0.1811543 -0.12994425 0.11636088 0.16668102
-0.12781307 -0.03987779 -0.10899398 0.07863448 -0.12426923 0.06597165 -0.04067383 -0.08511553
-0.09391344 -0.17515853 -0.14187366 0.013861483 -0.1649737 0.053583715 -0.120466135 -0.12590218
-0.14647192 0.049975857 0.024923062 0.022898998 0.11844274 -0.044824913 -0.08683188 0.030761693
0.13314795 -0.053219486 -0.021945706 -0.044834804 -0.015835455 -0.16626649 0.11243514 0.17620993
0.12850687 0.030468512 0.06131028 -0.09965938 0.14624177 0.06562585 -0.046120267 -0.15226029
0.08196736 0.026801758 0.12934627 -0.03503977 0.07382957 0.13270378 0.012975283 -0.15431657
0.10629105 0.046066727 0.014945415 0.0030952205 0.11697819 -0.06632591 0.1360395 0.1408792
0.0784971 0.040310916 0.044158388 -0.07992021 0.100456655 0.14431238 0.08046342 -0.12950824
0.086982064 -0.062594526 0.060516447 0.0792244 0.08326355 0.00082771387 -0.011655126 -0.023081608
0.07481811 0.036706485 0.075180665 -0.050959434 -0.06915387 -0.12506403 0.216754 0.10967381
-0.009799165 -0.019246293 -0.02978752 0.21730384 -0.18884507 -0.13106555 -0.015163395 0.1469629
0.025645323 -0.14679791 -0.22832784 0.034088627 -0.07461053 -0.12046436 0.055522565 0.13532215
0.084448725 0.092302606 -0.116291516 0.09927496 -0.0631184 0.20608732 0.15364954 -0.06443282
-0.06531607 -0.081069656 -0.073593475 0.10403486 -0.10913963 -0.10274952 0.13791564 0.0013411727
0.16303451 0.22947131 -0.09518148 0.1525429 0.025663914 -0.00408355 0.13688405 -0.15779912
0.11194283 -0.1415118 -0.09488769 0.050289836 -0.19426872 -0.1182981 0.0796094 -0.074774474
-0.18667355 0.11694398 -0.11570198 0.08858757 -0.1427818 -0.20082967 -0.13765357 -0.08644545
-0.14312217 0.16786161 -0.10144111 0.17848434 0.07295012 0.114934444 -0.08492108 -0.049869698
0.11583752 -0.12633742 0.1277583 0.1249167 -0.13325417 0.19116825 0.025817642 -0.06929783
0.025974374 -0.19450094 0.13842915 0.12513411 0.08285913 0.1049995 -0.073069766 -0.07932819
0.07002707 0.11059618 0.221782 -0.17447048 -0.09028338 -0.094768606 -0.014346724 0.17732638
0.051385555 0.18219578 -0.06726391 0.036736935 0.050282672 -0.06959048 0.044526603 0.08161308
0.058991894 0.05379386 -0.08383805 0.16516267 -0.19037971 0.16882437 0.069684654 0.12537442
0.09035943 -0.03702881 0.10351874 0.04491536 -0.10911123 0.045011804 0.063794985 -0.1809106
0.12574878 0.15946366 -0.0482779 -0.17927009 0.17812593 -0.045075685 0.13123998 -0.07002929
-0.1928588 -0.15842894 -0.011011314 -0.14200975 -0.052214477 -0.14521149 -0.11838002 -0.13113114
0.04184371 -0.11784184 0.11033496 0.0046059703 0.17735346 0.08138741 0.045266245 0.1427336
0.044858947 -0.13360476 -0.033630274 -0.14381339 0.11831086 -0.024284938 0.14954829 -0.019085817
-0.17872481 -0.1695742 -0.15666054 0.014464715 -0.005863251 0.10754767 -0.08744909 0.12605017
00000000: 6033 e63c 6f38 0abe 9d88 283e ed9f b5bb
00000010: cabe 0e3e c573 0cbc c731 543c 5049 273e
00000020: 87ed abbd 33f8 93bc b2f4 34be 915a 433d
00000030: 0cb6 bbbd fb7e 4fbd 19b9 bd3d 6bc5 703c
00000040: cefb 66bd 8c79 c3bd 898a 16be 68be 0dbd
00000050: 8380 393e 1b10 05be 9d4e ee3d 6eae 2a3e
00000060: 6ee1 02be e556 23bd 3c38 dfbd 1d0b a13d
00000070: de80 febd 251c 873d 9a99 26bd 0d51 aebd
00000080: b155 c0bd c25c 33be 5447 11be 461b 633c
00000090: deee 28be 997a 5b3d f3b6 f6bd 80ec 00be
000000a0: bcfc 15be 7cb3 4c3d 732b cc3c ae96 bb3c
000000b0: 1b92 f23d 549a 37bd ead4 b1bd f2ff fb3c
000000c0: f057 083e adfc 59bd 7bc7 b3bc b3a4 37bd
000000d0: 5bb9 81bc c341 2abe 6544 e63d 6070 343e
000000e0: 4e97 033e 1a99 f93c 7d20 7b3d 381a ccbd
000000f0: 67c0 153e d866 863d 9be8 3cbd 1fea 1bbe
00000100: 81de a73d 5c8f db3c 5973 043e dd85 0fbd
00000110: f533 973d 80e3 073e 4896 543c 2a05 1ebe
00000120: 1faf d93d 77b0 3c3d 9ddd 743c 2fd9 4a3b
00000130: 4392 ef3d e1d5 87bd f04d 0b3e a342 103e
00000140: 16c3 a03d 0f1d 253d 6ddf 343d 35ad a3bd
00000150: 38bc cd3d a0c6 133e 01ca a43d cf9d 04be
00000160: a723 b23d 8f31 80bd 18e0 773d 6740 a23d
00000170: 1586 aa3d f0fa 583a 24f5 3ebc a415 bdbc
00000180: 3d3a 993d 8a59 163d 52f8 993d d7ba 50bd
00000190: 8ba0 8dbd c910 00be c3f4 5d3e aa9c e03d
000001a0: ad8c 20bc 67aa 9dbc f504 f4bc e684 5e3e
000001b0: 9a60 41be 0c36 06be e36f 78bc 717d 163e
000001c0: 2416 d23c 3152 16be c6ce 69be 84a0 0b3d
000001d0: 68cd 98bd 05b6 f6bd a16b 633d e491 0a3e
000001e0: 74f3 ac3d 2609 bd3d 3f2a eebd ac50 cb3d
000001f0: 3844 81bd 8e08 533e 4e56 1d3e 5bf5 83bd
00000200: 6fc4 85bd d907 a6bd 2db8 96bd 3b10 d53d
00000210: 9984 dfbd 576e d2bd c239 0d3e 4aca af3a
00000220: 85f2 263e 87fa 6a3e 82ee c2bd 3534 1c3e
00000230: 213d d23c 4dcf 85bb 552b 0c3e 1896 21be
00000240: 4842 e53d 78e8 10be 7a54 c2bd b7fc 4d3d
00000250: 61ee 46be 4646 f2bd 410a a33d 5c23 99bd
00000260: 5a27 3fbe 5380 ef3d 29f5 ecbd 666d b53d
00000270: 6435 12be 4ba6 4dbe 0ff5 0cbe 500a b1bd
00000280: 9e8e 12be eae3 2b3e 5bc0 cfbd 99c4 363e
00000290: df66 953d c062 eb3d 1aeb adbd 2b44 4cbd
000002a0: 393c ed3d 995e 01be 12d3 023e 54d4 ff3d
000002b0: c873 08be 9cc1 433e 857f d33c 05ec 8dbd
000002c0: 36c8 d43c 412b 47be 5fc0 0d3e 2823 003e
000002d0: 0cb2 a93d fa09 d73d 9aa5 95bd d176 a2bd
000002e0: 5a6a 8f3d 4080 e23d d21a 633e 64a8 32be
000002f0: 7ee6 b8bd 0b16 c2bd 860e 6bbc 0c95 353e
00000300: a979 523d 8891 3a3e a9c1 89bd 7879 163d
00000310: 34f5 4d3d 7485 8ebd 8761 363d c224 a73d
00000320: 7ca1 713d f356 5c3d 49b3 abbd 6720 293e
00000330: e6f2 42be 4ce0 2c3e d4b6 8e3d 2762 003e
00000340: 5d0e b93d 85ab 17bd a201 d43d 2bf9 373d
00000350: b575 dfbd 4c5e 383d f2a6 823d a140 39be
00000360: 4ac4 003e 714a 233e 0cbf 45bd 9492 37be
00000370: a566 363e 48a1 38bd c663 063e 846b 8fbd
00000380: c77c 45be 323b 22be cc68 34bc 016b 11be
00000390: d9de 55bd 52b2 14be 3971 f2bd 3e47 06be
000003a0: 4f64 2b3d 1057 f1bd 4cf7 e13d aeed 963b
000003b0: 259c 353e 71ae a63d 1969 393d c228 123e
000003c0: 04be 373d b0cf 08be e6bf 09bd d143 13be
000003d0: f74c f23d 35f1 c6bc 3023 193e dc59 9cbc
000003e0: a303 37be dca4 2dbe 9f6b 20be 69fd 6c3c
000003f0: 8420 c0bb f441 dc3d 8218 b3bd 4c13 013e

decoder.4.bias f4 [60]
-0.09449767 0.11278388 0.15379545 0.08806382 0.15490492 -0.13167037 0.06882092 0.07885769
-0.16096929 0.0183061 0.11100533 0.047552228 0.18677057 -0.10061535 -0.0797473 0.1412551
-0.13130409 -0.13104372 -0.16123617 0.14915006 0.19608632 0.1328848 -0.07407365 -0.016440619
0.17899643 0.033884786 0.046493027 0.15575019 0.12166046 0.0465523 -0.10324765 -0.14793594
-0.037517466 -0.014268556 0.14801192 -0.095788315 -0.07253912 -0.03848518 -0.08310156 0.045840945
-0.03981705 0.07535235 0.12887692 0.16164672 -0.005949371 -0.09795845 0.078829736 0.13337344
-0.034020476 0.042404596 0.08612245 -0.12163253 -0.09268926 -0.12780572 0.031868216 0.08433164
0.17768058 0.036908977 -0.1602679 0.08542935
00000000: ff87 c1bd 3cfb e63d 8e7c 1d3e ce5a b43d
00000010: 659f 1e3e 99d4 06be fcf1 8c3d 2480 a13d
00000020: 22d5 24be adf6 953c c356 e33d 20c6 423d
00000030: c940 3f3e 6c0f cebd 8d52 a3bd 2da5 103e
00000040: 9474 06be 5330 06be 181b 25be cbba 183e
00000050: daca 483e f412 083e edb3 97bd 7aae 86bc
00000060: d74a 373e c6ca 0a3d 796f 3e3d fa7c 1f3e
00000070: 1f29 f93d a0ad 3e3d 8173 d3bd 857c 17be
00000080: eaab 19bd a9c6 69bc 7090 173e aa2c c4bd
00000090: 648f 94bd a3a2 1dbd 2731 aabd b7c3 3b3d
000000a0: 3417 23bd 5552 9a3d 50f8 033e b886 253e
000000b0: f1f2 c2bb 719e c8bd 7c71 a13d 0c93 083e
000000c0: 0e59 0bbd 71b0 2d3d f860 b03d 7a1a f9bd
000000d0: ded3 bdbd 81df 02be 3f88 023d 11b6 ac3d
000000e0: e6f1 353e de2d 173d 451d 24be 95f5 ae3d

decoder.6.weight f4 [118, 60]
0.047652595 0.08918787 0.062789455 0.0026886088 -0.09079005 0.0008104662 -0.024179278 0.07454472
0.018405804 -0.052945014 -0.17130883 -0.05978047 -0.028722499 0.02794989 0.1485474 -0.108899325
0.015726553 -0.014672049 0.15155157 -0.029821519 -0.16281854 0.048993222 0.0036924477 0.10095344
-0.1635715 -0.17398524 0.038522262 -0.1460963 -0.033944752 -0.03037634 0.07163478 0.043568693
-0.050420415 -0.01612391 -0.03855831 -0.07633116 -0.11476302 -0.04542175 0.023799947 -0.008251221
-0.052627772 0.012758317 -0.107090265 -0.104086086 0.07844661 0.13884163 -0.12412531 -0.016798006
0.05355013 0.13562788 0.037345335 -0.079790816 -0.15195471 -0.00076827384 0.012749208 0.003962277
0.06491047 -0.030850908 -0.09012257 -0.12976277 0.13857159 -0.105164744 -0.000482034 -0.10417155
0.09205396 0.014776035 0.12470823 -0.12844276 0.0782399 0.10917354 -0.15210268 0.01804156
0.008390167 -0.09268803 -0.026403237 -0.020632386 0.03784406 0.036052123 -0.030924516 0.07093704
0.06396615 0.08662881 0.03485983 -0.1275794 0.094253436 -0.07971102 -0.028711699 0.045923747
0.03419412 -0.11846589 -0.0747726 0.032716885 0.058630146 -0.060938895 0.13101105 0.07203924
-0.15005933 -0.055852078 0.0848474 -0.030353958 -0.07158213 -0.026807927 0.020560073 -0.036283802
-0.06667494 0.025285969 0.06456529 0.11493915 0.047353193 0.04745625 0.054870747 0.1270861
-0.13372765 -0.032699768 -0.06356102 -0.04370022 0.08705517 0.10631758 -0.07745918 -0.06467357
0.059778556 0.057036877 0.048892017 0.03692864 -0.09775573 0.07612262 -0.11082187 -0.051246203
0.0021866357 -0.0020527353 0.0039656977 -0.106530555 0.13109861 -0.085369244 0.0011187322 -0.0028936875
-0.0024985676 -0.034068827 0.015938606 0.033898447 -0.08342845 0.09247209 -0.018214293 0.10647498
-0.09914315 0.11626906 0.085782796 -0.037082884 0.016135268 0.083717406 -0.11102304 0.08997357
0.06333022 -0.063780524 0.06419755 0.054670505 0.018270535 0.093701504 -0.10262071 -0.018997744
0.010719863 0.09168579 0.07549477 -0.011885248 -0.06483617 -0.13249655 -0.0011735787 -0.039696015
-0.03393601 0.02381724 0.07591068 0.056310173 0.021735964 -0.035180625 0.049471837 0.07883639
-0.039530896 -0.1148679 0.009257126 -0.051681165 0.108591884 -0.10528153 -0.0705694 0.040062882
-0.09278173 -0.010209218 0.06282212 -0.07717031 0.047579776 0.10527586 -0.10371511 0.028459407
-0.0816925 -0.07599458 -0.11700583 0.05791686 0.07757137 -0.07528615 0.09175281 -0.061908063
0.054412372 -0.10531876 0.13193668 -0.10866114 0.056480244 0.04865033 0.040050793 0.115661055
0.055527795 0.07342458 -0.112913676 -0.07649894 -0.013228298 0.13363609 0.0926418 -0.13003801
0.06882069 -0.0018504844 -0.00232386 -0.03219255 0.058569144 -0.044848748 0.048971176 -0.08735185
-0.0046516373 0.042232648 -0.037648752 0.11811442 -0.09769165 0.055174008 0.09251794 -0.025949765
0.045717385 -0.11804087 -0.047230706 -0.07223159 0.039256055 -0.043680176 -0.12833089 -0.12752414
0.003984454 0.096344426 0.11085565 -0.018382352 -0.030872257 -0.07628667 0.1046519 -0.10534405
-0.012555179 -0.057142943 -0.1341047 0.03796567 -0.081390984 -0.039240994 0.036378518 0.048554897
00000000: 5e2f 433d 21a8 b63d c297 803d 5f33 303b
00000010: 22f0 b9bd 7775 543a 9f13 c6bc e7aa 983d
00000020: c5c7 963c dfdc 58bd 956b 2fbe 5edc 74bd
00000030: 724b ebbc 2bf7 e43c cf1c 183e 9c06 dfbd
00000040: f9d4 803c 0963 70bc 5630 1b3e 424c f4bc
00000050: e7b9 26be 1ead 483d fefc 713b adc0 ce3d
00000060: 4a7f 27be 3029 32be 85c9 1d3d 459a 15be
00000070: a709 0bbd cdd7 f8bc 41b5 923d 1675 323d
00000080: a385 4ebd 4a16 84bc 52ef 1dbd 8353 9cbd
00000090: e008 ebbd 280c 3abd 1bf8 c23c 2130 07bc
000000a0: 3890 57bd 4308 513c 2452 dbbd 162b d5bd
000000b0: 9ea8 a03d 802c 0e3e 6935 febd f99b 89bc
000000c0: 6257 5b3d 09e2 0a3e 6cf7 183d 5e69 a3bd
000000d0: 049a 1bbe fc65 49ba 0ee2 503c fdd5 813b
000000e0: c8ef 843d 0bbb fcbc 2f92 b8bd 88e0 04be
000000f0: b6e5 0d3e 9d60 d7bd 82b9 fcb9 e557 d5bd
00000100: c986 bc3d 2f17 723c 0767 ff3d 8086 03be
00000110: 3e3c a03d 6096 df3d cec0 1bbe e5cb 933c
00000120: e976 093c 39d3 bdbd 9a4b d8bc 4005 a9bc
00000130: 6002 1b3d 64ab 133d 6955 fdbc 7047 913d
00000140: af00 833d 726a b13d 2ec9 0e3d 2da4 02be
00000150: f207 c13d 883f a3bd cc34 ebbc 8a1a 3c3d
00000160: 220f 0c3d 3f9e f2bd 6022 99bd 2402 063d
00000170: 2a26 703d 109b 79bd c327 063e 4f89 933d
00000180: 27a9 19be 26c5 64bd 79c4 ad3d dda8 f8bc
00000190: a799 92bd 4c9c dbbc 996d a83c 539e 14bd
000001a0: df8c 88bd 8524 cf3c cf3a 843d 3865 eb3d
000001b0: 6cf5 413d 7c61 423d 26c0 603d dc22 023e
000001c0: e7ef 08be 31f0 05bd 482c 82bd 00ff 32bd
000001d0: fb49 b23d 08bd d93d eba2 9ebd 9473 84bd
000001e0: 5cda 743d 809f 693d ff42 483d 7c42 173d
000001f0: 2834 c8bd 2de6 9b3d 94f6 e2bd 8ae7 51bd
00000200: a94d 0f3b 2f87 06bb aff2 813b b12c dabd
00000210: b73e 063e 12d6 aebd 6ca2 923a 05a4 3dbb
00000220: 02bf 23bb c18b 0bbd ae91 823c 19d9 0a3d
00000230: 89dc aabd 0262 bd3d 2436 95bc 8e0f da3d
00000240: 900b cbbd 791e ee3d e4ae af3d 39e4 17bd
00000250: 1c2e 843c 0874 ab3d 0c60 e3bd 1044 b83d
00000260: 46b3 813d 5d9f 82bd 017a 833d 2eee 5f3d
00000270: 17ac 953c 93e6 bf3d cf2a d2bd 28a1 9bbc
00000280: 5da2 2f3c c2c5 bb3d 019d 9a3d 58ba 42bc
00000290: d3c8 84bd 2dad 07be c4d2 99ba 4a98 22bd
000002a0: 7c00 0bbd 5f1c c33c 0f77 9b3d 7fa5 663d
000002b0: 9f0f b23c 8f19 10bd fba2 4a3d f974 a13d
000002c0: 26eb 21bd dd3f ebbd 33ab 173c a1af 53bd
000002d0: 6c65 de3d d89d d7bd b186 90bd fa18 243d
000002e0: 5904 bebd 9044 27bc e2a8 803d 780b 9ebd
000002f0: 03e3 423d df9a d73d 9668 d4bd b423 e93c
00000300: 664e a7bd 0ca3 9bbd c1a0 efbd 3b3a 6d3d
00000310: bddd 9e3d a02f 9abd e6e8 bb3d 4f93 7dbd
00000320: 82df 5e3d 5db1 d7bd 691a 073e bb89 debd
00000330: d457 673d 9245 473d 4d0c 243d b4df ec3d
00000340: 1d71 633d a05f 963d 493f e7bd 7aab 9cbd
00000350: 81bb 58bc e6d7 083e fcba bd3d af28 05be
00000360: ddf1 8c3d f48b f2ba e74b 18bb 56dc 03bd
00000370: 33e6 6f3d 52b3 37bd 0096 483d 87e5 b2bd
00000380: c36c 98bb 24fc 2c3d 9435 1abd f9e5 f13d
00000390: 8f12 c8bd 24fe 613d 0c7a bd3d 9a94 d4bc
000003a0: 2742 3b3d 69bf f1bd fc74 41bd 28ee 93bd
000003b0: f5ca 203d fce9 32bd 2c69 03be b095 02be
000003c0: 0690 823b 3a50 c53d 4908 e33d 9696 96bc
000003d0: d1e7 fcbc 303c 9cbd bc53 d63d 9fbe d7bd
000003e0: 3db4 4dbc b80e 6abd be52 09be e481 1b3d
000003f0: 51b0 a6bd 2abb 20bd a401 153d 80e1 463d

decoder.6.bias f4 [118]
-0.009937077 -0.024390979 -0.029811757 -0.09858475 -0.07744019 -0.09045392 0.0072244904 0.016458176
0.11153627 0.022821978 -0.08802056 0.13229539 -0.018842412 0.12310176 0.13422363 0.018685415
0.084703095 0.0014176018 0.07332773 0.020086695 -0.06795125 -0.09532775 -0.030571822 -0.09672744
0.062083848 -0.04549977 -0.10396786 -0.0064910874 0.047194235 -0.04112131 0.036590446 0.097977415
-0.06539479 -0.07570974 0.07498916 0.0009203824 0.041785076 -0.029179903 0.066471 0.13781035
0.07110542 -0.07898344 -0.09042311 -0.07605513 -0.0057385983 -0.051052574 -0.009036036 -0.032202993
0.0934381 0.032823388 -0.09104135 -0.024148785 -0.06317887 0.03869656 0.066928394 0.050747212
0.05209154 0.06462394 -0.072951995 -0.08745241 -0.035735216 -0.104130454 0.013665002 0.064446405
-0.051846057 -0.10483116 -0.041154996 0.048453797 -0.0049387757 -0.040006492 -0.022228796 0.079485714
0.07773679 -0.0781321 0.03794652 -0.0507241 -0.071302645 -0.06859037 -0.026329702 0.028611157
0.012450133 -0.028241169 -0.0067182523 0.027681401 -0.07408096 -0.03066389 0.029017717 0.03355058
-0.01093951 -0.025943676 -0.1016908 -0.07012706 0.07796108 0.07744199 0.053219646 0.11108125
-0.07180057 -0.07329106 -0.06989861 -0.024847813 0.08610835 0.0901239 0.115993194 0.05960402
-0.015835514 -0.07232303 -0.088898204 -0.062523484 -0.09892573 -0.05183401 -0.13082281 0.038967606
0.09787604 -0.035723653 0.11988382 -0.016881226 -0.10933103 0.03173433
00000000: 1fcf 22bc 97cf c7bc c937 f4bc cde6 c9bd
00000010: f698 9ebd e83f b9bd 6bbb ec3b 4cd3 863c
00000020: 216d e43d 28f5 ba3c 2044 b4bd 7178 073e
00000030: 675b 9abc c71c fc3d eb71 093e 2812 993c
00000040: d178 ad3d d3ce b93a d92c 963d da8c a43c
00000050: 062a 8bbd 323b c3bd c271 fabc 0919 c6bd
00000060: a24b 7e3d f85d 3abd 1aed d4bd 30b3 d4bb
00000070: be4e 413d d26e 28bd dddf 153d 62a8 c83d
00000080: b4ed 85bd b50d 9bbd eb93 993d d145 713a
00000090: d426 2b3d b10a efbc f321 883d 281e 0d3e
000000a0: b89f 913d 12c2 a1bd c02f b9bd cbc2 9bbd
000000b0: da0a bcbb 811c 51bd e20b 14bc 49e7 03bd
000000c0: 795c bf3d d171 063d e373 babd acd3 c5bc
000000d0: ec63 81bd 4980 1e3d c111 893d 4fdc 4f3d
000000e0: f05d 553d 8e59 843d db67 95bd 401a b3bd
000000f0: 175f 12bd 5942 d5bd 2ce3 5f3c 7afc 833d
00000100: 885c 54bd b8b1 d6bd 2492 28bd 7d77 463d
00000110: 74d5 a1bb d9dd 23bd 2a19 b6bc 68c9 a23d
00000120: 7734 9f3d b903 a0bd cf6d 1b3d 13c4 4fbd
00000130: 1f07 92bd 1c79 8cbd 63b1 d7bc f261 ea3c
00000140: a5fb 4b3c 065a e7bc c924 dcbb 1bc4 e23c
00000150: c2b7 97bd d732 fbbc 90b6 ed3c 556c 093d
00000160: a13b 33bc d587 d4bc 4443 d0bd c79e 8fbd
00000170: 0faa 9f3d e899 9e3d d8fc 593d 917e e33d
00000180: 2d0c 93bd a019 96bd 0127 8fbd a48d cbbc
00000190: 9359 b03d e192 b83d d78d ed3d 5823 743d
000001a0: 7bb9 81bc 191e 94bd 4310 b6bd 500c 80bd
000001b0: 9399 cabd e64f 54bd 6af6 05be 7f9c 1f3d
000001c0: 3c73 c83d f752 12bd a685 f53d 7f4a 8abc
000001d0: f2e8 dfbd dbfb 013d

estimation.0.weight f4 [10, 3]
-0.16807368 -0.1554562 -0.33348778 0.48383927 0.033517722 0.38604432 -0.17095366 -0.17465754
0.32190105 0.29452384 0.08684474 -0.31748527 -0.17429143 0.1986986 -0.44252878 -0.020363966
0.45225933 0.23620266 -0.22535935 -0.13756451 -0.35093436 0.07344182 -0.28802976 0.16780582
-0.39008272 0.6311904 -0.12860122 -0.3352058 0.6176666 0.1655392
00000000: 821b 2cbe e92f 1fbe e9be aabe c8b9 f73e
00000010: e149 093d 9aa7 c53e 7a0e 2fbe 6dd9 32be
00000020: 37d0 a43e d4cb 963e a8db b13d 6e8d a2be
00000030: 7479 32be a577 4b3e 2293 e2be 55d2 a6bc
00000040: 898e e73e 1cdf 713e 9ac4 66be b6dd 0cbe
00000050: abad b3be aa68 963d a378 93be 4ad5 2b3e
00000060: ecb8 c7be b295 213f 0ab0 03be 18a0 abbe
00000070: 661f 1e3f 1c83 293e

estimation.0.bias f4 [10]
0.87440354 -0.6014661 -0.45987192 0.5053138 0.120302215 0.6390229 -0.7311292 0.26130608
0.72806394 0.47775057
00000000: e9d8 5f3f aff9 19bf 5574 ebbe 3f5c 013f
00000010: 0261 f63d 0197 233f 492b 3bbf e9c9 853e
00000020: 6662 3a3f b99b f43e

estimation.3.weight f4 [4, 10]
-0.34266004 0.46012822 0.038455877 -0.35832348 0.0068274224 -0.31544837 0.29154342 -0.19335356
-0.10670645 0.054450825 -0.54839 -0.12369472 0.33507055 -0.012831204 -0.31600514 -0.27361956
0.1774013 0.010259186 -0.16293432 -0.42597467 0.6154293 -0.16010389 -0.55064154 0.41169995
0.24538149 0.38644603 -0.30514926 -0.1507518 0.33250797 0.5228342 -0.009334921 0.044760022
0.35283813 -0.19438444 -0.16781153 -0.46951184 0.3704367 0.101801 -0.45818952 -0.5016256
00000000: 2371 afbe ed95 eb3e e983 1d3d 2d76 b7be
00000010: 92b8 df3b 7382 a1be 2e45 953e 7afe 45be
00000020: e988 dabd d407 5f3d 4963 0cbf a853 fdbd
00000030: 5e8e ab3e f839 52bc 6dcb a1be dd17 8cbe
00000040: b0a8 353e 2516 283c 41d8 26be 5a19 dabe
00000050: c68c 1d3f 46f2 23be d8f6 0cbf 56ca d23e
00000060: 4945 7b3e 41dc c53e 863c 9cbe ae5e 1abe
00000070: 7c3e aa3e 76d8 053f 7ff1 18bc 4956 373d
00000080: 33a7 b43e b70c 47be c9d6 2bbe db63 f0be
00000090: e1a9 bd3e 0b7d d03d d197 eabe 896a 00bf

estimation.3.bias f4 [4]
-0.31373042 -0.34087694 0.27239352 -0.087608896
00000000: 46a1 a0be 6c87 aebe 2a77 8b3e 4b6c b3bd
