Baseline-models/DAGMM/DAGMM-ROAD/no--dagmm/models/33_194_dagmm.pth (torch, 82200 bytes, 22 tensors)

phi f4 [4]
0	0x3cc3cdb7	0.023901803
1	0x3cafd474	0.02146361
2	0x3f6f1460	0.93390465
3	0x3ca9d1e2	0.020729963

mu f4 [4, 3]
0	0x3ea6dda3	0.3259097
1	0x3fa0bfd7	1.2558545
2	0xbdceda46	-0.10100226
3	0x3eaa8139	0.33301714
4	0x3f9fd4cc	1.2486815
5	0xbdb92e09	-0.09041984
6	0x3d7bcea4	0.061476365
7	0x3fc1dd91	1.5145742
8	0xbefa7741	-0.4891911
9	0x3eadd515	0.3395163
10	0x3f9f0006	1.2421882
11	0xbda5972b	-0.080854736

cov f4 [4, 3, 3]
0	0x3ea6b7da	0.32562143
1	0xbea3097d	-0.31843176
2	0x3ef4de9e	0.47826093
3	0xbea3097d	-0.31843176
4	0x3e9f7ea9	0.31151322
5	0xbeef7eb9	-0.4677637
6	0x3ef4de9e	0.47826093
7	0xbeef7eb9	-0.4677637
8	0x3f33d679	0.70249134
9	0x3ea65c7f	0.32492444
10	0xbea29fd7	-0.31762573
11	0x3ef4515f	0.4771833
12	0xbea29fd7	-0.31762573
13	0x3e9f0483	0.3105813
14	0xbeeeda93	-0.46651134
15	0x3ef4515f	0.4771833
16	0xbeeeda93	-0.46651134
17	0x3f3368e0	0.700819
18	0x3e73c222	0.23804525
19	0xbe6ded20	-0.23234987
20	0x3eb2ed5e	0.34946722
21	0xbe6ded20	-0.23234987
22	0x3e6856c2	0.22689345
23	0xbeaeabea	-0.34115535
24	0x3eb2ed5e	0.34946722
25	0xbeaeabea	-0.34115535
26	0x3f03587b	0.51306885
27	0x3ea5b3cc	0.32363737
28	0xbea1fae7	-0.31636736
29	0x3ef355db	0.4752644
30	0xbea1fae7	-0.31636736
31	0x3e9e6262	0.30934435
32	0xbeede443	-0.46463212
33	0x3ef355db	0.4752644
34	0xbeede443	-0.46463212
35	0x3f32ad48	0.69795656

encoder.0.weight f4 [60, 118]
0	0xbcd92f90	-0.026511937
1	0x3db16545	0.08661894
2	0x3cc1e0fa	0.023666847
3	0x3bd71a79	0.006564435
4	0x3db8b84c	0.09019527
5	0xbcc9bc63	-0.024625963
6	0x3d1074c5	0.03526761
7	0x3d750d1a	0.059826948
8	0xbd884c18	-0.06655139
9	0x3d8ebdd4	0.069698006
10	0x3d2e317f	0.042527672
11	0x3c75d7b8	0.015005045
12	0x3d594ba0	0.053050637
13	0x3d5a98c9	0.053368364
14	0xbd81c87e	-0.06337069
15	0xbd222314	-0.039584234
16	0x3db3076f	0.08741652
17	0xbd4d15d6	-0.050069652
18	0xbc7d352f	-0.0154545745
19	0xbd8a868a	-0.067639425
20	0xbc7b0d1d	-0.015322951
21	0xbcd236f3	-0.025660967
22	0x3d0d50f7	0.034501042
23	0xbd354d24	-0.04426302
24	0x3dbb23db	0.09137698
25	0x3d88d94a	0.066820696
26	0x3dc45ca4	0.09587982
27	0xbce72c9c	-0.028219514
28	0xbd2454f6	-0.040120088
29	0xbdae268c	-0.08503446
30	0xbdb28a26	-0.08717756
31	0xbc8b7f9d	-0.017028624
32	0x3d826921	0.06367708
33	0x3d191808	0.037376434
34	0xbd0c0fa8	-0.03419462
35	0x3d7aed10	0.061261237
36	0xbc7d1a0d	-0.0154481055
37	0xbd407fc0	-0.046996832
38	0xbc1ffe7e	-0.0097652655
39	0xbd5ce50c	-0.053929374
40	0x3d3eb2ee	0.04655736
41	0x3d413c78	0.047176808
42	0x3cd5b138	0.026085481
43	0x3c1be514	0.009515066
44	0xbca0aaf6	-0.01961277
45	0x3c974ddd	0.018469745
46	0xbd8e3515	-0.06943718
47	0xbcd95fcc	-0.026534937
48	0xbd3017e8	-0.04299155
49	0xbd9bd326	-0.07608633
50	0xbcf39bf4	-0.02973745
51	0xbc8ad03b	-0.016944995
52	0xbc82a876	-0.015949469
53	0xbc02ffac	-0.007995527
54	0x3c12cb28	0.008959569
55	0xbda22a52	-0.07918228
56	0xbd25fc24	-0.040523663
57	0xbb6ff603	-0.003661514
58	0x3b28f399	0.002577996
59	0xbc3d7fd7	-0.011566124
60	0xbbcbdac0	-0.0062211454
61	0xbccc558f	-0.024943141
62	0x3dbb0f10	0.09133732
63	0x3d197292	0.03746278
64	0x3db39cad	0.08770118
65	0x3daeaa94	0.08528629
66	0x3d8e9eef	0.06963908
67	0xbd846501	-0.064645775
68	0x3d47e13f	0.048798796
69	0x3d9e2187	0.077212386
70	0x3da89176	0.082308695
71	0x3d0ec619	0.03485689
72	0x3d8278cb	0.06370696
73	0xbd51520d	-0.05110364
74	0x3d2701ab	0.040773075
75	0xbda31a27	-0.079639725
76	0xbd00b8b1	-0.031426135
77	0xbcc0413d	-0.023468608
78	0xbd9f949b	-0.07792016
79	0xbb185eb4	-0.0023249807
80	0xbcce2ede	-0.025168832
81	0x3d09613f	0.033540007
82	0xbd450e76	-0.048109494
83	0xbbe9edd4	-0.007138947
84	0x3d7e9206	0.062150978
85	0xbbe42f70	-0.006963663
86	0xbd9bac70	-0.07601249
87	0x3c722e16	0.014781496
88	0xbdc98fb1	-0.0984186
89	0x3daa359a	0.08311005
90	0x3c3be0ab	0.011467139
91	0x3c87c7d5	0.01657478
92	0xbd811752	-0.06303276
93	0x3cb6df21	0.022323193
94	0x3d3616e9	0.044455443
95	0x3da8e1fc	0.08246228
96	0x3d033ea8	0.032042176
97	0x39174800	0.00014427304
98	0x3d8af52d	0.06785045
99	0xbd39846f	-0.045292314
100	0x3d799183	0.060929786
101	0x3d82aa6f	0.06380164
102	0xbd3db1ea	-0.04631225
103	0xbd1a7cb5	-0.037716586
104	0xbc0ac9c2	-0.008470954
105	0x3d381e3e	0.044950716
106	0x3ba7483d	0.005105047
107	0xbd850485	-0.06495003
108	0x3d3673f1	0.044544164
109	0x3ce5cebc	0.02805268
110	0xbd2a3a31	-0.041559402
111	0x3c8d8afa	0.017278183
112	0xbcbcebff	-0.02306175
113	0xbd7a2e76	-0.061079465
114	0x3d93a3f4	0.07209006
115	0xbc502131	-0.012703226
116	0x3d4d8e35	0.050184447
117	0xbc4090ea	-0.0117533
118	0xbd011dbb	-0.031522494
119	0x3d84206d	0.06451497
120	0x3db6db21	0.08928514
121	0x3a6c06c0	0.00090036914
122	0xbacda394	-0.0015689009
123	0xbd5b55f3	-0.053548764
124	0xbd8188aa	-0.06324895
125	0x3d45fc86	0.04833653
126	0x3b33ae64	0.0027417177
127	0x3d7536a5	0.059866566
128	0x3d7090e4	0.05873193
129	0x3d2c8b35	0.042124946
130	0xbaef965d	-0.0018279065
131	0x3d3a1f43	0.04543997
132	0xbcc79ec8	-0.024367705
133	0xbcca8e29	-0.02472599
134	0x3d59ba6f	0.053156313
135	0xbcd752df	-0.026284633
136	0x3d833a7f	0.064076416
137	0xbc98d36b	-0.0186555
138	0x3d545203	0.051836025
139	0x3d9ff056	0.07809512
140	0x3caaa6d4	0.020831503
141	0xbce8997c	-0.0283935
142	0x3ce0df75	0.027450303
143	0xbd4eaa47	-0.050455358
144	0xbd1cb112	-0.038254805
145	0xbdc89503	-0.09794047
146	0x3da4e148	0.080507815
147	0xbd8a6a69	-0.067585774
148	0x3c83d13c	0.016090982
149	0x3c6d0399	0.01446619
150	0x3db08e65	0.086209096
151	0x3ca9d7e3	0.020732826
152	0x3cf667d5	0.030078808
153	0xbd49d767	-0.04927769
154	0x3d425069	0.047439966
155	0x3dbd9ee9	0.09258825
156	0xbd742d44	-0.05961348
157	0xbc32e743	-0.010919395
158	0xbda70ddf	-0.081569426
159	0x3ca97118	0.02068381
160	0x3ce002a4	0.02734501
161	0xbcb2b3d0	-0.021814257
162	0xbb13a2ee	-0.0022527534
163	0xbcb193e0	-0.021676958
164	0xbc3fc66e	-0.011705024
165	0x3d554cfa	0.052075364
166	0x3db321fa	0.08746715
167	0x3db6b83f	0.08921861
168	0xbcc3d00a	-0.023902912
169	0x3c854bdc	0.016271524
170	0xbd76f306	-0.06029036
171	0x3d84847a	0.064705804
172	0xbd7f3bdd	-0.06231295
173	0x3d2f2838	0.042762965
174	0xbcb23a4c	-0.021756314
175	0x3d8b973a	0.068159536
176	0x3db89217	0.090122394
177	0xbbd6328b	-0.006536787
178	0x3db5cfe3	0.08877542
179	0xbc504c56	-0.012713512
180	0x3d8e7558	0.06955975
181	0x3caaec80	0.020864725
182	0x3db4ca34	0.0882763
183	0x3d7d186f	0.06179088
184	0xb94eb500	-0.00019713119
185	0x3cc22038	0.023697004
186	0x3c35cd98	0.011096381
187	0xbd390871	-0.045174066
188	0xbd144607	-0.036199596
189	0xbcc3acde	-0.02388614
190	0x3d711c58	0.05886492
191	0x3d7f4f18	0.06233129
192	0x3d983c78	0.074334085
193	0xbd0c3bfe	-0.0342369
194	0xbc1b82ca	-0.009491632
195	0x3d87c4d1	0.066293366
196	0x3cfe9fe6	0.031082105
197	0x3bc2c12a	0.005943437
198	0x3b5e407f	0.0033912954
199	0x3ce73922	0.028225485
200	0xbd8dac74	-0.069176584
201	0xbd983899	-0.0743267
202	0xbda08078	-0.078370035
203	0x3d3826d6	0.04495891
204	0xbbba67e3	-0.005688654
205	0xbe1d0a66	-0.15335998
206	0xbc3c6401	-0.011498452
207	0xbcbb1d1b	-0.022841027
208	0x3d826ad8	0.06368035
209	0x3bea4ad8	0.0071500354
210	0xbd98269c	-0.07429239
211	0x3d8bfc89	0.06835277
212	0xbcbdc320	-0.023164332
213	0xbd197886	-0.037468456
214	0xbd52d473	-0.05147214
215	0xbd7d967c	-0.06191109
216	0xbcb3f5f3	-0.021967864
217	0xbdabad90	-0.08382714
218	0xbc824a39	-0.015904533
219	0xbd461c8f	-0.04836708
220	0x3df27bc5	0.118400134
221	0xbce432d1	-0.027856262
222	0x3dabf204	0.0839577
223	0xbd39e616	-0.045385443
224	0x3c588fcf	0.01321788
225	0x3d0c5a73	0.034265947
226	0xbcb9716a	-0.022637088
227	0xbdcfa9ba	-0.10139795
228	0xbc929b68	-0.01789637
229	0x3cff3fe3	0.031158393
230	0xbd039ac6	-0.032130025
231	0x3c2aba16	0.010420343
232	0x3c84446f	0.016145913
233	0x3dcfe73f	0.101515286
234	0xbd339e32	-0.04385204
235	0xbca35f5a	-0.019942928
236	0xbbfd2751	-0.007725634
237	0xbd6e26c8	-0.058142453
238	0x3c43e25a	0.011955822
239	0xbd6244d4	-0.05524142
240	0x3d07840d	0.033084918
241	0xbdd51ae1	-0.10405517
242	0xbdc2f87f	-0.09520053
243	0x3d052d5c	0.03251396
244	0x3d8af4fb	0.067850076
245	0xbc90b98a	-0.017666597
246	0xbbe158c1	-0.0068770354
247	0xbaf39f1b	-0.0018586846
248	0x3d818be5	0.06325511
249	0x3d05507b	0.032547455
250	0x3c06f310	0.008236662
251	0x3d4a76c3	0.049429666
252	0x3c8b64b7	0.017015798
253	0x3c23b8e7	0.009992815
254	0xbbdd4cbc	-0.006753532
255	0x3d8d5130	0.06900251

encoder.0.bias f4 [60]
0	0x3cde3615	0.027125398
1	0x3dae4195	0.085086025
2	0x395cc986	0.00021055908
3	0x3d06024b	0.03271703
4	0xbd87ece1	-0.06636978
5	0x3d0fed4b	0.03513841
6	0xbdc62424	-0.09674862
7	0xbd050491	-0.032475058
8	0x3d6c760c	0.057729766
9	0x3d92e39f	0.071723215
10	0xbc31ec3e	-0.010859547
11	0xbd1bbece	-0.038023762
12	0xbd45a9fe	-0.04825782
13	0x3d7c286f	0.061561998
14	0xbd0a476d	-0.033759523
15	0xbd8dc872	-0.069229975
16	0xbc224c31	-0.009905861
17	0x3d8f6c90	0.070031285
18	0xbd4b5601	-0.049642567
19	0x3e032148	0.12805665
20	0xbc8383bf	-0.016054032
21	0x3d5fdb98	0.05465278
22	0xbdf66ca4	-0.1203244
23	0xbc73eaaf	-0.014887496
24	0x3ce9b1bc	0.028527133
25	0x3c229594	0.0099233575
26	0x3d4264d9	0.047459457
27	0xbd0a31b7	-0.033738818
28	0xbcb836f0	-0.022487134
29	0x3dafb9cc	0.0858036
30	0x3d32f5ca	0.043691434
31	0xbc9a807d	-0.018860096
32	0x3d9a9b69	0.075491734
33	0xbd991b59	-0.07475919
34	0x3c924fd2	0.017860327
35	0xbda7e690	-0.08198273
36	0x3d9e482c	0.077286094
37	0x3def57cb	0.11686667
38	0xbd7ee41c	-0.06222926
39	0x3a85170f	0.0010153967
40	0xbd68f9b3	-0.056878757
41	0xbcb77ae0	-0.022397459
42	0x3cd98d24	0.026556559
43	0xbc964178	-0.018341765
44	0xbd2d92e9	-0.042376433
45	0xbce247ce	-0.02762213
46	0x3d12f629	0.035879288
47	0xbd0371a8	-0.032090813
48	0xbd1ae0db	-0.037812095
49	0xbcbdd8be	-0.02317464
50	0xbd2555d3	-0.04036505
51	0xbd328b9a	-0.043590166
52	0xbd9b8a2e	-0.07594715
53	0xbd31a5f3	-0.043371152
54	0xbc61aab7	-0.013773612
55	0xbc00c7b6	-0.007860115
56	0x3d0c5413	0.034259867
57	0x3a8b5dd4	0.0010632821
58	0xbcdabc33	-0.026701069
59	0x3d818298	0.06323737

encoder.2.weight f4 [30, 60]
0	0xbdfc0320	-0.123052835
1	0x3dd644f2	0.10462369
2	0xbd617de6	-0.055051707
3	0xbcab5be7	-0.020917846
4	0xbdc96288	-0.098332465
5	0x3d78e84c	0.06076841
6	0xbd8e388c	-0.06944379
7	0x3db5c550	0.08875525
8	0x3db4b8c8	0.08824307
9	0xbd5fe25d	-0.054659236
10	0x3d878b9e	0.06618427
11	0xbc523703	-0.012830499
12	0xbded5e15	-0.1159021
13	0xbd9d2a8d	-0.076741315
14	0x3de12c8d	0.109948255
15	0x3d2fd4d6	0.042927586
16	0xbacdeba0	-0.001571048
17	0xbd2ef282	-0.042711742
18	0x3de387d2	0.1110989
19	0xbd00d600	-0.031454086
20	0x3de229c3	0.11043122
21	0xbdf58422	-0.11988093
22	0xbde5bc13	-0.11217513
23	0x3cc6fb46	0.024289738
24	0x3dca2620	0.09870553
25	0x3d36b1ba	0.044603087
26	0xbbe5dfcb	-0.0070152036
27	0x3cb1b0c4	0.021690734
28	0x3df0d6ae	0.11759697
29	0xbe07381f	-0.13205002
30	0x3c7585ae	0.014985485
31	0xbd96e65e	-0.07368158
32	0x3c87fa8c	0.016598962
33	0xbb248ea3	-0.0025109432
34	0xbd07933b	-0.033099394
35	0x3c79188b	0.015203605
36	0x3d9bc57a	0.07606025
37	0x3aea32fe	0.001786798
38	0x3c46c987	0.012133009
39	0x3d86ec8a	0.06588085
40	0x3e09bb2e	0.1345031
41	0xbd97b485	-0.07407478
42	0xbdbf555c	-0.09342453
43	0xbde7e9de	-0.113239035
44	0xbdee17c3	-0.11625626
45	0xbc7980ad	-0.015228433
46	0xbd54260d	-0.0517941
47	0xbdf45bd4	-0.11931577
48	0xbd83290f	-0.06404316
49	0x3ce67039	0.028129684
50	0x3dd64084	0.10461524
51	0x3dd97195	0.10617367
52	0x3d99355c	0.074808806
53	0xbd2eb04b	-0.042648595
54	0x3c409697	0.011754653
55	0x3c3385b1	0.0109571675
56	0xbdc9e08f	-0.09857284
57	0x3e0d63d3	0.13807611
58	0xbdf9cdf6	-0.12197487
59	0x3de3c446	0.111214206
60	0xbdb9f4f5	-0.09079925
61	0x3c0243e5	0.007950758
62	0x3dd87671	0.10569466
63	0xbd86896b	-0.06569179
64	0x3dd13848	0.10215813
65	0xbd9dcd55	-0.077051796
66	0x3da43208	0.08017355
67	0x3df34647	0.11878639
68	0x3dd86b89	0.10567386
69	0x3d5bf45d	0.05369984
70	0x3d1ad6ef	0.037802633
71	0x3decb9e6	0.11558895
72	0x3d1d0536	0.038335048
73	0xbd3b22a5	-0.045687336
74	0x3d33a725	0.043860573
75	0xbdd8e1ac	-0.105899185
76	0xbd8c04e9	-0.06836874
77	0x3c2ba86c	0.010477167
78	0x3d1d2c89	0.03837255
79	0xbd35fce0	-0.044430614
80	0xbdd82b36	-0.10555117
81	0x3ce9812c	0.028503977
82	0x3b8c7368	0.0042862184
83	0xbc7c4b11	-0.015398757
84	0xbbfa7436	-0.007643248
85	0x3d04c571	0.032414857
86	0x3db9ff96	0.09081952
87	0x3dfef04b	0.12448176
88	0x3d883268	0.06650239
89	0xbd2c8460	-0.04211843
90	0x3cea6ea4	0.02861721
91	0xbdde8c93	-0.10866656
92	0x3d98323f	0.07431459
93	0xbdc5e2f6	-0.0966243
94	0xbcda7c38	-0.02667056
95	0x3dcd13bf	0.10013532
96	0x3d6c9700	0.057761192
97	0xbde72e6b	-0.112881504
98	0x3db9e6e0	0.09077239
99	0x3dbf047f	0.093270294
100	0x3d8f7ee0	0.07006621
101	0x3d8c251a	0.06843014
102	0xbda2d38e	-0.07950507
103	0xbdf53c43	-0.11974385
104	0x3db977e0	0.090560675
105	0xbcc1dd3f	-0.023665069
106	0x3d7a8a19	0.061166856
107	0x3d91fefe	0.07128714
108	0x3d94b523	0.072611116
109	0xbd9dc0ae	-0.07702766
110	0xbde0f4af	-0.1098417
111	0xbd382b50	-0.04496318
112	0xbd69b6f5	-0.057059247
113	0xbdd22f83	-0.102629684
114	0x3db481bb	0.088138066
115	0x3e076e7a	0.13225737
116	0xbd16f7e2	-0.036857493
117	0x3d9ddb86	0.077078864
118	0x3d786332	0.060641475
119	0x3d4fc6e2	0.05072678
120	0xbcf375cc	-0.029719256
121	0xbda129b5	-0.07869283
122	0xbd08ad02	-0.033368118
123	0x3ce6e399	0.028184699
124	0x3da06e31	0.07833517
125	0x3d42f486	0.047596477
126	0x3dc7d6b2	0.09757747
127	0xbd810820	-0.06300378
128	0xbd660d45	-0.056165
129	0xbd7c586d	-0.061607767
130	0xbdc0ec14	-0.09420028
131	0xbcca1030	-0.024665922
132	0xbd8fb612	-0.07017149
133	0x3d783c24	0.06060423
134	0x3d0972d5	0.033556778
135	0xbcf286ee	-0.029605355
136	0x3db77dfe	0.08959578
137	0x3da0c57a	0.07850166
138	0xbdd25676	-0.10270397
139	0xbb06e715	-0.0020584513
140	0x3cc45c8b	0.02396991
141	0x3d980a73	0.07423868
142	0xbe0842fa	-0.133068
143	0xbe0bceef	-0.13653158
144	0xbe0e183b	-0.1387643
145	0xbb288a99	-0.0025717376
146	0x3e0b6177	0.13611399
147	0x3d76e1c0	0.060273886
148	0xbe03f9dc	-0.12888283
149	0x3de06ea4	0.10958603
150	0xbd9b6127	-0.0758689
151	0xbdb64a18	-0.08900851
152	0x3e068bbc	0.13139242
153	0x3d2af3fb	0.041736584
154	0x3d5f1f1a	0.05447302
155	0xbb92bea2	-0.0044782916
156	0x3ccd941b	0.025095036
157	0x3c449442	0.011998238
158	0x3ce97266	0.028496932
159	0xbb7face8	-0.0039012972
160	0xbe056b14	-0.13029128
161	0x3e08a732	0.1334503
162	0x3dd7670c	0.105177015
163	0xbc08c4e6	-0.0083477255
164	0xbcc1a8a8	-0.023639992
165	0x3dd7d6e0	0.10539031
166	0x3de2c53e	0.11072777
167	0x3d72fb31	0.059321586
168	0x3d97324e	0.07382642
169	0xbddda9e2	-0.10823418
170	0x3d6d3b09	0.05791763
171	0x3e01bf0b	0.12670533
172	0xbda68bf4	-0.08132163
173	0x3e0df127	0.13861524
174	0xbdc41912	-0.09575094
175	0xbe074571	-0.13210084
176	0xbd9e7071	-0.0773629
177	0xbcb3b256	-0.021935623
178	0xbddc618b	-0.10760792
179	0xbd5b3400	-0.053516388
180	0x3dd785b9	0.105235524
181	0x3d8b47b9	0.068007894
182	0xbc86c09a	-0.016449261
183	0xbcbf64ff	-0.023363588
184	0xbe02eb1f	-0.12785004
185	0x3e0a6741	0.1351595
186	0xbd6924f8	-0.05692002
187	0xbb5215e2	-0.00320565
188	0xbd7bc2ae	-0.061464958
189	0xbdb332b1	-0.08749903
190	0xbe091558	-0.13387048
191	0xbdeb1ab5	-0.11479703
192	0xbc23f6dc	-0.010007586
193	0x3d476fc5	0.048690576
194	0x3da1d45a	0.07901831
195	0xbce7064b	-0.028201243
196	0x3c22ab25	0.009928499
197	0x3da21c60	0.07915568
198	0x3d886e9c	0.06661722
199	0x3e096eea	0.13421217
200	0xbd0087f7	-0.031379666
201	0xbcf22017	-0.029556317
202	0xbc67cca2	-0.014147909
203	0x3da06d4c	0.07833347
204	0x3cca330f	0.02468255
205	0xbe0c4fcc	-0.13702315
206	0x3dc29fcd	0.09503136
207	0xbbb16796	-0.0054139597
208	0xbdee1959	-0.116259284
209	0x3e110275	0.14161094
210	0xbdae0db8	-0.084987104
211	0xbb4e3171	-0.0031462575
212	0xbd8cc8a2	-0.06874205
213	0xbda6b596	-0.081401035
214	0xbdd83356	-0.105566666
215	0x3d999651	0.07499374
216	0x3d804470	0.062630534
217	0xbd3bc839	-0.045845244
218	0x3d90e010	0.070739865
219	0xbddf0bb1	-0.10890902
220	0xbd378398	-0.044803232
221	0x3c0670ac	0.008205574
222	0x3dd9ae34	0.1062893
223	0x3dcee075	0.101014055
224	0xbdaded2c	-0.084925026
225	0x3d2cdb0b	0.042201083
226	0xbce1fbd8	-0.027585909
227	0x3dc464e2	0.09589554
228	0xbd9ab1e9	-0.07553465
229	0xbdf609de	-0.12013601
230	0xbd1cf3f3	-0.038318586
231	0x3d729517	0.059224214
232	0xbd509d96	-0.050931536
233	0x3d6cdf56	0.057830177
234	0xbe03ccd0	-0.12871099
235	0xbde4c330	-0.111700416
236	0x3d1ff55d	0.039052356
237	0xbe07db32	-0.1326721
238	0x3d56ddaa	0.05245749
239	0x3c84e910	0.016224414
240	0x3de49af8	0.111623704
241	0xbce6e003	-0.028182989
242	0xbcb42e0a	-0.02199461
243	0xbe0ca637	-0.13735281
244	0xbd9ce912	-0.07661642
245	0xbd96e8b0	-0.073686
246	0xbe0d70d7	-0.13812576
247	0xbda79db4	-0.08184376
248	0x3dc72d83	0.097254775
249	0xbda6d558	-0.08146161
250	0xbe1af09c	-0.15130848
251	0xbe0628fa	-0.13101569
252	0xbdbc5230	-0.091953635
253	0x3d83d9a5	0.06437997
254	0xbdd64695	-0.10462681
255	0xbd71663a	-0.05893538

encoder.2.bias f4 [30]
0	0xbde247c6	-0.11048846
1	0xbccafb5b	-0.024778059
2	0x3dd085b6	0.10181753
3	0xbc887fa7	-0.016662432
4	0x3da78d21	0.08181215
5	0x3b502490	0.0031760074
6	0x3da41423	0.08011653
7	0x3cfef0cb	0.031120678
8	0x3c8fd592	0.017557893
9	0xbce34cf9	-0.027746664
10	0xbd8da71b	-0.069166385
11	0x3dd7eb4a	0.10542925
12	0x3d5644ad	0.052311588
13	0x3bf8d660	0.007593915
14	0x3e0464e4	0.12929112
15	0x3cfd9a05	0.030957231
16	0x3b35f9c5	0.0027767282
17	0x3d8f3a1d	0.06993506
18	0x3d8dd72c	0.069258064
19	0x3cacc3c2	0.021089438
20	0x3d516005	0.051116962
21	0x3d8087fb	0.06275936
22	0xbcf885cf	-0.030337242
23	0x3d98f48a	0.07468517
24	0x3db2c834	0.08729592
25	0x3de0637f	0.109564774
26	0x3d2bdcd5	0.04195865
27	0x3d25b70f	0.04045778
28	0x3dcb45f0	0.09925449
29	0x3d88bd4c	0.066767305

encoder.4.weight f4 [10, 30]
0	0xbe205e6c	-0.15661019
1	0x3e29de91	0.16588809
2	0xbd8de5f0	-0.06928623
3	0xbd4751f4	-0.04866214
4	0x3dd4d652	0.10392441
5	0x3ca2a6ae	0.01985487
6	0xbd6b9e67	-0.05752411
7	0xbe0df378	-0.13862407
8	0xbe2246f1	-0.15847374
9	0xbd42368a	-0.047415294
10	0x3d91ba75	0.07115642
11	0xbe2df768	-0.16988909
12	0x3d804d18	0.062647045
13	0x3e4e8dcb	0.20171277
14	0x3cf3f2c1	0.02977884
15	0x3e2bb262	0.16767266
16	0x3d478d0b	0.048718493
17	0xbe4535bb	-0.19258778
18	0xbcca8131	-0.024719806
19	0x3e10750c	0.1410715
20	0xbd8f45eb	-0.06995758
21	0xbc1f150f	-0.009709611
22	0xbde26c6c	-0.11055836
23	0x3df0c3de	0.11756109
24	0xbcb0fc95	-0.021604815
25	0xbd8f62b0	-0.07001245
26	0x3dcf5dd2	0.10125317
27	0x3e16e3c0	0.14735317
28	0x3e005592	0.12532642
29	0x3ca40952	0.020023976
30	0x3e2e90e8	0.17047465
31	0xbda01584	-0.07816604
32	0xbd6c8ac3	-0.05774952
33	0xbdec651c	-0.115427226
34	0x3d3ce7f4	0.046119645
35	0xbe0a6f6b	-0.13519065
36	0x3db40fd4	0.087920815
37	0x3db52d8e	0.088465795
38	0xbdebb3d9	-0.115089126
39	0x3d99387e	0.07481478
40	0xbce050bc	-0.027382247
41	0xbe28265a	-0.1642088
42	0x3e1eca1f	0.1550679
43	0xbd1207af	-0.03565186
44	0xbd56679c	-0.052344903
45	0xbd96ac57	-0.0735709
46	0x3d1ce26e	0.038301878
47	0xbe331042	-0.1748667
48	0xbe04c471	-0.12965561
49	0x3e26076f	0.16213773
50	0x3e346ac0	0.17618847
51	0xbdda8df9	-0.106716104
52	0x3dc564af	0.096383445
53	0x3d4f36aa	0.05058924
54	0xbe150643	-0.1455317
55	0xbe324066	-0.17407379
56	0x3d9850c4	0.0743728
57	0x3dbbbfed	0.09167466
58	0xbe3fa48b	-0.18715112
59	0xbbb53e2b	-0.0055310926
60	0xbe0b40e4	-0.13598973
61	0xbd9e54b6	-0.07731001
62	0xbc826d24	-0.015921183
63	0x3e2c0e36	0.16802296
64	0x3da1def0	0.0790385
65	0xbe136153	-0.14392595
66	0xbd424b87	-0.04743531
67	0x3e3cc3bd	0.18434043
68	0xbd3d6ff5	-0.04624935
69	0xbd1c29bd	-0.038125742
70	0xbd11a169	-0.035554323
71	0xbe1bb4a8	-0.15205634
72	0xbdfd8ddc	-0.12380573
73	0x3e0bcaac	0.13651532
74	0xbdee93ea	-0.11649306
75	0xbcac873a	-0.021060575
76	0x3e2d5870	0.16928267
77	0x3e14ea03	0.14542393
78	0xbe23cf1a	-0.15996972
79	0x3b911e11	0.004428633
80	0xbe3e758a	-0.18599525
81	0xbd50128c	-0.050798938
82	0xbcbb27c5	-0.022846112
83	0x3d07b443	0.033130895
84	0xbd8667e1	-0.06562782
85	0x3e352d18	0.17692983
86	0xbdf27352	-0.11838402
87	0x3e19a03a	0.15002528
88	0x3e395650	0.18099332
89	0x3cac2601	0.021014215
90	0xbde0a74c	-0.10969409
91	0x3b3ad2e9	0.002850706
92	0x3da02bda	0.07820864
93	0x3cccc23f	0.024994968
94	0x3e38fc19	0.18064918
95	0xbd19ea43	-0.037576925
96	0x3e4aadf7	0.19792925
97	0xbd4e0ad4	-0.050303295
98	0xbe417701	-0.18893053
99	0xbd61279c	-0.054969415
100	0xbb08663f	-0.0020812897
101	0x3e0ec6d1	0.1394303
102	0xbd0d82a3	-0.034548413
103	0x3e054a5a	0.13016644
104	0x3e252cba	0.16130343
105	0x3d2b1eb1	0.041777316
106	0x3d01b519	0.03166685
107	0xbc3420b9	-0.01099413
108	0xbd2a2fa6	-0.041549347
109	0x3d9e53ea	0.07730849
110	0xbd266051	-0.0406192
111	0xbdfe13f1	-0.12406147
112	0x3d4a883a	0.049446322
113	0x3dff1ed4	0.12457052
114	0xbcb2ca74	-0.021825053
115	0xbd23ff8c	-0.04003863
116	0x3d470686	0.048590206
117	0x3e1fd01f	0.15606736
118	0xbe0f3763	-0.13985972
119	0xbddc61f4	-0.107608706
120	0x3e461835	0.19345172
121	0x3bc7e13f	0.0060998495
122	0xbdf221e8	-0.11822873
123	0xbe2ae17c	-0.16687578
124	0xbc9dad12	-0.019247565
125	0xbd911107	-0.07083326
126	0xbe383877	-0.1799029
127	0xbcee7314	-0.029107608
128	0x3db78566	0.089609906
129	0x3d7c7199	0.061631773
130	0xbdf0de3c	-0.11761138
131	0x3d891257	0.06692951
132	0xb9cf9750	-0.00039594853
133	0xbe187828	-0.14889586
134	0xbaf58291	-0.0018730928
135	0xbd4a72bb	-0.04942582
136	0xbe2eebd6	-0.17082152
137	0xbe0a94c4	-0.13533312
138	0x3cba85c4	0.022768863
139	0xbdba8a4b	-0.091084085
140	0xbe070c14	-0.13188201
141	0x3a00cd65	0.00049134187
142	0xbdfb8bcf	-0.12282526
143	0xbdd825bd	-0.10554073
144	0xbd76df0f	-0.06027132
145	0x3d9941e1	0.074832685
146	0x3c917a6f	0.017758576
147	0xbc1021c3	-0.008797112
148	0xbe308bfb	-0.17240898
149	0xb987f1b9	-0.00025929304
150	0xbd618c3f	-0.05506539
151	0x3dbb1cd9	0.09136362
152	0xbd6fb330	-0.058520496
153	0x3e16ee77	0.14739405
154	0x3d6dbe5e	0.058042876
155	0x3d3a2098	0.04544124
156	0x3dd11465	0.10208968
157	0xbda823a4	-0.08209923
158	0xbdfffc43	-0.12499287
159	0x3d37d863	0.044884097
160	0xbe00c354	-0.12574512
161	0xbc59fc7a	-0.013304824
162	0xbe1aaad0	-0.15104222
163	0x3e032dbf	0.1281042
164	0x3e197930	0.14987636
165	0x3e1011a1	0.14069225
166	0x3dc3b58d	0.095561124
167	0xbe3a4aa0	-0.1819253
168	0xbddd4319	-0.108038135
169	0xbda1944b	-0.07889613
170	0x3b57d6cc	0.0032934425
171	0xbcefe721	-0.029285016
172	0x3dd5e3bc	0.104438275
173	0x3d8418b4	0.06450024
174	0x3df1156b	0.11771663
175	0x3da4919a	0.08035584
176	0xbe13af97	-0.14422451
177	0xbd444b13	-0.04792316
178	0x3ce935b9	0.028468
179	0xbe33a6d0	-0.17544103
180	0x3d8e4ee7	0.06948643
181	0xbda32669	-0.079663105
182	0x3d1f9c9f	0.038967725
183	0x3e07fcba	0.13280001
184	0x3dda2d9c	0.106532305
185	0xbe2d83ae	-0.16944763
186	0x3d17ff05	0.03710844
187	0xbdc9cefe	-0.09853934
188	0x3e1a4064	0.15063626
189	0x3def6be1	0.11690498
190	0x3e3b4031	0.18286206
191	0x3d8425e5	0.0645254
192	0x3d86db78	0.06584829
193	0xbd02800f	-0.031860407
194	0x3ca50d53	0.020147955
195	0xbe174e4d	-0.14775963
196	0xbdf92251	-0.121647485
197	0xbdab99f2	-0.08378972
198	0x3d82f752	0.06394829
199	0xbe0490fc	-0.12945932
200	0xbe264d47	-0.16240416
201	0xbdef5922	-0.116869226
202	0x3e49e333	0.19715576
203	0xbdb2d50a	-0.0873204
204	0xbe15b565	-0.14619978
205	0x3d9cd356	0.07657497
206	0xbe483dda	-0.19554844
207	0x3e0c9f92	0.13732746
208	0x3e034988	0.12821019
209	0xbc59f360	-0.013302654
210	0x3a67b428	0.0008838796
211	0x3d8223d1	0.06354488
212	0xbd181b09	-0.037135158
213	0x3ce29020	0.027656615
214	0xbdd9259b	-0.10602876
215	0x3d5ea6bc	0.05435823
216	0x3d9ca4b6	0.076486036
217	0x3e0d0078	0.1376971
218	0xbd9dd59f	-0.077067606
219	0x3dca3239	0.098728605
220	0xbdda4fdc	-0.10659763
221	0x3e091d7b	0.13390152
222	0x3d8bfc64	0.06835249
223	0x3d767752	0.060172386
224	0xbdba6090	-0.09100449
225	0xbe36d6bd	-0.17855354
226	0xbe2539bb	-0.16135304
227	0xbe0e49a9	-0.13895287
228	0xbd07a1b3	-0.033113193
229	0x3d0a059b	0.033696752
230	0xbda24bfb	-0.079246484
231	0xbd91f293	-0.071263455
232	0x3e1664a1	0.14686824
233	0x3da12c9a	0.07869835
234	0xbe1a8975	-0.15091498
235	0x3da8d94c	0.08244571
236	0x3df1c360	0.11804843
237	0xbd9d3def	-0.076778285
238	0x3e39ae9b	0.18133013
239	0x3cd9896c	0.026554786
240	0xbb9bdd9b	-0.004756642
241	0x3e0c74a5	0.13716371
242	0xbda2864a	-0.0793577
243	0x3d9e0d93	0.07717433
244	0x3b535a72	0.0032249955
245	0xbdd9997c	-0.10624978
246	0x3dc588b0	0.09645212
247	0xbe1e40c3	-0.15454392
248	0x3e1abc3e	0.15110871
249	0x3d75e0b2	0.06002874
250	0xbe038bc8	-0.12846291
251	0xbd817885	-0.063218154
252	0x3e4e5246	0.20148572
253	0x3e514066	0.20434722
254	0x3d25aa43	0.040445577
255	0x3e20b27d	0.15693088

encoder.4.bias f4 [10]
0	0xbd80ed70	-0.062952876
1	0xbd8f4c47	-0.069969706
2	0x3d0aef27	0.03391948
3	0xbd4d16fe	-0.050070755
4	0x3d9b7da9	0.07592327
5	0x3e1da3be	0.15394494
6	0xbdff473a	-0.12464757
7	0xbdc0bc1d	-0.0941088
8	0xbd7156be	-0.058920614
9	0xbcc9148e	-0.024545934

encoder.6.weight f4 [1, 10]
0	0xbea2b39a	-0.3177765
1	0xbd0398d1	-0.03212816
2	0x3ea6e7b6	0.32598656
3	0x3e6e3bb2	0.2326496
4	0xbe00bb52	-0.12571457
5	0xbbb2d62f	-0.0054576616
6	0x3e444c59	0.1916975
7	0x3d16964e	0.036764435
8	0xbeacdcc4	-0.3376218
9	0xbe54fdc0	-0.20799923

decoder.0.weight f4 [10, 1]
0	0x3eb6feea	0.3574136
1	0xbf3eb922	-0.7450124
2	0x3ed42439	0.41433886
3	0x3f656989	0.8961416
4	0xbf30f6ca	-0.6912657
5	0xbedf2d6f	-0.4358935
6	0x3ef2f87a	0.47455198
7	0x3f692eae	0.9108685
8	0x3e79b14d	0.24384041
9	0xbf229f94	-0.63524747

decoder.0.bias f4 [10]
0	0x3f7fd593	0.99935263
1	0xbe48e809	-0.19619764
2	0x3dd4056b	0.10352596
3	0x3b377f73	0.002799955
4	0x3e933fb6	0.28759545
5	0xbefc56f6	-0.49285096
6	0xba81f062	-0.0009913559
7	0xbf413980	-0.75478363
8	0xbf33d4c5	-0.70246536
9	0xbf40d776	-0.7532877

decoder.2.weight f4 [30, 10]
0	0x3d8f1ecc	0.06988296
1	0xbe2cd4f5	-0.16878112
2	0xbe2cfb44	-0.16892725
3	0x3e7e0cc3	0.24809556
4	0xbe18c2e9	-0.14918102
5	0xbd8fc611	-0.070202
6	0x3b6df8b9	0.003631158
7	0xbe64c6cb	-0.22341458
8	0x3b289db0	0.0025728755
9	0x3d211254	0.03932412
10	0x3d842f80	0.064543724
11	0x3deeeb01	0.11665917
12	0xbd31944b	-0.043354314
13	0xbeaa7fa4	-0.33300507
14	0x3e06acd4	0.13151866
15	0x3ea2d802	0.31805426
16	0xbe07c08f	-0.13257049
17	0x3e4737a8	0.19454825
18	0x3e8c7d1d	0.27439204
19	0xbe436014	-0.1907962
20	0xbe7438a6	-0.23849735
21	0xbea3c6ee	-0.3198771
22	0x3d087cf7	0.0333223
23	0x3e27b6e1	0.16378357
24	0xbea56bea	-0.32308894
25	0x3ea18813	0.3154913
26	0xbe590084	-0.21191603
27	0xbde943d2	-0.11389889
28	0x3d7a258e	0.06107097
29	0xbcc226c2	-0.023700122
30	0x3e9710b4	0.2950493
31	0xbe8c679c	-0.27422798
32	0x3e215253	0.1575406
33	0x3db49d7c	0.088191
34	0x3d532743	0.051551115
35	0xbd1d7ba5	-0.038447995
36	0x3e23a504	0.15980917
37	0xbd2bbcb9	-0.041928027
38	0x3c3ef051	0.011653976
39	0x3e2e1153	0.16998796
40	0xbcd8f4da	-0.026483942
41	0x3e665d2a	0.22496477
42	0x3dad19b3	0.08452167
43	0xbe8ec6ca	-0.2788604
44	0x3db63b05	0.08897976
45	0x3dcfa0e1	0.10138107
46	0x3e9d8909	0.30768612
47	0xbdfee67f	-0.124463074
48	0xbdfcbe5f	-0.12340998
49	0x3e72ad8c	0.23699015
50	0x3e24c942	0.16092399
51	0x3ea40211	0.32032827
52	0x3c0031c9	0.00782437
53	0x3dfcbf4d	0.12341175
54	0xbe7c04a1	-0.24611141
55	0x3e8f668b	0.28007922
56	0xbdd5a16f	-0.10431182
57	0xbebc56e1	-0.36785033
58	0xbe07a349	-0.13245882
59	0xbe19627e	-0.14978978
60	0x3e9aa0f0	0.3020091
61	0x3e08c2ca	0.13355556
62	0x3ea22642	0.31669813
63	0xbe2d596e	-0.16928646
64	0x3e1ec60d	0.15505238
65	0xbd5f1b15	-0.054469187
66	0xbc0acca6	-0.008471644
67	0x3c109699	0.008824968
68	0x3c9ecf4e	0.01938596
69	0x3e9c7403	0.3055726
70	0xbcdddd30	-0.02708301
71	0xbcee3a53	-0.029080546
72	0x3e4959b3	0.19663124
73	0x3e554c88	0.20829976
74	0x3de05d6a	0.10955317
75	0x3e1e724e	0.15473291
76	0x3eac9417	0.33706734
77	0x3e9af40d	0.3026432
78	0xbd9c5f93	-0.07635417
79	0x3e23809b	0.15967028
80	0xbd1df86f	-0.038567003
81	0xbe756281	-0.23963358
82	0xbe8c7ce0	-0.27439022
83	0x3e866677	0.2625005
84	0xbe13b745	-0.1442538
85	0xbdae9f8e	-0.085265264
86	0xbe878bd1	-0.2647386
87	0xbdbbe5e1	-0.09174705
88	0x3eac3766	0.33636016
89	0xbe949cd5	-0.29025903
90	0xbdf1212f	-0.117739074
91	0xbcc4258d	-0.023943687
92	0xbe1ba6dc	-0.1520037
93	0x3e4e7bd0	0.20164418
94	0x3db572bf	0.08859777
95	0xbe1a8a80	-0.15091896
96	0xbe07831f	-0.13233612
97	0x3ddba8b5	0.10725538
98	0xbd95cb63	-0.073141836
99	0xbdf7215e	-0.12066911
100	0x3e3ec5e2	0.18630174
101	0xbe358273	-0.17725544
102	0xbe974bc2	-0.29549986
103	0xbe8a907c	-0.27063358
104	0x3d9fc1b7	0.0780062
105	0x3c94ef61	0.018180551
106	0x3e67dfcf	0.2264397
107	0x3e9b77b0	0.30364752
108	0x3d863bd5	0.06554381
109	0x3d6e155e	0.058125846
110	0x3a293275	0.0006454357
111	0xbd10fb68	-0.03539601
112	0x3e42aefa	0.19012061
113	0x3c1ba470	0.009499654
114	0xbe4c35a9	-0.19942345
115	0x3d907bb2	0.07054843
116	0x3d4c4f1e	0.04988014
117	0xbe9894e7	-0.29801103
118	0xbe056b09	-0.13029112
119	0xbdeacd56	-0.11464946
120	0xbda83b78	-0.08214468
121	0x3e7a5aa1	0.24448635
122	0xbddf5f8c	-0.10906896
123	0x3eaa802d	0.33300915
124	0x3dc3aaf7	0.09554093
125	0xbde2204b	-0.11041316
126	0xbbfb901d	-0.0076770918
127	0xbdaaee3f	-0.08346223
128	0xbe4c3f66	-0.1994606
129	0x3dbd0473	0.09229364
130	0x3e5646ff	0.2092552
131	0xbd9cbcae	-0.07653175
132	0xbe3e8e8e	-0.18609068
133	0xbe98fc6b	-0.2988008
134	0x3e579849	0.21054186
135	0xbd76268d	-0.06009536
136	0x3e26e71e	0.16299102
137	0x3e8c13e1	0.27358916
138	0x3cd02e9a	0.025412846
139	0xbdf9166d	-0.121624805
140	0x3e791318	0.2432369
141	0x3e69f213	0.2284625
142	0xbe5e1c1f	-0.21690415
143	0xbe98e1e1	-0.29859832
144	0x3cabbd7d	0.020964378
145	0x3e2926ac	0.16518658
146	0xbd31556d	-0.04329436
147	0xbb47b50a	-0.0030472898
148	0xbe3557ae	-0.17709228
149	0xbe6b6899	-0.2298912
150	0x3e88b065	0.26697078
151	0x3e9a8799	0.30181578
152	0xbe3c21be	-0.18372247
153	0x3e672e57	0.22576271
154	0xbdbba887	-0.091630034
155	0xbe82091b	-0.25397572
156	0x3e31c0a1	0.17358638
157	0x3d634eb9	0.055494998
158	0x3d75bcde	0.05999457
159	0xbe9bd41a	-0.30435258
160	0xbe81996a	-0.25312358
161	0x3e3ec7c8	0.18630898
162	0xbda77818	-0.08177203
163	0xbe8d2592	-0.27567726
164	0xbd3507d5	-0.044196922
165	0x3c8f9e61	0.017531576
166	0xbe8de85d	-0.27716342
167	0xbe74b038	-0.23895347
168	0x3e95b547	0.29239866
169	0x3d865c82	0.06560613
170	0xbdafce25	-0.08584241
171	0x3e36bd04	0.17845541
172	0xbea9a221	-0.33131507
173	0xbe6ff03c	-0.23431486
174	0x3e0707b1	0.13186528
175	0xbe309444	-0.17244059
176	0xbd836da2	-0.06417395
177	0xbeb40257	-0.35158035
178	0xbe13bfaf	-0.1442859
179	0xbe0419d1	-0.12900473
180	0xbd128444	-0.03577067
181	0x3c767434	0.015042353
182	0xbe75e654	-0.24013644
183	0x3d8a8df2	0.06765355
184	0x3d808484	0.06275275
185	0x3dd93bce	0.1060711
186	0x3dd9b84f	0.10630857
187	0xbe39c388	-0.18140996
188	0x3db45b11	0.08806432
189	0x3cf4a066	0.02986164
190	0x3de64e02	0.112453476
191	0x3e874989	0.2642329
192	0x3cc6b9bf	0.024258493
193	0x3d865f0f	0.065611
194	0xbd0420bc	-0.03225778
195	0xbe307866	-0.17233428
196	0x3ea55993	0.32294902
197	0xbd6ed861	-0.058311824
198	0xbdc2a2e8	-0.09503728
199	0x3dc1487e	0.09437655
200	0xbe8a9f86	-0.27074832
201	0x3e6b83b0	0.22999454
202	0x3e9b021b	0.30275044
203	0x3e398925	0.18118723
204	0x3d35da2e	0.044397525
205	0xbdbbc276	-0.0916795
206	0x3dde6efb	0.108610116
207	0x3e109d43	0.1412249
208	0xbe9b7ea4	-0.30370057
209	0xbe8c2522	-0.2737208
210	0xbe6db948	-0.2321521
211	0x3e63835a	0.22218075
212	0xbdd16e59	-0.10226125
213	0x3e68a1f2	0.22718027
214	0xbd92b0c3	-0.07162621
215	0xbdd98038	-0.10620159
216	0xbdb7c3f8	-0.08972925
217	0xbe402817	-0.18765293
218	0xbe65f78b	-0.22457711
219	0xbd2b5d99	-0.04183731
220	0xbe91143e	-0.28335756
221	0x3d47538d	0.048663665
222	0xbd4322af	-0.0476405
223	0x3e463f74	0.19360143
224	0x3b542b18	0.0032374319
225	0xbdd158a4	-0.10221985
226	0x3e8e3343	0.27773485
227	0x3e1c13d4	0.15241939
228	0x3e0698e8	0.13144267
229	0x3d202fac	0.039107963
230	0x3e49cc77	0.19706903
231	0x3c151815	0.00909998
232	0xbe2f4b5e	-0.17118594
233	0x3dc96911	0.09834493
234	0x3d1dc7fb	0.038520794
235	0x3d862691	0.06550325
236	0xbd4cf416	-0.050037466
237	0xbe5959f3	-0.21225719
238	0x3d668a35	0.05628415
239	0xbe979e2e	-0.2961287
240	0xbdb46b25	-0.08809499
241	0xbe8ce974	-0.2752186
242	0x3e18559f	0.14876412
243	0x3e12d4bf	0.14338969
244	0xbcb5258d	-0.022112632
245	0xbd320fb7	-0.043472018
246	0x3e3a991f	0.18222474
247	0x3e9c13ba	0.304838
248	0x3e5ffea7	0.21874486
249	0x3dbc8eda	0.09206934
250	0xbd9ae41d	-0.075630404
251	0x3dabee5b	0.08395072
252	0xbe68e85d	-0.2274489
253	0xbdc4e0a2	-0.09613158
254	0x3ea665f7	0.32499668
255	0xbe70c314	-0.23511916

decoder.2.bias f4 [30]
0	0x3e4a6fac	0.19769162
1	0xbc94314c	-0.018089913
2	0xbcf8f91c	-0.030392222
3	0xbe0aaccf	-0.13542484
4	0x3ea2b3a0	0.31777668
5	0xbe36df73	-0.17858677
6	0x3e5b244c	0.21400565
7	0x3d1f8664	0.038946524
8	0xbe4df1ef	-0.20111822
9	0x3daad2cc	0.083409876
10	0xbe8f12d5	-0.27944055
11	0xbd0fa5a8	-0.03507009
12	0x3d0304c3	0.031986963
13	0x3e9ac864	0.3023101
14	0xbe8d8fb3	-0.27648696
15	0x3e68e020	0.22741747
16	0x3d09ea29	0.03367058
17	0xbd8431fc	-0.06454846
18	0xbe86fb62	-0.26363665
19	0x3e392791	0.180815
20	0xbdb5a900	-0.08870125
21	0xbe983364	-0.29726708
22	0xbe264071	-0.1623552
23	0x3e5f9f15	0.21838029
24	0xbda2f85b	-0.07957526
25	0xbe0f328e	-0.13984129
26	0x3d620be5	0.055187125
27	0xbe3af064	-0.18255764
28	0xbe66c5aa	-0.2253634
29	0xbe27eb1d	-0.16398282

decoder.4.weight f4 [60, 30]
0	0x3d00ab49	0.03141335
1	0xbe0dc346	-0.13844022
2	0x3e263c6f	0.16233991
3	0xbae26d23	-0.0017274957
4	0x3e0e1feb	0.13879363
5	0xbc451193	-0.012028116
6	0x3c7962e7	0.015221334
7	0x3e28134a	0.16413608
8	0xbdaac813	-0.083389424
9	0xbc71d00f	-0.014759078
10	0xbe37f222	-0.1796346
11	0x3d501b58	0.050807327
12	0xbdb79bde	-0.08965276
13	0xbd42cf2d	-0.04756086
14	0x3db597b6	0.08866827
15	0x3c93afc9	0.018028157
16	0xbd75e2d6	-0.06003078
17	0xbdc76d59	-0.09737653
18	0xbe1a176c	-0.15047997
19	0xbd007e13	-0.031370234
20	0x3e3d9996	0.1851562
21	0xbe08b4e3	-0.13350253
22	0x3de9473f	0.11390542
23	0x3e2dbb82	0.1696606
24	0xbe0379d0	-0.12839437
25	0xbd33da1d	-0.04390918
26	0xbde5aa75	-0.11214153
27	0x3d9ac82a	0.075577095
28	0xbe010d36	-0.12602696
29	0x3d8b606c	0.068055004
30	0xbd2c8c71	-0.042126123
31	0xbdab29cc	-0.083575815
32	0xbdbec8ac	-0.09315619
33	0xbe34eb85	-0.17667969
34	0xbe1130ba	-0.14178744
35	0x3c6abd09	0.014327296
36	0xbe29aa53	-0.1656888
37	0x3d5bfbcb	0.053706925
38	0xbdf737d9	-0.12071199
39	0xbe0258cf	-0.1272919
40	0xbe14b104	-0.14520651
41	0x3d46f7c3	0.048576128
42	0x3cc37c1d	0.023862893
43	0x3cb23610	0.021754295
44	0x3df56e48	0.11983925
45	0xbd3d368c	-0.046194598
46	0xbdae9f34	-0.08526459
47	0x3cfdb10d	0.030968213
48	0x3e09b493	0.1344779
49	0xbd5f2994	-0.05448301
50	0xbcbda5bc	-0.023150317
51	0xbd323165	-0.043504138
52	0xbc72f472	-0.014828788
53	0xbe2b8a16	-0.16751894
54	0x3de71f66	0.11285286
55	0x3e35b75d	0.17745729
56	0x3e04ec4f	0.1298077
57	0x3d01f923	0.031731736
58	0x3d7cdaf2	0.06173224
59	0xbdcc6c00	-0.09981537
60	0x3e1ad8ec	0.15121812
61	0x3d7887d4	0.06067641
62	0xbd4d718e	-0.050157122
63	0xbe16c387	-0.14723025
64	0x3dad3ff0	0.08459461
65	0x3ce8dac8	0.028424636
66	0x3e087207	0.13324748
67	0xbd1c18cf	-0.038109597
68	0x3d91c7d7	0.071181946
69	0x3e0c8fa3	0.13726668
70	0x3c095922	0.008383067
71	0xbe191598	-0.14949644
72	0x3de228fa	0.11042972
73	0x3d503a50	0.05083686
74	0x3c4a6ff0	0.01235579
75	0x3c0398aa	0.008032003
76	0x3de4ff39	0.11181492
77	0xbd83082f	-0.06398045
78	0x3e0633d9	0.13105716
79	0x3e15270b	0.14565675
80	0x3da7d2a9	0.08194477
81	0x3d0fb62f	0.035085853
82	0x3d2371b4	0.039903358
83	0xbd9a2456	-0.07526462
84	0x3dc725b8	0.09723991
85	0x3e11599a	0.14194337
86	0x3d9b1c8d	0.07573805
87	0xbe0976a2	-0.13424161
88	0x3daace3f	0.083401196
89	0xbd845629	-0.06461746
90	0x3d8169ad	0.06318984
91	0x3d9c23dd	0.07624028
92	0x3da93def	0.08263766
93	0x3b91ca63	0.004449175
94	0xbc94678f	-0.018115787
95	0xbcee7118	-0.029106662
96	0x3d9afe5f	0.07568049
97	0x3d35803f	0.044311758
98	0x3da53640	0.08066988
99	0xbd451a28	-0.048120648
100	0xbd91a169	-0.07110865
101	0xbdfb63ee	-0.122749195
102	0x3e5d3986	0.21603975
103	0x3de58870	0.11207664
104	0xbc66a27d	-0.014076826
105	0xbc870a65	-0.016484449
106	0xbd07598f	-0.033044394
107	0x3e5790c7	0.21051322
108	0xbe4481d8	-0.19190156
109	0xbe038ac0	-0.12845898
110	0xbc2f2027	-0.010688818
111	0x3e1332a4	0.14374787
112	0x3cc9e0e1	0.024643363
113	0xbe1431d2	-0.1447213
114	0xbe6448c2	-0.2229338
115	0x3cf20038	0.02954112
116	0xbd9dcc76	-0.077050135
117	0xbdfb45c1	-0.12269164
118	0x3d65e264	0.056124106
119	0x3e116af8	0.14200962
120	0x3db4afcb	0.08822592
121	0x3db53815	0.088485874
122	0xbdf4df12	-0.1195661
123	0x3dd3b73b	0.10337683
124	0xbd877cbe	-0.066155896
125	0x3e4e17eb	0.20126311
126	0x3e20d0d3	0.1570466
127	0xbd781111	-0.06056315
128	0xbd80f5f4	-0.06296912
129	0xbd9e5b85	-0.077323
130	0xbd9e0b23	-0.07716968
131	0x3ddc7f82	0.10766508
132	0xbdda45df	-0.10657858
133	0xbdca7d04	-0.09887126
134	0x3e08ff38	0.13378608
135	0x3baac9e3	0.005212055
136	0x3e22e890	0.15909028
137	0x3e6648b4	0.22488672
138	0xbdcb25b6	-0.09919302
139	0x3e202d15	0.15642197
140	0x3cf5e61f	0.030016957
141	0xbc07081c	-0.0082416795
142	0x3e08d590	0.13362718
143	0xbe1ddb88	-0.15415776
144	0x3de5dc3f	0.11223649
145	0xbe15507f	-0.14581488
146	0xbdca08ed	-0.09864984
147	0x3d3ec8b3	0.04657812
148	0xbe4a113c	-0.19733137
149	0xbde899cd	-0.1135746
150	0x3db4fea3	0.088376306
151	0xbdaad1eb	-0.0834082
152	0xbe41eca1	-0.18937923
153	0x3dffe031	0.12493933
154	0xbdf2c677	-0.118542604
155	0x3da9490e	0.08265887
156	0xbe0f6839	-0.14004602
157	0xbe49d57f	-0.19710349
158	0xbe0a619e	-0.135138
159	0xbd9fc9bd	-0.078021504
160	0xbe19d293	-0.15021734
161	0x3e3487de	0.17629954
162	0xbdcd9820	-0.10038781
163	0x3e3ee9e2	0.18643907
164	0x3d86f656	0.065899536
165	0x3dfd7273	0.12375345
166	0xbdbe9127	-0.09305029
167	0xbd5e6b19	-0.054301355
168	0x3ddad575	0.10685245
169	0xbdf1a882	-0.117997184
170	0x3e0a11db	0.13483374
171	0x3decdd8e	0.11565696
172	0xbe0c8264	-0.13721615
173	0x3e4b5432	0.19856337
174	0x3ce2da6c	0.027692042
175	0xbd9bfae5	-0.07616214
176	0x3c91a938	0.017780885
177	0xbe4f1d64	-0.20226055
178	0x3e0cd42f	0.13752817
179	0x3e04b090	0.12957978
180	0x3db417d3	0.087936066
181	0x3dcbfb04	0.09959987
182	0xbd9c0c4c	-0.07619533
183	0xbd95e1c9	-0.07318456
184	0x3d84818b	0.06470021
185	0x3dd11aad	0.10210166
186	0x3e6687d6	0.22512755
187	0xbe2c1542	-0.16804984
188	0xbdafa297	-0.085759334
189	0xbdb73f53	-0.08947625
190	0xbc987652	-0.018611107
191	0x3e3a4fc0	0.18194485
192	0x3d588c23	0.05286802
193	0x3e3f9ea5	0.18712862
194	0xbd97a432	-0.07404365
195	0x3d2bf1ad	0.041978527
196	0x3d368158	0.044556946
197	0xbd9e650b	-0.07734116
198	0x3d1f575d	0.038901675
199	0x3db19684	0.08671287
200	0x3d8760b5	0.06610242
201	0x3d4470a4	0.047958985
202	0xbdb27707	-0.08714109
203	0x3e2daf13	0.16961317
204	0xbe40820e	-0.18799612
205	0x3e25961f	0.16170548
206	0x3d84c5c0	0.0648303
207	0x3df74d67	0.1207531
208	0x3db4620b	0.08807763
209	0xbcecb739	-0.028895961
210	0x3dc9205c	0.09820625
211	0x3d4e9286	0.050432704
212	0xbdd6d8cf	-0.10490572
213	0x3d1f0da3	0.038831364
214	0x3d84f6bd	0.06492374
215	0xbe30c149	-0.17261232
216	0x3df8a9ee	0.121417865
217	0x3e2165ab	0.1576144
218	0xbd4822c8	-0.048861295
219	0xbe3d0d7b	-0.18462174
220	0x3e3b54f8	0.18294132
221	0xbd4d2a9f	-0.050089475
222	0x3e02d1c6	0.12775335
223	0xbd9a1147	-0.07522827
224	0xbe3e8e04	-0.18608862
225	0xbe27c3f1	-0.1638334
226	0xbbaa3338	-0.005194094
227	0xbe0bca9d	-0.1365151
228	0xbd3eb786	-0.04656174
229	0xbe1a2364	-0.15052563
230	0xbe0071d0	-0.12543416
231	0xbe0051b3	-0.12531166
232	0x3d3ceeec	0.04612629
233	0xbdfb6812	-0.12275709
234	0x3de4e843	0.11177113
235	0x3c40ec29	0.011775055
236	0x3e3ae2c9	0.18250574
237	0x3db0ff9b	0.08642503
238	0x3d495456	0.049152695
239	0x3e0b4c3b	0.13603298
240	0x3d4fb285	0.05070736
241	0xbe0f3403	-0.13984685
242	0xbd1a31eb	-0.03764526
243	0xbe0bbde1	-0.13646652
244	0x3ded98eb	0.116014324
245	0xbd1c41cf	-0.038148697
246	0x3e1d5dd2	0.15367821
247	0xbc80c0c4	-0.015716918
248	0xbe35598c	-0.1770994
249	0xbe278f1d	-0.16363187
250	0xbe2594f3	-0.16170101
251	0x3ca2bf09	0.019866483
252	0xbb2a58da	-0.00259929
253	0x3de77928	0.113024056
254	0xbdc58570	-0.09644592
255	0x3e072165	0.13196333

decoder.4.bias f4 [60]
0	0xbdbb22e0	-0.09137511
1	0x3de46bf2	0.111534014
2	0x3e225a02	0.15854648
3	0x3db939de	0.090442404
4	0x3e227f1b	0.158688
5	0xbdfd41c1	-0.12366057
6	0x3d96dc9c	0.07366297
7	0x3d96f657	0.07371204
8	0xbe1f3b12	-0.15549877
9	0x3cae22b5	0.021256784
10	0x3decc732	0.11561431
11	0x3d40a39e	0.047031038
12	0x3e44229a	0.19153824
13	0xbdd8f7c8	-0.105941355
14	0xbdac759e	-0.08420871
15	0x3e1021d8	0.1407541
16	0xbe01ad92	-0.12663868
17	0xbe0a90ae	-0.13531753
18	0xbe25c7c9	-0.16189493
19	0x3e1cdd0d	0.15318699
20	0x3e4a936c	0.197828
21	0x3e0a606c	0.13513345
22	0xbd907fe9	-0.07055647
23	0xbca63568	-0.020289138
24	0x3e3b42ad	0.18287154
25	0x3d169aaf	0.03676861
26	0x3d2bd28f	0.04194885
27	0x3e1ff5de	0.15621135
28	0x3e01ea1e	0.12686965
29	0x3d4b3497	0.0496107
30	0xbddb3cf9	-0.10704989
31	0xbe18cf6f	-0.1492288
32	0xbd0bdd62	-0.034146674
33	0xbc9d49e9	-0.019200282
34	0x3e1393e5	0.14411886
35	0xbdbb555b	-0.0914714
36	0xbd9be3b0	-0.07611787
37	0xbd0ac503	-0.03387929
38	0xbdb09a83	-0.08623221
39	0x3d4f6772	0.050635763
40	0xbd36a0e5	-0.044587035
41	0x3d9fd1c3	0.07803681
42	0x3e096d0f	0.13420509
43	0x3e2c1ffa	0.16809073
44	0xbb8e7a08	-0.0043480434
45	0xbdc8194f	-0.09770452
46	0x3da339f1	0.07970036
47	0x3e0ed07a	0.13946715
48	0xbcdd9fe1	-0.027053775
49	0x3d16c81e	0.03681194
50	0x3da6d454	0.08145967
51	0xbdf1c3a6	-0.11804895
52	0xbdc3a45b	-0.09552833
53	0xbe0447ce	-0.12918016
54	0x3ce945cd	0.028475666
55	0x3daee364	0.08539465
56	0x3e34b787	0.17648135
57	0x3d0f2483	0.03494693
58	0xbe256b2b	-0.16154163
59	0x3db90f1d	0.09036086

decoder.6.weight f4 [118, 60]
0	0x3d31e600	0.043432236
1	0x3dbeca25	0.093159
2	0x3d74206c	0.059601232
3	0xba640817	-0.0008698715
4	0xbdc0db69	-0.09416849
5	0xbb582061	-0.0032978284
6	0xbce30e22	-0.0277167
7	0x3d9fd5a0	0.078044176
8	0x3c6eb199	0.01456871
9	0xbd68552d	-0.056721855
10	0xbe31306c	-0.17303628
11	0xbd826f36	-0.06368868
12	0xbd063582	-0.032765873
13	0x3d037c3c	0.0321009
14	0x3e1c47de	0.1526179
15	0xbdd7038d	-0.10498724
16	0x3c931f5d	0.017959291
17	0xbc2e1f5e	-0.010627596
18	0x3e1f5917	0.15561329
19	0xbd0652d0	-0.03279382
20	0xbe2aa9df	-0.16666363
21	0x3d397c6a	0.045284666
22	0x3beb4fd9	0.0071811494
23	0x3dd5e5fe	0.10444258
24	0xbe2b4ae5	-0.16727789
25	0xbe32402b	-0.1740729
26	0x3d2ad586	0.041707538
27	0xbe188ae6	-0.14896736
28	0xbd191c86	-0.037380718
29	0xbd0cde15	-0.03439148
30	0x3d9b06cc	0.07569656
31	0x3d3fa529	0.04678837
32	0xbd6186da	-0.055060245
33	0xbc46ed70	-0.01214157
34	0xbd0fbce5	-0.035092253
35	0xbda4c449	-0.08045251
36	0xbde1fd14	-0.11034599
37	0xbd4355ab	-0.04768912
38	0x3cd8fd31	0.026487919
39	0xbc474be5	-0.012164091
40	0xbd46dd50	-0.048550904
41	0x3c1904e3	0.009339544
42	0xbde14c84	-0.11000922
43	0xbdddc2ed	-0.10828195
44	0x3d98b542	0.07456447
45	0x3e120324	0.1425901
46	0xbdf65023	-0.120270036
47	0xbcaa1049	-0.020759718
48	0x3d4bd93c	0.049767718
49	0x3e0e97d5	0.13925107
50	0x3d289981	0.041162018
51	0xbdab9ca6	-0.08379488
52	0xbe18fd5a	-0.14940396
53	0x3b4e81f2	0.003151056
54	0x3c87fc86	0.016599905
55	0x3b5ab3b0	0.0033371262
56	0x3d805d29	0.06267769
57	0xbce20c74	-0.027593829
58	0xbdaff8ef	-0.08592402
59	0xbe0836a2	-0.13302091
60	0x3e123184	0.14276701
61	0xbddf760d	-0.10911188
62	0x3b5fffb9	0.0034179522
63	0xbdcbe401	-0.09955598
64	0x3dc4ef66	0.09615974
65	0x3c9e3c28	0.019315794
66	0x3e042db6	0.12908062
67	0xbe07f45c	-0.1327681
68	0x3da92b70	0.08260238
69	0x3de891c7	0.1135593
70	0xbe1a0c49	-0.15043749
71	0x3cb3d983	0.021954304
72	0x3c51170a	0.012761841
73	0xbdc670dd	-0.09689496
74	0xbcfb4215	-0.030671159
75	0xbcca8885	-0.0247233
76	0x3d114418	0.03546533
77	0x3d01abf6	0.031658135
78	0xbd0f753b	-0.03502391
79	0x3d9967d4	0.07490507
80	0x3d8c0540	0.06836939
81	0x3dbac894	0.091202885
82	0x3cfc09f2	0.030766461
83	0xbe06faf4	-0.13181669
84	0x3dc9e423	0.09857967
85	0xbda3b614	-0.07993713
86	0xbd06aaaf	-0.03287762
87	0x3d4bddd8	0.049772114
88	0x3d1d2bdf	0.038371917
89	0xbdea6954	-0.11445871
90	0xbda1bf26	-0.07897787
91	0x3ce9e9d5	0.028553883
92	0x3d8042c5	0.06262735
93	0xbd85d413	-0.065345906
94	0x3e0186d2	0.12649086
95	0x3d9c7ed1	0.07641376
96	0xbe1daaca	-0.15397182
97	0xbd58837c	-0.05285977
98	0x3da66804	0.08125308
99	0xbcd5c70d	-0.026095891
100	0xbd9b9a16	-0.07597749
101	0xbcc01b71	-0.023450585
102	0x3cc70aa0	0.024297059
103	0xbd01a483	-0.03165103
104	0xbd817981	-0.06322003
105	0x3cabfcbc	0.020994537
106	0x3d7a51ba	0.061113097
107	0x3df4a5ba	0.11945672
108	0x3d54fe18	0.052000135
109	0x3d2ff1d8	0.04295525
110	0x3d4efac8	0.050532132
111	0x3e065bab	0.13120906
112	0xbe0b6012	-0.13610867
113	0xbd178e7c	-0.037001118
114	0xbd8b2660	-0.06794429
115	0xbd2ffa28	-0.042963177
116	0x3db6fbf9	0.08934779
117	0x3dd0b78d	0.101912595
118	0xbda5e741	-0.08100749
119	0xbd782476	-0.060581647
120	0x3d6b6cb9	0.057476733
121	0x3d711dcc	0.058866307
122	0x3d57400b	0.05255131
123	0x3d1fadd1	0.038984124
124	0xbdc28593	-0.094981335
125	0x3d991f3e	0.07476662
126	0xbddf9734	-0.109175116
127	0xbd568235	-0.05237027
128	0x3b0b6f6b	0.0021276127
129	0xba93003d	-0.0011215281
130	0x3c5a1413	0.01331045
131	0xbddf54b8	-0.10904831
132	0x3e05bf3f	0.13061236
133	0xbdab509c	-0.083649844
134	0x3b1fec00	0.0024402142
135	0xb969a8b4	-0.00022283458
136	0xbaf0fa7f	-0.00183852
137	0xbd0e8b24	-0.034800664
138	0x3c8cb745	0.017177233
139	0x3d1bf534	0.03807564
140	0xbda9fd4b	-0.08300265
141	0x3dc0c3f0	0.09412372
142	0xbca6c24d	-0.020356322
143	0x3dd75531	0.10514296
144	0xbdc9687b	-0.09834381
145	0x3e01ef6a	0.12688985
146	0x3da8d8b6	0.08244459
147	0xbd013679	-0.03154609
148	0x3c9315f8	0.017954811
149	0x3da809e6	0.08205013
150	0xbde158a2	-0.110032335
151	0x3db0d312	0.086340085
152	0x3d7a0f81	0.061049942
153	0xbd815eaf	-0.063168876
154	0x3d7cdc32	0.061733432
155	0x3d5c034f	0.053714093
156	0x3cb70bff	0.022344587
157	0x3dcfb68e	0.101422414
158	0xbddd440a	-0.10803993
159	0xbca5ed4a	-0.02025475
160	0x3c3dfd5e	0.011596052
161	0x3db3a95e	0.087725386
162	0x3da47c29	0.08031494
163	0xbc459892	-0.012060301
164	0xbd9077a1	-0.070540674
165	0xbe07ddef	-0.13268255
166	0x3b53dda9	0.0032328165
167	0xbd220de6	-0.039564036
168	0xbd04f6d3	-0.032461952
169	0x3cb9cac6	0.022679698
170	0x3d9b069d	0.07569621
171	0x3d5cec0a	0.053936042
172	0x3d00ac38	0.03141424
173	0xbd0e1699	-0.03468952
174	0x3d4ad9e0	0.049524188
175	0x3d905c4d	0.07048855
176	0xbd4aab5a	-0.04947982
177	0xbdf0dc80	-0.11760807
178	0x3c688f46	0.014194315
179	0xbd491fc7	-0.04910257
180	0x3de18bc0	0.11012983
181	0xbdd9f009	-0.10641486
182	0xbd8fa26b	-0.07013401
183	0x3d282a06	0.0410557
184	0xbdbccf12	-0.09219183
185	0xbc074cc1	-0.008258046
186	0x3d823ec6	0.06359629
187	0xbd9fb24f	-0.077976815
188	0x3d45c4ba	0.048283316
189	0x3dd973df	0.10617804
190	0xbdd4220d	-0.10358057
191	0x3cfacd3d	0.030615443
192	0xbda4ed56	-0.08053081
193	0xbd9eafc0	-0.077483654
194	0xbdf272f4	-0.11838332
195	0x3d641780	0.055686474
196	0x3d9e066e	0.0771607
197	0xbd9c0fe6	-0.0762022
198	0x3db94686	0.090466544
199	0xbd7ba4f0	-0.061436594
200	0x3d638551	0.055547062
201	0xbdd56248	-0.10419136
202	0x3e05e498	0.13075483
203	0xbde004cf	-0.10938417
204	0x3d6b2e5d	0.057417262
205	0x3d46d94c	0.048547074
206	0x3d21d2db	0.039507728
207	0x3dedd744	0.11613324
208	0x3d65d080	0.056107044
209	0x3d98e607	0.07465749
210	0xbde9b67c	-0.11411759
211	0xbd9dfb76	-0.07713978
212	0xbc45a244	-0.012062613
213	0x3e077af3	0.13230495
214	0x3dbc0865	0.09181289
215	0xbe03f64f	-0.12886928
216	0x3d87abf7	0.066245966
217	0xbacb0106	-0.0015487976
218	0xbb31cdae	-0.0027130651
219	0xbcfee8dd	-0.031116897
220	0x3d6afaed	0.057368208
221	0xbd31dea1	-0.043425206
222	0x3d4a4803	0.049385082
223	0xbdb020ba	-0.08599992
224	0xbb4884d2	-0.0030596745
225	0x3d28d8e6	0.041222475
226	0xbd22cd51	-0.039746586
227	0x3df43171	0.11923493
228	0xbdc68b79	-0.09694571
229	0x3d5eb194	0.05436857
230	0x3dbb5d57	0.091486625
231	0xbcc4f78e	-0.024043825
232	0x3d38b055	0.04509004
233	0xbdf42b2b	-0.11922296
234	0xbd46a669	-0.048498545
235	0xbd932f65	-0.07186774
236	0x3d22526a	0.039629377
237	0xbd362708	-0.044470817
238	0xbe057997	-0.13034664
239	0xbe021500	-0.12703323
240	0xba235f23	-0.0006232133
241	0x3dcd276c	0.10017285
242	0x3dde2f73	0.10848894
243	0xbcc44c10	-0.02396205
244	0xbd0d0089	-0.03442434
245	0xbda7fcc1	-0.08202506
246	0x3dcdc1cc	0.100467294
247	0xbdcedd4e	-0.10100804
248	0xbc8331d9	-0.01601498
249	0xbd7adcc3	-0.06124569
250	0xbe0b3d85	-0.13597687
251	0x3d0a3c79	0.033749077
252	0xbdb006f8	-0.08595079
253	0xbd0dbe80	-0.034605503
254	0x3d2810c6	0.04103162
255	0x3d5930d3	0.053025078
