Baseline-models/DAGMM/DAGMM-ROAD/no--dagmm/models/34_194_dagmm.pth (torch, 82200 bytes, 22 tensors)

phi f4 [4]
0	0x3cc61333	0.024179077
1	0x3cabcdf6	0.020972233
2	0x3f6f2cc9	0.9342771
3	0x3ca885ce	0.020571616

mu f4 [4, 3]
0	0x3eadf9b4	0.3397957
1	0x3fa738c5	1.30642
2	0xbdae0dea	-0.08498748
3	0x3ea84deb	0.32871947
4	0x3fa84fcc	1.3149352
5	0xbdc6087f	-0.09669589
6	0xbccf47ac	-0.02530273
7	0x3fcc5535	1.5963503
8	0xbef16f69	-0.47155312
9	0x3ea25bca	0.31710654
10	0x3fa97b32	1.3240721
11	0xbddf2319	-0.10895366

cov f4 [4, 3, 3]
0	0x3efc7a05	0.49311844
1	0xbec883c3	-0.39163026
2	0x3f05a0e4	0.52198625
3	0xbec883c3	-0.39163026
4	0x3e9f51b0	0.3111701
5	0xbed446a7	-0.41460153
6	0x3f05a0e4	0.52198625
7	0xbed446a7	-0.41460153
8	0x3f0d749f	0.55256075
9	0x3efe0846	0.49615687
10	0xbec9b32f	-0.3939452
11	0x3f067081	0.5251542
12	0xbec9b32f	-0.3939452
13	0x3ea0372f	0.31292102
14	0xbed5823f	-0.41700932
15	0x3f067081	0.5251542
16	0xbed5823f	-0.41700932
17	0x3f0e4cdd	0.55586034
18	0x3ebb3729	0.3656552
19	0xbe947657	-0.28996536
20	0x3ec6158c	0.38688314
21	0xbe947657	-0.28996536
22	0x3e6b9e85	0.23009689
23	0xbe9d1b0a	-0.30684692
24	0x3ec6158c	0.38688314
25	0xbe9d1b0a	-0.30684692
26	0x3ed1979a	0.40935975
27	0x3efe0018	0.49609447
28	0xbec9a5f7	-0.39384434
29	0x3f066b12	0.52507126
30	0xbec9a5f7	-0.39384434
31	0x3ea025df	0.31278893
32	0xbed57222	-0.4168864
33	0x3f066b12	0.52507126
34	0xbed57222	-0.4168864
35	0x3f0e45e4	0.55575395

encoder.0.weight f4 [60, 118]
0	0xbcec8689	-0.028872745
1	0x3db769e5	0.08955745
2	0x3ce1474d	0.02749982
3	0x3bbae47f	0.0057035084
4	0x3db7a3c2	0.08966781
5	0xbc9eee8c	-0.019400857
6	0x3d04bfe4	0.032409564
7	0x3d7ec9fb	0.062204342
8	0xbd906dc3	-0.070521854
9	0x3d98d6d2	0.07462849
10	0x3d46a299	0.04849491
11	0x3c85c662	0.016329948
12	0x3d693522	0.056935437
13	0x3d6c677d	0.05771588
14	0xbd81c87e	-0.06337069
15	0xbd2c365a	-0.04204402
16	0x3dbaa3be	0.091132626
17	0xbd578887	-0.052620437
18	0xbc37d771	-0.011220799
19	0xbd890362	-0.06690098
20	0xbc51260f	-0.0127654215
21	0xbcd9e2ee	-0.026597466
22	0x3d174c74	0.036938146
23	0xbd23f5cb	-0.04002933
24	0x3dbcf492	0.092263356
25	0x3d8b0ea2	0.067899
26	0x3dccceb9	0.10000367
27	0xbcc5675e	-0.02409714
28	0xbd32dbbd	-0.04366659
29	0xbda49d58	-0.080378234
30	0xbdb808e9	-0.089860745
31	0xbc8d6d23	-0.017263955
32	0x3d8bd245	0.06827215
33	0x3d340b88	0.04395631
34	0xbd01be64	-0.03167571
35	0x3d880847	0.06642204
36	0xbc381079	-0.011234396
37	0xbd34347e	-0.043995373
38	0xbb210b5d	-0.0024573423
39	0xbd523f9e	-0.0513302
40	0x3d2e06b3	0.042486858
41	0x3d546d77	0.051862206
42	0x3cd5b138	0.026085481
43	0x3c57a972	0.0131629575
44	0xbca19a5e	-0.019726928
45	0x3cc97219	0.024590539
46	0xbd8dfbe0	-0.06932807
47	0xbcbc312f	-0.022972671
48	0xbd290759	-0.041266773
49	0xbd9bd326	-0.07608633
50	0xbcc9c071	-0.024627896
51	0xbc748e23	-0.014926466
52	0xbc58f2ad	-0.013241452
53	0xbc1d429a	-0.009598399
54	0x3c0855c7	0.008321232
55	0xbd9caae6	-0.07649784
56	0xbd376a8f	-0.044779357
57	0x3aad3b49	0.0013216521
58	0x3b8ec876	0.004357393
59	0xbbdd5918	-0.0067550056
60	0xbbcbdac0	-0.0062211454
61	0xbcc757f9	-0.02433394
62	0x3dc0f67a	0.09422012
63	0x3d197292	0.03746278
64	0x3db9278a	0.090407446
65	0x3dbf056f	0.09327208
66	0x3d8a02bf	0.06738805
67	0xbd81b025	-0.06332425
68	0x3d57cd95	0.052686293
69	0x3da237c4	0.07920793
70	0x3daa922c	0.08328661
71	0x3d161aaa	0.036646523
72	0x3d829352	0.06375755
73	0xbd3e8d61	-0.04652155
74	0x3d2e8ef9	0.042616818
75	0xbda2f06a	-0.079560116
76	0xbcfd369c	-0.030909829
77	0xbcb8bda6	-0.022551369
78	0xbda34d21	-0.079736955
79	0xbabd7bc1	-0.0014456437
80	0xbcb3eaec	-0.021962605
81	0x3d0ce39a	0.034396745
82	0xbd33effc	-0.04393004
83	0xbc0537d7	-0.008130989
84	0x3d8779a1	0.06614996
85	0xbbe42f70	-0.006963663
86	0xbd9db01c	-0.07699606
87	0x3c85a2e7	0.01631303
88	0xbdc4260d	-0.0957757
89	0x3daca511	0.084299214
90	0x3c193b93	0.0093525825
91	0x3c88bf14	0.016692676
92	0xbd805bb3	-0.0626749
93	0x3cbd4949	0.023106234
94	0x3d37ddcf	0.044889268
95	0x3da91fc7	0.08258014
96	0x3d033ea8	0.032042176
97	0x39174800	0.00014427304
98	0x3d8901f8	0.06689829
99	0xbd4308c6	-0.04761579
100	0x3d6f5a50	0.058435738
101	0x3d865482	0.06559087
102	0xbd36297a	-0.04447315
103	0xbd1521b8	-0.03640911
104	0xbbe6ca29	-0.0070431423
105	0x3d30cbb7	0.043163028
106	0x3c0251e8	0.007954098
107	0xbd7f19e9	-0.06228057
108	0x3d30368d	0.043020774
109	0x3cd14f7d	0.025550598
110	0xbd32f35f	-0.043689128
111	0x3ca4052a	0.020021994
112	0xbccf11a2	-0.025276963
113	0xbd6bcc22	-0.057567723
114	0x3d977ad6	0.07396476
115	0xbc318fce	-0.010837508
116	0x3d52053d	0.051274527
117	0xbc2969d6	-0.010340175
118	0xbd0a5bd4	-0.03377898
119	0x3d8a0390	0.06738961
120	0x3dbdf2a5	0.092747964
121	0x3893c9f2	7.0471215e-05
122	0xbb09646d	-0.00209644
123	0xbd46600d	-0.048431445
124	0xbd86b37c	-0.06577203
125	0x3d502feb	0.050826948
126	0xba6eaa03	-0.0009104313
127	0x3d843773	0.064558886
128	0x3d846422	0.06464411
129	0x3d333afc	0.043757424
130	0x3af29260	0.0018506758
131	0x3d4c9d24	0.04995455
132	0xbcc79ec8	-0.024367705
133	0xbcdaee46	-0.026724946
134	0x3d681569	0.056661043
135	0xbceb4b39	-0.028722392
136	0x3d8bf197	0.06833189
137	0xbc912e47	-0.017722262
138	0x3d5df837	0.054191794
139	0x3d9e27c0	0.077224255
140	0x3cbcd84b	0.023052355
141	0xbcc6e63b	-0.024279704
142	0x3cea586a	0.028606612
143	0xbd4b1d4e	-0.049588494
144	0xbd0d6e67	-0.034529116
145	0xbdbfc786	-0.09364228
146	0x3d9f4ffa	0.07778926
147	0xbd81a57b	-0.06330391
148	0x3c66602f	0.014061018
149	0x3c6c5e19	0.0144267315
150	0x3db9ffed	0.09082017
151	0x3cdbd432	0.026834581
152	0x3d071adf	0.03298461
153	0xbd35b821	-0.044365052
154	0x3d536be3	0.05161656
155	0x3dc3908c	0.095490545
156	0xbd586f94	-0.052840784
157	0xbc057b8c	-0.008147132
158	0xbdaea05e	-0.08526681
159	0x3ccf1814	0.025280036
160	0x3ce002a4	0.02734501
161	0xbc96271d	-0.018329198
162	0xbb1acfb8	-0.0023622345
163	0xbc802735	-0.015643695
164	0xbc3ab596	-0.0113958325
165	0x3d6393e3	0.055560958
166	0x3db61f55	0.08892695
167	0x3db6b83f	0.08921861
168	0xbc9b116b	-0.018929204
169	0x3c980009	0.018554704
170	0xbd6c61e8	-0.05771056
171	0x3d8197f3	0.0632781
172	0xbd808fe4	-0.06277445
173	0x3d3a2fab	0.045455616
174	0xbcd23fef	-0.025665252
175	0x3d955a8a	0.072926596
176	0x3dbc8330	0.092047095
177	0xbaff79bc	-0.0019491236
178	0x3db5cfe3	0.08877542
179	0xbc46942a	-0.012120286
180	0x3d93cc03	0.072166465
181	0x3caaec80	0.020864725
182	0x3dba5cf2	0.09099759
183	0x3d8e1d93	0.069392346
184	0xbaf41e07	-0.0018624672
185	0x3cce2d5e	0.025168117
186	0x3c771a0f	0.015081896
187	0xbd313e64	-0.04327239
188	0xbd102cbd	-0.035198916
189	0xbcb4f2bc	-0.022088401
190	0x3d715268	0.05891648
191	0x3d8885b3	0.06666126
192	0x3d9bd77d	0.076094605
193	0xbd0beaf8	-0.03415963
194	0xbc145723	-0.009053978
195	0x3d89a1fc	0.06720349
196	0x3cf05a8a	0.029340047
197	0x3bddfe44	0.0067746956
198	0x3bd2c7fb	0.006432531
199	0x3cee09d3	0.029057419
200	0xbd8580b4	-0.06518689
201	0xbd9a80f1	-0.07544125
202	0xbd98ea00	-0.07466507
203	0x3d3826d6	0.04495891
204	0xbbd8193f	-0.0065948064
205	0xbe1b9f89	-0.15197577
206	0xbc147a21	-0.009062321
207	0xbcb21fcd	-0.02174368
208	0x3d7cb9c0	0.061700583
209	0x3bedd782	0.0072583565
210	0xbd977584	-0.07395461
211	0x3d8d7bfc	0.06908414
212	0xbcba7160	-0.02275914
213	0xbd1906f7	-0.037360158
214	0xbd52d473	-0.05147214
215	0xbd7d967c	-0.06191109
216	0xbcbb43d4	-0.022859491
217	0xbdb03fb9	-0.08605904
218	0xbc95f3ab	-0.018304667
219	0xbd3f16bf	-0.04665255
220	0x3df61522	0.120157495
221	0xbcd98d63	-0.026556676
222	0x3daed7be	0.08537243
223	0xbd40f2eb	-0.047106665
224	0x3c826400	0.015916824
225	0x3d174d82	0.03693915
226	0xbcc4087f	-0.023929833
227	0xbdd498de	-0.103807196
228	0xbca35c3c	-0.019941442
229	0x3d09a141	0.03360105
230	0xbd0c3f9e	-0.034240358
231	0x3c5d60d1	0.013511852
232	0x3c930c0f	0.017950086
233	0x3dd38e1c	0.103298396
234	0xbd2f1816	-0.04274758
235	0xbc97dffb	-0.01853942
236	0xbbb0cc66	-0.00539546
237	0xbd79a19f	-0.06094515
238	0x3c099d48	0.008399315
239	0xbd5ee79c	-0.0544201
240	0x3d099527	0.03358951
241	0xbddf734b	-0.10910662
242	0xbdbd4e2e	-0.09243427
243	0x3cf7ea2b	0.030263027
244	0x3d92c558	0.071665466
245	0xbcb71500	-0.02234888
246	0xbc4ff5bd	-0.012692866
247	0xbb471f1f	-0.003038354
248	0x3d7326c1	0.05936313
249	0x3ce824fd	0.02833795
250	0x3c06f310	0.008236662
251	0x3d546d26	0.051861905
252	0x3c5c4c81	0.013445974
253	0x3c4cb3e0	0.012494057
254	0xbc30ef2f	-0.010799213
255	0x3d8c094c	0.06837711

encoder.0.bias f4 [60]
0	0x3cdbcd48	0.026831284
1	0x3dae0cb6	0.08498518
2	0x3a1242c8	0.0005579409
3	0x3cf827b4	0.03029237
4	0xbd87c401	-0.06629182
5	0x3d0e03bb	0.034671526
6	0xbdc58030	-0.096435905
7	0xbd034db3	-0.03205652
8	0x3d6c2872	0.05765576
9	0x3d933c18	0.07189196
10	0xbc453b14	-0.012038011
11	0xbd19d0c9	-0.03755263
12	0xbd429ca9	-0.047512684
13	0x3d79a03d	0.06094383
14	0xbd06fc70	-0.032955587
15	0xbd8dc5f9	-0.06922526
16	0xbc2802a5	-0.010254537
17	0x3d8e8ecd	0.06960831
18	0xbd4bf83a	-0.049797274
19	0x3e0546c9	0.13015284
20	0xbcbbb8a9	-0.022915201
21	0x3d5b3be9	0.05352393
22	0xbdf71379	-0.12064261
23	0xbc798ffd	-0.015232083
24	0x3ce012f1	0.027352782
25	0x3c23d0ed	0.009998542
26	0x3d40c3a2	0.04706157
27	0xbd0b37df	-0.03398883
28	0xbcb1e285	-0.021714458
29	0x3db07d69	0.0861767
30	0x3d33198d	0.04372554
31	0xbc9e3154	-0.01931063
32	0x3d945cfd	0.072442986
33	0xbd980f0e	-0.074247465
34	0x3c86b9c8	0.01644601
35	0xbdaad08d	-0.08340559
36	0x3d9d91a3	0.076937936
37	0x3df0ff43	0.11767437
38	0xbd8516ed	-0.06498513
39	0x3aaacd58	0.0013031168
40	0xbd66922e	-0.05629175
41	0xbcba04fa	-0.022707451
42	0x3cd5f780	0.026118994
43	0xbc80f941	-0.015743854
44	0xbd2ddda7	-0.042447712
45	0xbce60fc2	-0.028083686
46	0x3d100272	0.035158582
47	0xbd0254e8	-0.031819254
48	0xbd1b5e36	-0.037931643
49	0xbcbb0a57	-0.022832079
50	0xbd225b38	-0.039637774
51	0xbd31d0ac	-0.043411896
52	0xbd9a1e0e	-0.07525264
53	0xbd342793	-0.043983053
54	0xbc5d9eac	-0.0135266
55	0xbc04c4a5	-0.008103524
56	0x3d0ac1b8	0.03387615
57	0x3ae4101a	0.0017399818
58	0xbcd87419	-0.026422547
59	0x3d830f1f	0.063993685

encoder.2.weight f4 [30, 60]
0	0xbe01447a	-0.12623778
1	0x3dd14852	0.10218872
2	0xbd54ad0d	-0.051922847
3	0xbc983ba8	-0.018583134
4	0xbdc4835b	-0.095953666
5	0x3d6d993d	0.058007468
6	0xbd881aef	-0.06645762
7	0x3dbaaab1	0.09114588
8	0x3db99506	0.09061627
9	0xbd542464	-0.051792517
10	0x3d8bf88f	0.06834518
11	0xbc10a368	-0.008828022
12	0xbdf218d2	-0.1182114
13	0xbd9d5ac3	-0.07683327
14	0x3de6f864	0.112778455
15	0x3d28183a	0.04103873
16	0xbb91622d	-0.0044367523
17	0xbd41779b	-0.047233205
18	0x3ddf45a8	0.10901958
19	0xbd0af94f	-0.033929165
20	0x3de68435	0.11255685
21	0xbdfd1e5a	-0.12359305
22	0xbde077ac	-0.109603256
23	0x3cd96806	0.02653886
24	0x3dcebea9	0.10094959
25	0x3d413496	0.04716929
26	0xbc1edc0a	-0.009696016
27	0x3cc50c24	0.02405364
28	0x3df5ce41	0.120022304
29	0xbe0a5197	-0.13507687
30	0x3c91798e	0.017758157
31	0xbd9183bb	-0.07105204
32	0x3c6e2c3c	0.0145369135
33	0xbb804160	-0.0039140433
34	0xbcea6251	-0.028611334
35	0x3c3f63f7	0.011681548
36	0x3d962835	0.07331888
37	0xba64468f	-0.0008708024
38	0x3c69c370	0.014267787
39	0x3d8ba246	0.068180606
40	0x3e0c9b82	0.13731197
41	0xbd954af7	-0.07289689
42	0xbdc46fed	-0.09591661
43	0xbdecf4ae	-0.115701064
44	0xbde74ff5	-0.112945475
45	0xbc916f3f	-0.017753242
46	0xbd5531e0	-0.052049518
47	0xbdf8ec0f	-0.121543996
48	0xbd886767	-0.066603474
49	0x3cfa7ba9	0.030576544
50	0x3ddd7431	0.108131774
51	0x3dcaaaa0	0.098958254
52	0x3d9eb956	0.07750194
53	0xbd36af80	-0.044600964
54	0x3c71ce82	0.014758708
55	0x3c5d9a94	0.013525624
56	0xbdc7a446	-0.097481295
57	0x3e0ffb60	0.14060736
58	0xbdffce61	-0.124905355
59	0x3de97586	0.11399369
60	0xbdbfabb5	-0.093589224
61	0x3bbf0776	0.005829747
62	0x3dddfe82	0.10839559
63	0xbd82588a	-0.06364544
64	0x3dd5709c	0.10421869
65	0xbda2aa4b	-0.07942637
66	0x3da91b6b	0.08257183
67	0x3df794b1	0.120889075
68	0x3ddca130	0.107729316
69	0x3d66332a	0.056201138
70	0x3d2288e6	0.039681338
71	0x3df3aecc	0.11898574
72	0x3d14aca3	0.03629745
73	0xbd3d8689	-0.04627088
74	0x3d3db086	0.046310924
75	0xbddc1b31	-0.10747374
76	0xbd91118f	-0.07083427
77	0x3bdfdb33	0.0068315505
78	0x3d15e36d	0.036593843
79	0xbd3edf9e	-0.046599977
80	0xbdd46221	-0.10370279
81	0x3ccf64ca	0.025316615
82	0x3bd67d0a	0.0065456675
83	0xbc5c5fde	-0.013450591
84	0xbbbabdb9	-0.0056988862
85	0x3d0e1252	0.03468544
86	0x3db54b7a	0.08852287
87	0x3e0199e6	0.12656364
88	0x3d8c790e	0.06859027
89	0xbd377324	-0.04478754
90	0x3cfc8139	0.030823337
91	0xbdd9cc0a	-0.106346205
92	0x3d949121	0.07254244
93	0xbdc83f21	-0.09777666
94	0xbcbbd2ee	-0.022927728
95	0x3dc7608c	0.09735212
96	0x3d62b22b	0.055345695
97	0xbdec042b	-0.115242325
98	0x3dbdb40c	0.09262857
99	0x3dc3237f	0.09528255
100	0x3d946cae	0.072472915
101	0x3d8e3851	0.06944335
102	0xbda752c3	-0.081700824
103	0xbdf99832	-0.12187232
104	0x3dbf16e1	0.09330536
105	0xbcd3d67c	-0.02585911
106	0x3d76c02d	0.060241867
107	0x3d8e05b6	0.06934683
108	0x3d901e7d	0.07037065
109	0xbd997133	-0.07492294
110	0xbddaa6a7	-0.10676318
111	0xbd53644b	-0.05160932
112	0xbd600ed0	-0.054701626
113	0xbdd59fd6	-0.10430877
114	0x3db9ffa7	0.09081965
115	0x3e09c56e	0.1345422
116	0xbd141a1f	-0.036157724
117	0x3da26c86	0.079308555
118	0x3d6df8f6	0.058098756
119	0x3d59dd7d	0.053189743
120	0xbcdb938d	-0.026803756
121	0xbd9cacc8	-0.07650143
122	0xbd144127	-0.036194947
123	0x3cd5b030	0.02608499
124	0x3d9c127a	0.076207116
125	0x3d4d09e4	0.05005826
126	0x3dc2ce47	0.095120005
127	0xbd8573d0	-0.0651623
128	0xbd6ea76e	-0.058265142
129	0xbd83752b	-0.064188324
130	0xbdc4dcaf	-0.096124046
131	0xbce78215	-0.02826027
132	0xbd8b72a7	-0.068089776
133	0x3d79f317	0.061022844
134	0x3cfd6596	0.030932229
135	0xbce4cefc	-0.02793073
136	0x3dbccc0d	0.09218607
137	0x3da8eb59	0.08248014
138	0xbdce9abf	-0.10088109
139	0x392cf711	0.00016495238
140	0x3cb4e0e5	0.022079894
141	0x3d9f027f	0.07764148
142	0xbe0aa584	-0.13539702
143	0xbe0ddc86	-0.13853654
144	0xbe102238	-0.14075553
145	0xbba108ac	-0.004914364
146	0x3e0dd154	0.13849384
147	0x3d6e2643	0.058141958
148	0xbe06324b	-0.13105123
149	0x3de60825	0.11232022
150	0xbda00987	-0.07814317
151	0xbdbb2178	-0.09137243
152	0x3e087325	0.13325174
153	0x3d2fd4a5	0.042927403
154	0x3d4f1565	0.050557513
155	0xbabee44b	-0.0014563886
156	0x3ce22eb5	0.027610162
157	0x3c6c1700	0.0144097805
158	0x3cd9f23f	0.02660477
159	0xbbc39c96	-0.005969594
160	0xbe080358	-0.13282526
161	0x3e078d0a	0.13237396
162	0x3ddc076d	0.10743604
163	0xbbc92c8f	-0.006139345
164	0xbcd87ba5	-0.026426146
165	0x3ddc794a	0.107653216
166	0x3de3abf7	0.11116784
167	0x3d7b1e31	0.06130809
168	0x3d9bea00	0.07612991
169	0xbde21afb	-0.11040302
170	0x3d5fdf81	0.05465651
171	0x3e08cdb7	0.13359724
172	0xbdab903e	-0.083771214
173	0x3e0fafd9	0.14031924
174	0xbdc9bf9a	-0.09850998
175	0xbe09ab63	-0.13444285
176	0xbda01db0	-0.078181624
177	0xbcc68121	-0.024231495
178	0xbdd6f9a3	-0.10496833
179	0xbd659770	-0.056052625
180	0x3ddd26c9	0.10798413
181	0x3d8f7a10	0.070057034
182	0xbc9c561a	-0.019084025
183	0xbccf2951	-0.025288256
184	0xbe04ec96	-0.12980875
185	0x3e0cc5d7	0.13747345
186	0xbd72ebf4	-0.059307054
187	0xbba9f0ac	-0.005186161
188	0xbd819abb	-0.063283406
189	0xbdb81dee	-0.08990084
190	0xbe0ae24f	-0.13562892
191	0xbdf206e7	-0.11817723
192	0xbc049dbc	-0.008094247
193	0x3d4a1008	0.049331695
194	0x3d9ca58d	0.07648764
195	0xbcdb4593	-0.026766574
196	0x3c4af342	0.012387099
197	0x3da9b014	0.08285537
198	0x3d8be832	0.06831397
199	0x3e0b8442	0.13624671
200	0xbd076b63	-0.033061396
201	0xbcd84bb4	-0.026403286
202	0xbc8534de	-0.01626056
203	0x3d9cbcc9	0.076531954
204	0x3cbbeb66	0.022939395
205	0xbe0e8f21	-0.13921787
206	0x3dc71a6b	0.09721836
207	0xbbf19614	-0.007372627
208	0xbdf24ace	-0.11830674
209	0x3e13a016	0.14416537
210	0xbdb21a0e	-0.08696376
211	0xbbac765d	-0.0052631334
212	0xbd894592	-0.067027226
213	0xbda4a5fa	-0.0803947
214	0xbddf4d76	-0.109034464
215	0x3d9e94a0	0.07743192
216	0x3d851fb9	0.06500191
217	0xbd32c65b	-0.043646198
218	0x3d8d5161	0.069002874
219	0xbde2df0a	-0.110776976
220	0xbd4145fb	-0.04718588
221	0x3bed92f8	0.007250186
222	0x3dde0039	0.10839886
223	0x3dd2e400	0.10297394
224	0xbdb2d740	-0.08732462
225	0x3d357104	0.044297233
226	0xbcda339b	-0.026635936
227	0x3dc818bd	0.097703435
228	0xbd966482	-0.07343389
229	0xbdfa1c3a	-0.12212415
230	0xbd2a1fa5	-0.041534085
231	0x3d86c65b	0.06580802
232	0xbd5a1fe5	-0.053253073
233	0x3d733b1f	0.059382554
234	0xbe067040	-0.13128757
235	0xbde931b0	-0.1138643
236	0x3d1e22e8	0.038607508
237	0xbe0a036a	-0.13477865
238	0x3d60c8e9	0.054879103
239	0x3c6322d2	0.013863282
240	0x3deb62e3	0.114934705
241	0xbcd1bf3c	-0.025603883
242	0xbcce8d29	-0.025213795
243	0xbe0f37e8	-0.1398617
244	0xbda20f2a	-0.079130486
245	0xbd91241a	-0.07086964
246	0xbe1085e8	-0.14113581
247	0xbdacdb15	-0.08440224
248	0x3dc2034f	0.09473287
249	0xbdad0500	-0.08448219
250	0xbe1d4d42	-0.15361503
251	0xbe0a3ff2	-0.13500956
252	0xbdb73a6b	-0.08946689
253	0x3d852c83	0.065026306
254	0xbddc15d5	-0.10746352
255	0xbd6932a1	-0.05693305

encoder.2.bias f4 [30]
0	0xbde002ed	-0.10938058
1	0xbcc9f7b2	-0.024654243
2	0x3dcf4feb	0.10122665
3	0xbc83cc4f	-0.016088633
4	0x3da68c85	0.08132271
5	0x3b3ad014	0.0028505372
6	0x3da394f7	0.07987397
7	0x3cf8f7c8	0.030391589
8	0x3c971b0f	0.01844552
9	0xbcd52f2c	-0.02602347
10	0xbd8582b7	-0.065190725
11	0x3dd767bd	0.105178334
12	0x3d585e22	0.052824147
13	0x3bfb9bba	0.007678476
14	0x3e054adb	0.13016836
15	0x3cfec8da	0.031101633
16	0x3b064ed6	0.0020493767
17	0x3d8e0d3a	0.069361165
18	0x3d8db1ac	0.06918654
19	0x3ca9263a	0.02064811
20	0x3d50ddf9	0.05099294
21	0x3d807939	0.062731214
22	0xbcefade0	-0.029257715
23	0x3d985958	0.07438916
24	0x3db05b64	0.086111814
25	0x3dddfc3d	0.10839126
26	0x3d29091d	0.041268457
27	0x3d2645b7	0.04059383
28	0x3dcab6f9	0.098981805
29	0x3d87e65e	0.06635736

encoder.4.weight f4 [10, 30]
0	0xbe1d627f	-0.15369605
1	0x3e2cb6a0	0.16866541
2	0xbd93aa8c	-0.072102636
3	0xbd5233a8	-0.051318794
4	0x3dce8bbc	0.10085246
5	0x3cbd0412	0.02307323
6	0xbd767617	-0.060171213
7	0xbe1238a5	-0.1427942
8	0xbe1e10cb	-0.15436094
9	0xbd3132f6	-0.04326149
10	0x3d8b288d	0.06794844
11	0xbe30e9a3	-0.17276625
12	0x3d8650a9	0.065583535
13	0x3e514bba	0.20439044
14	0x3cffb1c8	0.031212702
15	0x3e2e479b	0.17019503
16	0x3d3a51ac	0.045488045
17	0xbe48730a	-0.19575134
18	0xbce07e61	-0.027404012
19	0x3e13bc13	0.14427213
20	0xbd891f74	-0.06695452
21	0xbbda624c	-0.00666455
22	0xbde89b85	-0.11357788
23	0x3df63662	0.120220914
24	0xbc9a76ea	-0.01885553
25	0xbd95cf93	-0.07314982
26	0x3dd45922	0.10368563
27	0x3e139a79	0.14414395
28	0x3df9daca	0.12199934
29	0x3c8afe2c	0.016966902
30	0x3e322763	0.17397837
31	0xbd993c62	-0.0748222
32	0xbd7a775b	-0.061148982
33	0xbdf2fa13	-0.11864104
34	0x3d2db90e	0.04241281
35	0xbe067e33	-0.13134079
36	0x3dad8013	0.08471694
37	0x3dab288b	0.08357342
38	0xbde1eae2	-0.110311285
39	0x3da34c52	0.07973541
40	0xbcffb7da	-0.031215597
41	0xbe2bb054	-0.16766483
42	0x3e2265b6	0.15859112
43	0xbd04c36a	-0.032412924
44	0xbd4d1fb2	-0.050079055
45	0xbd905e68	-0.070492566
46	0x3d0d1cb8	0.034451216
47	0xbe36f1d5	-0.17865689
48	0xbe081bbf	-0.13291834
49	0x3e29f100	0.1659584
50	0x3e3815b4	0.17977029
51	0xbdd30e8c	-0.10305509
52	0x3dbe0626	0.092785165
53	0x3d5c6258	0.053804725
54	0xbe11a1b8	-0.14221847
55	0xbe361c04	-0.17784125
56	0x3d9e5abd	0.07732151
57	0x3db3f51c	0.08786985
58	0xbe43bb91	-0.1911452
59	0xbc16e5a1	-0.009210021
60	0xbe0e1d27	-0.13878308
61	0xbda3b7f9	-0.079940744
62	0xbc58d01a	-0.013233209
63	0x3e2ea17f	0.17053793
64	0x3da7f7ba	0.08201547
65	0xbe168a36	-0.14701161
66	0xbd37fdac	-0.044919655
67	0x3e40f1c0	0.1884222
68	0xbd4d764f	-0.050161656
69	0xbd2cc012	-0.04217536
70	0xbd0536d3	-0.032522988
71	0xbe18e697	-0.14931713
72	0xbe01a2e5	-0.12659796
73	0x3e093363	0.13398509
74	0xbdf17ef0	-0.117917895
75	0xbcc020e2	-0.02345318
76	0x3e308114	0.1723674
77	0x3e1804c0	0.14845562
78	0xbe213009	-0.1574098
79	0x3ab45f9a	0.0013761402
80	0xbe415a70	-0.18882155
81	0xbd5bf6f6	-0.053702317
82	0xbca3e62c	-0.020007215
83	0x3cfae80e	0.03062823
84	0xbd8bab42	-0.06819774
85	0x3e384a29	0.1799704
86	0xbdf7220e	-0.12067042
87	0x3e1cbd19	0.1530651
88	0x3e3ca397	0.1842178
89	0x3cc40ccc	0.023931883
90	0xbde6c656	-0.11268298
91	0xb79d84d8	-1.8777719e-05
92	0x3da61a60	0.081104994
93	0x3ce33e7f	0.027739761
94	0x3e3c2fb8	0.18377578
95	0xbd276e0a	-0.040876426
96	0x3e4d7a62	0.20066217
97	0xbd3cbfd8	-0.046081394
98	0xbe45d4ef	-0.19319509
99	0xbd7263cc	-0.059177205
100	0x3aa60c61	0.0012668484
101	0x3e11d082	0.14239696
102	0xbd19e7e3	-0.03757466
103	0x3e02738f	0.12739395
104	0x3e23c300	0.15992355
105	0x3d206f38	0.039168566
106	0x3d0f47a5	0.034980435
107	0xbbfe0866	-0.007752466
108	0xbd1ee2d6	-0.038790546
109	0x3d979471	0.0740136
110	0xbd33232a	-0.043734707
111	0xbe023fd9	-0.12719668
112	0x3d5762eb	0.05258457
113	0x3df9761f	0.12180733
114	0xbcca414b	-0.024689337
115	0xbd16e9c7	-0.03684404
116	0x3d3cabc7	0.046062257
117	0x3e233549	0.15938295
118	0xbe0bbeb6	-0.13646969
119	0xbdd5f42e	-0.10446964
120	0x3e4924e8	0.19642985
121	0x3c1277ca	0.008939693
122	0xbdf805c2	-0.12110473
123	0xbe2da910	-0.16959023
124	0xbcb74de7	-0.022376014
125	0xbd8a58ba	-0.067552045
126	0xbe3afe46	-0.1826106
127	0xbd087729	-0.033316765
128	0x3dc02219	0.093815036
129	0x3d86d2c3	0.06583168
130	0xbdf79054	-0.12088075
131	0x3d8309d6	0.063983604
132	0x3b2a19a2	0.002595522
133	0xbe15aaa0	-0.1461587
134	0xba409cbe	-0.0007347575
135	0xbd3fe314	-0.046847418
136	0xbe324976	-0.17410836
137	0xbe0de0bd	-0.13855262
138	0x3ca41395	0.020028869
139	0xbdb3dab9	-0.087819524
140	0xbe03e947	-0.12881957
141	0x3b6b7dd4	0.0035933154
142	0xbe00ee16	-0.12590823
143	0xbdd29356	-0.10282008
144	0xbd6b6050	-0.057464898
145	0x3d92b508	0.07163435
146	0x3ca5dfb4	0.020248272
147	0xbc45d427	-0.012074507
148	0xbe34034d	-0.17579384
149	0xbb5d351d	-0.0033753582
150	0xbd49452c	-0.049138233
151	0x3dc6abbb	0.09700724
152	0xbd8393ba	-0.06424661
153	0x3e11577c	0.14193529
154	0x3d544b9a	0.05182991
155	0x3d543a56	0.051813446
156	0x3dc5fcbb	0.09667345
157	0xbdb7ad88	-0.08968645
158	0xbdf0c176	-0.1175565
159	0x3d56b613	0.052419733
160	0xbe06ae9a	-0.13152543
161	0xbc9cc665	-0.01913757
162	0xbe14b8ad	-0.14523573
163	0x3e08c8e7	0.13357888
164	0x3e1b42a7	0.15162145
165	0x3e15614f	0.14587902
166	0x3db6cbd2	0.089255944
167	0xbe40af91	-0.18816973
168	0xbde8944b	-0.1135641
169	0xbd94b7f1	-0.072616465
170	0x3c16669f	0.00917974
171	0xbcbe6e09	-0.023245828
172	0x3dc9f28a	0.09860714
173	0x3d8f1aab	0.069875084
174	0x3dfc54f7	0.12320893
175	0x3d97bb7c	0.07408807
176	0xbe0e9029	-0.1392218
177	0xbd5dc307	-0.05414107
178	0x3cb34bdc	0.021886759
179	0xbe39e5dc	-0.1815409
180	0x3d88c0ad	0.06677375
181	0xbda869ed	-0.08223329
182	0x3d2a3d4c	0.041562364
183	0x3e0a7e5a	0.13524762
184	0x3de00727	0.10938864
185	0xbe3095ea	-0.17244688
186	0x3d21f649	0.039541516
187	0xbdc204c4	-0.09473565
188	0x3e165a99	0.14682998
189	0x3de7967a	0.11307998
190	0x3e3e1670	0.18563247
191	0x3d89a186	0.06720261
192	0x3d815fe9	0.063171215
193	0xbd0c89b7	-0.034311023
194	0x3ca89741	0.020579936
195	0xbe19a720	-0.1500516
196	0xbdf30529	-0.118662186
197	0xbda5a192	-0.08087458
198	0x3d880711	0.06641973
199	0xbe079b27	-0.1324278
200	0xbe291beb	-0.16514556
201	0xbdf506f9	-0.119642206
202	0x3e4cb0ea	0.19989362
203	0xbdb7ca51	-0.08974136
204	0xbe1842e2	-0.14869264
205	0x3da2ce28	0.079494774
206	0xbe4a87bc	-0.19778341
207	0x3e0fa9f9	0.14029683
208	0x3e0670f9	0.13129033
209	0xbc2bb3ec	-0.010479908
210	0xbb26d045	-0.0025453728
211	0x3d76d8e3	0.060265433
212	0xbd0a819a	-0.033815004
213	0x3cfc4f02	0.030799393
214	0xbdd1cb81	-0.102438934
215	0x3d4f40ec	0.050599024
216	0x3da30edb	0.07961818
217	0x3e11ddeb	0.14244811
218	0xbda79bc4	-0.08184007
219	0x3dc07870	0.09397972
220	0xbdd29707	-0.102827124
221	0x3e0c9829	0.1372992
222	0x3d84ea40	0.06489992
223	0x3d6975c8	0.05699709
224	0xbdbd1af6	-0.09233658
225	0xbe39e929	-0.1815535
226	0xbe215e05	-0.15758522
227	0xbe0a8133	-0.13525848
228	0xbcf54369	-0.02993937
229	0x3cf56074	0.029953219
230	0xbda989b6	-0.082782194
231	0xbd99484c	-0.07484493
232	0x3e1a09c3	0.15042786
233	0x3d9ab539	0.07554097
234	0xbe1ddf0e	-0.1541712
235	0x3db05ae0	0.08611083
236	0x3debda6b	0.11516269
237	0xbd958922	-0.07301547
238	0x3e3da5b4	0.18520242
239	0x3cf6e43e	0.030138131
240	0xbb06222f	-0.0020467152
241	0x3e0f0c0b	0.13969438
242	0xbda7d568	-0.08195001
243	0x3d991a4b	0.07475718
244	0x39a85543	0.00032106982
245	0xbdd37b24	-0.103262216
246	0x3dc09b1f	0.09404587
247	0xbe2250a3	-0.15851073
248	0x3e1e86d4	0.1548112
249	0x3d830a07	0.06398397
250	0xbe065f3a	-0.13122264
251	0xbd86df0d	-0.06585512
252	0x3e510fec	0.2041623
253	0x3e53ba73	0.20676593
254	0x3d2aa70e	0.041663222
255	0x3e2306a5	0.15920503

encoder.4.bias f4 [10]
0	0xbd800bde	-0.062522635
1	0xbd8cd52e	-0.06876598
2	0x3d08d8f3	0.033410024
3	0xbd4e3a1b	-0.050348382
4	0x3d9b62a3	0.07587173
5	0x3e1cb0b1	0.15301777
6	0xbdf989f4	-0.121845156
7	0xbdc0b9c8	-0.09410435
8	0xbd700f4c	-0.05860834
9	0xbcc4dc9f	-0.024030982

encoder.6.weight f4 [1, 10]
0	0xbea45733	-0.32097778
1	0xbd126729	-0.035742912
2	0x3ea8ad9a	0.32944947
3	0x3e726c4f	0.23674129
4	0xbe044217	-0.12915836
5	0xbc29415c	-0.010330524
6	0x3e472b4e	0.19450113
7	0x3d2b3c65	0.041805644
8	0xbeae8323	-0.34084424
9	0xbe581a4f	-0.21103786

decoder.0.weight f4 [10, 1]
0	0x3eb79588	0.3585627
1	0xbf3e56e7	-0.7435135
2	0x3ed3d342	0.41372114
3	0x3f650757	0.89464325
4	0xbf30a442	-0.6900064
5	0xbedd64a9	-0.4324086
6	0x3ef20f3e	0.47277254
7	0x3f687335	0.9080079
8	0x3e767e9f	0.2407174
9	0xbf2340aa	-0.63770545

decoder.0.bias f4 [10]
0	0x3f7ffaee	0.99992263
1	0xbe48eab2	-0.19620779
2	0x3dd76682	0.10517599
3	0x3b4174c4	0.002951906
4	0x3e934fec	0.28771913
5	0xbefcf13e	-0.49402803
6	0xba17cdd5	-0.0005790864
7	0xbf418a35	-0.7560151
8	0xbf343aca	-0.70402205
9	0xbf4094df	-0.7522716

decoder.2.weight f4 [30, 10]
0	0x3d927f0a	0.07153137
1	0xbe2e1bc1	-0.17002775
2	0xbe2b6f19	-0.16741599
3	0x3e7f276f	0.24917386
4	0xbe19136a	-0.14948812
5	0xbd92f424	-0.071754724
6	0x3ba595e5	0.005053269
7	0xbe65a350	-0.2242558
8	0x3a6bfe77	0.0009002457
9	0x3d1af22d	0.037828613
10	0x3d829cbe	0.063775524
11	0x3dee6b72	0.11641587
12	0xbd30b249	-0.043138776
13	0xbeaa1d0f	-0.33225295
14	0x3e040d8a	0.1289579
15	0x3ea310c9	0.31848744
16	0xbe070cce	-0.13188478
17	0x3e49b8a1	0.19699337
18	0x3e8d1bb5	0.275602
19	0xbe42db30	-0.19028926
20	0xbe738042	-0.23779395
21	0xbea3d00b	-0.31994662
22	0x3d08717b	0.03331135
23	0x3e2758f1	0.16342522
24	0xbea4b8e1	-0.321723
25	0x3ea14459	0.31497458
26	0xbe596f8f	-0.21233962
27	0xbdec247e	-0.11530398
28	0x3d764f88	0.06013444
29	0xbcc6fea4	-0.024291344
30	0x3e975d2f	0.2956328
31	0xbe8c461c	-0.2739724
32	0x3e21215e	0.15735385
33	0x3db389c4	0.08766511
34	0x3d573003	0.052536022
35	0xbd1e9b36	-0.03872224
36	0x3e23319a	0.1593689
37	0xbd30e189	-0.043183837
38	0x3c2e7c12	0.010649698
39	0x3e2dbcdc	0.16966575
40	0xbcd0657f	-0.025439022
41	0x3e64d8f4	0.22348386
42	0x3db0a946	0.08626036
43	0xbe8dd3a0	-0.2770052
44	0x3daf05d3	0.08546033
45	0x3dcd293d	0.10017631
46	0x3e9ea071	0.30981782
47	0xbdfc7898	-0.12327689
48	0xbdfe4168	-0.12414819
49	0x3e71924f	0.23590969
50	0x3e25ab1d	0.16178556
51	0x3ea32201	0.3186188
52	0x3c1fb014	0.00974657
53	0x3e00a00e	0.12561056
54	0xbe7ffc04	-0.2499848
55	0x3e8ecca1	0.27890494
56	0xbdd0be83	-0.10192587
57	0xbebaeef3	-0.3651043
58	0xbe07f501	-0.13277055
59	0xbe1a6c72	-0.15080431
60	0x3e9b5848	0.3034079
61	0x3e074475	0.13209708
62	0x3ea3077b	0.31841645
63	0xbe2bb0d3	-0.16766672
64	0x3e1d13a9	0.15339531
65	0xbd64ff2a	-0.055907406
66	0xbbd640b0	-0.006538473
67	0x3c0db762	0.008649679
68	0x3c946f3d	0.018119449
69	0x3e9bc2f4	0.30422175
70	0xbce8f76f	-0.028438298
71	0xbcdc1aca	-0.026868243
72	0x3e46d693	0.19417791
73	0x3e528694	0.2055915
74	0x3de8d9b8	0.113696516
75	0x3e20292e	0.15640709
76	0x3eab150d	0.33414498
77	0x3e99c5a7	0.3003361
78	0xbd9ac0c0	-0.075562954
79	0x3e250a67	0.1611725
80	0xbd23bb55	-0.039973576
81	0xbe73818b	-0.23779885
82	0xbe8d94b1	-0.27652505
83	0x3e85431f	0.26027772
84	0xbe1063fe	-0.14100644
85	0xbdab6a70	-0.08369911
86	0xbe88d9ed	-0.26728764
87	0xbdbd87ea	-0.09254439
88	0x3eacc6bf	0.3374538
89	0xbe93e177	-0.28882954
90	0xbdf65102	-0.1202717
91	0xbcaae933	-0.020863151
92	0xbe1efe43	-0.1552668
93	0x3e4b0fd9	0.19830264
94	0x3dbddadc	0.0927026
95	0xbe17b619	-0.14815558
96	0xbe0b1ab2	-0.13584402
97	0x3dd774f4	0.10520354
98	0xbd919620	-0.07108712
99	0xbdf1bcaf	-0.11803567
100	0x3e3cfdde	0.18456218
101	0xbe338ef4	-0.17535001
102	0xbe986e73	-0.29771766
103	0xbe8bb06e	-0.27283043
104	0x3da818a4	0.08207825
105	0x3ca3c8d1	0.019993218
106	0x3e654025	0.2238775
107	0x3e9b737a	0.3036154
108	0x3d896737	0.0670914
109	0x3d75098c	0.059823558
110	0x3a78cdd9	0.0009491123
111	0xbd118e08	-0.035535842
112	0x3e431040	0.19049168
113	0x3c1db8f8	0.0096266195
114	0xbe4d0201	-0.20020296
115	0x3d8feb69	0.07027323
116	0x3d4e10ca	0.05030898
117	0xbe9839bb	-0.29731545
118	0xbe05aaa8	-0.13053381
119	0xbdeb3af7	-0.11485856
120	0xbda7e50b	-0.08197983
121	0x3e793bdb	0.2433924
122	0xbddd250d	-0.107980825
123	0x3eab4920	0.33454227
124	0x3dbe5d1c	0.09295103
125	0xbde31b89	-0.11089236
126	0xbbcabcdf	-0.006187066
127	0xbda810fd	-0.08206365
128	0xbe4bff67	-0.19921647
129	0x3dbc2fbe	0.091887936
130	0x3e579e57	0.21056496
131	0xbda07522	-0.07834841
132	0xbe3c6af5	-0.18400176
133	0xbe97d723	-0.29656324
134	0x3e535ed0	0.20641637
135	0xbd7c44e5	-0.06158914
136	0x3e297f6e	0.16552517
137	0x3e8c9ca2	0.2746325
138	0x3cc839ca	0.024441618
139	0xbdfbdf9a	-0.12298508
140	0x3e78bf7f	0.242918
141	0x3e67716b	0.2260186
142	0xbe5b8231	-0.21436383
143	0xbe975d2c	-0.29563272
144	0x3c8e0c97	0.017339988
145	0x3e282402	0.16419986
146	0xbd24fa8a	-0.040277995
147	0x3a4c93c0	0.0007803999
148	0xbe32dc25	-0.17466791
149	0xbe6c04f2	-0.23048761
150	0x3e8959e0	0.26826382
151	0x3e9a3bb7	0.30123684
152	0xbe3b4cdd	-0.1829104
153	0x3e675b58	0.22593439
154	0xbdb84c42	-0.0899892
155	0xbe8299e6	-0.2550804
156	0x3e32426e	0.17408153
157	0x3d5e7d25	0.054318566
158	0x3d6fd88f	0.058556136
159	0xbe9c61b5	-0.30543295
160	0xbe820a2b	-0.25398383
161	0x3e3f8c13	0.18705778
162	0xbda94016	-0.082641765
163	0xbe8d7bc7	-0.27633497
164	0xbd335682	-0.043783672
165	0x3c96aa27	0.018391682
166	0xbe8e5070	-0.27795744
167	0xbe749eeb	-0.23888747
168	0x3e961ab0	0.29317236
169	0x3d880b6b	0.06642803
170	0xbdae8e06	-0.085231826
171	0x3e3506f8	0.1767844
172	0xbea8ad34	-0.32944643
173	0xbe6dacee	-0.23210499
174	0x3e034752	0.12820175
175	0xbe319b49	-0.17344393
176	0xbd7d249f	-0.061802503
177	0xbeb280b4	-0.34863818
178	0xbe13b150	-0.14423108
179	0xbe04f219	-0.12982978
180	0xbd15de2e	-0.03658884
181	0x3c7b6e0c	0.015346061
182	0xbe7661c6	-0.24060735
183	0x3d8a797f	0.06761455
184	0x3d7d41d6	0.061830364
185	0x3dda9eca	0.10674818
186	0x3dd92dc4	0.10604432
187	0xbe390c74	-0.18071157
188	0x3db641ce	0.0889927
189	0x3cfa06d3	0.030520832
190	0x3de48662	0.11158444
191	0x3e889bcb	0.2668136
192	0x3cafea28	0.02147396
193	0x3d7de97e	0.061990254
194	0xbcf02ae0	-0.02931732
195	0xbe2f1045	-0.1709605
196	0x3ea36d10	0.31919146
197	0xbd72f9e8	-0.05932036
198	0xbdc20a3d	-0.09474609
199	0x3dc3bce4	0.095575124
200	0xbe89a8a9	-0.2688649
201	0x3e6a53bd	0.22883506
202	0x3e9bb2f3	0.30409965
203	0x3e3a5ea0	0.18200159
204	0x3d35daee	0.04439824
205	0xbdbf3477	-0.09336179
206	0x3de092d0	0.10965502
207	0x3e0f809d	0.14013906
208	0xbe9c877b	-0.30572113
209	0xbe8cffa0	-0.27538776
210	0xbe704e45	-0.23467357
211	0x3e665a2c	0.22495335
212	0xbdd7d9ee	-0.10539614
213	0x3e659a50	0.22422147
214	0xbd8b59ea	-0.06804259
215	0xbdd40e86	-0.103543326
216	0xbdbeacad	-0.09310279
217	0xbe4126d1	-0.18862464
218	0xbe63c53b	-0.22243206
219	0xbd212097	-0.03933772
220	0xbe9248d3	-0.28571185
221	0x3d530a79	0.05152366
222	0xbd4fef11	-0.0507651
223	0x3e42f7d0	0.19039845
224	0x3c03a855	0.008035739
225	0xbdcc1be5	-0.09966258
226	0x3e8c6c89	0.27426556
227	0x3e1a48d2	0.15066841
228	0x3e0892cd	0.1333725
229	0x3d2a0f76	0.04151865
230	0x3e4a35e9	0.19747128
231	0x3c07b922	0.008283885
232	0xbe2e4401	-0.17018129
233	0x3dcbe9f1	0.0995673
234	0x3d0e7685	0.034780998
235	0x3d850d3e	0.06496666
236	0xbd47167e	-0.048605435
237	0xbe585251	-0.21125151
238	0x3d65d14c	0.056107804
239	0xbe97d865	-0.29657283
240	0xbdb4e532	-0.08832778
241	0xbe8c7d10	-0.27439165
242	0x3e175f3e	0.14782426
243	0x3e11a2df	0.14222287
244	0xbca0b579	-0.019617783
245	0xbd303e88	-0.043028384
246	0x3e394a70	0.18094802
247	0x3e9b4641	0.30327037
248	0x3e5fe3de	0.21864268
249	0x3dbd486c	0.09242329
250	0xbd9bfe21	-0.076168306
251	0x3daad954	0.08342233
252	0xbe686d4d	-0.22697945
253	0xbdc2c81a	-0.095108226
254	0x3ea540df	0.32276055
255	0xbe709194	-0.23493034

decoder.2.bias f4 [30]
0	0x3e4c2cda	0.19938985
1	0xbc9bcbc4	-0.019018061
2	0xbcf29e36	-0.029616456
3	0xbe09ea53	-0.13468294
4	0x3ea33408	0.31875634
5	0xbe36231d	-0.17786832
6	0x3e5c9016	0.2153934
7	0x3d1a911b	0.03773604
8	0xbe4f5225	-0.2024618
9	0x3da5df8e	0.0809928
10	0xbe8ff3d3	-0.2811571
11	0xbd0e5064	-0.034744635
12	0x3d031202	0.031999595
13	0x3e9b6a18	0.3035438
14	0xbe8e1619	-0.27751234
15	0x3e6a4ab1	0.22880055
16	0x3d066ae9	0.0328168
17	0xbd835197	-0.064120464
18	0xbe876f9f	-0.26452348
19	0x3e387acf	0.18015598
20	0xbdb19e51	-0.086727746
21	0xbe99766d	-0.29973164
22	0xbe28919d	-0.16461797
23	0x3e5ffab8	0.21872985
24	0xbda33fa0	-0.0797112
25	0xbe0feb1a	-0.14054528
26	0x3d5b4f12	0.053542204
27	0xbe3d49e5	-0.1848522
28	0xbe670d09	-0.22563566
29	0xbe28ddc8	-0.16490853

decoder.4.weight f4 [60, 30]
0	0x3cfe468c	0.031039499
1	0xbe0d46bf	-0.13796519
2	0x3e262489	0.16224875
3	0xbb1b82ea	-0.0023729154
4	0x3e0ece99	0.13945998
5	0xbc398658	-0.011323534
6	0x3c7a8ee1	0.015292854
7	0x3e278c59	0.16362132
8	0xbdac8f35	-0.08425752
9	0xbc771dca	-0.015082786
10	0xbe37b22a	-0.17939058
11	0x3d4ea7dc	0.050453052
12	0xbdb79613	-0.08964171
13	0xbd435d2f	-0.04769629
14	0x3db74074	0.0894784
15	0x3c9125e6	0.017718267
16	0xbd73ba48	-0.059503824
17	0xbdc61c23	-0.096733354
18	0xbe19cb60	-0.15018988
19	0xbd016efb	-0.03159998
20	0x3e3cdbef	0.18443273
21	0xbe08690c	-0.13321322
22	0x3de97090	0.11398423
23	0x3e2d8351	0.16944624
24	0xbe03bc60	-0.12864828
25	0xbd30943c	-0.043110117
26	0xbde517a3	-0.11186149
27	0x3d9b4cb1	0.07582987
28	0xbe01607b	-0.1263446
29	0x3d8a1912	0.06743063
30	0xbd2a515b	-0.041581493
31	0xbdac2e34	-0.0840725
32	0xbdbff489	-0.09372813
33	0xbe3467fe	-0.17617795
34	0xbe10e1f3	-0.14148693
35	0x3c680efb	0.014163728
36	0xbe2918b1	-0.16513325
37	0x3d5b0dc8	0.05347994
38	0xbdf7f9e0	-0.12108207
39	0xbe01dae2	-0.12681153
40	0xbe153b38	-0.14573371
41	0x3d492c05	0.049114246
42	0x3cc67ada	0.024228502
43	0x3cb74f9f	0.022376833
44	0x3df4ca87	0.119526915
45	0xbd3ade0f	-0.045621928
46	0xbdaf9f32	-0.08575286
47	0x3cfeb707	0.031093134
48	0x3e09163c	0.13387388
49	0xbd5cac09	-0.053875003
50	0xbcba03c3	-0.022706872
51	0xbd34d438	-0.0441477
52	0xbc7b8114	-0.015350599
53	0xbe2af9aa	-0.16696802
54	0x3de66df2	0.11251439
55	0x3e355b90	0.1771071
56	0x3e0458a5	0.1292444
57	0x3cff4754	0.031161942
58	0x3d7a95f4	0.061178163
59	0xbdcc7b44	-0.099844486
60	0x3e1d9483	0.15388684
61	0x3d706977	0.05869433
62	0xbd5c8a8d	-0.05384307
63	0xbe15c290	-0.14625001
64	0x3db55ed8	0.08855981
65	0x3d05ce0b	0.0326672
66	0x3e0c3128	0.13690627
67	0xbd2c305d	-0.04203831
68	0x3d88d455	0.06681124
69	0x3e0ebe75	0.13939841
70	0x3bad2309	0.0052837175
71	0xbe16405d	-0.1467299
72	0x3de94e53	0.11391892
73	0x3d5e531a	0.05427847
74	0x3c823db5	0.015898565
75	0x3c3269a2	0.010889443
76	0x3de1ad81	0.11019421
77	0xbd768c9d	-0.060192693
78	0x3e032edf	0.12810849
79	0x3e185de4	0.14879566
80	0x3da6a179	0.08136267
81	0x3d02f2c2	0.031969793
82	0x3d1567d3	0.036475968
83	0xbd93b732	-0.07212676
84	0x3dc00326	0.093756005
85	0x3e1411f5	0.14459975
86	0x3d950c27	0.072777085
87	0xbe0cba34	-0.13742906
88	0x3da2c176	0.07947056
89	0xbd8bc26c	-0.068241924
90	0x3d83d714	0.06437507
91	0x3d993cb8	0.07482284
92	0x3daa1a73	0.08305826
93	0x3bcf458f	0.0063254307
94	0xbcb6e769	-0.022327142
95	0xbd050ee8	-0.03248492
96	0x3d9aa478	0.07550901
97	0x3d48958c	0.048970744
98	0x3dacc464	0.08435896
99	0xbd401fce	-0.04690533
100	0xbd9301ef	-0.07178103
101	0xbdf97a75	-0.1218156
102	0x3e5bec73	0.21476917
103	0x3de772c0	0.11301184
104	0xbc86789f	-0.016414938
105	0xbc7a495d	-0.01527628
106	0xbd0dfbda	-0.034664012
107	0x3e537b8e	0.20652601
108	0xbe45f1a8	-0.19330466
109	0xbe027770	-0.12740874
110	0xbc06c8e6	-0.008226609
111	0x3e119a48	0.1421901
112	0x3cca1704	0.024669178
113	0xbe137673	-0.14400654
114	0xbe5ff663	-0.21871333
115	0x3cdd6eb1	0.02703032
116	0xbd9fd004	-0.07803348
117	0xbdfd0e0a	-0.12356193
118	0x3d6b39b4	0.057428077
119	0x3e15699c	0.14591068
120	0x3db662ea	0.08905585
121	0x3db35cab	0.087579094
122	0xbdf585b8	-0.119883955
123	0x3dd627e2	0.10456826
124	0xbd8b9fdd	-0.06817601
125	0x3e4b9dda	0.19884434
126	0x3e214c52	0.1575177
127	0xbd6bce01	-0.057569508
128	0xbd7db48c	-0.06193976
129	0xbd9c993f	-0.07646417
130	0xbd9f333e	-0.077734455
131	0x3dddcaf7	0.10829728
132	0xbddb76ea	-0.107160404
133	0xbdc89a6a	-0.09795077
134	0x3e078981	0.13236047
135	0x3bc8e979	0.0061313477
136	0x3e21d851	0.15805174
137	0x3e638625	0.22219141
138	0xbdcd6448	-0.10028893
139	0x3e211667	0.15731202
140	0x3d019c28	0.031643063
141	0xbc1b6da6	-0.009486591
142	0x3e088c46	0.1333476
143	0xbe1d3479	-0.15352048
144	0x3dea6e16	0.114467785
145	0xbe16f1fd	-0.14740749
146	0xbdcb9f51	-0.099424966
147	0x3d3bc837	0.045845237
148	0xbe4a6251	-0.19764067
149	0xbde30c8d	-0.11086378
150	0x3dbb795d	0.091540076
151	0xbdb1a271	-0.08673561
152	0xbe42c5be	-0.19020745
153	0x3e039d8d	0.1285307
154	0xbdf7cee3	-0.121000074
155	0x3da120a9	0.078675576
156	0xbe0e3eaf	-0.138911
157	0xbe4659f2	-0.19370249
158	0xbe0882eb	-0.13331191
159	0xbd995f43	-0.07488873
160	0xbe1c543d	-0.1526651
161	0x3e3766ff	0.17910384
162	0xbdcf676f	-0.1012715
163	0x3e420023	0.18945365
164	0x3d7ec972	0.062203832
165	0x3e020b80	0.126997
166	0xbdc59704	-0.096479446
167	0xbd6cdecc	-0.057829663
168	0x3dd3af41	0.103361614
169	0xbdeb64dc	-0.11493847
170	0x3e0e035e	0.13868472
171	0x3de54ba2	0.111960664
172	0xbe0dd1a5	-0.13849504
173	0x3e4df2d6	0.20112166
174	0x3cf788f3	0.03021667
175	0xbda3b51f	-0.079935305
176	0x3c7341f4	0.014847267
177	0xbe51fe1b	-0.2050709
178	0x3e0cab86	0.13737306
179	0x3e084570	0.13307738
180	0x3db71fe3	0.08941629
181	0x3dc882fd	0.09790609
182	0xbd9c8c85	-0.076439895
183	0xbd916c48	-0.07100731
184	0x3d7b201f	0.06130993
185	0x3dc934ff	0.09824561
186	0x3e670496	0.22560343
187	0xbe27e987	-0.16397677
188	0xbdaa528b	-0.08316525
189	0xbdb4169c	-0.08793375
190	0xbca06bb8	-0.019582614
191	0x3e3b84d2	0.18312386
192	0x3d551f96	0.052032076
193	0x3e41074b	0.18850438
194	0xbd9d232e	-0.076727256
195	0x3d324ff5	0.043533284
196	0x3d2eabab	0.042644184
197	0xbda6c63f	-0.08143281
198	0x3d17f942	0.037102945
199	0x3db485fd	0.08814619
200	0x3d8d3324	0.0689452
201	0x3d3c5adb	0.045985084
202	0xbdb343af	-0.08753144
203	0x3e2ec244	0.17066294
204	0xbe3d84c3	-0.18507676
205	0x3e22a3a4	0.15882736
206	0x3d821718	0.06352061
207	0x3df4d3ee	0.11954485
208	0x3db48de9	0.0881613
209	0xbccaf22d	-0.024773682
210	0x3dc72f83	0.09725859
211	0x3d52ab19	0.051432703
212	0xbdd577a5	-0.10423211
213	0x3d19b0d3	0.03752215
214	0x3d8694c0	0.065713406
215	0xbe2d6003	-0.16931157
216	0x3df70945	0.12062315
217	0x3e1f7193	0.15570669
218	0xbd46dd65	-0.048550982
219	0xbe3e130e	-0.18561956
220	0x3e3c12a1	0.18366481
221	0xbd50374b	-0.05083398
222	0x3e02dea2	0.1278024
223	0xbd9c56d5	-0.076337494
224	0xbe3cd819	-0.1844181
225	0xbe28db27	-0.1648985
226	0xbb84affa	-0.0040492984
227	0xbe08e8aa	-0.13370004
228	0xbd397f27	-0.045287278
229	0xbe1b3a6f	-0.1515901
230	0xbe027091	-0.12738253
231	0xbdfdb922	-0.12388827
232	0x3d3f3155	0.046677906
233	0xbdfd0d31	-0.12356032
234	0x3de32126	0.11090307
235	0x3c609a23	0.013708624
236	0x3e3bd315	0.1834224
237	0x3db2d1c1	0.08731414
238	0x3d4ca9fa	0.04996679
239	0x3e0813e0	0.13288832
240	0x3d57b8a0	0.052666306
241	0xbe113895	-0.1418174
242	0xbd213610	-0.0393582
243	0xbe095b1e	-0.13413665
244	0x3dedc75e	0.11610292
245	0xbd2f7a5e	-0.042841308
246	0x3e1f4ce5	0.15556677
247	0xbc683946	-0.014173811
248	0xbe36fc0f	-0.1786959
249	0xbe25a80c	-0.16177386
250	0xbe275dd6	-0.1634439
251	0x3cb1067c	0.021609537
252	0xbae1e5fd	-0.001723468
253	0x3debef0e	0.115202054
254	0xbdcaf759	-0.09910459
255	0x3e094393	0.13404684

decoder.4.bias f4 [60]
0	0xbdbb8789	-0.09156711
1	0x3de599d8	0.11210984
2	0x3e25a008	0.16174328
3	0x3dbb1362	0.09134556
4	0x3e235265	0.159494
5	0xbdf755c0	-0.120769024
6	0x3d997e76	0.07494824
7	0x3d94f342	0.0727296
8	0xbe1d2fd5	-0.15350278
9	0x3cb62cfc	0.022238247
10	0x3dedf1ae	0.11618362
11	0x3d3fc210	0.04681593
12	0x3e458990	0.19290757
13	0xbddb7b5a	-0.10716887
14	0xbdaf4590	-0.0855819
15	0x3e0f2449	0.13978685
16	0xbdfe2fe3	-0.124114774
17	0xbe0b82fd	-0.13624187
18	0xbe256464	-0.16151577
19	0x3e1e4e02	0.15459445
20	0x3e499f66	0.19689712
21	0x3e088a49	0.13334002
22	0xbd91255e	-0.07087205
23	0xbca977ec	-0.020687066
24	0x3e3bf206	0.18354043
25	0x3d1707fd	0.036872853
26	0x3d2b0cf8	0.041760415
27	0x3e1d6259	0.15369548
28	0x3e02dda2	0.12779859
29	0x3d4f33c0	0.050586462
30	0xbddc802f	-0.107666366
31	0xbe1a73eb	-0.15083282
32	0xbd0e6d9f	-0.03477251
33	0xbca5bdfb	-0.020232191
34	0x3e11ca9d	0.14237447
35	0xbdb942de	-0.09045957
36	0xbd9cc6cd	-0.07655106
37	0xbd006f1a	-0.031355955
38	0xbdb02db5	-0.08602468
39	0x3d5af3f0	0.053455293
40	0xbd3a1160	-0.045426726
41	0x3da39730	0.07987821
42	0x3e0c08e5	0.13675268
43	0x3e2dd528	0.16975844
44	0xbb421aa0	-0.002961792
45	0xbdc476ad	-0.09592948
46	0x3da70c35	0.08156625
47	0x3e101e80	0.14074135
48	0xbcd06993	-0.025440967
49	0x3d0bd0a3	0.03413452
50	0x3da5054f	0.08057653
51	0xbdef8394	-0.116950184
52	0xbdc63232	-0.09677543
53	0xbe03cf89	-0.12872137
54	0x3cd8a42f	0.026445476
55	0x3db5006e	0.088379726
56	0x3e358144	0.17725092
57	0x3d02f799	0.03197441
58	0xbe264b2e	-0.16239616
59	0x3dbb295d	0.09138749

decoder.6.weight f4 [118, 60]
0	0x3d344ef2	0.0440206
1	0x3dbdd470	0.09269035
2	0x3d748556	0.05969747
3	0xba0cc770	-0.00053702947
4	0xbdc08ec1	-0.09402228
5	0xbb2d1488	-0.0026409943
6	0xbce0c53c	-0.027437799
7	0x3d9f0163	0.07763936
8	0x3c77493f	0.015093147
9	0xbd674e40	-0.05647111
10	0xbe316cd5	-0.17326672
11	0xbd81340d	-0.06308756
12	0xbd04b200	-0.032396317
13	0x3d0179ae	0.031610183
14	0x3e1bc7bd	0.15212913
15	0xbdd8ae11	-0.105800755
16	0x3c97ccf7	0.018530352
17	0xbc2fdb2d	-0.010733408
18	0x3e1f04c7	0.15529166
19	0xbd05d356	-0.03267225
20	0xbe2a621c	-0.16638988
21	0x3d3a11fb	0.045427304
22	0x3be87f65	0.0070952647
23	0x3dd52d9e	0.104090914
24	0xbe2af6d8	-0.16695726
25	0xbe328f9c	-0.17437595
26	0x3d2a2f4e	0.04154902
27	0xbe18b066	-0.1491104
28	0xbd18255a	-0.037144996
29	0xbd0ac4f5	-0.03387924
30	0x3d9a3bde	0.0753095
31	0x3d3f2b6e	0.046672277
32	0xbd60eaeb	-0.054911535
33	0xbc4edac6	-0.012625402
34	0xbd110cb4	-0.035412505
35	0xbda3cce5	-0.07998065
36	0xbde35342	-0.110998645
37	0xbd42e2f3	-0.047579717
38	0x3cd8eafd	0.026479239
39	0xbc3bba90	-0.011458054
40	0xbd48a121	-0.04898179
41	0x3c2da5f2	0.0105986465
42	0xbde10d0f	-0.10988819
43	0xbddd1a82	-0.107960716
44	0x3d9aa101	0.0755024
45	0x3e11b112	0.14227703
46	0xbdf7aeee	-0.12093912
47	0xbca6fc49	-0.02038397
48	0x3d4d2f52	0.050093956
49	0x3e0e072c	0.13869923
50	0x3d271154	0.04078801
51	0xbda9e49d	-0.08295558
52	0xbe19d39b	-0.15022127
53	0x3b35b6b9	0.002772732
54	0x3c83b561	0.0160777
55	0x3b8b600c	0.004253393
56	0x3d81d182	0.063387886
57	0xbce54e5f	-0.027991472
58	0xbdb14158	-0.086550415
59	0xbe07ef73	-0.13274936
60	0x3e114da1	0.1418977
61	0xbddde833	-0.10835304
62	0x3b8b9463	0.0042596324
63	0xbdcbb7fc	-0.099472016
64	0x3dc5ccf9	0.09658236
65	0x3c97c7f5	0.018527964
66	0x3e043f00	0.12914658
67	0xbe07cefb	-0.1326255
68	0x3da83733	0.082136534
69	0x3de885a8	0.11353618
70	0xbe1836ed	-0.14864703
71	0x3cac2682	0.021014456
72	0x3c4ac5a8	0.0123762265
73	0xbdc50ab7	-0.09621184
74	0xbcf641c5	-0.030060658
75	0xbcc191ee	-0.023629155
76	0x3d121907	0.0356684
77	0x3d01623d	0.031587828
78	0xbd0d8227	-0.03454795
79	0x3d9afcdf	0.075677626
80	0x3d8bad43	0.068201564
81	0x3dbaea8e	0.09126769
82	0x3cf97f9a	0.030456353
83	0xbe06ee7b	-0.1317691
84	0x3dc99b3c	0.09844062
85	0xbd9ff66c	-0.07810673
86	0xbd08e629	-0.033422623
87	0x3d50d1f9	0.050981496
88	0x3d1dd462	0.038532622
89	0xbdebd7ca	-0.11515768
90	0xbda0bb03	-0.0784817
91	0x3ce4955a	0.027903248
92	0x3d7ddeec	0.061980173
93	0xbd84bd14	-0.06481376
94	0x3e0154e9	0.12630047
95	0x3d9b5e69	0.07586367
96	0xbe1c8036	-0.15283284
97	0xbd52a6c9	-0.05142859
98	0x3da41947	0.08012634
99	0xbcdc3fce	-0.026885893
100	0xbd9a8d9a	-0.075465396
101	0xbcccc6df	-0.024997173
102	0x3cce7185	0.025200615
103	0xbd02faa1	-0.0319773
104	0xbd8491d3	-0.06473126
105	0x3cadf918	0.021236941
106	0x3d7f9c71	0.062405054
107	0x3df4011a	0.119142726
108	0x3d54cc0f	0.051952418
109	0x3d31376d	0.04326575
110	0x3d5034b6	0.05083152
111	0x3e0542da	0.13013783
112	0xbe0964ef	-0.1341741
113	0xbd15e6fe	-0.036597244
114	0xbd8a3abf	-0.06749486
115	0xbd38a380	-0.0450778
116	0x3db35c38	0.08757824
117	0x3dd01dcd	0.10161934
118	0xbda34477	-0.07972043
119	0xbd76d910	-0.0602656
120	0x3d5b21de	0.053499095
121	0x3d7e3f5d	0.062072147
122	0x3d5893a0	0.05287516
123	0x3d1c2b7d	0.03812741
124	0xbdc2a044	-0.095032245
125	0x3d919b0f	0.07109653
126	0xbde14827	-0.1100009
127	0xbd51bae2	-0.051203616
128	0xba252e5b	-0.0006301158
129	0xbb152a08	-0.0022760648
130	0x3c8824f8	0.01661919
131	0xbde71e7a	-0.1128511
132	0x3e033abd	0.12815376
133	0xbda47723	-0.08030536
134	0x3bb40b21	0.0054944907
135	0x3b8e9fce	0.0043525463
136	0xbb3ff8cf	-0.0029292589
137	0xbd087fe1	-0.03332508
138	0x3ca24af5	0.019811133
139	0x3d1fcc12	0.039012976
140	0xbdad2384	-0.0845404
141	0x3dbf6670	0.0934571
142	0xbca4429a	-0.02005129
143	0x3dd91f73	0.106017016
144	0xbdcc45e1	-0.09974266
145	0x3e06bd14	0.13158065
146	0x3da8037c	0.082037896
147	0xbcf145b8	-0.02945219
148	0x3c8d8f86	0.017280351
149	0x3da13bf5	0.07872764
150	0xbddbd8c8	-0.10734707
151	0x3daf98d8	0.085740745
152	0x3d6e4e63	0.058180224
153	0xbd77e77b	-0.06052349
154	0x3d80363a	0.06260343
155	0x3d4fdae3	0.050745856
156	0x3cdfa44a	0.027300019
157	0x3dd3918b	0.103304945
158	0xbde0c361	-0.109747656
159	0xbcc475eb	-0.023982009
160	0x3c6bad69	0.014384606
161	0x3da7e4d4	0.081979424
162	0x3da5aa90	0.08089173
163	0xbc701294	-0.014652867
164	0xbd9c60f9	-0.076356836
165	0xbe065612	-0.1311877
166	0x3bff211e	0.0077859303
167	0xbd2ae22d	-0.041719604
168	0xbd0bb149	-0.03410462
169	0x3cca4710	0.024692088
170	0x3d9f09a3	0.0776551
171	0x3d4c395b	0.049859386
172	0x3d19cbf7	0.03754803
173	0xbd04b769	-0.032401476
174	0x3d54d85d	0.051964153
175	0x3d84b4c5	0.064797916
176	0xbd63aa54	-0.05558236
177	0xbdf01861	-0.117234
178	0x3c9fd101	0.01950884
179	0xbd4ac447	-0.04950359
180	0x3ddefc7d	0.10888002
181	0xbdd855de	-0.10563253
182	0xbd8ec1dd	-0.0697057
183	0x3d29d998	0.04146728
184	0xbdbbe6f9	-0.09174914
185	0xbc19917f	-0.009373068
186	0x3d82d332	0.063879386
187	0xbda0296f	-0.07820403
188	0x3d44cca4	0.048046723
189	0x3dd9b498	0.10630149
190	0xbdd19352	-0.10233177
191	0x3cec80d3	0.028870022
192	0xbda5af95	-0.0809013
193	0xbd9ccd5b	-0.07656356
194	0xbdf1041e	-0.117683634
195	0x3d6cb3c9	0.057788644
196	0x3d9e3458	0.077248275
197	0xbd9bf2a5	-0.0761464
198	0x3dba87b3	0.09107914
199	0xbd78bc76	-0.060726605
200	0x3d6372b1	0.0555293
201	0xbdd4bcfe	-0.1038761
202	0x3e056193	0.13025503
203	0xbde0943a	-0.10965772
204	0x3d6b8b1d	0.057505716
205	0x3d4b6509	0.0496569
206	0x3d1f6359	0.038913105
207	0x3defedbf	0.11715268
208	0x3d66d67e	0.0563569
209	0x3d9733b3	0.07382908
210	0xbde89d86	-0.1135817
211	0xbd9f7132	-0.07785262
212	0xbc556943	-0.013025585
213	0x3e07f08e	0.13275358
214	0x3dbb31d6	0.09140365
215	0xbe047e5c	-0.12938827
216	0x3d8dc196	0.06921689
217	0xb91eff80	-0.00015163235
218	0xbb71bdea	-0.003688688
219	0xbd0264f8	-0.031834573
220	0x3d6cec65	0.05784263
221	0xbd3b721d	-0.045763124
222	0x3d4ceb1d	0.05002891
223	0xbdb0fa5b	-0.086415015
224	0xbbbbdd5c	-0.005733175
225	0x3d28e982	0.041238315
226	0xbd16d5ae	-0.036824875
227	0x3df3cc82	0.11904241
228	0xbdc66220	-0.096866846
229	0x3d5e7f7e	0.054320805
230	0x3dbba2f0	0.09161937
231	0xbcd1b8a7	-0.025600744
232	0x3d410602	0.04712487
233	0xbdf381bf	-0.118899815
234	0xbd4591cd	-0.04823475
235	0xbd9853b5	-0.07437841
236	0x3d1d439c	0.038394555
237	0xbd38eeeb	-0.045149725
238	0xbe02721f	-0.12738846
239	0xbe01b3f0	-0.12666297
240	0xbbd1abc2	-0.006398649
241	0x3dd895c5	0.10575441
242	0x3dcfad4b	0.10140475
243	0xbcfd6c59	-0.030935453
244	0xbd29c7c5	-0.04145028
245	0xbdb4a120	-0.08819795
246	0x3dbfdd17	0.093683414
247	0xbdc180de	-0.094484076
248	0xbcb7786d	-0.02239629
249	0xbd8b354f	-0.06797277
250	0xbe12b851	-0.14328124
251	0x3ceb26b1	0.028704973
252	0xbdbd59b4	-0.09245625
253	0xbcea4bf3	-0.028600669
254	0x3d41236c	0.04715292
255	0x3d6db37b	0.058032494
