Baseline-models/DAGMM/DAGMM-ROAD/no--dagmm/models/39_194_dagmm.pth (torch, 82200 bytes, 22 tensors)

phi f4 [4]
0.02094043 0.018257443 0.9432654 0.017536804
00000000: 448b ab3c a290 953c d779 713f 58a9 8f3c

mu f4 [4, 3]
0.40047404 1.3011422 -0.026487196 0.41277385 1.2930402 -0.01673665 -0.06510219 1.5960833
-0.39273316 0.4290201 1.2823927 -0.0038680742
00000000: ef0a cd3e d48b a63f adfb d8bc 1857 d33e
00000010: 5782 a53f 4d1b 89bc 4c54 85bd 754c cc3f
00000020: 5214 c9be 86a8 db3e 7225 a43f 847f 7dbb

cov f4 [4, 3, 3]
0.756833 -0.4785536 0.59509873 -0.4785536 0.30276766 -0.3763359 0.59509873 -0.3763359
0.4679438 0.754315 -0.4768293 0.593081 -0.4768293 0.30159938 -0.37495902 0.593081
-0.37495902 0.4663285 0.6035282 -0.38164514 0.47452694 -0.38164514 0.24146847 -0.30011213
0.47452694 -0.30011213 0.37311587 0.74922657 -0.47362316 0.58906466 -0.47362316 0.29959595
-0.3724322 0.5890646 -0.3724322 0.46315905
00000000: cfbf 413f fa04 f5be 6458 183f fa04 f5be
00000010: 5d04 9b3e 19af c0be 6458 183f 19af c0be
00000020: 5496 ef3e ca1a 413f f822 f4be 28d4 173f
00000030: f822 f4be 3c6b 9a3e a1fa bfbe 28d4 173f
00000040: a1fa bfbe 9cc2 ee3e d380 1a3f fe66 c3be
00000050: 32f5 f23e fe66 c3be 8343 773e 4ca8 99be
00000060: 32f5 f23e 4ca8 99be 0b09 bf3e 50cd 3f3f
00000070: bc7e f2be f1cc 163f bc7e f2be a464 993e
00000080: 6faf bebe f0cc 163f 6faf bebe 2f23 ed3e

encoder.0.weight f4 [60, 118]
-0.031246066 0.093414836 0.028486798 0.004457786 0.08680785 -0.020058276 0.034825783 0.06461813
-0.07409625 0.077617526 0.050476518 0.017514883 0.060459945 0.060713287 -0.06337069 -0.03875418
0.09741544 -0.055352863 -0.008163187 -0.06459103 -0.010801837 -0.02699144 0.039336406 -0.038057107
0.09460532 0.0683659 0.10276082 -0.020910205 -0.042915083 -0.076770365 -0.08809253 -0.01257434
0.070081174 0.04600957 -0.03146992 0.067263156 -0.008060495 -0.04266158 -0.00046783348 -0.049247127
0.04492267 0.053980134 0.026085481 0.016102836 -0.02204945 0.028191129 -0.0676875 -0.018601052
-0.03885091 -0.07608633 -0.019731097 -0.0132979145 -0.009822497 -0.0074838214 0.011168688 -0.073433965
-0.04301797 0.0049180696 0.0038967894 -0.0037330613 -0.0062211454 -0.024400327 0.09817685 0.03746278
0.09600926 0.095843114 0.0676916 -0.05986317 0.05476956 0.09337631 0.08424438 0.036173705
0.06333008 -0.043696627 0.045522146 -0.07775805 -0.02563552 -0.024006743 -0.08172403 0.00571972
-0.01921846 0.027891504 -0.040702686 -0.007157987 0.06759462 -0.006963663 -0.080212146 0.02248485
-0.09413315 0.08623664 0.0033701032 0.014766392 -0.062402762 0.024520097 0.040372834 0.08065401
0.032042176 0.00014427304 0.061863378 -0.04971272 0.055556692 0.06803835 -0.04147573 -0.03509937
-0.0060558673 0.04171217 0.0122809755 -0.059567444 0.042384304 0.022991857 -0.045856442 0.022277823
-0.027557148 -0.055790626 0.07674979 -0.007799014 0.051862404 -0.009094148 -0.03606564 0.071086705
0.093141496 -0.0011359872 -0.0048427694 -0.048681688 -0.062997535 0.054172013 -0.002813999 0.06859036
0.06694791 0.045643944 0.004883254 0.053248208 -0.024367705 -0.022961704 0.062451318 -0.03134053
0.071974404 -0.014906682 0.056562256 0.0769697 0.025259387 -0.022500219 0.031437017 -0.049460225
-0.03183579 -0.089891255 0.07944007 -0.05949824 0.016860891 0.01978342 0.09328051 0.028418394
0.03428222 -0.042952042 0.055627044 0.09786787 -0.05050622 -0.005325174 -0.08256965 0.02731206
0.02734501 -0.016788604 -0.0045653917 -0.012388403 -0.009522155 0.060298894 0.09080375 0.08921861
-0.014178554 0.020371743 -0.05426817 0.06504575 -0.059697513 0.049246706 -0.023321653 0.07756195
0.09253023 0.0012582213 0.08877542 -0.012188645 0.076449245 0.020864725 0.09651922 0.071485825
-0.00072490476 0.029479604 0.017641764 -0.029335152 -0.034187153 -0.022369426 0.058508206 0.0692812
0.07886459 -0.03245747 -0.004058472 0.06592307 0.027383713 0.013790881 0.009387335 0.022524605
-0.062153917 -0.074363664 -0.073418975 0.04495891 -0.009508186 -0.14618978 -0.007670592 -0.019997567
0.056088943 0.0055286577 -0.07365774 0.07036608 -0.026915653 -0.03908978 -0.05147214 -0.06191109
-0.027522838 -0.08810694 -0.021103477 -0.044344235 0.12302782 -0.02522777 0.08643233 -0.04855785
0.019418532 0.039949037 -0.02455542 -0.10629534 -0.022031406 0.034706652 -0.036355894 0.014262661
0.020610861 0.106210686 -0.042068556 -0.01726235 -0.00300407 -0.064678326 0.0075840116 -0.05321819
0.036370676 -0.10832975 -0.09472691 0.02838515 0.07527732 -0.024657898 -0.014308275 -0.0039462396
0.05593239 0.025895357 0.008236662 0.048747282 0.007434811 0.01520288 -0.013464833 0.06648131
00000000: c0f7 ffbc 4750 bf3d 255d e93c 9f12 923b
00000010: 50c8 b13d 4151 a4bc 7ba5 0e3d 8356 843d
00000020: c6bf 97bd f0f5 9e3d 77c0 4e3d 5f7b 8f3c
00000030: d9a4 773d 7fae 783d 7ec8 81bd b4bc 1ebd
00000040: bf81 c73d afb9 62bd e3be 05bc 4d48 84bd
00000050: 30fa 30bc 271d ddbc 361f 213d c5e1 1bbd
00000060: 6fc0 c13d 6c03 8c3d 4474 d23d e14b abbc
00000070: bac7 2fbd c839 9dbd db69 b4bd 9b04 4ebc
00000080: b886 8f3d 8874 3c3d 9ae6 00bd 44c1 893d
00000090: 2b10 04bc e9bd 2ebd 8c47 f5b9 5bb7 49bd
000000a0: d500 383d 461a 5d3d 38b1 d53c 18ea 833c
000000b0: 0ca1 b4bc 15f1 e63c be9f 8abd 3c61 98bc
000000c0: 2222 1fbd 26d3 9bbd 1ca3 a1bc 7fdf 59bc
000000d0: 8aee 20bc d83a f5bb dffc 363c 8c64 96bd
000000e0: 9c33 30bd c227 a13b 4761 7f3b 60a6 74bb
000000f0: c0da cbbb 32e3 c7bc f210 c93d 9272 193d
00000100: 81a0 c43d 6549 c43d e5a1 8a3d 1533 75bd
00000110: 0c56 603d 143c bf3d 5188 ac3d e12a 143d
00000120: 33b3 813d 3cfb 32bd 6e75 3a3d 9d3f 9fbd
00000130: 9501 d2bc caa9 c4bc ee5e a7bd 7d6c bb3b
00000140: 0870 9dbc b97c e43c dcb7 26bd 8c8d eabb
00000150: 0c6f 8a3d 702f e4bb 4446 a4bd 2632 b83c
00000160: e2c8 c0bd d69c b03d f3dc 5c3b bdee 713c
00000170: 0a9a 7fbd 5fde c83c fc5d 253d ee2d a53d
00000180: a83e 033d 0048 1739 7464 7d3d 919f 4bbd
00000190: 6a8f 633d b157 8b3d 74e2 29bd 5bc4 0fbd
000001a0: 4c70 c6bb 61da 2a3d 2536 493c fefc 73bd
000001b0: 2a9b 2d3d 6b59 bc3c f7d3 3bbd fb7f b63c
000001c0: 87bf e1bc b684 64bd fe2e 9d3d df8e ffbb
000001d0: ac6d 543d 9fff 14bc 91b9 13bd e895 913d
000001e0: f8c0 be3d 68e5 94ba 18b0 9ebb 7366 47bd
000001f0: da04 81bd 79e3 5d3d 126b 38bb 1a79 8c3d
00000200: fc1b 893d 25f5 3a3d b403 a03b cb1a 5a3d
00000210: c89e c7bc 2f1a bcbc f4cc 7f3d ed5e 00bd
00000220: 5167 933d 283b 74bc d3ad 673d 4aa2 9d3d
00000230: c6ec ce3c 6152 b8bc 1ac4 003d ce96 4abd
00000240: 3f66 02bd e818 b8bd 7ab1 a23d 6db4 73bd
00000250: da1f 8a3c d710 a23c da09 bf3d b1cd e83c
00000260: 836b 0c3d 7bee 2fbd 2fd9 633d f36e c83d
00000270: 9cdf 4ebd cc7e aebb 471a a9bd 8bbd df3c
00000280: a402 e03c 4188 89bc 4899 95bb baf8 4abc
00000290: d002 1cbc f9fb 763d 51f7 b93d 3fb8 b63d
000002a0: 2a4d 68bc a4e2 a63c 4d48 5ebd b536 853d
000002b0: 6185 74bd eab6 493d 0d0d bfbc cdd8 9e3d
000002c0: 7d80 bd3d e7ea a43a e3cf b53d e2b2 47bc
000002d0: 6c91 9c3d 80ec aa3c deab c53d 2967 923d
000002e0: 8907 3eba 367f f13c 7685 903c 4650 f0bc
000002f0: d407 0cbd 1640 b7bc 4da6 6f3d 4de3 8d3d
00000300: c283 a13d 20f2 04bd eefc 84bb ad02 873d
00000310: cf53 e03c 26f3 613c 56cd 193c 8585 b83c
00000320: 1b95 7ebd fa4b 98bd b05c 96bd d626 383d
00000330: 39c8 1bbc c6b2 15be 9759 fbbb f0d1 a3bc
00000340: 85bd 653d be29 b53b dfd9 96bd 171c 903d
00000350: 377e dcbc 9b1c 20bd 73d4 52bd 7c96 7dbd
00000360: 9377 e1bc 6971 b4bd 33e1 acbc 4da2 35bd
00000370: 02f6 fb3d 78aa cebc 6f03 b13d 99e4 46bd
00000380: 9d13 9f3c 9aa1 233d 7328 c9bc 5fb1 d9bd
00000390: 357b b4bc 9028 0e3d ebe9 14bd f0ad 693c
000003a0: 1cd8 a83c fd84 d93d 1450 2cbd c669 8dbc
000003b0: eedf 44bb 1276 84bd 4d83 f83b 51fb 59bd
000003c0: 6bf9 143d fddb ddbd 2f00 c2bd f987 e83c
000003d0: ff2a 9a3d 5cff c9bc 416d 6abc 754f 81bb
000003e0: 5d19 653d 8022 d43c 10f3 063c 3bab 473d
000003f0: b79f f33b 8015 793c 9a9b 5cbc 5a27 883d

encoder.0.bias f4 [60]
0.027753256 0.08581111 -0.0003663593 0.024930138 -0.067325205 0.035269886 -0.0973431 -0.033301063
0.056109995 0.070516154 -0.014662968 -0.03848163 -0.04538562 0.060994443 -0.033099167 -0.069542944
-0.009571812 0.07044621 -0.049000245 0.13514525 -0.03360497 0.054631818 -0.12303247 -0.01705552
0.023884866 0.008108981 0.048017483 -0.03560259 -0.021631856 0.087952994 0.042408526 -0.021563258
0.07151732 -0.07378103 0.012399975 -0.08309921 0.077761516 0.12071705 -0.06840838 0.0005115061
-0.056595724 -0.022697078 0.026782906 -0.009870098 -0.043828834 -0.027492125 0.035111543 -0.030106137
-0.03606932 -0.023523506 -0.040104795 -0.041088924 -0.07524358 -0.04409158 -0.014542816 -0.010064125
0.033529416 0.0010944254 -0.024402691 0.06353716
00000000: cc5a e33c bcbd af3d ea13 c0b9 4a3a cc3c
00000010: cce1 89bd 2877 103d d25b c7bd b266 08bd
00000020: 98d3 653d c66a 903d f23c 70bc ea9e 1dbd
00000030: 46e6 39bd 4fd5 793d fe92 07bd 886c 8ebd
00000040: 17d3 1cbc 1a46 903d 7bb4 48bd 8463 0a3e
00000050: 5da5 09bd 9dc5 5f3d 73f8 fbbd 05b8 8bbc
00000060: 32aa c33c 88db 043c fbad 443d 05d4 11bd
00000070: 4a35 b1bc b320 b43d 90b4 2d3d 6ea5 b0bc
00000080: ac77 923d 821a 97bd 4429 4b3c eb2f aabd
00000090: 6e41 9f3d 803a f73d b119 8cbd 9816 063a
000000a0: ebd0 67bd 39ef b9bc d367 db3c 31b6 21bc
000000b0: dd85 33bd 2a37 e1bc 1fd1 0f3d 25a1 f6bc
000000c0: 6cbd 13bd 5eb4 c0bc ed44 24bd dc4c 28bd
000000d0: 4e19 9abd 5f99 34bd fe44 6ebc 00e4 24bc
000000e0: 2456 093d d372 8f3a 27e8 c7bc c51f 823d

encoder.2.weight f4 [30, 60]
-0.12973204 0.099254206 -0.048038658 -0.015900426 -0.09315057 0.054571345 -0.062370203 0.09386306
0.09300574 -0.04892796 0.070894994 -0.0043268143 -0.12102543 -0.07720671 0.116592325 0.039339215
-0.007855289 -0.05198791 0.10627851 -0.036724657 0.11497006 -0.12778157 -0.10693447 0.029071212
0.103235856 0.050096814 -0.012736623 0.02669504 0.12319324 -0.13851866 0.021049496 -0.068432994
0.012364942 -0.005786076 -0.02367219 0.008607402 0.070090115 -0.0036347553 0.016941944 0.07077906
0.14093602 -0.07153897 -0.09877645 -0.11820205 -0.10961583 -0.020925561 -0.05322392 -0.1242257
-0.06940325 0.03342368 0.11321636 0.09320183 0.0807845 -0.04733138 0.017645627 0.016406428
-0.09634473 0.14330949 -0.12764071 0.116859175 -0.09673114 0.0032399194 0.111793146 -0.061274584
0.1066874 -0.08247562 0.08591234 0.12328074 0.10980559 0.058730148 0.04196637 0.122867174
0.03371528 -0.04714048 0.04956834 -0.10869026 -0.07383954 0.002842944 0.034136992 -0.049046755
-0.101583846 0.02161141 0.008806117 -0.011271464 -0.0037665204 0.037271928 0.085940056 0.12893398
0.07144024 -0.047893967 0.033755034 -0.10405534 0.070760936 -0.099339314 -0.018466635 0.09480739
0.052482396 -0.117713735 0.09500536 0.097615875 0.075589746 0.07047709 -0.08423823 -0.12397655
0.09621498 -0.028675143 0.05810047 0.06695043 0.06795051 -0.072420865 -0.102335 -0.05711795
-0.051771652 -0.10675897 0.093471445 0.13709924 -0.0355871 0.08169325 0.0558149 0.055770595
-0.02351586 -0.07382305 -0.039805375 0.023639511 0.073658764 0.053225942 0.09170119 -0.06764701
-0.060373433 -0.06681725 -0.09843199 -0.032401733 -0.06548889 0.061906096 0.027383536 -0.02649524
0.09534575 0.08677993 -0.09840274 0.0026987747 0.019905757 0.081634596 -0.13783798 -0.14082158
-0.14278908 -0.007631208 0.14128134 0.05571519 -0.13396958 0.11546642 -0.080942295 -0.09374345
0.13520238 0.04453058 0.045991484 0.001220393 0.030639939 0.016980948 0.024202691 -0.008365375
-0.13616176 0.1311506 0.11006992 -0.0039018749 -0.02922173 0.11054821 0.112566546 0.063747086
0.07867494 -0.11296189 0.049841482 0.1392619 -0.08682831 0.1427744 -0.10123694 -0.13711043
-0.07895273 -0.026744451 -0.102501005 -0.05871567 0.11109771 0.072569266 -0.022463847 -0.027554734
-0.13214749 0.14042401 -0.06260438 -0.007470113 -0.06505362 -0.092348315 -0.13774334 -0.12211053
-0.00565575 0.050470274 0.07318898 -0.02561805 0.015343973 0.0867958 0.07066964 0.13859582
-0.03501755 -0.022685062 -0.018480714 0.07448589 0.02119446 -0.14179948 0.09976039 -0.009585756
-0.12104012 0.14715958 -0.089480594 -0.007341537 -0.065274104 -0.079028435 -0.11326109 0.07936819
0.06786462 -0.041324522 0.066802554 -0.112931795 -0.050275646 0.006205195 0.110832356 0.10496237
-0.08974694 0.046955783 -0.024888469 0.09992088 -0.071095794 -0.1244932 -0.046179615 0.071266904
-0.05612401 0.06163351 -0.13387413 -0.1164027 0.038289458 -0.13706455 0.05709282 0.011418643
0.1185697 -0.022530934 -0.029179165 -0.1426932 -0.08205051 -0.06737488 -0.14535633 -0.08723025
0.09230509 -0.087457895 -0.15633313 -0.13949135 -0.086424045 0.066113606 -0.111153886 -0.055334695
00000000: 7ad8 04be ca45 cb3d 2fc4 44bd 9c41 82bc
00000010: bac5 bebd 3486 5f3d e677 7fbd 473b c03d
00000020: cb79 be3d af68 48bd 6531 913d f3c7 8dbb
00000030: 2edc f7bd 8d1e 9ebd f5c7 ee3d 2822 213d
00000040: 78b3 00bc 46f1 54bd 8ca8 d93d 986c 16bd
00000050: 6c75 eb3d 2cd9 02be 7600 dbbd c026 ee3c
00000060: 526d d33d 5132 4d3d 45ad 50bc 8eaf da3c
00000070: bd4c fc3d d6d7 0dbe fe6f ac3c 9926 8cbd
00000080: 5396 4a3c 2099 bdbb 2eec c1bc 1006 0d3c
00000090: 688b 8f3d 1335 6ebb d5c9 8a3c 9df4 903d
000000a0: 8851 103e 0683 92bd 4f4b cabd eb13 f2bd
000000b0: 447e e0bd 156c abbc 5301 5abd 0b6a febd
000000c0: 4b23 8ebd 45e7 083d fbdd e73d 9ae0 be3d
000000d0: 5872 a53d 8dde 41bd 908d 903c c666 863c
000000e0: 6350 c5bd b9bf 123e 3fb4 02be dd53 ef3d
000000f0: fa1a c6bd d454 543b cef3 e43d 0ffb 7abd
00000100: ec7e da3d fae8 a8bd cff2 af3d 9d7a fc3d
00000110: c1e1 e03d 068f 703d eee4 2b3d c9a1 fb3d
00000120: 0919 0a3d 6016 41bd 2c08 4b3d 0099 debd
00000130: 2f39 97bd b050 3a3b 3bd3 0b3d 40e5 48bd
00000140: 310b d0bd 690a b13c 8847 103c f2ab 38bc
00000150: bad7 76bb 73aa 183d 5701 b03d 4507 043e
00000160: 434f 923d 772c 44bd b842 0a3d f71a d5bd
00000170: 1ceb 903d 6972 cbbd 5747 97bc 602a c23d
00000180: c8f7 563d e613 f1bd 2c92 c23d d5ea c73d
00000190: ccce 9a3d 4b56 903d 1885 acbd 6be7 fdbd
000001a0: 5c0c c53d 22e8 eabc c2fa 6d3d 4f1d 893d
000001b0: a329 8b3d 6451 94bd 0395 d1bd 83f4 69bd
000001c0: 830e 54bd 72a4 dabd f56d bf3d be63 0c3e
000001d0: c7c3 11bd ca4e a73d 2a9e 643d b56f 643d
000001e0: 55a4 c0bc 8a30 97bd f60a 23bd a6a7 c13c
000001f0: 68da 963d 7203 5a3d d5cd bb3d 848a 8abd
00000200: 224a 77bd 7bd7 88bd b696 c9bd aeb7 04bd
00000210: 0a1f 86bd 3f91 7d3d 7053 e03c 8c0c d9bc
00000220: a244 c33d adb9 b13d 6087 c9bd eddd 303b
00000230: 6611 a33c 0a30 a73d 6625 0dbe 8833 10be
00000240: 4d37 12be 360f fabb 0eac 103e 9c35 643d
00000250: 522f 09be a979 ec3d 13c5 a5bd 91fc bfbd
00000260: 7e72 0a3e b365 363d 9161 3c3d 98f5 9f3a
00000270: 9c00 fb3c a11b 8b3c b944 c63c ed0e 09bc
00000280: fd6d 0bbe 584c 063e 576c e13d 99b6 7fbb
00000290: 6962 efbc 1a67 e23d 4a89 e63d d58d 823d
000002a0: 5420 a13d 9058 e7bd 9526 4c3d ac9a 0e3e
000002b0: 0ad3 b1bd 7433 123e 5055 cfbd ad66 0cbe
000002c0: f8b1 a1bd 2e17 dbbc 0cec d1bd d87f 70bd
000002d0: 3287 e33d 329f 943d 1a06 b8bc 77ba e1bc
000002e0: ac51 07be 50cb 0f3e ba36 80bd dac7 f4bb
000002f0: d53a 85bd 1d21 bdbd 970c 0dbe 1615 fabd
00000300: df53 b9bb ebb9 4e3d 1be4 953d f2dc d1bc
00000310: 4a65 7b3c ffc1 b13d 3fbb 903d 10ec 0d3e
00000320: 906e 0fbd 06d6 b9bc de64 97bc 0f8c 983d
00000330: 01a0 ad3c e233 11be 2d4f cc3d 930d 1dbc
00000340: e2e3 f7bd 00b1 163e 9a41 b7bd 4791 f0bb
00000350: 6eae 85bd a9d9 a1bd 6ef5 e7bd ca8b a23d
00000360: 9bfc 8a3d e743 29bd c7cf 883d c948 e7bd
00000370: d6ed 4dbd f354 cb3b 13fc e23d 83f6 d63d
00000380: 3ecd b7bd b554 403d e7e2 cbbc 51a3 cc3d
00000390: ac9a 91bd 4af6 febd d626 3dbd 62f4 913d
000003a0: 4ae2 65bd 6b73 7c3d 4d16 09be 8a64 eebd
000003b0: 68d5 1c3d a65a 0cbe 29da 693d 4315 3b3c
000003c0: acd4 f23d cb92 b8bc 2509 efbc 2b1e 12be
000003d0: 190a a8bd d7fb 89bd 4ad8 14be c6a5 b2bd
000003e0: 730a bd3d 201d b3bd cb15 20be d2d6 0ebe
000003f0: 17ff b0bd 9266 873d a6a4 e3bd a2a6 62bd

encoder.2.bias f4 [30]
-0.10877712 -0.025370263 0.10133369 -0.014475071 0.08187348 0.0012840456 0.08062768 0.030339055
0.018517172 -0.025516955 -0.058821328 0.10598999 0.05283205 0.006922517 0.12983581 0.03057597
0.0021042149 0.06964074 0.06994204 0.018731726 0.05003669 0.061762948 -0.026565596 0.07317141
0.083462656 0.108214006 0.039348714 0.04166637 0.099840075 0.06701947
00000000: 8ac6 debd 4cd5 cfbc 0a88 cf3d d928 6dbc
00000010: 48ad a73d 6c4d a83a 2020 a53d 9c89 f83c
00000020: 53b1 973c ef08 d1bc a2ee 70bd 4811 d93d
00000030: 6b66 583d 48d6 e23b aef3 043e 757a fa3c
00000040: dee6 093b ce9f 8e3d c63d 8f3d 4773 993c
00000050: 46f3 4c3d 25fb 7c3d 18a0 d9bc e4da 953d
00000060: 78ee aa3d 4e9f dd3d 1e2c 213d 5baa 2a3d
00000070: f478 cc3d 8141 893d

encoder.4.weight f4 [10, 30]
-0.150398 0.1717713 -0.07528067 -0.05433675 0.09733893 0.026657505 -0.06320324 -0.14695989
-0.14997429 -0.038772717 0.064260386 -0.17593597 0.06889139 0.20743214 0.03253747 0.17332175
0.0420974 -0.19914947 -0.03058483 0.14771941 -0.06367115 -0.0032998659 -0.11699437 0.12331664
-0.01586162 -0.07668689 0.106475584 0.14060022 0.118361525 0.0135940695 0.17778881 -0.07122902
-0.06483547 -0.12215113 0.038321227 -0.12722918 0.08119158 0.07891141 -0.105511755 0.084756225
-0.035292182 -0.1713315 0.16236612 -0.028881442 -0.048071135 -0.06684729 0.03057034 -0.18257159
-0.13663931 0.16990358 0.18350023 -0.099185914 0.08891791 0.057376094 -0.13876002 -0.18191114
0.080573335 0.08385865 -0.195336 -0.013113542 -0.141977 -0.08291228 -0.010165836 0.17341438
0.085472934 -0.15047811 -0.04201257 0.19251905 -0.05431595 -0.04660065 -0.029093092 -0.14626996
-0.12975214 0.1310912 -0.11934621 -0.026424779 0.1756586 0.1517719 -0.15434189 -0.0019513873
-0.19191396 -0.056921475 -0.016753301 0.027702726 -0.07102003 0.18343621 -0.123332724 0.15646295
0.18777464 0.027208505 -0.1160273 -0.003198115 0.084335946 0.030831259 0.18730164 -0.04451446
0.20376445 -0.041889917 -0.1977608 -0.06366571 0.0051118494 0.14563458 -0.040957183 0.12427404
0.15873836 0.035965327 0.038402148 -0.0043247105 -0.035567176 0.07049967 -0.0471214 -0.13063143
0.05609429 0.11861395 -0.027784701 -0.03328694 0.043195646 0.16301717 -0.13280043 -0.10106041
0.19979633 0.012110323 -0.12434279 -0.17266862 -0.025948953 -0.063901566 -0.18570897 -0.037530567
0.09833222 0.070354275 -0.124647126 0.060740948 0.005960424 -0.14305937 5.79775e-05 -0.043659136
-0.17753752 -0.14199582 0.016794575 -0.08430932 -0.12548138 0.0070119333 -0.12938967 -0.09965745
-0.05442032 0.06803269 0.023098258 -0.015699713 -0.17949212 -0.006796245 -0.043708283 0.10214955
-0.06945703 0.13684013 0.046085436 0.05751551 0.091632724 -0.095563196 -0.11146359 0.058623135
-0.1366313 -0.024337435 -0.14004594 0.13863468 0.15127274 0.15113828 0.08402515 -0.19347115
-0.11892099 -0.06723078 0.014296867 -0.017934233 0.093462296 0.07493248 0.12803328 0.06847244
-0.13451155 -0.059544064 0.016128277 -0.18689997 0.06368786 -0.08511548 0.044490263 0.13804011
0.112661056 -0.17582117 0.042317465 -0.09090436 0.14270456 0.108884834 0.18892474 0.07014721
0.06011993 -0.03710176 0.021307142 -0.15293337 -0.11551094 -0.07773554 0.06936837 -0.13564117
-0.1681868 -0.12272883 0.20305036 -0.09258792 -0.15140888 0.08279308 -0.20037593 0.14360662
0.13466784 -0.0073742457 -0.0063200286 0.05669203 -0.03017944 0.03428526 -0.098453164 0.04652013
0.08311201 0.14704718 -0.08681494 0.08906144 -0.09860997 0.14094509 0.061114915 0.053483758
-0.09305006 -0.18519044 -0.15378112 -0.13144064 -0.026284348 0.026038956 -0.08655146 -0.078694806
0.15431418 0.07195549 -0.1576219 0.09011648 0.111951664 -0.06897548 0.18932 0.0339468
0.001013448 0.14250843 -0.084862866 0.07203026 -0.0029950237 -0.099947914 0.091329366 -0.16240661
0.15863599 0.068264954 -0.134316 -0.06873018 0.20715041 0.20949826 0.04298611 0.16201442
00000000: ef01 1abe d1e4 2f3e c02c 9abd 3690 5ebd
00000010: a259 c73d d760 da3c b370 81bd a77c 16be
00000020: dc92 19be 24d0 1ebd f39a 833d 8f28 34be
00000030: ee16 8d3d 1769 543e 0346 053d 427b 313e
00000040: 536e 2c3d d7ed 4bbe 0a8d fabc c243 173e
00000050: 0566 82bd 9042 58bb bf9a efbd 6f8d fc3d
00000060: 3af0 81bc 040e 9dbd df0f da3d 81f9 0f3e
00000070: 8767 f23d a9b9 5e3c 450e 363e 85e0 91bd
00000080: 75c8 84bd 5f2a fabd b8f6 1c3d 5e48 02be
00000090: c547 a63d 4e9c a13d 8c16 d8bd ac94 ad3d
000000a0: 898e 10bd 8671 2fbe 4e43 263e c698 ecbc
000000b0: 3de6 44bd 3be7 88bd a66e fa3c 0cf4 3abe
000000c0: 2deb 0bbe 34fb 2d3e 7ce7 3b3e fc21 cbbd
000000d0: 981a b63d 3203 6b3d 1b17 0ebe ea46 3abe
000000e0: a203 a53d 15be ab3d 2906 48be 2fda 56bc
000000f0: 6b62 11be eacd a9bd 9b8e 26bc 8a93 313e
00000100: 6f0c af3d ef16 1abe 5f15 2cbd b723 453e
00000110: 677a 5ebd 53e0 3ebd a354 eebc cbc7 15be
00000120: bfdd 04be c63c 063e c96b f4bd c778 d8bc
00000130: d9df 333e 186a 1b3e cd0b 1ebe b1c5 ffba
00000140: 1885 44be 7e26 69bd 383e 89bc d4f0 e23c
00000150: f372 91bd b4d6 3b3e de95 fcbd d337 203e
00000160: ff47 403e 5fe4 de3c b99f edbd 7797 51bb
00000170: 53b8 ac3d d691 fc3c 00cc 3f3e cb54 36bd
00000180: a1a7 503e c394 2bbd cf81 4abe 2b63 82bd
00000190: 4d81 a73b 3b21 153e b8c2 27bd 6383 fe3d
000001a0: 4f8c 223e 6150 133d 924b 1d3d 4db6 8dbb
000001b0: e3ae 11bd 2262 903d 5e02 41bd 3fc4 05be
000001c0: 20c3 653d dfeb f23d be9c e3bc e357 08bd
000001d0: ebed 303d f9ed 263e d6fc 07be c3f8 cebd
000001e0: 6997 4c3e 606a 463c 6fa7 febd 0bd0 30be
000001f0: e692 d4bc d3de 82bd 7e2a 3ebe a7b9 19bd
00000200: 6762 c93d e715 903d fe46 ffbd 80cb 783d
00000210: a94f c33b 287e 12be de2c 7338 ecd3 32bd
00000220: 65cc 35be 5a67 11be c794 893c 5daa acbd
00000230: 317e 00be 5cc4 e53b ba7e 04be 3519 ccbd
00000240: d7e7 5ebd b954 8b3d 8f38 bd3c af9c 80bc
00000250: c8cc 37be 09b3 debb 7507 33bd c933 d13d
00000260: 7d3f 8ebd d21f 0c3e 15c4 3c3d 6295 6b3d
00000270: f0a9 bb3d a3b6 c3bd 0647 e4bd d01e 703d
00000280: 13e9 0bbe 4d5f c7bc 3468 0fbe 40f6 0d3e
00000290: 3ee7 1a3e fec3 1a3e 6115 ac3d 4d1d 46be
000002a0: d98c f3bd 4bb0 89bd 683d 6a3c d0ea 92bc
000002b0: 2969 bf3d 3376 993d 281b 033e 473b 8c3d
000002c0: 65bd 09be 7ae4 73bd 731f 843c b562 3fbe
000002d0: c86e 823d 0651 aebd 6c3b 363d 635a 0d3e
000002e0: d7ba e63d 770a 34be 1455 2d3d 112c babd
000002f0: 2521 123e 03ff de3d 7d75 413e 57a9 8f3d
00000300: 5140 763d 04f8 17bd 518c ae3c 919a 1cbe
00000310: 0091 ecbd d033 9fbd 0111 8e3d 85e5 0abe
00000320: 2939 2cbe 4159 fbbd 6fec 4f3e bc9e bdbd
00000330: ee0a 1bbe 6b8f a93d 592f 4dbe 9d0d 133e
00000340: 5ee6 093e a8a3 f1bb 3e18 cfbb e735 683d
00000350: df3a f7bc b36e 0c3d d0a1 c9bd e48b 3e3d
00000360: a136 aa3d 8993 163e 08cc b1bd d865 b63d
00000370: 06f4 c9bd e953 103e a253 7a3d c911 5b3d
00000380: 0891 bebd 90a2 3dbe cc78 1dbe 6098 06be
00000390: 4652 d7bc a64f d53c e441 b1bd be2a a1bd
000003a0: 8904 1e3e 665d 933d a367 21be fd8e b83d
000003b0: ea46 e53d 0443 8dbd 1add 413e cd0b 0b3d
000003c0: acd5 843a bbed 113e 95cc adbd 9a84 933d
000003d0: 2948 44bb 7eb1 ccbd e40a bb3d eb4d 26be
000003e0: 7971 223e 7fce 8b3d 228a 09be 69c2 8cbd
000003f0: 3d1f 543e b686 563e 3412 303d 1ce7 253e

encoder.4.bias f4 [10]
-0.06280557 -0.0682889 0.033486478 -0.049858864 0.07474796 0.14799492 -0.11710162 -0.09271116
-0.058825698 -0.024062574
00000000: 35a0 80bd 0ddb 8bbd 1e29 093d cf38 4cbd
00000010: 7515 993d fb8b 173e f9d2 efbd 59df bdbd
00000020: 37f3 70bd e01e c5bc

encoder.6.weight f4 [1, 10]
-0.32449797 -0.03965252 0.33314633 0.24090903 -0.13278218 -0.014531659 0.19763452 0.046157155
-0.34438246 -0.21443698
00000000: 9924 a6be ae6a 22bd 2892 aa3e dbb0 763e
00000010: 0df8 07be 3216 6ebc b460 4a3e 490f 3d3d
00000020: e652 b0be 5e95 5bbe

decoder.0.weight f4 [10, 1]
0.3580453 -0.7419325 0.41108257 0.89278334 -0.6872541 -0.42812315 0.47017014 0.904713
0.23772384 -0.64173096
00000000: b751 b73e 4aef 3dbf 6a79 d23e 738d 643f
00000010: e2ef 2fbf f532 dbbe 24ba f03e 459b 673f
00000020: e16d 733e 7b48 24bf

decoder.0.bias f4 [10]
0.9990912 -0.19780016 0.1058477 0.0046921764 0.28767073 -0.49361855 -0.0007969166 -0.75674593
-0.70448554 -0.750798
00000000: 71c4 7f3f 208c 4abe aec6 d83d d4c0 993b
00000010: 9449 933e 92bb fcbe 2be8 50ba 1aba 41bf
00000020: 2a59 34bf 4c34 40bf

decoder.2.weight f4 [30, 10]
0.07142756 -0.169123 -0.1679468 0.24818459 -0.1487131 -0.07138393 0.004463863 -0.22370248
0.00081336655 0.038280293 0.06352541 0.1156001 -0.042449545 -0.33097774 0.12670492 0.31837803
-0.13079579 0.19867647 0.2763116 -0.19034433 -0.23711132 -0.31860048 0.03124574 0.16083503
-0.3160375 0.315007 -0.21563971 -0.12085891 0.058241475 -0.02469277 0.29001024 -0.26921037
0.1526405 0.083379 0.05566918 -0.033383198 0.15503111 -0.043813586 0.016455505 0.17512998
-0.02518386 0.22216518 0.0880174 -0.27474016 0.0792686 0.09957793 0.31248346 -0.11866195
-0.12374835 0.23556872 0.16188768 0.31692338 0.011735164 0.12823454 -0.25555006 0.27822515
-0.09912736 -0.35807493 -0.131764 -0.15118447 0.30366117 0.13193654 0.31895524 -0.16727434
0.15232179 -0.05612432 -0.0057137655 0.009857613 0.017953102 0.30413127 -0.028818918 -0.02515831
0.1922235 0.20304316 0.11882016 0.1572545 0.33148074 0.29443678 -0.076077536 0.16176446
-0.040647227 -0.23635916 -0.27838343 0.25806326 -0.13585712 -0.08277289 -0.2698694 -0.09623435
0.33758372 -0.28813982 -0.121520504 -0.01888187 -0.15737058 0.19592984 0.0962281 -0.14662685
-0.13828191 0.10066789 -0.0704528 -0.116658375 0.18435016 -0.17530957 -0.29812312 -0.27314204
0.08445873 0.020158162 0.22319995 0.3020126 0.067209266 0.05985933 0.0010428211 -0.035852257
0.19129294 0.010318714 -0.20344004 0.07007098 0.051544946 -0.2938816 -0.13024999 -0.11485405
-0.08218704 0.24168915 -0.10637986 0.33695817 0.08931282 -0.11135379 -0.0039211796 -0.079439
-0.19816369 0.09153876 0.21070223 -0.07916739 -0.1828555 -0.29506058 0.20149095 -0.061949234
0.16730517 0.2784278 0.024783174 -0.1231479 0.2437217 0.22238246 -0.21063359 -0.29152447
0.012550954 0.1618798 -0.036124166 0.0060888487 -0.1709583 -0.23235482 0.2682156 0.30290413
-0.18427818 0.2236905 -0.08785293 -0.25455102 0.17215928 0.053860072 0.058187347 -0.30491057
-0.25208825 0.18649963 -0.08207344 -0.27640182 -0.04256826 0.016910614 -0.2779556 -0.24089013
0.29093334 0.06483309 -0.085388936 0.17489535 -0.32725856 -0.22914927 0.1222861 -0.17404011
-0.058678247 -0.34111196 -0.14266685 -0.13007617 -0.035461493 0.013482266 -0.23895143 0.069460355
0.060847122 0.10533307 0.107681386 -0.18148087 0.088155285 0.029089956 0.10877521 0.27078575
0.017453935 0.057902128 -0.026008224 -0.16763864 0.31504247 -0.06083056 -0.09320048 0.098759025
-0.26868835 0.2298833 0.30297574 0.18049383 0.046917036 -0.09310393 0.10801846 0.13811098
-0.30649328 -0.27523935 -0.23599032 0.22663157 -0.10744674 0.22198758 -0.06354486 -0.10210985
-0.09565959 -0.1914776 -0.22147836 -0.03809806 -0.28652298 0.05288954 -0.052336026 0.1885608
0.011859132 -0.09866056 0.27229556 0.14644697 0.13374387 0.04236361 0.19639961 0.008890445
-0.17061608 0.09960893 0.030587874 0.065918304 -0.04848067 -0.2084607 0.057420794 -0.29550844
-0.08885898 -0.2725672 0.14573182 0.13967827 -0.014398919 -0.042025033 0.17815703 0.2986269
0.21831055 0.09320403 -0.07559146 0.08148178 -0.22510055 -0.092888534 0.32032079 -0.23609217
00000000: 9d48 923d 942e 2dbe 3ffa 2bbe 1a24 7e3e
00000010: 3f48 18be bd31 92bd 9945 923b 4312 65be
00000020: 1b38 553a cccb 1c3d 9c19 823d bfbf ec3d
00000030: 93df 2dbd ea75 a9be efbe 013e 7202 a33e
00000040: 55ef 05be d871 4b3e b778 8d3e a0e9 42be
00000050: 4fcd 72be 9a1f a3be 11f7 ff3c f0b1 243e
00000060: abcf a1be 9948 a13e a8d0 5cbe e084 f7bd
00000070: 9d8e 6e3d 7e48 cabc 397c 943e f1d5 89be
00000080: cb4d 1c3e 9cc2 aa3d 5e05 643d d2bc 08bd
00000090: 7ac0 1e3e e075 33bd b2cd 863c 4655 333e
000000a0: 624e cebc 457f 633e 7742 b43d beaa 8cbe
000000b0: 9357 a23d 84ef cb3d d5fd 9f3e 0905 f3bd
000000c0: c66f fdbd ed38 713e e2c5 253e c843 a23e
000000d0: d844 403c ea4f 033e 75d7 82be 8773 8e3e
000000e0: 4903 cbbd 9955 b7be 24ed 06be 1ad0 1abe
000000f0: 7a79 9b3e 5f1a 073e 1a4e a33e f749 2bbe
00000100: 3efa 1b3e 9de2 65bd 8a3a bbbb d381 213c
00000110: 6212 933c 18b7 9b3e a715 ecbc cd18 cebc
00000120: 3dd6 443e 8cea 4f3e fc57 f33d 5307 213e
00000130: d8b7 a93e 6bc0 963e 8ace 9bbd 95a5 253e
00000140: b57d 26bd 2308 72be 4688 8ebe de20 843e
00000150: 211e 0bbe d584 a9bd 522c 8abe 8416 c5bd
00000160: c6d7 ac3e 1087 93be bedf f8bd 27ae 9abc
00000170: c125 21be d5a1 483e 3d13 c53d 5925 16be
00000180: c699 0dbe f72a ce3d 8f49 90bd 96ea eebd
00000190: 4ac6 3c3e 5a84 33be 98a3 98be 46d9 8bbe
000001a0: b3f8 ac3d bb22 a53c 878e 643e 65a1 9a3e
000001b0: 03a5 893d 0f2f 753d 45af 883a d1d9 12bd
000001c0: 4ce2 433e d30f 293c 9652 50be 6081 8f3d
000001d0: cb20 533d a677 96be 4160 05be 9a38 ebbd
000001e0: ae51 a8bd 5c7d 773e afdd d9bd c885 ac3e
000001f0: a4e9 b63d 750d e4bd 3d7d 80bb eab0 a2bd
00000200: 6ceb 4abe ac78 bb3d 53c2 573e 8322 a2bd
00000210: 793e 3bbe 2e12 97be a553 4e3e 7bbe 7dbd
00000220: 0c52 2b3e 178e 8e3e 1506 cb3c f734 fcbd
00000230: 2e92 793e 3ab8 633e 55b0 57be b242 95be
00000240: 84a2 4d3c d1c3 253e eff6 13bd f784 c73b
00000250: b10f 2fbe 6cee 6dbe 8e53 893e 4016 9b3e
00000260: 6bb3 3cbe 1f0f 653e 3dec b3bd 8354 82be
00000270: 864a 303e 619c 5c3d db55 6e3d 3d1d 9cbe
00000280: b611 81be c2f9 3e3e 1f16 a8bd 8a84 8dbe
00000290: 0e5c 2ebd 2188 8a3c 3250 8ebe e7ab 76be
000002a0: 37f5 943e 36c7 843d 65e0 aebd c417 333e
000002b0: 6f8e a7be 1ba6 6abe 2371 fa3d 9237 32be
000002c0: 9a58 70bd 3aa6 aebe 4217 12be b032 05be
000002d0: 1240 11bd b9e4 5c3c afaf 74be 3b41 8e3d
000002e0: d53a 793d ddb8 d73d 0f88 dc3d 1fd6 39be
000002f0: c28a b43d 0f4e ee3c 8ac5 de3d 6ea4 8a3e
00000300: 8efb 8e3c c82a 6d3d 330f d5bc 77a9 2bbe
00000310: 3f4d a13e 7729 79bd e5df bebd 2c42 ca3d
00000320: 8591 89be 8766 6b3e a31f 9b3e 60d3 383e
00000330: 142c 403d 46ad bebd c838 dd3d f76c 0d3e
00000340: b0ec 9cbe 2cec 8cbe 72a7 71be 1b12 683e
00000350: 090d dcbd b650 633e cf23 82bd f81e d1bd
00000360: 2de9 c3bd b412 44be 39cb 62be b60c 1cbd
00000370: 24b3 92be b4a2 583d 4d5e 56bd 1516 413e
00000380: ce4c 423c 8c0e cabd 536a 8b3e 32f6 153e
00000390: 27f4 083e 7785 2d3d fb1c 493e 3ba9 113c
000003a0: fbb5 2ebe c4ff cb3d 6c93 fa3c 2d00 873d
000003b0: ab93 46bd b976 55be 1132 6b3d e24c 97be
000003c0: b2fb b5bd ee8d 8bbe b93a 153e d207 0f3e
000003d0: 72e9 6bbc 7122 2cbd cc6e 363e a0e5 983e
000003e0: cd8c 5f3e c1e1 be3d b2cf 9abd ebdf a63d
000003f0: c280 66be 583c bebd 1601 a43e 25c2 71be

decoder.2.bias f4 [30]
0.19943456 -0.019450007 -0.028647864 -0.14040472 0.3188821 -0.17803031 0.21568824 0.037563384
-0.2030466 0.07987832 -0.28141302 -0.034674607 0.031456035 0.30360052 -0.27784634 0.2289777
0.034874544 -0.06463214 -0.26355472 0.17768402 -0.08634729 -0.30102265 -0.16535406 0.21762341
-0.080022 -0.14027809 0.052979518 -0.18487133 -0.22527336 -0.16553186
00000000: 9338 4c3e 9f55 9fbc edae eabc 41c6 0fbe
00000010: 8444 a33e 944d 36be 61dd 5c3e 10dc 193d
00000020: 73eb 4fbe 3f97 a33d 5e15 90be f606 0ebd
00000030: 0bd8 003d 8771 9b3e e041 8ebe 2179 6a3e
00000040: 9cd8 0e3d db5d 84bd a5f0 86be cdf2 353e
00000050: d9d6 b0bd a41f 9abe 9352 29be acd8 5e3e
00000060: 93e2 a3bd 0fa5 0fbe 0d01 593d e94e 3dbe
00000070: 0fae 66be 2f81 29be

decoder.4.weight f4 [60, 30]
0.030115703 -0.13715754 0.16354918 -0.0030057838 0.13930528 -0.0111519415 0.014111312 0.16392559
-0.08431781 -0.015934598 -0.17818217 0.04930909 -0.09078264 -0.04856391 0.08999467 0.016863855
-0.058843363 -0.09689946 -0.14954299 -0.032660164 0.18406565 -0.13262817 0.115324445 0.1682627
-0.12791246 -0.042677782 -0.11083654 0.07685076 -0.12538475 0.067470856 -0.03780737 -0.087604545
-0.09751747 -0.17287533 -0.14224984 0.010978921 -0.16118664 0.05523036 -0.12127878 -0.12301432
-0.1495109 0.05281539 0.025248121 0.026809635 0.11654336 -0.04161563 -0.089170784 0.029052628
0.12981836 -0.049510185 -0.019591251 -0.048326835 -0.018964157 -0.16294727 0.11310399 0.17407401
0.12524389 0.027260188 0.05782951 -0.0973897 0.15513642 0.058818124 -0.05729938 -0.14964908
0.09314426 0.03847822 0.14024156 -0.04648328 0.062106855 0.14031209 0.002989628 -0.14515676
0.11751445 0.056855038 0.024689374 0.01249298 0.11121204 -0.055315837 0.1265068 0.15104407
0.07408102 0.030418137 0.03347316 -0.06975792 0.08979298 0.15321788 0.07086817 -0.13965516
0.075581506 -0.07325497 0.06444862 0.07420343 0.086504735 0.0076392097 -0.029537616 -0.03685416
0.07232033 0.05608197 0.092124954 -0.046270218 -0.07068765 -0.12227445 0.20940782 0.11252218
-0.018825894 -0.015129365 -0.03569377 0.20117125 -0.19375601 -0.1275768 -0.0061878003 0.14155778
0.02735578 -0.14487685 -0.21028452 0.02452851 -0.07765779 -0.12275601 0.06313466 0.15115255
0.08939433 0.08697235 -0.118861824 0.10571814 -0.072759055 0.19459529 0.15665238 -0.051426418
-0.059007473 -0.075653344 -0.077330835 0.108107045 -0.11023378 -0.09747951 0.13043247 0.00670107
0.1570994 0.21734023 -0.10122045 0.15779491 0.033541698 -0.010640448 0.13450322 -0.153649
0.12055415 -0.14951976 -0.0995835 0.045922693 -0.19642858 -0.10597984 0.09197209 -0.08747142
-0.18907261 0.12964511 -0.12414007 0.075692594 -0.14001742 -0.1899067 -0.13051303 -0.07395423
-0.15229815 0.17906006 -0.10433829 0.1898257 0.06041781 0.1275917 -0.09748211 -0.06097878
0.10251042 -0.114435144 0.14020437 0.110973455 -0.13718674 0.20101431 0.034032546 -0.081744604
0.014647183 -0.20498434 0.13879132 0.13615818 0.09017181 0.09674009 -0.07507766 -0.06924311
0.055412244 0.09364652 0.22439344 -0.15770033 -0.07762114 -0.08657466 -0.019401072 0.18334138
0.04878946 0.18906248 -0.07948121 0.04444855 0.04111513 -0.08668134 0.03586808 0.08892391
0.07134398 0.044596314 -0.086275116 0.17074946 -0.17892508 0.15600896 0.063068956 0.11943383
0.090186566 -0.019613132 0.096704245 0.052143652 -0.10415573 0.036369 0.067919314 -0.16399203
0.12048596 0.15130863 -0.04894111 -0.18665858 0.18375476 -0.050961725 0.12887308 -0.07718829
-0.18237902 -0.1657119 -0.0030098804 -0.12863457 -0.044125747 -0.15241572 -0.1294307 -0.122541256
0.046464857 -0.123885944 0.10805895 0.016022604 0.18390018 0.08763949 0.050209634 0.12751798
0.053268705 -0.14234644 -0.04028871 -0.13350812 0.1164735 -0.04688576 0.15650576 -0.012384077
-0.18041548 -0.16089123 -0.16394472 0.02196493 -0.0015567254 0.11630331 -0.10013906 0.13489385
00000000: 35b5 f63c 0773 0cbe 7079 273e affc 44bb
00000010: 0ba6 0e3e a2b6 36bc 2233 673c 1cdc 273e
00000020: d1ae acbd 4689 82bc 6375 36be 54f8 493d
00000030: 40ec b9bd f3ea 46bd 204f b83d 1126 8a3c
00000040: bd05 71bd 3973 c6bd cc21 19be aac6 05bd
00000050: b57b 3c3e aecf 07be 392f ec3d 0f4d 2c3e
00000060: 7cfb 02be e6ce 2ebd 45fe e2bd ee63 9d3d
00000070: dc64 00be 292e 8a3d e7db 1abd 036a b3bd
00000080: 3db7 c7bd 3b06 31be f1a9 11be efe0 333c
00000090: 1c0e 25be 3b39 623d 0261 f8bd efee fbbd
000000a0: 6319 19be f354 583d 26d5 ce3c e19f db3c
000000b0: 49ae ee3d 2775 2abd 2c9f b6bd c7ff ed3c
000000c0: 1bef 043e 31cb 4abd d57d a0bc 5cf2 45bd
000000d0: b85a 9bbc a6db 26be 11a3 e73d 7540 323e
000000e0: ef3f 003e c250 df3c a3de 6c3d 4074 c7bd
000000f0: 15dc 1e3e 46eb 703d c1b2 6abd 9c3d 19be
00000100: 6bc2 be3d 579b 1d3d 7c9b 0f3e 4065 3ebd
00000110: c263 7e3d f9ad 0f3e a2ed 433b f9a3 14be
00000120: 6aab f03d d4e0 683d 5f41 ca3c 5baf 4c3c
00000130: 23c3 e33d dc92 62bd 008b 013e 4cab 1a3e
00000140: cab7 973d 752f f93c 271b 093d 3edd 8ebd
00000150: 62e5 b73d 26e5 1c3e 5523 913d c301 0fbe
00000160: 7aca 9a3d b406 96bd a3fd 833d f8f7 973d
00000170: 6529 b13d 5652 fa3b dff8 f1bc 63f4 16bd
00000180: ae1c 943d 35b6 653d 02ac bc3d d785 3dbd
00000190: b0c4 90bd 076b fabd 016f 563e 0772 e63d
000001a0: c338 9abc 28e1 77bc a133 12bd d6ff 4d3e
000001b0: fa67 46be 7ea3 02be 08c3 cabb 86f4 103e
000001c0: 3b19 e03c 995a 14be d354 57be 04f0 c83c
000001d0: 0c0b 9fbd 8167 fbbd bf4c 813d bcc7 1a3e
000001e0: 6014 b73d 8f1e b23d d46d f3bd c182 d83d
000001f0: b302 95bd fd43 473e 7b69 203e 82a4 52bd
00000200: d2b1 71bd 24f0 9abd a15f 9ebd 3a67 dd3d
00000210: 40c2 e1bd 56a3 c7bd 1790 053e a694 db3b
00000220: aade 203e 708e 5e3e ab4c cfbd fd94 213e
00000230: 0563 093d 4655 2ebc 36bb 093e 2a56 1dbe
00000240: 18e5 f63d b51b 19be 6ff2 cbbd 6f19 3c3d
00000250: 9324 49be f50b d9bd dd5b bc3d 3724 b3bd
00000260: 409c 41be b0c1 043e 263d febd b804 9b3d
00000270: ba60 0fbe e776 42be 35a5 05be 5175 97bd
00000280: 0cf4 1bbe 855b 373e 50af d5bd ab61 423e
00000290: aa78 773d 66a7 023e b3a4 c7bd e3c4 79bd
000002a0: fcf0 d13d f95c eabd bc91 0f3e 0d46 e33d
000002b0: ae7a 0cbe b2d6 4d3e b665 0b3d b769 a7bd
000002c0: bdfa 6f3c 6ae7 51be 501f 0e3e 0d6d 0b3e
000002d0: ffab b83d ab1f c63d 51c2 99bd 55cf 8dbd
000002e0: f3f7 623d bfc9 bf3d 65c7 653e 327c 21be
000002f0: d5f7 9ebd 0e4e b1bd ffee 9ebc d8bd 3b3e
00000300: 75d7 473d 9899 413e 0bc7 a2bd af0f 363d
00000310: 5768 283d fd85 b1bd 68ea 123d bd1d b63d
00000320: cb1c 923d a0aa 363d 02b1 b0bd f2d8 2e3e
00000330: 2338 37be d0c0 1f3e 4c2a 813d b999 f43d
00000340: bcb3 b83d b8ab a0bc e00c c63d 9594 553d
00000350: 994f d5bd a9f7 143d 4819 8b3d 87ed 27be
00000360: 58c1 f63d a6f0 1a3e 7976 48bd 6d23 3fbe
00000370: 352a 3c3e 3ebd 50bd 4ef7 033e e514 9ebd
00000380: 91c1 3abe 61b0 29be 6a41 45bb c8b8 03be
00000390: 33bd 34bd de12 1cbe 7b89 04be e9f6 fabd
000003a0: ef51 3e3d eab7 fdbd 034e dd3d d641 833c
000003b0: 5450 3c3e 557c b33d 9ea8 4d3d 1394 023e
000003c0: 4930 5a3d 44c3 11be c605 25bd 5ab6 08be
000003d0: a989 ee3d 480b 40bd 0c43 203e 95e6 4abc
000003e0: d6be 38be acc0 24be 20e1 27be ccef b33c
000003f0: 090b ccba 6e30 ee3d b515 cdbd 9d21 0a3e

decoder.4.bias f4 [60]
-0.092563435 0.11636332 0.1641366 0.09091834 0.15981658 -0.1204521 0.07549053 0.072018184
-0.15256584 0.0212442 0.117069185 0.04631653 0.1932824 -0.10853361 -0.086645216 0.14355102
-0.12228788 -0.1367581 -0.16243161 0.15532786 0.19499728 0.13097972 -0.071699016 -0.0211141
0.18341886 0.03715909 0.04272969 0.1527127 0.12841684 0.05185421 -0.10818892 -0.15220964
-0.03669789 -0.019923028 0.14318234 -0.09121715 -0.07651401 -0.030305767 -0.08604381 0.05537926
-0.0456175 0.078823105 0.13798566 0.17020436 -0.005231563 -0.094159506 0.083304435 0.14012708
-0.024819283 0.032751855 0.08065625 -0.1162032 -0.09807128 -0.12696888 0.025310038 0.090485
0.17817746 0.030629864 -0.16231665 0.0914484
00000000: e691 bdbd e44f ee3d 6d13 283e 6533 ba3d
00000010: f5a6 233e 97af f6bd c79a 9a3d 457e 933d
00000020: 383a 1cbe 5108 ae3c f8c1 ef3d 67b6 3d3d
00000030: d2eb 453e df46 debd 0c73 b1bd 0aff 123e
00000040: 1172 fabd 510a 0cbe 7954 26be 440e 1f3e
00000050: 5ead 473e 8c1f 063e efd6 92bd 7af7 acbc
00000060: 27d2 3b3e 2134 183d 5405 2f3d b860 1c3e
00000070: b47f 033e 1565 543d 2792 ddbd d8dc 1bbe
00000080: 8750 16bd 9e35 a3bc 649e 123e 0fd0 babd
00000090: 61b3 9cbd cd43 f8bc bd37 b0bd 5dd5 623d
000000a0: 6ad9 3abd 026e a13d 1d4c 0d3e 0d4a 2e3e
000000b0: 886d abbb b3d6 c0bd 849b aa3d 797d 0f3e
000000c0: cf51 cbbc cf26 063d 1b2f a53d f1fb edbd
000000d0: 98d9 c8bd 2104 02be ff56 cf3c 3350 b93d
000000e0: 2774 363e 7beb fa3c 5636 26be 4c49 bb3d

decoder.6.weight f4 [118, 60]
0.046177346 0.09098239 0.060094696 0.0001716635 -0.09371378 -0.00064327975 -0.026863558 0.07667577
0.016628154 -0.05595568 -0.17364815 -0.061067656 -0.031424843 0.030050723 0.1506979 -0.1085508
0.01991019 -0.010958092 0.15428993 -0.032433387 -0.16579315 0.045536336 0.006951124 0.10325403
-0.16621645 -0.17501009 0.041269008 -0.14970905 -0.03657732 -0.03216645 0.07417808 0.046510987
-0.05451982 -0.013984835 -0.03613367 -0.07865149 -0.11353491 -0.04722884 0.026620606 -0.009194258
-0.05017042 0.014571097 -0.109518535 -0.107141696 0.07834401 0.14158066 -0.123142816 -0.019452805
0.050905384 0.13722679 0.03984757 -0.08010978 -0.15211952 0.0017821481 0.0146777425 0.0065945107
0.0650455 -0.028898899 -0.088820525 -0.13207018 0.14123145 -0.10776925 0.004528247 -0.09909593
0.096739694 0.017962176 0.12905289 -0.13203144 0.08204701 0.113411844 -0.14807647 0.020264894
0.012123082 -0.09565297 -0.02950645 -0.023097666 0.036911733 0.03090919 -0.03416595 0.07566112
0.06789489 0.09111809 0.028978292 -0.13108122 0.0982657 -0.07764776 -0.03332196 0.051005334
0.038384963 -0.115618534 -0.0781038 0.027617466 0.06129859 -0.064386986 0.1257331 0.0755322
-0.15222126 -0.050988752 0.07990065 -0.027405534 -0.07497564 -0.025379706 0.025924891 -0.03180245
-0.06548246 0.022167185 0.06325212 0.119054414 0.052624688 0.043169707 0.051013198 0.12922849
-0.1333797 -0.036027044 -0.067269124 -0.04555699 0.087020375 0.10175655 -0.07926049 -0.060270175
0.052969493 0.061487112 0.05871749 0.042793434 -0.08987854 0.072217725 -0.10540087 -0.05531864
0.0033571082 0.0023843008 0.02207593 -0.113902405 0.13200115 -0.081370704 0.003474406 0.006520004
0.0008418603 -0.03891089 0.0175562 0.04394671 -0.080255695 0.09847377 -0.02453537 0.10165946
-0.09521891 0.13669461 0.07706272 -0.02456291 0.021852525 0.07935397 -0.11003874 0.08071933
0.059821244 -0.06365442 0.057537176 0.053946197 0.029857622 0.108480334 -0.11459961 -0.02314095
0.0111747505 0.078726396 0.086358786 -0.010210534 -0.08033218 -0.13493323 0.01150927 -0.037391685
-0.028544836 0.01965627 0.073388405 0.049126912 0.042479273 -0.035675596 0.047928955 0.06016841
-0.060584232 -0.12176454 0.022972105 -0.044563103 0.10896761 -0.10629775 -0.068353385 0.043664835
-0.090167426 -0.008849455 0.065498196 -0.07959087 0.049814202 0.10802828 -0.101000875 0.02846779
-0.0791383 -0.07728674 -0.11879571 0.05871147 0.07889382 -0.07859491 0.08988213 -0.059710573
0.05752244 -0.101854734 0.12703128 -0.110929556 0.059579376 0.050427914 0.03774619 0.11808848
0.05776837 0.07455509 -0.11498162 -0.07926356 -0.01228019 0.13103901 0.08899839 -0.12787251
0.070427015 0.0015708309 -0.0047334284 -0.030995222 0.05630634 -0.046839528 0.05179974 -0.08442645
-0.0072236797 0.04008372 -0.035091743 0.121219695 -0.0942082 0.051658057 0.08955959 -0.025759093
0.048567925 -0.12041348 -0.05045921 -0.07593004 0.037635673 -0.04664753 -0.1259693 -0.12521644
-0.0076825377 0.106852666 0.09722841 -0.034176026 -0.045280274 -0.0900076 0.09018076 -0.09132125
-0.024919547 -0.07137123 -0.14866686 0.028330807 -0.09519664 -0.026646392 0.049337856 0.05747044
00000000: 7524 3d3d fa54 ba3d db25 763d 9200 3439
00000010: 03ed bfbd c6a1 28ba f710 dcbc 3008 9d3d
00000020: c437 883c c831 65bd d2d0 31be 1422 7abd
00000030: 56b7 00bd ef2c f63c 8d50 1a3e e24f debd
00000040: b21a a33c 9289 33bc 2efe 1d3e dfd8 04bd
00000050: aec5 29be 4f84 3a3d 41c6 e33b d976 d33d
00000060: a534 2abe d835 33be b109 293d 544d 19be
00000070: 1ad2 15bd f8c0 03bd adea 973d 4e82 3e3d
00000080: 2d50 5fbd a620 65bc e600 14bd 0814 a1bd
00000090: fe84 e8bd 0773 41bd 7513 da3c 83a3 16bc
000000a0: 807f 4dbd 9cbb 6e3c 414b e0bd 1b6d dbbd
000000b0: d372 a03d 85fa 103e 4d32 fcbd 7d5b 9fbc
000000c0: 2a82 503d 2e85 0c3e 3537 233d 9910 a4bd
000000d0: 38c5 1bbe f896 e93a ea7a 703c c416 d83b
000000e0: 9336 853d 62bd ecbc 89e7 b5bd 683d 07be
000000f0: fa9e 103e 20b6 dcbd b061 943b cff2 cabd
00000100: 761f c63d 6a25 933c 7126 043e 4033 07be
00000110: 4308 a83d 7844 e83d 5ca1 17be 9002 a63c
00000120: e49f 463c b4e5 c3bd 83b7 f1bc 5137 bdbc
00000130: c230 173d 4535 fd3c 98f1 0bbd 38f4 9a3d
00000140: 7a0c 8b3d 1f9c ba3d e263 ed3c 283a 06be
00000150: 873f c93d ca05 9fbd 9c7c 08bd f8ea 503d
00000160: 8d39 1d3d 69c9 ecbd e3f4 9fbd 063e e23c
00000170: 3b14 7b3d 53dd 83bd 2ec0 003e a0b0 9a3d
00000180: e4df 1bbe 95d9 50bd f4a2 a33d 9281 e0bc
00000190: d48c 99bd 1ae9 cfbc 7060 d43c 4943 02bd
000001a0: ab1b 86bd f597 b53c 548a 813d cdd2 f33d
000001b0: fc8c 573d b8d2 303d 37f3 503d 7954 043e
000001c0: b094 08be 1891 13bd 65c4 89bd f799 3abd
000001d0: bd37 b23d bd65 d03d 5353 a2bd dcdd 76bd
000001e0: 8af6 583d e9d9 7b3d c081 703d 2b48 2f3d
000001f0: 3d12 b8bd e3e6 933d 69dc d7bd cc95 62bd
00000200: ee02 5c3b ee41 1c3b 95d8 b43c aa45 e9bd
00000210: 4f2b 073e afa5 a6bd dcb2 633b c2a5 d53b
00000220: 4ab0 5c3a 0761 1fbd 05d2 8f3c 7701 343d
00000230: 195d a4bd 9eac c93d 66fe c8bc d632 d03d
00000240: 2202 c3bd acf9 0b3e 0fd3 9d3d 2838 c9bc
00000250: 1104 b33c 5684 a23d fe5b e1bd 2d50 a53d
00000260: 1f07 753d 405d 82bd 1aac 6b3d b0f6 5c3d
00000270: f997 f43c f02a de3d 33b3 eabd 1792 bdbc
00000280: 4d16 373c 4e3b a13d e0dc b03d 154a 27bc
00000290: 3385 a4bd f02b 0abe 6191 3c3c 0628 19bd
000002a0: dcd6 e9bc 3006 a13c a94c 963d 4d39 493d
000002b0: bffe 2d3d 9320 12bd 2751 443d 2773 763d
000002c0: 2c27 78bd b05f f9bd ff2f bc3c cd87 36bd
000002d0: 692a df3d a2b2 d9bd dcfc 8bbd e6d9 323d
000002e0: b3a9 b8bd 4efd 10bc eb23 863d 8a00 a3bd
000002f0: fa09 4c3d ee3d dd3d 8cd9 cebd 4835 e93c
00000300: 4313 a2bd 8348 9ebd 2a4b f3bd 707b 703d
00000310: 1593 a13d 5ef6 a0bd 1f14 b83d 1393 74bd
00000320: a69c 6b3d 3799 d0bd 7d14 023e 092f e3bd
00000330: 8109 743d 808d 4e3d c09b 1a3d 5fd8 f13d
00000340: 879e 6c3d 57b0 983d 7c7b ebbd ef54 a2bd
00000350: da32 49bc 172f 063e ca44 b63d 03f1 02be
00000360: 0a3c 903d 57e4 cd3a e01a 9bbb b1e9 fdbc
00000370: 7aa1 663d ceda 3fbd f72b 543d c6e7 acbd
00000380: 9eb4 ecbb d42e 243d 5cbc 0fbd 0842 f83d
00000390: 3bf0 c0bd 6697 533d 056b b73d bc04 d3bc
000003a0: 29ef 463d 589b f6bd 51ae 4ebd 3581 9bbd
000003b0: dd27 1a3d 7b11 3fbd 19fe 00be bd38 00be
000003c0: ccbd fbbb 92d5 da3d b01f c73d 29fc 0bbd
000003d0: cf77 39bd e855 b8bd b1b0 b83d a306 bbbd
000003e0: 1424 ccbc 142b 92bd 203c 18be 0216 e83c
000003f0: 75f6 c2bd 8949 dabc 7e16 4a3d 2066 6b3d

decoder.6.bias f4 [118]
-0.012860852 -0.020832755 -0.029477661 -0.09604747 -0.09150656 -0.076186046 8.356165e-05 0.026188597
0.10581777 0.030287344 -0.07756675 0.14073853 -0.009331698 0.13813838 0.122401066 0.025673961
0.09863441 -0.0032781672 0.086821154 0.032344144 -0.058417223 -0.102355525 -0.019644668 -0.08720072
0.06378154 -0.046090163 -0.09232884 0.0048194914 0.044747688 -0.02861231 0.029942455 0.099924356
-0.05399824 -0.06403371 0.092782125 0.016560584 0.05321464 -0.019036032 0.07822674 0.14895149
0.06125698 -0.068054825 -0.08148665 -0.06555991 -0.018758362 -0.03876979 0.0015184182 -0.019125007
0.0938823 0.027923299 -0.081457086 -0.029579025 -0.051805954 0.032577705 0.06564728 0.060325794
0.04602147 0.07608135 -0.064604804 -0.0759561 -0.023157848 -0.1170681 0.029389052 0.06474361
-0.045195818 -0.09264374 -0.04139018 0.059385642 0.0068455725 -0.025102168 -0.018849518 0.08955042
0.08176257 -0.06561329 0.039104424 -0.04199717 -0.06014154 -0.06057866 -0.031289976 0.036897477
0.027902463 -0.044918153 0.007012213 0.043374512 -0.06580962 -0.02655814 0.023615422 0.043279856
-0.0066191494 -0.017328497 -0.10703802 -0.05987987 0.06981318 0.08732391 0.041333154 0.096029356
-0.060695857 -0.06488214 -0.07922442 -0.029685691 0.078623086 0.093333274 0.11632955 0.06254772
-0.011650742 -0.074522234 -0.08283939 -0.048205744 -0.09812971 -0.05842782 -0.13352014 0.05136374
0.09721526 -0.019769713 0.122649625 -0.015480619 -0.10557903 0.033042807
00000000: 53b6 52bc 74a9 aabc 237b f1bc 89b4 c4bd
00000010: cb67 bbbd 6e07 9cbd d23d af38 7889 d63c
00000020: fdb6 d83d 2a1d f83c 51db 9ebd c31d 103e
00000030: fae3 18bc 2674 0d3e 69ad fa3d 3352 d23c
00000040: d600 ca3d 85d6 56bb 4acf b13d 4b7b 043d
00000050: e646 6fbd c69f d1bd dbed a0bc 4b96 b2bd
00000060: e59f 823d 0ac9 3cbd e716 bdbd d3ec 9d3b
00000070: 5a49 373d 5d64 eabc e149 f53c 24a5 cc3d
00000080: 422d 5dbd 1b24 83bd 8e04 be3d 10aa 873c
00000090: 98f7 593d 74f1 9bbc 5735 a03d bd86 183e
000000a0: 99e8 7a3d 5460 8bbd 79e2 a6bd 4644 86bd
000000b0: 23ab 99bc 12cd 1ebd a905 c73a 0cac 9cbc
000000c0: 5d45 c03d 67bf e43c f9d2 a6bd b64f f2bc
000000d0: 7b32 54bd 3370 053d 1572 863d 2e18 773d
000000e0: 0281 3c3d 8ad0 9b3d 864f 84bd df8e 9bbd
000000f0: 87b5 bdbc 66c1 efbd 4fc1 f03c 4c98 843d
00000100: 401f 39bd 00bc bdbd c088 29bd 5c3e 733d
00000110: d350 e03b 10a3 cdbc 4e6a 9abc 3666 b73d
00000120: 2273 a73d 4360 86bd f62b 203d 3905 2cbd
00000130: fa56 76bd 5421 78bd eb29 00bd cf21 173d
00000140: b593 e43c 19fc 37bd b5c6 e53b 79a9 313d
00000150: 32c7 86bd 7590 d9bc 2175 c13c 3846 313d
00000160: 73e5 d8bb 7ef4 8dbc c036 dbbd 9844 75bd
00000170: 36fa 8e3d e1d6 b23d f44c 293d 0aab c43d
00000180: 389c 78bd ede0 84bd 6a40 a2bd 682f f3bc
00000190: 2405 a13d 8425 bf3d 303e ee3d 0519 803d
000001a0: c1e2 3ebc 1d9f 98bd b3a7 a9bd 6373 45bd
000001b0: 3bf8 c8bd 0352 6fbd 81b9 08be c962 523d
000001c0: cb18 c73d 18f4 a1bc ba2f fb3d 6ca2 7dbc
000001d0: d239 d8bd e557 073d

estimation.0.weight f4 [10, 3]
-0.16459133 -0.12797864 -0.33738843 0.46081156 -0.011195696 0.38200176 -0.17766222 -0.20361762
0.32427764 0.30869824 0.11505752 -0.3150808 -0.15844777 0.23391846 -0.4406902 -0.006036699
0.46688572 0.24013501 -0.25733122 -0.13723817 -0.36442798 0.060586613 -0.30455753 0.1624301
-0.39922285 0.6519865 -0.14054355 -0.3373536 0.6398728 0.15943763
00000000: a18a 28be d50c 03be 2dbe acbe 7eef eb3e
00000010: 276e 37bc bc95 c33e 16ed 35be 2381 50be
00000020: b807 a63e b20d 9e3e 47a3 eb3d 4552 a1be
00000030: 2240 22be 5288 6f3e 25a2 e1be 80cf c5bb
00000040: a50b ef3e f4e5 753e ebc0 83be 2a88 0cbe
00000050: 4e96 babe ab29 783d f7ee 9bbe 1354 263e
00000060: f066 ccbe 96e8 263f a6ea 0fbe 9cb9 acbe
00000070: b4ce 233f 9e43 233e

estimation.0.bias f4 [10]
0.893534 -0.6395147 -0.48054028 0.53160095 0.15146305 0.6582583 -0.7383715 0.23994096
0.73465717 0.49074382
00000000: a5be 643f 3cb7 23bf 6009 f6be 0017 083f
00000010: 2119 1b3e 9e83 283f ea05 3dbf 15b3 753e
00000020: 7e12 3c3f c642 fb3e

estimation.3.weight f4 [4, 10]
-0.3689643 0.474494 0.06211102 -0.39169323 0.0050693513 -0.3396022 0.31901616 -0.20156729
-0.12774736 0.03723407 -0.5784221 -0.109861955 0.3621108 -0.03051194 -0.3309061 -0.29443493
0.19599631 0.016068885 -0.18421364 -0.45112178 0.63767517 -0.17004414 -0.57630527 0.4370602
0.25104684 0.4102178 -0.33114606 -0.14649305 0.35544676 0.54527956 -0.019283067 0.044869225
0.3769056 -0.21716794 -0.16729508 -0.49041682 0.3927491 0.09372605 -0.48310393 -0.5259755
00000000: e4e8 bcbe e1f0 f23e 2068 7e3d 048c c8be
00000010: cd1c a63b 57e0 adbe 1656 a33e a867 4ebe
00000020: 34d0 02be c182 183d 7913 14bf 4eff e0bd
00000030: 9666 b93e 2df4 f9bc 866c a9be 2dc0 96be
00000040: 42b3 483e e5a2 833c 80a2 3cbe 6ff9 e6be
00000050: ae3e 233f 0d20 2ebe be88 13bf 5bc6 df3e
00000060: 3689 803e 1108 d23e fa8b a9be 4602 16be
00000070: 1efd b53e 7197 0b3f 86f7 9dbc cbc8 373d
00000080: c5f9 c03e 4661 5ebe 674f 2bbe ea17 fbbe
00000090: 6916 c93e 71f3 bf3d 6659 f7be 55a6 06bf

estimation.3.bias f4 [4]
-0.34080327 -0.36520138 0.29806185 -0.109508425
00000000: c47d aebe adfb babe 909b 983e f445 e0bd
