Baseline-models/DAGMM/DAGMM-ROAD/no--dagmm/models/3_194_dagmm.pth (torch, 82173 bytes, 22 tensors)

phi f4 [4]
0.26375487 0.20529939 0.36760405 0.16334166
00000000: e10a 873e 013a 523e 9936 bc3e 0943 273e

mu f4 [4, 3]
-0.09321952 1.3954797 -0.12054893 0.00062277314 1.3333164 -0.045251474 -0.1340932 1.4220212
-0.15313928 0.087890595 1.2756612 0.024708547
00000000: e0e9 bebd 149f b23f 5be2 f6bd 9941 233a
00000010: 1daa aa3f 9c59 39bd ba4f 09be ca04 b63f
00000020: 8bd0 1cbe fcff b33d de48 a33f 9469 ca3c

cov f4 [4, 3, 3]
0.36181208 -0.23780169 0.2896244 -0.23780169 0.15668988 -0.19050947 0.2896244 -0.19050947
0.23190032 0.41613865 -0.27365795 0.33317792 -0.27365795 0.18028902 -0.21923164 0.33317792
-0.21923164 0.26680905 0.33319938 -0.21888345 0.26667544 -0.21888345 0.14414112 -0.17532027
0.26667544 -0.17532027 0.2134877 0.4524435 -0.2975974 0.36227658 -0.2975974 0.19601558
-0.23839945 0.36227664 -0.23839945 0.2901257
00000000: 6f3f b93e 4982 73be a649 943e 4982 73be
00000010: 5073 203e ea14 43be a649 943e ea14 43be
00000020: 4777 6d3e 2010 d53e e51c 8cbe 4c96 aa3e
00000030: e51c 8cbe af9d 383e 427e 60be 4c96 aa3e
00000040: 427e 60be 329b 883e 1c99 aa3e fc22 60be
00000050: af89 883e fc22 60be bb99 133e 2887 33be
00000060: af89 883e 2887 33be 859c 5a3e ada6 e73e
00000070: b05e 98be 517c b93e b05e 98be 4fb8 483e
00000080: fc1e 74be 537c b93e fc1e 74be 5b8b 943e

encoder.0.weight f4 [60, 118]
-0.02713997 0.08473496 0.0199338 -0.0042446144 0.08132751 -0.036607053 0.027727976 0.05164724
-0.070200235 0.060404103 0.032545112 0.010974962 0.03924677 0.04370701 -0.06337069 -0.046278622
0.06822001 -0.04969531 -0.027713425 -0.07645574 -0.021693124 -0.03164457 0.029828554 -0.059888583
0.08322097 0.058751173 0.08335273 -0.030632459 -0.04449998 -0.09345792 -0.09023949 -0.020806978
0.054952037 0.029127467 -0.04511486 0.04901954 -0.023783317 -0.059880942 -0.018432057 -0.061818
0.045373213 0.032906342 0.026085481 -0.009928754 -0.040543213 0.006970041 -0.08292578 -0.036442015
-0.036439467 -0.07608633 -0.04043673 -0.023846272 -0.025422152 -0.014000146 -0.00044060085 -0.08874977
-0.043672454 -0.015955513 -0.0048309397 -0.016742177 -0.0062211454 -0.037409637 0.07548377 0.03746278
0.071146555 0.07292914 0.06496414 -0.07468823 0.038997512 0.07186905 0.09807389 0.034353144
0.061848424 -0.057709847 0.036955286 -0.07165059 -0.031557858 -0.0046943757 -0.082795076 -0.0069949147
-0.0326573 0.023349483 -0.048749544 0.013837646 0.06523466 -0.006963663 -0.08062405 0.060086783
-0.09463906 0.06831429 0.0037880926 0.011542475 -0.07680611 0.026704589 0.037405223 0.07743031
0.032042176 0.00014427304 0.064990275 -0.049724337 0.059534825 0.063159384 -0.04984949 -0.029440325
0.0027368274 0.04210135 0.0014201128 -0.07318008 0.050306197 0.02586722 -0.047194164 0.013983376
-0.026141835 -0.07789615 0.07155357 -0.016690753 0.055444334 -0.007744997 -0.032361504 0.061445802
0.08764124 -0.010220033 -0.011079197 -0.06921102 -0.0654947 0.030928187 -0.008482791 0.050193224
0.041972592 0.033088114 -0.018024059 0.03218172 -0.024367705 -0.036803067 0.033854224 -0.02608967
0.041688677 -0.031899184 0.042473353 0.071314044 0.015806088 -0.045742635 0.020115696 -0.059151303
-0.05686052 -0.10584816 0.070549086 -0.08135318 0.013001431 0.003256089 0.07837447 0.010026679
0.016264599 -0.067442186 0.03542259 0.078506626 -0.0725346 -0.02422431 -0.08738102 0.0045520933
0.02734501 -0.03490534 -0.02412703 -0.034704205 -0.023670124 0.03497193 0.095252134 0.08921861
-0.03710922 0.0071206824 -0.07233494 0.06548339 -0.07358292 0.027854683 -0.019711182 0.052054808
0.07292764 -0.011798398 0.08877542 -0.025949638 0.05233947 0.020864725 0.07062443 0.044167623
-0.01256271 0.010936311 0.0032365823 -0.050273497 -0.020140985 -0.029723695 0.057161473 0.048270244
0.06822466 -0.026683284 -0.009626803 0.085056245 0.025942588 0.0005623043 -0.0063672024 0.017747132
-0.07000767 -0.050177086 -0.0750684 0.04495891 -0.009786122 -0.103322856 -0.00596995 -0.037618726
0.05550781 0.0019794109 -0.08849775 0.07282123 -0.030395709 -0.042638715 -0.05147214 -0.06191109
-0.024480408 -0.084552564 -0.016842566 -0.05103899 0.11259305 -0.019531893 0.09462317 -0.047426842
0.011815739 0.023673328 -0.019499643 -0.10284579 -0.023004172 0.035673786 -0.03587275 -0.0007251756
0.013505662 0.09521555 -0.037802752 -0.015793692 -0.006989808 -0.05621263 0.016358739 -0.044069503
0.042421743 -0.0903836 -0.0881708 0.042245243 0.07255948 -0.007897018 0.005017072 0.0033468024
0.07740623 0.042613864 0.008236662 0.057968866 0.036202017 0.009775683 0.007023278 0.078301154
00000000: a454 debc 8689 ad3d 354c a33c 6816 8bbb
00000010: 0a8f a63d 47f1 15bd c825 e33c 0e8c 533d
00000020: 24c5 8fbd 4b6a 773d 064e 053d 54d0 333c
00000030: 39c1 203d 1f06 333d 7ec8 81bd a78e 3dbd
00000040: efb6 8b3d 4f8d 4bbd 4407 e3bc d494 9cbd
00000050: c7b5 b1bc bd9d 01bd 035b f43c bb4d 75bd
00000060: c26f aa3d 12a5 703d d6b4 aa3d ecf0 fabc
00000070: 9c45 36bd de66 bfbd 7bcf b8bd 6573 aabc
00000080: 6315 613d ba9c ee3c 5cca 38bd b7c8 483d
00000090: 3bd5 c2bc b845 75bd d3fe 96bc df34 7dbd
000000a0: 43d9 393d cdc8 063d 38b1 d53c 36ac 22bc
000000b0: a410 26bd f164 e43b fed4 a9bd 3944 15bd
000000c0: 8d41 15bd 26d3 9bbd fca0 25bd 4259 c3bc
000000d0: 1e42 d0bc de60 65bc 7200 e7b9 70c2 b5bd
000000e0: e3e1 32bd 23b5 82bc dc4c 9ebb e426 89bc
000000f0: c0da cbbb d93a 19bd 3c97 9a3d 9272 193d
00000100: 49b5 913d df5b 953d eb0b 853d 25f6 98bd
00000110: dbbb 1f3d 1530 933d f7da c83d e2b5 0c3d
00000120: c654 7d3d 2961 6cbd 6d5e 173d 8bbd 92bd
00000130: d042 01bd 47d3 99bb 7790 a9bd 9935 e5bb
00000140: a9c3 05bd 6a47 bf3c 9aad 47bd 4bb7 623c
00000150: c099 853d 702f e4bb 391e a5bd 8f1d 763d
00000160: 20d2 c1bd 5de8 8b3d a641 783b a61c 3d3c
00000170: 864c 9dbd 95c3 da3c 3836 193d c893 9e3d
00000180: a83e 033d 0048 1739 9f19 853d bfab 4bbd
00000190: cada 733d b559 813d fb2e 4cbd d62c f1bc
000001a0: 585c 333b 7772 2c3d 1423 ba3a 70df 95bd
000001b0: df0d 4e3d 7ee7 d33c ab4e 41bd 881a 653c
000001c0: 6727 d6bc 0488 9fbd ae8a 923d 0cbb 88bc
000001d0: 9919 633d bec9 fdbb 7f8d 04bd 98ae 7b3d
000001e0: 407d b33d ed71 27bc 8585 35bc 82be 8dbd
000001f0: 1622 86bd 1c5d fd3c 67fb 0abc 6997 4d3d
00000200: 74eb 2b3d 6787 073d 31a7 93bc fbd0 033d
00000210: c89e c7bc d0be 16bd baaa 0a3d 01ba d5bc
00000220: bfc1 2a3d b8a8 02bd 8af8 2d3d 190d 923d
00000230: c57b 813c a15c 3bbd acc9 a43c a348 72bd
00000240: 94e6 68bd ecc6 d8bd 0a7c 903d 7f9c a6bd
00000250: f403 553c 1c64 553b cb82 a03d f146 243c
00000260: 563d 853c 211f 8abd 4717 113d 15c8 a03d
00000270: 058d 94bd 0f72 c6bc d2f4 b2bd ba29 953b
00000280: a402 e03c e7f8 0ebd 0da6 c5bc ff25 0ebd
00000290: d9e7 c1bc ba3e 0f3d 8d13 c33d 3fb8 b63d
000002a0: d6ff 17bd 9d54 e93b 5724 94bd 281c 863d
000002b0: a4b2 96bd 812f e43c 5879 a1bc 6c37 553d
000002c0: 165b 953d 114e 41bc e3cf b53d 5694 d4bc
000002d0: e961 563d 80ec aa3c 8ba3 903d 1ce9 343d
000002e0: d3d3 4dbc 372e 333c d71c 543b 95eb 4dbd
000002f0: b5fe a4bc 1b7f f3bc 2622 6a3d 05b7 453d
00000300: 5fb9 8b3d e796 dabc bdb9 1dbc f831 ae3d
00000310: 8d85 d43c 9a67 133a f7a3 d0bb 6f62 913c
00000320: 2e60 8fbd 7d86 4dbd 76bd 99bd d626 383d
00000330: f855 20bc ef9a d3bd 929f c3bb 1816 1abd
00000340: 285c 633d 01b9 013b 4f3e b5bd 4c23 953d
00000350: 6c00 f9bc efa5 2ebd 73d4 52bd 7c96 7dbd
00000360: 238b c8bc e529 adbd 6cf9 89bc 430e 51bd
00000370: 2f97 e63d 5901 a0bc cbc9 c13d a642 42bd
00000380: cd96 413c 91ee c13c b7bd 9fbc d0a0 d2bd
00000390: 3f73 bcbc ad1e 123d 4eef 12bd b619 3eba
000003a0: da46 5d3c 5f00 c33d 0fd7 1abd c661 81bc
000003b0: c20a e5bb 373f 66bd c302 863c 3982 34bd
000003c0: 6cc2 2d3d 091b b9bd e492 b4bd 5909 2d3d
000003d0: 119a 943d 7f62 01bc 4066 a43b 0756 5b3b
000003e0: 2887 9e3d e08b 2e3d 10f3 063c c370 6d3d
000003f0: 9148 143d 302a 203c 8723 e63b 5b5c a03d

encoder.0.bias f4 [60]
0.018314403 0.07394422 0.009790871 0.05862659 -0.05562637 0.026790591 -0.08753489 -0.018761745
0.06799139 0.08318749 0.0056286287 -0.028773328 -0.05563137 0.054955553 -0.025715666 -0.06522139
-0.022133311 0.061017223 -0.060776524 0.10032523 0.0046891714 0.04544008 -0.10410127 -3.9123646e-05
0.046453558 0.024824288 0.03494334 -0.024186866 -0.015549171 0.07373956 0.05481995 -0.0056454195
0.0635625 -0.0662182 0.038628295 -0.08621395 0.0678444 0.10789451 -0.04483395 0.010325173
-0.047004946 -0.027632276 0.015940165 -0.035503644 -0.032273423 -0.036791794 0.031116076 -0.04631089
-0.052947752 -0.0108164605 -0.03076097 -0.057014365 -0.06995395 -0.046740137 -0.0047805784 0.0042767944
0.030563096 0.01218205 -0.037701502 0.069249645
00000000: 1608 963c 1170 973d e469 203c 6f22 703d
00000010: 7ad8 63bd f177 db3c 7e45 b3bd 3bb2 99bc
00000020: 123f 8b3d 345e aa3d 5c70 b83b 0bb6 ebbc
00000030: b8dd 63bd 1319 613d a9a9 d2bc cb92 85bd
00000040: eb50 b5bc 32ed 793d cef0 78bd 5077 cd3d
00000050: 9fa7 993b 611f 3a3d 0c33 d5bd b218 24b8
00000060: 1646 3e3d 4e5c cb3c bf20 0f3d 8923 c6bc
00000070: f3c1 7ebc c404 973d e28a 603d 36fd b8bb
00000080: 0e2d 823d 689d 87bd b438 1e3d f090 b0bd
00000090: 01f2 8a3d ccf7 dc3d cea3 37bd ea2a 293c
000000a0: 4288 40bd 155d e2bc f394 823c 456c 11bd
000000b0: 2331 04bd feb2 16bd 24e7 fe3c 7db0 3dbd
000000c0: bedf 58bd 8637 31bc 6efe fbbc e587 69bd
000000d0: 0444 8fbd 9672 3fbd 66a6 9cbb 5a24 8c3b
000000e0: 755f fa3c 3997 473c e46c 1abd c2d2 8d3d

encoder.2.weight f4 [30, 60]
-0.1278505 0.1045943 -0.05617047 -0.017436787 -0.097954564 0.056109626 -0.07714026 0.09222866
0.09275385 -0.047798797 0.06692343 -0.008838356 -0.117368005 -0.08663916 0.11797503 0.04270496
-0.0064433236 -0.038310032 0.10777375 -0.0340695 0.111887105 -0.11657766 -0.107348375 0.030385822
0.10137132 0.048509654 -0.011354381 0.02279677 0.11665516 -0.13245924 0.013101221 -0.070894174
0.0145130465 -0.001932976 -0.030909102 0.015427036 0.07268661 -0.0010031315 0.014847179 0.069073185
0.13938822 -0.06813777 -0.09507506 -0.11800397 -0.11705181 -0.017798305 -0.05205342 -0.12002037
-0.06686254 0.029330876 0.10370297 0.12364887 0.07531995 -0.043821607 0.019262355 0.01756976
-0.09440312 0.14040488 -0.1257495 0.11192627 -0.09523912 0.007505405 0.105955556 -0.061545707
0.10311236 -0.0817542 0.07236491 0.12317639 0.111010626 0.060692906 0.038536757 0.11968424
0.037343513 -0.055986736 0.05113799 -0.1060269 -0.0735401 0.013955731 0.035306394 -0.04772247
-0.10373882 0.030688023 0.01068411 -0.007970376 -0.003975885 0.036891244 0.0858371 0.12572968
0.06583724 -0.04272937 0.026398288 -0.10517975 0.07130437 -0.09624487 -0.024698561 0.10085434
0.054010093 -0.1161359 0.09413469 0.09688661 0.07596098 0.07577247 -0.08189036 -0.12578468
0.09062056 -0.027106266 0.059777282 0.07008111 0.06872566 -0.07545349 -0.110062025 -0.028245555
-0.0562688 -0.10408769 0.09538783 0.13915204 -0.031745195 0.08000454 0.055600353 0.051475205
-0.025852237 -0.079156205 -0.032741074 0.024724582 0.07817305 0.051695447 0.105802715 -0.066253245
-0.061205883 -0.06821686 -0.09461159 -0.028206237 -0.06933688 0.06828967 0.027523484 -0.029784834
0.093659155 0.07436203 -0.10004574 0.00031880641 0.02253383 0.069296904 -0.13792226 -0.14288437
-0.14170222 -0.006081806 0.14077446 0.059439484 -0.12739563 0.1099778 -0.07427293 -0.09221523
0.13317709 0.041120987 0.05196708 -0.002919589 0.027653027 0.01479069 0.02564901 -0.006760346
-0.13475142 0.1266105 0.106675 -0.003036805 -0.025143776 0.10829395 0.1121382 0.05992542
0.07652849 -0.109124705 0.06048607 0.109363884 -0.081355155 0.13972138 -0.102591135 -0.13813402
-0.082057364 -0.024371598 -0.10347728 -0.053832244 0.109752566 0.067703426 -0.016324226 -0.027202081
-0.12831846 0.14026989 -0.047594175 -0.0073455404 -0.067531206 -0.094945565 -0.13445915 -0.11901597
-0.008977609 0.059121232 0.072053775 -0.028986799 0.01454507 0.07610189 0.06923269 0.137096
-0.033003867 -0.03309076 -0.020118283 0.07098618 0.021046404 -0.14107913 0.10070746 -0.0067410674
-0.11512547 0.14182442 -0.08261428 -0.006974568 -0.06614631 -0.082241245 -0.10839446 0.07832232
0.066074535 -0.04222135 0.06755636 -0.11258089 -0.05002941 0.000316484 0.10845619 0.10710028
-0.08492038 0.045801733 -0.02493888 0.096959144 -0.07208873 -0.120831504 -0.036174774 0.041484114
-0.05160835 0.058954332 -0.13633977 -0.11839418 0.03412237 -0.13612075 0.057475593 0.0153715415
0.11487962 -0.028266735 -0.021268738 -0.14110462 -0.07702136 -0.06988982 -0.12977597 -0.08583345
0.092268765 -0.08792724 -0.15159051 -0.13402006 -0.09148298 0.075225174 -0.11000468 -0.057351433
00000000: 3eeb 02be 8935 d63d 0213 66bd 98d7 8ebc
00000010: 679c c8bd 35d3 653d b6fb 9dbd 61e2 bc3d
00000020: bbf5 bd3d acc8 43bd 270f 893d c0ce 10bc
00000030: a35e f0bd df6f b1bd e49c f13d 65eb 2e3d
00000040: 8422 d3bb fbea 1cbd 7cb8 dc3d 768c 0bbd
00000050: 1125 e53d 45c0 eebd 77d9 dbbd b0eb f83c
00000060: c49b cf3d 0fb2 463d ba07 3abc 4bc0 ba3c
00000070: e7e8 ee3d 65a3 07be 81a6 563c f730 91bd
00000080: 21c8 6d3c e95b fdba 1635 fdbc aec1 7c3c
00000090: b8dc 943d 827b 83ba 9541 733c 3e76 8d3d
000000a0: c9bb 0e3e d18b 8bbd b7b6 c2bd 11ac f1bd
000000b0: dcb8 efbd c0cd 91bc f835 55bd 3dcd f5bd
000000c0: 3aef 88bd 4e47 f03c 3962 d43d 9e3b fd3d
000000d0: 5941 9a3d 497e 33bd 16cc 9d3c 75ee 8f3c
000000e0: 6c56 c1bd 4cc6 0f3e 7ac4 00be 9a39 e53d
000000f0: ba0c c3bd e7ef f53b 3aff d83d 5a17 7cbd
00000100: 932c d33d bf6e a7bd 0e34 943d e743 fc3d
00000110: 8a59 e33d 2099 783d b8d8 1d3d 031d f53d
00000120: 83f5 183d 5952 65bd 1276 513d a224 d9bd
00000130: 319c 96bd 94a6 643c 709d 103d a378 43bd
00000140: 0575 d4bd 7365 fb3c 680c 2f3c 2e96 02bc
00000150: 2448 82bb 461b 173d 5dcb af3d 48bf 003e
00000160: add5 863d fe04 2fbd 3941 d83c 7b68 d7bd
00000170: 0708 923d 081c c5bd a354 cabc b88c ce3d
00000180: b039 5d3d a9d8 edbd b0c9 c03d 7d6c c63d
00000190: 6e91 9b3d 992e 9b3d 22b6 a7bd b3cd 00be
000001a0: 4697 b93d f60d debc 06d9 743d af86 8f3d
000001b0: 0ac0 8c3d 5c87 9abd 3368 e1bd 3963 e7bc
000001c0: 1d7a 66bd ed2b d5bd b25a c33d df7d 0e3e
000001d0: 4007 02bd 6cd9 a33d 32bd 633d aad7 523d
000001e0: 12c8 d3bc a61c a2bd 811b 06bd 358b ca3c
000001f0: 3119 a03d 9bbe 533d 18af d83d c8af 87bd
00000200: 05b3 7abd 48b5 8bbd b9c3 c1bd c410 e7bc
00000210: 7f00 8ebd 74db 8b3d ee78 e13c 53ff f3bc
00000220: 5fd0 bf3d 1f4b 983d c8e4 ccbd 7925 a739
00000230: de98 b83c 89eb 8d3d 7e3b 0dbe 4850 12be
00000240: 631a 11be e349 c7bb 2e27 103e d176 733d
00000250: 0074 02be 0a3c e13d 681c 98bd 57db bcbd
00000260: 935f 083e 7b6e 283d 6fdb 543d 9356 3fbb
00000270: 9a88 e23c a654 723c df1d d23c e485 ddbb
00000280: 47fc 09be 2fa6 013e 6c78 da3d 2205 47bb
00000290: 52fa cdbc 38c9 dd3d b6a8 e53d 5b74 753d
000002a0: f8ba 9c3d c67c dfbd 3ec0 773d 2cfa df3d
000002b0: 889d a6bd 1f13 0f3e 4d1b d2bd 0173 0dbe
000002c0: b10d a8bd f2a6 c7bc e5eb d3bd 337f 5cbd
000002d0: f4c5 e03d 18a8 8a3d 62ba 85bc e6d6 debc
000002e0: ea65 03be e9a2 0f3e 1cf2 42bd dcb2 f0bb
000002f0: cd4d 8abd d272 c2bd a9af 09be a5be f3bd
00000300: d216 13bc 1b29 723d ee90 933d b975 edbc
00000310: 724e 6e3c 4fdb 9b3d dec9 8d3d e562 0c3e
00000320: 102f 07bd 2d8a 07bd 19cf a4bc 3461 913d
00000330: 8269 ac3c 0c77 10be b63f ce3d 2ce4 dcbb
00000340: e7c6 ebbd 6c3a 113e ad31 a9bd eb8a e4bb
00000350: b777 87bd 196e a8bd eafd ddbd 7467 a03d
00000360: 1652 873d 4bf0 2cbd fd5a 8a3d cf90 e6bd
00000370: a3eb 4cbd c3ed a539 471e de3d 6457 db3d
00000380: bcea adbd 999a 3b3d 9f4c ccbc 8492 c63d
00000390: 42a3 93bd 8276 f7bd 002c 14bd 3feb 293d
000003a0: 4763 53bd 197a 713d a79c 0bbe a678 f2bd
000003b0: e6c3 0b3d 3d63 0bbe 876b 6b3d ebd8 7b3c
000003c0: 0246 eb3d a48f e7bc c73b aebc bb7d 10be
000003d0: 60bd 9dbd 6522 8fbd fee3 04be 73c9 afbd
000003e0: 68f7 bc3d 3213 b4bd 8b3a 1bbe 8e3c 09be
000003f0: 6e5b bbbd a80f 9a3d 224a e1bd 56e9 6abd

encoder.2.bias f4 [30]
-0.10519867 -0.015861582 0.092919946 -0.031008387 0.07173566 0.0132121565 0.07094149 0.024701118
0.020817956 -0.024411965 -0.075196065 0.098635346 0.0579062 0.018110018 0.13630025 0.039633323
-0.0037046785 0.060925417 0.05798036 0.034770854 0.059052978 0.070733115 -0.043491736 0.08587969
0.10389218 0.10263288 0.054987557 0.032852694 0.08791365 0.057087757
00000000: 6672 d7bd 26f0 81bc d04c be3d 4d05 febc
00000010: 25ea 923d cd77 583c c649 913d 005a ca3c
00000020: 6b8a aa3c 9afb c7bc 6500 9abd 5401 ca3d
00000030: 0d2f 6d3d 765b 943c 4b92 0b3e 8d56 223d
00000040: 31ca 72bb ee8c 793d d07c 6d3d e26b 0e3d
00000050: 89e1 713d 86dc 903d 6424 32bd b1e1 af3d
00000060: 6cc5 d43d 3031 d23d a23a 613d 8c90 063d
00000070: 120c b43d dad4 693d

encoder.4.weight f4 [10, 30]
-0.15384635 0.16959846 -0.072551206 -0.051145874 0.10008476 0.020198574 -0.060358636 -0.14143288
-0.16163464 -0.04731635 0.06896034 -0.17367484 0.0646375 0.20453803 0.028458603 0.16994107
0.045750678 -0.19668563 -0.026790656 0.14501375 -0.06776538 -0.0072095594 -0.115351394 0.11931874
-0.018992292 -0.072395 0.105637364 0.14355497 0.122456245 0.018257385 0.17294392 -0.07491376
-0.060562685 -0.117539935 0.04281285 -0.13513644 0.08555934 0.08634391 -0.11849829 0.074456245
-0.028856352 -0.16754189 0.15667354 -0.03330887 -0.05138467 -0.071789116 0.03571206 -0.17841904
-0.13136224 0.16551004 0.17804883 -0.10473371 0.092354186 0.051975347 -0.14344166 -0.17619145
0.0782753 0.08836899 -0.18958847 -0.0068513984 -0.13869025 -0.08096871 -0.012812253 0.17048877
0.08268493 -0.14417079 -0.04480315 0.18715143 -0.043212846 -0.03789893 -0.033163797 -0.14840433
-0.12584183 0.1338469 -0.11708149 -0.023256257 0.17208806 0.1493833 -0.15800557 0.0005393453
-0.18830405 -0.05321813 -0.018186009 0.03144358 -0.068121694 0.17922837 -0.122684106 0.15397526
0.18372628 0.022589562 -0.1129383 -0.0011750339 0.081952855 0.02779798 0.18514363 -0.03838815
0.2012318 -0.04717323 -0.18527853 -0.055869002 0.00014642155 0.14361991 -0.03687724 0.1269263
0.16419809 0.0390502 0.035187576 -0.0064330385 -0.0388514 0.07309563 -0.04299726 -0.12693189
0.054525696 0.12255968 -0.02465567 -0.037005357 0.043954905 0.16004005 -0.13643917 -0.10539487
0.19638965 0.009950992 -0.1216928 -0.16951677 -0.023369936 -0.07024984 -0.18296263 -0.031949475
0.08589747 0.062191926 -0.11975676 0.06299276 0.0017363924 -0.1458622 -0.0036882784 -0.04692008
-0.1740709 -0.13964061 0.020350672 -0.08702005 -0.12959206 0.0031230492 -0.12774014 -0.10369266
-0.05750665 0.07219487 0.022281056 -0.012615572 -0.1755281 -0.0022470076 -0.057791702 0.08972853
-0.056257363 0.15019701 0.059273962 0.041204415 0.10483497 -0.07917884 -0.13435179 0.041308813
-0.123168044 -0.011669256 -0.15422373 0.12603004 0.1507994 0.13837816 0.09754923 -0.18073873
-0.10560234 -0.0801938 0.00050862273 -0.031766318 0.1048801 0.060885374 0.115186915 0.08325745
-0.14554667 -0.04601408 0.03076037 -0.17216319 0.06662604 -0.08369645 0.04251575 0.13547927
0.110623874 -0.16973034 0.04027771 -0.09536757 0.15441008 0.11655273 0.18519075 0.068559274
0.06382397 -0.034945067 0.023138741 -0.15006562 -0.11841341 -0.079290904 0.066169545 -0.13369046
-0.16457817 -0.11948603 0.20245147 -0.089155614 -0.14925826 0.0790648 -0.20025583 0.14133735
0.13133198 -0.011070789 -0.0019998674 0.059889965 -0.03377955 0.030103173 -0.10198144 0.053861775
0.07941029 0.14037566 -0.07313274 0.098120615 -0.104938395 0.1377051 0.06647017 0.057306666
-0.08766097 -0.1808318 -0.15816838 -0.13479155 -0.030788142 0.029899523 -0.08126806 -0.07371512
0.15147842 0.07705037 -0.15339978 0.08507464 0.113770016 -0.07327367 0.18438177 0.028428374
-0.0020875474 0.14095984 -0.08254523 0.07461696 -0.00039637738 -0.10618628 0.0937292 -0.15794882
0.14970402 0.059522748 -0.13176788 -0.06699153 0.20370784 0.2070169 0.038933244 0.15913613
00000000: e689 1dbe 38ab 2d3e ba95 94bd 567e 51bd
00000010: 3df9 cc3d 7b77 a53c 9e3a 77bd c8d3 10be
00000020: 8d83 25be cace 41bd 143b 8d3d d1d7 31be
00000030: aa60 843d 6b72 513e 0422 e93c 0805 2e3e
00000040: 1065 3b3d f567 49be 1478 dbbc 7c7e 143e
00000050: 93c8 8abd 2b3e ecbb 5a3d ecbd 625d f43d
00000060: b995 9bbc d443 94bd 6758 d83d 1300 133e
00000070: 57ca fa3d 8390 953c 3618 313e 636c 99bd
00000080: 9410 78bd c7b8 f0bd 875c 2f3d 3561 0abe
00000090: bc39 af3d 13d5 b03d 3baf f2bd 847c 983d
000000a0: 2864 ecbc 1a90 2bbe 076f 203e e26e 08bd
000000b0: bb78 52bd 2c06 93bd cf46 123d 7bb3 36be
000000c0: d383 06be 777b 293e 6f52 363e a17e d6bd
000000d0: 3124 bd3d 1ae4 543d 5fe2 12be 886b 34be
000000e0: cd4e a03d cdfa b43d 7b23 42be b281 e0bb
000000f0: d104 0ebe ecd2 a5bd 7cea 51bc 9c94 2e3e
00000100: b756 a93d 82a1 13be 8283 37bd a0a4 3f3e
00000110: f4ff 30bd e93b 1bbd c3d6 07bd 4ef7 17be
00000120: aedc 00be 290f 093e 6cc8 efbd e883 bebc
00000130: da37 303e f0f7 183e 36cc 21be da62 0d3a
00000140: c7d2 40be 41fb 59bd d3fa 94bc fcca 003d
00000150: 6383 8bbd a487 373e ce41 fbbd b1ab 1d3e
00000160: be22 3c3e bf0d b93c 324c e7bd 9803 9aba
00000170: e6d6 a73d 97b8 e33c 4b96 3d3e e53c 1dbd
00000180: b50f 4e3e b838 41bd a8b9 3dbe e5d6 64bd
00000190: bc88 1939 1911 133e 970c 17bd f8f8 013e
000001a0: 8b23 283e 1af3 1f3d d920 103d 3dcc d2bb
000001b0: a522 1fbd 29b3 953d e51d 30bd 6ffa 01be
000001c0: 5656 5f3d 9200 fb3d b0fa c9bc ee92 17bd
000001d0: 0f0a 343d 8ae1 233e b6b6 0bbe 44d9 d7bd
000001e0: 5e1a 493e 7c09 233c 133a f9bd ce95 2dbe
000001f0: 4f72 bfbc 26df 8fbd 8e5a 3bbe 74dd 02bd
00000200: 03eb af3d f6bc 7e3d 0843 f5bd 5902 813d
00000210: a997 e33a e75c 15be 0bb7 71bb 452f 40bd
00000220: a43f 32be f3fd 0ebe 74b6 a63c 9137 b2bd
00000230: c8b3 04be 12ac 4c3b 50ce 02be d15c d4bd
00000240: 188c 6bbd e7da 933d c386 b63c 8bb1 4ebc
00000250: a3bd 33be 8842 13bb feb6 6cbd 97c3 b73d
00000260: 1f6e 66bd 3fcd 193e 41c9 723d f6c5 283d
00000270: b7b3 d63d 8428 a2bd 8493 09be 6e33 293d
00000280: 873f fcbd 6830 3fbc d3ec 1dbe 050e 013e
00000290: 286b 1a3e 01b3 0d3e e4c7 c73d 9313 39be
000002a0: 0a46 d8bd a63c a4bd 1855 053a 661d 02bd
000002b0: 61cb d63d f162 793d 1ee7 eb3d e282 aa3d
000002c0: 300a 15be 4379 3cbd 2cfd fb3c 8c4b 30be
000002d0: 3c73 883d 0b69 abbd ff24 2e3d 14bb 0a3e
000002e0: c58e e23d cacd 2dbe 3dfa 243d 1350 c3bd
000002f0: ad1d 1e3e 33b3 ee3d a5a2 3d3e ce68 8c3d
00000300: 24b6 823d 8f22 0fbd 758d bd3c cdaa 19be
00000310: bb82 f2bd 4563 a2bd e683 873d 27e6 08be
00000320: 2e87 28be 17b5 f4bd 704f 4f3e 3897 b6bd
00000330: 28d7 18be baec a13d dd0f 4dbe bdba 103e
00000340: e47b 063e 4162 35bc 3510 03bb 2e4f 753d
00000350: 6d5c 0abd ee9a f63c a5db d0bd 2a9e 5c3d
00000360: dda1 a23d a3be 0f3e 9ec6 95bd 76f3 c83d
00000370: f1e9 d6bd 9102 0d3e 8321 883d 65ba 6a3d
00000380: 9887 b3bd f92b 39be e4f6 21be cc06 0abe
00000390: 6a37 fcbc d8ef f43c de6f a6bd f4f7 96bd
000003a0: 291d 1b3e 96cc 9d3d d514 1dbe 9d3b ae3d
000003b0: 4100 e93d 8210 96bd 93ce 3c3e 9fe2 e83c
000003c0: 3ccf 08bb c757 103e 790d a9bd c7d0 983d
000003d0: dfd0 cfb9 3178 d9bd 18f5 bf3d 56bd 21be
000003e0: 034c 193e 20ce 733d 29ee 06be db32 89bd
000003f0: ca98 503e 3dfc 533e 7778 1f3d 95f4 223e

encoder.4.bias f4 [10]
-0.05746053 -0.065824375 0.027962748 -0.05323688 0.081412174 0.15423366 -0.12965237 -0.09692895
-0.052422382 -0.017902533
00000000: bc5b 6bbd eece 86bd 2212 e53c ea0e 5abd
00000010: 6dbb a63d 6eef 1d3e 97c3 04be af82 c6bd
00000020: dab8 56bd 55a8 92bc

encoder.6.weight f4 [1, 10]
-0.321585 -0.035318192 0.32895815 0.23524791 -0.12909901 -0.0055242428 0.1950795 0.03876199
-0.34021243 -0.21060216
00000000: caa6 a4be cfa9 10bd 346d a83e d4e4 703e
00000010: 8832 04be b504 b5bb ecc2 473e e4c4 1e3d
00000020: 5330 aebe 18a8 57be

decoder.0.weight f4 [10, 1]
0.37087715 -0.71644413 0.395897 0.8718793 -0.69689476 -0.41722563 0.4551037 0.8972189
0.23180804 -0.6494722
00000000: 9ce3 bd3e e268 37bf 03b3 ca3e 7b33 5f3f
00000010: b267 32bf 999e d5be 5a03 e93e 23b0 653f
00000020: 165f 6d3e cf43 26bf

decoder.0.bias f4 [10]
1.0019103 -0.19756526 0.115604855 -0.00026720064 0.29288834 -0.51222974 0.011029281 -0.7694015
-0.7108135 -0.74225706
00000000: 993e 803f 8c4e 4abe 3dc2 ec3d 1017 8cb9
00000010: 76f5 953e 7d21 03bf 28b4 343c 7ff7 44bf
00000020: e0f7 35bf 8f04 3ebf

decoder.2.weight f4 [30, 10]
0.07899628 -0.17735215 -0.15983151 0.2513049 -0.14533839 -0.08039772 0.008531232 -0.22756447
-0.0050683892 0.029165993 0.052142877 0.12012559 -0.047263287 -0.33179832 0.118823044 0.32765573
-0.1326876 0.2157079 0.29005247 -0.18051025 -0.23981936 -0.31446752 0.031319395 0.15506424
-0.32057807 0.31634793 -0.2172918 -0.11085294 0.062263146 -0.021568691 0.29512715 -0.2702353
0.15457025 0.08146617 0.062427975 -0.037174117 0.15501104 -0.049102355 0.00982185 0.17099999
-0.02030758 0.21718745 0.091317594 -0.27368978 0.09190867 0.094243474 0.3123039 -0.12948757
-0.12864248 0.22964017 0.16088791 0.304472 0.023380175 0.14294387 -0.2733002 0.27272
-0.085477255 -0.33151883 -0.11923436 -0.15579562 0.308285 0.13483725 0.31393623 -0.17795967
0.17075622 -0.060618505 -0.017379308 -0.00095925556 0.012727066 0.29878688 -0.02888529 -0.010683043
0.17921631 0.18429239 0.14606641 0.16307412 0.31474113 0.25385153 -0.08760284 0.16707338
-0.041783072 -0.23079306 -0.28133228 0.25200903 -0.1426124 -0.08071793 -0.2730303 -0.08905666
0.33850542 -0.28544903 -0.1032105 -0.0174895 -0.15839194 0.1906162 0.108259775 -0.15502809
-0.14260256 0.076001726 -0.100044325 -0.1268558 0.18152101 -0.16527742 -0.306808 -0.28479317
0.081734106 0.02530242 0.21359688 0.29945403 0.06735076 0.06501667 0.0033413302 -0.043920003
0.19836223 0.018503169 -0.20801158 0.065252796 0.058697212 -0.28908277 -0.12891605 -0.11964276
-0.086781755 0.2491763 -0.11365047 0.32909125 0.095621526 -0.10558289 -0.011712615 -0.08329133
-0.19566752 0.097254284 0.2116258 -0.088667974 -0.17577644 -0.2815312 0.19293427 -0.06510616
0.17743018 0.278686 0.025872592 -0.1265874 0.22157493 0.20030463 -0.18899438 -0.2655659
-0.014753278 0.1605445 -0.011461017 0.034621328 -0.13853368 -0.22691263 0.27817386 0.29574022
-0.17745365 0.22736776 -0.073325165 -0.26380175 0.17643484 0.038691968 0.04721119 -0.31458727
-0.24989463 0.19108655 -0.08829587 -0.27976513 -0.03885415 0.016481088 -0.28288195 -0.24609002
0.28779632 0.06327639 -0.07715285 0.15253681 -0.3071505 -0.20186846 0.08594536 -0.18721655
-0.03448145 -0.3027052 -0.14311127 -0.142991 -0.046884637 0.017908234 -0.24324992 0.072289534
0.041468464 0.115264736 0.10919899 -0.1643759 0.101137206 0.0396687 0.113533586 0.2723338
0.0155063225 0.055875964 -0.023657246 -0.16958688 0.3131392 -0.067078166 -0.100067854 0.0957954
-0.2679812 0.23299126 0.30151123 0.17497407 0.05049556 -0.09447338 0.10464906 0.13951492
-0.30599803 -0.2761152 -0.23135926 0.22393285 -0.100883156 0.22812708 -0.0808541 -0.106656596
-0.085761994 -0.18053547 -0.22463255 -0.0415782 -0.28954163 0.06414379 -0.062042683 0.17001092
0.020965941 -0.09381844 0.25646913 0.1522648 0.13523 0.04730178 0.20011583 0.0031957258
-0.16684887 0.10475004 0.03705384 0.061575294 -0.045433868 -0.21342291 0.054172445 -0.3004658
-0.087533176 -0.27592796 0.15147987 0.14379318 -0.025881546 -0.044576928 0.18509093 0.3113394
0.21987686 0.0917732 -0.08401693 0.07519874 -0.21866103 -0.076658025 0.28797692 -0.23174152
00000000: cdc8 a13d cd9b 35be dfaa 23be 09ab 803e
00000010: 96d3 14be 8fa7 a4bd 95c6 0b3c a906 69be
00000020: bb14 a6bb 85ed ee3c c593 553d 6804 f63d
00000030: 2697 41bd 78e1 a9be 7f59 f33d 7ec2 a73e
00000040: 42df 07be 88e2 5c3e c281 943e aed7 38be
00000050: 3593 75be e301 a1be c448 003d 29c9 1e3e
00000060: cf22 a4be 5bf8 a13e be81 5ebe de06 e3bd
00000070: a407 7f3d d3b0 b0bc e81a 973e 485c 8abe
00000080: aa47 1e3e bcd7 a63d 7ab4 7f3d e343 18bd
00000090: 37bb 1e3e 8d1f 49bd d3eb 203c 9f1a 2f3e
000000a0: 155c a6bc 6366 5e3e b804 bb3d 1121 8cbe
000000b0: 9d3a bc3d b902 c13d 4ce6 9f3e 6498 04be
000000c0: dbba 03be cb26 6b3e cdbf 243e c1e3 9b3e
000000d0: c887 bf3c e15f 123e 01ee 8bbe f5a1 8b3e
000000e0: b30e afbd d6bc a9be 2531 f4bd e388 1fbe
000000f0: 88d7 9d3e c712 0a3e 40bc a03e 0f3b 36be
00000100: b8da 2e3e 1c4b 78bd 0d5f 8ebc 8d76 7bba
00000110: 2f85 503c 98fa 983e d8a0 ecbc ee07 2fbc
00000120: 7b84 373e 25b7 3c3e 6f92 153e e7fc 263e
00000130: c025 a13e d4f8 813e 1e69 b3bd 4915 2b3e
00000140: ba24 2bbd 0455 6cbe c90a 90be 5407 813e
00000150: fc08 12be 714f a5bd a1ca 8bbe 5763 b6bd
00000160: 9550 ad3e 6026 92be 0760 d3bd 2446 8fbc
00000170: 7f31 22be e530 433e 4db7 dd3d afbf 1ebe
00000180: 6806 12be cba6 9b3d 0ae4 ccbd 7de6 01be
00000190: a5e0 393e 7c3e 29be f015 9dbe 69d0 91be
000001a0: 3664 a73d 0547 cf3c 24b9 5a3e 0a52 993e
000001b0: 32ef 893d 7627 853d 38fa 5a3b 76e5 33bd
000001c0: 781f 4b3e f593 973c fd00 55be 42a3 853d
000001d0: 7d6c 703d a802 94be 9202 04be 4307 f5bd
000001e0: a2ba b1bd 1228 7f3e 94c1 e8bd a67e a83e
000001f0: 38d5 c33d d83b d8bd 45e6 3fbc a594 aabd
00000200: 115d 48be 412d c73d 6fb4 583e 8e97 b5bd
00000210: bdfe 33be dc24 90be 9090 453e 6156 85bd
00000220: 42b0 353e eeaf 8e3e c2f2 d33c 21a0 01be
00000230: 8ae4 623e a81c 4d3e be87 41be 41f8 87be
00000240: bcb7 71bc c765 243e fdc6 3bbc 18cf 0d3d
00000250: c6db 0dbe c95b 68be ce6c 8e3e 436b 973e
00000260: 69b6 35be 18d3 683e 812b 96bd 0611 87be
00000270: 56ab 343e 787b 1e3d 8560 413d 9511 a1be
00000280: 61e4 7fbe 31ac 433e 77d4 b4bd 603d 8fbe
00000290: 8725 1fbd 5903 873c e7d5 90be 06ff 7bbe
000002a0: 0a5a 933e 0d97 813d 5002 9ebd 9c32 1c3e
000002b0: d542 9dbe 9bb6 4ebe 1f04 b03d b2b5 3fbe
000002c0: 6c3c 0dbd 2dfc 9abe c38b 12be 3c6c 12be
000002d0: 1b0a 40bd 4ab4 923c 8216 79be 890c 943d
000002e0: d6da 293d eb0f ec3d b8a3 df3d 2852 28be
000002f0: 0621 cf3d a67b 223d 4c84 e83d 566f 8b3e
00000300: 3b0e 7e3c 32de 643d d7cc c1bc 2fa8 2dbe
00000310: c853 a03e 4760 89bd 60f0 ccbd 6130 c43d
00000320: d534 89be 4395 6e3e ae5f 9a3e 672c 333e
00000330: 6fd4 4e3d 427b c1bd 3f52 d63d 00dd 0e3e
00000340: c6ab 9cbe f95e 8dbe 71e9 6cbe a74e 653e
00000350: d49b cebd 259a 693e d696 a5bd c66e dabd
00000360: fca3 afbd 4ade 38be 1306 66be e74d 2abd
00000370: cd3e 94be d25d 833d 7820 7ebd 5817 2e3e
00000380: c4c0 ab3c e223 c0bd ec4f 833e 4eeb 1b3e
00000390: bc79 0a3e 83bf 413d 2aeb 4c3e 626f 513b
000003a0: 6eda 2abe 3087 d63d c4c5 173d 6036 7c3d
000003b0: dd18 3abd 898b 5abe ede3 5d3d a7d6 99be
000003c0: 9844 b3bd 6e46 8dbe 8a1d 1b3e 853e 133e
000003d0: 8905 d4bc 4c96 36bd 7a88 3d3e e167 9f3e
000003e0: 6627 613e 96f3 bb3d 1111 acbd cc01 9a3d
000003f0: ade8 5fbe e2fe 9cbd b671 933e a64d 6dbe

decoder.2.bias f4 [30]
0.20623188 -0.031787526 -0.031348772 -0.13467383 0.32343683 -0.18314876 0.22021528 0.041298218
-0.20366718 0.10341322 -0.28296882 -0.033895835 0.027609648 0.30334693 -0.30734703 0.23923111
0.03729001 -0.05929887 -0.2754981 0.18347444 -0.08596748 -0.29630953 -0.16750614 0.22082958
-0.079241045 -0.15048169 0.04660138 -0.18843102 -0.2311962 -0.16449624
00000000: 732e 533e a333 02bd 9267 00bd f0e7 09be
00000010: 8399 a53e 598b 3bbe 1d80 613e 5228 293d
00000020: 218e 50be 4fca d33d 4ae1 90be 5cd6 0abd
00000030: a12d e23c 4a50 9b3e 975c 9dbe 00f9 743e
00000040: 69bd 183d 5fe3 72bd 160e 8dbe b9e0 3b3e
00000050: b80f b0bd e2b5 97be bb86 2bbe 2621 623e
00000060: 2149 a2bd df17 1abe 17e1 3e3d 10f4 40be
00000070: b2be 6cbe b471 28be

decoder.4.weight f4 [60, 30]
0.031457912 -0.13255516 0.1451151 -0.017956639 0.16506903 0.023959698 0.0321589 0.13374569
-0.10859925 -0.016781593 -0.19069505 0.05649667 -0.06998592 -0.040456764 0.11413149 0.018582053
-0.04703646 -0.066035666 -0.14809002 -0.026371242 0.16105068 -0.12896338 0.09758715 0.17948331
-0.1534197 -0.01737778 -0.11855557 0.067268625 -0.1450372 0.037637725 -0.046927378 -0.08738627
-0.07598113 -0.1612711 -0.16192415 -0.011403546 -0.18256296 0.07641014 -0.10094914 -0.13016438
-0.13043822 0.037769325 0.0068049026 0.0091833435 0.09637926 -0.052387457 -0.09787895 0.008210802
0.13787943 -0.06507424 -0.0031548063 -0.042829376 0.002192857 -0.18132395 0.13286741 0.15490866
0.14145572 0.044859953 0.07931163 -0.07816742 0.14797023 0.07209268 -0.055780474 -0.17402661
0.09416314 0.044385154 0.13888645 -0.048939575 0.0622112 0.1336198 0.005570877 -0.14935508
0.11672871 0.052452933 0.038621854 0.0059071546 0.13898285 -0.052002322 0.13444231 0.14627756
0.059376176 0.040248826 0.034931857 -0.072901316 0.08805724 0.16485311 0.0746674 -0.13603099
0.07684746 -0.076644324 0.06138136 0.07578676 0.10362172 0.0083366325 -0.049026847 -0.0427727
0.053426724 0.07230657 0.117314145 -0.049125466 -0.06385893 -0.12656835 0.19135961 0.10413623
-0.021904912 -0.0194741 -0.035844747 0.18963271 -0.1889721 -0.13377565 -0.005053876 0.14665595
0.03894207 -0.15156648 -0.19049689 0.02189328 -0.071820766 -0.116528004 0.0913726 0.1596351
0.09320012 0.08240472 -0.115920484 0.11091913 -0.09185383 0.18869443 0.15254956 -0.0367773
-0.031418573 -0.0722746 -0.079359375 0.11199431 -0.12139651 -0.09678589 0.12447178 0.0096647255
0.15190661 0.20781498 -0.10360169 0.15968226 0.03859084 -0.01260658 0.13474189 -0.15164845
0.13684142 -0.15531479 -0.102168694 0.043887284 -0.18509135 -0.098325536 0.08280508 -0.09842907
-0.16887768 0.13942379 -0.13560292 0.06309305 -0.15978642 -0.17779869 -0.11840615 -0.079238094
-0.12718077 0.15648973 -0.11980797 0.16568857 0.047539644 0.1140998 -0.10664619 -0.07248155
0.110654406 -0.13499759 0.15022844 0.11318701 -0.11507001 0.17687556 0.046399996 -0.09337301
0.036675546 -0.18128993 0.15588279 0.14687978 0.093117535 0.08925108 -0.045848474 -0.058453828
0.036957942 0.08361345 0.19410947 -0.14221662 -0.053705722 -0.085668005 -0.0067955186 0.18322818
0.029820807 0.1728843 -0.09247932 0.043175742 0.030737748 -0.09998068 0.038106788 0.07837642
0.08120037 0.046384502 -0.06292781 0.15826225 -0.16050558 0.14417067 0.071226284 0.12999181
0.123542726 -0.009310101 0.09521665 0.055509668 -0.11508938 0.030284123 0.09592505 -0.15508598
0.132476 0.12841378 -0.08347058 -0.18706684 0.18140563 -0.052171536 0.14136359 -0.07277765
-0.17444168 -0.16551203 0.0026312312 -0.10948923 -0.04524585 -0.14973873 -0.13559458 -0.12390478
0.039790694 -0.12125989 0.08916689 0.023673946 0.18241826 0.08543105 0.031834032 0.11268799
0.054856595 -0.14223321 -0.046809517 -0.14210704 0.13676517 0.009835241 0.16258404 -0.041363236
-0.19547157 -0.16134024 -0.16899669 0.02650463 0.009335454 0.117737 -0.07705572 0.13548063
00000000: 03da 003d 8abc 07be 0e99 143e cd19 93bc
00000010: db07 293e 2147 c43c 0db9 033d a1f4 083e
00000020: 4969 debd 8d79 89bc 9045 43be 0d69 673d
00000030: c754 8fbd feb5 25bd c5bd e93d 6439 983c
00000040: 4ea9 40bd b53d 87bd e9a4 17be 8108 d8bc
00000050: 78ea 243e fa0e 04be c6db c73d 79ca 373e
00000060: 0e1a 1dbe d95b 8ebc 43cd f2bd 22c4 893d
00000070: a284 14be 042a 1a3d ec36 40bd 93f7 b2bd
00000080: ff9b 9bbd 4024 25be 72cf 25be f0d5 3abc
00000090: c9f1 3abe eb7c 9c3d 6cbe cebd d049 05be
000000a0: 9991 05be 02b4 1a3d a9fb de3b bc75 163c
000000b0: 7d62 c53d 3b94 56bd c274 c8bd 9a86 063c
000000c0: 4430 0d3e a545 85bd dec0 4ebb db6d 2fbd
000000d0: 09b6 0f3b fcac 39be 650e 083e 60a0 1e3e
000000e0: c5d9 103e 12bf 373d 236e a23d 3e16 a0bd
000000f0: 8285 173e 54a5 933d 117a 64bd 0834 32be
00000100: 9bd8 c03d 35cd 353d 4038 0e3e dd74 48bd
00000110: 2cd1 7e3d a1d3 083e e78b b63b 8af0 18be
00000120: 760f ef3d e3d8 563d f331 1e3d ce90 c13b
00000130: 8551 0e3e 6300 55bd 3fab 093e c9c9 153e
00000140: 6f34 733d f4db 243d b514 0f3d 494d 95bd
00000150: 5b57 b43d 41cf 283e 39eb 983d b54b 0bbe
00000160: 3362 9d3d b3f7 9cbd 056b 7b3d 1736 9b3d
00000170: a037 d43d 5f96 083c 60d0 48bd 6d32 2fbd
00000180: fbd5 5a3d 7815 943d 6642 f03d c937 49bd
00000190: 78c8 82bd 229b 01be c6f3 433e 6045 d53d
000001a0: ee71 b3bc 2688 9fbc f1d1 12bd 142f 423e
000001b0: e781 41be 7cfc 08be fc9a a5bb fa2c 163e
000001c0: b881 1f3d 3e34 1bbe 9e11 43be 8959 b33c
000001d0: c416 93bd 3ca6 eebd 8f21 bb3d 6277 233e
000001e0: b4df be3d cec3 a83d b867 edbd 9229 e33d
000001f0: dc1d bcbd 1d39 413e f435 1c3e cba3 16bd
00000200: c3b0 00bd b504 94bd 2b87 a2bd 465d e53d
00000210: bc9e f8bd ae37 c6bd 10eb fe3d cc58 1e3c
00000220: 688d 1b3e 73cd 543e 1f2d d4bd bf83 233e
00000230: 6e11 1e3d d48b 4ebc c7f9 093e bb49 1bbe
00000240: 2820 0c3e d70a 1fbe d23d d1bd 27c3 333d
00000250: 9688 3dbe e65e c9bd b695 a93d 2e95 c9bd
00000260: 45ee 2cbe 1cc5 0e3e 7edb 0abe ee36 813d
00000270: 0d9f 23be dc10 36be ec7e f2bd 9547 a2bd
00000280: ad3b 02be d83e 203e e25d f5bd 44aa 293e
00000290: eeb8 423d 28ad e93d 5169 dabd 3571 94bd
000002a0: c79e e23d cf3c 0abe 7cd5 193e 97ce e73d
000002b0: d3a9 ebbd de1e 353e ec0d 3e3d 593a bfbd
000002c0: 1939 163d 11a4 39be bd9f 1f3e a767 163e
000002d0: 68b4 be3d 45c9 b63d 9ccb 3bbd 486d 6fbd
000002e0: 3661 173d 873d ab3d a2c4 463e 3ca1 11be
000002f0: 88fa 5bbd b572 afbd f1ac debb 2ba0 3b3e
00000300: c44a f43c 9508 313e cc65 bdbd 0cd9 303d
00000310: bbcd fb3c acc2 ccbd dd15 1c3d d183 a03d
00000320: 614c a63d adfd 3d3d 4ce0 80bd 800f 223e
00000330: 935b 24be 7aa1 133e 16df 913d 931c 053e
00000340: f803 fd3d 6589 18bc f200 c33d 1b5e 633d
00000350: fbb3 ebbd 6916 f83c 5a74 c43d dcce 1ebe
00000360: caa7 073e e77e 033e a0f2 aabd 738e 3fbe
00000370: 66c2 393e d2b1 55bd 9ec1 103e 730c 95bd
00000380: d7a0 32be fc7b 29be bc70 2c3b e43b e0bd
00000390: b653 39bd 1c55 19be 4ed9 0abe cac1 fdbd
000003a0: 91fb 223d 1b57 f8bd 219d b63d ddef c13c
000003b0: dacb 3a3e 79f6 ae3d 6764 023d f6c8 e63d
000003c0: 4fb1 603d 95a5 11be 56bb 3fbd 8284 11be
000003d0: 2b0c 0c3e fe23 213c 6e7c 263e 7f6c 29bd
000003e0: b329 48be 6036 25be 780d 2dbe 3d20 d93c
000003f0: bbf3 183c 1920 f13d 64cf 9dbd 6fbb 0a3e

decoder.4.bias f4 [60]
-0.08466233 0.09968771 0.15980886 0.08409906 0.16150317 -0.14303172 0.06337803 0.075138554
-0.15065265 0.018674651 0.11789397 0.04646782 0.19484706 -0.11293325 -0.09002886 0.14683133
-0.12747355 -0.13927302 -0.1736012 0.152022 0.1880624 0.13445204 -0.06932719 -0.027169896
0.1871388 0.040150378 0.0345518 0.13953424 0.13150494 0.059551023 -0.117145605 -0.13818279
-0.022511182 -0.025364127 0.15761065 -0.085720554 -0.087546565 -0.05633628 -0.084788635 0.053399075
-0.0471239 0.08057861 0.13247502 0.16161494 0.0008867446 -0.09759474 0.04929535 0.14734423
-0.023360075 0.03311924 0.076268986 -0.11175052 -0.104334496 -0.12650909 0.030694367 0.095155716
0.16975908 0.035371 -0.16942677 0.09413752
00000000: 7263 adbd 1229 cc3d efa4 233e 213c ac3d
00000010: 1661 253e e876 12be 57cc 813d 3ee2 993d
00000020: b044 1abe 95fb 983c 6572 f13d 0a55 3e3d
00000030: fd85 473e 8c49 e7bd 0d61 b8bd f45a 163e
00000040: 6d88 02be 969d 0ebe 83c4 31be a8ab 1b3e
00000050: 6e93 403e ccad 093e 6afb 8dbd 6793 debc
00000060: 50a1 3f3e b974 243d 3086 0d3d 10e2 0e3e
00000070: 3ba9 063e c6eb 733d 09ea efbd ca7f 0dbe
00000080: 5f69 b8bc 6ec8 cfbc b064 213e 428e afbd
00000090: 9d4b b3bd dfc0 66bd aaa5 adbd fdb8 5a3d
000000a0: fe04 41bd 6606 a53d 88a7 073e 637e 253e
000000b0: 6c74 683a c0df c7bd ece9 493d 68e1 163e
000000c0: a15d bfbc 0aa8 073d ea32 9c3d 75dd e4bd
000000d0: 53ad d5bd 998b 01be c172 fb3c 00e1 c23d
000000e0: 53d5 2d3e 2fe1 103d 367e 2dbe 2ccb c03d

decoder.6.weight f4 [118, 60]
0.04553585 0.08358508 0.084180154 0.03139664 -0.063003935 -0.01602829 0.0018786108 0.05047603
0.037624385 -0.032464977 -0.13588256 -0.0809088 -0.016462585 0.026147949 0.14442655 -0.08816835
0.034797065 -0.034147073 0.14524856 -4.593349e-05 -0.14693971 0.06924426 0.0029053136 0.080441386
-0.1465976 -0.14609967 0.012876394 -0.10821749 -0.010513376 -0.02993324 0.06615991 0.011348617
-0.054791946 -0.013947481 -0.07552055 -0.06584664 -0.087881655 -0.0021867868 -0.008334493 0.00013701252
-0.06385215 -0.007127344 -0.07544574 -0.091533884 0.052376926 0.11986271 -0.10034553 -0.005285547
0.07771291 0.11811071 0.024808459 -0.10142859 -0.1193045 -0.013105772 0.01745037 -0.02257756
0.03887697 -0.047504175 -0.06393678 -0.103807 0.14575393 -0.11569866 0.019375514 -0.08361266
0.11482534 0.016414722 0.1447896 -0.1471987 0.09599506 0.12664723 -0.1191246 0.010128134
0.021596191 -0.101560935 -0.035990994 -0.013239728 0.054107282 0.019371826 -0.041561984 0.09584905
0.07869588 0.10376456 0.027486052 -0.14599846 0.11000442 -0.05124993 -0.051206924 0.0759016
0.054353915 -0.11028917 -0.08523651 0.009374212 0.06432773 -0.07000606 0.10706586 0.08500999
-0.14240123 -0.01897073 0.058297746 -0.018978143 -0.084633544 -0.035748947 0.047116473 -0.023049533
-0.08501572 0.008828469 0.072474316 0.1284088 0.06768313 0.029341433 0.04090928 0.12653486
-0.102823295 -0.04571008 -0.073736876 -0.068645746 0.06018495 0.090617746 -0.061774395 -0.04184352
0.068655826 0.049196176 0.04458528 0.04125487 -0.09338801 0.086664476 -0.105513655 -0.057429064
0.007761813 0.0036504597 -0.006055554 -0.09368501 0.13863617 -0.094195426 -0.0073246355 -0.015298357
-0.023971833 -0.040108163 0.0074715177 0.032158706 -0.075671084 0.09948355 -0.02889921 0.10093896
-0.09212605 0.08363685 0.0824315 -0.049142033 0.02016052 0.09214631 -0.1190963 0.08879397
0.07098368 -0.07216297 0.058879085 0.062036324 0.0073488564 0.076251164 -0.10250318 -0.011362089
0.0029912503 0.10281218 0.07612402 -0.004179695 -0.05085894 -0.13900527 -0.012260447 -0.032553386
-0.028787715 0.017286643 0.06853314 0.06629153 0.0044969376 -0.042959716 0.040946655 0.09122272
-0.012844711 -0.121384315 -0.003206918 -0.047834676 0.116152786 -0.11485675 -0.054920986 0.06299825
-0.074430585 -0.009007309 0.081960864 -0.09652757 0.06250985 0.12155232 -0.079565465 0.012197911
-0.06842223 -0.08499342 -0.1276997 0.071712725 0.09312543 -0.08925939 0.0818022 -0.0403554
0.0705678 -0.085677475 0.12460895 -0.12599242 0.072834164 0.07090281 0.020864928 0.14260308
0.07267951 0.08226808 -0.12347324 -0.099075265 -0.009494949 0.12178253 0.07024021 -0.11782365
0.09001751 0.033181045 -0.025422217 -0.019235142 0.045582633 -0.06230939 0.06986784 -0.07378246
-0.033928517 0.025748972 -0.017677413 0.13229008 -0.0808063 0.038067605 0.07755253 -0.02784744
0.07637583 -0.13221794 -0.060435455 -0.110661454 0.018636763 -0.065216556 -0.093010895 -0.10943678
0.0033191324 0.09362824 0.11991285 -0.008725005 -0.022497289 -0.091904566 0.11317454 -0.11350645
-0.005776759 -0.050252777 -0.12099556 0.017991923 -0.07751699 -0.039400756 0.03506345 0.06695916
00000000: cd83 3a3d a82e ab3d a566 ac3d c399 003d
00000010: 3508 81bd c34d 83bc b83b f63a f4bf 4e3d
00000020: 071c 1a3d fff9 04bd cc24 0bbe 83b3 a5bd
00000030: 8bdc 86bc 3934 d63c 8ee4 133e 9c91 b4bd
00000040: 5e87 0e3d cddd 0bbd 0abc 143e b6a8 40b8
00000050: 5d77 16be efcf 8d3d 1367 3e3b 74be a43d
00000060: ae1d 16be 279b 15be 83f7 523c 22a1 ddbd
00000070: 4c40 2cbc 8e36 f5bc d97e 873d 8def 393c
00000080: 856d 60bd fa83 64bc 85aa 9abd 9ada 86bd
00000090: 4cfb b3bd 3250 0fbb 668d 08bc 05ab 0f39
000000a0: ebc4 82bd 7f8c e9bb 4c83 9abd 1e76 bbbd
000000b0: 3089 563d 957a f53d f581 cdbd 6232 adbb
000000c0: f227 9f3d 07e4 f13d 1c3b cb3c cbb9 cfbd
000000d0: eb55 f4bd 98b9 56bc 14f4 8e3c 93f4 b8bc
000000e0: 753d 1f3d bd93 42bd 49f1 82bd c498 d4bd
000000f0: 8540 153e 6bf3 ecbd 66b9 9e3c 1d3d abbd
00000100: 8c29 eb3d 2b78 863c ba43 143e 42bb 16be
00000110: 0f99 c43d d0af 013e 99f7 f3bd 79f0 253c
00000120: 7fea b03c 2eff cfbd 4b6b 13bd 72eb 58bc
00000130: 999f 5d3d aab1 9e3c e63c 2abd 824c c43d
00000140: 4e2b a13d 8382 d43d 6e2a e13c 9f80 15be
00000150: ff49 e13d 72eb 51bd 5abe 51bd 4c72 9b3d
00000160: 36a2 5e3d 4adf e1bd 7b90 aebd 4b96 193c
00000170: 42be 833d 565f 8fbd 5845 db3d b819 ae3d
00000180: a1d1 11be 8168 9bbc 9ec9 6e3d 0d78 9bbc
00000190: 5a54 adbd 7d6d 12bd 34fd 403d 60d2 bcbc
000001a0: b91c aebd 48a5 103c 6a6d 943d 997d 033e
000001b0: 749d 8a3d 725d f03c 7d90 273d 5b92 013e
000001c0: 0595 d2bd 7e3a 3bbd 5c03 97bd 2496 8cbd
000001d0: 7e84 763d cc95 b93d 2607 7dbd 1c64 2bbd
000001e0: 6d9b 8c3d ee81 493d 0e9f 363d defa 283d
000001f0: 3742 bfbd 257d b13d 8b17 d8bd bd3a 6bbd
00000200: ce56 fe3b 8d3c 6f3b ab6d c6bb eddd bfbd
00000210: a4f6 0d3e 88e9 c0bd 7f03 f0bb f6a5 7abc
00000220: 9460 c4bc 7548 24bd a2d3 f43b d9b8 033d
00000230: 71f9 9abd 08be cb3d 09be ecbc 16b9 ce3d
00000240: 95ac bcbd cc49 ab3d d9d1 a83d 2849 49bd
00000250: ad27 a53c 34b7 bc3d c3e8 f3bd 9dd9 b53d
00000260: e45f 913d 2eca 93bd 322b 713d cd19 7e3d
00000270: adce f03b 9229 9c3d 30ed d1bd 0e28 3abc
00000280: da08 443b 318f d23d e9e6 9b3d d3f5 88bb
00000290: 7751 50bd 6657 0ebe 0be0 48bc b356 05bd
000002a0: 37d4 ebbc b89c 8d3c 1a5b 8c3d dbc3 873d
000002b0: 0c5b 933b 87f6 2fbd aeb7 273d fad2 ba3d
000002c0: 9f72 52bc 5798 f8bd 282b 52bb 4bee 43bd
000002d0: 83e1 ed3d 043a ebbd d4f4 60bd 3a05 813d
000002e0: 106f 98bd 6493 13bc 19db a73d 3fb0 c5bd
000002f0: 2a05 803d 6cf0 f83d 38f3 a2bd bfd9 473c
00000300: f420 8cbd 0811 aebd b6c3 02be 1fde 923d
00000310: 8cb8 be3d a1cd b6bd e987 a73d b44b 25bd
00000320: da85 903d ac77 afbd fa32 ff3d 2804 01be
00000330: 142a 953d 7e35 913d edec aa3c 8b06 123e
00000340: ffd8 943d 2b7c a83d 8adf fcbd f9e7 cabd
00000350: b490 1bbc 1e69 f93d 19da 8f3d 874d f1bd
00000360: 1a5b b83d d9e8 073d 4142 d0bc 0493 9dbc
00000370: dbb4 3a3d 2238 7fbd df16 8f3d 421b 97bd
00000380: a1f8 0abd 82ef d23c 39d0 90bc 0d77 073e
00000390: c67d a5bd c7ec 1b3d dcd3 9e3d 5120 e4bc
000003a0: ee6a 9c3d 2464 07be 2b8b 77bd 79a2 e2bd
000003b0: 20ac 983c 4290 85bd 7f7c bebd 6420 e0bd
000003c0: cd85 593b 2ac0 bf3d de94 f53d 53f3 0ebc
000003d0: 3c4c b8bc 7638 bcbd 0ec8 e73d 1276 e8bd
000003e0: f74a bdbb dbd5 4dbd 85cc f7bd cc63 933c
000003f0: 3ac1 9ebd b062 21bd b19e 0f3d e221 893d

decoder.6.bias f4 [118]
-0.0050150594 -0.014586514 -0.021027429 -0.087094635 -0.07685872 -0.09437201 -0.0010217446 0.027884975
0.12007445 0.018264366 -0.08796053 0.1417401 -0.030317437 0.13088666 0.14266449 0.029133035
0.09448491 0.010546806 0.07835143 0.027213274 -0.059402756 -0.095360875 -0.02117254 -0.102862775
0.054721482 -0.04321672 -0.109804414 -0.0052230367 0.054612592 -0.050636254 0.02543889 0.10503503
-0.070889145 -0.080242276 0.08572463 0.0058369637 0.04679298 -0.03797356 0.06566894 0.14750522
0.07589912 -0.0850387 -0.091297425 -0.08425086 0.003634198 -0.05723425 -0.015715254 -0.028837014
0.100064 0.040055268 -0.10112233 -0.027664423 -0.070952356 0.030502355 0.061321586 0.05588546
0.045016553 0.062298175 -0.06344985 -0.084658846 -0.035376165 -0.10550091 0.0132102985 0.072959326
-0.046651483 -0.109270655 -0.026456272 0.04716015 -0.0066682743 -0.043024514 -0.014065473 0.08524552
0.08856651 -0.082659535 0.04708255 -0.055101603 -0.08090894 -0.060067173 -0.0336508 0.039915722
0.011689054 -0.029963762 -0.014522292 0.030765483 -0.06288685 -0.04192987 0.034425035 0.042272422
-0.004473891 -0.015819713 -0.102770515 -0.079226576 0.08930034 0.08027575 0.055518802 0.11827731
-0.06805947 -0.067856945 -0.07810481 -0.023396052 0.083254814 0.09064687 0.12416745 0.07161826
-0.0022816812 -0.06270533 -0.08708216 -0.06350403 -0.0885537 -0.049090758 -0.13572037 0.05107664
0.10531376 -0.02787349 0.12869652 -0.015577559 -0.10078786 0.044973876
00000000: 5e55 a4bb 46fc 6ebc b741 acbc ac5e b2bd
00000010: 1b68 9dbd 1d46 c1bd 0fec 85ba 086f e43c
00000020: 98e9 f53d 279f 953c a624 b4bd 5124 113e
00000030: 465c f8bc 2707 063e a416 123e 67a8 ee3c
00000040: 4e81 c13d 83cc 2c3c b776 a03d 5fee de3c
00000050: 4e50 73bd 904c c3bd 0972 adbc b8a9 d2bd
00000060: a223 603d 0404 31bd 23e1 e0bd 0226 abbb
00000070: 74b1 5f3d f667 4fbd 3865 d03c 9b1c d73d
00000080: 542e 91bd 1056 a4bd 6590 af3d 0044 bf3b
00000090: ffa9 3f3d 2a8a 1bbd 707d 863d 9c0b 173e
000000a0: ff70 9b3d c528 aebd 25fa babd b78b acbd
000000b0: ba2b 6e3b 766e 6abd 47bd 80bc 9a3b ecbc
000000c0: 5bee cc3d fe10 243d 3919 cfbd 80a0 e2bc
000000d0: 784f 91bd 13e0 f93c 582c 7b3d 27e8 643d
000000e0: 4763 383d 5f2c 7f3d fff1 81bd 9e61 adbd
000000f0: 99e6 10bd dc10 d8bd 0270 583c b36b 953d
00000100: a015 3fbd 4bc9 dfbd d3ba d8bc 002b 413d
00000110: 8a81 dabb 793a 30bd df72 66bc 3495 ae3d
00000120: 5c62 b53d 6749 a9bd a2d9 403d 38b2 61bd
00000130: 96b3 a5bd ff08 76bd 6cd5 09bd ab7e 233d
00000140: 7283 3f3c 9076 f5bc e8ee 6dbc e507 fc3c
00000150: d2ca 80bd a8be 2bbd 4401 0d3d d925 2d3d
00000160: b899 92bb 5898 81bc 5979 d2bd 8b41 a2bd
00000170: 19e3 b63d 9d67 a43d af67 633d 603b f23d
00000180: c362 8bbd 95f8 8abd 6af5 9fbd 14a9 bfbc
00000190: 8081 aa3d 11a5 b93d 814b fe3d 98ac 923d
000001a0: 4288 15bb a76b 80bd 2258 b2bd 670e 82bd
000001b0: a45b b5bd 6413 49bd 48fa 0abe bd35 513d
000001c0: beae d73d f256 e4bc 05c9 033e 0539 7fbc
000001d0: de69 cebd 8736 383d

estimation.0.weight f4 [10, 3]
-0.24832931 -0.43405095 -0.14905173 0.5563594 0.2671053 0.34333536 -0.05373269 0.07801564
0.26685944 0.20456512 -0.2060477 -0.25068045 -0.309669 -0.06138949 -0.39169917 -0.1600568
0.2271725 0.33429098 -0.07275266 0.09860021 -0.4951997 0.17413335 -0.09617229 0.1580154
-0.47674024 0.4417021 -0.13122827 -0.41844034 0.43153787 0.18095942
00000000: 0a4a 7ebe ed3b debe 04a1 18be 926d 0e3f
00000010: 07c2 883e a7c9 af3e cf16 5cbd aac6 9f3d
00000020: cda1 883e 8579 513e 2bfe 52be 3059 80be
00000030: ef8c 9ebe 8c73 7bbd cb8c c8be eee5 23be
00000040: e89f 683e 3028 ab3e 59ff 94bd e8ee c93d
00000050: d18a fdbe 0350 323e faf5 c4bd cace 213e
00000060: 4c17 f4be c726 e23e b460 06be d03d d6be
00000070: 88f2 dc3e 6d4d 393e

estimation.0.bias f4 [10]
0.60984254 -0.41894105 -0.24090841 0.2736053 -0.1145879 0.4207991 -0.48158157 0.43372086
0.5839 0.32860658
00000000: a41e 1c3f 717f d6be b2b0 76be fe15 8c3e
00000010: 10ad eabd fb72 d73e dc91 f6be a910 de3e
00000020: 787a 153f 1f3f a83e

estimation.3.weight f4 [4, 10]
-0.07093136 0.34717968 -0.1851713 -0.14981805 0.09119554 -0.1225536 0.17102468 -0.20648895
0.16600342 0.31585795 -0.27121553 -0.2367281 0.07129754 0.25144708 -0.25371152 -0.081496574
0.02045706 0.03075298 0.077556215 -0.21931608 0.28785613 0.0036604246 -0.24216686 0.12638792
0.16516678 0.14878963 -0.06512527 -0.22369413 0.08613459 0.28620154 0.2045097 0.048064027
0.08113493 0.030366734 -0.19680452 -0.3081796 0.22303124 0.17489822 -0.2712735 -0.32919025
00000000: 7644 91bd 89c1 b13e 8c9d 3dbe e769 19be
00000010: bac4 ba3d 62fd fabd 1821 2f3e d771 53be
00000020: cdfc 293e 22b8 a13e c3dc 8abe da68 72be
00000030: 7204 923d acbd 803e 7ae6 81be ade7 a6bd
00000040: 9095 a73c aced fb3c cbd5 9e3d 6594 60be
00000050: e161 933e bce3 6f3b 97fa 77be d66b 013e
00000060: 7b21 293e 4f5c 183e 6660 85bd 1310 65be
00000070: 5567 b03d 0289 923e fe6a 513e c9de 443d
00000080: 122a a63d a8c3 f83c 2087 49be b7c9 9dbe
00000090: 4d62 643e 8518 333e 5ce4 8abe a08b a8be

estimation.3.bias f4 [4]
-0.12137035 -0.135555 0.0289757 0.07966806
00000000: 0591 f8bd eece 0abe 725e ed3c 0229 a33d
