Baseline-models/DAGMM/DAGMM-ROAD/no--dagmm/models/49_194_dagmm.pth (torch, 82200 bytes, 22 tensors)

phi f4 [4]
00000000: 54b5 a53c 81e9 933c 3a88 713f f159 953c
0.020228066 0.01805568 0.9434849 0.018231364

mu f4 [4, 3]
00000000: a414 dd3e 970d 973f c2fd 8abb 8251 e83e
00000010: d487 953f 94a8 6a3c 0900 9bbc 7242 b73f
00000020: 9506 c6be aa2f e43e 2710 963f 4230 f83b
0.4317981 1.1801022 -0.004241676 0.45374686 1.1682076 0.014322419 -0.018920915 1.4317153
-0.38676897 0.44567615 1.1723679 0.007574112

cov f4 [4, 3, 3]
00000000: ff5a 443f ae3b dbbe 1ab2 263f ae3b dbbe
00000010: 4adc 743e 6422 babe 1ab2 263f 6422 babe
00000020: 1c85 0d3f 0492 423f d33b d9be 4732 253f
00000030: d33b d9be d5a1 723e 0075 b8be 4732 253f
00000040: 0075 b8be e242 0c3f 343e 103f 8464 a0be
00000050: 33af f43e 8464 a0be 1579 323e 6010 88be
00000060: 33af f43e 6010 88be 1c8b cf3e 56de 433f
00000070: 36b2 dabe fb49 263f 36b2 dabe fd44 743e
00000080: 94af b9be fa49 263f 94af b9be 252e 0d3f
0.7670135 -0.4281897 0.6511551 -0.4281897 0.23912159 -0.36354363 0.6511551 -0.36354363
0.55281234 0.7600405 -0.42428455 0.6452984 -0.42428455 0.23694547 -0.36026764 0.6452984
-0.36026764 0.54789555 0.56344914 -0.31326687 0.47789916 -0.31326687 0.17429002 -0.26574993
0.47789916 -0.26574993 0.4053582 0.7651113 -0.4271409 0.64956635 -0.4271409 0.23854442
-0.36266768 0.6495663 -0.36266768 0.55148536

encoder.0.weight f4 [60, 118]
00000000: 301c fabc a7ef c23d a805 e03c 805d 313b
00000010: 2dbd a63d 2d18 a2bc 83aa 223d fc8a 8b3d
00000020: d49d 92bd 22e0 a13d d83f 5b3d 8caa a43c
00000030: 6aec 773d 3027 803d 7ec8 81bd 56cd 13bd
00000040: 0a2c c83d b680 5fbd 2f96 02bc 3447 81bd
00000050: 5f05 04bc 175d d2bc 1058 263d 5fcb 14bd
00000060: 4a37 cb3d 6ae6 8b3d 14ae d53d 0929 a3bc
00000070: eb76 27bd a5e0 94bd 6288 aebd ae54 11bc
00000080: 6551 953d 3ca0 3a3d d9ce 06bd f8e3 8d3d
00000090: db74 8ebb efd1 22bd 1fce 333b e25d 41bd
000000a0: 9342 4a3d 8fce 643d 38b1 d53c 164f 653c
000000b0: 09fc d3bc 33bb 003d 0ebf 87bd 6bf7 95bc
000000c0: d909 1dbd 26d3 9bbd 7c91 8ebc f13c 15bc
000000d0: 502e 0abc 99d3 95bb 189a 533c 3c13 94bd
000000e0: df45 1bbd a69e b13b 994c d63b 5cdb 40bb
000000f0: c0da cbbb 9c7e e2bc cf16 cb3d 9272 193d
00000100: 4d5a cb3d 1de2 c33d 1e21 863d 4d72 69bd
00000110: cf02 6c3d e40d d53d 846b af3d 9720 0d3d
00000120: 73fd 823d 16ab 32bd d91b 3e3d 426f 9dbd
00000130: d547 b3bc f249 b6bc aea1 a5bd c0f5 583b
00000140: 1378 9cbc 79d7 ca3c a357 22bd cd0c 3cba
00000150: bbef 8b3d 702f e4bb 843d a2bd 396e 033d
00000160: 0d1d c3bd d3c7 b43d cbfe 2bbb df3c 603c
00000170: 82f2 78bd 40f8 da3c de42 0c3d c9f7 a23d
00000180: a83e 033d 0048 1739 9042 6e3d 386b 43bd
00000190: e2be 623d 2c98 8b3d 3a54 26bd bd38 0cbd
000001a0: 0633 a6bb 9a60 313d 0404 383c 2a2c 7dbd
000001b0: 62eb 3e3d d5d9 c23c 3a9f 38bd c7b5 b33c
000001c0: eb68 d9bc 278d 73bd 1280 9e3d 874e ddbb
000001d0: 28b8 533d 5397 04bc cbb7 10bd 5bb7 943d
000001e0: 6643 ba3d 99d0 36bb 06e1 27bc f8de 42bd
000001f0: e509 6bbd 3d1c 763d d94a 933a 57ba 923d
00000200: 907f 8f3d 6ed6 493d 00d7 873b aeb0 673d
00000210: c89e c7bc 4d83 9ebc 9f14 7f3d cced f9bc
00000220: 226e 943d 3467 4abc e200 743d 257a a13d
00000230: e52e da3c 8af7 a9bc 7201 193d 5464 4bbd
00000240: 5c13 f7bc f11b b4bd d80d aa3d e060 5fbd
00000250: 4641 ac3c 9822 ca3c bbf4 c63d e128 e13c
00000260: 78a7 0b3d a35b 26bd a989 783d b12b d13d
00000270: b7dc 3ebd b1a2 01bb 435f 9ebd 70cb f03c
00000280: a402 e03c 34eb 9dbc 4687 07bc e579 19bc
00000290: 712d fbbb 26e6 7c3d e725 b93d 3fb8 b63d
000002a0: dbc1 48bc 670c cd3c 11a4 57bd 4180 893d
000002b0: 203c 6bbd 4487 573d 41c1 8ebc b6a7 a23d
000002c0: d803 c83d 5a51 133b e3cf b53d fe7f 7cbc
000002d0: 5143 a03d 80ec aa3c 8b39 cc3d 98b1 903d
000002e0: fc30 08bb c765 0d3d 7adb b13c ecfe 98bc
000002f0: 3775 06bd c2ee c4bc 9bd3 723d a3f5 8f3d
00000300: 3981 a23d bb81 01bd 4d3a 18ba 9f35 8b3d
00000310: e7cf e63c d8c1 3e3c 1916 363c 42e1 9e3c
00000320: 47d9 7abd bdab 89bd 09b8 95bd d626 383d
00000330: eddb 0abc 6c6f 0cbe a195 14bc 9c19 95bc
00000340: 0ec0 4e3d 07dc 953b b964 93bd cb4e 943d
00000350: 232e 05bd 3306 24bd 73d4 52bd 7c96 7dbd
00000360: a0ab fdbc 157e afbd 20fa adbc f2a0 36bd
00000370: c1eb fc3d 193f c7bc 513b b33d ff53 40bd
00000380: 4040 903c 3f46 1c3d fa2d a9bc 37f9 d7bd
00000390: de6b adbc 7202 083d 54ae 0fbd a33e 183c
000003a0: 2d74 ab3c 99df da3d 236b 2cbd 8053 84bc
000003b0: 75d8 71bb 7ecb 87bd 2c66 133c 5548 53bd
000003c0: a2a5 2a3d 0e38 ddbd 3590 cbbd 604c d83c
000003d0: 2377 953d 987b cbbc 1b19 8cbc a6da c3bb
000003e0: f826 623d 00ef cf3c 10f3 063c f547 3f3d
000003f0: d968 f03b 82a5 6c3c 5877 59bc adf7 863d
-0.030531019 0.09518366 0.027346447 0.0027063787 0.08141551 -0.019786919 0.039713394 0.068136185
-0.071590096 0.07904078 0.053527683 0.020100854 0.060528196 0.062574744 -0.06337069 -0.036084495
0.09774025 -0.054566108 -0.007970377 -0.06312409 -0.008057921 -0.025679154 0.040611327 -0.036326762
0.09922655 0.06831057 0.104335934 -0.019917028 -0.040884893 -0.0726941 -0.08522107 -0.008870287
0.072909154 0.045562968 -0.03291211 0.06928247 -0.0043474264 -0.03975099 0.002743609 -0.047208674
0.049379896 0.055861052 0.026085481 0.013995906 -0.025877016 0.031428527 -0.06628238 -0.018306455
-0.03833947 -0.07608633 -0.017403357 -0.009108768 -0.008433893 -0.0045723435 0.012915157 -0.07230231
-0.03790843 0.0054205237 0.006539893 -0.0029427623 -0.0062211454 -0.027648263 0.0991646 0.03746278
0.09929333 0.09564612 0.06549285 -0.05699377 0.057619866 0.1040304 0.08565429 0.03445491
0.06395998 -0.04362019 0.046413276 -0.07687236 -0.021884838 -0.022252057 -0.080874786 0.0033105463
-0.019100225 0.024760948 -0.03963436 -0.00071735383 0.06832834 -0.006963663 -0.079218894 0.03208754
-0.09527025 0.08827176 -0.0026244398 0.013686388 -0.06077815 0.026729703 0.034243457 0.079574175
0.032042176 0.00014427304 0.058168948 -0.047709674 0.05535782 0.06816134 -0.04060767 -0.034233797
-0.0050720004 0.043305017 0.011231426 -0.061809696 0.046611197 0.023785511 -0.045073725 0.021937264
-0.026539287 -0.059460785 0.07739271 -0.006753746 0.051689297 -0.008092719 -0.03533153 0.07261535
0.090948865 -0.002789533 -0.010246521 -0.04757592 -0.057382483 0.060085524 0.0011237516 0.07164448
0.070067525 0.04927676 0.004145503 0.05656498 -0.024367705 -0.019349718 0.062275525 -0.030508898
0.07247569 -0.012353707 0.059571154 0.07884625 0.02663369 -0.020747919 0.037354894 -0.049656227
-0.030160598 -0.08794392 0.08303422 -0.054535747 0.021027219 0.024674699 0.097146474 0.027485313
0.034095258 -0.040614735 0.060678158 0.102134116 -0.04659721 -0.001978081 -0.077330135 0.029393882
0.02734501 -0.019277193 -0.008271998 -0.009367441 -0.007665329 0.061742924 0.090404324 0.08921861
-0.01225325 0.025030328 -0.0526467 0.067139156 -0.057430387 0.052619234 -0.017426135 0.079421446
0.09766358 0.002247891 0.08877542 -0.015411375 0.078253396 0.020864725 0.09971913 0.07065123
-0.002078115 0.03452089 0.0217111 -0.018676244 -0.03282663 -0.02403963 0.059283834 0.07029273
0.079348035 -0.03161786 -0.00058070273 0.06797337 0.028175307 0.011642896 0.011113667 0.01939452
-0.061242368 -0.067222096 -0.073104925 0.04495891 -0.008475286 -0.13714379 -0.009068877 -0.018200688
0.050476126 0.0045733484 -0.07196946 0.07241591 -0.032514703 -0.040044975 -0.05147214 -0.06191109
-0.030965626 -0.0856897 -0.021237433 -0.044587083 0.12349654 -0.02432208 0.08751548 -0.046955105
0.017608762 0.03815293 -0.020651806 -0.10545581 -0.0211696 0.033205457 -0.03507836 0.0092922775
0.02092942 0.10687179 -0.04209436 -0.016153097 -0.00369027 -0.0663061 0.008996528 -0.051582653
0.041661866 -0.10801707 -0.09939615 0.026403606 0.07298114 -0.024839208 -0.017101815 -0.0059769927
0.055212945 0.025382519 0.008236662 0.046699483 0.0073367176 0.014443757 -0.013273083 0.06590209

encoder.0.bias f4 [60]
00000000: 7b41 063d 3ee5 b83d 29cb b4bb 5766 773c
00000010: 3138 94bd feac 223d a6e9 d1bd c25f 1ebd
00000020: b683 4e3d a7f7 833d 4cd3 acbc db60 33bd
00000030: 6403 1fbd 6733 853d de81 16bd 70cc 95bd
00000040: fbe9 aebb 2212 9a3d f072 36bd 7d6f 143e
00000050: e287 43bd 0d6f 743d dc15 05be f387 bebc
00000060: e06a 823c db2d c73a 16b1 593d 3ad5 28bd
00000070: cbd2 cfbc c784 c03d c783 173d 7665 e9bc
00000080: 2593 9a3d ee79 9bbd b637 a93b 5826 a1bd
00000090: 7737 a93d 3272 023e 460b 97bd 22c9 8bbb
000000a0: 7c3b 79bd 85e6 a3bc 2630 ff3c fe0f 193b
000000b0: ba4a 4abd 98c9 bcbc a568 1f3d 9de3 c8bc
000000c0: ef4e f5bc 694c e5bc 7bd9 36bd ff32 0fbd
000000d0: 7ee2 a1bd bf3b 25bd 43ff 9fbc 66de 89bc
000000e0: 9bc0 1a3d 78d8 6bbb 23a2 8ebc 95c6 713d
0.03277729 0.090280995 -0.0055173826 0.015100083 -0.0723728 0.03971576 -0.10249643 -0.03866554
0.050418578 0.0644372 -0.021096848 -0.04379354 -0.038821593 0.06503945 -0.036744945 -0.07314384
-0.0053379512 0.0752299 -0.044543207 0.14495654 -0.04773701 0.05967622 -0.1299662 -0.023258185
0.015920103 0.0015196161 0.053147398 -0.041218974 -0.025369069 0.09400325 0.036990907 -0.028490763
0.07547597 -0.075916156 0.005164112 -0.078686416 0.08262532 0.12738875 -0.07375197 -0.0042659203
-0.060847744 -0.020007381 0.031150889 0.002335548 -0.04938767 -0.023045346 0.038918156 -0.024522597
-0.029944865 -0.027990537 -0.044641 -0.034960743 -0.07904528 -0.04034018 -0.019530898 -0.01682968
0.03778134 -0.003598718 -0.017411297 0.059027273

encoder.2.weight f4 [30, 60]
00000000: c765 05be cf0d cb3d b090 3fbd 942c 83bc
00000010: c911 bfbd 8611 5b3d 3552 79bd f225 c03d
00000020: 76ba bc3d 061a 48bd 63a8 903d e99c 43bb
00000030: bcfa f7bd b6f2 9fbd f675 f23d b362 273d
00000040: ad1c 0bbc ef0d 5bbd 0c0f d93d ee0c 16bd
00000050: 2b81 ea3d 3571 03be e249 dbbd 7d65 ed3c
00000060: a65f d23d bdeb 4d3d b388 5fbc 03cc d93c
00000070: e37c fd3d 8204 0ebe 755b ab3c eeb9 8cbd
00000080: f9e4 513c c75e b0bb 954b bbbc e2a3 133c
00000090: 592a 8e3d 961f 61bb 9c5c 8a3c 1a99 903d
000000a0: dc08 113e 51af 90bd 1163 cabd 5d40 f1bd
000000b0: fc86 e1bd 6dc1 afbc de55 5cbd 4865 febd
000000c0: 7e0c 8ebd 532c 083d 6d86 ec3d 1e89 bd3d
000000d0: f701 a73d e6eb 42bd 06db 8e3c 3743 873c
000000e0: 0f86 c9bd 16d1 123e 7990 02be 0a2c ef3d
000000f0: aede c6bd ed20 5d3b e2e7 e63d e45a 7cbd
00000100: d0be d93d 37ac aabd 2ea8 b13d 0fe9 fb3d
00000110: 9bab de3d 61cd 6f3d 284e 2a3d a57e fd3d
00000120: 6065 0a3d 0acd 44bd 1e15 503d 8eb4 dabd
00000130: b4fc 97bd 6553 ea3a 8a55 0b3d 9a79 47bd
00000140: 006e d1bd 7eb3 ad3c d75e 083c 07c4 3ebc
00000150: e4b2 94bb fe3c 183d f4f8 ae3d c6c8 033e
00000160: 350f 933d e308 44bd 0252 093d f124 d6bd
00000170: 8cce 923d 2781 cabd 1f01 91bc 652e c33d
00000180: 8147 553d 667d f0bd 4d2e c23d 5a65 c73d
00000190: a291 9b3d f4df 913d 6540 acbd 8d60 fcbd
000001a0: cd56 c33d ef63 edbc bb75 6a3d 4d57 893d
000001b0: 24cd 8b3d be29 95bd 9eda cdbd 0cb5 6cbd
000001c0: 80c7 51bd 5007 dbbd bcdc be3d e32f 0c3e
000001d0: b5cc 1bbd 250c a73d 34d6 663d de7a 633d
000001e0: 273a bdbc 3482 97bd 709b 27bd a622 c43c
000001f0: 60a7 973d 1be8 5d3d 4668 ba3d 160a 8abd
00000200: 3ed8 72bd e2a6 88bd 4798 c8bd 6d80 09bd
00000210: 4466 86bd 08c8 813d c41f d43c 9b39 e6bc
00000220: 7e17 c43d 103b b43d 85a6 c9bd f75c 1a3b
00000230: 5f93 a83c b41e a83d 96ce 0cbe 2bea 0fbe
00000240: 257a 11be 30a7 fabb 488b 113e 6a33 653d
00000250: 5575 09be e547 ec3d 8370 a4bd 3717 bfbd
00000260: 4fbf 093e 9113 343d eeae 393d 1e11 4a3a
00000270: 5353 ff3c df39 893c 9ebe c83c eae4 03bc
00000280: d2e2 0bbe 1129 053e 8e34 e13d 8b02 93bb
00000290: e8d1 e6bc 7c09 e33d 740f e73d d72e 823d
000002a0: d995 a03d 6d52 e6bd 4e09 443d 1551 0f3e
000002b0: 0a16 b3bd 103c 123e 32ac cebd 004a 0cbe
000002c0: 83f0 9cbd af6d dbbc ff97 d2bd 01be 6fbd
000002d0: 8d38 e43d a7fc 933d 0193 c0bc 52d9 ddbc
000002e0: 1fad 06be ceae 103e 9be0 80bd 798c e5bb
000002f0: 7217 82bd 3eab bcbd 0b58 0cbe 3c54 fcbd
00000300: d0d6 c2bb cba4 553d 4646 933d 5912 e1bc
00000310: 6b88 7f3c d7ec b33d 7859 903d 7957 0d3e
00000320: 19af 0bbd c260 b8bc b8a9 92bc c88d 993d
00000330: 2d3b b63c 201f 11be abea cd3d e662 16bc
00000340: ea07 f8bd 2c65 163e 2fca b4bd 9dfd d6bb
00000350: 45a6 87bd b449 a3bd f5db e8bd 0884 a03d
00000360: 8bdf 8b3d 73ed 2abd 8ccd 893d bd36 e6bd
00000370: d304 4fbd b957 a33b 7c77 e23d e136 d53d
00000380: 2b3b b4bd 69cd 403d bbf2 cabc 48dd cb3d
00000390: 359c 92bd bc6d fdbd 2099 44bd d8e9 923d
000003a0: 5b01 68bd eef6 7b3d 58a5 08be efe4 edbd
000003b0: 7018 283d df47 0cbe b56b 673d 772e 413c
000003c0: 261c f43d f6c5 b7bc 6920 fabc 9907 12be
000003d0: 0dba a7bd 21ad 87bd 8f56 16be 989c b2bd
000003e0: 23fa be3d 9554 b3bd 81da 1fbe ce2e 10be
000003f0: 85b8 b0bd b39e 8a3d 72d3 e6bd 1844 6abd
-0.13027106 0.09914743 -0.046768844 -0.016012467 -0.09329564 0.05348351 -0.060869414 0.093822375
0.09215252 -0.048852943 0.07063367 -0.0029848164 -0.12108371 -0.07809965 0.118389055 0.04086561
-0.008490724 -0.053480085 0.10598573 -0.036633424 0.11450418 -0.12836154 -0.107074514 0.028979057
0.1027215 0.050273646 -0.0136434315 0.026586538 0.12377336 -0.13868907 0.020917634 -0.06871401
0.012810939 -0.005382392 -0.022863189 0.009011241 0.06941671 -0.0034351102 0.016889863 0.07060452
0.14163536 -0.07064689 -0.09882177 -0.117798544 -0.11012074 -0.021454537 -0.053792827 -0.124216616
-0.069359764 0.033245396 0.11549077 0.09254669 0.08154672 -0.04758825 0.017438423 0.016511543
-0.09840023 0.14337572 -0.12750424 0.11678322 -0.097104415 0.003374155 0.11274697 -0.061610118
0.10632098 -0.083336286 0.08674656 0.12300312 0.10872575 0.058545474 0.04157844 0.12377671
0.033788085 -0.048047103 0.05080139 -0.10678969 -0.07421246 0.0017877637 0.034017123 -0.048699953
-0.10226059 0.021203753 0.008323393 -0.011643416 -0.004537927 0.03716754 0.08543578 0.12869558
0.07180635 -0.047860038 0.033525474 -0.10456265 0.07168302 -0.09887915 -0.01770073 0.095303334
0.052070145 -0.11742668 0.094814874 0.09736128 0.07596137 0.07122794 -0.0841072 -0.12323103
0.0953804 -0.028978316 0.057241183 0.067061044 0.06826237 -0.07283352 -0.100514635 -0.057789847
-0.05121565 -0.10694754 0.093194455 0.13690142 -0.03803702 0.08156613 0.056356624 0.055537097
-0.023099018 -0.07397881 -0.04091972 0.023942303 0.07404971 0.05417643 0.0910192 -0.06740205
-0.059288256 -0.06672455 -0.097946696 -0.033569742 -0.06562474 0.06336981 0.025894053 -0.02810364
0.09574793 0.08800328 -0.09846214 0.0023553947 0.020578085 0.08208981 -0.13750681 -0.14054172
-0.1420675 -0.007649325 0.14213288 0.055957235 -0.13423665 0.1153715 -0.080292724 -0.093306
0.13451885 0.043963972 0.04533284 0.0007708239 0.031167662 0.016751228 0.024504956 -0.008050183
-0.13660744 0.13003947 0.10996352 -0.004486387 -0.028176263 0.110857934 0.11282244 0.0635659
0.07841081 -0.1124619 0.047860436 0.13995774 -0.08744438 0.14280725 -0.100914374 -0.13700104
-0.076630615 -0.0267857 -0.10282897 -0.05853081 0.11143599 0.07225924 -0.023507597 -0.027081165
-0.13151978 0.14129183 -0.0629284 -0.007005271 -0.06352128 -0.09212349 -0.1370546 -0.12320754
-0.005946018 0.052159112 0.07191138 -0.02747457 0.015596489 0.08785408 0.07048315 0.138029
-0.034102533 -0.022507075 -0.017903194 0.07497746 0.022245014 -0.1417203 0.10054525 -0.009178853
-0.121108845 0.14687032 -0.08827626 -0.006560995 -0.0662351 -0.07973042 -0.113700785 0.07837683
0.06829747 -0.041730355 0.06728658 -0.11240909 -0.05054171 0.0049848226 0.11057946 0.10410858
-0.08800348 0.047070894 -0.024773946 0.099543154 -0.071587004 -0.12374446 -0.047997594 0.071735084
-0.056641918 0.061514787 -0.13344324 -0.11615931 0.04103893 -0.13699292 0.0564992 0.011790863
0.119194314 -0.022433262 -0.030533032 -0.14260711 -0.08189783 -0.066248186 -0.14681457 -0.08721274
0.093250535 -0.08756367 -0.15610696 -0.14080355 -0.08628944 0.06768551 -0.11270799 -0.057193846

encoder.2.bias f4 [30]
00000000: 1207 e5bd 28ea f5bc d550 d73d 76df 09bc
00000010: 83c5 b03d 37c5 a3bb 004e ae3d 8aed 0b3d
00000020: 5720 6e3c 0ba0 edbc ca01 4bbd 6682 e13d
00000030: 6304 493d dbf1 303b 9186 013e 79a3 d83c
00000040: e243 c83b 0438 973d 2430 983d fdd6 4d3c
00000050: 1b0a 393d 77f5 693d 5a5f a0bc de4e 8c3d
00000060: a490 9c3d c4b6 e43d 5d9d 063d ddf9 3f3d
00000070: bb50 d73d c066 933d
-0.11182989 -0.030018881 0.10513464 -0.008415094 0.08631422 -0.004997875 0.08510971 0.03416208
0.014534078 -0.029006978 -0.049562253 0.110112 0.04907645 0.0026999626 0.1264899 0.026445137
0.006111608 0.07383731 0.07431057 0.012563464 0.045175653 0.05711886 -0.019576717 0.0685098
0.076447755 0.11167672 0.032864917 0.046869148 0.10513445 0.071973324

encoder.4.weight f4 [10, 30]
00000000: 3164 19be e74b 303e 0021 9bbd a886 5fbd
00000010: 2dc3 c53d 5978 e03c 823b 82bd ed74 17be
00000020: fb7f 18be 436f 1abd b7cd 813d 0da8 34be
00000030: 7e0a 8e3d 39c8 543e 4a30 f63c c901 323e
00000040: a340 2a3d a080 4cbe 7071 febc f2d2 173e
00000050: 5967 81bd 851a 35bb 16cb f0bd 5b58 fd3d
00000060: 06d3 7fbc 689e 9ebd 368a da3d 7547 0f3e
00000070: 1ee8 f03d 81e0 553c 53fc 363e 3b75 90bd
00000080: 8a60 86bd 104c fbbd 7a47 183d 702d 01be
00000090: 0ecd a43d 8921 9f3d 8e8c d5bd 9e48 b03d
000000a0: ffdd 14bd b23e 30be aa04 273e 051e e7bc
000000b0: 8397 4dbd a22d 87bd b2de f33c aad5 3bbe
000000c0: 3ec3 0cbe 56d8 2e3e 2ea4 3c3e 5578 c9bd
000000d0: f76f b43d 0ab9 6d3d c58c 0dbe 595e 3bbe
000000e0: 3a29 a63d c0d5 a93d b019 49be e302 65bc
000000f0: fdd4 11be f229 aabd 63f9 21bc 3697 313e
00000100: f55a b03d d49f 1abe 1271 2bbd b3ef 453e
00000110: 7aa8 61bd d169 42bd ea94 eabc 597f 15be
00000120: 9212 05be 4c21 063e aae9 eebd ff31 dabc
00000130: 2837 343e f5d2 1b3e 9dce 1dbe c7ae 16bb
00000140: 03b2 44be 6b48 6abd 0bd8 86bc eb0a e23c
00000150: 6b52 91bd b775 3c3e 33ab fcbd 92aa 203e
00000160: 9bd9 403e d4d1 e13c 5414 efbd 495e 74bb
00000170: b3ed ad3d e5a1 ff3c 63af 403e 8ff5 39bd
00000180: 2638 513e 3347 27bd 82c8 4bbe b5d2 84bd
00000190: b94b cd3b 53c7 153e 3e5b 2abd 7b6b fd3d
000001a0: d7e2 243e b864 103d 5cf0 1f3d 9457 70bb
000001b0: ca23 0fbd 6e00 8f3d 91cb 43bd c37b 06be
000001c0: 39e9 683d a4c1 f13d 3135 e7bc 79ca 04bd
000001d0: e566 2f3d 6dca 273e af20 07be a9a9 cdbd
000001e0: 954b 4d3e 7125 4e3c 55c6 ffbd 8520 31be
000001f0: 3f93 dbbc 152b 81bd 99aa 3ebe 60e5 1dbd
00000200: eac7 cb3d c76a 923d 1cad 00be f063 763d
00000210: d25b d53b a407 12be 4f5e 32bb cf4b 30bd
00000220: 0d68 36be 2c0a 12be aa05 853c 5a65 abbd
00000230: 98d1 ffbd 741d fa3b 2531 05be 5c1c cbbd
00000240: 1a96 5dbd df95 893d 8dce bf3c 8005 87bc
00000250: 2ba1 38be 0245 f2bb 07df 2cbd b3db d33d
00000260: 5808 91bd 44ec 0a3e fcc1 353d af6c 723d
00000270: e2dd b83d 3927 c7bd 1196 e0bd c996 773d
00000280: 2fba 0dbe c8b7 d2bc fa06 0ebe 3b50 0f3e
00000290: f1d2 183e 3764 1c3e 6362 a93d a27e 47be
000002a0: a79d f6bd 7de5 86bd b63b 803c 6254 87bc
000002b0: a580 bc3d 2c28 9c3d 4349 043e 75e2 883d
000002c0: 0f90 08be 5620 7abd 75d2 6d3c c7c9 40be
000002d0: 71d9 813d 646a aebd 319d 363d 7b38 0d3e
000002e0: b378 e73d 565c 34be 4a1a 2d3d 1710 b9bd
000002f0: e165 113e 1faf dd3d c3d6 413e 99ef 8f3d
00000300: f511 763d 28d2 17bd 73ad c73c 2eac 1cbe
00000310: 4d35 ecbd 0dd0 9ebd c42a 8e3d a710 0bbe
00000320: f15b 2cbe a5a6 fbbd 601f 503e ada7 bdbd
00000330: 75da 1abe 495d aa3d 6917 4dbe 4762 133e
00000340: 413f 0a3e 535e edbb 0ef8 f0bb 09be 643d
00000350: 75ce efbc 8b48 0f3d ec27 c7bd dc90 393d
00000360: 710d ac3d e8ec 173e 81e1 b4bd 2762 b33d
00000370: eceb c6bd 604f 113e a16d 763d 2f82 573d
00000380: 6086 babd 30c3 3ebe 7c87 1cbe 37a3 05be
00000390: fb3b cfbc 7d69 cd3c 3447 b3bd c63e a3bd
000003a0: d91b 1f3e 0a89 913d 352c 22be 98ff ba3d
000003b0: d4e2 e33d 88ea 8abd 4d0d 433e 2fde 0e3d
000003c0: f2d1 9f3a 39da 113e afd3 adbd e200 943d
000003d0: c268 5abb 904a ccbd be74 bb3d ebcb 26be
000003e0: a4e4 223e 9cef 8c3d f48e 09be b4ba 8cbd
000003f0: 7905 543e 8056 563e 62b6 253d 4cc6 253e
-0.14979626 0.17216454 -0.075746536 -0.054571778 0.096563675 0.027401136 -0.063590065 -0.14790697
-0.1489257 -0.037703764 0.06338065 -0.17642231 0.06935595 0.20779504 0.030052323 0.17383493
0.04156555 -0.19970942 -0.03105995 0.14826563 -0.0631854 -0.0027634215 -0.117574856 0.12370368
-0.015614277 -0.07745057 0.10670893 0.13992102 0.11763023 0.013054014 0.17869692 -0.0705361
-0.06561382 -0.12270367 0.03717754 -0.1261499 0.080469236 0.07770068 -0.10427199 0.08607601
-0.036344524 -0.17211416 0.16310373 -0.028212557 -0.05019332 -0.06600501 0.029769275 -0.18343225
-0.13746354 0.17074713 0.18422005 -0.09837405 0.08810418 0.058037795 -0.1382323 -0.1829771
0.08113332 0.08292723 -0.19638705 -0.013977739 -0.14241405 -0.08308782 -0.009886119 0.17342839
0.08611099 -0.15100032 -0.04185588 0.19329719 -0.055092312 -0.047464196 -0.02863546 -0.1459936
-0.12995365 0.13098639 -0.11665662 -0.026635168 0.17599165 0.15217192 -0.15410848 -0.002299236
-0.19208531 -0.05719797 -0.01646044 0.027593097 -0.07095798 0.1840428 -0.12337341 0.15690067
0.1883301 0.027565874 -0.11673799 -0.0037287644 0.08492603 0.031205127 0.18816905 -0.0454002
0.20431575 -0.040839385 -0.19900706 -0.06485502 0.0062651304 0.14626817 -0.04159092 0.12374016
0.16102158 0.035252303 0.039047584 -0.0036673294 -0.03494624 0.06982504 -0.047801558 -0.13133149
0.056863043 0.11804512 -0.028223606 -0.032419655 0.042822737 0.16385813 -0.13196062 -0.10042126
0.20048364 0.012582169 -0.12489001 -0.17297561 -0.02680361 -0.06307045 -0.18619765 -0.038548827
0.0995024 0.071492724 -0.12566036 0.0601539 0.00651119 -0.14260727 -0.0027216857 -0.043041047
-0.1781313 -0.14261693 0.016238052 -0.08368941 -0.12491149 0.0076329056 -0.13007028 -0.099175185
-0.054098226 0.06718039 0.02341392 -0.016482115 -0.1803023 -0.0073934803 -0.042204883 0.10344639
-0.070816696 0.1356669 0.04437445 0.05918568 0.09026696 -0.09724278 -0.10966123 0.060446534
-0.13840555 -0.0257224 -0.13869849 0.13995449 0.14924218 0.15272604 0.08270719 -0.194819
-0.120417885 -0.0658674 0.015653472 -0.016519729 0.092042245 0.0762485 0.12918572 0.06683818
-0.13336204 -0.061065994 0.014515509 -0.18826972 0.06340302 -0.08516386 0.044583503 0.13791077
0.113023184 -0.17613348 0.0422614 -0.09036272 0.1419902 0.10824417 0.18929581 0.070281215
0.06007572 -0.037065655 0.0243747 -0.15300056 -0.11533604 -0.07754526 0.06941751 -0.13580571
-0.16831948 -0.12287644 0.20324469 -0.09260497 -0.15122397 0.08318574 -0.20028462 0.14392959
0.13500692 -0.0072439103 -0.007353789 0.055845294 -0.029273251 0.03498129 -0.09724411 0.045304164
0.08401001 0.14836466 -0.08832074 0.087589554 -0.09712967 0.14190435 0.060163144 0.052614387
-0.09107661 -0.18629146 -0.15286058 -0.13050543 -0.025297156 0.025074715 -0.08753815 -0.079709575
0.15537967 0.07106216 -0.15837176 0.09130782 0.111272484 -0.067830145 0.19048043 0.03487986
0.0012193306 0.14243402 -0.08487641 0.07226731 -0.00333266 -0.09975159 0.09153126 -0.16288726
0.15907532 0.06881639 -0.13433439 -0.06871548 0.20705213 0.20931435 0.040457137 0.16188926

encoder.4.bias f4 [10]
00000000: 45d7 88bd eae7 91bd 3c97 193d fd2e 3abd
00000010: dd65 8d3d e9b8 0b3e 74b2 ddbd e611 b1bd
00000020: 8f1c 80bd 608e e4bc
-0.066816844 -0.07124312 0.037497744 -0.045454968 0.069041945 0.13644756 -0.10825053 -0.08645992
-0.06255447 -0.027899921

encoder.6.weight f4 [1, 10]
00000000: c595 a6be 7eed 26bd 82fe aa3e f1f5 773e
00000010: f3ce 08be cbd1 78bc 2ae1 4a3e f9be 403d
00000020: 6eb0 b0be be54 5cbe
-0.3253614 -0.040753834 0.333973 0.24214913 -0.13360195 -0.015186737 0.19812456 0.047057126
-0.34509605 -0.21516702

decoder.0.weight f4 [10, 1]
00000000: 64ce b93e d549 3cbf 7d30 d13e 55ed 623f
00000010: 12bf 2ebf 3571 dbbe 84c6 f03e b575 673f
00000020: 8ef0 733e 1c68 24bf
0.36290276 -0.7355016 0.40857306 0.8864339 -0.682603 -0.42859808 0.47026455 0.9041398
0.23822233 -0.6422136

decoder.0.bias f4 [10]
00000000: 8c82 7e3f 53df 50be 5137 d53d 180c 413c
00000010: 83c5 913e c1e2 fbbe fe39 0dbb cf51 41bf
00000020: 839c 33bf ccb4 40bf
0.9941795 -0.20397691 0.104109414 0.0117826685 0.28471002 -0.49196437 -0.0021549459 -0.75515455
-0.7016069 -0.75275874

decoder.2.weight f4 [30, 10]
00000000: e546 8b3d cb85 2dbe 55b6 2bbe 183d 803e
00000010: 93c6 1bbe bcff 8abd a9f2 e03b e2ce 60be
00000020: dd66 863b 3a3c 2c3d 00ee 823d 061a e93d
00000030: 7008 28bd df57 a8be fb0a ff3d c597 a23e
00000040: f41a 04be 8b71 4c3e 1b66 8d3e c2ce 43be
00000050: e741 6fbe 2fcd 9fbe f1a2 bf3c af76 1b3e
00000060: 03da 9abe 7297 a13e 3832 67be 73e9 0abe
00000070: 5516 4e3d 1f25 d1bc 467f 943e d7a9 88be
00000080: c8f2 193e 4e9d a33d 3e6f 7d3d b8f8 05bd
00000090: dc45 1b3e bb6b 55bd 9f3a 7a3c 0bcf 333e
000000a0: b185 e7bc 55d5 623e 71d6 b53d 1499 8abe
000000b0: c83a 8d3d 0882 d03d 14ce a13e 7aed debd
000000c0: a8d8 f4bd 6bf3 733e 8d65 223e 6d7a a23e
000000d0: ed3e 3a3c 4b29 043e 6282 84be 4b9a 8f3e
000000e0: bcbe c9bd c410 b4be bcff 01be 421e 18be
000000f0: d8c5 993e c396 053e e6c4 a33e b207 27be
00000100: c2aa 173e 4f2b 58bd e716 d7ba a823 693c
00000110: 570c ae3c 2e89 9d3e e36a d1bc 5029 d4bc
00000120: 37aa 453e b452 4f3e 5e25 fa3d a08e 1e3e
00000130: 28a1 a93e 4af9 923e 136b a5bd 9de4 223e
00000140: 4624 1abd 4ed5 72be d22d 8ebe f86f 833e
00000150: 45b6 03be 4d8c aebd e19d 8abe 0e12 d7bd
00000160: 69de aa3e eef0 94be 2685 f1bd 21e4 acbc
00000170: 5ecd 1ebe 976a 4a3e 652a c33d 6a45 19be
00000180: 99a4 0bbe c0da cc3d 7fda 99bd 436c f5bd
00000190: d39a 403e f67c 37be 4c99 96be 6068 8abe
000001a0: 11d3 b03d db3a 853c ce50 683e b802 993e
000001b0: 7b6e 823d d60d 653d 64dd 90ba 140e 12bd
000001c0: 35ed 433e 0dcf 393c deef 54be 6c98 923d
000001d0: 5681 573d 44ef 92be af10 02be bb7c e7bd
000001e0: d44b a5bd 1aa6 763e 78bf d8bd 78ba ac3e
000001f0: c722 b93d 0783 e6bd 05af 74bb a726 abbd
00000200: cc35 4dbe 7c8a b83d cdf3 533e f8dc 9dbd
00000210: ff72 3dbe 366c 97be e3cd 4a3e 5d3c 70bd
00000220: 021a 2a3e 140b 923e f54b ee3c ef13 f5bd
00000230: 6692 763e 696b 633e 785c 57be ace2 94be
00000240: 71d6 363c 17ea 263e b1fc 10bd e53b 063c
00000250: 51ae 27be 425c 6cbe c6cd 873e fa2a 9b3e
00000260: 5559 3dbe ae1a 663e 2e47 b7bd 1d7e 80be
00000270: 3f0a 313e 8ad4 653d 524d 783d b54b 9abe
00000280: a598 82be 5a43 3d3e 1438 a4bd e8f1 8cbe
00000290: a653 32bd 9819 8e3c 51b5 8dbe 34b0 74be
000002a0: 0d7b 963e 3656 873d 006b b6bd 240a 333e
000002b0: 0287 a7be d504 69be c92c f13d 8de2 2fbe
000002c0: 1519 6bbd d363 aabe d1af 0bbe 196b 02be
000002d0: 8bfb 00bd 9234 583c f68d 74be 6535 8c3d
000002e0: e1cb 813d 49e1 d03d 0151 da3d 89b3 3dbe
000002f0: 3baa ac3d 925f d03c 63df e03d a7e8 893e
00000300: 1ee8 993c 71d4 733d efad e2bc 50ec 2cbe
00000310: 1406 a23e 7084 71bd 83b8 b9bd 1dcc c73d
00000320: 3939 8abe d818 703e 4c86 983e 7ce1 323e
00000330: fb8c 663d df39 b9bd 2752 d03d 9380 003e
00000340: 96df 9dbe 9ad4 8bbe 9d1e 6fbe b7fa 663e
00000350: 7ef3 d9bd 6224 623e 8a3c 67bd a5a8 d5bd
00000360: 87ce c4bd dd62 4abe 26bf 65be e9f7 25bd
00000370: 973d 91be 970d 513d ee86 4ebd 9925 423e
00000380: 0d98 543c 5e57 cfbd e621 8c3e 16b1 0f3e
00000390: 429a 053e 1372 223d 132f 453e 7ba4 fb3b
000003a0: 6b1f 2ebe 0797 d43d 3fe5 c13c ed34 8c3d
000003b0: a2a5 3abd 7c6a 4fbe 261c 7f3d 3ae4 95be
000003c0: 5dfe b2bd 66e4 8abe fffd 133e 957a 0c3e
000003d0: 0f7f 15bc 6418 2ebd 9b28 343e 8d99 943e
000003e0: f55d 5c3e 5c72 bd3d db7d 99bd 92e4 a83d
000003f0: 00c5 67be 13bb c0bd 9ee8 a43e 7654 71be
0.068006314 -0.16945569 -0.16768773 0.2504661 -0.15212469 -0.06787059 0.006864865 -0.2195392
0.0041016177 0.042049624 0.06393051 0.11381917 -0.04102367 -0.3287954 0.12453266 0.31756416
-0.12900907 0.19965188 0.27616963 -0.1912184 -0.23364983 -0.3121123 0.023393126 0.15181993
-0.30244455 0.31560856 -0.2257775 -0.13565616 0.050314266 -0.025530396 0.29003352 -0.26692078
0.1503402 0.07988988 0.061873667 -0.0327079 0.15163368 -0.052104693 0.015272765 0.1755945
-0.028261991 0.22151692 0.08878792 -0.27069914 0.06895977 0.101810515 0.31602538 -0.10885139
-0.119553864 0.23823325 0.15859051 0.31734028 0.011367542 0.12906377 -0.25880724 0.28047404
-0.09850833 -0.3516904 -0.12695211 -0.14855292 0.30033755 0.13045792 0.3198616 -0.1631153
0.14811233 -0.052775677 -0.0016410024 0.0142296925 0.021246118 0.30768722 -0.025563663 -0.025898606
0.19303213 0.20246392 0.122141585 0.15484095 0.33130765 0.28705817 -0.080770634 0.15907522
-0.03763225 -0.23714182 -0.27769333 0.25671363 -0.12862499 -0.08522854 -0.27073577 -0.105014905
0.3337281 -0.29090065 -0.11792974 -0.021104874 -0.15508029 0.19767223 0.095295705 -0.14967886
-0.13637008 0.10002661 -0.07512378 -0.1198354 0.18809061 -0.17918763 -0.2941383 -0.27032757
0.08634008 0.016263416 0.22687075 0.29884887 0.06368729 0.055921398 -0.0011052308 -0.035657957
0.19133456 0.011340869 -0.20794627 0.071579784 0.05261358 -0.2869817 -0.12701677 -0.11303087
-0.08071104 0.240868 -0.10583395 0.33736014 0.090398364 -0.1125546 -0.0037335765 -0.08356982
-0.20040053 0.09010789 0.20698471 -0.07708162 -0.18500899 -0.29574746 0.19805102 -0.058651317
0.16611484 0.28524077 0.029088954 -0.11966693 0.24079284 0.22208942 -0.21031368 -0.29079187
0.011159525 0.16300236 -0.035397235 0.008192991 -0.1637509 -0.23082069 0.2652418 0.30306226
-0.18491109 0.22471115 -0.08949123 -0.25096217 0.17289065 0.056110896 0.060620613 -0.30135885
-0.25507084 0.18482724 -0.080185086 -0.2752831 -0.043536805 0.017346188 -0.27677396 -0.23895341
0.29390755 0.0660824 -0.089071274 0.17484337 -0.3272019 -0.2275575 0.1177612 -0.17176266
-0.057396967 -0.33279285 -0.13641287 -0.12736167 -0.03148989 0.0131961275 -0.23882279 0.06846122
0.06337715 0.1019922 0.106599815 -0.18525518 0.084309064 0.025436196 0.10980108 0.26935312
0.01878744 0.05952877 -0.027670829 -0.16887021 0.31645262 -0.058964193 -0.09068396 0.097557284
-0.26996782 0.23446977 0.2978996 0.17468828 0.056286793 -0.09044241 0.10171919 0.12549047
-0.30834645 -0.2731064 -0.23351522 0.22556578 -0.106421456 0.22084191 -0.05645422 -0.10432557
-0.096097045 -0.19764276 -0.22436199 -0.04051963 -0.28367302 0.05103835 -0.050421648 0.18959655
0.012975705 -0.10124086 0.27369612 0.14032397 0.13047126 0.03965957 0.19256239 0.0076795197
-0.17004173 0.10380369 0.023668883 0.06846032 -0.045568116 -0.20255464 0.062282704 -0.29275686
-0.08739922 -0.2712738 0.1445236 0.13718636 -0.009124531 -0.04250373 0.17593615 0.290234
0.21520217 0.09250328 -0.07494708 0.08246721 -0.22633743 -0.094106816 0.32208723 -0.23567376

decoder.2.bias f4 [30]
00000000: 8ddf 483e f490 9dbc 0cdc c1bc ca72 0fbe
00000010: 5c8b a13e 1c2a 3abe ee8b 593e dbd8 283d
00000020: d99f 4cbe ef92 ab3d 4f37 8ebe 1fee 17bd
00000030: 6965 073d 1975 993e 9e51 90be 44b4 673e
00000040: f91a 023d 2565 8dbd 9fee 84be 4171 363e
00000050: 72f2 b1bd f4d1 98be f04a 26be 9369 5a3e
00000060: 2cd7 9fbd 6360 0ebe 6591 633d e4dc 39be
00000070: 2e7c 62be c54c 26be
0.19616528 -0.019234158 -0.023664497 -0.14008632 0.31551635 -0.18180126 0.21244785 0.041222434
-0.19982852 0.08377635 -0.27776572 -0.037092324 0.033055697 0.2997215 -0.2818727 0.2262736
0.031764004 -0.069040574 -0.25963303 0.1781664 -0.08688821 -0.29847682 -0.16239524 0.21329336
-0.07804713 -0.13903956 0.05555858 -0.1815067 -0.22117683 -0.16240223

decoder.4.weight f4 [60, 30]
00000000: bc45 053d 312e 0fbe 1746 2b3e d8e5 cdb9
00000010: 7c81 0b3e e4a4 5bbc f82e 2e3c f39f 2a3e
00000020: 8ad7 a5bd c3c1 5fbc 8198 37be b17d 543d
00000030: a2fc bdbd 7387 41bd 2294 b23d bcdc 9b3c
00000040: af6a 7cbd 1c80 ccbd 1165 1bbe 6a6c 00bd
00000050: 3842 3f3e fc13 0abe 1352 f13d c350 2d3e
00000060: 8b05 00be eb3e 3abd 20d3 e6bd 57ba 9a3d
00000070: 7f21 f9bd 5138 8f3d 1d33 1fbd a530 b1bd
00000080: d37a c8bd 80c4 31be f1cd 10be cf7a 2d3c
00000090: f8fd 24be 557c 623d 5742 fbbd 2f89 fdbd
000000a0: 1877 17be 4758 523d f1f1 b43c a18d d93c
000000b0: f264 f03d 2243 2dbd fb90 b4bd e691 f23c
000000c0: f964 053e 8353 4cbd 0393 a6bc 3ab9 44bd
000000d0: b46d 8ebc 18ef 27be bd84 e73d 28ef 323e
000000e0: fe1c 013e 12d1 e83c 9361 673d 92f9 c6bd
000000f0: 3cc4 1c3e d6ee 7a3d 1d28 67bd e8b4 1bbe
00000100: 54ba bd3d b242 1d3d 86aa 0e3e 34a0 3bbd
00000110: d5fe 7f3d 4a60 0d3e 2b21 903b de88 16be
00000120: 8b3b ef3d a093 633d e40c d03c bfe3 2d3c
00000130: 186b e23d 6207 65bd 175a 033e 3341 193e
00000140: 2649 933d 0951 043d 2ca3 0d3d c0b7 91bd
00000150: a18a b93d 43a3 1d3e 53b6 943d 817c 0dbe
00000160: 0a1f 9c3d 5f57 95bd 3d69 7a3d af55 9d3d
00000170: 860f c43d 0f1e bf3b 0090 04bd b7d5 13bd
00000180: 9994 823d 6e0f 6b3d 3025 c83d 6ecb 49bd
00000190: 0791 87bd dfe9 00be 721d 523e d7b1 dc3d
000001a0: 823b 91bc 5815 99bc 7b24 09bd ce80 4d3e
000001b0: 53ee 42be 55f8 06be b30f fdbb bf71 143e
000001c0: 16b2 0b3d a518 19be 3c65 54be 0924 d23c
000001d0: 9eca 96bd 9592 f2bd 07aa 973d 48e8 1a3e
000001e0: da24 b33d e622 b43d 99e7 e5bd 4fe5 d93d
000001f0: 3c8c a7bd c1d2 423e e44e 1a3e 1e9c 31bd
00000200: 8750 4dbd 623d 9dbd 142b 96bd 3573 d73d
00000210: 1e57 f6bd 7bdd ccbd 9b71 033e 3c25 a13b
00000220: 07ef 203e 6f57 583e 99d8 ccbd 1b10 1f3e
00000230: 4225 0f3d e0c5 1fbc f14b 103e 92f9 20be
00000240: ced2 053e f447 1bbe 3f68 c6bd 46cc 493d
00000250: 16ce 41be dd1d cdbd 1390 b43d 716d acbd
00000260: a305 3dbe 4f22 023e ecc6 ffbd b05b 9e3d
00000270: 1911 15be a1c2 42be bdd3 02be a896 9ebd
00000280: 201d 17be 3001 333e 7520 dbbd fba3 3d3e
00000290: 4ce4 7f3d ae54 fd3d 469f c1bd 1cfb 75bd
000002a0: ac8f d93d 6321 f3bd 0521 0d3e f0d7 ea3d
000002b0: 436c 07be 30fe 483e 4563 0e3d 2615 a3bd
000002c0: ac44 9b3c e35d 4dbe 1deb 113e b055 0a3e
000002d0: cf57 b33d 3aff c93d b640 8abd f998 8fbd
000002e0: ee06 4f3d 8e43 be3d 29d0 5e3e 6852 1ebe
000002f0: 4fc2 8dbd ab71 b5bd 0e9d 7bbc 1e7b 383e
00000300: fc4c 333d e9e5 3d3e e2ca a2bd 6807 2b3d
00000310: 2b04 2e3d edc1 b5bd b2be 1c3d 078b af3d
00000320: e5d0 903d 1349 403d 53c2 a3bd 58d9 2a3e
00000330: 2f67 32be bcce 1f3e e0e8 873d b121 fc3d
00000340: 5d79 ca3d c326 93bc d0b6 ca3d aadb 4f3d
00000350: ee7d debd 28d4 113d bd82 9a3d 049b 21be
00000360: 1f7b ff3d c39d 113e 221e 60bd 266b 3dbe
00000370: 1baf 383e 8d17 45bd 6c30 093e 4b3c 98bd
00000380: f91d 37be ac56 27be a4fa 58bb 5af2 f3bd
00000390: c27a 3cbd f646 19be 554b 06be c782 febd
000003a0: 809a 2c3d 8d0c f7bd 63cb cc3d d956 9f3c
000003b0: d758 393e 2207 ad3d 8fd5 3a3d 0028 f33d
000003c0: 4232 4d3d 156d 0ebe bf91 18bd 0bbb 0bbe
000003d0: 1822 e83d b4e5 3cbd d132 1d3e f9f8 10bc
000003e0: 20f5 35be 5aed 27be d4ca 24be 555b 993c
000003f0: 18e1 81bb 12f6 e73d d411 c9bd bee2 063e
0.032537207 -0.13982464 0.16725956 -0.00039271894 0.13623613 -0.013406012 0.010631315 0.16662578
-0.080977514 -0.013657036 -0.1792927 0.05187768 -0.092767015 -0.047248315 0.0871966 0.019026153
-0.06162518 -0.099853724 -0.15175273 -0.03135339 0.18677604 -0.13484186 0.117832325 0.1692534
-0.12502114 -0.04547016 -0.11270738 0.07555073 -0.12164592 0.069931634 -0.038867105 -0.08651856
-0.09789052 -0.17360115 -0.1414106 0.010588362 -0.16112506 0.055294354 -0.12268513 -0.12379681
-0.14791524 0.05135372 0.022088023 0.026556792 0.11738004 -0.04230035 -0.08816715 0.029610585
0.130268 -0.04988433 -0.020333773 -0.04802821 -0.017386295 -0.16399801 0.11304615 0.17474043
0.12608716 0.028420005 0.05648954 -0.097155705 0.15309232 0.061262928 -0.05643474 -0.15205729
0.09264055 0.038393684 0.13932237 -0.04580708 0.062498886 0.13806263 0.004398485 -0.14700648
0.11681279 0.055560708 0.025396772 0.010613381 0.11055583 -0.055915244 0.12827335 0.14966278
0.07191686 0.032303844 0.03457944 -0.07115126 0.090596445 0.1539431 0.07261338 -0.13817026
0.07623108 -0.07292055 0.06113552 0.076823585 0.09573273 0.0058324407 -0.03236389 -0.036092486
0.06375999 0.05738776 0.09772718 -0.04926627 -0.06619459 -0.12589215 0.20519045 0.10776108
-0.01772857 -0.018686935 -0.033482056 0.20068666 -0.19036226 -0.13180669 -0.0077228188 0.14496516
0.034105383 -0.14950807 -0.20741743 0.025651949 -0.07362865 -0.118443646 0.07405477 0.15127671
0.08747263 0.08795719 -0.11225814 0.1063944 -0.081810445 0.19025709 0.15069157 -0.043361776
-0.050125625 -0.076777235 -0.07332435 0.10520021 -0.12028335 -0.100031815 0.12836306 0.0049177688
0.15716182 0.21127103 -0.1000225 0.15533487 0.03494764 -0.009751767 0.1409147 -0.15720204
0.13068697 -0.15164167 -0.09687852 0.049267076 -0.18926272 -0.100154616 0.088165425 -0.08419312
-0.18459181 0.127084 -0.12489113 0.07732332 -0.14557303 -0.19019558 -0.12776084 -0.07743579
-0.14757204 0.17480922 -0.1069955 0.18519585 0.06247358 0.12369667 -0.09454207 -0.06005393
0.10623106 -0.118716024 0.13782127 0.11466968 -0.13224892 0.19628215 0.03476264 -0.07963018
0.018953644 -0.20055346 0.14249845 0.1350925 0.087569825 0.09863134 -0.06750624 -0.07011599
0.050543718 0.09290229 0.21759094 -0.15461123 -0.06921827 -0.08859571 -0.015357269 0.18015715
0.04377459 0.18544735 -0.07948853 0.04175511 0.042484444 -0.08874879 0.0382678 0.08571439
0.070710935 0.04694469 -0.07996049 0.16684473 -0.17422174 0.15606207 0.06636214 0.123111136
0.098864295 -0.017962819 0.0989815 0.050746597 -0.10863863 0.03560272 0.075444676 -0.1578179
0.12474655 0.14220338 -0.054716237 -0.18497905 0.18035547 -0.048118163 0.13397378 -0.07433375
-0.17882527 -0.16341656 -0.0033108378 -0.11911459 -0.04601551 -0.14968476 -0.13114674 -0.124272875
0.04213953 -0.12062941 0.099997304 0.019450592 0.18100296 0.08448626 0.04561382 0.11872864
0.050096758 -0.13908799 -0.03724837 -0.1364557 0.11334628 -0.0461175 0.15351416 -0.008848422
-0.17769289 -0.16399136 -0.16092998 0.018720308 -0.003963601 0.11326231 -0.098178536 0.13172433

decoder.4.bias f4 [60]
00000000: 52be babd 4210 ed3d 96b1 263e 421d b13d
00000010: 37d2 203e 0ae6 ffbd 3779 933d b961 993d
00000020: 8350 1fbe 0ad5 913c c523 ea3d 3a20 4b3d
00000030: 2794 423e f6a5 dbbd 038c adbd a628 133e
00000040: c31d febd 23f8 08be f423 28be 52b3 1b3e
00000050: 7eff 443e 88ff 063e 7aca 8fbd 6952 a8bc
00000060: 63d4 383e 38bb 073d f7bc 343d e0ae 1b3e
00000070: 412a 003e b0dc 503d 7bac d9bd 35ee 18be
00000080: 25e2 0fbd 3458 7dbc ce53 183e 6e74 c3bd
00000090: fe79 9bbd 7e36 09bd 6ed3 a6bd 440d 593d
000000a0: 0e17 2dbd f0d9 983d 3f4b 0a3e bf21 2b3e
000000b0: e49d 57bb 0c10 c2bd bfea a43d af03 0a3e
000000c0: 3cc6 e4bc d9e1 103d 1b2e ad3d d8cf f0bd
000000d0: 2843 d6bd eb1c 00be 5f07 e33c c0c4 b63d
000000e0: 90b1 373e 3537 083d 670d 26be fc8d b33d
-0.09118332 0.115753666 0.16278681 0.086481586 0.1570519 -0.12495048 0.07200854 0.07489342
-0.15558057 0.01780178 0.11432604 0.04959128 0.19001828 -0.10725014 -0.08473971 0.14370975
-0.1240802 -0.13375907 -0.16419965 0.15205124 0.19238088 0.13183415 -0.07021041 -0.020547109
0.18049769 0.03313753 0.044125523 0.15203428 0.12516119 0.050991714 -0.10628601 -0.14934619
-0.035127778 -0.015462924 0.14875719 -0.095436916 -0.075916275 -0.033499233 -0.08145796 0.052991167
-0.042258315 0.07463443 0.13505267 0.16712092 -0.0032900507 -0.09475717 0.08052587 0.13477968
-0.027926557 0.035371635 0.084560595 -0.11758393 -0.10462028 -0.12511031 0.027713476 0.08924246
0.17938828 0.033255775 -0.1621605 0.08767316

decoder.6.weight f4 [118, 60]
00000000: d899 3f3d 1c82 b93d 570a 883d d94d ba3b
00000010: e852 b5bd e320 ee3a 78c4 afbc bb0f 903d
00000020: 7b05 ab3c 4acc 4ebd 2020 2bbe 5f93 7dbd
00000030: 5e16 e3bc cc9b e23c e437 173e b202 dabd
00000040: a597 d93c 003b 6cbc 7b92 1b3e 8aec d4bc
00000050: d0b2 25be 8056 4c3d b1d2 553b 368b c63d
00000060: 91be 25be 54c1 2bbe 5620 103d ed91 13be
00000070: b2da 03bd 547d f6bc 5ded 913d 1d09 263d
00000080: b1d2 5abd 0d08 90bc f707 2bbd 2cb7 99bd
00000090: 3af7 e3bd e7de 24bd 61da a33c 2274 d9bb
000000a0: 6420 5cbd f3fa 4e3c b4b9 d4bd 5bcd d5bd
000000b0: 7209 973d 51cc 0b3e 1373 f1bd 0cee 80bc
000000c0: f892 603d a275 073e 8628 143d 2bff 9fbd
000000d0: 0289 15be 72f1 fdba 670a 283c 14df b93a
000000e0: f741 713d da2e 14bd 8103 acbd c121 01be
000000f0: ffaf 133e 31a1 e1bd db14 0f3a d628 cebd
00000100: 2086 bf3d 2620 a93c 5f47 013e f56b 03be
00000110: 73a9 ad3d 9c72 e03d 972c 1bbe f15e bc3c
00000120: d2db 6f3c 5699 c9bd b382 03bd e9f9 d4bc
00000130: c5d9 173d 20d9 e13c e022 18bd 512d 933d
00000140: 6349 8d3d c741 b53d 6c0f d63c cc88 01be
00000150: b73e cc3d ad5f a6bd 14a6 f0bc 133d 433d
00000160: 3926 203d 857a e6bd bcb5 a5bd 456e 003d
00000170: 7269 823d a0cc 88bd 9b41 033e d4d9 9f3d
00000180: bd33 1fbe 10df 5fbd f33d ab3d d5e6 c7bc
00000190: 937b 9ebd 484a b9bc 2838 bc3c d930 eabc
000001a0: cf93 7fbd 3caa d13c b122 763d 6fd5 f83d
000001b0: 7172 633d d410 283d c9c0 463d 4aef 063e
000001c0: 08fc 0bbe ac20 1bbd 0649 8ebd 9595 2cbd
000001d0: 2331 b93d 4afc d93d ee5a a9bd 04e8 83bd
000001e0: b090 693d 3817 6a3d 9234 733d 03f0 313d
000001f0: f15c b6bd bc0b 9f3d 8152 d6bd fecb 64bd
00000200: ccb9 d83b 9c2c 4a3b 9300 b53c 7128 e4bd
00000210: 903c 093e 9a92 b1bd 9816 efb8 c62e aa3b
00000220: 956e f23a 0766 28bd 20ac 653c aa17 353d
00000230: 9875 a1bd a957 cb3d b7a5 d4bc 8e07 cf3d
00000240: 3dd0 bfbd 0479 0b3e 4cf1 9c3d b99b c9bc
00000250: 9474 bd3c a346 af3d db60 e8bd a77c a43d
00000260: 597e 7d3d 0738 89bd 6776 683d e878 683d
00000270: b618 df3c c865 de3d 9a67 eabd f8e6 8bbc
00000280: a59c 103c 6f00 a33d 466f b23d 39f7 c0bb
00000290: dc21 a2bd 32cf 0abe c1ca 2b3c ebe5 10bd
000002a0: 2e03 d6bc 5852 8e3c 474a 913d ab09 583d
000002b0: 452f 2a3d 2870 18bd a368 3a3d b376 7b3d
000002c0: dc3e 75bd d8b7 f9bd 9034 ae3c 7409 34bd
000002d0: 14bb e33d d33c debd 8f80 8dbd 149f 2c3d
000002e0: 668d babd 3d14 dbbb 1750 833d 4a32 9fbd
000002f0: 2d64 543d 7f20 da3d b968 d1bd 8803 f83c
00000300: 17a9 a1bd e10a a3bd 4098 f7bd bd30 6a3d
00000310: e244 9f3d 43a4 a1bd 86f6 b23d 20c9 79bd
00000320: 0f14 673d 3824 d4bd 5675 013e 2aa7 dfbd
00000330: 9ec5 703d a8fd 473d 44ef 1f3d f54b ef3d
00000340: 13bb 683d ca26 9e3d 9e56 f0bd e4f6 9fbd
00000350: cade 2fbc 1b01 043e ac57 b83d a334 01be
00000360: 5df5 8b3d 1424 cc39 9896 5abb dd6b e9bc
00000370: c394 623d 9593 3abd f2ea 503d ee01 a7bd
00000380: 77fa b7bb 9241 2d3d e34e 16bd add2 f83d
00000390: c841 bebd 3655 503d 867b b53d d16c c3bc
000003a0: 8339 403d b4a8 f4bd e04e 52bd 2202 98bd
000003b0: 4475 203d 7f66 39bd e9fd 02be 638d 01be
000003c0: aad8 8abb d291 d43d b863 c83d 0117 07bd
000003d0: cff6 35bd 8fd0 b2bd a10c bb3d 80bd bdbd
000003e0: 9266 bcbc 11e0 8fbd a92d 18be 1c65 073d
000003f0: 0b64 bfbd 23d6 eebc e809 413d 510e 613d
0.046777576 0.090580195 0.06642597 0.0056855497 -0.08853704 0.001816776 -0.021455988 0.0703425
0.020876637 -0.050487794 -0.16711473 -0.061908122 -0.027720626 0.02766218 0.14767414 -0.10645045
0.026561568 -0.014418364 0.15192597 -0.025991697 -0.16181493 0.04988718 0.0032626803 0.09694521
-0.16185977 -0.16772968 0.035187088 -0.14411135 -0.032190986 -0.030089058 0.071253516 0.040536035
-0.053423587 -0.017581964 -0.041755643 -0.075056404 -0.11131139 -0.04025164 0.020001592 -0.0066361586
-0.053741828 0.012633073 -0.103869826 -0.10439559 0.073748484 0.1365216 -0.11789527 -0.01573851
0.05482766 0.13228467 0.03617146 -0.07812341 -0.14603046 -0.0019374324 0.010256386 0.0014180862
0.0589008 -0.036177494 -0.08399106 -0.12610532 0.14422606 -0.11017073 0.0005458125 -0.100663826
0.09351754 0.020645212 0.12624882 -0.12834151 0.084795855 0.1095936 -0.15153728 0.02299449
0.014639812 -0.098437 -0.032107066 -0.025998073 0.037072916 0.027569354 -0.037142634 0.07186378
0.06898763 0.08850437 0.0261304 -0.1264984 0.099728994 -0.081237175 -0.029376067 0.047665667
0.039098952 -0.112538375 -0.08091304 0.03135516 0.06367768 -0.06679654 0.12817995 0.07805219
-0.1554708 -0.05465609 0.08361425 -0.024402061 -0.07738414 -0.022618428 0.022975996 -0.028587746
-0.06239682 0.02559387 0.060091678 0.12150084 0.05552906 0.041031674 0.048523698 0.13177219
-0.13670361 -0.037872955 -0.06947522 -0.04213484 0.09042575 0.106438234 -0.082692966 -0.06440738
0.05702275 0.05715105 0.059376307 0.043441784 -0.08904446 0.0776591 -0.10464955 -0.055858605
0.0066139456 0.0030849343 0.022095 -0.11140526 0.13402009 -0.0867054 -0.000114006165 0.005193564
0.0018496091 -0.041112926 0.014018089 0.04421202 -0.07883757 0.09928829 -0.025957925 0.10108863
-0.0936589 0.13620383 0.07663211 -0.024610387 0.023126878 0.08558395 -0.11346599 0.08031588
0.061888073 -0.067001395 0.056753542 0.05675593 0.027233463 0.10859257 -0.11445542 -0.017077908
0.0088264095 0.07959067 0.0871263 -0.0058888462 -0.079166144 -0.13555601 0.010485352 -0.035375517
-0.026124563 0.017373249 0.070942454 0.052743595 0.041548986 -0.037216336 0.045509946 0.061392497
-0.0598744 -0.121932685 0.021265298 -0.043954328 0.11119667 -0.10851445 -0.06909286 0.042143896
-0.09109001 -0.006685762 0.0641176 -0.07773264 0.051853348 0.106507294 -0.102250524 0.030275121
-0.078935795 -0.07961059 -0.12089586 0.057175387 0.0777681 -0.078926586 0.08738427 -0.060982823
0.056415614 -0.10358471 0.12642416 -0.10920556 0.058782212 0.04882589 0.03904654 0.116844095
0.056819033 0.07722242 -0.11735271 -0.078107625 -0.010734269 0.12891047 0.09001097 -0.12617736
0.06833909 0.00038936792 -0.003335392 -0.028493816 0.05531765 -0.0455509 0.05100531 -0.08154665
-0.0056145745 0.04229886 -0.036696326 0.12149558 -0.092898905 0.050862513 0.08861451 -0.023855599
0.046929847 -0.1194624 -0.051344752 -0.07422282 0.039174333 -0.045263764 -0.12792172 -0.12651591
-0.004237254 0.103793755 0.09784645 -0.032980923 -0.04442483 -0.08731186 0.09133268 -0.0926466
-0.022998128 -0.07025159 -0.14861168 0.03305541 -0.093452536 -0.029154843 0.047128588 0.054945294

decoder.6.bias f4 [118]
00000000: 998e 28bc a044 94bc 57e7 d9bc 0a3f c1bd
00000010: dc7e b7bd 5980 a0bd 66e5 b93a c308 c83c
00000020: 884a dd3d 7f84 e73c b5ad a4bd 31e3 0e3e
00000030: 517b 4ebc 47e8 0a3e c03a 003e bfb5 c83c
00000040: 51c4 c93d 97cd 33bb 2882 ac3d 127f fd3c
00000050: 5281 75bd 93cc d1bd 7ad2 a5bc 2ba1 b9bd
00000060: 0abb 823d 635a 33bd f7d7 c2bd 985a 373b
00000070: 6951 413d 65ae ffbc bdf9 003d 13c0 c93d
00000080: 1f7a 6abd aaa4 89bd e351 bb3d b5f2 5e3c
00000090: 40f0 4f3d a66a b0bc febb 9a3d 80a2 163e
000000a0: fab3 803d 6e07 90bd 5593 abbd e8f4 8abd
000000b0: 82a4 85bc 0b93 2cbd 5855 cbba 1ac5 adbc
000000c0: 9790 c13d cb2d ef3c ed4f aebd d774 f2bc
000000d0: 5c26 5ebd eb7c 083d 933d 873d c0d5 6f3d
000000e0: ab4c 413d 121c 973d 2890 86bd 0ff5 9fbd
000000f0: 4b00 d2bc bf3b edbd 925b e03c 2e1c 863d
00000100: 17da 3dbd 8d6b c3bd cf31 23bd 5d9f 663d
00000110: 8ae0 a23b 9f32 e2bc ff2e 98bc 1cb0 b43d
00000120: 00ad a63d 19df 89bd d418 263d 5e75 37bd
00000130: 7414 81bd d706 80bd 2158 c5bc 84f6 123d
00000140: 7f6e ce3c aa61 2ebd 9406 843b 2156 2a3d
00000150: d5d9 87bd 5e12 ecbc b41e d43c c023 2a3d
00000160: f973 c9bb 22e3 99bc 4014 d9bd c957 80bd
00000170: 1dc5 933d 3398 ad3d 01d9 323d 7327 ca3d
00000180: fb2e 80bd 9311 89bd 844b 9dbd 4009 03bd
00000190: 74a0 a83d 3dc5 c33d daf1 f03d faa8 823d
000001a0: 2ac0 37bc d97e 91bd deb8 a5bd 87ee 47bd
000001b0: 9a09 c2bd 05f2 60bd 761d 05be 0ebc 4c3d
000001c0: 258a c83d 63b1 a8bc 0644 fe3d 1610 70bc
000001d0: 5853 d4bd 9ca5 0f3d
-0.010287904 -0.01809913 -0.02659957 -0.09435852 -0.089597434 -0.078369804 0.0014182746 0.02441824
0.10805231 0.028261421 -0.080409445 0.13953854 -0.012602643 0.1356517 0.12522411 0.024500726
0.098518975 -0.0027435774 0.08423263 0.03094438 -0.059937783 -0.102440976 -0.020241965 -0.090639435
0.06383331 -0.04378737 -0.09513848 0.0027977582 0.04719678 -0.031211087 0.03148817 0.098510884
-0.05724537 -0.0672086 0.09146478 0.013607671 0.05076623 -0.021535229 0.07555388 0.14710426
0.06284328 -0.07032667 -0.08377711 -0.067849934 -0.016313795 -0.04213242 -0.0015513105 -0.02121215
0.094514064 0.02919664 -0.085113384 -0.02959673 -0.0542358 0.033322256 0.06603541 0.058553457
0.047192257 0.07378401 -0.065704644 -0.07810413 -0.025634905 -0.11583661 0.027387414 0.065483436
-0.046350565 -0.09541998 -0.039842423 0.056304324 0.004970615 -0.027612029 -0.018577097 0.08822653
0.08138466 -0.067320056 0.04055102 -0.044789664 -0.06302729 -0.062513046 -0.024089875 0.035879627
0.025199173 -0.04257361 0.0040291045 0.041586045 -0.06633345 -0.028817352 0.025893547 0.041538
-0.006147858 -0.018785063 -0.105995655 -0.06266744 0.07215331 0.08476295 0.043663982 0.098708056
-0.06258961 -0.06692805 -0.07680419 -0.031991243 0.08233729 0.095591046 0.117648795 0.06379886
-0.011215249 -0.071042724 -0.08091901 -0.04881146 -0.094744876 -0.054918308 -0.1299952 0.04998403
0.09791974 -0.020592397 0.12415318 -0.014652273 -0.10367459 0.035070047

estimation.0.weight f4 [10, 3]
00000000: 59b3 28be c535 d8bd ff1f adbe 33b1 e43e
00000010: 2d51 3cbd 9f76 c03e 5f68 39be 39d6 61be
00000020: 604e a53e 4889 a23e f46a 023e d2f8 9ebe
00000030: 24b9 20be ce01 843e a687 e1be 02f1 d2ba
00000040: 2ff1 f53e 38df 773e 50de 88be d611 0cbe
00000050: 26a7 bdbe 85d6 7f3d 8195 a1be 59b9 263e
00000060: dbdd d0be cb2f 293f 2895 16be c02b b1be
00000070: 74dc 263f 3669 1d3e
-0.16474666 -0.10557131 -0.33813474 0.44666442 -0.045975853 0.375905 -0.1810622 -0.22054376
0.32286358 0.31745362 0.12736112 -0.3104921 -0.15695626 0.25782627 -0.44048804 -0.0016093554
0.4803557 0.24206245 -0.2673211 -0.13678679 -0.37041587 0.06246044 -0.31559375 0.16281642
-0.40794262 0.6608855 -0.14705336 -0.3460369 0.65180135 0.15372166

estimation.0.bias f4 [10]
00000000: 2409 683f f348 2abf 2c88 fcbe a295 0c3f
00000010: afe4 2a3e d981 2c3f cec0 3dbf ef11 6a3e
00000020: 2187 3c3f 95ed fc3e
0.9063895 -0.6651756 -0.4932264 0.5491582 0.16688798 0.6738563 -0.7412232 0.22858404
0.7364369 0.4940001

estimation.3.weight f4 [4, 10]
00000000: 27ca c7be 09db f53e 5371 9b3d c361 d9be
00000010: 42b0 313c d80a b9be 8ed1 ae3e f42a 58be
00000020: 54d5 12be e078 123d 1c90 1bbf 9ff1 d3bd
00000030: 2b30 c43e 9fda 0abd 6e76 afbe 90f7 99be
00000040: 1172 4e3e 6e16 ac3c f23b 49be 0027 f3be
00000050: 2f19 273f b78f 33be e8e0 17bf 8892 e93e
00000060: 3d32 823e c7bb db3e 35e3 b1be 6120 14be
00000070: 7dc1 bf3e a189 0f3f e24e 85bc d196 433d
00000080: 5bd0 c63e e9a8 6ebe 3c06 2fbe f007 03bf
00000090: c863 cf3e c567 be3d fe3b 02bf 23f6 0cbf
-0.39021417 0.48018673 0.07589974 -0.424574 0.010845246 -0.36141086 0.34144253 -0.21110135
-0.1433919 0.035759807 -0.6076677 -0.1034882 0.38318 -0.0338999 -0.34270042 -0.30071688
0.201607 0.021006789 -0.19651774 -0.47490692 0.652728 -0.17535292 -0.59327555 0.45619607
0.25428954 0.429167 -0.34743658 -0.14465477 0.37452307 0.5606938 -0.016272966 0.04775125
0.38830838 -0.23306622 -0.17092222 -0.51183987 0.40505815 0.09297136 -0.5087279 -0.55063075

estimation.3.bias f4 [4]
00000000: 8dc1 b9be 92cd c4be 20ce a23e 81f4 ffbd
-0.3628048 -0.38438088 0.31797886 -0.12497807
