Baseline-models/DAGMM/DAGMM-ROAD/no--dagmm/models/4_194_dagmm.pth (torch, 82173 bytes, 22 tensors)

phi f4 [4]
000000 72 76 85 3e 93 2d 4e 3e c7 be bf 3e fb 67 27 3e
       0.2606693 0.20134573 0.3745024 0.16348259

mu f4 [4, 3]
000000 56 7b db bc 94 d0 ac 3f 95 82 4e bd d7 52 64 3d
       -0.02679221 1.3501153 -0.0504175 0.055743065
000010 85 35 a6 3f d4 7c 2f 3c 21 b6 bc bd 2d 06 b2 3f
       1.2985083 0.010710914 -0.09214426 1.3908135
000020 54 33 ca bd 17 ce 16 3e 9b e2 9e 3f 26 b4 a0 3d
       -0.09873071 0.14727055 1.2412905 0.078468606

cov f4 [4, 3, 3]
000000 5e 6c f3 3e 22 ba 97 be 4c 11 b4 3e 22 ba 97 be
       0.47543615 -0.29634196 0.35169446 -0.29634196
000010 3a 41 3d 3e eb 83 60 be 4c 11 b4 3e eb 83 60 be
       0.18481913 -0.21925323 0.35169446 -0.21925323
000020 af 35 85 3e df f1 03 3f d0 82 a4 be 36 3a c3 3e
       0.2601752 0.5154094 -0.32131052 0.3813035
000030 d0 82 a4 be b3 33 4d 3e 25 72 73 be 36 3a c3 3e
       -0.32131052 0.20039253 -0.23774011 0.3813035
000040 25 72 73 be 0e 70 90 3e b7 63 de 3e 8e 99 8a be
       -0.23774011 0.2821049 0.4343545 -0.27070278
000050 1f 82 a4 3e 8e 99 8a be 41 de 2c 3e fd 17 4d be
       0.32130525 -0.27070278 0.16881658 -0.20028682
000060 1f 82 a4 3e fd 17 4d be 5f 66 73 3e a5 a2 0b 3f
       0.32130525 -0.20028682 0.2376952 0.5454505
000070 18 16 ae be 0e 99 ce 3e 18 16 ae be 8e 1c 59 3e
       -0.3400123 0.40351146 -0.3400123 0.21202299
000080 9e cc 80 be 0e 99 ce 3e 9e cc 80 be b6 d7 98 3e
       -0.2515611 0.40351146 -0.2515611 0.29852074

encoder.0.weight f4 [60, 118]
000000 16 d4 e3 bc 62 bf af 3d a7 78 98 3c 23 63 22 bb
       -0.027811091 0.08581425 0.018612219 -0.0024778328
000010 00 fd a2 3d 9a de 15 bd 1a ce e2 3c bc 81 55 3d
       0.07958412 -0.036589243 0.027686168 0.052125677
000020 59 f9 92 bd e9 de 78 3d aa c7 00 3d 90 e7 1e 3c
       -0.071764655 0.06075946 0.031440414 0.0096987635
000030 f9 f2 1f 3d 69 41 32 3d 7e c8 81 bd cd 26 42 bd
       0.039050076 0.04351941 -0.06337069 -0.047400285
000040 ca ab 8a 3d 1b 2e 4e bd 1d 26 e8 bc c3 9d 9d bd
       0.067710474 -0.05033694 -0.028338486 -0.07696106
000050 30 4e c6 bc 84 ab 02 bd 36 98 fe 3c 8c 98 75 bd
       -0.024207205 -0.03190185 0.03107844 -0.059959933
000060 19 d8 a7 3d 71 1a 70 3d 62 10 ab 3d 8c 9e 00 bd
       0.08195514 0.058618966 0.08352734 -0.031401202
000070 8d 6e 39 bd 08 02 c0 bd c0 80 b9 bd 8c 56 ae bc
       -0.045271445 -0.093753874 -0.0905776 -0.021281503
000080 ab ab 62 3d ee e1 e1 3c 2b 76 3a bd 2b 1c 47 3d
       0.055339497 0.027573552 -0.04552285 0.048610847
000090 f5 5e c2 bc e0 da 76 bd b7 a0 94 bc d9 a9 7f bd
       -0.02372692 -0.06026733 -0.018143041 -0.06241784
0000a0 0a b6 39 3d 09 8d 06 3d 38 b1 d5 3c 79 8d 18 bc
       0.04533962 0.032849345 0.026085481 -0.009311073
0000b0 41 ca 1d bd a8 71 da 3b 61 ef aa bd a3 37 16 bd
       -0.038522962 0.006666381 -0.08346439 -0.036674153
0000c0 99 92 10 bd 26 d3 9b bd de a9 26 bd 41 a3 c8 bc
       -0.035296056 -0.07608633 -0.04068934 -0.024491908
0000d0 97 ee ce bc d6 00 4f bc b0 69 5c b9 aa 88 b6 bd
       -0.025260253 -0.012634477 -0.00021020207 -0.08912785
0000e0 bb 9e 30 bd b3 40 82 bc 37 49 d1 bb 86 36 93 bc
       -0.043120127 -0.015899992 -0.0063869017 -0.017970335
0000f0 c0 da cb bb 50 f4 23 bd de b2 9a 3d 92 72 19 3d
       -0.0062211454 -0.040027916 0.075536475 0.03746278
000100 26 4e 95 3d 52 5d 96 3d cb fd 84 3d d1 3c 98 bd
       0.07290296 0.07342018 0.0649372 -0.07433475
000110 35 c7 21 3d e7 f6 8e 3d 5c a9 c9 3d 53 6f 0b 3d
       0.03949662 0.06980687 0.09846756 0.034041714
000120 d5 71 79 3d c1 8d 6f bd c1 b4 1b 3d 14 01 97 bd
       0.060899574 -0.058484796 0.038014177 -0.073732525
000130 ac 8c 0e bd 6b aa dc bb e8 d4 aa bd bf 60 ee bb
       -0.034802124 -0.0067341826 -0.0834139 -0.0072747166
000140 5f 31 0a bd e5 3a c3 3c e2 11 53 bd b4 c6 3a 3c
       -0.03373849 0.023831794 -0.051530726 0.011399914
000150 6b 2c 88 3d 70 2f e4 bb 01 2f a4 bd 06 06 67 3d
       0.06649097 -0.006963663 -0.08016778 0.05640223
000160 5e 34 c2 bd 94 8c 8d 3d bb e3 59 3b c2 ea 31 3c
       -0.094826445 0.06911579 0.003324731 0.010859193
000170 2b e1 9b bd a9 4f d2 3c d8 c4 17 3d 99 2d 9d 3d
       -0.07611307 0.02567275 0.03705296 0.07674713
000180 a8 3e 03 3d 00 48 17 39 ef f7 83 3d d0 ee 4d bd
       0.032042176 0.00014427304 0.06443774 -0.050276577
000190 d6 2a 71 3d 6b 46 82 3d 07 61 48 bd d0 d0 e9 bc
       0.058878742 0.063610874 -0.048920657 -0.028541952
0001a0 bc d1 4f 3b d4 23 2b 3d f5 3b 35 3b fc 27 94 bd
       0.0031710705 0.041782215 0.0027654145 -0.07234189
0001b0 33 80 51 3d f8 35 d0 3c 4f 82 43 bd f7 f3 88 3c
       0.05114765 0.02541636 -0.047731694 0.016717894
0001c0 4c 75 dc bc ff d2 9e bd 4b e0 93 3d 16 51 80 bc
       -0.0269114 -0.07755088 0.07220515 -0.015663665
0001d0 96 99 65 3d 78 9e e8 bb 4b b4 07 bd 9b ac 80 3d
       0.056054674 -0.007098969 -0.033130925 0.06282922
0001e0 80 99 b0 3d a6 e1 08 bc 50 b2 52 bc 32 aa 8d bd
       0.08623028 -0.00835458 -0.012859896 -0.06917228
0001f0 f9 89 86 bd 51 56 01 3d 6a 87 26 bc aa 8e 4d 3d
       -0.06569285 0.03157646 -0.010164121 0.050184883
000200 3f 2b 28 3d a7 cb 03 3d 6a 0a 95 bc 8c 2d 03 3d
       0.041056868 0.03217664 -0.018193442 0.03202586
000210 c8 9e c7 bc 7c 72 1a bd f7 48 08 3d b8 b8 db bc
       -0.024367705 -0.037706837 0.03327271 -0.02682148
000220 08 4e 28 3d c0 33 04 bd 67 f3 23 3d fb 92 91 3d
       0.04109004 -0.032275915 0.04002705 0.071081124
000230 50 6e 8b 3c 83 ad 3c bd fc 89 97 3c 21 03 72 bd
       0.017020375 -0.04606391 0.018498413 -0.059085015
000240 2b ef 67 bd f1 e8 d9 bd 15 00 8f 3d e4 83 a7 bd
       -0.056624573 -0.10640133 0.069824375 -0.08179453
000250 d9 43 4a 3c 64 f0 38 3b fb a0 a0 3d d0 9b 09 3c
       0.012345278 0.0028219456 0.078432046 0.008398965
000260 3d 66 80 3c 4b b0 8a bd fa 10 11 3d ce 4f 9f 3d
       0.015673751 -0.067719065 0.03541658 0.077788934
000270 de 07 94 bd fa 06 ca bc f9 2e b3 bd b3 00 9a 3b
       -0.07228063 -0.02466153 -0.08749194 0.0046997904
000280 a4 02 e0 3c 42 e8 0d bd 0a 0c b5 bc 44 6e 10 bd
       0.02734501 -0.034645326 -0.022100467 -0.035261407
000290 a4 7b c7 bc 88 f6 0f 3d 8d 2b c6 3d 3f b8 b6 3d
       -0.024350949 0.03514722 0.096762754 0.08921861
0002a0 e3 ff 19 bd ab f2 cd 3b 6b 11 94 bd f6 48 88 3d
       -0.03759755 0.006285032 -0.07229885 0.06654541
0002b0 cc 82 96 bd 3d 6a e2 3c 5e 1f 9e bc 82 5c 54 3d
       -0.07349166 0.027638549 -0.019302066 0.051846035
0002c0 cb 6a 92 3d 2e 90 56 bc e3 cf b5 3d fd a0 ea bc
       0.071492754 -0.013095899 0.08877542 -0.028641218
0002d0 81 72 56 3d 80 ec aa 3c 92 4d 94 3d b5 ad 37 3d
       0.052355293 0.020864725 0.07241358 0.044843394
0002e0 9b 8a 4a bc 92 94 31 3c 19 51 5b 3b 8c d4 56 bd
       -0.012362148 0.010838645 0.0033465086 -0.052448794
0002f0 b7 b6 a1 bc 64 c6 f4 bc 4d 33 66 3d 9d 07 43 3d
       -0.019740446 -0.029879756 0.056201268 0.047614682
000300 fe 87 8e 3d 0a d2 eb bc 40 7b 53 bc 15 f2 a9 3d
       0.06959532 -0.028786678 -0.012907803 0.082981266
000310 d2 b3 ce 3c 57 76 98 39 e9 92 f3 bb 54 6b 95 3c
       0.02523223 0.0002907987 -0.0074332845 0.018239655
000320 2f 36 95 bd 01 4a 58 bd 18 4f 97 bd d6 26 38 3d
       -0.07285725 -0.05280495 -0.07388133 0.04495891
000330 84 8f 18 bc fd 54 db bd 8a 00 c8 bb 05 5a 16 bd
       -0.009311561 -0.107095696 -0.00610358 -0.036706943
000340 2c 63 61 3d 7d 06 a3 3a af cc b3 bd bc ea 92 3d
       0.05502622 0.0012437847 -0.08779275 0.07173678
000350 d4 f9 fb bc 33 a9 31 bd 73 d4 52 bd 7c 96 7d bd
       -0.030758776 -0.04337425 -0.05147214 -0.06191109
000360 27 34 cd bc 96 64 ae bd e2 2b 90 bc 46 68 4e bd
       -0.025049282 -0.08515279 -0.01759905 -0.05039241
000370 66 15 e9 3d 09 e9 98 bc c0 b8 c2 3d 30 e7 43 bd
       0.113810346 -0.018665807 0.095078945 -0.0478279
000380 ea 79 53 3c 9c 03 c9 3c c3 b5 95 bc 1f a7 d3 bd
       0.012907485 0.024537854 -0.018275147 -0.1033461
000390 ec 79 c1 bc 30 98 1b 3d 0e a0 16 bd 1e bc a5 b9
       -0.023617707 0.037986934 -0.036773734 -0.0003161141
0003a0 5c ec 6b 3c 3a bb c5 3d 0c 86 18 bd 08 3d 78 bc
       0.014399614 0.09654851 -0.037237212 -0.01515127
0003b0 04 70 cb bb d6 f4 6b bd f1 a5 91 3c 18 45 3c bd
       -0.0062084217 -0.05760654 0.017779322 -0.04596433
0003c0 3b f8 34 3d c9 25 b9 bd 84 6a b4 bd 7f d3 2a 3d
       0.044182044 -0.0904041 -0.08809379 0.041705605
0003d0 b9 03 98 3d 9d 91 06 bc 2a 7d c9 3b d0 7f 97 3b
       0.07422585 -0.008213428 0.006148954 0.0046233907
0003e0 fa d5 9e 3d ed 4f 2f 3d 10 f3 06 3c 1c 5c 72 3d
       0.077556565 0.042800833 0.008236662 0.059169874
0003f0 f4 aa 16 3d e2 60 2c 3c 97 34 fc 3b 15 72 a1 3d
       0.036784127 0.010521146 0.007696699 0.078830875

encoder.0.bias f4 [60]
000000 db b5 9a 3c 08 4b 99 3d a6 86 12 3c 83 4f 62 3d
       0.018885544 0.07485014 0.0089432355 0.05525161
000010 f0 e6 66 bd 6e 5d dd 3c 60 06 b5 bd 31 51 a0 bc
       -0.056372583 0.02702209 -0.088391066 -0.019569965
000020 c0 59 89 3d 8c 87 a8 3d a1 37 66 3b 17 2e ef bc
       0.067065716 0.082289785 0.0035128372 -0.029196782
000030 7b 4d 5d bd 56 b4 62 3d 87 01 d4 bc bf 30 87 bd
       -0.05402897 0.055347763 -0.025879635 -0.066010945
000040 d1 82 af bc 8d d9 7b 3d a2 8b 74 bd c6 f7 d4 3d
       -0.021424683 0.06148677 -0.059703477 0.103988215
000050 e8 ab 00 3b 97 89 3b 3d 0a 86 d8 bd 6c 57 c3 ba
       0.0019633714 0.045785513 -0.10572441 -0.0014903373
000060 6c 7f 33 3d e6 ba c2 3c 9f ea 10 3d 9f 53 d0 bc
       0.04382269 0.02377076 0.035380002 -0.025430499
000070 21 05 80 bc 41 de 99 3d 4c b9 5b 3d 54 ce f7 bb
       -0.015627446 0.07513095 0.05364351 -0.007562438
000080 dd 6f 81 3d 8c ad 87 bd 54 a2 0a 3d 6d 15 b1 bd
       0.06320164 -0.06624898 0.033846214 -0.08646665
000090 c9 14 8c 3d 9a e7 e0 3d bd 66 45 bd 8d 46 1f 3c
       0.06839902 0.109816745 -0.048193682 0.00972141
0000a0 a6 2c 42 bd 3d de e8 bc ab c0 85 3c 5e 27 05 bd
       -0.04740586 -0.028426284 0.016327223 -0.032508247
0000b0 0a f5 08 bd 71 08 15 bd ce ae 00 3d 08 62 36 bd
       -0.033436812 -0.036385003 0.031416707 -0.044527084
0000c0 17 3c 53 bd 93 e9 3a bc 38 67 ff bc e6 54 5f bd
       -0.051570978 -0.0114082275 -0.031177148 -0.054524325
0000d0 81 7d 8f bd bc 38 3e bd fe a0 b5 bb e8 ca 52 3b
       -0.0700636 -0.046440825 -0.0055428734 0.0032164399
0000e0 8a 54 ee 3c 70 13 42 3c 04 84 15 bd 6d 79 8d 3d
       0.029093046 0.011845455 -0.036502853 0.06907926

encoder.2.weight f4 [30, 60]
000000 0f f1 03 be 30 54 d4 3d 5e 7a 61 bd 3c 5b 88 bc
       -0.12884925 0.1036762 -0.05504834 -0.016645066
000010 da d5 c6 bd 36 ac 61 3d 17 76 9c bd 60 88 be 3d
       -0.09708758 0.055095874 -0.07639711 0.09303355
000020 e4 7a bf 3d 4d 08 40 bd 86 a3 8a 3d cd b5 f9 bb
       0.093496114 -0.046882916 0.06769471 -0.0076205493
000030 8b 63 f2 bd 68 45 b1 bd 0f 65 f4 3d 2c e1 2d 3d
       -0.118353926 -0.08655816 0.11933338 0.04245107
000040 a4 1a f5 bb 1f 15 22 bd 58 dc da 3d cb 3f 0e bd
       -0.0074799825 -0.039570924 0.106865585 -0.034728806
000050 11 99 e6 3d 69 0c f0 bd 9a 6c da bd a6 2a ff 3c
       0.11259664 -0.11721117 -0.10665245 0.031148266
000060 44 d8 d0 3d 4b 3c 4a 3d d4 00 4c bc 33 b5 c1 3c
       0.101974994 0.049373906 -0.012451369 0.023645973
000070 9e 4f f1 3d ed 75 08 be df a3 61 3c bc b2 8f bd
       0.11782764 -0.13326235 0.01377198 -0.07016513
000080 8a 31 64 3c cd e8 2b bb ae b1 f7 bc 2a 59 79 3c
       0.013927827 -0.002623129 -0.030236091 0.015219012
000090 ce dd 92 3d 52 00 d7 ba 52 1b 80 3c 14 15 8f 3d
       0.07171212 -0.0016403294 0.015638027 0.06986442
0000a0 b5 e3 0f 3e 17 e1 8b bd 5b 68 c4 bd 57 38 f3 bd
       0.14051707 -0.06830042 -0.09590217 -0.1187598
0000b0 dd db ed bd 90 c4 9b bc e5 b6 58 bd 22 85 f7 bd
       -0.11614201 -0.019014627 -0.052908797 -0.1208594
0000c0 ac 64 8a bd 5c 89 f7 3c f8 6a d6 3d 66 1c fb 3d
       -0.06757483 0.030216865 0.104696214 0.12261276
0000d0 bc 52 9c 3d ac 9b 37 bd 12 a9 a2 3c 90 b5 96 3c
       0.07632968 -0.044826195 0.01985601 0.018397123
0000e0 ed 86 c1 bd ad ad 10 3e fb 97 01 be 6b 1a e7 3d
       -0.09449563 0.14128752 -0.12655632 0.11284336
0000f0 e8 1a c5 bd c0 0b da 3b 13 36 db 3d f0 05 79 bd
       -0.096242726 0.0066542327 0.10703673 -0.060796678
000100 a4 d5 d4 3d 99 80 a9 bd 28 38 95 3d e0 cf fd 3d
       0.10392311 -0.08276481 0.072861016 0.12393165
000110 ba da e4 3d b9 4e 7c 3d 96 c1 20 3d 27 b5 f7 3d
       0.11174531 0.061598513 0.039247118 0.12095099
000120 7a de 14 3d 0c 89 65 bd 1c ed 56 3d fa 44 d9 bd
       0.036344983 -0.0560389 0.05247222 -0.10608859
000130 b5 a7 98 bd dc 0f 50 3c 75 2c 0d 3d 1b e0 45 bd
       -0.074538626 0.012699094 0.034466226 -0.048309427
000140 0a 22 d3 bd df 28 f7 3c 60 80 39 3c d2 de ed bb
       -0.10309227 0.030170856 0.011322111 -0.0072592283
000150 63 65 63 bb 65 91 1a 3d 37 84 ad 3d 62 98 01 3e
       -0.0034697882 0.037736315 0.084724836 0.12655786
000160 56 22 89 3d 28 39 32 bd f4 f7 dc 3c e2 f7 d5 bd
       0.06696002 -0.04351154 0.026973702 -0.104476705
000170 2f 0f 91 3d a1 2c c6 bd f6 45 c5 bc 32 4d ce 3d
       0.07082974 -0.09676481 -0.024081212 0.100733176
000180 eb 5a 59 3d b7 1b ef bd 4b 4e c2 3d c4 fc c7 3d
       0.05306522 -0.11675208 0.094875894 0.09765008
000190 1d cb 9d 3d d4 94 9a 3d c3 50 a9 bd 4e 85 01 be
       0.077047564 0.07547918 -0.08267357 -0.12648508
0001a0 f2 44 bb 3d fc b0 e7 bc 68 7f 70 3d a5 e8 8d 3d
       0.0914401 -0.028282635 0.058715254 0.06929139
0001b0 12 6e 8b 3d 1a d6 98 bd 0c 83 df bd e0 54 f0 bc
       0.068081036 -0.07462712 -0.10913667 -0.029337347
0001c0 49 99 62 bd c5 1b d7 bd 81 9c c4 3d 30 59 0f 3e
       -0.055321965 -0.105033435 0.09600163 0.13998866
0001d0 0f 7c 04 bd b0 a5 a5 3d 7e 75 60 3d a7 9a 56 3d
       -0.032344874 0.08088243 0.05479955 0.05239358
0001e0 53 61 cb bc 4c 47 a0 bd 5a c1 0a bd d1 3f c4 3c
       -0.024826681 -0.07826099 -0.0338758 0.023956211
0001f0 3b 5b 9e 3d 57 0e 58 3d 5f 73 d7 3d 0d 4f 89 bd
       0.077322446 0.05274805 0.10520052 -0.06704531
000200 69 cb 7d bd 61 97 8d bd 9c 4a c3 bd e9 5c f1 bc
       -0.061961565 -0.06913639 -0.09535715 -0.029463248
000210 96 ec 8b bd 08 ed 8b 3d a5 c8 d5 3c 92 1b f3 bc
       -0.068322346 0.068323195 0.026096651 -0.029676232
000220 1d fa c1 3d 6f f8 9a 3d b2 0d cb bd 12 fb 78 3a
       0.094715334 0.07566916 -0.099147215 0.00094978616
000230 e7 11 b3 3c 7e 14 8f 3d ec ea 0d be a2 13 13 be
       0.021859122 0.069863304 -0.13859147 -0.14362958
000240 bd aa 11 be 59 7c e3 bb 53 4c 11 3e 5b fc 6f 3d
       -0.14225288 -0.0069423136 0.14189272 0.058590274
000250 a1 ac 03 be a5 dd e2 3d 9d 6d 99 bd 4c 59 be bd
       -0.12858821 0.110774316 -0.0749161 -0.09294376
000260 04 e3 08 3e 69 c5 2a 3d f9 02 52 3d a9 2d 35 bb
       0.1336785 0.04169217 0.051272366 -0.0027645624
000270 57 8d ea 3c 71 d2 7c 3c b7 b3 cb 3c fd da f7 bb
       0.02863185 0.0154310325 0.024865968 -0.0075639472
000280 cb 28 0b be ab f0 01 3e 69 23 dc 3d e8 c8 18 bb
       -0.1358978 0.12689464 0.107489415 -0.0023313109
000290 4a fb d4 bc 1d 4d e0 3d 3e e2 e7 3d 13 de 78 3d
       -0.02599873 0.10952208 0.11322449 0.06075866
0002a0 46 26 9e 3d d4 43 e1 bd 01 b7 73 3d 91 15 e2 3d
       0.07722144 -0.10999265 0.059500698 0.1103927
0002b0 cd a7 a8 bd a8 19 10 3e 6e 69 d3 bd 44 54 0e be
       -0.082351305 0.14072287 -0.103228435 -0.13899332
0002c0 f8 44 a7 bd 77 dc ce bc 27 49 d2 bd ec 4c 60 bd
       -0.081674516 -0.02525161 -0.10267859 -0.05476086
0002d0 92 c3 e2 3d 5d 64 8c 3d 79 9c 8e bc 2a d7 e4 bc
       0.11072458 0.0685508 -0.017408596 -0.02793463
0002e0 13 39 04 be 26 a0 10 3e 65 1b 45 bd 3e 77 04 bc
       -0.12912397 0.14123592 -0.04812183 -0.00808507
0002f0 a9 c2 8b bd ec 32 c4 bd d3 63 0a be 12 3a f6 bd
       -0.06824238 -0.09580025 -0.13514642 -0.12022795
000300 d7 18 03 bc 8e 6e 72 3d 2d f8 90 3d ee cf ed bc
       -0.008001528 0.059187464 0.07078586 -0.029029813
000310 56 a3 7e 3c 6e 53 9e 3d c0 75 8f 3d d6 f0 0c 3e
       0.015541872 0.07730757 0.07004881 0.13763747
000320 0a bd 09 bd 36 61 05 bd e1 ba a9 bc 42 f0 8f 3d
       -0.033627547 -0.03256341 -0.020718994 0.070282474
000330 ea 9f a8 3c f7 4c 11 be 9f 78 d0 3d da 3b f7 bb
       0.020584065 -0.14189516 0.10179257 -0.0075449767
000340 f9 04 ee bd 79 01 12 3e e2 42 aa bd c5 1d fb bb
       -0.11622042 0.14258374 -0.08313538 -0.007663461
000350 cc 9e 86 bd 74 5d a7 bd 3a 4c df bd 3e 90 a0 3d
       -0.06573257 -0.08172122 -0.10903211 0.07840012
000360 bb 31 89 3d 72 92 2a bd 62 d8 88 3d 46 15 e8 bd
       0.066989385 -0.041643567 0.06681897 -0.113321826
000370 82 65 51 bd 2b ea 3e 3a d0 ac df 3d 2e ae dc 3d
       -0.051122196 0.00072828186 0.10921633 0.1077541
000380 b3 a8 af bd 67 72 40 3d 31 2e c3 bc 35 2e c8 3d
       -0.08577099 0.046984103 -0.023825737 0.09774438
000390 ca 5e 92 bd c5 30 f9 bd 2c 00 18 bd 94 7c 2e 3d
       -0.07146986 -0.12167505 -0.03710954 0.042599276
0003a0 20 28 57 bd 2c 6a 75 3d 09 29 0c be 76 1d f4 bd
       -0.0525285 0.059915707 -0.13687529 -0.11919682
0003b0 1d ea 0e 3d dd 3c 0c be 45 83 6e 3d d9 32 6d 3c
       0.034891237 -0.13695092 0.058230657 0.014477455
0003c0 35 8a ed 3d 73 30 df bc 79 af b7 bc 21 64 11 be
       0.115986265 -0.027244782 -0.02242254 -0.14198352
0003d0 17 b0 9f bd ff db 8c bd cc 87 05 be 29 8d b1 bd
       -0.07797258 -0.068778984 -0.13040084 -0.08669502
0003e0 58 59 bb 3d 59 1e b6 bd ef 17 1c be 19 99 0a be
       0.091479 -0.08892507 -0.15243505 -0.13534965
0003f0 5c 1c b9 bd 84 51 9a 3d 85 30 e4 bd ee 6e 6a bd
       -0.09038612 0.07535079 -0.11142067 -0.057234697

encoder.2.bias f4 [30]
000000 26 04 d7 bd 9a 60 87 bc bd c9 be 3d 79 50 f1 bc
       -0.10498838 -0.016525555 0.09315822 -0.029457318
000010 0e 02 94 3d 9c 5d 46 3c 02 4f 92 3d 23 65 cb 3c
       0.072269544 0.012107279 0.07143976 0.0248285
000020 a7 32 ab 3c 7f cc c4 bc 9a 39 91 bd 25 33 cb 3d
       0.020898176 -0.024023293 -0.07091065 0.099218644
000030 a3 4d 6c 3d 6d 06 8b 3c 5a 30 0c 3e 59 c6 1e 3d
       0.057691228 0.016970837 0.1369032 0.038763378
000040 03 df 68 bb 74 07 7b 3d 03 f5 72 3d 8f 75 08 3d
       -0.0035533316 0.061286405 0.059315693 0.033315238
000050 94 b0 6d 3d 78 69 8e 3d 7c ac 27 bd 55 e1 ab 3d
       0.058029726 0.0695371 -0.04093598 0.08392588
000060 e8 24 ce 3d ad 02 d2 3d a1 59 5a 3d 58 81 0a 3d
       0.10065633 0.102544166 0.053308133 0.033814758
000070 86 5f b5 3d 9a cb 6b 3d
       0.0885611 0.057567216

encoder.4.weight f4 [10, 30]
000000 00 86 1c be 7e 9d 2e 3e f5 80 96 bd 2d 3c 55 bd
       -0.15285492 0.17052266 -0.07348815 -0.05205934
000010 1b df ca 3d cb 2a ae 3c 83 28 7b bd 83 e8 11 be
       0.09905835 0.02126064 -0.06131793 -0.14248852
000020 f6 31 24 be f7 c1 3d bd 73 31 8b 3d 28 c2 32 be
       -0.16034684 -0.046327557 0.06796541 -0.17456877
000030 66 6e 86 3d 35 70 52 3e 8f 45 e1 3c 71 f7 2e 3e
       0.065640256 0.20550616 0.027498988 0.17086579
000040 82 6f 37 3d 94 60 4a be 01 92 e2 bc b1 85 15 3e
       0.044784077 -0.19763404 -0.02765751 0.1460178
000050 20 d3 88 bd 9e b8 cd bb a9 07 ee bd a6 49 f6 3d
       -0.06680894 -0.0062781116 -0.11622555 0.12025766
000060 1f 11 95 bc da 8e 96 bd 60 31 da 3d 02 04 12 3e
       -0.01819664 -0.073514655 0.10653949 0.14259341
000070 34 b1 f8 3d f3 7d 8d 3c c1 28 32 3e 9c 72 97 bd
       0.12143174 0.017271971 0.17398359 -0.07394907
000080 dc 1f 7c bd 7d b4 f2 bd 5f f8 2a 3d 3f 3b 09 be
       -0.06155382 -0.11850832 0.04174077 -0.13401507
000090 c1 24 ad 3d e4 98 ae 3d 18 0c f0 bd ff b6 9a 3d
       0.08454276 0.08525255 -0.11721057 0.07554435
0000a0 54 aa f4 bc 1e 81 2c be a0 7f 21 3e b5 5b 04 bd
       -0.029866375 -0.1684613 0.15771341 -0.03231402
0000b0 1e dd 58 bd 43 00 91 bd a8 37 0e 3d 8e b2 37 be
       -0.05294525 -0.07080128 0.034721047 -0.17939207
0000c0 83 71 07 be 8f 86 2a 3e a8 51 37 3e 99 86 d4 bd
       -0.13226895 0.16652893 0.17902243 -0.10377235
0000d0 78 4f bb 3d a5 ee 58 3d 6f 07 12 be 18 98 35 be
       0.09146017 0.052961964 -0.14260648 -0.177338
0000e0 8a 42 a2 3d e8 fc b2 3d 35 38 43 be 24 16 01 bc
       0.079228476 0.08739644 -0.1906441 -0.007878814
0000f0 13 fe 0e be 5b a4 a7 bd 8c 1b 43 bc a9 79 2f 3e
       -0.13964109 -0.08185645 -0.011908423 0.17136253
000100 2e 60 ab 3d d9 ac 14 be eb bc 33 bd 04 b2 40 3e
       0.08367954 -0.14519061 -0.043881338 0.18817908
000110 4f 32 36 bd e3 1f 1f bd c3 cd 03 bd 8e 16 17 be
       -0.04448157 -0.03884877 -0.03217865 -0.14754698
000120 10 da 01 be 7a 15 08 3e cd 04 ee bd 5e e4 c5 bc
       -0.1268084 0.13289443 -0.116220094 -0.024156746
000130 b1 2f 31 3e ff ea 19 3e 6a ef 20 be 6b 55 e2 b9
       0.17303349 0.1503105 -0.15716329 -0.0004316972
000140 1d c7 41 be c2 bc 5d bd 69 e6 8d bc 8f 19 fa 3c
       -0.18923612 -0.05413509 -0.017321782 0.030529765
000150 93 19 8d bd 53 a2 38 3e 35 07 fd bd 7a 9c 1e 3e
       -0.068896435 0.18030672 -0.1235489 0.15489379
000160 50 26 3d 3e 08 da c0 3c ea 4f e9 bd 29 52 09 bb
       0.18471646 0.023541465 -0.113921955 -0.0020953512
000170 a4 bd a9 3d 55 31 eb 3c 57 a0 3e 3e b2 8e 21 bd
       0.08288124 0.028710047 0.18615852 -0.039442725
000180 75 09 4f 3e 81 f1 3c bd d9 05 3f be 36 dd 68 bd
       0.20218451 -0.046128754 -0.18654574 -0.05685159
000190 2b ca 92 3a 76 f9 13 3e 5e 1f 1b bd fe fe 00 3e
       0.0011199167 0.1445063 -0.03787171 0.12597272
0001a0 2f 20 29 3e 00 34 1c 3d 99 07 14 3d f4 18 b4 bb
       0.16516183 0.03813553 0.03614006 -0.0054961387
0001b0 3f a2 1b bd 87 a7 93 3d 54 ff 33 bd 6f ea 02 be
       -0.037996527 0.07209688 -0.04394467 -0.12784742
0001c0 e0 dc 62 3d 15 19 f9 3d a3 79 d0 bc 64 0b 13 bd
       0.055386424 0.12162987 -0.025448626 -0.035899535
0001d0 a6 59 30 3d b2 dc 24 3e 9e ac 0a be 6b d7 d5 bd
       0.043054245 0.16099814 -0.1354241 -0.10441478
0001e0 fd 1f 4a 3e 0b 46 32 3c 59 28 fb bd 55 87 2e be
       0.19738765 0.010880957 -0.12263555 -0.17043813
0001f0 4d e0 c7 bc 09 b0 8d bd ce 57 3c be e3 32 07 bd
       -0.024398947 -0.06918342 -0.1839287 -0.033007514
000200 ea 8c b2 3d 54 6a 81 3d 08 47 f7 bd b3 57 7e 3d
       0.087182835 0.063191086 -0.12074095 0.062095355
000210 5b c3 33 3b d8 5f 14 be c5 c3 9b bb ba 61 3c bd
       0.0027429673 -0.14489686 -0.004753562 -0.045991637
000220 5a 3c 33 be 4c f6 0f be ba a2 9f 3c 89 27 b0 bd
       -0.17503491 -0.14058799 0.019486774 -0.08601291
000230 f4 b8 03 be 63 c1 84 3b 4d b2 03 be 8e 6e d2 bd
       -0.12863523 0.004051374 -0.12860985 -0.10274993
000240 b2 4a 68 bd c1 8e 91 3d e9 f7 bd 3c 49 8f 5e bc
       -0.05671186 0.07107306 0.023189502 -0.0135839665
000250 cc ca 34 be 5f 24 54 bb 04 e5 69 bd 6f 1c b9 3d
       -0.17655486 -0.0032370312 -0.057103172 0.090386264
000260 be f9 68 bd 39 2c 19 3e 7d b9 6f 3d 27 be 2b 3d
       -0.056878798 0.14958276 0.058526505 0.04192939
000270 57 69 d5 3d a2 ab a3 bd 30 84 08 be 47 8a 2b 3d
       0.104204826 -0.07991721 -0.13331676 0.04187992
000280 92 e1 fd bd c7 b9 49 bc bf 2a 1d be 02 d1 01 3e
       -0.1239654 -0.012312359 -0.15348338 0.12677386
000290 d9 11 1a 3e 7d 4e 0e 3e 03 3d c6 3d df d3 39 be
       0.15045871 0.13897128 0.09679606 -0.18147229
0002a0 3d 83 d9 bd 36 8e a2 bd 15 14 a5 3a 83 9d fe bc
       -0.10620735 -0.07937281 0.0012594486 -0.031080967
0002b0 e8 6c d5 3d c7 f1 7b 3d 90 0d ed 3d 9e b6 a8 3d
       0.10421163 0.061509874 0.115748525 0.082379565
0002c0 22 6c 14 be 9f 7a 3f bd 85 87 f5 3c ec 05 31 be
       -0.14494374 -0.0467478 0.029971847 -0.17287415
0002d0 67 5b 86 3d fd 5e ad bd dd 1c 32 3d 1d b2 0b 3e
       0.06560402 -0.08465383 0.043484557 0.13642164
0002e0 ba b6 e4 3d b9 ec 2e be 2e 0f 29 3d a3 10 c1 bd
       0.11167665 -0.1708249 0.041274242 -0.09427001
0002f0 14 b3 1c 3e 99 a8 ec 3d 5d ae 3e 3e b9 52 8e 3d
       0.15302688 0.11555595 0.18621202 0.06949372
000300 da 94 80 3d bd 42 13 bd 66 65 c6 3c 0b a4 1a be
       0.06278391 -0.03595232 0.024218272 -0.1510164
000310 6e 74 f0 bd ed 5e a0 bd 7c 51 89 3d a6 f9 09 be
       -0.11740957 -0.07830606 0.06704995 -0.1347414
000320 bf 8e 29 be 37 b0 f6 bd 71 3e 50 3e 94 99 b8 bd
       -0.1655836 -0.12045329 0.2033632 -0.09013668
000330 e7 aa 19 be 35 4a a4 3d 68 05 4e be 98 c6 11 3e
       -0.150066 0.08021966 -0.2011925 0.14235914
000340 8b 90 07 3e 1c c1 24 bc 8d 04 44 bb ec 81 71 3d
       0.13238733 -0.0100558065 -0.002990994 0.058961794
000350 47 8e 06 bd ee 1d fe 3c ae c2 ce bd 5b 45 58 3d
       -0.03285053 0.031020131 -0.10095726 0.052800518
000360 5c 95 a4 3d d7 d0 10 3e 89 63 98 bd 48 f6 c6 3d
       0.080363005 0.14142166 -0.0744086 0.09714943
000370 00 ed d4 bd 16 ec 0d 3e b2 12 86 3d 24 cd 66 3d
       -0.10396767 0.13859591 0.065465346 0.05634798
000380 44 ab b1 bd 42 1a 3a be 66 fb 20 be 46 0f 09 be
       -0.086752445 -0.18174079 -0.15720901 -0.13384733
000390 4d 3a f5 bc 00 9e ec 3c 25 65 a8 bd cd d7 98 bd
       -0.029935027 0.028883934 -0.08222417 -0.07463036
0003a0 ed fd 1b 3e ca e6 9b 3d 18 e4 1d be 87 88 b0 3d
       0.15233584 0.07612379 -0.15419042 0.086197905
0003b0 2d 27 e7 3d 83 14 94 bd 14 dc 3d 3e d3 fb f0 3c
       0.11286769 -0.07230475 0.18540984 0.029416954
0003c0 38 81 8c ba 7a 4d 11 3e 3d 07 ab bd c0 ee 96 3d
       -0.0010719663 0.14189711 -0.0835099 0.07369757
0003d0 88 76 be ba b2 41 d7 bd dd f1 bd 3d 02 dc 22 be
       -0.0014531175 -0.10510577 0.092746474 -0.15904239
0003e0 0f b5 1a 3e 37 e7 77 3d 35 04 08 be 24 16 8b bd
       0.15108131 0.060523238 -0.13282855 -0.06791332
0003f0 b9 a6 51 3e b4 06 55 3e 42 6f 1b 3d aa ee 23 3e
       0.20473756 0.20803338 0.0379479 0.16009012

encoder.4.bias f4 [10]
000000 4f d4 6c bd 87 af 86 bd e2 ae e6 3c 8b a8 58 bd
       -0.05781966 -0.06576448 0.028159562 -0.05289511
000010 f7 5e a5 3d 7c a3 1d 3e 4a 98 01 be 36 86 c5 bd
       0.08074754 0.15394396 -0.1265575 -0.09644739
000020 37 f9 58 bd 49 79 94 bc
       -0.052972045 -0.01812424

encoder.6.weight f4 [1, 10]
000000 df 27 a5 be 69 13 15 bd 25 f3 a8 3e eb ee 71 3e
       -0.32256982 -0.036395464 0.32998005 0.23626296
000010 33 2e 05 be f3 2f 9c bb 46 af 48 3e f9 2e 21 3d
       -0.13005905 -0.004766458 0.19598112 0.039351437
000020 ca b1 ae be 15 a8 58 be
       -0.34120017 -0.21157868

decoder.0.weight f4 [10, 1]
000000 71 8a bd 3e d6 55 37 bf 1e 1c cb 3e 09 62 5f 3f
       0.37019685 -0.7161535 0.3966989 0.87258965
000010 07 5d 32 bf 7b cb d5 be f2 30 e9 3e 3d b0 64 3f
       -0.696732 -0.41756806 0.45545155 0.8933142
000020 48 09 6b 3e e6 62 26 bf
       0.2295276 -0.6499466

decoder.0.bias f4 [10]
000000 f3 44 80 3f f0 c2 4a be e2 64 ee 3d 72 20 a2 39
       1.0021042 -0.19800925 0.116403356 0.00030923221
000010 ae bf 95 3e a3 33 03 bf 04 5a 41 3c e2 2e 45 bf
       0.29247802 -0.51250666 0.011801247 -0.7702466
000020 26 37 36 bf 94 03 3e bf
       -0.711779 -0.7422421

decoder.2.weight f4 [30, 10]
000000 94 e2 a2 3d 18 60 36 be 5f bd 22 be 4a ec 80 3e
       0.079533726 -0.17810094 -0.15892552 0.25180274
000010 ad e7 14 be c7 ec a5 bd 37 d0 15 3c c5 1e 69 be
       -0.14541502 -0.08101802 0.009143881 -0.22765644
000020 0e 69 b4 bb 6b 6f ea 3c 2b c6 52 3d 6b 29 f8 3d
       -0.0055056876 0.028617581 0.05145852 0.12117275
000030 29 90 45 bd 15 66 aa be cc c2 f4 3d 7f 33 a8 3e
       -0.048233185 -0.33281007 0.11951217 0.32851788
000040 44 d7 08 be b3 ba 5c 3e e9 b5 94 3e 14 f2 37 be
       -0.13363367 0.21555595 0.29045036 -0.17963439
000050 21 9e 75 be 25 ea a0 be 1b fd f9 3c 0b 6d 1e 3e
       -0.23986103 -0.31428638 0.030516198 0.15471284
000060 35 cc a3 be bb 10 a2 3e bd 2a 5f be ae a3 e4 bd
       -0.31991735 0.3165339 -0.21793647 -0.11164032
000070 67 7c 7e 3d df 10 b1 bc 41 37 97 3e 1c aa 8a be
       0.062130358 -0.02161449 0.29534343 -0.27082908
000080 d3 ed 1e 3e 4d 92 a8 3d 9c 41 7d 3d e4 93 19 bd
       0.1552041 0.0823103 0.061830148 -0.037494555
000090 88 b2 1f 3e aa b6 48 bd 1f 48 1f 3c 3d ca 2e 3e
       0.15595448 -0.049002327 0.009721785 0.17069335
0000a0 e8 20 a3 bc f1 47 5d 3e 38 bf bd 3d c6 7e 8b be
       -0.019913152 0.21609475 0.09264988 -0.27245158
0000b0 ac f3 ba 3d c3 ea bf 3d a2 ae a0 3e f9 40 04 be
       0.09128508 0.09370949 0.31383234 -0.1291541
0000c0 82 f7 03 be 9e b5 6a 3e b9 43 25 3e 2d 90 9b 3e
       -0.12887385 0.22920844 0.16139115 0.30383435
0000d0 c8 8f c5 3c 6c 0c 13 3e 96 36 8c be 86 52 8b 3e
       0.024116412 0.14360207 -0.27385396 0.27211398
0000e0 00 a0 ad bd 9d 8e a9 be 16 c8 f4 bd f8 0c 20 be
       -0.08477783 -0.33116618 -0.11952226 -0.15629947
0000f0 a2 1a 9e 3e 22 d7 08 3e f4 90 a1 3e 8f 70 35 be
       0.30879694 0.13363317 0.31555903 -0.17718719
000100 df 70 2e 3e a4 41 7b bd ec 00 86 bc 79 f4 3f ba
       0.17035244 -0.061341897 -0.016357861 -0.0007322501
000110 4d 87 4b 3c 9e ad 98 3e d1 21 f1 bc cb 7a 24 bc
       0.012422395 0.2981996 -0.02943507 -0.010039042
000120 15 b6 36 3e 64 f7 3b 3e 28 72 16 3e 71 a2 27 3e
       0.17842896 0.18356091 0.14691985 0.1637056
000130 bd bd a0 3e 57 80 81 3e 91 e9 b2 bd 7b 91 2b 3e
       0.3139476 0.25293228 -0.087359555 0.16754715
000140 30 be 2c bd 92 8b 6b be e7 8a 90 be 1f 68 80 3e
       -0.042173564 -0.2300246 -0.28230974 0.25079438
000150 a3 5f 11 be eb 5a a4 bd 97 82 8c be 07 18 b7 bd
       -0.14196639 -0.08025154 -0.27443382 -0.0894013
000160 28 74 ad 3e b6 f6 91 be e7 30 d3 bd 9b 34 8f bc
       0.33877683 -0.28508538 -0.10312062 -0.017481139
000170 35 38 22 be 8a 16 43 3e 40 0c de 3d 5d da 1e be
       -0.15841754 0.19051567 0.1084218 -0.15512986
000180 1a 1f 12 be 50 56 9b 3d e2 08 cd bd 5e 06 02 be
       -0.14269677 0.07584822 -0.1001146 -0.12697741
000190 f1 12 39 3e 93 da 27 be 9a f6 9d be ae e0 92 be
       0.18073632 -0.16391973 -0.30852205 -0.28687042
0001a0 bc 46 aa 3d b5 17 d7 3c 6c 25 58 3e f7 21 99 3e
       0.08314273 0.026256422 0.21108025 0.29908726
0001b0 90 0f 8b 3d f3 d2 86 3d b8 25 77 3b d2 81 35 bd
       0.06790078 0.06583204 0.003771169 -0.04431326
0001c0 bc 89 4b 3e 94 50 9a 3c 10 13 55 be 69 b9 84 3d
       0.1987676 0.01883725 -0.20808053 0.06480677
0001d0 32 b9 71 3d 23 16 94 be 87 66 04 be 83 e1 f5 bd
       0.059014507 -0.2892314 -0.12929736 -0.120059036
0001e0 ef 0b b2 bd 18 0b 7f 3e 74 79 e8 bd 8b 97 a8 3e
       -0.086936824 0.24906576 -0.1135129 0.32928118
0001f0 50 e9 c2 3d d4 20 d8 bd b6 1e 3c bc e9 12 a9 bd
       0.09517157 -0.105531365 -0.011481931 -0.0825556
000200 f0 00 48 be 7d 51 c7 3d 19 d6 58 3e 43 e6 b5 bd
       -0.19531608 0.097323395 0.21175422 -0.088818096
000210 24 9c 33 be 74 f2 8f be 47 e4 44 3e 12 9f 85 bd
       -0.17540032 -0.28114665 0.19227706 -0.06524481
000220 01 44 36 3e c3 fa 8e 3e b8 75 d3 3c 35 a9 01 be
       0.17799379 0.2792569 0.025812969 -0.12662204
000230 9c df 61 3e 0a db 4d 3e 3e 50 42 be e1 42 88 be
       0.22057956 0.20103088 -0.18975922 -0.26613525
000240 43 be 6b bc 6f 67 25 3e 6c 34 46 bc 0b 78 0d 3d
       -0.014388624 0.16152738 -0.012097459 0.03453831
000250 e1 24 0d be 85 58 67 be 92 29 8f 3e 28 7b 96 3e
       -0.137836 -0.22592361 0.27961403 0.29390836
000260 29 b9 33 be b6 02 6b 3e 15 1a 99 bd 6b df 87 be
       -0.17551102 0.22950253 -0.07475678 -0.26537642
000270 b7 f4 36 3e b1 3e 1c 3d 94 29 3c 3d b1 d7 a1 be
       0.17866789 0.038145725 0.04593809 -0.31609872
000280 bb 1c 80 be 6b f0 44 3e 5d 1c b7 bd aa 98 8f be
       -0.2502192 0.19232337 -0.08940957 -0.2804616
000290 5b 35 1e bd e8 6e 8c 3c 5d 2d 91 be ac f4 7b be
       -0.038625102 0.017142728 -0.28354922 -0.24605054
0002a0 7c 6a 93 3e eb ef 82 3d 37 77 9e bd d9 ba 1b 3e
       0.2879218 0.06393417 -0.07737582 0.15207995
0002b0 26 e3 9c be a9 99 4d be 38 8e aa 3d eb b0 3f be
       -0.3064205 -0.20078148 0.08327907 -0.18719833
0002c0 10 2e 08 bd 41 93 99 be b8 ea 11 be a0 32 12 be
       -0.033247054 -0.29995158 -0.14249694 -0.14277124
0002d0 e8 3e 42 bd 29 b0 97 3c cf c5 79 be 60 c2 92 3d
       -0.047423273 0.018516617 -0.24391864 0.0716598
0002e0 06 01 2b 3d e2 3d ed 3d a6 42 de 3d 51 2e 28 be
       0.041749023 0.11584069 0.10852556 -0.16423918
0002f0 64 1b d0 3d dc b1 24 3d 88 4f e9 3d 9f 57 8b 3e
       0.10161474 0.040208682 0.113921225 0.27215287
000300 19 a4 81 3c f4 51 65 3d da 23 c3 bc 68 17 2e be
       0.015825318 0.05598636 -0.023820806 -0.17001116
000310 7e 70 a0 3e 41 e6 88 bd 83 63 cd bd 80 83 c3 3d
       0.31335825 -0.066845424 -0.10028746 0.09546566
000320 d3 d0 88 be 39 52 6d 3e 5d ec 9a 3e 93 07 34 3e
       -0.2672182 0.23175897 0.30258456 0.17581014
000330 93 d0 4e 3d fe 82 c3 bd c4 e5 d7 3d e7 53 0e 3e
       0.05049188 -0.09546469 0.10541871 0.13899194
000340 a3 f6 9c be 6b e7 8d be a5 3d 6d be 29 24 65 3e
       -0.3065692 -0.2771562 -0.23168047 0.22377075
000350 5a 98 ce bd 87 09 6a 3e 10 53 a6 bd df ee d9 bd
       -0.100876525 0.22855197 -0.08121312 -0.10641264
000360 99 d9 ae bd 37 9c 38 be 3d a5 65 be e6 7b 29 bd
       -0.08537597 -0.18028341 -0.22426315 -0.041377924
000370 21 50 94 be 9f 82 83 3d 34 ac 7e bd 4c ec 2d 3e
       -0.28967384 0.06421398 -0.062175944 0.16984671
000380 fd 52 ad 3c fc e7 bf bd c1 3b 83 3e 01 d3 1b 3e
       0.021157736 -0.093704194 0.25631526 0.1521721
000390 37 9d 0a 3e 8f 0f 42 3d 12 76 4d 3e 17 8d 1d 3b
       0.13536535 0.04737812 0.20064571 0.0024040395
0003a0 73 c3 29 be 35 68 d8 3d 22 d3 13 3d 95 8c 79 3d
       -0.16578464 0.10566751 0.036090024 0.060925085
0003b0 70 6f 35 bd 45 c9 59 be e0 b5 5c 3d 8e 17 9a be
       -0.04429573 -0.21268184 0.053884387 -0.30096096
0003c0 76 fa b2 bd 41 1e 8d be d0 91 1a 3e 4b b5 12 3e
       -0.08739178 -0.27562144 0.15094686 0.1432697
0003d0 67 e4 cb bc 88 76 36 bd 4b d1 3c 3e 9d c3 9e 3e
       -0.024889184 -0.044546634 0.18439214 0.31008616
0003e0 58 b8 60 3e de b1 bb 3d 7b 64 ad bd 57 be 9b 3d
       0.21945322 0.09164785 -0.08466431 0.07604664
0003f0 fa ce 60 be 70 f1 9e bd 49 ad 93 3e 53 91 6c be
       -0.21953955 -0.07760894 0.28843144 -0.23102312

decoder.2.bias f4 [30]
000000 dc b4 53 3e fb 7f 04 bd 83 83 00 bd 91 bc 09 be
       0.20674461 -0.032348614 -0.03137542 -0.13450839
000010 ad c7 a5 3e fe 14 3b be 0a f6 61 3e 2a 0b 27 3d
       0.32378903 -0.18269727 0.22066513 0.04078213
000020 38 f0 50 be 0f f0 d3 3d 39 40 91 be 0a 1f 09 bd
       -0.20404136 0.10348522 -0.2836931 -0.033476867
000030 d9 64 e0 3c 05 63 9b 3e 90 d6 9d be bd 62 76 3e
       0.027391838 0.30348983 -0.3082776 0.24061103
000040 ec e3 17 3d 8a 15 74 bd d0 52 8d be c4 3f 3c 3e
       0.037082598 -0.059590854 -0.27602243 0.183837
000050 f7 be ae bd 39 e5 97 be be ad 2b be 08 a2 62 3e
       -0.085325174 -0.2966707 -0.16765496 0.22132123
000060 37 e1 a1 bd a0 b8 1a be b9 53 3c 3d c2 ee 41 be
       -0.079042844 -0.15109491 0.04597828 -0.18938735
000070 51 07 6d be a5 99 28 be
       -0.23147322 -0.1646486

decoder.4.weight f4 [60, 30]
000000 f4 71 03 3d 25 72 08 be 71 74 14 3e 7c 65 8d bc
       0.032091096 -0.13324793 0.14497544 -0.017260306
000010 dc d2 28 3e 92 03 be 3c 94 5e 04 3d e8 5f 09 3e
       0.16486686 0.023195062 0.03231676 0.13415492
000020 01 72 de bd 77 8d 84 bc 61 a8 43 be c0 85 69 3d
       -0.10861588 -0.016180737 -0.191072 0.05701232
000030 1c 00 90 bd 21 f8 22 bd 1d 5d e8 3d 76 f4 9d 3c
       -0.07031271 -0.039787415 0.11345885 0.019281607
000040 79 82 43 bd ca 31 88 bd 49 86 18 be 5b 06 d3 bc
       -0.04773185 -0.066501215 -0.14894976 -0.025759866
000050 25 b4 25 3e 9c 0a 05 be bd 7f c7 3d 10 2e 38 3e
       0.16182001 -0.12992328 0.09741161 0.17986321
000060 ec b8 1c be cf 19 94 bc 41 d4 f3 bd ca bb 88 3d
       -0.15304917 -0.018078713 -0.119057186 0.06676443
000070 1a a1 14 be c0 61 1c 3d cb 9b 40 bd 36 cd b2 bd
       -0.1451458 0.03817916 -0.047023576 -0.08730547
000080 69 86 9b bd 41 12 25 be 31 cf 25 be c6 75 37 bc
       -0.07593996 -0.16120245 -0.16192318 -0.011197513
000090 da fe 3a be 52 44 9c 3d 1d 89 ce bd 53 67 05 be
       -0.1826128 0.076302186 -0.10084746 -0.13027696
0000a0 81 90 05 be b1 a7 1a 3d 03 54 e3 3b 13 12 13 3c
       -0.13043405 0.03775758 0.006937505 0.008976477
0000b0 67 49 c5 3d 41 59 57 bd ac 91 c8 bd 63 2d 08 3c
       0.09633141 -0.052575354 -0.0979341 0.008311602
0000c0 1c 81 0d 3e a6 8f 85 bd 8c dc 50 bb db ba 2d bd
       0.13818783 -0.065215394 -0.0031869737 -0.042414527
0000d0 4d 26 0f 3b 0f b3 39 be f8 f2 07 3e 42 a2 1e 3e
       0.0021842897 -0.18134712 0.13276279 0.15491584
0000e0 cf e9 10 3e 01 00 38 3d c0 95 a2 3d a5 5b a0 bd
       0.14151691 0.04492188 0.07938719 -0.0782998
0000f0 65 2c 18 3e 00 c5 91 3d 50 ab 65 bd 5d 48 31 be
       0.14860685 0.07117653 -0.05607158 -0.1731276
000100 cc 27 c1 3d ea 43 35 3d 05 87 0e 3e a0 bd 48 bd
       0.09431419 0.04425422 0.13918693 -0.049008965
000110 97 d4 7d 3d 42 69 09 3e 9c ad a8 3b 05 63 18 be
       0.06197032 0.13419059 0.005147649 -0.14881523
000120 a5 53 ef 3d b0 fb 58 3d a1 3b 1c 3d 47 04 d6 3b
       0.11685876 0.052974403 0.038142804 0.0065312716
000130 ca 17 0d 3e 8d e6 54 bd 97 f0 08 3e af 4e 16 3e
       0.13778606 -0.051977683 0.13373028 0.14678453
000140 e3 f8 74 3d c9 89 21 3d 45 c5 0d 3d 79 74 94 bd
       0.05980767 0.039438043 0.03461196 -0.07248778
000150 f7 2b b4 3d a9 6a 28 3e 54 f6 97 3d bb c7 0b be
       0.08797448 0.16446938 0.0742003 -0.1365041
000160 2e d0 9c 3d 8f f6 9c bd 5c a6 7b 3d 89 de 9a 3d
       0.076568946 -0.07664215 0.06143795 0.075619765
000170 9b fc d5 3d b0 8f 0f 3c bc 78 53 bd 7a 82 37 bd
       0.10448571 0.008762285 -0.051628813 -0.044802167
000180 b8 4e 57 3d e8 6a 9a 3d 2a ce f4 3d 6c fc 48 bd
       0.052565306 0.07539922 0.11953385 -0.049068853
000190 b4 45 82 bd 0a b1 01 be d1 d5 41 3e 51 66 d5 3d
       -0.06360951 -0.12665191 0.1892922 0.10419906
0001a0 9a 3c b8 bc f2 aa 9e bc 35 5c 14 bd cc a9 3f 3e
       -0.022489835 -0.019368622 -0.036220748 0.18717116
0001b0 96 bf 41 be 39 fe 08 be 28 8b 8b bb 47 d0 15 3e
       -0.1892074 -0.13378228 -0.004258532 0.14630233
0001c0 b8 e9 21 3d 3b 70 1b be 5c 39 40 be 74 6c ad 3c
       0.039529532 -0.15179531 -0.18771881 0.021169879
0001d0 68 e2 92 bd 3f 67 ee bd f9 c7 bd 3d 07 df 25 3e
       -0.0717209 -0.116407864 0.092666574 0.1619836
0001e0 8c 06 bf 3d ab a9 a8 3d 60 b8 ed bd 54 40 e3 3d
       0.093274206 0.082354866 -0.11607432 0.11096254
0001f0 8d 15 bc bd d3 f6 40 3e 8b 67 1c 3e 7d bc 15 bd
       -0.09183798 0.18844156 0.15273874 -0.03655671
000200 0a 19 02 bd a7 c6 93 bd e3 b9 a2 bd e2 65 e5 3d
       -0.03176216 -0.07215624 -0.07945611 0.11201073
000210 15 3c f8 bd 7a dc c5 bd 60 bb fe 3d 03 0c 20 3c
       -0.12120835 -0.09661193 0.12438083 0.009768489
000220 4b 80 1b 3e 82 90 54 3e 63 7c d4 bd 77 af 23 3e
       0.15185659 0.2075825 -0.103752874 0.15984903
000230 0f 65 1e 3d 6b 29 51 bc 42 dd 09 3e db 2d 1b be
       0.038670596 -0.0127662225 0.1346331 -0.15154211
000240 a9 4c 0c 3e 4e 21 1f be 35 69 d1 bd af 46 33 3d
       0.13701119 -0.15540048 -0.10225145 0.04376858
000250 23 d6 3d be c4 01 c9 bd 5a 8d aa 3d ff 63 cb bd
       -0.18538718 -0.0981479 0.08327742 -0.09931182
000260 0d dc 2c be 1a 6d 0f 3e b7 01 0b be 01 e4 80 3d
       -0.16880818 0.14006463 -0.13574873 0.06293488
000270 cd b0 23 be 32 f2 35 be b8 22 f2 bd 3f 9e a1 bd
       -0.15985413 -0.17768171 -0.11823028 -0.07891511
000280 d8 5e 02 be 85 9f 20 3e e6 73 f5 bd fa b9 29 3e
       -0.12731493 0.15685852 -0.119849965 0.1657485
000290 8f c0 40 3d 35 45 ea 3d 1c fb db bd 97 bb 94 bd
       0.04705864 0.114389814 -0.10741255 -0.072623424
0002a0 9e 11 e2 3d 54 1f 0a be 9a 36 1a 3e 3e 27 e7 3d
       0.110385165 -0.13488513 0.15059891 0.11286782
0002b0 3b ae eb bd 9a 3a 35 3e f2 78 3e 3d b6 02 c0 bd
       -0.11507841 0.17698136 0.04650206 -0.09375517
0002c0 c9 8b 15 3d e9 cc 39 be c9 bd 1f 3e 18 8b 16 3e
       0.036510263 -0.18144573 0.15599741 0.14701498
0002d0 e6 07 be 3d 34 64 b7 3d f8 45 3b bd 44 e3 6f bd
       0.0927885 0.08954659 -0.045721024 -0.058566347
0002e0 5a b6 16 3d 34 25 aa 3d 6e ad 46 3e 24 39 11 be
       0.036794998 0.08307877 0.19402096 -0.14181954
0002f0 7c 26 5c bd 03 cd af bd 1f 6d d2 bb 78 01 3b 3e
       -0.05374764 -0.08584025 -0.0064216997 0.18262279
000300 25 0d f3 3c a9 07 31 3e 68 79 bd bd f6 fd 2f 3d
       0.029669354 0.17288078 -0.09251672 0.042966805
000310 73 d4 fc 3c 79 81 cd bd a3 0c 1c 3d ab 56 a0 3d
       0.030863022 -0.100344606 0.03809799 0.078290306
000320 5b 82 a6 3d 56 6f 3d 3d 42 63 80 bd 1e c3 21 3e
       0.08130332 0.046248756 -0.06268932 0.15797088
000330 19 02 24 be ec 8a 13 3e 41 8a 92 3d f8 67 05 3e
       -0.16016425 0.14408463 0.07155276 0.13027942
000340 3e fc fc 3d 58 8e 12 bc c6 78 c1 3d a3 55 66 3d
       0.12352799 -0.00894507 0.09446864 0.056234013
000350 a5 5c ea bd 6a ce f1 3c 98 fe c3 3d c6 ed 1d be
       -0.11443452 0.029517371 0.09570044 -0.15422735
000360 4a f5 06 3e c3 61 03 3e cb 85 a9 bd 64 4a 40 be
       0.13179508 0.12830262 -0.08277472 -0.18778378
000370 4c 72 3a 3e d5 69 58 bd 8b 8c 10 3e 65 db 96 bd
       0.18207663 -0.052835304 0.14116113 -0.07366065
000380 af c1 31 be 4d 4a 2a be be 68 5d 3b 92 ad df bd
       -0.1735904 -0.16629906 0.0033784355 -0.10921778
000390 87 77 35 bd 74 3c 1a be e1 bb 0b be e6 c9 fb bd
       -0.044303443 -0.15062124 -0.13645889 -0.122943684
0003a0 32 53 25 3d 03 b3 f9 bd 52 90 b6 3d 58 dc c8 3c
       0.040362544 -0.12192347 0.08914246 0.02451913
0003b0 e4 85 3b 3e c1 84 b0 3d e0 50 05 3d 20 21 e6 3d
       0.18312794 0.08619071 0.03254783 0.11236787
0003c0 47 bf 63 3d 0a 93 12 be dd ea 40 bd 91 ea 0f be
       0.05560234 -0.14313903 -0.047098983 -0.14054324
0003d0 a9 fb 0b 3e ae 40 11 3c fb cd 26 3e ce 4d 28 bd
       0.1367022 0.0088655185 0.16289513 -0.041089825
0003e0 06 52 48 be b2 81 24 be 55 90 2d be 7a 47 de 3c
       -0.1956254 -0.160651 -0.1694959 0.027133692
0003f0 f5 d7 17 3c f2 82 f2 3d 7f 9e a1 bd 8d 81 0b 3e
       0.009267797 0.11841382 -0.07891559 0.13623638

decoder.4.bias f4 [60]
000000 2b 42 ac bd 82 e3 cb 3d 19 24 24 3e 3b 2b ac 3d
       -0.08411058 0.09955503 0.16029395 0.08406683
000010 ae 89 25 3e ee 5e 12 be 90 9b 81 3d f9 50 98 3d
       0.16165802 -0.14294025 0.06328499 0.07437319
000020 9d a5 19 be 69 e9 97 3c c2 c7 f1 3d c7 f4 3d 3d
       -0.15004583 0.018543916 0.11805679 0.046376016
000030 b0 f0 47 3e cf f6 e9 bd f0 06 b9 bd 18 95 16 3e
       0.19525409 -0.11424028 -0.09034526 0.14705312
000040 b9 11 02 be de b7 0e be 34 79 32 be 46 99 1b 3e
       -0.12702073 -0.13937327 -0.17429048 0.15195188
000050 47 40 40 3e d9 0c 0a 3e eb d6 8d bd 20 3e e4 bc
       0.1877452 0.13481463 -0.06925758 -0.027861655
000060 04 e1 3f 3e 0b 80 24 3d 86 9e 0d 3d 49 de 0e 3e
       0.1873818 0.040161174 0.034575008 0.13951983
000070 b8 c9 06 3e 17 f4 75 3d 58 55 f1 bd b3 15 0d be
       0.13162887 0.060047235 -0.11783856 -0.13777809
000080 77 92 b6 bc 02 5c d0 bc 0f 9f 21 3e c4 bc ae bd
       -0.022286637 -0.025434498 0.15783332 -0.08532098
000090 db 9e b4 bd 7f 7a 69 bd 6d 79 ad bd f6 a9 5b 3d
       -0.08819362 -0.057001587 -0.08470426 0.053628884
0000a0 68 8c 43 bd ba 41 a5 3d 40 a0 07 3e 25 65 25 3e
       -0.047741324 0.08069177 0.13244724 0.16151865
0000b0 5a ea 8e 3a 1e 06 c8 bd c3 0d 46 3d 67 3d 17 3e
       0.0010903582 -0.09766792 0.048352968 0.14769517
0000c0 2c 17 b9 bc 57 98 04 3d d8 4d 9b 3d d7 9b e3 bd
       -0.022594057 0.032371845 0.07583207 -0.111137085
0000d0 d9 a2 d7 bd 4a f6 01 be d9 8f fc 3c 03 71 c2 3d
       -0.105291076 -0.12691608 0.03083031 0.094942115
0000e0 20 d5 2d 3e 72 fe 11 3d ea ee 2d be 3e b9 c1 3d
       0.16975832 0.03564305 -0.1698567 0.0945916

decoder.6.weight f4 [118, 60]
000000 5b 61 3b 3d 07 f1 aa 3d aa 16 ac 3d de 30 01 3d
       0.045747142 0.083467536 0.0840276 0.031540744
000010 8c ec 80 bd 1a 9a 7e bc eb 50 fd 3a f6 e9 4d 3d
       -0.06295118 -0.01553967 0.0019326484 0.05027195
000020 de 8a 1a 3d 26 ef 04 bd 2f 2c 0b be bf 31 a5 bd
       0.03773009 -0.032454632 -0.13591073 -0.08066129
000030 ac 45 86 bc 4e 4a d5 3c 82 c8 13 3e ab 23 b5 bd
       -0.016390644 0.026036408 0.14431956 -0.08844694
000040 52 47 0e 3d 46 b1 0b bd 2a ad 14 3e f0 db 8a b8
       0.034735985 -0.034104608 0.14519182 -6.621319e-05
000050 07 5f 16 be ae 19 8f 3d 40 5a 3d 3b bc 8a a4 3d
       -0.14684688 0.0698732 0.0028892905 0.08034274
000060 83 03 16 be d9 9b 15 be 42 5b 52 3c e0 ce dd bd
       -0.14649777 -0.14610232 0.01283914 -0.10830474
000070 46 e1 2b bc 3b f9 f3 bc f8 49 87 3d c9 e0 3a 3c
       -0.010490721 -0.029781928 0.06605905 0.011406132
000080 5a dc 5f bd 70 6c 6a bc 38 25 9b bd 4e a1 86 bd
       -0.054653503 -0.01430808 -0.07575458 -0.06573735
000090 e4 8c b4 bd 62 59 11 bb ce 54 08 bc 8e b2 98 39
       -0.08815935 -0.002217852 -0.008321 0.00029124733
0000a0 ce e5 82 bd 70 e6 e0 bb 81 90 9a bd cc 0a bb bd
       -0.06391488 -0.006863408 -0.07547093 -0.09132919
0000b0 7a 3e 57 3d a2 32 f5 3d ad 0c ce bd 97 bf a9 bb
       0.052549817 0.11972548 -0.100610115 -0.00518031
0000c0 ce 60 9f 3d 12 bb f0 3d 31 00 ca 3c 38 97 ce bd
       0.07782136 0.11754431 0.024658294 -0.100874364
0000d0 6d 8a f4 bd 11 00 58 bc 7f f9 86 3c 1d e3 b7 bc
       -0.11940465 -0.01318361 0.01647639 -0.022447163
0000e0 69 37 1f 3d 16 32 43 bd 8c 38 83 bd 60 7e d4 bd
       0.038871203 -0.047655188 -0.0640727 -0.103756666
0000f0 c9 84 16 3e 58 90 ef bd e1 39 a0 3c 8d 09 aa bd
       0.14699091 -0.11697453 0.019558849 -0.08302603
000100 65 51 ed 3d e0 f8 8e 3c 9c 03 15 3e 3c ac 17 be
       0.115877904 0.017452657 0.14552158 -0.14811796
000110 bd fc c6 3d f9 77 02 3e 01 f6 f2 bd 93 07 35 3c
       0.09716175 0.12741078 -0.11863328 0.011049169
000120 0b 3b b9 3c d5 95 d2 bd 88 90 17 bd da 52 66 bc
       0.022611162 -0.102824844 -0.03700307 -0.014057839
000130 15 c8 5c 3d 7d 12 96 3c bc 58 2f bd 82 0e c5 3d
       0.05390175 0.018319363 -0.042809233 0.09621908
000140 6e 10 a3 3d 35 04 d8 3d d3 7b de 3c b8 4f 16 be
       0.07962118 0.105476774 0.027158653 -0.14678848
000150 f0 14 e3 3d b8 f2 51 bd da b0 54 bd 0b a1 9a 3d
       0.11087978 -0.051256865 -0.05192647 0.07550248
000160 80 a8 61 3d 32 35 df bd 64 e1 b0 bd dd 61 15 3c
       0.055092335 -0.10898818 -0.0863674 0.009117571
000170 fd ad 87 3d 5a c9 91 bd c9 7b d9 3d 08 9b b0 3d
       0.066249825 -0.07118483 0.10619313 0.0862332
000180 56 5c 13 be fc 49 a0 bc bf f2 6c 3d 61 00 94 bc
       -0.14390692 -0.019566528 0.05784869 -0.018066587
000190 ae 7f af bd 23 02 0f bd f6 0d 44 3d 5a 50 ae bc
       -0.08569275 -0.034914147 0.047864877 -0.021278549
0001a0 d4 6c ac bd ac d0 ff 3b 1b 63 92 3d e3 98 04 3e
       -0.08419195 0.007806858 0.07147809 0.12948947
0001b0 e9 a0 8d 3d 37 2d df 3c 37 8b 23 3d c2 ec 02 3e
       0.06915457 0.02724324 0.039927687 0.12785628
0001c0 ca fd d3 bd 7c 97 3e bd c2 d7 9a bd 1d 40 8b bd
       -0.10351141 -0.046531186 -0.07560684 -0.06799338
0001d0 bb 16 76 3d b1 8f b8 3d d3 e2 80 bd 9d 6b 27 bd
       0.06008027 0.09011782 -0.06293263 -0.040874112
0001e0 8c eb 8e 3d e3 65 44 3d 96 a4 40 3d d4 b1 2e 3d
       0.06978521 0.04794873 0.04703196 0.04265006
0001f0 e8 96 bc bd be 69 b3 3d 12 33 d5 bd 99 e0 70 bd
       -0.092084706 0.08760403 -0.104101315 -0.058807943
000200 24 e5 14 3c 83 ea a3 3b 7e 52 8e bb 5f 61 be bd
       0.0090878345 0.005002321 -0.00434333 -0.09295916
000210 81 2d 0f 3e 6c 4f c3 bd 2e 47 0b bc d8 81 83 bc
       0.13982202 -0.09536633 -0.008500857 -0.016053125
000220 b0 78 bf bc 98 ec 28 bd 0f 8e ce 3b a2 79 0b 3d
       -0.023372978 -0.04124126 0.006303556 0.034051545
000230 4d 9d 98 bd 00 01 ce 3d 34 39 f3 bc 23 b2 cb 3d
       -0.07451878 0.100587845 -0.029690363 0.09946086
000240 b5 33 ba bd c9 1d b1 3d c2 ef a5 3d 09 9e 49 bd
       -0.090918936 0.08648259 0.08102371 -0.04922298
000250 31 50 b1 3c 82 1a bf 3d 6d 40 f6 bd a8 66 b2 3d
       0.021644684 0.09331228 -0.12024007 0.087109864
000260 fc 80 93 3d c6 fa 95 bd ae aa 6c 3d 24 86 81 3d
       0.07202336 -0.07323222 0.05777996 0.063244134
000270 35 f2 d2 3b d4 67 9b 3d fb 71 d5 bd d1 1e 26 bc
       0.0064375647 0.07588163 -0.10422131 -0.010139183
000280 3a d5 e0 3a fb c0 d3 3d 44 de 9e 3d ff ce 4f bb
       0.001715339 0.103395425 0.077572376 -0.0031709073
000290 1f a8 4d bd 04 c4 0f be 71 1e 59 bc ff 94 00 bd
       -0.05020916 -0.14039618 -0.013251887 -0.031392094
0002a0 c3 b3 e1 bc 5f 76 83 3c 2a ff 89 3d cf e3 89 3d
       -0.027551537 0.016047655 0.06738122 0.06732904
0002b0 b9 8c 83 3b df 27 35 bd c7 6b 23 3d 40 13 bc 3d
       0.004014578 -0.044227477 0.039897706 0.09183359
0002c0 53 8e 7f bc 06 ef fa bd 6e c9 7c bb 2f 4b 3e bd
       -0.015597898 -0.12252621 -0.003857221 -0.04645842
0002d0 55 34 ee 3d 8a 69 eb bd 5f 50 60 bd f7 0b 81 3d
       0.11631075 -0.11494739 -0.054764148 0.0630111
0002e0 9f 17 98 bd 32 54 12 bc e1 10 a8 3d 13 b6 c5 bd
       -0.0742638 -0.008931207 0.082063444 -0.096538685
0002f0 b4 40 80 3d c9 2f f9 3d b7 90 a2 bd 35 4a 45 3c
       0.06262341 0.121673174 -0.079377584 0.012041618
000300 c8 c0 8b bd 90 70 ae bd b8 ed 02 be a6 71 93 3d
       -0.068238795 -0.08517563 -0.12785995 0.07199411
000310 09 db be 3d 0f 5c b7 bd f9 1d a7 3d bf 0f 25 bd
       0.093191214 -0.08953106 0.08160014 -0.04029822
000320 70 ee 90 3d bd 1c af bd d2 9c fc 3d 3a 09 01 be
       0.07076728 -0.08550403 0.123345986 -0.12601176
000330 2b 7a 95 3d a0 2f 91 3d d0 44 aa 3c 07 1a 12 3e
       0.07298692 0.07089162 0.020784765 0.14267741
000340 08 09 95 3d f9 d5 a8 3d 6c 4c fd bd 31 2e cb bd
       0.07277113 0.08243937 -0.12368092 -0.0992092
000350 8b 67 16 bc b1 f5 f8 3d d2 93 8f 3d b6 fd f0 bd
       -0.00917996 0.12156237 0.07010616 -0.117671415
000360 d2 ff b6 3d b3 2f 07 3d cd d8 d0 bc 7b ae 9c bc
       0.089355126 0.033004474 -0.025494004 -0.019126168
000370 aa 26 3a 3d 1e 81 7f bd a3 6f 8f 3d 92 4e 96 bd
       0.04544703 -0.062378995 0.07003715 -0.07339205
000380 dc 0c 0b bd bd a9 d2 3c d2 dd 92 bc aa ac 07 3e
       -0.03394781 0.025715703 -0.017928038 0.1324946
000390 d3 16 a5 bd 89 76 1b 3d d1 7b 9e 3d 66 6a e2 bc
       -0.08060994 0.03795484 0.0773846 -0.027638625
0003a0 a1 6a 9c 3d 19 81 07 be f6 7b 78 bd 7c 06 e2 bd
       0.07637525 -0.1323284 -0.060665093 -0.11036393
0003b0 12 84 98 3c 34 bb 85 bd 10 4b bf bd 22 e3 df bd
       0.018617664 -0.06529847 -0.09340489 -0.10931994
0003c0 2e ca 74 3b 31 20 bf 3d c6 d8 f5 3d cb f6 0b bc
       0.0037351954 0.09332312 0.12004237 -0.008542727
0003d0 9e dd b5 bc fd d1 ba bd 09 4f e8 3d 73 09 e9 bd
       -0.022200402 -0.09122083 0.113432 -0.113787554
0003e0 41 ef b3 bb 44 c4 4c bd 53 6c f7 bd 99 3a 97 3c
       -0.005491168 -0.04999186 -0.12081208 0.018460559
0003f0 d0 ff 9d bd 9a 17 23 bd 15 f8 0d 3d 22 4b 88 3d
       -0.07714808 -0.03981743 0.034660418 0.066549554
