Baseline-models/DAGMM/DAGMM-ROAD/no--dagmm/models/5_194_dagmm.pth (torch, 82173 bytes, 22 tensors)

phi f4 [4]
0	0x3e835247	0.2564871
1	0x3e48533f	0.19563006
2	0x3ec5cac5	0.38631263
3	0x3e2572a8	0.16157019

mu f4 [4, 3]
0	0xbd23b314	-0.039965704
1	0x3faccf7c	1.3500819
2	0xbd862cc2	-0.065515056
3	0x3d28227e	0.04104852
4	0x3fa68efa	1.3012383
5	0xbbd8f9bd	-0.006621568
6	0xbdf62acc	-0.120198816
7	0x3fb2f587	1.3981179
8	0xbdfd5acb	-0.12370833
9	0x3dfad414	0.12247482
10	0x3fa04b53	1.2522987
11	0x3d570828	0.052498013

cov f4 [4, 3, 3]
0	0x3efaa568	0.4895432
1	0xbe964948	-0.29352784
2	0x3eb5e109	0.3552325
3	0xbe964948	-0.29352784
4	0x3e346dda	0.1762003
5	0xbe5a2e90	-0.21306825
6	0x3eb5e109	0.3552325
7	0xbe5a2e90	-0.21306825
8	0x3e83fe20	0.2577982
9	0x3f092844	0.53577065
10	0xbea46e70	-0.32115507
11	0x3ec70995	0.38874498
12	0xbea46e70	-0.32115507
13	0x3e454a55	0.19266637
14	0xbe6eacb3	-0.23308067
15	0x3ec70995	0.38874498
16	0xbe6eacb3	-0.23308067
17	0x3e906dc1	0.28208736
18	0x3edd59a7	0.43232462
19	0xbe84ade6	-0.25913924
20	0x3ea09b14	0.31368315
21	0xbe84ade6	-0.25913924
22	0x3e1f42d0	0.1555283
23	0xbe409c04	-0.18809515
24	0x3ea09b14	0.31368315
25	0xbe409c04	-0.18809515
26	0x3e6916d3	0.22762613
27	0x3f11ba8d	0.5692528
28	0xbeaeac01	-0.34115604
29	0x3ed37520	0.41300297
30	0xbeaeac01	-0.34115604
31	0x3e518292	0.20459965
32	0xbe7d821b	-0.24756663
33	0x3ed37520	0.41300297
34	0xbe7d821b	-0.24756663
35	0x3e996d2b	0.299661

encoder.0.weight f4 [60, 118]
0	0xbce68825	-0.02814109
1	0x3db14d60	0.08657336
2	0x3c9165ad	0.017748678
3	0xbb9344b7	-0.0044942754
4	0x3da45495	0.08023945
5	0xbd15e6ff	-0.03659725
6	0x3cef51e2	0.02921385
7	0x3d53e310	0.051730216
8	0xbd93353a	-0.071878865
9	0x3d7a5497	0.061115827
10	0x3cfdc4a6	0.030977558
11	0x3c11f6f1	0.008908973
12	0x3d21c457	0.039493885
13	0x3d30264a	0.043005265
14	0xbd81c87e	-0.06337069
15	0xbd445586	-0.047933124
16	0x3d8b5672	0.068035975
17	0xbd4fa7b0	-0.05069703
18	0xbcefa984	-0.029255636
19	0xbd9d9f07	-0.07696348
20	0xbcc9f42e	-0.024652567
21	0xbd020378	-0.03174159
22	0x3d0462e1	0.03232086
23	0xbd759192	-0.05995328
24	0x3dab61b8	0.08368248
25	0x3d70177b	0.058616143
26	0x3daaf262	0.08347012
27	0xbd0442e3	-0.03229035
28	0xbd3a96e5	-0.04555406
29	0xbdc0729d	-0.09396861
30	0xbdb71d16	-0.089410946
31	0xbcaed200	-0.02134037
32	0x3d62c958	0.055367798
33	0x3ceb354a	0.028711934
34	0xbd3ccecb	-0.04609565
35	0x3d45d9aa	0.048303284
36	0xbcc4d759	-0.024028467
37	0xbd73e6b6	-0.059546195
38	0xbc93055c	-0.017946891
39	0xbd814111	-0.063112386
40	0x3d37ff67	0.044921305
41	0x3d04fe03	0.032468807
42	0x3cd5b138	0.026085481
43	0xbc10ca2f	-0.008837267
44	0xbd1d4194	-0.03839262
45	0x3bea0781	0.007142008
46	0xbda88ce7	-0.0823
47	0xbd191161	-0.03737009
48	0xbd0e83af	-0.034793552
49	0xbd9bd326	-0.07608633
50	0xbd24b497	-0.040211286
51	0xbcc59bf1	-0.02412221
52	0xbccce0c6	-0.025009524
53	0xbc4d2313	-0.012520569
54	0x3a374573	0.0006991245
55	0xbdb78a1e	-0.08961891
56	0xbd2e14f0	-0.042500436
57	0xbc7b896d	-0.015352589
58	0xbbde4471	-0.006783061
59	0xbc91458a	-0.017733354
60	0xbbcbdac0	-0.0062211454
61	0xbd25695f	-0.040383693
62	0x3d9c5efc	0.07635304
63	0x3d197292	0.03746278
64	0x3d97ffdc	0.07421848
65	0x3d96821d	0.07349036
66	0x3d84fa14	0.06493011
67	0xbd971494	-0.07376972
68	0x3d23b73a	0.03996966
69	0x3d8c92a1	0.06863905
70	0x3dc96f4b	0.098356806
71	0x3d0afaf4	0.033930734
72	0x3d7867ed	0.060645986
73	0xbd70c471	-0.05878109
74	0x3d1e9fb7	0.038726535
75	0xbd9b5ced	-0.075860836
76	0xbd1167d0	-0.035499394
77	0xbc1d4538	-0.009599023
78	0xbdab2608	-0.08356863
79	0xbbf37556	-0.007429759
80	0xbd09d0f5	-0.033646543
81	0x3cd1a878	0.025593027
82	0xbd585377	-0.052813973
83	0x3c2831f7	0.010265819
84	0x3d895c08	0.06707007
85	0xbbe42f70	-0.006963663
86	0xbda29f92	-0.07940592
87	0x3d529b68	0.05141774
88	0xbdc1bad1	-0.094594605
89	0x3d9024d2	0.07038273
90	0x3ba26ed0	0.0049570575
91	0x3c15cf01	0.009143592
92	0xbd9866da	-0.074414924
93	0x3cc01f32	0.023452375
94	0x3d149a43	0.036279928
95	0x3d99aa30	0.07503164
96	0x3d033ea8	0.032042176
97	0x39174800	0.00014427304
98	0x3d844f1f	0.06460404
99	0xbd4e0935	-0.05030175
100	0x3d703649	0.05864552
101	0x3d82b05b	0.063812934
102	0xbd45de10	-0.04830748
103	0xbce745be	-0.028231498
104	0x3b561683	0.0032667227
105	0x3d2b30b6	0.0417945
106	0x3b216a02	0.0024629836
107	0xbd927b72	-0.071524516
108	0x3d54a382	0.051913746
109	0x3cce0f12	0.02515367
110	0xbd444eb6	-0.047926627
111	0x3c9321b0	0.0179604
112	0xbcdf05c0	-0.027224422
113	0xbd9e0a5f	-0.07716822
114	0x3d9499dd	0.072559096
115	0xbc75e3db	-0.015007938
116	0x3d66a8ef	0.05631345
117	0xbbdd5fa5	-0.0067557865
118	0xbd092d73	-0.03349061
119	0x3d829057	0.06375187
120	0x3daea30b	0.08527192
121	0xbc2aa710	-0.010415807
122	0xbc48a832	-0.012247132
123	0xbd8d6ec1	-0.0690589
124	0xbd83f920	-0.06444001
125	0x3d00f1ed	0.03148072
126	0xbc26a929	-0.010172167
127	0x3d4e5f88	0.050384074
128	0x3d273392	0.040820666
129	0x3d01ac15	0.03165825
130	0xbc8facd1	-0.01753846
131	0x3d01234b	0.0315278
132	0xbcc79ec8	-0.024367705
133	0xbd1c3a63	-0.03814162
134	0x3d099c73	0.033596467
135	0xbcdeecb6	-0.027212482
136	0x3d257245	0.04039218
137	0xbd034d14	-0.03205593
138	0x3d2252d3	0.03962977
139	0x3d92095b	0.07130691
140	0x3c94ee66	0.018180083
141	0xbd3d9e1f	-0.046293374
142	0x3ca3287f	0.019916771
143	0xbd715314	-0.05891712
144	0xbd67c0ed	-0.056580473
145	0xbddb2f14	-0.10702339
146	0x3d8e9434	0.06961861
147	0xbda7f59c	-0.08201143
148	0x3c5a0234	0.013306189
149	0x3b43b833	0.002986443
150	0x3da03a3a	0.07823606
151	0x3c1a20ca	0.009407232
152	0x3c77bb6e	0.01512037
153	0xbd8a8fac	-0.067656845
154	0x3d0fcc98	0.035107225
155	0x3da0668c	0.07832059
156	0xbd936fe7	-0.07199078
157	0xbccf7623	-0.025324887
158	0xbdb43889	-0.08799846
159	0x3b94b78c	0.004538482
160	0x3ce002a4	0.02734501
161	0xbd0e5a24	-0.034753934
162	0xbcb3f66a	-0.021968085
163	0xbd0f3565	-0.03496303
164	0xbcbf5404	-0.023355491
165	0x3d0f9b3b	0.03506015
166	0x3dc77f71	0.097411044
167	0x3db6b83f	0.08921861
168	0xbd18e649	-0.037328992
169	0x3bd7e88a	0.006589
170	0xbd938552	-0.07203163
171	0x3d87b49f	0.066262476
172	0xbd94c0c9	-0.07263333
173	0x3ce241c4	0.02761925
174	0xbc9a4b46	-0.018834721
175	0x3d55f8c6	0.052239202
176	0x3d928a41	0.07155276
177	0xbc529941	-0.012853921
178	0x3db5cfe3	0.08877542
179	0xbceda778	-0.02901052
180	0x3d5a7a7f	0.053339478
181	0x3caaec80	0.020864725
182	0x3d970b0a	0.073751524
183	0x3d38a4b9	0.045078967
184	0xbc42e817	-0.011896155
185	0x3c37aeb0	0.011211082
186	0x3b68927e	0.0035487707
187	0xbd5be14c	-0.053681657
188	0xbca2c497	-0.019869132
189	0xbcf3c98f	-0.029759197
190	0x3d652da9	0.055951748
191	0x3d429f46	0.047515176
192	0x3d906407	0.07050329
193	0xbcfda540	-0.030962586
194	0xbc5f5f9e	-0.013633637
195	0x3da3e73d	0.080030896
196	0x3ccd4d46	0.02506126
197	0x393360e4	0.00017106865
198	0xbbedac3b	-0.0072531975
199	0x3ca42bb4	0.02004037
200	0xbd97e996	-0.074176
201	0xbd5d33d3	-0.0540045
202	0xbd964e78	-0.073391855
203	0x3d3826d6	0.04495891
204	0xbc0bb95c	-0.00852808
205	0xbde5dd72	-0.11223878
206	0xbbbea4ba	-0.005817977
207	0xbd10b424	-0.035328045
208	0x3d68531a	0.056719877
209	0xba0e81b5	-0.0005436198
210	0xbdb03e43	-0.086056255
211	0x3d8e541d	0.06949637
212	0xbd014bb6	-0.031566344
213	0xbd38fb43	-0.045161497
214	0xbd52d473	-0.05147214
215	0xbd7d967c	-0.06191109
216	0xbccbc487	-0.024873985
217	0xbdae7419	-0.085182376
218	0xbc9245ce	-0.017855551
219	0xbd4d1c31	-0.050075714
220	0x3deab699	0.11460609
221	0xbc96adde	-0.018393453
222	0x3dc2e833	0.09516945
223	0xbd43ef11	-0.047835413
224	0x3c473004	0.012157444
225	0x3ccfc231	0.025361152
226	0xbc8cf243	-0.017205363
227	0xbdd43250	-0.10361159
228	0xbcc32df7	-0.023825629
229	0x3d1e2f22	0.038619168
230	0xbd18104b	-0.037124913
231	0x3665ab04	3.4223203e-06
232	0x3c742a6a	0.01490269
233	0x3dc77534	0.097391516
234	0xbd17c228	-0.037050396
235	0xbc732b57	-0.014841876
236	0xbbbfb2f0	-0.0058501884
237	0xbd6f9efa	-0.05850122
238	0x3c99778b	0.01873376
239	0xbd33ce17	-0.043897714
240	0x3d324cdc	0.04353033
241	0xbdb939f3	-0.09044256
242	0xbdb78515	-0.0896093
243	0x3d2c6003	0.04208375
244	0x3d983e1f	0.07433724
245	0xbc0c8912	-0.008577602
246	0x3bd82d01	0.0065971618
247	0x3bb1ed48	0.0054298975
248	0x3d9d95a8	0.0769456
249	0x3d31dd9a	0.043424226
250	0x3c06f310	0.008236662
251	0x3d74b29c	0.059740648
252	0x3d154b3d	0.036448706
253	0x3c32bb6c	0.010908943
254	0x3c0deea8	0.008662857
255	0x3da17d0e	0.078851804

encoder.0.bias f4 [60]
0	0x3ca33ad4	0.019925512
1	0x3d9bdd95	0.07610623
2	0x3bfe67bc	0.007763831
3	0x3d525959	0.05135474
4	0xbd6b9ba2	-0.05752147
5	0x3ce314aa	0.027719814
6	0xbdb777ad	-0.08958373
7	0xbcaa8768	-0.02081652
8	0x3d868e30	0.06570089
9	0x3da5bbd2	0.080924645
10	0x3aa1e199	0.0012350559
11	0xbcf6a293	-0.030106818
12	0xbd55a1ba	-0.052156188
13	0x3d65cef6	0.056105576
14	0xbcd9cb7f	-0.026586292
15	0xbd896e47	-0.06710487
16	0xbca60153	-0.020264303
17	0x3d7fa3f6	0.062412225
18	0xbd6edb91	-0.058314864
19	0x3ddcfa00	0.10789871
20	0xb9ebe606	-0.00044994074
21	0x3d3f111b	0.046647172
22	0xbddcb178	-0.10776037
23	0xbb5deee8	-0.0033864323
24	0x3d27c77a	0.04096172
25	0x3cb67383	0.022271877
26	0x3d14b4cb	0.03630523
27	0xbcdd8ffa	-0.027046192
28	0xbc849e9d	-0.016188914
29	0x3d9d8747	0.07691818
30	0x3d5567ab	0.05210082
31	0xbc208c43	-0.009799066
32	0x3d81dcaf	0.0634092
33	0xbd889305	-0.06668667
34	0x3cf4ad2e	0.029867735
35	0xbdb0a9b3	-0.086261176
36	0x3d8e0c3f	0.069359295
37	0x3de53184	0.11191085
38	0xbd52530b	-0.051348727
39	0x3c0ea208	0.008705623
40	0xbd45d11b	-0.04829512
41	0xbcea8247	-0.028626574
42	0x3c8d627e	0.017258879
43	0xbceec1bd	-0.029145116
44	0xbd0f13cd	-0.034930993
45	0xbd115ca3	-0.035488736
46	0x3d03a3d7	0.03213867
47	0xbd2d8994	-0.042367533
48	0xbd4c11d5	-0.049821693
49	0xbc4c80d0	-0.012481883
50	0xbd0322d3	-0.032015633
51	0xbd549f7f	-0.05190992
52	0xbd90954f	-0.07059728
53	0xbd3b61f0	-0.045747697
54	0xbbdb2646	-0.006687912
55	0x3adc4e25	0.0016807957
56	0x3ce8b815	0.02840809
57	0x3c33ec8b	0.010981689
58	0xbd0eca84	-0.034861103
59	0x3d8c2ad5	0.06844107

encoder.2.weight f4 [30, 60]
0	0xbe045bfa	-0.12925711
1	0x3dd3557e	0.10319041
2	0xbd5ef15d	-0.0544294
3	0xbc85d2db	-0.016335895
4	0xbdc60463	-0.096688055
5	0x3d5fb937	0.054619994
6	0xbd9b1305	-0.07571987
7	0x3dbf2414	0.09333053
8	0x3dbff275	0.09372417
9	0xbd3ec917	-0.046578493
10	0x3d8b5409	0.06803138
11	0xbbea8e0c	-0.0071580466
12	0xbdf33fcc	-0.11877403
13	0xbdb19aae	-0.08672081
14	0x3df52a45	0.11970953
15	0x3d2d52f9	0.042315457
16	0xbc02b08d	-0.007976663
17	0xbd24fa6e	-0.04027789
18	0x3dda2ad2	0.106526986
19	0xbd0f40fd	-0.034974087
20	0x3de72659	0.11286611
21	0xbdf0bb04	-0.117544204
22	0xbdda05ad	-0.10645614
23	0x3d008fa9	0.031387005
24	0x3dd137e3	0.10215738
25	0x3d4bbc3d	0.049740065
26	0xbc5172f3	-0.012783754
27	0x3cc4e8a7	0.024036719
28	0x3df25e81	0.118344314
29	0xbe08e38b	-0.13368051
30	0x3c643861	0.013929457
31	0xbd8f5697	-0.069989376
32	0x3c6180c8	0.013763614
33	0xbb458a14	-0.0030142115
34	0xbcf4e9ee	-0.029896703
35	0x3c7b9339	0.015354925
36	0x3d91f6f4	0.07127181
37	0xbafface1	-0.0019506478
38	0x3c830aa6	0.015996289
39	0x3d8f94dc	0.070108145
40	0x3e1063bc	0.14100546
41	0xbd8c4fe7	-0.06851178
42	0xbdc53c53	-0.096306466
43	0xbdf3b0e5	-0.11898974
44	0xbded2a62	-0.115803495
45	0xbca0527f	-0.019570587
46	0xbd5b5511	-0.053547923
47	0xbdf86b24	-0.121298105
48	0xbd8afb53	-0.067862175
49	0x3cface47	0.030615939
50	0x3dd7c397	0.10535353
51	0x3df9a33e	0.12189339
52	0x3d9d7d1f	0.076898806
53	0xbd39bc43	-0.045345556
54	0x3ca368ff	0.019947527
55	0x3c981a42	0.018567208
56	0xbdc24be9	-0.09487135
57	0x3e110237	0.14161001
58	0xbe01d570	-0.12679076
59	0x3de80a9f	0.11330151
60	0xbdc5fdaa	-0.09667523
61	0x3bcad03b	0.006189374
62	0x3ddc6f58	0.10763425
63	0xbd77cb3c	-0.060496554
64	0x3dd5a080	0.104310036
65	0xbdaa8624	-0.083263665
66	0x3d965503	0.073404334
67	0x3dfe6140	0.12420893
68	0x3de54d7f	0.11196422
69	0x3d7d9abd	0.061915148
70	0x3d221c15	0.039577562
71	0x3df8bfc2	0.1214595
72	0x3d12f781	0.03588057
73	0xbd664b3d	-0.056224097
74	0x3d58ab7e	0.052897923
75	0xbdd95405	-0.106117286
76	0xbd99a7b6	-0.075026914
77	0x3c4470c9	0.011989781
78	0x3d0bc334	0.034121707
79	0xbd46c048	-0.048523217
80	0xbdd29c93	-0.102837704
81	0x3cf4ed92	0.029898439
82	0x3c3bf9ec	0.01147316
83	0xbbe6ddf9	-0.007045504
84	0xbb5b5a56	-0.0033470592
85	0x3d1c148b	0.03810553
86	0x3dacc03a	0.08435102
87	0x3e0201dc	0.12696022
88	0x3d8a39ab	0.067492805
89	0xbd33f736	-0.04393693
90	0x3cddf32c	0.027093492
91	0xbdd5a4d7	-0.10431831
92	0x3d90ccfc	0.07070348
93	0xbdc6d184	-0.09707931
94	0xbcc24712	-0.02371553
95	0x3dce8e95	0.10085789
96	0x3d57822b	0.052614372
97	0xbdefbd65	-0.11706046
98	0x3dc2fef3	0.09521284
99	0x3dc87cb1	0.09789408
100	0x3d9ebbe1	0.07750679
101	0x3d99ee6b	0.07516178
102	0xbdaa1c01	-0.083061226
103	0xbe01b71c	-0.12667507
104	0x3dbbd383	0.09171202
105	0xbcec35a1	-0.028834166
106	0x3d6d9ff0	0.058013856
107	0x3d8d097e	0.06886576
108	0x3d8aec43	0.067833446
109	0xbd980eb1	-0.07424677
110	0xbdde51f3	-0.10855474
111	0xbcf68933	-0.030094719
112	0xbd60577d	-0.054770935
113	0xbdd8286c	-0.10554585
114	0x3dc4d6d5	0.096112885
115	0x3e0f8aba	0.14017764
116	0xbd077225	-0.03306784
117	0x3da65251	0.08121169
118	0x3d5f917a	0.054582097
119	0x3d588d2f	0.05286902
120	0xbcc7ae20	-0.024375021
121	0xbd9f4225	-0.07776288
122	0xbd0d5dad	-0.034513164
123	0x3cc1a919	0.023640202
124	0x3d9d828a	0.07690914
125	0x3d5a3f7f	0.05328321
126	0x3dd62f4b	0.10458239
127	0xbd89f102	-0.06735422
128	0xbd7ec867	-0.062202837
129	0xbd8e469f	-0.06947064
130	0xbdc40185	-0.09570602
131	0xbcf58c47	-0.029974116
132	0xbd8af5b9	-0.06785149
133	0x3d8c5f02	0.06854059
134	0x3cd1ecd8	0.025625631
135	0xbcf2a042	-0.029617433
136	0x3dc312e9	0.09525091
137	0x3d9c8309	0.076421805
138	0xbdca4ad3	-0.09877553
139	0x3a9d07c8	0.0011980468
140	0x3cb0d7a4	0.0215872
141	0x3d8fba1d	0.0701792
142	0xbe0e1ba9	-0.13877739
143	0xbe13543e	-0.14387605
144	0xbe11d3ca	-0.14240947
145	0xbbf01f8b	-0.007327979
146	0x3e11afba	0.1422719
147	0x3d6e47ae	0.058173828
148	0xbe0441a9	-0.12915672
149	0x3de3c0f4	0.11120787
150	0xbd99bd16	-0.075067684
151	0xbdbeb82d	-0.093124725
152	0x3e090845	0.13382061
153	0x3d2c2c9b	0.042034727
154	0x3d504d64	0.050855055
155	0xbb3cb426	-0.00287939
156	0x3cee73c4	0.029107936
157	0x3c81227c	0.015763514
158	0x3cc8b296	0.024499219
159	0xbc0064a9	-0.007836499
160	0xbe0badbc	-0.13640493
161	0x3e02438f	0.12721084
162	0x3ddcfd29	0.10790474
163	0xbb0b60b1	-0.002126735
164	0xbcd74bb7	-0.02628122
165	0x3de18089	0.11010844
166	0x3de97848	0.11399895
167	0x3d7abd6b	0.0612158
168	0x3d9ebc6a	0.07750781
169	0xbde218f0	-0.11039913
170	0x3d710afd	0.05884837
171	0x3de38a0f	0.11110317
172	0xbda9de1b	-0.082943164
173	0x3e10a8c8	0.14126885
174	0xbdd3b12a	-0.10336526
175	0xbe0e8b4b	-0.13920324
176	0xbda61553	-0.08109536
177	0xbcd19e27	-0.025588108
178	0xbdd1cf11	-0.10244573
179	0xbd624b5f	-0.05524766
180	0x3de3a6e6	0.11115818
181	0x3d8d6875	0.06904689
182	0xbc93dea3	-0.018050497
183	0xbce7657f	-0.02824664
184	0xbe04a45f	-0.12953328
185	0x3e1121de	0.14173076
186	0xbd47b428	-0.048755795
187	0xbc093520	-0.008374482
188	0xbd8c2fd1	-0.06845058
189	0xbdc4ce20	-0.09609628
190	0xbe0abc03	-0.13548283
191	0xbdf73dca	-0.12072332
192	0xbbf6c7b3	-0.00753113
193	0x3d735949	0.05941132
194	0x3d902289	0.07037837
195	0xbcede7dd	-0.029041225
196	0x3c838c1f	0.016058026
197	0x3d9fc228	0.07800704
198	0x3d903016	0.07040422
199	0x3e0d291e	0.13785216
200	0xbd0acd04	-0.033886924
201	0xbd041e77	-0.032255616
202	0xbcaaebee	-0.020864453
203	0x3d8f7b4f	0.07005941
204	0x3ca7b2a3	0.020470923
205	0xbe11b0f6	-0.14227661
206	0x3dd1337c	0.10214898
207	0xbc0245ae	-0.007951183
208	0xbdef1f73	-0.1167592
209	0x3e127707	0.14303218
210	0xbdaa7722	-0.08323504
211	0xbbfff1ab	-0.0078107915
212	0xbd8669d0	-0.06563151
213	0xbda6ac43	-0.08138325
214	0xbde02808	-0.10945135
215	0x3da0263f	0.07819795
216	0x3d8a2036	0.06744425
217	0xbd294b83	-0.04133178
218	0x3d881c01	0.06645966
219	0xbde894b0	-0.11356485
220	0xbd536aad	-0.051615406
221	0x3a93c9e5	0.0011275379
222	0x3de07cce	0.109613046
223	0x3ddd0784	0.10792449
224	0xbdb04849	-0.08607537
225	0x3d42cc71	0.04755825
226	0xbcbd4da9	-0.02310832
227	0x3dc91d5c	0.09820053
228	0xbd91d232	-0.0712017
229	0xbdfa0f53	-0.12209954
230	0xbd1aa221	-0.037752274
231	0x3d31ddce	0.04342442
232	0xbd597585	-0.05309059
233	0x3d77a846	0.060463212
234	0xbe0c3cec	-0.13695115
235	0xbdf479a3	-0.11937263
236	0x3d126f3f	0.035750624
237	0xbe0c8d65	-0.13725813
238	0x3d6f4dbf	0.058423754
239	0x3c654103	0.013992551
240	0x3dee7f90	0.11645424
241	0xbcdae5b6	-0.026720863
242	0xbcbcdd19	-0.023054646
243	0xbe11b9c4	-0.1423102
244	0xbda08f86	-0.07839875
245	0xbd8bc572	-0.06824769
246	0xbe062ca3	-0.13102965
247	0xbdb22a31	-0.086994536
248	0x3dbae4ae	0.091256484
249	0xbdb6ccfd	-0.08925817
250	0xbe1c772e	-0.15279838
251	0xbe0b24f7	-0.1358832
252	0xbdb81e5d	-0.08990166
253	0x3d9ae94d	0.0756403
254	0xbde51f91	-0.111876614
255	0xbd6a50b2	-0.057205863

encoder.2.bias f4 [30]
0	0xbdd792bd	-0.10526035
1	0xbc9000e2	-0.017578546
2	0x3dc0326d	0.09384618
3	0xbce099b2	-0.027417038
4	0x3d960796	0.07325666
5	0x3c2e8602	0.010652067
6	0x3d942712	0.072340146
7	0x3ccfcee4	0.025367208
8	0x3ca882d8	0.020570204
9	0xbcc59c2b	-0.024122318
10	0xbd8aa46b	-0.067696415
11	0x3dcd0a0f	0.10011684
12	0x3d69d0a4	0.05708374
13	0x3c7eac41	0.015543998
14	0x3e0c8a63	0.13724665
15	0x3d19fe0c	0.037595794
16	0xbb43f2c3	-0.0029899336
17	0x3d7e3676	0.062063657
18	0x3d78cf24	0.06074442
19	0x3d00d4cf	0.03145295
20	0x3d682397	0.056674566
21	0x3d8b6495	0.06806294
22	0xbd1c4ab9	-0.0381572
23	0x3da7aed1	0.081876405
24	0x3dc70810	0.09718335
25	0x3dd2dbc3	0.102958225
26	0x3d51ef05	0.051253337
27	0x3d0fdef0	0.03512472
28	0x3db7c84c	0.089737505
29	0x3d6f93c6	0.058490537

encoder.4.weight f4 [10, 30]
0	0xbe1c1d18	-0.15245473
1	0x3e2efa2f	0.17087625
2	0xbd973f26	-0.073850915
3	0xbd56bc30	-0.052425563
4	0x3dca13d5	0.09867064
5	0x3cb1d7c7	0.021709336
6	0xbd7c95a7	-0.061666157
7	0xbe124ca3	-0.14287047
8	0xbe239d20	-0.15977907
9	0xbd3be7f4	-0.045875505
10	0x3d8a9d7c	0.06768319
11	0xbe3319fa	-0.17490378
12	0x3d872bd2	0.06600155
13	0x3e52d17a	0.20587721
14	0x3cdbd929	0.026836948
15	0x3e2f59f5	0.1712416
16	0x3d3602d2	0.044436283
17	0xbe4ab5d3	-0.19795923
18	0xbce553e5	-0.027994106
19	0x3e15df83	0.14636044
20	0xbd8809ba	-0.0664248
21	0xbbc16a47	-0.005902562
22	0xbdee93cd	-0.116492845
23	0x3df71114	0.12063804
24	0xbc93004c	-0.017944477
25	0xbd976e2d	-0.07394061
26	0x3ddad931	0.10685957
27	0x3e11b550	0.14229321
28	0x3df7e60b	0.12104424
29	0x3c8a6502	0.016893867
30	0x3e328dd4	0.17436916
31	0xbd96c015	-0.073608555
32	0xbd7d8f28	-0.061904103
33	0xbdf36e9a	-0.1188633
34	0x3d296e4a	0.041364945
35	0xbe08c93f	-0.1335802
36	0x3dac74b2	0.08420695
37	0x3daddaa9	0.08488972
38	0xbdeef696	-0.11668126
39	0x3d9ba442	0.07599689
40	0xbcf6c8de	-0.030125078
41	0xbe2cd43d	-0.16877837
42	0x3e21d929	0.15805496
43	0xbd02e6dd	-0.03195845
44	0xbd5d4a86	-0.05402615
45	0xbd9040fc	-0.07043645
46	0x3d0cdd53	0.03439076
47	0xbe38034c	-0.17970008
48	0xbe07c5b9	-0.13259019
49	0x3e2adb8e	0.16685316
50	0x3e37b045	0.17938335
51	0xbdd3cb14	-0.103414685
52	0x3dbacc90	0.091210485
53	0x3d5a6e00	0.05332756
54	0xbe11c772	-0.14236239
55	0xbe3601e3	-0.17774157
56	0x3da2e3d0	0.07953608
57	0x3db26e76	0.08712475
58	0xbe43999c	-0.19101566
59	0xbc0710b0	-0.008243725
60	0xbe0f6a64	-0.14005429
61	0xbda8651c	-0.0822241
62	0xbc3ce2b2	-0.011528658
63	0x3e2fdbc9	0.17173685
64	0x3dac36f6	0.084089205
65	0xbe152527	-0.14564954
66	0xbd3242aa	-0.043520607
67	0x3e411bd9	0.1885828
68	0xbd389ecb	-0.04507331
69	0xbd2110f7	-0.03932282
70	0xbd0290ad	-0.031876255
71	0xbe16ba54	-0.14719516
72	0xbe023b2c	-0.12717885
73	0x3e07ad1d	0.13249631
74	0xbdecacf1	-0.115564235
75	0xbcc91fd9	-0.024551319
76	0x3e319178	0.17340648
77	0x3e1a4695	0.15065987
78	0xbe20922e	-0.15680763
79	0xba4eeccc	-0.0007893562
80	0xbe423073	-0.18963794
81	0xbd5f6326	-0.054537915
82	0xbc8b788f	-0.01702526
83	0x3cf6d577	0.030131085
84	0xbd8da803	-0.06916811
85	0x3e39150a	0.18074432
86	0xbdfdb46e	-0.1238793
87	0x3e1eec88	0.15519917
88	0x3e3d90a4	0.18512207
89	0x3cc41461	0.023935499
90	0xbdea13cd	-0.11429558
91	0xbb1f17f2	-0.0024275747
92	0x3daa6e7a	0.08321853
93	0x3cee09b7	0.029057367
94	0x3e3efe1c	0.18651623
95	0xbd234a1a	-0.03986559
96	0x3e4f5e82	0.20250896
97	0xbd3b7d3d	-0.045773733
98	0xbe3f9272	-0.18708208
99	0xbd6a965d	-0.057272304
100	0x3ab45c9f	0.0013760513
101	0x3e144a82	0.14481547
102	0xbd1c8321	-0.03821099
103	0x3e00a51a	0.12562981
104	0x3e29c3f2	0.16578653
105	0x3d1ac484	0.03778507
106	0x3d1556bc	0.03645967
107	0xbbaa4dd4	-0.005197266
108	0xbd1a5e6e	-0.03768771
109	0x3d92fea5	0.07177476
110	0xbd357aae	-0.04430645
111	0xbe03452d	-0.12819357
112	0x3d63da38	0.05562803
113	0x3df85db6	0.12127249
114	0xbcd267ed	-0.025684321
115	0xbd116cc5	-0.03550412
116	0x3d2f1d3b	0.042752486
117	0x3e252653	0.16127901
118	0xbe0a4e57	-0.13506447
119	0xbdd51cbd	-0.10405872
120	0x3e4a8752	0.19778183
121	0x3c37fa17	0.01122906
122	0xbdfbe31c	-0.12299177
123	0xbe2ee633	-0.17080002
124	0xbccafa06	-0.024777424
125	0xbd8cc8b6	-0.0687422
126	0xbe3cb12c	-0.1842696
127	0xbd08bbe9	-0.03338233
128	0x3db3b2c4	0.08774331
129	0x3d8251d8	0.06363267
130	0xbdf7d528	-0.12101203
131	0x3d7d010f	0.061768588
132	0x3b4b16c9	0.0030988923
133	0xbe14014d	-0.14453621
134	0xbbb25c3f	-0.0054431255
135	0xbd3ae02a	-0.045623936
136	0xbe339526	-0.17537364
137	0xbe10493e	-0.1409044
138	0x3c9cf897	0.019161506
139	0xbdaf76e5	-0.08567599
140	0xbe0355c6	-0.12825689
141	0x3b90b925	0.004416602
142	0xbe03f579	-0.12886609
143	0xbdd1aa40	-0.10237551
144	0xbd674aed	-0.05646794
145	0x3d90b336	0.07065432
146	0x3cc08b5b	0.02350395
147	0xbc63680e	-0.013879789
148	0xbe352e1c	-0.1769337
149	0xbb6c8c44	-0.0036094347
150	0xbd691bbd	-0.05691122
151	0x3db97465	0.090554036
152	0xbd69a33a	-0.05704043
153	0x3e18ff12	0.14941052
154	0x3d6ef777	0.05834147
155	0x3d2caa54	0.042154625
156	0x3dd518ee	0.104051456
157	0xbda40acc	-0.08009872
158	0xbe082aa4	-0.13297516
159	0x3d2c58c1	0.04207683
160	0xbdfe1d0f	-0.12407886
161	0xbc4c30d2	-0.012462812
162	0xbe1cfcc3	-0.15330796
163	0x3e020043	0.12695412
164	0x3e19e355	0.15028127
165	0x3e0e7a20	0.13913774
166	0x3dc5e83e	0.09663437
167	0xbe39fa96	-0.18161997
168	0xbdd9cfa1	-0.10635305
169	0xbda23214	-0.07919708
170	0x3abf3e65	0.0014590739
171	0xbcfd29db	-0.030903747
172	0x3dd5382d	0.10411105
173	0x3d7cab7c	0.061686978
174	0x3ded414f	0.11584722
175	0x3da84239	0.08215756
176	0xbe144701	-0.14480211
177	0xbd4008e0	-0.046883464
178	0x3cf3ee1d	0.029776627
179	0xbe31368d	-0.17305966
180	0x3d8570ca	0.065156534
181	0xbdae2db0	-0.08504808
182	0x3d33c8ed	0.04389279
183	0x3e0c1d16	0.1368297
184	0x3de598a8	0.112107575
185	0xbe2f7114	-0.1713298
186	0x3d2aa836	0.041664325
187	0xbdc02dbb	-0.093837224
188	0x3e1c05b2	0.15236548
189	0x3deba616	0.11506288
190	0x3e3f026d	0.18653269
191	0x3d8f1905	0.06987194
192	0x3d7f7bff	0.06237411
193	0xbd14f85e	-0.036369674
194	0x3ccbd9c3	0.02488411
195	0xbe1b12f9	-0.15143956
196	0xbdefa4e5	-0.11701373
197	0xbd9f9e15	-0.07793824
198	0x3d8a176d	0.06742749
199	0xbe0a5e9c	-0.13512653
200	0xbe2a030d	-0.16602726
201	0xbdf79033	-0.12088051
202	0x3e508dd1	0.20366599
203	0xbdb97c76	-0.09056942
204	0xbe19f11a	-0.15033379
205	0x3da54598	0.080699146
206	0xbe4e635b	-0.20155089
207	0x3e122240	0.14270878
208	0x3e0801ad	0.1328189
209	0xbc1de1ef	-0.009636386
210	0xbb5ab13d	-0.0033369802
211	0x3d703fac	0.058654472
212	0xbd054a8a	-0.03254179
213	0x3d00633a	0.03134463
214	0xbdce1667	-0.10062867
215	0x3d56a384	0.052402034
216	0x3da53144	0.08066037
217	0x3e1125fe	0.14174649
218	0xbd996d5a	-0.0749156
219	0x3dc62a9a	0.09676094
220	0xbdd477f6	-0.10374443
221	0x3e0e3589	0.1388761
222	0x3d856dc9	0.065150805
223	0x3d65855e	0.056035392
224	0xbdb08872	-0.08619775
225	0xbe3a6e9e	-0.1820626
226	0xbe20afa8	-0.15692008
227	0xbe08c8b5	-0.13357814
228	0xbcf2f1ac	-0.029656254
229	0x3cea2c16	0.028585475
230	0xbda91532	-0.08255996
231	0xbd997c75	-0.074944414
232	0x3e1c3449	0.1525432
233	0x3d9b3a00	0.07579422
234	0xbe1e1afd	-0.15439983
235	0x3db14957	0.086565666
236	0x3de695af	0.11259019
237	0xbd938e73	-0.072049044
238	0x3e3e3320	0.1857419
239	0x3cf3b202	0.029747967
240	0xba1fa856	-0.00060904527
241	0x3e11b765	0.14230116
242	0xbdabe5d1	-0.083934434
243	0x3d961711	0.07328618
244	0xbafa1ebc	-0.0019082646
245	0xbdd634cc	-0.10459289
246	0x3dbd1e2b	0.0923427
247	0xbe235200	-0.1594925
248	0x3e1b647c	0.1517505
249	0x3d7a0a49	0.061044965
250	0xbe086018	-0.13317907
251	0xbd8be6a8	-0.068311036
252	0x3e52139d	0.20515294
253	0x3e557bc1	0.2084799
254	0x3d187e4b	0.037229817
255	0x3e24623b	0.16053097

encoder.4.bias f4 [10]
0	0xbd6f96d9	-0.05849347
1	0xbd87669e	-0.066113696
2	0x3ceb75b5	0.02874265
3	0xbd561868	-0.05226937
4	0x3da37a5b	0.07982322
5	0x3e1d224d	0.15345116
6	0xbdfd7fef	-0.12377917
7	0xbdc4113d	-0.095736004
8	0xbd5c8ab9	-0.053843234
9	0xbc998a31	-0.018742653

encoder.6.weight f4 [1, 10]
0	0xbea55273	-0.32289466
1	0xbd169f3b	-0.036772948
2	0x3ea92259	0.33034018
3	0x3e7240b9	0.23657502
4	0xbe057a0e	-0.13034841
5	0xbb87040e	-0.0041203564
6	0x3e48fba9	0.1962725
7	0x3d216927	0.03940692
8	0xbeaee104	-0.34156048
9	0xbe590540	-0.21193409

decoder.0.weight f4 [10, 1]
0	0x3ebd8ba9	0.37020615
1	0xbf371e99	-0.71531063
2	0x3ecaf68f	0.39641234
3	0x3f5f4a29	0.87222534
4	0xbf322e7f	-0.696022
5	0xbed5fbc3	-0.4179364
6	0x3ee910ac	0.45520532
7	0x3f63d51e	0.88997066
8	0x3e6a1af3	0.22861843
9	0xbf265857	-0.64978546

decoder.0.bias f4 [10]
0	0x3f803731	1.0016843
1	0xbe4ba23b	-0.19886105
2	0x3def3c6c	0.116814464
3	0x3a98de20	0.0011662878
4	0x3e957c14	0.29196227
5	0xbf0319e2	-0.5121137
6	0x3c46b655	0.012128432
7	0xbf453fb0	-0.77050304
8	0xbf36389c	-0.7118013
9	0xbf3e1b6e	-0.74260604

decoder.2.weight f4 [30, 10]
0	0x3da26271	0.079289325
1	0xbe365327	-0.17805158
2	0xbe22bec7	-0.15893088
3	0x3e8101d2	0.251967
4	0xbe1538b9	-0.14572419
5	0xbda570fc	-0.08078191
6	0x3c1851ab	0.009296815
7	0xbe68c0a2	-0.22729734
8	0xbbac0e45	-0.0052507245
9	0x3ceca6c2	0.02888811
10	0x3d524cbb	0.051342707
11	0x3df82844	0.12117055
12	0xbd4556bf	-0.04817843
13	0xbeaa5eff	-0.332756
14	0x3df45b2e	0.11931454
15	0x3ea83d0c	0.32859075
16	0xbe08bc52	-0.13353088
17	0x3e5d0fcc	0.21588057
18	0x3e94ce40	0.29063606
19	0xbe37d5cd	-0.17952652
20	0xbe758b57	-0.23978935
21	0xbea04057	-0.31299087
22	0x3cebb538	0.028772935
23	0x3e1d308e	0.15350553
24	0xbea32b9e	-0.31869215
25	0x3ea244a3	0.3169299
26	0xbe60ad49	-0.21941103
27	0xbde71ca1	-0.112847574
28	0x3d7cae12	0.061689444
29	0xbcb0387d	-0.02151131
30	0x3e97302d	0.29528943
31	0xbe8a7c80	-0.2704811
32	0x3e1e8666	0.15480956
33	0x3da77a2f	0.081776015
34	0x3d7f579a	0.062339403
35	0xbd190d0c	-0.037365958
36	0x3e1f1bd5	0.15537961
37	0xbd49ed04	-0.0492983
38	0x3c1eb4d8	0.009686671
39	0x3e2ee4a4	0.17079407
40	0xbca50a54	-0.020146526
41	0x3e5ca857	0.21548592
42	0x3dbf5374	0.09342089
43	0xbe8af39a	-0.27138978
44	0x3db8f24f	0.09030592
45	0x3dc01d4c	0.09380588
46	0x3ea14c1a	0.31503373
47	0xbe03679e	-0.12832496
48	0xbe039448	-0.12849534
49	0x3e6ae5a1	0.22939159
50	0x3e257f11	0.16161753
51	0x3e9b76a1	0.30363944
52	0x3cc797a2	0.024364296
53	0x3e13437f	0.14381216
54	0xbe8c5291	-0.27406743
55	0x3e8b31ba	0.27186376
56	0xbdad2c76	-0.08455746
57	0xbea97393	-0.3309599
58	0xbdf50c13	-0.119651936
59	0xbe203cba	-0.15648165
60	0x3e9e04f9	0.3086317
61	0x3e082460	0.13295126
62	0x3ea20c00	0.3164978
63	0xbe34b1c8	-0.17645943
64	0x3e2db860	0.16964865
65	0xbd7b4776	-0.061347447
66	0xbc7de91a	-0.01549747
67	0xb89a257f	-7.3502764e-05
68	0x3c50a1d8	0.012733899
69	0x3e98bae1	0.29830077
70	0xbcf29d03	-0.029615885
71	0xbc1cf41e	-0.009579686
72	0x3e362229	0.17786469
73	0x3e3b5503	0.18294148
74	0x3e1758fe	0.14780042
75	0x3e27f358	0.16401422
76	0x3ea068c7	0.3132994
77	0x3e80ebf9	0.25180033
78	0xbdb33f6e	-0.08752333
79	0x3e2bbef8	0.16772068
80	0xbd2c37e8	-0.042045504
81	0xbe6af74f	-0.22945903
82	0xbe90e8cd	-0.28302613
83	0x3e7f7a46	0.24948987
84	0xbe102984	-0.14078337
85	0xbda45d29	-0.080255814
86	0xbe8d3a88	-0.27583718
87	0xbdb8f087	-0.09030252
88	0x3ead4ed7	0.33849213
89	0xbe9203bb	-0.2851847
90	0xbdd3ca19	-0.103412814
91	0xbc8f2905	-0.017475614
92	0xbe223cb6	-0.15843472
93	0x3e431fca	0.19055095
94	0x3dddd9e8	0.10832578
95	0xbe1ea65b	-0.15493147
96	0xbe1214c4	-0.14265734
97	0x3d9b9ebb	0.07598635
98	0xbdcc67da	-0.099807456
99	0xbe01d714	-0.12679702
100	0x3e39017d	0.18066974
101	0xbe2789a0	-0.16361094
102	0xbe9e34cb	-0.30899653
103	0xbe93343b	-0.28750786
104	0x3dac0681	0.08399678
105	0x3cd82e75	0.02638934
106	0x3e575b94	0.21031028
107	0x3e98da69	0.29854134
108	0x3d8af7c2	0.06785537
109	0x3d86ef87	0.06588655
110	0x3b7f250c	0.0038931994
111	0xbd350ba4	-0.044200554
112	0x3e4b6e77	0.19866358
113	0x3c990f39	0.018684017
114	0xbe54dff9	-0.20788564
115	0x3d849ed2	0.06475605
116	0x3d7108f1	0.058846418
117	0xbe942d18	-0.28940654
118	0xbe0497d3	-0.12948541
119	0xbdf5f640	-0.12009859
120	0xbdb1f3ea	-0.08689101
121	0x3e7ecbfa	0.24882498
122	0xbde7f5da	-0.11326189
123	0x3ea8bd3d	0.32956877
124	0x3dc20af9	0.09474749
125	0xbdd8622f	-0.10565602
126	0xbc370d50	-0.011172608
127	0xbda7fc8c	-0.08202466
128	0xbe47e3de	-0.19520518
129	0x3dc714a8	0.09720737
130	0x3e587e30	0.21141887
131	0xbdb59ff0	-0.08868396
132	0xbe3399dd	-0.17539163
133	0xbe8fd3d4	-0.280913
134	0x3e43d963	0.19125895
135	0xbd8505f0	-0.06495273
136	0x3e369329	0.17829575
137	0x3e8f7e88	0.28026223
138	0x3cd6f6f4	0.026240803
139	0xbe014743	-0.1262484
140	0x3e6170a3	0.22015624
141	0x3e4e5ea7	0.20153295
142	0xbe42dbf0	-0.19029212
143	0xbe887fed	-0.266601
144	0xbc6474da	-0.013943875
145	0x3e25ed5f	0.16203831
146	0xbc4e9c6b	-0.012610535
147	0x3d0bf3af	0.03416794
148	0xbe0d0ad0	-0.13773656
149	0xbe66d558	-0.22542322
150	0x3e8f5372	0.2799335
151	0x3e96454a	0.29349738
152	0xbe335015	-0.17511018
153	0x3e6b82e5	0.22999151
154	0xbd99b98d	-0.07506094
155	0xbe880cb1	-0.26572183
156	0x3e376709	0.17910399
157	0x3d1b9e6e	0.037992887
158	0x3d3af685	0.045645256
159	0xbea203b5	-0.31643453
160	0xbe804e70	-0.25059843
161	0x3e44fb4f	0.19236492
162	0xbdb6f5e0	-0.08933616
163	0xbe8f843b	-0.2803057
164	0xbd1f8f1f	-0.03895485
165	0x3c8ffc91	0.017576488
166	0xbe911155	-0.28333536
167	0xbe7b83fa	-0.24562064
168	0x3e939973	0.2882801
169	0x3d83eb41	0.064413555
170	0xbd9fad44	-0.0779672
171	0x3e1b4c8d	0.1516592
172	0xbe9c8e5f	-0.3057737
173	0xbe4c5a0a	-0.19956222
174	0x3da3f1b5	0.08005086
175	0xbe3f63ed	-0.18690462
176	0xbd02d6eb	-0.031943243
177	0xbe97d12d	-0.29651776
178	0xbe10cc3c	-0.14140409
179	0xbe11b202	-0.14228061
180	0xbd40fe8e	-0.047117762
181	0x3c96211f	0.01832634
182	0xbe7991c4	-0.24372011
183	0x3d92e36b	0.07172283
184	0x3d2bf3b5	0.041980464
185	0x3deca78c	0.115553945
186	0x3dde7bdb	0.10863467
187	0xbe288f31	-0.16460873
188	0x3dcf6fb7	0.1012873
189	0x3d237a98	0.039911836
190	0x3de98eea	0.11404212
191	0x3e8b1f91	0.2717252
192	0x3c8600e2	0.016357843
193	0x3d67390a	0.05645088
194	0xbcc7bee2	-0.024383012
195	0xbe2e68ed	-0.17032214
196	0x3ea0b7fc	0.3139037
197	0xbd87a517	-0.06623285
198	0xbdcd07b8	-0.10011238
199	0x3dc31681	0.09525777
200	0xbe88988b	-0.2667888
201	0x3e6d7ac5	0.23191364
202	0x3e9abefc	0.30223835
203	0x3e339e0b	0.17540757
204	0x3d51af8d	0.05119281
205	0xbdc42668	-0.09577638
206	0x3dd6d146	0.104891345
207	0x3e0d7529	0.13814224
208	0xbe9d3d7b	-0.30710968
209	0xbe8e1fe2	-0.277587
210	0xbe6d0dbd	-0.23149772
211	0x3e65487d	0.22390933
212	0xbdcf20ea	-0.101137
213	0x3e698cd0	0.22807622
214	0xbda553fe	-0.08072661
215	0xbdda3dd4	-0.10656324
216	0xbdaffb5a	-0.085928634
217	0xbe391487	-0.18074237
218	0xbe65e0f9	-0.22449102
219	0xbd2a5018	-0.04158029
220	0xbe9414cf	-0.28922126
221	0x3d8288a6	0.0637372
222	0xbd7ce277	-0.06173941
223	0x3e2e3d85	0.17015655
224	0x3cb20c88	0.021734491
225	0xbdc0dc5a	-0.09417029
226	0x3e836b4a	0.25667793
227	0x3e1b313a	0.15155497
228	0x3e0a274a	0.1349155
229	0x3d4009f0	0.046884477
230	0x3e4d5ba8	0.20054495
231	0x3b072187	0.002061935
232	0xbe29404e	-0.16528437
233	0x3dd9af90	0.10629189
234	0x3d0f4eca	0.03498725
235	0x3d795c38	0.060878962
236	0xbd327d1a	-0.043576337
237	0xbe588ca3	-0.21147399
238	0x3d5e2bbd	0.05424093
239	0xbe9a0dcc	-0.3008865
240	0xbdb2e7b2	-0.087355986
241	0xbe8cc64c	-0.27495039
242	0x3e19b992	0.15012196
243	0x3e11cc0f	0.14237998
244	0xbcc18379	-0.023622261
245	0xbd357513	-0.044301104
246	0x3e3bc8b5	0.18338282
247	0x3e9e0848	0.30865693
248	0x3e603c1f	0.21897934
249	0x3dbbe87e	0.09175204
250	0xbdad88f0	-0.084733844
251	0x3d9c3198	0.07626647
252	0xbe6107b9	-0.21975602
253	0xbd9f9d95	-0.07793728
254	0x3e93dfed	0.2888178
255	0xbe6c740f	-0.23091148

decoder.2.bias f4 [30]
0	0x3e53768f	0.20650695
1	0xbd050729	-0.03247753
2	0xbcff7ff3	-0.03118894
3	0xbe09c2d6	-0.1345323
4	0x3ea5a3d1	0.32351544
5	0xbe3adcb0	-0.18248248
6	0x3e61bf6a	0.22045675
7	0x3d268a77	0.040659394
8	0xbe50c4ff	-0.20387648
9	0x3dd347ba	0.10316415
10	0xbe91469d	-0.28374186
11	0xbd08798b	-0.033319037
12	0x3ce059f5	0.027386645
13	0x3e9b368c	0.30315053
14	0xbe9e019f	-0.30860612
15	0x3e76b369	0.24091877
16	0x3d167387	0.03673127
17	0xbd76fecf	-0.0603016
18	0xbe8d2a28	-0.27571225
19	0x3e3c477b	0.18386643
20	0xbdadd54d	-0.084879495
21	0xbe97ccd8	-0.2964847
22	0xbe2b3aa3	-0.16721587
23	0x3e627973	0.22116642
24	0xbda18c59	-0.07888097
25	0xbe1ac596	-0.15114436
26	0x3d3d62ca	0.04623679
27	0xbe41cf0d	-0.1892664
28	0xbe6cca20	-0.2312398
29	0xbe285801	-0.16439821

decoder.4.weight f4 [60, 30]
0	0x3d039d85	0.032132644
1	0xbe08a200	-0.13343048
2	0x3e14e069	0.1453873
3	0xbc8a0f58	-0.01685302
4	0x3e283fd7	0.16430603
5	0x3cb76703	0.022387987
6	0x3d02b65e	0.0319122
7	0x3e0a15f9	0.13484944
8	0xbddd914a	-0.10818727
9	0xbc846e8b	-0.016165992
10	0xbe4369c4	-0.19083315
11	0x3d692e4a	0.05692891
12	0xbd9158b7	-0.07096999
13	0xbd2305dd	-0.039800514
14	0x3de762a1	0.11298109
15	0x3c9e8d5a	0.019354511
16	0xbd45035d	-0.04809891
17	0xbd899acd	-0.06718979
18	0xbe18b6b5	-0.14913447
19	0xbcd394d1	-0.025827797
20	0x3e264da1	0.1624055
21	0xbe0556b0	-0.1302135
22	0x3dc85090	0.09780991
23	0x3e37f1b6	0.17963299
24	0xbe1c0786	-0.15237245
25	0xbc9891bf	-0.018624185
26	0xbdf38e3f	-0.11892366
27	0x3d890b0e	0.06691562
28	0xbe143511	-0.14473368
29	0x3d1f61ba	0.03891156
30	0xbd40d57c	-0.047078595
31	0xbdb24896	-0.08705251
32	0xbd9c23a8	-0.076239884
33	0xbe257e21	-0.16161396
34	0xbe256be8	-0.16154444
35	0xbc2e8202	-0.010651113
36	0xbe3ab15a	-0.18231717
37	0x3d9b57ae	0.07585083
38	0xbdcf2bd1	-0.10115779
39	0xbe05668a	-0.13027397
40	0xbe05c970	-0.13065124
41	0x3d1aea17	0.0378209
42	0x3bf24b25	0.007394212
43	0x3c13f9c3	0.009031716
44	0x3dc626f9	0.09675402
45	0xbd57a319	-0.052645776
46	0xbdc7c444	-0.097542316
47	0x3c0f9ba4	0.008765135
48	0x3e0daeed	0.1383626
49	0xbd855aa8	-0.06511432
50	0xbb711c7c	-0.003679066
51	0xbd2c7eeb	-0.042113226
52	0x3af68602	0.0018808248
53	0xbe397b48	-0.18113434
54	0x3e077ef0	0.13232017
55	0x3e1f193e	0.15536973
56	0x3e10c4e5	0.1413761
57	0x3d375c31	0.044765655
58	0x3da1f83d	0.07908676
59	0xbda15d70	-0.0787915
60	0x3e189807	0.14901744
61	0x3d8fc2a5	0.070195474
62	0xbd65115f	-0.05592477
63	0xbe2fd035	-0.17169268
64	0x3dc0832e	0.094000205
65	0x3d32e703	0.04367734
66	0x3e0e6206	0.1390458
67	0xbd473716	-0.04863652
68	0x3d7edbbf	0.062221285
69	0x3e09b6d5	0.13448651
70	0x3ba64ec1	0.005075306
71	0xbe18145a	-0.14851514
72	0x3deeb7b0	0.11656129
73	0x3d59850c	0.0531054
74	0x3d1803c2	0.03711296
75	0x3be13bea	0.0068735974
76	0x3e0b59b7	0.13608442
77	0xbd56a1ca	-0.052400388
78	0x3e0886f7	0.13332735
79	0x3e1670b2	0.14691427
80	0x3d78f18e	0.06077724
81	0x3d1f7723	0.038931977
82	0x3d0e20e3	0.034699332
83	0xbd9459dd	-0.072437026
84	0x3db4e46c	0.088326305
85	0x3e277b80	0.16355705
86	0x3d97b3eb	0.074073635
87	0xbe0be74a	-0.13662449
88	0x3d9d31f0	0.076755404
89	0xbd9c0346	-0.07617812
90	0x3d7abbc4	0.061214224
91	0x3d9b3799	0.07578964
92	0x3dd77686	0.105206534
93	0x3c0ede96	0.008720061
94	0xbd587c21	-0.052852754
95	0xbd3a7fe0	-0.045532107
96	0x3d545d49	0.051846776
97	0x3d9d5833	0.07682838
98	0x3df716d8	0.12064904
99	0xbd49e0f8	-0.049286813
100	0xbd817b25	-0.06322316
101	0xbe0200a3	-0.12695555
102	0x3e404bba	0.18778887
103	0x3dd4f8fe	0.10399054
104	0xbcb88828	-0.022525862
105	0xbca045c5	-0.019564519
106	0xbd141816	-0.036155783
107	0x3e3eaed0	0.18621373
108	0xbe419f17	-0.18908344
109	0xbe093f50	-0.13403058
110	0xbb875ab7	-0.004130687
111	0x3e15dfce	0.14636156
112	0x3d2448c1	0.040108446
113	0xbe1bd1dc	-0.15216774
114	0xbe3eadb2	-0.18620947
115	0x3cac86e7	0.02106042
116	0xbd9242fa	-0.07141681
117	0xbdedbefd	-0.11608694
118	0x3dbfcb73	0.09364977
119	0x3e26c99b	0.16287844
120	0x3dbeec35	0.09322397
121	0x3da8b7b3	0.08238163
122	0xbded0a58	-0.115742385
123	0x3de35921	0.11100984
124	0xbdbd6b30	-0.0924896
125	0x3e408534	0.18800813
126	0x3e1c194c	0.15244025
127	0xbd1299c3	-0.03579117
128	0xbcffc533	-0.031221962
129	0xbd93d3ea	-0.07218154
130	0xbda27c2b	-0.079338394
131	0x3de528fd	0.111894585
132	0xbdf8ebba	-0.12154336
133	0xbdc5ef2e	-0.096647605
134	0x3dfe7ed0	0.12426531
135	0x3c1f734d	0.00973208
136	0x3e1b76a3	0.15181975
137	0x3e53f2c7	0.20698081
138	0xbdd481bf	-0.103763096
139	0x3e23a4cb	0.15980832
140	0x3d1eedee	0.038801126
141	0xbc51ad4c	-0.012797665
142	0x3e0a19c7	0.13486396
143	0xbe1b4c48	-0.15165818
144	0x3e0d10d0	0.13775945
145	0xbe1f44a4	-0.15553528
146	0xbdd132e6	-0.10214786
147	0x3d339d06	0.04385092
148	0xbe3d72bc	-0.18500799
149	0xbdc7f469	-0.097634144
150	0x3dab4cf3	0.08364286
151	0xbdcbabe8	-0.09944898
152	0xbe2d265f	-0.16909169
153	0x3e0f2fca	0.13983074
154	0xbe0ab740	-0.13546467
155	0x3d8198b0	0.06327951
156	0xbe236692	-0.15957096
157	0xbe3643dc	-0.17799324
158	0xbdf2ac39	-0.11849255
159	0xbda0edb9	-0.07857842
160	0xbe02b53a	-0.12764445
161	0x3e20fe79	0.15722074
162	0xbdf4c1f2	-0.11951055
163	0x3e29fca8	0.16600287
164	0x3d41b14b	0.04728822
165	0x3deadc1e	0.11467765
166	0xbddb9052	-0.10720886
167	0xbd941cd7	-0.07232063
168	0x3de1908d	0.11013899
169	0xbe09d20d	-0.13459034
170	0x3e19e81b	0.15029947
171	0x3de6c4fd	0.11268041
172	0xbdec4e6f	-0.115383975
173	0x3e358d42	0.17729667
174	0x3d3d34db	0.046192985
175	0xbdbf7a56	-0.093495056
176	0x3d144282	0.03619624
177	0xbe3a20b1	-0.18176533
178	0x3e1f7610	0.15572381
179	0x3e163422	0.14668325
180	0x3dbe09ec	0.09279236
181	0x3db761bc	0.08954188
182	0xbd3b0a39	-0.045664046
183	0xbd6f92a9	-0.058489475
184	0x3d160494	0.03662546
185	0x3da9134e	0.08255635
186	0x3e46a5a2	0.19399121
187	0xbe10d51d	-0.14143796
188	0xbd5c4a8b	-0.053782027
189	0xbdaf9710	-0.08573735
190	0xbbcdf014	-0.006284723
191	0x3e3ac069	0.18237461
192	0x3cf18aa3	0.029485052
193	0x3e3150a2	0.17315915
194	0xbdbdd791	-0.09269632
195	0x3d307a4f	0.043085393
196	0x3cfc33d0	0.030786425
197	0xbdce4213	-0.100711964
198	0x3d1a9537	0.03773996
199	0x3da0c25b	0.0784957
200	0x3da6f57a	0.0815229
201	0x3d3b8c62	0.045788176
202	0xbd8016c8	-0.06254345
203	0x3e21ad8b	0.15788858
204	0xbe23a773	-0.15981846
205	0x3e1352ec	0.14387101
206	0x3d92a76b	0.07160839
207	0x3e056d9b	0.13030092
208	0x3dfceaea	0.12349494
209	0xbc0c7aef	-0.0085742315
210	0x3dc10687	0.09425073
211	0x3d67375c	0.05644928
212	0xbdea152f	-0.11429822
213	0x3cefa132	0.029251669
214	0x3dc45c0c	0.09587869
215	0xbe1d27c8	-0.15347207
216	0x3e06ca50	0.13163114
217	0x3e02eae6	0.12784919
218	0xbda92f19	-0.08260936
219	0xbe408bdc	-0.18803352
220	0x3e3a9d93	0.18224172
221	0xbd58e8e7	-0.052956488
222	0x3e109dd8	0.14122713
223	0xbd978d30	-0.07399976
224	0xbe3162b7	-0.17322813
225	0xbe2a903a	-0.1665658
226	0x3b6e6327	0.0036375017
227	0xbddea8a0	-0.108720064
228	0xbd33f019	-0.043930147
229	0xbe1a9073	-0.15094166
230	0xbe0c253e	-0.13686082
231	0xbdfaf2fb	-0.12253376
232	0x3d25be40	0.04046464
233	0xbdfa0f5f	-0.12209963
234	0x3db5de80	0.08880329
235	0x3ccc19e3	0.024914687
236	0x3e3bb7fc	0.18331903
237	0x3db0f95b	0.08641311
238	0x3d062104	0.03274633
239	0x3de50fd4	0.111846596
240	0x3d63eed5	0.05564769
241	0xbe12c899	-0.14334334
242	0xbd3fc626	-0.04681983
243	0xbe0f1741	-0.13973714
244	0x3e0b7704	0.1361962
245	0x3bfec525	0.0077749663
246	0x3e26870f	0.16262458
247	0xbd2592e0	-0.040423274
248	0xbe47f619	-0.19527473
249	0xbe247821	-0.1606145
250	0xbe2d6aee	-0.16935322
251	0x3cddba4b	0.02706637
252	0x3c0fb32d	0.008770746
253	0x3df284d9	0.11841745
254	0xbda3d70a	-0.08
255	0x3e0b934b	0.13630407

decoder.4.bias f4 [60]
0	0xbdac6f9e	-0.08419727
1	0x3dcc1db6	0.099666044
2	0x3e2441c0	0.16040707
3	0x3daba1e2	0.08380486
4	0x3e257b8e	0.16160414
5	0xbe12151d	-0.14265867
6	0x3d81e24a	0.06341989
7	0x3d97c0aa	0.07409795
8	0xbe19afb8	-0.15008438
9	0x3c94f4f3	0.018183207
10	0x3df1365e	0.11777948
11	0x3d3e74ac	0.046497986
12	0x3e47c60f	0.19509147
13	0xbdea38d4	-0.1143662
14	0xbdb8887e	-0.09010409
15	0x3e168f72	0.14703158
16	0xbe021bd2	-0.12705925
17	0xbe0e62db	-0.13904898
18	0xbe3266eb	-0.17422073
19	0x3e1b42ca	0.15162197
20	0x3e4018a8	0.18759406
21	0x3e0a02de	0.13477656
22	0xbd8e6375	-0.06952564
23	0xbce33b1c	-0.027738146
24	0x3e3fb513	0.18721418
25	0x3d23018d	0.0397964
26	0x3d0fe021	0.035125855
27	0x3e0f7563	0.14009623
28	0x3e0683fc	0.13136286
29	0x3d7551a8	0.059892327
30	0xbdf10d69	-0.11770136
31	0xbe0d0677	-0.13771997
32	0xbcb99251	-0.022652777
33	0xbccd1754	-0.025035538
34	0x3e21a33e	0.15784928
35	0xbdaf4501	-0.08558083
36	0xbdb498ab	-0.088181816
37	0xbd6914b4	-0.05690451
38	0xbdacfe41	-0.084469326
39	0x3d5bb7e9	0.053642187
40	0xbd4429de	-0.04789149
41	0x3da5513e	0.08072136
42	0x3e0744ce	0.1320984
43	0x3e24d6a6	0.16097507
44	0x3aa8f35d	0.0012889911
45	0xbdc7ac22	-0.097496286
46	0x3d45a1cc	0.048250005
47	0x3e16b7eb	0.14718597
48	0xbcba012d	-0.022705639
49	0x3d03e816	0.032203756
50	0x3d9b9e29	0.07598526
51	0xbde36e34	-0.11105004
52	0xbdd8405e	-0.10559152
53	0xbe0206fd	-0.12697978
54	0x3cfccf9c	0.030860715
55	0x3dc1a897	0.09455984
56	0x3e2e1450	0.16999936
57	0x3d11efa1	0.03562892
58	0xbe2e19da	-0.17002049
59	0x3dc1c600	0.09461594

decoder.6.weight f4 [118, 60]
0	0x3d3d7c45	0.04626109
1	0x3daa6de0	0.08321738
2	0x3dab7b6b	0.083731495
3	0x3d01d427	0.031696465
4	0xbd80e0a6	-0.06292848
5	0xbc6e790e	-0.014555229
6	0x3b01f340	0.0019828826
7	0x3d4ca4cb	0.049961846
8	0x3d1b1e9e	0.037870996
9	0xbd04e383	-0.032443535
10	0xbe0b6c25	-0.13615473
11	0xbda3c4a9	-0.07996494
12	0xbc848db5	-0.016180852
13	0x3cd27e1c	0.0256949
14	0x3e137867	0.14401399
15	0xbdb692c5	-0.08914713
16	0x3d0caf1e	0.034346692
17	0xbd0bc19b	-0.034120183
18	0x3e147361	0.14497139
19	0xb9707885	-0.0002293308
20	0xbe161996	-0.14658198
21	0x3d9169c4	0.07100251
22	0x3b351552	0.0027631116
23	0x3da4535d	0.08023713
24	0xbe15c271	-0.14624955
25	0xbe15df02	-0.14635852
26	0x3c52036c	0.012818199
27	0xbdde8cb3	-0.1086668
28	0xbc2c4653	-0.0105148135
29	0xbcf053c0	-0.02933681
30	0x3d86a0fd	0.06573675
31	0x3c3d13c5	0.011540358
32	0xbd5ceab4	-0.053934768
33	0xbc77cc29	-0.015124359
34	0xbd9bc086	-0.0760508
35	0xbd86179e	-0.06547473
36	0xbdb6898e	-0.08912955
37	0xbb26fbf9	-0.0025479777
38	0xbc071545	-0.008244817
39	0x3a272eb4	0.0006377504
40	0xbd83433a	-0.06409307
41	0xbbca43b4	-0.0061726216
42	0xbd9ac748	-0.07557541
43	0xbdb98c3c	-0.09059951
44	0x3d59b29a	0.053148843
45	0x3df4e73a	0.119581655
46	0xbdcf59f6	-0.101245806
47	0xbb9f5db4	-0.004863465
48	0x3d9fd8f1	0.0780505
49	0x3deeed8b	0.116664015
50	0x3cc71e1c	0.02430635
51	0xbdcc36cc	-0.09971389
52	0xbdf59649	-0.11991555
53	0xbc5af6a1	-0.013364465
54	0x3c6e1df3	0.014533508
55	0xbcb47c29	-0.02203186
56	0x3d2048d0	0.03913194
57	0xbd445277	-0.047930207
58	0xbd849914	-0.0647451
59	0xbdd461e2	-0.10370232
60	0x3e16bb8a	0.14719978
61	0xbdefb05f	-0.11703562
62	0x3c9df700	0.019282818
63	0xbdaa0aaa	-0.08302815
64	0x3ded3d5e	0.115839705
65	0x3c9203e5	0.017824123
66	0x3e14f4bf	0.14546488
67	0xbe17b0f2	-0.14813593
68	0x3dc6fdca	0.09716375
69	0x3e0267f0	0.12734962
70	0xbdf36fe5	-0.118865766
71	0x3c3c5d4f	0.011496856
72	0x3cba1bdb	0.02271836
73	0xbdd2f460	-0.10300517
74	0xbd1821bb	-0.037141543
75	0xbc6cc03a	-0.014450127
76	0x3d5b51bb	0.05354474
77	0x3c959404	0.018259056
78	0xbd2fe8a3	-0.04294647
79	0x3dc49313	0.09598365
80	0x3da353ec	0.07974991
81	0x3dd8baad	0.105824806
82	0x3cdd49e6	0.027012777
83	0xbe163778	-0.14669597
84	0x3de3455a	0.11097212
85	0xbd537709	-0.051627193
86	0xbd5454b6	-0.0518386
87	0x3d99ff3b	0.075193845
88	0x3d612c66	0.054973982
89	0xbddec7c7	-0.10877948
90	0xbdb13bdf	-0.08653998
91	0x3c17924b	0.009251188
92	0x3d8877e9	0.06663496
93	0xbd925c5b	-0.07146522
94	0x3dd95541	0.10611964
95	0x3db0d20f	0.086338155
96	0xbe13da37	-0.14438711
97	0xbca32784	-0.019916303
98	0x3d6d8541	0.05798841
99	0xbc931d11	-0.017958196
100	0xbdafa149	-0.085756846
101	0xbd0d34bc	-0.03447412
102	0x3d439c74	0.047756627
103	0xbcab0887	-0.02087809
104	0xbdab8879	-0.083756395
105	0x3c00f13d	0.007870016
106	0x3d91cad8	0.071187675
107	0x3e04c551	0.12965895
108	0x3d8de3e9	0.06928236
109	0x3cdce4ab	0.026964506
110	0x3d22f21c	0.039781675
111	0x3e03525b	0.12824385
112	0xbdd4e128	-0.10394508
113	0xbd3ec813	-0.046577524
114	0xbd9bc110	-0.07605183
115	0xbd8a973c	-0.06767127
116	0x3d778dda	0.060438015
117	0x3db85952	0.090014115
118	0xbd81f903	-0.06346323
119	0xbd279558	-0.04091391
120	0x3d8ef6eb	0.069806896
121	0x3d43c184	0.047791973
122	0x3d46c2e6	0.048525713
123	0x3d3019fb	0.042993527
124	0xbdbc1caf	-0.091851585
125	0x3db3173f	0.08744668
126	0xbdd47f5f	-0.103758566
127	0xbd71fc38	-0.059078425
128	0x3c182d9e	0.00928822
129	0x3badac6d	0.005300096
130	0xbb6ff979	-0.0036617203
131	0xbdbf13ae	-0.093299255
132	0x3e0f42a5	0.13990267
133	0xbdc362a6	-0.095403
134	0xbc0c5b62	-0.008566709
135	0xbc812dd6	-0.015768927
136	0xbcb5e3b2	-0.0222033
137	0xbd291f4d	-0.041289616
138	0x3bcc7857	0.0062399316
139	0x3d0f3676	0.034964047
140	0xbd986e9c	-0.07442972
141	0x3dcdfc21	0.100578554
142	0xbcf1577d	-0.029460663
143	0x3dcaee5f	0.09908747
144	0xbdb9f58a	-0.09080036
145	0x3db612f1	0.088903315
146	0x3da53c66	0.08068161
147	0xbd45bd94	-0.0482765
148	0x3cb47a77	0.022031052
149	0x3dbf15f4	0.09330359
150	0xbdf652dc	-0.12027523
151	0x3db0dbb3	0.08635654
152	0x3d935970	0.07194793
153	0xbd95eaad	-0.073201515
154	0x3d6bc737	0.057563033
155	0x3d81ba84	0.06334403
156	0x3bd97e62	0.0066373805
157	0x3d9c7563	0.07639577
158	0xbdd6a60b	-0.10480889
159	0xbc249478	-0.010045163
160	0x3acaf62a	0.001548474
161	0x3dd2f34e	0.10300313
162	0x3d9f7667	0.07786255
163	0xbb557b20	-0.003257461
164	0xbd4f65f8	-0.050634354
165	0xbe1018fe	-0.14072034
166	0xbc57a943	-0.013162914
167	0xbd006b42	-0.03135229
168	0xbce119ba	-0.027478088
169	0x3c830657	0.015994234
170	0x3d89e161	0.06732441
171	0x3d89b40c	0.06723794
172	0x3b959009	0.0045642895
173	0xbd35eab9	-0.044413302
174	0x3d2395f6	0.039937936
175	0x3dbb2f33	0.09139862
176	0xbc91f02d	-0.01781472
177	0xbdfb1785	-0.12260345
178	0xbb6338b3	-0.0034671247
179	0xbd3d2f09	-0.046187434
180	0x3dee136d	0.11624799
181	0xbdeaf4f3	-0.114725016
182	0xbd61e02e	-0.055145435
183	0x3d80769b	0.06272622
184	0xbd98901b	-0.07449361
185	0xbc0371d9	-0.008022749
186	0x3da77d32	0.08178176
187	0xbdc51b0c	-0.096242994
188	0x3d7f7d20	0.062375188
189	0x3df8a452	0.121407166
190	0xbda33b9e	-0.079703555
191	0x3c51e493	0.012810844
192	0xbd8c094a	-0.06837709
193	0xbdae3e00	-0.08507919
194	0xbe02d02b	-0.12774722
195	0x3d91fc5a	0.0712821
196	0x3dbdb4f4	0.0926303
197	0xbdb718ce	-0.08940278
198	0x3da75c73	0.0817193
199	0xbd26be5a	-0.040708877
200	0x3d90bef3	0.07067671
201	0xbdaf19f7	-0.08549874
202	0x3df94185	0.121707
203	0xbe00aded	-0.12566347
204	0x3d952bba	0.07283731
205	0x3d901d77	0.0703687
206	0x3cacd03f	0.021095393
207	0x3e118c52	0.14213684
208	0x3d946391	0.07245553
209	0x3da8abc0	0.08235884
210	0xbdfd2784	-0.12361053
211	0xbdca8175	-0.09887973
212	0xbc153d6f	-0.009108885
213	0x3df8aff2	0.12142934
214	0x3d8fe1b7	0.070254736
215	0xbdf15496	-0.117837116
216	0x3db52319	0.08844585
217	0x3d03b58d	0.032155562
218	0xbccdda4e	-0.02512851
219	0xbc9e066a	-0.019290168
220	0x3d3af567	0.04564419
221	0xbd7bf647	-0.061514165
222	0x3d8edc78	0.06975645
223	0xbd960385	-0.0732489
224	0xbd07cb86	-0.03315308
225	0x3cd543d4	0.02603332
226	0xbc9681eb	-0.018372497
227	0x3e079a51	0.13242461
228	0xbda568b0	-0.08076608
229	0x3d1c11f9	0.038103078
230	0x3d9ead04	0.07747844
231	0xbcdd4422	-0.027010027
232	0x3d9af0f3	0.07565489
233	0xbe074a6a	-0.1321198
234	0xbd7956c3	-0.060873758
235	0xbddfd48a	-0.109292105
236	0x3c9c7ffa	0.019103993
237	0xbd85a35b	-0.06525298
238	0xbdc1d644	-0.09464696
239	0xbde06e08	-0.10958487
240	0x3b48c7fe	0.0030636783
241	0x3dc06915	0.09395043
242	0x3df51837	0.11967509
243	0xbc152907	-0.00910402
244	0xbcba1ffc	-0.02272033
245	0xbdbced9f	-0.0922501
246	0x3de7342a	0.112892464
247	0xbde7aa72	-0.11311807
248	0xbbc74a45	-0.0060818517
249	0xbd4eec72	-0.05051846
250	0xbdf83a63	-0.121205114
251	0x3c91f296	0.01781587
252	0xbd9f3380	-0.07773495
253	0xbd2079c2	-0.039178617
254	0x3d109015	0.035293657
255	0x3d89ae5f	0.06722712
