Baseline-models/DAGMM/DAGMM-ROAD/no--dagmm/models/7_194_dagmm.pth (torch, 82173 bytes, 22 tensors)

phi f4 [4]
00000000: 5625 7d3e 5f85 3d3e 324f d53e e6b6 1a3e
0.24721274 0.18507908 0.41661984 0.15108833

mu f4 [4, 3]
00000000: e036 00bd 3ec2 ab3f a536 ffbd 968f d63c
00000010: b434 a73f 6ddd 9fbd c367 d1bd 4a4b b13f
00000020: 8c39 3abe f51d 983d da6d a33f 6b86 20bd
-0.031302333 1.3418653 -0.124615945 0.026191514 1.3062959 -0.078059055 -0.10224869 1.3851101
-0.18186015 0.07427589 1.2767899 -0.03919069

cov f4 [4, 3, 3]
00000000: 5617 d33e 8b90 80be 7742 aa3e 8b90 80be
00000010: a8ca 1c3e ba76 4fbe 7742 aa3e ba76 4fbe
00000020: 1e57 893e 43bd e63e b290 8cbe a31c ba3e
00000030: b290 8cbe 5564 2b3e 88ce 62be a31c ba3e
00000040: 88ce 62be 4920 963e 12c2 b73e 86b6 5fbe
00000050: 0e30 943e 86b6 5fbe d85f 083e b87b 34be
00000060: 0e30 943e b87b 34be f708 6f3e 9e0a f43e
00000070: 55b3 94be c6da c43e 55b3 94be 8153 353e
00000080: c0f0 6fbe c6da c43e c0f0 6fbe f6cc 9e3e
0.4122874 -0.25110278 0.33253834 -0.25110278 0.15311682 -0.20260134 0.33253834 -0.20260134
0.26824278 0.4506627 -0.27454144 0.36349973 -0.27454144 0.16737492 -0.22149098 0.36349973
-0.22149098 0.29321507 0.3589025 -0.21846971 0.28942913 -0.21846971 0.13317811 -0.1762532
0.28942913 -0.1762532 0.23343264 0.4766435 -0.2904307 0.3844816 -0.2904307 0.17707635
-0.23431683 0.3844816 -0.23431683 0.31015748

encoder.0.weight f4 [60, 118]
00000000: ff41 e2bc 9c2f b13d 5ed0 943c 2e2c c5bb
00000010: 3531 a53d 1692 12bd bfee f33c de9b 543d
00000020: 1de8 91bd 2a18 7f3d c03f 013d 7997 193c
00000030: d2b9 233d 4952 2e3d 7ec8 81bd 74d8 42bd
00000040: 05f4 8d3d 08c7 4dbd 8c94 efbc 0b1e 9fbd
00000050: a026 d1bc 99c0 01bd 10f7 063d 52c9 76bd
00000060: 2466 ad3d 331f 6f3d 67a7 ac3d 7d0c 05bd
00000070: 0f85 39bd 5b7d c0bd 1a5d b4bd 9ac6 b2bc
00000080: 381c 643d 26b7 ea3c 9ec6 37bd 74ff 473d
00000090: 9c26 cabc 8305 71bd 2a7a 93bc c190 80bd
000000a0: d251 353d 7ece 043d 38b1 d53c a37e 08bc
000000b0: 7ba2 17bd d0cf fa3b 31bb a4bd aee4 14bd
000000c0: a9b0 0fbd 26d3 9bbd bc2c 1fbd fcf5 c2bc
000000d0: 3a0c cabc a7ca 45bc d90c f13a 41b6 b6bd
000000e0: a107 2bbd c43b 66bc 60ef f1bb bb69 9abc
000000f0: c0da cbbb 9baf 27bd fd04 9f3d 9272 193d
00000100: 8675 9a3d 5bfe 973d ba08 833d c0d7 94bd
00000110: 3999 253d f582 8d3d a016 c73d 150c 093d
00000120: 6454 773d e33c 6bbd 79f5 1e3d 3b60 9fbd
00000130: f361 1cbd c9c6 5abc 963e a9bd faf4 e8bb
00000140: 2547 01bd 4d4c e13c 820c 5cbd e2fa db3b
00000150: a523 8c3d 702f e4bb e632 a0bd b79b 353d
00000160: efd3 c0bd 2de4 943d a83c dd3b 95a3 333c
00000170: bcd5 94bd 07eb bd3c 6e0e 133d a964 9d3d
00000180: a83e 033d 0048 1739 9e46 843d f697 49bd
00000190: 8157 733d 0274 813d 94e9 45bd 36e7 e8bc
000001a0: a64f 293b e654 2f3d 802e ff39 6b5e 92bd
000001b0: b090 593d 1230 d33c 7e5f 40bd 27c5 8e3c
000001c0: c778 d8bc 7514 9cbd 67c9 933d 7b12 75bc
000001d0: 34e2 643d e8af e6bb dee6 06bd 487a 823d
000001e0: d64e af3d a913 44bc e4d8 41bc c335 8bbd
000001f0: 8c83 83bd 0f63 063d 425e 12bc f6c6 523d
00000200: c031 2c3d 66a9 053d 6f4b 8bbc 1ece 003d
00000210: c89e c7bc 0d59 19bd 8bf1 0e3d 02e9 dabc
00000220: b405 283d c1e6 04bd 2c04 1f3d fb40 923d
00000230: 8198 983c 0523 3ebd 6313 a93c dc6e 71bd
00000240: f174 62bd 8ffc dabd b85f 903d b2ae a7bd
00000250: 02bb 6d3c 104a 463b fc59 a03d db07 173c
00000260: b265 893c dac2 88bd f0b9 0d3d e23e a13d
00000270: f80e 93bd bb41 c9bc 0795 b5bd ee0f 9b3b
00000280: a402 e03c addc 0fbd 5991 a8bc 8f5f 0dbd
00000290: 5893 b1bc 0d92 153d fac2 c63d 3fb8 b63d
000002a0: f813 13bd c586 e73b 31a4 92bd 145e 873d
000002b0: d0af 92bd 9f03 ec3c 3d12 98bc 5dbe 593d
000002c0: 3799 923d 90c4 64bc e3cf b53d 146d f2bc
000002d0: 67f6 603d 80ec aa3c fc8e 993d 6d8f 3c3d
000002e0: e29e 45bc a86c 473c f49d 733b 99fa 59bd
000002f0: 68a1 acbc 6692 f4bc 8908 643d 9e42 493d
00000300: c6cc 903d a919 07bd b80b 86bc 2626 9c3d
00000310: 875f d53c 59e4 2f3a 0e72 a2bb 8525 b43c
00000320: 6cd5 99bd 73e9 6cbd 66a7 93bd d626 383d
00000330: 728b efbb 88eb f4bd 8d2d aebb 34ad 06bd
00000340: 73b7 6f3d 886b b13a 44aa acbd bdc2 8d3d
00000350: 8cd8 02bd 1536 31bd 73d4 52bd 7c96 7dbd
00000360: cc06 ccbc 7c2c acbd a9a4 8bbc f36d 4fbd
00000370: 53eb ea3d 5e61 99bc ef67 c13d a1b5 3fbd
00000380: 7160 1a3c 932e d03c be35 82bc 7fc4 d2bd
00000390: 88c9 babc 3294 173d 19ad 14bd 108a 5c3a
000003a0: 4700 6f3c f5cb c73d c532 1abd 3063 79bc
000003b0: 0d6e d2bb 0165 6fbd 6d7c 963c 9c73 2dbd
000003c0: 268b 303d 611c bbbd 939f b8bd 2333 2b3d
000003d0: afcf 963d 57be 20bc e195 c23b f0ed a03b
000003e0: 9079 9c3d 5ea3 333d 10f3 063c 4518 733d
000003f0: 5cd5 0f3d c761 2a3c df80 0c3c d718 a33d
-0.02761936 0.08651659 0.018165763 -0.0060172295 0.08066026 -0.03578385 0.029776929 0.05190646
-0.0712435 0.062278904 0.031554937 0.009374493 0.039972134 0.042558942 -0.06337069 -0.047569707
0.06931309 -0.05023864 -0.029245637 -0.07769402 -0.025531113 -0.031677816 0.03295046 -0.060250588
0.084667474 0.058379363 0.08430367 -0.032482613 -0.04529291 -0.0939891 -0.0880682 -0.021823216
0.055690974 0.028651785 -0.04486715 0.048827603 -0.024676614 -0.058843147 -0.018002588 -0.062776096
0.044267483 0.03242349 0.026085481 -0.008330974 -0.037020188 0.0076541677 -0.080435164 -0.0363509
-0.035080586 -0.07608633 -0.03886102 -0.023798935 -0.024664033 -0.012072242 0.001839067 -0.08921481
-0.041755322 -0.014052335 -0.007383272 -0.018849244 -0.0062211454 -0.040938955 0.07764623 0.03746278
0.07541947 0.07421561 0.06398149 -0.072677135 0.040429328 0.06909744 0.09721112 0.033458788
0.060383216 -0.057431113 0.03880832 -0.077820264 -0.03817935 -0.013353058 -0.082638904 -0.0071092816
-0.03156199 0.027502203 -0.053722866 0.006713257 0.06842736 -0.006963663 -0.07822208 0.044337954
-0.09415423 0.072700836 0.0067516156 0.010964294 -0.07267329 0.023183359 0.035902433 0.07685215
0.032042176 0.00014427304 0.06458782 -0.049217187 0.059409622 0.06320955 -0.04831846 -0.028430562
0.0025834828 0.042805575 0.00048672035 -0.07146915 0.0531165 0.025779758 -0.04696607 0.017427994
-0.026424779 -0.07621089 0.07216149 -0.014958019 0.055879787 -0.0070400126 -0.032935016 0.063709795
0.08559959 -0.011967578 -0.011831496 -0.067973636 -0.06421575 0.032809313 -0.008933606 0.051459275
0.042039633 0.032632254 -0.017003743 0.03144657 -0.024367705 -0.03743844 0.034898322 -0.026722435
0.041021064 -0.032446627 0.038822338 0.071413 0.018627407 -0.046420116 0.020639127 -0.058943614
-0.055287305 -0.10692703 0.07049507 -0.08187617 0.014509918 0.0030256547 0.07829663 0.0092181815
0.016772125 -0.0667779 0.034601152 0.07873322 -0.071805894 -0.024567476 -0.08866315 0.0047321236
0.02734501 -0.035122562 -0.02057712 -0.03451496 -0.021676704 0.036516238 0.097051576 0.08921861
-0.035907716 0.0070656263 -0.07160223 0.06609741 -0.0716244 0.02881032 -0.018563384 0.05316006
0.0715813 -0.01396288 0.08877542 -0.029593028 0.054922488 0.020864725 0.07497975 0.04603522
-0.012061806 0.012171902 0.0037173005 -0.053217504 -0.021073058 -0.029854964 0.055672202 0.049135797
0.070703074 -0.032983456 -0.01636301 0.07624464 0.026046528 0.00067097467 -0.004957444 0.021990547
-0.0751141 -0.057839822 -0.07209663 0.04495891 -0.0073103243 -0.119589865 -0.0053154887 -0.032880023
0.05852456 0.0013536075 -0.08430913 0.06921909 -0.031944796 -0.043264467 -0.05147214 -0.06191109
-0.024905585 -0.08406922 -0.01704629 -0.050641965 0.11470666 -0.018723186 0.09443652 -0.046804074
0.0094224075 0.025412833 -0.015894767 -0.10291385 -0.022801176 0.037006564 -0.03629789 0.0008412907
0.0145874685 0.097556986 -0.037646074 -0.015221402 -0.0064218105 -0.058445934 0.018369878 -0.04234658
0.043101452 -0.09136272 -0.09014811 0.041796815 0.07363831 -0.009811006 0.005938277 0.004911177
0.07640374 0.04385697 0.008236662 0.059349317 0.035115585 0.0103992885 0.008575647 0.07963722

encoder.0.bias f4 [60]
00000000: 6b5c b53c 313c a03d a893 b13b f5fc 3d3d
00000010: 2ece 74bd 0ee1 f23c 0a2b bcbd c4f0 bebc
00000020: 476f 813d ec4a a03d d5e3 e7ba 6924 04bd
00000030: 90f7 4abd fa4b 6d3d 343b e9bc 7a80 8dbd
00000040: 9dec 92bc f520 843d 8d0d 65bd bd50 e63d
00000050: a937 18bb 9fbf 473d d48e e3bd 8b3f d6bb
00000060: ae77 183d 5440 9f3c ac72 1d3d a152 f3bc
00000070: 374f 92bc 2d52 a33d 4456 4a3d ffea 53bc
00000080: 13ca 843d 6155 8bbd 2a03 d33c ee00 aebd
00000090: f732 923d a69d eb3d ce9e 60bd 0009 d63b
000000a0: dc92 4ebd e2b9 e1bc a569 9f3c 26a0 c9bc
000000b0: 4160 19bd 5207 09bd bf2f 0b3d d19c 20bd
000000c0: b1e8 3fbd a96e 71bc 6647 0bbd 9246 46bd
000000d0: 98ed 93bd 90d1 34bd dc34 13bc 9825 57ba
000000e0: 2c40 ee3c 5859 0f3c f8e1 02bd 5b72 883d
0.022138795 0.078239806 0.0054192133 0.046383817 -0.05976694 0.02964833 -0.091878965 -0.023308165
0.063200526 0.0782679 -0.0017691801 -0.032261286 -0.0495525 0.057933785 -0.028470613 -0.069092706
-0.017935092 0.064515986 -0.055921126 0.11245868 -0.0023226535 0.04876673 -0.11111227 -0.0065383366
0.03722351 0.019439854 0.038439438 -0.029702486 -0.017860038 0.07974658 0.049398676 -0.012934445
0.06483855 -0.06803394 0.025758345 -0.08496271 0.07138627 0.115046784 -0.054838948 0.0065318346
-0.050433025 -0.027554456 0.019459555 -0.024612498 -0.03744531 -0.033454247 0.03398108 -0.03921205
-0.04685277 -0.014735856 -0.034003638 -0.048407145 -0.07223052 -0.044145167 -0.008984771 -0.0008207201
0.029083334 0.008749329 -0.03195378 0.066624366

encoder.2.weight f4 [30, 60]
00000000: b668 03be 7e3b d43d 1a19 61bd b42e 8cbc
00000010: 973d c7bd 5adf 613d 257d 9abd 5379 bd3d
00000020: 5e12 be3d fb3b 42bd a21e 8a3d eb8d 02bc
00000030: 060a f2bd 66d1 afbd 7325 f33d a606 303d
00000040: 44c9 f4bb 7b04 24bd d49d db3d 142d 0cbd
00000050: f599 e53d c015 efbd 6c16 dcbd b556 f93c
00000060: 2651 cf3d 503c 483d 8435 42bc 4f13 c03c
00000070: 109a f13d db68 08be f625 5b3c e82e 91bd
00000080: ab5a 6e3c c23c 35bb 3c67 fabc 439b 823c
00000090: 126d 933d ccaf 99ba 51b5 7b3c 2ab0 8d3d
000000a0: b191 0f3e 1eb0 8ebd 61f6 c3bd 2bf0 f1bd
000000b0: 36bf eebd bc1d 9cbc a713 5cbd 2a68 f7bd
000000c0: ee53 89bd f88b f53c ff16 d73d 9b5b fa3d
000000d0: 3fa7 9c3d c4c9 37bd a3c5 983c 0dc3 8e3c
000000e0: 0525 c5bd 412c 103e ace5 00be 3dd8 e63d
000000f0: 5140 c4bd 248b d73b d661 db3d b0d0 7abd
00000100: a484 d43d c98e a9bd f1fe 963d 66c3 fc3d
00000110: 3875 e33d 8e4e 7a3d 2809 203d 4c45 f73d
00000120: 01e6 143d 9369 63bd 6b2a 553d 3f1c d8bd
00000130: a2ab 98bd a348 483c 9f3c 0e3d c7b3 43bd
00000140: be0b d4bd 03a9 fa3c 98b0 2a3c 90f8 02bc
00000150: 9d89 8dbb b9c7 183d 9376 ae3d 5579 013e
00000160: 9d99 893d 8351 32bd 8104 da3c 4b70 d7bd
00000170: 0155 923d ac7c c6bd 2fd7 c6bc 6d64 cf3d
00000180: 1a16 5a3d 0835 eebd 6ac8 c13d d8ab c63d
00000190: d116 9d3d bf75 973d e5e5 a8bd bace 00be
000001a0: 332b ba3d 5d64 e8bc cb13 6d3d 2df1 8d3d
000001b0: 15a2 8c3d c842 99bd db0c dfbd 9b1c f4bc
000001c0: 35d5 61bd 6565 d7bd 374d c23d 1c6f 0e3e
000001d0: e99b 0dbd 13b7 a43d 4662 633d 7774 563d
000001e0: e481 cebc 4e01 a0bd 096b 0bbd 5e91 c73c
000001f0: c795 9e3d 4688 583d 8967 d53d 6665 88bd
00000200: 5735 7bbd 39b4 8cbd 21f8 c2bd 9ab7 efbc
00000210: 90ef 8bbd 7f1e 8b3d bfc2 d83c 73a2 f7bc
00000220: e831 c23d b327 9c3d ef88 cbbd 3deb 013a
00000230: c87c b63c 1f53 8e3d 8916 0dbe 8967 12be
00000240: 6ae1 10be fb71 d6bb 2fd9 103e 8f5c 703d
00000250: ecf6 03be 39ef e23d aabc 98bd f4f8 bcbd
00000260: c547 083e 9871 2b3d 7a61 523d df89 59bb
00000270: 5d7e e93c 9ca2 763c 6d65 cd3c a98e e4bb
00000280: 97e5 0abe 317c 033e 34d6 db3d e664 43bb
00000290: 8f93 d0bc c49a e03d 100c ea3d 3707 793d
000002a0: c422 9d3d 79e8 e0bd 7034 723d 48db e23d
000002b0: 1334 a9bd 7547 103e e436 d1bd c576 0dbe
000002c0: 3b1e a3bd 1d62 cbbc 4aa2 d3bd 4f40 60bd
000002d0: ebe8 e13d b6c3 8c3d 4936 90bc fc9c e1bc
000002e0: e724 04be 4bae 103e 6bd5 49bd 4a9a f9bb
000002f0: dd51 8abd ab28 c3bd 2f40 0abe 5bc8 f5bd
00000300: 34bb 02bc 81b5 703d 6fe4 913d d530 f2bc
00000310: 612e 803c 0457 9f3d 3b02 8f3d 6a70 0c3e
00000320: e00d 08bd baca 06bd d74e a2bc 395e 913d
00000330: 43a7 af3c 3be2 10be ff7b cf3d f271 f4bb
00000340: 2894 eebd 0321 123e 9f9e a9bd bd65 e3bb
00000350: 12df 87bd 2ed1 a6bd 2033 dfbd 6b38 9f3d
00000360: 32df 883d 5b4f 2cbd 413c 893d 96c9 e6bd
00000370: d05b 50bd f309 1e3b 8c59 df3d 213b db3d
00000380: 2db7 aebd c80d 413d 1669 bcbc 1f56 c83d
00000390: 726e 93bd 0504 f9bd ba92 19bd 710f 313d
000003a0: ae20 58bd d855 763d cde7 0abe 6037 f2bd
000003b0: 6caf 183d a8bd 0bbe cf7d 6b3d 5725 6d3c
000003c0: bca5 ec3d 3198 debc 8d56 b8bc ace1 10be
000003d0: 3f4d 9fbd 56d3 8cbd 667c 06be ca65 b0bd
000003e0: 82e1 bc3d b008 b5bd d4db 1bbe 445d 0abe
000003f0: 703b b9bd 092c 993d 0250 e3bd 69b5 6dbd
-0.12832913 0.1036291 -0.05495558 -0.017112114 -0.09728544 0.055144645 -0.07543401 0.092516564
0.09280847 -0.047420483 0.06744124 -0.007968406 -0.11818318 -0.085848615 0.11872377 0.04297509
-0.007470282 -0.040043335 0.10723463 -0.034222677 0.112110056 -0.1167407 -0.10746464 0.030436853
0.101229 0.048885643 -0.011853579 0.023446707 0.11796963 -0.13321249 0.01337575 -0.07089025
0.014547984 -0.0027654623 -0.030566804 0.015943175 0.07198538 -0.0011725365 0.015363053 0.06918366
0.1402042 -0.069671854 -0.095684774 -0.118133865 -0.11657564 -0.019057147 -0.05372968 -0.120804146
-0.067054614 0.029973969 0.10502433 0.122245036 0.07649087 -0.044870153 0.018648928 0.017426992
-0.096262015 0.14079382 -0.12587613 0.11271713 -0.0958258 0.006577866 0.1071202 -0.061234176
0.10376862 -0.08279187 0.07372845 0.12341957 0.11106342 0.06111007 0.039071232 0.12073764
0.03635216 -0.055520605 0.052042406 -0.105522625 -0.07454611 0.012224349 0.03472578 -0.04777887
-0.10353802 0.03059817 0.01041808 -0.007993832 -0.0043193833 0.037299845 0.0851871 0.12643941
0.067187525 -0.043534767 0.026613476 -0.10519465 0.071451195 -0.09691748 -0.02427253 0.101265766
0.053243734 -0.11631209 0.09462054 0.09700745 0.076703675 0.07395505 -0.08246974 -0.1257886
0.09090271 -0.02836817 0.057880204 0.06930766 0.06866852 -0.07483441 -0.10891124 -0.029798796
-0.05513497 -0.10517386 0.09487384 0.13909572 -0.034572516 0.08042731 0.055513643 0.052357163
-0.025208421 -0.07812749 -0.034037624 0.024361309 0.077434115 0.052864335 0.104201384 -0.06659965
-0.061330166 -0.06870312 -0.09519983 -0.029262353 -0.06832802 0.06792926 0.02646005 -0.030228829
0.09482175 0.076247595 -0.099382274 0.00049560127 0.022276297 0.06949448 -0.13778128 -0.14297308
-0.14148489 -0.0065443492 0.14145349 0.05868202 -0.12887162 0.11080784 -0.0745786 -0.092271715
0.13308628 0.04185638 0.051362492 -0.003319375 0.028502638 0.0150534175 0.025072778 -0.006975014
-0.13564144 0.12840344 0.107342154 -0.0029814779 -0.025460986 0.10967019 0.11428082 0.060797896
0.07672647 -0.10981841 0.05913204 0.11076981 -0.082618855 0.14089759 -0.10215548 -0.13814838
-0.079647504 -0.024827057 -0.103336886 -0.05474883 0.11030754 0.068732664 -0.01760401 -0.027540676
-0.12904702 0.14128987 -0.049275797 -0.0076172696 -0.067538954 -0.09529241 -0.13501047 -0.120011054
-0.007979203 0.058766846 0.071236484 -0.0295643 0.015647115 0.07780269 0.06982847 0.13714758
-0.033216357 -0.03290818 -0.019812984 0.0709805 0.021442061 -0.141488 0.10131072 -0.0074598724
-0.11649352 0.14270405 -0.08282208 -0.0069396184 -0.06634344 -0.081453666 -0.10898423 0.07774433
0.06683196 -0.042067867 0.06700946 -0.11268918 -0.05086881 0.0024114817 0.109057516 0.10704637
-0.08531032 0.047132283 -0.022999328 0.09782051 -0.071988 -0.1215897 -0.037493445 0.043227617
-0.05276554 0.06014046 -0.13564987 -0.11826968 0.03727667 -0.13646567 0.057493027 0.014474235
0.11555049 -0.02717218 -0.022502208 -0.14148587 -0.077784054 -0.06876247 -0.13133392 -0.08613165
0.092227 -0.08839548 -0.15220577 -0.1351214 -0.0904454 0.07479102 -0.11099245 -0.058034334

encoder.2.bias f4 [30]
00000000: 876b dabd 39da a1bc 01e7 c33d 9846 c7bc
00000010: 9e7a 9a3d 7d86 053c 784d 983d fcf1 dc3c
00000020: 22b1 9d3c 6fa9 cfbc 3dc8 85bd ba36 d13d
00000030: 4e47 633d 908a 583c 9040 0d3e e861 113d
00000040: 3272 b4ba 0f0d 833d 48c6 803d c2d6 e73c
00000050: 10b4 5e3d 0b74 863d b5fe 0cbd ce37 a23d
00000060: 00d4 be3d 873a d63d 922c 453d c4e5 183d
00000070: 9fbe bc3d 20a1 773d
-0.106650405 -0.019757377 0.09565545 -0.024325654 0.075429186 0.00814974 0.07436651 0.026970856
0.019249503 -0.025349347 -0.06532333 0.102155164 0.055487923 0.01321663 0.1379416 0.03549376
-0.0013766943 0.06398975 0.06287819 0.028300647 0.05437094 0.06565102 -0.034422595 0.079208
0.093177795 0.10460382 0.04813821 0.037328497 0.092160456 0.060456395

encoder.4.weight f4 [10, 30]
00000000: fde6 1cbe e31d 2e3e 4599 95bd 94ac 53bd
00000010: bec0 cb3d 5384 ac3c f653 79bd 446d 11be
00000020: 2525 24be 25d2 3ebd c185 8c3d 6737 32be
00000030: a97b 853d 8b00 523e 2c5c de3c ff9d 2e3e
00000040: 9796 393d cdc3 49be 86fb debc d3f6 143e
00000050: 02a6 89bd a4a5 dabb a5a4 ecbd 2488 f53d
00000060: 8a57 9abc dec7 95bd d71d d93d e3ab 123e
00000070: 6792 f93d b30f 913c 66af 313e 619e 98bd
00000080: baf0 79bd 97bc f1bd ec0f 2d3d 2189 09be
00000090: 4a3e ae3d 61c1 af3d 903d f0bd 650a 9a3d
000000a0: 848b eebc cede 2bbe f0eb 203e d175 06bd
000000b0: d090 5cbd 95e5 91bd 05bd 103d f6fe 36be
000000c0: a3e5 06be bae1 293e f4cc 363e 1889 d5bd
000000d0: ace2 bc3d dc04 573d bbc3 12be a91a 35be
000000e0: 7dfe a03d 5688 b43d 1cb2 42be 7f24 f1bb
000000f0: 2db5 0ebe f7d5 a6bd 22b2 48bc b72a 2f3e
00000100: e2b6 aa3d 3b8e 14be b931 35bd db52 403e
00000110: 16d4 36bd c585 1ebd 3823 06bd 6487 17be
00000120: 4573 01be f466 083e 7dfb ecbd 49da c3bc
00000130: 1ec3 303e da6a 193e c149 21be c5b5 cb37
00000140: 1a76 41be b997 5cbd 9a89 92bc 0953 fc3c
00000150: f6fc 8bbd f153 383e 061f fcbd e003 1e3e
00000160: 13d1 3c3e e00d be3c 7c5e e8bd 1de2 c8ba
00000170: a9a8 a83d 357c e73c 6916 3e3e 4e5e 20bd
00000180: e47e 4e3e bd39 3fbd 7cfb 3ebe b462 67bd
00000190: 89c4 d039 e957 133e e9ec 18bd a985 013e
000001a0: d548 293e 99ef 1d3d 3081 113d ef7a cabb
000001b0: 97ca 1dbd 84ea 943d 3e0c 32bd 1f6b 02be
000001c0: 6dc6 5f3d 1f03 fa3d d4b4 cabc 8ffe 14bd
000001d0: 0dc8 323d 1c24 243e 9135 0bbe 18e4 d6bd
000001e0: 7cb7 493e 5fda 293c 6431 fabd db1c 2ebe
000001f0: 8413 c4bc 552a 8ebd ccda 3bbe cc29 05bd
00000200: 109d b23d 7bcc 803d cce4 f5bd f352 803d
00000210: 38eb 133b 78d8 14be c8e0 a4bb 84e6 3dbd
00000220: e1a9 32be 0c51 0fbe 0287 a33c 6052 b1bd
00000230: a228 04be 3476 6d3b 5ff8 02be 7e3d d3bd
00000240: 520c 6bbd 3d64 923d ee70 b93c 29c4 53bc
00000250: 6a51 34be 57d5 35bb 35f0 6bbd a5f3 b73d
00000260: 46c9 66bd eca6 193e b2fe 713d 8c28 2a3d
00000270: 2a78 d63d 8877 a2bd efc8 08be cdd1 293d
00000280: 3b55 fcbd 3b77 3fbc aebc 1dbe 213b 013e
00000290: 881a 1a3e 2bd5 0d3e 1495 c73d 071f 39be
000002a0: fb5b d8bd ccd7 a3bd 144e 3b3a c596 01bd
000002b0: d1f7 d63d d9f4 793d 61b0 eb3d 34d1 a93d
000002c0: 40fd 14be e6a3 3cbd 3c21 fa3c 8c75 30be
000002d0: e2d9 863d 8993 acbd 5dce 303d a76b 0b3e
000002e0: 1e11 e43d 12e1 2ebe 4eb1 273d ebc1 c1bd
000002f0: 0565 1c3e 90f3 ec3d 4221 3e3e 6b73 8d3d
00000300: ae44 813d 3801 12bd 7cbb c83c 796f 1abe
00000310: 1e47 f1bd 4362 a1bd 9aab 883d 0884 09be
00000320: c34b 29be cc2b f6bd 4aa5 4f3e 8721 b8bd
00000330: bc0e 19be d9cc a33d 7d95 4dbe 953d 113e
00000340: 373d 073e f733 2abc 7039 1fbb 5b33 743d
00000350: f121 09bd 2cae f93c 450b d0bd 62d4 593d
00000360: 284e a33d cc23 103e 2819 98bd 87e7 c73d
00000370: 7d98 d6bd 5f2f 0d3e f059 873d 1455 693d
00000380: 3ebd b1bd 2493 39be 17b9 21be b4dd 09be
00000390: c55b fabc 5866 f23c 7539 a7bd 8aa0 97bd
000003a0: 981b 1b3e 7203 9d3d 2013 1dbe 3b5b af3d
000003b0: 138e e83d e1b4 95bd cd38 3d3e 4704 ec3c
000003c0: b146 a2ba 3dfb 103e 5288 aabd fc5d 973d
000003d0: 0281 a0ba 6239 d7bd 5b7b be3d 3f97 22be
000003e0: 750a 1b3e 63bb 773d 8988 07be 5368 8abd
000003f0: b159 513e 4fd1 543e 53e9 183d 41ca 233e
-0.1532249 0.17003588 -0.073046245 -0.051678255 0.09948872 0.02105919 -0.060871087 -0.14201838
-0.16029795 -0.04658713 0.06861449 -0.17403947 0.06517727 0.2050802 0.02714356 0.17052458
0.04530963 -0.19703598 -0.027219545 0.14547281 -0.067211166 -0.006672578 -0.11554841 0.119888574
-0.01884057 -0.07313512 0.106013946 0.14323382 0.12186127 0.017707681 0.17352065 -0.074520834
-0.06102059 -0.11803549 0.042251512 -0.13431217 0.085079744 0.08581806 -0.11730492 0.07521514
-0.02911926 -0.16784212 0.15715003 -0.032827202 -0.05384904 -0.071238674 0.035336513 -0.17870697
-0.13173537 0.16590014 0.17851621 -0.10426539 0.09222922 0.05249487 -0.14332478 -0.17685951
0.0786104 0.088150665 -0.19013256 -0.007359087 -0.139363 -0.08146279 -0.012249501 0.17106138
0.083356634 -0.14507382 -0.044236872 0.18781607 -0.044635855 -0.03870179 -0.03274843 -0.14797741
-0.12641628 0.13320524 -0.11571405 -0.023907797 0.17261931 0.14982167 -0.15750791 2.4284129e-05
-0.18892708 -0.05385563 -0.01788788 0.030801313 -0.06835358 0.18000771 -0.12310605 0.15431166
0.1843913 0.023199975 -0.113461465 -0.0015326176 0.08235294 0.028257469 0.18563236 -0.039152436
0.20165592 -0.046685923 -0.18650621 -0.056490615 0.00039819282 0.14389004 -0.03733531 0.12648644
0.1653169 0.038558576 0.035523593 -0.0061792056 -0.038523283 0.07271293 -0.043468706 -0.12736176
0.054632593 0.122076266 -0.024744429 -0.03637558 0.043647815 0.160294 -0.13594653 -0.10492724
0.196989 0.010367005 -0.12216452 -0.17003195 -0.023935087 -0.06941668 -0.18345183 -0.032510564
0.087213635 0.062890016 -0.1200653 0.06265821 0.0022570621 -0.14535701 -0.005031679 -0.046362415
-0.17447616 -0.1399576 0.019961838 -0.0865829 -0.12906125 0.0036233785 -0.12790059 -0.10314463
-0.057384796 0.07148025 0.022636857 -0.012925186 -0.17609182 -0.0027745569 -0.057602126 0.089820184
-0.056344293 0.15005082 0.059080787 0.041542575 0.10472138 -0.07932955 -0.133579 0.041459847
-0.12320944 -0.011686142 -0.15404007 0.12620212 0.15049183 0.13850848 0.09745231 -0.18078242
-0.10564419 -0.08000144 0.00071451184 -0.031637926 0.10496486 0.06102452 0.11508251 0.082918555
-0.14549732 -0.046054743 0.030533426 -0.1723234 0.065845266 -0.084265776 0.043165553 0.13615285
0.11136077 -0.17078045 0.040940575 -0.09460815 0.15272911 0.11569893 0.18567374 0.0690678
0.06311928 -0.035645694 0.024503462 -0.15081586 -0.11781143 -0.0788007 0.066733554 -0.13429272
-0.16532807 -0.12020072 0.20277897 -0.0899077 -0.14947027 0.07998056 -0.20076557 0.14183648
0.13206945 -0.010388366 -0.002429571 0.05961929 -0.033479635 0.03047856 -0.101583995 0.05318106
0.079738915 0.14076155 -0.07426673 0.09760957 -0.104783036 0.13787602 0.06608951 0.056965902
-0.08678673 -0.18122536 -0.15793262 -0.1346348 -0.030561337 0.029589817 -0.08165256 -0.07403667
0.15147245 0.07666673 -0.15339327 0.08562323 0.113552235 -0.073098905 0.18478699 0.028810633
-0.0012380687 0.1415834 -0.08326782 0.07390973 -0.0012245479 -0.10508992 0.09300872 -0.15878008
0.15140708 0.06048144 -0.13235678 -0.067581795 0.20444371 0.2078297 0.03733189 0.15995122

encoder.4.bias f4 [10]
00000000: 8f9a 76bd 7a7d 8abd 51b4 f83c aea8 4fbd
00000010: 21a1 9f3d ce07 1c3e d21c f9bd 58c6 c0bd
00000020: 4df3 63bd 5d3b a7bc
-0.060205992 -0.06762214 0.030359419 -0.050697975 0.07794405 0.15237352 -0.121637 -0.09412831
-0.05565195 -0.020414049

encoder.6.weight f4 [1, 10]
00000000: 2fd6 a4be 40d1 12bd bdae a83e 8b3f 713e
00000010: 5478 04be c835 1ebb fd0a 483e 9690 1c3d
00000020: 7f70 aebe 7326 58be
-0.3219466 -0.035844088 0.32945815 0.23559396 -0.12936527 -0.0024140943 0.19535442 0.038223825
-0.34070203 -0.21108417

decoder.0.weight f4 [10, 1]
00000000: b9b6 bd3e 2ef3 36bf ff63 ca3e 010f 5f3f
00000010: dbc2 31bf dbaf d6be 6fcc e83e 0210 633f
00000020: 3bab 6a3e 2c00 26bf
0.3705347 -0.7146481 0.39529416 0.8713227 -0.6943795 -0.41931042 0.4546847 0.886963
0.22916882 -0.6484401

decoder.0.bias f4 [10]
00000000: fd11 803f b864 4dbe 310b f03d a00e 453b
00000010: 8cc3 943e 50a7 02bf a0e3 463c db0c 45bf
00000020: 22f0 35bf 5e78 3ebf
1.000549 -0.20057952 0.117208846 0.0030068532 0.2905544 -0.5103655 0.012139231 -0.7697274
-0.7106954 -0.74402416

decoder.2.weight f4 [30, 10]
00000000: eeb0 9f3d 4b0c 36be 830a 23be 6544 813e
00000010: 9b4b 16be 57c6 a2bd 9173 1f3c 4f70 67be
00000020: 1211 82bb 7ea5 f73c a259 523d 5b92 f63d
00000030: 00fc 41bd 5be9 a9be f81f f23d db0c a83e
00000040: 31c6 07be 5b47 5e3e f617 953e d522 38be
00000050: 861d 75be a442 9fbe a88e d73c 342c 1b3e
00000060: e90d a2be a2a5 a23e 580b 63be 0ec0 ebbd
00000070: a9f3 773d 3fcc aebc b242 973e 64da 89be
00000080: 1e38 1d3e b7b6 a33d 157f 833d 4736 18bd
00000090: f12f 1d3e f444 4fbd 0a41 163c 0208 2f3e
000000a0: fa25 aebc 6cd1 5b3e d86b c13d f405 8abe
000000b0: cec1 b43d 4fe2 c13d 3f4f a23e 8961 01be
000000c0: 8835 02be 7eed 6b3e 690a 263e 8711 9c3e
000000d0: ddb8 be3c 72ef 113e e9a4 8bbe 2354 8b3e
000000e0: b5bd afbd 9214 aabe b1a5 f7bd 37f7 1fbe
000000f0: 7e6c 9d3e 23c5 063e 72e3 a23e d90f 33be
00000100: 51f0 2b3e b1e0 77bd 4150 61bc 3cff de3a
00000110: 11f5 663c 893e 993e bf67 f3bc dfb6 29bc
00000120: 15b8 363e 631c 3c3e 03c6 163e 43a4 273e
00000130: a3be a03e a203 813e b0d0 b1bd 6f48 2b3e
00000140: ec39 28bd d038 6bbe 0be8 90be 8c79 7e3e
00000150: 0d57 0ebe 552b a6bd abc5 8dbe 99a2 bcbd
00000160: 40bd ac3e 9688 92be 83ca d4bd 597b 9abc
00000170: dfd2 20be a4a2 443e 89a4 da3d f84c 1fbe
00000180: 988d 10be 8ad7 9e3d aa31 c9bd 6364 02be
00000190: 17b5 393e 2b79 29be cc46 9dbe 0814 92be
000001a0: b84c a93d 9275 cf3c c18c 593e 27e9 983e
000001b0: ba62 8a3d d3ba 843d ea5c 893b 39d6 2fbd
000001c0: 3c33 4a3e 87ba 8c3c d63b 53be 593d 853d
000001d0: e80a 6b3d a6e7 94be f294 05be b569 f5bd
000001e0: 38b5 b1bd 1910 7e3e 0c8b e6bd 0730 a93e
000001f0: d797 bf3d e61b d9bd 6012 29bc 9bc0 a4bd
00000200: 2f89 47be 6161 c63d 122c 573e f932 b2bd
00000210: 4016 35be a18f 90be f59d 433e 5b1c 82bd
00000220: d53c 353e 3930 903e 87a6 e03c 9f75 ffbd
00000230: e49b 613e 16d5 4f3e 6954 44be 1a4c 89be
00000240: ca11 48bc f9af 263e 0886 68bc c470 043d
00000250: 24ab 0ebe b928 66be 68e9 8e3e 4994 963e
00000260: 2c01 34be f119 6b3e ed16 9abd 8aa7 87be
00000270: 0ad4 363e 2d5d 1e3d 7464 3e3d 6b9f a1be
00000280: 6ce4 80be 0ada 433e 626e b4bd c4e0 8ebe
00000290: 1136 25bd 14d7 963c 7e62 90be 210a 7abe
000002a0: 1b3f 943e 5ae7 853d ce92 a2bd bc4d 1c3e
000002b0: eed9 9cbe 24a1 4cbe e43a 9f3d 2f10 3ebe
000002c0: 27f9 02bd 23b9 95be 1106 0fbe f416 10be
000002d0: d074 3cbd 8831 933c 3931 79be 6494 923d
000002e0: b1b4 303d a5c1 ea3d 305c de3d e932 2abe
000002f0: 79bf cc3d 1882 1f3d faf4 e93d 8370 8a3e
00000300: 5ef6 913c 6dfa 6c3d 2e76 d4bc 5760 2fbe
00000310: 177d a13e 6850 84bd 6846 cbbd b08b c13d
00000320: c782 88be 6fff 6e3e 40da 993e 1900 323e
00000330: f0db 583d 1cc4 c2bd 5a2d d33d cba3 0b3e
00000340: 97b2 9dbe 6dee 8dbe 9506 6cbe 2209 663e
00000350: f9dd d0bd 0fe2 673e 48f0 a1bd 52fe dbbd
00000360: 75ae b3bd 8ab5 3abe ca0c 67be 2439 2ebd
00000370: a554 93be 1390 7e3d 8e91 76bd 2088 2f3e
00000380: 8f02 bc3c 02f5 c3bd 1329 843e 6993 193e
00000390: 56b0 083e a4b1 393d a625 4d3e 2088 ef3a
000003a0: d3c6 28be ccca da3d a819 0a3d 5882 793d
000003b0: 3dab 2fbd 01b6 56be 6b84 603d 97f1 99be
000003c0: 06d7 b2bd d020 8cbe e93b 183e 082f 103e
000003d0: 40e9 afbc ac39 33bd 1c04 3a3e c4bf 9c3e
000003e0: 7538 5f3e bf94 bc3d cfa4 adbd bc53 9d3d
000003f0: 939d 61be a966 a1bd 5f93 943e 083e 6cbe
0.077974185 -0.17778127 -0.15921979 0.25247493 -0.14677279 -0.079479866 0.009732143 -0.22601436
-0.00396932 0.03023028 0.05135501 0.12039634 -0.047359467 -0.3318585 0.11822504 0.32822308
-0.13259198 0.21706907 0.29119843 -0.17982037 -0.23937044 -0.3110553 0.026313141 0.15153581
-0.31651238 0.31766993 -0.22172296 -0.11511241 0.060535107 -0.021337627 0.29543072 -0.2692443
0.15353438 0.079938345 0.06420723 -0.037161138 0.1535032 -0.05060287 0.00917078 0.17092898
-0.021258343 0.21466607 0.09444398 -0.26957667 0.08826028 0.09466993 0.31701085 -0.12634863
-0.12715733 0.23039815 0.16214909 0.30482122 0.023281509 0.14251497 -0.27274254 0.2721263
-0.085811056 -0.3321882 -0.1209215 -0.15621649 0.30746835 0.13161139 0.31814152 -0.17486514
0.16790892 -0.060517017 -0.013752044 0.0017013322 0.014096514 0.29930523 -0.029712556 -0.010358541
0.17843659 0.18370204 0.14723973 0.16371255 0.31395444 0.25198084 -0.08682382 0.1672685
-0.041070864 -0.22970891 -0.28302035 0.24851054 -0.13900395 -0.08113734 -0.2768987 -0.092107005
0.33738136 -0.28619832 -0.103901885 -0.018857645 -0.15705441 0.19202667 0.10675914 -0.15556705
-0.14116514 0.077559546 -0.09823926 -0.12733607 0.18135487 -0.16550128 -0.30718076 -0.28530908
0.08266586 0.025324617 0.212451 0.2986538 0.06757112 0.064809464 0.0041919844 -0.042928908
0.19746107 0.017178787 -0.20628294 0.06505842 0.057383448 -0.29082984 -0.130451 -0.11983053
-0.08677143 0.24810828 -0.1125699 0.33044454 0.09355133 -0.10601024 -0.010319322 -0.08044549
-0.19485925 0.09686542 0.21012905 -0.087011285 -0.17684269 -0.2823458 0.19103225 -0.063530646
0.17698987 0.2816179 0.027423156 -0.12473606 0.22032124 0.2029613 -0.19172825 -0.26815873
-0.0122112725 0.16278066 -0.014192112 0.032334104 -0.13932472 -0.22476472 0.2791245 0.29410008
-0.17578572 0.22959115 -0.07523904 -0.2649501 0.17854324 0.038663078 0.04648252 -0.3156694
-0.25174272 0.19126144 -0.08810116 -0.27905858 -0.040334765 0.018413104 -0.28200144 -0.24417926
0.28954396 0.065382674 -0.07938157 0.15264028 -0.30635017 -0.19983345 0.07774904 -0.18560861
-0.03197589 -0.2924281 -0.13967158 -0.14071256 -0.04600984 0.017967954 -0.24335183 0.071572095
0.04314107 0.11462716 0.10857427 -0.16620983 0.09997458 0.038942426 0.11423679 0.27038965
0.017817672 0.057856012 -0.025935259 -0.17126594 0.31540748 -0.06460649 -0.09925538 0.094504714
-0.26662275 0.23339628 0.30049324 0.1738285 0.052944124 -0.09510061 0.103113845 0.13636701
-0.30800316 -0.27720967 -0.23049386 0.22464421 -0.10198588 0.22644828 -0.07907158 -0.10741867
-0.087735094 -0.18233314 -0.22563472 -0.042534962 -0.28775516 0.06214912 -0.060197406 0.17141771
0.022950439 -0.09568216 0.25812587 0.14997639 0.13348517 0.045335427 0.20033893 0.0018274821
-0.16482095 0.10683212 0.033715874 0.06091532 -0.042887915 -0.20967866 0.054813784 -0.3006713
-0.08732419 -0.27368784 0.14866604 0.14080441 -0.021473527 -0.043756172 0.1816563 0.30615056
0.2179888 0.092080586 -0.084787 0.07681987 -0.22032766 -0.07880909 0.29018685 -0.23070538

decoder.2.bias f4 [30]
00000000: 5f24 523e 44d1 05bd a4d9 f9bc 5477 09be
00000010: 8f09 a53e 21e8 39be ff7d 603e 35d1 243d
00000020: 40c2 4fbe 0506 d13d 9e07 91be 0d01 06bd
00000030: d00a e03c 8e99 9a3e 6898 9dbe 7dda 753e
00000040: 3d96 113d 0bcb 7cbd 068f 8cbe f408 3c3e
00000050: a5e5 acbd a944 97be dac2 29be b033 623e
00000060: aedd a0bd cebf 1abe 52f2 423d 1953 40be
00000070: 23b9 6bbe 493e 27be
0.20521687 -0.032670274 -0.030499287 -0.13424426 0.32233855 -0.18154956 0.21923064 0.040238578
-0.20288944 0.10206226 -0.28326124 -0.032715846 0.027348906 0.30195278 -0.3078034 0.24009128
0.03554367 -0.061717074 -0.27452868 0.1836279 -0.08442239 -0.2954457 -0.16578236 0.2209003
-0.07854782 -0.1511223 0.047594376 -0.18781699 -0.23019843 -0.16332354

decoder.4.weight f4 [60, 30]
00000000: 7c23 033d 2efe 08be b16c 163e 1a26 82bc
00000010: 2c9d 263e 9843 a93c 1715 f93c 92dc 0b3e
00000020: 5195 dabd d7e3 86bc 3962 42be c79f 673d
00000030: 03fc 94bd c3ad 25bd 271c e53d 672e 9d3c
00000040: 538b 48bd 7c07 8dbd deb9 18be ae85 d9bc
00000050: 48a0 273e b997 05be 3e57 cb3d c2df 363e
00000060: 313e 1abe 50d0 a2bc f502 f2bd 9cc3 8a3d
00000070: 49ab 12be 2976 263d 4754 41bd 8049 b0bd
00000080: 6a3d 9fbd 7404 27be 5ac7 23be 11c7 11bc
00000090: aa24 39be 87e5 973d 104c d2bd 7a14 05be
000000a0: 1403 07be 3c12 1c3d 2624 153c 6d7a 233c
000000b0: d34a c93d 1833 57bd 4ed8 c4bd d8f4 2a3c
000000c0: 87c9 0d3e 1651 83bd 7039 aebb 8782 2abd
000000d0: 8977 c039 9a35 38be 09c5 053e c5bd 203e
000000e0: c4c3 0f3e 0cec 323d 83d8 9e3d 09ea a4bd
000000f0: 7e2f 183e 23dc 8d3d f8d4 5fbd e10a 2dbe
00000100: 516c bd3d c54d 2b3d d111 0d3e 67ba 40bd
00000110: e259 823d 871a 093e 8533 c63b 5dae 18be
00000120: baa5 eb3d 18e4 553d 1398 0e3d 5bea cf3b
00000130: f84d 083e 3356 5dbd d7fb 083e de86 153e
00000140: a320 813d 9f8f 203d 781c 133d cc66 96bd
00000150: 7f16 b83d c337 253e 5085 993d b9f2 0abe
00000160: a7f1 9f3d bb7c 98bd 0165 783d af74 9c3d
00000170: 74b7 d73d d275 043c 848e 55bd f1b6 39bd
00000180: 4de4 533d a2f7 9c3d 1003 f43d a208 4cbd
00000190: 2054 80bd 0ea5 02be 800d 403e 4943 d43d
000001a0: b17b b3bc 905d a4bc 5b8a 11bd 3e06 3f3e
000001b0: c431 41be 78ae 09be 6db6 98bb da3f 163e
000001c0: 470c 263d 8359 1cbe 20ce 3ebe cf1a b13c
000001d0: f936 91bd 5cad ecbd f1cd be3d 2e7c 263e
000001e0: 2e45 be3d fb71 a93d 6df9 ecbd 179f e23d
000001f0: 5bcc bcbd 5179 403e 6f1c 1c3e 621a 12bd
00000200: bace 03bd cc4e 94bd cae6 a1bd 5451 e43d
00000210: 6f29 f8bd fc2f c6bd c71c ff3d 972f 1b3c
00000220: dcd2 1b3e 63ef 533e ff20 d4bd 8b7b 233e
00000230: 56b8 1d3d 7d0d 4fbc 2650 0a3e b48c 1bbe
00000240: a228 0d3e d7f5 1ebe 1e9c d0bd e899 343d
00000250: d7e7 3dbe 3e0d c8bd 6a03 ac3d e512 c8bd
00000260: 07a7 2ebe fb53 0d3e 511e 09be f50d 853d
00000270: ffe3 21be 87e3 37be 90d0 f5bd a134 9fbd
00000280: 4303 04be fcb2 213e ab75 f1bd bb34 2b3e
00000290: 19b7 483d c63a ec3d c8d8 d7bd 0bdc 90bd
000002a0: 4361 e03d fa90 08be f515 183e 9d71 e63d
000002b0: 2245 efbd 18e2 363e 15bc 363d 6fef bbbd
000002c0: 7670 0f3d cc67 3bbe 16eb 1d3e dd7f 143e
000002d0: 8323 be3d 39e7 b83d 586e 43bd cad9 74bd
000002e0: cfd6 1c3d 8dfc aa3d bdbd 483e 2b25 12be
000002f0: b1d5 64bd 513b aebd 920c f9bb a2a8 3a3e
00000300: 1286 fc3c 8fa6 333e a451 bbbd b222 333d
00000310: 3cfe 023d 54b8 cbbd 2b42 163d 750a a53d
00000320: cd73 a43d 10ab 373d 2199 83bd 9b3f 233e
00000330: 52fb 24be 0c92 143e f10c 903d 00f4 033e
00000340: 098c f83d f713 21bc 3990 c13d 4761 653d
00000350: 2489 e8bd b25c f53c cc0e c23d 5545 1dbe
00000360: 0afa 053e 925e 033e 3828 a5bd 847b 40be
00000370: a698 3a3e ad3b 57bd 8013 103e 9638 98bd
00000380: d50f 32be 5779 2abe c6fe 443b 169c dfbd
00000390: a59f 33bd 22ce 1abe 8380 0bbe 30b2 fabd
000003a0: 18fb 263d 9e37 fabd fdbb b63d b6b8 c63c
000003b0: 58ae 3b3e e30a b13d 1b62 0b3d c710 e63d
000003c0: 244a 5f3d 10d9 11be 2771 3abd debc 0ebe
000003d0: 1400 0a3e 9343 c03b db31 253e eff5 1ebd
000003e0: abac 46be 3f95 25be db19 2cbe 4330 d33c
000003f0: 59f3 ee3b a050 f03d 34c4 a5bd 637a 0a3e
0.032016262 -0.13378212 0.146899 -0.015887309 0.16270894 0.020662114 0.030405564 0.1365836
-0.10673011 -0.016466064 -0.18982781 0.05654886 -0.0727463 -0.040448915 0.1118701 0.019187165
-0.048960995 -0.06886193 -0.14914653 -0.026553001 0.16369736 -0.13046159 0.099287495 0.17858794
-0.15062787 -0.019874722 -0.1181697 0.06775591 -0.14323153 0.04064003 -0.047199514 -0.08607769
-0.07775386 -0.16310292 -0.15994015 -0.008897559 -0.18080392 0.07416826 -0.10268414 -0.12996092
-0.13184768 0.038103327 0.009102857 0.009977919 0.09828725 -0.05253896 -0.09611569 0.010434352
0.13846408 -0.0641195 -0.0053169057 -0.041628387 0.00036710154 -0.17989197 0.13063444 0.15697391
0.14039522 0.043682143 0.0775614 -0.08052451 0.14861867 0.06926753 -0.054646462 -0.16898681
0.09249175 0.041822214 0.13776328 -0.047052767 0.063648 0.13389026 0.006048622 -0.14910264
0.11506219 0.05221948 0.034812998 0.006345076 0.13310993 -0.054037284 0.1337732 0.14602229
0.06305053 0.039199468 0.03591582 -0.07343826 0.08988666 0.16134553 0.074961305 -0.13569154
0.078097634 -0.074456654 0.0606432 0.07639443 0.10533038 0.008084731 -0.052137867 -0.045340482
0.051731396 0.0766442 0.119146466 -0.04981292 -0.062660456 -0.12758276 0.1875515 0.10364396
-0.021909567 -0.020064145 -0.035532337 0.18654725 -0.1886664 -0.13445461 -0.0046604187 0.14672795
0.040539052 -0.15268521 -0.18633318 0.021619229 -0.07090563 -0.11556503 0.09316624 0.16258308
0.09290539 0.08273693 -0.11571012 0.110655 -0.09218665 0.18796279 0.15245222 -0.03566969
-0.03217957 -0.07241592 -0.07905348 0.111483246 -0.12117278 -0.09677121 0.12456661 0.0094717955
0.15217155 0.20696788 -0.10357856 0.15965097 0.038505875 -0.012637493 0.13507137 -0.15190393
0.13785031 -0.15523468 -0.10186027 0.04409209 -0.18545471 -0.09768151 0.08399089 -0.09769229
-0.17055903 0.13801567 -0.13390471 0.06496803 -0.1580963 -0.17957889 -0.12002671 -0.0777371
-0.12891869 0.15790933 -0.117900215 0.16719334 0.04900274 0.11534648 -0.105393946 -0.0707322
0.10956051 -0.13336554 0.14852126 0.11252139 -0.11683108 0.17859685 0.044612963 -0.09176528
0.03501936 -0.18301314 0.1542171 0.14501901 0.09284117 0.09028477 -0.047712654 -0.059778012
0.038290795 0.083489515 0.1960363 -0.14271991 -0.055867855 -0.085074075 -0.0076003755 0.18228391
0.030825648 0.17544006 -0.09146431 0.04373426 0.031980738 -0.09947267 0.036684196 0.08058635
0.080299 0.044840872 -0.064256914 0.15942232 -0.16111496 0.14508837 0.070337184 0.12886047
0.121360846 -0.00983142 0.094513364 0.056000974 -0.113542825 0.029951427 0.094754785 -0.1535848
0.13083664 0.12829044 -0.08064312 -0.18797117 0.18222293 -0.052547146 0.14069939 -0.07432668
-0.17388852 -0.1664785 0.0030059083 -0.10918443 -0.04385342 -0.15117696 -0.13623242 -0.12241018
0.040766805 -0.122176394 0.08922575 0.024257999 0.18328226 0.086446546 0.034029108 0.11233669
0.054514065 -0.14242959 -0.045518067 -0.13939235 0.13476592 0.0058674305 0.161323 -0.03880876
-0.19401805 -0.16170214 -0.16806738 0.025779849 0.007292193 0.11734128 -0.080940634 0.1352325

decoder.4.bias f4 [60]
00000000: de07 aebd ef43 ce3d 9a51 233e 5bca aa3d
00000010: b750 253e 37d1 10be 20a3 853d 9649 973d
00000020: 3bd8 1abe a017 913c df31 ef3d 07c6 413d
00000030: bfd9 463e 8329 e8bd 9954 b6bd 88b7 153e
00000040: 4016 03be ba18 0dbe ec67 31be 2c37 1a3e
00000050: 3c1a 413e c9a6 093e 5f39 8fbd 003f ddbc
00000060: 887e 3f3e 3a50 1e3d e170 153d 97cf 113e
00000070: c196 053e b699 703d 95f7 eebd 757f 0dbe
00000080: 29f6 c3bc c221 c5bc 45a1 203e f2d0 b1bd
00000090: 6abc b2bd 3a88 66bd 9b16 abbd ed4f 593d
000000a0: 07cd 41bd 8f8c a53d 852d 063e 6dd1 233e
000000b0: 7b11 eb3a b381 c6bd 642f 473d 022d 153e
000000c0: 103c c5bc 81fe 063d 3fee 9c3d 0f23 e4bd
000000d0: 5191 d7bd 2112 02be 7c51 fa3c 3524 bf3d
000000e0: e5d3 2e3e 710e 143d 1a16 2ebe 6583 c03d
-0.08497594 0.10071551 0.15949097 0.083393775 0.16144072 -0.14142309 0.06525254 0.07387082
-0.15121548 0.01771146 0.11679434 0.047307994 0.19419001 -0.11336043 -0.089028545 0.14620793
-0.12801456 -0.13778964 -0.173248 0.15060109 0.18857664 0.1344253 -0.069933645 -0.02700758
0.18700612 0.03865073 0.036484603 0.14239345 0.1304579 0.05874034 -0.11668316 -0.13818152
-0.02392109 -0.024063949 0.1568652 -0.08682431 -0.087273434 -0.05628226 -0.08353921 0.05305474
-0.04731467 0.0808345 0.13103302 0.15997858 0.0017934287 -0.09692707 0.04862918 0.1456795
-0.024076492 0.032957558 0.07662629 -0.111394994 -0.10525764 -0.12702228 0.030556433 0.09333078
0.17073019 0.036146585 -0.17000619 0.094000615

decoder.6.weight f4 [118, 60]
00000000: 8053 3d3d 7168 ac3d 606e a73d 18de fe3c
00000010: 10fd 83bd 3b3a 3cbc 8938 2d3a 4dc7 4f3d
00000020: ed05 163d bf8d 0abd 327c 0dbe e965 9ebd
00000030: 6e15 8cbc 4e14 d73c affe 133e c3ff bbbd
00000040: 98d0 033d a36a 05bd 2074 153e c872 02bb
00000050: d8c9 16be fe40 933d 92a0 163b 32df a63d
00000060: 7282 16be 7fd4 17be c3eb 683c b278 e2bd
00000070: 13a5 44bc 10d9 f2bc 5dc9 873d 27a2 563c
00000080: 3bd0 5ebd 2caf 86bc e834 9abd 570f 88bd
00000090: 2a1b bcbd 3a64 8ebb 3e53 ddbb a3cb 6f39
000000a0: 402a 81bd 1381 6abb 074d 9ebd b34e babd
000000b0: c7bd 633d af6c f73d b63c d3bd e51d b0bb
000000c0: 206e 9d3d b931 ef3d bc44 ca3c b584 c5bd
000000d0: 055a fabd 60bf 4cbc 3506 343c 3a3a a6bc
000000e0: 7b44 283d b8d0 45bd bdc2 89bd d92d d7bd
000000f0: 75f4 163e 096b eebd 3bb2 913c b8ed aabd
00000100: 2624 eb3d da4e 9d3c 42f5 133e 7810 17be
00000110: 9d4f c53d 2562 013e 7d68 f6bd 15a6 573c
00000120: 702c b73c 7fd9 d2bd adc0 17bd db31 83bc
00000130: 4ed8 543d 9198 9b3c 8868 2ebd 0aa7 c13d
00000140: 5af9 a23d 8c01 da3d dc0c d93c ba21 15be
00000150: c9ad e23d 5d4d 5abd efff 4fbd fa11 973d
00000160: 2c78 5c3d 488a debd 622c b1bd 526d 293c
00000170: 6a77 893d 03c8 93bd eb3c da3d 77ed af3d
00000180: 6263 15be 381a afbc 1e14 723d 7afa 93bc
00000190: 417f aebd ea57 06bd c403 3f3d fb12 a6bc
000001a0: ee1d a8bd 39ac 113c cfc9 8f3d dbc7 043e
000001b0: 1fe8 8c3d 8ea1 db3c 1a0c 233d dea6 043e
000001c0: 185f d8bd b5cb 3cbd 7a08 9ebd 1806 88bd
000001d0: da59 7e3d c6e4 b73d 38af 85bd 497b 2bbd
000001e0: 7d0b 8b3d 4cdd 4a3d 6a31 483d f965 2a3d
000001f0: 295a bfbd a8b4 ae3d 3a6b d7bd 1362 6bbd
00000200: 2ed3 f83b b402 7a3b 21c5 8bbb 34e1 c3bd
00000210: 4c6d 0d3e 8c84 bfbd 6bd9 dcbb 59ff 5cbc
00000220: bb3a 9dbc 230a 22bd 7b3d 043c f4b5 0d3d
00000230: d103 9cbd 1112 ca3d 114e e0bc f1e8 cd3d
00000240: 4482 bdbd 746a be3d 1211 a83d 8197 3abd
00000250: c913 a93c 1735 bb3d 8480 f2bd 79db b13d
00000260: 1b65 8f3d 9ff0 91bd 5646 723d fc2a 7c3d
00000270: 2411 103c 8fe0 a13d 757f d4bd 8e1d 42bc
00000280: c731 583b 9827 ce3d 949a 9c3d c78f aabb
00000290: 025f 59bd 7a93 0ebe 0a1d 36bc 29fe 07bd
000002a0: 58f3 efbc 66a5 923c ee9f 8d3d a06d 853d
000002b0: fa19 eb3b 9b0b 2fbd 849e 2b3d a58c b63d
000002c0: 54d0 aabc 3285 f7bd 04b2 90ba 83b6 43bd
000002d0: 086d ec3d 2993 e8bd 1c15 68bd 645b 7c3d
000002e0: e40c 9bbd 27de c0bb a9d1 a43d bd72 c2bd
000002f0: da74 7a3d 4505 f63d 7c29 a6bd ca8e 723c
00000300: 5131 8ebd c04e acbd a8d2 01be 8007 8e3d
00000310: 991e ba3d 09db b4bd 006c a93d 8e02 2dbd
00000320: c0d8 8e3d 7472 b0bd 6265 f33d 9e7b febd
00000330: da0b 933d bfa8 8c3d eaeb b73c e4e2 0f3e
00000340: 68a0 913d a1a7 a63d 6150 fbbd dda9 c7bd
00000350: c8fa 20bc 9f4b f93d a6b9 913d ca89 f3bd
00000360: 39a3 b13d a509 f73c 4b1d c2bc ea60 a6bc
00000370: bca6 3f3d ea4f 73bd 3a27 8c3d a623 97bd
00000380: 010b ffbc 9729 e03c f481 9ebc 9bb0 063e
00000390: 13aa a7bd ef05 203d 9585 a03d 2148 d0bc
000003a0: aafa 963d 071d 06be 8e34 79bd 734f dbbd
000003b0: 91e0 a93c 6973 84bd b2f8 c6bd d406 e3bd
000003c0: 72a1 e73a 7f59 c33d 62da f13d bb40 2bbc
000003d0: c7b8 c5bc 97b3 bcbd b82d e43d ef86 e4bd
000003e0: a158 f7bb e1e4 54bd 1255 fbbd 0a11 9f3c
000003f0: 97fe a1bd c0f8 1abd 4e0f 163d 7292 863d
0.04622221 0.08418358 0.08175349 0.031111762 -0.06444752 -0.011488493 0.00066078507 0.050727177
0.036626745 -0.033826586 -0.13816908 -0.077342816 -0.017100062 0.0262548 0.14452623 -0.09179642
0.032181352 -0.0325724 0.1459508 -0.001990484 -0.14725435 0.07190131 0.002298389 0.0814804
-0.14698198 -0.14827155 0.014216366 -0.11058177 -0.012002247 -0.02964452 0.06630204 0.013100184
-0.054397803 -0.01644095 -0.07529622 -0.06643551 -0.09184869 -0.004345444 -0.006754308 0.00022868677
-0.06306887 -0.00357825 -0.077295355 -0.09097042 0.055600908 0.120812766 -0.10314314 -0.0053746575
0.0768702 0.11679406 0.024690978 -0.096444525 -0.12224201 -0.012496799 0.010987808 -0.020291436
0.041080933 -0.048294753 -0.067265965 -0.105067916 0.1474169 -0.11641509 0.017785182 -0.083461225
0.11481504 0.019202638 0.14449027 -0.14752376 0.09634326 0.12635095 -0.12031648 0.013162156
0.022360057 -0.1029539 -0.037048984 -0.016014984 0.051964097 0.018993648 -0.042580158 0.09455688
0.07957716 0.10644826 0.02649539 -0.14563647 0.11068303 -0.053296436 -0.050781187 0.07376476
0.053825542 -0.10866219 -0.086510435 0.010341005 0.067122295 -0.072158836 0.106561504 0.08590215
-0.14588693 -0.021374807 0.059101216 -0.018063772 -0.085203655 -0.032798685 0.04663445 -0.020272722
-0.08208834 0.008891159 0.07020914 0.12966864 0.06880211 0.026810434 0.039806463 0.1295428
-0.10565013 -0.046092708 -0.077164605 -0.06641787 0.062097408 0.08979182 -0.06527561 -0.04186562
0.067893006 0.04952745 0.04887525 0.041601155 -0.093433686 0.08530551 -0.10518499 -0.057466578
0.007593534 0.0038148584 -0.004265443 -0.095644385 0.13811225 -0.09351453 -0.0067397854 -0.013488614
-0.019193044 -0.03956045 0.008071299 0.034597352 -0.076179154 0.09866727 -0.027380975 0.10054196
-0.09253362 0.09297648 0.08206381 -0.04555464 0.020639317 0.091409855 -0.11840919 0.08684439
0.07001706 -0.07125973 0.05914911 0.06156443 0.008793149 0.07904159 -0.10375873 -0.011847867
0.0032988654 0.10066146 0.07646671 -0.005205128 -0.053069122 -0.13923445 -0.011115322 -0.03320137
-0.02929084 0.017901134 0.0691527 0.0651505 0.0071747275 -0.042735677 0.04189922 0.089135446
-0.020851292 -0.12085952 -0.0011039381 -0.04778148 0.115442336 -0.113561936 -0.056660756 0.061610594
-0.07570818 -0.0058858576 0.08047802 -0.09494541 0.061146595 0.12012724 -0.08113381 0.014804551
-0.06943 -0.08413458 -0.12678015 0.06935024 0.09087867 -0.0883084 0.082725525 -0.042238764
0.069749355 -0.0861558 0.118845716 -0.12425922 0.07179995 0.06868123 0.02245136 0.14051396
0.07110673 0.081374414 -0.122711904 -0.09749196 -0.009825416 0.12172627 0.07115488 -0.118915156
0.086737104 0.030155966 -0.023695609 -0.020309884 0.04678987 -0.059402384 0.068434194 -0.07379846
-0.031133177 0.027363582 -0.019349076 0.13153307 -0.08186736 0.03906816 0.07837979 -0.025425019
0.07372029 -0.1309701 -0.060841136 -0.10708513 0.020736964 -0.06467325 -0.097154036 -0.11085287
0.0017672016 0.095385544 0.11809231 -0.010452445 -0.02413596 -0.092139415 0.11141533 -0.11158549
-0.007548407 -0.05197609 -0.12272085 0.019417305 -0.07909887 -0.037834883 0.03663569 0.06570901

decoder.6.bias f4 [118]
00000000: fe69 a8bb e45a 5fbc d706 b2bc 08a6 b3bd
00000010: 7345 a0bd a954 c3bd 0404 45ba ab72 da3c
00000020: 24b6 f43d ca8a 923c 223a b6bd ae2c 103e
00000030: 7987 f7bc b1f9 033e 1c8c 113e 53aa e73c
00000040: fe79 bd3d 9868 233c 6ccf 9c3d 7bc7 d03c
00000050: 361e 75bd 16fc c4bd 792d b0bc d223 d3bd
00000060: 41a9 623d 8b50 35bd 4052 e3bd 79b4 e0bb
00000070: 21b7 5a3d aa31 51bd dcea d43c f63c d23d
00000080: 22c5 92bd 8fdd a1bd 971e ac3d 652e 953b
00000090: 7f72 363d b293 16bd ce42 863d b0e6 153e
000000a0: 8c38 963d 0b5f b1bd ba9a bdbd cddb aabd
000000b0: 6546 af3a 4a88 68bd 74f5 72bc 2f98 f7bc
000000c0: 0475 cf3d 83f6 1d3d 8786 cfbd f7c3 e9bc
000000d0: 0453 92bd d79a f63c a356 7d3d 2159 603d
000000e0: d982 343d e88a 7e3d 0466 83bd c46c b0bd
000000f0: b83a 0bbd 7233 d6bd 7bda 633c 2f2c 943d
00000100: 9bff 41bd 5bfa debd 18bc e2bc ebcb 403d
00000110: 0d8f e1bb c615 31bd 4d57 65bc ec91 ab3d
00000120: c25b b43d 6037 acbd e8c7 3c3d c12e 5dbd
00000130: 592f a3bd 6a15 78bd 1640 fcbc 4a9b 1d3d
00000140: 0c69 483c d513 f7bc c8ec 5dbc 1fc0 f13c
00000150: 7690 83bd d56d 25bd 777f 063d 3ae1 2b3d
00000160: 82b2 a4bb a92f 86bc 7e11 d0bd 9fbb 9fbd
00000170: b408 b53d 0890 a33d b44d 653d 8051 ef3d
00000180: 7175 8dbd ab80 8dbd 1ac8 9dbd 6599 d4bc
00000190: 1df7 a83d 56ec bd3d f6b3 fc3d dbf8 8f3d
000001a0: 3823 37bb 8316 84bd 4ffe b1bd 0079 83bd
000001b0: 2b3f b3bd 1cd4 4dbd a52d 0bbe df2d 473d
000001c0: bb20 d93d 14ec f4bc 9604 043e e8ed 82bc
000001d0: 74b3 cebd 29fe 353d
-0.0051395884 -0.01363251 -0.021731777 -0.08771902 -0.078257464 -0.09537632 -0.0007515552 0.026666006
0.11948803 0.017888445 -0.08897807 0.14079544 -0.030215966 0.12888218 0.14213604 0.02827946
0.09251784 0.009973668 0.0765675 0.025485745 -0.059843265 -0.09618394 -0.021506058 -0.103095666
0.055337194 -0.044266265 -0.11099672 -0.0068574515 0.0533973 -0.051072754 0.025990896 0.102655336
-0.07166506 -0.07903587 0.08404272 0.00455265 0.044542786 -0.036761947 0.06555711 0.14638782
0.07335004 -0.08660706 -0.092580274 -0.08342705 0.001337242 -0.0567706 -0.014829028 -0.030223934
0.10129741 0.03856517 -0.10133081 -0.028535826 -0.0714474 0.03010313 0.0618502 0.0547725
0.0440701 0.06214419 -0.06415942 -0.086144954 -0.033991545 -0.10459031 0.01390707 0.0723499
-0.047362905 -0.10887595 -0.02767758 0.04706947 -0.006883508 -0.043233655 -0.013997865 0.08377442
0.08806564 -0.084089994 0.046089083 -0.053999666 -0.07968015 -0.060567297 -0.030792277 0.038478173
0.012232076 -0.030160824 -0.013545223 0.029510556 -0.06424038 -0.040387947 0.032836404 0.04196284
-0.0050261626 -0.016380148 -0.10159586 -0.07799458 0.088395506 0.07986456 0.055982307 0.11685467
-0.06907166 -0.06909307 -0.07704182 -0.02595205 0.08250258 0.09273593 0.12339012 0.07029887
-0.0027944576 -0.06449606 -0.08691084 -0.06419563 -0.08752283 -0.05025111 -0.13591631 0.04862773
0.10601946 -0.029897727 0.12892374 -0.015982583 -0.10092822 0.04443184

estimation.0.weight f4 [10, 3]
00000000: a134 88be 116d d0be 38c5 2abe fe16 123f
00000010: 9322 8c3e b0c2 b33e 8892 8fbd c22e 703d
00000020: a60e 833e 0b2e 473e 51c4 44be 1512 83be
00000030: d8c9 98be cb9a 2fbd 8310 c5be 20cf 0ebe
00000040: c7ad 7e3e 1de0 b33e 4c4d a9bd 41c2 993d
00000050: 9e19 febe 6eac 223e 55c4 e5bd 409c 173e
00000060: c8e8 e8be 0555 ea3e 246c ebbd f292 ccbe
00000070: 3731 e53e dbd0 463e
-0.26602653 -0.4070821 -0.16676795 0.57066333 0.27370128 0.35109472 -0.070103705 0.05863834
0.25597113 0.19451158 -0.19215514 -0.25599733 -0.29841495 -0.04287223 -0.3848916 -0.139462
0.24870978 0.35131922 -0.08266696 0.07507754 -0.4962892 0.15886089 -0.11219088 0.14805698
-0.45490098 0.4576799 -0.114952356 -0.3995586 0.4476411 0.1941561

estimation.0.bias f4 [10]
00000000: 3d2f 213f c902 d1be 54b8 83be 0f74 8b3e
00000010: d3c1 cdbd 5db7 e13e 6452 01bf 8bc8 d63e
00000020: e1b6 193f b717 b03e
0.62962705 -0.40822437 -0.2572657 0.27236983 -0.10046735 0.44085208 -0.50516343 0.41949877
0.60044676 0.34393093

estimation.3.weight f4 [4, 10]
00000000: d26d bcbd c08e b93e d3e9 38be 3d3a 02be
00000010: 9de0 a33d 2078 f8bd af66 263e 1b82 48be
00000020: c177 113e 9831 993e b5d5 8bbe fa5e 79be
00000030: ade4 b03d f9ea 733e e1e3 7cbe 0c8a c6bd
00000040: f63c f53c 6e7d ae3c 2bba 6f3d 4d0e 75be
00000050: 54ae 9e3e 09da 613c 8573 8abe 3948 0c3e
00000060: 1dbd 1b3e b8e8 2f3e 46ad acbd b239 55be
00000070: 5e8b d93d 53ed 9d3e 54b2 6b3e b2e3 e93c
00000080: d480 d43d 5588 433c e910 3abe 602d a6be
00000090: dc69 743e 8ee0 233e a622 92be 61fd afbe
-0.09200634 0.36241722 -0.18057947 -0.12717529 0.08001826 -0.12132287 0.16250108 -0.19580881
0.14205839 0.2992065 -0.27311483 -0.24352637 0.086373664 0.23820104 -0.24696304 -0.09694299
0.029936295 0.021300044 0.058527153 -0.23931237 0.30992377 0.013784894 -0.2704126 0.13699426
0.1520886 0.17178619 -0.08431487 -0.2082279 0.10622285 0.30845127 0.23017246 0.028550956
0.103761345 0.01193436 -0.18170513 -0.32456493 0.23868507 0.1600363 -0.2854206 -0.34373

estimation.3.bias f4 [4]
00000000: c9ed ebbd 467c 1abe 0d24 473d b659 843d
-0.11519963 -0.15086469 0.048618365 0.064624235
