Baseline-models/DAGMM/DAGMM-ROAD/no--dagmm/models/8_194_dagmm.pth (torch, 82173 bytes, 22 tensors)

phi f4 [4]
00000000: 732c 7c3e e0a0 343e f2aa dc3e c8dc 153e
0.24626331 0.17639494 0.4309917 0.14635003

mu f4 [4, 3]
00000000: bfae 913d 0258 a43f 2ccb 09be a53a f83d
00000010: e136 a03f ec14 b0bd f94e cdba e75e aa3f
00000020: 0f23 52be add0 2c3e d943 9c3f 07bb 22bd
0.07113408 1.2839358 -0.1345641 0.121205606 1.2516748 -0.085977405 -0.0015663794 1.3310212
-0.20521186 0.16876478 1.2208205 -0.039729144

cov f4 [4, 3, 3]
00000000: db17 aa3e 1732 5cbe 7a45 a53e 1732 5cbe
00000010: ac9e 0e3e e7ff 55be 7a45 a53e e7ff 55be
00000020: 2f99 a03e b306 b63e 44bd 6bbe f6e3 b03e
00000030: 44bd 6bbe 0bbf 183e 9122 65be f6e3 b03e
00000040: 9122 65be 6de9 ab3e b626 933e 6964 3ebe
00000050: 16f4 8e3e 6964 3ebe 9884 f63d 4a01 39be
00000060: 16f4 8e3e 4a01 39be 07e3 8a3e 134c c03e
00000070: 0837 79be 8fea ba3e 0837 79be fb96 213e
00000080: 7d4a 72be 90ea ba3e 7d4a 72be eab2 b53e
0.33221325 -0.21503483 0.3227957 -0.21503483 0.13927716 -0.208984 0.3227957 -0.208984
0.3136687 0.35551986 -0.23021418 0.3454892 -0.23021418 0.14916627 -0.22376467 0.3454892
-0.22376467 0.33576527 0.28740472 -0.18592991 0.27920598 -0.18592991 0.12037009 -0.18066898
0.27920598 -0.18066898 0.27126333 0.3755804 -0.24337399 0.3650708 -0.24337399 0.1578025
-0.23661228 0.36507082 -0.23661228 0.35488063

encoder.0.weight f4 [60, 118]
00000000: f83d d6bc 4ad5 ae3d e4db 983c b6ba 98bb
00000010: bf99 a53d bd4b 0fbd 1d1e 003d 7ce5 583d
00000020: ff54 8fbd 9469 803d 1152 003d 52da 143c
00000030: 221a 223d 2bb3 2e3d 7ec8 81bd 4c16 3abd
00000040: cb2d 923d 2235 48bd 436e f4bc 7c8a 9ebd
00000050: 2d5c c9bc d52c 00bd 2f4d 073d 2afd 6ebd
00000060: c5c5 ae3d 48fa 713d d950 ae3d a733 05bd
00000070: 3824 37bd 023b bfbd 925f b4bd 600a aebc
00000080: 1057 673d 1253 003d 8963 36bd 0c63 4b3d
00000090: d545 c6bc 9a46 6abd d869 8ebc 5ace 7cbd
000000a0: 6615 363d e02b 083d 38b1 d53c ea06 f0bb
000000b0: 240e 16bd 8568 0f3c 7e6b a3bd abab 13bd
000000c0: da5d 17bd 26d3 9bbd c096 1fbd 79f1 bdbc
000000d0: ef79 c8bc d77c 44bc c7da 093b 24a8 b6bd
000000e0: 07bc 2abd df06 69bc 0ec9 b1bb 1247 96bc
000000f0: c0da cbbb dd7d 25bd 634a a33d 9272 193d
00000100: f6d4 9a3d e57f 993d 57b1 853d 0e71 93bd
00000110: 275b 283d ec8e 903d fe4f c43d d8d7 0b3d
00000120: af08 783d ea58 6abd 41eb 1a3d 53b6 a2bd
00000130: d170 1ebd 7627 76bc b97a a5bd 77cd febb
00000140: 70d1 f8bc ed7a f43c a7a1 55bd b182 a13b
00000150: afce 893d 702f e4bb d6b7 9ebd c2a3 2e3d
00000160: e344 bfbd 8e9a 973d a4de fd3b 7d43 463c
00000170: 5eb2 94bd aa89 be3c 4e4a 143d 99b8 9f3d
00000180: a83e 033d 0048 1739 5251 843d b61a 43bd
00000190: 96b0 793d 2e02 7d3d 703d 4abd cae1 eebc
000001a0: ec39 cd3a dbe8 363d ba76 4cba b6c0 8fbd
000001b0: 9ab3 5d3d 4b60 df3c 7f5b 39bd 172b 8f3c
000001c0: 4766 cabc ab15 98bd f72d 913d f1dc 82bc
000001d0: ecdf 613d 6ba0 ffbb 2fa1 00bd a0ec 7f3d
000001e0: 2305 b03d 7553 2dbc 1362 3ebc 7d75 89bd
000001f0: ccbf 80bd 8f68 0c3d 8803 f7bb 7981 543d
00000200: 0737 2c3d 2cbd 043d 13ac 8fbc 2826 023d
00000210: c89e c7bc 1bf1 0fbd fea8 173d 054f cfbc
00000220: 58ba 263d 80e6 02bd a0b5 233d 430c 933d
00000230: 4c77 983c e0f3 35bd 23af ae3c 3533 6ebd
00000240: ac31 5ebd 1aa7 dabd 9c2b 923d 1764 a6bd
00000250: aa09 6b3c 8a43 7a3b 51d7 a13d be57 443c
00000260: a158 8d3c 098a 86bd 8f57 103d 2276 a43d
00000270: cd6d 91bd 1143 bdbc f6e8 b4bd 512a b93b
00000280: a402 e03c 7a5c 0ebd 6f49 a5bc 2829 09bd
00000290: 002b adbc 9a9f 183d 6f82 c23d 3fb8 b63d
000002a0: bc55 13bd 6669 fe3b 0432 92bd b415 873d
000002b0: baed 91bd e81c f03c c53b 99bc cc14 593d
000002c0: 5bcd 973d 3a44 5cbc e3cf b53d fbd6 edbc
000002d0: e5aa 6a3d 80ec aa3c f3f0 993d 7e9e 403d
000002e0: c826 2dbc ce1a 523c f3b9 8b3b d6ad 53bd
000002f0: 8d41 b8bc 7b7c edbc c4dc 643d df6c 4b3d
00000300: 9ccc 8e3d 5812 0ebd 4864 8abc ddb9 983d
00000310: 31fe e43c f605 dfb7 1949 6fbb c899 c73c
00000320: 7a89 96bd 5762 74bd 1838 96bd d626 383d
00000330: ce0b d7bb 9591 f8bd fa68 94bb de00 01bd
00000340: e1e4 733d 0575 263b 6a85 acbd 52ec 8d3d
00000350: 6881 01bd 405a 2cbd 73d4 52bd 7c96 7dbd
00000360: f60b ccbc 3af9 a8bd 31ea 7cbc 908b 55bd
00000370: 55c2 e83d 2011 a0bc d439 bf3d cccb 37bd
00000380: 0e95 ff3b 2795 db3c 1118 76bc 9d93 cfbd
00000390: f129 acbc 4090 153d 1143 0dbd 42e3 3b3b
000003a0: 32be 593c 16ba c53d e5c0 1dbd a291 83bc
000003b0: ef5d 02bc aa25 6abd a9e0 923c 7226 33bd
000003c0: dcb0 2f3d b4ce bcbd a3cf bbbd 7a9d 263d
000003d0: c11c 943d a1e9 27bc 954a c93b 489d aa3b
000003e0: 884a 9d3d fe0e 333d 10f3 063c 70c3 693d
000003f0: 701f 073d 43f9 123c 018f 163c 118d a23d
-0.026152596 0.085367754 0.01865954 -0.0046609296 0.08085965 -0.03498434 0.03127872 0.05295323
-0.069986336 0.062701374 0.031328265 0.009085255 0.039575703 0.042651337 -0.06337069 -0.04543142
0.071376406 -0.048878796 -0.029837733 -0.077412575 -0.024580086 -0.031292755 0.033032592 -0.058346905
0.08533815 0.059076577 0.08511514 -0.032519963 -0.044712275 -0.09337427 -0.08807291 -0.021245182
0.056479514 0.031329222 -0.044528518 0.049655005 -0.02420322 -0.057196237 -0.017384455 -0.06172023
0.044454 0.033244967 0.026085481 -0.007325043 -0.03663458 0.008752947 -0.07979487 -0.036052387
-0.03695474 -0.07608633 -0.038962126 -0.023186432 -0.024472205 -0.011992655 0.0021034942 -0.08918789
-0.041683223 -0.01422283 -0.005425579 -0.018344436 -0.0062211454 -0.040403236 0.079731725 0.03746278
0.0756015 0.07495097 0.065279655 -0.07199298 0.041102555 0.0705851 0.0958557 0.03414139
0.060555156 -0.0572137 0.03782201 -0.07944932 -0.03868181 -0.015024057 -0.08080048 -0.007775958
-0.030373305 0.029843772 -0.052156117 0.0049289097 0.06728875 -0.006963663 -0.07749908 0.04263664
-0.09339311 0.07402526 0.007747488 0.012101051 -0.07260583 0.023259003 0.036203675 0.07798881
0.032042176 0.00014427304 0.06460823 -0.047632895 0.06095942 0.061769657 -0.049374998 -0.029160399
0.0015657521 0.044655662 -0.0007799674 -0.070191786 0.05412636 0.027267596 -0.045253273 0.017476602
-0.024706973 -0.07426008 0.07088845 -0.015974494 0.05514519 -0.0078011057 -0.031403717 0.062481523
0.0859473 -0.01057898 -0.011620062 -0.06711862 -0.06286582 0.034279402 -0.0075382628 0.051881287
0.042044666 0.03240697 -0.017538106 0.03177467 -0.024367705 -0.035142045 0.037026398 -0.025306234
0.040705055 -0.031958103 0.039968133 0.07180073 0.018611573 -0.04442203 0.021323746 -0.058154304
-0.05424659 -0.10676403 0.07137224 -0.081245594 0.014345566 0.003818723 0.079023965 0.01198381
0.017254176 -0.06569297 0.035239752 0.080303445 -0.07101021 -0.023103269 -0.08833496 0.0056507965
0.02734501 -0.03475616 -0.020176617 -0.033486515 -0.021138668 0.037261583 0.094975345 0.08921861
-0.035970435 0.0077640293 -0.07138446 0.065959364 -0.07125421 0.029310659 -0.018705258 0.05299835
0.07412215 -0.013444001 0.08877542 -0.029033175 0.057291884 0.020864725 0.075166605 0.04702615
-0.010568328 0.012823774 0.0042641102 -0.051679455 -0.022492195 -0.028990021 0.0558746 0.049664374
0.0697262 -0.034685463 -0.016893521 0.074573256 0.02795324 -2.6586447e-05 -0.0036512075 0.02436532
-0.0735044 -0.059664097 -0.07334918 0.04495891 -0.0065626865 -0.121371426 -0.0045291157 -0.031494968
0.059544448 0.002539934 -0.08423884 0.0692984 -0.031617552 -0.042078257 -0.05147214 -0.06191109
-0.024908047 -0.08250661 -0.015436695 -0.05213505 0.11365191 -0.019539416 0.09337202 -0.04487209
0.007799751 0.02680452 -0.015020386 -0.10135577 -0.021016093 0.03651452 -0.034487788 0.0028669392
0.013289975 0.09654634 -0.038514037 -0.016060654 -0.007956966 -0.057164825 0.017929392 -0.043737836
0.042893276 -0.09219113 -0.09170463 0.040677525 0.07232047 -0.010248573 0.006142924 0.0052067377
0.07680231 0.04371547 0.008236662 0.05707115 0.032988966 0.008970561 0.009189368 0.079370625

encoder.0.bias f4 [60]
00000000: 4a4a c93c d7cf a43d 44ea 493b 7ad8 303d
00000010: ba65 7ebd 087f 023d 3b1d c1bd f25e d2bc
00000020: 061e 793d 10b4 9a3d 5b26 8ebb 01b8 0dbd
00000030: 5ae7 41bd 37e1 753d 2272 fabc 1f0d 92bd
00000040: b2ef 7ebc 7ef0 883d 7967 5bbd 055a ed3d
00000050: 7db4 1bbb a7f5 503d 3d1a e9bd c498 17bc
00000060: bf51 0d3d ae07 8a3c 0112 273d 4238 04bd
00000070: 58ae a3bc 83a8 a83d 1202 403d 05c4 80bc
00000080: 0df6 883d 84e3 8fbd 8987 ba3c bbe3 a9bd
00000090: 9fd4 963d e76f f03d 9fa0 69bd 5e8c 883b
000000a0: 3933 58bd 2607 cfbc 2b7c b33c 68eb b0bc
000000b0: d87c 23bd 52b2 ffbc e136 143d 16f0 14bd
000000c0: 528c 34bd bb8b 8cbc 484e 14bd 59e1 3abd
000000d0: 106a 98bd e77b 2cbd eeb0 37bc bf30 62bb
000000e0: b4e8 003d e6fa d03b 97cd f0bc bd30 843d
0.024571557 0.08047455 0.00308098 0.0431752 -0.062108733 0.031859428 -0.094294034 -0.02568004
0.06081965 0.075538754 -0.0043380684 -0.034599308 -0.047339775 0.060029235 -0.030572 -0.07131409
-0.0155600775 0.06686495 -0.053565476 0.115894355 -0.0023758702 0.051015522 -0.11381958 -0.009252731
0.034501787 0.016849365 0.040788654 -0.032280214 -0.019980595 0.08235266 0.046876974 -0.01571847
0.066875555 -0.07025817 0.022769706 -0.08295389 0.07364773 0.11740094 -0.057037946 0.0041671237
-0.052783225 -0.025271963 0.021909794 -0.021596625 -0.039913982 -0.03121296 0.03618515 -0.036361776
-0.044079132 -0.017156472 -0.036207467 -0.045625065 -0.07442105 -0.04211035 -0.011211617 -0.0034513918
0.031471923 0.0063775657 -0.029394908 0.064546086

encoder.2.weight f4 [30, 60]
00000000: 309e 01be bf39 d73d 344c 67bd e4b9 99bc
00000010: db6e cabd dbc8 683d fab4 9bbd 42ee b93d
00000020: 8871 ba3d 7282 49bd 43db 863d d160 1ebc
00000030: 85b6 eebd d181 adbd 56fb ee3d ade5 343d
00000040: 034f bfbb a640 1ebd 2ff9 de3d 0d88 05bd
00000050: 9a4a e23d ec44 ecbd 90ac dfbd eee1 e93c
00000060: eac5 cb3d 1048 413d 4793 24bc 8be5 b23c
00000070: 068a ee3d adff 06be 7db7 423c f7db 94bd
00000080: 3103 843c c9fb c1ba 13d3 03bd 9932 8a3c
00000090: c6bb 963d f368 df39 6ba0 603c bdf1 893d
000000a0: 5acc 0d3e 5812 92bd d7bf c0bd 75a4 eebd
000000b0: eebf f1bd 0c73 8ebc 78bf 57bd 1d2f f4bd
000000c0: 18ee 85bd 57b4 e83c d4bb d43d 245c fc3d
000000d0: a495 993d 22a3 31bd 9687 893c 396a 7e3c
000000e0: 59e7 c8bd 1e71 0e3e 5470 febd 04ad e33d
000000f0: d0a5 c0bd 465e 033c 282e d83d 98cd 80bd
00000100: b35b d13d 8010 a6bd 93f7 953d 242c f93d
00000110: 80b6 df3d 11ea 723d 9ab3 193d 04c2 f33d
00000120: fe6d 1b3d 3bb3 5ebd 12f7 4c3d bb22 d6bd
00000130: 804b 95bd 53c8 603c 75b1 143d 87ec 3cbd
00000140: 3553 d7bd bca0 023d 99e9 0c3c feac 22bc
00000150: a128 c8bb 57c9 113d a02a b23d 62aa ff3d
00000160: 4a94 863d 35b4 2cbd 5036 ce3c e833 dbbd
00000170: ea70 953d e63b c4bd 8256 d4bc 96e9 d03d
00000180: a0ac 603d dfdd eabd ef61 be3d e4e0 c23d
00000190: 8d74 993d c83f 943d 0baa a5bd 9b43 febd
000001a0: 082f b73d cf8b dabc 448b 723d f329 913d
000001b0: e928 903d af69 9cbd d684 e1bd c30a ecbc
000001c0: a8f2 67bd d571 d4bd f36b be3d 0b76 0c3e
000001d0: 3c2e 14bd 7736 a13d 934c 6a3d 811c 503d
000001e0: dcaa dcbc 5dea a2bd 5e2d 05bd 1e06 d53c
000001f0: 2eb8 a13d 7bbf 513d 0b5f d63d 9adc 84bd
00000200: 97d1 73bd 7612 89bd 46cb bfbd b804 e2bc
00000210: a930 8fbd d10b 893d b5f3 e83c 382d 00bd
00000220: 67e7 be3d 543d 993d 60c6 cebd 9ae5 93ba
00000230: 4593 c33c 8ab7 8b3d 0a44 0bbe c674 10be
00000240: c612 0fbe 345d 9fbb a706 0f3e 2ade 763d
00000250: 3379 02be 7c26 e03d 00bd 95bd 8b3d b9bd
00000260: a5b9 063e 2fbc 263d fcee 583d 1804 88bb
00000270: bc96 dc3c 516a 5c3c 55e2 da3c 98ba a8bb
00000280: e91e 09be cc23 053e 18a9 d83d 0ce9 96bb
00000290: 4a45 c4bc 8131 dd3d 3ea3 e73d 9ea6 723d
000002a0: d4af 993d 11c1 ddbd 03d2 763d a2de e03d
000002b0: 5337 a6bd 25cc 0e3e 6466 cdbd b284 0bbe
000002c0: 9890 9fbd d893 bdbc 7507 d7bd 5cfe 59bd
000002d0: 004e de3d a9e5 893d 9fa5 83bc 6efc d3bc
000002e0: 6094 02be 33f5 0e3e ab3f 48bd 29d4 bfbb
000002f0: b46d 86bd 566a bfbd 1baa 08be 0e4b f2bd
00000300: e100 1dbc e118 6c3d ace9 953d 7d1c f9bc
00000310: 0500 663c d55a 9c3d 73ce 8b3d 67bc 0a3e
00000320: 1271 01bd 21f3 0bbd 0728 93bc fa62 953d
00000330: 50be be3c 5323 0fbe 9dc1 cb3d 21ad bfbb
00000340: 319e ebbd 08c1 103e cba8 a6bd d0f5 a4bb
00000350: 50fa 8abd e2f5 a8bd 4cd2 dbbd 9894 9d3d
00000360: 5b9e 853d 4b11 33bd eba0 8c3d 42f1 e2bd
00000370: b133 49bd b865 823b 2a26 dc3d 6bd5 d73d
00000380: d8ae abbd 5824 3a3d a047 c7bc 4320 c53d
00000390: 9ff9 96bd ece7 f5bd 3df0 14bd d933 2d3d
000003a0: 4623 52bd ba87 703d b7ed 08be 7d31 eebd
000003b0: 673f 1f3d a7f7 09be 5589 643d 6c39 833c
000003c0: 3608 e93d 63e0 eabc 6994 abbc d322 0fbe
000003d0: f50a 9cbd 8859 90bd 1aef 05be 46be acbd
000003e0: 64a0 c03d f650 b1bd 4536 1abe d39d 08be
000003f0: 778c bcbd 8785 963d 0f39 dfbd 0387 72bd
-0.12658 0.10509061 -0.056469157 -0.018765397 -0.09884425 0.056832176 -0.07602878 0.09078647
0.091036856 -0.049196668 0.065847896 -0.0096666375 -0.116559066 -0.08472026 0.11669032 0.04416435
-0.0058382764 -0.038635872 0.10887372 -0.03260045 0.11049385 -0.11536583 -0.109215856 0.028550114
0.099498585 0.047187865 -0.010044879 0.02183797 0.1164742 -0.1318347 0.011884567 -0.072685175
0.016114803 -0.0014799769 -0.032183718 0.01686983 0.07360034 0.00042612068 0.013710122 0.06735561
0.13847485 -0.07132405 -0.094115905 -0.116524614 -0.11804186 -0.017388843 -0.052672833 -0.11923049
-0.065395534 0.028406305 0.10387388 0.12322262 0.07499245 -0.043368466 0.016788285 0.015528255
-0.09809751 0.13910338 -0.12423769 0.111169845 -0.09406626 0.008018082 0.105556786 -0.06289214
0.10222568 -0.08108616 0.07322612 0.12166622 0.10923481 0.059305254 0.037524797 0.1190224
0.037946694 -0.054370146 0.050040312 -0.10455843 -0.07289791 0.013719636 0.03630205 -0.046124008
-0.10513917 0.03189157 0.008600616 -0.00992894 -0.006108359 0.035592403 0.08699536 0.1248367
0.06571253 -0.042164046 0.025172383 -0.1070326 0.07296927 -0.09581737 -0.025920156 0.10200803
0.054852128 -0.114681 0.09296023 0.09515551 0.074929334 0.07238728 -0.08089074 -0.124152385
0.089445174 -0.026677994 0.059214845 0.07088079 0.07039053 -0.07637345 -0.110116646 -0.028813725
-0.0566279 -0.10373274 0.092979334 0.13716905 -0.036176905 0.078717165 0.057201933 0.050808433
-0.02693694 -0.079548575 -0.03251397 0.026003893 0.078964576 0.051208 0.10467347 -0.06487389
-0.059526052 -0.06692974 -0.09364943 -0.02759014 -0.06991703 0.06691707 0.028436521 -0.031293124
0.0932148 0.074824005 -0.10096431 -0.0011283637 0.023873935 0.06822117 -0.13600174 -0.14107046
-0.13972005 -0.0048634056 0.13967381 0.060270466 -0.12741546 0.1094484 -0.073114395 -0.090449415
0.13156755 0.04070681 0.05296229 -0.0041508786 0.026927345 0.013453082 0.026719252 -0.005149197
-0.13390698 0.13001937 0.10579127 -0.004605418 -0.02395882 0.10800458 0.11310433 0.05924093
0.0750424 -0.1082784 0.060258877 0.10979964 -0.08116021 0.13945062 -0.10029295 -0.13624838
-0.07791251 -0.023141786 -0.10499469 -0.05322109 0.10854721 0.06733257 -0.016070185 -0.025877204
-0.12751913 0.13960724 -0.048888844 -0.005854149 -0.06563893 -0.09346454 -0.1334614 -0.11830722
-0.009582729 0.057640914 0.0731996 -0.030409092 0.014038091 0.07634512 0.068264864 0.13548432
-0.031601973 -0.034167413 -0.017963422 0.07294269 0.023284107 -0.13978319 0.09949038 -0.005849496
-0.11504782 0.14136136 -0.081376635 -0.005034186 -0.067860246 -0.082500234 -0.1073347 0.07694358
0.065243445 -0.043717664 0.0686663 -0.110811725 -0.049121562 0.003979411 0.10749467 0.10538753
-0.08382958 0.045444816 -0.024326146 0.09625294 -0.0737183 -0.12007126 -0.03636192 0.042285774
-0.05130317 0.05872319 -0.13371931 -0.11630533 0.038878825 -0.13473378 0.055795033 0.016018592
0.11378519 -0.028671449 -0.02094479 -0.13978128 -0.076192774 -0.07048327 -0.13079491 -0.08434729
0.09405592 -0.0865802 -0.15059765 -0.13341455 -0.09206479 0.07349687 -0.10899555 -0.05921079

encoder.2.bias f4 [30]
00000000: 266b debd 7990 b4bc f573 c83d a481 aebc
00000010: 49f9 9e3d 9da8 c63b 4a4a 9c3d b70e ee3c
00000020: f877 8e3c d864 debc 34f4 83bd 71f4 d43d
00000030: 46ca 5a3d 9f91 303c b8b7 0a3e 976c 083d
00000040: 1e2d 413a 7ea5 873d 4e81 853d f79a d33c
00000050: e9e4 543d a99f 813d 2dbf 03bd e1b4 9c3d
00000060: 88bd b83d d8ee d93d 53a5 3a3d 565d 223d
00000070: 0b46 c23d efff 803d
-0.10860281 -0.022041546 0.09787742 -0.021302052 0.07762391 0.0060625807 0.07631357 0.029059751
0.01739119 -0.027147695 -0.064430624 0.10398186 0.05341556 0.010776906 0.13546646 0.033306684
0.00073690887 0.06623362 0.065188035 0.025830729 0.05197612 0.06329281 -0.03216474 0.076516874
0.09020525 0.10641259 0.04556782 0.039639793 0.09486016 0.062988155

encoder.4.weight f4 [10, 30]
00000000: caa7 1ebe e25d 2c3e 6f0c 92bd d4c3 4cbd
00000010: c04a cf3d 05cc 9f3c f247 72bd f79f 0fbe
00000020: 53b0 25be f4f4 44bd 9e24 903d aa73 30be
00000030: 7bf3 813d d63e 503e 7673 e53c fdf2 2c3e
00000040: 5eb1 403d 42ef 47be 7637 d1bc d532 133e
00000050: b118 8dbd 8c65 09bc 0e09 e9bd 1112 f23d
00000060: 7673 a8bc 173f 92bd be8b d53d 8073 143e
00000070: b612 fd3d 50b0 9e3c 42f4 2f3e 630f 9cbd
00000080: c7ef 72bd 4d51 eebd 3e03 343d 8b1c 0bbe
00000090: c7b7 b13d 6946 b33d 0745 f3bd 77ff 963d
000000a0: c974 e0bc 3b24 2abe cd2e 1f3e fa57 0dbd
000000b0: b2c4 59bd 1a35 95bd 90b2 173d 2235 35be
000000c0: fd32 05be b828 283e 2a1c 353e 5efa d8bd
000000d0: a167 c03d 9e32 503d 787d 14be f95d 33be
000000e0: af78 9d3d 4004 b83d c1fb 40be aaa5 bbbb
000000f0: 9cfd 0cbe dc62 a3bd eb9b 64bc eb75 2d3e
00000100: 3640 a73d 98fc 12be 2521 3cbd 748c 3e3e
00000110: 7bb7 30bd 638e 18bd 1a74 0dbd de41 19be
00000120: 8163 ffbd ca23 0a3e a00b eebd 979f b6bc
00000130: 8801 2f3e 019c 173e 36fd 22be 00f2 e23a
00000140: 1fbf 3fbe 24a9 55bd 62e4 a0bc b104 053d
00000150: c779 88bd 3998 363e b594 f8bd 463f 1c3e
00000160: 6a1a 3b3e d19a b03c 6dcd e4bd e1ef 4d39
00000170: 490f a53d 8c82 d93c 8d49 3c3e dae7 19bd
00000180: fdb5 4c3e f584 46bd 9c6c 3dbe a91a 61bd
00000190: cd81 b3ba 768d 113e 27cd 11bd d84b 033e
000001a0: 212d 283e f6ae 243d 8151 0a3d f0d3 02bc
000001b0: b8c4 24bd 557a 983d d11a 2bbd 1ca5 00be
000001c0: 3485 583d e080 fd3d 238c bcbc 2531 1cbd
000001d0: ccfa 393d d958 223e 5bfd 0cbe cd56 dabd
000001e0: b2f2 473e f29d 0d3c 939c f6bd ae5e 2cbe
000001f0: 91ca b5bc ca60 91bd 8813 3abe e1cd fbbc
00000200: 1183 af3d 5b5f 7b3d 6443 f2bd 7fe2 833d
00000210: 63ee 083a 7d9d 16be 4ac7 81bb 9fa0 44bd
00000220: cadf 30be 0279 0dbe 326a b13c d1e0 b4bd
00000230: c4e4 05be 4fac f83a a427 01be 3dba d6bd
00000240: 7327 72bd 9af3 953d 210a ab3c 691d 37bc
00000250: d18c 32be 13c7 8fba 383a 6fbd 934e b63d
00000260: 598b 63bd 1c6e 1a3e 0667 753d 532e 273d
00000270: 310d d83d 4dc0 a0bd e492 09be 1e1b 273d
00000280: 1482 fabd c2e3 31bc e594 1ebe c55d 003e
00000290: f554 1a3e 5d14 0d3e 6e5a c93d 6338 38be
000002a0: 13b7 d6bd be99 a5bd c8ee f4b8 d701 05bd
000002b0: edbb d83d 4eca 763d a70b ea3d 7a95 ab3d
000002c0: 71c9 15be 7f2c 39bd 3c85 003d 70a4 2fbe
000002d0: 5566 8a3d f9fa a8bd aa8e 293d b2a6 093e
000002e0: 3478 e03d 6046 2dbe ef76 203d 1f77 c5bd
000002f0: a9f6 1d3e 6409 f03d 8240 3c3e 97d4 893d
00000300: fadf 843d e2c8 0abd b64f bf3c 39bf 18be
00000310: 41eb f4bd 0829 a5bd 492c 853d f5b0 07be
00000320: a985 27be be92 f2bd 7cc4 4d3e 8392 b4bd
00000330: 6a35 17be 453d a03d 4abd 4bbe 2567 0f3e
00000340: 1873 053e 0235 46bc ea00 3aba ff2e 7b3d
00000350: 8c3a 10bd 49e9 eb3c b298 d3bd 6332 603d
00000360: 68ca 9f3d 6c58 0e3e 6b08 95bd 2cff ca3d
00000370: be20 dabd 036b 0b3e 3ada 8a3d e652 703d
00000380: f913 b4bd 35eb 37be c67e 23be 52b0 0bbe
00000390: 700c 04bd 2337 003d b3ce a3bd 0522 94bd
000003a0: 0b53 193e 6972 a03d 1556 1bbe a5cd ab3d
000003b0: 8818 ec3d 073c 99bd 9c76 3b3e ae6c de3c
000003c0: be5d 3ebb 9d40 0f3e 970a a7bd 33c8 9a3d
000003d0: 5c10 f339 5954 dabd 57f5 c13d cece 20be
000003e0: 4382 193e ded7 713d e7ac 05be edf1 86bd
000003f0: 4096 4f3e 8e12 533e 75cc 1a3d b923 223e
-0.15493694 0.16832688 -0.07131278 -0.049991444 0.10121679 0.019506464 -0.059150644 -0.14025865
-0.16180544 -0.048085168 0.07038234 -0.17231622 0.06345268 0.2033647 0.028009158 0.16889568
0.04704415 -0.19524863 -0.025539141 0.1437486 -0.06889475 -0.008386027 -0.1137868 0.11819852
-0.020562869 -0.0714094 0.10427044 0.14497185 0.123570845 0.019371182 0.1718302 -0.07620122
-0.0593107 -0.11636601 0.043948404 -0.13585107 0.08677631 0.08753664 -0.118784 0.07372945
-0.027399438 -0.16615383 0.15545197 -0.03450773 -0.0531661 -0.07285519 0.037035525 -0.1769605
-0.13007732 0.16421783 0.17686525 -0.10594629 0.09394766 0.050829522 -0.14500988 -0.17516316
0.07689034 0.089851856 -0.18846036 -0.005726536 -0.1376862 -0.0797784 -0.013953189 0.16939513
0.08166544 -0.1435417 -0.045930047 0.18608266 -0.04314373 -0.037245166 -0.03453455 -0.14966533
-0.12470151 0.13490215 -0.11623311 -0.022292895 0.17090428 0.14805605 -0.15916905 0.0017314553
-0.1872525 -0.05216326 -0.019640151 0.032475177 -0.06663852 0.17831506 -0.121377386 0.15258512
0.18271795 0.021558197 -0.11171994 0.00019639685 0.08059556 0.026551507 0.18387432 -0.037574627
0.19991298 -0.04846664 -0.18498462 -0.054957066 -0.00136953 0.1421412 -0.03559604 0.12821901
0.16423465 0.04020592 0.033769134 -0.0079851 -0.040226668 0.07445208 -0.04177362 -0.12562984
0.052861407 0.123780966 -0.023016041 -0.038132805 0.045405194 0.15854205 -0.13768522 -0.10661087
0.19526175 0.008643614 -0.12041583 -0.16832992 -0.022191318 -0.07098539 -0.18171513 -0.03073782
0.08569921 0.061370235 -0.1182926 0.06439685 0.00052235107 -0.14708515 -0.0039605247 -0.048004743
-0.17272869 -0.13815692 0.021657083 -0.08831943 -0.13075548 0.001897225 -0.12612778 -0.10484741
-0.059119653 0.07321854 0.020878853 -0.0111764455 -0.1743653 -0.0010969363 -0.05840513 0.089017056
-0.055552814 0.15081066 0.059912704 0.040815663 0.10549391 -0.078491785 -0.1343494 0.040797345
-0.12231842 -0.010857524 -0.15486486 0.1253577 0.15071471 0.13777299 0.09831701 -0.1799026
-0.104841374 -0.080859646 -0.00011679303 -0.032472458 0.10582719 0.060251527 0.11428004 0.0837812
-0.14627625 -0.04520845 0.031377062 -0.17152572 0.067577995 -0.08250994 0.04139582 0.13442495
0.10960427 -0.16921377 0.039175924 -0.09641861 0.15426125 0.11720541 0.18383983 0.067300014
0.06488033 -0.033882983 0.023353439 -0.14916696 -0.119589336 -0.08064467 0.06502587 -0.13251098
-0.16359581 -0.11844395 0.20094484 -0.088170074 -0.1476647 0.07824186 -0.19896427 0.1400419
0.13032186 -0.012097599 -0.0007095473 0.061324116 -0.035212085 0.028797762 -0.10331859 0.054735553
0.07802278 0.13900918 -0.07276996 0.099119514 -0.10650776 0.1361504 0.06779905 0.058672808
-0.08792872 -0.17960818 -0.15966329 -0.1364148 -0.032238424 0.031302582 -0.07998409 -0.07233051
0.14973085 0.07834322 -0.15169556 0.08388833 0.115281165 -0.074821524 0.18306965 0.027151432
-0.0029047574 0.13989492 -0.08156317 0.07557716 0.0004636076 -0.10660619 0.09470623 -0.1570389
0.14991097 0.059043758 -0.13054238 -0.065891124 0.2027216 0.20612547 0.03779264 0.1583394

encoder.4.bias f4 [10]
00000000: 178b 7dbd 24e0 8dbd 925e 043d a8d4 49bd
00000010: da61 9c3d 4b74 1b3e 7dd9 f8bd a346 bebd
00000020: 78dc 6cbd 7868 b7bc
-0.061900225 -0.06927517 0.03231675 -0.04927507 0.07635851 0.15181081 -0.121508576 -0.09290817
-0.057827443 -0.022388682

encoder.6.weight f4 [1, 10]
00000000: 44f0 a3be 43ad 0bbd b7cc a73e 8684 6f3e
00000010: 4bae 02be cab0 c4ba d842 463e 8b65 163d
00000020: a68e adbe 0868 56be
-0.32019246 -0.034100782 0.32773373 0.23390397 -0.127618 -0.00150063 0.19361436 0.036717933
-0.33897895 -0.20938122

decoder.0.weight f4 [10, 1]
00000000: 1fc6 bd3e 50f3 36bf 299f c93e 70d5 5e3f
00000010: 8951 31bf 9147 d7be c97a e83e 3ca5 633f
00000020: 7885 6d3e b1a4 25bf
0.37065217 -0.71465015 0.39379242 0.8704443 -0.6926504 -0.42046788 0.45406178 0.88924
0.23195446 -0.64704424

decoder.0.bias f4 [10]
00000000: b5c4 7f3f b5bb 4ebe dfa9 ed3d 0768 933b
00000010: 3e3a 943e 861c 02bf b566 2f3c 036d 44bf
00000020: d047 35bf d2df 3ebf
0.99909526 -0.20188792 0.11604666 0.004498485 0.28950685 -0.50824773 0.01070564 -0.7672884
-0.708127 -0.7456027

decoder.2.weight f4 [30, 10]
00000000: 50f6 9a3d bcf3 33be 7c4d 25be c1fc 803e
00000010: a807 17be 7158 9dbd b22b 123c 2c07 66be
00000020: e4b3 04bb f793 063d 1c12 563d d1d4 f33d
00000030: 5256 3cbd 2339 a9be d470 ef3d 0273 a73e
00000040: 1f5a 06be cc69 5f3e 78f6 943e 5b45 39be
00000050: b4e5 74be f439 9ebe 1134 c53c d74e 193e
00000060: 0630 a1be 771c a33e ab10 65be fbfa eebd
00000070: f584 743d 0dd3 aabc f2fb 963e 06c0 88be
00000080: 58f5 1a3e 4a4b 9e3d ddf3 873d e21a 14bd
00000090: bf67 1a3e 441f 54bd cf6a 163c 76f2 2f3e
000000a0: 2ca6 bebc faa6 5d3e 59a3 bd3d 5709 8abe
000000b0: 503d b23d ad55 c63d 5d2b a23e 2b4b ffbd
000000c0: 9f4e 00be eb2e 6e3e cabd 253e a118 9d3e
000000d0: 8661 ae3c e8c8 0f3e 1e93 8abe fafa 8b3e
000000e0: 9505 b4bd a512 abbe 02d7 f9bd 55d0 1ebe
000000f0: de67 9c3e 81c1 063e 39e4 a23e ce19 32be
00000100: 1b78 2a3e b2ce 6ebd da8b 52bc ae72 5e3b
00000110: f353 823c 6263 9a3e 516a ecbc 6a45 4abc
00000120: 96ae 383e 294c 3e3e a37c 143e 4233 263e
00000130: d5ce a13e 6b20 823e 61ca b0bd 93e1 293e
00000140: 87c2 21bd 1119 6dbe 2408 90be a53f 7f3e
00000150: 8364 0dbe 619f a9bd 6748 8dbe 9694 bfbd
00000160: 6afb ab3e 486b 93be 9981 d6bd 967d a4bc
00000170: d292 1fbe 850f 463e ae79 d73d f3b3 1fbe
00000180: 8d25 0fbe 3f3a a23d e58a c5bd 269b 02be
00000190: 08d6 3b3e 3b3b 2dbe 1248 9bbe cfed 8fbe
000001a0: 0f20 a33d e9c4 b93c 5e08 5e3e 623c 993e
000001b0: 6aaf 873d 1752 7f3d 74f5 663b f021 28bd
000001c0: cf4c 483e 7f44 793c af5d 51be bccc 873d
000001d0: 9913 633d 80a0 95be 83cb 05be 2a09 f3bd
000001e0: 11ff b0bd 6a60 7d3e 5f30 e5bd 4d94 a93e
000001f0: 50a4 bd3d 6515 dabd aac1 1cbc 185d a2bd
00000200: 569c 47be cf70 c53d 6cb6 553e 793f aebd
00000210: defa 36be 0c87 91be cc44 443e 4cae 7dbd
00000220: 4156 333e 1b8a 903e 678e ea3c a92b fcbd
00000230: db6c 633e e9e9 503e fe65 45be b708 8abe
00000240: c250 29bc 7054 263e 9f5d 7fbc fa23 f63c
00000250: 809c 11be 6cc3 66be dd8b 8d3e 98ea 973e
00000260: c7c6 36be c79c 683e 17de 97bd 2846 86be
00000270: 6f2a 343e 156a 243d aaed 483d 3742 a0be
00000280: 775c 81be 822e 423e 2bdf b0bd d611 8ebe
00000290: d974 2bbd d7aa 993c cd8a 8fbe d387 78be
000002a0: bcd8 943e 1211 873d d9aa a5bd a6b8 1e3e
000002b0: 7ffb 9dbe 1c3d 4fbe d9e0 a33d a237 3cbe
000002c0: 46d2 0cbd a9dd 95be 29e9 0dbe f736 0ebe
000002d0: 2b15 33bd 3c34 873c 409c 77be c618 943d
000002e0: 70fa 333d 4c5b e63d db4a e03d 8533 2cbe
000002f0: eaec c73d fe9a 163d cfa6 e83d 15ec 893e
00000300: 4d8f 9a3c 11e0 713d 19e0 dfbc 429a 2fbe
00000310: 091b a23e 722a 81bd b989 c8bd 5781 c13d
00000320: 7ffb 88be 6040 713e eba6 983e c807 303e
00000330: 996f 5f3d 60a4 bebd 83f8 ce3d a455 0a3e
00000340: 6ac5 9dbe b50b 8dbe 9c89 6abe ec09 653e
00000350: b8ed cebd a92f 673e ce3e 9fbd 2315 dfbd
00000360: f2fd b4bd c141 3cbe 7880 68be 44a3 34bd
00000370: f92f 92be 338f 713d 3f0e 6abd 9f7c 333e
00000380: ea9d bb3c 76f4 c8bd 7b10 863e e1ff 173e
00000390: 86a2 063e 3ab0 2f3d 6d13 4c3e 2364 243b
000003a0: 1465 29be 3cf3 d93d c11a 093d 0568 7d3d
000003b0: 253c 31bd 2fb0 55be d62d 653d 736b 99be
000003c0: 597b b3bd 177e 8bbe f5e3 163e 3ebf 0e3e
000003d0: b8b5 a2bc 0120 30bd d486 383e 22e7 9b3e
000003e0: 9ebf 5e3e 78dd bd3d 75b4 aabd e2cd 9b3d
000003f0: b2d1 60be 84cf a0bd c011 953e a484 6dbe
0.07566512 -0.17573446 -0.16142839 0.25192836 -0.14749014 -0.076828845 0.008921551 -0.22463673
-0.0020248825 0.032855954 0.052263364 0.11905826 -0.04598076 -0.33051404 0.11691442 0.32704931
-0.13120316 0.21817702 0.2909429 -0.18092863 -0.2391575 -0.3090359 0.024072679 0.14971481
-0.3148195 0.31857654 -0.2236964 -0.116689645 0.05969711 -0.02085259 0.29489094 -0.26709002
0.15132654 0.07729204 0.0663831 -0.03615845 0.15078638 -0.05178763 0.009180739 0.17182335
-0.023272596 0.21645728 0.09259672 -0.2696025 0.08703101 0.0968431 0.3167371 -0.12465509
-0.12529992 0.23260085 0.1618568 0.30682853 0.021286737 0.14041483 -0.27065367 0.27339917
-0.08790127 -0.33412662 -0.121992126 -0.1550916 0.30547994 0.13159753 0.31814745 -0.17392656
0.16647379 -0.05830259 -0.012850726 0.0033942866 0.01590917 0.30153948 -0.02885929 -0.012345651
0.18035349 0.1858374 0.1450067 0.16230491 0.31603113 0.25415358 -0.08632351 0.16589956
-0.039492156 -0.23154093 -0.2813121 0.24926622 -0.13807873 -0.08282352 -0.275943 -0.093545124
0.3359025 -0.28792787 -0.104739375 -0.020079415 -0.15583351 0.19341858 0.105212554 -0.15595989
-0.13979168 0.07921266 -0.09645633 -0.12754497 0.18343365 -0.16917126 -0.30328423 -0.2811112
0.07965099 0.022676902 0.2168288 0.2992888 0.066252545 0.062334146 0.0035241516 -0.04104799
0.1956055 0.015214085 -0.20445894 0.06630847 0.05543861 -0.29224014 -0.13065915 -0.11866982
-0.086424 0.2474381 -0.11190867 0.33120957 0.09259856 -0.10648612 -0.0095676575 -0.079279125
-0.19493231 0.09640657 0.2087037 -0.085082 -0.17869136 -0.28423345 0.19166869 -0.0619338
0.17513372 0.28230366 0.028632356 -0.12313015 0.22209494 0.2040173 -0.19277188 -0.26959774
-0.010334196 0.16243148 -0.015586286 0.030046452 -0.14219856 -0.22535485 0.2764577 0.29671168
-0.17849265 0.22716056 -0.07415407 -0.262254 0.17594312 0.04014023 0.04905478 -0.31300518
-0.25265858 0.18963054 -0.08636316 -0.27747983 -0.04185948 0.01875822 -0.28035584 -0.24270563
0.29071605 0.06595053 -0.08089227 0.15500125 -0.3085594 -0.20238155 0.08001871 -0.18380597
-0.03438022 -0.29270676 -0.13858475 -0.13888155 -0.04372136 0.0165044 -0.24180698 0.07231288
0.043940008 0.11247882 0.109517775 -0.16816528 0.09761985 0.036768906 0.11359941 0.2693793
0.01886716 0.059051577 -0.027328538 -0.17148688 0.3166125 -0.06306924 -0.097918935 0.09448498
-0.26754376 0.23559713 0.29814848 0.17190468 0.054549787 -0.09308696 0.101059936 0.13509232
-0.30814677 -0.27547994 -0.22904056 0.22367066 -0.10103935 0.22576775 -0.07775651 -0.108927034
-0.08837499 -0.18384458 -0.22705257 -0.044101015 -0.28552225 0.058974456 -0.057142492 0.17528008
0.022902448 -0.09812252 0.2618445 0.14843704 0.13147935 0.042892672 0.19929285 0.00250841
-0.16542464 0.106420964 0.03347278 0.06186678 -0.04327025 -0.2086799 0.055951916 -0.2996479
-0.08763761 -0.27244636 0.14735396 0.1394014 -0.01986204 -0.04299927 0.18020183 0.30449778
0.21752784 0.092707574 -0.08335201 0.076076284 -0.21954992 -0.078520805 0.29115105 -0.2319513

decoder.2.bias f4 [30]
00000000: 52f1 4f3e 4fe5 02bd 41e6 f5bc 2ccf 09be
00000010: 280c a43e 949b 39be f18d 5e3e e489 263d
00000020: 2234 4ebe 7419 ce3d 241c 90be 855b 07bd
00000030: d431 e23c 71eb 993e 2f59 9cbe e223 733e
00000040: 905f 0d3d 2b1e 81bd ba5d 8bbe 3506 3b3e
00000050: 61d7 adbd a08a 96be 0794 27be f71b 613e
00000060: 05fc a0bd 232f 19be efe2 4b3d dd88 3dbe
00000070: a00b 6abe ac0f 26be
0.203069 -0.031956967 -0.03001702 -0.13457936 0.32040524 -0.18125755 0.21733834 0.040658846
-0.20137075 0.100634485 -0.2814647 -0.033046264 0.02761165 0.3006244 -0.30536792 0.23744157
0.034514964 -0.06304582 -0.27219945 0.18264087 -0.08488346 -0.29402637 -0.16365062 0.21983324
-0.07860569 -0.14959387 0.049776968 -0.1850924 -0.22855997 -0.16216916

decoder.4.weight f4 [60, 30]
00000000: 4807 003d b1b8 08be 3f45 183e f635 7cbc
00000010: b1f8 243e c511 9d3c 1153 ea3c ea94 0d3e
00000020: 325b d7bd ea36 8ebc 70b2 40be 690a 633d
00000030: c86c 98bd 496e 2bbd e880 e33d 32db 953c
00000040: 9f1e 4abd 9a32 90bd 04f8 17be a4f6 e4bc
00000050: c97d 283e a914 05be d12f cf3d 8331 353e
00000060: a683 18be f926 aabc 7519 efbd 16dc 8d3d
00000070: e4ec 10be 29a8 2c3d a58b 3cbd 2990 b0bd
00000080: 0ece a2bd daed 27be ab21 22be d5a6 eebb
00000090: 2c5c 37be 5575 943d 818a d5bd e7a2 03be
000000a0: 7111 09be 7233 233d 72e9 2f3c cb5b 413c
000000b0: faaf cb3d 8852 51bd 4237 c3bd 7520 453c
000000c0: 228a 0c3e 6f26 7fbd 3d60 d4bb 2bd8 2dbd
000000d0: e7cc c5ba 2e38 36be 4a0f 043e b600 223e
000000e0: 8acf 0d3e 24db 2a3d f074 9b3d aa23 a8bd
000000f0: c2a8 173e 3d89 8c3d 123a 5abd 5765 2abe
00000100: e028 ba3d c927 233d 52aa 0b3e d6c2 39bd
00000110: a375 853d ec74 083e 3568 eb3b 7d8f 19be
00000120: 2791 e83d 79a7 513d 769a 043d 2859 b93b
00000130: 9854 053e de6f 64bd f092 093e 3484 143e
00000140: 289f 853d c3fd 213d 3592 183d fdb5 98bd
00000150: 3474 bb3d d0e4 223e 879a 9b3d 42da 09be
00000160: e8d8 a23d 4fe6 94bd 015a 773d e738 9d3d
00000170: a16e d53d fc8c f53b 2190 4bbd eb0f 35bd
00000180: bd8f 583d fec7 983d 6374 ed3d 28ec 4cbd
00000190: 1063 80bd 18d5 02be b639 423e 5354 d43d
000001a0: 52ab adbc 35f5 a5bc 8344 0fbd 6ba1 403e
000001b0: e6fd 40be 51b5 09be 6937 afbb 427d 163e
000001c0: a5e4 233d 044b 1cbe d104 41be ad12 b73c
000001d0: 4520 91bd 97a3 ecbd 5726 ba3d fb0a 253e
000001e0: 4496 bc3d 3a32 ab3d 07e7 ebbd 0cd7 e03d
000001f0: 3ed7 babd 0450 413e 5ca1 1b3e 9467 15bd
00000200: bdc2 08bd fced 95bd 4f5f a0bd 5298 e23d
00000210: 11db f6bd 22a2 c7bd b576 003e c324 0e3c
00000220: 2ab9 1c3e 53cb 543e a58d d2bd 7bb7 223e
00000230: b635 1a3d d862 42bc 7cf3 0a3e 9350 1cbe
00000240: 456c 0c3e 4f0d 1ebe 5b04 cfbd 669b 373d
00000250: 85dd 3dbe 87cb c9bd e157 ac3d 01f8 c3bd
00000260: d339 30be c35d 0b3e 8d64 07be 7510 893d
00000270: c04f 20be deb6 39be 7f26 f9bd 5617 9ebd
00000280: 2470 05be 03b5 223e c81e eebd a875 2c3e
00000290: c7e6 503d bc7f ed3d 04c8 d3bd c238 8dbd
000002a0: f5a0 df3d f05f 07be 242b 163e a01b e73d
000002b0: 7670 f2bd d545 383e 0ea3 2f3d b0f4 b7bd
000002c0: 8071 0a3d 3dbe 3cbe a451 1c3e 27ab 123e
000002d0: 821c bc3d e821 bc3d e7f9 4bbd 77b2 7cbd
000002e0: d85f 253d c907 af3d 64dd 4a3e ec33 14be
000002f0: ad00 6ebd c443 afbd 05dd 0dbc 9d09 3a3e
00000300: 0d2b 053d 8103 353e 2421 b7bd dc17 313d
00000310: dbc4 0a3d 79ae c7bd 6567 183d 9b0e a73d
00000320: 8d8d a03d d2d2 3a3d 0d5b 87bd 1875 243e
00000330: 78f4 26be 5e9c 163e 14ba 8e3d 8709 033e
00000340: 9a20 f43d 7d26 41bc 5ed2 c33d 1140 603d
00000350: 6f94 e8bd 3aaf 003d dd55 bf3d 42b4 1ebe
00000360: 52f2 053e 1385 043e 5ef2 a1bd 757e 3fbe
00000370: 40cc 393e d6aa 52bd 3c85 0f3e 48c7 96bd
00000380: a5a4 33be 1f73 29be c43f ce3a 003e e2bd
00000390: 2c97 37bd 92fa 19be 16fe 09be 06b3 fcbd
000003a0: 0298 253d f2b5 f8bd 6c7f b83d 0919 ba3c
000003b0: f5ca 3a3e f864 af3d 879a 0d3d c6d9 e83d
000003c0: c405 573d bcb4 0fbe 6797 33bd 6bf6 0fbe
000003d0: e474 083e 469b 8d3b dd7e 233e 0c4b 18bd
000003e0: 2233 45be 4284 27be 3023 2abe 2bab c13c
000003f0: b172 bb3b 24a8 ec3d 5e6f a5bd ea7b 083e
0.031256944 -0.13351704 0.14870165 -0.015393725 0.16110493 0.019173512 0.028604062 0.13826337
-0.10515441 -0.01736017 -0.18818069 0.05542985 -0.074426234 -0.041853223 0.11108571 0.018292997
-0.04934561 -0.070409015 -0.14840704 -0.027949639 0.16454233 -0.12996162 0.10116542 0.17694668
-0.1489397 -0.020770537 -0.116747774 0.06926744 -0.14152867 0.042152558 -0.046031613 -0.08621246
-0.07949458 -0.16399327 -0.15833156 -0.0072830715 -0.17906255 0.07248942 -0.10426808 -0.12855111
-0.1338556 0.039843984 0.01073681 0.01180167 0.09945674 -0.0511041 -0.09532024 0.012031664
0.13724568 -0.062292513 -0.006481199 -0.042442482 -0.0015090973 -0.17794868 0.12896457 0.15820584
0.13848701 0.041712895 0.075906634 -0.082099274 0.1481047 0.068621136 -0.053278036 -0.1664022
0.090898275 0.039832864 0.13639191 -0.045351826 0.06516578 0.13325852 0.0071840533 -0.14996143
0.113558106 0.051185105 0.032373868 0.00565638 0.13020551 -0.055770747 0.13434958 0.14503556
0.06524497 0.039548647 0.03724881 -0.074565865 0.09153023 0.15907598 0.07597833 -0.13462165
0.07951528 -0.072704904 0.06038857 0.07676869 0.104214914 0.0074936133 -0.049698 -0.044204634
0.052871455 0.074600205 0.11594465 -0.050029904 -0.06268895 -0.12776601 0.18967327 0.10367646
-0.021199856 -0.020258525 -0.034977447 0.18811576 -0.18846855 -0.13448073 -0.0053471816 0.1469622
0.040012974 -0.15262991 -0.18849494 0.022347772 -0.07086233 -0.1155464 0.09089344 0.1611747
0.092083484 0.08359189 -0.11518674 0.10978517 -0.091230854 0.1887818 0.15198272 -0.036475733
-0.033388842 -0.073207825 -0.07830679 0.11064209 -0.12053502 -0.09747721 0.12545283 0.008675757
0.1530501 0.20780687 -0.10280923 0.15890305 0.03764888 -0.0118643865 0.13569444 -0.15265112
0.13713177 -0.15434764 -0.101082526 0.044825934 -0.18541534 -0.09853273 0.08415199 -0.09568787
-0.17209558 0.13609986 -0.13221951 0.06692592 -0.15655422 -0.18136165 -0.12165546 -0.07719295
-0.1303106 0.15889363 -0.11626965 0.16841757 0.051001336 0.11596629 -0.10340884 -0.06895591
0.10919372 -0.13220191 0.14664894 0.11284566 -0.118378565 0.17995389 0.04288011 -0.08982217
0.03379965 -0.18431945 0.15265518 0.14323102 0.09185125 0.091861546 -0.049798872 -0.061693635
0.040374607 0.08546407 0.19811016 -0.14472932 -0.058106113 -0.08557847 -0.008658652 0.1816773
0.03251176 0.17677118 -0.08941868 0.043235645 0.033879142 -0.09750075 0.03720798 0.08157083
0.07839499 0.04561121 -0.066091634 0.16060293 -0.16304195 0.14708087 0.06969085 0.12796603
0.11920281 -0.0117889615 0.09561609 0.0547486 -0.113564365 0.03141711 0.09342549 -0.1549845
0.13080719 0.12941389 -0.07907556 -0.18700583 0.18144321 -0.051432453 0.14015669 -0.07362229
-0.17543276 -0.16547821 0.0015735556 -0.11046982 -0.044821903 -0.15036991 -0.13475832 -0.123388335
0.04042817 -0.12144078 0.09008679 0.022717016 0.18241484 0.0856418 0.034571197 0.11369662
0.052495733 -0.14033788 -0.04384556 -0.14058845 0.1332584 0.0043214886 0.15966363 -0.037180945
-0.19257787 -0.16359046 -0.16614985 0.02364119 0.0057204594 0.11555508 -0.08077882 0.1332852

decoder.4.bias f4 [60]
00000000: 290b b1bd f518 d23d f33d 223e cad6 aa3d
00000010: 0391 243e 8587 0fbe 25e6 873d 10c4 983d
00000020: d8b6 1cbe aa2b 8c3c 0093 ec3d 6883 453d
00000030: be37 453e dde0 e3bd aa88 b2bd 79dc 143e
00000040: b650 04be b69c 0bbe 1ee7 2fbe 6362 193e
00000050: 5931 423e 11b6 083e 767c 90bd e481 d0bc
00000060: c89b 3e3e 33fa 193d 13f4 1d3d 4607 143e
00000070: 13fc 033e 2a90 693d 00b0 eabd 09f8 0ebe
00000080: fb2c d8bc 04bd b6bc 3ffc 1e3e dab4 b5bd
00000090: 728a aebd 9644 5dbd c694 a9bd 2266 553d
000000a0: cf0a 3cbd 94f5 a53d 5e08 053e 6d8f 223e
000000b0: 4ebc d23a 468b c5bd 7a86 4f3d f055 123e
000000c0: c3c2 d8bc 9a9e 0c3d 93a8 9f3d 9216 e7bd
000000d0: 2d3d d3bd a5d3 01be 64ff f73c 4097 bc3d
000000e0: 39bc 2f3e 0b83 133d 6d87 2dbe 2a67 bd3d
-0.08644707 0.102586664 0.15843944 0.08341749 0.16070943 -0.1401654 0.066356935 0.07459271
-0.15304124 0.017110664 0.115514755 0.048221022 0.19259545 -0.11126874 -0.08717473 0.14537229
-0.12921414 -0.13633999 -0.17178008 0.14978938 0.18964137 0.13350703 -0.07054989 -0.025452562
0.18614113 0.037592124 0.038562845 0.144559 0.12889127 0.05702225 -0.114593506 -0.13961805
-0.026388636 -0.022306927 0.15525912 -0.08872385 -0.085225 -0.054020487 -0.082803294 0.052099355
-0.045908745 0.08103481 0.12991473 0.15875025 0.0016077848 -0.09645705 0.050665356 0.14290595
-0.026460057 0.03433094 0.07795825 -0.11283602 -0.10314403 -0.12678392 0.030273147 0.09208536
0.17161645 0.036013644 -0.16946192 0.092481926

decoder.6.weight f4 [118, 60]
00000000: ca0e 3c3d bebe ae3d d395 a33d bba0 f43c
00000010: 669e 87bd 6683 13bc 5af8 85ba 1883 553d
00000020: 6bc3 0f3d b40b 11bd 97bc 0fbe be83 99bd
00000030: aa9e 95bc a9e5 dc3c e1bc 143e e1d7 c0bd
00000040: 7c87 f63c b38f fdbc c98f 163e 0e33 80bb
00000050: 0cde 17be 6dee 913d 796a ed3a 5809 aa3d
00000060: efa4 17be 35fa 19be cee6 813c 3df3 e6bd
00000070: fc12 60bc 790e f7bc f462 893d fc5d 743c
00000080: 6b64 60bd 5270 8cbc c0f4 96bd d981 8abd
00000090: 7c55 c2bd 55bf ddbb 2b12 a4bb 05e3 05ba
000000a0: 384b 7dbd e55f b4ba 4f27 a2bd fd2d bcbd
000000b0: 0f92 6d3d 0d95 fa3d 587c d7bd 12a1 cbbb
000000c0: 7046 9a3d a430 f13d 1ae6 d03c 6ad8 bfbd
000000d0: 3253 ffbd dbb1 39bc c798 173c 2b49 97bc
000000e0: 66b5 303d a154 45bd 66f7 8ebd 0686 dabd
000000f0: 08b3 143e b4f9 e8bd 30fc 833c c49a aebd
00000100: 2fec e53d 1acc 9a3c 2a8a 113e 937b 14be
00000110: 5d02 c03d a21b fe3d f272 fabd c34e 5f3c
00000120: 7a27 a43c 8bd6 cdbd 8606 0fbd c71e 87bc
00000130: b4a7 4f3d cccb ae3c cbc4 23bd 76b5 bd3d
00000140: 617e 9e3d e7a7 d43d dc60 db3c 66ad 12be
00000150: e242 de3d 9517 61bd f90a 47bd 1f33 943d
00000160: 8648 533d 4829 e3bd dc8a acbd 1760 463c
00000170: 1e91 843d f675 90bd e970 df3d 23b3 aa3d
00000180: 5cb8 14be 8cdd b7bc 1304 7a3d a359 a4bc
00000190: 425d a9bd a91e 04bd a966 363d 7557 bbbc
000001a0: b6b9 a6bd 704d 3c3c c545 913d d797 023e
000001b0: 6c51 873d 7876 f53c 0dac 2b3d 3fdd 033e
000001c0: 385f dabd 86c3 33bd 8bb4 99bd 9e39 87bd
000001d0: 8cae 823d 4cf4 b93d 0f84 86bd c37d 35bd
000001e0: 68f8 863d 28b2 523d b189 443d b47f 233d
000001f0: 2b0c c3bd 044c aa3d bb43 dbbd 6e97 63bd
00000200: d8cf bd3b d848 033b 1c81 a9bb b285 c8bd
00000210: f176 0b3e ef72 bbbd 83a4 9cbb 0dee 38bc
00000220: 3ea6 86bc 7cbb 1abd 0be9 243c eabc 083d
00000230: 9a14 a0bd f221 c63d 435c cebc 01a7 d13d
00000240: cc74 c1bd 2069 c33d 1c7e ab3d fc10 35bd
00000250: 4fe3 9a3c e04c b73d 2084 eebd 4112 b53d
00000260: 87a7 8b3d 5deb 8dbd 528b 7a3d d16c 743d
00000270: 990a 323c ccfb a53d bc6a d1bd 14c9 61bc
00000280: d2f0 ab3b 98fd c93d 5293 993d 05b2 e8bb
00000290: df85 62bd b0a8 0cbe ad87 13bc 61b1 0fbd
000002a0: 3772 febc 565c a23c 2196 913d 0c32 813d
000002b0: be61 1a3c 2b0c 27bd a1e3 333d 56ad b23d
000002c0: 6489 b4bc 5593 f3bd 0c97 8c3a e2e5 4abd
000002d0: 9a98 e93d e283 e5bd de9e 6ebd 7c6a 753d
000002e0: 4e62 9ebd 762d a2bb e947 a13d e3cf bebd
000002f0: 5bf3 733d 0bb6 f23d abba a9bd 2f5f 863c
00000300: 0555 91bd dd5e a9bd dc50 00be aace 8a3d
00000310: 6bbc b63d 8bc5 b1bd 116a ac3d 8a07 34bd
00000320: e9a0 8b3d fad2 b3bd e386 f33d 450c fbbd
00000330: 97ce 8f3d e505 893d 605d c53c dae5 0d3e
00000340: e34d 8e3d aca8 a33d 295c f8bd ce14 c4bd
00000350: ca2b 35bc 7003 fc3d cc33 953d ec9d f6bd
00000360: 83d5 b03d e8ed e33c 8627 b4bc d9c1 b2bc
00000370: 3e05 463d 6adb 6cbd 7ed5 883d e007 9abd
00000380: f786 f0bc d3af ed3c 62f0 9dbc 742c 053e
00000390: 5de4 aabd cc6f 263d 66a3 a33d 2f6d d0bc
000003a0: 771c 933d 777a 04be 657d 73bd 52b0 d7bd
000003b0: 41ea b73c b619 81bd 51dd cabd c65a e6bd
000003c0: 21ab a63a a71a c53d efad ee3d 1291 3fbc
000003d0: fe68 cfbc 00f9 b7bd d486 e13d 2b31 e2bd
000003e0: 8d11 0dbc 3bc8 59bd 55af febd 94ad b63c
000003f0: 9ec3 a3bd a25f 18bd 60dd 183d c0f7 803d
0.04591254 0.08532475 0.07987561 0.029861799 -0.06622009 -0.009003496 -0.0010221109 0.052126974
0.035098474 -0.03541155 -0.14036785 -0.07495831 -0.018264133 0.02696498 0.14525177 -0.09416176
0.0300939 -0.03095231 0.14703287 -0.003912336 -0.14830798 0.07125554 0.0018113396 0.083025634
-0.14809011 -0.15036853 0.015857127 -0.11276863 -0.013676401 -0.030158268 0.06708327 0.014914986
-0.054783266 -0.017143402 -0.07370901 -0.06763048 -0.09488961 -0.0067671933 -0.0050070486 -0.0005107376
-0.061839312 -0.0013761489 -0.07917654 -0.09188459 0.05800062 0.122354604 -0.105217636 -0.0062142694
0.07532966 0.117768556 0.025500346 -0.093674496 -0.1246704 -0.011333908 0.009252734 -0.018467506
0.043141745 -0.04817641 -0.06980781 -0.10670094 0.1452142 -0.11375752 0.016111463 -0.08525613
0.11226689 0.018896151 0.14212862 -0.14500265 0.09375451 0.12407614 -0.12228955 0.013629618
0.020038355 -0.100506864 -0.03491833 -0.016494168 0.050697044 0.021337412 -0.0399826 0.092631266
0.077389486 0.10383587 0.026779585 -0.14323959 0.10852601 -0.05495413 -0.04859445 0.07236313
0.051582836 -0.11091858 -0.08424923 0.012107871 0.064729914 -0.07053749 0.10910208 0.08334949
-0.14523453 -0.022444509 0.06103904 -0.020062273 -0.08269741 -0.032255802 0.044531498 -0.022868851
-0.0814089 0.011493072 0.070933856 0.12753235 0.06607327 0.029963717 0.041912127 0.12877367
-0.10662693 -0.043887638 -0.07505139 -0.066027865 0.063809484 0.09079799 -0.06568157 -0.04430939
0.065903485 0.051439434 0.047982875 0.03991671 -0.09523805 0.0831528 -0.10706278 -0.055564336
0.005792599 0.0020032432 -0.0051728617 -0.09791125 0.13619591 -0.09152781 -0.0047803535 -0.0112872245
-0.016436692 -0.037776455 0.010065327 0.033383287 -0.078164294 0.09674443 -0.025190478 0.102369316
-0.09446105 0.095415354 0.08373663 -0.04420565 0.018907217 0.089502096 -0.116462946 0.08841372
0.06819063 -0.069296576 0.061168022 0.059674088 0.0108667845 0.08104667 -0.10225436 -0.013780851
0.005247214 0.09862822 0.07498802 -0.0071012997 -0.05530345 -0.13736224 -0.009004516 -0.03508127
-0.031060321 0.01981942 0.07108713 0.06308374 0.009422718 -0.04078309 0.043918256 0.087244675
-0.02203817 -0.11893336 0.0010726168 -0.04953564 0.114060596 -0.11206795 -0.058256976 0.059916005
-0.07733594 -0.004949267 0.07875044 -0.09316995 0.059558254 0.11851128 -0.08287557 0.016402809
-0.07096294 -0.08270047 -0.12530845 0.06777699 0.089226566 -0.086802565 0.08418668 -0.043952502
0.068178006 -0.08780475 0.11890962 -0.122581996 0.07021826 0.066905774 0.024092376 0.13857213
0.069484495 0.07991156 -0.12126953 -0.09574281 -0.011057803 0.12305343 0.0728527 -0.1204184
0.08634474 0.027823403 -0.021991502 -0.02182095 0.048344843 -0.057826437 0.066813454 -0.07521033
-0.029361231 0.029014504 -0.019279663 0.13005239 -0.08344338 0.04063396 0.0799015 -0.025442688
0.071831636 -0.12937342 -0.059445757 -0.10531677 0.022450568 -0.06303732 -0.09905494 -0.112477824
0.0012715795 0.09624224 0.11654269 -0.011692302 -0.025318619 -0.0898304 0.110120445 -0.11044534
-0.008610141 -0.05316947 -0.12435786 0.022299565 -0.079962954 -0.037200578 0.037320495 0.062972546

decoder.6.bias f4 [118]
00000000: 275d bcbb bf7c 7cbc 6d71 c2bc 91a1 b6bd
00000010: 3898 a1bd a859 c0bd 42d4 aa39 e614 cf3c
00000020: 2110 f23d c9bf 9b3c 2262 b7bd f0ea 0e3e
00000030: ac93 e9bc 2d9e 023e e527 103e 0db5 d93c
00000040: 8aab b93d 7fd7 183c f3b7 9a3d 00f1 c93c
00000050: e6b2 7abd 0cf8 c6bd 1ea6 bdbc abc1 d0bd
00000060: 3512 673d b5af 36bd a31e e2bd 0aa0 ffbb
00000070: b94f 553d 9115 4dbd 2206 df3c a5dd d03d
00000080: 1983 91bd 4a16 a0bd 3a5a aa3d 2a10 743b
00000090: f9d7 313d 8b18 12bd 6185 863d 028f 143e
000000a0: 980a 943d b9f8 b1bd 3055 bebd 620c abbd
000000b0: ec55 1f37 346f 63bd cab5 60bc 73db 00bd
000000c0: 7b80 cf3d fada 183d 3fd7 ccbd 71ad e0bc
000000d0: 9093 8fbd 9303 ff3c 4ce3 803d f04a 5c3d
000000e0: 61b4 373d f196 813d 1b36 86bd 873f b3bd
000000f0: 35d5 0bbd 0f06 d5bd 9380 663c b1ff 913d
00000100: ac62 45bd f59c ddbd 4316 f0bc ef57 423d
00000110: f3f2 c5bb bdde 2dbd 86bc 75bc a9e3 a73d
00000120: 6300 b23d 2c71 acbd 9744 373d aad7 5abd
00000130: 64ef a0bd 8f2b 7dbd 5e78 fabc c242 183d
00000140: 3ec5 523c 7b3a f4bc db12 4cbc c249 e93c
00000150: f246 86bd cac4 1fbd b374 013d 23c2 263d
00000160: 7232 e2bb 0c33 8ebc 13ab d0bd 0cfe 9cbd
00000170: dc65 b23d dbb2 a13d c5b7 653d f4da ec3d
00000180: 748d 8fbd 7486 8fbd 6895 9bbd cbb9 debc
00000190: 35f5 aa3d f8f8 bd3d ea4f fa3d 8821 8d3d
000001a0: 9c58 8abb 79ca 87bd c89b b5bd 2f4b 85bd
000001b0: 8f17 b7bd 8491 4cbd 8b77 0bbe 3d01 3d3d
000001c0: 36fd d53d f9b8 02bd 64a5 023e f4fa 87bc
000001d0: 1bfa d0bd feef 303d
-0.0057484093 -0.015410601 -0.023735726 -0.08917535 -0.078903615 -0.093921006 0.0003258307 0.02527852
0.118194826 0.019012349 -0.08954264 0.13956809 -0.028512798 0.12755652 0.14077719 0.02657559
0.090659216 0.009328722 0.07554617 0.02465105 -0.061205767 -0.0971528 -0.0231505 -0.10193189
0.056413848 -0.04460116 -0.11041 -0.0078010606 0.052077983 -0.050069395 0.027224604 0.10198525
-0.07105083 -0.07816751 0.083179906 0.003724108 0.04341886 -0.035667937 0.06568409 0.14507678
0.07228583 -0.08690018 -0.09293592 -0.08351971 9.497144e-06 -0.055525973 -0.013715217 -0.031459283
0.101319276 0.037318207 -0.100019924 -0.027426453 -0.07010567 0.031129634 0.062933534 0.053782403
0.044849757 0.06327618 -0.065532885 -0.08752351 -0.034138877 -0.10401546 0.01406874 0.071288474
-0.048189804 -0.10820953 -0.02930749 0.04744714 -0.0060409247 -0.042448748 -0.014998561 0.081977196
0.0869148 -0.08420023 0.044743147 -0.05342833 -0.0785816 -0.06180912 -0.030574974 0.03717304
0.012864409 -0.029813042 -0.012455667 0.028477553 -0.065565005 -0.039006032 0.031605434 0.040712487
-0.006902986 -0.017358325 -0.1018888 -0.07665643 0.087108344 0.07895442 0.05608346 0.115651995
-0.07009402 -0.07008067 -0.07596856 -0.027188202 0.08347551 0.09276003 0.12222274 0.06891161
-0.004221989 -0.066304155 -0.088676035 -0.06508481 -0.0894004 -0.049943462 -0.13619821 0.04614376
0.10448687 -0.031914685 0.12758404 -0.016599156 -0.10203954 0.043197624

estimation.0.weight f4 [10, 3]
00000000: 7f00 8bbe f403 ccbe cf34 33be 6e92 123f
00000010: 5720 8d3e 8e54 b43e 87ae 93bd b3a1 553d
00000020: 1f97 823e 39b5 453e e9e2 3ebe fe94 83be
00000030: 1064 98be 03cc 13bd f01d c5be a444 0dbe
00000040: f5d1 823e 90bc b33e 8bdc a2bd 49ff 883d
00000050: bd6b fcbe 3f1d 213e 6c43 f1bd c0eb 163e
00000060: 0424 e7be b3e3 eb3e 34dc e5bd ff2e cbbe
00000070: 7812 e73e 3aba 483e
-0.27148816 -0.39846766 -0.17500614 0.57254684 0.27563736 0.3522076 -0.07211023 0.05215616
0.2550592 0.19307412 -0.18641247 -0.2569961 -0.29763842 -0.036083233 -0.38499403 -0.13795716
0.2555081 0.351048 -0.079522215 0.06689317 -0.49300948 0.15733813 -0.11780438 0.14738369
-0.45144665 0.46072158 -0.11223641 -0.39684293 0.45131278 0.1960229

estimation.0.bias f4 [10]
00000000: b6e1 223f 3d13 d0be 67ff 85be 1515 8c3e
00000010: be1d c5bd e275 e43e 1a43 03bf 8ce4 d43e
00000020: 6079 1a3f 8ba1 b13e
0.6362566 -0.40639678 -0.2617142 0.27359834 -0.096248135 0.44621187 -0.51274264 0.41580617
0.60341454 0.3469356

estimation.3.weight f4 [4, 10]
00000000: 293c c7bd 4be6 ba3e 6bd4 36be f913 00be
00000010: 6e30 a03d 4007 fbbd 956d 253e cd1f 47be
00000020: 7034 0a3e fe98 953e 8984 8fbe 7b73 78be
00000030: ad04 be3d 290b 713e e740 7cbe 2023 cfbd
00000040: 07c6 013d 4345 a13c 1d3a 533d 3a19 7bbe
00000050: 5189 a63e 8201 273c c202 90be c36b 0f3e
00000060: ef84 1a3e 8543 363e ccc1 b4bd 1c2a 52be
00000070: 646d e73d a979 a13e 1a20 6a3e 218d d43c
00000080: d569 e73d 671a 153c 51d2 37be c61d a8be
00000090: 7a1b 773e e262 213e 2d62 94be cc31 b2be
-0.097282715 0.36503825 -0.17854469 -0.12507619 0.07821737 -0.12257242 0.16155083 -0.19445725
0.13496566 0.29218286 -0.28030804 -0.24262802 0.092782356 0.23539414 -0.24634133 -0.101141214
0.031682994 0.019686347 0.051569093 -0.24521342 0.3252664 0.010193231 -0.28127104 0.14005952
0.15089773 0.17799194 -0.08826026 -0.20523876 0.113001615 0.31538132 0.22863808 0.025946202
0.11299483 0.009100533 -0.17951323 -0.32835215 0.24131575 0.15760377 -0.28981152 -0.34803617

estimation.3.bias f4 [4]
00000000: 29da ecbd 96a7 1ebe 0d63 5e3d 534a 7a3d
-0.11565048 -0.15493616 0.05429368 0.061106037
